results/Prediction/2023-06-14/23:09:04.891048/models/model164.pth (torch, 340949 bytes, 34 tensors)

embedding.weight f4 [64, 92]
00000000: 9edd 56be 3210 df3f b5f6 25bf a0d9 693e
00000010: 5923 3ec0 7d42 1ec0 c770 a6c0 4cd6 5cc0
00000020: 1b6d 6fbf c9f6 8ebf e702 7c3f 45a2 7f40
00000030: 13b1 e23f f7a9 f83d 5294 06bf b0d1 26c0
00000040: c671 1abf 8031 d23f 33a0 1640 fb22 843c
00000050: e82f 3e3d c43e 03bf f018 57be 079b afbf
00000060: 599c 843e 4dd5 a1c0 1d1d c63d 136a 80bf
00000070: ed2a ebbf f91a 17c0 cb57 3bc0 40cb bd3e
00000080: 3727 4abf 21a2 b13f bb13 5ebe a102 a93f
00000090: 7f9f c23d e19c fe3e 2223 f7be 690c 9abf
000000a0: e19d d5bf 0b7b 4bbe 1a1a 8bbf b019 bc3f
000000b0: e2a8 8e3f 00e5 e6bf 828f d33f 7496 34bf
000000c0: 8935 d73d f969 e5bf 68c5 59c0 aa91 99bf
000000d0: ea9b 743f d567 10bf c564 96bf a8b1 65bf
000000e0: 58d8 7740 dcc9 4740 9dbc 0e3e 4494 10be
000000f0: c691 9cbe 7b00 813e dd63 1cc0 bfb1 9bbf
00000100: 514a 893e 4671 af3f 0e15 4b3d 249d e3bf
00000110: 03b4 a53f 2591 09bd 5df0 afbf aee8 953d
00000120: 1c7f 09bf 8a4f e93e a881 a2bf 70f0 0ec0
00000130: da1c a03c 6a20 c63f f5fe 893f f535 88bc
00000140: 8840 67c0 9cef 33be b9ea 043f 337f 83bf
00000150: aa6a 33c0 537f e1bf 9e2d bb3e 2043 27be
00000160: efae 4940 c0f5 0a40 68dc d53d df47 063f
00000170: 10dc 6abf 0c1e 04bf 3311 eabe a9b2 eabf
00000180: 81be 9ebf 9409 b93f afc7 3340 777f c43d
00000190: 7915 f33f 12a2 b13f b6c7 7d3f 4a91 11bf
000001a0: 49ff 1cc0 34c2 ddbe 48d4 cbbd 0f3f 173f
000001b0: 1b49 a7bd 6d35 ffbe 65a3 d3bf 32cf 0dbf
000001c0: 9c90 083e 9d64 b2bf dcaa 923e 770f 8b3d
000001d0: f1eb d4bc 88f5 353f 6fe5 80bf d6bd 35c0
000001e0: 9f0a 953f 4cdd d03f c405 ba3e 5716 27bf
000001f0: 87c0 c23d ee4b 23bf 0a0a 333f 4a53 b0bf
00000200: f51c 13bf f3d2 de3e e29d 823f bbaf 823f
00000210: 1884 8d3f b77d e8bf 9ae1 8dbf 70e6 05c0
00000220: 9a49 84bf 7696 91bf 0fd6 dbbe 0fb5 9ebf
00000230: 5a00 67bf 9ca0 81bf fd98 9f3f 2e7e 783f
00000240: 1406 43bf f1df db3f 316b 9f3f ace2 293f
00000250: 5689 20bf fa3f 02c0 33a0 81bf c6b7 0ebf
00000260: da96 943e 4551 ebbf 7e20 0c40 be52 1e40
00000270: 0409 9fbe 5c88 b1bf 63e3 8bbd d726 a3bf
00000280: db4a d2be b2d2 9ebc 3e7d e9be 43e4 bb3d
00000290: c3c5 213f d267 053e 315b 583f be92 0cc0
000002a0: fa0a 553d 2627 e4be 604a 80bf b2f0 21bf
000002b0: 29c6 353f d632 74bf 73f7 9d3f dd83 73bf
000002c0: f05b d03e 76bb 3a3f 16cd f2be db84 d6bf
000002d0: 9877 a5c0 2cc7 43c0 c357 be3e d25e edbf
000002e0: 2ba5 e8bf 9ae6 003d 302a a8be 18ef 643f
000002f0: e6ec 05c0 7d16 d2bf 5fd8 213f 21a4 51c0
00000300: 9d26 95c0 53fe af3e dca4 1140 e5c4 323f
00000310: b349 e0bf bd00 103f 7f3a 873f 7acd 383f
00000320: e614 bcbe 5089 253f ce9b 95c0 e1fc a83f
00000330: 24d7 14c0 1149 3f3f 67bf 01be 2406 be3e
00000340: 5589 953e 359f f33f 80ef d5bf cf3c 71c0
00000350: b593 a9bf 4a7f c63f 636a 953e dcd5 143f
00000360: b1d4 38bf b437 e03d d470 56be 89de b33e
00000370: 2ea0 933f b7f0 dbbd 723e 95c0 1693 a03e
00000380: 63f3 e93e b122 923c e721 c2bf 994d 6f3f
00000390: 954d 14c0 a6fb 48be 931c a6bd 51d6 e6bf
000003a0: 2f0f 3a3f 3390 7b3f f301 db3e 9737 acbe
000003b0: 745b d3bd 9792 a3c0 d511 3c3e 8dd4 c43f
000003c0: 441c 3c3f 7bb2 8bbe 4bee cbbf fdd3 81bf
000003d0: 4d01 203f f636 773e d2b6 e6be 411e 0cbf
000003e0: ef7c 8d3e dbcb cc3e 0ddf 98bd bfc7 333f
000003f0: 237e b4bf 59d1 c5bc 6b41 5bc0 0eeb 943c
-0.20982978 1.7426817 -0.6482957 0.22836924 -2.9709074 -2.4728081 -5.201267 -3.4505796
-0.93525857 -1.1169063 0.9844193 3.9942791 1.7710289 0.12141793 -0.5257007 -2.6065483
-0.60329854 1.6421356 2.3535278 0.016129961 0.046432406 -0.5126765 -0.21005607 -1.3719186
0.25900534 -5.0572877 0.09673522 -1.0032371 -1.8372475 -2.3610213 -2.9272335 0.3706913
-0.7896609 1.3877603 -0.21687214 1.3203927 0.09503078 0.49729064 -0.48268992 -1.2035037
-1.6688806 -0.19871156 -1.086734 1.4695339 1.1145289 -1.8038635 1.652817 -0.70542073
0.10508258 -1.7922965 -3.4026737 -1.1997578 0.95550406 -0.56408435 -1.1749502 -0.89724207
3.8725796 3.1216955 0.13939138 -0.14119059 -0.30579966 0.2519568 -2.4435952 -1.2163619
0.2681451 1.3706443 0.049580626 -1.778233 1.294556 -0.033585686 -1.3745228 0.07319771
-0.5370958 0.45568496 -1.2695818 -2.2334251 0.019545007 1.5478642 1.0780932 -0.016627291
-3.6133137 -0.17571872 0.5192066 -1.0273193 -2.8033853 -1.7616981 0.3655824 -0.163342
3.151302 2.1712494 0.1044243 0.52453417 -0.9174204 -0.5160835 -0.45716247 -1.8335773
-1.2401887 1.4456048 2.8090627 0.095946245 1.8990928 1.3877585 0.9913286 -0.5686232
-2.4530814 -0.43312228 -0.09952599 0.59080595 -0.08168241 -0.49845448 -1.6534239 -0.5539428
0.13336414 -1.3936955 0.2864598 0.06790059 -0.025991412 0.71077776 -1.0070018 -2.8397117
1.1643866 1.6317534 0.36332524 -0.6526846 0.09509378 -0.63787735 0.69937193 -1.3775418
-0.5746606 0.43520316 1.0204432 1.0209879 1.1055937 -1.8163365 -1.1084473 -2.0921898
-1.0334961 -1.1374042 -0.4293675 -1.2399005 -0.9023491 -1.0127139 1.2468563 0.97067535
-0.7618115 1.7177716 1.2454587 0.663615 -0.6270956 -2.0351548 -1.0127014 -0.55749166
0.2902134 -1.8384176 2.1894832 2.4738002 -0.31061566 -1.3869739 -0.0683048 -1.2746228
-0.41072735 -0.019387577 -0.45603365 0.09174397 0.63192385 0.13027886 0.8451415 -2.1964564
0.05201242 -0.44561118 -1.0022697 -0.63257897 0.71005493 -0.9539007 1.234114 -0.9512308
0.40695143 0.7294229 -0.47422093 -1.6759294 -5.170849 -3.0590315 0.37176332 -1.8544562
-1.8175405 0.03146992 -0.32844687 0.8942733 -2.0925841 -1.6413113 0.6322078 -3.2756426
-4.6609635 0.3437372 2.2756872 0.6983169 -1.7522491 0.56251127 1.0564727 0.7218853
-0.36734694 0.6466265 -4.675269 1.3202173 -2.3256311 0.74720865 -0.1267067 0.3711406
0.2920634 1.9032961 -1.6713715 -3.7693365 -1.3248202 1.5507596 0.2918273 0.58138824
-0.7219954 0.109481245 -0.20941478 0.35130718 1.1533258 -0.10739272 -4.6638727 0.31362218
0.45693502 0.017838808 -1.5166596 0.9347778 -2.3172352 -0.19627246 -0.08110919 -1.8034154
0.7267942 0.98266906 0.42774925 -0.33636162 -0.10320178 -5.1116443 0.18366177 1.5377365
0.7348063 -0.27284607 -1.5932096 -1.0142819 0.62501985 0.2414206 -0.45061356 -0.54733664
0.2763438 0.3999928 -0.074644186 0.70226663 -1.4100994 -0.024147676 -3.4258678 0.018178489

convs.0.fc_full.weight f4 [128, 169]
00000000: d5a4 2ebf 9aa1 ac3f e8b5 c7be 1b39 b9bf
00000010: 5ec4 9f3f 6e4f c53f c490 01bf 2e18 bfbe
00000020: 2aee 0dc0 a77b 05c0 aaff 3dbf ca62 a03e
00000030: 5bef aa3e 133a c3bf ebf1 98be b64c 9bbf
00000040: 0614 a3bf 2b56 07c0 8e63 b83e 7dd8 26be
00000050: 7e69 c7bd 41d3 143f dc94 09bf f53e e33f
00000060: 4c02 e63d 08a1 02c0 fbbb 8cbe 739f ac3f
00000070: da90 d8be ea14 eabe e244 a9be 3a50 903f
00000080: d632 26c0 7184 043f 242b e6bf b52f ce3f
00000090: f41e 5ac0 d010 ebbf bba5 03c0 c814 9f3f
000000a0: 9bf0 18bf 3978 123e 635f 03bf 721e 96bf
000000b0: 6071 81c0 8aaa 9abf 4f0b 7bbf c023 8ebf
000000c0: e5f5 d73f 431b 8a3d b36e 9b3f 19f0 d1bf
000000d0: 7de7 74be 075e 4d3e 3963 95bf 36aa 71bf
000000e0: 84a0 db3f f6ba 463f 167b efbe e8e0 803f
000000f0: c4a8 f6bf fd7e 6c3f c357 4c3e 73b3 49c0
00000100: 5646 94c0 eb74 01bf 157b e7bf 9a1c dbbd
00000110: 533f 6c3f b813 0cc0 e8d4 0e40 9471 c93f
00000120: 4516 6040 5d94 32c0 0736 c63f c095 5dbf
00000130: d90a 17bd 4508 47bf 2c31 6640 8f04 a63f
00000140: 7f32 0140 0be2 a1bf 317d 04c0 9b7e db3f
00000150: 5110 2440 3940 b4bf 82c8 4b40 7b98 c2be
00000160: 2d39 12c0 b388 57bd 0398 763f baab 66bf
00000170: 9328 24c0 ca1e ecbb ed54 1c3f 1703 5bc0
00000180: 63b9 44bf 4de0 d5bc 1422 1740 0264 143f
00000190: 8c5c b8bf 66f3 c73f c9a1 a640 b0db 0340
000001a0: b77e a4be 4193 563f d756 4bbf 4ffe 2940
000001b0: 9a78 563f 07f8 273f 4b91 dd3f 768f 5940
000001c0: f010 92be db2c 43bf 0cf4 e6be 596d 4440
000001d0: 6ba3 a43f 82be b9bf 8d8c 5b3f 73b2 31c0
000001e0: 76ce 3fc0 50f2 babd e999 b63f a1e7 3640
000001f0: 1264 40be ce2f 1bc0 d453 0a40 44e0 f7bf
00000200: 67cf 913d 0396 f43c 9ee5 7f3e 548d 0f40
00000210: 9256 8e40 3b0c 9f40 6c59 2440 072e a840
00000220: e81b e940 6603 9440 9fbe af40 add3 113f
00000230: 5bb1 b63e db52 38c0 a675 43c0 82f8 f7bf
00000240: 157c cb3f 93c4 1f3f bd6e b13e d93f 4b3f
00000250: 41b7 f0c0 60c6 e4c0 76ba 183d a886 3440
00000260: 4d0e 2f40 c620 74bf f517 a33e 7921 2940
00000270: c94e f9be 18bf 62bf 4a3c 5640 bbdb 8840
00000280: 1b5b e83e 7637 c6bf 2b9b 65bf 03db afbe
00000290: 81b3 603c 423c 343b 14a1 243b fcbd d8bc
000002a0: 970c 613d fa8e 75bc 8468 c2c0 34f6 8dbf
000002b0: 10f4 853f 695d 74be 806c bebf 6f92 083f
000002c0: b1a7 263e 44d7 a83f a061 743f 8590 de3f
000002d0: e2d7 52bf 8fd6 843f 02e0 a83f f1a7 923e
000002e0: 0883 1d3f 5eaa 16bf dca8 a03f 0beb 66bf
000002f0: 428e 43bd ff24 213e 1557 2abf 9a02 f33d
00000300: d1e6 dabd f1bb 3a3e 33c3 7e3f 9272 0f3f
00000310: 397e c9bf 10c9 47bf 950d 84bf c578 4f3d
00000320: 0faf aabf adb5 a7bd e29a 75bf e1d8 9b3f
00000330: 4c8b 8ebe c1d1 d0bf 3b61 9dbf 56c4 863f
00000340: 52db 3f3e e342 933e 6a3a 37be 060c 2abf
00000350: 3cdd 9e3f d38e e93f 325c abbf 9f74 82bf
00000360: 91d8 cc3e 4411 3cbf 89aa a7bf 3376 efbf
00000370: f3ae b63f 7406 cb3f c3f2 a5bf 1389 553f
00000380: 20f3 b7bf ac23 90be 84e0 02be f5dc 423f
00000390: b1d5 89bf 80bb 983f 0d3b 50bf 3ff5 793e
000003a0: 3983 04bf 39d2 503f 5b3d 92c0 e31d 6440
000003b0: 6a4b 88be e72c 2240 efad 0e40 4fc7 b23e
000003c0: 8352 b3bf 21fb bebe 7031 5fc0 12b6 77bf
000003d0: f434 1ac0 d7d9 6640 c9b5 aabf 324a ed3b
000003e0: 6e66 45c0 dc1b a7bf 9999 2b40 d4ac b6bf
000003f0: 8892 dcbf 2fc3 dabf 6487 d93f ee82 aabf
-0.68220264 1.3486817 -0.3900597 -1.4470552 1.2481802 1.5414865 -0.5061152 -0.37323135
-2.2176614 -2.0856721 -0.7421824 0.3132537 0.3338574 -1.5252098 -0.2987207 -1.2132785
-1.2740486 -2.1146343 0.36013454 -0.16293521 -0.09736918 0.5813485 -0.53742766 1.7753588
0.11230907 -2.0410786 -0.27487168 1.348616 -0.42298013 -0.4571908 -0.33060366 1.1274483
-2.5968528 0.5176459 -1.7981915 1.6108309 -3.4081392 -1.8364506 -2.0569904 1.2428217
-0.59742135 0.14303674 -0.51317424 -1.1728041 -4.0450897 -1.2083294 -0.9806413 -1.110466
1.6871916 0.06743481 1.2143158 -1.6401397 -0.23916431 0.200554 -1.1670905 -0.94400346
1.715836 0.7762903 -0.46773595 1.0068636 -1.9270253 0.9238127 0.19955353 -3.1515777
-4.633586 -0.5056903 -1.8084437 -0.10698815 0.92284125 -2.1887035 2.2317448 1.5737786
3.5013592 -2.7903054 1.5485238 -0.86556625 -0.03687558 -0.77746993 3.5967512 1.2970141
2.018707 -1.2647108 -2.070141 1.7148012 2.5634959 -1.4082099 3.184113 -0.38006958
-2.2847397 -0.0526206 0.963257 -0.90105784 -2.5649765 -0.007205819 0.61067086 -3.4220636
-0.7684538 -0.026107932 2.361455 0.579651 -1.4403243 1.5621154 5.207249 2.0602837
-0.32127926 0.8381844 -0.7942938 2.6561468 0.83777773 0.65612835 1.7309965 3.3993812
-0.28528547 -0.7624032 -0.45108068 3.069174 1.2862371 -1.4511263 0.8576134 -2.7765167
-2.9969764 -0.09128249 1.426572 2.8578875 -0.18788174 -2.4247928 2.1613665 -1.9365315
0.07119637 0.029856687 0.24989936 2.243001 4.4480677 4.970243 2.5679579 5.2556186
7.2846565 4.625415 5.492019 0.56963617 0.35682186 -2.880057 -3.0540557 -1.9372714
1.5897242 0.62409323 0.346548 0.793943 -7.52237 -7.1492157 0.037287198 2.8207188
2.7352479 -0.9536251 0.31854215 2.642668 -0.4869292 -0.88572836 3.3474298 4.2768226
0.45382008 -1.5485675 -0.8968989 -0.3434678 0.013714672 0.0027501737 0.0025120424 -0.02645778
0.054943647 -0.014987702 -6.0752583 -1.109076 1.0465107 -0.23863758 -1.4876862 0.5334844
0.16274907 1.3190694 0.95461464 1.7387854 -0.8236066 1.0377978 1.3193362 0.28643754
0.6152806 -0.5885371 1.2551532 -0.902024 -0.04774309 0.15736769 -0.66539127 0.118657306
-0.10688556 0.18235756 0.995166 0.56034195 -1.5741645 -0.7804117 -1.0316645 0.050652284
-1.3334674 -0.08188949 -0.9593946 1.2175561 -0.2784065 -1.6314012 -1.2295297 1.0528667
0.18736008 0.28761968 -0.17893377 -0.66424596 1.2411265 1.8246711 -1.3387511 -1.019184
0.40008977 -0.73463845 -1.3098918 -1.8707947 1.427214 1.5861344 -1.296471 0.83412284
-1.4371071 -0.28152215 -0.12780958 0.76118404 -1.0768338 1.193222 -0.81340104 0.2440996
-0.5176273 0.81570774 -4.5699897 3.5643241 -0.26620036 2.5339906 2.229366 0.34917685
-1.4009556 -0.3730097 -3.4873924 -0.9676219 -2.409482 3.607046 -1.3336726 0.007241511
-3.0843768 -1.3055377 2.6812499 -1.4271493 -1.7232218 -1.7090815 1.6994443 -1.3321207

convs.0.fc_full.bias f4 [128]
00000000: 29d2 5b3d 4c3f cdbd 61b2 34bd 8e0e 20bd
00000010: 28fd 273c d3c2 6dbd de3e 64bc a261 80b9
00000020: eb10 acbd 31d6 91bc 5a19 b33d 1892 7d3d
00000030: 0021 653d cd45 3cbd 5c53 933d f124 553b
00000040: 0ad3 9e3d 7595 dbbc 8539 633d 4f4b 523c
00000050: faf6 b93d 1f89 673d 8582 933c 0437 92ba
00000060: b58c dc3c 748c 243d fbf0 8cbc 1c87 813d
00000070: eace 19bd 6981 f239 6e15 4cbd 94ce dd3c
00000080: 1c67 5d3d 7055 f23c 3877 153d 0e01 393c
00000090: 3212 13bb 29e4 77bd 1761 57bd 5959 b2bb
000000a0: 6c7b 663d 97b6 54bc 6867 bbbd 0597 5d3d
000000b0: 5fd4 61bc 4930 a53c ba1f 753c 6511 163d
000000c0: 3411 363c 4306 9fbd 71ee 23bd 0a49 82bd
000000d0: a5a8 983d aeca dabb 441e 403d 6c17 b0bd
000000e0: 721f 2e3d 979f b1bd f447 5f3d e894 a1bd
000000f0: 0fa1 53bb b8c8 2d3d 224f 563d ccb5 8c3d
00000100: 00c5 acbd bb82 563d c422 c6ba 8aa5 b1bc
00000110: d8e1 87bd 6a8b e6bb a6ed 36bc 745f 9b3d
00000120: 5329 203c bf8f 1cbd 0433 a0ba 119d b5bd
00000130: 4439 c33d f358 62bc dbab c03d 25b2 5dbc
00000140: 5d1a d0bd 6820 cbbb 2431 b83c 4855 a6bb
00000150: 1656 9f3c 08a7 91bd 00a6 103d 9eeb 5c3c
00000160: d027 ea3c 907b d93c 2e5a ecbc 048f 80bc
00000170: e99a 79bd cb01 853c 5e6b 35bd b96b 863c
00000180: bb53 e6bc 668a b73d d1cd 1f3d b9ef c13d
00000190: ee20 5f3d f395 88bd 05c5 ae3d a399 85bc
000001a0: 380f 943c 5b3e 8d3b 0362 a23c 83a1 efbd
000001b0: 6f4b 39bd 01d0 223d 3da0 263c 3bec 2bbd
000001c0: e9a5 edbc 166f c83c c522 2b3d fb0b 58bc
000001d0: 6ab7 943d 0247 a5bd d64a 0b3d 31a3 a43d
000001e0: 9ec5 72bc 65e5 d7bd 3768 ba3d cb26 513d
000001f0: 9ae9 203d e12f a4bc 8ac6 8bbc 17ba a5bd
0.05366722 -0.100218385 -0.044115428 -0.03907638 0.010253228 -0.058047127 -0.013931004 -0.00024486805
-0.08401664 -0.01780233 0.0874507 0.061906904 0.055939674 -0.045965005 0.07193634 0.003252324
0.07755096 -0.026804665 0.055474777 0.012835338 0.0908031 0.056527253 0.018006572 -0.0011155312
0.026922563 0.04017301 -0.017204752 0.06324598 -0.037550844 0.00046254255 -0.049825124 0.027076043
0.05405341 0.029581755 0.03649065 0.011291755 -0.0022441265 -0.060520325 -0.052582826 -0.00544278
0.056270048 -0.012982986 -0.091505826 0.0540991 -0.013783543 0.020164626 0.0149611775 0.036637682
0.0111125 -0.07764866 -0.040022317 -0.06361587 0.074540414 -0.0066769933 0.046903864 -0.08598217
0.042510457 -0.086730175 0.05451198 -0.0788973 -0.0032292043 0.04242775 0.05232156 0.068706125
-0.08436012 0.052370768 -0.0015116562 -0.02168538 -0.06634873 -0.0070356624 -0.011165058 0.075865656
0.009775477 -0.038223024 -0.0012222235 -0.08867849 0.09532407 -0.013815152 0.09407779 -0.0135312425
-0.101612784 -0.0061989315 0.02248437 -0.0050760843 0.019450229 -0.07111937 0.03531456 0.01348391
0.028583437 0.026548177 -0.028851595 -0.015693195 -0.06093875 0.016236207 -0.044291846 0.016408788
-0.028116098 0.08961944 0.03901464 0.094695516 0.054474764 -0.066692255 0.08533672 -0.016308611
0.018073663 0.004310412 0.019822126 -0.11700728 -0.045237955 0.03974915 0.01017004 -0.041973334
-0.029009776 0.024467032 0.041781206 -0.01318645 0.07261546 -0.08070184 0.034006916 0.08038939
-0.014817623 -0.105418004 0.09101909 0.051062386 0.03928528 -0.020042362 -0.017062444 -0.080921344

convs.0.bn1.weight f4 [128]
00000000: 0f85 fd40 96a0 ff3f 84d1 a040 9bcf cc40
00000010: 4a22 ac40 4c3d 0141 9238 ee3e 5399 0641
00000020: b173 db40 3e70 7e40 00da 3540 ee0d 9e40
00000030: 3a1a f840 8273 a040 2857 e740 d774 aa40
00000040: 45e5 6e40 1620 6540 061a 1340 2ddf 5840
00000050: 4b3d d140 feb0 193e 71bb 9440 5bb9 9d40
00000060: 6cbf 9340 407b 8640 ff0b 5740 ae6b f740
00000070: 5f74 9840 eeac 3440 9c3f 1440 89d1 5740
00000080: 2f0c ae40 a530 bb40 dc5f a040 1188 df40
00000090: ccf4 8e3f bc78 df40 9c23 7a40 51e7 7040
000000a0: 35f9 a140 8c02 af3f 408a ba40 cd27 9140
000000b0: c64f 6040 09f2 6840 96d5 be40 89cb 2e40
000000c0: c1a1 a8be 585d 613f 5dfd 6f40 b421 7440
000000d0: e81b a940 aeef 9b40 71a4 a740 41d5 a640
000000e0: 6592 cd3f cc1b 8840 8feb 0c40 6a7d ba40
000000f0: be9e d240 2982 5440 eb52 d440 e23f 8240
00000100: ba07 f63f 1177 853f a0d7 7740 1466 cc3f
00000110: 2746 4840 bc39 1b40 196e 0c40 a0d0 3540
00000120: 01df f33f 5b45 cf3e b20a 4340 8c6b ef3f
00000130: df3d da40 364b 6d3f 08ea c93e 83c3 7f40
00000140: 922e 073f 5b2d 4b40 8df1 003f aa96 a13e
00000150: d7ee 683f 1f2d a23f 17fd 1d40 1840 ab3f
00000160: 953d 5140 9c27 833f 173c e73f 4a40 5a3f
00000170: c1a3 e83f 812e e73e 0474 103e 7f4f 043f
00000180: 3d56 8c3f ab5b 0c3f a022 36bf fa62 453f
00000190: 00f0 ac40 5938 833f 8569 5f3f 4748 943f
000001a0: eaa9 b73f f768 5a40 11db db3f cc72 bc3e
000001b0: f75f 2840 0b5f 5240 3bd0 ac3f 17e1 c440
000001c0: 020e 953f a3a6 9b40 1066 f03f 0bc1 bf3f
000001d0: e511 fe3e d253 113f 2181 6e3f f9a3 cb3e
000001e0: 40b8 ac3e 0e06 863f d27c 6540 4cc7 3e3f
000001f0: 038a 5a3f b1d3 8840 3767 7a3e 114b f73f
7.9224925 1.9970882 5.0255756 6.4003425 5.3791857 8.077465 0.46527535 8.412433
6.8578725 3.9756007 2.8414307 4.9392004 7.7532015 5.0141 7.229389 5.3267627
3.7327435 3.5800834 2.2984633 3.3886216 6.538732 0.15008923 4.647881 4.9288764
4.617117 4.202545 3.3601072 7.7318945 4.7642055 2.8230548 2.3163824 3.372164
5.4389873 5.849688 5.0117016 6.9853597 1.1168456 6.983488 3.9084234 3.7641184
5.061671 1.3672652 5.829376 4.5361085 3.504869 3.6397727 5.9635725 2.7311728
-0.32935908 0.88033056 3.749839 3.814557 5.2846565 4.873008 5.2388234 5.213532
1.6060301 4.253393 2.2018774 5.8278093 6.5818777 3.3204443 6.635122 4.070298
1.9221108 1.0426961 3.8725357 1.5968652 3.1292818 2.4253988 2.1942198 2.8408585
1.905243 0.40482602 3.0475278 1.8704696 6.8200526 0.9269289 0.39436364 3.996308
0.52805436 3.1746433 0.5036858 0.3156026 0.9098944 1.267002 2.4685724 1.3378935
3.2693837 1.0246463 1.8065213 0.8525435 1.8174974 0.45152667 0.14106756 0.516838
1.0963818 0.54827374 -0.71146584 0.7710415 5.404297 1.0251571 0.87270385 1.1584557
1.4348729 3.4126565 1.7176229 0.36806333 2.6308572 3.287051 1.3501047 6.152477
1.16449 4.8640914 1.8781147 1.4980787 0.49623027 0.56768525 0.93165785 0.3977354
0.33734322 1.0470598 3.5857434 0.7452285 0.8536684 4.275841 0.24453436 1.9319783

convs.0.bn1.bias f4 [128]
00000000: 4536 8b3e bd84 5c3f 0e62 5fbf be39 673f
00000010: 1157 7b40 07b9 6fbf f306 bebf 60a2 523f
00000020: b88f 85bd baf6 5440 55e4 8c3f fa6e a03f
00000030: b3d2 37be ffdc 0c40 5121 dd3f 7d9b cd3e
00000040: ada3 3b40 9bf9 603f f2b5 4240 25fe 0a40
00000050: f5d3 dfbd 0e2c e73f 7df9 25bf 563c e93e
00000060: d4ed 3c3f d865 ac3e d8fd 043f 8621 a63f
00000070: 11e9 7b3f c5ee f43f 00cb 5740 91f5 913f
00000080: c205 1240 38e1 1140 3f10 6240 ea81 933f
00000090: 5b7d 2bc0 2702 923f 084d 9dbf 1acd cd3f
000000a0: 4d98 c33f edeb e7bf 7768 803f 3c4d 0140
000000b0: e214 e0bf c5fe d6be d374 afbd 5641 16bf
000000c0: 86f5 8340 1a3f 8bbf fbd2 4f3f aa85 7e3f
000000d0: 8f7a 573f 1545 1540 2681 aa3f 6d61 6c40
000000e0: ec34 0540 3a30 88be 9aca 1cbe 0369 2c3e
000000f0: b5c4 9e3e 42b4 163f d58f 90be c9a9 3cbe
00000100: f66c 423f 6fb5 3040 9e48 e43f 3b8e bf3f
00000110: 881a 043f 2c62 a43f 3d81 d1bf 94b3 9b3e
00000120: f5ff 00c0 763f 2f41 500c 1140 ad6b 9040
00000130: d211 f63f 6afd ef3f b561 8840 2a1a 7b3f
00000140: 316f 4abf 48c1 a53f 5de6 8140 a02d 5940
00000150: 24c0 de3f f6eb f53e 952c 9c3e b90a 3a3f
00000160: ab13 d93f c5a9 acbe daa9 9b3e 5560 5040
00000170: 9f86 d53f 826c c440 863c cd40 b9de b040
00000180: 8f89 af3f 658e 6240 d113 0141 2b0d 2640
00000190: 6f60 32c0 d897 2e40 7dff 5340 9dcb d73f
000001a0: f062 0340 7a6c bebf ccdc 963f fef9 d140
000001b0: a3b0 433f 4191 e3bf dbd6 1640 2048 dcbf
000001c0: 3872 6540 a4c3 09bf 512f 813f 342f cf3f
000001d0: 74db 2b41 2268 9940 bd39 3a40 b820 d640
000001e0: 3876 0240 cb3c 3140 51ad e6bf 729b 4d40
000001f0: 534e 3440 c625 663f cab9 f73f 2532 b73e
0.27189842 0.8614004 -0.87258995 0.9032248 3.927189 -0.93641704 -1.4845871 0.82279015
-0.06521553 3.327559 1.1007181 1.2533867 -0.17951469 2.2009885 1.7275792 0.4015769
2.931865 0.8788087 3.042355 2.1717618 -0.109290995 1.806032 -0.64833814 0.45553845
0.73800397 0.3367145 0.51949835 1.297898 0.98402506 1.9135367 3.3717651 1.1403066
2.2816014 2.2793713 3.5322416 1.1524022 -2.679526 1.1406907 -1.2289133 1.6078217
1.5280854 -1.8118874 1.003188 2.020339 -1.7506373 -0.4199125 -0.08567204 -0.58693445
4.123721 -1.0878632 0.81181306 0.99422705 0.84171385 2.3323414 1.3320663 3.6934464
2.081355 -0.26599294 -0.15311661 0.16836934 0.3100945 0.588688 -0.28234735 -0.18424143
0.7594751 2.7610738 1.7834661 1.496528 0.51602983 1.284246 -1.6367565 0.30410445
-2.0156224 10.952993 2.2663765 4.513144 1.9224188 1.8749211 4.261927 0.980868
-0.79075915 1.294961 4.0593705 3.3934097 1.7402387 0.48031586 0.30502763 0.7267261
1.6959127 -0.33723274 0.30403024 3.2558796 1.6681708 6.1382456 6.413638 5.527188
1.3713855 3.539941 8.067338 2.5945537 -2.7871358 2.7280178 3.3124688 1.6859013
2.0529137 -1.4876854 1.1786132 6.5617666 0.764414 -1.7778703 2.3568637 -1.7209511
3.5850964 -0.5381415 1.0092565 1.618628 10.741077 4.7939615 2.909774 6.691494
2.0384655 2.7693355 -1.8021642 3.2126126 2.8172805 0.8990139 1.9353573 0.35780445

convs.0.bn1.running_mean f4 [128]
00000000: 66a9 f840 4ace b642 7a33 af42 011a d1c1
00000010: d6af 56c2 66ca 0743 d95a 83c2 f5fa 3343
00000020: 81af 3d42 f5a4 a942 f4d1 9842 218d 3e42
00000030: e0d1 afc2 8476 c541 387f 8a43 e757 9ec2
00000040: e868 4dc2 8afc e842 168b 3243 d179 ffc2
00000050: b79e cf42 deb3 fc42 d319 46c3 9271 0243
00000060: 9d37 a5c2 9a6b b742 a936 13c2 5b69 a542
00000070: 4f85 f3c2 95c1 4642 d3ef 2d43 68bb 67c2
00000080: 2a26 a0c1 b4d7 a6c2 d7b1 5ec2 48b1 2743
00000090: c7ca 5242 6e62 47c2 219e 6641 da8a a740
000000a0: 28d4 7ac2 5013 0b41 a65c 3342 62c6 3242
000000b0: 2298 2cc2 18f6 1443 f1fa f342 4674 93c2
000000c0: 0607 4443 bbe6 d541 9bdd 8a42 28ac 32c3
000000d0: f8bb dcc2 8065 5c41 371c b8c2 6e18 c342
000000e0: 229e 3b42 1da6 38c1 c4df 58c2 e326 e841
000000f0: ddad 8341 20d0 07c3 592a a1c2 08a0 3642
00000100: 6284 14c0 8c51 ab42 de98 a242 4746 9942
00000110: ba41 e642 9ba2 af41 31c0 b6c2 f74a e841
00000120: 3ad9 ea41 c82d d342 e952 de42 1e22 e1bf
00000130: 779c 7542 edf8 1fc3 6929 5d43 ad6d 3dc0
00000140: bb16 1f42 35a0 1043 98f4 9b41 9a7f 5bc3
00000150: 1821 e2c0 9bb0 cc42 594e 9a42 918c d8c2
00000160: d5a0 3e43 0e31 cd41 1efb b3c1 0cd9 2b43
00000170: 4612 8bc2 3257 ba42 c055 8843 1088 a7c2
00000180: 7713 c441 294c 7442 ead7 f7c2 1f31 6c42
00000190: b18c 2041 5235 c542 1a59 c042 db7b 4cc2
000001a0: c83d 2bc3 972f f341 66d9 8042 a37e 6743
000001b0: 4165 50c2 2d30 9142 0f62 d441 b39a 96c0
000001c0: f286 7043 45eb c3c0 4c6b 0843 69cc 8542
000001d0: 030f 4cc3 bda7 b143 6cb7 0641 d463 0443
000001e0: 58a2 c142 9075 53c1 d99d 9542 1cc6 8342
000001f0: 94ff 65c0 a01a b2c2 7c5a 4943 5f1d 2942
7.7706785 91.40291 87.60054 -26.137697 -53.671715 135.79062 -65.67744 179.9803
47.42139 84.82218 76.410065 47.63782 -87.90991 24.682869 276.9939 -79.171684
-51.352448 116.49324 178.5433 -127.73792 103.80999 126.3513 -198.10088 130.44363
-82.60862 91.71016 -36.80338 82.70577 -121.76037 49.689045 173.93681 -57.933014
-20.018635 -83.421295 -55.67367 167.6925 52.698025 -49.846123 14.413606 5.2356997
-62.707184 8.692215 44.840477 44.693733 -43.148567 148.9613 121.99012 -73.7271
196.02744 26.737661 69.43282 -178.67249 -110.36713 13.77478 -92.05511 97.547714
46.904427 -11.540555 -54.21852 29.018988 16.459894 -135.81299 -80.58271 45.65628
-2.32058 85.65927 81.29857 76.63726 115.12837 21.954397 -91.375374 29.036604
29.356068 105.58942 111.161934 -1.7588537 61.402798 -159.97237 221.16176 -2.959819
39.772198 144.62581 19.49443 -219.49844 -7.06654 102.34493 77.15302 -108.27454
190.62825 25.648952 -22.497616 171.84784 -69.53569 93.1703 272.66992 -83.76575
24.509504 61.074375 -123.92171 59.04797 10.0343485 98.60414 96.17403 -51.120953
-171.24133 30.398237 64.42461 231.49467 -52.09888 72.59409 26.54788 -4.706384
240.52713 -6.1224694 136.41913 66.89924 -204.05864 355.31046 8.419781 132.38995
96.81708 -13.216202 74.8083 65.88693 -3.5937243 -89.052 201.35345 42.278683

convs.0.bn1.running_var f4 [128]
00000000: 14f6 1a47 31ff fc46 11f0 e146 8c3f cb46
00000010: 3fbe d246 4dd3 fe46 2025 f146 3782 9846
00000020: bffb f846 9769 8c46 4545 d246 2c4f 3646
00000030: dad6 ad46 7965 b546 f9c9 1c47 b7cf b846
00000040: 64e8 1747 d745 be46 acf5 7c46 70eb 9346
00000050: 6427 a846 3905 b246 41ff ef46 51aa a146
00000060: 7bdb cd46 845f e646 2a72 7846 e9c3 2247
00000070: 6c01 8346 849d 6046 9e32 1b46 1287 a946
00000080: 4e80 a146 2d60 ce46 871e ea46 d293 8346
00000090: a7af b246 0d40 e346 bda0 e946 defd ab46
000000a0: 81c2 5c46 3773 0c47 f092 cb46 2c02 c446
000000b0: 74b5 b746 d3cf 2447 b1aa 4a46 3ccd 4046
000000c0: 3d1f 1447 df1f 2a47 72fd d146 cbb3 1c47
000000d0: ae28 3a47 8d67 e346 6778 2947 1f7c 2247
000000e0: 8b77 9946 f337 1547 85e5 b946 e92e a946
000000f0: e544 cc46 3eb2 0647 a544 8d46 d174 2b47
00000100: 3f33 ed46 ef0f 0c47 d0b8 0e47 a087 1b47
00000110: 40e8 1447 b3c8 0b47 2a64 7346 d630 a546
00000120: 46c6 eb46 cf96 0247 a0bd 1e47 f683 a446
00000130: 10de 0547 904d e746 e3d3 7847 973d c246
00000140: 90d1 8746 5d01 e246 cd06 ac46 4d1d c446
00000150: 8848 d946 cfbc 1147 ae12 cf46 7d92 8646
00000160: 38da 5147 6245 2e47 f39b da46 212b 2347
00000170: e611 9946 2b44 b546 eec3 2047 bfc1 7c46
00000180: b5fe 8646 c269 bc46 117d 5347 f2ee dc46
00000190: 03fe 9d46 d743 eb46 33f9 fc46 5042 3547
000001a0: 25d2 5f46 be64 0547 7e6d 6746 b031 0047
000001b0: ef0a 1e47 75f4 9546 300d b946 f875 ae45
000001c0: 2ee7 5347 84fb c446 1327 d246 4670 c246
000001d0: 533b 3e47 f0a0 6647 6a35 fe46 d5a3 6647
000001e0: 85de fd46 f6c7 ee46 9926 c546 0bbe bc46
000001f0: 2c90 8946 c726 2d47 1c5a 2447 6552 4947
39670.08 32383.596 28920.033 26015.773 26975.123 32617.65 30866.562 19521.107
31869.873 17972.795 26914.635 11667.793 22251.426 23218.736 40137.973 23655.857
38888.39 24354.92 16189.418 18933.719 21523.695 22786.611 30719.627 20693.158
26349.74 29487.758 15900.541 41667.91 16768.71 14375.379 9932.654 21699.535
20672.152 26416.088 29967.264 16841.91 22871.826 29088.025 29904.37 22014.934
14128.626 35955.215 26057.469 25089.086 23514.727 42191.824 12970.673 12339.309
37919.24 43551.87 26878.723 40115.793 47656.68 29107.775 43384.402 41596.12
19643.771 38199.95 23794.76 21655.455 26146.447 34482.242 18082.322 43892.816
30361.623 35855.934 36536.812 39815.625 38120.25 35784.7 15577.041 21144.418
30179.137 33430.81 40637.625 21057.98 34270.062 29606.781 63699.887 24862.795
17384.781 28928.682 22019.4 25102.65 27812.266 37308.81 26505.34 17225.244
53722.22 44613.383 27981.975 41771.13 19592.95 23202.084 41155.93 16176.437
17279.354 24116.879 54141.066 28279.473 20223.006 30113.92 32380.6 46402.312
14324.536 34148.742 14811.373 32817.688 40458.934 19194.229 23686.594 5582.746
54247.18 25213.758 26899.537 24888.137 48699.324 59040.938 32538.707 59043.832
32495.26 30563.98 25235.299 24159.021 17608.086 44326.777 42074.11 51538.395

convs.0.bn2.weight f4 [64]
00000000: 577a 0a40 d086 3240 507b 0540 d312 7140
00000010: 4465 0b40 55d3 3240 2aac b43f 5b7b 0f40
00000020: 89ce 5c3f 74dd dd3f 88a6 3540 6787 bd3f
00000030: c027 ae3f ddd9 833f f73d 0340 f06a a63f
00000040: 4079 1440 9ad1 f43f 16a8 ab3f 87ee 693f
00000050: 5e6c d13f 2a5a 813f 73b4 0740 f4b3 fb3f
00000060: ded4 3740 7f13 723c a3dd 2c3f e08f 1640
00000070: 087d 973f 7a76 f13f 4e31 bb40 dccf 1d40
00000080: 8c8d bd3f 27b2 a13f 3570 863f e0e7 b63f
00000090: cce1 2d40 01ae 9c3f 2df4 2e40 1516 dd3f
000000a0: 1c99 ca3f af77 0b40 c545 a43f ab1c 7640
000000b0: df81 6640 6384 0c40 1b04 773f b841 c03f
000000c0: a85b ef3f 8a25 fd3f 30e4 e53f 63d1 5340
000000d0: e40f 3340 43bf a040 a4b6 3240 aec0 4240
000000e0: b3d3 8a3f a65e 4840 ef59 7c3f be43 2740
000000f0: b0b9 b53f 1eaa e23e 1d4a d93f 8ef2 2d40
2.163717 2.7894783 2.0856514 3.766774 2.1780558 2.7941487 1.411504 2.241904
0.8625265 1.7333207 2.8382893 1.4806947 1.3605881 1.0300862 2.050657 1.3001385
2.3199005 1.9126465 1.3410671 0.9137959 1.6361196 1.0105641 2.1203887 1.9664292
2.8723674 0.014775156 0.6752569 2.3525314 1.1835032 1.8864281 5.8497686 2.4658117
1.4808822 1.2632493 1.0502993 1.4289513 2.7169065 1.2240602 2.7336533 1.7272364
1.5827975 2.17918 1.2833792 3.8454998 3.6016767 2.1955802 0.9649064 1.5020056
1.8699846 1.9777081 1.7960262 3.309655 2.797845 5.0233474 2.7923975 3.0430102
1.0845855 3.130777 0.9857473 2.6135097 1.4197292 0.44270414 1.6975743 2.7179294

convs.0.bn2.bias f4 [64]
00000000: 0747 65bf 8c51 8abf 160f 5dbf 084c bebf
00000010: 12bd 19c0 32a4 9cbf f16b 5dbf 48f1 c8bf
00000020: 409c 04c0 bba2 b7be 8ef6 73be 55cf fbbf
00000030: 6676 0bc0 f1ad 7ebf ae2a 4abf 3412 f3bf
00000040: 4e7d 10c0 d871 16c0 adff d8bf 87d4 03c0
00000050: 877c 033e 358f 0fc0 36c0 63bf 320c 3ebf
00000060: 842d b3bf 0a90 1ac0 bfae 35c0 5b2e 63bf
00000070: f000 cfbf 88a9 3bbf e9c9 47c0 613b 183e
00000080: e8d6 c7bf a029 34c0 9281 09c0 6ffc 2ac0
00000090: 469f 523e 90c0 afbf 5be8 db3e e7a9 dcbe
000000a0: 3093 a5bf 4882 43c0 d539 debf 6032 b6bf
000000b0: 4fa8 a1be 74de 39c0 3720 97bf 4eab 173f
000000c0: acef adbf da94 52bf 37d2 15c0 1ce6 8c3e
000000d0: f880 a1bf 09e7 fdbf 832f 77bf 3c19 dfbf
000000e0: bf47 80c0 def0 0ac0 1d73 50c0 5b28 95bf
000000f0: b330 83bf a869 1c3f 3cd9 5cc0 f073 f0bf
-0.89561504 -1.0806136 -0.86351144 -1.4866953 -2.402165 -1.2237608 -0.8649283 -1.5698633
-2.0720367 -0.3586634 -0.23824522 -1.9672648 -2.1791015 -0.99484164 -0.78971374 -1.898993
-2.257648 -2.3506985 -1.6953026 -2.0598466 0.12840472 -2.2431157 -0.88965166 -0.7423736
-1.3998265 -2.4150414 -2.8387907 -0.8874261 -1.6172161 -0.7330556 -3.1216986 0.14866401
-1.5612459 -2.8150406 -2.1485333 -2.6716573 0.2056857 -1.373064 0.4295071 -0.43098375
-1.2935543 -3.0548267 -1.7361399 -1.4234123 -0.31573722 -2.9042025 -1.1806706 0.59245765
-1.3588767 -0.8225838 -2.3409555 0.2751931 -1.2617483 -1.9836131 -0.9655687 -1.7429576
-4.008758 -2.1709514 -3.257026 -1.165294 -1.0249237 0.6109872 -3.450759 -1.8785381

convs.0.bn2.running_mean f4 [64]
00000000: 55fe 4341 9a9d c741 0a5e c541 2583 8841
00000010: 9785 a241 b4f1 8b41 ccf9 d53f 8a94 6e41
00000020: 214f 4d40 81da cf42 166f b541 db5a 0f42
00000030: 8c6f fd41 b48b 8941 dc17 0142 6be3 af41
00000040: 7beb 7740 d4fe c241 76a4 2942 3ae6 ea41
00000050: 802c 4a41 38a4 3b41 45ff fc40 7d81 0141
00000060: fc44 b841 7627 bf40 3db8 2b41 b83f cb41
00000070: 9dd0 8a41 f2f2 5d42 f78e 8942 eec6 1c42
00000080: 3bd2 8141 8d36 0242 2405 8142 9e47 9341
00000090: b171 4040 8950 a841 c197 9441 74c8 8c41
000000a0: cdf5 9241 5dd2 af40 50c1 4441 168e 6642
000000b0: 830e 3441 0366 f240 47fd 7641 fa93 0541
000000c0: a99b 2b42 c995 fc40 224a 6c41 f4cb 8041
000000d0: 9a10 9042 0fed 2942 6911 af41 6a72 7342
000000e0: 4d51 ac41 f63e 9041 5b2f 0b41 bd54 b341
000000f0: 5696 9d41 8bfc ba41 e4c5 6941 e5f1 3141
12.249593 24.951954 24.670918 17.064035 20.31523 17.49302 1.6716857 14.911264
3.2079546 103.926765 22.679241 35.838726 31.679466 17.193214 32.2733 21.986044
3.8737476 24.374428 42.410606 29.362415 12.635864 11.727592 7.906161 8.094113
23.033684 5.973567 10.73248 25.406113 17.351862 55.48725 68.77923 39.194267
16.227652 32.553272 64.51004 18.40997 3.0069392 21.039324 18.574099 17.597878
18.37002 5.494429 12.297195 57.638756 11.253543 7.5749526 15.436835 8.348627
42.90201 7.8932843 14.768099 16.099586 72.032425 42.481503 21.883501 60.861732
21.539698 18.030743 8.699061 22.416376 19.698406 23.373312 14.610813 11.121556

convs.0.bn2.running_var f4 [64]
00000000: 9917 9042 fa08 df42 91d7 e243 afc5 de42
00000010: 204b 4043 1966 5143 ce83 8040 cffa 0a43
00000020: c509 3541 71c4 7044 d0c5 9143 1faf 5144
00000030: c5f3 d144 9426 ab42 520c 2143 d0dd b443
00000040: b1be 2240 a870 9143 7486 ac42 f2e9 c042
00000050: 817b d142 c729 9942 6275 2a42 9d92 4542
00000060: 1c5a 8a43 052d d141 8b56 6d42 ba8d 3c43
00000070: e84b 8b43 a221 4143 1953 be42 eb10 c343
00000080: 15cd 8042 64ba 2143 41ad 1d44 6139 0743
00000090: ce7e be41 c703 ff42 ffa4 1d43 0bec 7642
000000a0: ce5c 0f43 981a 6942 da58 d542 14fe 9943
000000b0: 20a6 d442 2ffc a642 d006 8d43 cbb1 9f42
000000c0: 1cc1 3a42 3572 4f42 ddc8 e842 d85c d042
000000d0: 1a1a c844 a50b 4743 1d30 c442 9351 9843
000000e0: a5a5 e941 49ae ef42 2a3b 0c43 dd2f 2243
000000f0: d738 1743 682e d743 1bd4 7a42 b5bb 5c42
72.04609 111.51753 453.6841 111.3861 192.29346 209.39882 4.0160894 138.97972
11.314885 963.0694 291.5454 838.73627 1679.6178 85.57535 161.04813 361.7329
2.5428889 290.88013 86.2626 96.456924 104.74122 76.5816 42.61463 49.393177
276.70398 26.146982 59.334515 188.55362 278.59302 193.13138 95.1623 390.13217
64.40055 161.72809 630.7071 135.22414 23.811916 127.50738 157.64452 61.73051
143.36252 58.27597 106.67354 307.985 106.32446 83.492546 282.05322 79.84725
46.688583 51.86153 116.39231 104.181335 1600.8157 199.04549 98.09397 304.6373
29.205881 119.8404 140.23111 162.18697 151.22203 430.36255 62.707134 55.183308

convs.1.fc_full.weight f4 [128, 169]
00000000: 1deb 703e 1308 5840 1e4d 6fc0 63bc 8b3f
00000010: b97f 95bf 6455 38bf fabd 593e bc57 37bf
00000020: 9864 39c0 dfc0 0bbf 0833 ecbd ed13 b040
00000030: 462c 823e a805 c53f a7ca d0be d59e 09c0
00000040: b516 d7bf 1a41 d03d 816e 2140 7e97 b1bf
00000050: b5b7 1b3e cbad 4040 8833 043f 7782 3340
00000060: 2301 0b3f 1658 95bf 4b05 c3be ec97 23bf
00000070: fa64 f7bf 91ea 95c0 1e6a 1a40 35c3 fd3c
00000080: bafd ba3f 4884 fb3e d7b6 8ec0 9021 2b3f
00000090: f68f 953f c5a9 dcbf 8a75 62bf 6ab2 2ac0
000000a0: 0a6e fd3f 9fe8 16bf c7f6 1540 93eb 03c0
000000b0: 75d8 393f 19ca 0ac0 59b9 5dbf b477 d2bd
000000c0: d5ee 7ec0 b6dc 2b3f 0092 0bc0 a813 923e
000000d0: 9fa5 973f b538 07c0 1bfe 8fbe 5b52 8dbe
000000e0: 3146 d9be 27d1 a53d cafa 2a3f 0180 63bf
000000f0: 9b55 0dc0 51b8 4d40 c9d9 1e40 7dcd f5bf
00000100: cdf0 afbe 2d8b 3a3f 00e5 c7bf d6c1 8b3f
00000110: 94bf a5be 23ae 3bbe 2016 8b3f cef7 69c0
00000120: 96ef a93e a47b b3bf f6cf 39bf ac83 733f
00000130: 681e 213f 56c4 6d3f eba3 7140 41e1 ca3f
00000140: 09ba ae3f bd36 7440 c485 27be d97c d5bd
00000150: 9f46 863f 730a 6abf 536c 343e c2f6 243f
00000160: 2546 b23f e34a 6440 8efd a63f 948c a53f
00000170: 8e73 89c0 aeba cf3e a4db c1bf c6b2 a0bf
00000180: 3484 e53f f7c5 7540 ee55 eabe 3de6 1dbf
00000190: 2062 673f 3d6c bd3f 557a b33f caff dc3f
000001a0: 2138 55c0 c788 b73f 14d4 543e 75f5 9dbf
000001b0: e380 213f e2ae 74bf 615d 0cc0 f161 0440
000001c0: 3b0b 32bf 5280 8a3f e8de 9e3f 2b65 3fbf
000001d0: 6586 b83c 5344 5a3f 5cbf 1cbf 0c52 19bf
000001e0: 54c1 f5bf a650 2c3c 5bb4 aabc b5f3 74bf
000001f0: 0f0d 42c0 801f 13bf 4c75 933d 85da 9c3f
00000200: c3a4 95bc 3205 d93c b634 3d3e aa0e 5f40
00000210: adf2 4c40 061b 5b3f 3b4a 9cc0 0238 34c1
00000220: 84d8 c0c0 99b7 0bc0 6330 fac0 b79e 5ec1
00000230: 8b81 28c1 5af5 92c0 463b d740 97c4 d740
00000240: 17f7 2641 547f 8c40 8f0d 64bf 5dd7 1340
00000250: 5ebd 80c0 5cdd a4c0 772e fabe 62a2 fe3e
00000260: 7af2 ac3e 1bd9 933f d2be 9c40 4b04 3d41
00000270: 7a36 3241 21ca 0841 c668 0341 6344 e640
00000280: 0630 7240 ffa7 9b3f 6609 643f 1a51 2b3d
00000290: bc15 86bd c7b3 72bd d48f c0bc 0f0d b73c
000002a0: 7991 0bbd 8e77 a5c0 33cb 85bf c7d3 f33f
000002b0: 4b30 2240 21e1 2c3f bfe0 c1bf 800a 89bf
000002c0: 440a b9bf 9a18 1440 46ad 983f d258 aa3e
000002d0: 0968 1ec0 b231 c53f a813 2b40 307c 3dbf
000002e0: 34b4 6040 cb97 ddbd 2763 99bf ecf9 2abf
000002f0: 3242 7abf 78aa ee3f ebcb 01c0 229d a0c0
00000300: 7320 9c3f 8c05 23c0 72d8 0bc0 e49f 463f
00000310: bb59 01c0 2186 00c0 e637 a83f ca5b 1dc0
00000320: 627b 95bf 94e9 99bf 84d0 bebe faa1 293f
00000330: cca6 813e b5bc bcbf 592e 4d3e 3778 993e
00000340: d154 8040 559d ed3e 0dfb 96bf 14ff 37c0
00000350: 72a7 b1bf 6569 203f 31bf 97bc 2537 ff3f
00000360: f5f1 0abf 12f1 b6bf 17c5 47bf af9a 07c0
00000370: 3241 f0be a5eb f3be a8cb 3d40 9d98 053f
00000380: 6f56 03be b1b8 efbe 575c f0bf a388 dfbf
00000390: 9cae 85bf 7929 bb3f 029f e0bf 3520 1740
000003a0: cf0f 663f 8095 fb3f 7e4b 43c0 114d 2340
000003b0: 6676 bc3e 8151 57be f628 133f fa90 13bf
000003c0: b80c f1bf 6e2c b0bd 98a2 6d3f 8292 debf
000003d0: b769 1140 ad22 3b40 e6f2 09c0 e508 3d3f
000003e0: b290 d4be 1339 1b40 a41d c63f 1ecf 0cbf
000003f0: 9dde 7a3f fc65 7abf 7cf9 dbbe 269b 91bf
0.23527189 3.3754928 -3.7390819 1.0916866 -1.1679603 -0.72005296 0.21263877 -0.7161825
-2.8967648 -0.5459117 -0.11533171 5.5024323 0.25424403 1.5392351 -0.4077961 -2.1503193
-1.6803805 0.10168667 2.5223696 -1.3874357 0.15206797 3.0106075 0.5164113 2.804838
0.5429861 -1.1667507 -0.38089976 -0.6390369 -1.9327691 -4.6848836 2.4127269 0.030976871
1.4608681 0.4912436 -4.4598193 0.6684809 1.1684558 -1.723931 -0.884606 -2.6671395
1.9799206 -0.589487 2.343187 -2.0612533 0.7259591 -2.168585 -0.86610943 -0.10276738
-3.9833272 0.67133653 -2.1807861 0.28530622 1.1847419 -2.1128361 -0.28123555 -0.27601895
-0.42436364 0.08096533 0.66788924 -0.88867193 -2.20835 3.2143748 2.4820426 -1.9203335
-0.34363404 0.72868615 -1.561676 1.0918529 -0.32372725 -0.18328147 1.0866127 -3.6557498
0.33190602 -1.4022107 -0.7258295 0.9512279 0.6293702 0.9287771 3.7756298 1.5849992
1.3650523 3.815841 -0.16359621 -0.104242034 1.0490302 -0.91422194 0.17619447 0.6443902
1.3927656 3.5670707 1.3046129 1.2933526 -4.295356 0.40572113 -1.5145154 -1.2554557
1.793097 3.8402078 -0.45768684 -0.6167944 0.903841 1.4798657 1.4021708 1.7265561
-3.3315508 1.4338616 0.20784026 -1.2340533 0.6308729 -0.9557935 -2.1931994 2.0684779
-0.69548386 1.082041 1.2411776 -0.74763745 0.022525022 0.85260504 -0.6122949 -0.5989082
-1.9199624 0.010517275 -0.020837953 -0.9568437 -3.032047 -0.5746994 0.07200107 1.2254187
-0.018267041 0.026491735 0.18477139 3.48527 3.2023118 0.8558811 -4.8840613 -11.263674
-6.02643 -2.183081 -7.8184066 -13.913749 -10.531627 -4.59245 6.7259855 6.742748
10.435325 4.390543 -0.8908319 2.3100197 -4.023116 -5.1520214 -0.48863575 0.49733263
0.33778745 1.155063 4.8982935 11.813548 11.1383 8.549348 8.213079 7.195848
3.784181 1.2160643 0.8907684 0.04182539 -0.06547114 -0.05925348 -0.023506083 0.022345094
-0.03407428 -5.170844 -1.0452636 1.9049004 2.5341976 0.6753102 -1.5146712 -1.0706329
-1.4456258 2.3140016 1.1927879 0.3327089 -2.4750998 1.5405791 2.6730747 -0.7401762
3.5109987 -0.10819968 -1.1983384 -0.667876 -0.97757256 1.8645773 -2.0280712 -5.0191813
1.2197403 -2.5472136 -2.1850858 0.77587724 -2.0211017 -2.0081866 1.3142059 -2.4587274
-1.1678278 -1.2024407 -0.3726846 0.6626278 0.25322568 -1.4745089 0.20037211 0.2997453
4.0103536 0.46409097 -1.1795365 -2.8749437 -1.3879225 0.6266082 -0.018523784 1.9938704
-0.5427545 -1.4292319 -0.7803511 -2.1188161 -0.4692474 -0.4764072 2.9655552 0.52185994
-0.1282594 -0.46820596 -1.877818 -1.7463573 -1.0443912 1.4622031 -1.7548525 2.3613408
0.8986787 1.9654999 -3.0514827 2.5515788 0.3680908 -0.21027185 0.57484376 -0.5764309
-1.8832006 -0.08602224 0.92826223 -1.7388461 2.2720773 2.9239914 -2.1554503 0.73841697
-0.41516644 2.4253585 1.5477796 -0.55003536 0.9799593 -0.97811866 -0.4296378 -1.1375473

convs.1.fc_full.bias f4 [128]
00000000: a6b1 a83c 9999 3abd 3b1e 45bb 840e 0bbd
00000010: d46c 1b3d 5163 81bd bb0c 2c3d fabb 5fbc
00000020: 1ec7 883d f63f 113b d662 07bd f350 5abd
00000030: 377f b83c f8dd 70bd b78d 103b 2ada 613d
00000040: 4a21 62bb 23d8 c7bc ce96 913d 6a75 953d
00000050: 9be8 633d eb7d 7abd ca20 11bd 523f f5bb
00000060: d2d2 89bd 37a6 793d 64ae 9b3d e3cb 523d
00000070: d41a f63c d5e9 61bd af7a 8f3c 3dec 4fbd
00000080: 92fd 3cbd a177 1b3c bb1e 823d 2864 6b3d
00000090: ca4d 2cbd 5ff1 2d3c 5633 42bd be28 a33c
000000a0: 38f4 93bd c833 c73c 66ba 00bd af79 053d
000000b0: 4de1 8d3d ad31 84bd 8d06 7dbd 1d19 6d3c
000000c0: ad81 323d 049e 91bd 29fd 91bd 1f7f a83d
000000d0: 1022 153d 7506 5a3d 21db a23b 31be a53c
000000e0: 7469 383d cd74 9f3d e916 5ebd 1e54 593d
000000f0: ec40 78bd da91 483d a15c 4e3d 8353 dbbc
00000100: e071 f03c 4306 f9bc 01fb cb3c d202 993c
00000110: c8d4 4ebd 4c02 ef3c e7c0 6fbb 9f2d 80bc
00000120: 6168 92bd a560 993d f226 4a3d 69fe 69bd
00000130: 4ae4 04bb d259 483d 106f b0ba 96b3 253c
00000140: b7b8 35bd 12ff e1bc 8a8c 333d f4cb 8fbd
00000150: e42a fab9 254a 9b3b 0a09 00bd e07e 8d3d
00000160: 3636 81bd 9575 9f3c fe8b 02bc b14d 8c3d
00000170: 1600 753d a618 ce3b 6fd1 2ebd 041a 4cbc
00000180: e5e8 4f3d 965c 90bd 8a67 773d 8d5c 343d
00000190: 85b2 663d e824 a6bd 72bd 84bd 97b6 ef3c
000001a0: 2b7b cdbc c8fc 6bbd 36e6 afbd f480 59ba
000001b0: 948a 4abc 451c c1bc 2c2b 623c a9cc 2bbb
000001c0: 1810 aebd 0553 613d c585 0cbd bb76 fd3c
000001d0: 78ea c9bc 50cd 543c ab0c 603d a898 b9bc
000001e0: e578 75bd 39b0 153d e639 7d3d a47c 9fbc
000001f0: 6107 563d c844 1bbd 7d85 debc 0b24 b43d
0.020592522 -0.04555664 -0.0030077833 -0.03394939 0.037945583 -0.06317771 0.04200433 -0.013655657
0.066786036 0.0022163368 -0.03305324 -0.053299855 0.022521598 -0.058805436 0.0022057125 0.055139698
-0.0034504705 -0.024395054 0.07108842 0.072977856 0.05564175 -0.06115524 -0.03543166 -0.007484355
-0.06729664 0.06094953 0.07601622 0.051463973 0.03004209 -0.05515464 0.017514555 -0.050762404
-0.04614026 0.009488971 0.063535176 0.057468563 -0.042066373 0.010616629 -0.04741224 0.019916888
-0.072243154 0.024316683 -0.031427763 0.03258675 0.06927738 -0.064547874 -0.061773825 0.0144713195
0.0435807 -0.07110217 -0.071283646 0.082273714 0.036409438 0.053228814 0.00496997 0.020232292
0.045022443 0.0778595 -0.054221068 0.053058736 -0.06060879 0.04896722 0.050381307 -0.02677322
0.029351175 -0.030398494 0.024899961 0.018678103 -0.050495893 0.0291759 -0.0036583485 -0.015646754
-0.07148815 0.074891366 0.049353547 -0.05712739 -0.0020277672 0.048913784 -0.0013460834 0.010113617
-0.04436561 -0.027587447 0.0438352 -0.07021323 -0.00047715672 0.0047390633 -0.03125862 0.06908965
-0.06309168 0.019465247 -0.007967947 0.06850756 0.059814535 0.0062895594 -0.0426802 -0.0124573745
0.050759215 -0.07048909 0.060401477 0.044033576 0.056322593 -0.08112508 -0.06481446 0.02926187
-0.025083145 -0.057614118 -0.08588831 -0.00082971086 -0.012362141 -0.02357305 0.013804238 -0.0026214516
-0.084991634 0.055010814 -0.03430726 0.030940404 -0.024647936 0.012988403 0.05469958 -0.0226558
-0.059929747 0.036545012 0.061822794 -0.019468613 0.05225313 -0.03790739 -0.027163262 0.08795937

convs.1.bn1.weight f4 [128]
00000000: 07a9 fb40 ee9e ac40 c68f ba40 268e 3b40
00000010: fa4b ba40 8497 c140 f752 5d40 efcb 4f40
00000020: ee79 c040 eb4d 4840 aa83 2f40 5eb7 0b40
00000030: 34e9 f740 d1fd da40 f48b d540 10cb 5d40
00000040: 905c 1240 a1fc 9b40 1c83 3c40 f8f7 4b40
00000050: 5842 a040 8dff 0341 91af 9d40 bd16 b740
00000060: 49f2 9740 c47d 9940 722b a540 e628 4041
00000070: 1a45 8040 668c a940 54b9 a140 a786 8240
00000080: bcb0 f340 461e af40 cef6 e93f d3c1 af40
00000090: 9a9d 103f 086d c140 390f 4d40 3517 9840
000000a0: 00a2 f640 0a13 1f40 2ce0 8a40 f0c4 a140
000000b0: 9b27 9b3e 9047 6740 486c e740 7286 3340
000000c0: 057d 0c41 8f74 8640 823b d240 1327 bf40
000000d0: 7367 9a40 fba4 ff3f 0a8f 683f cc30 4140
000000e0: fce5 5e40 cc30 9d40 1262 bd40 cb86 8340
000000f0: 8eac 7a40 e75e 8b40 7d9e 7f3f a945 8c40
00000100: 3915 d73f eceb a140 21a5 0041 3325 4d40
00000110: 3602 833f dc9d 0340 a7c2 973f a68b 7340
00000120: e452 f23f 9024 8540 6a2a 3840 e6f6 5a40
00000130: 8b47 f840 c14a b940 6186 8640 a8c5 2140
00000140: e165 0e41 7381 a43f 918e 4a40 6f86 0f40
00000150: 695e 0240 c1e5 3c40 9460 5c40 8d0c 623f
00000160: af64 2f3f ba78 5a3f 5370 2440 b698 8a3f
00000170: 4327 0240 54c0 f23f e69c b140 0a60 343f
00000180: 2027 9f40 751f da3f 9912 e03f 3e57 de3f
00000190: 588b e43e 7cc5 6f3f 01c4 f63f beae 1540
000001a0: 9292 c63f ad02 5c3f 88c2 fe3f fa1f 6140
000001b0: 91d6 773f e3e0 883f ab26 2240 d0c3 4c40
000001c0: 59a6 3840 a8ee 8640 128c e440 b3e4 753f
000001d0: b003 9e40 271f f43f 6062 9640 316c 9640
000001e0: df63 4740 591d ee3e a9ca fc3f 8574 6440
000001f0: b2cb 1440 5abe be40 ad48 4d3f 3262 2b40
7.864383 5.3944006 5.8300505 2.930551 5.8217745 6.0497456 3.4581888 3.246822
6.014884 3.1297557 2.7424111 2.1830668 7.747217 6.8434834 6.673334 3.465519
2.2868996 4.8745885 2.9455023 3.1870098 5.0080986 8.24989 4.9276814 5.7215257
4.748326 4.7966022 5.1615534 12.009985 4.0084352 5.2983885 5.053873 4.078937
7.615324 5.4724455 1.8278444 5.49241 0.5649048 6.0445595 3.204054 4.752833
7.7072754 2.485537 4.3398647 5.05529 0.30303654 3.6137428 7.231968 2.805081
8.780522 4.2017283 6.569764 5.97352 4.825128 1.9972223 0.9084326 3.0186033
3.4827871 4.9122066 5.9182215 4.110204 3.916782 4.3553348 0.9985121 4.3835034
1.6803352 5.060049 8.040315 3.2053955 1.023505 2.05651 1.1856278 3.8053985
1.8931546 4.160713 2.8775887 3.4213195 7.7587333 5.790375 4.2039037 2.527689
8.899873 1.2852005 3.1649516 2.2425802 2.0370123 2.951523 3.4433947 0.883004
0.68513006 0.85340464 2.5693557 1.0827854 2.0336463 1.8964944 5.5504026 0.70459044
4.973526 1.704085 1.7505676 1.7370374 0.4463756 0.9366071 1.9278566 2.3387904
1.551348 0.8594158 1.9903116 3.5175767 0.9681178 1.069363 2.53361 3.1994514
2.885153 4.216633 7.1420984 0.9605209 4.93795 1.9072007 4.6995087 4.700707
3.1154706 0.46506765 1.9749347 3.5696118 2.3249326 5.9607363 0.8018902 2.6778684

convs.1.bn1.bias f4 [128]
00000000: 2f68 56bf e270 9b3f 28a1 c4bf c883 8bbd
00000010: 6139 2c3e c53b 8abd b65a 50bd 6fb4 08be
00000020: abd8 56be 7a41 cfbe 5dad 83c0 9bde 303f
00000030: 6f8d 96bf ff93 e53f 0474 53bf 6456 60be
00000040: 1cd5 15c0 f85e 8ebe 6bfd f7bf 8768 fdbe
00000050: aeed bcbf 9035 9abf 8bc9 7c3f e896 a13f
00000060: 386b 67bf ccd6 eebf 55d7 38be 8418 1c3f
00000070: 9ac2 15bf 119b d83f 43fb 3abf 2165 bd3f
00000080: ca3e 75bd 5e90 3140 adbb 58c0 e26d 0cbf
00000090: 3e33 4640 e872 b63f e835 b13e 3e04 d0bf
000000a0: 5c43 d6be 2682 453d 7384 f2bf 0742 0dc0
000000b0: 2ca8 4940 5b38 a6be 1f50 fd3d 3652 de3c
000000c0: 42da 1ebf 1792 e8be 096b 28bf 4faa 3040
000000d0: fd5b 6dbf ed5e 56bf 1425 19bf c821 41be
000000e0: 66f3 4ebf 7b8a 36be a55f 8cbf ea2b a9be
000000f0: 5d87 1cbf 87a2 d0bf eeb4 f1bf 31f8 d9be
00000100: a172 8340 07f1 e73f f8d1 a93e 2e2b 03bf
00000110: d68d 52bf f4a5 b0bf 90aa ffbe 197e 03c0
00000120: a852 20bf ee55 1dbf 02db 97c0 a5fe 39bf
00000130: bb5e 42bf 4296 a1bf 6415 24bf 895e 4bbd
00000140: c214 1ec0 ea8f fabf 899d b7bf d536 98be
00000150: 8a35 8ac0 43bd 99bf 7387 b2bf d6b7 0740
00000160: d71b 2a3f 52d5 e2bf 3f18 f13e 7772 cc3f
00000170: 7504 243f 2424 b73f 96e7 3cbe e43e 2240
00000180: 1e68 03bf 7bb8 ed3f 34a3 12c0 d915 dabe
00000190: 8841 d840 dcec 4ebe cecd febc 638a 4ebe
000001a0: aec6 843f afbd 19c0 18a5 71bf c3a3 7cc0
000001b0: 8754 ee3d 70e7 31c0 2d58 b0be 650d 1ec0
000001c0: 58c7 833f d42b d8bf eff1 07bf 1c53 2f40
000001d0: f700 a7bf 87a2 8ec0 22e7 40c0 f290 713c
000001e0: 4789 f0bf d453 713f f641 83c0 ca89 c9be
000001f0: fc42 21c0 8f73 e13e f593 69c0 adbb 41c0
-0.8375272 1.2143824 -1.5361681 -0.06812245 0.16818763 -0.067496814 -0.05086776 -0.1335008
-0.2098109 -0.40479642 -4.1149125 0.6908967 -1.1761912 1.793579 -0.825989 -0.21907955
-2.3411322 -0.2780683 -1.9374212 -0.4949381 -1.4760034 -1.2047596 0.9874503 1.2624178
-0.9039798 -1.8659301 -0.18050893 0.6097491 -0.58500063 1.6922323 -0.73039645 1.4796487
-0.059874333 2.7744365 -3.3864548 -0.5485517 3.0968776 1.4253817 0.3461144 -1.6251295
-0.41848266 0.048219822 -1.894667 -2.207155 3.1508894 -0.3246487 0.123687975 0.02713881
-0.62051785 -0.45423958 -0.6578832 2.7603948 -0.9271849 -0.83738595 -0.598222 -0.18860543
-0.80840147 -0.17826264 -1.0966688 -0.33041316 -0.6114405 -1.62996 -1.888334 -0.42572168
4.107743 1.8120431 0.33168006 -0.5123776 -0.82247674 -1.3800645 -0.49934816 -2.0545714
-0.62626123 -0.61459243 -4.7454844 -0.7265418 -0.759258 -1.262398 -0.6409514 -0.049650703
-2.470017 -1.9575169 -1.4344951 -0.29729334 -4.3190355 -1.2010883 -1.3947586 2.1205955
0.6644873 -1.772135 0.4708881 1.5972432 0.640693 1.4307904 -0.18447718 2.5350885
-0.51330745 1.8571924 -2.2912111 -0.42594793 6.7579994 -0.20207542 -0.031103995 -0.20169978
1.0373132 -2.4022024 -0.9439254 -3.9474952 0.11637216 -2.7797508 -0.34442273 -2.4695675
1.029521 -1.6888375 -0.53103536 2.7394476 -1.304717 -4.45734 -3.0141072 0.01474403
-1.8791894 0.94268537 -4.101802 -0.39362937 -2.5197134 0.44033477 -3.6496556 -3.0270798
