results/Prediction/2023-06-20/20:54:36.563846/models/model163.pth (torch, 340949 bytes, 34 tensors)

embedding.weight f4 [64, 92]
00000000: c893 3d3c 4abf 14c0 e929 2f3c b1ed 74bd
00000010: 16e6 59bd 77fa 583c fd02 97bd 429d 80bd
00000020: d1fe 873a 8aac 8d3d 0126 c83d 2926 5cbc
00000030: ca6e 993d 4621 c1bd 1ff3 b5bf 123f 903f
00000040: b899 4c3f f0ae d5bf c463 7a3d b684 0fc0
00000050: 6bed 52bf 44ef 8bbf 7c6f a1bd b562 9c3d
00000060: 25a6 2bbd 28b9 4bbd e57d 8ebd 8d6b 65bd
00000070: b694 b4bd 51bb 0140 8fc1 12c0 9cb0 92bf
00000080: e0c8 b1bd 06c0 893f adfa 843f 628a e8bf
00000090: 62f4 11c0 2d31 9fbe 4e99 403e d284 e5bf
000000a0: 7521 0140 d68f c23c d494 dc3c d20e c33b
000000b0: eb9b 8f3d f0b7 9cbd e786 09c0 3047 993d
000000c0: 5fc3 d9bb 1ddc c1bf e977 8f3f 31b9 2e3f
000000d0: 0f22 e9bf 36a3 bb3d 49ed 703d f544 adbd
000000e0: b8ca 46bd d329 29bd 3339 6ebd 9f1c 22bd
000000f0: 12db cdbc 9f6c 0540 9f55 853d e614 92bf
00000100: f23d 31bf 0232 e0bf 04af b03d 81fe 983d
00000110: 1d0e b33d f44a 14bd 88d1 813f 5493 96bc
00000120: 3622 aabd c256 15c0 0cc0 4abf 0746 f4bf
00000130: 6135 99bd 24b9 e7bf daed 0ac0 ffdb 7fbf
00000140: 1060 43bd c23a 833d df92 74bf f419 99bd
00000150: 918d 193d dd62 fd3f fe74 98bf dee2 b4bd
00000160: 6019 163d f6b7 d0bd 0a73 05bd c0df 5fbc
00000170: ec76 7dbc 66f1 05bf 3b12 d73b 1f9c 4cbc
00000180: ebcb 2d3c 74b0 e2bc 9745 afbc 219d a73d
00000190: c6e1 d0bd 29c9 c4bd becc 733d 0c5b 9f3d
000001a0: 17a8 cf3d 70bd d5bc 76c6 1abf a4ac 96bd
000001b0: 79a1 71be 5e0d 20be 2053 6c3d 3a9b 2cbf
000001c0: 6787 63bf 6449 89bf f0a1 003d 579e b3bd
000001d0: c019 4cbb 4997 ecbc 6d9c 6ebd 0dae 5abd
000001e0: 93ff 3b3c 2945 5dbf 8bb3 0cbf 9c01 8cbe
000001f0: 2e87 a93d 76e1 72bd 44bb a7be a331 1cbe
00000200: 9dc7 0cbf 76b6 c6be 041f 81bf b326 34bf
00000210: 07c5 44bf e57b 073d dd20 273d a202 f93c
00000220: 252d ea3a d2bd 8dbd 87b9 1fbf cc51 86bc
00000230: 614c 623d f139 06bf 20b6 2dbe f621 83be
00000240: 4985 84bd 6a64 bfbd c4d1 d2bd 5d52 21bb
00000250: 0326 b23d 9d3f 91bd ef00 a03c b322 233d
00000260: 1339 dabc 888c 63bf 5b1e a4bd 044e 93bd
00000270: 901a 86bf ebbc 76bd 2426 573d 5785 823d
00000280: b822 bfbb fc45 0cbd 6e3b 30be 2889 433d
00000290: bfcc 503d 4832 1cbf 2ee0 35bf 9360 4fbf
000002a0: 7664 74bd 34e1 86bd a35e 25bf aef9 adbf
000002b0: 4f8e db3a d12f 083c fafa f8bd 8f87 81bd
000002c0: 3d35 933d 4919 58bf 44e1 01c0 b27f c03d
000002d0: 3a33 bc3d 93eb 92bd d970 cd3d 9f40 0dbd
000002e0: b885 8f3d 4495 ccbe 8469 91bd 0ec1 193b
000002f0: bacb a53d 9fa6 e0bc c826 203d 43f4 3a3c
00000300: 8f8c 80bd 6f8f f23c 8993 afbd a3e2 b7bd
00000310: 12e4 b0bd d044 91bd 4a99 43bf 13c2 113e
00000320: bda4 033f ea90 25bf d419 ce3d d6e0 05bf
00000330: f10e 96bf 167d 2fbf 4521 0b3d f67c cf3a
00000340: cebd dd3c 1e89 2e3d 4844 aebc 00ef 1e3b
00000350: a89e 01bd 48fd 363f 68f4 00bf 871f 323e
00000360: 01ec b4bc dc15 373d d410 ea3e 75fd 1fbf
00000370: 2fa8 cabe 91a5 213e 9c68 fcbd 38b9 41bf
00000380: ea09 263f 7092 18bd fc13 4e3d 8fe6 ac3d
00000390: 6330 e6bc 9c77 86bd 4229 14bf 8a8e aebd
000003a0: f504 903d e2a9 5cbf 68d2 9b3c 0f3d 043f
000003b0: daee 2bbf de71 a8bd d19a fe3c 5711 65bc
000003c0: 2afa d43d ed81 91bd 9959 8fbb 6c8b 93bc
000003d0: 2cfb 223d f852 373f 5507 aebd 174d 083e
000003e0: cd9e 8bbf d69d 0abf 99ac d23d df04 623d
000003f0: bd79 e03c a59b 8abd 7232 193e d9f1 5ebd
0.011570878 -2.3241754 0.0106911445 -0.059796993 -0.053197943 0.013243309 -0.07373617 -0.062799945
0.0010375624 0.06917675 0.09772874 -0.013436832 0.074918345 -0.094301745 -1.421482 1.1269248
0.79922056 -1.6694012 0.0611303 -2.242475 -0.8239352 -1.0932393 -0.07882592 0.07636014
-0.041906495 -0.049737126 -0.06957606 -0.05601077 -0.08817427 2.027058 -2.2930639 -1.1460147
-0.08680892 1.0761726 1.0389 -1.8167231 -2.280541 -0.31092206 0.18808481 -1.7931159
2.017667 0.023750227 0.026926436 0.0059526945 0.07012161 -0.07652271 -2.1488588 0.07484281
-0.0066456045 -1.5145298 1.1208469 0.6825133 -1.8213519 0.091619894 0.058820043 -0.08460418
-0.04853317 -0.041299652 -0.05816002 -0.039578076 -0.025128875 2.0847547 0.065104716 -1.1412628
-0.69235146 -1.7515261 0.086271316 0.07470418 0.08742926 -0.036204293 1.0142069 -0.018380798
-0.083073065 -2.3334203 -0.7919929 -1.9083871 -0.07480884 -1.8103375 -2.1707673 -0.9994506
-0.047699034 0.064076915 -0.9553661 -0.07475653 0.037488524 1.9795796 -1.1910703 -0.08832334
0.036645293 -0.10191338 -0.032580413 -0.013664186 -0.015470248 -0.5232147 0.0065634525 -0.012488394
0.0106077 -0.02767203 -0.021395488 0.08184267 -0.10199313 -0.09608681 0.05952143 0.07781038
0.101394825 -0.026091307 -0.6045908 -0.07357147 -0.23596753 -0.15630099 0.05769646 -0.67424357
-0.8887848 -1.0725522 0.031404436 -0.08770435 -0.0031143278 -0.028880732 -0.058254648 -0.053388644
0.011474508 -0.86433655 -0.5496146 -0.27344978 0.082777366 -0.059297048 -0.3276006 -0.1525331
-0.54992086 -0.38811082 -1.008759 -0.7037155 -0.7686314 0.03307714 0.040802825 0.030396763
0.0017866237 -0.06920971 -0.6239247 -0.016396426 0.05524862 -0.5243216 -0.16964006 -0.25611848
-0.064707346 -0.09345324 -0.10293916 -0.0024615743 0.086986564 -0.070922114 0.019531695 0.039828014
-0.026638543 -0.8888631 -0.08013602 -0.07192615 -1.0476856 -0.06023876 0.052526608 0.06373089
-0.005832996 -0.03424643 -0.1721017 0.047738224 0.05097651 -0.61014223 -0.71045196 -0.81006736
-0.05966612 -0.06585923 -0.6459753 -1.3591821 0.0016750785 0.008312182 -0.12157245 -0.06324684
0.07187889 -0.8441358 -2.0293741 0.09399356 0.09189458 -0.071738385 0.100312896 -0.034485456
0.07007927 -0.3995763 -0.07100204 0.0023461017 0.080954984 -0.027423201 0.039099485 0.011410776
-0.062768094 0.02960941 -0.08573062 -0.089787744 -0.08637251 -0.07093203 -0.76405776 0.1423419
0.51423246 -0.64674246 0.1006352 -0.522962 -1.172331 -0.6855024 0.033967275 0.0015830088
0.027068045 0.042611234 -0.021272793 0.0024251342 -0.031645447 0.71480227 -0.50372934 0.17394839
-0.022085192 0.04469858 0.45715964 -0.6249612 -0.3958144 0.15785815 -0.1232464 -0.75673246
0.6485888 -0.03724903 0.050312027 0.08442413 -0.028099244 -0.065657824 -0.57875454 -0.08523281
0.070321955 -0.8619672 0.019021228 0.5165567 -0.67161334 -0.082248434 0.031079682 -0.013981185
0.103992775 -0.071048595 -0.0043746945 -0.018010817 0.039790317 0.71610975 -0.08497492 0.13310657
-1.0907837 -0.5414709 0.10286827 0.055180427 0.0274018 -0.06767968 0.1496065 -0.054429863

convs.0.fc_full.weight f4 [128, 169]
00000000: dddd 1cc1 dc8f cb3d 2e7a b1be 81e7 04be
00000010: bfd4 e53d e0da 923e 63d0 b8c0 7b48 433f
00000020: 8ad9 3a40 d8bd 5440 7333 6cc0 1dbd 6cbe
00000030: 29cb df3f 5dd4 5d3f 8501 c03e 4acf 61be
00000040: 812a 98be 398a 81bc 2625 97be 1b41 0e40
00000050: e37c 913e 9052 a73f 9495 1240 e41d b9be
00000060: 6676 36bf 0930 183f 70f8 4dbf 1691 99bf
00000070: 5ff1 31be c977 20c0 8105 b2be b7dd 6140
00000080: 74e8 8abe 5718 06bf 4b76 63be 997a 803f
00000090: 8eba ebbd 3a09 42c0 c5a5 273f ca1e d4be
000000a0: 3153 f6bf cf6d afbe ce81 60be f83b f0bc
000000b0: 38f0 aebe 91e8 5d40 449d b8be b4ab 7dbe
000000c0: e3e1 f1be 5c79 9fbe 6702 8cbc e18b e0bf
000000d0: 9dd6 4840 53d9 38bf 3446 f5be bb9f 2cc0
000000e0: 93ac 61be 8915 cfbe 2de7 1c3e 7144 04bf
000000f0: 4c80 f0bd 5f2a 21bf 2579 b63e 7d53 b2be
00000100: 1527 21c1 7396 b83f f3e2 13bf cd0d d0be
00000110: 28d6 9cbf 2f60 483e 7a9b 06c1 a048 8cbf
00000120: 62b9 6840 b656 3f40 63d9 a8c0 a2b0 b2bd
00000130: 10fb 5d3f 5263 eabe c0fd 3c3f 4ea9 15bf
00000140: 784d 08bf c751 48be b971 8dbf c29a 7d40
00000150: 9e06 01bf 1efd 39bf fb91 753f fb66 05bf
00000160: 2365 ea3e 2089 55bf 0ebf 15be bf8c 97bd
00000170: 2e1a 4a3e d1df 20c0 c11c 0b3e 17f9 5c40
00000180: 7c40 99be ca31 bebd e071 853f 1a3b f3bd
00000190: fe47 6dbd e32f 8dc0 4e05 2cbf 892f db3e
000001a0: e94f 00c0 86dd 84bf a309 4abf 578d 033f
000001b0: 9f0b 193f f039 8640 c69a d93e f4cb 5cbf
000001c0: efcd 1c3e 4079 963f a708 433e a57b e0be
000001d0: 7bdb 6440 e040 8ebf c489 afbe c3dd 02c0
000001e0: 3eb9 bebf 4003 bcbe f098 ce3e 2ecd 03bf
000001f0: 1d12 aabe 3b09 21bf b534 4f3f e19b 1e3f
00000200: 1204 c2bc 2528 d5bd dc01 b4bf c6e0 78bf
00000210: 5fb6 c93f 8e64 1c40 bd64 9e40 c445 7441
00000220: 18e6 c341 ea24 7a41 67f5 3441 572f ecc0
00000230: 6c17 0dc1 936d 153e 8117 4dc0 fe35 0040
00000240: b353 3940 a5a8 973f 7194 0dc1 5760 85c0
00000250: 1612 b240 a7da c03e c74a 99c0 952a 3dc1
00000260: 091d acc1 dae4 48c1 7216 81bf f140 cbc0
00000270: ed69 02c1 7cf6 b2c0 ad0b 84c0 9e9d 21bf
00000280: 6626 9cbf 2181 fabf 2125 15bf c49c ccbd
00000290: a669 33bd 19cc 963d 586f 1a3d 83b8 0ebd
000002a0: 925d 80bd 604a c8bf 56e8 32bf 06f8 b13e
000002b0: d670 713f d9ba da3e 1806 7cbf 21fb 7fbf
000002c0: 58a0 6740 2702 be3f c6e3 d13f 8d8a 1c40
000002d0: 9bc9 20c0 a74c f73f d105 0940 cd5f 40bf
000002e0: 6bd9 69bf 006d 23bf ab3a 103f 5f5c 3fbf
000002f0: 58c8 8e3f 31f1 4fbe 4ffa 903e d49b 6a3f
00000300: 896f 06bf 6b29 71c0 0fd1 853f 20a5 4340
00000310: f55b 663f 5e2d 85bf c857 0fc0 7f71 f73f
00000320: 0e6c 01c0 ebcc 77bf 2b82 cbbe 7690 1fc0
00000330: 9ee2 ab3e 8fe7 e13e 873e ce3f 67f5 e13f
00000340: 9799 0ac0 847c 10c0 1749 3b40 3df0 743e
00000350: f5d5 8ebf 6375 34bf 210d f43f 0237 943f
00000360: a145 8ebe 9640 24c0 c1b1 0fbe 8879 2fbe
00000370: b291 1ec0 3149 c53f 6aba b9be ec66 2a40
00000380: a00b edbf 0312 6d40 c6bc 32bd fe91 babe
00000390: 79b6 c43f a683 9fbe 456c 693f 4c9e 49c0
000003a0: d240 693e f63b bfbf f0d3 66c0 67ae be3f
000003b0: 99e3 963f efe6 e4c0 4c0b d83f d339 e93d
000003c0: b594 14c1 adbe 56c0 0fe7 bec0 e5bc bf40
000003d0: b657 6640 0284 bd3c eed5 a840 1827 8bbf
000003e0: 16eb bcbf 62a1 91bf 5fed 1abd abb4 65c0
000003f0: 9d7d c33f caaf 89c0 5d94 49bf 5f0f cebe
-9.804166 0.099395484 -0.34663528 -0.12978937 0.11222219 0.28682613 -5.775438 0.7628247
2.9195275 3.3240871 -3.6906402 -0.23119016 1.7483875 0.86652166 0.3750116 -0.22051731
-0.29719928 -0.01581298 -0.2952053 2.2227237 0.28415594 1.3072071 2.2903795 -0.36155617
-0.7127441 0.59448296 -0.8045721 -1.1997402 -0.17377232 -2.507311 -0.34769824 3.5291574
-0.27130473 -0.5238089 -0.22213094 1.0037414 -0.11510192 -3.0318131 0.6548732 -0.4142974
-1.9244138 -0.34263465 -0.21924517 -0.02932547 -0.34167647 3.4673197 -0.36057484 -0.24772531
-0.4724265 -0.31147277 -0.01709099 -1.7542688 3.138099 -0.7220661 -0.47905123 -2.6972492
-0.22038488 -0.40446118 0.15322562 -0.51666933 -0.11743221 -0.6295528 0.356393 -0.34829322
-10.0720415 1.4420913 -0.5776817 -0.4063553 -1.2252855 0.19567941 -8.412958 -1.0959663
3.6363149 2.9896674 -5.2765365 -0.08725096 0.86711216 -0.457789 0.7382469 -0.58461463
-0.5324321 -0.19562446 -1.105033 3.9625707 -0.5040072 -0.7265185 0.95925874 -0.5211026
0.45780286 -0.8341236 -0.14623663 -0.07399892 0.1973655 -2.5136607 0.13585187 3.4527032
-0.2993201 -0.0928684 1.0425377 -0.11876507 -0.057929985 -4.4120955 -0.67195594 0.42809704
-2.0048773 -1.0380104 -0.78920954 0.5138754 0.5978336 4.1945724 0.42500895 -0.8624871
0.15312932 1.1755753 0.1904627 -0.43844333 3.575896 -1.1113548 -0.34284794 -2.0447853
-1.4900281 -0.3672123 0.40351057 -0.51484954 -0.33216944 -0.6290471 0.809398 0.619566
-0.023683582 -0.104080476 -1.4063067 -0.9721798 1.575878 2.4436374 4.949797 15.267033
24.48735 15.634012 11.309913 -7.380779 -8.818218 0.1459258 -3.2045596 2.0032954
2.8957336 1.1848341 -8.848741 -4.16801 5.5647078 0.37666818 -4.790378 -11.822896
-21.514177 -12.555872 -1.0084975 -6.3516774 -8.150861 -5.5925884 -4.1264253 -0.6313113
-1.2199218 -1.9570657 -0.5825978 -0.09990838 -0.043801926 0.07363147 0.037703842 -0.034843933
-0.06267847 -1.5647697 -0.69885767 0.3475954 0.943128 0.42720678 -0.984468 -0.9999257
3.6191616 1.4844407 1.6397636 2.4459565 -2.512305 1.9320267 2.14098 -0.7514618
-0.9134738 -0.63838196 0.5633952 -0.7475032 1.115489 -0.20306851 0.2831597 0.91644025
-0.5251394 -3.768153 1.0454425 3.0569534 0.89984065 -1.040447 -2.2397327 1.9331511
-2.0222201 -0.96797055 -0.39747748 -2.4931922 0.33571333 0.44121978 1.6112832 1.7653016
-2.1656244 -2.2575998 2.926336 0.23919769 -1.1159045 -0.7049162 1.9066507 1.1579287
-0.27787498 -2.566442 -0.14032651 -0.17136204 -2.4776425 1.5412961 -0.36275035 2.6625319
-1.8519173 3.7042243 -0.04363706 -0.36439508 1.5368186 -0.31155127 0.9118083 -3.1502867
0.22778633 -1.4940174 -3.6066856 1.4896973 1.1788207 -7.15319 1.6878448 0.11387982
-9.286305 -3.355388 -5.9657054 5.9918084 3.5991035 0.023134235 5.2761145 -1.0871305
-1.4759243 -1.1377375 -0.03782403 -3.589152 1.5272709 -4.3027086 -0.7874201 -0.40246102

convs.0.fc_full.bias f4 [128]
00000000: 7162 3fbd bd81 9fbb 878e 9abd 1cde 78bd
00000010: 1ed1 823b e726 bbbc 8439 67bd fd3e a9bc
00000020: a4ff 43bc bfca d53c b2e5 04bd 4550 1abd
00000030: a3fb 98bc 5067 a33c c3f6 f6bd e5f2 c6ba
00000040: 84a0 3e3c f824 5f3b 08ad 7e3d eb10 003d
00000050: ad42 3abb 3194 da3b a858 913d efe1 393d
00000060: 43ae 18bd 8602 d7bd 1bc5 c73d 62ed 953c
00000070: 8946 103d 5676 853d ab2c a03b ba04 c7bd
00000080: 8913 bbbc 169c 673c b2c3 ddbc 2547 883d
00000090: 237d 97bc c56e 3b3d a04e 38bc 9926 98bd
000000a0: 6bcc 9d3c 312f 05bd 5e85 ddbc 3d61 ae3d
000000b0: 5fc4 f8bc a5b0 e93d 3a29 8abd 5053 023e
000000c0: be5b 963d 4741 743d 1128 333d 93ca 963c
000000d0: 231c 683d baeb f2bc 821b efba 3153 08bd
000000e0: 0902 f83c 18fb 233d 7785 c13d 6f8e 51bc
000000f0: 6ea4 82bc e9c1 fe3c 2d84 aabd 0f95 3a3c
00000100: e578 b9bc 98b0 8d3d 1d34 a13c eb3f 083c
00000110: 299c cabd 8a47 1c3b df16 28be abdd 0cbd
00000120: c30a 253d c5e6 963b 357d 8fbd 50ce a53d
00000130: 405b 803d 1abb 1d3b 50dd e93c c952 3ebd
00000140: 6cf6 01bc 0883 bd3d 881d 41ba 5019 6cbd
00000150: 0097 3a3d cb32 383d ca50 2d3d e0fa 993c
00000160: 02bd 1e3d b4f8 d33d 0e37 553c d14d d4bd
00000170: e026 163e e700 23bd 22a0 c6bb ec5b f2bd
00000180: 4466 f93c 6d28 b6bd 2bc6 953d 2734 043b
00000190: 7ee3 f63b 9f25 0d3c 9586 b8bc 4c13 1a3d
000001a0: d2bd 4f3d dd54 373d 4635 183d d350 773d
000001b0: 2feb 4fbd f3f2 563e 6703 853d 997a fbbc
000001c0: d0fa 413d 220e 233c ae53 d2bc ab4f abbd
000001d0: 6a1a 373d d907 e43c c1d4 0d3a 4e4d fc3d
000001e0: 7c4a f2bd 301f 8f3c 657f 003d c6e8 2ebd
000001f0: f606 fbbc 00de db3b a547 313d 5dc2 56bd
-0.04672474 -0.004867761 -0.07546716 -0.060758695 0.003992214 -0.022845699 -0.056451336 -0.020659918
-0.011962805 0.026097653 -0.032445617 -0.037674207 -0.018674677 0.019946724 -0.12058785 -0.0015178589
0.01163495 0.0034049135 0.062176734 0.031266134 -0.002842109 0.006670498 0.07096988 0.045381483
-0.037275564 -0.10498528 0.09754392 0.01830167 0.035223518 0.065167114 0.0048881373 -0.097176984
-0.022836464 0.014136335 -0.027070854 0.06654195 -0.018492287 0.045759935 -0.011249214 -0.07429237
0.019262513 -0.03251571 -0.027041133 0.085146405 -0.030367075 0.114106454 -0.067461446 0.12727094
0.07341717 0.059632566 0.043739382 0.018407142 0.05666746 -0.029653419 -0.0018242451 -0.033282463
0.030274408 0.040034384 0.094492845 -0.0127903065 -0.015947547 0.031098323 -0.08325992 0.011388077
-0.022640655 0.06918448 0.01967817 0.0083160205 -0.098930664 0.0023846352 -0.16414975 -0.034391087
0.040293466 0.0046051466 -0.07006303 0.080959916 0.062674046 0.002406782 0.028547913 -0.04646567
-0.007932287 0.09253508 -0.0007366766 -0.057641327 0.04555416 0.044970315 0.042313375 0.018796384
0.03875447 0.10350171 0.013013614 -0.10366405 0.14663267 -0.039795782 -0.00606157 -0.11833939
0.030444272 -0.08894429 0.07313188 0.0020172687 0.0075344434 0.008614927 -0.022525111 0.03761606
0.050718136 0.044758666 0.03716018 0.060379814 -0.050761398 0.20991115 0.064947896 -0.030698108
0.047358334 0.0099521 -0.025674667 -0.08364805 0.044702925 0.027835773 0.0005410426 0.12319432
-0.11830613 0.017470926 0.031371493 -0.04270246 -0.030642968 0.006709814 0.043281216 -0.052431453

convs.0.bn1.weight f4 [128]
00000000: 382e 0741 135f 3241 de0b fb40 177f 0a41
00000010: b4ef d140 2468 ffbf c40c e43f b819 dc40
00000020: 9415 793e 9644 7d40 a854 c43e d62c c73f
00000030: 6595 7a3d 1737 e5bd c30b b840 4c71 1f40
00000040: 26de 1341 f660 ac40 e6ce 863e 2304 ac3d
00000050: 75c2 8340 6864 0941 0d47 6540 7b9e ab40
00000060: b13b 21c0 f495 d140 e22a a840 12e0 4e40
00000070: 9929 2740 419f 1940 e0ab 0c41 6d50 7240
00000080: 6ad5 fe40 2cc8 2941 6a9c 87be 06a2 1b41
00000090: c991 d73f c8ab 8f3f 3320 1d41 c7f8 bc3f
000000a0: 3a29 fb3e 8c8a c240 3d8c a33f f79e e83f
000000b0: 2384 22bd 4675 8740 ff36 e53e 0149 d0bd
000000c0: d42e 743d 7d78 a840 2c8c ae40 8288 3f40
000000d0: 62ce 2641 c247 0c41 ee70 b6bd 8592 4f3f
000000e0: 1092 8d40 d0d3 403e cbff c83f 92f0 9dbd
000000f0: 9e44 3641 919f 1841 8788 a540 d03a 8540
00000100: 47ea 6840 cffb 8c40 86d4 043e c771 54bf
00000110: 25e5 8c40 4ea1 1141 7bde 3b40 f502 9d40
00000120: 3eab 1b3f 783a 0640 42c6 5040 724c c640
00000130: ee84 f93e 70e4 a63f 80ff 6940 b4f0 da40
00000140: fb87 eb3f 3cb5 fe40 0f62 0d40 75f9 57bf
00000150: dcea 133f 764c 87bd 484d 20bf 6122 0641
00000160: 0e4c 1fbf 9b22 0741 87f2 e540 1303 a640
00000170: a7a0 5f40 452f 2c40 5d91 c63f b6af 6a40
00000180: 12ed 983d 91cb 1840 06bc 0cbf d68a 3c41
00000190: 4769 62bf 9897 443f 8fe5 2c40 297f 1b40
000001a0: 4fb5 f33f ed27 7a40 ef30 f140 df1d 06bf
000001b0: 683e 9b3f a2f9 6340 e661 5f3f 5136 f1be
000001c0: ef25 a53e 6df5 e740 9932 253e 320a b0c0
000001d0: 43df 2741 1501 7c3f e4d2 c73f 9b98 8740
000001e0: 0c8c a13e b505 ab3d 4786 713f bb90 6ebf
000001f0: fa1c dcbe 09c6 e240 5521 8d3f f08b b040
8.448784 11.1482115 7.8451986 8.656028 6.5605106 -1.9953656 1.7816396 6.8781395
0.24324638 3.9573112 0.38345838 1.5560558 0.06117763 -0.11192148 5.7514358 2.49129
9.241735 5.386836 0.26329726 0.083992265 4.1174874 8.587013 3.5824616 5.3630958
-2.5192683 6.549555 5.2552347 3.2324262 2.611914 2.400345 8.791962 3.7861588
7.9635515 10.61137 -0.26486522 9.7270565 1.6841365 1.1224298 9.820361 1.4763421
0.4905489 6.0794125 1.2777172 1.8173512 -0.039676797 4.2330656 0.4476852 -0.101701744
0.05961497 5.264708 5.454611 2.9927068 10.425386 8.767519 -0.089082584 0.81082946
4.42408 0.188308 1.5703062 -0.07711901 11.391752 9.538957 5.172916 4.1634293
3.6392992 4.4057384 0.12971696 -0.8298611 4.4029717 9.101881 2.9354541 4.906611
0.6080817 2.0973186 3.2621007 6.1968317 0.4873423 1.3038464 3.6562195 6.8418827
1.8400873 7.9596233 2.20911 -0.84365016 0.5778024 -0.06606381 -0.6261792 8.383393
-0.62225425 8.445949 7.1858554 5.1878753 3.4941804 2.690385 1.5513111 3.6669745
0.074670926 2.3874247 -0.549744 11.7838955 -0.8844189 0.76793814 2.7015111 2.4296362
1.9039706 3.9086869 7.5372233 -0.5238933 1.212842 3.5621114 0.87258756 -0.47111753
0.32255504 7.248709 0.16132583 -5.5012445 10.492007 0.9843915 1.5611234 4.2373786
0.3155216 0.08350698 0.94345516 -0.9318959 -0.42990857 7.086674 1.1025797 5.517082

convs.0.bn1.bias f4 [128]
00000000: aa65 0bc0 648d 1cc0 592b ca40 d47a 2a3f
00000010: 31db 70c0 6a24 1f40 83f8 2dc0 7c04 8abf
00000020: 28d4 2641 39ca 1dc0 3fff 2441 e12d 07be
00000030: f5aa 1c41 5dd7 3d41 7c99 b6be 731e 773f
00000040: 1c07 a3be 10bb 57c0 3ff9 8440 c073 4441
00000050: 8e70 ac3c dea5 0e3f 9013 8d3f d47a b6c0
00000060: 7990 583f 8305 d83e 0dbb 75c0 d505 b3c0
00000070: 08e2 a33f 39c1 a3c0 7b5a 25bf 0612 0040
00000080: 092b 0c40 46ab 5a3f 8782 2b41 6a49 d23f
00000090: afed 1140 9b1a f440 22ae 05bf 6430 6d40
000000a0: cc4e a240 46ac 89c0 f869 f940 e661 e4bf
000000b0: 6e25 0d41 c719 69c0 6752 e63f 8064 1941
000000c0: 825e 0341 58e7 a8be 1ed6 3940 e188 9cbf
000000d0: 80f3 efbf 2511 223f 336c b340 6921 6dc0
000000e0: ac95 c53f ad9d 1141 ec28 17bf 7d3f 1241
000000f0: 20c7 3540 10d0 0cc0 8a13 6a3e 6747 183f
00000100: e1b7 9440 5d8a 003f 2d00 2141 2440 d03e
00000110: 98e7 34c0 5323 98bf 8a8e 0cc0 85f8 3cc0
00000120: 5dc4 0041 42ef 7bc0 4c81 bf3f 62c3 9ac0
00000130: e48c be40 52de b740 5d6a 5c3f eab5 04c0
00000140: e608 cfbe 0804 8ebf b3a4 cd40 e547 0441
00000150: ef85 6d40 668f 8f41 30df 4041 0e9e a7bf
00000160: 059f 3340 cfac 84be 8319 18c0 9c56 04c0
00000170: 2294 e1be 94df d0c0 9f78 3540 2312 5b3e
00000180: 7459 be40 e6ed 2440 5e32 ad40 a8bc 40bf
00000190: 69ee 9541 069c f640 566d a63f b978 c8bf
000001a0: fb3d 2d3e edfe 70c0 6e64 b83f b842 c640
000001b0: 5cfb 4140 5123 5cc0 4b2e f540 87de 9e40
000001c0: b03d c740 4207 ba3f 2495 4141 6a57 14c0
000001d0: 3c98 cebf 0cf2 5740 9b01 f93e 0a26 00c1
000001e0: 6203 e940 e7bc d140 a3b9 c0be 975c d540
000001f0: 7082 1741 916f 11bf 0c4b 87bf ea12 dfbf
-2.17808 -2.4461298 6.3177915 0.6659367 -3.7633784 2.4865975 -2.718293 -1.0782619
10.426796 -2.4654677 10.312316 -0.13201095 9.791738 11.865079 -0.35663974 0.96530837
-0.31841362 -3.3707924 4.1554255 12.278259 0.021049764 0.55721843 1.1021595 -5.7024937
0.8459545 0.42191705 -3.8395417 -5.594462 1.2803354 -5.1173368 -0.6459119 2.0011
2.1901267 0.8541759 10.719367 1.6428654 2.280132 7.6282477 -0.5221883 3.7060785
5.0721188 -4.3022795 7.7941856 -1.7842376 8.821638 -3.6421983 1.7993897 9.587036
8.210573 -0.32989 2.9036937 -1.2229272 -1.8746185 0.6330741 5.606958 -3.7051642
1.5436301 9.100995 -0.59046817 9.1405 2.8402786 -2.2001991 0.22859016 0.5948395
4.647446 0.50211126 10.062543 0.40673935 -2.8266354 -1.188578 -2.1962 -2.9526684
8.04794 -3.9364781 1.4961333 -4.8363504 5.9546986 5.7458887 0.860998 -2.0736032
-0.40436476 -1.109498 6.426355 8.267552 3.7112997 17.945019 12.054489 -1.309511
2.8065808 -0.25913092 -2.376557 -2.0677862 -0.4405833 -6.5272923 2.8354871 0.21393637
5.9484196 2.5770202 5.4123983 -0.75287867 18.741411 7.706546 1.3002117 -1.5661842
0.16918175 -3.7655594 1.4405649 6.1956444 3.0309668 -3.4396555 7.661901 4.964664
6.22628 1.4533465 12.098911 -2.3178353 -1.6140208 3.3741484 0.48634037 -8.009287
7.281663 6.5543094 -0.3764163 6.6675525 9.469345 -0.5681086 -1.0569777 -1.7427647

convs.0.bn1.running_mean f4 [128]
00000000: efa3 a440 f540 3644 d5b8 4e41 c25e f643
00000010: 1d8a 1d44 6538 3e43 a48a 65c3 f8f6 a443
00000020: 9329 ac43 db8f 0d44 339b 1944 78ad 8943
00000030: 4c83 3643 be7b 2bc4 2ae4 8342 6aeb 3444
00000040: 9a68 4544 9003 2144 ee42 a5c3 f998 3844
00000050: b62f 5641 6e8f 7b44 7aa7 9844 7130 5443
00000060: 040d 8ac3 76e2 a6c3 ab25 e243 cd4b 80c2
00000070: eeba 7e44 fd9a e8c3 d4f8 5244 c4a1 d143
00000080: 9808 8a43 9553 1444 9a03 2dc3 a86a 0bc3
00000090: a436 5844 57de ddc3 185a a842 87d2 4dc3
000000a0: 497c 5d43 df8b 5c44 0f40 6ec4 0e9c b4c2
000000b0: 57e3 1144 78b2 84c3 9453 7fc1 2bb8 8843
000000c0: 6352 b942 ed17 57c4 246f 9743 2bad 71c3
000000d0: 7f7a be43 ae08 6744 08fe 57c3 9ea1 8543
000000e0: a5f9 5444 702d 8543 58ca 6bc2 48b0 38c2
000000f0: d6d7 21c3 6de9 5b44 c4f7 f8c2 a169 04c2
00000100: 4b23 49c3 d623 a743 d0cb f942 03a1 2044
00000110: 2537 5843 6b6c aac3 696d 8bc3 3bd0 2d43
00000120: cb32 0544 f16d df43 c040 4344 0dbb 5a43
00000130: 8d9e 0942 d769 ccc4 7968 adc2 0cd8 7a44
00000140: 8276 fb42 5057 2744 08cc f1c3 2725 4cc4
00000150: 18f8 9c42 5b3b 49c4 a8ec d1c4 0a55 0a44
00000160: 6228 84c2 9b99 07c3 be25 2f43 dafd 41c4
00000170: c064 2744 3395 3ec3 8fe2 eac3 21b3 7442
00000180: 8a9b 1dc3 ae2e 4344 832a 81c2 191f 82c3
00000190: 4b4f 6a43 8c26 06c4 40b1 9b43 50e3 76c3
000001a0: c31c c643 2a47 1544 93f3 cac4 7b8a 1c44
000001b0: 2ef0 7e44 d35b 5942 7f83 4d43 9f4f ab43
000001c0: 04a5 e143 613e 5544 6fb9 bb42 9747 06c4
000001d0: 44f8 11c4 2ea1 9244 fafb 25c4 0510 de43
000001e0: 7d2f 8d44 fa74 be43 bd62 1dc2 ff42 0644
000001f0: 1d40 8843 101f 3644 4c62 d5c2 19b1 5343
5.1450114 729.01495 12.920125 492.7403 630.158 190.22029 -229.54156 329.92944
344.3248 566.24774 614.425 275.35522 182.51288 -685.9335 65.94563 723.67834
789.6344 644.05566 -330.5229 738.3902 13.386648 1006.2411 1221.2336 212.18922
-276.10168 -333.76923 452.29428 -64.14805 1018.9208 -465.21085 843.88794 419.2638
276.06714 593.30597 -173.01407 -139.41663 864.85376 -443.73703 84.175964 -205.82237
221.48549 882.1855 -953.0009 -90.304794 583.5522 -265.3943 -15.957905 273.4388
92.66091 -860.37384 302.8683 -241.67644 380.957 924.1356 -215.99231 267.26263
851.9007 266.35498 -58.9476 -46.17215 -161.84311 879.6473 -124.48392 -33.103153
-201.13786 334.27997 124.89807 642.5158 216.21541 -340.84702 -278.85477 173.8134
532.79364 446.85892 781.0117 218.73067 34.404835 -1635.3075 -86.70405 1003.37573
125.73146 669.36426 -483.594 -816.5805 78.48456 -804.9274 -1679.3955 553.32874
-66.07887 -135.60002 175.14743 -775.96643 669.5742 -190.58281 -469.77 61.17493
-157.60757 780.7294 -64.58303 -260.24295 234.30974 -536.6023 311.38477 -246.88794
396.2247 597.11194 -1623.6117 626.16376 1019.7528 54.339672 205.51366 342.62204
451.28918 852.9747 93.862175 -537.1186 -583.87915 1173.0369 -663.93713 444.12515
1129.484 380.91388 -39.346424 537.0468 272.5009 728.48535 -106.691986 211.69179

convs.0.bn1.running_var f4 [128]
00000000: 8714 9448 f636 9047 24b1 0b48 0eb4 0748
00000010: 10b3 6e48 8764 5648 d273 0149 5b0e 1047
00000020: f8a5 d247 038a ab48 cbfe 9c49 c4a2 9048
00000030: 9706 c547 6c57 1649 6065 b246 628e 4548
00000040: 4379 5f48 755f 2948 cbc8 b748 ad79 8849
00000050: 9478 8c46 7a5b 3449 fde1 104a 5843 2547
00000060: e1fc b048 8a8e 4348 21c4 ee47 d704 8848
00000070: 3933 0849 9fed bb48 0cae 0c49 db5d cb48
00000080: 525d 9947 500a b347 1bfd 2247 0724 1b49
00000090: 9c4e cd48 8d68 f148 5981 7d47 8d85 2c48
000000a0: 2a12 2248 631d b148 205e 6d49 aade bd48
000000b0: 7075 6048 b047 8648 6e73 0649 adba 0848
000000c0: 35e4 6448 048b d448 0b97 bc48 a262 1348
000000d0: e41b 8c48 c2a0 a648 09ce 6248 9349 0a47
000000e0: 60f8 b248 aa32 3748 09e7 8e46 bf44 f547
000000f0: 24ac 3c47 721c c048 81c7 e446 ec62 ad48
00000100: 3893 9f48 f772 0e49 86ea 9348 0c68 8248
00000110: f8bf 8a47 96df cc48 5496 b548 bc85 9846
00000120: 1e00 e747 24c0 1448 d2eb c449 9a07 3848
00000130: 0a10 4f48 c146 864a a724 e647 2e86 5148
00000140: 4609 8948 4b81 8b48 8c7c bc48 dd39 b749
00000150: efe4 6a46 9541 d749 929f 994a bbf6 d648
00000160: ffab 5348 a7eb 4c48 e98f e348 6dbf b848
00000170: 0d4b 5148 f632 1248 852a 8e48 a140 ec48
00000180: 7af0 4048 12b9 e448 7fd2 9d47 aff0 a847
00000190: 2669 b748 3dd0 1249 247d 8a48 8d39 0049
000001a0: 97a1 c048 da28 ec47 d3ef 6b4a 8742 6e48
000001b0: 7a5c 7a49 d412 4e47 41b8 0c49 15d4 bb48
000001c0: d0b1 0949 75f1 7349 831e c248 c3f0 2f47
000001d0: d69d e147 b99a ec48 32e8 df48 4494 fe46
000001e0: 78f0 9349 e03e e248 06a6 8b46 765f ca48
000001f0: e477 1549 01bd 1e49 4f07 8c47 c9a2 8a48
303268.22 73837.92 143044.56 138960.22 244428.25 219538.11 530237.1 36878.355
107851.94 351312.1 1.2861054e+06 296214.12 100877.18 615798.75 22834.688 202297.53
228837.05 173437.83 376390.34 1.1180056e+06 17980.29 738743.6 2.3737592e+06 42307.344
362471.03 200250.16 122248.26 278566.72 557875.56 384876.97 576224.75 416494.84
78522.64 91668.625 41725.105 635456.44 420468.88 494404.4 64897.348 176662.2
165960.66 362731.1 972258.0 388853.3 229845.75 275005.5 550710.9 140010.7
234384.83 435288.12 386232.34 150922.53 286943.12 341254.06 232248.14 35401.574
366531.0 187594.66 18291.518 125577.49 48300.14 393443.56 29283.752 355095.38
326809.75 583471.44 302932.2 267072.38 71039.94 419580.7 371890.62 19522.867
118272.234 152320.56 1.6131782e+06 188446.4 212032.16 4.3999685e+06 117833.305 214552.72
280650.2 285706.34 386020.38 1.5009876e+06 15033.233 1.7633786e+06 5.033929e+06 440245.84
216751.98 209838.61 466047.28 378363.4 214316.2 149707.84 291156.16 483845.03
197569.9 468424.56 80804.99 86497.37 375625.2 601347.8 283625.12 525208.8
394508.72 120913.7 3.8655888e+06 243978.11 1.0254796e+06 52754.83 576388.06 384672.66
563997.0 999191.3 397556.1 45040.76 115515.67 484565.78 458561.56 32586.133
1.211919e+06 463351.0 17875.012 414459.7 612222.25 650192.06 71694.62 283926.28

convs.0.bn2.weight f4 [64]
00000000: 444a ed3f f320 f73e c242 eb3f e2b7 9fbb
00000010: 2ee4 303e 6d8a c8bf 39d8 df3f 583f 253e
00000020: 017d e53f d7c5 873e e947 b63f d136 1ebf
00000030: acc6 7ebf d6a7 b63f b764 8140 c2de cd3f
00000040: d515 5e3f ec49 3140 aced 3240 6e37 b43f
00000050: 1d4f 1d40 bf18 143f 7778 e03e ba80 c4be
00000060: d389 c53f 0c2c f03f c9ff 3f40 3c5e 3f40
00000070: bd4c a83f 62f1 af40 62f1 0f40 5501 643f
00000080: 6fed 0240 9390 2e40 3a23 10c0 b1c3 0940
00000090: daba e33f 604d fc3f 3dbb 963f 3c8a 9fbf
000000a0: 0060 7840 ffda ef3f 04ee eb3f 7914 2740
000000b0: af6a a63f 35b6 b83f 8f01 863f 59ae a2bf
000000c0: fb29 2140 5a4e f23f 6c09 1f40 eff7 1d3f
000000d0: 76a9 df3f fd5a 3140 c7df c23f 987b d23e
000000e0: a096 0940 3085 1140 20a5 75bf 66f2 27c0
000000f0: 722b 0640 eaf7 0340 8af3 3c40 b36e 1040
1.8538289 0.48267326 1.8379748 -0.0048742155 0.17274544 -1.5667244 1.7487861 0.16137445
1.7928773 0.26518127 1.4240695 -0.61802393 -0.995219 1.426997 4.0435443 1.6083605
0.86752063 2.7701368 2.7957563 1.4079416 2.4579537 0.5785026 0.43841907 -0.3837946
1.5432686 1.8763442 2.999987 2.9901266 1.3148419 5.4982157 2.2491078 0.8906453
2.0457418 2.727574 -2.25215 2.152569 1.7791398 1.9711113 1.177589 -1.2464061
3.8808594 1.8738707 1.8432012 2.6106246 1.3001307 1.4430605 1.0469226 -1.2709457
2.5181873 1.8930161 2.48495 0.6170644 1.747359 2.7711785 1.5224541 0.4110992
2.1498184 2.2737541 -0.95955086 -2.6241698 2.0964017 2.0620065 2.9523644 2.2567565

convs.0.bn2.bias f4 [64]
00000000: 8f90 07c0 e347 e7bf 05b4 86c0 aa36 5cc0
00000010: 0bbb cabf 54e8 c9c0 a900 7cbf 8cc7 8dc0
00000020: 261a 10c0 bc6b 40bf ad91 9abf fba8 81bf
00000030: d717 2ac0 edae 3cc0 e2a7 f3c0 04aa edbf
00000040: 835f 8cc0 6d85 eabf 48d5 1fc0 aac0 f0bf
00000050: 29a7 c1c0 564b fbbf 5b50 19c0 f53f c7bf
00000060: 65e8 44c0 ac6e c3bf 392b 21c0 2e72 9fbf
00000070: d340 3cc0 e2a9 96c0 4111 b3bf 79f6 2abf
00000080: f17a dbbf cb3c 1dc0 cf2b 40c0 cde5 2fc0
00000090: b3fd dbbf fa6e 24c0 83e7 26c0 b876 08c0
000000a0: bad3 87c0 f926 2cc0 3d40 41c0 4f0f a9c0
000000b0: cd76 7cc0 862b 15bf e4bb 26c0 5c65 1dc0
000000c0: 5bcf fcbf d1ab 6fbf e6e6 17c0 fd3b 4dc0
000000d0: eb8a 81bf 845f 60c0 f762 d8bf 196e 3fc0
000000e0: 70e8 98bf 9ec8 63c0 d157 19c1 62ff dcbf
000000f0: d447 63c0 0754 58c0 f94c dec0 076f 2cc0
-2.1181982 -1.8068813 -4.209475 -3.4408364 -1.5838331 -6.3096104 -0.9843851 -4.4306087
-2.251596 -0.7516439 -1.2075707 -1.0129694 -2.657705 -2.9481766 -7.6142435 -1.856751
-4.386659 -1.8321968 -2.4973927 -1.8808796 -6.0516553 -1.9632366 -2.3955295 -1.5566393
-3.0766842 -1.5268149 -2.518263 -1.245672 -2.9414566 -4.7082376 -1.398964 -0.6678234
-1.7146894 -2.4568355 -3.0026739 -2.748401 -1.7186798 -2.5692735 -2.6078804 -2.132246
-4.2445955 -2.6898787 -3.0195458 -5.2831187 -3.944751 -0.58269536 -2.605218 -2.4593115
-1.975078 -0.93621546 -2.373468 -3.2067864 -1.0120519 -3.5058298 -1.6905202 -2.9910948
-1.1945934 -3.5591197 -9.58394 -1.7265437 -3.551259 -3.3801286 -6.946896 -2.6942766

convs.0.bn2.running_mean f4 [64]
00000000: 70b0 1942 6158 423f cb9b aa42 7f48 9a40
00000010: c230 cb3e 245a 3042 6b45 4640 d32f 093f
00000020: e132 c142 d4fb 473f b132 ef41 082a 2341
00000030: cbfe 8e42 01f9 8942 8501 b941 b108 bc41
00000040: 194c ea40 6af2 e441 0e25 9842 2b82 c642
00000050: 4af7 cc41 68ec 0143 475a ba42 4852 3c40
00000060: f3ea 9b41 30f7 0642 c035 ab41 19d4 b43f
00000070: 83e9 8a41 ec63 b53d 7cca c141 19c4 3741
00000080: a8f9 1742 caaa ec41 8509 8242 2bfb 5942
00000090: 84fd 3643 d5de b842 34db b140 1d9b f340
000000a0: 4bf7 5e41 f621 253f 6f4f 4942 e7b6 9841
000000b0: 0ec0 1542 ddc6 843c 3454 9d42 95a3 6e42
000000c0: 2572 9542 ff54 9c41 ae68 c442 7931 5741
000000d0: 4fdb 1042 8266 d641 adce 6741 3e2f 173c
000000e0: 044f 6142 c253 9d42 fe01 9340 3a0c a042
000000f0: a182 6342 774c cc41 216e 8240 6675 4f41
38.422302 0.75916106 85.30428 4.8213496 0.39685637 44.088028 3.097987 0.535886
96.59937 0.78118634 29.899752 10.197762 71.49764 68.986336 23.125742 23.504244
7.3217893 28.618366 76.07237 99.254234 25.620747 129.92346 93.17632 2.942522
19.489721 33.741394 21.401245 1.4127227 17.36402 0.08856949 24.22387 11.485375
37.993805 29.583393 65.01859 54.49528 182.9903 92.43522 5.558008 7.6126847
13.935374 0.64504945 50.32757 19.089308 37.437553 0.016208107 78.66446 59.659748
74.72294 19.541502 98.20445 13.449578 36.21417 26.800053 14.487958 0.009227572
56.327164 78.66359 4.593993 80.02388 56.877567 25.537336 4.0759435 12.966162

convs.0.bn2.running_var f4 [64]
00000000: 678d 1b43 f989 3b40 ea39 c444 04c3 ad41
00000010: 5827 a23f de6c 7043 b43d 1941 b1e9 c440
00000020: 6e6b 3d42 c2cc 2140 df1c c742 250d db42
00000030: f154 f141 80ee 8941 73d8 5644 5d99 0244
00000040: bcb3 5442 1d6c 2644 8550 4343 926a 2641
00000050: c8d7 0a44 e967 2844 c286 8443 56d6 8d41
00000060: bde9 ee40 e7b7 cb44 4c4f e443 ba2a 0a40
00000070: c358 8943 b250 6e3c 0564 0744 d10f ef42
00000080: bfa3 9f44 33f3 4844 842b 1d42 be62 6c45
00000090: b3ec 1244 11a9 5e41 e60a 1d42 4759 9242
000000a0: 048d 1843 1329 d63e ebb0 5a43 769c 9343
000000b0: 7674 3541 7f1b 8539 9357 bd42 edb2 4241
000000c0: af90 3c41 5595 cc43 d787 2745 4518 ab43
000000d0: dff6 b344 4da7 2344 3420 5c42 9945 853d
000000e0: 53f2 c842 0bca 533f ac7e ad41 c004 d542
000000f0: b369 3845 ec27 2244 4843 9e41 8797 2f43
155.55235 2.9302962 1569.8098 21.720222 1.2668257 240.42526 9.577564 6.153527
47.35491 2.5281224 99.55639 109.52567 30.166475 17.241455 859.382 522.3963
53.17552 665.6893 195.31453 10.401018 555.3716 673.6236 265.0528 17.729656
7.4660325 1629.747 456.6195 2.1588578 274.69345 0.014545606 541.5628 119.53089
1277.1171 803.8 39.292496 3782.1714 587.6984 13.916276 39.260643 73.17437
152.55084 0.41828212 218.69109 295.22235 11.340933 0.00025388223 94.67104 12.168683
11.785323 409.16666 2680.49 342.1896 1439.7147 654.6141 55.03145 0.06507415
100.47329 0.8273017 21.686852 106.50928 2950.6062 648.6238 19.782852 175.5919

convs.1.fc_full.weight f4 [128, 169]
00000000: 2875 08c0 6dc4 5dc0 aefc a9c0 a23f 5340
00000010: 9fde 9e3f 3c4b 4140 516d b7c0 08f3 f53d
00000020: c373 643f a303 ad3f cc51 893e 1214 c8bf
00000030: 3ef6 b13f 4baa 18c0 1fd4 b1bf 8ad6 babf
00000040: f69a 2dc0 cf04 5d40 8c44 1fc0 b813 d23f
00000050: 5ae8 5abf d3eb b33f 4f61 02c0 8fb0 8b3e
00000060: 0f1d aa3e 551d 1340 7832 1f40 2366 a2c0
00000070: edd6 3ec0 4f00 2e3e 0b6b 3cc0 a002 ccbf
00000080: 3671 70c0 2140 9fc0 6d77 453f cc1d c0bb
00000090: f080 c0c0 8404 9c3f 2203 e23f 1621 08c0
000000a0: 2a1b 99c0 8d3c 01bf c5f6 03bf d012 8a3f
000000b0: 978c 0740 6f61 3440 af34 69c0 c304 6440
000000c0: cd1a 71c0 da61 67bf 8fc0 3fc0 f213 913d
000000d0: 663d 8f3f 8eca 99c0 53dd 01c0 61fa 37c0
000000e0: 117d 5f3f 9125 99c0 ebdf 6d3e 13b3 c3c0
000000f0: 900c a4c0 0049 e83f 7e6c 943f 3411 f13f
00000100: d209 8840 1e32 1e40 7196 a93e 4aa5 1140
00000110: 9620 e0c0 ed47 4ec0 4a0f be40 4e91 afc0
00000120: e2cf 11c1 b952 39c1 a9a4 7a40 0c6a 433f
00000130: 2239 03c1 3511 5940 b197 b2c0 8ae8 6740
00000140: 1831 8f40 fef0 b4c0 0667 0d41 5847 89bf
00000150: 0e31 433e d9b0 e6c0 cb37 0ebf 57a2 23c0
00000160: 2881 76bf 5a9b 1dc0 c0fc 5dc0 c1eb 55c0
00000170: a19c dc3f 0e44 0340 9a15 f53f 25fc 563e
00000180: c62d 0540 3473 8040 0fd9 b2c0 7696 9ec0
00000190: 4900 6840 4b22 4541 c8cd 06c1 36fa f640
000001a0: fa20 c83e 3b85 40c0 5201 30bf 4dd6 a440
000001b0: 3677 eac0 dd46 f8bf 0412 cc40 e0ba 47c0
000001c0: ab6b 2b40 b0a9 bb40 20a1 5e40 ddce 6140
000001d0: 0f8e 1ec1 0c96 bf3e bf9b ad40 acab 6640
000001e0: 6b08 a8c0 6235 4d40 80f7 873f a1dd a740
000001f0: 590f 1140 0d10 4bc0 37c8 b4c0 6379 66c0
00000200: f943 a0be b905 80bf 41e4 c2c0 1a40 59c0
00000210: d5a2 69c0 2140 1dc0 ca81 43be 0d33 7ebf
00000220: 2137 90bf 79a1 a9bf 0521 0bc0 3342 eb3f
00000230: b3b5 8440 871e 3341 ee5a 783f 30ec c8c0
00000240: 328e 8ac0 b88e 27c0 74c6 f3bf 1032 0bbf
00000250: 2abf 86c0 87ed 9dc0 3aed f9bf e361 dcbf
00000260: 2f11 6abf 2292 b53f 5023 1dbd 746f e6bf
00000270: 5c90 a83f 2ff3 8740 ac94 b03f 60a8 5bbf
00000280: e03a 3340 5eb4 f040 cca7 e540 d0f4 ad3f
00000290: 5137 a9bd 2dc1 4b3d e636 30bd 4100 e8bc
000002a0: 1422 e9bc e01c a740 5dd8 9240 51cc 8fbf
000002b0: 7786 f33d 1063 c53e 8663 ef3d d7bc df40
000002c0: 5e38 b33e 012b 52bf c833 1bbf 8322 50bf
000002d0: 55d6 c63f 0a85 813e 519f 4340 d906 a2bd
000002e0: a4c6 19be 061b b33e 21c2 a2be 4274 2140
000002f0: 0faf 2dc0 f4da 0c3e a96a 95be 5988 b03f
00000300: 3605 3f3e 51d4 d53e bd4f 6abf 7043 d93e
00000310: 8be5 2740 21e1 303e 9f87 5d3f 441f 0440
00000320: 635e 28c0 d605 173f 7245 193e b2d1 a7be
00000330: 3557 99bf 6268 063e 3025 0440 755b abbb
00000340: dbaf 2c3f f1ba 0abe 2136 133c 96c8 dc3f
00000350: d105 5a3f 3aef 983d 42e2 2b40 3e07 8a3f
00000360: 737b bebe 8196 993e fc11 2440 9236 983e
00000370: 065a 93be 3380 03bf c715 13be de95 973e
00000380: d72d 8540 91ff ec3d d0f0 613e f0c2 db3d
00000390: 09cc 0b3f 9748 23be 1697 4ebf 787d d63e
000003a0: 665a 9e3e c579 383f 95b6 46be 3505 c8be
000003b0: 95f5 5dbe a866 883f 0cde 943f 540b 923e
000003c0: 8723 493f 1537 183f 9105 253f 2209 40bf
000003d0: 691d 013f 222f 873f bff8 c940 f7af 8f3d
000003e0: 3ac1 203e 51b7 413d 078c 8e3d 9f2e bc3e
000003f0: ab7c 01c0 7f91 2e3f cad6 683f b163 1740
-2.1321507 -3.4651139 -5.3120947 3.3007588 1.2411689 3.020217 -5.7320943 0.12009245
0.8923914 1.3516735 0.2682022 -1.5631125 1.3903272 -2.3853939 -1.3892859 -1.4596722
-2.712583 3.4534185 -2.4885588 1.6412268 -0.8551079 1.4056343 -2.0371892 0.2728314
0.33225295 2.2986653 2.4874554 -5.074968 -2.981868 0.16992305 -2.9440334 -1.5938301
-3.7569098 -4.976578 0.77135354 -0.005862927 -6.0157394 1.2188878 1.7657206 -2.1270194
-4.784566 -0.5048302 -0.51548415 1.0786991 2.117956 2.8184469 -3.6438406 3.5627906
-3.7672608 -0.90383685 -2.9961278 0.070838824 1.1190612 -4.805976 -2.0291336 -2.874657
0.8730021 -4.7858357 0.23229949 -6.1156096 -5.1265335 1.8147278 1.1595609 1.8833375
4.251199 2.471809 0.3312259 2.2757134 -7.003978 -3.22314 5.9393663 -5.4864874
-9.113253 -11.582696 3.9163 0.7633369 -8.201448 3.3916752 -5.581017 3.623568
4.474743 -5.654418 8.837652 -1.0724897 0.19061682 -7.209088 -0.55553883 -2.5567834
-0.96290827 -2.462607 -3.4685516 -3.3425143 1.7235299 2.0510287 1.9147217 0.20994623
2.0809188 4.014063 -5.5889964 -4.955867 3.6250174 12.320872 -8.42524 7.7180433
0.3908766 -3.0081317 -0.68752015 5.15116 -7.327052 -1.9396626 6.377199 -3.120781
2.6784465 5.864464 3.4785843 3.528251 -9.909682 0.37419164 5.425262 3.604228
-5.2510276 3.2063832 1.0622406 5.2458043 2.2665617 -3.1728547 -5.6494403 -3.6011589
-0.3130186 -1.0001746 -6.090363 -3.3945374 -3.6505635 -2.457039 -0.1909248 -0.9929665
-1.1266824 -1.3252403 -2.1738904 1.8379577 4.14718 11.194953 0.9701375 -6.2788315
-4.329858 -2.6180859 -1.9044938 -0.54373264 -4.2108355 -4.935245 -1.9525521 -1.7217373
-0.9143247 1.4185221 -0.038363755 -1.8002763 1.3169055 4.2484355 1.3795371 -0.85803795
2.8004684 7.5220175 7.176733 1.3590336 -0.08262504 0.049744774 -0.043021105 -0.028320434
-0.028458633 5.222275 4.5889115 -1.1234227 0.118908815 0.3855214 0.116889045 6.9918017
0.35003942 -0.8209687 -0.60625887 -0.8130266 1.5534159 0.25296813 3.056599 -0.07911462
-0.15017182 0.34981555 -0.31788734 2.5227208 -2.7138097 0.13755399 -0.29182938 1.379161
0.18654332 0.41763547 -0.9152792 0.42434263 2.6233852 0.1727338 0.86535066 2.0644083
-2.630761 0.5899328 0.14967898 -0.32777172 -1.1979738 0.13125756 2.0647697 -0.0052294084
0.67455834 -0.13547875 0.008985073 1.7248714 0.85165125 0.07467504 2.6856847 1.078346
-0.3720356 0.29997638 2.5635977 0.29729134 -0.2877962 -0.5136749 -0.14363776 0.29606527
4.1618457 0.11572183 0.22064519 0.10730541 0.5460821 -0.1594566 -0.8069929 0.418926
0.30928344 0.72060806 -0.19405587 -0.39066473 -0.21675713 1.0656328 1.1630263 0.28524268
0.78569835 0.5945905 0.6446162 -0.75013936 0.504355 1.0561259 6.3116145 0.070159845
0.1569871 0.047293965 0.06960302 0.3675432 -2.0232341 0.6819076 0.9095274 2.3654597

convs.1.fc_full.bias f4 [128]
00000000: 97a5 ce3f b7cf 213d d66d ac3b 994a 0c3f
00000010: d0f6 b6bd b0d1 f1bc 849d 93bd 258c 0140
00000020: c9ac b5bf 2192 0b3e 5ee2 a13f 3d3a c2bd
00000030: 4cd5 df3f cd2f 26c0 788b 6ebe 964c 08c0
00000040: 8c52 1c3e 7c81 abbf 282e b2be ff99 db3d
00000050: 6743 5abf 20e5 69bc c815 043e 9976 bc3e
00000060: b564 f5bb b361 3fbf 050c fc3e dd2e 02c0
00000070: faa8 a8bf 1f6d b13c d07c 5e3d 145d 483d
00000080: 629d 6fbe 82e1 dc3f 227a 2abf 717b d1be
00000090: 0f7e 10bf 6c7c 9e3f 80a9 32bf e0a0 88bf
000000a0: 6791 93be 88cd f8bd 45fa 32bf 0553 c53c
000000b0: 6620 d23f 6148 8e3e f52c 94be a33b 0440
000000c0: 0492 cebe 8cdd cdbe b7c7 d13e 5de1 07c0
000000d0: 7348 9ebc c15a d93c e04e 3ebd cd33 bc3e
000000e0: f8d7 063c bb60 9e3f d6bf 5dbd 62e7 29bf
000000f0: bc48 a13e 0074 6f3f 8eb8 3e3f a34e 923d
00000100: 9951 bb3f 670c 6fbd a1ca bebe 7746 2a3e
00000110: 254e bcbe 8339 ef3d f2f8 50be 5996 be40
00000120: 2e32 b7be 7c37 b33f 7b8f ae3f 7d4f 43bf
00000130: ca45 0a40 833e b9be e1dd aebf 7624 ffbe
00000140: 6834 a0bd 2a14 13c0 afa2 37be 266c 983e
00000150: 1521 11c0 1587 99bd 70b9 a2bf 192c ac3e
00000160: 1f1b c03c 935c 16bf 3c0b d33f f51b 4ec0
00000170: 2b24 d4bf 0a77 32bb cc2c d03c a5ee 13bf
00000180: e784 02bf 6a5a 9fbe 4d40 3dbf 73a8 c33e
00000190: dccd 1dc0 c0d8 ea3f e5b9 6bbf 03d1 fbbf
000001a0: 0924 b9be 6291 933b e360 783e 50f4 063f
000001b0: dca2 ae40 d50c 833d 2776 1cbf f637 863f
000001c0: 10de 3ebe 5ab8 38be e4c9 623e c803 cfbf
000001d0: b4cb 6f3d cb0f 37bd f81c d33d 1155 0abf
000001e0: d782 acbe e161 2e3f c720 a3bd 58b8 bcc0
000001f0: 6836 1e40 5a15 4a40 9527 713f 3356 25bd
1.6144284 0.039504733 0.005262117 0.54801327 -0.089337945 -0.029518932 -0.07207778 2.0241787
-1.4193355 0.13629963 1.2647207 -0.09483764 1.7486968 -2.5966675 -0.2329539 -2.1296744
0.15265864 -1.339889 -0.3480084 0.10722732 -0.852591 -0.014275819 0.12898934 0.36809233
-0.007488812 -0.7475845 0.4922792 -2.0341103 -1.3176568 0.021658478 0.05431825 0.04891689
-0.2339988 1.725632 -0.6659261 -0.4091449 -0.5644235 1.238172 -0.69789886 -1.0674095
-0.2882187 -0.12148577 -0.6991313 0.024087438 1.6416137 0.27789596 -0.2894055 2.06614
-0.40345776 -0.4020809 0.40972683 -2.12313 -0.019321656 0.026532533 -0.04646194 0.3675827
0.008230202 1.237327 -0.054138027 -0.6636869 0.31500804 0.93536377 0.7450036 0.07143905
1.4634277 -0.058361437 -0.3726397 0.16628443 -0.3677837 0.11680891 -0.20407465 5.955853
-0.35780472 1.4001307 1.3637537 -0.76293164 2.1605096 -0.36180505 -1.3661462 -0.49832505
-0.07822496 -2.2981057 -0.17933153 0.2977001 -2.2676442 -0.07496468 -1.2712841 0.33627394
0.023450432 -0.5873501 1.6487803 -3.2204564 -1.6573538 -0.0027231597 0.025411986 -0.5778602
-0.5098404 -0.31123668 -0.7392624 0.38214454 -2.4656897 1.8347397 -0.9208053 -1.967316
-0.36160305 0.004503415 0.2425571 0.5271654 5.4573803 0.06398932 -0.61117786 1.0485828
-0.18639398 -0.18039075 0.22147328 -1.6173029 0.058543876 -0.044692796 0.1030826 -0.5403605
-0.33693573 0.681181 -0.07965236 -5.897503 2.4720707 3.1575532 0.9420102 -0.04036541

convs.1.bn1.weight f4 [128]
00000000: 81ff 1341 6d94 0e40 feb5 8d40 cc44 5541
00000010: a005 3041 1f07 4dc0 7161 0441 37a5 e940
00000020: e8a3 a241 8d1f 1941 889d 0041 d722 1541
00000030: c0a0 8f40 2183 4641 22c9 2241 8046 6a40
00000040: 48e9 6741 d140 5741 b9ea 0441 5956 b940
00000050: 07ee d040 b058 1a40 9a43 6c40 be1a b940
00000060: 0404 c040 df82 ea40 9cb7 0441 4340 da40
00000070: 5a5d 6141 b8dc 4b40 a83a 0a41 7a81 5640
00000080: 3374 4841 afbe bf41 8961 3e41 93b5 2a41
00000090: 1932 2941 9715 3741 490a a140 18c4 cc40
000000a0: c3af 9641 3f76 1341 1df6 6641 2f04 3441
000000b0: 5fca 2541 9239 0f41 ad54 6240 db70 4241
000000c0: 2c56 8641 0f54 3041 4b46 7c41 f908 a040
000000d0: bd2b b73e 5e8b d340 9ac0 0241 8c92 0941
000000e0: b1ac f340 ab92 b840 46f1 5a3f bd96 ff40
000000f0: 2f5a 7140 d43f f640 026f 2c41 4131 ab40
00000100: cbb6 ba40 967a 5c40 876c cc3f b629 2c40
00000110: 7305 2840 da62 70c0 3dca d43f e147 e140
00000120: 3ea5 0340 8195 3c40 46cb c940 9508 4041
00000130: 1bda 2f40 b6b4 2a40 e001 c540 4c29 3941
00000140: 8a16 0341 3c61 9940 8bb0 5f41 6821 b940
00000150: d57b 4641 64b6 7840 3856 2241 705f 0240
00000160: b0b8 b040 2838 b341 fdc7 9541 1d4a 0f41
00000170: b478 3541 9959 413f b253 6d40 4fe8 0b40
00000180: de5f 0040 648e 1b40 9cbe 2541 e6dd 9440
00000190: 3da6 1c41 6565 1841 3307 fa3f 2a33 da40
000001a0: b2d8 9b40 c907 9040 2bc7 2141 9b7b 3840
000001b0: 7607 3e41 77d8 8f40 e41d 5a40 4b26 f440
000001c0: 3aa1 ba40 9633 1f40 5c54 de3f 9523 aa40
000001d0: 4b9a f93f 2e16 1640 a979 be40 5e8c f83f
000001e0: 27e9 f340 51b2 eebf d3fb cf3f 903e 5f40
000001f0: 5e32 f43f 06a6 ce40 7371 1e40 2065 f73d
9.249879 2.2278092 4.428466 13.329296 11.001373 -3.2035596 8.273789 7.301418
20.330032 9.570203 8.03846 9.321006 4.488373 12.407014 10.174105 3.660553
14.494453 13.453324 8.307305 5.7917905 6.529056 2.411663 3.691626 5.7845144
6.00049 7.3284755 8.2948265 6.8203444 14.085291 3.1853466 8.63932 3.3516526
12.528369 23.968107 11.898812 10.66933 10.574731 11.442771 5.0325055 6.398937
18.835821 9.216369 14.435086 11.251021 10.361907 8.951555 3.5364182 12.152553
16.792076 11.020522 15.767161 5.0010953 0.35775557 6.6107626 8.172022 8.598278
7.6148305 5.767904 0.85524404 7.9871507 3.7711294 7.6952915 10.7771015 5.3497624
5.8348136 3.444982 1.597062 2.6900458 2.6253326 -3.7560334 1.6624218 7.0400243
2.0569606 2.946625 6.3060637 12.002095 2.747687 2.6672797 6.156479 11.572582
8.193003 4.7931194 13.980601 5.785328 12.405232 3.8861322 10.1460495 2.037075
5.522545 22.40242 18.72265 8.955594 11.341969 0.7552734 3.7082334 2.186054
2.0058513 2.4305658 10.3590355 4.652087 9.7905855 9.524755 1.9533447 6.8187456
4.870202 4.5009503 10.111125 2.8825443 11.8768215 4.495174 3.4080744 7.6296744
5.832181 2.4875236 1.7369494 5.3168435 1.9500211 2.3451037 5.952351 1.9417837
7.622211 -1.8648168 1.6248726 3.4881935 1.9077871 6.4577665 2.4756744 0.12079835

convs.1.bn1.bias f4 [128]
00000000: c014 29bd 43c4 97c0 301d 98bf 1517 4dbe
00000010: 8e3f d2bc d316 b1c0 f3ae a13e 2a82 92bf
00000020: c6e5 e9be bcdf 1dc0 89cc 33be 60b0 04c0
00000030: e112 35c0 5e10 c2bc ae3b ab3f c991 39c0
00000040: fc3e ccbe 2ee2 f6be 6564 4cc0 89ba 9ebf
00000050: 0735 f0bf d4e1 90bf 2c9d d7bf acec 23c0
00000060: 5bf7 3b40 b70c 2f3f 1f3a 1ac0 002f 0dc0
00000070: c44f f4bf a785 c03f 8f8b 333f 83fb 18c0
00000080: ae8d 3bbf f753 97bf 5540 1b3f d92f 41bf
00000090: 53d7 10be 30df e0bf 913e c93f 1605 17c0
000000a0: be7f 1440 f3b4 d6bf 1dde 15c0 3cb3 62be
000000b0: 4eb5 9dbf 4f31 e5bf 09b2 bfbf 9056 a3bf
000000c0: bb1b 61bf 1edb cbbf 26a4 0640 e621 67c0
000000d0: 4925 46bf 709a 1a40 8e82 91bf 985d c73f
000000e0: 9a26 11c0 72cb 4040 6af9 04c0 78a8 c4c0
000000f0: eaa1 9cc0 f674 97c0 bd3f f33e b018 d23e
00000100: 1a73 c9bf 5f48 d1c0 01c7 18c0 c19c 4740
00000110: 5457 7a40 ccf9 d4c0 9a6d aa40 0d20 76c0
00000120: 69dd 5e40 cec2 8bc0 40c7 633e 05d7 fe3f
00000130: a7db 6ac0 ec84 8640 1cab 3840 fc2b fbbe
00000140: 98a3 42c0 3c3d 8b3f 9ff5 df3f 127e 3bc0
00000150: 5ba7 91bf d4d2 16c0 34b4 58bf ac13 a640
00000160: 71b0 7cbf 1aa7 043f d6b5 e4be 3128 74bf
00000170: fbf1 e93f 4e64 c940 c8f5 3a40 6ea4 a0c0
00000180: db80 713f 81e1 3840 7d02 2f40 2f28 2c3f
00000190: ac3e a0bf f774 013f 98dd 8f40 0c2a 2fc0
000001a0: af45 1a40 3747 4bbf 0abf d7bf b7fb e1be
000001b0: 880e f9bf 841c 26bf 6d83 03c1 f51d e23f
000001c0: 0f01 1a40 944d 5340 08af bc40 b764 a7c0
000001d0: 1322 81c0 a367 0f40 04d9 adc0 df1a a440
000001e0: 1018 3cbf ddaf 8740 402a 32c0 417c f5bf
000001f0: 924e c1c0 2f7b 16c0 6385 173f 7db6 8340
-0.041279554 -4.7427077 -1.1883907 -0.20028336 -0.02566507 -5.534036 0.31578788 -1.1445973
-0.45683116 -2.4667807 -0.17558493 -2.073265 -2.8292773 -0.023689445 1.3377588 -2.899523
-0.39891803 -0.48219436 -3.1936276 -1.2400676 -1.8766183 -1.1318917 -1.684484 -2.5613203
2.9369724 0.68378776 -2.4097974 -2.2059937 -1.9086843 1.5040787 0.70134825 -2.390351
-0.7326306 -1.1822499 0.6064504 -0.75463635 -0.1414464 -1.7568111 1.5722219 -2.3596854
2.3202968 -1.6773971 -2.3416817 -0.22138685 -1.2320955 -1.7905673 -1.4976207 -1.2760792
-0.8793294 -1.5926244 2.1037688 -3.611444 -0.7740064 2.415676 -1.1367967 1.5575438
-2.267981 3.0124173 -2.077723 -6.145565 -4.894765 -4.7330275 0.47509566 0.4103446
-1.5738251 -6.5400844 -2.3871462 3.1189425 3.91158 -6.655493 5.325879 -3.8457062
3.4822638 -4.36753 0.22243977 1.9909369 -3.6696565 4.203726 2.8854437 -0.49056995
-3.041235 1.0878062 1.7496833 -2.9295697 -1.1379198 -2.356618 -0.8464997 5.1899014
-0.9870673 0.51817477 -0.4466998 -0.9537383 1.8276972 6.293494 2.9212513 -5.020072
0.9433724 2.8887637 2.7345269 0.67248815 -1.2519126 0.505691 4.4958 -2.7369413
2.4105031 -0.7940554 -1.6855175 -0.44137356 -1.945756 -0.6488726 -8.219586 1.7665392
2.4063146 3.30161 5.896366 -5.2310443 -4.0354095 2.2407005 -5.432741 5.12828
-0.73474216 4.2402177 -2.7838287 -1.9178544 -6.040841 -2.3512685 0.59187907 4.1160264
