results/Prediction/2023-06-20/20:54:36.563846/models/model443.pth (torch, 340949 bytes, 34 tensors)

embedding.weight f4 [64, 92]
00000000: c893 3d3c b5a4 11c0 e929 2f3c b1ed 74bd
00000010: 16e6 59bd 77fa 583c fd02 97bd 429d 80bd
00000020: d1fe 873a 8aac 8d3d 0126 c83d 2926 5cbc
00000030: ca6e 993d 4621 c1bd 905f dabf bfcb 943f
00000040: c491 543f 902b 25bf c463 7a3d 216a 0cc0
00000050: 0a0a 49bf 9b10 b8bf 7c6f a1bd b562 9c3d
00000060: 25a6 2bbd 28b9 4bbd e57d 8ebd 8d6b 65bd
00000070: b694 b4bd c61a f33f faa6 0fc0 8671 b4bf
00000080: e0c8 b1bd b34c 8e3f 6e7b 893f e2e1 4abf
00000090: cdd9 0ec0 6d07 3cbe 8ea1 5f3e b4d2 27c0
000000a0: 95e6 f13f d68f c23c d494 dc3c d20e c33b
000000b0: eb9b 8f3d f0b7 9cbd 526c 06c0 3047 993d
000000c0: 5fc3 d9bb 8e48 e6bf 9604 943f 3db1 363f
000000d0: 6a11 4cbf 36a3 bb3d 49ed 703d f544 adbd
000000e0: b8ca 46bd d329 29bd 3339 6ebd 9f1c 22bd
000000f0: 12db cdbc 9c7d fa3f 9f55 853d d0d5 b3bf
00000100: 06b0 27bf 1231 3abf 04af b03d 81fe 983d
00000110: 1d0e b33d f44a 14bd 365e 863f 5493 96bc
00000120: 3622 aabd 2d3c 12c0 cabc 3ebf 8933 2fc0
00000130: 6135 99bd 373f 49bf 45d3 07c0 7a0a 7bbf
00000140: 1060 43bd c23a 833d 27c4 9bbf f419 99bd
00000150: 918d 193d fb05 ed3f 85e6 8fbf dee2 b4bd
00000160: 6019 163d f6b7 d0bd 0a73 05bd c0df 5fbc
00000170: ec76 7dbc 2f60 e1be 3b12 d73b 1f9c 4cbc
00000180: ebcb 2d3c 74b0 e2bc 9745 afbc 219d a73d
00000190: c6e1 d0bd 29c9 c4bd becc 733d 0c5b 9f3d
000001a0: 17a8 cf3d 70bd d5bc ea0a 86be 7585 3fbe
000001b0: b4b2 3fbe 3e01 e5bd 2053 6c3d 4f5a 17bf
000001c0: 261d 29bf c21a a7bf f0a1 003d 579e b3bd
000001d0: c019 4cbb 4997 ecbc 6d9c 6ebd 0dae 5abd
000001e0: 93ff 3b3c 341f b8bf b6e4 eebe 471a 263d
000001f0: 2e87 a93d 8ce7 30be 70c4 9fbe e24a ddbd
00000200: eb0c efbe 37fd 07bf f03e 3ebf 3f0e 6ebd
00000210: 43df abbf e57b 073d dd20 273d a202 f93c
00000220: 252d ea3a d2bd 8dbd 4f78 0abf cc51 86bc
00000230: 614c 623d 0ae4 39be 37f3 90be 9d55 54be
00000240: 06a5 a5bc 6a64 bfbd c4d1 d2bd 5d52 21bb
00000250: 0326 b23d 9d3f 91bd ef00 a03c b322 233d
00000260: 1339 dabc 0443 bbbf 5b1e a4bd 57e3 773e
00000270: 8454 41bf 1c0a 81bc 2426 573d 5785 823d
00000280: b822 bfbb fc45 0cbd be35 92be 2889 433d
00000290: bfcc 503d 08f1 06bf b1fc b5be 876c 28be
000002a0: 7664 74bd cc14 afbc 611d 10bf b226 8cbf
000002b0: 4f8e db3a d12f 083c aa0a 433e 8f87 81bd
000002c0: 3d35 933d 3d89 b5bf 6911 e5bf b27f c03d
000002d0: 3a33 bc3d 93eb 92bd d970 cd3d 9f40 0dbd
000002e0: b885 8f3d 8222 b5be 8469 91bd 0ec1 193b
000002f0: bacb a53d 9fa6 e0bc c826 203d 43f4 3a3c
00000300: 8f8c 80bd 6f8f f23c 8993 afbd a3e2 b7bd
00000310: 12e4 b0bd d044 91bd 7127 3abf fe88 ae3d
00000320: 2188 023f cf77 eabe d419 ce3d fe4e f4be
00000330: fc61 52bf d60b afbf 4521 0b3d f67c cf3a
00000340: cebd dd3c 1e89 2e3d 4844 aebc 00ef 1e3b
00000350: a89e 01bd 6719 ae3d 8775 eabe 8501 a03e
00000360: 01ec b4bc 9c7f 4bbc 442b fa3e 2650 dfbe
00000370: 6d35 b3be 5594 603e 2be3 203d 7b92 60bf
00000380: 33f7 993c 7092 18bd fc13 4e3d 8fe6 ac3d
00000390: 6330 e6bc 9c77 86bd 6e6f 08bf 8a8e aebd
000003a0: f504 903d 0938 53bf 600c 1cbd 6e20 033f
000003b0: db33 f7be de71 a8bd d19a fe3c 5711 65bc
000003c0: 2afa d43d ed81 91bd 9959 8fbb 6c8b 93bc
000003d0: 2cfb 223d dec6 b03d 5507 aebd cd18 8b3e
000003e0: fcf3 49bf a092 b4be 99ac d23d df04 623d
000003f0: bd79 e03c a59b 8abd ba68 bd3d d9f1 5ebd
0.011570878 -2.275678 0.0106911445 -0.059796993 -0.053197943 0.013243309 -0.07373617 -0.062799945
0.0010375624 0.06917675 0.09772874 -0.013436832 0.074918345 -0.094301745 -1.7060413 1.1624678
0.8303492 -0.64519596 0.0611303 -2.1939776 -0.78530943 -1.4380068 -0.07882592 0.07636014
-0.041906495 -0.049737126 -0.06957606 -0.05601077 -0.08817427 1.8992546 -2.2445664 -1.4097145
-0.08680892 1.1117157 1.0740793 -0.7925092 -2.2320435 -0.18362208 0.21838972 -2.6222353
1.8898493 0.023750227 0.026926436 0.0059526945 0.07012161 -0.07652271 -2.1003613 0.07484281
-0.0066456045 -1.7990892 1.15639 0.71364194 -0.7971407 0.091619894 0.058820043 -0.08460418
-0.04853317 -0.041299652 -0.05816002 -0.039578076 -0.025128875 1.9569583 0.065104716 -1.4049625
-0.65502965 -0.72731125 0.086271316 0.07470418 0.08742926 -0.036204293 1.0497501 -0.018380798
-0.083073065 -2.2849228 -0.7450682 -2.7375205 -0.07480884 -0.78612083 -2.1222699 -0.9806286
-0.047699034 0.064076915 -1.2169236 -0.07475653 0.037488524 1.851745 -1.1242224 -0.08832334
0.036645293 -0.10191338 -0.032580413 -0.013664186 -0.015470248 -0.44018695 0.0065634525 -0.012488394
0.0106077 -0.02767203 -0.021395488 0.08184267 -0.10199313 -0.09608681 0.05952143 0.07781038
0.101394825 -0.026091307 -0.26180202 -0.18703254 -0.18720514 -0.111818776 0.05769646 -0.59122175
-0.660601 -1.3055041 0.031404436 -0.08770435 -0.0031143278 -0.028880732 -0.058254648 -0.053388644
0.011474508 -1.4384522 -0.46658868 0.040552404 0.082777366 -0.17275828 -0.31204557 -0.108052984
-0.46689543 -0.5312075 -0.74314785 -0.058119055 -1.3427509 0.03307714 0.040802825 0.030396763
0.0017866237 -0.06920971 -0.54089826 -0.016396426 0.05524862 -0.18153396 -0.28310558 -0.20735784
-0.02022029 -0.09345324 -0.10293916 -0.0024615743 0.086986564 -0.070922114 0.019531695 0.039828014
-0.026638543 -1.4629827 -0.08013602 0.24207817 -0.75519586 -0.01575189 0.052526608 0.06373089
-0.005832996 -0.03424643 -0.28556627 0.047738224 0.05097651 -0.52711535 -0.3554435 -0.1644765
-0.05966612 -0.021372221 -0.5629483 -1.0949309 0.0016750785 0.008312182 0.19047037 -0.06324684
0.07187889 -1.4182507 -1.7895938 0.09399356 0.09189458 -0.071738385 0.100312896 -0.034485456
0.07007927 -0.3537789 -0.07100204 0.0023461017 0.080954984 -0.027423201 0.039099485 0.011410776
-0.062768094 0.02960941 -0.08573062 -0.089787744 -0.08637251 -0.07093203 -0.7271643 0.08522223
0.50988966 -0.45794532 0.1006352 -0.47716516 -0.8218076 -1.3675487 0.033967275 0.0015830088
0.027068045 0.042611234 -0.021272793 0.0024251342 -0.031645447 0.08500939 -0.4579279 0.3125116
-0.022085192 -0.012420561 0.48861134 -0.43615836 -0.35001698 0.21931584 0.039279144 -0.8772351
0.018794632 -0.03724903 0.050312027 0.08442413 -0.028099244 -0.065657824 -0.5329503 -0.08523281
0.070321955 -0.8250738 -0.03809774 0.5122136 -0.4828175 -0.082248434 0.031079682 -0.013981185
0.103992775 -0.071048595 -0.0043746945 -0.018010817 0.039790317 0.08631681 -0.08497492 0.2716736
-0.78887916 -0.35268116 0.10286827 0.055180427 0.0274018 -0.06767968 0.09248491 -0.054429863

convs.0.fc_full.weight f4 [128, 169]
00000000: 318a 2ec1 b29c 9e3e b0e8 26be b079 45be
00000010: 6cb1 b1bd 7437 46be 8462 b9c0 7543 7f3e
00000020: 913c 3a40 fa33 3540 db8f 77c0 fe35 0abd
00000030: 4762 da3f 9d11 6f3f ac88 3c3f 2962 82be
00000040: 59d2 a0bc 4250 99be 8888 f1be 0666 1040
00000050: cb3e 46bd 1997 253f 4bea 0240 8f42 21be
00000060: f383 1dbe d4b1 703f 4ca9 63be e113 7bbf
00000070: d8af 14bd a40e 1ec0 8fee dfbc 1338 6b40
00000080: c1fa adbb bfa9 aebe c2ae 323e 284c 393f
00000090: 3da2 8cbe c0a7 4ac0 425b fd3d 292e c03d
000000a0: 956f edbf 7547 90be 3efc 89be 6751 2b3e
000000b0: a7b6 3abe 5189 6340 e7ed a23d b4f5 cdbe
000000c0: dc82 a3be 270c 123f 00a6 413e b4d5 c3bf
000000d0: 0d70 4b40 4f67 6bbe db80 44be caff 1fc0
000000e0: 889a babe 032b 02be 49ea 963d 919d 54be
000000f0: b29b cebc 3b21 fcbd c273 cb3e e1ea 9dbf
00000100: 75f3 1fc1 1c13 a63f 70fa f0bd ec15 bcbe
00000110: bfce b03d aae8 2f3e 3031 03c1 16b6 87be
00000120: 6436 6340 d29d 3340 3e04 a2c0 c7e4 05be
00000130: 527e 573f cb67 03bf 506e 363f 0491 0ebf
00000140: a23d 37be b066 e0be 5adc 83bf 525e 7840
00000150: 75ce ec3c bda7 13bf 7dcc 613f cca9 91bf
00000160: 1e28 36be debc ecbe 62c7 b1be 98ce 91be
00000170: 5c75 1cbf 20c5 1cc0 e5b2 d33d ce25 5340
00000180: d61d 53be 9fd7 e3be c8f5 a83e b7f4 02be
00000190: c729 fcbe 8460 87c0 d1a2 28bf 565e b73d
000001a0: 77a3 fdbf e5a2 30bf 289a 53bf 5e98 fc3d
000001b0: 5754 3e3d f8c0 8440 d82b 203d 670b 4cbe
000001c0: 7f2a 2c3e e70a 123e 267a c9bc a796 e1be
000001d0: 53df 5e40 23d8 3ebe 2b9b f63d a9b4 00c0
000001e0: b580 a7bf b1ab 45be 23c5 2a3e 1a2a c7be
000001f0: c685 b0bd 29c4 55be 39ca 9dbd d532 9e3e
00000200: c2c3 bfbc 953f b8bd 9138 f5bf 569c 74c0
00000210: a5bd ae3e 7eb0 af3f 5368 b740 8326 8941
00000220: ae92 cf41 94b0 a041 6835 3b41 eb4e fdc0
00000230: 64b8 fbc0 89df 7e3f 90bf 46c0 28b2 913f
00000240: d579 923f a88a 333f 55c9 55c1 bfbf c5c0
00000250: 32da 9640 cda2 0d3f 5e5e 24c0 f7e0 50c1
00000260: 3568 d9c1 be31 81c1 b391 4fbe 8ff2 d9c0
00000270: 96b0 1ec1 12ad cdc0 a83e 85c0 4d24 babe
00000280: 55d0 b8bf d0a0 13c0 288d 20bf 5f94 d0bd
00000290: 6783 33bd 7ecc 963d 586f 1a3d 83b8 0ebd
000002a0: 925d 80bd b9ff ddbf d2b1 91bf 22bd f33e
000002b0: 4ae0 eb3f af5a dd3c d3a3 84bf 9b44 a9bf
000002c0: 7df0 6340 d3ee 1340 e402 df3f 868a 0d40
000002d0: fc94 0fc0 45ad f33f ec0a 1540 eab6 a7bf
000002e0: b548 39bd 4437 d8bd 75f2 c73e fabf 21bf
000002f0: 65e2 d13f d9dd 9dbe d190 ee3f b145 2240
00000300: 6563 0a3f 4a83 79c0 910f 0b3f ddba 0440
00000310: 0982 b73f a7a8 efbe 65fc 0ec0 e7d2 4f3f
00000320: 0c0c e2bf 6951 85bf b082 553f ca98 85c0
00000330: 5564 f33e 26bf a43f 4ac2 ac3f e8e7 d53f
00000340: 8d3c 71c0 57ca 06c0 1d0e 5140 d4dc 883e
00000350: d3be 43c0 3e65 c6bf 575b f43f 2976 2cbf
00000360: d073 9c3f 80e3 49c0 dcc8 0dc0 5da2 e6be
00000370: 63e4 1ac0 4f21 0d40 293f a6bf 38fa 0d40
00000380: 7636 d8bf f3f6 8040 7d6f 963e e5c8 ebbe
00000390: 4d55 1540 607a 1ebe 3c26 193e f2df 88c0
000003a0: b6e7 953e 8ebc 99be 58f7 87c0 ae4c c33f
000003b0: 7f75 263f c2ad c5c0 dba2 2640 5b6d 493e
000003c0: 1ca3 0bc1 3582 40c0 c95e a7c0 4515 e440
000003d0: d607 3540 42fb 0b3f 8977 b240 62af a8be
000003e0: c258 29c0 ba13 b7bf 2fb7 41bf 00c4 39c0
000003f0: 7ffd e83f c972 4ec0 b4c5 e6be 2e2b f8bb
-10.908738 0.30978924 -0.162997 -0.19284701 -0.08676419 -0.19357091 -5.793276 0.24928077
2.9099467 2.8312974 -3.8681552 -0.033742897 1.7061242 0.9338625 0.73646045 -0.25465515
-0.019631552 -0.29944044 -0.47174478 2.256227 -0.048399728 0.6468368 2.04555 -0.15748046
-0.15382366 0.94021344 -0.2223255 -0.9807721 -0.03630051 -2.4696436 -0.027335433 3.6752975
-0.005309433 -0.3411388 0.17449477 0.7238183 -0.27467528 -3.1664886 0.12370922 0.09383804
-1.8549677 -0.28179517 -0.26950258 0.16730271 -0.18233739 3.5552561 0.079555325 -0.4022652
-0.31935775 0.57049793 0.1891098 -1.5299592 3.178714 -0.22988628 -0.1918978 -2.4999871
-0.36446023 -0.1271172 0.07368905 -0.20763232 -0.025220726 -0.12311026 0.39736754 -1.2337304
-9.996938 1.2974582 -0.11766517 -0.36735475 0.08633184 0.17178598 -8.199509 -0.26506108
3.5501947 2.8065076 -5.063018 -0.13075553 0.84177125 -0.5133025 0.71262074 -0.55690026
-0.17894605 -0.43828344 -1.0301621 3.8807569 0.02890704 -0.57677823 0.8820265 -1.1379943
-0.17788741 -0.46237844 -0.3472243 -0.2847793 -0.61116576 -2.4495316 0.10336856 3.2991824
-0.2061685 -0.44500443 0.33000016 -0.12788664 -0.49250624 -4.2305317 -0.6587344 0.0895354
-1.981551 -0.6899856 -0.826571 0.12333749 0.04646715 4.1485558 0.039104313 -0.19926225
0.16813086 0.14261971 -0.024594378 -0.4406025 3.4823806 -0.18637137 0.12041315 -2.0110266
-1.3086153 -0.19303776 0.16676764 -0.38899308 -0.08619265 -0.2087561 -0.077045865 0.30898157
-0.023408774 -0.08996502 -1.9157888 -3.822042 0.34129062 1.3725736 5.731485 17.143805
25.94662 20.08622 11.700539 -7.9158835 -7.8662586 0.9955984 -3.105442 1.1382494
1.144343 0.7013345 -13.361653 -6.1796565 4.714135 0.5532654 -2.5682597 -13.054923
-27.175882 -16.149288 -0.20270424 -6.810859 -9.918112 -6.4273767 -4.1638985 -0.3635582
-1.4438578 -2.3066902 -0.6271539 -0.101845495 -0.043826487 0.073632225 0.037703842 -0.034843933
-0.06267847 -1.7343665 -1.1382391 0.47605234 1.8427823 0.02702078 -1.0362495 -1.3224062
3.5615532 2.3114517 1.7422757 2.2115798 -2.2434683 1.9037253 2.3287916 -1.3102696
-0.045235354 -0.10557416 0.39052168 -0.6318356 1.6397215 -0.3083332 1.8637944 2.5355036
0.54057914 -3.8986382 0.5432063 2.0739052 1.4336559 -0.4680836 -2.234155 0.81181186
-1.7659926 -1.041547 0.8340254 -4.174901 0.47537485 1.2870834 1.3496792 1.6711397
-3.7693207 -2.1060998 3.2664864 0.26730978 -3.058522 -1.5499647 1.9090375 -0.673678
1.2222843 -3.1545105 -2.2153845 -0.45045748 -2.4201896 2.205158 -1.2988025 2.2183971
-1.689162 4.030145 0.29381934 -0.46051708 2.3333313 -0.1547637 0.14955992 -4.277337
0.29278344 -0.30026668 -4.2489433 1.5257776 0.65023035 -6.1774607 2.60369 0.19670622
-8.727322 -3.0079472 -5.2303205 7.1275964 2.8286033 0.54680264 5.5770917 -0.32946306
-2.6460423 -1.4302895 -0.7567014 -2.902588 1.8202361 -3.225756 -0.4507271 -0.007573507

convs.0.fc_full.bias f4 [128]
00000000: 718c 38bd 97ae d1bb f687 9abd 1cde 78bd
00000010: 1ed1 823b ece2 babc 7b3e 82bd fd3e a9bc
00000020: 1100 44bc 2f30 3b3d b2e5 04bd 7941 1abd
00000030: a3fb 98bc 3157 a33c c819 f7bd a355 c2ba
00000040: 84a0 3e3c d7f3 13bb deac 7e3d eb10 003d
00000050: a953 3abb 1993 da3b 3034 913d 67f5 393d
00000060: 249a 18bd 5b8e d6bd 88b5 c73d ebd2 543c
00000070: 7747 103d 1389 843d 1d29 a03b 8486 c7bd
00000080: 6713 bbbc 449c 673c b2c3 ddbc b447 883d
00000090: 43b8 95bc fe6e 3b3d a55b 2abc 9926 98bd
000000a0: 3dcc 9d3c 8ec8 dcbc 5a85 ddbc 216f ae3d
000000b0: 5fc4 f8bc feda de3d bc30 8abd 5053 023e
000000c0: be5b 963d 1bdf 783d 0328 333d 93ca 963c
000000d0: 40ff 673d b8eb f2bc 821b efba 6e76 07bd
000000e0: cc3d f93c 18fb 233d 7785 c13d 6f8e 51bc
000000f0: 65a4 82bc b3c1 fe3c 2b84 aabd 58a4 403c
00000100: 655d cebc aab4 963d 7641 a13c ee3f 083c
00000110: 299c cabd 191f 023b c921 36be abdd 0cbd
00000120: a1ba 243d 9b54 f4bc 9de1 90bd c09e a53d
00000130: a15b 803d a9d7 083b 7b5d f43c c7d9 3dbd
00000140: 93f6 01bc 41e7 c23d d07c 40ba 4c51 62bd
00000150: ab95 3a3d db32 383d ee40 2d3d 37fa 993c
00000160: bce9 1e3d 8b2b cd3d 39c3 523c ce42 d7bd
00000170: 2d31 163e 755a 26bd 26a4 c6bb ad34 e5bd
00000180: 3c66 f93c c3f4 b5bd a699 953d 81cb a6b9
00000190: 257e f53b 9510 073c 463d b6bc ca1d 1a3d
000001a0: 15c9 4f3d c2e8 163d d2cd 173d a652 773d
000001b0: 3efa 4fbd 640f 4f3e 6a0d 853d a379 fbbc
000001c0: af0c 423d 7a7a 523c fa53 d2bc ab4f abbd
000001d0: 1934 373d f2ef e33c 9e12 0e3a 65e1 fb3d
000001e0: 964b f2bd b03b 8f3c 657f 003d 5ee8 2ebd
000001f0: c306 fbbc 5c07 dd3b 3b32 343d 8aa8 49bd
-0.04505581 -0.0063989866 -0.07545464 -0.060758695 0.003992214 -0.022813283 -0.063595735 -0.020659918
-0.011962906 0.04570025 -0.032445617 -0.037660096 -0.018674677 0.019939037 -0.12065464 -0.0014826547
0.01163495 -0.002257576 0.062176578 0.031266134 -0.0028431213 0.0066703674 0.07090032 0.04540005
-0.037256375 -0.10476371 0.09751421 0.01298974 0.035224404 0.06471457 0.0048877136 -0.09742454
-0.0228364 0.014136378 -0.027070854 0.06654301 -0.01827634 0.045760147 -0.010397826 -0.07429237
0.019262427 -0.0269511 -0.027041126 0.0851729 -0.030367075 0.10881613 -0.067475766 0.12727094
0.07341717 0.060759645 0.04373933 0.018407142 0.05663991 -0.029653415 -0.0018242451 -0.033071928
0.030424975 0.040034384 0.094492845 -0.0127903065 -0.01594753 0.031098222 -0.0832599 0.011757933
-0.025191018 0.07358678 0.019684535 0.008316023 -0.098930664 0.0019854961 -0.17786326 -0.034391087
0.040217046 -0.0298255 -0.07074282 0.0808692 0.06267477 0.0020880497 0.029829731 -0.046350267
-0.007932323 0.095167644 -0.0007342817 -0.055253312 0.04555289 0.044970375 0.04229825 0.01879607
0.038797125 0.10018071 0.0128639275 -0.10510789 0.14667197 -0.04061361 -0.0060620485 -0.11191688
0.030444257 -0.08884575 0.07304697 -0.0003181361 0.0074918442 0.0082437 -0.022246014 0.037626065
0.050728876 0.03684307 0.03706152 0.060381554 -0.05077576 0.20220715 0.06496699 -0.03069765
0.047375377 0.0128465835 -0.025674809 -0.08364805 0.04472742 0.027824376 0.00054196443 0.1229885
-0.11830823 0.017484516 0.031371493 -0.04270207 -0.030642873 0.006745262 0.043993216 -0.049232997

convs.0.bn1.weight f4 [128]
00000000: 5025 0741 b6db 3041 34ee 0a41 9143 0a41
00000010: e3f4 d140 095b 93bf 642b d23f 6c1d dc40
00000020: cf79 5ebf edea 6440 d6be 873d 0ed6 ce3f
00000030: 0a6b 21bd 25a0 ffbf 5f2d ce40 07d5 1440
00000040: af66 1441 97b2 9e40 a9ac 3c3f ffd4 9bbd
00000050: aa28 8240 f0c8 1941 8fc6 2040 c3fd c340
00000060: aa42 3cc0 66b6 ae40 4ad2 9e40 74bf 5940
00000070: 909f 1840 d7d5 0840 d395 0841 313a 5840
00000080: 6e03 fc40 a71d 3641 18a0 3ebe d162 1b41
00000090: 6833 d03f d4b6 923f 915d 2241 5bca 8a3f
000000a0: b3a7 74be 3293 e340 8b79 543f 6918 e53f
000000b0: c258 913d b10b 8940 7de6 153f d276 e23d
000000c0: 3110 a03d f80e a040 0a0d c840 1351 3640
000000d0: a2f8 1a41 0610 0641 d17a 863d f8a2 a13f
000000e0: 59f6 7b40 0f5c 1d3e f12b c83f b5fa 663e
000000f0: 7ed4 3841 eafb 1d41 8012 9740 953a 8040
00000100: fd87 3f40 8745 8940 8379 3cbf fa15 88bf
00000110: 71e1 8c40 f169 0341 bc7c 3f40 1116 9d40
00000120: 0a65 003e 07aa f33f 41e6 7940 1de0 c940
00000130: 6406 223f ada9 233e 5773 5040 2532 d240
00000140: c49e dc3f efde f440 9811 0440 afd1 05bf
00000150: 11a0 643f 8675 963d f2f0 ccbf 75d0 0f41
00000160: 27bf 70bf 67cd 0541 6d2c f940 d8dd b340
00000170: 7b0a 6740 847e 2b40 3436 9e3f 558e 7740
00000180: 148b 8d3e e30d 2740 ab0c b2bf f61c 3541
00000190: 9afe a1bf 367f 7a3f 38ad e93f 3c2b 2640
000001a0: 5307 803f 1884 cc40 46b3 fc40 d243 85bf
000001b0: 9b1b c43f 6a6d 6a40 5c2c 823f 019a 41bf
000001c0: d4fa 263f aa13 da40 fa5a 22bf 33d4 abc0
000001d0: 8ea1 3041 e932 c03f e88d b83f 5cf6 7440
000001e0: 349b fc3d 2b2a cb3e 882b 763f 01a8 54bf
000001f0: a11c 65be 1956 b440 7637 fd3f cd33 a440
8.4466095 11.05364 8.683155 8.641496 6.5611434 -1.1512157 1.6419492 6.8785915
-0.86904615 3.5768387 0.06628196 1.6159074 -0.03940872 -1.9970747 6.4430385 2.3255022
9.275069 4.9593005 0.7370096 -0.07608985 4.067464 9.611557 2.512119 6.124727
-2.9415689 5.4597654 4.96317 3.4023104 2.384739 2.1380517 8.536578 3.3785517
7.8754187 11.382239 -0.18615758 9.711625 1.6265688 1.1462045 10.147843 1.0843004
-0.23892097 7.111718 0.8299796 1.7898074 0.07097007 4.282677 0.5855482 0.110578194
0.07815588 5.0018272 6.2515917 2.8486984 9.685701 8.378912 0.06566394 1.2627859
3.9369109 0.15367149 1.563841 0.22556575 11.551878 9.874002 4.7210083 4.007151
2.992675 4.289737 -0.7362291 -1.0631707 4.4025197 8.213365 2.9919882 4.9089437
0.12538543 1.9036263 3.9046786 6.3086076 0.63291 0.15982695 3.2570398 6.568621
1.7235951 7.6522136 2.0635738 -0.52273077 0.8930674 0.073466346 -1.6011031 8.988393
-0.94041675 8.362647 7.786673 5.6208305 3.6100147 2.679597 1.2360291 3.8680623
0.2764517 2.6102226 -1.3910116 11.319571 -1.2655823 0.9785036 1.8255987 2.5963888
1.0002235 6.3911247 7.896884 -1.0411322 1.5320925 3.662928 1.0169787 -0.75625616
0.65226483 6.8149004 -0.6342007 -5.369653 11.039442 1.5015537 1.4418306 3.8275366
0.1233429 0.3968061 0.96160173 -0.83068854 -0.22374202 5.63551 1.978255 5.1313233

convs.0.bn1.bias f4 [128]
00000000: e4f6 11c0 b10e 3bc0 9795 b740 d7c0 343f
00000010: 34d1 70c0 049a c53f 000d 2cc0 d5ad 89bf
00000020: 311c 2041 a87d 34c0 3a95 2d41 463d 65bf
00000030: de2b 1d41 aa35 2d41 495c 0c3d b64f 3f3f
00000040: 0905 bbbe 3c14 79c0 f777 9440 1f37 4a41
00000050: b127 b5be e2f9 a03f 2a31 883f 90ce b6c0
00000060: 5d16 08bf 03f8 0c3f 3815 8cc0 1f20 c0c0
00000070: f786 973f 391b 96c0 1269 afbf 65fc 0040
00000080: 668e 1040 c778 3b3f 9330 2b41 ca9d bf3f
00000090: 62bf 1a40 7f3e fb40 161a 8f3d f384 7d40
000000a0: 2bd0 b640 9cde d7c0 063a ee40 a021 23c0
000000b0: 5a83 1e41 16b5 5fc0 ee4b e93f 3499 1941
000000c0: 3b85 0341 7ea5 993e 19a0 6640 6187 79bf
000000d0: d943 3dc0 bac0 53be 0cd3 c340 b5b4 80c0
000000e0: 260d 1d40 6af4 1141 e380 1abf 8f6c 1141
000000f0: f8b8 5240 e8c0 16c0 766e ea3f acb2 8b3f
00000100: c1e6 ab40 8f35 d33e 7c9a 2241 2449 633e
00000110: 688d 34c0 db94 0dc0 e803 0ac0 69b7 3cc0
00000120: 8de9 0b41 ee6c 8cc0 0767 a03f 9809 aac0
00000130: 2bc7 b840 3861 0b41 c546 ba3f f552 16c0
00000140: f87a b7be 4961 c2bf 90b3 d540 ddfe 0941
00000150: 9603 6640 774d 9341 441e 3341 3aca 62bf
00000160: ecc5 2a40 be07 3cbf 3e16 ddbf f5a2 fcbf
00000170: 18fd 9cbf 77ab c2c0 4d00 5140 66db 5d3e
00000180: 9884 d540 d84b 1c40 7ba7 9240 3e3e 8ebf
00000190: 9b8f 9341 fa0e 0041 212b e53f 84b4 dbbf
000001a0: 7c08 f33e bec3 9bc0 3def 503f 5c25 bb40
000001b0: f64f 2a40 d626 66c0 ede6 f440 756b 9a40
000001c0: 7f5d d740 92bd dc3f f605 4041 f098 26c0
000001d0: 8e74 eabf 3d8a 3f40 16b0 1d3f 50ea 04c1
000001e0: 5701 2a41 1245 f140 9db7 c4be 3872 d540
000001f0: 75ef 2241 16f5 2bbe 64fe c9bf 0e9d 0fc0
-2.280694 -2.9227717 5.7370105 0.7060675 -3.7627687 1.5437627 -2.6882935 -1.0756174
10.006883 -2.8201694 10.848932 -0.8954662 9.82321 10.825602 0.034267697 0.74731004
-0.3652728 -3.89186 4.639644 12.638457 -0.35381845 1.2576258 1.0640004 -5.712715
-0.53159124 0.55065936 -4.37759 -6.003921 1.1838063 -4.690823 -1.370394 2.015405
2.2586913 0.73231167 10.699359 1.4970028 2.417931 7.851379 0.069873974 3.9612396
5.712911 -6.745924 7.444583 -2.5489273 9.907068 -3.4954276 1.8226297 9.599903
8.220027 0.30009073 3.6035216 -0.97472197 -2.957266 -0.20678988 6.1195126 -4.022059
2.4539275 9.122171 -0.60352916 9.089004 3.2925396 -2.355524 1.831496 1.0913901
5.371918 0.412518 10.162716 0.2219587 -2.8211308 -2.2122104 -2.1564884 -2.9486945
8.744519 -4.388297 1.2531441 -5.313671 5.7743125 8.711235 1.4552847 -2.3488133
-0.35836005 -1.5185939 6.6781693 8.6247225 3.5939689 18.412825 11.194889 -0.88589823
2.6683302 -0.73449314 -1.7272413 -1.973723 -1.2264738 -6.083431 3.2656434 0.21665725
6.6724358 2.4421291 4.5829444 -1.1112745 18.44512 8.003656 1.7903787 -1.7164464
0.4746741 -4.8676443 0.8161505 5.8483105 2.6611304 -3.5961204 7.653189 4.8256173
6.730163 1.7245352 12.001455 -2.6030846 -1.831682 2.9928124 0.6159681 -8.307205
10.625327 7.5396814 -0.38421336 6.6701927 10.183461 -0.16792712 -1.5780759 -2.2439609

convs.0.bn1.running_mean f4 [128]
00000000: cc32 c8c1 ac68 0f44 408c 0cc3 d949 f443
00000010: 8316 1244 0e6d 3643 96ab f7c2 09fb 8b43
00000020: d482 8643 2440 0a44 5c1a 0f44 a17b 8343
00000030: 0e39 2643 5b08 3ac4 58e0 7242 47d4 1f44
00000040: 1b1a 4044 d99b 1644 38dd 9bc3 04a4 2944
00000050: 30a0 7dc1 2fe3 4044 634e 7f44 f1cd a743
00000060: cb4b 98c3 f40f f0c2 1459 7043 0568 cd41
00000070: 3696 8244 c591 0ac4 5239 4944 e86d d643
00000080: aa68 a143 2731 1944 3dfc 2fc3 4eb0 20c3
00000090: ca83 4444 4f81 07c4 279c e4c2 4f4a 81c3
000000a0: c70d 5543 5fca 78c1 8ad5 59c4 021d b2c2
000000b0: a0df 1244 7979 4cc3 d078 17c2 b344 7443
000000c0: cda7 8942 b8bc d6c3 9521 2943 9a1f 4dc3
000000d0: 98a0 e743 8417 6d44 85b0 57c3 ab14 7343
000000e0: 379c 1144 9206 8643 162b 6cc2 cf66 92c1
000000f0: d82f 2ac3 6ac8 5144 3bfa e9c2 1f50 b2c1
00000100: 98a9 26c3 1681 1e44 1ce8 d242 11c2 1e44
00000110: 99a1 3343 74aa b7c3 4741 2ac3 019b fc42
00000120: 0bb3 ac43 3547 d443 9ad9 2144 bc1e 4843
00000130: c0f2 8f42 884f adc4 2035 3ac3 6ce9 4644
00000140: a966 d842 1abe f643 f8e5 e8c3 1153 45c4
00000150: f620 a242 b370 44c4 4e34 aec4 4f56 1144
00000160: 72bd 83c2 dd08 82c2 3547 ffc2 95ce 0ec4
00000170: 99f6 2844 f9b5 85c3 ac44 cbc3 4568 8342
00000180: 1f46 b8c2 69ad 2144 abdf 71c2 3244 33c3
00000190: 36e5 f342 04d4 01c4 746c 8943 a3c3 87c3
000001a0: 08d0 ac43 db71 9343 d88e b1c4 c302 cd43
000001b0: ccd1 5844 c02f e442 92a7 3243 6546 8643
000001c0: 9482 9343 a229 7044 02ff 6642 df09 08c4
000001d0: f7fc 06c4 e27a 8a44 1c6d 30c4 7f4e e843
000001e0: 9488 6b44 f235 9d43 266f 1bc2 193b 0a44
000001f0: 0bf5 5a43 04d7 0844 b9d4 99c1 3f56 9e43
-25.024803 573.6355 -140.54785 488.57693 584.35175 182.426 -123.83513 279.9612
269.0221 553.0022 572.41187 262.96585 166.22287 -744.13055 60.719086 639.31683
768.4079 602.4351 -311.72827 678.56274 -15.851608 771.54974 1021.2248 335.60892
-304.59213 -120.03116 240.34796 25.67579 1044.6941 -554.27765 804.8956 428.85864
322.8177 612.768 -175.9853 -160.68869 786.0592 -542.02045 -114.304985 -258.58054
213.05382 -15.549407 -871.33655 -89.056656 587.49414 -204.4745 -37.86798 244.26836
68.827736 -429.47437 169.13118 -205.12344 463.25464 948.36743 -215.68953 243.08073
582.44086 268.05133 -59.042076 -18.3002 -170.18689 839.1315 -116.98873 -22.289122
-166.66248 634.01697 105.45334 635.0323 179.63124 -367.33167 -170.25499 126.30274
345.39877 424.5563 647.4 200.12006 71.97412 -1386.4854 -186.20752 795.6472
108.20051 493.48517 -465.79663 -789.2979 81.06438 -785.7609 -1393.6345 581.3486
-65.87001 -65.01731 -127.63908 -571.22784 675.8531 -267.42166 -406.5365 65.70365
-92.136955 646.70953 -60.468426 -179.26639 121.94768 -519.31274 274.8473 -271.5284
345.62524 294.8895 -1420.4639 410.02158 867.2781 114.09326 178.65457 268.54996
295.02014 960.6505 57.74903 -544.15424 -539.9526 1107.8401 -705.70483 464.61325
942.13403 314.42145 -38.858543 552.9234 218.9572 547.3596 -19.228868 316.6738

convs.0.bn1.running_var f4 [128]
00000000: 002d 8748 bb22 bb47 2789 2248 44e7 0b48
00000010: 768a 5748 3535 0548 f1c6 ea48 6aa5 1047
00000020: 42f5 b847 e63d b148 2b67 9449 6747 8b48
00000030: 802e c547 9fce 0f49 ce80 6046 799d 1e48
00000040: 9de0 5548 232e 9448 4ecf b548 ec3f 8849
00000050: ff45 a046 869d 2549 76b1 f449 ac27 ec46
00000060: ed7c c948 5fcd 3748 d72a 8146 5b47 5148
00000070: 68f1 0549 072b c248 e5f1 f848 b87b d548
00000080: 4391 b347 4da2 a047 da98 1747 1a13 1b49
00000090: 3a23 b848 fbeb ff48 e7b6 8247 fbda 2548
000000a0: c0ce 2348 c2f0 ce46 4132 5d49 063f a748
000000b0: 008b 5e48 6b98 7248 4d96 0549 ca9c 0348
000000c0: e9c4 5448 1473 7648 816c c548 c0a5 0c48
000000d0: dc8e 5a48 89f3 a448 0b7e 5248 692c 1147
000000e0: 3860 9748 de0a 3048 e559 8846 44fe e347
000000f0: a065 4347 58c0 b048 dbc6 3847 20a2 b848
00000100: dc57 5a48 03d5 4c49 0793 a348 07c3 7f48
00000110: 4abb 8447 429d 8b48 0e92 a048 bccc 9046
00000120: c0c5 9447 07e4 0048 b539 a649 6432 4448
00000130: bfc2 6a48 157c 6b4a 4cca 3548 fb2b 0448
00000140: ea26 8a48 d7e4 4248 1dd6 ba48 2f2b ac49
00000150: 1933 8746 438e cb49 d7bd 784a 8946 e548
00000160: ae01 bc47 025d 0f48 2f92 0749 bae9 a748
00000170: 6a06 1748 6ca9 1748 0436 8948 57df d648
00000180: f1df 4148 7ac2 c948 481c b947 ecbe 8d47
00000190: 66b6 8248 1ae0 0149 4ac2 7a48 16ae ea48
000001a0: f48e be48 22b7 5446 d691 4f4a f2d7 0d48
000001b0: d4b1 5b49 a1fb 8847 3e51 0d49 cad8 a048
000001c0: ffba fd48 73c0 6b49 d070 b048 5922 0647
000001d0: a198 db47 10eb c048 e26f ce48 09b3 f146
000001e0: 58d0 8449 d94a ea48 8aae 8546 1709 d148
000001f0: 0a0f 0949 9f4b c848 6af6 be46 dd32 6b48
276840.0 95813.46 166436.61 143261.06 220713.84 136404.83 480823.53 37029.414
94698.516 362991.2 1.2157174e+06 285243.22 100957.0 589033.94 14368.201 162421.89
219010.45 303473.1 372346.44 1.1161575e+06 20514.998 678360.4 2.0045268e+06 30227.836
412647.4 188213.48 16533.42 214301.42 548630.5 397656.22 509839.16 437213.75
91938.52 82244.6 38808.85 635185.6 377113.8 524127.84 66925.805 169835.92
167739.0 26488.379 906020.06 342520.2 227884.0 248417.67 547172.8 134771.16
217875.64 252364.31 404324.03 144023.0 223803.44 337820.28 215544.17 37164.41
310017.75 180267.47 17452.947 116732.53 50021.625 361986.75 47302.855 378129.0
223583.44 838992.2 335000.22 261900.11 67958.58 285930.06 328848.44 18534.367
76171.5 131984.11 1.3617186e+06 200905.56 240394.98 3.8581812e+06 186153.19 135343.92
282935.3 199571.36 382640.9 1.4104059e+06 17305.549 1.6675284e+06 4.0753818e+06 469556.28
96259.36 146804.03 555298.94 343885.8 154649.66 155301.69 281008.12 440058.72
198527.77 413203.8 94776.56 72573.84 267699.2 531969.6 256777.16 480624.7
390263.62 13613.783 3.4008215e+06 145247.78 899869.25 70135.26 578835.9 329414.3
519639.97 965639.2 361350.5 34338.348 112433.26 395096.5 422783.06 30937.518
1.088011e+06 479830.78 17111.27 428104.72 561392.6 410204.97 24443.207 240843.45

convs.0.bn2.weight f4 [64]
00000000: 066a 1440 c17d b03e cb88 1e40 9ca8 41bd
00000010: 680c 98bd 5c00 97bf 9224 e03f aaee e93d
00000020: e5c4 0240 2085 f93e 73b4 c63f bc4c 2bbf
00000030: 0a61 68bf 01a3 ed3f 41bd 9340 50aa c93f
00000040: 4c11 763f ecc0 2b40 a200 3040 311b cd3f
00000050: 2d13 4740 5f88 4b3f a36b 003f 0121 2cbf
00000060: 66d0 bd3f 67d1 0240 cd23 4940 1f70 3740
00000070: ef60 8e3f 38cd b140 e97e 2d40 a798 6d3f
00000080: fc92 0640 04d3 4c40 d9bf 4ec0 225a 0f40
00000090: 9124 0240 5306 1140 af12 bb3f 0cc3 a5bf
000000a0: 8696 4940 4597 dd3f ea18 0240 68de 7840
000000b0: 2595 983f aace ca3f aafc b93f cbea cbbf
000000c0: 529e 5940 4d9d 1040 6412 3040 7f60 ab3e
000000d0: 8c34 cf3f c87b 3f40 ea54 cb3f c57b d73e
000000e0: f214 1340 554d 2740 c026 31bf 3a71 38c0
000000f0: 64ed 1d40 e388 e23f 0e79 9940 04e4 2940
2.3189712 0.34470943 2.4770992 -0.04727994 -0.07424241 -1.1796985 1.751116 0.11422475
2.0432675 0.4873438 1.5523819 -0.6691396 -0.9077307 1.856537 4.6168523 1.57551
0.9612014 2.68365 2.7500386 1.6023923 3.1105454 0.7950496 0.5016424 -0.6723786
1.4829223 2.044031 3.14281 2.8662183 1.1123332 5.556301 2.710871 0.92811054
2.1027212 3.2003794 -3.2304595 2.2398763 2.0334818 2.266011 1.4615077 -1.2950149
3.1498122 1.7311789 2.0327706 3.8885746 1.1920515 1.5844319 1.4530232 -1.5931028
3.400288 2.2596009 2.7511225 0.33472058 1.6187911 2.99193 1.5885289 0.42086616
2.2981534 2.614095 -0.6919975 -2.8819108 2.4676142 1.7698025 4.796027 2.654542

convs.0.bn2.bias f4 [64]
00000000: 5453 05c0 f30b c4bf 6d01 67c0 9698 76c0
00000010: 0f9c cfbf 635c cbc0 167a 80bf 2011 8cc0
00000020: 159e 11c0 b2d9 afbe 3b83 9cbf bf70 71bf
00000030: bac8 36c0 1831 33c0 ccfa e0c0 6193 e9bf
00000040: ef77 71c0 a145 e0bf c5d4 2ac0 795c f8bf
00000050: 9b82 abc0 769e bebf 89c3 19c0 8aa0 a7bf
00000060: 7976 31c0 740d cbbf e117 0cc0 19a9 75bf
00000070: 898b 36c0 d0fa a9c0 891e 81bf 5ecc 47bf
00000080: e4d8 ebbf 0181 08c0 a160 11c0 bd17 35c0
00000090: 9008 b7bf 1c3c 22c0 3639 2cc0 c2be 00c0
000000a0: c473 48c0 118f 0fc0 f2e7 46c0 a34c 78c0
000000b0: de94 86c0 a58c 15bf 133b 23c0 7ac9 0cc0
000000c0: 4555 b8bf ace1 67bf 5139 07c0 20d7 3bc0
000000d0: 40a1 83bf 02c8 59c0 8668 b7bf dc15 39c0
000000e0: 3325 84bf 6923 56c0 5dd8 1dc1 fd7c c1bf
000000f0: 3353 4fc0 af15 5ec0 4580 a6c0 1bc4 2fc0
-2.083211 -1.5316147 -3.609462 -3.853063 -1.62195 -6.3550277 -1.0037258 -4.3770905
-2.2752736 -0.34345776 -1.2227548 -0.9431266 -2.8560014 -2.7998714 -7.030615 -1.8248101
-3.7729452 -1.7521249 -2.6692364 -1.940322 -5.359693 -1.4892108 -2.4025595 -1.3095868
-2.772856 -1.586348 -2.1889575 -0.9596115 -2.8522666 -5.3118668 -1.0087444 -0.78046215
-1.8425565 -2.1328738 -2.2715228 -2.8295739 -1.4299488 -2.5349188 -2.6909919 -2.011643
-3.1320658 -2.243107 -3.1079068 -3.8796775 -4.2056723 -0.5841773 -2.5504806 -2.1997972
-1.4401022 -0.9057872 -2.1128733 -2.9350052 -1.0283585 -3.4028325 -1.4328773 -2.8919592
-1.0323852 -3.3459113 -9.865323 -1.5116268 -3.239453 -3.4700735 -5.203158 -2.7463443

convs.0.bn2.running_mean f4 [64]
00000000: 1f66 2442 352d 0c3f b0b8 9b42 7418 8840
00000010: 628c 7f3e ab07 0442 a81b 3840 7cb4 e23f
00000020: 53dc d142 7abc b23e 3ed7 f741 1ebe 0b41
00000030: 04ac 8a42 ae0c d142 4030 be41 76e0 a941
00000040: 507a e140 6ba9 7c41 d4cf 9e42 2100 cf42
00000050: 176a c841 b871 0443 7a6a ba42 4b74 1641
00000060: 3594 5e41 5011 0942 2198 7c41 15a6 323f
00000070: 6274 5c41 e4f9 ef3d 8108 ce41 dbbb 4741
00000080: 3f47 2e42 845c ef41 9b52 5d42 5b7d 4c42
00000090: 7064 3843 c9f5 bf42 9c31 fd40 24ff f540
000000a0: 27d9 4c41 fa8a 983c 6e77 4542 de81 4441
000000b0: b1a9 0742 b2c8 db3b ee31 9d42 8721 6842
000000c0: 3087 a142 f184 9441 82a0 c442 ecdf 3741
000000d0: 94e1 0242 039c d941 9a9c 7041 12ba ec3a
000000e0: a8da ae42 cbf2 b442 5925 9340 ac1a a042
000000f0: be49 7942 196b bd41 dfba ae40 c7fa 0141
41.099728 0.5475648 77.86072 4.252985 0.24955896 33.00749 2.876688 1.771133
104.93032 0.3490942 30.980099 8.733915 69.33597 104.524765 23.77356 21.2346
7.0461807 15.791362 79.405914 103.50025 25.051802 132.44421 93.20796 9.403392
13.911183 34.266907 15.787141 0.6978467 13.778414 0.11717585 25.754152 12.483363
43.569576 29.920174 55.33067 51.122417 184.39233 95.98005 7.912306 7.687395
12.803016 0.018620957 49.36663 12.281706 33.915714 0.0067072744 78.59752 58.03274
80.76404 18.564913 98.31349 11.492168 32.72029 27.201178 15.038233 0.0018060824
87.42706 90.474205 4.598309 80.05209 62.322014 23.677294 5.4603114 8.123725

convs.0.bn2.running_var f4 [64]
00000000: d820 7d43 9d1c ba3f e1aa 1744 ab7f 8a41
00000010: cabf c63d 0f03 4043 ba5d 0841 1737 9740
00000020: 2712 ea3f 24fe 803e 756c 2443 7b81 a042
00000030: 20e5 5542 2d91 ac3e 9c12 6444 b3c2 dc43
00000040: 3e15 4442 3754 2a43 7c07 2143 093e 9e40
00000050: dd47 0744 dd90 2444 ae7a 6f43 5eba 3543
00000060: a881 1b41 93fc e044 4cb0 7943 7f84 073f
00000070: d485 3043 0158 c43c adf6 1844 c920 0e43
00000080: 33e9 d444 52d8 4e44 b51f 8143 7a2f 5345
00000090: 0ded 5e43 fa18 b441 7f4c 2e42 7382 9542
000000a0: 5470 5242 d19d ba39 8656 5743 1ee3 e042
000000b0: 2fe0 8741 e777 6c37 f068 e842 bb19 1c42
000000c0: 802e 3642 7756 b443 2767 d144 26b5 7e43
000000d0: 891d 9844 b145 2a44 5390 2b42 60ab 7c3a
000000e0: 89d8 5a43 6b52 9341 07a2 ac41 9c31 bb42
000000f0: 2310 5f45 b609 0b44 8d4c 2e42 470f 4e42
253.1283 1.4539982 606.67 17.312338 0.097045496 192.01195 8.522882 4.725475
1.828679 0.25193894 164.42366 80.25289 53.473755 0.3370451 912.2908 441.5211
49.020744 170.32896 161.02924 4.9450727 541.12286 658.2635 239.47922 181.728
9.719154 1799.893 249.68866 0.5293655 176.52277 0.023967745 611.8543 142.12807
1703.2875 827.38 258.2477 3378.9673 222.92598 22.512196 43.574703 74.75478
52.609695 0.00035594267 215.33798 112.44359 16.984465 1.4094613e-05 116.204956 39.025127
45.54541 360.6755 1675.2235 254.70761 1216.923 681.0889 42.89094 0.0009638574
218.84584 18.415243 21.579115 93.59689 3569.0085 556.15173 43.574757 51.51492

convs.1.fc_full.weight f4 [128, 169]
00000000: 2bf4 3dc0 e388 24c0 66fb c1c0 b9c0 6040
00000010: 32e8 9e3f 119d 5240 0622 aac0 355e f63d
00000020: a443 673f 35a7 ea3f 5cac c03f 30b9 083f
00000030: e11c ae3f e15c d4bf d5b5 03c0 85cd 02c0
00000040: bb58 22c0 52a4 5a40 2b8a 5bc0 d150 c33f
00000050: 9684 dbbf 216d 8d3f b6fb 0cc0 f7f5 663f
00000060: b590 94be c2b8 e73f 1472 fd3f fe0d a4c0
00000070: 6691 1fc0 ccfe 73bf 42ff 44c0 0c59 a9bf
00000080: 4051 90c0 8996 a7c0 732a 3b3f f18a bc3e
00000090: 2ec9 bfc0 2e09 71bf b001 183e d6dd 3ac0
000000a0: 68f7 9ac0 95fa f2be def9 4abf a112 0440
000000b0: f78f e33f 130d 4240 b7be 99c0 a3fd 7040
000000c0: 8366 77c0 4623 963f 7a9a 77c0 e02f 3fbf
000000d0: 35d2 e33f 2dd2 b6c0 44a2 a6bf b56f 09c0
000000e0: 1077 00bd 79d0 93c0 22e3 5d3e d6b8 cbc0
000000f0: 89cb b6c0 c9af 9e3f 27ea 253f cf11 1440
00000100: da54 ab40 9419 c73f 4671 af3f f8d2 2240
00000110: b10d e0c0 6282 53c0 bf37 d540 bc85 afc0
00000120: b8cb 16c1 f27f 42c1 71bd 3940 cc20 5c3f
00000130: 04a8 03c1 11a9 6f40 a8ac a3c0 a954 b640
00000140: 5fb2 9a40 3f3e 9fc0 7d84 f640 c04a a6be
00000150: 18a6 da3f 61c4 d9c0 2633 dbbe 29f0 1cc0
00000160: 5217 293f 819d b1bf ea1d d3bf 9c7d a0c0
00000170: e1e5 3640 3ffe ea3f 7f1b 2440 1082 343e
00000180: 37e4 4440 4b17 9e40 eed8 aec0 4dcb 64c0
00000190: 3fb3 7840 b198 2b41 7d22 c8c0 4a88 0841
000001a0: bfc8 613f 901d fb3e 8f21 bebf f549 a540
000001b0: 8ca7 b7c0 11f5 03c0 b6f6 e340 f1a1 50c0
000001c0: 993d 3c40 4213 ac40 cb1f 8e40 9b96 8840
000001d0: 7dcd 21c1 bf66 ee3f 75e5 a840 fff5 7e40
000001e0: 6732 86c0 44ca 6840 2ffa 8c3f 2bbf be40
000001f0: 914a 5940 e89e 89bf 5013 adc0 3321 85c0
00000200: 1456 37bf 7d77 d9bf 2f4d efc0 3849 5cc0
00000210: efb8 6cc0 66cf 22c0 52ea 48be 5e71 86bf
00000220: a321 b4bf 5cca a0bf cee0 0bc0 2f55 ce3f
00000230: ab88 7c40 8aba 3941 882a 783f 33a2 cdc0
00000240: cd59 82c0 b206 21c0 fea3 ddbf ebbb 8cbf
00000250: deec 98c0 659b 93c0 53cf f3bf d3ab 1fc0
00000260: 740a cfbd 842c 0d40 5cf7 e53e f22e 89bf
00000270: 3cf6 bc3f bea2 8340 9366 3540 b1dd 743e
00000280: 8335 a940 2c61 3f41 60b0 0841 11db bc3f
00000290: 8196 9fbd 18df 4b3d e636 30bd 4100 e8bc
000002a0: 1422 e9bc a575 9e40 9f6f ad40 225d 28bf
000002b0: adfc 083f 3409 c53e 828d b93f 769d ed40
000002c0: 0439 b33e 721b b4bf 7d99 55bf 5985 01c0
000002d0: ad8e 0740 38be 973d 5893 3b40 05f0 babe
000002e0: 8206 b2bf 5cff 263f ad1b 0240 9d1c b93f
000002f0: 641d febf 78e0 113f 27f3 47be 740c 0340
00000300: c95a a8bf e844 5b40 c789 f1bf 89f7 4a40
00000310: 616a cf3e b363 f9be 8227 583f ca42 1d40
00000320: 4016 f2bf d2d7 6c3f 4f57 e33e 8a72 aebe
00000330: 3b5b b3bf 7f7e 5bbe 771e c63f 191d 473f
00000340: b4a2 c63e c6c4 983d d2fe 5a3f 5bd1 00be
00000350: 3bd4 7ebf c27b 39bd 5f75 8a40 46ba 893f
00000360: 7c3c 3cbe e9e9 b43e 1c5b 4e40 f2bd 3b3f
00000370: 6c58 0bbf 9ff3 87bf e2bb f93e c3f7 463e
00000380: f73c 7540 92bd 5340 b497 163f 2b42 de3d
00000390: 4bbc 5a3f 9889 863e 59ea be3e 4349 ad3f
000003a0: 46f6 9abd b4a6 633f c6ee d13f f6c1 bf3f
000003b0: c3ca 3abe 2d68 883f ee74 b640 91ab 5a3f
000003c0: 2124 493f 1cd2 bebf f43e 41bf cf76 a93e
000003d0: e8c9 683e f66d 67bf ef44 a240 ef84 cabf
000003e0: 06d2 993e 72c5 ed3d d216 4c40 230c f23f
000003f0: 597c d9be f6f0 0140 1005 2c3f ad6a b63f
-2.9680278 -2.570855 -6.0619383 3.5117629 1.241461 3.2908366 -5.3166533 0.12029687
0.90337586 1.8332278 1.50526 0.53407574 1.3602563 -1.6590844 -2.0579731 -2.043794
-2.5366657 3.4162793 -3.430308 1.5259038 -1.7149837 1.1048928 -2.2028632 0.9021906
-0.29016653 1.8103259 1.9800439 -5.126708 -2.4932494 -0.95310664 -3.0780797 -1.32303
-4.509918 -5.237126 0.7311165 0.36824754 -5.993308 -0.9415463 0.14844394 -2.9197898
-4.842701 -0.47456804 -0.7928752 2.063637 1.777831 3.032048 -4.8045306 3.7654808
-3.8656318 1.1729515 -3.8688035 -0.74682426 1.7798525 -5.713156 -1.301827 -2.147443
-0.031363547 -4.6191983 0.21668676 -6.366313 -5.7123456 1.2397395 0.64810413 2.313587
5.354108 1.5554681 1.3706443 2.5441265 -7.0016713 -3.304833 6.663055 -5.485075
-9.424736 -12.156237 2.9021876 0.85987544 -8.228519 3.744694 -5.114826 5.6978345
4.834274 -4.9763484 7.703673 -0.32478905 1.7081938 -6.805222 -0.4281246 -2.4521582
0.6605121 -1.3876191 -1.6493504 -5.015333 2.8577807 1.835884 2.5641782 0.1762774
3.0764291 4.9403434 -5.4639807 -3.5749085 3.8859403 10.724778 -6.25421 8.533274
0.8819694 0.49045992 -1.4853991 5.165278 -5.7392025 -2.0618327 7.123866 -3.259884
2.9412596 5.377351 4.441381 4.2683845 -10.112668 1.8625106 5.27801 3.9837644
-4.1936526 3.6373453 1.101385 5.960836 3.3951762 -1.0751619 -5.4086075 -4.1603026
-0.7161572 -1.698959 -7.478172 -3.441969 -3.6987875 -2.5439086 -0.19620636 -1.0503347
-1.4072765 -1.2561755 -2.185596 1.6119746 3.9458416 11.608042 0.969399 -6.4260497
-4.073462 -2.5160336 -1.7315671 -1.0994848 -4.7789145 -4.612719 -1.9047645 -2.4948623
-0.10109416 2.205842 0.44915283 -1.0717452 1.4762645 4.113616 2.8343856 0.23912694
5.287782 11.961224 8.54306 1.4754354 -0.07792378 0.049773306 -0.043021105 -0.028320434
-0.028458633 4.951861 5.4198756 -0.6576711 0.5351055 0.38483584 1.449631 7.4254713
0.35004437 -1.4070876 -0.8343733 -2.023764 2.1180832 0.07409328 2.9308681 -0.36511245
-1.3908236 0.652334 2.0329392 1.4461857 -1.9852719 0.5698314 -0.19526349 2.047635
-1.3152705 3.4260807 -1.8870171 3.1713583 0.40510848 -0.48708877 0.84435284 2.4572015
-1.891304 0.92516816 0.4440255 -0.3407176 -1.4012216 -0.21434973 1.5478047 0.77778774
0.38796008 0.074594066 0.85545075 -0.12579863 -0.9954259 -0.04528404 4.3268275 1.0759971
-0.18382448 0.3533471 3.2243109 0.7333671 -0.54431796 -1.0621222 0.48776156 0.19430451
3.831846 3.3084455 0.5882523 0.10852464 0.8544356 0.2627685 0.37288168 1.3537983
-0.07566504 0.88926244 1.6400993 1.4981067 -0.1824141 1.0656792 5.7017736 0.8541804
0.78570753 -1.490787 -0.75486684 0.33098456 0.22733271 -0.9040216 5.0709147 -1.5821818
0.30043048 0.11609925 3.1888928 1.8909954 -0.42477682 2.030332 0.67195225 1.4251305

convs.1.fc_full.bias f4 [128]
00000000: 984f 0740 4a81 15bc 7776 143b 4391 ef3e
00000010: 0212 8bbd 438a ea3d b606 25bc 9d5f 0040
00000020: d1b9 bfbf 6f69 563e 0854 b43f 709e 8bbe
00000030: 0b8f 2140 86e0 31c0 bc28 67be df84 0bc0
00000040: adc3 8b3e c639 c0bf f254 82be 46da ea3d
00000050: 48b1 52bf bc9a 1a3b a927 623e e535 f23e
00000060: 2dd1 01bc 7e61 4fbf 81d8 403f 983f 19c0
00000070: 9435 c0bf 5e2f b13c 7d0b ec3d 0cf2 a73d
00000080: d81e 99be f490 f13f dbe4 38bf 6c94 14bf
00000090: 90f8 24bf 37d7 0740 fb8f 35bf db32 b1bf
000000a0: 314b b6be a997 1fbd fe59 25bf 2b13 30bd
000000b0: e6f6 c73f eaea c43e f8a4 25be 4c8f 1240
000000c0: 2add 2cbf 9610 acbe 0f2d cc3e 1bc7 1dc0
000000d0: 56d0 91bc eb8c 2f3d 186a 123d 0776 a63e
000000e0: bd46 073e 72d8 9f3f 6cbf 62bd e4a7 5cbf
000000f0: c375 ab3e 02a3 9c3f 6e1d 643f 6c45 793d
00000100: ed07 eb3f aa57 13be ee97 cebe 33c4 233e
00000110: 20ce dfbe e7ac 863e d9a8 93be 408f be40
00000120: 73e7 e3be 7071 ea3f 500e c13f 717c 81bf
00000130: e61d 3c40 d1fa dfbe cf10 b3bf b3f3 3abf
00000140: b014 263d 478f 26c0 4615 e03c cfca b93e
00000150: 69b2 0ac0 f863 edbd 5aba 89bf 23a7 c73e
00000160: a0b4 783c 9845 34bf 6a34 0340 def0 67c0
00000170: 3897 e1bf 1c32 7bbb e9f6 313e e0a2 15bf
00000180: 0ca6 1abf 3d2c 83be f8a2 5cbf a317 b13e
00000190: 397f 2ec0 d3dc 3340 927b 7fbf b757 15c0
000001a0: f0de aabe db37 243c 6d98 ac3e 2624 2b3f
000001b0: a82a ac40 e2d3 c73d 9427 e2bd bb04 9a3f
000001c0: c9fd 9ebe a383 aebd df96 303e a134 e0bf
000001d0: 6bb3 fc3c 7d7b 63bd 1d27 23bb e39f 13bf
000001e0: d590 55be 9a8d 203f 5b00 afbd 3bf3 d8c0
000001f0: 1365 3040 8761 6c40 f5a3 883f 5a9b a1bb
2.114233 -0.009125063 0.0022653618 0.46790513 -0.06790544 0.114521526 -0.010072401 2.0058358
-1.4978582 0.20938657 1.4088144 -0.27269316 2.5243556 -2.7793288 -0.22574133 -2.1799848
0.27297726 -1.5017631 -0.25455433 0.114674136 -0.8230176 0.0023590764 0.22085442 0.47306743
-0.007923407 -0.81008136 0.7533036 -2.3945065 -1.5016351 0.021629032 0.11525629 0.08200464
-0.29906344 1.8872361 -0.72224206 -0.58038974 -0.64441776 2.1225107 -0.7092282 -1.3843645
-0.35604241 -0.038962994 -0.6459044 -0.04298703 1.5622222 0.38460475 -0.16176212 2.2899961
-0.6752497 -0.33606404 0.39878127 -2.4652774 -0.017799538 0.042859 0.03574571 0.32511923
0.13210578 1.2487929 -0.055358335 -0.8619368 0.33488283 1.2237246 0.89107406 0.06085722
1.8361794 -0.1438891 -0.40350288 0.15992813 -0.43711948 0.2630379 -0.28839758 5.9549866
-0.4451252 1.8315868 1.5082493 -1.0116102 2.9393249 -0.43746045 -1.3989505 -0.73028105
0.040547073 -2.602495 0.027353894 0.36287543 -2.1671393 -0.11591333 -1.0759995 0.38994703
0.015179783 -0.7041869 2.050074 -3.6240764 -1.7624273 -0.0038329428 0.17379345 -0.5845165
-0.6040962 -0.2561969 -0.8618617 0.34588346 -2.726515 2.810353 -0.9979793 -2.3334787
-0.33373213 0.010023083 0.33710042 0.66852033 5.380207 0.0975721 -0.11042705 1.2032694
-0.31052998 -0.085212015 0.17245053 -1.7516061 0.030847272 -0.05553769 -0.002489514 -0.5766584
-0.2085603 0.62716067 -0.0854499 -6.779691 2.756169 3.6934526 1.0675036 -0.0049318494

convs.1.bn1.weight f4 [128]
00000000: 933e 1f41 e707 6140 445c ac40 b6c8 5b41
00000010: 2095 4c41 9001 8cc0 7a86 0b41 a70d 1741
00000020: 435a 9e41 5b01 5341 0304 1e41 1baa 3141
00000030: b203 8b40 8d92 6241 cff4 3741 8af8 5840
00000040: 2ed1 6d41 bf34 3f41 2413 0b41 27e7 c340
00000050: d67b d240 c198 ff40 6881 6340 8772 c040
00000060: 2516 eb40 31e8 0041 d3a8 0e41 365c fb40
00000070: 46da 8641 e723 9e40 c382 1c41 6207 6240
00000080: eac2 5341 4150 cc41 2f54 4741 7f0d 4041
00000090: 32cb 4941 2659 4a41 506b b740 5687 d740
000000a0: 773a b441 7bc4 2f41 337a 8441 0d99 4341
000000b0: 5290 4641 cfb0 0c41 8a05 6b40 3335 4641
000000c0: 0f7a 7b41 458e 2d41 8075 8841 e64e 9d40
000000d0: 8f3a 653f 5c73 1341 5fe8 2441 5aa8 ff40
000000e0: 28ef fc40 f4f4 ab40 9b6f f23e 45fa f840
000000f0: 5991 8b40 2940 0641 d38e 1241 f5fd 1e41
00000100: 178e dd40 1cfb 9540 faf7 df3f 54ed 2540
00000110: 95f2 2e40 bfe8 7ec0 d212 d63f e08d f340
00000120: 9e51 0640 9266 5c40 feb6 b840 0022 4741
00000130: 10c8 3740 6cb0 3040 ec45 b840 4779 3841
00000140: 3ef3 0e41 2c87 ad40 0892 5841 bc1b c940
00000150: 8451 6941 5377 1b41 3b3a 3b41 4198 1c40
00000160: 0c23 9f40 a804 b841 a70f 8d41 8e4a 2541
00000170: 1bc3 3b41 329a b1bf 5c95 7040 2b86 fb3f
00000180: ec24 0c40 ecf8 2840 a31a 2841 63c0 8840
00000190: d5cc 1741 683a f940 674f ed3f d33d d740
000001a0: 53c2 9e40 8682 a040 e1fd 3441 70af 3840
000001b0: fc59 3a41 439e c840 2e61 6e40 5539 e140
000001c0: 0b1b a440 2a03 3e40 e7fd e73f 98ab ba40
000001d0: c064 1440 7398 1a40 77b2 cc40 a26a f83f
000001e0: c23b c440 6649 f6bf ac73 6d3f c5bb 2840
000001f0: 2681 f43f e1c5 ea40 34fc ff3f b887 763f
9.952777 3.5161073 5.386263 13.736502 12.786407 -4.3751907 8.720331 9.440833
19.794073 13.187831 9.875979 11.10403 4.344201 14.160779 11.497268 3.3901696
14.863569 11.950377 8.692173 6.121967 6.5776167 7.9873967 3.5547733 6.0139804
7.346453 8.056687 8.916217 7.855006 16.856579 4.9418826 9.781924 3.5317006
13.235086 25.539186 12.458053 12.003295 12.612108 12.646765 5.7318497 6.7352705
22.528547 10.985469 16.559668 12.224866 12.410234 8.793166 3.672213 12.387988
15.717299 10.847234 17.057373 4.915881 0.8954248 9.215664 10.306731 7.9893007
7.904194 5.3736515 0.47350773 7.7805505 4.3614926 8.390664 9.159869 9.937001
6.923595 4.686903 1.7497551 2.5926104 2.733556 -3.9829557 1.6724494 7.6110687
2.0987315 3.4437604 5.772338 12.445801 2.8715858 2.760768 5.7585354 11.529609
8.934385 5.4227505 13.535652 6.2846355 14.582401 9.716632 11.701716 2.4467928
4.973028 23.002274 17.632643 10.330702 11.735133 -1.3875182 3.7591162 1.965032
2.1897535 2.640193 10.506503 4.2734847 9.487508 7.7883797 1.8539857 6.726297
4.961221 5.015933 11.311982 2.8857079 11.646969 6.269319 3.7246814 7.0382485
5.128301 2.968943 1.812436 5.8334465 2.3186493 2.4155548 6.3967853 1.9407542
6.1322947 -1.924115 0.92754626 2.6364605 1.9101913 7.336655 1.9998841 0.9630084

convs.1.bn1.bias f4 [128]
00000000: 4e85 923c 4bd2 b1c0 083b 97bf 2e2f 713e
00000010: bf66 35be 0876 c1c0 9dc5 853e 5cf0 9bbf
00000020: 619a 1bbd 4905 25c0 3eed 23be 2746 1bc0
00000030: 0151 30c0 adcf 85be e328 923f 8ec3 27c0
00000040: f5f0 c5be 394a 1cbe 1ace 59c0 0df0 cfbf
00000050: bf21 dbbf ce5f 6c3f c1c7 adbf a13f 24c0
00000060: 40f8 4b40 0eea 7d3f 87e0 17c0 ab6f 18c0
00000070: e7e7 fdbf 0f38 2740 afe9 6c3f c9a0 24c0
00000080: 9c5f 7fbf 74d0 a5bf 3157 323f 8c00 9dbf
00000090: 3660 83be a24b 0cc0 3cab ab3f a873 33c0
000000a0: c99a 0840 e563 f1bf 6996 14c0 8fad 6dbe
000000b0: 0c21 8ebf 72c6 ffbf c55e dabf 6c9c a7bf
000000c0: f915 54bf 9aeb 01c0 b075 2040 44cb 53c0
000000d0: b659 a9bf 5d2e 2d40 2cba 28bf 03b0 c23f
000000e0: ac9e fbbf 3f85 3740 c373 e8be 69e9 c9c0
000000f0: 7c34 a5c0 23e0 92c0 3b70 343d 3bfe 7cbe
00000100: 49cf d6bf 8ab6 d3c0 42d3 16c0 8403 4540
00000110: 4da5 7840 0a31 e2c0 88ce ac40 1467 73c0
00000120: 5b86 6140 8e9f 8ac0 4646 113e 0a09 1440
00000130: aa1e 54c0 b31e 8640 1309 3140 1380 d43e
00000140: c022 3bc0 36b7 f13e 1fe4 1b40 466c 2ec0
00000150: 2097 39bf e235 b5bf 8915 dabe 26bf 9b40
00000160: 15d2 c9bf b5b6 263f 2480 86bf 5d9c 2fbf
00000170: 3bd1 0940 57dc af40 3e1f 5940 e49f a0c0
00000180: 6543 3a3f e546 2140 122f 4540 b2b9 913f
00000190: 16c4 b8bf d5bf ee3d c58c 9240 2823 44c0
000001a0: 6c2d 2840 b271 42bf e13d debf 4abf 33bf
000001b0: 6252 17c0 46c4 10bf 8d55 03c1 d380 1740
000001c0: d0e1 5240 fcc0 2e40 28a1 bb40 9188 9cc0
000001d0: fb4f 80c0 365b 0640 0006 acc0 a50d ac40
000001e0: 60e9 87bf 810a 8b40 0b8c d3bf 805e 02c0
000001f0: 299c c5c0 9df6 debf 8a22 663f 147a 6640
0.01788583 -5.5569205 -1.181489 0.23553154 -0.17714976 -6.045658 0.2612733 -1.2182727
-0.037989024 -2.5784476 -0.1600847 -2.4261568 -2.754944 -0.26135007 1.1418728 -2.6213107
-0.38660398 -0.15262689 -3.4032044 -1.6245133 -1.7119673 0.92333686 -1.3576585 -2.5663836
3.187027 0.99185264 -2.373079 -2.3818157 -1.9836396 2.6127965 0.9254407 -2.5723135
-0.99755263 -1.295424 0.69664294 -1.2265792 -0.2565934 -2.1921163 1.3411632 -2.803934
2.1344473 -1.885861 -2.3216803 -0.23210739 -1.1103835 -1.9982436 -1.7060171 -1.3094611
-0.8284603 -2.030005 2.507183 -3.3092813 -1.3230503 2.7059548 -0.65909076 1.5209965
-1.9657798 2.8675077 -0.4540082 -6.3097425 -5.162657 -4.5898604 0.044052344 -0.24706356
-1.6782008 -6.6160326 -2.3566442 3.0783396 3.8850892 -7.068486 5.4002113 -3.8031664
3.5238254 -4.331977 0.14186963 2.3130517 -3.3143716 4.1912475 2.7661788 0.41503963
-2.923996 0.4721009 2.4357984 -2.7253585 -0.72496223 -1.4157069 -0.42594555 4.8670835
-1.5767237 0.6512254 -1.0507855 -0.68597966 2.1533954 5.495647 3.3925319 -5.019518
0.72759086 2.519952 3.080998 1.1384795 -1.4434841 0.11657683 4.579684 -3.0646458
2.6277723 -0.75954735 -1.7362634 -0.7021376 -2.3644032 -0.5654949 -8.208386 2.3672378
3.2950325 2.7305288 5.8634224 -4.8916707 -4.0097632 2.099317 -5.3757324 5.3766656
-1.0618095 4.345032 -1.6527113 -2.0370178 -6.1753125 -1.741901 0.8989645 3.601201
