results/CrystalAE/2023-06-14/23:17:15.830558/models/best_model.pth (torch, 430187 bytes, 37 tensors)

embedding.weight f4 [64, 92]
00000000: 82ce 4dbe 3f62 3cbd 0bad 82be aa8c 663e
00000010: 4122 a13d 0b93 13bf 717e 8a3f 40da b9be
00000020: 3244 62be 3a1d 4b3f af20 0abf 4c18 45be
00000030: 77fd 9ebe 5cec eebe 037c 99be 0bf3 6c3e
00000040: a361 31bd b80a 9f3d 50f2 0f40 6776 f33b
00000050: 3c3c 483e 3098 3abe 9b55 8ebe d6bc 05bf
00000060: 188f c7be 4bb0 dd3f 5d19 203e 5602 063d
00000070: 3159 9f3d 74fc 323f e405 0c3e 4f6a 0b3b
00000080: 7886 e53e 6690 4f3e fe1c e3bd 9155 59bd
00000090: d8e3 e9bd 4966 81be 3126 443e 9f8f 98bd
000000a0: 297d 89bd b9fe 7a3d e53f 233e 9417 eebe
000000b0: 6e5e 0fbe 111f 073f ae90 86bd b75e 2ebe
000000c0: f9d1 83be e164 c1bd 0662 76be b81f 703e
000000d0: d466 abbd 1f02 e03d f093 3b3f 127b bfbe
000000e0: 7588 97be 91ba 71be 71fa 553e f83c f8bd
000000f0: be9e 61be ea21 51bc d7de cebe 3240 f33c
00000100: 488e e0bc edce 0fbd 0632 c7bc ac3b dd3e
00000110: a63a 7dbf 06f9 473d 426e 323e c782 823d
00000120: 40b6 80be d4b1 9ebd 0392 faba 5567 3f3e
00000130: 4f0e 2f3d 0169 bdbd 6e5b bcbd 39ed 64bd
00000140: 9629 7fbc 2660 1ebe 517e 5f3c fa81 bebe
00000150: b40b 4c3f 91ac 943c f442 08be 93b7 803e
00000160: 2f18 bc3d 7db7 8d3e 0b9f cb3e 2cc6 623e
00000170: f507 3c3e 2926 123e c7a9 2fbd b4d4 96bf
00000180: 4158 a13e 002c 3e3f 404b 863f 41c5 9f3f
00000190: 993f 4c3e 461d f23c 0048 58bf 503b 36bf
000001a0: 1228 bbbd ad06 aa3e 881e dfbe a624 dfbd
000001b0: 4dc9 02bd 8461 8fbe e4af 8b3f 5abc 513c
000001c0: ed6d 013f d59a 323e a31b 91bd 1743 9b3c
000001d0: dfdd 8fbf 8bd3 aebe 21e9 66be 2d4d f0bd
000001e0: 277a c3bd a42c 153e 7085 e83c 960f 12bf
000001f0: 4542 1dbe 8ab7 15bf d3f5 093d d9ab a63e
00000200: 3047 c33d 84da 353e cfd4 3c3e 0539 ebbe
00000210: feeb e83e db8e a8be f499 f6be 2900 e3be
00000220: b911 15be 818f 8dbe 2d81 a53d 932f 053e
00000230: c7b9 b9be 6f09 75be 5edc 783e 3725 b73e
00000240: 7e8c 973e 63f0 5a3e 8aad 423d c4fa 433f
00000250: 0401 3bbf 3911 bdbf 4a26 a8be b93d 58be
00000260: 4d6f b7bd 8dde 013e 868e 2b3e 86f9 d83e
00000270: d412 14bf 6843 963e efca bdbd 5585 af3f
00000280: 259a 14c0 bb84 ce3d fd8d e33d 203a ab3d
00000290: 2d94 683f 75ef c4bd 3c82 dabe 39cb 113e
000002a0: 6598 8e3d 1ea8 4ebe e37e ce3c eaae 0dbf
000002b0: 05d2 803d fe93 2e3e 4018 3abf 6152 503e
000002c0: c28b bcbe cbba 163f 7ca5 b03d 021f 9b3d
000002d0: 2419 a83e 874d 033d 2841 f03c bead eebe
000002e0: 341b b3bd 87e2 643d d205 2fbe 12a5 b0bf
000002f0: f6a0 10be 55aa 023f 728f 353f 1b22 6f3e
00000300: 065c 503c 565c 293f 5ff8 e13e 3b0a 8fbe
00000310: eb62 17bf 2af4 1a3f a286 b9bd 5bdc 46bd
00000320: 2cf7 2cbe 907d 3abe 7ac9 9ebe b077 46be
00000330: dd34 38be 50ab c6be cd10 153d 89b5 913d
00000340: 5c58 523d de2b b03e 7281 12bd a2f1 653e
00000350: bf5a 683e e294 b73d 0ff3 2f3d ab45 5d3e
00000360: 3fec 00bf 16c7 a2be 26c1 1cbe d40e 15be
00000370: d29c 76be 1859 96be 8e2a df3e 3469 0f3f
00000380: 0aae 483e 2b6a 5c3b c56c 76be d95a 73bf
00000390: b680 ee3d 1920 5dbf 4a9b 913d 9e32 f5bd
000003a0: 4f47 eabd 1740 afbe 9ee2 ba3e a2d4 f83c
000003b0: 418c e5bc 39ee 14be f322 f43e 4e34 8bbe
000003c0: 778c 33be c0a1 283e 3a16 a1bd 9c36 063f
000003d0: ad4f 423d ab98 7f3d b1bf fcbd e86f f3be
000003e0: ec70 993d a0a4 d6bd be2b 843d 1bf0 ffbe
000003f0: 8df5 6bbf c886 afbd e309 e9be 5fdd 0d3b
-0.20098308 -0.045992132 -0.25522646 0.22514597 0.078678615 -0.57646245 1.0819837 -0.36299324
-0.22096327 0.7934147 -0.5395612 -0.1924755 -0.31052753 -0.46664703 -0.29977426 0.23139589
-0.043306004 0.07765716 2.2491646 0.007429886 0.19554228 -0.18222117 -0.27799687 -0.52241266
-0.3897636 1.7319425 0.15634675 0.03271707 0.07780684 0.6991646 0.13674122 0.0021273082
0.44829154 0.20269927 -0.11089514 -0.053060118 -0.11420411 -0.2527335 0.19155194 -0.074492685
-0.067133255 0.06127808 0.15942343 -0.46502364 -0.14000866 0.5278178 -0.06570564 -0.17028318
-0.25746134 -0.09443069 -0.2406083 0.234496 -0.08369222 0.109379046 0.7327261 -0.37398583
-0.29596296 -0.23606326 0.20896317 -0.12121004 -0.22033212 -0.012764433 -0.40404388 0.029693697
-0.027411595 -0.03510945 -0.024315845 0.4320959 -0.98917615 0.04882147 0.17424873 0.063726
-0.25139046 -0.07748762 -0.0019117001 0.18691762 0.042738255 -0.092485435 -0.09197126 -0.055890296
-0.01557388 -0.15466365 0.013640956 -0.3720854 0.7970536 0.018148692 -0.1330679 0.25140056
0.091843 0.27679053 0.39769778 0.22145909 0.1836241 0.1427237 -0.04288652 -1.1783662
0.31512645 0.7428589 1.0491714 1.2482072 0.19946136 0.029554974 -0.84484863 -0.71184254
-0.09138502 0.33208218 -0.4357798 -0.10895662 -0.031930257 -0.28004086 1.0913053 0.012801254
0.5055836 0.17441876 -0.070853494 0.01895289 -1.1239585 -0.3414577 -0.22549869 -0.1173347
-0.09544783 0.1456781 0.02838394 -0.5705503 -0.15357311 -0.58483183 0.033681702 0.32552984
0.09535062 0.17759138 0.18440555 -0.4594194 0.45492548 -0.3292149 -0.48164332 -0.4433606
-0.14557542 -0.27648547 0.08081279 0.1300643 -0.3627455 -0.2392938 0.24302813 0.3577058
0.29599375 0.21380763 0.04752878 0.7655451 -0.73048425 -1.4770881 -0.32841712 -0.21117295
-0.08956776 0.12682553 0.16753587 0.4237787 -0.5784123 0.29348302 -0.09267222 1.3712565
-2.3219082 0.1008391 0.111110665 0.08360696 0.908511 -0.09615985 -0.42677486 0.1423768
0.06962661 -0.20181319 0.025206989 -0.5534502 0.06290058 0.17048642 -0.7269325 0.20343925
-0.36825377 0.58878773 0.08625314 0.07574274 0.3283168 0.032056358 0.029327944 -0.4661693
-0.08745423 0.055880096 -0.17092064 -1.3800375 -0.14123902 0.51041156 0.70922005 0.23352854
0.012717253 0.6615652 0.44134805 -0.27937493 -0.5913531 0.60528815 -0.09058882 -0.04854999
-0.16891164 -0.18211961 -0.3101309 -0.19381595 -0.17988916 -0.38802576 0.036392976 0.07114703
0.051353797 0.34408468 -0.03576798 0.22455457 0.22690867 0.08963944 0.042956408 0.21608607
-0.5036048 -0.31792516 -0.15308055 -0.14556438 -0.2408326 -0.29364848 0.43587154 0.560199
0.1959764 0.0033632617 -0.2406493 -0.950605 0.116456434 -0.863771 0.07109697 -0.11972545
-0.11439382 -0.34228584 0.3650102 0.030374829 -0.02802098 -0.14544 0.47682914 -0.27188343
-0.17534052 0.16467953 -0.078655675 0.5242708 0.047439266 0.062401455 -0.1234125 -0.47546315
0.07492241 -0.104806185 0.06453656 -0.49987873 -0.92171556 -0.08570629 -0.45515355 0.002164684

convs.0.fc_full.weight f4 [128, 169]
00000000: 66a5 91bd 5325 4f3f d776 3cbd ed86 8abe
00000010: b95c c43d 4872 4a3f f97e 97be 82c8 01bd
00000020: 924b 83be 55c0 053e 6016 733d 1f85 613e
00000030: 5e8e 9e3e 6823 c83e c746 d8be fc81 8f3d
00000040: 932b 973f dd94 aa3e 65c9 183f 9450 7d3e
00000050: c4a4 1c3f a468 82be bf22 1a3f 2d1f 503e
00000060: 8df2 fe3e 8be6 d23e 5554 ffbe a77a 2dbf
00000070: 5f26 d4be 3665 d23e c0cb a73d b0b8 643f
00000080: a215 c4bf 8f56 00bd ac17 4fbf 13cc 0a3f
00000090: 0a57 77bf e9a0 dabe 574c 4ebf 0ec5 a1be
000000a0: 0109 3abe 4256 0a3f c1d4 93bf b35a 273f
000000b0: 6883 73be 3b75 723f 70b5 613f 10e6 5cbd
000000c0: 442b 253e 6abf 3f3e 97f8 5abf 269c 7abd
000000d0: 64ac 443f 26a5 b7bd cfc7 e43e aa41 efbd
000000e0: ce26 65be 8a1d 833e 2a04 e6be 58ac e9bd
000000f0: 5944 7c3d e58f d4be d372 36bf cf91 f23d
00000100: 8c51 edbf afac 3a3f 8677 003f c42d 07bf
00000110: 678e 7b3f 9dcb 88be 23f9 173f ce98 b93b
00000120: 87d4 d53e 72c3 903f f37a 0f3f 84ac 35bf
00000130: 6c2d a63b 33d2 293f c46b fc3e 0dd9 8abf
00000140: f942 a8be a715 413f bb07 5d3f 89c4 ae3e
00000150: 1ba1 02c0 d0c3 993f 6ae0 153f e5f9 3e3f
00000160: 98e0 403f 4f34 77bf 721f 883d 4225 9b3f
00000170: 3c77 9a3f 6d92 70bf deb3 edbd 25e7 723d
00000180: f62a afbf bf91 d33b 3334 fc3e 5e9c 543f
00000190: bb4d cf3f 0267 f3be 3229 d13d dd64 4e3f
000001a0: ccbe 45bf 4d20 21bf ee86 1a3e 06ee ecbf
000001b0: b3ff 1e3f 0664 773e 1bcc f8bf 3485 47bf
000001c0: ae92 263e b697 49bf b799 173f c683 dc3d
000001d0: bef0 e7be 030a 593f 4645 97be 95e6 3dbf
000001e0: bbb1 a23e 6252 a9be e709 833f 6701 69bf
000001f0: fee5 66bf b8e4 3f3f 0235 c2bf e8ec c43d
00000200: 6395 463d 45a5 163d 4cb1 ff3f 5829 e83f
00000210: 8aba 9d3f 2b99 a83f 5305 1440 f07e ce3e
00000220: 1d4f b1c0 90b4 a1c0 3a80 9e3f d98f 3a40
00000230: 6cd8 c23f 3afe b83f bd5f a83f 7bd1 5fbf
00000240: 7fd0 8940 e62c 0a40 7760 91c0 9bdc eac0
00000250: 15af 7cc0 85e3 d5bf 913f 263f 00f2 093f
00000260: 62a5 b73e f651 0cbf 7d7f 8abf 161a 64bf
00000270: e20c c83e d783 0ebf d341 8ebf 0275 03bf
00000280: e5d3 3e3f cf23 0740 03a2 0440 c14c 763f
00000290: 8fd0 99bd 8a2c d1bc 597f ebbc d374 38bd
000002a0: 2852 4c3b 2e41 3b3d df4a 02c0 9583 b2be
000002b0: 27a5 0bbf a517 f3be 7564 3b3f cc8f 1fbe
000002c0: 4b9e 28be 9a24 f7be 8719 94bf 8fa3 36be
000002d0: 9f49 f83e 0ec2 a33d 8853 883e e7e2 343f
000002e0: a78c 38be 9b49 13bf 19a3 d63f c842 d9be
000002f0: 4eb9 503e f807 b5be 5dd6 6fbe 2364 b63d
00000300: e63c 17bf 2f49 3dbf 8f9b 803f 9941 723e
00000310: aa55 b13f 6921 443f c1ff c03e 4a90 5b3e
00000320: 303b 8abd 4280 c73e 5c59 bc3c e201 893e
00000330: cbdf 0f3f b383 e23f 1393 0ebf 56b9 da3e
00000340: 26ba b2bf b3c5 283d 23ed a5be 85f2 1d3e
00000350: 0385 96be 4b37 813e f11b b63e 985e 1dbf
00000360: aaa7 45bf 5425 593f 29ec 97be 8b0f 573f
00000370: db60 a33e 35d8 093f d5ce fd3d af9d 5bbf
00000380: 829a 04be 24ab a33e 7d38 85bf 96a4 0d3f
00000390: 8fe6 d23c a6d6 b1be 8cfb 3d3f e95a 7f3e
000003a0: b413 723f 27f8 e13e b792 e9bf 1ab9 fc3e
000003b0: d0ae 953f 16fa 2bbf a42f b2bf 66f4 093e
000003c0: 3de2 7a3e c80b 983f 7b8d de3d 53f8 d2be
000003d0: 12cb 363f 3f99 023e afa0 ab3e 005f 4ebd
000003e0: adc4 c63e 6513 cbbf c9b4 afbf 2104 10bd
000003f0: c7ba e0bd 0947 0e3f 842d a0bf 791c 893f
-0.071116254 0.8091633 -0.046011772 -0.27056065 0.09587998 0.7908063 -0.2958906 -0.03168536
-0.25643593 0.1306165 0.05934751 0.22023438 0.30967993 0.39089513 -0.422415 0.070072144
1.1810173 0.333167 0.59682304 0.2473777 0.6118891 -0.2547046 0.6020927 0.20324393
0.49794427 0.41191515 -0.49869028 -0.6776528 -0.41435525 0.41092843 0.08193159 0.8934431
-1.5319102 -0.03133255 -0.80895495 0.5421764 -0.96617186 -0.4270089 -0.80585235 -0.31595653
-0.18167497 0.5403787 -1.1549302 0.6537277 -0.23780596 0.9471013 0.88167477 -0.053930342
0.16129786 0.18725362 -0.8553557 -0.06118407 0.7682555 -0.089670464 0.44683692 -0.11682446
-0.22378084 0.25608474 -0.44925052 -0.11409825 0.06158862 -0.41516033 -0.7126896 0.11844217
-1.8540511 0.72919744 0.5018238 -0.5280421 0.98264164 -0.26717845 0.5936453 0.0056639677
0.41763708 1.1309645 0.5604698 -0.7096636 0.0050713327 0.66336364 0.4930097 -1.0847489
-0.32863596 0.75423664 0.8633992 0.3413432 -2.041083 1.2012882 0.58545554 0.7460006
0.753427 -0.9656419 0.06646623 1.2120745 1.2067637 -0.9397343 -0.116065726 0.059302468
-1.3684986 0.0064565833 0.49258575 0.830511 1.6195596 -0.47539526 0.102129355 0.80622655
-0.7724426 -0.6293991 0.15090534 -1.8510139 0.62108916 0.2415925 -1.9437288 -0.77937627
0.16266891 -0.7874712 0.59218925 0.10767321 -0.4530086 0.847809 -0.2954504 -0.74179965
0.31776223 -0.33070666 1.0237397 -0.91017765 -0.9019469 0.7495837 -1.5172427 0.09615499
0.04848231 0.036778707 1.9975982 1.8137617 1.2322552 1.3171743 2.312825 0.4033122
-5.5409074 -5.0532913 1.2382882 2.9150298 1.5222297 1.4452584 1.3154217 -0.87429017
4.306701 2.1589904 -4.5430255 -7.3394294 -3.9481862 -1.6710058 0.64940745 0.5388489
0.35868365 -0.5481256 -1.0820156 -0.89102304 0.3907233 -0.5566992 -1.1113838 -0.51350415
0.74542075 2.1115606 2.0723884 0.9621087 -0.075104825 -0.025533933 -0.028747248 -0.045033287
0.0031176899 0.045716457 -2.0358198 -0.34866014 -0.5454888 -0.47478977 0.7320016 -0.15582198
-0.16466634 -0.48270112 -1.157029 -0.1783583 0.48493668 0.07995997 0.2662623 0.70658726
-0.18022405 -0.5753419 1.6768523 -0.42433763 0.20383188 -0.35357642 -0.23421617 0.08905818
-0.590773 -0.73939794 1.0047473 0.23657836 1.3854268 0.7661348 0.37695125 0.2144176
-0.0674957 0.3896504 0.022991829 0.2675925 0.56200856 1.7696441 -0.5569317 0.42719525
-1.3963058 0.041204166 -0.32407483 0.15424545 -0.29398355 0.25237498 0.35568193 -0.61472464
-0.7720896 0.84822583 -0.29672363 0.8400809 0.31909832 0.5384553 0.12392966 -0.8578748
-0.12949565 0.31966507 -1.0407864 0.55329263 0.025744705 -0.34734076 0.74211955 0.24937023
0.94561315 0.44134638 -1.8247899 0.4935997 1.1693974 -0.67178476 -1.3920789 0.13472137
0.24500366 1.1878595 0.10866829 -0.4120508 0.7140361 0.12753771 0.3352103 -0.050383568
0.38821927 -1.5865294 -1.3727046 -0.035160188 -0.10973125 0.5557714 -1.251389 1.0711814

convs.0.fc_full.bias f4 [128]
00000000: 94da 953e b733 c63d 0cc3 f6bd 3a04 bd3e
00000010: ad99 953d 2f23 42bd 12c5 e03e 9ff3 573e
00000020: e8f4 95be d581 bd3d 52d1 cb3c 67b7 213f
00000030: 4de4 a33e dc08 87bd a42e 873d 5e98 073e
00000040: 6fe9 cd3d 961d 8ebe 3258 2f3e 6611 ad3e
00000050: 5bfd 973d 9e21 393e 5d69 2ebd dace 38bd
00000060: 0042 753e bde2 b33c dc03 163c a73d 94bc
00000070: 26b5 1fbd f100 493f f185 3ebf bf25 aabd
00000080: 2182 8e3e a6ab 56be bccb c9bd c68d 8a3d
00000090: 059c 153d 331b 13be c29f 96bd 660b d63e
000000a0: fdc1 ab3e 8b32 4abd 7a44 a03e b151 9b3c
000000b0: e2df 133f c713 9f3d 781f 9e3e 3277 f8bd
000000c0: adb6 02bf ab11 a7be 26bd babb 0702 d63e
000000d0: 2ff0 973e d224 cbbc 0316 b23e 2b16 c13e
000000e0: c3ab 443e 92ac e8bd 46a0 b93d 65b5 59be
000000f0: fd9d 913e 4663 233f 9a5b 123d 093f 513e
00000100: 790e fabd ad97 233e c7f5 1e3e 6001 e23e
00000110: b8b6 8d3f 2729 b33d 1745 30be e16e 5b3e
00000120: 0d91 42be b8f9 d9be 9239 643d adf1 833e
00000130: 045f db3d 49a8 d73d 1f1f 91bd 5345 233e
00000140: 9c7c 0abe 9fc7 a7be 4c56 403d 73da dd3c
00000150: 94bf a43e 1c62 953d 1ce2 dabd a2c3 5c3e
00000160: aeb4 babe d42a 9abb e7d3 1abd a851 a7bd
00000170: 3a1a 69be b89e 7c3e b37b 883c 3148 e13c
00000180: 7933 42be 362d 8f3e cb96 74bd fc0e b23e
00000190: d9f1 0f3d 8b91 a23b 6751 adbd 36c5 503e
000001a0: bd73 523f 72a2 823e 4320 e63d c253 513f
000001b0: 1ed9 c23c d904 313e d28c 9c3c 5ec4 cf3e
000001c0: 4250 93bd 1886 0cbe 1b75 a83e 674c 123d
000001d0: 1dc1 943d 7bf1 efbc 0372 0cbe 72d1 723e
000001e0: 2961 0abe 9644 6b3e 3f9a 88be 0371 023d
000001f0: 5e5c c93d a2e1 23be 39d8 a83e 18ad 223f
0.29268324 0.096778326 -0.12048921 0.36917287 0.07304702 -0.047396835 0.43900353 0.21089028
-0.2928841 0.09253279 0.024880085 0.63170475 0.32010117 -0.06593487 0.06600693 0.13241717
0.100542895 -0.27756947 0.17123488 0.33802336 0.074213706 0.1807923 -0.04258095 -0.045119144
0.23950958 0.021958703 0.009156194 -0.018095804 -0.038991116 0.7851706 -0.7442313 -0.08307981
0.27833655 -0.20963916 -0.098533124 0.067653224 0.036525745 -0.14365844 -0.0735469 0.4180557
0.3354644 -0.049364608 0.31302243 0.018959852 0.57763493 0.07767444 0.30883384 -0.1213211
-0.5105999 -0.32630667 -0.005698818 0.41798422 0.29675433 -0.02479783 0.3478242 0.37712225
0.19206147 -0.1136104 0.09063773 -0.21260603 0.28440848 0.63823354 0.03573189 0.20434202
-0.12209792 0.15975828 0.15523444 0.44141674 1.1071386 0.087480836 -0.17213856 0.21429016
-0.19000645 -0.42573333 0.055718966 0.2577032 0.10711482 0.10530145 -0.07086014 0.15944414
-0.13524097 -0.32769486 0.0469573 0.027081704 0.32177413 0.072941035 -0.10687658 0.21559003
-0.36465973 -0.0047048125 -0.037799742 -0.081698716 -0.22763911 0.24669921 0.016660547 0.027500244
-0.18964948 0.2796418 -0.05971412 0.34777057 0.035142753 0.0049611977 -0.08462792 0.2038773
0.8220785 0.2551456 0.11236622 0.8176843 0.02378517 0.17287005 0.019110117 0.40579504
-0.07193042 -0.13723028 0.32901844 0.035717394 0.07263396 -0.029289952 -0.13715367 0.2371271
-0.13513626 0.22975382 -0.2668018 0.031846058 0.09832071 -0.16004041 0.32977465 0.6354537

convs.0.bn1.weight f4 [128]
00000000: f5a7 aa40 8214 9c40 a0d6 7040 6d0a 9c40
00000010: 6f5f 5b40 baea a63f 1a00 3c40 b464 6840
00000020: 24e6 8c40 58aa 2640 b397 4e3f 8e3c 1d40
00000030: be91 8540 e1c0 c440 732b bf40 29ce 6d40
00000040: a0ac b640 86e0 8c40 d10b 5e40 d7fa a040
00000050: 46ef 1e40 4b19 5340 f307 b53f d8a3 9c40
00000060: 8132 bc40 3825 e73f 260f 8f3f 2a89 9040
00000070: 4a3e 0440 cb11 2e41 86af d93f 0d88 8040
00000080: 267a a140 b123 cc40 6f73 953f 2478 1c40
00000090: 6e0c b23f d7bf 823f 0ec7 8b40 1806 c440
000000a0: f0c5 8840 17d6 0040 c762 1840 8bc3 9740
000000b0: 4395 8140 cd18 9a3f 0c0d f740 3d88 8040
000000c0: 12db 8d40 cbcc 3a40 052f 2840 e4ed 7240
000000d0: be82 ad3f 8e79 9840 e080 9040 d913 b040
000000e0: 0937 b840 fec3 6a40 1578 1e40 6176 bd3f
000000f0: 652f 9640 430b c240 0313 8940 34e3 a140
00000100: 79a6 993f 748b 8d3f a3b2 d040 c4e6 903f
00000110: 2b42 303f d559 1540 f05a e83f faed 813f
00000120: e36b 5940 b5db ba3f b099 b33f 750f 8a3f
00000130: 24eb 903f 0260 003f f1b0 a83f f934 6c3f
00000140: 09de e13f 763e 013f be66 0840 f8b1 4d3f
00000150: 7f57 db3e 8d0c 913f bc1c a23f 59e4 333f
00000160: bbf4 b63f cbc0 a340 afbb 3f40 8048 b33f
00000170: a374 0640 2db8 c43e a024 8540 9eb7 ff3f
00000180: 95ff f93e fd7b ad3f e244 1440 edc4 f83f
00000190: 0328 0540 48e8 9740 9e24 a73f aeb4 303f
000001a0: a5fb 0440 24cc a440 7782 8b40 0182 c23f
000001b0: bd0c 0c3f 7ff2 6640 b416 f63e 0ff8 363f
000001c0: f1c9 e23f ccaa ad3f 8bc6 4140 8c31 3240
000001d0: 55f7 cb3f 3001 1f3f 2377 053f af0e d13f
000001e0: e83a 633f 257f 873f bc1b 2340 3b52 9a3f
000001f0: 3bf2 873f 4064 ae3e 718d 0e40 f457 bb3f
5.3330026 4.8775034 3.7630997 4.8762727 3.4276998 1.3040383 2.9375062 3.6311464
4.4030933 2.604147 0.80700225 2.456821 4.174041 6.148545 5.974054 3.715708
5.7085724 4.4024076 3.4694712 5.03062 2.483354 3.2984188 1.4143051 4.8950005
5.881165 1.8058233 1.1176498 4.5167437 2.0663018 10.879344 1.700669 4.0166078
5.0461607 6.379357 1.1675853 2.4448328 1.3910043 1.0214795 4.3680487 6.125744
4.2741623 2.013067 2.381029 4.74262 4.0494704 1.2038819 7.7203426 4.0166306
4.432992 2.9187496 2.6278698 3.7957697 1.3555524 4.764838 4.515732 5.502423
5.756718 3.6682124 2.4760792 1.4801751 4.6932855 6.0638747 4.283571 5.0589848
1.2003928 1.1058183 6.5218062 1.1320424 0.68850964 2.333608 1.8152752 1.015075
3.39721 1.4598299 1.4031277 1.0785967 1.1321759 0.50146496 1.3178998 0.9226833
1.7645885 0.5048593 2.131271 0.80349684 0.42840192 1.1331955 1.2665019 0.70270306
1.4293436 5.1172843 2.9958303 1.40065 2.100869 0.38421765 4.160721 1.997791
0.48827806 1.3553463 2.3167043 1.9435097 2.0805671 4.7471046 1.305805 0.69025695
2.0778592 5.1499195 4.359676 1.5195924 0.5470694 3.6085508 0.48064196 0.7147226
1.7717878 1.3567748 3.027743 2.784274 1.5934855 0.62111187 0.52134913 1.6332606
0.8876176 1.0585676 2.5485678 1.2056345 1.0620798 0.3406086 2.227383 1.4636216

convs.0.bn1.bias f4 [128]
00000000: 9c28 9fbf 5046 773e 7631 afbe 2e55 e5be
00000010: 0b40 16be 4b26 f5bf e41b 43bf 358b 81bd
00000020: 059e 103c 9a59 183e 0160 47c0 394d 773f
00000030: c279 35bf 72dd bc3d 5834 a3bf e71c df3e
00000040: 8fe8 913d 508d 0d3c f6bb 9bbf 6d81 4bbf
00000050: 7bfc 153f 45b9 96be a53c 02bf 889c a63e
00000060: d18f a63d c4d7 2a3d 1f8e 61c0 394b c73e
00000070: 4205 78c0 6744 d6bb 2494 993f 65f9 10bf
00000080: 0759 bb3f c2b7 92bc 65a3 62bf 00a2 b73d
00000090: 1a87 0abf 9f32 bdbe ce3f 51be c231 a13e
000000a0: ed3b e23e 1e08 cebe 6e01 02be 4617 c13d
000000b0: b47c 943f 8c12 40c0 530b 9d3d e4d1 a73f
000000c0: 67d8 03c0 860e 76bf f205 01c0 643c 9abf
000000d0: 7b9b aebf 47c8 883f 542a 4bbf 5818 f0bc
000000e0: 58a9 d23e 881e b2bf f99b 60bf 1397 92bf
000000f0: 6d53 a83f 2368 e23d 7e25 483f 852b 55be
00000100: ee95 dc3c 94c1 903f 6a23 1bbe e74d 1abf
00000110: c35a 9a3f 3596 08c0 efd7 57bf 23ad d83f
00000120: 3838 113e 1634 1240 939d 67c0 b147 0840
00000130: 4c3b a23f 2871 423f 936b 243e 5001 b03f
00000140: 5628 0d3f 14a4 913f b308 02bc eb66 583f
00000150: fb50 c13f 94b8 b9be 43eb a9bf de9a fc3f
00000160: e117 123f 6322 d1be 5184 78c0 944a a4be
00000170: ada0 7cc0 85d8 2d40 f906 0140 9eca 723f
00000180: 0cec 7e3f 2639 143e 1bcc 38bf 0941 8dbf
00000190: 94ff a8bf 48a4 18c0 a8dd c3be bf30 363f
000001a0: e734 dd3f 8476 3dbf 8f4a 983d aee3 0040
000001b0: 49e4 ea3f 2596 2dc0 ec95 ae3f 5006 b23f
000001c0: d5a7 8ebf 5f36 e9be 5974 0ac0 0b1d 9b3f
000001d0: b11b 14c0 c15b 963f 29ce c33f 7fcc d7bf
000001e0: beee 573f 2c1c cbbf 4037 dabf 70d6 e8bf
000001f0: 015a e43e e346 2040 0225 e63f 6687 fcbe
-1.2434268 0.24147916 -0.34217423 -0.4479155 -0.14672868 -1.9152311 -0.7621443 -0.0632538
0.008826737 0.1487793 -3.1152346 0.9660221 -0.7088891 0.09221925 -1.2750349 0.43576738
0.07124435 0.008639649 -1.2166736 -0.79494363 0.5858838 -0.29438224 -0.50873786 0.325413
0.081328996 0.041709676 -3.5242994 0.38924578 -3.875321 -0.006538916 1.1998334 -0.56630546
1.4636544 -0.017909888 -0.8853057 0.08966446 -0.541124 -0.36952683 -0.20434496 0.31483275
0.44186345 -0.40240568 -0.12695858 0.09428267 1.1600556 -3.001132 0.076681755 1.3110929
-2.0600832 -0.9611591 -2.0159879 -1.204968 -1.3641199 1.068612 -0.7936146 -0.029308483
0.41144824 -1.3915567 -0.87737995 -1.1452354 1.315046 0.11055019 0.7818221 -0.20817383
0.02692696 1.1309075 -0.15150228 -0.6027512 1.2058948 -2.134168 -0.84313864 1.6927837
0.14181602 2.284429 -3.6189926 2.1293757 1.2674346 0.7595391 0.16056661 1.37504
0.5513967 1.1378198 -0.007936644 0.8453204 1.5102838 -0.36273634 -1.3274921 1.9734762
0.57067686 -0.40846547 -3.883076 -0.3208815 -3.9473069 2.7163403 2.0160506 0.9484042
0.9957893 0.14474925 -0.7218644 -1.1035472 -1.3202996 -2.385027 -0.38255048 0.7116813
1.728177 -0.74008965 0.07436096 2.0138965 1.8350917 -2.712289 1.3639503 1.3908176
-1.1144968 -0.45549294 -2.1633513 1.2118238 -2.3141901 1.1746751 1.529729 -1.6859282
0.84348667 -1.5867972 -1.7048111 -1.8190441 0.44599918 2.5043266 1.7980044 -0.4932205

convs.0.bn1.running_mean f4 [128]
00000000: 28d3 a8c0 104b 1b41 459f 003e 0288 0ec0
00000010: c9f0 5b40 c11b e240 6c37 83bd 552c b740
00000020: 5404 c2bf 3403 b7c0 4f45 b340 93e6 00be
00000030: 99a0 55c0 5413 b2c1 09fe d240 4662 953f
00000040: b77d 0741 41b0 bf3d 6961 bf40 89c9 2e41
00000050: b2b2 e6c0 925f 3f41 2db8 afc0 7685 b1bf
00000060: 2c22 7441 5671 4ac1 cb37 d33f 72f2 ea40
00000070: 06aa bbbf 1bd3 e73f edad 4cc1 0847 01c1
00000080: 72c3 f340 a7a7 9f3f 1ec2 94bf 3f73 e63f
00000090: 87f1 f340 0b5d 15c0 7e1a a3c0 4303 a940
000000a0: ba10 0541 6a1b 8dc0 f034 ca40 b207 a33e
000000b0: 55fd 0741 33ab e640 bb8e 9541 bb05 2ec0
000000c0: b1ef 03c1 53fc 3dc1 a366 2e41 2eb4 4cc0
000000d0: e5f8 eac0 926f b33e c1e4 a540 8217 9c41
000000e0: fd21 1b41 9454 4341 f2d8 9141 5841 a541
000000f0: 3c51 8dbf f4f2 f440 3423 fdc0 4ab5 5541
00000100: 69ae 7341 fbbe 73c1 2649 cec0 ac9e f0c0
00000110: 1cf4 aebe cdc8 9d40 c0c3 b03d 2e79 6341
00000120: 2fc0 f7c0 54f5 5dbf a7af e840 53e5 afc0
00000130: ddc9 8dc0 17fd 16c1 52aa 8b40 cbae b3c0
00000140: b996 7e41 cb38 6a41 3bf5 de40 fa98 bd40
00000150: 0ea9 6dc1 4795 91c1 d0b1 1441 34b6 0641
00000160: f441 da40 cdf0 8740 d683 67c0 a409 36c0
00000170: 02f6 efbf 05af 4340 9cd4 91c0 03b7 afc0
00000180: fbfa 1341 e021 3b41 2003 17bf 1ed8 7141
00000190: 26d8 9840 a0fd 00c1 e1e0 3441 e68f c5c0
000001a0: 4ed4 01c1 2af3 cb40 af30 5641 ac2a 25c1
000001b0: 9898 a7c0 2345 4cc1 e0e0 e140 6ba4 95c0
000001c0: 43da 12c1 cb9b 9b40 0ac0 ac40 704b 13c1
000001d0: 8546 e240 d49a b03f 0196 d640 afac 2441
000001e0: f312 ed40 1353 0fc1 b4b7 27c0 a75e b540
000001f0: ef13 8e41 6af2 f1c0 d016 9dc0 314d ce40
-5.275776 9.705826 0.12560757 -2.2270513 3.4365714 7.065888 -0.06407055 5.7241616
-1.5157571 -5.719141 5.6022105 -0.12587957 -3.337927 -22.259438 6.59351 1.1670616
8.468192 0.0935979 5.980641 10.924203 -7.2093134 11.960833 -5.4912324 -1.3868854
15.258343 -12.65267 1.6501402 7.3420954 -1.4661262 1.8111299 -12.792462 -8.079842
7.617608 1.2473038 -1.162174 1.800392 7.6232333 -2.333804 -5.096984 5.281648
8.316584 -4.4095964 6.318962 0.3184181 8.499349 7.2083983 18.694693 -2.7190998
-8.246018 -11.874103 10.900058 -3.1984973 -7.3428826 0.3504606 5.184174 19.511478
9.695798 12.208149 18.23093 20.656906 -1.1040416 7.6546574 -7.9105473 13.35676
15.230081 -15.234126 -6.4464293 -7.519369 -0.34170616 4.930762 0.08631086 14.217085
-7.74221 -0.86702466 7.271442 -5.4967437 -4.4308915 -9.4367895 4.364541 -5.615087
15.911798 14.638865 6.9674354 5.924924 -14.853773 -18.19789 9.293411 8.419483
6.820551 4.2481446 -3.6174216 -2.8443384 -1.8746951 3.0575573 -4.5572033 -5.4910903
9.248775 11.69577 -0.58989143 15.115263 4.7763853 -8.06192 11.304902 -6.1738157
-8.114332 6.373433 13.386886 -10.322918 -5.237377 -12.766879 7.0587006 -4.6763206
-9.178287 4.8627677 5.3984423 -9.205917 7.0711083 1.379725 6.705811 10.292159
7.408563 -8.957782 -2.6205873 5.6678042 17.759733 -7.5608416 -4.9090347 6.446923

convs.0.bn1.running_var f4 [128]
00000000: 99b4 ef42 37b4 9a42 eefe 8f42 aa30 ab42
00000010: df90 8642 d7ff f142 9465 8542 3898 de42
00000020: f292 df42 02c0 a442 0749 0143 2c6c d042
00000030: b76a 2343 bc0d e742 7e9f af42 0dce 0543
00000040: 3c7f c842 4fa6 1343 12ae c542 8ad7 3243
00000050: 4628 2b43 6525 df42 8cd2 8142 8b24 2c43
00000060: b862 fb42 5318 fc42 c953 bc42 9bb7 bc42
00000070: 1564 3742 de3b a243 8d40 fb42 ceed a642
00000080: 2005 3343 5f22 e042 b808 c842 6285 0543
00000090: b16f da42 bb85 c842 f89d ec42 7a4f 0343
000000a0: 6657 f842 ba4e c242 ac8b e342 4cae ce42
000000b0: d34d 0b43 43a9 1b43 be75 1e43 55cd 9a42
000000c0: 2e1e 9142 94ea 0243 3f62 5f42 dba5 5f42
000000d0: 9819 f342 223a 0143 83f9 2b43 dcf2 f242
000000e0: 3378 da42 62d7 3243 e779 1643 1075 dc42
000000f0: d91a c742 dfd5 3f43 ea43 be42 8dd8 e642
00000100: 2170 ee42 9c0b 0043 987f b542 5765 9842
00000110: 8d5d 9942 7ba9 f842 0cde e742 ebd6 0943
00000120: ce8c 8b42 fbae 9c42 1fe5 c542 d631 bf42
00000130: 4841 ec42 4c0d 2943 f256 9f42 eda1 9e42
00000140: f318 1743 f8ec c542 51e0 0e43 331a 0c43
00000150: 6939 f942 febf dc42 c267 d742 7133 d642
00000160: 3da3 0443 eed2 b242 7836 4e42 1c2f 1143
00000170: 055d aa42 ef44 4b43 9db6 cb42 fbe9 3643
00000180: 0a95 1643 afcd c242 4f02 ed42 7df5 ce42
00000190: 0471 0243 2afb ef41 219f 0243 43ea 3d43
000001a0: de65 1643 4063 9042 60fb 0f43 6879 bf42
000001b0: 5b66 d242 0de7 1e43 2499 0a43 9c81 0f43
000001c0: 1c28 c742 9c02 cb42 c28a 1043 47c1 eb42
000001d0: cbd1 e642 005f d142 af73 d842 d2e0 9942
000001e0: 9522 e242 6897 0b43 b655 fb42 e1a3 ea42
000001f0: e5c9 0b43 2980 2643 1f0b 8142 ac85 e142
119.85273 77.35198 71.99791 85.59505 67.28295 120.99969 66.698395 111.2973
111.787 82.375015 129.28526 104.21127 163.41685 115.526825 87.81151 133.80489
100.248505 147.64964 98.83998 178.84195 171.15732 111.57304 64.911224 172.14275
125.69281 126.04751 94.16364 94.358604 45.847736 324.4677 125.626076 83.46446
179.02002 112.06713 100.01703 133.52103 109.21815 100.26119 118.30853 131.31046
124.1707 97.15376 113.7728 103.34042 139.304 155.66118 158.45993 77.40104
72.558945 130.91632 55.845943 55.91197 121.54999 129.22708 171.97466 121.474335
109.234764 178.84134 150.47618 110.22864 99.55244 191.83543 95.132645 115.42295
119.219 128.04535 90.74921 76.19793 76.68272 124.33102 115.933685 137.83952
69.77501 78.34176 98.9475 95.597336 118.1275 169.05194 79.669815 79.31626
151.09746 98.96283 142.87624 140.10234 124.61213 110.374985 107.70265 107.10047
132.63765 89.41197 51.553192 145.18402 85.18168 203.26927 101.85667 182.91399
150.58218 97.401726 118.50451 103.47947 130.44147 29.997639 130.6216 189.91508
150.39792 72.19385 143.98193 95.73712 105.19991 158.90254 138.5982 143.50629
99.57834 101.5051 144.54202 117.877495 115.40975 104.68555 108.225945 76.9391
113.06754 139.59143 125.667404 117.320076 139.78865 166.50063 64.52172 112.76108

convs.0.bn2.weight f4 [64]
00000000: 7809 693f 3cff 113f 1d9e 3f3f 0428 343f
00000010: 44a2 843f 53b3 c53e ffd1 123f c2b0 8b3f
00000020: 29b1 203f 48ac a53f e99c b23e c936 803f
00000030: 5457 533f 3258 7e3f bbdd 8c3f 8d45 a93f
00000040: 1f5e fc3e 9e82 463f 31e5 6c3f 6a9d e13f
00000050: bc97 b33f 4ef9 c93e ef9a ba3e d5c4 8f3f
00000060: 63cf 173f 21bb 3d3f 4e51 923e de35 093f
00000070: ff3a c03e 848f 2940 0e3d 863f d26e 053f
00000080: dd13 703f a91b 813f cd0c 063f 0f17 ce3e
00000090: 8767 193f 71cb 653f e61d ce3e fa51 ad3f
000000a0: f690 953f 22cc e03e e63e fb3e 3fef 7e3f
000000b0: 9a15 813f 4ffd 4e3e 1402 f73f 09a0 373f
000000c0: 8db6 123f d040 3e3f 08ad 6b3f 3c21 573f
000000d0: f43d bd3e 8eaa 763f 2074 953f 38e9 ba3e
000000e0: 2792 8b3f cce0 c73e da92 cc3e 68c2 bc3e
000000f0: 61f3 f73e 5f0f 1140 0118 7f3f a4de 343f
0.91030073 0.5703008 0.74850637 0.7037356 1.036202 0.38613376 0.5735168 1.0913317
0.62770325 1.2943201 0.34885338 1.0016719 0.8255513 0.99353325 1.1005167 1.322435
0.4929056 0.77543056 0.9253722 1.7626164 1.4030681 0.39448017 0.3644633 1.1231943
0.5930082 0.7411366 0.28577656 0.5359782 0.3754501 2.6493845 1.0487382 0.52122223
0.9378031 1.0086566 0.5236328 0.40251967 0.59923595 0.8976355 0.40257186 1.3540642
1.1684864 0.4390574 0.49071425 0.9958381 1.0084717 0.20213817 1.9297509 0.7172857
0.573098 0.74317646 0.920609 0.84035087 0.3696133 0.96353996 1.1676064 0.36506057
1.0903977 0.39038694 0.3995579 0.3686707 0.4842787 2.2665632 0.99646 0.7065222

convs.0.bn2.bias f4 [64]
00000000: 21bf 8fbf 989a acbf 05b7 34bf c3a7 1cbf
00000010: 4c45 253e 9cc7 f9bf 1038 82bf ff33 57bf
00000020: cd0d 0ebf 792d dc3e 346b edbf 970c e03e
00000030: 9920 47bf 9299 cdbf 968c 4ebf 5b8a 89bf
00000040: c861 97bf cc98 72bf e83f 70bf 5a4d a8bf
00000050: 3522 07bf 5cbb 85bf 24bd acbf 0ecd 9cbe
00000060: dbc1 a0bf 6328 90bf 0114 c3bf b5b4 93bf
00000070: 01e4 c8bf 1b95 9dbf 1b7f a73e 5bcf a8bf
00000080: 7fea a3bf c66a a4bf e009 9abf e6dd a3bf
00000090: 89c8 92bf ed32 103e 7468 68bf 898f 99bf
000000a0: 01f0 51bf 8991 a4bf b6ba 8dbf ed29 3fbf
000000b0: f350 6dbf 3223 a7bf c364 c9bf d369 98be
000000c0: 4f70 dbbe a130 5fbf 84a3 6bbf c55c 94be
000000d0: bb6c 8fbf ae94 bbbf d410 7cbf df3e ebbf
000000e0: f127 a5bf fae7 acbf eec3 bebf e627 d4bf
000000f0: 666e 8abf da75 a7bf 7f0c 24bf 1585 99bf
-1.1230203 -1.3484678 -0.70591766 -0.61193484 0.16139716 -1.9514041 -1.0173359 -0.84063715
-0.5548981 0.43003443 -1.8548341 0.43759605 -0.77784115 -1.6062491 -0.8068327 -1.0745348
-1.1826715 -0.947644 -0.93847513 -1.3148606 -0.5278657 -1.0447803 -1.3495221 -0.30625194
-1.255916 -1.1262325 -1.524048 -1.1539522 -1.5694581 -1.2311128 0.3271416 -1.318828
-1.2805938 -1.2845085 -1.2034264 -1.2802093 -1.1467448 0.14081927 -0.9078438 -1.1996928
-0.8200684 -1.2856914 -1.1072605 -0.7467335 -0.92701644 -1.3057616 -1.5733875 -0.29768237
-0.42859122 -0.87183577 -0.9204638 -0.28977028 -1.1205057 -1.4654748 -0.9846318 -1.8378562
-1.2902814 -1.3508294 -1.4903543 -1.6574676 -1.0814941 -1.308284 -0.6408157 -1.1993738

convs.0.bn2.running_mean f4 [64]
00000000: 19fc 8940 d75e 2e41 515f b741 f094 8840
00000010: d766 1441 56ff ae3f 2216 6b40 f95e 5b41
00000020: e782 4b41 b658 9441 b372 883e 9c4d 9f41
00000030: ca7e 2d41 6467 1041 4b7a db40 3b70 3841
00000040: dbf4 0141 fd34 0741 dd88 cf40 46b5 0e41
00000050: 7b41 3d41 89ef 9e40 3308 0b40 cc40 7441
00000060: eb9b 1a41 c9bb 7941 d549 ab3e 4e7b c340
00000070: a6fc 6f3e 7ba8 8341 7e9b ce41 17d9 3641
00000080: 2636 2c41 950e ef40 1b14 ab40 037b 9d40
00000090: 612b 8340 e8d3 d740 75d0 7040 a21a fd40
000000a0: 7faa 8041 4305 0d41 c2d4 8041 3eaa 8d41
000000b0: 1401 8341 2bed af3e ac81 3e41 537a 4f41
000000c0: 1df4 d83f a07d 9740 48cb 6740 eeb2 6e41
000000d0: 166b 8c3f 1352 3c41 4ee1 1341 2c53 3340
000000e0: 5067 2041 ee6e a53f db26 8240 e851 b93f
000000f0: 3fca f340 3360 8b41 c663 9341 2019 5a40
4.3120236 10.898154 22.921541 4.268181 9.275107 1.3671672 3.6732259 13.710687
12.719459 18.543316 0.2665001 19.912895 10.843454 9.025242 6.8586783 11.5274
8.122279 8.450437 6.485457 8.919256 11.828486 4.96674 2.1723754 15.26582
9.663066 15.608346 0.33454767 6.108802 0.23436221 16.457266 25.825924 11.428
10.76322 7.47053 5.3462043 4.921266 4.0990453 6.7446175 3.7627232 7.909501
16.08325 8.813785 16.103886 17.708126 16.375526 0.34360632 11.906658 12.967364
1.6949497 4.734085 3.6217823 14.918684 1.097018 11.770038 9.242506 2.8019514
10.025223 1.2924478 4.067243 1.4478121 7.6184382 17.421972 18.423717 3.4077835

convs.0.bn2.running_var f4 [64]
00000000: b64e 3141 1531 3f42 0d72 b843 8dfc 5041
00000010: 20c2 d941 7b18 b540 9781 5541 d192 4b42
00000020: 1be1 c442 bf72 d642 9c9a 2040 aab8 5942
00000030: 6dd8 4942 9cc9 ce41 9c8f c041 ec31 2b42
00000040: 280a 4b42 0f62 bd41 497b 1542 9168 db41
00000050: 3322 8542 b966 7441 ab28 5d40 8b2a 8c42
00000060: 1a4a 4a42 d37a da43 3659 533f df18 c841
00000070: 4f9f 823f 1da1 b842 6f83 7c43 863d 8542
00000080: e1df b741 b69b d741 65b3 1d42 810f cf41
00000090: 3039 9241 02f2 0a42 2829 2841 c50e 9b41
000000a0: e8b8 0b43 5eaf a342 476c 9043 4973 e542
000000b0: 972e 3042 8757 053f e7b4 dd41 d6d3 1342
000000c0: d0e7 9040 a683 8941 83f5 c641 732c ce42
000000d0: bbb9 6c40 5f86 d941 d40b 3542 b403 4a41
000000e0: e3f3 ee41 f98c 1b40 3fd8 e941 5065 e340
000000f0: 0d5f c941 754e 8c42 cc3c 0943 13eb 0641
11.081717 47.79793 368.89102 13.061658 27.219788 5.6592383 13.344138 50.893375
98.43966 107.22411 2.5094366 54.430336 50.461353 25.848442 24.070122 42.79875
50.75992 23.67288 37.370396 27.426058 66.566795 15.275079 3.4556072 70.08309
50.572365 436.95956 0.82558 25.012144 1.0204867 92.314674 252.51341 66.62016
22.984316 26.95103 39.42519 25.88257 18.277924 34.736336 10.510048 19.382212
139.72229 81.842514 288.84592 114.72517 44.045498 0.5208668 27.713331 36.95687
4.5282974 17.189281 24.869879 103.086815 3.698836 27.19061 45.26155 12.625904
29.869085 2.4304793 29.230589 7.1061172 25.171412 70.15324 137.23749 8.432391

convs.1.fc_full.weight f4 [128, 169]
00000000: 00f5 0ac0 cc91 56be 81b4 b93f aed0 6fbe
00000010: bd17 ef3e fd39 253f 48b4 163e 7e91 3b3f
00000020: 5d01 723e 531f 2fbf 3b2a 9abf 41f0 a4bf
00000030: 9dc4 a5bf b83d 323d ec99 803f bb91 b93e
00000040: 201e c0be f347 d23c 9683 fabe cbfd b03f
00000050: a4bf 913e cb40 5c3f 1398 a9be c7a7 6abf
00000060: f4c2 14bf 7368 91bf a13d 08bf 19e7 143f
00000070: cda6 a2bf 6a14 c5be 40cc 24bf 94e9 8c3e
00000080: 4a8a b9bf 9d06 5e3e d870 bf3d edce a0bf
00000090: d5b5 3abf 0fca 82be 0a4c 7ebf 464d 223f
000000a0: 39e0 963e 9748 2fbc 81f0 58bf 779f 223d
000000b0: 6dfb 59bf d3c6 7d3f 238d e03e 3e28 283f
000000c0: 113c a9be d9e5 d5be 6fbb f2be 0320 503e
000000d0: 6fb1 9cbf ef71 c13e f4db febe e624 cbbf
000000e0: 53a5 82be 339b 99be 5ab8 353f 5129 113f
000000f0: 808b 98be 4b40 c3bf e3a4 2e3f e81c 2dbe
00000100: ff4d 98bf cffa 053e d3fc 40bf 29b8 f93e
00000110: 8e42 8d3f 3856 8abd 6853 99be 53ad d23e
00000120: bbd3 b23f 5dff c1bd 9f9f 58bc 1dfd 8dbf
00000130: ff68 9bbe a570 20bd 8cb0 183f 8a65 35bd
00000140: 5168 8bbc ab03 c53d 6303 d6bf f6c1 193f
00000150: 49aa 8c3d 9d36 fd3e 197a 05bf d012 03c0
00000160: 56d3 30bf 63c5 43bf 2a09 4d3f 2d2a 723e
00000170: ca8f 933f 3034 79bf c7a6 893e f2dd f8bf
00000180: bb31 43bf cc88 09bf 57a9 2abe 77ff e1be
00000190: 1853 4d3f f014 76be fe4c a8bf 41f5 233f
000001a0: 1f6b aabe faf9 dfbe 951d 923e d4f0 f1be
000001b0: 3d38 453f 8010 db3f c9b2 87bf 6e93 033f
000001c0: 7d5b 29bf 8f25 0dc0 27c6 82bd 3f20 fd3f
000001d0: 66e6 84bc 72de af3f e38a 0fc0 f884 87bf
000001e0: 3b09 6cbf 95a7 adbf cbe4 7b3e 8f5a 66bf
000001f0: 20fd 933f a3e4 81bf 1bfe 1f40 b4b6 c33f
00000200: 65b7 183b 3482 d1be 9352 b0bf 52b9 98bf
00000210: 2044 65bf 2303 aabf 1534 c5bf fbd5 c4bf
00000220: 094d cdbf 3a90 953e 730b 0a40 6e0b 5440
00000230: b825 7dbf 88ea 31bf 7e35 ba3f 8bd6 bdbf
00000240: 44e9 47c0 a28b 1ebf 1910 1c40 95d5 8f3f
00000250: f713 60c0 65b7 3bbf ae3d d4bf c6e0 86c0
00000260: c715 80c0 a116 fabd fb5a 9d3f 3300 3d3f
00000270: 31f2 c23e 7ffd b03e 4e2b 0ebf b621 a6bf
00000280: 456e 2ac0 e1b6 21c0 5c10 4bc0 3be2 30c0
00000290: bf39 b4bf 3ea1 89be 846c 73bc aa7f aebc
000002a0: f7ad 643d a445 37c0 ae2c a13e d13d 1cbf
000002b0: 8be7 5c3f 3aea 933f 5bb6 63bf 9b29 0cc0
000002c0: f295 b13d 38a3 01bf 3442 603f bf08 ce3e
000002d0: 7bdc b83f 0ba9 a1bf 293a 2340 f390 d53e
000002e0: 1e5f 19be c2f5 6bbf f92f eabe f740 64bf
000002f0: 3489 0640 4f3b 66be ef4e dbbc f69d 23bf
00000300: 31e6 583e 181b 723f ab3a babf d586 063f
00000310: 1417 98bf bd55 9e3e 7044 4ebe e887 ffbe
00000320: a55a d4bd af41 a9be eb76 34bf e75e 8bbd
00000330: fd51 b23f e7bd 88bf 4b7e bbbf e9f8 69be
00000340: 6bc7 0a3e c94a a6bf da3a c83d f6d1 cebe
00000350: f291 8e3e 998a a6be 0785 42bf cff3 0c40
00000360: c1d3 813f 069b 10bf 98e6 773e 885a f53e
00000370: 092b e7be 867e 52bf 0553 a53f bdd2 d0bf
00000380: 5fa8 313f e210 4c3f 8b7e 063f e955 28bf
00000390: e741 b93e 157f 14be 2156 51bf 8d31 42bf
000003a0: c363 18c0 772d 4a40 8de7 4e3f 3483 ad3d
000003b0: 48c3 593d 010f 8cbe fa48 263f 1d0e 7b40
000003c0: c495 f23e 4a79 08bd 527d 2dbf c0f3 a13f
000003d0: e505 a0bf dc57 3f3f 1515 853f 1919 8bbd
000003e0: 1083 52bf 2831 b73f 8c0a 2b3d 15fc 95bc
000003f0: 451c 12bf b311 623f d78e 1b3e 13bc 13bf
-2.1712036 -0.20954055 1.450821 -0.23419449 0.46697798 0.6454161 0.1471721 0.7326888
0.23633333 -0.6840717 -1.2044138 -1.288582 -1.2950627 0.04351589 1.0046973 0.36243996
-0.37522984 0.025669074 -0.48928517 1.3827451 0.28466523 0.86036366 -0.33123836 -0.9166226
-0.58109975 -1.136 -0.5321904 0.5816513 -1.2707154 -0.38492137 -0.6437416 0.27521956
-1.4495327 0.2168221 0.09347695 -1.2563149 -0.72933704 -0.25544783 -0.99334776 0.6339916
0.29467943 -0.010698459 -0.8474198 0.03970286 -0.8514927 0.99131507 0.4385768 0.65686405
-0.3305364 -0.41776922 -0.47408625 0.20324712 -1.2241648 0.37782237 -0.49777186 -1.5870636
-0.25516757 -0.3000122 0.70984423 0.5670367 -0.2979393 -1.5253996 0.6822035 -0.16905558
-1.1898803 0.13083957 -0.7538578 0.48773316 1.1035936 -0.06754726 -0.29946446 0.4114786
1.3970865 -0.09472535 -0.01322165 -1.1092869 -0.30353543 -0.039169926 0.5964439 -0.04428629
-0.017017515 0.0961984 -1.6719784 0.60061586 0.06868417 0.4945573 -0.5213943 -2.0480232
-0.69072473 -0.76473063 0.8009211 0.23648901 1.1528256 -0.97345257 0.26885054 -1.9442732
-0.7624776 -0.5372436 -0.1666616 -0.44140217 0.80204916 -0.24031425 -1.3148496 0.640461
-0.33284852 -0.43745404 0.28538194 -0.4725405 0.7703894 1.711441 -1.0601436 0.51396835
-0.66155225 -2.2054174 -0.06385451 1.9775466 -0.016223144 1.373976 -2.242852 -1.0587454
-0.92201585 -1.3566767 0.24598996 -0.8998193 1.1561623 -1.0147899 2.4998844 1.5290132
0.002330267 -0.4091965 -1.37752 -1.1931555 -0.89557076 -1.3282207 -1.5406519 -1.5377802
-1.6039134 0.292116 2.1569488 3.3131976 -0.9888568 -0.6949849 1.4547575 -1.4831098
-3.1236124 -0.6193181 2.4384825 1.1237055 -3.5012186 -0.7332671 -1.6581323 -4.214938
-4.0026584 -0.12211347 1.229339 0.7382843 0.38075402 0.34568402 -0.5553483 -1.2979038
-2.6629803 -2.526787 -3.1728735 -2.763808 -1.4080123 -0.2688083 -0.014857415 -0.02130111
0.05582997 -2.8636255 0.314794 -0.61031824 0.86290807 1.1555855 -0.8895013 -2.1900394
0.08671178 -0.5063968 0.8760102 0.40241048 1.4442285 -1.2629713 2.5504248 0.4171215
-0.1497769 -0.9217187 -0.45739725 -0.8916163 2.1021242 -0.22483562 -0.026771037 -0.63912904
0.21181561 0.9457259 -1.4549154 0.5254949 -1.1882043 0.30924788 -0.20143294 -0.49908376
-0.103688516 -0.33057925 -0.70493954 -0.068052106 1.3931271 -1.0682954 -1.4647917 -0.22848858
0.13552634 -1.2991573 0.0977685 -0.40394562 0.27845722 -0.32527617 -0.75984234 2.202381
1.0142747 -0.56486547 0.24209058 0.47920632 -0.4515002 -0.8222431 1.291596 -1.6314312
0.6939754 0.7971326 0.5253684 -0.6575609 0.36183092 -0.14501603 -0.8177205 -0.7585686
-2.381089 3.159025 0.8082207 0.08472291 0.05316475 -0.27355197 0.64955103 3.9227364
0.47379887 -0.033318795 -0.6776935 1.2652512 -1.2501799 0.7474344 1.0397059 -0.067918964
-0.82231236 1.4311876 0.041758105 -0.018308679 -0.57074386 0.88308257 0.15191208 -0.57708853

convs.1.fc_full.bias f4 [128]
00000000: 8a2d 76be 8ef1 08bf fe58 c1bd 5dc8 48bf
00000010: b670 a9be cb6b 9d3e 66cf d0bd 47df fb3e
00000020: 8ab3 8a3e 8eb5 103e c6b5 5d3f a1ea 0d40
00000030: 26d9 80bf 5840 4fbe 9f3f d4be caad 333e
00000040: fc43 fc3d 6fae 8abd 2c0a 1f3f 1380 cf3e
00000050: 7f2c 08be a817 bb3e 4e61 8f3e e07e 303f
00000060: f78f 503e ce0e 613f 3364 cb3e 0792 6f3d
00000070: 77cf b4be b8b0 cebd 1c1c e5be 4769 453f
00000080: 5090 ddbe 9b81 c33f a124 063f 0ab7 0cbf
00000090: 8967 5fbd d64b 51be 51f6 02bf 6303 bc3e
000000a0: b051 173f 75f2 13bf 136d 3d3e 7f35 abbe
000000b0: f777 c5be 955f d5bd 2a68 2dbf 2f94 8f3e
000000c0: b300 bb3e df90 fdbe 22cd 8e3e aab6 a1be
000000d0: ca88 00bf 595b 97be bb64 c43e 000e 2c3e
000000e0: 4eed 303f f28e 4ebe c7bd 22bf 1e61 033d
000000f0: f22e 803e 895f 6abe 3f89 ec3d 0a6f 0e3e
00000100: a14b 163d 1d7a 5d3e 0806 70bf f20a 683f
00000110: 6693 9cbb d860 fc3e 8688 71bc a8d6 30be
00000120: f201 7f3c 9695 b9be f72b b93e ce67 d03f
00000130: cd28 b9be 12a9 f33d 211c 8dbe ff3c 24bf
00000140: 933c fdbe 0f75 793e 3b9a 9d3c 0cc5 2cbe
00000150: 809b 203c e36a e0be c3c1 95be 68b7 0cbe
00000160: 2d49 8d3e 8431 b53e fcb2 a8be 1e9f 9c3e
00000170: 1b71 ca3d ec32 14be a1ca 9f3e 75ad a93e
00000180: 8bad 223f 3a33 a7be 7033 0dbf d9a7 34be
00000190: 9b26 55be ae87 89bf a021 3b3e 37ef 89be
000001a0: 7212 403f a289 16bf 8070 2bbf 49a2 d13e
000001b0: 5a50 4dbf a82a a73e ba76 efbe 238d c2be
000001c0: 9100 3cbe 2eba 793e d62a b2bc 822c 5a3f
000001d0: 9745 70be ad26 22bf 3826 2c3f a58a 9d3e
000001e0: 1414 3c3f a529 24bf f94a 76bd 1263 a6be
000001f0: 695c 393e 5618 5ebe 84be 9e3e fb7a 33be
-0.2404081 -0.53493583 -0.09440802 -0.7843073 -0.33093804 0.30746302 -0.10195808 0.49193785
0.27090102 0.14131758 0.8660549 2.2174456 -1.0066268 -0.20239389 -0.4145479 0.17546764
0.123176545 -0.06771552 0.62124896 0.405274 -0.13298224 0.36541486 0.28003925 0.68943596
0.20367418 0.87913215 0.39724883 0.058488872 -0.35314533 -0.100923 -0.44748008 0.77113765
-0.43274164 1.5273927 0.5239964 -0.54966795 -0.0545421 -0.20439085 -0.511571 0.36721334
0.5910902 -0.57791835 0.1849864 -0.33439252 -0.38568088 -0.104186215 -0.67737067 0.28042743
0.3652397 -0.4952459 0.2789088 -0.31584674 -0.50208724 -0.2956188 0.383581 0.16802216
0.691121 -0.20171717 -0.6357083 0.03207504 0.25035816 -0.22888006 0.11549615 0.13909546
0.03669322 0.21628614 -0.937592 0.906417 -0.0047783135 0.49292636 -0.014742022 -0.17269385
0.015564429 -0.36246938 0.36166355 1.6281679 -0.3616394 0.11897482 -0.27560523 -0.6415557
-0.49460277 0.2436106 0.019238582 -0.16872042 0.009802699 -0.43831548 -0.2924939 -0.13741839
0.2759489 0.3538934 -0.32949054 0.30590147 0.098848544 -0.1447255 0.3120928 0.3314015
0.63546056 -0.3265627 -0.5515661 -0.17642154 -0.20815508 -1.0744531 0.18274546 -0.2694032
0.75028145 -0.5880376 -0.66968536 0.40944126 -0.8020073 0.32649732 -0.4677027 -0.37998304
-0.18359591 0.24387428 -0.021748941 0.85224164 -0.23464046 -0.63340265 0.6724582 0.3076984
0.73468137 -0.64126045 -0.060130093 -0.3249746 0.18101658 -0.21688971 0.31004727 -0.17527382

convs.1.bn1.weight f4 [128]
00000000: 0119 bf3f 809b d240 55b9 7940 7b6c b540
00000010: c51b d640 8b65 a140 621e b040 2bd2 e340
00000020: bb6c 6f40 c4e6 1b40 e1a2 7340 f77d bb41
00000030: 7cb0 0441 5eb4 4d40 efc0 7440 ae78 9540
00000040: 4923 2b40 7e47 8540 b2bb e540 774d 9740
00000050: fa58 2940 046b ba40 eb5d 8240 6880 b840
00000060: e7d6 9d40 69bd c340 850b ab40 5e3c bf40
00000070: c2e2 4e40 4969 8540 ecba 6140 5bab 7040
00000080: a244 4c40 b270 0741 3bb0 8340 fb2d d240
00000090: 6ca7 8740 1cda 9740 89cc 9a40 b864 8540
000000a0: 87c0 1141 9645 d540 f781 b340 5990 ca40
000000b0: 9b0c 3e40 4b9f b040 5f0b b740 14a5 9b40
000000c0: 0440 9940 02fd 9b40 4b6b b040 525a 0140
000000d0: ecee a840 a265 5740 77d3 0241 7f07 5d40
000000e0: 94ab d540 ec17 3d40 3e5e d940 bdc8 a540
000000f0: 98d7 5c40 febc 3140 5e15 1d40 fa35 1940
00000100: 0adc 8e3f d47f 773f 5d4d 0f40 06a4 843f
00000110: 745a cf3f 7906 0a3f 2230 af3f 9999 a33f
00000120: a9b3 2740 5ea6 2c40 a89a ad3f defc 613f
00000130: 7f7f 2240 0421 1a40 c4bb 0340 f937 4a40
00000140: af20 5841 30b7 1740 44e6 f13f d41e 8f3f
00000150: 9cc7 f23e 8fea 8b40 3c9e 593f 242d 9c40
00000160: 8fe1 673f a4b8 993f 36f2 5d40 82a8 803f
00000170: 7f9b 5e40 85b9 603f 0caf 2c3f c877 0f40
00000180: dc61 c93f 23fe ec3f 9196 c640 3a99 673f
00000190: 7b20 4640 d78f f33f 8c89 293f 5315 7f40
000001a0: 72f3 e73e 4ba2 6240 6680 b13f 2fe1 c43f
000001b0: 3db8 ab3f 8aab 0c3f 883f a03f 7b82 6640
000001c0: 3a11 9c40 35cf 343f ecd2 533f 14f3 a93e
000001d0: bcfd 1540 9f86 3c40 a2ca e13f eb80 d53f
000001e0: 8daf 5c3f 215b 8440 f942 823f ce6b c43f
000001f0: 02cb 8d3f ddba ce3f 7db7 0040 1317 cf3f
1.4929506 6.581482 3.9019368 5.6694922 6.69089 5.0436454 5.503709 7.1194053
3.7410114 2.4359598 3.8068163 23.436506 8.293087 3.2141337 3.8242757 4.6709814
2.6740286 4.164977 7.179162 4.728206 2.6460557 5.8255634 4.0739646 5.7656746
4.932483 6.1168714 5.345156 5.976119 3.2325902 4.169102 3.5270338 3.7604587
3.191689 8.4650135 4.1152625 6.568113 4.2391872 4.7453747 4.8374677 4.168545
9.109504 6.6647444 5.609615 6.3301206 2.9695194 5.519445 5.720138 4.863901
4.7890644 4.8746347 5.5130973 2.0211377 5.2791653 3.3655782 8.176627 3.4535825
6.6771946 2.954585 6.792754 5.180754 3.4506588 2.7771602 2.4544291 2.3939195
1.11609 0.96679425 2.2390969 1.0362556 1.6199479 0.53916126 1.3686564 1.2781249
2.6203406 2.6976542 1.3562822 0.8827647 2.5390317 2.408265 2.0583353 3.1596663
13.507979 2.3705559 1.8898396 1.1181283 0.47417915 4.3723826 0.8500707 4.8805103
0.9057855 1.2009473 3.4679084 1.0051425 3.4782407 0.8778308 0.674546 2.2416859
1.5732989 1.8515056 6.2058797 0.9046818 3.0957325 1.9028271 0.66225505 3.9856765
0.45302922 3.5411556 1.3867309 1.538122 1.34156 0.5494925 1.2519388 3.601714
4.877103 0.7062867 0.82743716 0.33193266 2.3436117 2.9457166 1.7639964 1.6679968
0.8620537 4.136124 1.0176688 1.5345399 1.1077578 1.6150776 2.0111992 1.6178917

convs.1.bn1.bias f4 [128]
00000000: 999f e0bf e192 053f 8c08 84bf 7e14 6e3f
00000010: e8cb 373f 3bee 593f 4b74 bf3f 926b 633f
00000020: 2d29 0fc0 cdba b9bf 618e f9bf 6f3d 00c0
00000030: d80d 3c3f f6b6 f0be f035 3ec0 4771 8cbf
00000040: 8562 2d3f 2bbf 98bf fd24 a8bd ab15 ccbd
00000050: 1c0d 733f 1a9d 8bbf 00d7 273e c6c0 c7ba
00000060: 723d ebbe 7e51 c43e 9a98 80bf 2afa 3e3f
00000070: 378a e0bf 69d8 0240 8692 e63e 7f32 b8bd
00000080: 6065 cb3e 9786 23bf c82f 47bf 89ce ca3f
00000090: d9d6 c8bf 2bb5 d5bf f1e0 0540 f7a9 613f
000000a0: aae4 07bf 8af6 42bf 3a3b 503f c2b1 a8be
000000b0: 13d4 3b3e 14b0 b23f 5c3b 3c3f 4777 c33e
000000c0: 4b29 20bf 9207 493f 90e9 593f 860e 1440
000000d0: 677e 7abf 6dd5 2dc0 ca06 80bf e42c e5be
000000e0: 0df4 cb3e 036d 5f3c 7475 7e3e 7322 603f
000000f0: 8069 29bf 4de5 503e 4942 2cc0 d0ce 17c0
00000100: 10ff fdbf f20e 5f3e e3d8 e5bf f918 943f
00000110: b16e 363f 32f3 a03f bc59 863f a3a4 9a3f
00000120: 0b9b 5cc0 707f cabf c791 41c0 5157 fc3e
00000130: 3a89 253f 9aaa c8be 54f1 81c0 29a0 0c3e
00000140: d315 f1be 0867 c9bf 8c7b 363f ff70 5d3f
00000150: 732d 5f3f df25 8fbf 58db 943f 8030 dfbe
00000160: e633 14bf 2617 2d3f 4b7c 77bf 043d ecbe
00000170: 482a 33c0 2cf4 583f 60b8 573f 6b8f d63f
00000180: 0d66 8f3f 545b 803f 4062 ccbf ff1a c43f
00000190: 557c 73c0 0c78 02c0 a73e 0a3f 5c11 583f
000001a0: 38b7 0b40 0074 01bf 4cea d63e 9c71 7d3f
000001b0: 87f2 9c3f b1cc ee3f bdbe b43e 7fb9 a63f
000001c0: b54a 333f c117 cd3f f4c8 cc3f 0129 db3f
000001d0: e217 223f 2b48 18c0 6095 a23f 5e4b 413e
000001e0: 5ca6 4b3e db1f 92bf 6cd2 313f e6b8 f43e
000001f0: 9fc8 f6bd 1995 b53f b2d9 83c0 52a2 2bc0
-1.7548705 0.52177244 -1.0315108 0.9300002 0.7179551 0.85129136 1.4957365 0.88836014
-2.2368882 -1.4510132 -1.9496576 -2.0037496 0.73458624 -0.47014588 -2.972042 -1.097207
0.67728454 -1.193334 -0.0821018 -0.0996507 0.9494188 -1.0907319 0.1639061 -0.0015239946
-0.45945317 0.38343424 -1.004657 0.7460047 -1.754218 2.0444586 0.45033664 -0.08994006
0.3972578 -0.6387724 -0.77807283 1.584428 -1.5690566 -1.6695913 2.0918543 0.8814997
-0.5308329 -0.7615744 0.8134037 -0.32948118 0.18342619 1.3959985 0.73528075 0.3817694
-0.6256301 0.78527176 0.85122013 2.3133864 -0.97849125 -2.7161515 -1.0002072 -0.4476081
0.39834633 0.01363683 0.24849492 0.87552565 -0.66176605 0.20399971 -2.6915457 -2.3719978
-1.9843464 0.21783045 -1.7956814 1.1570121 0.7126265 1.2574217 1.0496135 1.2081493
-3.446963 -1.5820141 -3.0245225 0.49285367 0.64662516 -0.3919266 -4.060709 0.13732971
-0.47086963 -1.5734568 0.7128227 0.86500543 0.87178725 -1.1183432 1.1629438 -0.4359169
-0.5789169 0.67613447 -0.9667403 -0.461403 -2.7994556 0.84747577 0.8426571 1.6762518
1.1203018 1.0027871 -1.5967484 1.5320739 -3.8044636 -2.038577 0.5400185 0.8440149
2.1830578 -0.50567627 0.4197563 0.9900148 1.2261513 1.8656217 0.35301772 1.3025359
0.7003587 1.6022874 1.5998826 1.7121888 0.6331769 -2.3794048 1.2701836 0.18876407
0.1988768 -1.1415972 0.69461703 0.47797316 -0.12049984 1.4186126 -4.120324 -2.6817822
