results/CrystalAE/2023-06-14/23:17:15.830558/models/model132.pth (torch, 430097 bytes, 37 tensors)

embedding.weight f4 [64, 92]
0	0xbe5d10ae	-0.21588394
1	0xbd4ae283	-0.049532425
2	0xbe74d72c	-0.23910207
3	0x3e8cb49c	0.27481544
4	0x3ddc5339	0.10758061
5	0xbf00e2db	-0.50346154
6	0x3f85bfd8	1.0449171
7	0xbec8b025	-0.39196888
8	0xbe69d3ed	-0.2283475
9	0x3f4365db	0.76327294
10	0xbf0e1edf	-0.55515856
11	0xbe73997f	-0.23789023
12	0xbe5ceb31	-0.21574093
13	0xbef05676	-0.46940964
14	0xbe97f177	-0.2967641
15	0x3e3a9778	0.18221843
16	0xbd1375fb	-0.036001187
17	0x3dd9129c	0.105992526
18	0x4001f1ba	2.0303788
19	0x3b5e31a5	0.0033904102
20	0x3e4dc272	0.20093706
21	0xbe70fc6a	-0.23533788
22	0xbe7384d6	-0.23781142
23	0xbefb2bef	-0.49056956
24	0xbece705f	-0.40320107
25	0x3fd7709e	1.6831243
26	0x3e12969c	0.14315265
27	0x3d9f0601	0.07764817
28	0x3d9e8897	0.07740896
29	0x3f212ce3	0.62959117
30	0x3dffa7b3	0.12483158
31	0x3d01d67d	0.031698693
32	0x3f057560	0.52132225
33	0x3e350a8a	0.17679802
34	0xbde64030	-0.112427115
35	0xbc0876b8	-0.008329086
36	0xbdf229e1	-0.11824394
37	0xbe771d76	-0.24132332
38	0x3e6bdfc5	0.2303458
39	0xbe1562ad	-0.14588423
40	0xbda06345	-0.07831434
41	0x3dba5b59	0.090994544
42	0x3e05bebe	0.13061044
43	0xbee865dd	-0.45390216
44	0xbe45c84a	-0.19314685
45	0x3f225f25	0.6342643
46	0xbd8dd060	-0.0692451
47	0xbe38dcc7	-0.1805297
48	0xbe6a0f8e	-0.22857496
49	0xbd9e0792	-0.07716288
50	0xbe803bbf	-0.25045583
51	0x3e6e990f	0.23300575
52	0xbda1e544	-0.07905057
53	0x3d954b14	0.07289711
54	0x3f33dc91	0.7025843
55	0xbebe7e31	-0.3720565
56	0xbeaec8d8	-0.34137607
57	0xbe309aa8	-0.17246497
58	0x3e4877a8	0.19576895
59	0xbd95e591	-0.07319177
60	0xbe7c81ff	-0.24658965
61	0xbceddfdd	-0.02903741
62	0xbec7cf12	-0.3902517
63	0x3c67e7d6	0.014154395
64	0xbd13dbbf	-0.036098238
65	0x3c1da3ab	0.009621541
66	0xbcc73206	-0.024315845
67	0x3e85c32c	0.26125467
68	0xbf940de2	-1.1566737
69	0x3d47f906	0.04882147
70	0x3e4de808	0.20108044
71	0x3d8282c7	0.063726
72	0xbe897ffa	-0.2685545
73	0xbdb02887	-0.0860148
74	0xba624c28	-0.0008632564
75	0x3e395505	0.18098839
76	0x3d2f0e4f	0.042738255
77	0xbd836117	-0.06415003
78	0xbdc0df95	-0.09417645
79	0xbd711cf4	-0.058865502
80	0x3ba85ae9	0.0051377905
81	0xbe2da252	-0.16956452
82	0xbcbd767b	-0.023127785
83	0xbec76970	-0.3894763
84	0x3f407cf0	0.7519064
85	0x3d14335a	0.036181785
86	0xbdc9a5d1	-0.0984608
87	0x3e69f269	0.22846378
88	0x3e327105	0.17425926
89	0x3e6db8d3	0.23215036
90	0x3eadf416	0.33975285
91	0x3e6fa44b	0.23402517
92	0x3e1672a4	0.1469217
93	0x3dcd6ad9	0.10030145
94	0xbc26b12b	-0.010174076
95	0xbf99e542	-1.2023089
96	0x3ead2d19	0.3382347
97	0x3f48c9a1	0.7843266
98	0x3f85ca16	1.0452297
99	0x3f988b8c	1.1917586
100	0x3e466684	0.19375044
101	0x3cdb2520	0.026751101
102	0xbf4e488c	-0.8057945
103	0xbf36d22a	-0.71414435
104	0xbdca907f	-0.09890842
105	0x3e9f677b	0.31133637
106	0xbee5052e	-0.44730514
107	0xbdf6c14a	-0.12048586
108	0xbc929996	-0.017895501
109	0xbe8f8a23	-0.28035077
110	0x3f818e14	1.0121484
111	0x3d159800	0.03652191
112	0x3f0061aa	0.50149024
113	0x3e27cb19	0.1638607
114	0xbdfe5edd	-0.124204375
115	0x3ce8589c	0.028362565
116	0xbf90bdb3	-1.1307892
117	0xbe9ae0fc	-0.30249774
118	0xbe7c8e24	-0.24663597
119	0xbe0a1a18	-0.13486516
120	0xbd82c568	-0.063853085
121	0x3e184949	0.14871706
122	0xbc082dd2	-0.008311706
123	0xbf044ee6	-0.5168289
124	0xbdec0893	-0.11525073
125	0xbf1f5d7d	-0.62252027
126	0x3d026951	0.03183872
127	0x3ea5de69	0.32396248
128	0x3df3dc2a	0.11907227
129	0x3e35e0f1	0.1776159
130	0x3e1c3de1	0.1525798
131	0xbed88593	-0.4228941
132	0x3ed7b16f	0.4212756
133	0xbec0690e	-0.3758015
134	0xbeec9849	-0.46209934
135	0xbee804fd	-0.45316306
136	0xbe29a08b	-0.16565149
137	0xbe400089	-0.18750204
138	0x3d1d3fb9	0.03839085
139	0x3df4720d	0.11935816
140	0xbeca5fd3	-0.39526233
141	0xbe675e34	-0.2259453
142	0x3e86f971	0.26362184
143	0x3eba7940	0.3642063
144	0x3e86381b	0.2621468
145	0x3e500377	0.20313822
146	0x3d3731b9	0.044725154
147	0x3f5323b7	0.8247637
148	0xbf3b97de	-0.73278606
149	0xbfbf7181	-1.4956514
150	0xbeb2f8be	-0.349554
151	0xbe4449f7	-0.1916884
152	0xbdf9b79d	-0.121932246
153	0x3dcd0f5d	0.10012696
154	0x3e53189b	0.20614855
155	0x3eb418fc	0.35175312
156	0xbf0f50c2	-0.559826
157	0x3e9575f8	0.29191566
158	0xbdbdcaef	-0.09267222
159	0x3fa42c2f	1.2825984
160	0xc00f7797	-2.2416742
161	0x3dce84bb	0.1008391
162	0x3d8b6810	0.06806958
163	0x3dab3a20	0.08360696
164	0x3f606884	0.8765948
165	0xbe0c441a	-0.13697854
166	0xbedcba7e	-0.43111032
167	0x3e16a5e5	0.14711721
168	0x3d8e9865	0.06962661
169	0xbe4ef92a	-0.20212236
170	0x3c0697d8	0.008214913
171	0xbf102fe6	-0.5632309
172	0x3d70e431	0.05881137
173	0x3e08feab	0.13378398
174	0xbf339d68	-0.7016206
175	0x3e5be764	0.21474987
176	0xbec2214a	-0.37916023
177	0x3f1caa11	0.61197
178	0x3d85870a	0.06519897
179	0x3c215d99	0.009848976
180	0x3e8933c2	0.267973
181	0x3dbb78cf	0.09153902
182	0xbd297665	-0.041372675
183	0xbed99957	-0.42499802
184	0xbd846eaf	-0.06466424
185	0x3d79dfe4	0.061004534
186	0xbe3f70f0	-0.18695426
187	0xbfa061dd	-1.2529866
188	0xbe348fb8	-0.1763295
189	0x3ed1cf37	0.40978405
190	0x3f38ae5e	0.72141063
191	0x3e98be21	0.29832557
192	0x3d017a6a	0.031610884
193	0x3f2c1118	0.67213583
194	0x3eb40943	0.35163316
195	0xbe8aeb72	-0.27132756
196	0xbf173d1f	-0.5907764
197	0x3f1354c6	0.5755123
198	0xbd956e2b	-0.072964035
199	0xbda424af	-0.08014809
200	0xbe240bb9	-0.16020097
201	0xbe39f62c	-0.18160313
202	0xbecbbdd4	-0.39793265
203	0xbe8f2fff	-0.27966306
204	0xbe27e4ad	-0.16395827
205	0xbec32853	-0.38116702
206	0x3cbf36b6	0.023341518
207	0x3d8db8d4	0.06920019
208	0x3d84086d	0.064469196
209	0x3e69ff8a	0.22851387
210	0x3dbbd296	0.091710255
211	0x3e8ba843	0.2727681
212	0x3e3db2b8	0.18525207
213	0x3da7d2d1	0.08194507
214	0xbbe01b8b	-0.006839221
215	0x3e1e1290	0.15436769
216	0xbed6bbed	-0.4194025
217	0xbea0f2b7	-0.31435177
218	0xbe124df1	-0.14287545
219	0xbe07bbe0	-0.13255262
220	0xbea74281	-0.32667926
221	0xbe903b98	-0.28170466
222	0x3ed85435	0.42251745
223	0x3f079200	0.52957153
224	0x3e2a5e89	0.16637625
225	0x3ce95991	0.028485091
226	0xbe767b49	-0.24070467
227	0xbf6ba45a	-0.92047656
228	0x3e21e682	0.15810588
229	0xbf4c919d	-0.7990969
230	0x3d9c19dc	0.0762212
231	0xbde4f5e5	-0.11179713
232	0xbdcf8925	-0.1013358
233	0xbeb12956	-0.3460185
234	0x3e93b601	0.28849795
235	0x3d261a47	0.040552404
236	0x3bf8e5f8	0.007595774
237	0xbe03b9cf	-0.12863849
238	0x3ef98c84	0.48740017
239	0xbead1912	-0.3380819
240	0xbe2b4e70	-0.1672914
241	0x3e076eb2	0.1322582
242	0x3d47fa42	0.04882265
243	0x3f01e45c	0.50739074
244	0x3d6e0bd5	0.058116753
245	0xbae2bd7a	-0.00172989
246	0xbdaa2dd4	-0.08309522
247	0xbf04ae28	-0.5182824
248	0x3d921d77	0.07134526
249	0xbdbbfe91	-0.09179414
250	0x3d842bbe	0.06453656
251	0xbf1578b1	-0.58387285
252	0xbf5db035	-0.86596996
253	0xbdaf86c8	-0.08570629
254	0xbebedd4f	-0.3727822
255	0x3b0ddd5f	0.002164684

convs.0.fc_full.weight f4 [128, 169]
0	0xbdc760f2	-0.09735288
1	0x3f59efe6	0.8513168
2	0xbcdfc954	-0.02731768
3	0xbe5caa83	-0.2154942
4	0x3dc65ab0	0.09685266
5	0x3f41c63c	0.75693107
6	0xbe87c6b7	-0.26518795
7	0xbd832942	-0.06404354
8	0xbe4d3799	-0.2004074
9	0x3df454f1	0.11930264
10	0x3e0573b8	0.13032424
11	0x3e9236d5	0.2855746
12	0x3e7dc6f6	0.24782929
13	0x3ea46a97	0.32112572
14	0xbec49007	-0.38391134
15	0x3a0b3709	0.000531063
16	0x3f927ed0	1.144495
17	0x3ed50c59	0.41610983
18	0x3f16ecef	0.5895528
19	0x3e8b172d	0.2716612
20	0x3f0cd0c1	0.55006033
21	0xbe8aa8ac	-0.2708181
22	0x3f2a2a7a	0.66471064
23	0x3e89d359	0.26919058
24	0x3efcb062	0.4935332
25	0x3ec4a538	0.38407302
26	0xbedfa51c	-0.43680656
27	0xbf4b9bc3	-0.7953455
28	0xbec832c2	-0.39101225
29	0x3ee3402a	0.4438489
30	0x3dc099c6	0.0940433
31	0x3f5358a0	0.82557106
32	0xbfda2e88	-1.704545
33	0x3cd66582	0.02617145
34	0xbf412749	-0.7545057
35	0x3f0d1e96	0.55124795
36	0xbf717102	-0.9431306
37	0xbebeb52a	-0.37247592
38	0xbf4e6820	-0.8062763
39	0xbeac565e	-0.33659643
40	0xbe021ea1	-0.12706997
41	0x3f0c5cd1	0.54829127
42	0xbf8d492b	-1.1037954
43	0x3f24c148	0.64357424
44	0xbdba479e	-0.09095691
45	0x3f45815a	0.771505
46	0x3f42e066	0.76123655
47	0xbd952d45	-0.07284025
48	0x3d7b68a1	0.06137908
49	0x3e1e1b9f	0.15440224
50	0xbf638439	-0.8887363
51	0xbd9a0c92	-0.07521929
52	0x3f3d20aa	0.73877966
53	0xbe0a734d	-0.13520546
54	0x3ebaa601	0.36454776
55	0xbd8e205f	-0.06939768
56	0xbe92cbf4	-0.2867123
57	0x3e71a6ae	0.2359874
58	0xbefb2cc0	-0.4905758
59	0xbd1d738f	-0.038440283
60	0x3dca1f06	0.098691985
61	0xbefb9b5b	-0.49141964
62	0xbf34ef34	-0.70677495
63	0x3df9ba49	0.12193734
64	0xbffdafc5	-1.9819266
65	0x3f318fe1	0.69360167
66	0x3f13c26e	0.5771855
67	0xbef6f13c	-0.48230922
68	0x3f788cde	0.97089946
69	0xbe7a0d2d	-0.24419089
70	0x3f277e1a	0.6542679
71	0x3d51c1a0	0.051210046
72	0x3ec3cd47	0.38242552
73	0x3f826dac	1.0189719
74	0x3f42f3b1	0.76153094
75	0xbf33751c	-0.7010057
76	0xbca680bf	-0.020325063
77	0x3f29774c	0.6619766
78	0x3eccd2b2	0.40004498
79	0xbf9352ad	-1.1509606
80	0xbe951848	-0.29120088
81	0x3f405eb6	0.7514452
82	0x3f63a9e2	0.88931096
83	0x3ed8e342	0.42360884
84	0xc0026770	-2.0375633
85	0x3f94f045	1.1635824
86	0x3f10e2e8	0.5659623
87	0x3f35582d	0.7083767
88	0x3f3a8895	0.7286466
89	0xbf7ecbed	-0.99529916
90	0xbd7d1e4b	-0.061796468
91	0x3f931a0c	1.1492324
92	0x3fa22fcc	1.2670836
93	0xbf7cc9d7	-0.98745483
94	0xbe293a16	-0.16526064
95	0x3d8e3c58	0.069451034
96	0xbfb45611	-1.4088765
97	0x3d154710	0.036444724
98	0x3f076ea7	0.5290322
99	0x3f643d04	0.891556
100	0x3fcaecbe	1.5853498
101	0xbf046af9	-0.5172573
102	0x3dd02012	0.10162367
103	0x3f524721	0.82139784
104	0xbf417af5	-0.7557824
105	0xbf0e1d76	-0.55513704
106	0x3e7b4935	0.24539645
107	0xbfef4e49	-1.8695766
108	0x3f31d9ac	0.69472766
109	0x3e2b73fd	0.16743465
110	0xc004defa	-2.0761094
111	0xbf3d5812	-0.7396251
112	0x3df3d076	0.11904995
113	0xbf42327e	-0.75858295
114	0x3f1e5c4f	0.618596
115	0x3d1f327e	0.038866512
116	0xbf048e28	-0.51779413
117	0x3f584b0b	0.84489506
118	0xbe6c9bb5	-0.23106273
119	0xbeee6f2b	-0.4656919
120	0x3e8cf6bf	0.27532002
121	0xbecb2866	-0.3967926
122	0x3f700bd9	0.9376808
123	0xbf5d2b21	-0.86393934
124	0xbf6f1c70	-0.9340277
125	0x3f40689b	0.75159615
126	0xbfd64e5c	-1.6742663
127	0x3e414c08	0.1887666
128	0x3d469347	0.0484803
129	0x3d10e4cc	0.035374448
130	0x3ff4da07	1.9129037
131	0x3fd8c3b9	1.693473
132	0x3f8d675e	1.104717
133	0x3f8b8bbc	1.0902019
134	0x400267d8	2.0375881
135	0x3e84f69b	0.25969395
136	0xc0b0f647	-5.530063
137	0xc09990a6	-4.7989073
138	0x3fa42bee	1.2825906
139	0x4035bc8e	2.8396335
140	0x3fbb3669	1.462598
141	0x3fb6d769	1.4284488
142	0x3fa0eb25	1.257176
143	0xbf65e5fa	-0.8980404
144	0x4087de03	4.245851
145	0x4006679b	2.1000736
146	0xc0901f75	-4.50384
147	0xc0e6c6b1	-7.2117543
148	0xc075504f	-3.8330266
149	0xbfc952d4	-1.5728402
150	0x3f2b4192	0.6689693
151	0x3f0bd181	0.5461655
152	0x3ed93ad4	0.42427695
153	0xbed0ef4b	-0.40807566
154	0xbf8d55b0	-1.1041775
155	0xbf82a6c8	-1.0207148
156	0x3ec75e6e	0.38939232
157	0xbf08d8ba	-0.534557
158	0xbf8fdea2	-1.1239817
159	0xbede2082	-0.43384176
160	0x3f2e9e3d	0.682102
161	0x3ff5ecc9	1.9212886
162	0x3ff0ac82	1.8802645
163	0x3f5d4e6d	0.86447793
164	0xbdefba9c	-0.11705515
165	0xbcf1976d	-0.02949115
166	0xbceb9578	-0.028757796
167	0xbd3874d3	-0.045033287
168	0x3b4c5228	0.0031176899
169	0x3d93417c	0.071902245
170	0xc002c9cc	-2.0435667
171	0xbebf9f48	-0.3742621
172	0xbf11409b	-0.56739205
173	0xbf1833ea	-0.59454215
174	0x3f45cee5	0.7726882
175	0xbde5b771	-0.11216629
176	0xbe514255	-0.2043546
177	0xbef86060	-0.48511028
178	0xbf914386	-1.1348732
179	0xbe875886	-0.26434726
180	0x3f08d94c	0.5345657
181	0x3b318a14	0.0027090358
182	0x3e688436	0.22706684
183	0x3f3159af	0.6927747
184	0xbe66aa89	-0.22525991
185	0xbf208680	-0.6270523
186	0x3fd79cd3	1.6844734
187	0xbe4e58c5	-0.2015105
188	0x3e66ab02	0.22526172
189	0xbeb449d5	-0.3521258
190	0xbe97fbae	-0.29684204
191	0x3dbe2c99	0.0928585
192	0xbf0d433e	-0.5518073
193	0xbf5a1aab	-0.8519694
194	0x3f875ed1	1.0575811
195	0x3ea811e1	0.3282614
196	0x3fb2eb47	1.3978051
197	0x3f501e79	0.812965
198	0x3eee6888	0.46564126
199	0x3e5d48ff	0.21609877
200	0xbdffef21	-0.12496782
201	0x3eccc729	0.39995697
202	0x3d15496c	0.036446974
203	0x3e74f710	0.23922372
204	0x3f2dea5e	0.6793574
205	0x3fe7fbe8	1.8123751
206	0xbf125a32	-0.5716888
207	0x3ef7593e	0.48310274
208	0xbfa988cf	-1.3244876
209	0x3dd72817	0.105056934
210	0xbec33222	-0.38124186
211	0x3e3f89fc	0.1870498
212	0xbe509c85	-0.20372207
213	0x3e2fa2fe	0.1715202
214	0x3ead5750	0.33855677
215	0xbf0dce71	-0.5539313
216	0xbf3f7201	-0.7478333
217	0x3f57c28f	0.8428125
218	0xbe48924c	-0.19587058
219	0x3f636ff6	0.88842714
220	0x3ea2473f	0.3169498
221	0x3f14d937	0.58143944
222	0x3dd39d2f	0.10332715
223	0xbf69e937	-0.9137148
224	0xbe474151	-0.1945851
225	0x3eb21917	0.34784767
226	0xbf8732d3	-1.0562385
227	0x3eff692e	0.49884933
228	0x3de90645	0.11378149
229	0xbebf82bb	-0.37404427
230	0x3f47589d	0.7786959
231	0x3e863754	0.26214087
232	0x3f70d41f	0.9407367
233	0x3ec1ad69	0.37827614
234	0xbfe62e0e	-1.7982805
235	0x3eee6600	0.46562195
236	0x3f9d9738	1.2311773
237	0xbf25d543	-0.64778537
238	0xbfb4d232	-1.4126647
239	0x3e5424fd	0.20717235
240	0x3e89d093	0.26916942
241	0x3f9636f8	1.1735525
242	0xbd8aaf02	-0.06771661
243	0xbea100c6	-0.31445903
244	0x3f36272e	0.71153533
245	0x3c9274ac	0.0178779
246	0x3ecef660	0.40422344
247	0xbd532b5a	-0.051555015
248	0x3ecb5696	0.39714497
249	0xbfb780f9	-1.4336234
250	0xbfa526ea	-1.2902501
251	0xbc93ce18	-0.01804261
252	0xbdccae8a	-0.09994228
253	0x3f130084	0.5742266
254	0xbf9c6f42	-1.2221453
255	0x3f803a70	1.0017834

convs.0.fc_full.bias f4 [128]
0	0x3e920c1c	0.28524864
1	0x3db13828	0.08653289
2	0xbe00c12e	-0.12573692
3	0x3eb9b723	0.36272535
4	0x3da09fa1	0.07842947
5	0xbd4d2c8e	-0.05009132
6	0x3ed99478	0.42496085
7	0x3e567616	0.20943484
8	0xbe933b71	-0.28756288
9	0x3da160e6	0.0787981
10	0x3cc37b7c	0.023862593
11	0x3f14a017	0.5805678
12	0x3ea79a5f	0.32734963
13	0xbd692e2c	-0.0569288
14	0x3d4f3ae8	0.050593287
15	0x3e0ad8dc	0.13559288
16	0x3dc4dd8b	0.096125685
17	0xbe8f319d	-0.2796754
18	0x3e2db653	0.16964082
19	0x3eb0fcaa	0.34567767
20	0x3d919d0b	0.07110032
21	0x3e3268d9	0.17422809
22	0xbd40aee6	-0.047041796
23	0xbd080091	-0.033203665
24	0x3e6bcdab	0.23027675
25	0x3cbb1c54	0.022840656
26	0x3bd7536b	0.0065712235
27	0xbc8ed357	-0.017434759
28	0xbd120b7a	-0.035655476
29	0x3f451283	0.7698137
30	0xbf34d037	-0.7063021
31	0xbdab9734	-0.08378449
32	0x3e8b6065	0.2722198
33	0xbe57cbab	-0.21073787
34	0xbdcb2007	-0.09918218
35	0x3d868e00	0.06570053
36	0x3d0408a0	0.032234788
37	0xbe0c87c7	-0.1372367
38	0xbd9aaf6a	-0.07552989
39	0x3ed0c274	0.40773356
40	0x3eaefc68	0.34176946
41	0xbd34798a	-0.04406122
42	0x3ea0d9ed	0.31416264
43	0x3c43fe7f	0.011962532
44	0x3f116f79	0.5681072
45	0x3da15681	0.078778274
46	0x3e93d372	0.28872257
47	0xbde1deb8	-0.11028808
48	0xbf03d3e4	-0.51495194
49	0xbea3b699	-0.31975248
50	0xbc783653	-0.015149671
51	0x3ed742a3	0.42043027
52	0x3e983052	0.29724365
53	0xbd0e4bc4	-0.034740224
54	0x3eb3ac9d	0.3509263
55	0x3ebfc141	0.3745213
56	0x3e3efdce	0.18651506
57	0xbde8b06e	-0.11361776
58	0x3db14bc3	0.086570285
59	0xbe617d7e	-0.22020528
60	0x3e903388	0.28164315
61	0x3f201e6e	0.6254643
62	0x3d71ca91	0.059031073
63	0x3e5aa73a	0.21352854
64	0xbdea2f95	-0.11434857
65	0x3e1d7f67	0.15380631
66	0x3e31d143	0.17364983
67	0x3ed4ee2b	0.41587958
68	0x3f88885c	1.0666614
69	0x3db549e2	0.08851983
70	0xbe27f66f	-0.164026
71	0x3e631656	0.22176489
72	0xbe384f29	-0.17998947
73	0xbee4103d	-0.4454364
74	0x3d672d1e	0.05643951
75	0x3e8281a0	0.2548952
76	0x3ddaa938	0.10676807
77	0x3dd4160b	0.10355767
78	0xbd73593b	-0.05941127
79	0x3e27d5d7	0.16390167
80	0xbe05b283	-0.13056378
81	0xbe9e427b	-0.30910096
82	0x3d6f9170	0.05848831
83	0x3c61c9ad	0.013780993
84	0x3ea23cef	0.31687114
85	0x3d8237d0	0.06358302
86	0xbddf3a65	-0.1089981
87	0x3e6c33ed	0.23066683
88	0xbebce634	-0.3689438
89	0xbc3df080	-0.011592984
90	0xbd06190b	-0.032738727
91	0xbdac6687	-0.08417993
92	0xbe694281	-0.22779275
93	0x3e74df90	0.23913407
94	0x3cb9501d	0.022621209
95	0x3ce1d7de	0.027568754
96	0xbe399f70	-0.18127227
97	0x3e8ad1f5	0.2711331
98	0xbd6a390c	-0.05718331
99	0x3eb11d26	0.3459255
100	0x3d031d46	0.03201034
101	0x3cecab43	0.028890258
102	0xbdb3ee97	-0.08785742
103	0x3e52de71	0.20592667
104	0x3f523a6c	0.82120395
105	0x3e84dc6c	0.2594942
106	0x3de830be	0.11337422
107	0x3f503a5a	0.8133904
108	0x3c88eb6b	0.016713819
109	0x3e2fc26f	0.17164014
110	0x3c9ea564	0.019365974
111	0x3eccec29	0.40023926
112	0xbd73bcb6	-0.05950614
113	0xbe08412b	-0.1330611
114	0x3ea6a7dd	0.32549945
115	0x3d42593f	0.047448393
116	0x3d99960a	0.07499321
117	0xbcebd0b5	-0.028786043
118	0xbe13894d	-0.14407845
119	0x3e6f9c66	0.23399505
120	0xbe026003	-0.12731938
121	0x3e67a48e	0.22621366
122	0xbe88c153	-0.26709995
123	0x3d0418d0	0.032250226
124	0x3dbe40d4	0.09289709
125	0xbe2d18ff	-0.16904067
126	0x3e951b53	0.2912241
127	0x3f220332	0.63286126

convs.0.bn1.weight f4 [128]
0	0x40a4fc50	5.1558
1	0x408ea27d	4.457335
2	0x405a8fbb	3.4150226
3	0x408ec0cc	4.461035
4	0x4050ca49	3.2623465
5	0x3f9afc9e	1.2108343
6	0x40370e5e	2.860252
7	0x4062fd6a	3.5467172
8	0x408fe9e8	4.497303
9	0x40203898	2.5034542
10	0x3f551238	0.83230925
11	0x4018f1a7	2.3897493
12	0x40800a4a	4.001256
13	0x40c048a9	6.0088696
14	0x40ba28b3	5.817468
15	0x4067dfae	3.6230273
16	0x40a30116	5.0938826
17	0x4087909d	4.236403
18	0x4058d9b0	3.3882866
19	0x409dcd75	4.93133
20	0x4023b51c	2.557929
21	0x40451708	3.0795307
22	0x3fa530bb	1.2905496
23	0x4099ec83	4.810121
24	0x40b0805c	5.515669
25	0x3fddebd7	1.7337598
26	0x3f886eed	1.0658852
27	0x408ff26f	4.498344
28	0x3ffe7df7	1.9882191
29	0x412a1069	10.629006
30	0x3fd9580c	1.6979995
31	0x407a33a6	3.9094024
32	0x409ce128	4.902485
33	0x40c275c6	6.0768766
34	0x3f90cb8a	1.1312115
35	0x4011f6a0	2.2806778
36	0x3fa744ae	1.3067834
37	0x3f731e20	0.9496784
38	0x40885c04	4.2612324
39	0x40be49bb	5.9465003
40	0x40866e6d	4.2009797
41	0x3ff12329	1.8838855
42	0x400ea99e	2.2291026
43	0x4093b474	4.615778
44	0x407b8662	3.930077
45	0x3f93e195	1.1553217
46	0x40eb50a5	7.3535943
47	0x40701b81	3.7516787
48	0x408ca62f	4.395286
49	0x40342ff6	2.8154273
50	0x4022c546	2.5432906
51	0x406e1cef	3.720516
52	0x3fa16c5b	1.2611192
53	0x40913b92	4.538522
54	0x4092416d	4.5704865
55	0x40ab482a	5.352559
56	0x40b071fe	5.513915
57	0x40626bf3	3.5378387
58	0x40188b86	2.3835158
59	0x3fa5a541	1.2941056
60	0x409503b2	4.656701
61	0x40bae85c	5.840864
62	0x4081d367	4.057056
63	0x40a5de6b	5.1834006
64	0x3f9c872d	1.2228752
65	0x3f8d2850	1.1027927
66	0x40c90797	6.2821765
67	0x3f92a11f	1.145542
68	0x3f2e6e6b	0.68137234
69	0x400eed5e	2.2332377
70	0x3fe77049	1.8081142
71	0x3f7b6dab	0.98214215
72	0x40550dd7	3.3289697
73	0x3fba0d9d	1.4535404
74	0x3fb16e88	1.3861856
75	0x3f898d9d	1.0746342
76	0x3f96ce71	1.1781751
77	0x3f01b82d	0.50671655
78	0x3fb09816	1.3796413
79	0x3f640c4a	0.8908125
80	0x3fe79ba4	1.8094373
81	0x3f0cadad	0.5495251
82	0x400bb107	2.18268
83	0x3f54833f	0.83012766
84	0x3ede8d29	0.43467072
85	0x3f91a301	1.137787
86	0x3f9899a9	1.1921893
87	0x3f37dca5	0.7182105
88	0x3fb86771	1.4406568
89	0x40a02656	5.0046797
90	0x4033eafe	2.8112178
91	0x3fb4359c	1.407886
92	0x400572dc	2.0851355
93	0x3ecc5c24	0.39914048
94	0x408611ab	4.1896567
95	0x3ffaeeeb	1.9604162
96	0x3f0181a9	0.5058847
97	0x3faf0f86	1.3676612
98	0x400d3a05	2.2066662
99	0x3fdcb8a2	1.7243845
100	0x4005fb1b	2.0934513
101	0x40969bca	4.706517
102	0x3fa70dee	1.3051126
103	0x3f2d6626	0.6773399
104	0x40057ef8	2.0858746
105	0x409b1319	4.8460813
106	0x4083bccf	4.116798
107	0x3fc00bc6	1.5003593
108	0x3f1039e5	0.5633834
109	0x4067b7ae	3.620586
110	0x3ef7ad90	0.48374605
111	0x3f3c60ea	0.7358538
112	0x3fe0a545	1.7550436
113	0x3fb5e4b0	1.4210415
114	0x40445f20	3.068306
115	0x402f598c	2.7398405
116	0x3fc89f50	1.5673618
117	0x3f198b6f	0.59978384
118	0x3efd4eff	0.49474332
119	0x3fde1b63	1.7352108
120	0x3f6af67f	0.91782373
121	0x3f8c9f0b	1.0986036
122	0x401f22c6	2.4864974
123	0x3f9b7208	1.2144175
124	0x3f8a1374	1.0787187
125	0x3eb0b2ec	0.34511507
126	0x400fb275	2.2452672
127	0x3fc00fe3	1.5004848

convs.0.bn1.bias f4 [128]
0	0xbfa6658a	-1.2999737
1	0x3e659cde	0.22423121
2	0xbeea4f4d	-0.45763627
3	0xbefc00da	-0.492194
4	0xbe7898e8	-0.24277079
5	0xbff10ca2	-1.883198
6	0xbf4436ac	-0.7664592
7	0xbc15aaba	-0.009134943
8	0xba7cfbdb	-0.00096505665
9	0x3e21e25b	0.15809004
10	0xc0419649	-3.0247977
11	0x3f7b26f7	0.9810633
12	0xbf4f9090	-0.8107996
13	0x3ce4798e	0.027889993
14	0xbf985bbc	-1.1902995
15	0x3edc70c2	0.43054777
16	0x3dc6197f	0.09672832
17	0xbdb2c3df	-0.08728766
18	0xbf990d16	-1.1957119
19	0xbf573828	-0.8407006
20	0x3efa64ff	0.4890518
21	0xbeb8ba1c	-0.3607949
22	0xbf18397e	-0.59462726
23	0x3e9329e0	0.28742886
24	0x3dcda4f1	0.10041226
25	0xbbbc86d6	-0.0057533784
26	0xc0617d8e	-3.5232882
27	0x3eb9dd52	0.36301666
28	0xc075a1ed	-3.8380082
29	0xbca023dd	-0.019548351
30	0x3f9fd68a	1.2487347
31	0xbf0682ef	-0.5254354
32	0x3fb74811	1.4318868
33	0xbd2743b7	-0.040836062
34	0xbf62bf1f	-0.8857288
35	0xbd1d9df6	-0.03848072
36	0xbf21299a	-0.62954104
37	0xbeab8bdb	-0.3350514
38	0xbe5be40c	-0.21473712
39	0x3ec75038	0.3892839
40	0x3ed0dad8	0.40791965
41	0xbed302cf	-0.4121308
42	0xbe59a0a7	-0.2125269
43	0x3d81e022	0.06341578
44	0x3f9f673f	1.2453383
45	0xc034da39	-2.8258193
46	0x3e07e367	0.13270341
47	0x3fa66dbd	1.300224
48	0xc0021349	-2.032427
49	0xbf73e8ca	-0.9527708
50	0xc0008f7b	-2.0087574
51	0xbf9b40cb	-1.2129148
52	0xbfa8e4bd	-1.3194805
53	0x3f90403e	1.1269605
54	0xbf49e8ee	-0.7887105
55	0xbd5694ea	-0.05238811
56	0x3ea9149f	0.33023545
57	0xbfb8aefd	-1.4428402
58	0xbf7e8ea2	-0.9943639
59	0xbf9b11af	-1.2114772
60	0x3fa25619	1.2682525
61	0x3d857b55	0.06517664
62	0x3f4b3176	0.79372346
63	0xbe8b9605	-0.27262893
64	0x3db4c629	0.088268586
65	0x3f8dc5fe	1.1076047
66	0xbdc04c87	-0.093895964
67	0xbf1a7056	-0.6032766
68	0x3fa0d014	1.25635
69	0xc005a2c0	-2.0880585
70	0xbf5654e3	-0.83723277
71	0x3fdda4fa	1.7315972
72	0x3e1f7705	0.15572746
73	0x401209d8	2.2818508
74	0xc0619c27	-3.5251558
75	0x4007e344	2.1232462
76	0x3f9c69ca	1.2219784
77	0x3f42640c	0.7593391
78	0x3e02423e	0.12720582
79	0x3fb048a6	1.377217
80	0x3edce2b8	0.43141723
81	0x3f8884be	1.066551
82	0xbdaa128f	-0.08304321
83	0x3f53ebf9	0.8278194
84	0x3fc33b51	1.5252477
85	0xbed3fe3a	-0.41404897
86	0xbfb14f11	-1.3852254
87	0x3ff98f6a	1.9496891
88	0x3f053a42	0.5204202
89	0xbec734d7	-0.389075
90	0xc07604ed	-3.8440506
91	0xbea123b2	-0.31472546
92	0xc07bc3d1	-3.9338267
93	0x402cbcbd	2.6990197
94	0x3ff9eddf	1.9525717
95	0x3f72b0e7	0.9480118
96	0x3f7b8b5a	0.9825951
97	0x3e19f175	0.15033515
98	0xbf44dadf	-0.7689647
99	0xbf95d879	-1.1706687
100	0xbfb70859	-1.4299423
101	0xc01fb383	-2.4953315
102	0xbea2e68a	-0.31816512
103	0x3f371f12	0.71531785
104	0x3fdaf66f	1.7106456
105	0xbf5203d2	-0.8203708
106	0xbd922e1d	-0.07137702
107	0x4002a13c	2.041091
108	0x3fe74fad	1.807119
109	0xc029cf11	-2.6532633
110	0x3fb0f9eb	1.3826269
111	0x3fad2bce	1.3528993
112	0xbf84a60e	-1.0363176
113	0xbef7b28f	-0.48378417
114	0xc00b1f41	-2.1737826
115	0x3f9c6ed7	1.2221326
116	0xc010654b	-2.2561824
117	0x3f98b4d0	1.193018
118	0x3fca4de8	1.5805025
119	0xbfe2bd9c	-1.7714114
120	0x3f4aae8c	0.7917259
121	0xbfd006b3	-1.6252044
122	0xbfe1527c	-1.7603297
123	0xbff02e64	-1.8764157
124	0x3ecd3bb0	0.400846
125	0x401f819e	2.4922862
126	0x3fdd2048	1.7275476
127	0xbf024086	-0.50879705

convs.0.bn1.running_mean f4 [128]
0	0xc0ad36c2	-5.4129343
1	0x4110b680	9.044556
2	0xbfdb937e	-1.7154386
3	0xc00b0f23	-2.1727989
4	0x4052e69f	3.295326
5	0x40efe25c	7.4963818
6	0xc0013c3d	-2.0193017
7	0x40cdf416	6.4360456
8	0xbf94e754	-1.1633096
9	0xc08d18a0	-4.409256
10	0x409bc940	4.8683167
11	0xbe8f1b90	-0.27950716
12	0xc061c187	-3.527437
13	0xc1bb7537	-23.432234
14	0x40a5581c	5.1670055
15	0x3fb2ee8c	1.3979049
16	0x4110c987	9.049201
17	0xbf84533e	-1.0337903
18	0x4002010c	2.031314
19	0x41166dbe	9.401793
20	0xc0a736b2	-5.2254267
21	0x411fbd1f	9.983672
22	0xc0ade935	-5.4347177
23	0xc010b94c	-2.2613096
24	0x417b2a32	15.697802
25	0xc15b5479	-13.708123
26	0x3fe2a506	1.7706611
27	0x41129cf1	9.163316
28	0xbff51733	-1.9147705
29	0x404e2605	3.2210705
30	0xc14910ff	-12.566649
31	0xc0f7dd94	-7.745798
32	0x4106a798	8.415916
33	0x3e9d6c08	0.30746484
34	0xbe9826d1	-0.29717115
35	0x3f923eec	1.1425452
36	0x41038ab1	8.22136
37	0xc01cf133	-2.4522216
38	0xc0dcead3	-6.903665
39	0x40970697	4.7195544
40	0x40fcc83a	7.8994417
41	0xc0af1c9a	-5.4722414
42	0x40a28c1b	5.0796027
43	0x4005b8cc	2.089404
44	0x410e61d4	8.898884
45	0x40bf3ec6	5.976413
46	0x4195bf2d	18.718348
47	0xc01d6d44	-2.459794
48	0xc0f25acf	-7.573585
49	0xc13ce5bd	-11.806088
50	0x41224332	10.141405
51	0xc08aab73	-4.333429
52	0xc0fd5f93	-7.917917
53	0x3fc11c1e	1.5086706
54	0x40d2c2f4	6.586298
55	0x419f6d64	19.928413
56	0x4107afb8	8.4804
57	0x411e66cb	9.900096
58	0x41a247c3	20.28504
59	0x41a78076	20.937725
60	0xbf90f8b8	-1.1325903
61	0x40fc61fd	7.8869615
62	0xc0f58d6d	-7.673514
63	0x4130675a	11.025232
64	0x417cbf29	15.79667
65	0xc1789b39	-15.537896
66	0xc0ed0366	-7.406665
67	0xc0b407f1	-5.6259694
68	0xbfe88109	-1.8164378
69	0x40ae3f39	5.4452176
70	0x3f09b342	0.5378915
71	0x415d0819	13.814477
72	0xc0ec064e	-7.3757696
73	0xbfa7649d	-1.307758
74	0x40daa1ca	6.8322496
75	0xc0aec644	-5.4617023
76	0xc03bf1f4	-2.9366426
77	0xc126f3c6	-10.434515
78	0x406d60c7	3.7090318
79	0xc0d4f6d1	-6.655129
80	0x4195ba33	18.715918
81	0x416b90bf	14.722838
82	0x40de8e15	6.954844
83	0x408d968c	4.4246273
84	0xc1851885	-16.636972
85	0xc1a02071	-20.01584
86	0x412ecae0	10.92453
87	0x4112c8f4	9.174061
88	0x40b068b8	5.512783
89	0x403c6539	2.9436781
90	0xc0824c6c	-4.071829
91	0xbeaf6851	-0.34259275
92	0xbf5727d0	-0.84045124
93	0x403fcf89	2.997042
94	0xc08de23f	-4.433868
95	0xc0a87a9d	-5.2649674
96	0x4116b67a	9.41955
97	0x41378685	11.470342
98	0xbeeba8e2	-0.46027285
99	0x41841b0d	16.513208
100	0x40aaf6ce	5.3426275
101	0xc1075cd5	-8.460164
102	0x413d3fb1	11.82805
103	0xc0a1195c	-5.0343456
104	0xc114e32a	-9.30546
105	0x40895a74	4.2922916
106	0x415dd1d1	13.863725
107	0xc11a2480	-9.633911
108	0xc0934aac	-4.602865
109	0xc14adc0a	-12.67872
110	0x40cd5518	6.4166374
111	0xc0b625b3	-5.692102
112	0xc115b296	-9.3561
113	0x40b7da8c	5.745428
114	0x4084e5fd	4.1530747
115	0xc107e890	-8.494278
116	0x40d37846	6.608432
117	0x3fe70ebd	1.8051373
118	0x40d004c6	6.5005827
119	0x4110af08	9.042732
120	0x40f942aa	7.7893877
121	0xc0d2e55e	-6.590499
122	0xbfd33d6f	-1.6503123
123	0x40a6d806	5.21387
124	0x417aa2c0	15.664734
125	0xc1144f3b	-9.269343
126	0xc09e7a01	-4.952393
127	0x408c2b62	4.3802958

convs.0.bn1.running_var f4 [128]
0	0x430b4f95	139.31087
1	0x42a53184	82.59671
2	0x4294c132	74.377335
3	0x429da350	78.81897
4	0x42785d47	62.09109
5	0x4312f7e7	146.96837
6	0x428e1e0c	71.058685
7	0x42d38478	105.75873
8	0x42ed9d73	118.80752
9	0x42a7b81e	83.859604
10	0x4305fabf	133.97948
11	0x42c54a36	98.64494
12	0x4328c220	168.7583
13	0x4318ce18	152.80505
14	0x42b16831	88.7035
15	0x4326b1ec	166.695
16	0x42febffc	127.37497
17	0x431b9398	155.57654
18	0x42cdea27	102.95733
19	0x43407df7	192.49205
20	0x434d1e7f	205.11913
21	0x42e9af08	116.84186
22	0x427af548	62.739532
23	0x43560df5	214.05452
24	0x4307d312	135.8245
25	0x431d8466	157.51718
26	0x430bceb6	139.80746
27	0x42c89bfa	100.30464
28	0x4241d2ba	48.455788
29	0x43a6324a	332.39288
30	0x42fe778a	127.233475
31	0x42cb6228	101.69171
32	0x433623e4	182.1402
33	0x42e0a948	112.33063
34	0x42e43b25	114.11552
35	0x430dcbfe	141.79684
36	0x4305b09c	133.68988
37	0x42d3cf5e	105.905014
38	0x42fb1242	125.53566
39	0x4303a55b	131.64592
40	0x430718ba	135.09659
41	0x42f34048	121.62555
42	0x4313edda	147.92911
43	0x42f8abc2	124.335464
44	0x43159b89	149.60756
45	0x431eb3ae	158.70187
46	0x4325ea74	165.91583
47	0x42a3c896	81.89177
48	0x4292f730	73.48279
49	0x42fbda21	125.92603
50	0x4282493b	65.14303
51	0x425b4911	54.821354
52	0x4308cd6a	136.8024
53	0x430108e6	129.03476
54	0x4339fd9d	185.99068
55	0x4302cfd7	130.81187
56	0x42ea01fd	117.00388
57	0x434cae3c	204.6806
58	0x432a3361	170.2007
59	0x42c9e03b	100.93795
60	0x42d9e7e1	108.95289
61	0x4348ed2a	200.92642
62	0x42c32127	97.56475
63	0x42f7bf06	123.87309
64	0x430582a3	133.5103
65	0x430e2192	142.13113
66	0x42c091e2	96.28493
67	0x428eaec0	71.34131
68	0x429a6ea2	77.21608
69	0x4305c764	133.77887
70	0x430135a7	129.20958
71	0x431c0b86	156.04501
72	0x42913788	72.60846
73	0x42a00841	80.01612
74	0x42d200a1	105.00123
75	0x42bf3a8e	95.614365
76	0x42f5c570	122.88562
77	0x43423397	194.20152
78	0x42ac7edc	86.24777
79	0x42adc043	86.87551
80	0x430c1798	140.09216
81	0x42f7b1a0	123.846924
82	0x430ea5f7	142.6483
83	0x4313224e	147.134
84	0x43160f9e	150.061
85	0x42e28165	113.25272
86	0x42eb17ec	117.54672
87	0x42e86964	116.20584
88	0x431a57f2	154.34354
89	0x42cc531f	102.162346
90	0x42581308	54.018585
91	0x4326b7e7	166.71837
92	0x42dbb450	109.85217
93	0x4352e8dc	210.9096
94	0x42c4624a	98.19197
95	0x435c22e9	220.13637
96	0x4320320b	160.19548
97	0x42ae6f42	87.2173
98	0x4305f933	133.97343
99	0x42cf1b45	103.55326
100	0x43013c7c	129.23627
101	0x42041401	33.019535
102	0x43035541	131.33302
103	0x434555ba	197.33487
104	0x43267d47	166.48936
105	0x42a0bc03	80.36721
106	0x432050f8	160.31628
107	0x42decf91	111.4054
108	0x42eb740b	117.72665
109	0x43238289	163.5099
110	0x4309f911	137.97292
111	0x431cfc44	156.98541
112	0x42cfbdf2	103.87099
113	0x42da7a74	109.23917
114	0x4312f176	146.9432
115	0x42e37590	113.729614
116	0x42ce0215	103.00407
117	0x42d9f5bb	108.97994
118	0x42de4496	111.13396
119	0x42a23c4c	81.11777
120	0x42fcea85	126.458046
121	0x431d09f7	157.03893
122	0x4308ab3f	136.66893
123	0x42d91fe7	108.56231
124	0x4303cfce	131.81174
125	0x431ad3df	154.82762
126	0x4271c455	60.44173
127	0x42e7e91e	115.95531

convs.0.bn2.weight f4 [64]
0	0x3f6a5e05	0.9154971
1	0x3f10d998	0.5658202
2	0x3f3d8ba5	0.74041206
3	0x3f2f4bcf	0.6847505
4	0x3f866369	1.0499088
5	0x3ec53cbe	0.38522905
6	0x3f19401b	0.5986344
7	0x3f8b55a6	1.0885513
8	0x3f1feb44	0.6246836
9	0x3fa9ac29	1.3255664
10	0x3eb85aec	0.36006868
11	0x3f84e497	1.038226
12	0x3f5790ef	0.84205526
13	0x3f8217b7	1.0163487
14	0x3f8f6061	1.1201288
15	0x3fad6fc5	1.3549734
16	0x3f003710	0.5008402
17	0x3f41952f	0.7561826
18	0x3f6f22c2	0.9341241
19	0x3fe40e70	1.7816906
20	0x3fbd88d8	1.4807386
21	0x3ec8169c	0.3907975
22	0x3ebadf15	0.36498323
23	0x3f92a5d7	1.145686
24	0x3f1f619e	0.62258327
25	0x3f426e50	0.75949574
26	0x3e944c38	0.289644
27	0x3f10172d	0.56285363
28	0x3ec95a3f	0.39326665
29	0x4029ebf7	2.6550272
30	0x3f878336	1.0586917
31	0x3f0561da	0.52102435
32	0x3f774e8e	0.9660424
33	0x3f7c3c34	0.9852936
34	0x3f08d6cc	0.53452754
35	0x3ed41fc5	0.41430488
36	0x3f11dc33	0.5697662
37	0x3f66ec6a	0.9020449
38	0x3ec394bd	0.38199416
39	0x3fb111f4	1.3833604
40	0x3f967acc	1.1756225
41	0x3ed8e50b	0.42362246
42	0x3effea19	0.4998329
43	0x3f82c8ba	1.0217507
44	0x3f809d07	1.0047921
45	0x3e569de9	0.20958675
46	0x3ff7cfee	1.936033
47	0x3f34fa6d	0.7069462
48	0x3f16f1c5	0.5896266
49	0x3f4097cb	0.7523162
50	0x3f73e20b	0.9526679
51	0x3f5e9949	0.86952645
52	0x3eb6d5c4	0.35709965
53	0x3f79724d	0.97440034
54	0x3f998cf2	1.1996138
55	0x3ebd08e5	0.36920848
56	0x3f8abe48	1.0839319
57	0x3ec51b0a	0.38497192
58	0x3ed6c3bd	0.4194621
59	0x3eb8e7fe	0.36114496
60	0x3efdd66c	0.49577653
61	0x4011f2eb	2.2804515
62	0x3f81e936	1.0149295
63	0x3f31c42c	0.6943996

convs.0.bn2.bias f4 [64]
0	0xbf8ea960	-1.1145439
1	0xbfb134ee	-1.3844278
2	0xbf3b78c7	-0.73231167
3	0xbf2a67e0	-0.6656475
4	0x3e1f183c	0.15536588
5	0xbfff17ed	-1.9929177
6	0xbf81e8eb	-1.0149206
7	0xbf5d7303	-0.8650362
8	0xbf0fa5e6	-0.56112516
9	0x3ee06067	0.4382355
10	0xbfee54f6	-1.8619678
11	0x3ee00115	0.43750826
12	0xbf4b7231	-0.7947112
13	0xbfd2f564	-1.6481137
14	0xbf51918d	-0.8186272
15	0xbf8db4ad	-1.1070763
16	0xbf9ba607	-1.2160043
17	0xbf78249f	-0.9693088
18	0xbf73ec08	-0.9528203
19	0xbfa8eb66	-1.3196838
20	0xbf09def3	-0.5385582
21	0xbf882711	-1.0636922
22	0xbfb24970	-1.3928661
23	0xbea6d492	-0.32584053
24	0xbfa491ec	-1.2857032
25	0xbf931d3c	-1.1493297
26	0xbfcad3bd	-1.5845867
27	0xbf95db95	-1.1707636
28	0xbfc92d54	-1.5716958
29	0xbf9cf57e	-1.2262418
30	0x3ea0f1bb	0.31434426
31	0xbfacee3a	-1.3510201
32	0xbfa58198	-1.2930174
33	0xbfa4b3bb	-1.2867349
34	0xbfa04805	-1.2521979
35	0xbfaabb6b	-1.3338445
36	0xbf981eeb	-1.1884435
37	0x3dd9144c	0.105995744
38	0xbf7270cd	-0.9470337
39	0xbfa049d5	-1.2522532
40	0xbf559337	-0.8342776
41	0xbfaca47b	-1.3487695
42	0xbf920862	-1.1408808
43	0xbf4517a2	-0.76989186
44	0xbf6f7e29	-0.9355188
45	0xbfa7d02f	-1.3110408
46	0xbfca1efa	-1.5790703
47	0xbe9e1352	-0.30874115
48	0xbef9f48c	-0.48819387
49	0xbf60e832	-0.878543
50	0xbf749c08	-0.95550585
51	0xbe9c8c41	-0.30575755
52	0xbf93fccf	-1.1561526
53	0xbfbcd977	-1.4753865
54	0xbf7d9b0c	-0.9906471
55	0xbff2cef6	-1.896941
56	0xbfa51314	-1.2896447
57	0xbfb2757b	-1.3942102
58	0xbfc4e22f	-1.5381526
59	0xbfd9afc0	-1.700676
60	0xbf8fadc5	-1.1224905
61	0xbfa58d2e	-1.293371
62	0xbf23a7c1	-0.6392785
63	0xbf9ba6eb	-1.2160314

convs.0.bn2.running_mean f4 [64]
0	0x40870891	4.2197957
1	0x412c2326	10.758581
2	0x41a5ae1c	20.710014
3	0x408712b2	4.221032
4	0x411416ec	9.255596
5	0x3fb61683	1.422562
6	0x40607002	3.5068364
7	0x41595ddc	13.585415
8	0x413d6eb4	11.839527
9	0x4193f53f	18.49475
10	0x3e90546a	0.28189403
11	0x419eea0e	19.864285
12	0x4125381c	10.326199
13	0x41129b14	9.162861
14	0x40d8e48b	6.7778983
15	0x41366d33	11.40166
16	0x41093f0d	8.577893
17	0x40fe3f7e	7.9452505
18	0x40d733c0	6.725067
19	0x410cc6b4	8.7985115
20	0x413b9148	11.722969
21	0x40958920	4.672989
22	0x3feeb190	1.8647938
23	0x41735a97	15.209617
24	0x4116be74	9.421497
25	0x4168e91c	14.556911
26	0x3e88c703	0.26714334
27	0x40bfbefa	5.9920626
28	0x3e4f508c	0.2024557
29	0x4180cfa5	16.101389
30	0x41d2e46f	26.36154
31	0x4136746a	11.403421
32	0x412dbbe3	10.858371
33	0x40e8f03b	7.279325
34	0x40a0a272	5.0198298
35	0x4082096c	4.06365
36	0x4071c0ca	3.777392
37	0x40c79186	6.236514
38	0x4079e6e8	3.9047184
39	0x40f9fd15	7.812144
40	0x417de0bc	15.867367
41	0x41024cf9	8.143792
42	0x41685919	14.521752
43	0x418c19c2	17.512577
44	0x4182ae88	16.33522
45	0x3eca2581	0.39481738
46	0x413d1944	11.818668
47	0x41509f9c	13.038967
48	0x3fe3ccf4	1.7796922
49	0x40977430	4.732933
50	0x4080db64	4.026781
51	0x41669d82	14.413454
52	0x3f94541a	1.1588166
53	0x41423dd8	12.140099
54	0x41137aa1	9.217439
55	0x4026dd7b	2.607268
56	0x411775dc	9.466274
57	0x3f9a186e	1.2038705
58	0x405b91c0	3.4307709
59	0x3fa4036e	1.2813547
60	0x40f13327	7.537494
61	0x41872b93	16.896276
62	0x41924c67	18.287306
63	0x405a9584	3.4153757

convs.0.bn2.running_var f4 [64]
0	0x413e733c	11.903133
1	0x42428d0f	48.637753
2	0x43acf63f	345.9238
3	0x415a6eb6	13.652029
4	0x41d8a223	27.079168
5	0x41130465	9.188573
6	0x414c123a	12.75445
7	0x424ef0af	51.735043
8	0x42c5b2e7	98.84942
9	0x42c7b3de	99.8513
10	0x4048d9e3	3.1382987
11	0x4267ad3a	57.919167
12	0x42477a8c	49.869675
13	0x41d3eabf	26.489622
14	0x41dc1298	27.509079
15	0x423ab0f4	46.672806
16	0x42589ea0	54.154907
17	0x41c8ff2e	25.1246
18	0x4244cce5	49.200092
19	0x41f36807	30.425795
20	0x429cfb86	78.49126
21	0x4173383a	15.201227
22	0x40677305	3.6163952
23	0x42835d1c	65.681854
24	0x424df183	51.48585
25	0x43bcf252	377.89313
26	0x3f2c763a	0.673679
27	0x41df3903	27.902838
28	0x3f1b693b	0.60707444
29	0x42b06018	88.18768
30	0x43807eed	256.9916
31	0x42a6eabc	83.458466
32	0x41c4923e	24.571407
33	0x41d08f08	26.06984
34	0x42389f35	46.155476
35	0x419d15d7	19.635664
36	0x41968384	18.814217
37	0x420dff87	35.49954
38	0x413b4b68	11.70591
39	0x41a1f908	20.246597
40	0x43046f07	132.4337
41	0x429f1329	79.53742
42	0x438652f0	268.64795
43	0x42d57183	106.7217
44	0x4231f48d	44.48882
45	0x3f205e4c	0.62643886
46	0x42043a45	33.056904
47	0x4219036c	38.25334
48	0x40a232e9	5.0687146
49	0x4198339f	19.025206
50	0x4209ca4f	34.447567
51	0x42ddada4	110.83914
52	0x40a63a0d	5.1945863
53	0x41d1d7d8	26.230392
54	0x4236474b	45.569622
55	0x41902ce8	18.021927
56	0x41eb4767	29.409864
57	0x4013b2e3	2.3077934
58	0x41e4210b	28.516134
59	0x40c37657	6.108196
60	0x41eabab6	29.341167
61	0x4296e195	75.44059
62	0x43179421	151.57863
63	0x4114d32f	9.3015585

convs.1.fc_full.weight f4 [128, 169]
0	0xc008c10e	-2.1367831
1	0xbde77a14	-0.113025814
2	0x3fb4b03b	1.4116281
3	0xbe44cfad	-0.19219847
4	0x3ecc9836	0.39959878
5	0x3f217d11	0.6308146
6	0x3e2d41d6	0.16919646
7	0x3f1a0278	0.60160017
8	0x3e82d2a7	0.2555134
9	0xbf1152ae	-0.56766784
10	0xbf929507	-1.145173
11	0xbfa5061b	-1.2892488
12	0xbfa5493a	-1.2912972
13	0x3d62ce9e	0.055372827
14	0x3f6b007c	0.91797614
15	0x3e978cf5	0.2959973
16	0xbed2005b	-0.41015896
17	0x3dcc3cbc	0.09972522
18	0xbede66bf	-0.43437764
19	0x3f9fb5c0	1.2477341
20	0x3e611ec5	0.21984394
21	0x3f64153c	0.890949
22	0xbeaa9e81	-0.33324054
23	0xbf7766ec	-0.9664142
24	0xbf087b6c	-0.53313327
25	0xbf8d0196	-1.1016109
26	0xbf1446b8	-0.5792041
27	0x3f249bd3	0.6430027
28	0xbfa79f36	-1.3095462
29	0xbeb96c9f	-0.36215684
30	0xbf14f568	-0.5818696
31	0x3e69d69c	0.22835773
32	0xbfbaa0da	-1.4580338
33	0x3e8183d6	0.25295895
34	0x3daf7f97	0.08569258
35	0xbf8e3f69	-1.1113101
36	0xbf5f21cb	-0.8716094
37	0xbe4d36f0	-0.20040488
38	0xbf7ace69	-0.97971207
39	0x3f377a81	0.716713
40	0x3e45180e	0.19247457
41	0xbc2eff31	-0.01068096
42	0xbf4f0a35	-0.8087495
43	0x3debfca0	0.11522794
44	0xbf42a644	-0.7603495
45	0x3f8702a2	1.0547678
46	0x3ed96a46	0.42463893
47	0x3f26460b	0.6495063
48	0xbe804261	-0.25050643
49	0xbe9112fe	-0.28334802
50	0xbf048ed7	-0.51780456
51	0x3e7bb9e2	0.24582627
52	0xbf9d511c	-1.2290378
53	0x3eb33a81	0.35005572
54	0xbed43dd5	-0.41453424
55	0xbfdca110	-1.7236652
56	0xbe87a534	-0.26493227
57	0xbed0cfea	-0.40783626
58	0x3f0d3668	0.5516114
59	0x3f00bbef	0.50286764
60	0xbe76d5e6	-0.24105033
61	0xbfc26bb4	-1.5189118
62	0x3f260d17	0.64863724
63	0xbd4d6727	-0.050147202
64	0xbfa5715e	-1.2925222
65	0x3e294ff4	0.16534406
66	0xbf4d72eb	-0.80253476
67	0x3f013228	0.5046716
68	0x3f8b2056	1.0869243
69	0x3dbae470	0.09125602
70	0xbe91b127	-0.2845547
71	0x3ee051a2	0.4381228
72	0x3fa89446	1.317025
73	0xbc8b227c	-0.016984217
74	0x3ce3e1ce	0.027817633
75	0xbf94bfe6	-1.1621063
76	0xbe941784	-0.2892419
77	0x3c3566a3	0.011071834
78	0x3f07c1f9	0.53030354
79	0xbca50353	-0.020143187
80	0xbba06a06	-0.0048954515
81	0x3df86d3a	0.12130208
82	0xbfc2f25e	-1.5230215
83	0x3f27be47	0.65524715
84	0x3d99a2e0	0.07501769
85	0x3f05413e	0.52052677
86	0xbf092c21	-0.5358296
87	0xbff748ad	-1.9319054
88	0xbf1c53e3	-0.610655
89	0xbf3f27fd	-0.7467039
90	0x3f3b950f	0.7327432
91	0x3eba75d1	0.36418012
92	0x3f86aa86	1.052079
93	0xbf82fa43	-1.0232624
94	0x3e95cdb7	0.2925851
95	0xbff32f21	-1.8998758
96	0xbf3e9be3	-0.74456614
97	0xbf073041	-0.52808005
98	0xbe013ce8	-0.1262089
99	0xbf0ddb76	-0.55412996
100	0x3f5386fc	0.82627845
101	0xbe84adb1	-0.25913766
102	0xbfab6399	-1.338977
103	0x3f394df9	0.723846
104	0xbec57010	-0.3856206
105	0xbf0f302a	-0.5593287
106	0x3eba7dff	0.36424252
107	0xbed64208	-0.41847253
108	0x3f36faa1	0.7147618
109	0x3fe6782f	1.8005427
110	0xbf79046d	-0.9727238
111	0x3f140916	0.57826364
112	0xbf197b7d	-0.59954053
113	0xc00c4081	-2.191437
114	0xbe2cc092	-0.16870335
115	0x3fffa8c8	1.9973383
116	0xbd80048e	-0.06250869
117	0x3fa3d9e4	1.280087
118	0xc00fd90a	-2.247622
119	0xbf8f5ea7	-1.1200761
120	0xbf7c4fea	-0.9855944
121	0xbfc1b9fb	-1.5134882
122	0x3e5d9bed	0.21641512
123	0xbf3e4720	-0.7432728
124	0x3f96926b	1.1763433
125	0xbf7ff5cd	-0.9998444
126	0x40216a99	2.5221312
127	0x3fc75dbd	1.5575482
128	0x3b18f91a	0.0023341835
129	0xbed0166d	-0.4064211
130	0xbfaeaa45	-1.3645712
131	0xbf958ffb	-1.1684564
132	0xbf642336	-0.8911623
133	0xbfa90af2	-1.3206465
134	0xbfc1077c	-1.5080409
135	0xbfc67063	-1.5503048
136	0xbfce9f04	-1.6142278
137	0x3e96fbeb	0.29489073
138	0x400e6d77	2.2254312
139	0x4059d14d	3.4033997
140	0xbf87d9ff	-1.0613402
141	0xbf377317	-0.7165999
142	0x3fb6ef44	1.4291768
143	0xbfb4c19c	-1.4121585
144	0xc052098f	-3.2818334
145	0xbf219d57	-0.63130707
146	0x401f3e65	2.4881833
147	0x3f8b5c2d	1.0887505
148	0xc05d80c8	-3.4609852
149	0xbf35f0a3	-0.7107031
150	0xbfc7719d	-1.5581547
151	0xc07eb003	-3.979493
152	0xc077280d	-3.8618195
153	0xbe98f37a	-0.29873258
154	0x3f954962	1.166302
155	0x3f44dc58	0.7689872
156	0x3edf3aaf	0.4359946
157	0x3eeb33e2	0.4593802
158	0xbefaa4ea	-0.48953944
159	0xbfac4ed0	-1.3461552
160	0xc032f38e	-2.7961154
161	0xc01ee0de	-2.4824748
162	0xc04466ea	-3.0687814
163	0xc02c7734	-2.6947756
164	0xbfaf51f2	-1.3696883
165	0xbe888b14	-0.26668608
166	0xbc735553	-0.014851886
167	0xbcae7faa	-0.02130111
168	0x3d64adf7	0.05582997
169	0xc03700b3	-2.8594177
170	0x3ec1c01a	0.37841874
171	0xbf3424a7	-0.7036843
172	0x3f689154	0.90846753
173	0x3f9a419f	1.2051276
174	0xbf8079fb	-1.0037225
175	0xc0055eb5	-2.0839055
176	0x3cdd1458	0.02698724
177	0xbee8bd05	-0.4545671
178	0x3f5c8ce0	0.8615246
179	0x3edbf74e	0.42962116
180	0x3fb2b789	1.396226
181	0xbf9b5113	-1.2134117
182	0x40242a90	2.5650978
183	0x3ede3563	0.43400106
184	0xbe4ccfd3	-0.20001154
185	0xbf5c980a	-0.86169493
186	0xbed10f46	-0.40831965
187	0xbf7a99c2	-0.97890866
188	0x400b33db	2.17504
189	0xbe4d8a0d	-0.20072193
190	0xbd0ef6e6	-0.03490343
191	0xbf1c1dcb	-0.6098296
192	0x3e742631	0.23842694
193	0x3f7ef4c9	0.9959226
194	0xbfc09687	-1.5045937
195	0x3ea85c9e	0.3288316
196	0xbf90eb44	-1.1321797
197	0x3ef4164d	0.47673264
198	0xbe43d159	-0.19122829
199	0xbef98cdb	-0.48740277
200	0xbd6edebb	-0.05831788
201	0xbec6832a	-0.38771945
202	0xbf278b1f	-0.65446657
203	0xbd974f2a	-0.07388146
204	0x3fbc6f0d	1.472139
205	0xbf827800	-1.0192871
206	0xbfbbe4fb	-1.4679254
207	0xbe9998d2	-0.29999405
208	0x3db637df	0.08897375
209	0xbfb0d881	-1.3816072
210	0x3dc8baf5	0.09801284
211	0xbec6c2a7	-0.38820383
212	0x3e824b9f	0.2544832
213	0xbeb50d9e	-0.35361952
214	0xbf532d80	-0.824913
215	0x400f39a6	2.2378936
216	0x3f752778	0.9576335
217	0xbf0ca235	-0.5493501
218	0x3e293380	0.16523552
219	0x3ee90916	0.45514745
220	0xbeced5f3	-0.40397605
221	0xbf71b441	-0.9441567
222	0x3fa4a1a5	1.286183
223	0xbfd15792	-1.6354849
224	0x3f18ae57	0.5964102
225	0x3f5f81bf	0.8730735
226	0x3ef29e84	0.47386563
227	0xbf558da4	-0.8341925
228	0x3ea372f6	0.31923646
229	0xbe35c9d0	-0.17752767
230	0xbf4b9de7	-0.79537815
231	0xbf4bb9a1	-0.7958012
232	0xc01b1f85	-2.4237988
233	0x4047ddb6	3.1229072
234	0x3f5bf077	0.85913795
235	0x3d3241ce	0.043519787
236	0x3ddc9808	0.10771185
237	0xbe537147	-0.2064868
238	0x3efd7b8c	0.4950832
239	0x407ffca8	3.999796
240	0x3ecceca4	0.40024292
241	0x3bdc8bf0	0.006730549
242	0xbf2e4452	-0.68073
243	0x3fa81fec	1.3134742
244	0xbf9c540a	-1.2213147
245	0x3f2ebe69	0.6825929
246	0x3f88af9c	1.0678592
247	0xbe2465c0	-0.1605444
248	0xbf52add3	-0.82296485
249	0x3fbb75a8	1.4645281
250	0x3d59f1e6	0.053209208
251	0xbe012755	-0.1261266
252	0xbf159025	-0.5842307
253	0x3f6d2699	0.9263702
254	0x3e63d12f	0.22247766
255	0xbf2c5d99	-0.6733032

convs.1.fc_full.bias f4 [128]
0	0xbe77be7e	-0.24193761
1	0xbf0b8cb8	-0.54511595
2	0xbd8ef9ed	-0.06981263
3	0xbf43073e	-0.76182926
4	0xbe9d6971	-0.30744508
5	0x3ea689cc	0.32527006
6	0xbda461d2	-0.0802647
7	0x3ef50ba5	0.47860447
8	0x3e8a50cb	0.27014765
9	0x3e05519d	0.13019414
10	0x3f5ad9ce	0.85488594
11	0x400983f7	2.1486795
12	0xbf798dc6	-0.97481954
13	0xbe5a7722	-0.21334508
14	0xbed77990	-0.42084932
15	0x3e303284	0.1720677
16	0x3df7ec78	0.1210565
17	0xbd701f8b	-0.05862383
18	0x3f20ddf0	0.6283865
19	0x3ed046b9	0.40678957
20	0xbdc44e37	-0.09585231
21	0x3eb85ce8	0.36008382
22	0x3e8c8bb7	0.27450344
23	0x3f2b0d65	0.66817313
24	0x3e606cc1	0.21916486
25	0x3f597266	0.84940183
26	0x3eb9930a	0.36244994
27	0x3d8b2a3e	0.067951664
28	0xbea749ee	-0.3267359
29	0xbdc4bd8c	-0.09606466
30	0xbee8b19c	-0.45448005
31	0x3f48b8fd	0.7840727
32	0xbeda2072	-0.4260288
33	0x3fc1d953	1.5144447
34	0x3f0888c6	0.533337
35	0xbf0d03bc	-0.55083823
36	0xbd4c2a3e	-0.049844973
37	0xbe4b29b7	-0.19840132
38	0xbf029551	-0.5100909
39	0x3ec2a69e	0.38017744
40	0x3f12e2b9	0.573772
41	0xbf179a01	-0.59219366
42	0x3e5451d1	0.20734335
43	0xbeb005b2	-0.34379345
44	0xbec3132d	-0.38100567
45	0xbdb70879	-0.08937163
46	0xbf2fdb81	-0.6869431
47	0x3e9c95f4	0.30583155
48	0x3eb495e3	0.35270604
49	0xbf0121a2	-0.50441945
50	0x3e89b3f5	0.2689511
51	0xbe9b6d91	-0.3035703
52	0xbf05c3b1	-0.52251726
53	0xbe8fb961	-0.2807112
54	0x3ebaf8f1	0.36518052
55	0x3e1a1625	0.1504751
56	0x3f2d73fe	0.67755115
57	0xbe52f613	-0.20601682
58	0xbf2b128a	-0.66825163
59	0x3cea880c	0.028629325
60	0x3e840004	0.25781262
61	0xbe72706c	-0.23675698
62	0x3dbc6b01	0.09200097
63	0x3e24888a	0.1606771
64	0x3d39356e	0.04521697
65	0x3e57cd3c	0.21074384
66	0xbf71924e	-0.9436387
67	0x3f67b1f3	0.90505904
68	0x3c6d3bcd	0.01447959
69	0x3efcfb54	0.49410498
70	0xbca5ec6d	-0.020254338
71	0xbe1c084c	-0.1523754
72	0x3c880a6c	0.016606532
73	0xbeba89a0	-0.36433125
74	0x3ebc4579	0.36771753
75	0x3fc1c961	1.5139581
76	0xbebbd418	-0.36685252
77	0x3dee0b55	0.11623255
78	0xbe9681d0	-0.29395914
79	0xbf24ddaf	-0.6440076
80	0xbf083cbd	-0.5321768
81	0x3e6bb706	0.23019037
82	0x3d1485c7	0.036260393
83	0xbe1c564a	-0.15267292
84	0x3cb9e47c	0.022691958
85	0xbed14c59	-0.4087856
86	0xbe981397	-0.29702446
87	0xbe16aaf2	-0.14713648
88	0x3e91cf59	0.28478506
89	0x3eafbe6e	0.34324974
90	0xbeb3ab03	-0.3509141
91	0x3e9d885f	0.30768105
92	0x3df3555d	0.11881516
93	0xbe149e80	-0.14513588
94	0x3e9d4bb9	0.30721834
95	0x3ea3a45c	0.31961334
96	0x3f1df78c	0.6170585
97	0xbea207df	-0.3164663
98	0xbf07b17f	-0.5300521
99	0xbe457ce1	-0.19285919
100	0xbe3efd4f	-0.18651317
101	0xbf8bf075	-1.0932757
102	0x3e3c4c6d	0.18388529
103	0xbe8ef01f	-0.27917573
104	0x3f3fe689	0.74961144
105	0xbf13d84d	-0.57751924
106	0xbf25a233	-0.6470062
107	0x3ed11d2e	0.40842575
108	0xbf4b1945	-0.79335433
109	0x3ea6271e	0.3245172
110	0xbef268c0	-0.47345543
111	0xbec23ce0	-0.3793707
112	0xbe2d5a77	-0.16929041
113	0x3e886414	0.26638854
114	0xbc13b177	-0.009014479
115	0x3f4c2f3a	0.7975956
116	0xbe71ac9d	-0.23601003
117	0xbf1f3e16	-0.6220411
118	0x3f2e4d8d	0.68087083
119	0x3e9d8e94	0.3077284
120	0x3f42081f	0.7579364
121	0xbf259c17	-0.646913
122	0xbd7e7abb	-0.062128764
123	0xbea82387	-0.32839605
124	0x3e420e74	0.18950826
125	0xbe53c5c9	-0.20680918
126	0x3e98eea5	0.2986957
127	0xbe2e5868	-0.17025912

convs.1.bn1.weight f4 [128]
0	0x3fbe31ff	1.4859008
1	0x40d74ef3	6.7283874
2	0x4068c11f	3.6367872
3	0x40b508b9	5.657315
4	0x40c8578e	6.260688
5	0x40a4fe40	5.1560364
6	0x40afd746	5.4950285
7	0x40e31138	7.095852
8	0x4064d652	3.575581
9	0x401c73c7	2.4445665
10	0x406ad811	3.6694376
11	0x41b292a5	22.321604
12	0x40fc8608	7.891361
13	0x4052d4f7	3.2942483
14	0x4070107e	3.7510066
15	0x408f5c01	4.479981
16	0x402a57a0	2.6615982
17	0x407a1ed4	3.9081316
18	0x40dfe0a3	6.9961715
19	0x40977c2f	4.733909
20	0x40298f53	2.6493728
21	0x40b46efb	5.6385474
22	0x4075bf45	3.8397992
23	0x40aa474f	5.3212047
24	0x409cee8c	4.9041195
25	0x40bfe294	5.9964085
26	0x40ac7154	5.388834
27	0x40b7440d	5.727057
28	0x40527556	3.2884116
29	0x4084a616	4.145274
30	0x4058663e	3.3812404
31	0x40713d7f	3.7693784
32	0x404afdc6	3.171739
33	0x410255ae	8.145918
34	0x40837f5b	4.1092963
35	0x40cd376f	6.413017
36	0x4086d339	4.213284
37	0x40964582	4.695985
38	0x40983491	4.756417
39	0x40841a26	4.128192
40	0x410e6068	8.898537
41	0x40d3afe8	6.615223
42	0x40b299e8	5.5812874
43	0x40c5ffe4	6.1874866
44	0x4040ba2a	3.0113626
45	0x40aba273	5.36358
46	0x40b6f917	5.7179065
47	0x40967d6c	4.7028103
48	0x4091858d	4.5475526
49	0x409f09f3	4.9699645
50	0x40aa2628	5.3171577
51	0x3ffe5882	1.987076
52	0x40aa77d7	5.327129
53	0x4045eae0	3.0924606
54	0x40fcd0c3	7.9004836
55	0x4055da01	3.341431
56	0x40cbfcac	6.3745937
57	0x403d7e53	2.9608352
58	0x40dbe28f	6.871406
59	0x40a25a21	5.073502
60	0x405b9949	3.4312308
61	0x4034a0bc	2.8223104
62	0x40115894	2.2710314
63	0x401447c5	2.3168805
64	0x3f89e9ef	1.0774516
65	0x3f7a9e3d	0.978977
66	0x4010dce6	2.2634826
67	0x3f857acd	1.0428101
68	0x3fcdca6c	1.6077399
69	0x3f09c966	0.53822935
70	0x3faf47c1	1.3693773
71	0x3fa558f9	1.2917777
72	0x402a22f1	2.6583827
73	0x4030ac2a	2.760508
74	0x3fa5a864	1.2942014
75	0x3f63a537	0.8892397
76	0x401ec8d3	2.4810073
77	0x40201f91	2.5019267
78	0x3ffc8dd1	1.9730779
79	0x4052f4c7	3.29619
80	0x414f266b	12.946879
81	0x401230b9	2.2842238
82	0x3ff3852f	1.902502
83	0x3f8e8395	1.1133906
84	0x3eee2e88	0.46519876
85	0x408b7a2f	4.358665
86	0x3f5710a5	0.8400977
87	0x409c16a0	4.877762
88	0x3f6298d7	0.88514465
89	0x3f9b5b32	1.2137206
90	0x4060b987	3.5113237
91	0x3f805f74	1.002913
92	0x4059a414	3.4006395
93	0x3f6381ea	0.8887011
94	0x3f2cc47c	0.6748731
95	0x400ed6dc	2.231864
96	0x3fcc8b4a	1.5980008
97	0x3feaf729	1.8356677
98	0x40c3905a	6.111371
99	0x3f6aac5a	0.9166924
100	0x403e89a4	2.977151
101	0x3ff96dcb	1.9486631
102	0x3f2863eb	0.6577746
103	0x407d145d	3.9543679
104	0x3edf9dd2	0.43675095
105	0x40679e74	3.6190462
106	0x3fb3aa4f	1.4036349
107	0x3fcb91d5	1.590388
108	0x3fa93b47	1.3221215
109	0x3f0c0693	0.5469753
110	0x3fa50819	1.2893096
111	0x4066fc9f	3.6091688
112	0x409d35d0	4.912819
113	0x3f304139	0.6884952
114	0x3f52e0f5	0.8237451
115	0x3eaf8ce8	0.3428719
116	0x40153a21	2.331673
117	0x4031098d	2.766208
118	0x3fe767b0	1.8078518
119	0x3fde7369	1.737897
120	0x3f5fcc7c	0.87421393
121	0x4082c7f7	4.08691
122	0x3f7f8c77	0.9982371
123	0x3fc717d4	1.5554147
124	0x3f9371f4	1.1519151
125	0x3fd1af37	1.6381596
126	0x3ff8484c	1.9397063
127	0x3fbd4ee3	1.4789699
