results/CrystalAE/2023-06-14/23:17:15.830558/models/model53.pth (torch, 429732 bytes, 37 tensors)

embedding.weight f4 [64, 92]
0	0xbe22ab7f	-0.15885733
1	0xbe389db2	-0.18028906
2	0xbd120853	-0.03565247
3	0x3ed267c5	0.41094795
4	0x3db1796a	0.08665736
5	0xbe10b99f	-0.14133309
6	0x3f36dce7	0.7143082
7	0xbf256202	-0.64602673
8	0xbeda555e	-0.42643255
9	0x3ecf22c5	0.40456215
10	0xbe86783c	-0.26263607
11	0xbdffd0c4	-0.12490991
12	0xbcb8f0a6	-0.022575688
13	0xbe9350a0	-0.2877245
14	0xbe928e4c	-0.2862419
15	0xbcb57e44	-0.022154935
16	0xbda3eb1e	-0.080038294
17	0x3e61502d	0.22003241
18	0x3f78f8f2	0.9725486
19	0x3d13a826	0.03604903
20	0x3e2d2edb	0.16912405
21	0xbe3ccb2d	-0.1843688
22	0xbe3d0a94	-0.18461066
23	0xbe68f3f0	-0.22749305
24	0xbe88f073	-0.26745948
25	0x3f68afd2	0.9089328
26	0x3d327306	0.043566726
27	0x3e972a44	0.29524434
28	0xbdcc450c	-0.09974107
29	0x3e96fd8f	0.29490325
30	0xbd50b671	-0.05095524
31	0x3e331b3e	0.17490861
32	0x3e9abae1	0.30220702
33	0x3e604d01	0.21904375
34	0xbd9993bb	-0.074988805
35	0x3ca003ff	0.019533155
36	0xbdaf47ef	-0.08558642
37	0xbe3bba8d	-0.18332882
38	0x3c4afc38	0.012389235
39	0xbe221df8	-0.15831745
40	0xbe08ae79	-0.13347806
41	0x3d572264	0.05252303
42	0x3dc0411b	0.09387418
43	0xbe591de2	-0.21202806
44	0xbe03bf99	-0.12866057
45	0x3ed94a26	0.42439383
46	0xbe4ccd68	-0.20000231
47	0xbcaf4c61	-0.021398725
48	0x3c0601c1	0.008179129
49	0xbdbe45a5	-0.092906274
50	0xbdf5cb75	-0.12001697
51	0x3e053f2e	0.13012382
52	0xbd718b6b	-0.05897085
53	0xbe6c7b64	-0.23093945
54	0x3eb00ff8	0.34387183
55	0xbe7ed11a	-0.24884453
56	0xbe69e0d5	-0.22839673
57	0xbd171cd0	-0.036892712
58	0x3dc4fcbf	0.0961852
59	0xbe225965	-0.15854414
60	0xbeb8972c	-0.36052835
61	0x3e468a76	0.19388756
62	0xbe9478ad	-0.28998318
63	0xbe24d881	-0.16098215
64	0xbd82607c	-0.06366059
65	0x3d19883d	0.037483443
66	0xbcc73206	-0.024315845
67	0x3e6fc193	0.23413686
68	0xbf478b55	-0.7794698
69	0x3d47f906	0.04882147
70	0x3e03d78f	0.12875198
71	0x3d8282c7	0.063726
72	0xbe184ca4	-0.14872986
73	0xbdd40ac3	-0.10353615
74	0xbd909f54	-0.070616394
75	0x3e82d9d2	0.2555681
76	0x3d2f0e4f	0.042738255
77	0x3d4c5943	0.049889814
78	0xbd997966	-0.07493858
79	0xbd718dac	-0.058973
80	0xbd0272a7	-0.031847622
81	0xbde6799f	-0.11253666
82	0xbde51320	-0.111852884
83	0xbe479e52	-0.19493988
84	0x3eba3e85	0.36375824
85	0xbd5d607a	-0.054047085
86	0xbdad7c65	-0.08470992
87	0x3baf2aff	0.0053457017
88	0x3eb2a374	0.3489033
89	0xbddc9c93	-0.10772052
90	0x3db64245	0.08899359
91	0x3e1decdf	0.1542239
92	0x3d173d05	0.036923427
93	0x3de93c13	0.113884114
94	0xbdd0ca63	-0.10194852
95	0xbf7fd5fc	-0.9993589
96	0x3ec1f1cb	0.37879786
97	0x3f50c178	0.8154521
98	0x3f396a28	0.72427607
99	0x3f86b839	1.052497
100	0x3d3c42f0	0.045962274
101	0xbe25059c	-0.16115421
102	0xbf0cf743	-0.5506479
103	0xbf496a3f	-0.78677744
104	0xbd3fb2fb	-0.04680155
105	0x3e71d2fd	0.23615642
106	0xbed13ee3	-0.4086829
107	0xbe2edb73	-0.170759
108	0x3d7169ab	0.058938663
109	0xbe878be6	-0.26473922
110	0x3de3549b	0.111001216
111	0xbd9e44ad	-0.077279426
112	0x3e8a898e	0.2705807
113	0xbd8c0473	-0.06836786
114	0xbe2bf4d3	-0.16792612
115	0x3d311d1f	0.043240663
116	0xbf173412	-0.5906383
117	0xbe7e369d	-0.24825521
118	0xbe3f82a1	-0.18702175
119	0xbc560066	-0.013061618
120	0xbd285f30	-0.041106403
121	0xbce92fc0	-0.028465152
122	0x3ce642ca	0.02810802
123	0xbe50e6d4	-0.20400554
124	0x3ea26e13	0.31724605
125	0xbf07c38e	-0.5303277
126	0xbe18a0b4	-0.14905053
127	0x3e64e156	0.22351584
128	0x3bacb1c7	0.005270216
129	0xbcbead87	-0.023276104
130	0xbd4f5ce8	-0.05062571
131	0xbe8be575	-0.273235
132	0x3edc75d3	0.43058643
133	0xbec3bb23	-0.3822871
134	0xbed8449c	-0.42239845
135	0xbec9804d	-0.39355698
136	0xbc9110ab	-0.017708143
137	0x3e40dbdf	0.18833874
138	0x3d54e18b	0.051972907
139	0xbdb5dbc5	-0.08879808
140	0xbe9e89df	-0.30964562
141	0xbe309332	-0.1724365
142	0x3e85d309	0.2613757
143	0x3e890218	0.2675941
144	0x3e6b17f8	0.22958362
145	0x3bc7742b	0.0060868463
146	0xbe129df6	-0.1431807
147	0x3f141759	0.57848126
148	0xbf4e2ff3	-0.80541915
149	0xbf85a1be	-1.0439985
150	0xbe947299	-0.2899368
151	0xbea242df	-0.31691644
152	0xbd0d2e92	-0.03446824
153	0x3daad8a6	0.08342104
154	0x3e6068fc	0.21915048
155	0x3e44469d	0.19167562
156	0xbefc31ce	-0.49256748
157	0x3e4410fa	0.19147101
158	0xbdbdcaef	-0.09267222
159	0x3e14b28a	0.14521232
160	0xbf927b24	-1.144383
161	0x3dce84bb	0.1008391
162	0x3eb1afa7	0.34704325
163	0x3dab3a20	0.08360696
164	0x3f2cf6cf	0.675641
165	0xbe2ca5c0	-0.16860104
166	0xbec35737	-0.38152477
167	0x3e1343ee	0.14381382
168	0x3d8e9865	0.06962661
169	0xbe3efd68	-0.18651354
170	0xbd320ddf	-0.04347026
171	0xbefdffe5	-0.49609295
172	0x3bac5e66	0.0052602766
173	0x3cc2dbff	0.023786543
174	0xbf44dcdf	-0.7689952
175	0xbcbfccf4	-0.023413159
176	0xbeb3e067	-0.35132143
177	0x3eec594c	0.46161878
178	0x3de3079a	0.11085434
179	0xbdf31f47	-0.118712
180	0xbe1e66c7	-0.15468894
181	0x3dbdc220	0.09265542
182	0xbe8f57c3	-0.27996644
183	0xbdd2e538	-0.10297626
184	0xbe81b6e2	-0.2533484
185	0xbe19b9c1	-0.15012266
186	0xbc24a10b	-0.010048161
187	0xbf1a3465	-0.602362
188	0xbe1117aa	-0.14169183
189	0x3e259e69	0.1617371
190	0x3f118972	0.5685035
191	0x3dc5777c	0.096419305
192	0x3cb822f9	0.022477614
193	0x3f05cc8c	0.5226524
194	0x3e318dea	0.17339292
195	0xbe372a32	-0.1788719
196	0xbf201ae5	-0.6254104
197	0x3e989977	0.29804584
198	0x3ce60261	0.028077306
199	0xb92e75bf	-0.00016637797
200	0xbe1bd994	-0.15219718
201	0xbdb17fe2	-0.0866697
202	0xbe6b0507	-0.22951137
203	0xbd8e64d7	-0.069528274
204	0xbdd18947	-0.10231262
205	0xbe64e513	-0.2235301
206	0xbdbc2a29	-0.09187729
207	0xbe3d0ef9	-0.18462743
208	0x3d23dbe8	0.04000464
209	0x3f1145c5	0.56747085
210	0x3de7e560	0.11323047
211	0x3dae07a9	0.08497555
212	0x3e1e5116	0.1546062
213	0x3d60419a	0.054750063
214	0xbd24b834	-0.040214732
215	0x3d9236ab	0.07139333
216	0xbebbf1af	-0.36707827
217	0xbdfbb5b2	-0.12290515
218	0x3d2b40c6	0.04180982
219	0xbdede2ed	-0.11615548
220	0xbdeeaf96	-0.11654584
221	0xbdd0cdcf	-0.10195505
222	0x3d5cfef0	0.053954065
223	0x3d97e73e	0.07417153
224	0x3e07311d	0.13202329
225	0xbc005a6e	-0.00783406
226	0xbe63b0f0	-0.22235465
227	0xbed2a110	-0.41138506
228	0xbde110d2	-0.10989536
229	0xbdbeee06	-0.09322743
230	0xbe0a24b8	-0.1349057
231	0xbdddbc6f	-0.108269565
232	0xbd4ef35e	-0.05052506
233	0xbe7f05bb	-0.2490453
234	0x3e493ad6	0.1965135
235	0xbc9156af	-0.01774153
236	0x3d6d2a04	0.057901397
237	0xbdf6b311	-0.12045873
238	0x3ead0259	0.33790854
239	0xbecbfc41	-0.39840892
240	0xbd9944ab	-0.074838005
241	0x3dc98321	0.09839464
242	0x3d900f25	0.070341386
243	0x3eead437	0.45865032
244	0xbd9ce4bd	-0.07660816
245	0xbeb2416d	-0.3481554
246	0xbc90af9b	-0.01766186
247	0xbe484d26	-0.1956068
248	0x3e7f02fa	0.24903479
249	0xbd9a6934	-0.07539597
250	0x3d842bbe	0.06453656
251	0x3e7769a8	0.24161398
252	0xbe5344fd	-0.20631786
253	0xbdaf86c8	-0.08570629
254	0xbe70c788	-0.23513615
255	0x3b0ddd5f	0.002164684

convs.0.fc_full.weight f4 [128, 169]
0	0xbe97491f	-0.29547974
1	0x3b4d4b7d	0.0031325512
2	0x3e3bad4e	0.18327829
3	0x3e2bdc4a	0.16783252
4	0xbcab0410	-0.02087596
5	0x3f30b08e	0.690194
6	0xbe2daf86	-0.16961488
7	0x3c629151	0.013828591
8	0x3e2186f0	0.15774131
9	0xbb264e59	-0.0025376289
10	0x3dc9460f	0.09827816
11	0x3d2ffef9	0.04296777
12	0xbd8a0471	-0.067391284
13	0x3efc4c24	0.4927684
14	0xbf2a266b	-0.6646487
15	0xbe3ac429	-0.18238892
16	0x3ece607f	0.40307996
17	0x3e020ede	0.12700984
18	0x3ec6d1d0	0.3883195
19	0x3ec5c6c8	0.3862822
20	0x3ed11e65	0.40843502
21	0xbebe5ccc	-0.37180173
22	0x3f0117dd	0.5042704
23	0x3c8737e7	0.016506149
24	0x3e32282a	0.17398134
25	0x3ec16747	0.37774107
26	0xbd85f5d1	-0.065410264
27	0xbf3df2f1	-0.74198824
28	0xbe8e6766	-0.27813262
29	0x3ea7a02f	0.32739398
30	0xbedf00e3	-0.43555364
31	0x3e5757cd	0.21029587
32	0xbfa0fb70	-1.2576733
33	0x3ec920d6	0.39282864
34	0xbf067299	-0.5251861
35	0xbe4f2697	-0.20229565
36	0xbf1c3696	-0.6102079
37	0xbe63a8be	-0.22232339
38	0xbebb81e0	-0.36622524
39	0xbe5c954f	-0.21541332
40	0xbed57c91	-0.416966
41	0x3e1c5151	0.15265395
42	0xbf20426a	-0.6260134
43	0x3ecdc0a5	0.4018604
44	0x3ed0746a	0.40713817
45	0x3e763534	0.24043733
46	0x3f0a327c	0.53983283
47	0xbe04a80a	-0.12954727
48	0xbd5f326c	-0.054491445
49	0xbd24808d	-0.040161658
50	0xbf0872a8	-0.5329995
51	0x3e534498	0.20631635
52	0x3e26ee0e	0.16301748
53	0xbf03bf0c	-0.5146339
54	0x3c0f6a76	0.00875341
55	0xbd7d63de	-0.06186282
56	0xbe0dcfb6	-0.13848767
57	0x3e842362	0.25808245
58	0x3d621e14	0.055204466
59	0x3da50468	0.08057481
60	0xbaea1fa6	-0.0017862215
61	0xbeb27382	-0.3485375
62	0xbf1c2f91	-0.6101008
63	0x3e0c05bc	0.13674062
64	0xbfba7c72	-1.4569228
65	0x3e90d5c9	0.28288105
66	0x3ed216da	0.4103306
67	0xbe75d245	-0.24005993
68	0x3f0c94b9	0.5491443
69	0xbe667787	-0.22506534
70	0x3e875726	0.26433676
71	0x3dcfd0c2	0.10147239
72	0x3e20c51d	0.15700193
73	0x3f69ff05	0.91404754
74	0x3f1165d8	0.56796026
75	0xbf69698a	-0.91176665
76	0xbeabf700	-0.33586884
77	0x3f48852a	0.7832819
78	0x3f07050b	0.5274207
79	0xbf694cfb	-0.9113309
80	0xbe837d0f	-0.2568135
81	0x3f54eea9	0.83176666
82	0x3f5355e7	0.8255295
83	0x3ec1a18e	0.3781857
84	0xbf9817ce	-1.1882265
85	0x3f530256	0.8242544
86	0x3edd6df5	0.43247953
87	0x3f28e1c6	0.659695
88	0x3f415dfc	0.75534034
89	0xbf2a441d	-0.6651018
90	0xbebf852b	-0.37406287
91	0x3f85473d	1.0412365
92	0x3f69d875	0.9134591
93	0xbf18a5ea	-0.59628165
94	0x3d7f9491	0.062397543
95	0x3e9f4723	0.3110896
96	0xbf6c0446	-0.9219402
97	0xbefa7412	-0.4891668
98	0xbe0b4fb3	-0.13604622
99	0x3fb2351d	1.3922459
100	0x3fa8fd38	1.3202276
101	0xbf15a8ac	-0.584605
102	0x3d71ea04	0.059061065
103	0x3f13814f	0.57619184
104	0xbf352c2e	-0.7077054
105	0xbf1b5738	-0.6067996
106	0x3de0395e	0.10948442
107	0xbfaf81b2	-1.3711455
108	0x3f101b02	0.5629121
109	0x3eae43f9	0.34036234
110	0xbfd5ba7b	-1.6697534
111	0xbe2ad6b3	-0.16683464
112	0x3f1bce4d	0.60861665
113	0xbe06f288	-0.13178456
114	0x3f098196	0.5371336
115	0x3ed3ba4d	0.41353074
116	0x3b5a5b4d	0.003331858
117	0x3f500b5e	0.81267345
118	0xbe8ba3db	-0.2727345
119	0xbecd1b55	-0.40059915
120	0x3dfe58b3	0.12419262
121	0xbe17903f	-0.1480112
122	0x3eb49f3c	0.35277736
123	0xbea39df6	-0.31956452
124	0xbf28b191	-0.65895945
125	0x3f4d8560	0.8028164
126	0xbf920cf3	-1.1410202
127	0x3eadfb2a	0.33980685
128	0x3d46a6d8	0.04849896
129	0x3d13bf59	0.036071155
130	0x3f399ad0	0.7250185
131	0x3e89976e	0.26873344
132	0xbe37a0cc	-0.17932433
133	0xbe172ec3	-0.14763932
134	0x3f36a054	0.7133839
135	0xbeb2995b	-0.34882626
136	0xc04ed90c	-3.2319975
137	0xc02d7852	-2.7104688
138	0x3e9d9583	0.3077813
139	0x3fd5d938	1.6706915
140	0x3f5e5040	0.868412
141	0x3f4e41a4	0.8056891
142	0x3fc28817	1.5197781
143	0xbf9faed8	-1.2475233
144	0x400aba06	2.167604
145	0x3f7cfbee	0.98821914
146	0xc04fd2ed	-3.247249
147	0xc081e658	-4.059368
148	0xc0033e53	-2.050679
149	0xbfb32fe9	-1.3998996
150	0x3f8a104a	1.0786221
151	0x3fced71c	1.6159396
152	0x3ff4ee9b	1.9135317
153	0xbe8eeb6d	-0.2791399
154	0xc0056754	-2.0844316
155	0xbfb265ab	-1.3937277
156	0xbf70dc6c	-0.9408634
157	0xc00d124e	-2.2042422
158	0xc024062e	-2.5628772
159	0xbfc7724e	-1.5581758
160	0xbf3a28b7	-0.72718376
161	0x3ec2c4e9	0.38040856
162	0x3ed2423b	0.41066155
163	0x3e8c030b	0.27346072
164	0xbe264510	-0.16237283
165	0xbcaaec41	-0.020864608
166	0xbceb54c5	-0.028726945
167	0xbd3874d3	-0.045033287
168	0x3b4c5228	0.0031176899
169	0x3e8e702e	0.2781996
170	0xbfbde859	-1.4836532
171	0xbd3f3c34	-0.046688274
172	0xbe6f1ae2	-0.23350099
173	0xbeea527e	-0.45766062
174	0x3f15ac92	0.58466446
175	0xbc927f5e	-0.017882999
176	0xbeacf45e	-0.33780187
177	0xbe911dd3	-0.28343067
178	0xbf52817f	-0.82228845
179	0x3ec028c5	0.37531105
180	0x3e90c3b2	0.28274304
181	0x3e802d0d	0.2503437
182	0x3f131476	0.57453096
183	0x3f33941c	0.7014787
184	0x3ce559d0	0.027996927
185	0xbea1a04a	-0.31567603
186	0x3f950789	1.1642925
187	0x3f031643	0.51205844
188	0x3ef57f37	0.4794862
189	0xbe364d45	-0.17802913
190	0xbecfc49f	-0.40579697
191	0x3eb9fc5e	0.36325353
192	0xbe47a291	-0.19495608
193	0xbf18e5b8	-0.59725523
194	0x3f238c26	0.63885725
195	0x3f3cba3f	0.7372169
196	0x3f9df44a	1.2340176
197	0x3f814d94	1.01018
198	0x3e47c0c2	0.19507125
199	0x3eb645b8	0.35600066
200	0xbcdd3e57	-0.027007265
201	0x3d385d70	0.045010984
202	0x3f05278d	0.52013475
203	0x3d3154fc	0.043293938
204	0x3eb7230b	0.35768923
205	0x3fbb3cba	1.4627907
206	0xbf36d1d2	-0.7141391
207	0x3deb1acc	0.114797205
208	0xbf273daa	-0.65328467
209	0x3e58e83f	0.21182345
210	0xbe5862ae	-0.21131393
211	0x3c8630ef	0.016380755
212	0xbe8151c9	-0.2525771
213	0x3edeae30	0.4349227
214	0x3e4c0361	0.19923164
215	0x3d86b7ef	0.06578051
216	0xbf4f7bb6	-0.8104814
217	0x3e771ee6	0.2413288
218	0xbe9c518e	-0.3053097
219	0x3eee52be	0.46547502
220	0x3e943edb	0.28954205
221	0x3ed4ac6d	0.415378
222	0x3e1dd5e1	0.1541362
223	0xbe8263c2	-0.25466734
224	0x3edd6cb7	0.43247005
225	0x3d910b6a	0.07082255
226	0xbef70655	-0.48247018
227	0x3ef0dec8	0.4704497
228	0x3ea9ecc7	0.3318846
229	0xbdc8fa2f	-0.09813344
230	0x3f647f0b	0.8925635
231	0x3e2e2b0a	0.17008606
232	0x3e28edce	0.16496965
233	0x3ec194ea	0.37808925
234	0xbf6b7f8d	-0.919915
235	0x3f0094e7	0.50227207
236	0x3f8c73f6	1.0972888
237	0xbeb0310e	-0.34412426
238	0xbf591756	-0.8480123
239	0x3df84b82	0.12123777
240	0x3e5bc4b3	0.21461754
241	0x3f833a0b	1.0252088
242	0xbeca2520	-0.3948145
243	0xbee04087	-0.4379923
244	0x3f0dda87	0.5541157
245	0x3e0439ba	0.12912646
246	0x3e8324ce	0.25614017
247	0xbe48673a	-0.19570628
248	0x3f044b69	0.51677567
249	0xbf49ef5a	-0.78880847
250	0xbf438ef5	-0.7639001
251	0xbdfabce4	-0.12243059
252	0xbea6d136	-0.3258149
253	0x3edeec24	0.43539536
254	0xbf4fcdb2	-0.8117324
255	0x3e6f0c05	0.23344429

convs.0.fc_full.bias f4 [128]
0	0x3e88e13d	0.26734343
1	0x3d807fc0	0.062743664
2	0xbe2034f4	-0.156452
3	0x3e7d9794	0.24764854
4	0x3e4c844d	0.19972344
5	0xbd42a2bf	-0.047518488
6	0x3edc3783	0.43011102
7	0x3e89f9bc	0.26948345
8	0xbed54e09	-0.416611
9	0xbe64bdbb	-0.22338001
10	0xbc758800	-0.014986038
11	0x3f00f4ec	0.5037372
12	0x3e8a915a	0.2706402
13	0xbc3cefbf	-0.011531769
14	0x3d4b3458	0.049610466
15	0x3e0d6c73	0.13810901
16	0x3dc93316	0.09824197
17	0xbe839ab3	-0.25703964
18	0x3e51df45	0.20495327
19	0x3e8e94bd	0.27847853
20	0xbd0c04ca	-0.034184255
21	0x3e0affb9	0.13574113
22	0xbd9286f0	-0.071546435
23	0xbe647e80	-0.22313881
24	0x3e58b4b0	0.21162677
25	0x3da54213	0.08069243
26	0x3bbba926	0.005726951
27	0xbd0a1dfb	-0.033719998
28	0xbd927749	-0.07151658
29	0x3eccd711	0.40007833
30	0xbf403427	-0.7507958
31	0xbcb6d530	-0.022318453
32	0x3e5dad9d	0.2164826
33	0xbd210102	-0.0393076
34	0xbdd340b9	-0.10315079
35	0x3d43b2f2	0.047778077
36	0x3c8f5c40	0.017500043
37	0xbdcb1b62	-0.09917332
38	0xbda530ea	-0.0806597
39	0x3ee0837c	0.43850315
40	0x3ef53dbc	0.47898662
41	0xbc3ec1b5	-0.011642863
42	0x3e93d82a	0.28875858
43	0x3d6cb0c2	0.057785757
44	0x3ea12db8	0.31480193
45	0x3d8486d9	0.06471033
46	0x3e8054cf	0.25064704
47	0xbdd07bf8	-0.10179895
48	0xbe7600ba	-0.24023715
49	0xbe507766	-0.20358047
50	0xbe60fe63	-0.21972041
51	0x3e3a9711	0.1822169
52	0x3ea1efb8	0.31628203
53	0xbd097599	-0.033559415
54	0x3ed5c0ca	0.4174865
55	0x3eb42c50	0.35190058
56	0x3e573fd9	0.2102045
57	0xbdad51dc	-0.08462879
58	0x3dfbb962	0.12291218
59	0xbe32d9dc	-0.1746592
60	0x3ea364b3	0.31912765
61	0x3eca5af0	0.39522505
62	0x3e42fb42	0.1904116
63	0x3e540d10	0.20708108
64	0x3e35cfc9	0.17755045
65	0x3e03c616	0.12868533
66	0x3e839003	0.2569581
67	0x3ec5136f	0.3849139
68	0x3f642863	0.89124125
69	0x3ccc17a6	0.02491362
70	0x3da02310	0.07819188
71	0x3e93ebee	0.28890938
72	0xbeaeb173	-0.34119758
73	0x3decac6f	0.115563266
74	0x3cbe573a	0.023234952
75	0xbd82a24d	-0.06378613
76	0xbc93ea26	-0.018055987
77	0x3cc621f0	0.024186105
78	0x3c42f9d6	0.011900386
79	0x3d8b311c	0.06796476
80	0xbdfd1325	-0.12357167
81	0xbe278168	-0.16357958
82	0xbc9f5a0f	-0.019452123
83	0xbe0475f6	-0.12935624
84	0x3d6f06fb	0.058356266
85	0x3dfd52f6	0.12369339
86	0xbd069c03	-0.032863628
87	0x3e9a06b4	0.3008324
88	0xbea9c129	-0.33155182
89	0x3ddea797	0.10871809
90	0x3de324a0	0.1109097
91	0xbda3d38b	-0.07999333
92	0xbe6477d2	-0.22311333
93	0x3e2501e4	0.16114002
94	0x3d546141	0.05185056
95	0xbc9c776b	-0.019099912
96	0xbe2b791c	-0.16745418
97	0x3eaa06fd	0.33208457
98	0xbc236407	-0.009972579
99	0x3e9fcc65	0.31210628
100	0x3db107ee	0.086440906
101	0xbd34de6e	-0.044157438
102	0xbdb85d47	-0.09002166
103	0x3dc5e603	0.09663012
104	0x3ec8462c	0.39116037
105	0x3e68f023	0.22747855
106	0xba50bc76	-0.0007962653
107	0x3f2858d6	0.6576055
108	0x3cbb0fe0	0.022834718
109	0x3e34b5a4	0.17647415
110	0x3d8aa7f2	0.06770314
111	0x3ebd26fd	0.36943808
112	0xbe5e595e	-0.21713778
113	0xbd263080	-0.040573597
114	0x3e922a3f	0.28547856
115	0xbc969611	-0.018382104
116	0x3da2d830	0.07951391
117	0xbbc1579e	-0.0059003374
118	0xbe0babaa	-0.13639703
119	0x3e27be01	0.16381074
120	0x3cc94537	0.024569137
121	0x3e2a5a11	0.1663592
122	0xbe9f87c3	-0.31158265
123	0x3d0e953f	0.0348103
124	0x3cf514fa	0.029917229
125	0xbe7757b7	-0.24154554
126	0x3ea85786	0.32879275
127	0x3f2b44c1	0.66901785

convs.0.bn1.weight f4 [128]
0	0x40816d2c	4.0445766
1	0x403a8740	2.914505
2	0x40497d4f	3.1482732
3	0x40734048	3.8007984
4	0x403eca0e	2.9810824
5	0x3f65bcf6	0.89741457
6	0x401a4f66	2.411096
7	0x40444732	3.0668454
8	0x409119ea	4.5344133
9	0x401ac7ee	2.4184527
10	0x3f0a2e88	0.5397725
11	0x402bd346	2.68477
12	0x404bee46	3.186418
13	0x408dd4f3	4.432245
14	0x40765b63	3.8493278
15	0x40383b4b	2.878619
16	0x4043d01c	3.059577
17	0x40469feb	3.1035106
18	0x404264a0	3.0373917
19	0x40806cdd	4.013289
20	0x400de799	2.2172606
21	0x4018583f	2.380386
22	0x3f807294	1.0034966
23	0x40950ac7	4.6575656
24	0x405cb80c	3.4487333
25	0x3fb16d67	1.3861512
26	0x3f6dc85d	0.92883855
27	0x406f1adb	3.7360141
28	0x3f8af6da	1.0856583
29	0x4107ff52	8.499834
30	0x3ff6ad46	1.9271629
31	0x40320231	2.7813838
32	0x4086664e	4.1999884
33	0x4072b1d8	3.7921047
34	0x3f734156	0.9502157
35	0x3febc57a	1.841964
36	0x3f4b3d5c	0.793905
37	0x3f545de6	0.8295578
38	0x403cf49f	2.9524305
39	0x40a29759	5.080975
40	0x405d18c5	3.4546368
41	0x3fe9b0c6	1.8257072
42	0x3fa885e0	1.3165855
43	0x4073009a	3.7969117
44	0x407885d7	3.883169
45	0x3fa1f2aa	1.265218
46	0x40a71ad2	5.222024
47	0x40473a6b	3.1129405
48	0x40859191	4.1740193
49	0x400686df	2.1019819
50	0x3ff3ac10	1.9036884
51	0x4054833b	3.3205097
52	0x3f708910	0.9395914
53	0x406c006c	3.6875257
54	0x407bd0ba	3.9346147
55	0x40713ec3	3.7694557
56	0x4083ed5a	4.1227236
57	0x402bff6f	2.6874654
58	0x4001dc6b	2.0290782
59	0x3f48f148	0.78493166
60	0x4055088d	3.328647
61	0x40905341	4.510163
62	0x4076bc92	3.8552594
63	0x4082ff55	4.0936685
64	0x3fab9771	1.3405591
65	0x3f917ccd	1.1366211
66	0x407f603f	3.9902494
67	0x3fa3652b	1.2765249
68	0x3f3bbf43	0.7333872
69	0x3fc7aaae	1.5598962
70	0x3fead265	1.8345457
71	0x3f5ad913	0.8548748
72	0x403c0aa3	2.9381492
73	0x3fa950b7	1.3227757
74	0x3f752e5b	0.9577386
75	0x3f5d89bb	0.86538285
76	0x3fb29bfa	1.395385
77	0x3f406f05	0.751694
78	0x3fc80c71	1.5628797
79	0x3f272ecd	0.6530579
80	0x3ffca532	1.9737914
81	0x3f133c24	0.5751364
82	0x40225661	2.5365222
83	0x3f5ec700	0.870224
84	0x3e99a18b	0.3000606
85	0x3fb88a27	1.4417161
86	0x3ff1aca2	1.8880808
87	0x3f3281db	0.69729394
88	0x3fb8bad6	1.4432018
89	0x405e80bc	3.4766073
90	0x40128b3f	2.289749
91	0x3fb223a5	1.3917128
92	0x4017a1ad	2.369243
93	0x3eb50e0e	0.35362285
94	0x405cc5ba	3.4495683
95	0x3ff2c494	1.8966241
96	0x3f0ac4f1	0.5420676
97	0x3fba9a32	1.4578307
98	0x3fc7e69c	1.5617251
99	0x40029dde	2.0408854
100	0x3fb93801	1.4470216
101	0x4076c2ad	3.855632
102	0x3f8de396	1.1085079
103	0x3f260cbe	0.64863193
104	0x4009067e	2.1410213
105	0x4036c3e6	2.8557067
106	0x403020c1	2.7519991
107	0x3fc228a9	1.5168658
108	0x3f28e33b	0.65971726
109	0x405cd2c8	3.450365
110	0x3ed662fb	0.4187239
111	0x3f1f7b30	0.62297344
112	0x3fdd9845	1.7312094
113	0x4011c921	2.277901
114	0x4034556e	2.8177142
115	0x4017fbd0	2.3747444
116	0x3ff5187c	1.9148097
117	0x3f18b2f2	0.5964805
118	0x3f164058	0.5869193
119	0x3ff45924	1.9089704
120	0x3f7cd39e	0.987604
121	0x3fab1e02	1.3368533
122	0x3fe73a8d	1.8064743
123	0x3f7813c2	0.9690515
124	0x3f8e87c9	1.1135188
125	0x3e900c17	0.28134224
126	0x3fd546ef	1.6662272
127	0x3fd8fcf4	1.6952195

convs.0.bn1.bias f4 [128]
0	0xbf5fe0b0	-0.8745222
1	0x3d41b9c1	0.04729629
2	0xbf0eb605	-0.5574649
3	0xbf0115db	-0.50423974
4	0xbea926f1	-0.33037522
5	0xbfc1fe91	-1.5155813
6	0xbf0d88e5	-0.5528701
7	0x3e42d837	0.19027792
8	0xbe86ad1e	-0.26303953
9	0x3e147837	0.14498983
10	0xc0174ff0	-2.364254
11	0x3f612c50	0.8795824
12	0xbf1dd7b4	-0.6165726
13	0x3cb90fe0	0.022590578
14	0xbf3f48c9	-0.74720436
15	0x3edcabb4	0.4309975
16	0x3e8481f9	0.2588041
17	0xbdaee351	-0.08539451
18	0xbfa8934d	-1.3169953
19	0xbf02cc74	-0.5109322
20	0x3ef15160	0.47132397
21	0xbf3975f6	-0.7244562
22	0xbf086308	-0.5327611
23	0x3ed325da	0.41239816
24	0xbe1833db	-0.14863531
25	0xbe2046b7	-0.15651976
26	0xc02f38f5	-2.7378514
27	0xbe3271e8	-0.17426264
28	0xc0202825	-2.5024502
29	0x3c812cff	0.015768526
30	0x3f6eb9d4	0.932523
31	0xbf23da24	-0.6400473
32	0x3f9ec479	1.2403709
33	0xbea24d7f	-0.3169975
34	0xbf4bdb0e	-0.79631126
35	0xbdd70395	-0.1049873
36	0xbf939625	-1.1530195
37	0xbe9a9d67	-0.30198213
38	0xbe234d68	-0.15947497
39	0x3e3cac61	0.18425132
40	0x3e95b242	0.29237562
41	0xbf470fc6	-0.77758443
42	0xbee59cf9	-0.44846323
43	0x3d8a4fa7	0.06753474
44	0x3fa480e9	1.285184
45	0xbffbc623	-1.9669842
46	0x3e8da47e	0.2766456
47	0x3f2e7865	0.6815246
48	0xbfdeb5c5	-1.7399222
49	0xbf6be409	-0.9214483
50	0xbff29908	-1.8952951
51	0xbf8ea1da	-1.1143143
52	0xbf8c2c23	-1.095097
53	0x3f5496ab	0.830424
54	0xbf429cfa	-0.7602078
55	0xbe3c42d2	-0.18384865
56	0x3e031747	0.12801848
57	0xbfbf5994	-1.4949212
58	0xbfa0b707	-1.2555856
59	0xbf952b1a	-1.1653779
60	0x3f2e7ad1	0.6815615
61	0xbcd39021	-0.025825562
62	0x3f1bbab2	0.6083175
63	0xbf186e62	-0.5954343
64	0xbd4cf803	-0.05004121
65	0x3f432596	0.76229227
66	0xbe085fc1	-0.13317777
67	0xbedf1e92	-0.4357801
68	0x3f861834	1.0476136
69	0xbfe98aa6	-1.8245437
70	0xbf760b29	-0.9611078
71	0x3f9ded0c	1.2337966
72	0xbeae0496	-0.33987874
73	0x3fcdd996	1.6082027
74	0xc02de2ae	-2.7169604
75	0x3fc55c8c	1.5418868
76	0x3f234b79	0.6378704
77	0x3ec5f707	0.3866503
78	0xbe821a40	-0.25410652
79	0x3f9814e9	1.1881381
80	0xbd754183	-0.05987693
81	0x3efb4333	0.49074706
82	0xbf51829b	-0.81839913
83	0x3eebc83e	0.4605121
84	0x3f98719f	1.1909674
85	0xbf3339be	-0.7000998
86	0xbf7ad161	-0.97975737
87	0x3fb136f0	1.384489
88	0x3ec7e20e	0.39039654
89	0xbeb16da9	-0.34653977
90	0xc0401918	-3.0015316
91	0xbecd61b2	-0.40113598
92	0xc02cf836	-2.7026496
93	0x4006dd35	2.1072514
94	0x3fbbf301	1.4683534
95	0x3ed1e9b8	0.40998626
96	0x3f460623	0.77353114
97	0x3e15047f	0.14552496
98	0xbf5a6c27	-0.8532128
99	0xbf5cfb25	-0.86320716
100	0xbffe542f	-1.9869441
101	0xc02f1c6a	-2.7361093
102	0xbef0d33f	-0.47036168
103	0x3e688c73	0.22709827
104	0x3f97721d	1.18317
105	0xbf99dd96	-1.2020748
106	0xbeec8a97	-0.46199486
107	0x3fd7a64d	1.6847626
108	0x3f8f1a12	1.1179831
109	0xc01da079	-2.4629195
110	0x3f9ba13f	1.2158583
111	0x3f84c669	1.037305
112	0xbf8bde2a	-1.0927174
113	0xbf741509	-0.953446
114	0xc012b415	-2.2922413
115	0x3f4e5afe	0.80607593
116	0xc00151f8	-2.020628
117	0x3f5484ce	0.83015144
118	0x3f7dbbc5	0.9911464
119	0xbfaaf0a2	-1.3354685
120	0x3e7f57cc	0.24935836
121	0xbfbf51bc	-1.4946818
122	0xbfe04ed7	-1.752406
123	0xbfd9dcf0	-1.702055
124	0x3e4f1f93	0.20226888
125	0x3fe4ff92	1.7890494
126	0x3f8a19b4	1.0789094
127	0xbf449578	-0.7679057

convs.0.bn1.running_mean f4 [128]
0	0xc0c60958	-6.1886406
1	0x3bf43bdb	0.0074534244
2	0xbe05d125	-0.13068064
3	0x402f6bf5	2.7409642
4	0x3fa505eb	1.2892431
5	0x410c0bf2	8.752916
6	0xbfbab762	-1.4587214
7	0x4024ae56	2.5731406
8	0xc008228f	-2.1271093
9	0xc06a7c97	-3.6638544
10	0xbff8dc5e	-1.9442251
11	0xbfc2a5ff	-1.5206908
12	0x3f286d59	0.6579185
13	0xc146cf6c	-12.42564
14	0x4117cbfb	9.4873
15	0xbfe06269	-1.7530032
16	0x40a52e88	5.16193
17	0x3df0011a	0.1171896
18	0x40c4fe16	6.1560163
19	0x40a51f4f	5.160072
20	0xc0a9f8e6	-5.311633
21	0x40f466f6	7.6375685
22	0x404159a5	3.0210965
23	0x3d370917	0.044686403
24	0x416a6d5e	14.651701
25	0xc14780e3	-12.4689665
26	0x413674f7	11.403556
27	0x4135bd75	11.358754
28	0xc01e6842	-2.4751134
29	0x407d79af	3.960552
30	0xc1244dec	-10.269024
31	0xc11ed3ec	-9.926739
32	0x40fb65ea	7.8561907
33	0x40083589	2.1282675
34	0x40b1dd43	5.5582595
35	0x408817b6	4.2528944
36	0x3fe7a54d	1.8097321
37	0xc0466ff8	-3.100584
38	0xbec3b2df	-0.38222405
39	0x403b82d7	2.9298608
40	0x40dc2ca2	6.8804483
41	0xc01daf33	-2.4638183
42	0xc01b2e31	-2.4246943
43	0x41112789	9.072152
44	0x40af42ea	5.476918
45	0x40a3547a	5.104062
46	0x4171b27c	15.106075
47	0xc01a80b4	-2.4141054
48	0xc064cbc7	-3.5749376
49	0xc0f792cf	-7.736671
50	0x40f6d357	7.7132983
51	0xc0ae2205	-5.441653
52	0xc0ff855d	-7.9850297
53	0x3f531c24	0.82464814
54	0x40f94e58	7.7908134
55	0x41731af4	15.19408
56	0x408de74e	4.4344854
57	0x40cc91a4	6.3927784
58	0x4149bfbd	12.609311
59	0x41867a5d	16.809748
60	0x413012a0	11.004547
61	0x409c4e3a	4.884549
62	0xc0b815aa	-5.7526445
63	0x41320e4d	11.128491
64	0x4121dbce	10.116163
65	0xc0743f32	-3.8163571
66	0xc0cc447c	-6.38336
67	0xc0664d96	-3.5984855
68	0xc0443c3c	-3.0661764
69	0x3e271e1d	0.16320081
70	0x3ecff501	0.4061661
71	0x407e75e8	3.9759464
72	0xc089993d	-4.299956
73	0x3f1d439e	0.614313
74	0xbf1fe07e	-0.6245192
75	0xbfda522e	-1.7056329
76	0xc08ce96b	-4.4034934
77	0xc161fa64	-14.123631
78	0x4113f53d	9.247373
79	0xc07ddf7b	-3.9667652
80	0x4168ffbf	14.562438
81	0x40a9c8be	5.3057547
82	0x410eeec1	8.93329
83	0x4000a4fa	2.0100694
84	0xc15fcf22	-13.98807
85	0xc0ba7390	-5.8266068
86	0x41897926	17.184155
87	0x403fe48c	2.9983244
88	0x40aaacab	5.3335776
89	0xbe8e12c9	-0.27748707
90	0x3f70219d	0.9380129
91	0x40926a98	4.575512
92	0xc01134a1	-2.2688372
93	0xc03a48db	-2.9106967
94	0xc02de4ec	-2.7170973
95	0xc0fee3fa	-7.965329
96	0x412ade1b	10.679225
97	0x411165f1	9.087388
98	0x4063fe7a	3.562407
99	0x4147f17c	12.496456
100	0x3f5c5433	0.8606598
101	0xc0a92bc5	-5.286593
102	0x4136952b	11.411418
103	0x3f3b04fb	0.73054475
104	0xc0b89df7	-5.769283
105	0x40454b8f	3.0827367
106	0x41369b44	11.412907
107	0xc05dc647	-3.465227
108	0xbdae234e	-0.085028276
109	0xc09b637d	-4.8558946
110	0x40cd4619	6.414807
111	0xc0c23f1f	-6.070205
112	0xc082dffe	-4.089843
113	0x403a4779	2.9106123
114	0x4095eaf5	4.6849313
115	0xc10a4380	-8.6414795
116	0x40deab69	6.958424
117	0x4006d71e	2.1068797
118	0x3f3ef5e7	0.7459397
119	0x41397d36	11.593069
120	0x415390fa	13.222895
121	0xc0109c57	-2.2595422
122	0x41081f1e	8.507597
123	0x40bcc0c4	5.898531
124	0x414e423e	12.891172
125	0xc0f92a4e	-7.786414
126	0xc07918da	-3.8921418
127	0x41095b9e	8.5848675

convs.0.bn1.running_var f4 [128]
0	0x427669d3	61.603344
1	0x420a9e6c	34.65471
2	0x41fceec1	31.61658
3	0x42070aea	33.76066
4	0x41ea264f	29.268705
5	0x426aaba6	58.667625
6	0x42155872	37.336372
7	0x42260edb	41.514507
8	0x4236a4f0	45.66107
9	0x41f9ae60	31.210144
10	0x427688fb	61.63377
11	0x42266f61	41.60877
12	0x4282370f	65.10754
13	0x429adaa7	77.427055
14	0x4216be57	37.68588
15	0x427db989	63.431187
16	0x427b47ca	62.820107
17	0x42850332	66.50624
18	0x42319b75	44.401814
19	0x42a5dc9b	82.93087
20	0x429e65be	79.198715
21	0x420ff8e8	35.993073
22	0x42131a16	36.775475
23	0x42abcf70	85.90515
24	0x425d7c84	55.371597
25	0x4296fb5c	75.49094
26	0x42879cae	67.806015
27	0x4204fd2a	33.24723
28	0x41e2f846	28.371227
29	0x4302472d	130.27803
30	0x421c9648	39.14676
31	0x4282d457	65.41473
32	0x429e5648	79.16852
33	0x42453a76	49.30709
34	0x4257c51f	53.9425
35	0x42467fbf	49.624752
36	0x4255b416	53.425865
37	0x4223ccf2	40.95014
38	0x4250671b	52.10069
39	0x4276b406	61.675804
40	0x42709d73	60.15376
41	0x425cb24e	55.174126
42	0x427fbd57	63.934902
43	0x42393d01	46.309574
44	0x42645888	57.086456
45	0x42841b85	66.05375
46	0x428b1d25	69.55692
47	0x4208ccae	34.199883
48	0x421ba8eb	38.91496
49	0x42738371	60.87836
50	0x42243b7b	41.058086
51	0x41bba415	23.455118
52	0x42968202	75.25392
53	0x42583c31	54.05878
54	0x426cf70c	59.241257
55	0x4268407d	58.062977
56	0x422dcb5f	43.448605
57	0x42a1116e	80.53404
58	0x42660084	57.500504
59	0x423a684f	46.601864
60	0x423ec028	47.687653
61	0x428be5f2	69.94911
62	0x423801ca	46.001747
63	0x425cd9bf	55.212643
64	0x4280326f	64.0985
65	0x424a4398	50.56601
66	0x42177e31	37.873234
67	0x41fa99ec	31.325157
68	0x420eed5f	35.731808
69	0x4234278f	45.03863
70	0x428f66d1	71.70081
71	0x425622ce	53.53399
72	0x4211c786	36.444847
73	0x42002116	32.03231
74	0x4240079b	48.007427
75	0x42131540	36.770752
76	0x425a73d3	54.61311
77	0x42ec723e	118.22313
78	0x42273587	41.802273
79	0x420b730b	34.862347
80	0x4280934b	64.28768
81	0x427ec0a7	63.688137
82	0x4258d381	54.206547
83	0x428afac0	69.489746
84	0x4244c41b	49.19151
85	0x4219051f	38.255
86	0x4238210a	46.032265
87	0x421a9052	38.640938
88	0x42611b6e	56.276787
89	0x42589a12	54.15046
90	0x41a36105	20.422373
91	0x426140d0	56.313293
92	0x41fcbf19	31.59331
93	0x42aa447e	85.13377
94	0x4218724d	38.11162
95	0x42ea45ae	117.13609
96	0x42981d75	76.05753
97	0x4208c296	34.190025
98	0x42687efe	58.124016
99	0x42126777	36.60104
100	0x4271b0b3	60.422558
101	0x413d25b9	11.82171
102	0x4239eb3d	46.479725
103	0x428c2891	70.07923
104	0x42a351c1	81.659676
105	0x4201bc16	32.433678
106	0x426ada5e	58.71325
107	0x422f1a71	43.77582
108	0x424a6b49	50.60477
109	0x427c3792	63.054268
110	0x4299b81e	76.859604
111	0x4287a6cd	67.82578
112	0x4233a09a	44.906837
113	0x424430f4	49.047806
114	0x42582063	54.031628
115	0x422798f2	41.89936
116	0x422402cb	41.002728
117	0x423af4c7	46.73904
118	0x4244f20a	49.236366
119	0x420d6f9a	35.358986
120	0x42765400	61.58203
121	0x42cba6af	101.825554
122	0x425b3a3c	54.80687
123	0x41f83409	31.025408
124	0x42808f45	64.27982
125	0x4259de1b	54.4669
126	0x41ca34d2	25.275791
127	0x4249ed74	50.481888

convs.0.bn2.weight f4 [64]
0	0x3f5cd077	0.8625559
1	0x3f02759d	0.50960714
2	0x3f297a00	0.6620178
3	0x3f30b494	0.6902554
4	0x3f7e9eff	0.9946136
5	0x3ee46775	0.4461018
6	0x3f0b511f	0.54420656
7	0x3f820ff1	1.0161115
8	0x3f1db926	0.6161064
9	0x3f9ff96d	1.2497994
10	0x3eda7490	0.42667055
11	0x3f829a14	1.0203271
12	0x3f3a6bb5	0.728206
13	0x3f3e65f1	0.743743
14	0x3f7b85b9	0.9825092
15	0x3f9683c2	1.1758959
16	0x3edf122a	0.43568546
17	0x3f27ee75	0.6559823
18	0x3f4a1e7e	0.7895278
19	0x3fbf87c2	1.4963305
20	0x3f9c6650	1.2218723
21	0x3eade457	0.33963272
22	0x3ec66b79	0.3875387
23	0x3f77235b	0.96538323
24	0x3f2ef17a	0.68337214
25	0x3f2d385a	0.6766411
26	0x3eb222fe	0.34792322
27	0x3f046b11	0.5172587
28	0x3eef3450	0.467196
29	0x400f2d5f	2.2371442
30	0x3f81cd24	1.0140729
31	0x3f06ea67	0.5270142
32	0x3f53c5b8	0.8272357
33	0x3f686790	0.90783024
34	0x3f00b0ff	0.50270075
35	0x3ed8792a	0.4227994
36	0x3eff3592	0.49845558
37	0x3f4a1edc	0.7895334
38	0x3ec59e0e	0.3859715
39	0x3f89c0ac	1.0761924
40	0x3f8d8192	1.1055167
41	0x3eccb165	0.3997909
42	0x3efb63e3	0.49099645
43	0x3f59d012	0.85083115
44	0x3f60b21d	0.8777178
45	0x3e7f32e6	0.2492176
46	0x3fc12189	1.5088359
47	0x3f4e2475	0.8052438
48	0x3f102154	0.56300855
49	0x3f225897	0.6341643
50	0x3f702563	0.9380705
51	0x3f6560ef	0.89601034
52	0x3ec4b07f	0.38415906
53	0x3f5943d5	0.8486913
54	0x3f8a762b	1.0817312
55	0x3e9e68c9	0.3093932
56	0x3f67aa7c	0.90494514
57	0x3ecdaa6e	0.4016909
58	0x3ec132f7	0.37734196
59	0x3ea5bdb0	0.32371283
60	0x3ef3ef2a	0.47643405
61	0x3fecb5e4	1.8493009
62	0x3f6afab0	0.9178877
63	0x3f1a1478	0.6018748

convs.0.bn2.bias f4 [64]
0	0xbf845c48	-1.0340662
1	0xbfba755e	-1.4567068
2	0xbf312df4	-0.69210744
3	0xbf141913	-0.5785076
4	0x3e3d1553	0.18465166
5	0xbfe64b75	-1.7991778
6	0xbf759232	-0.959262
7	0xbf3ca116	-0.736833
8	0xbf0fa58b	-0.56111974
9	0x3edb6abe	0.42854875
10	0xbfdee588	-1.7413797
11	0x3ebed797	0.37273857
12	0xbf382164	-0.7192595
13	0xbfd47095	-1.6596857
14	0xbf648e0f	-0.89279264
15	0xbf8fcfac	-1.1235251
16	0xbf86f6cf	-1.054407
17	0xbf831389	-1.0240337
18	0xbf5d28d4	-0.86390424
19	0xbfa4a422	-1.2862589
20	0xbf04cfde	-0.5187968
21	0xbf8841ce	-1.0645082
22	0xbf97cc1f	-1.1859168
23	0xbe4f2558	-0.2022909
24	0xbfa01ba1	-1.2508432
25	0xbf84466b	-1.033399
26	0xbfbfce1c	-1.4984775
27	0xbf91f4c1	-1.1402818
28	0xbfae63c8	-1.3624201
29	0xbf895e90	-1.0731983
30	0x3e54745e	0.20747516
31	0xbfafabc3	-1.3724293
32	0xbf91fe84	-1.1405797
33	0xbfaffa00	-1.3748169
34	0xbfaa4e7f	-1.3305205
35	0xbfaef954	-1.3669839
36	0xbf9dc0d4	-1.2324471
37	0x3e588b61	0.21146919
38	0xbf4df616	-0.8045362
39	0xbf9ad0b6	-1.2094944
40	0xbf52f230	-0.824008
41	0xbf98c48f	-1.1934985
42	0xbf950901	-1.1643373
43	0xbf4ccad9	-0.7999702
44	0xbf482549	-0.7818189
45	0xbfa6d5bc	-1.3033977
46	0xbfbe748e	-1.487932
47	0xbeb09311	-0.34487203
48	0xbf108bc6	-0.5646328
49	0xbf6152a9	-0.88016754
50	0xbf71a117	-0.9438643
51	0xbe84bea7	-0.25926706
52	0xbf9ed96e	-1.2410104
53	0xbfab0844	-1.3361897
54	0xbf5e46a3	-0.86826533
55	0xbfefcd0d	-1.8734452
56	0xbfa347b4	-1.2756257
57	0xbfb8e447	-1.4444665
58	0xbfc847fe	-1.564697
59	0xbfd62b18	-1.6731901
60	0xbf8aa150	-1.0830479
61	0xbf93bb2f	-1.1541499
62	0xbf1c02d8	-0.6094184
63	0xbf963f28	-1.1738024

convs.0.bn2.running_mean f4 [64]
0	0x40997470	4.7954636
1	0x4116e9a7	9.432044
2	0x416a9bb7	14.663016
3	0x409d03b2	4.906701
4	0x41064926	8.3928585
5	0x3faa7b17	1.3318814
6	0x403e1a23	2.9703453
7	0x4132f9a6	11.185949
8	0x4108ba47	8.545478
9	0x416f4267	14.9537115
10	0x3e564dcc	0.20928115
11	0x4172fe38	15.187065
12	0x410e8a83	8.908816
13	0x4101c4c8	8.110542
14	0x40d1428c	6.5393734
15	0x4122324f	10.137282
16	0x410228ef	8.134994
17	0x40b7a302	5.7386484
18	0x40a9764f	5.295692
19	0x40eb86dd	7.360213
20	0x411f7b21	9.967561
21	0x407f69ff	3.9908445
22	0x4057b9c5	3.3707135
23	0x4149d431	12.614305
24	0x411614d9	9.38009
25	0x411c1d29	9.757119
26	0x3ebe9e1c	0.37230003
27	0x40a793c0	5.236786
28	0x3f2c6c17	0.6735243
29	0x4151142a	13.067423
30	0x41ab5b03	21.41944
31	0x4118bb20	9.545685
32	0x411ddaea	9.865946
33	0x40e53579	7.1627774
34	0x405c3e61	3.4413073
35	0x409d32c8	4.912449
36	0x3fbc0660	1.4689445
37	0x4083d13d	4.119292
38	0x407a88dc	3.9146032
39	0x40b87dcc	5.765356
40	0x416194f8	14.098869
41	0x4064ba92	3.5738873
42	0x40f4384e	7.631873
43	0x4182500f	16.289091
44	0x4140aaa2	12.041658
45	0x3f7e9deb	0.99459714
46	0x4131399d	11.076566
47	0x4121f77b	10.12292
48	0x3fc9ab66	1.5755432
49	0x40b3d558	5.619793
50	0x40505355	3.2550862
51	0x41454dee	12.331526
52	0x3fdc6231	1.7217466
53	0x411e3b76	9.889517
54	0x40ed8702	7.4227304
55	0x404d7860	3.210472
56	0x40eaccf9	7.337521
57	0x3fc6b381	1.552353
58	0x40008227	2.0079439
59	0x3f768982	0.9630357
60	0x40e2564e	7.0730352
61	0x414b9368	12.723488
62	0x4151a79b	13.103419
63	0x401cd5fc	2.4505606

convs.0.bn2.running_var f4 [64]
0	0x4174fc6d	15.311627
1	0x4228bde3	42.185436
2	0x4313d53c	147.83295
3	0x419e471e	19.784725
4	0x41c6d86b	24.855673
5	0x411a70a0	9.652496
6	0x410442f9	8.266351
7	0x42078c6d	33.887135
8	0x429158f4	72.67374
9	0x4291dfd6	72.93718
10	0x3ef61e94	0.48070204
11	0x420a1d66	34.52871
12	0x4245177c	49.272934
13	0x41dfe234	27.98545
14	0x41d0a961	26.082705
15	0x41d1f7ce	26.245998
16	0x425637e5	53.554585
17	0x411b8bbc	9.721615
18	0x424e2dfb	51.544903
19	0x41bdc089	23.719011
20	0x42158781	37.382328
21	0x41938c94	18.443642
22	0x4141d922	12.115511
23	0x423a810a	46.626015
24	0x4266cf0c	57.702194
25	0x432665cc	166.39764
26	0x3f2bcd50	0.67110157
27	0x41a307e9	20.378862
28	0x3f8dcbdf	1.1077842
29	0x4275c7c5	61.445087
30	0x433146c8	177.27649
31	0x428a1b31	69.05311
32	0x41aa0c73	21.256079
33	0x41f61270	30.759003
34	0x41856a3e	16.676876
35	0x41dd2654	27.643715
36	0x40a7ae2a	5.2400103
37	0x41a0719f	20.05548
38	0x41483d2f	12.514937
39	0x413481de	11.281706
40	0x43002981	128.16212
41	0x41bb0148	23.375626
42	0x42adcab2	86.89589
43	0x42bb2fff	93.59374
44	0x4206ebe7	33.730373
45	0x407e0bab	3.9694622
46	0x41b908b9	23.12926
47	0x41b0f3f7	22.119123
48	0x406d820e	3.711063
49	0x42249114	41.141678
50	0x41c9c32e	25.220303
51	0x429cb1dd	78.34739
52	0x411d3816	9.826193
53	0x41c38e37	24.44444
54	0x41de3030	27.77353
55	0x421202fa	36.502907
56	0x41b17c55	22.185709
57	0x40f13c36	7.5386
58	0x40efe3a7	7.4965396
59	0x4034c7d5	2.8246968
60	0x422124b3	40.28584
61	0x42117914	36.36824
62	0x42850e50	66.527954
63	0x40ebc347	7.3675876

convs.1.fc_full.weight f4 [128, 169]
0	0xbfb0d77d	-1.3815762
1	0x3ed7a260	0.4211607
2	0x3f84bb74	1.0369706
3	0xbcc9a1b7	-0.024613244
4	0x3efc4f4f	0.49279258
5	0x3e420ed9	0.18950976
6	0x3caefce5	0.021360824
7	0x3e813162	0.2523299
8	0x3ebb064f	0.3652825
9	0xbf2c044b	-0.6719405
10	0xbf2059dd	-0.6263712
11	0xbf530ee1	-0.8244458
12	0xbf37ba74	-0.7176888
13	0xbe8bd9f9	-0.27314737
14	0x3ec6879f	0.38775346
15	0x3d17c305	0.03705122
16	0xbe8a6ed9	-0.27037695
17	0xbd2cd2a2	-0.042193063
18	0xbf1fa5fb	-0.6236264
19	0x3ebd1e79	0.3693731
20	0xbe1a4034	-0.15063554
21	0x3f0137e9	0.5047594
22	0xbe53f009	-0.20697035
23	0xbdb5d274	-0.088780314
24	0xbe15de17	-0.14635502
25	0xbf0a26e2	-0.5396558
26	0xbe631a87	-0.22178088
27	0x3f500c46	0.8126873
28	0xbeaa1de8	-0.33225942
29	0xbed41283	-0.41420373
30	0xbef6509a	-0.4810837
31	0xbe72f3b4	-0.23725778
32	0xbf3dd1e7	-0.7414841
33	0x3edec5b9	0.43510225
34	0xbf07acf3	-0.52998275
35	0xbf3fa8b3	-0.7486679
36	0xbf44b4a9	-0.76838166
37	0xbe1cd21f	-0.1531453
38	0xbf266599	-0.64998776
39	0x3ed232a8	0.41054273
40	0xbe24f5b0	-0.16109347
41	0xbf14a602	-0.5806581
42	0xbf04b094	-0.51831937
43	0x3e3841fb	0.1799392
44	0xbf2f8d30	-0.6857481
45	0x3ee994be	0.45621294
46	0xbf1ce1b5	-0.612819
47	0x3ec53c6e	0.38522667
48	0xbd9d28d2	-0.076738015
49	0x3d8428f8	0.06453127
50	0xbebb66e1	-0.36601928
51	0x3e98fe8c	0.29881704
52	0xbf73ae8e	-0.95188224
53	0xbdf24c83	-0.11831
54	0xbf20d8b3	-0.62830657
55	0xbf5dab7c	-0.8658979
56	0xbf3f863f	-0.7481422
57	0xbf4d8bed	-0.80291635
58	0x3df7e23d	0.121036984
59	0x3e9a3116	0.30115575
60	0xbebddbcd	-0.37081757
61	0xbf74bac5	-0.9559749
62	0x3ea6992d	0.3253874
63	0x3d87ef75	0.0663747
64	0xbf5ed31d	-0.87040883
65	0x3e579f8c	0.21056956
66	0xbee76128	-0.45191312
67	0x3e82b9bf	0.25532338
68	0x3fa6022b	1.2969412
69	0x3e9e3763	0.30901632
70	0x3e7cf008	0.2470094
71	0x3e94e5d5	0.29081598
72	0x3f8ae8ef	1.0852336
73	0xbce9aa3d	-0.028523559
74	0x3ce6d513	0.028177774
75	0xbf3191a9	-0.69362885
76	0xbda05771	-0.07829178
77	0xbf1da2cb	-0.6157653
78	0xbd4e0e46	-0.05030658
79	0xbd8332fb	-0.06406208
80	0x3da87f93	0.08227458
81	0xbca5affb	-0.020225516
82	0xbe8afb3b	-0.271448
83	0x3e71e3af	0.2362201
84	0xbe4ea846	-0.20181379
85	0x3e7f5244	0.24933726
86	0xbf333d35	-0.7001527
87	0xbfadd04b	-1.3579191
88	0xbe5f0523	-0.21779303
89	0xbf006e99	-0.5016876
90	0x3e501aee	0.20322773
91	0x3e9ff7d4	0.31243765
92	0x3eb48a04	0.35261548
93	0xbf64f26d	-0.8943241
94	0x3e40aca0	0.18815851
95	0xbf542847	-0.8287396
96	0xbef6a227	-0.48170587
97	0xbead73eb	-0.338775
98	0xbc203ad8	-0.009779654
99	0xbf3e972a	-0.7444941
100	0x3eaadffb	0.3337401
101	0xbf3f1967	-0.74648136
102	0xbf5a6bba	-0.8532063
103	0x3e985d84	0.29758847
104	0xbe63d1fb	-0.2224807
105	0xbf8eb3c1	-1.1148607
106	0x3f4a2bb3	0.7897293
107	0xbe02eb7c	-0.12785143
108	0x3e784058	0.24243295
109	0x3f521cf9	0.8207546
110	0xbf598fe0	-0.8498516
111	0x3e2ca48b	0.16859643
112	0xbef89328	-0.4854977
113	0xbf8663f6	-1.0499256
114	0x3ea3d825	0.32000843
115	0x3fb6648d	1.4249436
116	0x3d96c7a0	0.07362294
117	0x3ed6d421	0.41958717
118	0xbfc30409	-1.5235606
119	0xbef59e23	-0.4797221
120	0xbf9e26ac	-1.2355552
121	0xbfa5a8b0	-1.2942104
122	0x3e7052ff	0.2346916
123	0xbf0655fd	-0.5247496
124	0x3f725968	0.94667673
125	0xbf6c36b8	-0.92270994
126	0x3feae83c	1.8352122
127	0x3f3a2598	0.72713614
128	0x3b19a5a2	0.0023444672
129	0xbecd3616	-0.40080327
130	0xbf90bba6	-1.1307266
131	0xbeba9362	-0.3644057
132	0xbd47aebb	-0.04875062
133	0xbedf007d	-0.4355506
134	0xbf6d8db9	-0.92794377
135	0xbf9bef70	-1.2182446
136	0xbf8fb77d	-1.1227871
137	0x3f4b2e1a	0.7936722
138	0x400132c6	2.018724
139	0x40228bc9	2.5397818
140	0xbf453870	-0.7703924
141	0xbf162d62	-0.58663
142	0x3f0c921e	0.5491046
143	0xbf5020fb	-0.81300324
144	0xc01d2b54	-2.4557695
145	0xbe9dbfe5	-0.30810466
146	0x3fef6a21	1.8704263
147	0x3f21a5e8	0.6314378
148	0xbff2d935	-1.8972536
149	0xbeee4e83	-0.46544275
150	0xbf65106d	-0.8947819
151	0xc01bad60	-2.432457
152	0xc01f66ea	-2.4906564
153	0xbdaa4d9b	-0.08315583
154	0x3f66ef96	0.9020933
155	0x3f2914bd	0.6604727
156	0xbd4de2ea	-0.05026523
157	0xbebdfe54	-0.371081
158	0xbebe924c	-0.3722099
159	0xbeeacf7f	-0.45861432
160	0xbf96a7ef	-1.1769999
161	0xbfb3e9ab	-1.4055685
162	0xbfdbd479	-1.7174217
163	0xbfa17cc8	-1.2616205
164	0xbf4cd894	-0.8001797
165	0xbe7444bf	-0.2385435
166	0xbc722916	-0.014780303
167	0xbcae7faa	-0.02130111
168	0x3d64adf7	0.05582997
169	0xbfe8ebf4	-1.8197007
170	0x3f43df84	0.7651293
171	0xbe44b286	-0.19208726
172	0x3e40c04b	0.18823354
173	0x3f71cda8	0.9445443
174	0xbf552fa5	-0.83275825
175	0xbfa7736b	-1.3082098
176	0x3ecaabba	0.39584142
177	0x3daeca49	0.085346766
178	0x3f2da509	0.6782995
179	0x3f122c92	0.5709926
180	0x3f870df2	1.0551131
181	0xbeb74c67	-0.35800478
182	0x3f8f5795	1.1198603
183	0x3eece2c6	0.46266764
184	0x3ddca2ba	0.10773225
185	0xbf3a40d1	-0.7275515
186	0xbe928748	-0.28618836
187	0xbf458311	-0.77153116
188	0x3f91956f	1.1373729
189	0xbe428188	-0.18994725
190	0x3edad94f	0.42743918
191	0xbf201c01	-0.6254273
192	0x3d4a434d	0.04938059
193	0x3f2f832b	0.6855952
194	0xbf92ee8b	-1.1479048
195	0x3f09fb27	0.53898853
196	0xbf05bec0	-0.52244186
197	0x3ebed434	0.37271273
198	0xbe6b9a7a	-0.23008147
199	0xbf09cfc4	-0.5383265
200	0x3eb4fdda	0.35349923
201	0xbf2b27d1	-0.6685763
202	0xbe533c9c	-0.2062859
203	0xbe5dff11	-0.21679331
204	0x3f9e5aba	1.2371438
205	0xbf252be0	-0.6452007
206	0xbf812692	-1.0089896
207	0xbf06a67c	-0.52597785
208	0x3cfdfb43	0.0310036
209	0xbfad5e92	-1.3544486
210	0x3cd52102	0.026016716
211	0xbea0f218	-0.31434703
212	0xbdc2711f	-0.094942324
213	0xbf4a2cd5	-0.7897466
214	0xbed31ac9	-0.41231373
215	0x3fc9a1f2	1.5752547
216	0x3ebe2dae	0.37144226
217	0x3ca14f20	0.01969105
218	0x3ce04716	0.027377646
219	0x3c99499c	0.018711857
220	0xbebc51f8	-0.36781287
221	0xbf4acad4	-0.7921574
222	0x3f732cb0	0.9499006
223	0xbfec64f8	-1.8468313
224	0x3edf7fc0	0.43652153
225	0x3ea60852	0.32428223
226	0x3f082f1a	0.5319687
227	0xbf2b205e	-0.66846263
228	0xbd9f96f7	-0.07792466
229	0xbea29800	-0.31756592
230	0xbed1dedf	-0.4099035
231	0xbd4a0a08	-0.049325973
232	0xbfa84ee9	-1.3149081
233	0x4010886a	2.258326
234	0x3f735292	0.9504787
235	0xbe8f3802	-0.27972418
236	0x3e992f10	0.29918718
237	0xbe5d60d5	-0.2161897
238	0x3f00ddb2	0.5033828
239	0x402ad177	2.6690347
240	0x3e6273a4	0.22114426
241	0xbe4ce6c9	-0.20009913
242	0xbebfb509	-0.37442806
243	0x3f0955bf	0.53646463
244	0xbf4e9f45	-0.80711776
245	0x3e9815bb	0.2970408
246	0x3e16165c	0.14656967
247	0xbf316378	-0.692924
248	0xbe9b670e	-0.30352062
249	0x3f94da25	1.1629072
250	0xbec4b04e	-0.3841576
251	0xbe6d6097	-0.23181377
252	0xbe5a9ce5	-0.21348913
253	0x3f13457f	0.5752792
254	0xbd32ac64	-0.043621436
255	0xbf29d74c	-0.6634414

convs.1.fc_full.bias f4 [128]
0	0xbe2016c1	-0.1563368
1	0xbf306003	-0.688965
2	0x3dc0b815	0.09410111
3	0xbec71c49	-0.38888767
4	0xbecb1667	-0.3966553
5	0x3f2cd97a	0.6751934
6	0x3e24e7bd	0.16104026
7	0x3eda5534	0.4264313
8	0x3e9dbe53	0.30809268
9	0x3d55b25e	0.052172057
10	0x3f803a5f	1.0017813
11	0x3f65228b	0.89505833
12	0xbf3c66c2	-0.73594296
13	0xbea3e76e	-0.32012504
14	0xbe89e473	-0.26932105
15	0x3c7bfb8b	0.015379797
16	0xbe21c2b0	-0.15796924
17	0xbe1e68ab	-0.15469615
18	0x3f191b00	0.59806824
19	0x3f0ae8d1	0.542615
20	0xbd31801e	-0.043335073
21	0x3e8ecee0	0.27892208
22	0x3ec3a652	0.3821283
23	0x3e880034	0.26562655
24	0x3e67a9b8	0.22623336
25	0x3f0afd65	0.542929
26	0x3ea30136	0.3183686
27	0x3d5966df	0.05307662
28	0xbe790fa9	-0.2432238
29	0xbe379011	-0.1792605
30	0xbe15d159	-0.14630641
31	0x3f0ca237	0.5493502
32	0xbf00e59d	-0.5035036
33	0x3f8f4d5e	1.1195486
34	0x3ebbb309	0.3666003
35	0xbee823a7	-0.453397
36	0xbd81330f	-0.06308567
37	0xbea8c2e4	-0.3296119
38	0xbe959245	-0.29213157
39	0x3db023c9	0.086005755
40	0x3f1fab7b	0.62371033
41	0xbf2353e3	-0.63799876
42	0xbc755b4b	-0.014975379
43	0xbe1aa8d4	-0.15103465
44	0xbbb16be1	-0.0054144715
45	0xbe4ac8ec	-0.19803208
46	0xbf5c52f9	-0.86064106
47	0x3df54090	0.11975205
48	0x3e35a518	0.1773876
49	0xbf6a8ca8	-0.91620874
50	0x3e05c8b2	0.1306484
51	0xbebc8e08	-0.3682711
52	0xbf5cc2a0	-0.86234474
53	0xbe808ed8	-0.2510898
54	0x3e812cb9	0.25229433
55	0x3e1003fc	0.1406402
56	0x3f0c57d7	0.5482153
57	0xbed96472	-0.42459446
58	0xbef42fb0	-0.47692633
59	0x3c0f4747	0.008745021
60	0xbc31e9cb	-0.010858963
61	0xbb1373c0	-0.0022499412
62	0x3c255bc8	0.010092683
63	0xbca47b9f	-0.020078478
64	0xbe412314	-0.18861037
65	0x3d0de9b3	0.0346467
66	0xbf2d1c9b	-0.67621773
67	0x3f0d162f	0.55111974
68	0xbc098057	-0.008392415
69	0x3e867546	0.26261348
70	0x3d24c129	0.040223274
71	0xbd412075	-0.047150094
72	0xbd545acc	-0.051844403
73	0xbef2dec7	-0.4743559
74	0x3e85988a	0.2609294
75	0x3f201d1f	0.62544435
76	0xbe3cfcda	-0.1845583
77	0x3d16cd44	0.03681685
78	0xbe994e3c	-0.299425
79	0xbf25ccea	-0.647658
80	0xbec5aafb	-0.3860701
81	0x3ed36a5a	0.41292077
82	0x3d9ac01a	0.07556172
83	0xbd99dc38	-0.075127065
84	0xbc2def51	-0.0106161395
85	0xbe8df63b	-0.2772692
86	0xbe7fbb94	-0.24973899
87	0xbe959aa7	-0.29219553
88	0x3daa2daf	0.08309495
89	0x3d09aef6	0.03361412
90	0xbe7c6e1e	-0.24651381
91	0x3dce8d5c	0.10085556
92	0x3d8f6542	0.07001735
93	0xbd9606a6	-0.07325487
94	0x3e4ede9c	0.20202106
95	0x3e1068db	0.14102499
96	0x3eadbc8a	0.33932906
97	0x3e078b4a	0.13236728
98	0xbed98edd	-0.4249181
99	0xba065509	-0.00051243656
100	0xbe317749	-0.1733066
101	0xbf504ecd	-0.8137024
102	0x3e3369a4	0.17520767
103	0xbec05026	-0.37561148
104	0x3ef59e01	0.4797211
105	0xbf04e7ea	-0.5191637
106	0xbf021a53	-0.5082142
107	0x3e8291eb	0.25501952
108	0xbf3639de	-0.7118205
109	0x3e7174f8	0.23579776
110	0xbf31f6c3	-0.69517154
111	0xbe9a74a1	-0.30167106
112	0xbd11775e	-0.035514228
113	0x3e81a674	0.25322306
114	0x3d6f57e6	0.058433436
115	0x3e9f16ad	0.31071988
116	0xbdb146eb	-0.08656105
117	0xbf0e00bc	-0.5546987
118	0x3f5144fd	0.8174589
119	0x3ee0f5ec	0.43937624
120	0x3f0fc4cc	0.56159663
121	0xbf10d0fb	-0.5656888
122	0xbd8db1e3	-0.06918695
123	0xbe884c76	-0.26620835
124	0x3e719263	0.23590998
125	0xbe6061bb	-0.21912281
126	0x3db0b19b	0.086276256
127	0xbd84619a	-0.064639285

convs.1.bn1.weight f4 [128]
0	0x3f991890	1.1960621
1	0x40cee210	6.4650955
2	0x400c8611	2.1956828
3	0x40930fb2	4.595666
4	0x408f3917	4.475719
5	0x40acf1e0	5.4045258
6	0x40adbe0c	5.429449
7	0x40a3c6e1	5.118027
8	0x4028a92f	2.6353261
9	0x3fe2dbc1	1.7723314
10	0x4055d9f2	3.3414273
11	0x4159dbb9	13.616143
12	0x40c4963f	6.1433406
13	0x4053d9f9	3.310179
14	0x40339d89	2.8064902
15	0x405dbd76	3.4646888
16	0x4023d220	2.5597
17	0x401a8d29	2.4148657
18	0x40a99b18	5.3001823
19	0x4084ed99	4.1540036
20	0x404134c1	3.0188448
21	0x409e23e0	4.9418793
22	0x405dd86e	3.4663348
23	0x40455c49	3.0837576
24	0x40866508	4.199833
25	0x40756b0a	3.8346581
26	0x4085a6ea	4.1766253
27	0x407e3d5b	3.9724948
28	0x4047777c	3.1166677
29	0x407df836	3.9682746
30	0x404a8e7e	3.164947
31	0x406fcf59	3.7470305
32	0x40313dd4	2.7693987
33	0x40bd3356	5.9125166
34	0x405452c3	3.3175514
35	0x40af8f27	5.4862247
36	0x40556b36	3.3346686
37	0x4072e19e	3.7950206
38	0x40831a07	4.096927
39	0x405b4f87	3.426729
40	0x40d568bf	6.6690364
41	0x408e3295	4.4436746
42	0x408e5db7	4.44894
43	0x409c247a	4.8794527
44	0x4043a632	3.0570188
45	0x4086faa5	4.2180963
46	0x40af3757	5.4755054
47	0x4088b99d	4.272658
48	0x402e5188	2.7237263
49	0x407e32f6	3.9718604
50	0x409d1cf6	4.9097853
51	0x3f98471b	1.18967
52	0x40aa991b	5.3311896
53	0x4022782e	2.5385852
54	0x40c64352	6.195718
55	0x4032e151	2.7950022
56	0x4097b10a	4.740361
57	0x401a9c2d	2.4157822
58	0x40a941eb	5.2892966
59	0x4085df3d	4.183501
60	0x401ddeaf	2.4667165
61	0x3ff9504a	1.9477627
62	0x3feb7758	1.8395796
63	0x3fc7473d	1.5568615
64	0x3fdae170	1.7100048
65	0x3f7c155b	0.98470086
66	0x400e3ae6	2.2223449
67	0x3f84ee75	1.0385271
68	0x3fbc5ce8	1.4715853
69	0x3ef8d5f5	0.48600736
70	0x3fa397c9	1.2780696
71	0x3fb45ccd	1.409082
72	0x40205f0f	2.505802
73	0x401388b5	2.305219
74	0x3f9c6d55	1.2220865
75	0x3f519cc6	0.8187984
76	0x40082a45	2.12758
77	0x401b1179	2.4229414
78	0x3ff5bde5	1.9198576
79	0x406938a1	3.6440814
80	0x4109f43e	8.622129
81	0x400fb6eb	2.2455394
82	0x3fc1076b	1.5080389
83	0x3f940e21	1.1566812
84	0x3ee10dd6	0.43955868
85	0x40573663	3.3626945
86	0x3f5c6d97	0.8610472
87	0x40471b50	3.111042
88	0x3f6c28e3	0.9224989
89	0x3f972094	1.1806817
90	0x401955cf	2.3958623
91	0x3f8df02b	1.1088918
92	0x4058aa13	3.3853805
93	0x3f81df87	1.014634
94	0x3f29ffea	0.6640612
95	0x3feffca0	1.874897
96	0x3fc401fa	1.5313103
97	0x3fee5f17	1.8622769
98	0x409cffd2	4.906228
99	0x3f570c12	0.8400279
100	0x40394392	2.8947492
101	0x3fefc974	1.8733354
102	0x3f503c97	0.8134245
103	0x403cc2b9	2.949385
104	0x3ef58c0d	0.47958413
105	0x40468d69	3.102381
106	0x3fb5ef5f	1.4213675
107	0x3fd653b6	1.6744297
108	0x3f969780	1.1764984
109	0x3ec28663	0.37993154
110	0x3fabaabc	1.3411479
111	0x40639ec7	3.556566
112	0x406343fd	3.5510247
113	0x3ef659bf	0.48115346
114	0x3f5ef212	0.8708812
115	0x3e8beea4	0.27330506
116	0x3ff4f859	1.913829
117	0x4019c084	2.4023752
118	0x3fcf1796	1.6179073
119	0x3fe415bf	1.7819136
120	0x3f5b6b53	0.8571064
121	0x40582e8c	3.377841
122	0x3f837b34	1.0271974
123	0x3fb8ef94	1.4448113
124	0x3fcbdb92	1.5926383
125	0x3fbfd661	1.4987298
126	0x3ff9e577	1.9523152
127	0x3fbdef7d	1.4838711
