results/CrystalAE/2023-06-14/23:17:15.830558/models/model42.pth (torch, 429732 bytes, 37 tensors)

embedding.weight f4 [64, 92]
000000 dc e0 29 be 76 a1 4e bd 74 b3 59 be 86 19 93 3e
       -0.16589683 -0.05044695 -0.21259862 0.2873041
000010 c0 d9 76 3d 1c dd 5f be f7 a5 23 3f 2a dd 0f bf
       0.060266256 -0.2186169 0.6392512 -0.56196845
000020 ee b0 97 be 57 6e 9b 3e bd ec 82 be 87 92 d1 bd
       -0.29627174 0.3035762 -0.25571242 -0.10233026
000030 22 a7 0a 3e 18 6c 67 be 3c ee c4 be 0a 36 00 bd
       0.13540319 -0.22599828 -0.38463008 -0.031301536
000040 06 7b 93 bd 35 2c 24 3e c1 41 89 3f 11 6b db 3c
       -0.07201199 0.16032489 1.0723191 0.026784452
000050 18 cf b6 3d 55 94 97 bd b5 07 95 bd 06 99 bf bd
       0.08926219 -0.07401339 -0.072768606 -0.09355359
000060 61 ef d8 be fb 9e 57 3f 0d 0c 4d bc 4a 18 09 3e
       -0.42370132 0.8422696 -0.01251508 0.13388172
000070 7e ef 6c 3c 22 8b 54 3e 51 91 7a bd be 53 44 3e
       0.014461396 0.207562 -0.06117374 0.1917257
000080 ce 6d 13 be 73 bb 67 3e 6b 8e 6d bd f3 98 6e 3c
       -0.14397356 0.226301 -0.05799715 0.014562833
000090 67 41 c2 bd 65 80 23 be 26 cd 25 be e7 a5 ca bd
       -0.09485131 -0.15966947 -0.16191539 -0.098949246
0000a0 12 c7 c5 bd d6 c3 ab bc f6 12 93 3d 31 7a 8b be
       -0.0965711 -0.020967405 0.07181351 -0.27241662
0000b0 ba b7 0f be aa 75 01 3f 45 b0 8f bd 49 5d 07 be
       -0.1403493 0.50570166 -0.070160426 -0.13219179
0000c0 9e ca 45 ba 72 c4 38 be 03 36 15 be bf d9 05 3e
       -0.0007545146 -0.18043688 -0.14571385 0.13071345
0000d0 d9 9f b9 bd 83 21 be bd 0c b7 78 3e aa 2c 02 be
       -0.09063692 -0.092837356 0.24288577 -0.1271235
0000e0 b2 c1 52 be 81 dc 0f 3d 56 43 24 3d 83 05 4b be
       -0.20581701 0.0351224 0.04010328 -0.19826321
0000f0 09 50 42 be d7 14 d1 3d 59 b2 ab be 87 a6 5b be
       -0.18975843 0.10209053 -0.33534506 -0.21450244
000100 83 6b 42 bd 94 2c 05 3d 06 32 c7 bc c7 26 ee 3e
       -0.047465812 0.032513216 -0.024315845 0.4651396
000110 58 c8 19 bf 06 f9 47 3d ea d8 6f 3d c7 82 82 3d
       -0.60071325 0.04882147 0.058556475 0.063726
000120 ab 43 9b bd e6 1c 89 be 62 c3 11 bd 25 60 31 3e
       -0.07581266 -0.2677986 -0.035586722 0.17321832
000130 4f 0e 2f 3d c5 d7 20 bc 83 64 cc bd 8c 5b 8f bd
       0.042738255 -0.009817068 -0.099801086 -0.06999883
000140 58 ac e5 bc 52 e4 f4 bd 34 0e 6b be af 3d 77 bd
       -0.028036281 -0.11957611 -0.22954637 -0.06036156
000150 11 67 50 3e 93 4d 2b be c2 55 90 bd fa a0 3c 3e
       0.20351817 -0.16728811 -0.07047607 0.18420783
000160 20 a5 26 3e 37 66 82 bd 41 96 d3 bd 05 f7 5f 3e
       0.16273928 -0.06367152 -0.10331393 0.21871574
000170 46 84 cd bc e7 3a a5 3d 02 47 5e be 30 65 39 bf
       -0.025087487 0.08067875 -0.21706775 -0.72420025
000180 05 51 40 3e 81 9c 4b 3f 69 8d 19 3f 82 6b 6b 3f
       0.18780906 0.7953568 0.599814 0.9196092
000190 ab dd ff bb da 7f 85 bd 87 dd c3 be 0f a6 39 bf
       -0.0078084073 -0.065185264 -0.3825495 -0.7251901
0001a0 8e e0 b3 bd 98 91 35 3e 78 73 ab be 97 25 77 bd
       -0.08783065 0.17731321 -0.33486533 -0.060338583
0001b0 c4 65 0c 3d 87 13 38 be 6e d4 94 3d b2 d6 20 3d
       0.03427674 -0.17976199 0.0726708 0.03926725
0001c0 e7 32 93 3e af cb ff bd 22 e4 b7 be ed b3 2a 3e
       0.28749773 -0.124900214 -0.3591624 0.16670199
0001d0 7b 89 09 bf 02 83 bb be b2 d4 94 be 35 30 e2 bc
       -0.53725404 -0.3662339 -0.29068524 -0.027610878
0001e0 6d f5 e3 bd c8 c8 e2 3d 16 62 b0 bc 3a 8c d0 bd
       -0.11130796 0.11073452 -0.021531146 -0.10182996
0001f0 12 be 0e 3f 61 ee d8 be 9d 97 4c be f4 ed 43 3e
       0.55758774 -0.4236937 -0.19979711 0.1913374
000200 36 7b f9 3d ac 80 97 bd 89 41 83 3d fc 44 da bd
       0.12181704 -0.07397589 0.06408984 -0.10657689
000210 ae 89 82 3e 99 44 a7 be ef a0 d4 be 91 93 e5 be
       0.25495666 -0.32669523 -0.41529033 -0.44839147
000220 a6 7b 27 be dc 76 78 3e ee bd 99 3c f5 db 43 be
       -0.16355762 0.24264091 0.018767323 -0.19126876
000230 23 f8 57 be 3f 17 8b be 5d 1d aa 3e 06 3d 53 3e
       -0.2109075 -0.27166173 0.33225527 0.20628747
000240 8a da 7e 3e 9e 74 85 bd b8 60 41 bd b7 07 b7 3e
       0.24888054 -0.065163836 -0.04721138 0.35748073
000250 c3 6b 3e bf 0e 61 49 bf ee 85 c9 be f3 7f a7 be
       -0.7438318 -0.7866372 -0.39359993 -0.32714805
000260 60 b4 a1 bc c4 38 b6 3c b9 18 47 3e ad ed 18 3e
       -0.01973933 0.022243865 0.19443025 0.14934416
000270 fc 25 cf be a2 1d 23 3e ef ca bd bd d0 35 30 3e
       -0.40458667 0.15929273 -0.09267222 0.17208028
000280 e9 00 52 bf bb 84 ce 3d b9 49 a4 3e 20 3a ab 3d
       -0.8203264 0.1008391 0.32087496 0.08360696
000290 cd ba 16 3f 97 41 31 be 28 40 81 be 04 52 aa 3d
       0.58878785 -0.17310177 -0.2524426 0.083164245
0002a0 65 98 8e 3d 14 f2 cf bd 5a 76 ef bd 26 d8 b7 be
       0.06962661 -0.101535946 -0.11692496 -0.35907096
0002b0 87 53 b7 bd 19 91 1c bd c8 0a 05 bf c3 ba 4f bc
       -0.089514785 -0.038224313 -0.51969576 -0.012678805
0002c0 99 34 d5 be 4a 2d a9 3e 66 b3 2a 3e ae 73 1c be
       -0.4164169 0.33042365 0.16669998 -0.15278503
0002d0 8b c3 96 be f9 67 30 3e b4 cb a5 be fd 31 25 be
       -0.29446062 0.17227162 -0.32381976 -0.1613235
0002e0 d9 c9 28 be 8b 63 a5 bd c7 68 02 be 1b cc ec be
       -0.16483249 -0.08075627 -0.12735282 -0.4624947
0002f0 85 6a 41 be bc 3e 98 bd a8 91 ee 3e 22 76 0a 3e
       -0.1888829 -0.07433841 0.46595502 0.13521627
000300 5f 06 25 3d 15 53 d9 3e 93 0f 74 3e 37 7c 42 be
       0.04028928 0.424462 0.23834066 -0.18992697
000310 a8 05 28 bf 43 a2 a1 3e d7 9c 32 bd 40 dd e0 bc
       -0.6563363 0.31569108 -0.043606605 -0.02744925
000320 10 ee f6 bd 2b 01 38 be bb 66 bf be 98 33 ac bd
       -0.120571256 -0.17969196 -0.37383065 -0.08408278
000330 07 38 2a be 40 aa 5d be 0a 42 85 bd ba d8 5a be
       -0.16622935 -0.21646976 -0.065067366 -0.21371737
000340 67 f3 57 3d 44 2a 18 3f 93 96 28 3e ef a7 35 bd
       0.05272236 0.5943949 0.1646369 -0.044349607
000350 e0 14 56 3d 10 82 93 3d 4a c0 d0 3d 17 2a 39 bd
       0.052266 0.07202542 0.10192926 -0.045206156
000360 95 db bc be 41 d4 6f be fc 07 12 bd c7 15 c4 bd
       -0.36886278 -0.23420812 -0.035652146 -0.09574466
000370 57 3f 06 be b0 ec 22 be 55 80 1e 3d d2 11 77 3d
       -0.131101 -0.15910602 0.038696606 0.06031973
000380 09 61 1a 3e 0a d9 8d bd a5 f6 34 be 94 92 d2 be
       0.15076078 -0.069261625 -0.17672212 -0.41127455
000390 4d 20 59 3c 66 9f 98 bd af 39 86 bd f4 e2 fc bd
       0.01325233 -0.07452278 -0.06553971 -0.123479754
0003a0 95 74 98 3c f7 f8 a3 be 30 12 39 3d 52 e1 28 bc
       0.018610278 -0.32025883 0.04518336 -0.010307627
0003b0 38 38 5e 3c ce a2 ed bd 0b 79 75 3e 87 54 7e be
       0.013563208 -0.11603318 0.23971955 -0.24836932
0003c0 e9 e8 af bd d1 a2 3a 3d a2 56 f9 3d 6f 67 c9 3e
       -0.08589346 0.04556543 0.12174727 0.39336726
0003d0 2f 8d c8 bd 85 c2 65 be 93 02 86 bd 7f 38 5c be
       -0.09792554 -0.22437485 -0.0654346 -0.21505927
0003e0 dc b0 e7 3d cc 37 61 bd be 2b 84 3d 1c b0 5b 3e
       0.1131303 -0.054984853 0.06453656 0.21453899
0003f0 d4 f6 44 be c8 86 af bd 8d 07 64 be 5f dd 0d 3b
       -0.19234782 -0.08570629 -0.22268505 0.002164684

convs.0.fc_full.weight f4 [128, 169]
000000 f2 c2 42 be fe 62 8f be 84 5a 4f 3e 88 c1 22 3e
       -0.19019678 -0.28005213 0.20249373 0.15894139
000010 6d 46 29 bd 7b 7a fe 3e ff 56 67 be 85 17 e4 bd
       -0.04132693 0.4970282 -0.2259178 -0.111372985
000020 0d 2e 34 3e 4f 5a 86 3d 25 d9 aa 3e 3f a5 fc bd
       0.17595692 0.06560194 0.33368793 -0.12336206
000030 47 fc ef 3d 18 e8 dc 3e ed 01 f9 be 0e 75 06 be
       0.1171804 0.43145823 -0.48634282 -0.1313059
000040 94 3c 64 3e ab af 8d 3e 59 80 4b 3e fc a2 12 3d
       0.22288734 0.27673087 0.1987318 0.035799965
000050 b9 ee b6 3e aa 7f 10 be 03 6a db 3e 3c 91 94 be
       0.35729006 -0.141112 0.42854318 -0.29017055
000060 e1 ca 4d 3e 2d e7 8b 3e 66 2c 52 bd 89 11 ee be
       0.20096923 0.2732481 -0.051311873 -0.46497753
000070 c6 00 e7 bc 6b 86 c4 3e a0 d9 dc bd dd 98 65 3e
       -0.028198611 0.38383803 -0.10783696 0.22421594
000080 24 a7 59 bf 56 7b e0 3e 94 6f b0 be 28 9f c1 be
       -0.8502066 0.43844098 -0.34460127 -0.3781674
000090 22 d1 ce be 03 09 b5 bd 6a b9 fb bd bc b7 78 be
       -0.4039393 -0.088396095 -0.12291224 -0.24288839
0000a0 f5 eb 81 be 33 c4 e9 3d f8 b8 15 bf 39 a6 39 3e
       -0.25375333 0.11414375 -0.58485365 0.18129815
0000b0 cc 58 b6 3e ba 52 c6 3d 41 22 8d 3e 01 fd aa bd
       0.35614622 0.096837476 0.27565196 -0.08349038
0000c0 33 3e cd 3c 33 aa 2a bd 0a 47 93 be de ef 2a 3e
       0.025054073 -0.04166622 -0.28765136 0.16693065
0000d0 66 3e 2c 3d 17 37 fc be 38 2c b8 3d 38 c4 39 bd
       0.042051695 -0.4926078 0.08992809 -0.045353144
0000e0 47 05 b3 3d 45 6a 10 3e ba 89 7f 3e 59 7f 7d 3d
       0.08741241 0.14103039 0.24954882 0.061889026
0000f0 83 03 40 3e 00 fd 6e be f8 b7 14 bf 66 5a 9f 3b
       0.1875134 -0.233387 -0.58093214 0.0048630713
000100 f2 d4 bc bf 02 a5 9f 3e 60 fb 90 3e 7e f9 ed be
       -1.4752486 0.31180578 0.28316784 -0.4647941
000110 6f 9b 0e 3f f9 fa 3f be 5d 7e 56 bc 5a a9 d6 bc
       0.5570592 -0.18748082 -0.013091651 -0.0262038
000120 e0 49 0f 3e c0 69 44 3f 86 7e f4 3d 76 16 7d bf
       0.13993025 0.7672386 0.11938195 -0.988624
000130 66 e8 8d be 82 33 28 3f 88 39 11 3f 49 cc 56 bf
       -0.27716368 0.65703595 0.5672841 -0.83905464
000140 97 7e 8d bd a0 89 52 3f c0 fe 0c 3f e5 ae 46 bd
       -0.06908911 0.8224125 0.5507622 -0.048506636
000150 67 fe 89 bf 80 6f 1f 3f 3a cc 99 3e 8e ea 53 3f
       -1.0780762 0.6227951 0.30038625 0.8277978
000160 e6 f2 4c 3f 78 76 20 bf 31 c9 f0 be 2d 61 35 3f
       0.80058134 -0.6268077 -0.47028497 0.70851403
000170 27 91 49 3f 39 aa 3c be b7 f0 12 3e 6b 5e ae 3e
       0.7873711 -0.1842431 0.14349638 0.3405641
000180 ff de 70 bf 40 56 17 bf fe 64 1d 3e d5 2c 81 3f
       -0.94090265 -0.5911598 0.15370557 1.0091807
000190 db ca a4 3f 9a f5 e0 be 82 4b 87 3d 14 8b 4e 3f
       1.2874407 -0.4393738 0.06606199 0.80680966
0001a0 b0 f5 eb be c6 8e 1d bf 6f d6 4b 3e de 29 89 bf
       -0.46085882 -0.6154598 0.19906019 -1.0715902
0001b0 85 28 0c 3f 4d 21 d7 3e ea 02 c4 bf d2 1a 56 3d
       0.5474933 0.42017594 -1.5313389 0.05227167
0001c0 6a df 20 3f 1e 1b b1 bd ce de eb 3e c8 18 05 3f
       0.628409 -0.0864775 0.46068424 0.5199094
0001d0 45 89 3d 3e f4 bf 10 3f cf 68 81 be 66 81 a3 be
       0.18509395 0.565429 -0.25275275 -0.3193466
0001e0 d0 67 40 bd 3f 74 28 be 2d c0 2d 3e 8c 70 29 bf
       -0.046974003 -0.16450594 0.1696784 -0.6618736
0001f0 bf 0f dc be e1 26 2a 3f 45 ab 72 bf 4b 22 35 3f
       -0.42980763 0.66465575 -0.94792587 0.7075545
000200 75 b3 46 3d d3 ac 2f 3d 0d 3a 4e 3f 4f 2f b7 3e
       0.048510987 0.042889427 0.8055733 0.3577828
000210 0c 46 39 bd 9b 09 16 3c 1f 41 1a 3f ca d3 fb be
       -0.045232818 0.009157564 0.60255617 -0.4918502
000220 ba 2a 2d c0 b9 b3 16 c0 19 c2 b7 3d f6 f3 c0 3f
       -2.7057328 -2.3547194 0.08972568 1.5074451
000230 12 b2 79 3f 9e c4 16 3f bd db ab 3f 49 0d 92 bf
       0.9753734 0.58893764 1.3426434 -1.1410304
000240 60 47 d3 3f df c3 1f 3f 8f ba 3a c0 34 5c 50 c0
       1.6506157 0.6240825 -2.9176366 -3.2556276
000250 ca 6b ba bf 6d 73 89 bf 5c 62 92 3f 77 74 b4 3f
       -1.4564145 -1.073835 1.1436267 1.4098042
000260 55 6f bf 3f d1 f3 d6 bd eb 54 b8 bf 9f 19 5d bf
       1.4955851 -0.10495723 -1.4400915 -0.8636722
000270 cd 2f 1a bf 9f 06 e6 bf d1 37 0e c0 99 7f d0 bf
       -0.6022919 -1.7970771 -2.2221568 -1.628894
000280 67 df 86 bf 01 b2 29 3e 0d 72 5e 3e ab 62 98 3e
       -1.0536927 0.1657181 0.21723194 0.29762778
000290 8a 3a 29 3d 4a 4f c1 ba da e2 ea bc d3 74 38 bd
       0.041315593 -0.0014748361 -0.028672624 -0.045033287
0002a0 28 52 4c 3b e2 16 25 3f 20 13 a1 bf d6 e1 0d be
       0.0031176899 0.6448804 -1.2583961 -0.13855681
0002b0 2e ed cc be 94 df d6 be cb 8f 27 3f 36 2a 2c 3e
       -0.40024704 -0.41967452 0.65453786 0.16812977
0002c0 7f d4 44 be 4d 85 63 be 51 a9 3b bf 08 cb 23 be
       -0.19221686 -0.22218819 -0.7330523 -0.15995419
0002d0 bf 75 85 3e 67 97 18 3a 20 35 97 3a f3 5d 36 3f
       0.26066396 0.00058209006 0.0011536218 0.71237105
0002e0 f9 d1 9a 3c 96 2d 0d 3d a7 9b 5b 3f 4e e6 b4 3d
       0.01889895 0.034467302 0.8578438 0.0883299
0002f0 21 45 b3 3e da 53 99 be bf f8 a2 be 81 78 52 3e
       0.3501368 -0.29946786 -0.31830403 0.20553781
000300 f9 9b 32 be c7 c9 0e bf 24 5d 1b 3f f7 19 1f 3f
       -0.17442311 -0.5577664 0.60688996 0.62148994
000310 89 d6 87 3f fb c1 51 3f 8d ef 67 3d 64 38 26 3f
       1.0612346 0.81936616 0.056624938 0.64929795
000320 cb 2c 7a be 87 41 96 be 25 12 d7 3e 9d 59 34 3d
       -0.2443115 -0.29346868 0.4200603 0.044030774
000330 99 51 b2 3e 81 ac a4 3f cb 4f 09 bf b3 2f 4d 3e
       0.3482788 1.2865144 -0.5363738 0.20037727
000340 5b c5 28 bf f0 77 fc 3d 8f 1a 66 be 4f 93 6e 3c
       -0.6592614 0.12327564 -0.22471069 0.014561488
000350 89 dc 95 be 26 a2 ee 3e 6f 22 b1 3d 19 75 82 3c
       -0.29269817 0.46608084 0.08649146 0.015924977
000360 7d 6b 5d bf bb ec fb 3e 0f c2 b5 be b4 6b 71 3e
       -0.8649214 0.4920405 -0.35499617 0.23576242
000370 a3 11 c7 3e 83 52 90 3d 6f 6c 89 3d fd bf a9 be
       0.38880643 0.07046988 0.06710135 -0.33154288
000380 6d ce 1a 3e bd 5f 79 bd 2c 71 0c bf 99 cc df 3e
       0.15117808 -0.06088232 -0.54860187 0.43710783
000390 a9 fe 9d 3e 01 c0 1f be 9b 92 3a 3f 34 f1 b8 3c
       0.30858353 -0.15600587 0.7287995 0.022575952
0003a0 29 27 d6 3e d3 57 28 3f a7 08 28 bf e7 5c 84 3e
       0.41826752 0.6575901 -0.656382 0.2585213
0003b0 9b 74 4e 3f 85 66 31 be 9e e2 1d bf 4e e1 bc 3d
       0.80646676 -0.17324264 -0.61673915 0.09222661
0003c0 8d f2 d0 3e de 24 31 3f 94 07 f4 be e6 bf fa be
       0.40810052 0.6919688 -0.47662032 -0.48974532
0003d0 41 3c e3 3e ff ac b8 3d 9a 87 60 3d 3a bf e6 be
       0.44381908 0.090173714 0.05481682 -0.4506777
0003e0 71 03 a8 3e de 77 06 bf 1f df 2e bf 83 e4 b0 be
       0.32815126 -0.5252665 -0.68309206 -0.3454934
0003f0 23 af ea be 5d e4 a8 3e 3f 0a be be 9b ec b5 3d
       -0.45836744 0.32986727 -0.37117192 0.088830195

convs.0.fc_full.bias f4 [128]
000000 1e 0a 5e 3e e2 30 67 3d 98 db e3 bd 75 30 88 3e
       0.21683547 0.056443103 -0.111258686 0.2659947
000010 a0 35 aa 3e 00 65 49 bd 55 89 b3 3e 1b 57 6d 3e
       0.33244038 -0.049168587 0.35065714 0.2317776
000020 cb 95 d0 be cd e0 8d be 60 27 87 bb f8 c0 b6 3e
       -0.40739283 -0.27710572 -0.004124567 0.35694098
000030 19 86 5f 3e 58 14 7c 3c 4a d5 1c 3d f2 91 ad 3c
       0.21828498 0.01538571 0.038289346 0.021187756
000040 d6 b6 e4 3d 3d 91 7a be 82 5f 0f 3e ca 2c 70 3e
       0.11167686 -0.24469467 0.14001277 0.23454586
000050 b4 01 ef ba b1 02 fc 3d 49 6f 98 bd df 23 9b be
       -0.001823476 0.12305201 -0.07443101 -0.30300805
000060 b5 e3 39 3e 60 80 9a 3d 60 11 1f bc 78 f9 a5 bc
       0.1815327 0.07544017 -0.009708732 -0.020260558
000070 6b 57 cb bd 79 bf 32 3f f3 96 3e bf 4d b3 2c bc
       -0.09928783 0.69823414 -0.7444908 -0.0105407955
000080 52 bc 5c 3e 89 4c 97 bb 29 fc eb bd db 3e 82 3c
       0.21556213 -0.004617278 -0.11522705 0.015899112
000090 c8 48 0b 3d a8 ae ce bd 99 66 8d bd 71 a7 e5 3e
       0.034004956 -0.10091907 -0.069043346 0.4485431
0000a0 07 80 df 3e 91 40 c8 bc f9 68 90 3e 73 48 ad 3d
       0.43652365 -0.02444485 0.28205088 0.08461084
0000b0 3d c8 89 3e b9 66 69 3d e9 a3 2f 3e f6 9a db 3c
       0.26910582 0.05698273 0.1715237 0.02680729
0000c0 08 5b 42 be df ee 37 be 74 ee 67 be f4 84 38 3e
       -0.18980038 -0.17962216 -0.22649556 0.18019468
0000d0 68 6d 94 3e f7 1f 4f bd 68 3e d9 3e 60 ea 96 3e
       0.2898972 -0.050567593 0.42430425 0.2947569
0000e0 d4 e8 69 3e 6c f9 dd bd 6e 3a d8 3d 0e 21 24 be
       0.22842723 -0.10838589 0.105580196 -0.16028234
0000f0 7e 66 aa 3e b6 7f b1 3e 34 c2 f6 3d 4e 58 4c 3e
       0.3328132 0.34667748 0.1204876 0.1995556
000100 a5 bd be 3d a9 f5 c1 3d 6b 40 a5 3d 91 13 7b 3e
       0.093135156 0.09470684 0.080689274 0.24519183
000110 ad 99 44 3f 8f 57 04 3d 00 8c 3d 3d e3 e3 ab 3e
       0.7679699 0.032310065 0.046276093 0.335723
000120 00 6f ba be 0d 80 56 be c6 1d 97 3d ff 4e 6b 3b
       -0.3641281 -0.20947285 0.07378726 0.003590524
000130 14 01 aa bc 32 8e 0a ba 40 e4 56 3c 09 75 59 bc
       -0.020752467 -0.0005285471 0.0131159425 -0.013272532
000140 05 13 e9 bd 27 74 18 be ae 64 f8 bc 82 57 62 bd
       -0.11380581 -0.14888059 -0.030321445 -0.055259235
000150 bc 50 6e 3c db 5b 0a 3e 81 f3 8d 3c 56 c9 99 3e
       0.014545616 0.13511603 0.017328026 0.3003642
000160 57 3f ac be 0e b3 94 3d 6b b7 0b 3e 8d d4 31 bd
       -0.33642074 0.072607145 0.13644187 -0.043415595
000170 b3 e8 33 be 74 7b d4 3d fb bc b2 3e 2e 11 e9 bc
       -0.17569236 0.10375109 0.34909806 -0.028450575
000180 93 56 01 be c3 05 a0 3e e9 53 42 3c 43 72 85 3e
       -0.12630682 0.31254396 0.011860826 0.26063737
000190 26 ca cd 3d 5b 08 ac 3b 94 8c a0 bc 37 ff ee 3b
       0.100483224 0.0052500195 -0.019598283 0.0072936076
0001a0 17 22 ca 3e 98 cc 09 3e 37 96 f1 bc 1d 3d 22 3f
       0.39479133 0.13456953 -0.029490573 0.633745
0001b0 d9 3d c6 3d 4c 50 22 3e dd be 6f 3d 33 54 a8 3e
       0.09679765 0.15850943 0.05853163 0.3287674
0001c0 ea 42 64 be 11 62 fc bb 6c a6 6b 3e 79 ba 2d be
       -0.2229115 -0.00770212 0.23012704 -0.16965665
0001d0 47 3a e3 3d ef 06 8a bd ab c1 1a be aa 03 53 3e
       0.110951 -0.06739604 -0.15112941 0.20606866
0001e0 48 6a dd 3d 7f bf 2e 3e 9e e1 ac be c0 d7 cd 3a
       0.10811287 0.17065237 -0.33765882 0.0015704557
0001f0 8f 5b d2 3c df 68 48 be 77 80 78 3e 92 7f 24 3f
       0.025678424 -0.19571255 0.24267755 0.64257157

convs.0.bn1.weight f4 [128]
000000 d8 3f 7c 40 55 8c 2b 40 bc 4d 45 40 49 64 4c 40
       3.9413967 2.6804402 3.0828695 3.193621
000010 0d 3c 33 40 93 ef 3b 3f 75 ca 16 40 12 12 30 40
       2.8005402 0.73412436 2.356107 2.751103
000020 47 4c 87 40 9d 1e 11 40 6f 02 01 3f f9 39 31 40
       4.228061 2.2674935 0.5039434 2.7691634
000030 c8 3e 36 40 ef 5a 76 40 d1 75 4a 40 b9 39 2b 40
       2.8475819 3.8493001 3.163441 2.675398
000040 fc 60 30 40 c9 3e 34 40 89 7a 23 40 1d db 66 40
       2.7559195 2.816332 2.554354 3.6071236
000050 55 1f 09 40 ed da e9 3f 93 f1 71 3f 10 36 93 40
       2.1425374 1.8269936 0.9450924 4.6003494
000060 a0 02 3f 40 bb 4d ab 3f 7c 30 84 3f 78 e8 55 40
       2.9845352 1.3383096 1.0327296 3.3423138
000070 de a0 87 3f f3 69 f1 40 83 c8 e6 3f f1 fa 21 40
       1.0595968 7.5441833 1.8029941 2.5309412
000080 ff 89 76 40 9c 9c 56 40 33 89 54 3f b9 a8 d1 3f
       3.8521726 3.3533087 0.8302185 1.6379615
000090 05 96 64 3f 2f 96 2b 3f ea 92 0d 40 72 bd 96 40
       0.8929141 0.67026037 2.212092 4.7106256
0000a0 b9 e5 59 40 2c 36 e1 3f 7d e2 90 3f bc 4f 58 40
       3.4046462 1.7594657 1.1319119 3.3798666
0000b0 10 d5 78 40 de 9e 97 3f 99 91 96 40 74 fb 41 40
       3.8880043 1.1845357 4.705273 3.0309725
0000c0 0c 82 80 40 50 6d e5 3f 72 cf e1 3f 5f 12 57 40
       4.015875 1.7923985 1.7641432 3.3604963
0000d0 8a 85 50 3f 37 22 68 40 7a 3e 7c 40 d9 89 33 40
       0.81453764 3.6270883 3.9413133 2.8052886
0000e0 4b ce 5a 40 30 8c 0f 40 2f d2 c2 3f 9d e5 6b 3f
       3.4188411 2.2429314 1.5220393 0.9214724
0000f0 b7 30 37 40 49 4e 8a 40 7c f9 63 40 78 29 68 40
       2.8623483 4.3220563 3.5621023 3.627531
000100 ed 62 b3 3f 5b 13 91 3f 6c 0b 41 40 42 70 ad 3f
       1.4014565 1.1334032 3.0163221 1.3549883
000110 76 d7 45 3f 41 f1 b9 3f 6f 43 04 40 4b 09 63 3f
       0.7728189 1.452675 2.0666158 0.88686055
000120 fe 1e 26 40 64 65 9e 3f 9f ac 88 3f 13 a7 36 3f
       2.5956416 1.2374692 1.067768 0.71348685
000130 0f df b3 3f 13 e9 65 3f 21 9d c1 3f 40 93 27 3f
       1.4052447 0.8980877 1.5126077 0.6545906
000140 57 78 e6 3f c0 41 25 3f b6 33 24 40 c1 8d 6f 3f
       1.8005475 0.6455345 2.5656562 0.93575674
000150 be 8f 9a 3e 7b 69 c0 3f e5 71 fd 3f a9 d5 35 3f
       0.30187792 1.503219 1.9800383 0.71029145
000160 5a 3a c4 3f a6 61 2e 40 2d c2 01 40 b0 ae cb 3f
       1.5330307 2.72471 2.0274765 1.5912685
000170 45 cc 12 40 fd b8 ac 3e 54 07 51 40 7a a2 fa 3f
       2.2937176 0.33734885 3.2660723 1.9580834
000180 e8 41 0f 3f 05 24 be 3f 4d 5f c3 3f ec f4 0c 40
       0.5595994 1.4854742 1.5263458 2.2024488
000190 cd 07 a8 3f fb e1 68 40 db 9b c0 3f 3a be 17 3f
       1.3127381 3.6387928 1.5047563 0.5927464
0001a0 f0 42 0b 40 5f 96 15 40 7f 46 0e 40 89 cf d2 3f
       2.1759605 2.337303 2.2230527 1.6469585
0001b0 a8 28 10 3f f1 4e 55 40 e4 bc cc 3e 90 cd 0e 3f
       0.56312037 3.3329432 0.39987862 0.55782413
0001c0 eb dd e4 3f bd 4b 25 40 9e 11 27 40 d9 96 0a 40
       1.7880224 2.5827477 2.6104503 2.165457
0001d0 8c 88 d1 3f da 9c 1f 3f f4 48 23 3f 39 96 fa 3f
       1.6369796 0.6234871 0.6378319 1.9577094
0001e0 ab f7 90 3f 0e cb aa 3f 0d 4e e7 3f 88 45 84 3f
       1.1325582 1.3343217 1.8070694 1.0333719
0001f0 2b 3a 99 3f c2 51 79 3e 95 8f cd 3f 55 96 d7 3f
       1.1970876 0.24347594 1.6059443 1.6842753

convs.0.bn1.bias f4 [128]
000000 76 39 49 bf 83 3f d3 3d cc 75 2b bf 25 5c 1f bf
       -0.78603303 0.10314848 -0.6697662 -0.62249976
000010 ca bb 36 be 46 40 aa bf b8 08 de be e0 63 6e 3e
       -0.17845073 -1.3300865 -0.43366027 0.23280287
000020 6b 49 a4 be 0d f0 27 3e 07 8a 06 c0 d9 7a 52 3f
       -0.32087263 0.16400166 -2.1021745 0.822187
000030 c1 51 bc be cf b0 13 3d 5d ef 3f bf 38 45 ce 3e
       -0.36781123 0.03605729 -0.74974614 0.40287185
000040 cf a5 3c 3e d3 af 3a 3d 25 68 aa bf 1e 16 08 bf
       0.18422626 0.045577835 -1.3313032 -0.5315875
000050 96 4a 00 3f 35 b3 22 bf 32 26 ad be f3 58 af 3e
       0.5011381 -0.635547 -0.33818203 0.3424755
000060 22 f7 82 be 9e b4 f7 bd 30 d9 1e c0 d7 45 fc bd
       -0.25579172 -0.12094997 -2.482006 -0.123180084
000070 b0 e8 07 c0 54 82 f2 3d 6d c7 42 3f 21 90 28 bf
       -2.123577 0.11841264 0.7608555 -0.65844923
000080 e9 8a 6c 3f f5 c3 86 be 9c 11 46 bf 8c 39 14 be
       0.9239946 -0.26321378 -0.7737062 -0.14475077
000090 6b 9a 8d bf f1 07 a9 be 83 32 1d be 2f e1 b7 3e
       -1.106275 -0.3301387 -0.153513 0.3591399
0000a0 7f c4 98 3e bf a2 2b bf 61 c1 07 bf a6 75 a4 3d
       0.29837415 -0.67045206 -0.5302945 0.08030252
0000b0 5a 17 82 3f 0b 54 d1 bf 1d c2 03 3f 9f 29 cb 3e
       1.0163376 -1.6353773 0.5146807 0.39680192
0000c0 9e 53 cc bf 48 68 79 bf 42 5e f3 bf fe 77 67 bf
       -1.5963018 -0.97424746 -1.901314 -0.9041747
0000d0 2a 33 8d bf 8f fd 48 3f 07 42 07 bf f1 19 88 be
       -1.1031239 0.785119 -0.52835125 -0.26582292
0000e0 3d 62 6d be 7d af b6 bf 97 9e b1 bf 71 fb a0 bf
       -0.23182006 -1.4272305 -1.3876523 -1.2576734
0000f0 db 3c 02 3f 4c 58 b7 3d 95 9a 00 3f b3 02 09 bf
       0.5087411 0.08952388 0.50235873 -0.53519744
000100 51 96 d6 bd 96 53 0b 3f bd cb 91 be 57 83 fb be
       -0.10477889 0.54424417 -0.28475752 -0.49123642
000110 35 fa 77 3f 82 b8 d1 bf 9b b5 66 bf bc 21 7f 3f
       0.9686616 -1.6384432 -0.9012086 0.9966085
000120 75 bc f2 be eb c1 b2 3f eb b1 1e c0 36 95 b8 3f
       -0.47409406 1.3965429 -2.4796093 1.4420536
000130 e4 85 e8 3e 01 00 84 3e d4 95 a2 be 4a ca 8a 3f
       0.4541465 0.25781253 -0.31754935 1.0842984
000140 06 29 ba bd 22 90 92 3e 45 5c 8b bf b2 0d 90 3e
       -0.09089856 0.2862559 -1.0887533 0.2813545
000150 82 df 81 3f 79 55 2c bf 28 53 52 bf 59 56 9b 3f
       1.0146334 -0.6731792 -0.82158136 1.2135726
000160 c9 67 84 3e 58 97 c5 be 25 e8 2b c0 0e c7 f7 be
       0.25860432 -0.3859203 -2.686044 -0.48394054
000170 84 3b 0f c0 5e 04 fd 3f d2 c6 95 3f e0 71 76 3e
       -2.2380075 1.9766958 1.17013 0.24066877
000180 5a b1 32 3f 1f d5 c9 3d 71 b8 56 bf f5 af 69 bf
       0.69801867 0.09855103 -0.83875185 -0.91284114
000190 12 46 e9 bf c5 6e 26 c0 3b 20 30 bf e2 b8 42 3e
       -1.8224509 -2.6005108 -0.6879918 0.1901584
0001a0 25 2c 87 3f 8b 7c 85 bf 9b f2 00 bf 70 39 b3 3f
       1.0560347 -1.0428632 -0.50370187 1.4001904
0001b0 30 95 83 3f 22 3b 06 c0 09 7e 90 3f 09 ef 7b 3f
       1.0279903 -2.0973592 1.1288463 0.98411614
0001c0 1e 48 96 bf cf 09 85 bf 3f 6b 14 c0 57 c6 22 3f
       -1.1740758 -1.0393618 -2.3190458 0.6358389
0001d0 3b b0 01 c0 e2 54 36 3f 69 47 59 3f 32 aa 8d bf
       -2.0263813 0.7122327 0.8487459 -1.1067564
0001e0 07 02 31 3d 76 de b9 bf 2b 59 e2 bf c6 42 d7 bf
       0.043214824 -1.4521015 -1.7683462 -1.6817253
0001f0 06 3d ef 3b d7 9c d1 3f 2c 5f 4f 3f ac 20 3a bf
       0.0073009757 1.6375989 0.81004596 -0.72706103

convs.0.bn1.running_mean f4 [128]
000000 5c b4 b3 c0 3c d8 57 40 6d b9 c1 bf 92 75 54 40
       -5.6157665 3.372573 -1.5134712 3.319676
000010 8d b5 d9 3f 5a 8c e3 40 3a d2 a3 3e 42 55 99 40
       1.700853 7.1108828 0.31996328 4.7916574
000020 0b af 82 bf 97 ea 47 c0 b5 ab 68 bf 0c 2c 08 c0
       -1.0209669 -3.1236932 -0.90887004 -2.1276884
000030 65 ed 7e 3f 36 1b 27 c1 25 29 a8 40 34 7f 24 c0
       0.99580985 -10.444143 5.2550225 -2.5702639
000040 a8 bc 8e 3f 5a 7a f2 bf 1b 7a e3 40 ba 4c d8 40
       1.1151323 -1.8943589 7.1086555 6.759366
000050 9b 54 d0 c0 88 dd d8 40 c8 71 09 bf 2f 37 58 40
       -6.510328 6.7770424 -0.5368924 3.3783681
000060 b0 ba 4a 41 ad 10 21 c1 b3 2c 25 41 22 5e 68 41
       12.670578 -10.066571 10.323413 14.522982
000070 55 0e b6 bf af 77 a1 40 dc 4e e9 c0 5e ee 2d c0
       -1.4223124 5.04586 -7.2908764 -2.7176738
000080 b8 ff 2c 41 9e 2f d6 3f 70 d7 d6 3e 1e b0 1b 41
       10.812431 1.6733282 0.4196124 9.730497
000090 bc 58 97 40 cb 0f 32 c0 75 f5 d5 3e 78 27 48 40
       4.729582 -2.782214 0.4178883 3.127409
0000a0 9c 11 92 40 e9 ce 65 3f 60 2a 6c c0 32 4a ec 40
       4.5646496 0.89768845 -3.6900864 7.384057
0000b0 b5 dc 3f 40 85 0e d4 40 47 07 34 41 6c 1a 86 c0
       2.997846 6.6267724 11.251777 -4.1907253
0000c0 ef 62 49 c0 fb 24 9a c0 91 48 b6 40 a3 3e 25 c0
       -3.1466634 -4.817014 5.696358 -2.581948
0000d0 4f 4e 99 c0 39 2c bf c0 2d 95 21 41 40 66 36 41
       -4.790809 -5.9741483 10.09892 11.399963
0000e0 1a b7 14 40 78 db 06 41 fd bf 5c 41 23 52 1e 41
       2.3236756 8.428581 13.796872 9.895053
0000f0 09 de 49 41 9a 25 81 40 78 70 91 c0 8c b7 2e 41
       12.616708 4.03584 -4.544979 10.919811
000100 ae 91 0a 41 fc 7e dc bf cb 1e ac c0 88 a5 6b c0
       8.660566 -1.7226253 -5.378759 -3.6819782
000110 03 4a d6 bf 91 79 df be 3c ae c5 bf e2 90 a3 40
       -1.6741337 -0.43647435 -1.5443797 5.111436
000120 28 cd 83 c0 5b 52 65 3e 77 af 10 bf e1 6f 1d c0
       -4.1187935 0.22394697 -0.5651774 -2.4599535
000130 ac b9 15 c0 31 4d 2f c1 d4 97 fd 40 a3 1a 05 c0
       -2.3394575 -10.956346 7.9247837 -2.0797508
000140 93 23 22 41 6b e0 d1 3f 24 fb ee 40 e0 8f b2 3f
       10.133685 1.6396612 7.468157 1.3950157
000150 47 e8 3a c1 a1 62 3b c0 de 4d 26 41 4a f3 ac 3f
       -11.681708 -2.9278948 10.394011 1.3511746
000160 98 4a 8d 40 3b 2b c9 be ce fa f2 3f 27 06 20 40
       4.4153557 -0.39290795 1.898279 2.5003755
000170 60 36 dd bf d8 4e e9 c0 b5 b7 20 c0 3a a2 9b c0
       -1.7282219 -7.2908745 -2.5112126 -4.863553
000180 d8 ae 28 41 8b 28 c8 40 46 89 fd 3f 23 1d fc 40
       10.542686 6.254949 1.9807518 7.8785567
000190 bc e1 23 40 d6 16 64 c0 3b cd 2f 41 37 f8 0c be
       2.5606527 -3.5638938 10.987605 -0.13766561
0001a0 b6 9d d3 c0 cc 99 6c 40 1a 0c ff 40 d5 cb 28 c0
       -6.613002 3.696887 7.9702272 -2.637441
0001b0 2f 90 df bf d5 6a 3c c0 40 08 d8 40 27 8b 0e c1
       -1.7465876 -2.9440205 6.751007 -8.908973
0001c0 fa 49 d0 c0 b0 b5 6e 40 c8 57 96 40 1c ab f5 c0
       -6.5090303 3.7298393 4.6982155 -7.6771374
0001d0 31 eb 13 41 2a e7 84 be ff 6f d3 bd 5b ff 73 41
       9.24492 -0.25957614 -0.10324096 15.249843
0001e0 24 ec 3a 41 b9 a1 57 c0 74 0c c0 40 6e fb 1f 40
       11.6826515 -3.3692458 6.00152 2.499721
0001f0 3e 11 3e 41 64 4b d1 c0 5b ab 4b c0 cd 6a cd 40
       11.8792095 -6.540453 -3.1823337 6.419287

convs.0.bn1.running_var f4 [128]
000000 66 cb 2b 42 fc ee b1 41 96 28 b4 41 5a 34 bb 41
       42.94863 22.241692 22.519817 23.400562
000010 04 b0 96 41 fe 96 2b 42 90 ec c1 41 da 83 f5 41
       18.835945 42.897453 24.240509 30.68938
000020 5b 7c 11 42 de b2 9b 41 39 d3 22 42 8b 5d e9 41
       36.37144 19.462337 40.706272 29.170675
000030 4e 2b 39 42 5c e4 38 42 74 a1 bf 41 22 87 43 42
       46.29229 46.223007 23.953835 48.881966
000040 ed a1 10 42 df e3 33 42 1a 98 bf 41 33 f1 4b 42
       36.15813 44.97253 23.949268 50.985546
000050 0a a1 6b 42 37 46 eb 41 06 d7 ed 41 05 3c 78 42
       58.907265 29.409285 29.729992 62.058613
000060 37 04 36 42 03 49 45 42 62 0b 23 42 e4 f9 c0 41
       45.504116 49.3213 40.761116 24.122017
000070 8e 4d c0 41 d7 a8 a8 42 50 ae c7 41 a4 8e 13 42
       24.037868 84.329765 24.960114 36.889297
000080 57 ba 71 42 63 9b 0f 42 f3 9b 2a 42 db 6e 04 42
       60.431973 35.901745 42.652294 33.108257
000090 d8 20 17 42 17 a2 fa 41 48 8e ec 41 37 86 08 42
       37.782074 31.329145 29.569473 34.13107
0000a0 7e 34 36 42 de e0 27 42 1a 18 2e 42 7a 4e c4 41
       45.55126 41.969597 43.523537 24.538319
0000b0 d0 f3 29 42 5e b7 4b 42 22 ee 36 42 32 ab aa 41
       42.4881 50.92907 45.73255 21.333591
0000c0 1f 1a af 41 b9 25 08 42 01 e2 f8 41 92 dd 80 41
       21.887754 34.03684 31.110353 16.108189
0000d0 b2 21 35 42 d2 20 07 42 48 5a 13 42 db d8 59 42
       45.282906 33.78205 36.838165 54.461773
0000e0 5d 91 ff 41 03 99 2b 42 68 3a 0a 42 b4 da 17 42
       31.945978 42.899426 34.557037 37.963577
0000f0 2f fb 04 42 75 61 62 42 61 bd 1d 42 87 6e 0d 42
       33.245296 56.595173 39.43494 35.357937
000100 1c 29 47 42 d6 18 0c 42 86 7e d3 41 fa cc c1 41
       49.790146 35.024254 26.436779 24.225086
000110 82 b6 c5 41 de dc de 41 a3 e5 5a 42 20 de 23 42
       24.714115 27.857845 54.724255 40.96692
000120 90 f9 bd 41 eb 40 ad 41 c0 89 f9 41 b5 f5 c8 41
       23.746857 21.656698 31.19226 25.119974
000130 cf 52 39 42 fd ec ac 42 c4 66 ff 41 e2 09 b1 41
       46.330868 86.46287 31.925179 22.129826
000140 cb c8 23 42 58 34 32 42 b9 91 0c 42 af 9f 62 42
       40.946087 44.551117 35.142307 56.65594
000150 2f e1 03 42 65 b7 e7 41 6f 2c 19 42 be 4c c3 41
       32.969906 28.964548 38.293392 24.412472
000160 73 d0 23 42 11 69 0c 42 89 b3 37 41 91 a4 3c 42
       40.953564 35.102604 11.481332 47.16071
000170 9f 64 b4 41 72 10 8b 42 79 fc d4 41 d4 ec 89 42
       22.549131 69.53212 26.623278 68.962555
000180 3d 1e 5a 42 f0 5c dd 41 e7 ea 4e 42 d9 50 dd 41
       54.52953 27.67038 51.729397 27.664476
000190 48 ae 10 42 44 b2 e7 40 96 c5 17 42 1e 5b 37 42
       36.170197 7.240511 37.942955 45.83898
0001a0 d2 1a 70 42 19 6b 9d 41 ec 9d 19 42 ce 85 ce 41
       60.02619 19.677294 38.40422 25.815334
0001b0 97 b2 15 42 05 09 19 42 21 b4 6e 42 69 df 3c 42
       37.424404 38.25881 59.675907 47.218174
0001c0 61 ad e1 41 52 be 06 42 62 c2 1f 42 41 cf f7 41
       28.209658 33.68586 39.939827 30.976198
0001d0 b3 4e 05 42 de 60 ef 41 5b 63 08 42 b2 b6 cb 41
       33.326855 29.922298 34.097027 25.464207
0001e0 55 86 41 42 19 58 20 42 53 8f 0c 42 fe c9 cc 41
       48.381184 40.086033 35.139965 25.598629
0001f0 96 06 29 42 4d 1f 2e 42 6b 43 8a 41 a2 b1 10 42
       42.25643 43.530567 17.282919 36.17347

convs.0.bn2.weight f4 [64]
000000 80 c8 51 3f 51 82 dd 3e b7 b8 29 3f 68 5d 31 3f
       0.81946564 0.43263486 0.6629748 0.6928315
000010 b8 e3 80 3f e7 a8 d8 3e 8f 1d 15 3f 1f 4f 77 3f
       1.0069494 0.42316362 0.5824823 0.96605104
000020 3f 19 10 3f 3c 3e 9b 3f 48 b8 e1 3e 11 1a 85 3f
       0.5628852 1.2128367 0.44085908 1.039858
000030 81 18 21 3f 1c e0 0d 3f fa 13 62 3f 71 6a 8d 3f
       0.62928015 0.5542009 0.8831173 1.1048108
000040 ea 1a cf 3e 75 ef 26 3f 1f 11 36 3f 61 fa ab 3f
       0.4045022 0.6520913 0.71119875 1.3435785
000050 f2 a4 87 3f dd 9e ac 3e 58 46 db 3e 37 37 63 3f
       1.0597212 0.33714953 0.42827106 0.88756126
000060 3d 3c 3a 3f 8b f6 19 3f d6 5e bd 3e e6 4a ec 3e
       0.72748166 0.6014182 0.36986417 0.46150893
000070 2b b8 da 3e 09 08 06 40 ee 42 83 3f a4 54 fe 3e
       0.42718634 2.0942404 1.02548 0.4967395
000080 3d 0c 53 3f b9 8a 65 3f 64 db f5 3e 22 60 da 3e
       0.8244055 0.896648 0.48018944 0.4265147
000090 56 da f4 3e ef bb 40 3f 64 fb b6 3e 01 42 80 3f
       0.47822827 0.75286764 0.3573867 1.0020143
0000a0 f5 44 88 3f d6 82 d0 3e ac ed e4 3e 2d dc 63 3f
       1.0646044 0.4072482 0.4471258 0.89007837
0000b0 a7 73 4e 3f 67 8c 91 3e 34 c7 a2 3f 9e c4 34 3f
       0.8064522 0.2842743 1.2717042 0.70612514
0000c0 18 cc 02 3f a0 e6 21 3f 0f 24 6f 3f 69 0b 6b 3f
       0.5109267 0.6324253 0.93414396 0.91814286
0000d0 96 46 de 3e 0e 41 59 3f 36 4c 85 3f 1f dd a3 3e
       0.43413228 0.8486489 1.0413883 0.3200464
0000e0 76 7f 4f 3f 1c b5 cb 3e 56 84 e2 3e 6e 31 be 3e
       0.81053865 0.39786613 0.4424159 0.37147087
0000f0 aa 05 fc 3e 5f 98 e7 3f f7 24 53 3f d9 56 20 3f
       0.4922307 1.8093375 0.8247828 0.6263252

convs.0.bn2.bias f4 [64]
000000 c2 6f 84 bf 22 bf bd bf 50 65 39 bf c0 86 1d bf
       -1.0346606 -1.4823954 -0.72420216 -0.6153374
000010 6c 07 1b 3e 89 df dc bf 53 66 7b bf 19 98 37 bf
       0.1513955 -1.7255718 -0.9820301 -0.7171646
000020 97 70 0a bf 42 b6 b4 3e 75 93 d5 bf bf ed a0 3e
       -0.5407805 0.35295302 -1.6685625 0.31431386
000030 8b e5 2d bf ed ac cc bf 48 fc 6e bf c0 10 84 bf
       -0.6792838 -1.5990273 -0.933537 -1.0317612
000040 40 71 7b bf 5d 8e 84 bf 57 75 59 bf 2b 34 a1 bf
       -0.9821968 -1.0355946 -0.8494467 -1.2594045
000050 d5 8b 02 bf 22 77 83 bf 50 09 91 bf af 94 2c be
       -0.50994617 -1.0270731 -1.1330967 -0.16853593
000060 63 73 90 bf 2b e7 78 bf 47 ae bb bf 89 19 8e bf
       -1.1285213 -0.97227734 -1.466256 -1.1101543
000070 7e ad 9e bf 28 3b 75 bf d5 f5 11 3e 21 1d a4 bf
       -1.2396696 -0.9579339 0.14253934 -1.282139
000080 c5 ca 8d bf 75 12 a7 bf 35 7b ab bf 2b ac ab bf
       -1.1077505 -1.3052508 -1.3396975 -1.3411916
000090 52 b7 a0 bf c6 da 56 3e 06 33 43 bf 14 1a 91 bf
       -1.2555945 0.20981893 -0.7624973 -1.1336083
0000a0 44 96 4a bf 02 1d 94 bf ee 75 8f bf bb 91 42 bf
       -0.7913554 -1.1571352 -1.1207864 -0.7600362
0000b0 58 96 50 bf 5d 61 a3 bf 4d e3 bf bf 33 a1 bd be
       -0.81479406 -1.2764088 -1.4991242 -0.37037048
0000c0 73 38 0b bf 6d 10 66 bf 75 e1 77 bf 01 c3 67 be
       -0.5438301 -0.89868814 -0.96828395 -0.22632982
0000d0 49 59 ac bf d7 28 a7 bf 5a 22 61 bf be f6 e4 bf
       -1.3464748 -1.3059338 -0.8794304 -1.78878
0000e0 2f 28 a1 bf 29 ca b2 bf 45 66 c0 bf 36 e5 d1 bf
       -1.2590388 -1.3967944 -1.503121 -1.6398075
0000f0 ca c0 87 bf 4e c5 85 bf fa 4f 21 bf 58 67 91 bf
       -1.060571 -1.0450838 -0.6301266 -1.1359663

convs.0.bn2.running_mean f4 [64]
000000 a7 34 9a 40 c7 60 07 41 59 7b 32 41 d5 9b 9a 40
       4.8189273 8.461127 11.155114 4.8315225
000010 53 b4 05 41 f7 90 a7 3f d8 c9 5d 40 22 02 24 41
       8.356524 1.3091115 3.4654446 10.250521
000020 f6 4c f8 40 37 fa 57 41 86 19 d1 3e da ee 60 41
       7.7593946 13.498588 0.40839785 14.058313
000030 c3 6f 09 41 b9 2a ff 40 1e 3e c0 40 9f e9 14 41
       8.589786 7.973965 6.0075827 9.307036
000040 71 21 ee 40 4a 4f ab 40 d8 1b 91 40 82 8b d9 40
       7.441582 5.353429 4.534649 6.79828
000050 7c 80 12 41 b7 37 85 40 49 52 7f 40 30 be 3b 41
       9.156368 4.163051 3.9893973 11.7339325
000060 43 2b 12 41 03 f9 ec 40 be fa 08 3f 6b 03 b1 40
       9.135562 7.405397 0.535076 5.531667
000070 36 72 aa 3f cd 54 53 41 b5 a9 95 41 85 5a 17 41
       1.3316104 13.208203 18.707865 9.4595995
000080 ed 58 18 41 3a 44 ef 40 44 bb 50 40 f8 48 9c 40
       9.52171 7.4770784 3.2614298 4.8839073
000090 9f d2 9f 3f 0a 72 79 40 e4 ca 83 40 4b e2 b5 40
       1.2486151 3.8975854 4.118517 5.6838737
0000a0 0a ba 56 41 c1 a6 53 40 ec 4a b3 40 a4 32 6b 41
       13.42042 3.3070529 5.6028957 14.699863
0000b0 16 58 33 41 5d 85 f4 3f 82 ba 2f 41 27 d0 15 41
       11.209005 1.9103199 10.983034 9.363318
0000c0 31 f7 c4 3f 06 af b8 40 34 b9 1f 40 30 bd 35 41
       1.5387937 5.771365 2.495679 11.358688
0000d0 74 68 94 3f e2 25 14 41 87 28 f1 40 05 1e 7b 40
       1.1594377 9.259249 7.536197 3.9237072
0000e0 18 34 cf 40 5b 20 9b 3f d6 98 ce 3f b6 47 88 3f
       6.475109 1.2119249 1.6140392 1.0646884
0000f0 ed ab d5 40 38 00 45 41 fb bb 35 41 88 d3 3a 40
       6.677237 12.312553 11.358394 2.9191608

convs.0.bn2.running_var f4 [64]
000000 53 d7 5c 41 f1 07 0c 42 7e c0 ca 42 7f 7e c3 41
       13.802569 35.007755 101.37596 24.436766
000010 1f 7a c4 41 61 24 02 41 52 3d 12 41 4e b2 dc 41
       24.55963 8.133882 9.139971 27.587063
000020 b9 56 6e 42 ca 53 66 42 f7 95 1c 40 73 dd ce 41
       59.58469 57.581825 2.4466531 25.85813
000030 09 6c 29 42 e8 a9 c6 41 79 92 ab 41 e5 aa bb 41
       42.355503 24.832962 21.44652 23.458445
000040 8c 6a 3f 42 78 3e 28 41 3b 05 07 42 c4 38 95 41
       47.85405 10.515251 33.755108 18.652718
000050 f2 db de 41 f8 b9 ce 41 65 05 c6 41 76 5e 1f 42
       27.857395 25.840805 24.752634 39.842247
000060 4c d8 61 42 e5 30 cc 42 69 7c ce 3f d0 0c d7 41
       56.461227 102.0955 1.6131717 26.881256
000070 74 60 82 40 6b ec 33 42 76 76 16 43 e8 74 9e 42
       4.074274 44.980877 150.46274 79.22833
000080 a0 6c 77 41 2c bb e0 41 34 c3 9c 41 75 dc df 41
       15.46402 28.091393 19.595314 27.982645
000090 53 92 0f 40 66 d2 80 41 ff 1f 9a 41 be 4c 16 41
       2.243306 16.102734 19.265623 9.393736
0000a0 54 a8 e8 42 64 77 88 41 30 63 3a 42 ce dd b7 42
       116.328766 17.058296 46.596863 91.93321
0000b0 3a fa bf 41 90 a4 d6 41 5b 2a 96 41 25 69 aa 41
       23.99718 26.830353 18.770681 21.30134
0000c0 d3 a2 82 40 00 24 31 42 fb 7a 61 41 52 ee 8b 42
       4.082376 44.285156 14.092525 69.96547
0000d0 17 66 85 40 45 aa 8d 41 df ac 00 42 b5 22 f1 41
       4.168712 17.70814 32.16882 30.141947
0000e0 33 a5 97 41 62 0d c9 40 5f 67 0b 41 d5 94 8c 40
       18.955664 6.2828836 8.712737 4.393168
0000f0 11 c5 ec 41 56 15 12 42 d9 92 94 42 0c 05 03 41
       29.596224 36.520836 74.28681 8.188732

convs.1.fc_full.weight f4 [128, 169]
000000 13 14 ab bf 51 54 a2 3e 02 ef 35 3f 5a fa c6 3c
       -1.3365501 0.31704953 0.7106782 0.024289299
000010 fa 34 00 3f 8a 32 3f bd a8 81 7d be 8f 5f ad 3e
       0.50080836 -0.046679057 -0.24756491 0.33861968
000020 68 5a d3 3e bb b2 19 bf 6a 4a db be 82 95 46 bf
       0.41279912 -0.60038346 -0.4283021 -0.7757188
000030 a3 a5 34 bf 33 60 9c be 24 30 08 3e 96 04 0a be
       -0.7056524 -0.30542144 0.13299614 -0.13478312
000040 ff fb f0 bd 92 54 16 3e 91 84 17 bf c1 e2 45 3d
       -0.117668144 0.14680699 -0.59186655 0.048311953
000050 f8 2c a8 bd 21 a3 e4 3e 8c d9 3b be 6c e9 b2 bd
       -0.08211702 0.44655707 -0.18344706 -0.08735928
000060 6a 68 3b be 83 18 cd be b7 5a e2 be 72 f5 c7 3e
       -0.1830155 -0.40057763 -0.44209835 0.39054447
000070 ca 00 85 be 3e 50 e8 be d1 e7 c8 be a9 12 39 be
       -0.25977165 -0.4537372 -0.39239362 -0.18073525
000080 e3 a0 02 bf 87 4b 7e 3e 0b 06 d6 be 37 09 1e bf
       -0.51026744 0.24833499 -0.41801485 -0.6173281
000090 da 9b b7 be 8e 39 72 be f9 bb 59 bf 3d df 83 3e
       -0.35861093 -0.23654768 -0.8505245 0.25756255
0000a0 e7 a2 df 3c fb be 36 bf 77 00 21 bf b9 7b 3c 3e
       0.027299358 -0.71385163 -0.62891334 0.18406571
0000b0 c4 b9 10 bf 12 19 92 3e 9e 35 98 be 86 98 af 3e
       -0.56533456 0.28534752 -0.29728407 0.34296054
0000c0 d9 b2 ce 3d 9d e5 11 3d b4 6a e9 be b5 53 b3 3e
       0.10092706 0.035619367 -0.4558922 0.350248
0000d0 63 54 52 bf 28 b9 85 be 5f f0 a9 be e2 13 42 bf
       -0.82160014 -0.26117826 -0.331912 -0.7581159
0000e0 9f ab 0d bf 69 d9 68 bf 06 55 59 be fc 1a 18 3d
       -0.5534 -0.9095674 -0.2122384 0.03713511
0000f0 87 54 b1 be 51 25 54 bf 35 fa b0 3e 9a e7 5c 3e
       -0.34634802 -0.8286944 0.34565893 0.21572724
000100 a6 09 7c bf bd 50 24 3e 45 5d 64 be d0 a8 00 3e
       -0.9845222 0.16046424 -0.22301205 0.12564397
000110 16 fb 9e 3f 3e c7 2d 3e 5d 0e 84 3d dd ba 6c 3d
       1.2420375 0.16970536 0.06448052 0.057795394
000120 7a 92 68 3f a0 2a a3 3d ac 4c cf bc 90 53 08 bf
       0.90848505 0.079671144 -0.025305115 -0.53252506
000130 23 41 11 3e 40 4f 0f bf f2 7b a4 bc 78 ae 5a bd
       0.14185004 -0.559803 -0.020078633 -0.053389043
000140 bd f5 45 3d 17 25 5c 3e a6 49 d5 be 5e bb 34 be
       0.048330057 0.21498524 -0.41657752 -0.176496
000150 2b 99 1e bd 70 28 59 3e 05 36 57 bf a0 97 8d bf
       -0.03872029 0.21206832 -0.840668 -1.1061897
000160 73 bc 38 be d7 fb af be d2 1e 50 be 43 b9 ee 3d
       -0.18040638 -0.34371826 -0.20324257 0.116564296
000170 66 63 38 3e e0 c3 7c bf 0e f8 63 3e 61 47 fa be
       0.18006667 -0.9873638 0.22262594 -0.48882583
000180 30 11 3e bd 47 e5 03 bf 3e 75 d2 be 1a f0 64 bf
       -0.04640311 -0.51521724 -0.41105074 -0.89428866
000190 13 46 12 3e 34 6d 46 bf 17 04 59 bf ba 95 80 3e
       0.14284544 -0.7751038 -0.84771866 0.25114232
0001a0 dc b0 44 be 1e d2 68 bf 38 36 45 3f ac 53 10 bd
       -0.19208091 -0.90945613 0.77035856 -0.035236046
0001b0 85 9d dd 3e 98 08 4e 3f 8a 83 10 bf 68 b7 64 3d
       0.4328424 0.80481863 -0.5645071 0.055838972
0001c0 79 f1 25 be b5 0d 1d bf 95 cc f6 3d bd 33 ad 3f
       -0.16205396 -0.6134904 0.1205074 1.3531414
0001d0 f6 38 d6 3d 3f 63 0a be 06 69 99 bf e8 d0 b0 be
       0.10460083 -0.13514422 -1.1985176 -0.34534383
0001e0 83 38 3e bf 9f 6f 88 bf f2 11 07 be 7c b7 c5 be
       -0.7430498 -1.0659064 -0.1319044 -0.3861655
0001f0 fe 7a 3e 3f dc 84 28 bf 8b 16 ca 3f b4 56 67 3f
       0.7440642 -0.6582773 1.578813 0.90366673
000200 17 46 1c 3b d0 cb bd be 1b e7 51 bf f0 2b cb bd
       0.0023845488 -0.3706956 -0.81993264 -0.0992049
000210 65 4d 9f 3d c6 41 96 be 55 f0 39 bf e8 b9 6e bf
       0.07778434 -0.29347056 -0.7263234 -0.9325242
000220 f1 a6 46 bf 78 10 50 3f ff 02 d3 3f 6b ad fc 3f
       -0.7759848 0.8127513 1.6485289 1.9740423
000230 05 55 2e bf 2c 0d e1 be a2 78 e8 3e 20 b6 5a bf
       -0.6809848 -0.43955362 0.45404536 -0.8543415
000240 78 4d 12 c0 da 9e 27 be fe f8 fb 3f 4a 64 00 3f
       -2.2859783 -0.16369191 1.9685361 0.5015303
000250 62 4c f3 bf e6 75 6f be 70 35 12 bf 19 7e f6 bf
       -1.9007685 -0.23384818 -0.5711279 -1.9257232
000260 2f 3a f6 bf 64 0a 95 3e b8 48 8c 3f c4 72 25 3f
       -1.9236506 0.2910949 1.0959692 0.64628243
000270 fb 6b 6f be cf 9e 00 bf 29 40 35 be 49 e7 ec bd
       -0.23381035 -0.5024232 -0.17700256 -0.11567552
000280 77 7a 39 bf 6a 76 90 bf c0 c4 93 bf e3 68 33 bf
       -0.7245249 -1.1286137 -1.1544418 -0.7008192
000290 57 cc fb be 66 99 5c be ee 29 71 bc aa 7f ae bc
       -0.49179336 -0.21542892 -0.0147194695 -0.02130111
0002a0 f7 ad 64 3d 52 79 c2 bf 9c ca ca 3e ff 8e 56 be
       0.05582997 -1.5193274 0.39607704 -0.20952986
0002b0 5a 86 8f 3d 27 c2 6d 3f f7 3f 34 bf 2a 07 76 bf
       0.070080474 0.9287438 -0.704101 -0.9610468
0002c0 f5 c7 09 3f 04 86 69 3d e0 81 32 3f c4 9c 15 be
       0.53820735 0.057012573 0.69729424 -0.14610583
0002d0 de c1 7c 3f b5 1c c2 be b7 38 81 3f 5a db c7 3e
       0.9873332 -0.37912527 1.0095433 0.3903454
0002e0 17 07 8b 3e 64 b0 26 bf a3 59 08 be ef f9 1c bf
       0.27153847 -0.651129 -0.13315444 -0.6131887
0002f0 95 39 85 3f 89 bb 36 be 23 b1 86 3e 9a 76 17 bf
       1.0408198 -0.17844976 0.2630702 -0.59165347
000300 74 6a a4 bd db f8 5b 3f 90 17 70 bf ae ea 5a 3e
       -0.08028117 0.859266 -0.93785954 0.21378586
000310 78 91 22 be 55 b7 9c 3e b7 4e e0 bd 26 28 0d bf
       -0.15875804 0.3060862 -0.10952514 -0.55139387
000320 55 d5 8e 3e e9 27 c8 be f9 75 65 be 34 2e 9a be
       0.27897134 -0.3909295 -0.22408284 -0.30113375
000330 f4 cb 2f 3f c2 11 c8 be 78 04 82 bf 2e 26 6e bf
       0.6867058 -0.39076048 -1.0157614 -0.9302701
000340 c5 ca bb bd 80 f4 ae bf ae c1 87 bd 59 5f 3c be
       -0.091695346 -1.3668365 -0.06628738 -0.18395747
000350 06 7f fd bd b9 b1 b5 be 1a 6f 82 be 1a 5e bb 3f
       -0.123777434 -0.35487154 -0.2547539 1.4638093
000360 42 80 bc 3e 9b a9 17 be f9 c0 33 be 76 a6 56 bd
       0.36816603 -0.14810793 -0.17554082 -0.052404843
000370 91 9a 35 be 77 41 59 bf 09 7a 5a 3f c4 0f c5 bf
       -0.17734744 -0.84865516 0.8534246 -1.5395436
000380 c2 26 1c 3f cd 25 e4 3e 64 09 ae 3e 1c f2 13 bf
       0.6099664 0.4456009 0.3399154 -0.57791305
000390 12 53 0c 3e bb d2 b5 be 45 de 71 be 75 d0 1b bd
       0.13703564 -0.35512337 -0.23619945 -0.038040597
0003a0 62 99 8f bf d0 ea df 3f cd 35 1e 3f df fe 7a bd
       -1.1218684 1.7493534 0.61800843 -0.06127822
0003b0 0c e6 e8 3e ba d6 22 be 45 1f c7 3e 32 28 04 40
       0.45488012 -0.15902224 0.38891044 2.0649533
0003c0 7b 1f 66 3e 28 ba 85 bd 34 89 aa be 88 e1 75 3e
       0.22472946 -0.06529647 -0.33307803 0.24011815
0003d0 b7 a9 26 bf 74 0a aa 3d ab de ae 3e 93 e5 1f bf
       -0.65102714 0.08302775 0.34154257 -0.6245968
0003e0 0c d0 87 be 17 a2 87 3f 98 7e a5 be 22 d8 0a bd
       -0.26525915 1.0596341 -0.32323146 -0.033897527
0003f0 49 88 d5 be 9d e0 09 3f ff d9 a9 be 5a aa 3f bf
       -0.4170554 0.5385836 -0.3317413 -0.7486931

convs.1.fc_full.bias f4 [128]
000000 da ae 3b be 4a f3 3d bf 5b 6a e4 3d ae 5f d9 be
       -0.1832842 -0.74199355 0.11153098 -0.4245581
000010 08 cc b7 be 8d 87 39 3f 2b 93 91 3e 53 dd c1 3e
       -0.3589785 0.7247246 0.28432593 0.3786417
000020 c8 6e ae 3e ff 45 0c bd 44 6c 6f 3f 47 3d 5f 3f
       0.34068894 -0.03424644 0.93524575 0.87202877
000030 05 1c 2e bf 7b c0 b4 be e0 c7 85 be 69 0b 5a 3d
       -0.68011504 -0.353031 -0.26129055 0.053233538
000040 e4 4d 39 be a0 d8 b8 bd 40 b6 19 3f 31 f3 0d 3f
       -0.18096119 -0.09025693 0.60043716 0.55449206
000050 11 73 f6 bc 2a 57 83 3e 4b 4a 7a 3e 83 18 be 3e
       -0.030084165 0.25652438 0.24442403 0.37128076
000060 c9 2c be 3e a9 8f fc 3e 96 da e2 3d 0d 8b 55 bc
       0.37143543 0.49328354 0.11076848 -0.013033641
000070 c8 39 36 be bf d2 d7 b9 c1 93 a2 bd 00 36 ff 3e
       -0.1779548 -0.00041165014 -0.07938338 0.49845886
000080 76 2a c0 be e4 7c 46 3f ff 3d d6 3e 2e f5 88 be
       -0.37532395 0.7753432 0.41844174 -0.26749557
000090 66 15 b3 bd bd 4e d5 be 33 a6 a4 be fd e0 42 3e
       -0.08744316 -0.41661635 -0.3215805 0.19031139
0000a0 0c 8f e0 3e d3 d3 26 bf cf 6c 2a be d1 01 0b be
       0.43859136 -0.6516697 -0.1664307 -0.13574912
0000b0 d2 56 4c 3d 0a fc 28 be 87 e7 de be 2c 9e bb 3d
       0.049887486 -0.16502395 -0.43536016 0.09161028
0000c0 b5 96 43 3e b3 9e 56 bf d8 4a 92 3d c4 e8 98 be
       0.19100459 -0.83835906 0.071431816 -0.29865086
0000d0 71 fb 4a bf 63 25 5a be 7d 4e b2 3e ec cb 02 3e
       -0.7928992 -0.21303324 0.34825507 0.12773103
0000e0 5e 9c e5 3e d6 b9 9a be 20 02 f3 be 42 00 58 3d
       0.4484586 -0.30219907 -0.4746256 0.05273462
0000f0 e9 d9 08 be 07 0e dc bd 62 1d de 3b 28 16 e4 bc
       -0.13364376 -0.10744863 0.006778405 -0.027842596
000100 17 3a 97 bd 63 6e 2a 3d 07 ee 30 bf 6f 22 ef 3e
       -0.07384127 0.04160918 -0.691132 0.46705958
000110 46 bf 51 3d 1a 14 cc 3d 53 78 07 3e 9d a5 16 bd
       0.051207803 0.099647716 0.13229494 -0.036779035
000120 6a 6d b7 bd d5 20 f0 be e8 14 93 3e 85 e1 f7 3e
       -0.08956416 -0.4690005 0.28726888 0.48414245
000130 7b e7 23 be 7c 6a ae 3c 4e 1f 9c be 4d 3a 1f bf
       -0.16006272 0.02129101 -0.30492634 -0.62198335
000140 9f 15 fd be 3c ef 0a 3f f6 3f 3c 3e c3 78 69 be
       -0.49430558 0.5427129 0.18383774 -0.22799973
000150 b6 54 d8 3d 6b 67 89 be 8c ec 27 be 1f a1 69 be
       0.10563032 -0.26836714 -0.16398829 -0.22815369
000160 3c 50 82 3e b9 c5 f7 3d 8a 1f 17 be 93 93 17 3e
       0.2545184 0.120982595 -0.14758125 0.14802389
000170 75 a4 a1 3d 01 f5 eb bc 04 03 04 3e 25 70 cf 3d
       0.07892696 -0.02880335 0.12891775 0.10128812
000180 b7 34 64 3e a7 50 51 3e 46 3f c3 be c6 4f 9c 3d
       0.22285734 0.20440923 -0.3813421 0.07632403
000190 a5 ed 8a be ec 57 32 bf 80 9d 01 3e d4 76 c4 be
       -0.27134433 -0.6966541 0.12657738 -0.3837191
0001a0 d8 aa b3 3e 03 56 1e bf 11 f3 20 bf 2e 5a 07 3e
       0.3509128 -0.61849993 -0.6287089 0.13217995
0001b0 fd dc 43 bf 4c f1 99 3e d3 f1 cf be 69 75 51 be
       -0.76509076 0.30066907 -0.40614185 -0.20454945
0001c0 70 a7 60 3d 7c 51 43 3e f4 5d 91 bc a3 0c 41 3d
       0.05484718 0.19074053 -0.017744996 0.047131192
0001d0 09 ff aa be 83 25 0a bf e9 d9 03 3f ad 4c d7 3e
       -0.333977 -0.5396349 0.5150438 0.42050686
0001e0 8a fc ba 3e 4e 7e af be 7a 77 9a bd 10 72 58 be
       0.36520797 -0.3427605 -0.075423196 -0.21137261
0001f0 1b a9 8f 3d a7 2b 84 be 67 95 cd bd a8 19 ea 3b
       0.07014676 -0.25814554 -0.10038262 0.0071441717
