results/Prediction/2023-06-14/23:09:15.363000/models/model299.pth (torch, 340949 bytes, 34 tensors)

embedding.weight f4 [64, 92]
000000 b7 57 e0 3f 35 6b b3 3f fd fe 0b c0 62 65 74 3f
       1.7526768 1.4017092 -2.1874382 0.954672
000010 86 8a 0d c0 81 6b dd c0 46 e3 97 c0 11 26 58 bf
       -2.2115798 -6.919373 -4.7464933 -0.84433085
000020 40 d3 83 be ca a7 13 40 50 9a c6 bd 86 ef 2b c0
       -0.25747108 2.307116 -0.096974015 -2.6864944
000030 87 05 cc 3f 6c 5e e6 3e f0 6d d4 be aa b0 17 40
       1.5939187 0.44993913 -0.41490126 2.3701577
000040 87 4c 97 bf ec 4e 13 3e 81 ee fc bf 65 96 79 3f
       -1.1820229 0.14385575 -1.9760286 0.9749511
000050 20 0e 88 3f b1 56 fc bf 12 1c f7 be eb 23 84 bf
       1.0629311 -1.9713956 -0.48263603 -1.0323461
000060 60 47 e7 bf 39 c6 c8 3f 54 b8 ac bf f2 79 c6 3f
       -1.8068657 1.5685493 -1.3493752 1.5505965
000070 93 c9 0c 3f 09 7d c0 c0 fc fa c6 be e5 a9 3a bc
       0.5499508 -6.015263 -0.3886336 -0.011393045
000080 88 4a a2 3f 5b 31 0a c0 14 a2 fc bd 20 ef 91 bf
       1.2678995 -2.1592624 -0.123356014 -1.14011
000090 65 7b 87 3f ef e7 10 bf 7a 6e 30 c0 f9 85 b6 3e
       1.0584532 -0.566039 -2.756743 0.35649088
0000a0 68 f3 aa 3f 42 43 ed be 46 79 44 bf 83 1f b8 bd
       1.3355532 -0.46340376 -0.7674755 -0.089903854
0000b0 93 5e 25 3d 96 35 a0 bf 2f ce ba 3f da f1 9e 3e
       0.040373396 -1.2516353 1.4594172 0.31043893
0000c0 74 72 62 3f 41 c6 d9 bf 16 73 30 bf 8b fc 19 c0
       0.8845589 -1.7013627 -0.6892561 -2.406039
0000d0 c4 90 86 bf 73 24 8d be 6b 77 13 40 e2 6d 42 c0
       -1.0512929 -0.2756687 2.3041637 -3.0379567
0000e0 8a 38 37 c0 53 3c 52 40 d3 f0 b4 bf cb 21 e5 3f
       -2.8628259 3.284932 -1.4135994 1.7900938
0000f0 a6 f5 2d bf 7e be 01 40 31 6c 66 c0 15 0f 9d bf
       -0.67952955 2.0272517 -3.6003535 -1.2270228
000100 6f 5f 3f bf a1 6e 88 bf 68 37 bc 3d 1a 69 a8 bc
       -0.74754995 -1.0658761 0.091902554 -0.020557929
000110 d8 12 55 c0 f5 0a 95 bc 8c 68 2f c0 1c 89 1d bd
       -3.3292751 -0.018193701 -2.740756 -0.038460836
000120 96 42 b3 3f c3 24 a1 be 29 fb a9 be 5b 3a 5e bf
       1.4004695 -0.3147336 -0.33199432 -0.86807793
000130 a0 bd c8 bc 46 f5 0d 3e ff 6e 30 be 00 3a 59 bf
       -0.024504483 0.13863096 -0.17229842 -0.84854126
000140 e3 99 70 c0 d4 db e2 3f e5 7a 1a c0 05 22 c8 bf
       -3.7593925 1.7723336 -2.413751 -1.5635382
000150 66 c8 f3 be bc ce 18 bf be 08 49 c0 b6 45 ab c0
       -0.4761383 -0.5969045 -3.1411586 -5.3522596
000160 19 22 60 40 67 2c df bf f1 cd 3d c0 e2 7d b6 3d
       3.5020812 -1.7435426 -2.9656947 0.08910729
000170 9a 87 fc 3e cf 02 89 3d 21 25 1a 3d 97 31 94 bf
       0.49322206 0.06689989 0.037633065 -1.1577634
000180 26 34 2a 3f 3e 9d fa 3f b0 c0 6e 3f 2d 87 bc 3f
       0.6648582 1.9579237 0.9326277 1.4728752
000190 a5 a8 b3 3f a4 e0 50 c0 24 06 05 c0 ac 23 49 c0
       1.4035841 -3.263711 -2.0784998 -3.1428022
0001a0 77 9f 49 bf af b1 c3 be 73 03 a4 3f e3 cb 84 3e
       -0.7875895 -0.382215 1.2813553 0.25936803
0001b0 21 71 1f bf 0d 9b 4d 3f a1 75 d0 c0 70 8c 8b bf
       -0.62281996 0.80314714 -6.514359 -1.0902233
0001c0 0a 6f a6 be 3a 85 43 40 84 8c e3 be bc f7 be be
       -0.3250659 3.0550065 -0.44443142 -0.3729838
0001d0 9f 4f 05 c0 4d b6 0e 3f 8b 59 65 3e 0c 39 b0 3d
       -2.0829847 0.5574692 0.22397439 0.08604631
0001e0 35 61 72 3f 8d 8d 05 c0 57 a0 64 3f e7 cc 88 3e
       0.94679576 -2.0867646 0.8930716 0.26718828
0001f0 7c b4 8a 3f 04 64 1c 3f f4 25 1a bf 74 0e 64 3f
       1.083633 0.6109011 -0.6021416 0.89084554
000200 6f 13 8f bf 82 e9 5a bf 55 e3 26 c0 3f c0 35 bf
       -1.1177806 -0.85512555 -2.6076252 -0.7099647
000210 ac 89 a6 3f 25 16 12 bd 04 68 fd bf 86 83 ae 3e
       1.3010764 -0.03566565 -1.9797368 0.3408472
000220 c3 b9 2b c0 a3 63 81 40 38 f0 07 3e 4a 73 81 3e
       -2.683213 4.0434127 0.1327523 0.2528327
000230 80 33 5d bf e0 26 23 3f 8e 96 08 3f 9b 63 cf bd
       -0.8640671 0.63731194 0.5335473 -0.1012642
000240 07 d6 24 3f d2 aa 8f 3f 14 7a 53 c0 c6 90 1c 3f
       0.6438908 1.1224005 -3.304326 0.61158407
000250 79 01 47 c0 4f 1c 34 c0 6b d1 72 3e 3c 71 8f 3d
       -3.109465 -2.8142278 0.23712699 0.070040196
000260 cd 9c dd bf 8e a0 a8 3f 27 a2 7c 3d 3e 7a 12 c0
       -1.7313477 1.3173997 0.061678078 -2.288711
000270 74 20 3d bf 3e 2e 45 3f 62 50 8b bd ff 94 a6 3f
       -0.73877645 0.77023685 -0.06802441 1.301422
000280 11 63 38 bf ea db 2b 3d 13 17 a5 3f 29 f6 cc 3d
       -0.72026163 0.041957773 1.2897667 0.10007889
000290 8a 60 3e bf 7c 40 69 bf 03 bf a0 3e 2e 37 e4 be
       -0.74366057 -0.9111402 0.3139573 -0.4457335
0002a0 2d 24 97 bd 9c db 5f 3f 81 8a 10 bf 06 bf 06 bf
       -0.07379947 0.8744447 -0.5646134 -0.5263523
0002b0 39 23 76 bf bf 58 ea 3e 2b 6c 64 c0 dd f3 4b 3c
       -0.96147496 0.45770833 -3.569102 0.012448278
0002c0 e5 a0 ef 3f c3 8c d6 be df 61 6d bf 58 83 ad bf
       1.8720976 -0.41904268 -0.92727464 -1.3555708
0002d0 b0 e9 34 3f 1d fc f5 3e 07 9d ad 3e 9d 70 d3 be
       0.7066908 0.4804391 0.33908865 -0.41296855
0002e0 69 0e 9c c0 d6 e0 ac bf 92 d2 cf 3f 5c b9 03 c1
       -4.876759 -1.3506114 1.6236136 -8.232754
0002f0 75 c9 98 c0 80 98 a3 c0 99 4f b0 bf 7c a4 bb bf
       -4.774592 -5.1123657 -1.3774291 -1.4659572
000300 95 11 ae c0 d8 ca f0 3c d2 0b f9 bf d9 a4 07 40
       -5.4396462 0.029393598 -1.9456732 2.1194365
000310 56 62 6d 40 30 b3 04 40 eb 5b c7 3f b6 8f b8 3f
       3.709127 2.0734367 1.5574926 1.4418857
000320 67 4b 3f bf ca ba 01 c0 9c 96 fa bf fe c6 dd 3f
       -0.7472443 -2.0270257 -1.9577212 1.7326353
000330 96 12 8c bf 90 4b 30 bc 31 c4 98 3f 1e cc 2a bf
       -1.0943172 -0.010760203 1.1934873 -0.6671771
000340 ec 11 02 bf d2 1d 28 40 7b a6 c3 bf b3 06 87 c0
       -0.50808597 2.62682 -1.5285181 -4.219568
000350 74 32 b5 bf 7b 7e 8e 3f 78 02 24 40 86 30 1e c0
       -1.4156022 1.1132349 2.5626507 -2.4717116
000360 76 b4 48 40 13 54 16 c0 1a 11 1e be 7d a5 02 3f
       3.1360145 -2.3488815 -0.15436211 0.51033765
000370 b9 94 f0 3f d0 5c 48 3d e7 27 2e bf ac cb a3 3f
       1.8795387 0.048916638 -0.68029636 1.2796531
000380 73 9d de 3e fc 8b 21 3f 1c fa a1 c0 a8 e0 39 c0
       0.434795 0.63104224 -5.061781 -2.904337
000390 96 c7 a8 3e 11 fc 55 c0 18 fc b1 bf 53 b9 b9 bf
       0.32964772 -3.34351 -1.3905058 -1.4509681
0003a0 6e 51 aa 3f 01 82 fd 3e fd b5 21 3f 9d 1f 9d bf
       1.33061 0.49513248 0.6316832 -1.2275273
0003b0 e8 53 41 c0 b1 bd b0 c0 f9 ba 47 bd d6 e4 d2 3f
       -3.0207462 -5.5231557 -0.048762295 1.6476085
0003c0 3c 2e 01 40 3c f9 fe 3f 7c 08 c2 bf 99 60 6b c0
       2.018447 1.991981 -1.5158839 -3.6777709
0003d0 2e c4 d2 bf 56 d5 46 3f 92 bb 2e 3f d0 76 8d 3e
       -1.6466119 0.77669275 0.6825496 0.2762971
0003e0 27 57 4b bf cf bf b7 3e b5 e4 77 bd 68 02 10 40
       -0.7942986 0.35888526 -0.060520846 2.2501469
0003f0 b5 93 1e 40 d0 88 b7 bc 64 0e 06 bf db 8f c7 3d
       2.4777653 -0.022404104 -0.5236571 0.09744235

convs.0.fc_full.weight f4 [128, 169]
000000 22 6f 90 c0 63 64 5f 3e b8 70 2d be 6a bc 19 3f
       -4.513566 0.21815638 -0.1693753 0.6005312
000010 fe 36 3a 40 8d 2c 08 bf 1a e2 d9 bd e1 66 0b 40
       2.9096065 -0.5319298 -0.106388286 2.1781542
000020 6c 21 15 40 35 94 6a 3f fd c0 27 bf f8 10 4c 40
       2.330165 0.91632396 -0.6552885 3.1885357
000030 c5 78 d6 be 5c c6 94 3f 74 92 bb bf 0e 6e 03 3f
       -0.41889015 1.1623034 -1.4654069 0.51339805
000040 c1 5b 97 bf 03 e3 1b bf 43 88 bc 3e 8a 6e 91 bf
       -1.1824876 -0.6089327 0.3682271 -1.1361859
000050 15 71 ba be 41 23 24 40 8b a2 33 c0 75 94 1a bf
       -0.364144 2.5646517 -2.8067958 -0.6038278
000060 99 f3 30 c0 cc 7f 18 c0 30 02 ad 3e 57 23 2a 3e
       -2.764868 -2.3828 0.3379073 0.16615044
000070 5a 01 9f bf 47 dd 12 40 44 79 99 bf 0a 9b d3 be
       -1.2422287 2.2947557 -1.1990132 -0.41329223
000080 df 6e e9 bf e0 6e ca 3f 3e a8 1d c0 f6 ca b8 bf
       -1.823696 1.5815086 -2.4633937 -1.4436939
000090 3c db 3c c0 4f c7 70 3f 8b db 8c 3f 86 53 b9 3f
       -2.950881 0.9405412 1.1004499 1.4478614
0000a0 e8 0c 9c bf aa 13 84 3e 10 04 8e be 91 00 44 40
       -1.2191439 0.25796252 -0.27737474 3.0625346
0000b0 c0 81 25 40 ad 74 40 bf bc a4 03 c0 80 7e 59 3f
       2.5860443 -0.75178033 -2.0569296 0.8495865
0000c0 21 93 84 3f 50 d6 0d 40 8c ca bc bf e9 45 79 be
       1.03574 2.2162056 -1.4749312 -0.24343075
0000d0 be ca c3 bf df 2b 0a c0 16 b6 df bf 4b 0b da 3e
       -1.5296247 -2.1589277 -1.7477443 0.4258674
0000e0 d3 c6 8a bf ed d9 9d 3f 7b 90 a0 c0 18 0c c8 3f
       -1.0841926 1.2332131 -5.017637 1.5628691
0000f0 30 60 14 40 d7 02 1f c0 40 87 9f 3f e6 0e 67 3f
       2.3183708 -2.4845483 1.246315 0.9025711
000100 bb 23 58 bf b0 a2 5e c0 e7 90 8a c0 88 b5 db 3f
       -0.8442952 -3.4786797 -4.3301883 1.7164774
000110 20 87 d8 c0 a0 20 18 40 87 59 9e 40 41 c7 87 3f
       -6.7664948 2.3769913 4.9484286 1.0607682
000120 91 57 9c bf 59 c1 c1 c0 18 cc 97 be f5 eb 01 bf
       -1.2214223 -6.054852 -0.296479 -0.50750667
000130 4f f8 23 3f ff 62 0f be ee 6b 82 bf ce e2 10 40
       0.64050764 -0.14002608 -1.0189188 2.263843
000140 ff 3c 3c 3f fe e0 0f 40 3b bd 36 3f 2a 79 8e 40
       0.7353057 2.2481074 0.7138249 4.4522905
000150 fc d0 48 3f 56 d6 43 3f 62 14 aa c0 58 af 3a 40
       0.78443885 0.76498926 -5.314988 2.9169521
000160 2e 27 35 bf da bc a5 bf 75 2e 2f c0 05 0d 25 3f
       -0.7076291 -1.2948258 -2.7372105 0.6447299
000170 bf af c0 3f 33 04 9b bf 89 03 1f 40 6d b1 05 bf
       1.5053633 -1.2110656 2.4845908 -0.52223855
000180 ef f8 57 c0 2d df 84 3e b6 a4 60 be f9 75 56 3f
       -3.3745687 0.2595152 -0.21937832 0.8377376
000190 6f 1c 51 40 b1 21 ae 40 b1 00 59 3f 13 3f 21 c0
       3.2673604 5.4416127 0.8476668 -2.5194747
0001a0 e7 41 84 3f 3e 8e 56 40 41 1f 0b 40 e5 a1 b7 3f
       1.0332612 3.3524318 2.1737826 1.4346281
0001b0 de 02 e1 bf b2 79 88 3f 1e 92 60 c0 55 fd 56 40
       -1.7579 1.0662138 -3.5089183 3.3592122
0001c0 76 8d 85 3e 76 7e ae bf ce 4d 0b 40 03 2d 8e c0
       0.2608449 -1.3632343 2.1766238 -4.4429946
0001d0 ff 14 37 bf 27 5b 44 40 1d 56 80 40 fc 62 89 40
       -0.7151641 3.0680635 4.010512 4.293333
0001e0 cf df 39 c0 1e 24 a6 c0 f9 51 af 3f 50 1c 28 40
       -2.9042852 -5.191909 1.3696891 2.626728
0001f0 e5 d3 be 3f 71 25 2f 3e d8 32 06 3f 7b 64 0a 3f
       1.4908415 0.17104127 0.5242133 0.5405957
000200 b7 35 c6 3c 3c 4a 76 3d 88 46 93 be aa b5 59 bb
       0.024195535 0.06012939 -0.2876475 -0.0033219852
000210 d7 3c 04 be f3 d6 ab bd 5f 9d 43 3f c0 4a a6 3e
       -0.12913834 -0.08390608 0.76412004 0.32478905
000220 e5 e3 58 bf 99 8b b2 3e 41 c2 2e 3f db 75 55 3d
       -0.8472274 0.3487213 0.6826516 0.05211435
000230 3b 38 4b c0 3b a2 82 c0 40 10 2c bf 26 2a e2 40
       -3.175307 -4.0823035 -0.67212296 7.067645
000240 ed 23 bd 40 23 b4 17 3f ae 7b 35 c0 29 38 8d c0
       5.9106355 0.5925924 -2.8356738 -4.4131055
000250 24 f6 5e c0 2a 3d 4c c0 f0 1d 64 bf 3b 4f 74 40
       -3.4837732 -3.1912332 -0.8910818 3.8173358
000260 7e d2 72 40 d5 21 63 be 7c ca d4 3c 17 b6 0f c0
       3.7940974 -0.22180875 0.025975458 -2.245489
000270 23 4f 77 c0 2c 75 04 c0 ce 6d d3 be d0 47 8a be
       -3.8642051 -2.0696516 -0.41294712 -0.27007914
000280 2f 59 89 be d8 d3 98 be 7a 0d 92 bf 64 23 a8 bf
       -0.26825854 -0.29849124 -1.1410363 -1.31358
000290 37 fe 13 bf bf f5 ba 3c c5 e6 36 3d 25 e7 46 3c
       -0.57809776 0.022822259 0.044653673 0.01214007
0002a0 38 ca 84 3d f8 10 5c 3d 69 34 d7 c0 93 28 fe bf
       0.06483883 0.05372712 -6.7251477 -1.9856132
0002b0 09 b2 08 bf ac 75 cd bf 65 48 b8 bf 97 da 86 3f
       -0.5339666 -1.6051536 -1.4397093 1.0535458
0002c0 c4 cb 18 bf 9a a8 ad bd db 56 b9 3d ad e8 55 bf
       -0.5968592 -0.08479424 0.090497695 -0.8355816
0002d0 e0 2f 37 c0 2e 4d 22 c0 e8 0a 21 3f 84 65 86 3f
       -2.862297 -2.5359607 0.62907267 1.049973
0002e0 f1 b5 92 bf 8d 6d 60 3f e7 cf ea 3f 46 58 c5 bf
       -1.1461774 0.8766716 1.8344697 -1.5417564
0002f0 8b a0 1c 3f b4 f5 6a c0 d3 35 c1 be cd af 82 3f
       0.6118247 -3.6712465 -0.37736377 1.02099
000300 04 f4 eb 3f 71 75 01 40 e4 d9 df bf 8e 6f cb bf
       1.8433843 2.022793 -1.748837 -1.5893419
000310 3b 6a 3e 3f 75 2b 92 3f 31 50 40 c0 26 6a a6 3f
       0.74380845 1.1419512 -3.0048945 1.3001144
000320 b5 e4 8f 3e 8e 15 90 3f f2 38 51 bf bc 2b 91 be
       0.28104177 1.1256578 -0.81727517 -0.2835368
000330 4a 54 43 3e 97 59 54 be 3c eb 12 c0 d7 44 12 40
       0.19075122 -0.20737301 -2.2956076 2.2854517
000340 2c 4a ed bf a8 2a 98 be 01 1b 8b be fa a5 de 3d
       -1.853826 -0.29720044 -0.2716904 0.10871501
000350 1a be 8b c0 05 f3 80 3f 25 b3 95 40 de 2e 45 40
       -4.3669558 1.0074164 4.678118 3.0809855
000360 05 72 66 c0 34 ab 95 3f cc 7a 7a be 3f 1a 85 3d
       -3.6007092 1.1692872 -0.24460906 0.06499147
000370 d3 97 39 c0 6f 54 88 3f 86 a1 dc bf 1d ab 65 bf
       -2.8998916 1.0650767 -1.7236793 -0.89714223
000380 56 29 81 bf d7 f0 df bf b2 62 b8 3d a6 fe ac 3f
       -1.009074 -1.7495373 0.090032 1.3515213
000390 85 59 1c c0 64 91 ac c0 fc 00 a7 bf 2a 1b a9 3d
       -2.4429638 -5.392748 -1.3047175 0.08257134
0003a0 df 9b 67 bf b6 8a cb 3f 6c b7 21 bf 73 79 42 40
       -0.90472215 1.5901706 -0.63170505 3.0386627
0003b0 08 b0 66 40 bd 75 d1 3f 57 75 34 c0 0f 49 6e 40
       3.604494 1.6364056 -2.8196619 3.7232091
0003c0 fe fe 0c 40 d2 37 b1 be 6b af 82 40 ad 01 32 c0
       2.2030635 -0.346129 4.0839133 -2.7813523
0003d0 f6 9c 64 be 80 57 f6 3d cc 2d 22 c0 fe 5c 82 3f
       -0.22325501 0.12028408 -2.5340452 1.0184629
0003e0 08 59 08 3f f1 cc ec 3f bc 9f cc bf 24 78 03 40
       0.5326085 1.8500043 -1.5986247 2.0542078
0003f0 d3 3d bb 3f 74 64 82 3f 92 67 45 3e b6 d6 57 40
       1.4628242 1.0186906 0.1927779 3.37248

convs.0.fc_full.bias f4 [128]
000000 01 55 8a bc 85 65 28 3d 28 5a c1 bd 39 09 14 bc
       -0.016886236 0.04111244 -0.09441024 -0.009035402
000010 c9 95 5d bc bd e4 06 3e 6a b9 cf 3c e7 6c a4 bc
       -0.013524481 0.13173194 0.025356967 -0.02007146
000020 7b e6 18 bd 45 81 53 bc ea a4 7b 3c da 95 20 3b
       -0.03732918 -0.012909238 0.015359143 0.002450338
000030 1c c4 94 3d 8c 97 7e bd bd b5 b2 3d 29 51 cd 3c
       0.072639674 -0.062156245 0.0872607 0.025063114
000040 99 5e 8b bd fc 82 78 3b 8e 6d 4b bb 95 fc 41 bd
       -0.068051524 0.003791987 -0.0031040641 -0.04736002
000050 84 d6 54 3d e8 8a ba 3c 84 44 4c 3b 7c 13 c7 3c
       0.05196239 0.022771314 0.0031168768 0.024301283
000060 eb d7 ce bc 0c 64 c4 3d 09 80 f2 bb 31 23 08 bd
       -0.025249442 0.09589395 -0.007400517 -0.033236686
000070 86 bf cc 3c bd 17 b1 bc ae 21 6b bc d8 69 57 bc
       0.02499367 -0.021617765 -0.014351292 -0.013147794
000080 5e c0 67 bc ac 64 00 bd 73 68 f5 bc 36 a7 4d 3d
       -0.014144985 -0.03134601 -0.029957032 0.050208293
000090 38 c6 b4 bd 0b be 46 3c 90 73 b2 3d 69 04 50 3d
       -0.0882687 0.012130271 0.08713448 0.050785456
0000a0 da e4 83 bb 51 3b 12 3c ac 18 a3 bd 08 78 54 3c
       -0.004025084 0.008925275 -0.0796369 0.012968071
0000b0 b5 96 55 bc 3a e9 a7 3d 58 8e 2c 3d 88 15 4d 3d
       -0.01303642 0.08198781 0.042127937 0.050069362
0000c0 a3 d1 75 3d 84 75 ea 3d 29 f3 9b bd f2 73 fe 3c
       0.06001438 0.114481956 -0.076147385 0.031061146
0000d0 a2 2d 99 3d 26 42 c6 bd 34 97 1c bd 55 f5 43 3c
       0.07479407 -0.096805856 -0.038230136 0.011960347
0000e0 84 a4 6c 3d 30 87 a3 3d 26 9e 85 bd 79 f5 08 3d
       0.05777408 0.07984769 -0.06524305 0.033437226
0000f0 b7 74 3d bd f9 dd 69 bd 9f 18 42 3c 93 20 96 3d
       -0.046253886 -0.057096455 0.01184669 0.07330432
000100 1d 6e f7 3c 80 4a 29 bd 4a b4 dd 3c f3 cd 29 3d
       0.030203873 -0.041330814 0.027063508 0.041456174
000110 da 92 a2 3b f1 a3 13 3d 6b 1c b3 3c e2 44 46 bd
       0.0049613537 0.03604502 0.021864137 -0.048405536
000120 b5 34 cf bc cd 50 8f bc 8d 67 e7 3c 06 f2 50 3c
       -0.025293687 -0.017494584 0.028247619 0.012753015
000130 87 d5 6b 3d ab f7 1b bd dc 6f 43 3d e3 9b 61 bd
       0.057576682 -0.03807799 0.0477141 -0.055080306
000140 f4 50 ec 3d dd 38 76 bd ff e7 25 bc 6d f9 64 bd
       0.11538878 -0.060112823 -0.010126113 -0.055901933
000150 e7 7c aa 3c f8 84 aa bc 45 44 71 3d 90 fc 80 3d
       0.020811511 -0.020815358 0.058902998 0.062981725
000160 35 7d 39 3c 63 6b 57 bd b8 65 04 3b 23 6a 60 3d
       0.011321356 -0.052592646 0.002020223 0.05478872
000170 e6 4a 03 3c 66 65 8d bc ac f0 1e 3d 45 60 79 3c
       0.008013463 -0.017260265 0.03880374 0.015220706
000180 c0 37 d4 bd 0e 0f 01 bd a9 93 07 be ea ee 56 bd
       -0.10362196 -0.031508498 -0.13239922 -0.05247394
000190 8d 95 24 bc df 9f da bc bb c0 87 3d b1 1a 9f bd
       -0.010045421 -0.02668756 0.06628557 -0.07768763
0001a0 59 03 3e 3d 54 e9 07 3d 51 25 e6 bd c3 13 89 3d
       0.04638991 0.033181503 -0.11237586 0.066932224
0001b0 50 64 f5 bc 35 5f 89 bd aa df 9a bb e2 3b 4b bd
       -0.02995506 -0.067076124 -0.00472637 -0.049617656
0001c0 3f c3 28 ba 35 49 40 bc ee b8 78 bc 59 cb 64 3c
       -0.00064377853 -0.011736204 -0.015180809 0.0139644975
0001d0 83 13 51 bd 82 c4 22 bd bf 2b a5 3d 4c 7a 82 bd
       -0.051044 -0.039738186 0.080649845 -0.063709825
0001e0 f7 d3 95 3d 05 81 a6 bc f7 54 10 3c 64 00 2f 3c
       0.0731582 -0.020325193 0.00880932 0.0106812455
0001f0 99 b8 b4 3c f7 55 e9 3c 1a 89 5f bc 69 b6 06 3e
       0.02206068 0.028483374 -0.013643527 0.13155521

convs.0.bn1.weight f4 [128]
000000 d4 b9 b8 40 8e a1 9b 40 bd b8 92 40 6b 94 bb 40
       5.772684 4.863471 4.585051 5.8618674
000010 ef 06 09 41 10 72 7e 40 fe 2f 8b 40 5f 21 aa 40
       8.564193 3.9757118 4.3496084 5.3165736
000020 55 ca 8b 40 d5 29 fd 40 fa c7 4c 40 eb c3 6f 3f
       4.3684487 7.9113564 3.1997056 0.9365832
000030 bc c0 e0 40 33 88 87 40 6e 32 ab 40 5d 8a 9f 40
       7.023527 4.235376 5.349906 4.98564
000040 20 da 84 40 16 9d 87 40 fb 1f 62 40 e2 e5 fe 40
       4.1516266 4.2379255 3.533202 7.965562
000050 ce 8c b5 40 27 86 74 40 a8 f1 99 40 5c bd 17 41
       5.673438 3.820688 4.810749 9.48373
000060 f1 2a 18 41 65 75 97 40 44 db 25 40 3c 91 8a 40
       9.510484 4.7330804 2.591508 4.330229
000070 ec 45 83 3f f8 39 1a 41 34 d7 58 40 1b b5 60 40
       1.0255713 9.639153 3.388135 3.5110538
000080 80 39 06 41 2f 33 a9 40 66 bd c8 40 fa 21 81 40
       8.389038 5.287498 6.27312 4.0353975
000090 4a 28 f8 40 8d 48 09 41 53 8c 01 41 b7 b0 ce 40
       7.754918 8.580213 8.096759 6.4590716
0000a0 3d be c9 40 5b b9 8f 40 bc 83 9b 40 58 ad bc 40
       6.3044724 4.4913764 4.859831 5.89616
0000b0 7d 7b ba 40 35 73 8d 40 7b bc cc 40 1b 22 16 41
       5.8275743 4.4203134 6.398008 9.383327
0000c0 7f 3b 86 40 fa 7d e1 40 4c 77 d0 40 d2 e7 ca 40
       4.1947627 7.046628 6.5145626 6.3407984
0000d0 4f bd 92 3f 3b 38 be 40 ff 7a 9b 40 8d 7f ac 40
       1.1464022 5.944364 4.858764 5.39057
0000e0 f4 87 df 40 f8 4f 9a 40 c8 b1 b8 40 82 7e dd 40
       6.985346 4.822262 5.771702 6.921693
0000f0 51 72 f3 40 dc 62 1c 41 b3 1d 19 41 50 29 c7 40
       7.6077046 9.774136 9.569751 6.223793
000100 cf ea 46 40 79 13 9d 40 f6 fb 62 3f ae 8f 5e 40
       3.1080816 4.908627 0.8866571 3.4775195
000110 d4 7e 5a 40 d0 b4 46 40 c3 d5 59 40 84 9a 14 3f
       3.413991 3.104786 3.403672 0.5804827
000120 b4 dd 95 40 bc bd 59 40 3f 53 0a 3f bb 0b 11 40
       4.6833134 3.4022055 0.54033273 2.266341
000130 0f e7 c1 3f b8 46 a1 3f 2f 09 be 40 0b 09 bb 3f
       1.5148638 1.2599707 5.938621 1.4612135
000140 47 6d a4 40 10 f7 df 40 f2 bd b9 40 9f a9 e7 3f
       5.1383395 6.998909 5.8044367 1.8098639
000150 91 2c 72 40 fb 7b 81 3f c1 c4 d1 3f 23 d5 99 3f
       3.78397 1.0115961 1.638817 1.2018169
000160 f0 e2 13 40 d4 7f 20 40 28 27 86 3f da 38 08 40
       2.3107262 2.507802 1.04807 2.12847
000170 5c 6a a8 40 cf 4e f2 3f 96 cd 2f 3f 37 a9 a2 3f
       5.2629833 1.89303 0.68673074 1.270789
000180 23 0d 6a 3f 59 05 b8 3f 6c 77 d6 be 4e 45 75 3f
       0.91426295 1.4376632 -0.41887987 0.95808876
000190 66 22 16 40 df 3f d1 3f ff 38 c7 40 f4 a6 14 40
       2.3458495 1.6347617 6.2257075 2.32269
0001a0 9d 5e 7a 40 62 9e 8e 3f 42 8c df 3f 08 d6 63 40
       3.9120247 1.1142085 1.7464678 3.5599384
0001b0 b9 e0 2a 3f 66 51 d4 40 04 6a fe 3f 1b 27 1d 40
       0.6674915 6.6349363 1.9876103 2.4555118
0001c0 a0 9a 50 40 49 bb 69 3f 8e a2 b7 40 35 ba 1d 40
       3.2594376 0.913014 5.738593 2.4644902
0001d0 ec f1 55 41 36 52 b9 3f 63 b7 1c 40 86 66 5d 3f
       13.371563 1.4478214 2.448693 0.86484563
0001e0 32 eb c4 40 9f 22 e5 3f 5e 63 56 40 36 59 a8 3f
       6.1537104 1.790119 3.349815 1.3152225
0001f0 ef 66 5e 40 ef 1c 9d 40 d3 cb af 3f 77 72 73 3f
       3.4750326 4.909782 1.3734077 0.95096534

convs.0.bn1.bias f4 [128]
000000 7f 60 21 3f 26 14 a8 3f 23 79 5d 40 8c cd a6 3f
       0.63037866 1.3131149 3.4605186 1.3031478
000010 5d 4a a7 3f 14 a1 1f 40 04 2c 6a 3f bf b3 84 40
       1.3069569 2.4942064 0.9147341 4.1469417
000020 5d d2 78 3f 86 a0 b6 bf df 62 7b 40 79 78 bd 3f
       0.9719599 -1.4267738 3.9279096 1.480239
000030 50 2e 59 3f 2b da 6c 3e a1 19 09 3f ad 36 b5 3f
       0.8483629 0.231301 0.5355473 1.4157311
000040 12 6b bc 3f 98 7f f7 3f 66 61 2f bf 1f a2 05 3e
       1.4720175 1.9335814 -0.68507993 0.13050126
000050 a5 75 14 40 f7 d4 00 40 30 0c a6 bf d4 82 a0 bb
       2.3196805 2.0129983 -1.2972469 -0.0048984084
000060 4b 81 65 3f dd 0d c8 bf b5 ca f0 3d 3e 03 c2 3f
       0.8965041 -1.5629231 0.11757413 1.515724
000070 c1 93 96 3f 74 41 54 3f 02 82 f6 3f 87 33 b3 3e
       1.1763841 0.82912374 1.9258425 0.3500025
000080 18 e1 af 3f 30 bc 89 40 c2 2b 28 40 a0 bf 3a 40
       1.3740568 4.304222 2.6276708 2.9179459
000090 de cd df 3e b1 4c f3 3f 79 49 02 bf 7d 39 37 40
       0.43711752 1.9007779 -0.5089336 2.8628838
0000a0 b3 40 90 be 8a 27 c5 3f 69 64 fa bd 60 53 b4 3e
       -0.28174362 1.5402691 -0.12226183 0.3521986
0000b0 89 4d 77 40 87 56 6a 40 a9 80 1c 3f 11 92 65 bd
       3.8641074 3.6615312 0.6113382 -0.056047503
0000c0 99 cd 55 40 f9 3d b2 3e 8c c0 62 3d ba 79 ac 3e
       3.3406737 0.34812906 0.05535941 0.3368662
0000d0 f1 9a 7c c0 d0 4f 05 40 36 a6 02 3f 3a 23 05 40
       -3.9469569 2.0829964 0.5103487 2.080275
0000e0 9d c5 a3 3f 6c 11 be bf 76 a8 10 3f ce 13 7f 3f
       1.2794682 -1.4849067 0.5650705 0.99639595
0000f0 e1 4a 92 3f 3f 06 9f 3e 1e fd 6e bf f2 c0 3a 3d
       1.1429101 0.31059453 -0.93354976 0.045594163
000100 b6 f7 56 3f 5e f9 ea 3f f3 12 a6 40 fe b0 1d 3f
       0.83971727 1.8357351 5.189813 0.61598194
000110 68 44 75 3f a4 94 94 3f a0 20 11 40 b3 38 d5 40
       0.95807505 1.1607862 2.2676163 6.6631713
000120 13 90 51 bf d0 df 99 3f 68 0b c6 40 ff 84 bc 3e
       -0.81860465 1.2021427 6.1888924 0.36820218
000130 2d ae 4d 40 f5 2f 3f 40 64 c7 80 3e cc c2 eb 3f
       3.2137558 2.987302 0.25152123 1.8418822
000140 b8 72 37 3e b9 ab 1c 40 0a 7c 95 bf 7f 68 85 3e
       0.17914855 2.447981 -1.1678479 0.26056287
000150 30 2f 82 3e a5 db 39 41 07 d9 3b 40 4c a5 42 40
       0.25426626 11.616124 2.9351213 3.041339
000160 28 23 b7 3f b6 0d db 3f d3 10 4c 40 c0 5a 9f 3f
       1.4307604 1.7113559 3.1885269 1.244957
000170 7a 2a a3 3f 49 13 ba 3f 9e 2d f8 40 f8 2c 9c be
       1.2747338 1.4537135 7.7555685 -0.30503058
000180 72 94 66 40 ac b7 cd 3f 72 c1 98 41 8b 54 df 40
       3.6028104 1.6071677 19.094456 6.97907
000190 df ae 9e 3f 35 8b 28 40 da 07 55 bb b8 d6 c0 3e
       1.2397116 2.6334965 -0.00325059 0.37663817
0001a0 d6 c8 5d 3f fe ae a2 40 d7 71 0f 40 06 43 2f bf
       0.86634576 5.0838614 2.2413232 -0.68461645
0001b0 0d d2 c0 40 bd 7b 23 40 c9 62 44 40 81 0f a8 3f
       6.025641 2.5544274 3.0685294 1.3129731
0001c0 39 3a b2 bf 3c 37 b6 40 2c 37 34 3e e2 7d 07 40
       -1.3924018 5.6942425 0.17599171 2.1170583
0001d0 c1 07 9d bf 1d 7b 2b 40 3f 2f d3 3f 1f 00 7d 40
       -1.2267991 2.6793892 1.6498793 3.9531324
0001e0 0c b7 65 3c 17 e5 05 40 ea f1 b4 3f 3a 91 22 40
       0.014020693 2.0921075 1.4136326 2.540114
0001f0 b5 87 0d 40 98 25 b3 3f 8a bc 5b 40 f1 19 e9 be
       2.211408 1.3995848 3.4333825 -0.45527604

convs.0.bn1.running_mean f4 [128]
000000 a9 51 c5 c1 01 e3 47 43 a8 17 b9 42 14 59 42 42
       -24.664873 199.88673 92.5462 48.58699
000010 02 27 6e c2 6f f2 db 41 03 13 ba 42 91 7b 64 c2
       -59.538094 27.493376 93.03713 -57.12067
000020 2f 65 78 c3 da 2e de c1 6d f6 82 43 70 6f ad c3
       -248.39525 -27.772877 261.9252 -346.8706
000030 6b 92 5f c2 3a 97 82 42 90 c9 97 42 f0 4c 36 43
       -55.892986 65.295364 75.89368 182.30054
000040 b4 38 7a 42 cf 4d 46 43 60 68 33 43 fe 3d b2 c2
       62.555374 198.30394 179.40771 -89.12108
000050 5d 3a db 41 70 20 88 c3 4f 80 3e 42 40 4b e2 42
       27.403498 -272.25342 47.6253 113.14697
000060 a7 ab 21 43 aa 7c 26 42 3b bb 08 43 ee a7 cb 42
       161.67052 41.621742 136.73137 101.82799
000070 aa 79 4a 3f d2 a9 8b c0 9e 63 53 c2 ed d8 50 41
       0.79091895 -4.36448 -52.847282 13.05296
000080 a6 a0 f6 42 b1 de cb bf 28 29 4a c2 d6 74 a5 c1
       123.31377 -1.5927335 -50.54019 -20.682049
000090 78 fa 67 c1 c9 34 1f 43 3e 1b 02 43 c4 e0 cc 42
       -14.49865 159.20619 130.10641 102.438995
0000a0 af 4f c3 42 af af bb c2 4e 4b 81 42 9a 9e 4e c3
       97.65563 -93.84313 64.64708 -206.61954
0000b0 73 e5 3b c3 01 e8 d3 43 20 8a b6 c3 47 19 c6 c1
       -187.89629 423.81253 -365.0791 -24.762342
0000c0 cb e3 1f c3 49 70 82 41 f8 69 1f c3 67 ff e9 42
       -159.88982 16.304827 -159.41394 116.99883
0000d0 0f 06 3e 42 94 45 16 43 7d f8 f7 c1 54 e3 55 43
       47.505917 150.27179 -30.996332 213.888
0000e0 9b a1 bd 42 41 19 37 42 01 18 47 c3 31 e4 61 43
       94.815636 45.774662 -199.09377 225.89137
0000f0 d9 aa b5 c0 63 9e 0b 43 c0 41 31 c2 79 cd 05 43
       -5.6771054 139.6187 -44.31421 133.80263
000100 70 15 0c c3 85 26 55 43 d8 51 6c c2 cb 9b 51 42
       -140.08374 213.15047 -59.079926 52.40214
000110 20 53 9b c3 b7 3e de 42 49 64 e5 42 61 15 a4 c3
       -310.6494 111.12249 114.69587 -328.16702
000120 b7 ae 63 c3 7f 0b c5 43 9b c0 1e 43 7e 8a c1 c3
       -227.68248 394.0898 158.75237 -387.08197
000130 50 b8 9d 42 dc 8f 0f bf ca ab 24 43 81 56 63 c3
       78.859985 -0.56078887 164.67105 -227.3379
000140 b7 43 96 c2 8d ff 53 43 12 7e 9f 42 03 a8 2c 43
       -75.132256 211.99825 79.74623 172.6563
000150 32 55 91 c3 df 30 02 c3 6e cd cc 42 3c 77 f9 42
       -290.6656 -130.1909 102.40123 124.73288
000160 61 af e1 c1 41 68 99 42 fc 31 85 43 bd dd 5b c2
       -28.210634 76.70362 266.3905 -54.96654
000170 27 5e d7 c1 97 e6 b8 c2 10 77 02 43 ee d2 1a 43
       -26.920973 -92.45037 130.46509 154.82394
000180 03 1b 4a 43 3d 3c 15 43 c9 46 18 c3 62 9a cd 42
       202.10551 149.2353 -152.2765 102.80153
000190 96 90 a3 c2 36 cf c4 40 74 c4 bc 43 a0 03 7a c3
       -81.782394 6.1502943 377.5348 -250.01416
0001a0 14 51 93 43 da 46 9e c0 a1 d4 23 42 d8 d6 49 c2
       294.63342 -4.946149 40.957645 -50.45981
0001b0 39 4e 15 42 cd 68 47 43 f6 3b 34 43 a4 ae 58 43
       37.32639 199.40938 180.23422 216.68219
0001c0 59 74 42 41 72 05 9c 43 53 46 bf c2 d3 77 77 c3
       12.153405 312.04254 -95.63735 -247.46806
0001d0 e4 ca 03 c3 0c 3d c3 42 8b 3e a2 c1 c7 0d 34 43
       -131.79254 97.61923 -20.280539 180.05382
0001e0 61 9d 0c 41 f5 b6 73 43 d3 49 9f c2 6d c7 9b 43
       8.788423 243.71468 -79.64419 311.558
0001f0 c5 62 0e 42 7f f8 0b 43 66 ac d6 43 1b a9 96 c2
       35.596455 139.97069 429.34686 -75.330284

convs.0.bn1.running_var f4 [128]
000000 3d 3f 0a 47 8c 5e 13 47 26 d5 32 47 45 6b 20 47
       35391.24 37726.547 45781.15 41067.27
000010 6b 98 0f 47 b9 47 e7 46 2c 93 be 46 2a 80 06 47
       36760.418 29603.861 24393.586 34432.164
000020 82 b0 07 47 37 df c5 46 70 16 2e 47 43 69 de 46
       34736.508 25327.607 44566.438 28468.63
000030 9e 69 07 47 89 74 02 47 38 04 15 47 b4 10 1a 47
       34665.617 33396.535 38148.22 39440.703
000040 43 b1 28 47 a4 2c 2c 47 a1 a7 4c 47 88 6c db 46
       43185.26 44076.64 52391.63 28086.266
000050 20 f7 be 46 3a 88 6d 47 51 d2 39 47 75 28 49 47
       24443.562 60808.227 47570.316 51496.457
000060 1e 7e 89 47 aa 3c 54 47 b4 3a 53 47 bf ec 54 47
       70396.234 54332.664 54074.703 54508.746
000070 86 12 2a 47 fe 55 fd 46 26 c1 3d 47 41 c1 c2 46
       43538.523 32426.996 48577.15 24928.627
000080 fa c3 8c 47 3d 18 05 47 c4 7e 22 47 d1 6e bb 47
       72071.95 34072.24 41598.766 95965.63
000090 c6 a2 71 47 47 b7 0d 47 76 bf 0f 47 c2 f2 a6 46
       61858.773 36279.277 36799.46 21369.379
0000a0 26 98 51 47 0b e0 33 47 96 be 63 47 76 18 39 47
       53656.15 46048.043 58302.586 47384.46
0000b0 a3 95 85 47 62 f7 2b 47 7a 85 55 47 5c 05 79 47
       68395.27 44023.383 54661.477 63749.36
0000c0 56 4f b3 46 e1 d9 52 47 33 12 1c 47 f1 91 11 47
       22951.668 53977.88 39954.2 37265.94
0000d0 a4 f2 9e 46 bc fe 66 47 46 20 09 47 bf 74 ed 46
       20345.32 59134.734 35104.273 30394.373
0000e0 76 f4 49 47 fd 0a 1d 47 92 ee dd 46 f6 e7 07 47
       51700.46 40202.99 28407.285 34791.96
0000f0 54 ca 3c 47 17 9c d4 46 f7 0a 23 47 e3 8a ee 46
       48330.33 27214.045 41738.965 30533.443
000100 b4 09 7f 47 b6 e1 58 47 b6 53 67 47 ab 41 47 47
       65289.703 55521.71 59219.71 51009.668
000110 30 5a 28 47 38 34 33 47 4c 30 0f 47 21 41 18 47
       43098.188 45876.22 36656.297 38977.13
000120 1a e7 90 47 e4 7d 9f 47 14 42 66 47 7d ba ef 46
       74190.2 81659.78 58946.08 30685.244
000130 73 73 4f 47 67 90 24 47 0c 6d 41 47 07 d6 4d 47
       53107.45 42128.402 49517.047 52694.027
000140 15 47 f0 46 f7 7d 29 47 e4 88 ec 46 5c 2e b2 46
       30755.541 43389.965 30276.445 22807.18
000150 9f 52 42 47 10 14 30 47 16 3c 7e 47 9f cf db 46
       49746.62 45076.062 65084.086 28135.81
000160 4b 25 20 47 4e 58 67 47 67 07 67 47 18 b0 c3 47
       40997.293 59224.305 59143.402 100192.19
000170 f7 6a a7 47 45 86 37 47 81 a8 57 47 68 c2 c3 46
       85717.93 46982.27 55208.504 25057.203
000180 65 98 ae 47 31 2b 97 47 de 30 f6 47 96 94 87 47
       89392.79 77398.38 126049.734 69417.17
000190 2c 4f 2a 47 20 0f 0a 47 bc c7 2f 47 29 ee 8d 47
       43599.17 35343.125 44999.734 72668.32
0001a0 2a 76 81 47 af 52 35 47 06 2f 91 47 19 1a 1e 47
       66284.33 46418.684 74334.05 40474.098
0001b0 9f 01 03 47 53 ec 4c 47 fa 41 e4 46 59 93 b9 47
       33537.62 52460.324 29216.988 95014.695
0001c0 95 03 fb 46 0a c3 92 47 09 ca 61 47 33 07 25 47
       32129.791 75142.08 57802.035 42247.2
0001d0 f7 64 93 46 72 e4 78 47 10 ea 3e 47 8b d7 56 47
       18866.482 63716.445 48874.062 54999.543
0001e0 c1 85 29 47 81 eb bd 47 ef f7 df 46 30 73 52 47
       43397.754 97239.01 28667.967 53875.188
0001f0 59 77 81 47 11 bb 3d 47 c0 66 96 47 11 d7 15 47
       66286.695 48571.066 77005.5 38359.066

convs.0.bn2.weight f4 [64]
000000 f4 68 b0 3f 0f 81 5b 40 5b 7b 26 40 f5 fc ca 3f
       1.3782029 3.429752 2.601279 1.5858446
000010 89 6e 80 3f 02 35 b2 3f 17 bd b6 3f af 76 a2 3f
       1.0033733 1.3922427 1.4276456 1.2692469
000020 97 41 37 3f 75 7c fe 3f 2d 57 98 3f 89 e2 98 3f
       0.7158446 1.9881731 1.1901604 1.1944133
000030 c6 2a 14 40 6a 1e ca 3f cf 59 2a 40 91 41 e6 3f
       2.3151107 1.5790532 2.6617315 1.7988759
000040 39 e5 b8 3f 46 26 f4 3f 37 b5 f0 3f dc e5 94 3f
       1.4444953 1.907418 1.8805302 1.1632648
000050 9b 1d c8 3f 91 68 d4 3f a1 a4 34 40 d2 5c ad 3f
       1.5634035 1.6594411 2.8225482 1.3543952
000060 b8 ce bb 3f 58 99 97 40 2c 72 30 40 06 bc 7a 40
       1.467246 4.7374687 2.7569685 3.917726
000070 37 6c 03 40 5b 5b a9 3f 5d 6c 8d 40 fb 66 ee 3f
       2.05348 1.3231004 4.419478 1.8625177
000080 e9 9b 84 40 67 8d e7 3f 22 b0 02 40 65 04 56 40
       4.144032 1.8090028 2.0420003 3.3440182
000090 36 9b 0e 40 e9 a2 40 40 87 ec 9b 3f ef ba 49 3f
       2.2282233 3.0099432 1.2181557 0.78800863
0000a0 1e 21 db 3f 7e 4f 41 40 ab ad 11 40 c6 54 d2 3f
       1.7119482 3.0204768 2.2762249 1.6432121
0000b0 9a 7d 4a 40 31 62 d0 3f 1a 98 ec 3f 0f 6a 39 40
       3.163916 1.6279966 1.8483918 2.8970983
0000c0 6a 21 c7 3f e2 6b 48 40 cb 12 20 40 89 bc c5 3f
       1.5557072 3.1315846 2.501147 1.5448161
0000d0 e2 7e f4 3f 5e 6f 3b 40 8a c2 73 40 66 6a 80 40
       1.9101222 2.9286723 3.8087487 4.012988
0000e0 0d 75 0c 40 9e 93 fa 3f 72 18 ca 3f 09 25 06 40
       2.1946442 1.9576299 1.578871 2.0960104
0000f0 e9 99 2f 40 33 a4 8b 3f 81 94 2f 40 d0 35 1b 40
       2.743769 1.0909485 2.743439 2.4251595

convs.0.bn2.bias f4 [64]
000000 fb 37 08 c0 89 c3 14 c0 a0 f7 fc bd 32 92 28 bf
       -2.1284168 -2.3244345 -0.12351918 -0.65848076
000010 7b 10 c4 be 03 7a 45 c0 a9 cb 24 c0 9d 1b 0c 3f
       -0.38293824 -3.085572 -2.5749304 0.54729635
000020 cf 17 86 3e a8 57 c9 bf b4 24 42 c0 96 06 df bf
       0.2619004 -1.5729876 -3.0334902 -1.7423885
000030 72 75 2d c0 86 7e f3 be 22 c3 11 c0 78 2e 12 c0
       -2.7102933 -0.47557467 -2.277535 -2.2840862
000040 3b 11 a2 be d8 52 6e bf 71 af 91 be 89 fe 10 c0
       -0.3165377 -0.9309516 -0.28454164 -2.2655356
000050 c7 f0 a3 bf 5c 53 9d 3e 91 ee 7d bf dc 6a 43 c0
       -1.2807854 0.3072766 -0.9919215 -3.0533972
000060 ae 5c fe bf bf b4 8a bf 6f 42 49 c0 2a 99 bb be
       -1.9872034 -1.0836409 -3.1446798 -0.36640292
000070 e5 23 19 3e 14 e3 f3 bf 11 dd eb bf ac bc 30 c0
       0.14955099 -1.9053674 -1.8426839 -2.7615156
000080 06 d3 5f c0 3e c6 a6 bf 59 b7 c9 bf 71 a1 45 3f
       -3.4972548 -1.3029249 -1.5759078 0.77199465
000090 a3 8f f1 be 8a 45 0d c0 15 ba 06 c0 81 5d fa be
       -0.471799 -2.2073693 -2.1051075 -0.48899463
0000a0 61 d1 52 c0 df 1a 33 c0 b0 96 33 3f 8e cf 35 c0
       -3.2940295 -2.798515 0.70151806 -2.8407931
0000b0 ac 63 f3 bf 0f ea 08 c0 00 5b e5 bf 0f bd 40 c0
       -1.9014792 -2.1392858 -1.7918396 -3.0115392
0000c0 64 b2 18 c0 18 fc 24 c0 ea 6d 2a c0 00 ac 8f bf
       -2.385888 -2.5778866 -2.6629586 -1.1224365
0000d0 b6 63 08 3f 22 8d 1f c0 23 46 14 c0 40 16 87 c0
       0.53277147 -2.492989 -2.3167808 -4.221466
0000e0 b6 84 24 c0 c6 82 e2 bf a8 40 25 c0 2d 0b 47 c0
       -2.5706 -1.7696159 -2.5820713 -3.110057
0000f0 2f aa ad bf 50 00 91 bf f2 d5 c0 bf 60 e3 17 3f
       -1.3567561 -1.132822 -1.5065291 0.5933132

convs.0.bn2.running_mean f4 [64]
000000 4d 95 75 41 6c 0d fc 41 dc 5a 43 42 63 6f a1 41
       15.34895 31.506554 48.83873 20.179388
000010 3e b3 4d 41 a1 59 b6 41 1d 50 c9 41 5b 0a 6a 42
       12.85626 22.793764 25.164118 58.510113
000020 a7 a2 7d 41 63 68 96 41 0e f3 7c 42 5b c5 66 41
       15.85221 18.80097 63.23736 14.4231825
000030 eb b1 d1 41 a9 5c b4 41 a9 01 bc 41 0b 28 8e 41
       26.211874 22.545244 23.50081 17.769552
000040 31 b4 b9 41 09 70 2f 42 0e 32 8c 41 eb 6a f7 40
       23.212984 43.85941 17.52444 7.7318015
000050 08 04 94 41 5f fe b1 42 c6 f9 9d 41 da b7 d1 41
       18.501968 88.99682 19.74696 26.214771
000060 88 0f 7f 41 92 07 63 41 79 ac bf 41 3c 73 8f 41
       15.941292 14.189348 23.959215 17.931267
000070 2c 2a b5 41 4b 88 3f 41 92 a0 86 42 dd 2d b8 40
       22.645592 11.970775 67.313614 5.7555985
000080 b4 bd cf 41 eb 28 90 41 35 ce 04 43 50 7e 85 42
       25.967628 18.01998 132.8055 66.746704
000090 05 5c 5e 41 51 b8 c9 41 9b 73 a1 41 49 aa 41 41
       13.897466 25.214998 20.181448 12.104074
0000a0 c1 c8 b9 41 e5 35 25 42 b2 33 a2 41 e7 8d 33 41
       23.223024 41.30263 20.275242 11.222144
0000b0 ba c0 5d 42 ea 87 47 42 1f d0 d0 41 c4 92 6b 41
       55.43821 49.88273 26.101622 14.723331
0000c0 56 30 32 41 8c d9 2c 42 52 06 d0 41 d4 4a b6 41
       11.136801 43.21245 26.003086 22.786537
0000d0 4c 7c 5a 3f 1c 80 d6 41 ba f5 86 41 47 6c 12 42
       0.8534591 26.812553 16.869984 36.60574
0000e0 3e 9a c9 41 e2 74 86 41 f9 a0 9e 41 1b 3b b9 41
       25.200314 16.807072 19.8286 23.15386
0000f0 64 e7 c7 41 a8 c0 dd 41 bc 04 d0 41 93 e6 88 40
       24.987984 27.71907 26.002312 4.2781463

convs.0.bn2.running_var f4 [64]
000000 bf dc 7b 43 1e a1 0f 44 3b 3a 90 43 4e 45 b3 43
       251.86229 574.51746 288.45493 358.54144
000010 60 80 99 43 f0 1a 91 43 fc 12 c9 43 dc 12 17 44
       307.00293 290.21045 402.14832 604.2947
000020 f3 3c 93 43 55 26 ec 43 a2 26 23 43 2f 96 dc 42
       294.47617 472.29947 163.15091 110.29333
000030 cb 47 70 43 4c 88 33 43 3c 0e 02 44 77 f5 d5 42
       240.28044 179.53241 520.2224 106.97942
000040 16 59 da 43 fb 66 79 44 0c 80 c7 43 fa 64 d7 42
       436.69598 997.6091 399.00037 107.69722
000050 f8 88 68 43 f9 9f 1c 45 04 3b 7d 43 b2 33 16 43
       232.53503 2505.9983 253.23053 150.20193
000060 7d 80 0e 43 d6 20 19 43 6d 10 24 43 b9 75 09 43
       142.5019 153.12827 164.06416 137.45985
000070 a3 9e 57 43 e8 cd 35 43 d5 ca ff 43 f9 77 92 41
       215.61967 181.80432 511.58463 18.30858
000080 e4 97 73 43 03 dc 98 42 ec 88 6f 45 dd 79 14 44
       243.59332 76.42971 3832.5576 593.9041
000090 36 f0 b2 42 32 47 7d 43 9f e3 12 44 81 7c 97 42
       89.46916 253.2781 587.5566 75.74317
0000a0 92 bc b1 43 3b db ec 43 a0 0f 4d 43 8c 40 13 43
       355.4732 473.71274 205.06104 147.25214
0000b0 29 2d c6 43 a5 46 84 44 d0 f6 8b 43 93 73 07 43
       396.3528 1058.2076 279.92822 135.45146
0000c0 d1 ef 2e 43 b2 df cd 43 b2 d8 2c 44 5c a0 96 43
       174.93678 411.74762 691.38586 301.2528
0000d0 76 87 1c 3f cc e1 51 43 42 de 29 43 09 82 5c 43
       0.61144197 209.88202 169.8682 220.50795
0000e0 9d e6 27 44 21 57 0e 43 64 bf c8 43 f4 c5 03 43
       671.60333 142.34035 401.49524 131.77325
0000f0 05 ef a3 43 30 ac 15 44 52 17 a3 43 31 38 12 41
       327.86734 598.6904 326.1822 9.138719

convs.1.fc_full.weight f4 [128, 169]
000000 cf 26 4e c0 74 61 d3 bf d9 84 7d 3c cf 1d 29 c0
       -3.2211187 -1.6514115 0.015473568 -2.6424444
000010 20 c7 05 3f ad da dc 3f 44 8b 2a 40 f1 a9 7c 3f
       0.52256966 1.7254235 2.66475 0.9869681
000020 5c a2 b0 3e 79 f2 48 bf cb a2 3c 40 71 04 5b 3f
       0.3449887 -0.78494984 2.947436 0.8555365
000030 2b 74 8b bf 52 7a 8d bf 34 31 32 40 2f 28 92 40
       -1.0894827 -1.1052954 2.7842531 4.567405
000040 12 85 5a be 02 5e ba be c6 42 09 c0 1f e8 18 bf
       -0.21339825 -0.36399847 -2.1447005 -0.5972919
000050 97 af d1 3f 11 ea a3 bf 12 f8 f2 3f 2b f8 6e 3f
       1.6381711 -1.2805806 1.8981955 0.93347424
000060 3d b0 1c 40 ea 12 8e be 37 14 a0 bf f5 9d 09 c0
       2.4482567 -0.27748805 -1.2506169 -2.150266
000070 08 1b 26 3f 98 17 ed 3f 10 54 4a 40 eb 9b 54 bf
       0.64884996 1.8522825 3.1613808 -0.8305041
000080 74 6f c7 3f 7c 53 99 3d 03 64 44 40 ac f4 89 3f
       1.5580888 0.074866265 3.0686042 1.0777793
000090 11 cd 45 40 c3 a3 ca 3d 1f ec 66 40 ce 44 ea bf
       3.0906413 0.09894516 3.6081617 -1.8302248
0000a0 0b 15 a5 3c 41 13 aa 3e 45 64 8b be 5b af 53 bf
       0.020151636 0.33217815 -0.27224937 -0.82689446
0000b0 3e 1a 48 bf e7 0f 46 c0 9a a5 b3 3e 05 0e 00 40
       -0.7816504 -3.0947206 0.3508728 2.0008557
0000c0 90 40 07 40 27 3e 8c c0 ec cd 8d c0 fb 7c 06 40
       2.1133156 -4.382587 -4.431387 2.1013782
0000d0 39 45 1d 40 d3 76 96 bf 14 80 07 bf b2 b3 20 c0
       2.45735 -1.1755012 -0.52929807 -2.5109677
0000e0 32 e3 a9 be fc 41 8a 40 37 67 8e 3f cd a9 25 40
       -0.3318115 4.3205547 1.1125249 2.5884888
0000f0 f9 c3 7c bf ec 1f 68 3f 9a 5c 33 bc 6a 03 b7 be
       -0.9873653 0.9067371 -0.010947371 -0.35744792
000100 f6 27 d6 3f c2 1c 0a 40 fb 77 77 c0 2c d4 f2 3f
       1.6730945 2.1580052 -3.866698 1.8971
000110 81 f0 be 3e 6e 47 ce bf 7d b8 03 c0 ef 19 57 bf
       0.37292865 -1.6115549 -2.0581353 -0.84023947
000120 9c db 41 c0 a9 d5 22 c0 26 0a 38 3e 63 34 b4 be
       -3.029029 -2.5442908 0.17972621 -0.35196218
000130 21 f0 07 bf 64 c2 b0 40 c0 df 90 c0 ff 24 1c c0
       -0.5310078 5.5237293 -4.527313 -2.439758
000140 14 8b 8c 40 4b 7e 35 bf ea c8 d0 bf d1 9e 49 bf
       4.3919773 -0.7089583 -1.6311314 -0.7875796
000150 cf 4e ec bf 8d 5e fe 3f 09 02 32 c0 28 41 03 40
       -1.846155 1.9872605 -2.7813742 2.0508518
000160 b8 62 01 c0 70 ff 45 40 22 77 9c 40 f8 53 fa c0
       -2.0216503 3.0937157 4.8895426 -7.82275
000170 80 c3 67 c0 3b 58 c0 3f 24 be 6d c0 85 93 63 40
       -3.6213074 1.5026926 -3.7147303 3.5558789
000180 ef ea 55 c0 64 50 25 bf 9f 31 49 bf 6b 17 a1 be
       -3.3424642 -0.6457579 -0.7859134 -0.3146318
000190 05 fa 37 bf b9 bd 2d 3f e2 08 d0 bf fe a4 0f 40
       -0.71865875 0.6786762 -1.6252711 2.2444453
0001a0 07 5d 59 40 a4 4a cb 39 0c 79 d3 3f a5 d8 61 bf
       3.396303 0.0003877479 1.6521316 -0.882212
0001b0 2c 06 ac bf 09 d0 ac c0 8a 1f 24 c0 53 89 a2 c0
       -1.3439384 -5.400395 -2.564425 -5.079263
0001c0 7f ca 1a 40 0a ac 1d 40 e3 8a 71 be 64 cc df bf
       2.4186094 2.4636254 -0.23588137 -1.748425
0001d0 ba 70 94 3c be 1c 43 40 38 0e 12 3f b8 6b 07 c0
       0.018120158 3.0486293 0.57052946 -2.1159496
0001e0 45 1b 28 3f 13 2b e8 3f e0 de d7 3d 23 ee e0 be
       0.6566661 1.8138145 0.10540557 -0.43931684
0001f0 5b 4b 38 c0 d5 7e 25 c0 3e 03 d4 3e e2 cb a2 3f
       -2.8795993 -2.5858662 0.41408724 1.271847
000200 f0 9b 11 3d 22 b8 0a 3d ec 2c 49 be 5b 78 a9 40
       0.035549104 0.03386701 -0.19646043 5.295942
000210 f4 d3 86 41 d7 3d 87 41 87 17 1d 41 67 ec ed 3e
       16.853493 16.905195 9.818244 0.46469423
000220 7a 3c 50 3f 4d 92 a8 40 6b 95 f2 40 be bd 9f 3f
       0.8134228 5.267859 7.5807395 1.247978
000230 da 1c b1 c0 a4 34 3b c1 52 ff b4 c0 6b 9b 27 c0
       -5.534772 -11.700352 -5.656167 -2.618861
000240 bd 19 d5 bf 7f 87 0e 40 ec 27 ad 40 92 b7 6f 40
       -1.664848 2.22702 5.4111233 3.7455792
000250 40 de 59 40 f5 68 37 40 55 1a a4 be 94 12 01 c0
       3.40419 2.865781 -0.3205134 -2.016759
000260 c3 fc e8 bf 64 14 92 c0 fb b9 9e c0 fd 8f b7 bf
       -1.8202137 -4.564989 -4.9602027 -1.4340817
000270 eb 5a 78 be 5e 75 81 40 09 31 a5 40 91 ed be 3f
       -0.24253432 4.045577 5.1622357 1.491625
000280 b2 b5 e7 3f 07 42 0c 40 b6 c8 93 3e 7a d7 e0 be
       1.8102324 2.19153 0.28864068 -0.43914396
000290 7b 38 1b be b1 a4 53 bc 48 c7 08 3d 28 41 ea 3c
       -0.15158264 -0.012917683 0.033393174 0.028595522
0002a0 00 78 14 bc c5 d2 2e 40 d2 bc d8 3f b7 b3 f2 3d
       -0.009061813 2.7316144 1.6932623 0.11850684
0002b0 69 e3 94 be 69 68 c5 3f 74 5c 03 3f 88 e6 81 3f
       -0.2907975 1.5422488 0.5131295 1.0148478
0002c0 29 99 20 c0 82 c7 8c 3f b9 9b 19 bf 37 40 2c c0
       -2.5093482 1.0998385 -0.6000324 -2.6914194
0002d0 20 88 94 bf 04 0f 3f 40 c7 23 48 3e 80 d0 88 3f
       -1.1604042 2.9852915 0.19544898 1.0688629
0002e0 20 b0 a3 bf 9e 1e b0 3e 8c f3 59 3f f3 ff fd be
       -1.2788124 0.3439836 0.8513725 -0.49609336
0002f0 99 06 c9 bf 92 90 9e be f2 c6 00 bf b4 8e ce 3f
       -1.5705138 -0.30969673 -0.50303566 1.61373
000300 e5 97 33 40 5c ea be 3f f8 a8 41 40 32 c2 cf 3e
       2.806146 1.4915271 3.025938 0.40577847
000310 34 57 6c 3f a2 65 53 40 49 00 6b 40 20 46 85 bf
       0.9232056 3.3030782 3.6718924 -1.0412025
000320 62 ef 89 bd 77 78 e9 3f f4 b1 3a 40 a1 84 06 40
       -0.06735112 1.8239888 2.9171114 2.101845
000330 15 64 04 c0 f4 05 79 40 3d 45 43 40 af 44 a7 3f
       -2.0686085 3.8909883 3.051101 1.3067836
000340 ab 2d ea 3e cc 8f 7b 3e e3 2d 5b bf 51 66 d2 bd
       0.45737967 0.24566573 -0.8561689 -0.102734216
000350 26 a8 ad 3f 40 70 41 3e b0 dd 43 c0 13 3d 54 3f
       1.356694 0.18890476 -3.0604057 0.8290569
000360 bc bd 94 c0 1f 8b 50 bf 1a fc de 3e b6 7f 2d c0
       -4.648161 -0.8146228 0.43551713 -2.7109199
000370 56 e7 14 40 be 30 12 40 40 60 29 40 14 80 05 c0
       2.3266196 2.284225 2.6464996 -2.0859423
000380 03 be 54 bf c7 52 27 3f b7 be c2 3f 0d 1e 1c c0
       -0.83102435 0.65360683 1.5214452 -2.4393342
000390 77 41 95 c0 f8 c0 62 3f 2f 54 04 40 73 7e c0 be
       -4.6642413 0.88575697 2.0676382 -0.37596473
0003a0 f7 b0 27 40 4c 99 b0 3f 2b 62 5f bf 42 5e ec bf
       2.620176 1.3796782 -0.8725917 -1.8466265
0003b0 0b 89 6c bd 0f c4 5f 40 38 17 54 c0 b3 07 1b 3f
       -0.05774788 3.4963415 -3.3139172 0.60558623
0003c0 70 ee f3 3f 28 e0 7f bf 5e 04 a8 c0 43 47 c7 40
       1.905714 -0.9995141 -5.250533 6.227449
0003d0 a4 d7 f8 be 07 fc 91 3e 18 ce 8f bf 36 34 17 c0
       -0.4860202 0.28512594 -1.123477 -2.3625617
0003e0 d9 c4 f3 3f 78 02 34 40 1e df 50 40 1e ea a1 3f
       1.9044448 2.8126507 3.263618 1.2649572
0003f0 e0 47 c5 c0 fe 5c 8c bf 8c be 3e be 62 7e 82 3f
       -6.165024 -1.0965879 -0.18627375 1.0194819

convs.1.fc_full.bias f4 [128]
000000 6e cb 7c 3d 87 8b 10 3c 70 c4 90 3d 33 be 38 bc
       0.061717443 0.008822328 0.070687175 -0.011275816
000010 d3 8a 79 bc ac f0 97 bb 64 f3 20 bd 4a 9e 6f 3d
       -0.015230852 -0.0046368446 -0.039294615 0.058500566
000020 25 0b 4e bd f3 c3 16 bd 3e b9 0b bd 67 13 4b 3d
       -0.050303597 -0.036807965 -0.034112208 0.04957905
000030 8d 2c 4f bd f1 4d 85 3d e2 d7 85 bd 8a 0f 79 3d
       -0.050579596 0.06509007 -0.06535317 0.060805835
000040 39 06 79 bb d3 9c 54 3c f3 c4 aa bc 65 ec 01 3b
       -0.0037998094 0.012976843 -0.020845866 0.001982474
000050 1b 43 a7 bc 48 38 cc 3c 30 43 4f bd a3 70 7d 3d
       -0.02041774 0.02492918 -0.050601184 0.061874997
000060 57 93 34 bd e1 b7 65 bd c0 0c 2f 3c ea f0 57 bc
       -0.044085827 -0.056083564 0.010684192 -0.013179997
000070 d1 08 c9 bc 06 d3 49 bd 04 35 5c bc 51 c4 c6 bc
       -0.024540337 -0.049273513 -0.013440374 -0.024263533
000080 09 fd 49 bd aa 5f 8d 3d fc 3b 05 3d ba d2 89 bd
       -0.04931358 0.06903012 0.03252791 -0.06729646
000090 f8 23 e2 3a 16 07 23 bd 5b 88 52 3c 30 b4 c0 3d
       0.0017253151 -0.03980168 0.0128498925 0.09409368
0000a0 56 49 1c 3d 1c a7 1f 3d 38 31 a5 3d 4f 40 3d bd
       0.038155876 0.038977727 0.08066028 -0.046203908
0000b0 66 d1 7a 3d 74 bf 95 bc b0 ed 11 bd 27 81 26 3d
       0.061234854 -0.018279769 -0.035627067 0.040650513
0000c0 61 0d c7 bc 23 2d 35 bd 45 1b 90 3d c9 65 ab bd
       -0.024298372 -0.0442325 0.07036451 -0.08369023
0000d0 82 d0 07 3d e4 0b 5d 3d bf c6 71 bd 32 30 b2 bd
       0.033157833 0.053966418 -0.05902743 -0.08700599
0000e0 cd 61 8b bd 9a 56 d0 3c 94 d6 d0 3c c2 46 12 bc
       -0.068057634 0.02543192 0.025492944 -0.008928003
0000f0 36 8f 3b bc 7a a1 46 3c c3 6f 11 bd f8 28 36 3c
       -0.011447718 0.01212346 -0.035506975 0.011118166
000100 07 dc ce bc 6d 13 3b bb 75 fe 06 3d 64 75 3d bd
       -0.025251402 -0.0028545514 0.032957513 -0.04625453
000110 e4 4a 57 3d 9e 71 95 3d 35 a1 78 3c 98 db 5e bd
       0.052561656 0.072970614 0.0151751535 -0.05440864
000120 0a 97 cc bb 49 0b 31 bd 22 9c 4c bd 4c 3f 9e bd
       -0.006243591 -0.043223653 -0.049953587 -0.07726917
000130 19 d4 fc b9 e0 30 2d 3d fe f9 6c bd 68 4a 2c 3d
       -0.0004822321 0.04228294 -0.0578556 0.042063147
000140 6b 72 a2 bb 50 34 eb bc 9d 39 7e bd d3 6c 9a 39
       -0.0049574873 -0.028711468 -0.062066663 0.0002945425
000150 2a 66 9e bd 14 89 8e 3b 77 bd f7 bc 58 1a 22 3c
       -0.0773433 0.004349837 -0.030241711 0.009893976
000160 4a de 6c bc 83 48 39 3c 8b 25 8e 3d f2 5d 2d bc
       -0.014457295 0.011308792 0.069407545 -0.01058148
000170 d0 18 1d bc c3 55 1f bd 16 bf c0 bc 3c 11 98 bc
       -0.009588435 -0.038900148 -0.023528617 -0.018562905
000180 15 70 cb 3c b2 56 81 3d 7e 76 bf 3c b4 34 8c bd
       0.024833718 0.06315364 0.023371931 -0.0684599
000190 a6 ab 85 bb 5a 58 c7 3d df c1 5c bd d9 36 98 bd
       -0.0040793 0.097336486 -0.053895827 -0.07432336
0001a0 53 9c 9e bd 9e 24 7d 3d 15 19 81 bd 15 28 81 3d
       -0.0774466 0.0618025 -0.06303612 0.06306473
0001b0 3c 3a 12 3d 32 be 51 3d e1 ef 48 3d a5 1e 86 3d
       0.035700068 0.051206775 0.04905689 0.06548814
0001c0 48 db de 3b c6 d6 06 bd 24 7c 5d 3d 2e 53 e4 3c
       0.0068010427 -0.032919668 0.054073468 0.027871694
0001d0 97 7d 45 bd 37 b8 15 3d 6a ce e9 bc 3d a8 00 bd
       -0.048215475 0.036552634 -0.028540809 -0.031410445
0001e0 c9 ab ab 3a 1a 71 ad 3d af 9e 8f bb ea 96 d2 3c
       0.0013097461 0.08468838 -0.00438293 0.025706727
0001f0 ec ad 94 3c c2 a6 92 3c 2f 32 7b 3d e5 d3 91 bd
       0.018149339 0.017901782 0.061327156 -0.07120494

convs.1.bn1.weight f4 [128]
000000 31 15 01 41 d0 44 8a 40 6b 76 db 40 9f f4 d8 3f
       8.067674 4.3209 6.8582053 1.6949652
000010 b1 c0 56 40 3f 12 94 40 f5 18 ee 3f 63 9c 76 40
       3.355511 4.6272273 1.8601366 3.853295
000020 57 42 95 3f 13 0a 8f 40 b0 4c a5 40 7a 42 f3 40
       1.166087 4.46998 5.1656113 7.601865
000030 c0 55 15 41 2b 6e 21 41 c4 ec 05 41 52 55 55 41
       9.333435 10.089396 8.370304 13.33333
000040 1d a5 d1 40 5f f5 ec 40 ee 86 a5 40 5e 64 c9 40
       6.5514054 7.4049525 5.172721 6.293502
000050 9a e4 e7 40 00 78 b9 40 18 cb d1 40 94 e1 a0 40
       7.2466555 5.7958984 6.5560417 5.0275364
000060 e1 3c ff 40 a4 d0 68 40 30 08 2e 40 87 9b d4 40
       7.9761815 3.6377344 2.7192497 6.6439853
000070 44 10 ac 40 14 92 e4 40 78 2c df 40 30 3a b4 3f
       5.3769855 7.142832 6.9741783 1.4080257
000080 34 62 8c 40 1b 2f a5 40 ce a2 c3 40 b5 7c c5 40
       4.3869877 5.162 6.1136236 6.171473
000090 24 f0 6e 40 b0 b8 c9 40 f0 90 1b 40 ca 41 78 40
       3.733407 6.303795 2.4307213 3.8790154
0000a0 2c fb 53 40 60 0d 67 40 d3 26 f3 40 39 64 10 41
       3.3122053 3.6101913 7.5984893 9.024468
0000b0 01 be 6e 40 b6 5f 1c 41 84 b0 a1 40 0d 3e ac 40
       3.730347 9.773367 5.0527973 5.3825746
0000c0 ad ff ab 40 84 c1 a1 40 5f 52 d5 40 6c b3 d5 40
       5.3749604 5.0548725 6.666305 6.678152
0000d0 49 ef 23 40 c6 4e c1 40 bd 82 9a 40 2a f8 52 40
       2.5614798 6.040866 4.8284593 3.2963967
0000e0 da d8 9a 40 54 8e e0 40 ef b6 52 41 c9 c6 f3 40
       4.838971 7.017374 13.1696615 7.618016
0000f0 c3 3e b2 40 e2 d9 b1 3f 90 ad 46 40 4b 50 a1 40
       5.5701613 1.3894618 3.1043434 5.0410514
000100 62 e6 ee 3f 1a ff e8 40 e7 5f da 3f ad 74 0c 40
       1.8664057 7.2811403 1.7060517 2.1946213
000110 c3 90 ce 3f 5b f9 97 40 b0 7c 8b 40 09 1e d5 40
       1.6137928 4.749189 4.3589706 6.6599164
000120 58 74 93 40 7a b2 31 40 6d d3 04 40 e3 b4 4a 40
       4.607952 2.7765183 2.0754044 3.1672904
000130 08 0c be 40 64 c7 67 41 a5 27 d8 3f 35 01 9a 3f
       5.9389687 14.486179 1.6887099 1.2031618
000140 b3 1b 89 3f e1 b2 1f 40 4e fe c0 3f d9 b2 36 40
       1.0711578 2.495293 1.5077608 2.854666
000150 fc c9 8e 3f 9a d1 08 40 51 12 21 40 0f 35 e1 40
       1.1155391 2.137793 2.516743 7.037727
000160 96 57 4b 40 ca d4 be 3f 50 67 8b 40 a0 75 4a 3f
       3.1772208 1.4908688 4.3563614 0.7908573
000170 34 26 b4 3f f3 fd 47 40 67 1a da 3f 10 48 b4 40
       1.4074159 3.1248748 1.7039307 5.6337967
000180 f3 b7 5c 3f 65 1c 4d 40 10 d1 05 40 bf 3d f8 3f
       0.86218184 3.204858 2.0908852 1.9393843
000190 0c 45 a7 3f 71 16 f8 40 f0 03 2c 40 46 24 d9 40
       1.3067946 7.7527394 2.6877403 6.785678
0001a0 b7 97 48 40 cb b8 87 40 51 c7 1a 40 7b f4 9a 40
       3.13426 4.2413077 2.4184153 4.842344
0001b0 4b 20 dc 40 74 eb 14 40 fe 6f b7 40 5d 24 0b 40
       6.878942 2.326871 5.732421 2.1740944
0001c0 ea da 8d 40 d5 2e ba 3f cc f3 ea 40 42 d3 cd 3f
       4.432973 1.4545542 7.3422604 1.6080096
0001d0 c7 f6 c0 3f 2a 60 3b 40 5b ec 00 41 8d 32 84 40
       1.507531 2.9277444 8.057704 4.1311707
0001e0 8d 25 74 3f f6 6f 46 40 c7 7e d9 3f fa 60 7b 3f
       0.953698 3.1005836 1.6991814 0.9819485
0001f0 d1 39 fd 3f 4f 88 e3 bf 13 54 c7 40 01 73 4c 40
       1.9783269 -1.7775973 6.229013 3.1945193
