results/Prediction/2023-06-14/23:09:15.363000/models/model197.pth (torch, 340949 bytes, 34 tensors)

embedding.weight f4 [64, 92]
0	0x3fe219a1	1.7664071
1	0x3fad8932	1.3557494
2	0xc010a865	-2.260278
3	0x3f338c6e	0.70136154
4	0xc00de178	-2.2168865
5	0xc0dd9554	-6.9244785
6	0xc0875d1c	-4.230116
7	0xbfb57044	-1.4174886
8	0xbe6108ca	-0.21976009
9	0x4012a946	2.2915816
10	0xbec9d8b3	-0.3942314
11	0xc02fb56d	-2.7454484
12	0x3f9b2699	1.2121154
13	0x3f07f1c5	0.53103286
14	0xbebcff61	-0.3691359
15	0x401261e7	2.2872255
16	0xbfa500dc	-1.2890887
17	0x3e615814	0.22006255
18	0xbfff73da	-1.995723
19	0x3f3b1809	0.7308355
20	0x3f79f4e4	0.976393
21	0xbff5bd85	-1.9198462
22	0xbf0b1ac0	-0.5433769
23	0xbf793bd7	-0.97356933
24	0xbff14989	-1.8850566
25	0x3fc84173	1.5644974
26	0xbfaecf97	-1.3657101
27	0x3fc137c2	1.5095141
28	0x3f249a16	0.64297616
29	0xc0c265ef	-6.074943
30	0xbec6e478	-0.38846183
31	0xbe2b8843	-0.16751198
32	0x3fa8ef67	1.319806
33	0xbff5aacf	-1.9192752
34	0xbe56f15f	-0.20990513
35	0xbf7dffc9	-0.9921842
36	0x3f50784f	0.81433576
37	0xbf1f04f9	-0.6211696
38	0xc02dc67f	-2.7152402
39	0x3ebb4816	0.36578435
40	0x3fb22086	1.3916175
41	0xbf5ed2b0	-0.87040234
42	0xbf3e2be0	-0.742857
43	0xbd05f330	-0.032702625
44	0x3e94b6f4	0.29045832
45	0xbfd421b5	-1.6572787
46	0x3fb4ec2c	1.4134574
47	0x3e9c9374	0.30581248
48	0x3f5b62d2	0.8569766
49	0xbfced3c5	-1.6158377
50	0xbf422de9	-0.75851303
51	0xc0190e37	-2.3914926
52	0xbf8f0b43	-1.1175312
53	0xbe54b213	-0.20771055
54	0x401278e7	2.2886293
55	0xc05c8410	-3.4455605
56	0xc03afe71	-2.9217799
57	0x4040716b	3.0069225
58	0xbfb70816	-1.4299343
59	0x3fd3496b	1.650678
60	0xbf102d73	-0.5631935
61	0x3ff834b1	1.939108
62	0xc0638a5a	-3.5553193
63	0xbfb325b9	-1.3995887
64	0xbf3c4696	-0.73545206
65	0xbf6b0004	-0.917969
66	0x3dbc3768	0.091902554
67	0xbdfa9e85	-0.122372665
68	0xc062620e	-3.5372348
69	0xbc950af5	-0.018193701
70	0xc0228032	-2.5390744
71	0xbd1d891c	-0.038460836
72	0x3f9fba11	1.2478658
73	0xbe6b80be	-0.2299833
74	0xbea48235	-0.3213059
75	0xbf89b625	-1.0758711
76	0xbcc8bda0	-0.024504483
77	0x3e5bfe5b	0.21483748
78	0xbe7f6afc	-0.24943155
79	0xbf5d976d	-0.8655918
80	0xc0775951	-3.8648264
81	0x3fe49dbe	1.7860639
82	0xc01f71e8	-2.4913273
83	0xbfab77b6	-1.3395908
84	0xbf2a107e	-0.66431415
85	0xbefc73e9	-0.49307182
86	0xc048c6f0	-3.1371422
87	0xc0a975a4	-5.2956104
88	0x40601e42	3.5018468
89	0xbfb27dba	-1.3944619
90	0xc03a81e9	-2.914179
91	0x3d60a662	0.054846175
92	0x3eb68199	0.3564575
93	0xbcb82f78	-0.022483572
94	0xbc357e3f	-0.011077463
95	0xbf808062	-1.0039179
96	0x3f495a48	0.78653383
97	0x4009776d	2.1479142
98	0x3f2d6d23	0.67744654
99	0x3fb4a7a4	1.411366
100	0x3fa8072e	1.3127191
101	0xc054a93f	-3.32283
102	0xc0063713	-2.0971115
103	0xc055975f	-3.337364
104	0xbf2d99aa	-0.678126
105	0xbe7df5b5	-0.24800761
106	0x3f96da9f	1.1785468
107	0x3f0046b6	0.50107896
108	0xbeaf31e1	-0.34217742
109	0x3f2836ac	0.6570842
110	0xc0d52dc0	-6.6618347
111	0xbf9bb2fc	-1.2163997
112	0xbeb8a7d6	-0.3606555
113	0x4049b0a1	3.1514056
114	0xbee56ff4	-0.44811976
115	0xbeea50be	-0.45764726
116	0xc0009a3d	-2.009414
117	0x3e14f719	0.14547385
118	0x3e164eec	0.14678544
119	0x3d691d4e	0.056912713
120	0x3f877fd0	1.058588
121	0xc007b4f5	-2.1204197
122	0x3f7c8f87	0.98656505
123	0x3e8178c7	0.25287458
124	0x3fb0c039	1.3808662
125	0x3d819e2f	0.06328999
126	0xbea4cfb8	-0.32189727
127	0x3f4e03ce	0.80474555
128	0xbf9f39fb	-1.2439569
129	0xbf275026	-0.6535667
130	0xc0377600	-2.8665771
131	0xbf213cf8	-0.62983656
132	0x3f9d18e6	1.2273223
133	0xbc9966b9	-0.01872574
134	0xc004e959	-2.0767424
135	0x3e4e1e47	0.20128737
136	0xc01fd55d	-2.4973977
137	0x407767bf	3.8657072
138	0x3d31a37d	0.043368805
139	0x3dd5be88	0.104367316
140	0xbf312b61	-0.69206816
141	0x3f17f47c	0.5935743
142	0x3f50cd44	0.8156321
143	0x3ca6fecb	0.020385167
144	0x3ee9158a	0.45524246
145	0x3f834226	1.0254562
146	0xc05742af	-3.363445
147	0x3f028983	0.50991076
148	0xc053752c	-3.3040266
149	0xc029d357	-2.6535242
150	0x3e23c6c1	0.15993787
151	0x3da8fc2b	0.08251222
152	0xbfef140f	-1.8677996
153	0x3fad5fe0	1.3544884
154	0x3d9beb23	0.07613208
155	0xc00b4e42	-2.1766515
156	0xbf36fe8c	-0.7148216
157	0x3f2f2398	0.68413687
158	0xbd8b5062	-0.06802441
159	0x3fa44136	1.2832401
160	0xbf395e2e	-0.7240933
161	0x3d2bdbea	0.041957773
162	0x3f4ccb22	0.79997456
163	0x3dccf629	0.10007889
164	0xbf247c23	-0.6425192
165	0xbf7734ec	-0.9656513
166	0x3ec866d0	0.3914094
167	0xbf50b6c8	-0.815289
168	0xbd97242d	-0.07379947
169	0x3f3a773b	0.7283818
170	0xbf2a9208	-0.66629076
171	0xbed59d5e	-0.41721624
172	0xbf79e095	-0.9760831
173	0x3ea45307	0.32094595
174	0xc05ecc2e	-3.4812121
175	0xbdc9c2eb	-0.09851631
176	0x3ff6f1dc	1.929256
177	0xbefc3702	-0.49260718
178	0xbf5dedf4	-0.8669121
179	0xbfabc2bf	-1.3418807
180	0x3f135f62	0.5756742
181	0x3f0b51a3	0.5442144
182	0x3e005b3d	0.12534805
183	0xbeb1a2d3	-0.34694538
184	0xc09ae770	-4.8407516
185	0xbfb21c59	-1.3914901
186	0x3fca3e82	1.5800326
187	0xc0fc736a	-7.8890886
188	0xc09bb534	-4.8658695
189	0xc0964c8d	-4.6968446
190	0xbfdf8bbe	-1.7464521
191	0xbfca6198	-1.5811033
192	0xc0af3b65	-5.4760003
193	0xbd93b438	-0.072121084
194	0xc00b5dea	-2.177607
195	0x400fef24	2.248971
196	0x40720281	3.7814028
197	0x4002992a	2.0405984
198	0x3fcb9bd6	1.5906932
199	0x3fba5fb5	1.4560457
200	0xbf42a541	-0.7603341
201	0xc0038396	-2.0549064
202	0xbfe8b121	-1.8179055
203	0x3fe7ba24	1.8103681
204	0xbf876814	-1.0578637
205	0xbc77d58d	-0.015126598
206	0x3f86f3ff	1.0543212
207	0xbf172253	-0.5903675
208	0xbeba3a2a	-0.363725
209	0x401a5ee6	2.4120421
210	0xbfbae302	-1.4600527
211	0xc090a98c	-4.5206966
212	0xbfc1b543	-1.5133442
213	0x3f96b04f	1.1772555
214	0x4021d44a	2.528582
215	0xc01ddca9	-2.466593
216	0x4034816c	2.8203993
217	0xc01aca26	-2.4185882
218	0xbd9e8d7f	-0.07741832
219	0x3f0c483d	0.54797727
220	0x3ffa87e0	1.9572716
221	0x3dec51c6	0.115390345
222	0xbf2172f3	-0.63066024
223	0x3f9bf5af	1.2184352
224	0x3ecb34a2	0.39688593
225	0x3f2d522d	0.67703515
226	0xc09f5238	-4.9787865
227	0xc034bcf4	-2.8240328
228	0xbd200768	-0.039069563
229	0xc03a589b	-2.911658
230	0xbfb7379b	-1.4313844
231	0xbfbb7abb	-1.4646829
232	0x3fa807e7	1.3127412
233	0x3f064046	0.52441823
234	0x3f29d02f	0.6633329
235	0xbfa38111	-1.2773763
236	0xc0454851	-3.0825388
237	0xc0b20fb2	-5.564416
238	0xbe19e1b4	-0.15027505
239	0x3fc5e7d5	1.5461375
240	0x4009787e	2.1479793
241	0x3fffe057	1.9990338
242	0xbfb94503	-1.4474186
243	0xc0715e18	-3.771368
244	0xbfdc2f25	-1.7201887
245	0x3f440da7	0.7658333
246	0x3f377bbb	0.7167317
247	0x3eae09e5	0.33991924
248	0xbf3317d7	-0.6995825
249	0x3ecb0551	0.39652494
250	0xbd77e4b5	-0.060520846
251	0x4010b5d2	2.2610974
252	0x4016c7ac	2.355937
253	0xbcb788d0	-0.022404104
254	0xbf07ddea	-0.5307299
255	0x3dc78fdb	0.09744235

convs.0.fc_full.weight f4 [128, 169]
0	0xc092ac88	-4.583561
1	0x3ee2c685	0.44292083
2	0xbdb84f89	-0.08999545
3	0x3f2ba525	0.67048866
4	0x403f140d	2.9855988
5	0xbef946e2	-0.48686892
6	0x3e6bb8d4	0.23019725
7	0x4009597b	2.1460865
8	0x4018bc8d	2.3865082
9	0x3f9e8874	1.2385392
10	0xbdc4c2ca	-0.096074656
11	0x404d4413	3.20728
12	0xbee32163	-0.4436141
13	0x3fbd5d1c	1.479404
14	0xbfc26877	-1.518813
15	0x3eb6a00c	0.3566898
16	0xbf5642c3	-0.8369562
17	0xbf2df572	-0.67952645
18	0x3ebe3e82	0.37157065
19	0xbfa2fac4	-1.2732778
20	0xbf183335	-0.59453136
21	0x400f38cf	2.2378423
22	0xc02a1c8b	-2.6579921
23	0xbe5620a6	-0.20910892
24	0xc01c2fff	-2.4404294
25	0xc01c23d7	-2.4396875
26	0x3e54bfd6	0.20776305
27	0x3eb82347	0.35964414
28	0xbfb4760e	-1.4098527
29	0x4010a76f	2.2602193
30	0xbfb62284	-1.4229283
31	0xbd3982be	-0.0452907
32	0xbfd30a3e	-1.6487501
33	0x3fc2bd5b	1.5214037
34	0xc02f2db0	-2.7371635
35	0xbfb0c3c7	-1.3809747
36	0xc034d1d5	-2.8253071
37	0x3f562516	0.8365034
38	0x3fab08ef	1.3362101
39	0x3fab0fdc	1.3364215
40	0xbff4d9b9	-1.9128944
41	0x3eb8b564	0.3607589
42	0xbebd363a	-0.36955434
43	0x4029e23f	2.654434
44	0x40283c39	2.6286757
45	0xbf0839e4	-0.53213334
46	0xbfedf384	-1.858994
47	0x3f77468c	0.9659202
48	0x3fa1d721	1.2643777
49	0x4011918b	2.2745082
50	0xbf8b3949	-1.0876857
51	0xbd0f7fad	-0.03503387
52	0xbfc560f4	-1.5420213
53	0xbfdbedac	-1.7181907
54	0xbfe5a605	-1.794129
55	0x3f52e50b	0.8238074
56	0xbf58a8f0	-0.8463278
57	0x3f9f38ce	1.243921
58	0xc09a1d4d	-4.8160768
59	0x3f752887	0.95764965
60	0x400cbee5	2.1991513
61	0xc025897b	-2.5865161
62	0x3f7873cd	0.970517
63	0x3f4d9adb	0.80314416
64	0xbf473d94	-0.77828336
65	0xc02c9973	-2.6968658
66	0xc08e7666	-4.451953
67	0x3fe1de1c	1.7645907
68	0xc0d0248b	-6.504461
69	0x4021fe3d	2.5311425
70	0x40ac4b87	5.3842196
71	0x3f9e5ef6	1.237273
72	0xbf7c1551	-0.98470026
73	0xc0c0fd42	-6.0309153
74	0xbf8177dd	-1.0114704
75	0x3d8eabc9	0.06966359
76	0x3ddb12b2	0.10696925
77	0xbddc7da9	-0.10766155
78	0xbf87633a	-1.0577157
79	0x4008c7eb	2.137202
80	0x3f1e2e66	0.6178955
81	0x400df7cf	2.21825
82	0x3d4fec7b	0.050762635
83	0x409c4c09	4.8842816
84	0x3f8f9dd2	1.1220038
85	0x3efd543c	0.49478328
86	0xc0acac8e	-5.396064
87	0x407e109f	3.9697645
88	0xbedcdcd4	-0.43137228
89	0xbf8d9ae4	-1.1062894
90	0xc034ccf3	-2.825009
91	0x3ea847b9	0.3286722
92	0x400259ab	2.036723
93	0xbf040d4f	-0.5158281
94	0x401db4af	2.464153
95	0xbe5bfde8	-0.21483576
96	0xc0300678	-2.7503948
97	0xbed323a9	-0.41238144
98	0xbee5f0d5	-0.44910303
99	0x3f770673	0.96494216
100	0x4048ed8d	3.139499
101	0x40abbac3	5.366548
102	0x3f90dd21	1.1317483
103	0xc016c38e	-2.3556857
104	0x3fa8bc52	1.3182471
105	0x404bf468	3.1867924
106	0x4008faa0	2.140297
107	0x3fd85fb0	1.6904202
108	0xbfde47e2	-1.7365687
109	0x3f949195	1.1606928
110	0xc03c440d	-2.9416535
111	0x406398a7	3.5561922
112	0x3f1b19c6	0.605862
113	0xbfb7f5ef	-1.4371928
114	0x4009fba3	2.1559837
115	0xc083303b	-4.0996375
116	0xbec78570	-0.38968992
117	0x403f51fb	2.9893787
118	0x4071b3e4	3.7766047
119	0x40954fdd	4.665999
120	0xc0365918	-2.8491879
121	0xc0a84981	-5.2589726
122	0x400262d4	2.037282
123	0x40271445	2.6106122
124	0x3f79694e	0.9742631
125	0xbe5602ae	-0.2089946
126	0xbde6c9f9	-0.11268992
127	0x3f018f21	0.5060902
128	0x3cc635b7	0.024195535
129	0x3d764a4f	0.06012946
130	0xbe9345ba	-0.28764135
131	0xbb67a130	-0.0035343878
132	0xbe1147bf	-0.14187525
133	0xbe0949c3	-0.13407044
134	0x3f3c03b2	0.7344314
135	0x3eec251a	0.46122056
136	0xbf2ff7d2	-0.6873752
137	0x3e8c876b	0.27447066
138	0x3ee171f1	0.44032243
139	0xbddd31cc	-0.108005136
140	0xc0553a66	-3.3316894
141	0xc088ed2f	-4.278953
142	0x3e8caf96	0.2747771
143	0x40eac7c0	7.3368835
144	0x40ab56cf	5.3543468
145	0x3eb69ef1	0.35668138
146	0xc05539e2	-3.331658
147	0xc09a879b	-4.8290534
148	0xc05772c5	-3.36638
149	0xc0152083	-2.3301094
150	0xbead0a07	-0.33796713
151	0x405b280d	3.4243195
152	0x405b4a72	3.4264188
153	0xbe45754a	-0.19283023
154	0x3dda57e6	0.106612965
155	0xc00325fb	-2.0491931
156	0xc05400ab	-3.3125408
157	0xbfe7538c	-1.8072371
158	0xbecc07bf	-0.3984966
159	0xbe869f67	-0.2629349
160	0xbe80735d	-0.25088015
161	0xbe8fbcad	-0.28073636
162	0xbf91c06c	-1.1386847
163	0xbfa82a5f	-1.3137931
164	0xbf140042	-0.57812893
165	0x3cbaf4aa	0.022821743
166	0x3d36e6c5	0.044653673
167	0x3c46e725	0.01214007
168	0x3d84ca38	0.06483883
169	0x3efcca38	0.4937303
170	0xc0deb764	-6.9598866
171	0xbff0e1a9	-1.8818866
172	0xbf204daf	-0.62618536
173	0xbfdeaedc	-1.7397113
174	0xbfdfe882	-1.7492831
175	0x3fc988d1	1.5744878
176	0xbf35d07a	-0.71021235
177	0xbe980afe	-0.29695886
178	0xbd0293b4	-0.031879142
179	0xbf3bea7d	-0.73404676
180	0xc0352006	-2.8300796
181	0xc02cd71e	-2.7006297
182	0x3f349b46	0.7054943
183	0x3f0ff25d	0.5622919
184	0xbfbd3fd7	-1.4785107
185	0x3f88870d	1.0666214
186	0x3fc8043f	1.5626296
187	0xbfcf53ee	-1.6197488
188	0x3f6ef8ea	0.9334856
189	0xc0641402	-3.5637212
190	0xbf113435	-0.56720287
191	0x3f2e237c	0.68022895
192	0x4004abf6	2.0729957
193	0x3fd1caf6	1.6390064
194	0xbfecc27b	-1.8496851
195	0xbfd705f6	-1.6798694
196	0x3f799cbf	0.975048
197	0x3f584bca	0.84490645
198	0xc033c297	-2.8087518
199	0x3f9fcab3	1.2483734
200	0x3f3f6bf3	0.7477409
201	0x3f20e083	0.6284258
202	0xbf84d403	-1.0377201
203	0xbdad080e	-0.08448802
204	0x3ea764ba	0.32694036
205	0xbe087e2b	-0.1332938
206	0xbff0498d	-1.8772446
207	0x401fe4e8	2.4983463
208	0xbff57852	-1.9177344
209	0xbe83103d	-0.25598326
210	0xbe1fd8d7	-0.15610062
211	0x3e16defe	0.14733502
212	0xc08a4d76	-4.3219557
213	0x3f4df0f5	0.80445796
214	0x40921e42	4.5661936
215	0x405a68e1	3.4126513
216	0xc06a9d94	-3.6658678
217	0x3fb8364b	1.4391569
218	0xbcdc0f9b	-0.02686291
219	0xbd2f627f	-0.042818543
220	0xc0437ac5	-3.0543683
221	0x3f5ef5e7	0.8709397
222	0xbfcc7145	-1.5972067
223	0xbf3cb0a8	-0.73707056
224	0xbf91a018	-1.1376982
225	0xbfd79538	-1.6842413
226	0x3db8496f	0.08998381
227	0x3fb12452	1.3839209
228	0xc00ab5f6	-2.167356
229	0xc0a15072	-5.04107
230	0xbfb13486	-1.3844154
231	0x3de1e040	0.110291004
232	0xbf2bf603	-0.6717226
233	0x3fdcd3d1	1.7252141
234	0xbf5e75ef	-0.868987
235	0x40420a8a	3.0318933
236	0x4060698e	3.5064425
237	0x3ff09983	1.8796848
238	0xc02a8874	-2.6645784
239	0x407bd1c5	3.9346783
240	0x401d94e8	2.4622135
241	0xbec66d80	-0.38755417
242	0x40889637	4.268337
243	0xc03143d8	-2.7697659
244	0xbeba9765	-0.3644363
245	0xbdc326b6	-0.09528868
246	0xc014149b	-2.3137577
247	0x3f33fe13	0.7030956
248	0x3f17b052	0.5925342
249	0x400377de	2.054191
250	0xbfc20923	-1.5159038
251	0x3fe823ee	1.8135965
252	0x3ff3fc17	1.9061307
253	0x3f703fae	0.9384717
254	0x3ea4a224	0.32154953
255	0x403ded2c	2.9676008

convs.0.fc_full.bias f4 [128]
0	0xbc8a54d7	-0.016886158
1	0x3d286879	0.041115258
2	0xbdc156a6	-0.09440355
3	0xbc140a20	-0.009035617
4	0xbc5d92f7	-0.013523809
5	0x3e06e4d7	0.13173233
6	0x3ccfb520	0.025354922
7	0xbca46b9a	-0.02007084
8	0xbd18e833	-0.037330817
9	0xbc5387d4	-0.012910802
10	0x3c7ba308	0.015358694
11	0x3b209754	0.002450426
12	0x3d94c462	0.072640195
13	0xbd7e9506	-0.06215384
14	0x3db2b662	0.08726193
15	0x3ccd5709	0.025065916
16	0xbd8b5efc	-0.06805226
17	0x3b78aa4c	0.0037943302
18	0xbb4b1a2b	-0.003099094
19	0xbd41fc20	-0.047359586
20	0x3d54d731	0.051963035
21	0x3cba84e0	0.022768438
22	0x3b4c78ec	0.0031200005
23	0x3cc712cc	0.024300955
24	0xbccedc3d	-0.025251502
25	0x3dc45fb6	0.09588568
26	0xbbf286c9	-0.0074013215
27	0xbd080f1a	-0.033217527
28	0x3cccbeec	0.024993382
29	0xbcb11c23	-0.021619862
30	0xbc6b0016	-0.014343282
31	0xbc575ea5	-0.013145124
32	0xbc67d200	-0.014149189
33	0xbd0064d9	-0.031346176
34	0xbcf56643	-0.029955989
35	0x3d4dacda	0.050213672
36	0xbdb4c38f	-0.08826362
37	0x3c46bea2	0.012130411
38	0x3db27397	0.08713453
39	0x3d50068d	0.050787497
40	0xbb83e80c	-0.004025465
41	0x3c1232d2	0.008923249
42	0xbda318b9	-0.079637
43	0x3c548742	0.012971701
44	0xbc559590	-0.013036147
45	0x3da7e95d	0.081988074
46	0x3d2c8d89	0.042127166
47	0x3d4d1560	0.050069213
48	0x3d75d0e8	0.06001368
49	0x3dea7786	0.114485785
50	0xbd9bf2e9	-0.07614691
51	0x3cfe7426	0.031061243
52	0x3d992939	0.07478566
53	0xbdc63f86	-0.09680085
54	0xbd1ca113	-0.03823955
55	0x3c43e554	0.011956532
56	0x3d6ca512	0.05777461
57	0x3da386eb	0.07984718
58	0xbd859e3f	-0.06524324
59	0x3d08f52f	0.03343695
60	0xbd3d7273	-0.046251725
61	0xbd69de9a	-0.057097055
62	0x3c420ac2	0.011843385
63	0x3d962323	0.073309205
64	0x3cf76f22	0.03020436
65	0xbd2940bf	-0.041321512
66	0x3cdda615	0.027056733
67	0x3d29ccbb	0.04145501
68	0x3ba27dfd	0.0049588666
69	0x3d13a29d	0.036043752
70	0x3cb31d0d	0.021864438
71	0xbd464442	-0.04840494
72	0xbccf313c	-0.025292031
73	0xbc8f5066	-0.017494392
74	0x3ce76795	0.028247634
75	0x3c50f288	0.012753136
76	0x3d6bd63b	0.057577353
77	0xbd1bfc18	-0.038082212
78	0x3d435e77	0.04769751
79	0xbd61a4f1	-0.05508894
80	0x3dec5028	0.11538726
81	0xbd76382b	-0.06011216
82	0xbc25fcf5	-0.01013111
83	0xbd64f8c3	-0.0559013
84	0x3caa7af7	0.020810587
85	0xbcaa842f	-0.020814983
86	0x3d714676	0.058905087
87	0x3d80fc85	0.06298164
88	0x3c396dc3	0.011317673
89	0xbd576104	-0.052582756
90	0x3b04539a	0.0020191432
91	0x3d6061cb	0.054780763
92	0x3c039f99	0.0080336565
93	0xbc8d665a	-0.01726072
94	0x3d1ef28d	0.038805533
95	0x3c796d09	0.01522375
96	0xbdd438fe	-0.10362433
97	0xbd010b5b	-0.03150497
98	0xbe0793a9	-0.13239922
99	0xbd56ee4d	-0.052473355
100	0xbc24a9fc	-0.010050293
101	0xbcdaa986	-0.026692163
102	0x3d87c0c4	0.06628564
103	0xbd9f1a73	-0.07768717
104	0x3d3e0358	0.046389908
105	0x3d07e9d1	0.03318197
106	0xbde622f4	-0.112371355
107	0x3d8914c4	0.06693414
108	0xbcf56096	-0.029953282
109	0xbd895ea9	-0.06707508
110	0xbb9adce5	-0.0047260397
111	0xbd4b35eb	-0.049611967
112	0xba28febe	-0.0006446651
113	0xbc40464c	-0.01173551
114	0xbc78a1df	-0.015175312
115	0x3c6499f1	0.013952718
116	0xbd511e7f	-0.051054474
117	0xbd22c665	-0.039739985
118	0x3da52917	0.08064478
119	0xbd8277f6	-0.06370537
120	0x3d95d0c0	0.073152065
121	0xbca6790e	-0.020321395
122	0x3c104a6d	0.008806807
123	0x3c2f15c8	0.010686345
124	0x3cb4ad32	0.022055242
125	0x3ce95fc3	0.028488046
126	0xbc5f9165	-0.013645505
127	0x3e06b726	0.13155803

convs.0.bn1.weight f4 [128]
0	0x40a88249	5.265904
1	0x409ee8fb	4.96594
2	0x4092a99c	4.5832043
3	0x40a3e68e	5.121894
4	0x410d4600	8.82959
5	0x4055763e	3.335342
6	0x4076efa4	3.8583765
7	0x40aa0f22	5.3143473
8	0x4082b767	4.084888
9	0x40fb4526	7.852191
10	0x405492af	3.3214529
11	0x3f03064d	0.5118149
12	0x40c990b7	6.2989154
13	0x408068e1	4.0128026
14	0x40990221	4.78151
15	0x409003ff	4.500488
16	0x4076f5f9	3.858763
17	0x407eab4a	3.9792047
18	0x406b46a5	3.6761868
19	0x40f8ade0	7.771225
20	0x40a86bd6	5.2631636
21	0x40764ee1	3.8485644
22	0x408e86cb	4.453954
23	0x4110d107	9.051032
24	0x4116ee3c	9.433163
25	0x409a3895	4.819407
26	0x40340fcd	2.8134644
27	0x408e3df3	4.445062
28	0x3f896835	1.0734926
29	0x41194a19	9.58059
30	0x405fa3fa	3.4943833
31	0x4076524f	3.8487737
32	0x41021f50	8.132645
33	0x40a752cf	5.2288585
34	0x40ce7759	6.452069
35	0x40844861	4.1338353
36	0x40fb210f	7.8477855
37	0x41019d20	8.100861
38	0x40f6f0bd	7.716887
39	0x40c9ef80	6.310486
40	0x40c4befa	6.1483126
41	0x408e9ad8	4.456402
42	0x409da4a7	4.926349
43	0x40b6ea2e	5.7160864
44	0x40bb60b9	5.855557
45	0x405ffe82	3.499909
46	0x40c9f7b7	6.3114886
47	0x411c0215	9.750508
48	0x406eecd4	3.7332048
49	0x40d9cb6f	6.806083
50	0x40ccd8e5	6.4014764
51	0x40b3c483	5.6177382
52	0x3f92065c	1.1408191
53	0x40b51e1e	5.6599264
54	0x4093fb63	4.624437
55	0x409d29cc	4.911352
56	0x40d30b4d	6.5951295
57	0x40976075	4.7305245
58	0x4096d47e	4.713439
59	0x40cd307c	6.4121685
60	0x40ebba6e	7.3665075
61	0x4111bcd5	9.108602
62	0x41188300	9.531982
63	0x40c0bdee	6.023185
64	0x404c27bf	3.189926
65	0x40a15f44	5.042879
66	0x3f7038a2	0.93836415
67	0x406f565f	3.7396467
68	0x405cbd5e	3.449058
69	0x40469760	3.1029892
70	0x406412e5	3.5636532
71	0x3f32868a	0.6973654
72	0x409a86a0	4.8289337
73	0x4066b139	3.6045668
74	0x3f1d6db4	0.6149552
75	0x3fc8c199	1.5684081
76	0x3fcd6ee7	1.604947
77	0x3fa09fe0	1.254879
78	0x40da0840	6.813507
79	0x3fcf46f4	1.6193528
80	0x40a49a0d	5.143805
81	0x40e78323	7.234758
82	0x40b67c7b	5.7026954
83	0x400bda97	2.1852167
84	0x406c2e17	3.690313
85	0x3f71513c	0.9426458
86	0x3fe0f2d5	1.7574106
87	0x3f86acdd	1.0521504
88	0x40100e1d	2.2508614
89	0x402e1497	2.7200067
90	0x3f8b0d8e	1.0863512
91	0x400c8095	2.195348
92	0x40a8128f	5.2522655
93	0x3fe7ac63	1.8099483
94	0x3f13576d	0.57555276
95	0x3fa372fa	1.2769463
96	0x3f73bb44	0.9520762
97	0x3fc355c0	1.5260544
98	0xbd82121e	-0.06351112
99	0x3f5efed3	0.8710758
100	0x401d88c8	2.4614735
101	0x3fd2b4ba	1.6461403
102	0x40c55165	6.166186
103	0x402af043	2.6709144
104	0x405a7296	3.4132438
105	0x3f84fcf9	1.0389701
106	0x3fe601d5	1.7969309
107	0x4081cc9d	4.056227
108	0x3f401459	0.7503105
109	0x40d17bb7	6.546352
110	0x40036487	2.0530107
111	0x4029e52c	2.6546125
112	0x40522b27	3.2838838
113	0x3f59c6ee	0.8506917
114	0x40bab623	5.8347335
115	0x40198e0f	2.3992956
116	0x4151e5c6	13.118597
117	0x3fbe67f2	1.4875472
118	0x402239a0	2.5347672
119	0x3f610fb3	0.8791458
120	0x40c5a867	6.176807
121	0x3ffbc174	1.9668412
122	0x40560c6d	3.3445084
123	0x3fb458ab	1.4089559
124	0x406fafde	3.745109
125	0x40a14566	5.0397215
126	0x3fac9362	1.3482478
127	0x3f7ea6ca	0.9947325

convs.0.bn1.bias f4 [128]
0	0x3f087231	0.5329924
1	0x3fb1f857	1.3903912
2	0x4061ed1a	3.5300965
3	0x3fa36cd0	1.2767582
4	0x3f9df9f7	1.2341908
5	0x401e1b43	2.470414
6	0x3f8d6e62	1.1049311
7	0x4075990d	3.8374665
8	0x3f63eaa5	0.89029914
9	0xbfb6e655	-1.4289042
10	0x407363a3	3.8029563
11	0x3fe5312f	1.7905635
12	0x3f786697	0.9703154
13	0x3ef4b506	0.4779436
14	0x3eb75e6b	0.35814223
15	0x3fc46c79	1.5345603
16	0x3fa67488	1.3004313
17	0x3fff132d	1.9927727
18	0xbeda2494	-0.42606032
19	0x3dc1040b	0.09424599
20	0x40061e27	2.0955904
21	0x3fe85e25	1.8153731
22	0xbfa5a89c	-1.294208
23	0x3ed953e8	0.42446828
24	0x3f35227d	0.7075575
25	0xbfc6a2bd	-1.5518414
26	0x3e7db4b4	0.24775964
27	0x3fa7bfd3	1.3105415
28	0x3f9ac3b2	1.2090971
29	0x3f28f5a2	0.65999806
30	0x3feba51d	1.8409764
31	0x3d8b177f	0.06791591
32	0x3f900399	1.1251098
33	0x408a1423	4.314958
34	0x401a03b3	2.4064758
35	0x403c49c5	2.9420025
36	0x3e9d0ede	0.30675405
37	0x4007a05a	2.119162
38	0xbf25a601	-0.64706427
39	0x403ced75	2.9519932
40	0xbeec97ad	-0.4620947
41	0x3fdeca3f	1.7405471
42	0xbdc920f6	-0.0982074
43	0x3ee51116	0.44739598
44	0x407da4ce	3.9631839
45	0x40849d45	4.144198
46	0x3efbcd1a	0.49179918
47	0xbe529990	-0.20566392
48	0x40534f0f	3.3017004
49	0x3f401366	0.750296
50	0x3e86d827	0.26336786
51	0x3eb47935	0.35248724
52	0xc06d0781	-3.703583
53	0x40098fff	2.1494138
54	0x3f1da2c6	0.615765
55	0x4002d53f	2.0442655
56	0x3fb551a5	1.4165541
57	0xbfbc7469	-1.4723026
58	0x3f0eaaab	0.5572917
59	0x3f9a73e1	1.2066613
60	0x3f8ac789	1.0842143
61	0x3ef09e77	0.469959
62	0xbf7f0dbf	-0.9963035
63	0xbe5e5a0d	-0.21714039
64	0x3f29c446	0.66315114
65	0x3fda8f45	1.7074972
66	0x40a3b141	5.1153874
67	0x3ed5256e	0.4163012
68	0x3f46a6f5	0.77598506
69	0x3f69e369	0.91362625
70	0x400789e7	2.117792
71	0x40d01fda	6.503888
72	0xbf7b303e	-0.98120487
73	0x3f956c43	1.1673664
74	0x40c2f10f	6.091926
75	0x3f3b7ea5	0.7324012
76	0x4045f42d	3.0930283
77	0x403b01ea	2.9219918
78	0x3d8ef658	0.0698058
79	0x3fdc4e58	1.7211409
80	0x3d0ce872	0.034401365
81	0x4005850f	2.0862463
82	0xbfa22e21	-1.2670327
83	0xbde74ee9	-0.11294348
84	0x3d081fe1	0.033233527
85	0x413a808d	11.656384
86	0x4033c180	2.8086853
87	0x404cd071	3.2002223
88	0x3fcd5a1f	1.6043128
89	0x3fc3e04b	1.5302824
90	0x404ae737	3.1703622
91	0x3f8abbcb	1.083856
92	0x3fa1b5a6	1.263356
93	0x3fa951ff	1.3228148
94	0x40fb219e	7.8478537
95	0xbeff4f8e	-0.49865383
96	0x4062ef89	3.54587
97	0x3fe6f9f6	1.8045032
98	0x419aef2e	19.366787
99	0x40e10427	7.031757
100	0x3f8abc1f	1.083866
101	0x40218f95	2.5243886
102	0xbe3ec2ce	-0.18629
103	0x3edba542	0.4289952
104	0x3f9beac9	1.2181026
105	0x40a420e8	5.129017
106	0x400cf06e	2.2021747
107	0xbf1d4529	-0.61433655
108	0x40bd1561	5.9088597
109	0x401b8bad	2.4304001
110	0x403aca2f	2.9185903
111	0x3f929ab6	1.1453464
112	0xbfae47de	-1.3615682
113	0x40b7ae30	5.740013
114	0x3e5de726	0.21670207
115	0x400d3d80	2.2068787
116	0xbf9c73f2	-1.2222884
117	0x402732e7	2.6124818
118	0x3fc60d04	1.5472722
119	0x407aafd0	3.9169807
120	0xbe360a9f	-0.17777489
121	0x400222a0	2.0333633
122	0x3fb44013	1.4082054
123	0x401a1741	2.4076693
124	0x3fed2ced	1.8529335
125	0x3fa67181	1.3003389
126	0x405cc788	3.4496784
127	0xbf2a2c01	-0.66473395

convs.0.bn1.running_mean f4 [128]
0	0xc281292f	-64.58044
1	0x4340bc6d	192.73604
2	0x42c06613	96.19936
3	0x42b949d3	92.64419
4	0xc2b4f689	-90.481514
5	0x416e695f	14.900725
6	0x42dac97f	109.39355
7	0xc274520b	-61.08012
8	0xc37bfa61	-251.97804
9	0xc1582af5	-13.510488
10	0x43928413	293.03183
11	0xc3b818c2	-368.19342
12	0xc223a915	-40.91512
13	0x4287b8b8	67.86078
14	0x42839437	65.78948
15	0x4339b057	185.68883
16	0x4280d742	64.420425
17	0x43575df1	215.36696
18	0x43561115	214.06673
19	0xc2a5e7eb	-82.952965
20	0x42681382	58.01905
21	0xc39c5e87	-312.7385
22	0x424a01f6	50.501915
23	0x432c7155	172.4427
24	0x4360a324	224.63727
25	0x419f6d62	19.92841
26	0x432c4a2c	172.28973
27	0x42c83fb2	100.124405
28	0x4210d59d	36.208607
29	0x40056dd7	2.084829
30	0xc28d899c	-70.76877
31	0x42387b77	46.12057
32	0x42ff9a85	127.801796
33	0x41beee25	23.866282
34	0xc2835868	-65.67267
35	0xc1023133	-8.137012
36	0xc1c9a41f	-25.205137
37	0x4326f971	166.97438
38	0x42cc2836	102.07854
39	0x43039bbf	131.60838
40	0x429faa6b	79.83285
41	0xc2a255fc	-81.16794
42	0x429d7500	78.728516
43	0xc373a434	-243.64142
44	0xc3448a36	-196.53989
45	0x43d5693d	426.82217
46	0xc3c96e1c	-402.86023
47	0xc26c2b29	-59.04215
48	0xc2ffe9e8	-127.95685
49	0x42a51a0b	82.550865
50	0xc314f24e	-148.9465
51	0x42f61135	123.03361
52	0x428081e1	64.25367
53	0x431e5597	158.33434
54	0xc224b388	-41.175323
55	0x435a0472	218.01736
56	0x42e8fa99	116.48945
57	0x427e50de	63.57897
58	0xc35d1bac	-221.1081
59	0x4381a462	259.28424
60	0x40d239e0	6.569565
61	0x432b97ed	171.59346
62	0xc2423dbf	-48.5603
63	0x4317e5ca	151.89761
64	0xc338c94e	-184.78635
65	0x43640753	228.02861
66	0xc2a62e48	-83.09039
67	0x426719e8	57.7753
68	0xc3a3e0aa	-327.7552
69	0x42b1d531	88.91639
70	0x42ee500c	119.15634
71	0xc3ae72ca	-348.8968
72	0xc36c45a5	-236.27205
73	0x43e222f7	452.27316
74	0x433a2a9c	186.16644
75	0xc3d0c126	-417.50897
76	0x427b1805	62.773457
77	0xc1931d04	-18.389168
78	0x43153130	149.19214
79	0xc3737d12	-243.48856
80	0xc2aeb9aa	-87.362625
81	0x436e39df	238.22606
82	0x42dd032c	110.506195
83	0x4347b9d5	199.7259
84	0xc38af47f	-277.91013
85	0xc303314b	-131.19255
86	0x42a9ffd2	84.99965
87	0x4326946d	166.57979
88	0x41df4986	27.9109
89	0x42996c1f	76.711174
90	0x438da39e	283.27826
91	0xc238b539	-46.176975
92	0xc1ec38eb	-29.527792
93	0xc2c3963c	-97.79343
94	0x43050fae	133.06125
95	0x4302e680	130.90039
96	0x436ba782	235.65433
97	0x434e9aa8	206.60413
98	0xc331cfd6	-177.81186
99	0x42e88bd1	116.27308
100	0xc2c2ddd8	-97.43329
101	0x40d9aa42	6.8020334
102	0x43cc44f7	408.5388
103	0xc383bc39	-263.4705
104	0x439783bd	303.0292
105	0x41311ae6	11.069067
106	0x42363f9a	45.56211
107	0xc25e2176	-55.532677
108	0x4224c267	41.189846
109	0x4354c9b3	212.78789
110	0x4329ec8c	169.92401
111	0x434e965b	206.58733
112	0x4132c900	11.174072
113	0x43b017da	352.18634
114	0xc2b3a76d	-89.827
115	0xc3727636	-242.46176
116	0xc30a6c8f	-138.42406
117	0x429acb19	77.396675
118	0xc210a588	-36.16165
119	0x4344b14e	196.6926
120	0xc01ba068	-2.4316654
121	0x43899a9c	275.2079
122	0xc2e3d366	-113.91289
123	0x43b0f8a5	353.94254
124	0x41d88052	27.062656
125	0x432ec48d	174.76778
126	0x43e3ff9f	455.99704
127	0xc2c02a04	-96.08206

convs.0.bn1.running_var f4 [128]
0	0x470efd4f	36605.31
1	0x471a77cb	39543.793
2	0x47379e45	47006.27
3	0x473af489	47860.535
4	0x471f70cc	40816.797
5	0x46e65cd2	29486.41
6	0x46c7b2f9	25561.486
7	0x471c5b4d	40027.3
8	0x47050fe4	34063.89
9	0x46cdf569	26362.705
10	0x47759468	62868.406
11	0x46e81551	29706.658
12	0x470a2551	35365.316
13	0x47086172	34913.445
14	0x47112491	37156.566
15	0x47217151	41329.316
16	0x47347c4a	46204.29
17	0x472b9156	43921.336
18	0x476f1f83	61215.51
19	0x46c8ecae	25718.34
20	0x46c93b1c	25757.555
21	0x47800487	65545.055
22	0x4754dbe5	54491.895
23	0x476c59c4	60505.766
24	0x479589a8	76563.31
25	0x4763a651	58278.316
26	0x47793de7	63805.902
27	0x4766fdcf	59133.81
28	0x4738ae18	47278.094
29	0x46ea0a3e	29957.121
30	0x4739b675	47542.457
31	0x46d095e0	26698.938
32	0x478e8ab3	72981.4
33	0x47120864	37384.39
34	0x473e4fde	48719.867
35	0x47c5030d	100870.1
36	0x475fb656	57270.336
37	0x4715377b	38199.48
38	0x47134880	37704.5
39	0x46955fee	19119.965
40	0x4744626e	50274.43
41	0x472ca2a4	44194.64
42	0x476ab628	60086.156
43	0x4758b4e8	55476.906
44	0x478acea7	71069.305
45	0x471efea5	40702.645
46	0x47717401	61812.004
47	0x4778abe8	63659.906
48	0x46b6b76d	23387.713
49	0x476a3430	59956.188
50	0x4726b204	42674.016
51	0x47163e8b	38462.543
52	0x46b21bc4	22797.883
53	0x47762b61	63019.38
54	0x46dc9f24	28239.57
55	0x46f01741	30731.627
56	0x474ef394	52979.58
57	0x471af77b	39671.48
58	0x46f36fde	31159.934
59	0x4710e23d	37090.24
60	0x47399daa	47517.664
61	0x46eda305	30417.51
62	0x4724df23	42207.137
63	0x46f9db20	31981.562
64	0x47779616	63382.086
65	0x475bd1bf	56273.746
66	0x476637fc	58935.984
67	0x475beb5c	56299.36
68	0x473dc417	48580.09
69	0x472346b5	41798.707
70	0x4710d0b8	37072.72
71	0x4746211b	50721.105
72	0x479dd767	80814.805
73	0x47b9b793	95087.15
74	0x475d3b3c	56635.234
75	0x47003527	32821.152
76	0x4757cbb2	55243.695
77	0x472dc9fa	44489.977
78	0x47460e66	50702.4
79	0x476af27b	60146.48
80	0x46ed3251	30361.158
81	0x471d46e7	40262.902
82	0x470d1c81	36124.504
83	0x46b66f0f	23351.53
84	0x474b5c54	52060.33
85	0x4742ddb6	49885.71
86	0x4786f926	69106.3
87	0x4700f824	33016.14
88	0x472f1ede	44830.867
89	0x477828cb	63528.793
90	0x477fd999	65497.598
91	0x47d2adef	107867.87
92	0x47b489dc	92435.72
93	0x474d912a	52625.164
94	0x4765f8a1	58872.63
95	0x46b8c6c7	23651.389
96	0x47b206b3	91149.4
97	0x47adda7a	89012.95
98	0x47fd904d	129824.6
99	0x47929e84	75069.03
100	0x473ceecf	48366.81
101	0x470d94f1	36244.94
102	0x4747a6bf	51110.746
103	0x479c3669	79980.82
104	0x47897baa	70391.33
105	0x4729c2b8	43458.72
106	0x47931854	75312.66
107	0x472583de	42371.867
108	0x46f8dcab	31854.334
109	0x474effab	52991.668
110	0x46e231a9	28952.83
111	0x47b86422	94408.266
112	0x4709dae3	35290.887
113	0x47afe298	90053.19
114	0x47660947	58889.277
115	0x47308541	45189.254
116	0x46a63d4f	21278.654
117	0x477dd3b7	64979.715
118	0x472d7a1a	44410.1
119	0x47728022	62080.133
120	0x472f6046	44896.273
121	0x47cf12d6	106021.67
122	0x46fbd8e9	32236.455
123	0x477352ce	62290.805
124	0x478877b3	69871.4
125	0x47390caa	47372.664
126	0x4792fd76	75258.92
127	0x471dd466	40404.4

convs.0.bn2.weight f4 [64]
0	0x3fb73d44	1.4315572
1	0x4064de70	3.5760765
2	0x40229a57	2.5406702
3	0x3fce55ec	1.6119971
4	0x3f8bb27f	1.0913848
5	0x3fa12e77	1.2592305
6	0x3faabb9f	1.3338507
7	0x3fb41e62	1.4071772
8	0x3f53e5bd	0.8277243
9	0x3ffa389f	1.9548529
10	0x3f965885	1.1745764
11	0x3f65b292	0.897256
12	0x4012b80d	2.2924836
13	0x3fd5a6aa	1.6691487
14	0x40260215	2.593877
15	0x3fcb99ee	1.5906351
16	0x3fb6ae8d	1.4272019
17	0x3ffc9f6d	1.9736153
18	0x400697a4	2.1030054
19	0x3f8edaab	1.1160482
20	0x3fc35cb7	1.5262669
21	0x3fdc051d	1.718906
22	0x403d877f	2.961395
23	0x3fb2fdbc	1.3983684
24	0x3fce081d	1.6096226
25	0x4097d416	4.7446394
26	0x40306881	2.7563784
27	0x407f13e2	3.9855886
28	0x400a7810	2.163578
29	0x3fa96d85	1.3236548
30	0x4092cd21	4.58754
31	0x3fed1ab3	1.8523773
32	0x40831905	4.096804
33	0x3ff64676	1.9240253
34	0x400aa446	2.1662765
35	0x4057420d	3.3634064
36	0x400e557b	2.2239673
37	0x403a246b	2.9084728
38	0x3fa2f124	1.272984
39	0x3f64db48	0.89397097
40	0x3fd0081a	1.6252472
41	0x40436668	3.0531254
42	0x40130bc6	2.2975936
43	0x3fd046d7	1.6271619
44	0x404a0f2a	3.1571755
45	0x3fcc4046	1.5957115
46	0x40020015	2.031255
47	0x403a3f2c	2.9101057
48	0x3fd607a7	1.6721085
49	0x404e86c6	3.226976
50	0x401bc68f	2.433994
51	0x3fd68b0a	1.6761181
52	0x3ffe8741	1.9885026
53	0x403d1f4f	2.955036
54	0x406ee3a4	3.732644
55	0x407fc193	3.9961898
56	0x40049db3	2.0721252
57	0x3ffbc8a6	1.9670608
58	0x3fca7d72	1.5819533
59	0x4001715c	2.022544
60	0x4026d083	2.6064765
61	0x3f796cdd	0.9743174
62	0x4037a617	2.8695123
63	0x401c5529	2.4426978

convs.0.bn2.bias f4 [64]
0	0xc00b0f08	-2.1727924
1	0xc019d11b	-2.4033878
2	0xbe11b59c	-0.14229435
3	0xbf27f699	-0.65610653
4	0xbedfb3c1	-0.4369183
5	0xc044c9bb	-3.0748127
6	0xc0256875	-2.5845006
7	0x3f02dbb3	0.51116484
8	0x3e91fdd6	0.28513974
9	0xbfcbc870	-1.5920544
10	0xc042b84d	-3.0424988
11	0xbfeb2480	-1.8370514
12	0xc02be7f5	-2.6860325
13	0xbedc2aa5	-0.43001285
14	0xc01333a9	-2.300028
15	0xc017176d	-2.3608048
16	0xbea45119	-0.32093123
17	0xbf6eadd5	-0.93233997
18	0xbe813171	-0.25233033
19	0xc0142743	-2.3148963
20	0xbfaf7126	-1.3706405
21	0x3eb358b1	0.35028604
22	0xbf82942d	-1.020147
23	0xc0499fad	-3.1503708
24	0xbffbdc7d	-1.9676663
25	0xbf93da39	-1.1550971
26	0xc03f8214	-2.9923143
27	0xbea9bb5b	-0.33150753
28	0x3dbd3c44	0.092400104
29	0xbffd5bbc	-1.979362
30	0xbfe69a66	-1.8015869
31	0xc031f7fc	-2.7807608
32	0xc0678732	-3.6176267
33	0xbfa30ba1	-1.2737924
34	0xbfce8e46	-1.6137168
35	0x3f382801	0.7193604
36	0xbee462c2	-0.44606596
37	0xc0127ca4	-2.2888575
38	0xc0082b56	-2.127645
39	0xbefbd69b	-0.49187168
40	0xc04f9aaf	-3.2438161
41	0xc0330440	-2.7971344
42	0x3f36fab5	0.714763
43	0xc034c70c	-2.8246489
44	0xbff81a44	-1.9383016
45	0xc007a8cc	-2.1196775
46	0xbfecf79d	-1.8513066
47	0xc040d5a6	-3.01304
48	0xc01c051f	-2.4378126
49	0xc02659e8	-2.5992374
50	0xc02a205f	-2.6582258
51	0xbf84c506	-1.0372627
52	0x3f099d59	0.5375572
53	0xc01d47e0	-2.457512
54	0xc01315a2	-2.2981954
55	0xc0839e88	-4.113102
56	0xc02960eb	-2.6465404
57	0xbfd6174a	-1.6725857
58	0xc0284303	-2.62909
59	0xc043a56d	-3.0569718
60	0xbfb9b188	-1.4507303
61	0xbf92d12e	-1.1470087
62	0xbfccc14f	-1.5996493
63	0x3f05c646	0.52255666

convs.0.bn2.running_mean f4 [64]
0	0x41719d97	15.100974
1	0x41fd8bf7	31.693342
2	0x42411413	48.269604
3	0x41a54f5a	20.663746
4	0x41343987	11.264045
5	0x41a80224	21.001045
6	0x41cfc9b6	25.973492
7	0x42602696	56.03768
8	0x417b29c5	15.697698
9	0x4199c299	19.220018
10	0x4275c0e6	61.438377
11	0x4168544f	14.520583
12	0x41cfadd8	25.959885
13	0x41b9b1f3	23.21189
14	0x41cc9076	25.570538
15	0x418be0e6	17.484814
16	0x41b0c581	22.096437
17	0x4229d2bc	42.455795
18	0x4193e108	18.484879
19	0x40f6e944	7.715975
20	0x4186c5a6	16.846508
21	0x42ab61d7	85.69109
22	0x419bafca	19.460835
23	0x41dc64c0	27.549194
24	0x41871323	16.884344
25	0x41688beb	14.53416
26	0x41c7251e	24.893124
27	0x41875846	16.918102
28	0x41b5f1a4	22.742989
29	0x4130d8c1	11.052918
30	0x4285a086	66.81352
31	0x40a7fdd3	5.2497344
32	0x41ceec45	25.865366
33	0x419e7c84	19.810799
34	0x4300d6a2	128.83841
35	0x42854758	66.63934
36	0x415d563d	13.833554
37	0x41c519b2	24.637547
38	0x41a44eab	20.538412
39	0x4163413a	14.203424
40	0x41b9ac91	23.20926
41	0x422a39c0	42.556396
42	0x41a12285	20.141855
43	0x41530f25	13.191197
44	0x42592f3f	54.29614
45	0x42442cb1	49.043644
46	0x41d012cb	26.009176
47	0x415fc85c	13.986416
48	0x413767d6	11.462851
49	0x423542f2	45.315376
50	0x41d9b76a	27.214558
51	0x41bf8703	23.940924
52	0x3f89dbad	1.0770165
53	0x41d37c67	26.435743
54	0x418880e3	17.062933
55	0x4210fa7b	36.24461
56	0x41bdb6e7	23.714308
57	0x41855a4f	16.669096
58	0x41a5b075	20.71116
59	0x41b56af7	22.677229
60	0x41c1036b	24.126669
61	0x41e40acd	28.505274
62	0x41cd1db3	25.639502
63	0x40737ad9	3.804373

convs.0.bn2.running_var f4 [64]
0	0x43766a08	246.41418
1	0x441c33d1	624.80963
2	0x439ca7ee	313.31195
3	0x43acd256	345.64325
4	0x4383bb50	263.46338
5	0x4378b898	248.72107
6	0x43d15900	418.6953
7	0x441245e1	585.09186
8	0x4398414e	304.5102
9	0x43f4827b	489.01938
10	0x43493af3	201.23027
11	0x42878ca1	67.774666
12	0x43822964	260.32336
13	0x4320b5a6	160.70956
14	0x4436240a	728.5631
15	0x42d89e81	108.30958
16	0x43c6927f	397.1445
17	0x447a37fc	1000.87476
18	0x43e43605	456.42203
19	0x42e88fd5	116.28092
20	0x434bbf27	203.74669
21	0x4521d0e1	2589.055
22	0x43859e29	267.23563
23	0x4307fb83	135.98247
24	0x43203312	160.1995
25	0x43202309	160.13686
26	0x43228033	162.50078
27	0x42f29bb5	121.304115
28	0x435e2a9c	222.16644
29	0x431c263e	156.14938
30	0x43fff677	511.9255
31	0x41876ae3	16.92719
32	0x43519a85	209.60359
33	0x42bab22c	93.34799
34	0x457397d0	3897.4883
35	0x441564c5	597.5745
36	0x42ba8494	93.25894
37	0x4351a85a	209.65762
38	0x441971fc	613.781
39	0x42ca8681	101.2627
40	0x439be4bd	311.78702
41	0x43fad8d2	501.6939
42	0x43528ddf	210.55418
43	0x435ea98a	222.66226
44	0x43bc025b	376.0184
45	0x448b015a	1112.0422
46	0x438fde0f	287.73483
47	0x430da84a	141.65738
48	0x434585ed	197.52315
49	0x43bda08b	379.25424
50	0x442ea62e	698.59656
51	0x4393ebce	295.84222
52	0x3f8f1cf1	1.1180707
53	0x434ab0db	202.69084
54	0x432a3ba0	170.23291
55	0x43643fc1	228.24904
56	0x442344b5	653.07355
57	0x431a4865	154.28279
58	0x43c3d058	391.6277
59	0x430d733f	141.45018
60	0x43a88c7c	337.09753
61	0x44228070	650.00684
62	0x439005b6	288.04462
63	0x40f14360	7.5394745

convs.1.fc_full.weight f4 [128, 169]
0	0xc03e4d68	-2.9734745
1	0xbfa55b07	-1.2918404
2	0xbe05a781	-0.13052179
3	0xc0467d4c	-3.1013975
4	0x3ec2c4dc	0.38040817
5	0x40076070	2.115261
6	0x402dabf5	2.7136204
7	0x3f7d042f	0.9883451
8	0x3e8a6eb6	0.2703759
9	0xbf7ea36b	-0.99468106
10	0x4021a1b8	2.5254955
11	0x3f29acca	0.6627928
12	0xbf262924	-0.64906526
13	0xbf6de33c	-0.9292486
14	0x4029ee9e	2.655189
15	0x4074978d	3.82175
16	0xbebad2d3	-0.3648897
17	0x3e0a1e62	0.13488153
18	0xc00dd0e9	-2.2158759
19	0xbf2be21c	-0.6714189
20	0x3fde7977	1.7380818
21	0xbfb8211c	-1.4385104
22	0x3fe6e2b9	1.803794
23	0x3f65f3f5	0.89825374
24	0x400c4bb1	2.1921198
25	0xbdcb3e92	-0.09924044
26	0xbfe5b3c9	-1.7945491
27	0xc014f78a	-2.3276086
28	0x3f2be002	0.67138684
29	0x3fd4210a	1.6572583
30	0x40334d7d	2.8016045
31	0xbed33110	-0.4124837
32	0x3f9b45fd	1.2130734
33	0xbed8665b	-0.4226559
34	0x404b34bd	3.175094
35	0x3fa446b9	1.2834083
36	0x40405034	3.0048952
37	0x3f8ca311	1.0987264
38	0x406149c9	3.5201285
39	0xbfdc2ea7	-1.7201737
40	0xbf314280	-0.69242096
41	0xbcb8b0d5	-0.022545258
42	0xba8db40f	-0.0010811108
43	0xbf856033	-1.0419983
44	0xbe838a3d	-0.25691405
45	0xc0248bfc	-2.571044
46	0x3ed9ff0b	0.42577395
47	0x3fdfe094	1.7490411
48	0x3ff082a7	1.8789872
49	0xc08a01f0	-4.3127365
50	0xc098c55f	-4.774093
51	0x4003fc71	2.0622828
52	0x4031d3b7	2.778547
53	0xbfce01d4	-1.6094308
54	0xbe2e1d18	-0.17003286
55	0xc045df33	-3.091748
56	0xbeca7bd3	-0.39547595
57	0x408bd7fa	4.3701143
58	0x3f9d8b24	1.2308087
59	0x4026487f	2.5981748
60	0xbfa1a9e7	-1.2629975
61	0x3f596393	0.84917563
62	0xbee66037	-0.4499528
63	0xbe47f216	-0.19525942
64	0x3f88a047	1.0673913
65	0x3fded2e1	1.7408105
66	0xc06e6954	-3.7251787
67	0x40081dd4	2.1268206
68	0x3eaebe25	0.34129444
69	0xbfb463b9	-1.4092933
70	0xc0063ad8	-2.0973415
71	0xbf40a1a6	-0.75246656
72	0xc043a21b	-3.0567691
73	0xc016ee59	-2.3582976
74	0xbdc9c5b8	-0.09852165
75	0x3f60ee91	0.87864023
76	0xbecfbf3e	-0.40575594
77	0x40bfb38c	5.9906673
78	0xc0904415	-4.508311
79	0xc00f5e7b	-2.2401416
80	0x409556e2	4.666856
81	0xbe883b8f	-0.2660794
82	0xc001f6ff	-2.0307004
83	0xbf754406	-0.9580692
84	0xbfd2f3af	-1.6480616
85	0x3ff665bc	1.9249797
86	0xc022b8d4	-2.542531
87	0x400e65e6	2.2249694
88	0xc0101cb4	-2.251752
89	0x40318a92	2.7740827
90	0x4083b0f0	4.115349
91	0xc0fa73e7	-7.826648
92	0xc06c2b2c	-3.690135
93	0x3fc0a02f	1.5048884
94	0xc05da389	-3.4631064
95	0x403ce0d9	2.9512236
96	0xc048b63f	-3.1361234
97	0xbf232295	-0.63724643
98	0xbfb3f9aa	-1.4060566
99	0xbe3b8c39	-0.1831521
100	0xbf2f3e8c	-0.68454814
101	0x3f8524ab	1.0401815
102	0xbff5d8ff	-1.9206847
103	0x40205c5f	2.505638
104	0x406665da	3.5999665
105	0xbf0edb7c	-0.55803657
106	0x3fd6fa91	1.6795217
107	0xbf8e88a0	-1.1135445
108	0xbf8abad1	-1.0838262
109	0xc09a3174	-4.8185368
110	0xc025849f	-2.5862195
111	0xc08f1b99	-4.472119
112	0x402aa397	2.6662347
113	0x4012f52f	2.2962148
114	0xbf72dbc5	-0.9486659
115	0xc0129b41	-2.290726
116	0xbb366521	-0.0027831274
117	0x4052656b	3.28744
118	0x3f058612	0.521577
119	0xc0324a6e	-2.7857928
120	0x3f5e78fa	0.86903346
121	0x3fbbfde9	1.4686862
122	0xbe846eeb	-0.25865874
123	0xbd14310b	-0.036179584
124	0xc02e251e	-2.7210155
125	0xc02409c7	-2.5630968
126	0x3e5de138	0.21667945
127	0x3f83d4c3	1.0299305
128	0x3d119bf0	0.035549104
129	0x3d0ab6e0	0.03386581
130	0xbe50ce5b	-0.20391218
131	0x40962452	4.6919336
132	0x4175c932	15.36162
133	0x41736d55	15.214192
134	0x4104f4ed	8.309796
135	0x3f20f145	0.6286815
136	0x400562c0	2.0841522
137	0x40bc6d5c	5.8883495
138	0x40ec997b	7.3937354
139	0x3f155437	0.58331627
140	0xc0a32342	-5.098054
141	0xc136ad0f	-11.417251
142	0xc0ba1694	-5.815256
143	0xc0205437	-2.50514
144	0xbfa0a155	-1.2549235
145	0x3fe3a4fc	1.7784724
146	0x4079ae50	3.9012642
147	0x4061ccfe	3.5281367
148	0x405fe204	3.49817
149	0x40643e6c	3.56631
150	0x3d3bb091	0.045822684
151	0xc024c431	-2.5744746
152	0xbfea3c35	-1.8299624
153	0xc094b4ea	-4.647084
154	0xc091939a	-4.549268
155	0xbee10af2	-0.43953663
156	0xbe347818	-0.17623937
157	0x40520f29	3.2821753
158	0x40a51b24	5.159563
159	0x3feb8552	1.8400061
160	0x3ff969f0	1.9485455
161	0x4008b162	2.1358266
162	0x3e8a7191	0.2703977
163	0xbee19c4b	-0.44064555
164	0xbe1b3eb0	-0.15160632
165	0xbc53a576	-0.012917867
166	0x3d08c748	0.033393174
167	0x3cea4128	0.028595522
168	0xbc147800	-0.009061813
169	0x402b0003	2.6718757
170	0x4000e5f1	2.0140345
171	0x3e6d25b0	0.23158908
172	0xbe973181	-0.29529956
173	0x3fc4c27c	1.5371852
174	0x3f3e27c1	0.7427941
175	0x3f3784ef	0.71687216
176	0xc01c4693	-2.4418075
177	0x3f4d7279	0.80252796
178	0xbec0bb26	-0.37642783
179	0xc01c4310	-2.4415932
180	0xbfaff5c0	-1.3746872
181	0x40142776	2.3149085
182	0xbc555ce0	-0.013022631
183	0x3f5f4dba	0.87227976
184	0xbf7af796	-0.98034036
185	0xbdeb8bfc	-0.11501309
186	0x3f8e17d8	1.1101027
187	0xbe04f597	-0.1298431
188	0xbfe09a68	-1.7547121
189	0x3ec38b6d	0.3819231
190	0xbf0729bd	-0.5279806
191	0x3fec97a2	1.8483775
192	0x4046e786	3.107881
193	0x3ff7dae5	1.9363676
194	0x403cebb5	2.9518864
195	0x3d805459	0.06266088
196	0x3f575fa4	0.8413031
197	0x40467c23	3.1013267
198	0x4009e635	2.1546757
199	0xbf8365f4	-1.0265489
200	0xbd47e42f	-0.048801597
201	0x3fbf594c	1.4949126
202	0x4045d3e3	3.0910575
203	0x400ff346	2.2492232
204	0xc005b503	-2.089173
205	0x408a6107	4.324344
206	0x402f5db0	2.7400932
207	0x3f81330b	1.0093702
208	0x3f16fd3e	0.58980167
209	0x3f747d48	0.95503664
210	0xbf8c45bc	-1.0958781
211	0x3daabe87	0.083371215
212	0x3fc8dd90	1.5692616
213	0xbeb198c5	-0.34686866
214	0xc03634ae	-2.8469653
215	0x3f917982	1.1365206
216	0xc0a40dbb	-5.126676
217	0xbedd3edb	-0.43212017
218	0x3da1dcd3	0.07903447
219	0xc023babe	-2.5582728
220	0x3fe3255f	1.774578
221	0x4003caa7	2.059244
222	0x4045dbd4	3.0915422
223	0xc027c51b	-2.6214054
224	0xbf2e795c	-0.6815393
225	0x3f92bdc5	1.1464163
226	0x3fa9aafc	1.3255305
227	0xc0085a58	-2.1305141
228	0xc08d9b99	-4.425244
229	0x3f26dd08	0.65181017
230	0x400b5c01	2.1774905
231	0xbedd4b3b	-0.4322146
232	0x402ace66	2.6688476
233	0x3f9cb18c	1.2241683
234	0xbf81ca84	-1.0139928
235	0xbfe82eb9	-1.8139259
236	0x3e1ba515	0.15199693
237	0x40838c3b	4.110868
238	0xc033a946	-2.8072066
239	0x3e89a7e7	0.26885912
240	0x3ffdcb07	1.9827584
241	0xbf4e76e2	-0.8065015
242	0xc0b066dc	-5.512556
243	0x40b9ce86	5.8064604
244	0xbf2f7dca	-0.68551314
245	0x3e85964b	0.26091227
246	0xbf84f77a	-1.0388024
247	0xc02a044c	-2.6565123
248	0x3fd296cb	1.6452268
249	0x4037bc92	2.8708844
250	0x40346bc1	2.8190768
251	0x3f37c731	0.71788317
252	0xc0c9bf74	-6.3046207
253	0xbfb04260	-1.3770256
254	0xbe48ab00	-0.19596481
255	0x3ee1376d	0.439876

convs.1.fc_full.bias f4 [128]
0	0x3d7cb5f2	0.061696954
1	0x3c1048c3	0.00880641
2	0x3d90cb80	0.070700645
3	0xbc388217	-0.011261485
4	0xbc7986f1	-0.015229926
5	0xbb9d6f9e	-0.0048045656
6	0xbd20f15c	-0.03929268
7	0x3d6faa80	0.05851221
8	0xbd4dcea2	-0.05024589
9	0xbd16c22e	-0.036806278
10	0xbd0ba90f	-0.034096774
11	0x3d4b4e87	0.049635436
12	0xbd4f129a	-0.05055485
13	0x3d855239	0.06509823
14	0xbd85cc5b	-0.06533118
15	0x3d7906ad	0.060797382
16	0xbb6fc2ba	-0.0036584572
17	0x3c550972	0.01300274
18	0xbcaacbf0	-0.020849198
19	0x3afdf72d	0.0019376032
20	0xbca7674e	-0.020435002
21	0x3ccc582f	0.024944393
22	0xbd4f23a2	-0.05057109
23	0x3d7d70db	0.061875205
24	0xbd34ae17	-0.044111338
25	0xbd65bf63	-0.056090724
26	0x3c2e415f	0.010635703
27	0xbc59a40a	-0.013283739
28	0xbcc9144f	-0.024545817
29	0xbd49e915	-0.04929455
30	0xbc5c76e5	-0.013456081
31	0xbcc6e878	-0.024280772
32	0xbd49f8a3	-0.049309384
33	0x3d8d64ce	0.069039926
34	0x3d05382c	0.032524273
35	0xbd89d7f6	-0.067306444
36	0x3ae1fe45	0.0017241916
37	0xbd23043a	-0.039798953
38	0x3c5137da	0.012769664
39	0x3dc0a711	0.094068654
40	0x3d1c49a8	0.03815618
41	0x3d1f6bb1	0.038921062
42	0x3da53255	0.08066241
43	0xbd3d5f50	-0.046233475
44	0x3d7ae6d8	0.061255306
45	0xbc959e30	-0.018263906
46	0xbd11eaec	-0.03562443
47	0x3d269b36	0.040675364
48	0xbcc4d717	-0.024028344
49	0xbd34f87f	-0.044182297
50	0x3d902bd5	0.0703961
51	0xbdab652d	-0.08368907
52	0x3d07d1d4	0.033159092
53	0x3d5d0f7f	0.053969856
54	0xbd71f0c7	-0.059067514
55	0xbdb234a0	-0.08701444
56	0xbd8b66e5	-0.06806735
57	0x3cd1810d	0.025574232
58	0x3ccfec58	0.025381252
59	0xbc12b58f	-0.00895442
60	0xbc392e26	-0.011302507
61	0x3c46a141	0.012123407
62	0xbd113151	-0.035447422
63	0x3c36ca08	0.011156566
64	0xbccee814	-0.025257148
65	0xbb3c524d	-0.0028735579
66	0x3d06e661	0.03293455
67	0xbd3d5733	-0.046225738
68	0x3d57078f	0.052497443
69	0x3d955b55	0.07292811
70	0x3c7956fe	0.015218494
71	0xbd5ed2e1	-0.05440033
72	0xbbcb81b7	-0.0062105316
73	0xbd30fe49	-0.043211255
74	0xbd4ce730	-0.050025165
75	0xbd9e2b4b	-0.07723101
76	0xb9f3f06e	-0.00046527706
77	0x3d2d5f5b	0.042327266
78	0xbd6cfe93	-0.05785997
79	0x3d2c48e4	0.0420617
80	0xbba4795e	-0.005019351
81	0xbceb1030	-0.028694242
82	0xbd7e3aea	-0.062067904
83	0x3987463f	0.00025801544
84	0xbd9e6664	-0.07734373
85	0x3b8ba786	0.0042619137
86	0xbcf8c453	-0.030367052
87	0x3c219cb6	0.009864023
88	0xbc6d7143	-0.014492336
89	0x3c392e37	0.011302522
90	0x3d8e13da	0.0693738
91	0xbc2e5e9d	-0.010642675
92	0xbc1be23c	-0.009514388
93	0xbd1edbec	-0.038783953
94	0xbcc0b444	-0.023523457
95	0xbc982f65	-0.018577287
96	0x3ccb5861	0.024822416
97	0x3d815665	0.063153066
98	0x3cbf4ccb	0.023352047
99	0xbd8c3d8f	-0.06847679
100	0xbb85ac2c	-0.0040793624
101	0x3dc75771	0.09733475
102	0xbd5c952f	-0.05385321
103	0xbd984a7f	-0.07436084
104	0xbd9e9c32	-0.07744636
105	0x3d7d3a70	0.06182331
106	0xbd80e023	-0.06292751
107	0x3d812131	0.06305159
108	0x3d11d7a1	0.03560603
109	0x3d519650	0.05116874
110	0x3d48f969	0.04906598
111	0x3d8626d5	0.06550375
112	0x3bde8620	0.0067908913
113	0xbd068175	-0.032838304
114	0x3d5d82f4	0.054079965
115	0x3ce3fa3f	0.027829288
116	0xbd45805e	-0.048218124
117	0x3d15b8eb	0.036553305
118	0xbce9c50c	-0.028536342
119	0xbd005f17	-0.031340685
120	0x3aa79ab9	0.00127872
121	0x3dadf6ec	0.08494362
122	0xbb8fad7f	-0.004384696
123	0x3cd27fea	0.02569576
124	0x3c9414ef	0.018076388
125	0x3c929fe2	0.017898504
126	0x3d7b3a6f	0.061335023
127	0xbd91f84c	-0.07127437

convs.1.bn1.weight f4 [128]
0	0x40ea95b7	7.3307757
1	0x4071e3b5	3.7795231
2	0x40d12b25	6.5365167
3	0x3fe68191	1.800829
4	0x404f2fa5	3.237283
5	0x40948948	4.641758
6	0x3ff432fc	1.9078059
7	0x4075abf7	3.838621
8	0x3f99d65e	1.2018545
9	0x40802ab8	4.0052147
10	0x40a161c6	5.043185
11	0x40e53b67	7.1635013
12	0x411173ad	9.090741
13	0x4108d8ab	8.552897
14	0x41013f58	8.077965
15	0x413bdb59	11.741052
16	0x40c531b3	6.162317
17	0x40dad243	6.8381667
18	0x409e729f	4.951492
19	0x40c3c099	6.1172605
20	0x40dbee2e	6.8728247
21	0x40b3e673	5.621881
22	0x40d4735f	6.6390834
23	0x4093badf	4.6165614
24	0x40f76128	7.73061
25	0x4066bbfb	3.6052234
26	0x4018f3a9	2.3898718
27	0x40b7fa49	5.7493024
28	0x40b36195	5.605662
29	0x40d98980	6.7980347
30	0x40d80e01	6.7517095
31	0x3f9a9549	1.2076808
32	0x404ca93f	3.19783
33	0x40a9f2c6	5.3108854
34	0x40a66cc2	5.200776
35	0x40bd57fb	5.91699
36	0x406f2013	3.7363327
37	0x40b8eb07	5.77869
38	0x40353edf	2.8319623
39	0x4080700f	4.013679
40	0x40584a0a	3.379519
41	0x4064b91b	3.573798
42	0x40fa0a35	7.813746
43	0x41077104	8.465092
44	0x4063e38c	3.5607634
45	0x41074de0	8.456512
46	0x40886f05	4.263552
47	0x40a02190	5.004097
48	0x40a8a40a	5.2700243
49	0x409edbe5	4.9643426
50	0x40ce85e5	6.4538445
51	0x40ccf8fc	6.4053936
52	0x4016fadc	2.3590612
53	0x4097c12b	4.74233
54	0x409fb0f3	4.9903502
55	0x4041ddfc	3.0291739
56	0x409ee433	4.9653563
57	0x40ea4fe8	7.322254
58	0x41428e95	12.15981
59	0x40ea16db	7.31529
60	0x40b42f0d	5.6307435
61	0x3f238104	0.6386874
62	0x4043b7ba	3.0580888
63	0x409f27ae	4.9735937
64	0x3feb4625	1.8380781
65	0x40e92001	7.2851567
66	0x3fe4d955	1.7878824
67	0x40089827	2.1342866
68	0x3fd8db3e	1.6941907
69	0x40a01c81	5.0034795
70	0x407da48d	3.9631684
71	0x40d3e464	6.6216297
72	0x40948e63	4.642381
73	0x40301e89	2.7518637
74	0x40035066	2.0517821
75	0x4039112a	2.8916726
76	0x40b98038	5.7969017
77	0x4167674c	14.462719
78	0x3fd5c617	1.6701077
79	0x3fa0a89f	1.2551459
80	0x3f8bed57	1.0931805
81	0x403d5d64	2.958825
82	0x3fd147c1	1.6350023
83	0x4036489e	2.8481822
84	0x3f959f93	1.1689323
85	0x40110f5e	2.266563
86	0x4014bbcc	2.3239622
87	0x40d5ead7	6.684917
88	0x404e465e	3.2230449
89	0x3fb115e8	1.383481
90	0x408c4ffc	4.3847637
91	0x3f4702d2	0.7773868
92	0x3fc40966	1.5315368
93	0x404be9d2	3.1861463
94	0x3fc64653	1.5490211
95	0x40ab5a76	5.3547926
96	0x3f5e2a51	0.8678332
97	0x4056fbf7	3.3591287
98	0x4007b0dd	2.1201699
99	0x3fed1403	1.8521732
100	0x3f3dbee6	0.7411941
101	0x40ee37c3	7.444307
102	0x40384cd6	2.8796897
103	0x40d128c5	6.5362267
104	0x4019d07e	2.4033504
105	0x40871c22	4.222184
106	0x401c843c	2.445571
107	0x40a1ff9b	5.062452
108	0x40d91a45	6.7844567
109	0x4023a996	2.5572257
110	0x40a4045d	5.1255326
111	0x401d5de7	2.4588563
112	0x4090b1a0	4.5216827
113	0x3fb2f84f	1.3982028
114	0x40e41234	7.127222
115	0x3fc2a33d	1.5206066
116	0x3fb88072	1.4414198
117	0x4026faf9	2.6090682
118	0x410169c8	8.0883255
119	0x4071181c	3.7670965
120	0x3f6fa627	0.93612903
121	0x4047bddb	3.1209629
122	0x3fe28f6d	1.770002
123	0x3f7bb2e0	0.98319817
124	0x40028b1c	2.0397406
125	0xbf23f6fa	-0.6404873
126	0x40c49b7b	6.1439795
127	0x4053e5a1	3.3108904
