results/Prediction/2023-06-14/23:09:15.363000/models/model122.pth (torch, 340949 bytes, 34 tensors)

embedding.weight f4 [64, 92]
0	0x3fe10bdf	1.7581748
1	0x3fa87578	1.3160849
2	0xc00ac21e	-2.168098
3	0x3f086e06	0.5329288
4	0xc00b39ac	-2.175395
5	0xc0d6d230	-6.7131577
6	0xc0836f18	-4.1073112
7	0xbff42b22	-1.9075663
8	0xbde3b376	-0.11118214
9	0x4018c269	2.3868659
10	0xbe9f03aa	-0.31057483
11	0xc01c15ee	-2.4388385
12	0x3efd9a91	0.49531987
13	0x3efbc558	0.49174
14	0xbe3aa911	-0.18228556
15	0x400b9c35	2.1814091
16	0xbfd1155b	-1.6334642
17	0x3e43114c	0.19049567
18	0xc00c7588	-2.1946735
19	0x3f03e180	0.5151596
20	0x3f598226	0.84964216
21	0xbfd89e41	-1.6923295
22	0xbedb1124	-0.42786515
23	0xbf959258	-1.1685286
24	0xbfe8ca47	-1.818673
25	0x3fc34b6a	1.525739
26	0xbf9d6762	-1.2297175
27	0x3fbf5f99	1.4951049
28	0x3f31be7e	0.69431293
29	0xc0bf92d1	-5.986672
30	0xbf23992a	-0.63905585
31	0x3cfa54c7	0.030558003
32	0x3f940f05	1.1567084
33	0xbfe4639f	-1.7842902
34	0xbf177491	-0.5916224
35	0xbf5b0227	-0.8555016
36	0x3f1941c3	0.5986597
37	0xbf770f08	-0.9650731
38	0xc02558e0	-2.5835495
39	0x3eb43484	0.35196316
40	0x3fb7be33	1.4354919
41	0xbfb5561e	-1.4166906
42	0xbf3393e8	-0.7014756
43	0x3dcd22c1	0.100163944
44	0x3f1ebdd5	0.6200841
45	0xbffbe9ce	-1.9680727
46	0x3fafd872	1.3737929
47	0x3e9c49d0	0.30525064
48	0x3f3f3a83	0.74698657
49	0xbfb65b23	-1.4246563
50	0xbf4c06c3	-0.7969782
51	0xc02e6c72	-2.725369
52	0xbfa73c8d	-1.3065354
53	0xbdf72bac	-0.120688766
54	0x4018920a	2.3839135
55	0xc058c80b	-3.3872097
56	0xc0275ef2	-2.61517
57	0x401feff1	2.4990199
58	0xbfa59fe1	-1.2939416
59	0x3fc6fbcf	1.5545596
60	0xbee33880	-0.44379044
61	0x3ff1fd3f	1.890541
62	0xc05df904	-3.4683237
63	0xbfc787bf	-1.5588301
64	0xbf895e5d	-1.0731922
65	0xbf48025e	-0.7812861
66	0x3dbc3768	0.091902554
67	0xbe26d593	-0.1629241
68	0xc0640cde	-3.5632854
69	0xbc950af5	-0.018193701
70	0xc01e08fd	-2.4692986
71	0xbd1d891c	-0.038460836
72	0x3f918324	1.1368146
73	0xbe70824f	-0.23487209
74	0xbedabc47	-0.4272177
75	0xbf7c0ed5	-0.9846013
76	0xbcc8bda0	-0.024504483
77	0x3e3db798	0.18527067
78	0xbe8bd35a	-0.27309686
79	0xbf87ccdb	-1.0609392
80	0xc07ce402	-3.9514165
81	0x3fe38ffc	1.7778316
82	0xc01c9e22	-2.4471517
83	0xbfa302ef	-1.273527
84	0xbf235891	-0.63807017
85	0xbecccb2f	-0.39998767
86	0xc0547ce7	-3.3201234
87	0xc0a61e40	-5.1911926
88	0x405901ca	3.3907342
89	0xbf631ebb	-0.88718766
90	0xc03b121c	-2.9229803
91	0x3e2e3902	0.17013934
92	0x3e8caf89	0.27477673
93	0xbdbe2fde	-0.09286474
94	0x3e1f2ece	0.15545198
95	0xbfa54388	-1.2911234
96	0x3ee3fb25	0.44527546
97	0x40104a2c	2.254527
98	0x3eb635d3	0.3558794
99	0x3faf5fa7	1.3701066
100	0x3fb6f899	1.4294616
101	0xc0400eb2	-3.000897
102	0xc01b4fc9	-2.4267447
103	0xc04f131f	-3.235542
104	0xbf300fba	-0.68773997
105	0x3d6c4eff	0.057692524
106	0x3f93e58e	1.155443
107	0x3ec0629d	0.37575236
108	0xbeb3be8a	-0.35106307
109	0x3f471c34	0.7777741
110	0xc0d981fa	-6.7971163
111	0xbf9fba32	-1.2478697
112	0xbefcc6a1	-0.49370292
113	0x405cc0ac	3.4492598
114	0xbebca071	-0.36841157
115	0xbf227ddb	-0.6347329
116	0xc005eaf7	-2.092466
117	0x3e980ca4	0.29697144
118	0x3e8bf66b	0.2733644
119	0x3c48b8bf	0.012251078
120	0x3f5125f6	0.8169855
121	0xbfeb6759	-1.8390914
122	0x3f415846	0.7552532
123	0x3e5ea03e	0.21740815
124	0x3faacea8	1.3344316
125	0xbf044252	-0.51663697
126	0xbea5faca	-0.324179
127	0x3f83c8cd	1.0295655
128	0xbfa34131	-1.275427
129	0xbf12b039	-0.57300144
130	0xc03e90cc	-2.9775877
131	0xbf425b16	-0.75920236
132	0x3f941faf	1.1572169
133	0xbde31d48	-0.11089569
134	0xbff9f24d	-1.9527069
135	0x3e8da1fd	0.2766265
136	0xc02ab813	-2.667485
137	0x4079db4c	3.9040098
138	0xbcdd4853	-0.027012026
139	0x3de756ee	0.112958774
140	0xbf10970d	-0.56480485
141	0x3ef1675b	0.47149166
142	0x3f4dc8e9	0.8038469
143	0xbe100810	-0.14065576
144	0x3f016ada	0.5055367
145	0x3f913e7e	1.1347196
146	0xc042a822	-3.041512
147	0x3e83eccb	0.25766596
148	0xc04cf0ec	-3.2022047
149	0xc02f3efa	-2.7382188
150	0x3e92b24c	0.28651655
151	0x3bf13675	0.007361228
152	0xbfe5eb19	-1.7962371
153	0x3facb508	1.3492746
154	0x3dadff38	0.08495945
155	0xc00b148f	-2.1731298
156	0xbf5bc1c9	-0.8584257
157	0x3f68b168	0.908957
158	0xbd8b5062	-0.06802441
159	0x3fb723e1	1.4307824
160	0xbf90f098	-1.1323423
161	0x3d2bdbea	0.041957773
162	0x3e88f975	0.2675282
163	0x3dccf629	0.10007889
164	0xbf1e7db5	-0.61910564
165	0xbf8aedb1	-1.0853788
166	0x3eda0fc8	0.42590165
167	0xbf93dcb6	-1.1551731
168	0xbd97242d	-0.07379947
169	0x3f595cc3	0.8490717
170	0xbf2f4fcf	-0.68481153
171	0xbe9d973c	-0.30779445
172	0xbf8c296b	-1.095014
173	0x3e75022f	0.23926614
174	0xc051f5b2	-3.280621
175	0xbdc3b203	-0.095554374
176	0x3ffa0c98	1.9535093
177	0xbf2a2b86	-0.6647266
178	0xbf712a7f	-0.9420547
179	0xbfab4a3a	-1.3382027
180	0x3f34e1a8	0.70656824
181	0x3ec77482	0.38956076
182	0x3ed5fb8b	0.41793475
183	0xbf009ad7	-0.50236267
184	0xc0961c3b	-4.690946
185	0xbfb6d370	-1.4283276
186	0x3fba937f	1.4576262
187	0xc0f21b21	-7.5658116
188	0xc09c0cee	-4.8765783
189	0xc092c760	-4.586838
190	0xc0082ca4	-2.1277246
191	0xbfe77125	-1.8081404
192	0xc0b096fc	-5.5184307
193	0x3d40ed74	0.047101453
194	0xc00fc873	-2.2466094
195	0x402b6a46	2.6783614
196	0x4063aaea	3.5573068
197	0x4006770c	2.101016
198	0x3fce8f8a	1.6137555
199	0x3fc57851	1.5427343
200	0xbf5a8be3	-0.853697
201	0xc01421fb	-2.314574
202	0xbfd35e30	-1.6513119
203	0x3fe736bb	1.8063577
204	0xbf8905e5	-1.0704924
205	0xbe8125a6	-0.25224036
206	0x3f8c8772	1.0978835
207	0xbf07f132	-0.5310241
208	0xbe57f720	-0.21090364
209	0x402fe941	2.7486117
210	0xbfbac21a	-1.4590485
211	0xc0a3c9d5	-5.1183877
212	0xbfcb4c12	-1.588259
213	0x3fa08b28	1.2542467
214	0x401f0b3d	2.485061
215	0xc017b40d	-2.3703644
216	0x3ff6cab6	1.9280612
217	0xc0225277	-2.5362833
218	0x3d67c41f	0.05658352
219	0x3f0c61a7	0.54836506
220	0x3ffa0463	1.9532589
221	0x3e82e5b0	0.25565863
222	0xbf372033	-0.7153351
223	0x3f864516	1.0489833
224	0x3e850477	0.2597997
225	0x3f5164ef	0.8179464
226	0xc09ae235	-4.840113
227	0xc0367f23	-2.8515098
228	0xbf047304	-0.51738
229	0xc01db1c9	-2.4639761
230	0xbfbbeeb2	-1.4682219
231	0xbfbf4b3e	-1.4944837
232	0x3fb1f3be	1.3902509
233	0x3f09ff72	0.53905404
234	0x3f40eb87	0.75359386
235	0xbfb35c6c	-1.401258
236	0xc05b263d	-3.4242089
237	0xc0b42435	-5.62942
238	0xbcfe6462	-0.031053726
239	0x3fb1e5eb	1.389829
240	0x4024f3a0	2.5773697
241	0x3fe5fb19	1.7967254
242	0xbfb9241b	-1.4464144
243	0xc073680b	-3.8032253
244	0xbfd414d7	-1.656886
245	0x3f5b5d41	0.8568917
246	0x3f35aa9c	0.70963454
247	0x3e37d845	0.17953594
248	0xbf2c0e0d	-0.6720894
249	0x3ecb3956	0.3969218
250	0xbd77e4b5	-0.060520846
251	0x400c380f	2.1909215
252	0x400ca967	2.1978395
253	0xbcb788d0	-0.022404104
254	0xbf1ffce8	-0.6249528
255	0x3dc78fdb	0.09744235

convs.0.fc_full.weight f4 [128, 169]
0	0xc095380d	-4.663092
1	0x3f206237	0.62649864
2	0x3e4614dc	0.19343895
3	0x3f2c230a	0.67240965
4	0x402d4313	2.707219
5	0x3e8d57b5	0.27605978
6	0x3f628062	0.88477147
7	0x400f5c39	2.2400038
8	0x40224793	2.5356185
9	0x3f188823	0.5958273
10	0x3ec5f7d4	0.3866564
11	0x404f7462	3.2414784
12	0xbd907344	-0.07053235
13	0x3f9cdecd	1.2255493
14	0xbffad0d3	-1.9594978
15	0x3f165bf9	0.5873409
16	0xbf28cae9	-0.65934616
17	0xbfa24a50	-1.2678928
18	0x3e9867ce	0.29766697
19	0xbf93c2cb	-1.1543821
20	0xbf26c84f	-0.65149397
21	0x3fe91189	1.8208476
22	0xc02f1da9	-2.7361853
23	0x3e99da39	0.30049303
24	0xc01b0248	-2.4220142
25	0xc016321e	-2.346809
26	0x3d83a85f	0.064285986
27	0x3e7d5300	0.24738693
28	0xbfb9d4cd	-1.4518067
29	0x40040b4f	2.0631902
30	0xbfb2457b	-1.3927454
31	0xbd0e509e	-0.03474485
32	0xbf8cb770	-1.0993481
33	0x3fce26dc	1.6105609
34	0xc0318b18	-2.7741146
35	0xbfd02cb7	-1.6263646
36	0xc01a6367	-2.412317
37	0x3f5b665d	0.8570307
38	0x3fa3b92b	1.2790884
39	0x3fac93c7	1.3482598
40	0xc01f18e3	-2.485894
41	0x3eeb0ee6	0.45909804
42	0xbed6dc66	-0.41965026
43	0x401078f7	2.257383
44	0x400fa6d5	2.2445576
45	0xbf8d163a	-1.1022408
46	0xbfe815bc	-1.8131633
47	0x3fb4505b	1.4087023
48	0x3f7f62a4	0.9975989
49	0x3ff45cb9	1.9090797
50	0xbf1f5fc5	-0.6225551
51	0x3be6f45d	0.0070481733
52	0xbfc33c94	-1.5252862
53	0xbf38616d	-0.7202366
54	0xbfd3e2c6	-1.6553581
55	0x3fac8433	1.3477844
56	0xbf237d0d	-0.6386269
57	0x3f856103	1.0420231
58	0xc08f8cf1	-4.4859548
59	0x3f130bb4	0.5743973
60	0x400ca196	2.1973624
61	0xc034377b	-2.8158863
62	0x3f387b41	0.7206307
63	0x3f4fa8c3	0.81116885
64	0xbf95bba2	-1.1697886
65	0xc010455c	-2.2542334
66	0xc08efa1a	-4.46803
67	0x40052ee3	2.0809867
68	0xc0ce2db7	-6.4430804
69	0x4010532f	2.2550771
70	0x40bded1a	5.935193
71	0x3fb6fee6	1.4296539
72	0xbf31c28d	-0.69437486
73	0xc0bfa1ac	-5.9884853
74	0xbf973b72	-1.1815016
75	0x3ec21e15	0.37913576
76	0x3e04a21e	0.12952468
77	0x3e916d9f	0.28403947
78	0xbf34d5c1	-0.7063866
79	0x400e7158	2.225668
80	0x3e90d533	0.28287658
81	0x400e4b32	2.2233396
82	0xbe2c2846	-0.16812238
83	0x409e82bc	4.953459
84	0x3f738ea8	0.9513955
85	0x3d87ce1e	0.066311106
86	0xc0a40083	-5.1250625
87	0x4096e2f0	4.7152023
88	0xbf0b14eb	-0.54328793
89	0xbfa71406	-1.3052986
90	0xc035d7bb	-2.8412921
91	0x3e7d1e32	0.2471855
92	0x400bcdae	2.1844287
93	0x3d5a7891	0.053337637
94	0x3ff81636	1.9381778
95	0x3db5421c	0.088505
96	0xc0170d53	-2.3601882
97	0xbec2697a	-0.37971097
98	0xbf92c902	-1.1467593
99	0x3f93eb5d	1.1556202
100	0x40408ba2	3.0085225
101	0x40aa76cc	5.3270016
102	0x3f95ce43	1.1703571
103	0xc00c66eb	-2.1937816
104	0x3fa06a81	1.2532502
105	0x405144c1	3.2698214
106	0x4006c236	2.1056037
107	0x3fb3e4e2	1.4054224
108	0xbfb8d881	-1.4441072
109	0x3fc8bad0	1.5682011
110	0xc047d56e	-3.1224017
111	0x4074ab89	3.8229697
112	0x3f756642	0.9585916
113	0xbf8c5bec	-1.0965552
114	0x3feb1b07	1.8367623
115	0xc069064c	-3.6410093
116	0xbed2ec84	-0.41196072
117	0x40383f9a	2.878882
118	0x407784af	3.8674734
119	0x40a451c4	5.134981
120	0xc0343035	-2.8154423
121	0xc0a03070	-5.005913
122	0x4024152b	2.563792
123	0x40351cbd	2.829879
124	0x3f64115f	0.89089006
125	0xbf4a5ff2	-0.7905265
126	0xbf0f73de	-0.56036174
127	0x3ed389c2	0.41316038
128	0x3cc635b7	0.024195535
129	0x3d764a5f	0.06012952
130	0xbe934537	-0.28763744
131	0xbb730ffb	-0.0037088383
132	0xbe1d2626	-0.15346584
133	0xbe3741d7	-0.1789621
134	0x3f371234	0.7151215
135	0x3f11182d	0.56677514
136	0xbf1c1ed4	-0.6098454
137	0x3e7351ea	0.23761716
138	0x3eb12072	0.34595066
139	0xbeb27181	-0.34852222
140	0xc0496477	-3.146757
141	0xc08490c1	-4.14267
142	0x3f623716	0.88365304
143	0x40df018a	6.968938
144	0x409b05d8	4.8444633
145	0x3f59e4cf	0.8511476
146	0xc04d3fc0	-3.207016
147	0xc0acb212	-5.396737
148	0xc06706bb	-3.6097858
149	0xbfea2e5b	-1.8295397
150	0x3cd3a22f	0.025834171
151	0x40353764	2.8315058
152	0x4035be4d	2.83974
153	0xbe786e95	-0.24260934
154	0x3e00f27d	0.12592502
155	0xbfe11b36	-1.7586429
156	0xc01fdd9d	-2.4979012
157	0xbfa99672	-1.3249037
158	0xbeb530b6	-0.35388726
159	0xbe82aea5	-0.25523868
160	0xbe755c30	-0.23960948
161	0xbe899cd3	-0.2687746
162	0xbf9182bc	-1.1368022
163	0xbfa83009	-1.3139659
164	0xbf14020c	-0.57815623
165	0x3cbaf39e	0.022821244
166	0x3d36e6c5	0.044653673
167	0x3c46e725	0.01214007
168	0x3d84ca38	0.06483883
169	0x3f720929	0.9454523
170	0xc0e4d143	-7.1505446
171	0xc019ee84	-2.4051828
172	0xbf06fed3	-0.5273258
173	0xbff0f1b6	-1.8823764
174	0xbff6fb74	-1.9295487
175	0x3f7ebb98	0.99504995
176	0xbf7490eb	-0.9553363
177	0xbef5f3de	-0.48037618
178	0xbbb73f0d	-0.005592233
179	0xbe5f3898	-0.21798933
180	0xc0247a7b	-2.5699756
181	0xc0444b02	-3.067078
182	0x3f8666af	1.0500087
183	0x3ed82103	0.42212686
184	0xbff07bf4	-1.8787827
185	0x3f92c636	1.1466739
186	0x3fd3683a	1.6516182
187	0xbfede442	-1.8585284
188	0x3fa44585	1.2833716
189	0xc0567c62	-3.3513417
190	0xbf536c29	-0.82586914
191	0x3e7ab2c3	0.24482255
192	0x40051628	2.0794773
193	0x3f93312e	1.1499383
194	0xbfd82d0d	-1.6888748
195	0xbfbebb09	-1.4900829
196	0x3f5010e6	0.81275785
197	0x3f34475c	0.70421386
198	0xc0277730	-2.6166496
199	0x3f8d6149	1.1045314
200	0x3f88cfe7	1.0688447
201	0xbe338e4a	-0.17534748
202	0xbfe368ea	-1.7766392
203	0x3d7c6859	0.06162295
204	0x3ef1ce94	0.4722792
205	0xbeb7d36c	-0.3590349
206	0xbfaebdeb	-1.3651708
207	0x401f66d4	2.4906511
208	0xc01210ed	-2.282283
209	0xbf07bedd	-0.5302561
210	0x3e0ef188	0.13959324
211	0x3e93a62c	0.28837717
212	0xc06c0a2e	-3.6881213
213	0x3f090a86	0.5353168
214	0x4098ecd5	4.77891
215	0x4062069e	3.531654
216	0xc05e2de7	-3.4715517
217	0x3fa029fe	1.2512815
218	0x3eed894a	0.46393806
219	0x3edbaaed	0.42903844
220	0xc04f1454	-3.2356157
221	0x3f4b392f	0.7938413
222	0xbfd4ffe3	-1.664059
223	0xbf1a9142	-0.60377896
224	0xbf916286	-1.1358192
225	0xbfa48137	-1.2851933
226	0xbd66ff77	-0.056395974
227	0x3fa98d18	1.3246183
228	0xc00f33b1	-2.23753
229	0xc09e1a4e	-4.940711
230	0xbf394e7b	-0.72385377
231	0x3e6d728b	0.23188226
232	0xbe9b6497	-0.3035018
233	0x3ff304b5	1.8985811
234	0xbfa96c89	-1.3236247
235	0x4028f58b	2.6399868
236	0x40509ef0	3.2597008
237	0x3fa570ce	1.292505
238	0xc013e9f4	-2.3111544
239	0x406c90a1	3.6963274
240	0x400f7133	2.2412841
241	0xbe9d3dde	-0.30711263
242	0x408c8cf1	4.3922048
243	0xc00b71c9	-2.17882
244	0xbdc8362a	-0.09775956
245	0xbf1991b6	-0.5998796
246	0xc0161498	-2.345007
247	0x3ecb3563	0.39689168
248	0x3e243d3d	0.16038986
249	0x400500e8	2.0781803
250	0xbfc2c4a9	-1.5216266
251	0x3fd84000	1.6894531
252	0x40292cc3	2.643357
253	0x3f9f391c	1.2439303
254	0x3e94d5ad	0.29069272
255	0x4034f13d	2.827224

convs.0.fc_full.bias f4 [128]
0	0xbc8a5458	-0.016885921
1	0x3d286bde	0.041118495
2	0xbdc15339	-0.094397016
3	0xbc140b44	-0.009035889
4	0xbc5d9a6d	-0.0135255875
5	0x3e06e4d7	0.13173233
6	0x3ccfb749	0.025355952
7	0xbca47038	-0.020073041
8	0xbd18e2f3	-0.03732581
9	0xbc538c13	-0.012911814
10	0x3c7ba547	0.015359229
11	0x3b209759	0.0024504273
12	0x3d94c410	0.072639585
13	0xbd7e9073	-0.062149476
14	0x3db2b76a	0.0872639
15	0x3ccd51a7	0.025063349
16	0xbd8b5f4c	-0.06805286
17	0x3b7897de	0.0037932317
18	0xbb4bee85	-0.003111751
19	0xbd41fb10	-0.047358572
20	0x3d54d756	0.051963173
21	0x3cba761e	0.0227614
22	0x3b4c9a45	0.0031219881
23	0x3cc71407	0.024301542
24	0xbcceddb5	-0.025252203
25	0x3dc454c7	0.095864825
26	0xbbf27dbc	-0.0074002426
27	0xbd0809bd	-0.033212412
28	0x3cccc2f5	0.024995307
29	0xbcb1173f	-0.02161753
30	0xbc6b17df	-0.014348953
31	0xbc575d39	-0.013144785
32	0xbc67d352	-0.014149504
33	0xbd006639	-0.031347487
34	0xbcf57283	-0.02996183
35	0x3d4db284	0.050219074
36	0xbdb4c53b	-0.08826681
37	0x3c46b85d	0.012128917
38	0x3db27397	0.08713453
39	0x3d5004cd	0.05078583
40	0xbb83f013	-0.004026422
41	0x3c122d8a	0.00892199
42	0xbda318ed	-0.079637386
43	0x3c5482fe	0.012970684
44	0xbc559157	-0.01303514
45	0x3da7e962	0.08198811
46	0x3d2c908c	0.04213004
47	0x3d4d11bc	0.05006574
48	0x3d75d0a2	0.06001342
49	0x3dea76f6	0.11448471
50	0xbd9bf2c4	-0.07614663
51	0x3cfe789b	0.031063369
52	0x3d99275b	0.074782096
53	0xbdc63f4f	-0.09680044
54	0xbd1ca5de	-0.03824412
55	0x3c43db60	0.011954159
56	0x3d6ca5be	0.05777525
57	0x3da387e7	0.07984906
58	0xbd859e69	-0.06524355
59	0x3d08f442	0.033436067
60	0xbd3d6f47	-0.0462487
61	0xbd69deba	-0.057097174
62	0x3c41ff31	0.0118406275
63	0x3d9622f2	0.07330884
64	0x3cf76ed8	0.030204222
65	0xbd292f40	-0.041304827
66	0x3cddaed5	0.027060905
67	0x3d29cd6a	0.041455664
68	0x3ba2806a	0.004959156
69	0x3d13a49f	0.036045667
70	0x3cb318e0	0.021862447
71	0xbd46439d	-0.048404325
72	0xbccf4db6	-0.02530561
73	0xbc8f5060	-0.01749438
74	0x3ce76748	0.02824749
75	0x3c50f2b5	0.012753178
76	0x3d6bd43b	0.057575446
77	0xbd1bfbe2	-0.03808201
78	0x3d43653d	0.04770397
79	0xbd61a663	-0.05509032
80	0x3dec51df	0.11539053
81	0xbd7638e5	-0.060112853
82	0xbc25e5a7	-0.010125554
83	0xbd64f8d2	-0.055901356
84	0x3caa7b31	0.020810695
85	0xbcaa87f3	-0.020816779
86	0x3d714a94	0.058909014
87	0x3d80fc6d	0.062981464
88	0x3c39624c	0.01131494
89	0xbd57584d	-0.052574445
90	0x3b046e4b	0.0020207341
91	0x3d6074cb	0.054798882
92	0x3c03944b	0.008030961
93	0xbc8d62f3	-0.017259097
94	0x3d1ef347	0.038806226
95	0x3c797d25	0.015227591
96	0xbdd4388b	-0.10362347
97	0xbd0103ac	-0.031497642
98	0xbe0793a9	-0.13239922
99	0xbd56f065	-0.05247535
100	0xbc24e82f	-0.0100651225
101	0xbcdaaed9	-0.026694702
102	0x3d87c0c2	0.066285625
103	0xbd9f1aba	-0.077687696
104	0x3d3e0312	0.046389647
105	0x3d07ea3b	0.033182364
106	0xbde627fb	-0.112380944
107	0x3d8913e2	0.066932455
108	0xbcf56095	-0.02995328
109	0xbd895e01	-0.06707383
110	0xbb9add10	-0.0047260597
111	0xbd4b337f	-0.049609657
112	0xba291a5d	-0.0006450767
113	0xbc4044dd	-0.011735168
114	0xbc78a16c	-0.015175205
115	0x3c64af56	0.013957819
116	0xbd51233b	-0.05105899
117	0xbd22c356	-0.039737068
118	0x3da52559	0.08063764
119	0xbd8277a6	-0.063704774
120	0x3d95d1df	0.0731542
121	0xbca678c4	-0.020321257
122	0x3c10401d	0.008804348
123	0x3c2f1fed	0.010688764
124	0x3cb4b170	0.022057265
125	0x3ce9640c	0.028490089
126	0xbc5f9095	-0.013645311
127	0x3e06b9ea	0.13156858

convs.0.bn1.weight f4 [128]
0	0x409a16f1	4.8153005
1	0x409d97ba	4.9247713
2	0x40929251	4.580361
3	0x40961329	4.689839
4	0x410ba129	8.726846
5	0x402e74fb	2.72589
6	0x404cbd0c	3.1990385
7	0x40ad0ae6	5.4075804
8	0x4078f8bb	3.8901813
9	0x40f05552	7.510415
10	0x4056d912	3.356999
11	0x3e379f47	0.17931853
12	0x40be0c30	5.9389877
13	0x40756067	3.834009
14	0x408e379a	4.4442873
15	0x4085ab7b	4.1771827
16	0x406567c6	3.5844588
17	0x407bdd8e	3.9353976
18	0x40779782	3.8686223
19	0x40e0d2fb	7.0257545
20	0x409f7697	4.9832263
21	0x40809d9d	4.01924
22	0x40874140	4.226715
23	0x41053a17	8.326682
24	0x4112fde7	9.186988
25	0x4096d01b	4.7129035
26	0x402fb85d	2.7456276
27	0x40896154	4.293131
28	0x3f8dc91a	1.1076996
29	0x411b9612	9.724138
30	0x407c5bb5	3.9430974
31	0x40887784	4.2645893
32	0x40fbfff0	7.8749924
33	0x40a15560	5.0416718
34	0x40cd6ac7	6.4192843
35	0x408097ff	4.018554
36	0x40f8a6a8	7.770344
37	0x40f44fbf	7.6347346
38	0x40f35922	7.6046305
39	0x40ca6cfb	6.3258033
40	0x40be19fd	5.9406724
41	0x409417b8	4.6278954
42	0x40a3bf81	5.117127
43	0x40aecd1b	5.4625373
44	0x40c038fb	6.0069556
45	0x404e0853	3.219258
46	0x40d13b14	6.5384617
47	0x411a224b	9.633372
48	0x40526994	3.287694
49	0x40c2c210	6.0861893
50	0x40c6f918	6.217907
51	0x40ac6da1	5.3883824
52	0x3f864ea8	1.0492754
53	0x40b2314e	5.5685186
54	0x40882e06	4.255618
55	0x4092be43	4.5857253
56	0x40cb3801	6.3505864
57	0x4093deaf	4.620933
58	0x4086206a	4.191457
59	0x40cb21b8	6.347866
60	0x40d7a602	6.7390146
61	0x410283d8	8.157188
62	0x41191d5d	9.569669
63	0x40afbded	5.4919343
64	0x405013db	3.251212
65	0x40a41f21	5.1288
66	0x3f4e31db	0.80544823
67	0x4086bd0e	4.210578
68	0x4051398d	3.2691376
69	0x40493aab	3.1442058
70	0x406dc2d6	3.7150168
71	0x3f45fbff	0.7733764
72	0x409f259a	4.97334
73	0x407d8c1f	3.9616773
74	0x3efc9927	0.49335596
75	0x3f812b3a	1.0091317
76	0x3fc05dc5	1.5028616
77	0x3f9f69ba	1.245414
78	0x40e99301	7.299195
79	0x3ff7287d	1.9309231
80	0x40a4e9d8	5.1535454
81	0x40e8bcfd	7.27307
82	0x40bc7434	5.889185
83	0x400bb2fb	2.182799
84	0x406cdaa1	3.700844
85	0x3f3e5a99	0.7435699
86	0x3ff6f1e7	1.9292573
87	0x3f78227b	0.96927613
88	0x4019d95a	2.403891
89	0x403a1cb8	2.9080029
90	0x3fa1dc36	1.2645328
91	0x4017a715	2.3695729
92	0x40ac88f1	5.3917165
93	0x3fdc0848	1.7190027
94	0x3f0413ed	0.51592904
95	0x3fa66a02	1.3001101
96	0x3f77af98	0.9675231
97	0x3fec29bc	1.8450236
98	0x3cff1171	0.031136246
99	0x3f53af1f	0.8268909
100	0x401ad80a	2.419436
101	0x3feb80c7	1.8398675
102	0x40bd5852	5.9170313
103	0x4046462d	3.0980332
104	0x40578e72	3.3680692
105	0x3f87a4a6	1.0597122
106	0x3fe36044	1.7763753
107	0x40878804	4.2353535
108	0x3f2362a4	0.6382239
109	0x40ced319	6.4632688
110	0x40011596	2.0169425
111	0x40379398	2.8683834
112	0x404aa874	3.1665316
113	0x3f40f587	0.75374645
114	0x40be548f	5.947822
115	0x401a904e	2.4150577
116	0x414a69bb	12.650813
117	0x3fb57b15	1.4178187
118	0x402cbdee	2.6990924
119	0x3f538945	0.8263133
120	0x40c23909	6.0694623
121	0x3ff106fd	1.8830258
122	0x406249c8	3.5357533
123	0x3fc941b1	1.5723172
124	0x4087dbbf	4.2455745
125	0x40a5c2a3	5.1800094
126	0x3f870f1f	1.055149
127	0x3f8d67ca	1.1047299

convs.0.bn1.bias f4 [128]
0	0x3ee13d03	0.4399186
1	0x3fa11e87	1.2587441
2	0x406a33f2	3.6594205
3	0x3f82cc40	1.0218582
4	0x3fa5f13c	1.2964244
5	0x400c82db	2.1954868
6	0x3f92395f	1.1423758
7	0x405ddb57	3.4665124
8	0x3f707b15	0.9393781
9	0xbfd93c81	-1.6971589
10	0x406eca92	3.731114
11	0x400268c2	2.037644
12	0x3f7d098e	0.98842704
13	0x3f4aff40	0.7929573
14	0x3e826022	0.2546397
15	0x3fe77aef	1.8084391
16	0x3f8daa5e	1.1067617
17	0x40038409	2.0549338
18	0xbe959cb5	-0.2922112
19	0xbd53d4bc	-0.05171655
20	0x3ff721e0	1.9307213
21	0x3fc73dc7	1.5565728
22	0xbf9e9c85	-1.2391516
23	0x3f436b1c	0.7633531
24	0x3f05e26e	0.5229863
25	0xbfca14d2	-1.5787604
26	0x3d3a79d3	0.045526337
27	0x3f822586	1.0167701
28	0x3f9dac09	1.2318126
29	0x3e9dbf41	0.30809978
30	0x3fea2649	1.8292934
31	0xbd97fb1b	-0.074209414
32	0x3f358a09	0.7091375
33	0x408c8c40	4.3921204
34	0x4011588d	2.2710297
35	0x404250af	3.0361745
36	0xbe4a2dc2	-0.19744018
37	0x401bbeae	2.4335132
38	0xbf740756	-0.95323694
39	0x4038f538	2.889967
40	0xbf0a439f	-0.5400943
41	0x3fd7a50e	1.6847246
42	0x3b6433a8	0.0034820829
43	0x3eccfa10	0.40034533
44	0x407de78e	3.967258
45	0x40869c57	4.2065845
46	0x3e9a362f	0.30119464
47	0xbf04cb40	-0.51872635
48	0x405ad290	3.4191017
49	0x3fa180c3	1.261742
50	0x3a0f19ba	0.00054588506
51	0x3f35b2dd	0.7097605
52	0xc05bee0c	-3.4364042
53	0x400c84b2	2.195599
54	0x3f2b5993	0.66933554
55	0x3fee5113	1.8618492
56	0x3fa95e7f	1.3231963
57	0xbfb1d1d6	-1.3892162
58	0x3ef5f1cb	0.48036036
59	0x3f97cf4c	1.1860137
60	0x3f7f40cb	0.9970824
61	0x3f08a6de	0.5337962
62	0xbf82a7cd	-1.0207459
63	0xbf1bb356	-0.6082052
64	0x3ef96149	0.48707035
65	0x3fcd21ea	1.6025975
66	0x40a76880	5.2315063
67	0xbda789fc	-0.08180615
68	0x3f3e6c49	0.7438398
69	0x3f25c701	0.6475678
70	0x4000b5ec	2.0111036
71	0x40cccb74	6.3998356
72	0xbf8bac9e	-1.0912054
73	0x3f63b4ae	0.8894757
74	0x40c61081	6.1895146
75	0x3f830fac	1.0239158
76	0x404cf7a0	3.2026138
77	0x4038de43	2.8885658
78	0xbdd0c70a	-0.10194214
79	0x3fc9ea50	1.5774632
80	0xbd4168a8	-0.04721895
81	0x3ff883b7	1.9415196
82	0xbfa0250e	-1.2511308
83	0xbea61b24	-0.32442582
84	0xbea4280d	-0.32061806
85	0x413d4cf9	11.831292
86	0x40281259	2.6261199
87	0x4051fdbf	3.2811124
88	0x3fcbad79	1.5912315
89	0x3fab65e9	1.3390476
90	0x403f6cae	2.9910083
91	0x3f540b8c	0.8283012
92	0x3f85649c	1.0421329
93	0x3fa20dcd	1.2660462
94	0x40fc9dc2	7.8942575
95	0xbf3022fc	-0.6880338
96	0x4060ba24	3.5113611
97	0x3fe1aa8e	1.7630174
98	0x4196eb57	18.864912
99	0x40e1993b	7.049955
100	0x3f8f1275	1.1177508
101	0x40120dc4	2.2820902
102	0xbee3f028	-0.44519162
103	0x3ed27e38	0.41111922
104	0x3f9ac984	1.2092748
105	0x40a2ba85	5.0852685
106	0x400d1a68	2.2047367
107	0xbf7d5390	-0.9895563
108	0x40bfae47	5.990024
109	0x401966ba	2.396895
110	0x403cfd53	2.9529617
111	0x3f7aa0aa	0.97901404
112	0xbfcf7eac	-1.6210532
113	0x40ba73d2	5.826638
114	0x3dd603e1	0.104499586
115	0x400cd79b	2.2006595
116	0xbfb4c65a	-1.4123032
117	0x4028c9cc	2.6373167
118	0x3fb37def	1.4022807
119	0x407d1e84	3.9549875
120	0xbee13015	-0.43981996
121	0x40098e43	2.149308
122	0x3fa710b9	1.3051978
123	0x400e5ded	2.2244828
124	0x3fa37c9d	1.2772404
125	0x3f8ea428	1.1143847
126	0x40718148	3.7735157
127	0xbf78673d	-0.9703253

convs.0.bn1.running_mean f4 [128]
0	0xc2825415	-65.16422
1	0x43472d6c	199.17743
2	0x4311b9fc	145.7265
3	0x430db255	141.69661
4	0xc30bf506	-139.95712
5	0x4220c0e9	40.18839
6	0x42fd2c1f	126.586174
7	0xc240d62b	-48.20915
8	0xc387b020	-271.37598
9	0x419c3ff2	19.531223
10	0x43993834	306.4391
11	0xc3b29810	-357.188
12	0xc2bf89fb	-95.76949
13	0x42a1f760	80.983154
14	0x42b368fe	89.70506
15	0x4343242a	195.14127
16	0x4290a79e	72.32738
17	0x4367fe6f	231.99388
18	0x436529b4	229.1629
19	0xc243f0c5	-48.985126
20	0x42b563a9	90.69465
21	0xc3a8af21	-337.3682
22	0x42a47147	82.221245
23	0x43666d17	230.42613
24	0x4392457e	292.5429
25	0xc1254497	-10.329246
26	0x4340194c	192.09882
27	0x429c519a	78.15938
28	0x42baef4d	93.467384
29	0x42423e1c	48.560654
30	0xc25e5241	-55.580326
31	0x4274358b	61.052288
32	0x43062888	134.15833
33	0x4251bee0	52.4364
34	0xc292387a	-73.110306
35	0x3f23f2df	0.64042467
36	0xc164a73d	-14.29083
37	0x4351e1cf	209.88206
38	0x42ef8e76	119.778244
39	0x431d7311	157.44948
40	0x42a622f1	83.068245
41	0xc29666ee	-75.201035
42	0x42d7842f	107.75817
43	0xc371add1	-241.67897
44	0xc347eca8	-199.92444
45	0x43c556e9	394.679
46	0xc3e16bf6	-450.84344
47	0xc2c9b542	-100.85402
48	0xc2c22f02	-97.09181
49	0x4294b0d8	74.3454
50	0xc34cfec5	-204.9952
51	0x431e3bdd	158.23384
52	0x429df787	78.98345
53	0x434406bc	196.0263
54	0xc20cd849	-35.211216
55	0x434ca755	204.65364
56	0x42fc4c88	126.149475
57	0x429e4797	79.139824
58	0xc3332aa2	-179.16653
59	0x4385c9af	267.57565
60	0x4186f21d	16.86822
61	0x4328b82d	168.71944
62	0xc2242959	-41.04038
63	0x4315aa15	149.66438
64	0xc34f4c05	-207.29695
65	0x435d481c	221.28168
66	0xc2a44647	-82.13726
67	0x42bec60c	95.38681
68	0xc3af33a2	-350.40338
69	0x424debea	51.480385
70	0x431f2be4	159.17145
71	0xc3bafccb	-373.97495
72	0xc376b54f	-246.70824
73	0x43fee779	509.80838
74	0x43533d73	211.24004
75	0xc3d2044d	-420.0336
76	0x42ab50c2	85.65773
77	0xc1b992e4	-23.196724
78	0x432bbb8f	171.73265
79	0xc3775ba2	-247.35794
80	0xc2aea2cd	-87.31797
81	0x4384bacb	265.45932
82	0x43011d9a	129.11563
83	0x436ea72e	238.65305
84	0xc38291dd	-261.13956
85	0xc325ba6e	-165.72824
86	0x42a8454a	84.13533
87	0x433ff91b	191.97307
88	0x42af6884	87.70413
89	0x428e6eb0	71.21619
90	0x438dc703	283.55478
91	0xc21a01c4	-38.501724
92	0x407e9e1f	3.978401
93	0xc2c49da3	-98.307884
94	0x431a6e02	154.42972
95	0x42f05cac	120.181
96	0x4377e2d0	247.88599
97	0x437b8b4e	251.54416
98	0xc322f222	-162.94583
99	0x42d7ed85	107.963905
100	0xc2deec5a	-111.461624
101	0xc188681c	-17.050835
102	0x43e82971	464.32376
103	0xc3913798	-290.43433
104	0x4392162d	292.17325
105	0x41d5a68b	26.70632
106	0x429501eb	74.503746
107	0xc20be1ca	-34.970497
108	0x41d7a617	26.956099
109	0x433e2a30	190.1648
110	0x43136e3e	147.43063
111	0x4354ba38	212.72742
112	0x418ccad7	17.599043
113	0x43c4f6f3	393.9293
114	0xc2c9ab84	-100.83499
115	0xc34e178d	-206.092
116	0xc2ec92f5	-118.287025
117	0x42dd7866	110.73515
118	0xc29a5e9f	-77.18481
119	0x43282e68	168.18127
120	0x41102881	9.009889
121	0x4391c678	291.55054
122	0xc2e24f88	-113.155334
123	0x43bd6bcd	378.8422
124	0x41dd3df5	27.655252
125	0x43218676	161.52524
126	0x43fe66c3	508.80283
127	0xc29d11d7	-78.53484

convs.0.bn1.running_var f4 [128]
0	0x470fbd3f	36797.246
1	0x4717a8b7	38824.715
2	0x47384d10	47181.062
3	0x475da8fb	56744.98
4	0x473d18eb	48408.918
5	0x46effc6e	30718.215
6	0x46f549a4	31396.82
7	0x47297bb8	43387.72
8	0x470e181f	36376.12
9	0x46e8919d	29768.807
10	0x4792fc0e	75256.11
11	0x470635df	34357.87
12	0x47156736	38247.21
13	0x4713c33f	37827.246
14	0x471def5d	40431.363
15	0x471bfef0	39934.938
16	0x474bc93d	52169.24
17	0x4738a2f2	47266.945
18	0x47870e7a	69148.95
19	0x46c530f5	25240.479
20	0x46ecf82a	30332.082
21	0x47919d73	74554.9
22	0x478a9bf8	70967.94
23	0x47833b93	67191.15
24	0x47c52a53	100948.65
25	0x4780f4bc	66025.47
26	0x47a4ffe3	84479.77
27	0x478aebbe	71127.484
28	0x475657e7	54871.902
29	0x46fa90b1	32072.346
30	0x475d5660	56662.375
31	0x46e7d9cc	29676.898
32	0x47a73674	85612.91
33	0x47129f4d	37535.3
34	0x475d843b	56708.23
35	0x47c8003c	102400.47
36	0x476b476b	60231.418
37	0x471f7429	40820.16
38	0x4736ce16	46798.086
39	0x46ba116a	23816.707
40	0x4774747a	62580.477
41	0x474564a7	50532.652
42	0x47869edf	68925.74
43	0x476171dd	57713.863
44	0x47902525	73802.29
45	0x4729f149	43505.285
46	0x478bf17c	71650.97
47	0x478628e2	68689.766
48	0x46bfc169	24544.705
49	0x4782a948	66898.56
50	0x472afbb9	43771.723
51	0x4730bc85	45244.52
52	0x46e5e841	29428.127
53	0x478b8b60	71446.75
54	0x46e0fe64	28799.195
55	0x470f7551	36725.316
56	0x4754259e	54309.617
57	0x472c8085	44160.52
58	0x470eb760	36535.375
59	0x471d19ed	40217.926
60	0x474d597e	52569.492
61	0x4702105b	33296.355
62	0x47408009	49280.035
63	0x46fa5e08	32047.016
64	0x477d8226	64898.15
65	0x47677cb9	59260.723
66	0x478004a8	65545.31
67	0x4776001c	62976.11
68	0x476caf2e	60591.18
69	0x47328f3c	45711.234
70	0x470f7f68	36735.406
71	0x4755d78a	54743.54
72	0x47a555c2	84651.516
73	0x47e339ab	116339.336
74	0x476facac	61356.67
75	0x471a71a0	39537.625
76	0x4753b027	54192.152
77	0x4741b25b	49586.355
78	0x47464fbd	50767.74
79	0x478eb402	73064.016
80	0x47009f73	32927.45
81	0x472a0a0b	43530.043
82	0x4726d2fa	42706.977
83	0x46d2234f	26897.654
84	0x4755ed09	54765.035
85	0x4768c7e2	59591.883
86	0x478f50d9	73377.695
87	0x470e6d6d	36461.426
88	0x473575df	46453.87
89	0x478f6104	73410.03
90	0x479191f0	74531.875
91	0x47e33be0	116343.75
92	0x47c5df16	101310.17
93	0x4754bc96	54460.586
94	0x4791ff77	74750.93
95	0x46bd9357	24265.67
96	0x47d78558	110346.69
97	0x47d30b46	108054.55
98	0x4811dc29	149360.64
99	0x47ac5042	88224.516
100	0x474ea09d	52896.613
101	0x47136d8a	37741.54
102	0x47738692	62342.57
103	0x47bc8e96	96541.17
104	0x47a68146	85250.55
105	0x4723e4d9	41956.848
106	0x47aa3f9e	87167.234
107	0x4711e885	37352.52
108	0x47184044	38976.266
109	0x474dbc7b	52668.48
110	0x47032d4a	33581.29
111	0x47c18d98	99099.19
112	0x472129ef	41257.934
113	0x47e956c9	119469.57
114	0x47762407	63012.027
115	0x47533c2f	54076.184
116	0x46c0ca33	24677.1
117	0x477b8eec	64398.92
118	0x472936e9	43318.91
119	0x4787051f	69130.24
120	0x4733e57d	46053.49
121	0x47d8d230	111012.375
122	0x47280dd4	43021.83
123	0x4770675e	61543.367
124	0x478cf2cc	72165.59
125	0x47494001	51520.004
126	0x47b6a6ef	93517.87
127	0x4729e89b	43496.605

convs.0.bn2.weight f4 [64]
0	0x3fbd5ea2	1.4794505
1	0x40642759	3.5649016
2	0x40226217	2.537237
3	0x3fe9fa55	1.827952
4	0x3f8f2677	1.1183614
5	0x3f8d9d31	1.1063596
6	0x3f9d6f1f	1.2299536
7	0x3fc2282a	1.5168507
8	0x3f740837	0.95325035
9	0x3ff3277b	1.8996423
10	0x3fbe408b	1.4863447
11	0x3f37c4ef	0.7178487
12	0x4005a561	2.088219
13	0x3fe20c4b	1.7660002
14	0x40280c8a	2.6257653
15	0x3fc4fe62	1.5390131
16	0x3fb65b4f	1.4246615
17	0x4003f752	2.0619702
18	0x401a34a3	2.4094627
19	0x3f8e2636	1.1105411
20	0x3fbfb5e3	1.4977382
21	0x3fe2b614	1.7711816
22	0x40421ff8	3.0332012
23	0x3fa088f9	1.2541801
24	0x3ffb6f6d	1.964338
25	0x409979ee	4.796134
26	0x403be6a7	2.935953
27	0x4085bbd8	4.17918
28	0x40152c80	2.330841
29	0x3f9c1646	1.2194297
30	0x409f3c3f	4.9761043
31	0x3fd93b87	1.6971291
32	0x408a2721	4.3172765
33	0x4007170b	2.1107814
34	0x401683f8	2.3518047
35	0x405b02cf	3.4220464
36	0x4012d8d6	2.2944846
37	0x4037154d	2.860675
38	0x3faaa92a	1.3332875
39	0x3f795f4b	0.9741103
40	0x3fc16131	1.5107785
41	0x40426b11	3.0377848
42	0x4018209f	2.376991
43	0x3fc645d8	1.5490065
44	0x40522b2f	3.2838857
45	0x3fcc26b7	1.5949315
46	0x400d0be9	2.203852
47	0x4049bc61	3.1521227
48	0x3fe289b9	1.769828
49	0x40590e72	3.3915067
50	0x401322af	2.298992
51	0x3fea1058	1.8286238
52	0x4000d90e	2.013248
53	0x40446d7a	3.069182
54	0x406023dd	3.502189
55	0x40855a6b	4.1672873
56	0x3ff68895	1.9260432
57	0x4007b0ad	2.1201584
58	0x3fc3aab7	1.5286473
59	0x4003e50c	2.060855
60	0x4022b1b5	2.5420964
61	0x3f7b445f	0.981512
62	0x403ff2f2	2.9992032
63	0x402986ec	2.64886

convs.0.bn2.bias f4 [64]
0	0xc01410e6	-2.3135314
1	0xc01d2d2d	-2.4558823
2	0xbe1341f0	-0.14380622
3	0xbf1b1174	-0.60573506
4	0xbed8adc8	-0.42320085
5	0xc03e0b41	-2.969437
6	0xc01cfe7e	-2.453033
7	0x3eef0bd6	0.46688718
8	0x3eb70a20	0.35749912
9	0xbfd7671b	-1.682834
10	0xc0472410	-3.111576
11	0xbff6e856	-1.9289653
12	0xc02c8e91	-2.6962016
13	0xbed627ad	-0.41827145
14	0xc01405a3	-2.312844
15	0xc01f49c8	-2.4888783
16	0xbe9c37f7	-0.30511448
17	0xbf800afa	-1.000335
18	0xbe13ef98	-0.14446867
19	0xc01c149a	-2.4387574
20	0xbfc07faf	-1.5038966
21	0x3ec9089d	0.39264384
22	0xbf8036c9	-1.0016719
23	0xc04dac2e	-3.213634
24	0xbff49207	-1.9107064
25	0xbf98ae62	-1.1928217
26	0xc045b590	-3.0892067
27	0xbeb1df8d	-0.34740868
28	0x3b247430	0.0025093667
29	0xc00608a4	-2.0942774
30	0xbfcdbc1e	-1.6073034
31	0xc036f598	-2.8587399
32	0xc066cf21	-3.6063921
33	0xbfa6389f	-1.2986029
34	0xbfe26da6	-1.7689712
35	0x3f349bf9	0.70550495
36	0xbef33486	-0.4750101
37	0xc016f5f7	-2.3587625
38	0xc007eb43	-2.1237342
39	0xbef4f307	-0.47841665
40	0xc04e6ebf	-3.2255094
41	0xc03a9834	-2.9155397
42	0x3f3e8317	0.7441878
43	0xc03aa6d4	-2.9164324
44	0xbffaf5eb	-1.9606298
45	0xc00514f5	-2.079404
46	0xbff55e96	-1.916949
47	0xc041c3fc	-3.027587
48	0xc022e5fa	-2.5452867
49	0xc029c3d3	-2.6525772
50	0xc035027d	-2.8282769
51	0xbf84247b	-1.0323633
52	0x3f0b4a3f	0.54410166
53	0xc020d5a3	-2.5130394
54	0xc01a6f60	-2.4130478
55	0xc081edff	-4.0603023
56	0xc0244561	-2.5667346
57	0xbfd0b14b	-1.6304106
58	0xc0294a46	-2.6451583
59	0xc0470fef	-3.1103475
60	0xbfbf8c87	-1.496476
61	0xbf8a8b36	-1.0823734
62	0xbfd80769	-1.6877261
63	0x3e7cd30c	0.24689883

convs.0.bn2.running_mean f4 [64]
0	0x4169c3f7	14.610343
1	0x41f66c9a	30.803028
2	0x42475858	49.836273
3	0x41a2092d	20.25448
4	0x412b1d22	10.6946125
5	0x419889b8	19.067245
6	0x41d6614d	26.79751
7	0x425501db	53.251812
8	0x4180dcc3	16.107794
9	0x419eb28a	19.837177
10	0x4275a5d7	61.411953
11	0x4174d61a	15.302271
12	0x41c3e561	24.487001
13	0x41be7ef5	23.81199
14	0x41cd4fa0	25.66388
15	0x418a1948	17.262344
16	0x41a81959	21.012377
17	0x42273401	41.800785
18	0x41ad6704	21.6753
19	0x40dd4486	6.9146147
20	0x4173170d	15.193128
21	0x42a0d8e2	80.4236
22	0x419d6013	19.671911
23	0x41e2deaa	28.358723
24	0x4194ba15	18.59086
25	0x41614438	14.079155
26	0x41bcdeaa	23.608723
27	0x4178caed	15.549542
28	0x41b7dc97	22.98271
29	0x4126cd2e	10.425093
30	0x4280a821	64.32838
31	0x40953693	4.662912
32	0x41c9976e	25.19894
33	0x41a81fbd	21.015497
34	0x42fa9cbf	125.306145
35	0x4287062f	67.51208
36	0x415e5726	13.896276
37	0x41bfae02	23.959965
38	0x41a57dc5	20.68641
39	0x41791085	15.566533
40	0x41ba27a9	23.269365
41	0x42258360	41.378296
42	0x41a400ba	20.500355
43	0x414d3bc2	12.827089
44	0x425abed3	54.68635
45	0x42407e76	48.123497
46	0x41cda924	25.707588
47	0x41587e2a	13.530802
48	0x412074d5	10.028523
49	0x423b3d16	46.809654
50	0x41d10511	26.127474
51	0x41cc0eee	25.50729
52	0x3fba8fea	1.4575169
53	0x41d1a9f5	26.207987
54	0x41847557	16.557295
55	0x4211d2c4	36.455826
56	0x41b12588	22.143326
57	0x4193f773	18.495825
58	0x41ab3e33	21.40537
59	0x41b0331a	22.024952
60	0x41bb60d8	23.422287
61	0x41e01799	28.011522
62	0x41dfb216	27.961956
63	0x404daee2	3.213799

convs.0.bn2.running_var f4 [64]
0	0x434755fb	199.33586
1	0x4415888a	598.1334
2	0x4388fe7b	273.98813
3	0x43ad67f5	346.81216
4	0x43648a55	228.54036
5	0x435f34f2	223.20682
6	0x43cfd014	415.6256
7	0x442d676f	693.61615
8	0x438e74f4	284.9137
9	0x4408a0e6	546.51404
10	0x43335af6	179.35532
11	0x421a365f	38.553097
12	0x438ff51a	287.91486
13	0x431be9f4	155.91388
14	0x44473a29	796.90875
15	0x42f072ff	120.2246
16	0x43b3859c	359.04382
17	0x447ae2b9	1003.54254
18	0x441ff812	639.8761
19	0x42a7992e	83.79918
20	0x4332e5eb	178.89812
21	0x45456cc9	3158.799
22	0x4380416e	256.51117
23	0x42ebc3a9	117.88215
24	0x432da563	173.64604
25	0x430fc19e	143.75632
26	0x4319987f	153.59569
27	0x42d351d7	105.65984
28	0x434e6df9	206.42958
29	0x4304c197	132.75621
30	0x4401364a	516.84827
31	0x417e7da0	15.90567
32	0x434c638b	204.38884
33	0x42d90725	108.513954
34	0x45791c44	3985.7666
35	0x440965d9	549.5914
36	0x42ab81f9	85.75385
37	0x43584ab2	216.29178
38	0x441f43a2	637.05676
39	0x4300b818	128.71912
40	0x4380f695	257.92642
41	0x440243b8	521.0581
42	0x4348366b	200.21257
43	0x437d9de6	253.61679
44	0x43b34abe	358.58392
45	0x448b0aea	1112.3411
46	0x4390de07	289.7346
47	0x4305f954	133.97394
48	0x4304e4db	132.89397
49	0x43c53227	394.3918
50	0x4418ea99	611.6656
51	0x438c8520	281.04004
52	0x40025888	2.0366535
53	0x432899af	168.60033
54	0x43155785	149.34187
55	0x4344eb14	196.91827
56	0x43f9dcb5	499.72427
57	0x431cf5e7	156.96056
58	0x43c28823	389.06357
59	0x43046dda	132.42911
60	0x43affefb	351.99203
61	0x4428d98b	675.3991
62	0x437451ac	244.31903
63	0x40da747e	6.82672

convs.1.fc_full.weight f4 [128, 169]
0	0xbffa4e48	-1.955514
1	0xbf792e06	-0.9733585
2	0xbea88750	-0.32915735
3	0xc04dc3cd	-3.2150757
4	0x3f188c48	0.5958905
5	0x40022f92	2.0341535
6	0x403e0c5a	2.9695039
7	0x3f83f7e7	1.0310029
8	0x3e53c288	0.20679677
9	0xbfade86b	-1.3586553
10	0x4033320d	2.7999299
11	0x3f182acf	0.5944032
12	0xbeea5c11	-0.45773366
13	0xbf77aeeb	-0.9675128
14	0x40231211	2.5479777
15	0x404cbdbf	3.1990812
16	0xbea3a990	-0.31965303
17	0x3f1b87ad	0.607539
18	0xbffe5433	-1.9869446
19	0xbefe4cdf	-0.49668023
20	0x3f86e023	1.0537151
21	0xbfc36306	-1.5264595
22	0x3fd78da7	1.6840104
23	0x3fab1941	1.3367082
24	0x3ffb0b38	1.9612799
25	0xbf0c194a	-0.5472609
26	0xc02cd3ce	-2.7004275
27	0xc02385e2	-2.5550466
28	0x3f8b29b8	1.0872107
29	0x3fb9ff2a	1.4530995
30	0x402a7b23	2.6637657
31	0x3e8df2a0	0.2772417
32	0x3fae67b6	1.36254
33	0xbf8c9357	-1.0982465
34	0x402f039e	2.7345958
35	0x3fb34fcc	1.4008727
36	0x40386296	2.8810172
37	0x3fc67e26	1.5507247
38	0x40190c11	2.3913615
39	0xbfbb83b4	-1.4649568
40	0xbfe19181	-1.7622529
41	0xbf67ca48	-0.9054303
42	0x3f240287	0.64066356
43	0xbf8c6e04	-1.0971074
44	0x3e0b5cb8	0.13609588
45	0xc01dae83	-2.4637764
46	0x3f47c729	0.7803827
47	0x3fedd85b	1.8581651
48	0x3fec7da9	1.8475848
49	0xc093649f	-4.606033
50	0xc0927775	-4.577082
51	0x400afd63	2.1717155
52	0x403fe0ab	2.9980876
53	0xbfdea241	-1.7393266
54	0x3e308068	0.17236483
55	0xc0299e95	-2.650304
56	0xbea102b5	-0.31447378
57	0x408ccd17	4.4000354
58	0x3ff348b4	1.9006562
59	0x40105286	2.2550368
60	0xbfc5211f	-1.5400733
61	0x3f6269fe	0.8844298
62	0xbf9cad31	-1.2240354
63	0x3e6b286d	0.2296464
64	0x3efe33f5	0.49649015
65	0x3fbabfd8	1.4589796
66	0xc0749671	-3.8216822
67	0x40191c77	2.3923624
68	0x3fa1d7fc	1.2644038
69	0xbf9867a3	-1.1906627
70	0xbffece7c	-1.9906764
71	0xbeef98ba	-0.4679621
72	0xc0379ed5	-2.8690693
73	0xc00186b9	-2.0238478
74	0xbecd4d80	-0.4009819
75	0x3fb6b7ea	1.4274876
76	0x3eb335be	0.3500194
77	0x40ce7d69	6.452809
78	0xc090e6ac	-4.528158
79	0xbfb87098	-1.4409361
80	0x409680fe	4.703246
81	0xbd8dd29d	-0.06924937
82	0xc0203d77	-2.5037515
83	0xbf73c56d	-0.9522312
84	0xc01ba21b	-2.4317691
85	0x4004b484	2.0735178
86	0xc00d8e88	-2.2118244
87	0x4025dbaa	2.5915322
88	0xc0307529	-2.757151
89	0x40034662	2.0511708
90	0x405c6e22	3.444222
91	0xc0ecbc97	-7.398021
92	0xc0663231	-3.5968134
93	0x3fe492ce	1.7857301
94	0xc04757cb	-3.1147335
95	0x40346fbe	2.8193202
96	0xc030c5bd	-2.762069
97	0xbf409c20	-0.7523823
98	0xbff51b45	-1.9148947
99	0xbe986ead	-0.2977194
100	0xbf4c6834	-0.798465
101	0x3fb0c68a	1.3810589
102	0xbfee9149	-1.8638088
103	0x401baa9e	2.4322886
104	0x4059ae0b	3.4012477
105	0xbf86c396	-1.0528438
106	0x3ff2750f	1.8941973
107	0xbfc21e5d	-1.5165516
108	0xbf270adc	-0.65250945
109	0xc08082c0	-4.0159607
110	0xc01a1a0b	-2.4078395
111	0xc076c035	-3.8554814
112	0x40035236	2.0518928
113	0x40046c19	2.0690978
114	0xbfb4cb60	-1.4124565
115	0xc02a15a5	-2.657571
116	0x3e7865e8	0.24257624
117	0x405a2e2f	3.4090688
118	0x3f54e0b6	0.8315538
119	0xc04116f7	-3.0170267
120	0x3f30f5d0	0.6912508
121	0x3fa9e136	1.3271854
122	0xbf720768	-0.9454255
123	0x3e9f3817	0.3109748
124	0xc02dfa91	-2.7184184
125	0xc025d9ae	-2.591411
126	0x3e2ae1ca	0.16687694
127	0x3edf4423	0.43606672
128	0x3d119bf0	0.035549104
129	0x3d0ab3ab	0.03386275
130	0xbe5395f2	-0.20662668
131	0x408ffe60	4.4998016
132	0x416ddb73	14.866076
133	0x41697c58	14.592857
134	0x40eedc69	7.4644055
135	0x3f41c3bd	0.756893
136	0x4060305b	3.5029514
137	0x40d1cfb5	6.556605
138	0x40dce891	6.9033895
139	0x3ea774f3	0.32706413
140	0xc0986c77	-4.7632403
141	0xc136c24c	-11.422436
142	0xc0b8abf9	-5.7709928
143	0xc03088bf	-2.7583463
144	0xbf85e905	-1.0461737
145	0x3fb290e6	1.395047
146	0x403cd9c5	2.9507916
147	0x40783051	3.877949
148	0x40766763	3.8500602
149	0x40692dd7	3.6434228
150	0x3d5956df	0.053061362
151	0xc0289a62	-2.6344228
152	0xbfd5fd52	-1.6717932
153	0xc0919420	-4.5493317
154	0xc0740c3e	-3.8132472
155	0x3ecafb24	0.3964473
156	0xbc943252	-0.0180904
157	0x4030590a	2.7554345
158	0x40a473f2	5.1391535
159	0x4000e39b	2.013892
160	0x3ff4fcef	1.9139689
161	0x3fec34b8	1.8453588
162	0x3e1bbb6d	0.15208216
163	0xbee5dfae	-0.44897217
164	0xbe1b9c23	-0.1519628
165	0xbc53be11	-0.012923733
166	0x3d08c748	0.033393174
167	0x3cea4128	0.028595522
168	0xbc147800	-0.009061813
169	0x40261633	2.595105
170	0x400a0e27	2.1571138
171	0x3f0ccd4d	0.55000764
172	0xbf28db01	-0.65959173
173	0x3fe5c146	1.7949607
174	0x3f817202	1.0112917
175	0x3e751993	0.23935537
176	0xc0273667	-2.6126955
177	0x3f817cb9	1.0116187
178	0x3d124c0e	0.035717063
179	0xc0205ea7	-2.5057771
180	0xbfaf98e3	-1.3718532
181	0x3fb0c271	1.3809339
182	0xbec32b24	-0.3811885
183	0x3ed6e029	0.41967896
184	0xbf671744	-0.90269876
185	0xbe4cf684	-0.20015913
186	0x3f7db71a	0.99107516
187	0xbe48ea30	-0.19620585
188	0xc00a6ad0	-2.1627693
189	0x3f855fda	1.0419877
190	0xbf1dc8ed	-0.61634713
191	0x3fd924ab	1.6964315
192	0x403238de	2.784721
193	0x401b219a	2.4239259
194	0x404cf77a	3.2026048
195	0xbe871790	-0.26385164
196	0x3f6c8191	0.923852
197	0x40430165	3.04696
198	0x3fc267ca	1.5187924
199	0xbfacedff	-1.3510131
200	0xbee96104	-0.4558183
201	0x3f8237c7	1.0173272
202	0x404b5b47	3.1774461
203	0x40205446	2.5051436
204	0xbfef6e3b	-1.8705515
205	0x408a3036	4.318385
206	0x4048410c	3.1289701
207	0x3f833767	1.0251282
208	0x3f2acecc	0.66721797
209	0x3fb60d84	1.4222875
210	0xbfa95da0	-1.3231697
211	0xbde76280	-0.11298084
212	0x3fad1ae3	1.352383
213	0xbf5dc99e	-0.8663577
214	0xc045ad70	-3.0887108
215	0x3faffd24	1.3749127
216	0xc0a5f4fd	-5.186156
217	0xbcb43e94	-0.022002496
218	0xbe2f68b3	-0.17129783
219	0xc01001fd	-2.2501214
220	0x3fc190dc	1.5122333
221	0x400f7652	2.2415967
222	0x405eb7fb	3.4799793
223	0xc0252e3e	-2.5809474
224	0xbf72feaa	-0.94919837
225	0x3f914567	1.1349305
226	0x3f71ee26	0.9450401
227	0xbfe85a21	-1.8152505
228	0xc091022a	-4.531514
229	0x3ea6f5c0	0.32609367
230	0x40087935	2.132398
231	0xbf0a8d9d	-0.54122335
232	0x401eaf6b	2.4794567
233	0x3fc156de	1.5104635
234	0xbee1fe2d	-0.44139233
235	0xbfddf4ec	-1.7340369
236	0x3dcd5bfc	0.1002731
237	0x409a4295	4.8206277
238	0xc01ccac9	-2.449877
239	0xbf04c9c3	-0.51870364
240	0x3fe6acd0	1.8021488
241	0xbf48b095	-0.7839444
242	0xc09b9e29	-4.8630567
243	0x40be3a61	5.9446263
244	0xbf8a4b1e	-1.0804174
245	0x3f0c4404	0.54791284
246	0xbef0342f	-0.46914813
247	0xc046d5e6	-3.1068053
248	0x3fdd2f29	1.7280017
249	0x4035f7b9	2.8432448
250	0x40204473	2.5041778
251	0x3ebcf57b	0.36906037
252	0xc0c65bc7	-6.1987033
253	0xbfbb0430	-1.4610653
254	0xbf32f4b8	-0.6990466
255	0x3e6a26f0	0.22866416

convs.1.fc_full.bias f4 [128]
0	0x3d7cd14f	0.06172305
1	0x3c103ce8	0.008803584
2	0x3d90c52b	0.07068857
3	0xbc38c674	-0.011277784
4	0xbc797e70	-0.015227899
5	0xbb9ad974	-0.0047256295
6	0xbd20ee8d	-0.03929
7	0x3d6f924f	0.05848914
8	0xbd4e9125	-0.05043139
9	0xbd16c236	-0.036806308
10	0xbd0be1b1	-0.034150783
11	0x3d4ba12a	0.049714245
12	0xbd4f106b	-0.050552767
13	0x3d8558b5	0.0651106
14	0xbd85c887	-0.06532388
15	0x3d790712	0.06079776
16	0xbb74762c	-0.0037301881
17	0x3c54a8be	0.012979684
18	0xbcaa877e	-0.02081656
19	0x3b002c10	0.0019557513
20	0xbca726ec	-0.020404302
21	0x3ccc70e2	0.02495617
22	0xbd4f1c39	-0.050564025
23	0x3d7d72ed	0.06187718
24	0xbd34bbc2	-0.044124372
25	0xbd65f91f	-0.056145784
26	0x3c2e5916	0.010641357
27	0xbc59d844	-0.013296191
28	0xbcc93638	-0.024561986
29	0xbd4a20ea	-0.049347796
30	0xbc5cbd27	-0.013472832
31	0xbcc6c5de	-0.024264272
32	0xbd49f328	-0.049304157
33	0x3d8d6075	0.06903163
34	0x3d05444e	0.032535844
35	0xbd89dc67	-0.067314915
36	0x3ae33da5	0.0017337097
37	0xbd22f930	-0.039788425
38	0x3c5145ef	0.012773021
39	0x3dc0bf64	0.09411505
40	0x3d1c4934	0.03815575
41	0x3d1f64bf	0.03891444
42	0x3da51a98	0.08061713
43	0xbd3d9311	-0.04628283
44	0x3d7ae927	0.061257508
45	0xbc95a27a	-0.018265951
46	0xbd11df27	-0.035613205
47	0x3d269346	0.040667795
48	0xbcc615ee	-0.024180379
49	0xbd34eaba	-0.044169165
50	0x3d902fe2	0.07040383
51	0xbdab66d3	-0.083692215
52	0x3d079db1	0.03310937
53	0x3d5d1257	0.05397257
54	0xbd71eaf1	-0.05906195
55	0xbdb2346d	-0.08701406
56	0xbd8b54dc	-0.06803295
57	0x3cd1fbf4	0.025632836
58	0x3ccff896	0.02538709
59	0xbc11b4e7	-0.008893228
60	0xbc3971a6	-0.0113186
61	0x3c46a141	0.012123407
62	0xbd114d9a	-0.035474397
63	0x3c36bb1f	0.011153012
64	0xbccedd06	-0.025251877
65	0xbb3d5f2c	-0.0028895838
66	0x3d06e858	0.032936424
67	0xbd3d5061	-0.046219233
68	0x3d56f91e	0.05248367
69	0x3d956ea4	0.07296494
70	0x3c7940fc	0.015213247
71	0xbd5eaa1b	-0.054361444
72	0xbbc70d24	-0.0060745645
73	0xbd30f4f6	-0.043202363
74	0xbd4caaad	-0.049967457
75	0xbd9e2710	-0.07722294
76	0xb9f9727c	-0.00047578278
77	0x3d2d6ef2	0.042342134
78	0xbd6d07b9	-0.057868693
79	0x3d2c4a06	0.04206278
80	0xbba51536	-0.005037929
81	0xbceb622e	-0.02873334
82	0xbd7e9f9c	-0.062163934
83	0x3982fbda	0.00024983176
84	0xbd9e66de	-0.07734464
85	0x3b8b2f53	0.004247585
86	0xbcf9379a	-0.03042202
87	0x3c21d578	0.009877555
88	0xbc6c840b	-0.014435778
89	0x3c39068e	0.011293067
90	0x3d8e0d3a	0.069361165
91	0xbc2ee6fa	-0.010675186
92	0xbc1c7ac1	-0.009550751
93	0xbd1f3cd9	-0.03887639
94	0xbcc0de8f	-0.023543624
95	0xbc987604	-0.018610962
96	0x3ccb5308	0.024819866
97	0x3d81609a	0.063172534
98	0x3cbf433d	0.023347491
99	0xbd8c34c1	-0.068459995
100	0xbb85b00f	-0.0040798257
101	0x3dc76daf	0.09737717
102	0xbd5c9326	-0.05385127
103	0xbd98695e	-0.07441972
104	0xbd9e9c61	-0.07744671
105	0x3d7d453b	0.0618336
106	0xbd80ccd6	-0.06289069
107	0x3d810c95	0.06301228
108	0x3d1204e2	0.035649188
109	0x3d518feb	0.05116264
110	0x3d48fb88	0.049068004
111	0x3d862b61	0.065512426
112	0x3be0015a	0.0068360986
113	0xbd068a18	-0.03284654
114	0x3d5d7ba0	0.054072976
115	0x3ce3f13f	0.027824996
116	0xbd458bae	-0.048228912
117	0x3d15b391	0.0365482
118	0xbce9c53b	-0.02853643
119	0xbd005d54	-0.031339005
120	0x3aa7d511	0.0012804588
121	0x3dad79d1	0.084705
122	0xbb8e4f24	-0.0043429304
123	0x3cd2f202	0.025750164
124	0x3c93e7a5	0.018054793
125	0x3c929c25	0.017896721
126	0x3d7b4812	0.06134803
127	0xbd9210aa	-0.07132085

convs.1.bn1.weight f4 [128]
0	0x40c95caa	6.2925615
1	0x4057673a	3.3656754
2	0x40c273eb	6.07665
3	0x3ffbe8ec	1.9680457
4	0x4054aaec	3.3229322
5	0x4098a576	4.770198
6	0x3ff2342b	1.892217
7	0x408808ba	4.2510653
8	0x3fa0705f	1.2534293
9	0x406a63ee	3.6623492
10	0x409db78a	4.9286547
11	0x40e3bde7	7.1169314
12	0x41102dd3	9.011188
13	0x4100458a	8.016977
14	0x41050a09	8.31495
15	0x41242a9c	10.260403
16	0x40cc0ae5	6.37633
17	0x40c46e3c	6.1384563
18	0x40a6ba0e	5.2102118
19	0x40b99142	5.7989817
20	0x40c8391f	6.256973
21	0x40add70c	5.432501
22	0x40da214a	6.8165636
23	0x40830269	4.094044
24	0x40efe5fc	7.4968243
25	0x406625c0	3.596054
26	0x401744c1	2.3635714
27	0x40a246b1	5.0711293
28	0x40b5ea4c	5.6848507
29	0x40c03f72	6.007745
30	0x40cdceae	6.4314795
31	0x3f899a6f	1.0750254
32	0x401006bc	2.250411
33	0x40ac83dc	5.391096
34	0x40abbb7c	5.3666363
35	0x40b2eff9	5.5917935
36	0x406f4e70	3.7391624
37	0x40a85811	5.2607503
38	0x404b10f5	3.17291
39	0x407974c7	3.8977525
40	0x4048ea38	3.1392956
41	0x406a4d2b	3.66096
42	0x40f535c8	7.662815
43	0x410141ed	8.078595
44	0x40598d62	3.3992543
45	0x40ee6dc3	7.4508986
46	0x40767fca	3.8515496
47	0x40a97c69	5.296437
48	0x409a5e6c	4.824026
49	0x4099c052	4.8047266
50	0x40c68113	6.203256
51	0x40bba316	5.863658
52	0x40152de4	2.330926
53	0x408ad196	4.338084
54	0x409cd753	4.9012847
55	0x4026eb2f	2.6081045
56	0x40987f4b	4.7655387
57	0x40f2db3d	7.5892625
58	0x4130502b	11.019572
59	0x40e4baad	7.1477876
60	0x40be941e	5.9555807
61	0x3ddf9b34	0.109182745
62	0x404edf77	3.2323892
63	0x409801fb	4.7502418
64	0x3fe884e0	1.816555
65	0x40d42597	6.6295886
66	0x3ff445a3	1.9083751
67	0x3ff9d131	1.9516965
68	0x3fe7254d	1.8058258
69	0x409b8c7c	4.860899
70	0x406acaa0	3.6686172
71	0x40cea12a	6.4571733
72	0x40966534	4.699854
73	0x402c983b	2.6967914
74	0x3fffacf4	1.9974656
75	0x4029f11d	2.6553414
76	0x40b7f4f5	5.748652
77	0x41650654	14.314045
78	0x3fd6d5f8	1.6784048
79	0x3fbbc4d6	1.4669445
80	0x3f84a9f4	1.0364366
81	0x406d41a5	3.7071316
82	0x3fd7c228	1.6856127
83	0x403ccf69	2.9501593
84	0x3f8f8f28	1.1215563
85	0x401ec764	2.4809198
86	0x401ee5da	2.482779
87	0x40d19874	6.54986
88	0x4040a1c4	3.0098734
89	0x3fa86bc7	1.3157891
90	0x408ec72e	4.461814
91	0x3f34fa18	0.7069411
92	0x3fd985c3	1.6993946
93	0x4056b278	3.3546429
94	0x3fb8014f	1.4375399
95	0x40a752be	5.2288504
96	0x3f4c73ed	0.7986439
97	0x405874cb	3.3821285
98	0x3ff35b01	1.9012147
99	0x3fdb2c8d	1.7122971
100	0x3ecf0598	0.40433955
101	0x40e210a4	7.0645313
102	0x4049a137	3.1504648
103	0x40d0c176	6.523616
104	0x3fe70cd8	1.8050795
105	0x40834589	4.102238
106	0x40201274	2.5011263
107	0x40ae763d	5.4519334
108	0x40d3c345	6.6175866
109	0x4030e3e6	2.7639098
110	0x40a50d96	5.1579084
111	0x401be87f	2.4360654
112	0x40946bdb	4.638166
113	0x3faca284	1.3487096
114	0x40d46bef	6.6381755
115	0x3fcf793a	1.620887
116	0x3fbae1bc	1.4600139
117	0x401cdde2	2.4510427
118	0x41031cb3	8.194507
119	0x405c6146	3.443437
120	0x3f881520	1.0631447
121	0x4054eef0	3.3270836
122	0x3fe59268	1.7935305
123	0x3f834bfc	1.0257564
124	0x400871d8	2.1319485
125	0xbee6d54a	-0.45084602
126	0x40cab749	6.3348737
127	0x406c4895	3.69193
