results/Prediction/2023-06-14/23:09:15.363000/models/model25.pth (torch, 340522 bytes, 34 tensors)

embedding.weight f4 [64, 92]
0	0x3f0f0636	0.5586885
1	0x3f2b2ddd	0.66866857
2	0xbf2b34a7	-0.66877216
3	0xbe3f7aec	-0.18699235
4	0xbff01da6	-1.8759048
5	0xbfba40a9	-1.4550983
6	0xbff60182	-1.921921
7	0xbee4e6d7	-0.44707367
8	0xbdea54a3	-0.114419244
9	0x3ed7abd5	0.42123285
10	0x3ec06ce0	0.37583065
11	0xbe64a999	-0.22330321
12	0x3f15c7b4	0.5850785
13	0x3b83ceb9	0.004022446
14	0x3efa6589	0.4890559
15	0x3e6f4ed1	0.2336991
16	0xbf360109	-0.7109533
17	0xbe87f7b4	-0.2655617
18	0xbeec214d	-0.46119156
19	0x3de77ba2	0.11302878
20	0x3f2a3e3d	0.6650122
21	0xbf1e34f5	-0.61799556
22	0xbf1f27ab	-0.62169904
23	0xbd176d19	-0.036969278
24	0xbf5dfd8f	-0.86715025
25	0xbeaeea64	-0.341632
26	0xbef846f4	-0.48491633
27	0x3effc52b	0.49955115
28	0xbf87adf0	-1.0599957
29	0xbf8965fb	-1.0734247
30	0x3b18bf34	0.0023307325
31	0xbf690cab	-0.91034955
32	0xbeff6ca4	-0.49887574
33	0xbe77c40e	-0.24195883
34	0x3e945010	0.28967333
35	0xbf126c57	-0.57196563
36	0x3e493f02	0.19652942
37	0xbd8d46a3	-0.068982385
38	0xbf7a61c7	-0.97805446
39	0xbe390af4	-0.18070585
40	0x3f3e673b	0.7437627
41	0xbee8c996	-0.45466298
42	0xbf536ac4	-0.82584786
43	0x3ed2ada0	0.4114809
44	0x3e0480c6	0.12939748
45	0x3d4538b1	0.04814977
46	0x3f39f419	0.7263809
47	0x3e84319c	0.258191
48	0x3c8125ed	0.015765155
49	0xbeb5737d	-0.35439673
50	0xbec72ae6	-0.38899916
51	0xbf966639	-1.1749946
52	0xbef16bb5	-0.47152486
53	0xbd0b50ca	-0.034012593
54	0x3ed628a9	0.41827896
55	0x3f1f4f38	0.62230253
56	0xbecc9b3f	-0.39962193
57	0x3e8b6a17	0.27229378
58	0xbf0c946d	-0.5491398
59	0x3ee735a7	0.4515812
60	0x3e50ccfa	0.20390692
61	0x3f13a35c	0.5767114
62	0xbfa06798	-1.2531614
63	0xbee11110	-0.4395833
64	0xbe00de4f	-0.12584804
65	0xbefed936	-0.49775094
66	0x3dbc3768	0.091902554
67	0x3f9a8d4d	1.2074372
68	0xbedae5e8	-0.4275353
69	0xbc950af5	-0.018193701
70	0xbf813b68	-1.0096254
71	0xbd1d891c	-0.038460836
72	0x3ef26ad0	0.47347116
73	0xbea279b2	-0.3173347
74	0xbe644959	-0.22293605
75	0x3e2210b1	0.1582668
76	0xbcc8bda0	-0.024504483
77	0xbe8aa49b	-0.2707871
78	0x3da3fccc	0.080072016
79	0xbf347f7d	-0.7050703
80	0xbfb22dac	-1.3920188
81	0x3f140e70	0.5783453
82	0xbf658c6d	-0.896674
83	0xbeac9127	-0.33704492
84	0xbe6cfd2b	-0.23143451
85	0x3df023eb	0.11725601
86	0xbee910a3	-0.45520505
87	0xbf31a604	-0.69393945
88	0x4023fd4b	2.5623348
89	0xbef2ab4d	-0.47396317
90	0xbf437f0b	-0.7636573
91	0x3e320bae	0.17387268
92	0x3ea3ba0b	0.31977877
93	0x3b7e507f	0.0038805304
94	0xbe838a00	-0.25691223
95	0xbf22dac9	-0.6361509
96	0x3ee4e453	0.44705448
97	0x3e13a639	0.14418878
98	0x3e5a1178	0.21295726
99	0x3d9b47d3	0.07582059
100	0x3f69077c	0.91027045
101	0xbf4821eb	-0.78176755
102	0x3e398f03	0.18120961
103	0xc001f0c8	-2.0303211
104	0xbfb82d85	-1.4388891
105	0xbe8add1a	-0.27121812
106	0xbd8799bb	-0.06621119
107	0x3e881cf1	0.2658458
108	0x3d5a9347	0.05336311
109	0x3d5954d7	0.053059425
110	0xc049bd3c	-3.152175
111	0xbf9c897d	-1.2229458
112	0xbe52df0b	-0.20592897
113	0x3fc7f43a	1.5621407
114	0xbe812e4e	-0.2523064
115	0x3dd28ce5	0.1028078
116	0xbfb6f385	-1.4293066
117	0xbde7024c	-0.11279735
118	0x3e8e06d2	0.27739578
119	0xbeee3a49	-0.46528843
120	0x3e9ad5a4	0.3024112
121	0xbf45bd78	-0.7724223
122	0xbbbd1315	-0.005770097
123	0x3c92ac5d	0.017904455
124	0x3f03e802	0.5152589
125	0xbee9a7ed	-0.4563593
126	0xbe55f441	-0.20893957
127	0x3edfbd59	0.43699148
128	0xbfa0106a	-1.2505009
129	0xbe96e270	-0.29469633
130	0xbf843fcc	-1.0331969
131	0xbe04b95a	-0.12961331
132	0x3f08ddbf	0.5346336
133	0xbb1439f5	-0.0022617553
134	0xbeeac6b5	-0.45854726
135	0xbeeb4c2b	-0.4595655
136	0xbf86102e	-1.0473688
137	0x400788ac	2.1177168
138	0x3d8ed007	0.06973272
139	0xbd2af6cd	-0.041739274
140	0xbf02fc75	-0.5116647
141	0x3df7951a	0.12088986
142	0x3d4712ae	0.0486018
143	0x3d62bab4	0.055353835
144	0xbc961d22	-0.018324438
145	0x3f2ac0d1	0.66700464
146	0xbf5287bc	-0.82238364
147	0x3edd3d8c	0.4321102
148	0xbfff9d29	-1.9969836
149	0xbfb8cf54	-1.4438272
150	0x3e94c2b6	0.29054803
151	0x3dfab5aa	0.12241681
152	0xbf83df68	-1.0302553
153	0x3ed290a8	0.4112599
154	0xbe90d0d7	-0.28284332
155	0xbf04bdb2	-0.5185195
156	0xbf729f68	-0.94774485
157	0x3ea1fc6b	0.31637892
158	0xbd8b5062	-0.06802441
159	0x3f73d0ac	0.95240283
160	0xbec5834c	-0.38576734
161	0x3d2bdbea	0.041957773
162	0xbe4415e1	-0.19148971
163	0x3dccf629	0.10007889
164	0xbf239da8	-0.6391244
165	0xbf31f676	-0.69516695
166	0xbecedcbf	-0.4040279
167	0xbdd04fae	-0.10171448
168	0xbd97242d	-0.07379947
169	0x3dfeadbe	0.124354824
170	0xbe9714f8	-0.29508185
171	0xbedac569	-0.42728737
172	0xbf13060c	-0.574311
173	0x3e918bd9	0.28427008
174	0xbf508ef4	-0.8146813
175	0xbee38cd4	-0.4444338
176	0x3f9fb469	1.2476932
177	0xbefcd0e4	-0.4937812
178	0xbf1d95cb	-0.6155669
179	0xbf76e375	-0.9644082
180	0x3fc2d04f	1.5219821
181	0xbe302889	-0.17202963
182	0xbec7cc08	-0.3902285
183	0x3daa2d2e	0.083093986
184	0xc003c559	-2.0589201
185	0xbf63c643	-0.889744
186	0x3f0693af	0.525691
187	0xc0631941	-3.5484164
188	0xbfb1682d	-1.3859917
189	0xc0859ec1	-4.175629
190	0xbf93e08f	-1.1552905
191	0xbfe521ab	-1.79009
192	0xbfbab950	-1.4587803
193	0xbf7aee22	-0.9801961
194	0xbf93433c	-1.1504893
195	0x3f9f1db3	1.2430938
196	0x40129d54	2.2908525
197	0x3f93c19b	1.1543459
198	0x3f4a0ef5	0.7892907
199	0x3f9f6018	1.24512
200	0xbd1154a3	-0.035481106
201	0xbf1f2623	-0.62167567
202	0xc0195a0f	-2.3961217
203	0x3f51f608	0.8201604
204	0xbf0a26fe	-0.5396575
205	0xbf7f4949	-0.997212
206	0x3dd05d68	0.10174066
207	0x3d9fc010	0.07800305
208	0x3eba0b86	0.36336917
209	0x3fc82a6c	1.5637946
210	0xbedf1d6b	-0.43577132
211	0xbfbfe8cf	-1.4992923
212	0xbf7c99be	-0.9867209
213	0x3f62442a	0.8838526
214	0x3f9be462	1.2179072
215	0xbf2ba7ce	-0.67052925
216	0x3cf3f81f	0.0297814
217	0xbf974283	-1.1817173
218	0xbea047fc	-0.3130492
219	0xbdaafbc0	-0.08348799
220	0x3f7791e0	0.9670696
221	0xbe50471b	-0.20339625
222	0xbe3428ee	-0.17593738
223	0xbd90181e	-0.0703585
224	0x3eb83063	0.35974416
225	0x3f85e14f	1.0459384
226	0xbfc31fad	-1.5244042
227	0xbf9a8715	-1.2072474
228	0xbdb1b771	-0.08677567
229	0xbf38f424	-0.7224753
230	0xbf6dfc95	-0.92963535
231	0xbf70f7b0	-0.9412794
232	0x3f2338a9	0.6375833
233	0x3e471cfa	0.19444647
234	0x3eeb0835	0.459047
235	0xbec1c0e2	-0.3784247
236	0xbfab5cb0	-1.3387661
237	0xbfc0f078	-1.5073385
238	0xbf8777f5	-1.0583483
239	0x3e488eba	0.19585696
240	0x3f923037	1.1420964
241	0x3fafa63f	1.3722609
242	0xbed8a543	-0.42313585
243	0xbf75e998	-0.9605956
244	0xbf50ce5a	-0.8156487
245	0x3ea42d61	0.3206587
246	0x3f303611	0.688325
247	0x3dbea130	0.09308088
248	0xbf2d3e36	-0.6767305
249	0xbe70916a	-0.23492971
250	0xbd77e4b5	-0.060520846
251	0xbed83408	-0.42227197
252	0x3f9c17c1	1.2194749
253	0xbcb788d0	-0.022404104
254	0xbf82b7fe	-1.02124
255	0x3dc78fdb	0.09744235

convs.0.fc_full.weight f4 [128, 169]
0	0x3ec98e42	0.39366347
1	0x3e393266	0.18085632
2	0xbfb173cd	-1.3863465
3	0xbf309a03	-0.68985003
4	0xbea72d1f	-0.32651612
5	0x3ea9bf60	0.3315382
6	0xbf82da7a	-1.0222924
7	0xbe870893	-0.2637373
8	0xbedb7ad1	-0.4286714
9	0xbe957cc0	-0.2919674
10	0x3e9ba72d	0.30400982
11	0xbe8cf582	-0.27531058
12	0xbf926240	-1.1436234
13	0xbe3db940	-0.18527699
14	0xbf80758d	-1.0035874
15	0xbf4c7d47	-0.7987866
16	0xbebf39c0	-0.37348747
17	0x3ed08202	0.40724188
18	0xbf06e54e	-0.5269364
19	0x3f00bbcc	0.50286555
20	0xbe308a68	-0.17240298
21	0xbe103116	-0.14081225
22	0xbef09a42	-0.4699269
23	0x3f412f64	0.7546294
24	0xbf801a13	-1.0007957
25	0x3da036ff	0.0782299
26	0xbe13f02c	-0.14447087
27	0x3da758e7	0.08171254
28	0xbf3dc9fd	-0.74136335
29	0xbe82351b	-0.2543114
30	0x3eb2b568	0.34904027
31	0xbd5ad263	-0.053423297
32	0x3f28a6dc	0.6587961
33	0xbe0a3d61	-0.13499977
34	0x3f441a43	0.7660257
35	0x3f20e296	0.6284574
36	0xbef5980a	-0.4796756
37	0xbe0a48c2	-0.13504317
38	0xbc9c2dfe	-0.0190649
39	0xbf1e195c	-0.61757445
40	0xbe66d15a	-0.22540799
41	0xbebb2967	-0.36555025
42	0x3fb2c707	1.3966988
43	0x3e0c03c2	0.13673308
44	0xbf61c98b	-0.88198155
45	0x3f89849d	1.0743595
46	0xbe7da16e	-0.24768612
47	0xbea53a3c	-0.32270992
48	0x3ed9c239	0.42530993
49	0xbf60ed79	-0.87862355
50	0xbf2890eb	-0.6584613
51	0xbfa974f3	-1.3238815
52	0xbeeac9f2	-0.45857197
53	0xbecde28c	-0.40211904
54	0xbf18d496	-0.5969938
55	0xbf2b4a80	-0.6691055
56	0x3f3b0518	0.7305465
57	0x3ea0df84	0.3142053
58	0x3e240b45	0.16019924
59	0x3ed9d164	0.42542565
60	0xbee49ea4	-0.44652283
61	0x3f28a029	0.65869385
62	0x3e680941	0.2265978
63	0x3ef087c8	0.46978593
64	0x3e7e7ed0	0.24853063
65	0xbce8c6bf	-0.028415082
66	0xbf851cd8	-1.0399427
67	0x3f2302ca	0.6367613
68	0x3ed439b9	0.4145029
69	0xbee2f730	-0.44329214
70	0x3e6da23f	0.23206423
71	0x3f73e960	0.95277977
72	0xbe0cfd62	-0.13768533
73	0xbf02715a	-0.5095421
74	0x3e55fcf4	0.20897275
75	0xbe5860e1	-0.21130706
76	0xbf2371ef	-0.63845724
77	0x3f151c1b	0.5824601
78	0x3d493155	0.049119312
79	0x3e793366	0.24336013
80	0xbf7c513c	-0.98561454
81	0x3fc725ec	1.5558448
82	0x3e0b3cd0	0.13597417
83	0xbec12180	-0.3772087
84	0x3eac5fe7	0.33666918
85	0x3facf7da	1.3513138
86	0xbf7e034b	-0.99223775
87	0x3eb28b3e	0.34871858
88	0xbe24a78a	-0.16079536
89	0x3ea2d308	0.3180163
90	0x3de48c83	0.11159613
91	0xbe972763	-0.29522237
92	0x3d1d7675	0.038443048
93	0x3d069275	0.032854516
94	0xbf28b518	-0.6590133
95	0x3e427e58	0.18993509
96	0xbe8e6489	-0.27811077
97	0x3e7beb4f	0.24601482
98	0xbde8787c	-0.113511056
99	0x3f52e202	0.8237611
100	0xbf182eaf	-0.59446234
101	0x3fc0de58	1.5067854
102	0x3d414384	0.04718353
103	0xbe830944	-0.25593007
104	0x3e88465d	0.26616183
105	0x3f0cb895	0.5496915
106	0x3f8f5dd2	1.1200507
107	0x3f2c7d29	0.6737848
108	0xbcaa9d05	-0.020826826
109	0x3f1ce673	0.6128914
110	0x3cc5dcd8	0.024153158
111	0x3e74e7f6	0.23916611
112	0x3d5b8411	0.053592745
113	0xbd968a3e	-0.07350586
114	0xbebb7a44	-0.3661672
115	0xbe8ba6ae	-0.27275604
116	0xbcd6cfff	-0.026222227
117	0xbf5b525f	-0.85672563
118	0xbe691910	-0.22763467
119	0x3f4e4fb6	0.8059038
120	0x3e9c0530	0.30472708
121	0xbebe31c1	-0.37147334
122	0x3e0754e3	0.13215975
123	0x3e9f5271	0.31117585
124	0xbe017292	-0.12641361
125	0xbe72ec36	-0.2372292
126	0xbf47e47c	-0.78083014
127	0x3eaa37e4	0.33245766
128	0x3cc635c5	0.024195561
129	0x3d768d3a	0.060193278
130	0xbe90271f	-0.28154847
131	0x3dcda281	0.10040761
132	0x3e90ab2a	0.28255588
133	0x3e772c00	0.24137878
134	0x3cf0c3ea	0.029390294
135	0xbec5a6da	-0.3860386
136	0xbe75c649	-0.24001421
137	0xbdb45b09	-0.08806426
138	0x3dbfa2bd	0.09357212
139	0x3dcc0c72	0.09963311
140	0x3d6380fe	0.05554294
141	0xbeba2990	-0.36359835
142	0xbc6e227b	-0.014534588
143	0x3eb5abd8	0.3548267
144	0x3cae6850	0.021289974
145	0x3d2854b7	0.041096415
146	0xbd96845b	-0.073494636
147	0xbdfc43e0	-0.12317634
148	0xbd355bb1	-0.044276897
149	0x3da74f99	0.08169479
150	0x3e16c576	0.14723763
151	0x3eb75423	0.3580638
152	0x3d442944	0.047890916
153	0xbead779f	-0.33880326
154	0x3dd3c3e6	0.10340099
155	0xbf6f42c4	-0.9346125
156	0xbf966840	-1.1750565
157	0xbf33767d	-0.70102674
158	0xbef0470c	-0.46929204
159	0xbea29092	-0.31750923
160	0xbe79a5a8	-0.24379599
161	0xbe88e8f1	-0.2674022
162	0xbf896f0d	-1.0737015
163	0xbfa114a1	-1.258442
164	0xbf11ea7e	-0.5699843
165	0x3cbc31f9	0.022973048
166	0x3d36e723	0.044654023
167	0x3c46e725	0.01214007
168	0x3d84ca38	0.06483883
169	0x3f7f5749	0.9974256
170	0xbfb2f8f3	-1.3982223
171	0xbe9a2236	-0.30104226
172	0x3e8c1c0e	0.27365154
173	0xbe702668	-0.23452151
174	0x3d928193	0.071536206
175	0xbed636f6	-0.41838807
176	0xbd2aca94	-0.0416971
177	0xbf2eeffb	-0.6833493
178	0xbf530983	-0.8243639
179	0xbe51dcf6	-0.20494446
180	0xbe08afaf	-0.13348268
181	0xbf3f5cbd	-0.7475088
182	0x3dd74e83	0.10513022
183	0xbde6e2bb	-0.11273714
184	0xbf1d2608	-0.61386156
185	0xbf526f17	-0.8220076
186	0xbe8df5bc	-0.27726543
187	0xbe8f1363	-0.27944478
188	0xbe2b8fbf	-0.16754054
189	0xbed277f1	-0.41107133
190	0xbeec5215	-0.46156374
191	0x3ebd714f	0.3700051
192	0xbee48917	-0.4463584
193	0x3f324590	0.69637394
194	0x3ed13038	0.408571
195	0xbf51ff19	-0.82029873
196	0x3e710ec6	0.23540792
197	0xbebb05db	-0.36527905
198	0xbeb5b18b	-0.35487017
199	0x3dc80a0a	0.0976754
200	0xbe3fc02f	-0.18725656
201	0x3e7b48cd	0.2453949
202	0xbf08727c	-0.5329969
203	0x3f9e71f2	1.2378523
204	0x3eec7c6d	0.4618868
205	0xbedc4f89	-0.4302943
206	0xbf225780	-0.63414764
207	0x3efa52ef	0.48891398
208	0xbf712050	-0.9418993
209	0x3f56bd89	0.8388296
210	0x3deef720	0.11668229
211	0x3edb1318	0.42788005
212	0xbf0d79fe	-0.5526427
213	0xbed5ce36	-0.4175889
214	0x3fa0972e	1.2546136
215	0x3f40c4c0	0.75300217
216	0xbe231cf3	-0.15929012
217	0x3e915d54	0.28391516
218	0xbec9f904	-0.39447796
219	0x3c25f258	0.01012858
220	0xbf39c726	-0.725695
221	0xbef8d093	-0.4859663
222	0xbcf8aea5	-0.030356715
223	0xbe7d83a7	-0.24757253
224	0xbe2305e7	-0.1592022
225	0x3e0ce440	0.13758945
226	0x3e49e830	0.19717479
227	0xbeb960fe	-0.36206812
228	0xbf7d1b9c	-0.98870254
229	0xbf42bc56	-0.7606863
230	0x3e4a614a	0.19763675
231	0xbec1d7bd	-0.37859908
232	0x3f0b4d6d	0.5441502
233	0xbeec657d	-0.4617118
234	0xbf8e26d8	-1.1105604
235	0x3fea5a10	1.8308735
236	0x3f161a27	0.58633655
237	0x3fc5714c	1.54252
238	0xbf37467b	-0.7159192
239	0x3e7c740c	0.24653643
240	0x3fdec393	1.7403435
241	0xbef51e1a	-0.47874528
242	0x401ebce7	2.4802797
243	0xbe9c855c	-0.30570495
244	0xbf03b0a1	-0.5144139
245	0xbde89df3	-0.113582514
246	0xbf688eac	-0.908427
247	0xbea328b1	-0.31866983
248	0x3f14cb38	0.5812259
249	0x3f900df7	1.1254262
250	0xbfacc4b8	-1.3497534
251	0x3f9b3a88	1.2127237
252	0x3f4b5186	0.7942127
253	0x3fe98574	1.8243852
254	0x3f830ec3	1.023888
255	0x3e818f85	0.2530481

convs.0.fc_full.bias f4 [128]
0	0xbc8a4120	-0.016876757
1	0x3d282ef1	0.04106039
2	0xbdc23cc2	-0.09484245
3	0xbc146c39	-0.009059005
4	0xbc5e2732	-0.01355915
5	0x3e06e4f1	0.13173272
6	0x3ccfa760	0.025348365
7	0xbca2b227	-0.01986034
8	0xbd18e76b	-0.037330072
9	0xbc52d961	-0.01286921
10	0x3c7bd54a	0.015370676
11	0x3b204a22	0.002445825
12	0x3d94ca3b	0.07265135
13	0xbd7d3bea	-0.061824717
14	0x3db2a85b	0.087235175
15	0x3ccdc520	0.02511841
16	0xbd8b6597	-0.06806486
17	0x3b7830f0	0.0037870966
18	0xbb4bf593	-0.0031121715
19	0xbd41d629	-0.04732338
20	0x3d54ea99	0.051981542
21	0x3cba050a	0.022707481
22	0x3b5bca1c	0.0033537215
23	0x3cc72f16	0.024314445
24	0xbcce9a5f	-0.025220094
25	0x3dc46f52	0.09591545
26	0xbbf32865	-0.007420587
27	0xbd079e68	-0.033110052
28	0x3cccf076	0.025017004
29	0xbcb1a72c	-0.02168616
30	0xbc6ece11	-0.014575497
31	0xbc57f2ca	-0.013180444
32	0xbc6a489e	-0.01429954
33	0xbd00662b	-0.031347435
34	0xbcf3afad	-0.029746855
35	0x3d4d0cc8	0.050061017
36	0xbdb52cf1	-0.088464625
37	0x3c4a6625	0.012353455
38	0x3db26fe3	0.08712747
39	0x3d4fec4e	0.050762467
40	0xbb848237	-0.004043843
41	0x3c107452	0.008816795
42	0xbda2b8c2	-0.07945396
43	0x3c53ee77	0.012935272
44	0xbc55f219	-0.013058209
45	0x3da7ea46	0.08198981
46	0x3d2c8ea7	0.04212823
47	0x3d4ce7bf	0.050025698
48	0x3d75d725	0.06001963
49	0x3dea8ab6	0.11452238
50	0xbd9beed0	-0.07613909
51	0x3cfdcf8a	0.030982751
52	0x3d9ae7bd	0.07563732
53	0xbdc6420d	-0.09680567
54	0xbd1c84d8	-0.038212627
55	0x3c451fb1	0.012031482
56	0x3d6ccf26	0.05781474
57	0x3da3d84a	0.08000238
58	0xbd857b72	-0.06517686
59	0x3d08f586	0.033437274
60	0xbd3cadb6	-0.0460641
61	0xbd69db23	-0.05709375
62	0x3c408a2a	0.011751691
63	0x3d95f89d	0.0732281
64	0x3cf80b50	0.030278832
65	0xbd2ad80b	-0.04170994
66	0x3cde0e09	0.027106302
67	0x3d29f216	0.041490637
68	0x3ba6f3b0	0.005094968
69	0x3d13cf55	0.0360864
70	0x3cb36431	0.02189836
71	0xbd46c7ba	-0.048530318
72	0xbccdd763	-0.025127118
73	0xbc8f1c5b	-0.017469576
74	0x3ce78313	0.028260743
75	0x3c50e76c	0.012750488
76	0x3d6c5aad	0.057703663
77	0xbd1bdc2c	-0.03805177
78	0x3d43cadb	0.04780088
79	0xbd616b18	-0.055033773
80	0x3decd49a	0.11563988
81	0xbd75ce75	-0.060011346
82	0xbc2b04bb	-0.01043814
83	0xbd64e310	-0.055880606
84	0x3caae455	0.02086083
85	0xbcab3a42	-0.020901803
86	0x3d717354	0.058947876
87	0x3d8100b6	0.06298964
88	0x3c383824	0.011243854
89	0xbd563c03	-0.052303325
90	0x3b054a47	0.0020338462
91	0x3d5fb624	0.054617062
92	0x3bee83c5	0.0072788917
93	0xbc8d562c	-0.017253004
94	0x3d1f10d7	0.03883442
95	0x3c79f9ea	0.015257338
96	0xbdd44266	-0.10364227
97	0xbd00bee9	-0.031432066
98	0xbe0794c6	-0.13240346
99	0xbd56c712	-0.052435942
100	0xbc234435	-0.009964992
101	0xbcdb078c	-0.026736997
102	0x3d87cf19	0.066312976
103	0xbd9f2d1c	-0.07772276
104	0x3d3ded03	0.04636861
105	0x3d07dd03	0.033169758
106	0xbde6ddb3	-0.112727545
107	0x3d89688b	0.06709393
108	0xbcf511a2	-0.029915635
109	0xbd896915	-0.06709496
110	0xbb99157b	-0.00467175
111	0xbd4b63d6	-0.049655758
112	0xba1fb3cf	-0.0006092162
113	0xbc40377d	-0.011731979
114	0xbc765fdf	-0.015037506
115	0x3c66e99d	0.014093784
116	0xbd519598	-0.051168054
117	0xbd226d40	-0.03965497
118	0x3da44fc6	0.08023028
119	0xbd81ac85	-0.063317336
120	0x3d95af36	0.073088095
121	0xbca71140	-0.020393968
122	0x3c10584a	0.008810112
123	0x3c2e1154	0.010624249
124	0x3cb3ccd0	0.021948248
125	0x3ce91b70	0.028455466
126	0xbc5d2d0d	-0.0134995105
127	0x3e06e95d	0.13174959

convs.0.bn1.weight f4 [128]
0	0x4015664b	2.3343685
1	0x3fe23a37	1.7674016
2	0x4086954b	4.2057242
3	0x40187e9d	2.3827279
4	0x405cca92	3.449864
5	0x3fb541a5	1.4160658
6	0x3ffa420f	1.955141
7	0x40190e5a	2.391501
8	0x3fb61979	1.4226524
9	0x40ab7bcd	5.3588624
10	0x3fbc1aa4	1.469563
11	0x3ffc46ba	1.9709084
12	0x40718bff	3.7741697
13	0x4041fb65	3.030969
14	0x40491913	3.1421554
15	0x40641343	3.5636756
16	0x40050083	2.0781562
17	0x3fc3a1a0	1.5283699
18	0x4000bc3a	2.0114884
19	0x40191f37	2.3925302
20	0x3f81b19d	1.0132328
21	0x407e990d	3.9780915
22	0x401e7ec4	2.4764872
23	0x3fef0a91	1.86751
24	0x40948388	4.641056
25	0x402cf4de	2.7024455
26	0x4056dfdb	3.357413
27	0x4074c930	3.8247795
28	0x3f7bef9b	0.98412484
29	0x3fda5812	1.7058127
30	0x4054a6ab	3.3226726
31	0x3f85bcbe	1.0448225
32	0x40a77cb4	5.2339725
33	0x40c3a343	6.1136794
34	0x40ed624b	7.4182487
35	0x40435d9f	3.0525892
36	0x409d7883	4.920961
37	0x4059696c	3.3970594
38	0x401870e0	2.3818893
39	0x405661b2	3.3497128
40	0x40830215	4.094004
41	0x3ffad8b5	1.9597384
42	0x406aad12	3.6668134
43	0x4045e33c	3.0919943
44	0x40983265	4.7561517
45	0x4018369f	2.3783338
46	0x40808238	4.015896
47	0x409cb09a	4.896558
48	0x3f0ce724	0.5504019
49	0x4051e8a3	3.279824
50	0x4089d729	4.3075147
51	0x3fc4ab39	1.5364753
52	0x3f9495e3	1.1608242
53	0x408d144c	4.4087276
54	0x405c45ae	3.441753
55	0x407ea686	3.9789138
56	0x406e97ba	3.7280107
57	0x404c00b5	3.1875432
58	0x405739bc	3.3628988
59	0x3f558bfc	0.83416724
60	0x4085c32c	4.1800747
61	0x40142614	2.314824
62	0x408a22cc	4.3167477
63	0x404407b0	3.0629692
64	0x3fb21d29	1.3915149
65	0x4056756c	3.3509169
66	0x3eb4ae5e	0.35289282
67	0x3fd85fc4	1.6904225
68	0x3fd6e954	1.6789956
69	0x3fa31a94	1.2742486
70	0x4000a04e	2.0097842
71	0x3e33ed61	0.17571022
72	0x40190a0c	2.3912382
73	0x3fbd536e	1.4791086
74	0x3f0f7b87	0.5604786
75	0x3fd698c2	1.6765368
76	0x3f879e53	1.0595192
77	0x3f420e45	0.75803024
78	0x3fdc88db	1.7229265
79	0x3f35441b	0.70807046
80	0x4010ce8d	2.2626069
81	0x40a804de	5.250594
82	0x4046669c	3.1000128
83	0x3fa6f100	1.3042297
84	0x3fc536c4	1.5407338
85	0x3d23d5a2	0.039998658
86	0x3f89244b	1.0714201
87	0x3fa1a291	1.2627736
88	0x3f9cb855	1.2243754
89	0x401f5e77	2.4901407
90	0x3f3e3ef7	0.74314827
91	0x3fb1a4bc	1.3878398
92	0x404608fb	3.0942981
93	0x400b369c	2.175208
94	0x3dd025d3	0.101634644
95	0x3f807e53	1.0038551
96	0x3f0f5c8b	0.56000584
97	0x3f3f891d	0.74818593
98	0xbc46eee7	-0.01214192
99	0x3ecf4201	0.40480044
100	0x3fb8a521	1.4425393
101	0x3ffa8e3f	1.957466
102	0x4019672c	2.396922
103	0x3f9b07c9	1.2111751
104	0x3fd760ba	1.6826394
105	0x3e7b7665	0.24556883
106	0x3fea7adb	1.8318743
107	0x3fbfea5a	1.4993393
108	0x3e2256c8	0.15853417
109	0x4051a5b0	3.2757378
110	0x3f5ecc60	0.870306
111	0x3fd82188	1.6885233
112	0x4000d8c6	2.0132308
113	0x3ec45c57	0.383517
114	0x40104793	2.2543685
115	0x401d1b9b	2.45481
116	0x40a9be5d	5.3044877
117	0x3f54bc3f	0.8309974
118	0x3fe5c8f8	1.7951956
119	0x3f14c8a8	0.5811868
120	0x401def4d	2.4677308
121	0x401270e4	2.2881403
122	0x3fd542f9	1.6661063
123	0x4011876a	2.27389
124	0x40874cd5	4.228129
125	0x402f5dad	2.7400925
126	0x3f4ef620	0.80844307
127	0x3fcfc33d	1.6231457

convs.0.bn1.bias f4 [128]
0	0x3f42bce5	0.7606948
1	0x3eb1a29c	0.34694374
2	0x3fd70cb6	1.6800754
3	0x3f7a6ab5	0.9781907
4	0xbe3245a2	-0.17409375
5	0x3ed5bd3e	0.41745943
6	0xbc929291	-0.017892154
7	0x3fc06c21	1.5032998
8	0x3f25c6ed	0.6475666
9	0xbf139f79	-0.5766521
10	0x3f1eb39e	0.61992824
11	0x3eac1ece	0.33617252
12	0x3f81f27d	1.0152127
13	0x3eeb77be	0.45989794
14	0xbf85e786	-1.046128
15	0x3f31df3c	0.69481254
16	0x3ea1156b	0.31461653
17	0xbe942a1d	-0.2893838
18	0x3ea17c74	0.31540263
19	0x3e353fd4	0.1770013
20	0x3f673c82	0.903267
21	0x3f44dbc2	0.76897824
22	0xbf7c4c02	-0.9855348
23	0x3e8e4e8a	0.27794296
24	0x3e1f146a	0.15535131
25	0xbf3bde14	-0.7338574
26	0x3e3ad033	0.18243484
27	0x3e1c8d34	0.1528824
28	0x3ebb2573	0.3655201
29	0x3f27a2eb	0.6548297
30	0x3eb0c999	0.34528807
31	0xbf9e3640	-1.2360306
32	0xbe8111d8	-0.25208926
33	0x40086dd4	2.1317034
34	0x3f873c48	1.0565271
35	0x40256fc0	2.5849457
36	0xbef7f62d	-0.48430005
37	0xbedd287b	-0.43194947
38	0xbe4626d6	-0.19350752
39	0x3ef38362	0.47561175
40	0xbf0ff205	-0.5622867
41	0x3f8c78b0	1.0974331
42	0x3e0e8d4e	0.13921091
43	0x3d2f2231	0.042757217
44	0x3f8b5b9e	1.0887334
45	0xbd88e463	-0.06684186
46	0xbdb97c8d	-0.09056959
47	0xbe010599	-0.12599792
48	0x3f3e8ae2	0.7443067
49	0x3f728105	0.9472812
50	0xbf988f82	-1.1918795
51	0xbe6bf7f4	-0.23043805
52	0xc063d1a9	-3.5596716
53	0x3fba0c5f	1.4535025
54	0xbf20d06e	-0.6281804
55	0x3f9398a3	1.1530956
56	0xbe163011	-0.14666773
57	0xbf944480	-1.1583405
58	0x3bc89760	0.006121561
59	0x3ecdae03	0.40171823
60	0xbe32557b	-0.1741542
61	0xbdcbb130	-0.09945905
62	0xbf0c4143	-0.5478708
63	0xbedf2f83	-0.43590936
64	0x3eaf2f0a	0.34215575
65	0xbf5cf48d	-0.86310655
66	0x4010bfee	2.2617145
67	0x3f4be1ee	0.79641616
68	0xbe29341c	-0.16523784
69	0x3e2a9c5b	0.16661207
70	0xbccb3d6b	-0.02480956
71	0x4071233c	3.7677755
72	0xbf719236	-0.94363725
73	0x3f8b7d38	1.0897589
74	0x3faf67a5	1.3703505
75	0x3eb034b9	0.34415224
76	0x3fa034bf	1.2516097
77	0x3ee36a55	0.44417062
78	0xbf3770bf	-0.7165641
79	0x3f2df24f	0.6794786
80	0xbeb357a3	-0.350278
81	0x3e1d4d44	0.15361506
82	0xbf7f5678	-0.99741316
83	0x3dd87f2a	0.105711296
84	0x3e86c914	0.26325285
85	0x40875a3c	4.229765
86	0x3fc67e7a	1.5507348
87	0xbd4e9eaa	-0.050444283
88	0x3f9742a7	1.1817216
89	0xbeb433f4	-0.35195887
90	0x3fada474	1.3565812
91	0x3ecdacfe	0.40171045
92	0x3f5dcfd3	0.8664524
93	0xbf5d5074	-0.86450887
94	0x40287dda	2.6326814
95	0xc0095d34	-2.1463137
96	0x3fb4b920	1.4118996
97	0x3f05a373	0.5220253
98	0x40d8d6df	6.7762294
99	0x4052e5e8	3.2952824
100	0x3e28bcf8	0.16478336
101	0x3e73aadf	0.23795651
102	0xbe8da020	-0.27661228
103	0x3f064a1b	0.52456826
104	0x3ee8e1f3	0.45484886
105	0x4007e92c	2.1236067
106	0x3f68d87f	0.90955347
107	0xbe140465	-0.14454801
108	0x403a0bea	2.9069772
109	0xbee34f78	-0.44396567
110	0x3f81d78f	1.0143908
111	0x3e556527	0.20839368
112	0xbfae7f45	-1.363259
113	0x3fd46da9	1.6595966
114	0x3e681e99	0.22667922
115	0x3ea5189b	0.32245335
116	0xc055e951	-3.3423655
117	0x3fa90f14	1.3207726
118	0x3eb5adb8	0.354841
119	0x3f98730b	1.1910108
120	0xbfb62bf1	-1.423216
121	0x3edda9bf	0.43293568
122	0x3e9fed13	0.3123556
123	0xbf5a26ef	-0.8521566
124	0x3ed52a84	0.41634
125	0xbec44553	-0.3833414
126	0x3fd5b2d9	1.6695205
127	0xbf0cd5d1	-0.5501376

convs.0.bn1.running_mean f4 [128]
0	0xc16d9f1e	-14.851347
1	0x419d594c	19.668602
2	0x409b17e1	4.846665
3	0x40736959	3.803305
4	0xc196ef71	-18.866915
5	0xc016050a	-2.3440576
6	0x418852c3	17.040411
7	0xc25ffcc3	-55.996838
8	0xc19c96a0	-19.573547
9	0xc0b9ceed	-5.8065095
10	0xc18f789d	-17.933893
11	0x41411a13	12.068866
12	0x42088354	34.12825
13	0x422d8e7d	43.38915
14	0x41e0b087	28.086195
15	0x421c6eb6	39.108116
16	0xc0e38fee	-7.1113195
17	0x4208300d	34.046925
18	0x420484ba	33.129616
19	0x41498f8c	12.597546
20	0x3e485e0d	0.19567128
21	0xc25ffb44	-55.995377
22	0x41b59d9e	22.701962
23	0x41a77493	20.931921
24	0x41999e05	19.202158
25	0xc1b80b3b	-23.005484
26	0x4262a8f7	56.665005
27	0xc1963684	-18.776619
28	0x4214c403	37.191418
29	0xc131c463	-11.110446
30	0x41a1e108	20.234879
31	0xc0597f0c	-3.3983793
32	0x41812113	16.14115
33	0xc0625ce9	-3.5369208
34	0xc1be1cf3	-23.764135
35	0xc127850e	-10.469984
36	0x42164c53	37.574535
37	0x41f1a2fd	30.204584
38	0x4241f00a	48.484413
39	0x42688aed	58.13567
40	0x4207e063	33.969128
41	0xc20be595	-34.9742
42	0x41f4f859	30.621264
43	0xc22d197f	-43.2749
44	0xc218dd9c	-38.216415
45	0xc11f115b	-9.941737
46	0xc1f2c6cb	-30.347067
47	0x40ff859e	7.9850607
48	0xc12e9ea3	-10.91373
49	0x41926e44	18.30384
50	0x41955de6	18.670849
51	0x422e5e51	43.592106
52	0x41669401	14.411134
53	0x420155af	32.333675
54	0xc1b9027c	-23.126213
55	0x41362af1	11.385484
56	0x418b8836	17.44151
57	0x41c6f3f5	24.86912
58	0xc1f4f376	-30.618877
59	0x42472d25	49.794086
60	0x408373bb	4.1078773
61	0x421c672a	39.100746
62	0xc087afea	-4.240224
63	0xbfd8d72a	-1.6940663
64	0xc115d858	-9.365318
65	0x42277653	41.86555
66	0xc1a3df59	-20.484056
67	0x41f4fbdb	30.622976
68	0xc2307672	-44.11567
69	0xc0c2f493	-6.0923553
70	0x41a4982f	20.574308
71	0xc258b333	-54.175
72	0xc1f4a903	-30.582525
73	0x42742863	61.03944
74	0xc14470f0	-12.277573
75	0x41e70842	28.879032
76	0x41b3aa33	22.458105
77	0xc192d869	-18.355669
78	0x41124605	9.142095
79	0xc099a1e7	-4.8010135
80	0xc1cd4a9b	-25.661428
81	0x42400637	48.00607
82	0x419db170	19.71164
83	0x41a97b64	21.18525
84	0xc13c2301	-11.758546
85	0xc1b77d34	-22.936134
86	0x420f1ac3	35.776134
87	0x415e89cd	13.908643
88	0x41b1a35c	22.204765
89	0x40cfff05	6.4998803
90	0x42417dbb	48.372784
91	0x413c8c60	11.784271
92	0xc1f9a29f	-31.204405
93	0x4076e1b1	3.857525
94	0x41feba66	31.841015
95	0x41864673	16.784399
96	0x41eede3e	29.858517
97	0x41ff7696	31.932903
98	0xc1ba8355	-23.314127
99	0x41d628cf	26.769926
100	0xc11e0f8e	-9.878798
101	0x41ad21c6	21.64149
102	0x428e848e	71.258896
103	0x419c9c89	19.576433
104	0x423196e3	44.39735
105	0x40dcb824	6.897478
106	0x419f0f60	19.882507
107	0x3e6139cd	0.21994705
108	0xc1c22a4a	-24.270649
109	0xc18d6252	-17.673008
110	0xc097680b	-4.7314506
111	0x41896e92	17.17899
112	0x41b61549	22.760393
113	0x420586f9	33.38181
114	0x420808fc	34.008774
115	0xc14e7c2e	-12.905317
116	0xc1afff2d	-21.999598
117	0x41f8dd06	31.107922
118	0xc21c2435	-39.03536
119	0x423e3fa7	47.56216
120	0x4106ab8b	8.416881
121	0x41cf3949	25.902971
122	0xc20a6d51	-34.606754
123	0x4238871a	46.131935
124	0xc0506a66	-3.256494
125	0x4214c8e6	37.19619
126	0x425b6b99	54.855076
127	0xc1f9438d	-31.157984

convs.0.bn1.running_var f4 [128]
0	0x4511de86	2333.9077
1	0x450adb5c	2221.71
2	0x450c1619	2241.381
3	0x44f2cb6d	1942.357
4	0x451b9176	2489.0913
5	0x445fab13	894.67303
6	0x448be98f	1119.2987
7	0x4555920c	3417.128
8	0x44e64506	1842.157
9	0x44d920bc	1737.023
10	0x4428e25d	675.5369
11	0x44ef23a5	1913.1139
12	0x4533f339	2879.2014
13	0x452d936f	2777.2146
14	0x44905400	1154.625
15	0x449997a8	1228.7393
16	0x450d358c	2259.3467
17	0x44f9f1f3	1999.5609
18	0x4510427e	2308.1558
19	0x443c3d41	752.9571
20	0x4495132a	1192.5989
21	0x450b99d4	2233.6143
22	0x4585a192	4276.1963
23	0x44898a20	1100.3164
24	0x455327df	3378.492
25	0x457e4cd4	4068.8018
26	0x4576c0b5	3948.0442
27	0x458680ae	4304.085
28	0x455c413d	3524.0774
29	0x44920f05	1168.4694
30	0x455897f0	3465.496
31	0x45354e08	2900.877
32	0x455061a9	3334.1038
33	0x44b516bc	1448.7104
34	0x453d65e1	3030.3674
35	0x458c7080	4494.0625
36	0x45205fe6	2565.9937
37	0x44ba1ecc	1488.9624
38	0x44c8fd6c	1607.9194
39	0x4502ed9b	2094.8503
40	0x4529876c	2712.4639
41	0x4501230d	2066.1907
42	0x45722161	3874.0862
43	0x451b1b08	2481.6895
44	0x4578a344	3978.204
45	0x44b93b7d	1481.859
46	0x454e8665	3304.3997
47	0x44e70281	1848.0782
48	0x44d43b3c	1697.8511
49	0x454790f7	3193.0603
50	0x4542905c	3113.0225
51	0x44daab85	1749.36
52	0x44deb954	1781.7915
53	0x45468ade	3176.6792
54	0x45031a94	2097.6611
55	0x4503bb9d	2107.7258
56	0x4556f96f	3439.5896
57	0x451e5be9	2533.7444
58	0x45014bcb	2068.737
59	0x44af0af2	1400.342
60	0x454a0fba	3232.983
61	0x44b37f7e	1435.9841
62	0x456f5bd3	3829.739
63	0x45523a47	3363.6423
64	0x451a36b8	2467.42
65	0x45165c6e	2405.7769
66	0x452ea72e	2794.4487
67	0x454e3b46	3299.7046
68	0x457a43f1	4004.2463
69	0x4495e052	1199.01
70	0x4486555f	1074.6678
71	0x453e1d7a	3041.8423
72	0x4582a86e	4181.0537
73	0x4598f60b	4894.7554
74	0x44206a8a	641.6647
75	0x45243bd0	2627.7383
76	0x4513d7d4	2365.4893
77	0x453d8f69	3032.9631
78	0x44d5cfc8	1710.4932
79	0x44cdeeeb	1647.4662
80	0x44de60c0	1779.0234
81	0x44f0506d	1922.5133
82	0x44f24d70	1938.4199
83	0x444eedc0	827.71484
84	0x4507b64f	2171.3943
85	0x44c4e25a	1575.0735
86	0x458d166a	4514.802
87	0x44575a2d	861.409
88	0x45119284	2329.1572
89	0x4574114a	3905.0806
90	0x45316ca5	2838.7903
91	0x45c43261	6278.2974
92	0x45cb1564	6498.674
93	0x44effaa5	1919.8326
94	0x4523ad2b	2618.823
95	0x44bf0bcc	1528.3687
96	0x45517bd0	3351.7383
97	0x44f0aee5	1925.4655
98	0x45233a45	2611.6418
99	0x459379f6	4719.245
100	0x4564d686	3661.4077
101	0x44ace560	1383.168
102	0x4512c40c	2348.253
103	0x452fd6d3	2813.4265
104	0x451210dd	2337.054
105	0x44de801f	1780.0038
106	0x458a0181	4416.188
107	0x44ccc38e	1638.1111
108	0x45632ebc	3634.921
109	0x44c43857	1569.7606
110	0x4549d1d3	3229.114
111	0x450133bb	2067.2332
112	0x44f97058	1995.5107
113	0x454c137e	3265.2183
114	0x45225896	2597.5366
115	0x44ff873a	2044.2258
116	0x4494ae1f	1189.4413
117	0x4582e661	4188.7974
118	0x451ea97b	2538.5925
119	0x4570412c	3844.0732
120	0x44ceb0e4	1653.5278
121	0x455b5e68	3509.9004
122	0x4530eedc	2830.9287
123	0x4494c938	1190.2881
124	0x45804348	4104.41
125	0x44f66263	1971.0746
126	0x45899bc3	4403.47
127	0x456339d5	3635.6145

convs.0.bn2.weight f4 [64]
0	0x3ed760d8	0.42066073
1	0x40040e76	2.0633826
2	0x3fc7084f	1.554941
3	0x3f995ea7	1.1982011
4	0x3f8657d5	1.0495554
5	0x3e673313	0.22578077
6	0x3f34b945	0.705952
7	0x3fb1a74c	1.387918
8	0x3f12ae13	0.57296866
9	0x3fc0af46	1.5053489
10	0x3c9611a7	0.018318964
11	0x3f1d4996	0.6144041
12	0x3fd4b713	1.661837
13	0x3fb5eb19	1.4212371
14	0x3f8f5d66	1.1200378
15	0x3f8e8e3b	1.1137155
16	0x3f9573c5	1.1675955
17	0x3fb77feb	1.4335912
18	0x4004e910	2.076725
19	0x3ed76874	0.4207188
20	0x3f370720	0.71495247
21	0x3fced9ab	1.6160177
22	0x401cdb43	2.4508827
23	0x3e92e04a	0.28686744
24	0x3faa6b83	1.331406
25	0x4010b550	2.2610664
26	0x3fdf1df5	1.7431017
27	0x401cb25b	2.448386
28	0x3fe9ebd4	1.8275094
29	0x3e9ae74a	0.30254585
30	0x3fc6778a	1.550523
31	0x3f95f63b	1.1715769
32	0x400d27be	2.2055507
33	0x3f96ddf3	1.1786484
34	0x3ffe51a3	1.9868664
35	0x401c4df0	2.442257
36	0x3ffb30f5	1.9624316
37	0x3fce045e	1.6095083
38	0x3fa48261	1.2852288
39	0x3f731583	0.949547
40	0x3f3620ac	0.71143603
41	0x3fa15597	1.2604245
42	0x40093cc6	2.1443343
43	0x3f424a76	0.7589487
44	0x3fa2761a	1.2692292
45	0x3f3355fc	0.70053077
46	0x3fb69fdf	1.4267539
47	0x3f0d3c1c	0.55169845
48	0x3f9c91b9	1.2231971
49	0x3fb2d027	1.3969773
50	0x3fa766a7	1.3078202
51	0x3f8902ce	1.0703981
52	0x3ffec136	1.9902713
53	0x3fefc523	1.8732036
54	0x3fb3ca3d	1.4046093
55	0x3fa744cb	1.3067869
56	0x3fa23fc2	1.2675707
57	0x3fd684d1	1.6759282
58	0x3f96a9ed	1.1770607
59	0x3f7c688d	0.9859703
60	0x3fd3519e	1.6509283
61	0x3e627d4a	0.22118106
62	0x3ff2450c	1.8927321
63	0x3fa95941	1.3230363

convs.0.bn2.bias f4 [64]
0	0xbfaad342	-1.3345721
1	0xbf8aab39	-1.0833503
2	0xbe46077e	-0.19338796
3	0x3b101811	0.0021987
4	0xbe0eafee	-0.139343
5	0xbfed7ec3	-1.855431
6	0xbfac6ee2	-1.3471339
7	0x3e70af54	0.23504382
8	0x3e90f4f1	0.28311875
9	0xbf874621	-1.0568277
10	0xc007b756	-2.120565
11	0xbf156929	-0.58363587
12	0xbfa4347b	-1.2828516
13	0xbd91b818	-0.07115191
14	0xbf957368	-1.1675844
15	0xbfbf2fbe	-1.4936445
16	0xbeb09101	-0.3448563
17	0xbca46151	-0.020065935
18	0x3ec802a7	0.39064524
19	0xbfb5788e	-1.4177415
20	0xbf5ebdb9	-0.87008244
21	0x3ec79052	0.38977295
22	0xbea694da	-0.3253544
23	0xbff19dbf	-1.8876265
24	0xbfa4d39b	-1.2877077
25	0xbf3f109a	-0.74634707
26	0xbfb8da62	-1.4441645
27	0xbe757d60	-0.23973608
28	0x3ef3413d	0.4751071
29	0xbf5d4a8a	-0.8644186
30	0xbf991ba1	-1.1961557
31	0xc00195b5	-2.0247624
32	0xc00accf1	-2.1687586
33	0xbf03882f	-0.51379675
34	0xbefd9ed2	-0.49535233
35	0x3f43a402	0.7642213
36	0xbeafcc77	-0.34335682
37	0xbfd1ad06	-1.6380928
38	0xbfa33b09	-1.2752391
39	0xbe45f770	-0.19332671
40	0xbfafcbd2	-1.3734076
41	0xc0307242	-2.7569737
42	0x3f607623	0.8768026
43	0xbfc7db24	-1.5613751
44	0xbfd475a5	-1.6598402
45	0xbfd65f7c	-1.674789
46	0xbfbcea58	-1.4759016
47	0xc0091fe0	-2.1425705
48	0xbfc84e6d	-1.5648934
49	0xbf975563	-1.1822933
50	0xbfb838cd	-1.4392334
51	0xbf642987	-0.89125866
52	0x3f4e3f46	0.805653
53	0xbf90b1a6	-1.1304214
54	0xbfe0daee	-1.7566812
55	0xc005f05b	-2.0927951
56	0xbfa15580	-1.2604218
57	0xbf3c9ee6	-0.7367996
58	0xbf7fea4c	-0.99966884
59	0xbfdef338	-1.7417974
60	0xbf72d0b3	-0.948497
61	0xbf0655be	-0.5247458
62	0xbf131e01	-0.5746766
63	0x3ca2db37	0.01987992

convs.0.bn2.running_mean f4 [64]
0	0x411d1a96	9.818991
1	0x412d24fb	10.821528
2	0x418dc486	17.720959
3	0x415346b9	13.204766
4	0x409fbfd1	4.992165
5	0x41061ddb	8.382289
6	0x40e3f9c4	7.124239
7	0x41f5acda	30.7094
8	0x41001805	8.005864
9	0x414fff20	12.999786
10	0x414e3fee	12.890608
11	0x41356715	11.3376665
12	0x415b9d25	13.725865
13	0x40e92e8d	7.2869325
14	0x40904936	4.508937
15	0x4107dab4	8.490894
16	0x40d5ae43	6.677522
17	0x418a325e	17.274593
18	0x411ac909	9.674081
19	0x40e93c82	7.288636
20	0x412257bd	10.1464205
21	0x41bd8317	23.689009
22	0x41324b21	11.143342
23	0x40f4f56b	7.6549582
24	0x4149eee3	12.620822
25	0x410c4da3	8.768954
26	0x414bbb0f	12.733169
27	0x41033368	8.20005
28	0x413c7cb5	11.780446
29	0x40ea7d8f	7.327827
30	0x41901eca	18.015034
31	0x3f192fdf	0.5983867
32	0x41336b11	11.213639
33	0x4107dc2c	8.491253
34	0x421a6784	38.60109
35	0x42001165	32.016987
36	0x40e026a6	7.004718
37	0x411725d9	9.44674
38	0x412b55ef	10.70848
39	0x41163d88	9.390022
40	0x413ad5b8	11.677177
41	0x4192ba4e	18.34097
42	0x416400e4	14.250217
43	0x40d01b17	6.503307
44	0x418f5c23	17.919989
45	0x41548a78	13.283806
46	0x41245a5b	10.272059
47	0x410a7d06	8.655523
48	0x40a52e47	5.161899
49	0x41725451	15.145585
50	0x412fdf21	10.991975
51	0x4128c4c7	10.548041
52	0x3f08c392	0.53423417
53	0x4171855e	15.09506
54	0x40eec310	7.4613113
55	0x414dfbfc	12.87402
56	0x409b73b9	4.8578763
57	0x414b0c8c	12.690563
58	0x4108c120	8.54715
59	0x40e2577a	7.0731783
60	0x41950444	18.627083
61	0x4134054c	11.251293
62	0x4150a699	13.040673
63	0x40c4ed05	6.153933

convs.0.bn2.running_var f4 [64]
0	0x425ad21f	54.705196
1	0x433bfc97	187.98668
2	0x42ad71c9	86.72224
3	0x42de4203	111.12893
4	0x4235263f	45.28735
5	0x420ee7d9	35.726414
6	0x428743ab	67.632164
7	0x431a1c70	154.11108
8	0x42158446	37.379173
9	0x43065407	134.32823
10	0x425284e4	52.629776
11	0x42a0f447	80.477104
12	0x4274ad53	61.169262
13	0x419e613b	19.797476
14	0x42095f49	34.343052
15	0x41d783d7	26.939375
16	0x4209f729	34.491367
17	0x437f0fe6	255.0621
18	0x42abfd5b	85.994835
19	0x428934aa	68.60286
20	0x42212417	40.285244
21	0x43c9ca52	403.58063
22	0x4297e490	75.94641
23	0x41a3cad0	20.47403
24	0x429c7971	78.23719
25	0x4244f915	49.243244
26	0x423f63b0	47.84735
27	0x41dae5e1	27.362246
28	0x422b8278	42.87741
29	0x42aa90dc	85.28293
30	0x42921c8f	73.05578
31	0x3ed3ebb8	0.41390777
32	0x4243114c	48.76689
33	0x41c47b0e	24.560085
34	0x43f98d56	499.1042
35	0x42aea99b	87.33126
36	0x41cf2015	25.890665
37	0x42b235dd	89.1052
38	0x42b026ae	88.07555
39	0x425f669b	55.8502
40	0x4278a453	62.160473
41	0x4246dd4d	49.716114
42	0x42e7f259	115.973335
43	0x421f4cda	39.82505
44	0x429d3138	78.59613
45	0x43d3bfb2	423.49762
46	0x4250e694	52.225174
47	0x423cfe89	47.24857
48	0x41e7e1de	28.985287
49	0x4231ed25	44.481586
50	0x42c62966	99.08086
51	0x43142c1f	148.17235
52	0x3ef8a10b	0.48560366
53	0x422a4e74	42.576614
54	0x4297ca48	75.89508
55	0x423effb8	47.749725
56	0x4208a1c6	34.15798
57	0x42cbb06e	101.84459
58	0x42c726e7	99.57598
59	0x42a84c02	84.14845
60	0x439d5e7a	314.7381
61	0x42eb7a20	117.738525
62	0x42960708	75.01373
63	0x41eb3f04	29.40577

convs.1.fc_full.weight f4 [128, 169]
0	0x3de37879	0.11106963
1	0xbeb98f8b	-0.36242327
2	0x3e141c46	0.1446391
3	0xbfcc911e	-1.5981786
4	0xbf87e20f	-1.0615863
5	0x3eab04fc	0.3340224
6	0x3fbfca0a	1.4983532
7	0xbf597335	-0.84941417
8	0x3c9714e3	0.018442577
9	0xbea766f5	-0.32695737
10	0x3e70d4a6	0.23518619
11	0xbf80a88d	-1.0051438
12	0xbf2ecb0b	-0.6827857
13	0xbf2bb981	-0.6707993
14	0xbeb98b7d	-0.36239234
15	0x3d44b421	0.048023347
16	0x3e813540	0.2523594
17	0xbee97daf	-0.456037
18	0xbeac88af	-0.3369803
19	0xbd413a48	-0.047174722
20	0x3f003a2c	0.50088763
21	0xbf672f67	-0.90306705
22	0x3f16bcb3	0.5888168
23	0x3eaad5cc	0.3336624
24	0xbed55e75	-0.41673627
25	0x3e97c271	0.29640535
26	0xbe01c628	-0.12673247
27	0x3dd03aaa	0.10167439
28	0xbd981bd2	-0.07427181
29	0xbe023ffd	-0.12719722
30	0xbe7539b7	-0.23947798
31	0xbe89a203	-0.26881418
32	0xbd91b21b	-0.07114049
33	0xbdb7a5c7	-0.089671664
34	0x3e6ebdde	0.23314616
35	0x3ef7a840	0.48370552
36	0xbee62d73	-0.4495655
37	0x3f4bb59e	0.79574
38	0xbeeac68f	-0.45854613
39	0x3e169a5b	0.1470732
40	0x3eacc901	0.33747104
41	0xbe0a9d3f	-0.13536547
42	0x3e666107	0.2249795
43	0xbea6d8b5	-0.3258721
44	0xbed19df5	-0.40940824
45	0xbe2c822b	-0.1684653
46	0x3edc65cb	0.43046412
47	0xbee22c0f	-0.4417424
48	0x3e4d3589	0.20039953
49	0xbe52ed82	-0.20598415
50	0xbf5886ac	-0.8458049
51	0x3d0a9fe8	0.033843905
52	0x3feaae8b	1.8334516
53	0xbf215c30	-0.6303129
54	0x3f5952fa	0.8489224
55	0x3db303bf	0.08740949
56	0x3fe751e4	1.8071866
57	0x3de2b6cd	0.11070023
58	0x3f20e010	0.6284189
59	0x3ed41b93	0.41427287
60	0xbf5c9298	-0.86161184
61	0xbefbded0	-0.4919343
62	0x3d9a3cc4	0.075311214
63	0xbd8df53f	-0.069315426
64	0xbf2e3635	-0.68051463
65	0x3caa5ff2	0.020797703
66	0xbd024945	-0.031808157
67	0x3e62643e	0.22108552
68	0xbf07dff3	-0.53076094
69	0x3f0317d9	0.51208264
70	0x3eac6d21	0.3367701
71	0xbd66fb89	-0.056392226
72	0xbef7d57d	-0.48405066
73	0xbf838a54	-1.0276589
74	0x3e3035b7	0.1720799
75	0xbf6e4238	-0.9306979
76	0xbe49c610	-0.19704461
77	0x3ff2799a	1.894336
78	0xbf4c5e8d	-0.79831773
79	0x3d3dee8a	0.046370067
80	0x3f44b4eb	0.7683856
81	0xbed15352	-0.4088388
82	0xbf6b3486	-0.9187702
83	0xbf29e8f1	-0.66371065
84	0xbeb48d50	-0.35264063
85	0x3e740fde	0.23834178
86	0xbef8f4a8	-0.48624158
87	0x3ee98ef7	0.45616886
88	0xbf51aea3	-0.819071
89	0xbe80b6e4	-0.25139534
90	0xbed8eb49	-0.42367008
91	0xbfc80e96	-1.5629451
92	0xbf631459	-0.88702923
93	0x3e309827	0.17245542
94	0xbf42f37e	-0.7615279
95	0x3f13733d	0.57597715
96	0xbf042498	-0.5161834
97	0x3ec9e52a	0.3943265
98	0xbf41a221	-0.75638014
99	0xbde6a41d	-0.11261771
100	0xbeed3950	-0.46332788
101	0x3f5806b9	0.8438526
102	0x3d273f83	0.040832054
103	0x3fbb5f4b	1.4638456
104	0x3e285882	0.16440013
105	0x3e5f07f0	0.21780372
106	0xbf3d305e	-0.7390193
107	0xbf1aaeb0	-0.604228
108	0x3d8c2ff6	0.06845085
109	0x3e7ad889	0.24496664
110	0xbe297fb0	-0.16552615
111	0xbe6e1110	-0.23248696
112	0x3e2fd399	0.17170562
113	0x3f4ce24b	0.80032796
114	0xbefc3e89	-0.4926646
115	0xbf14a950	-0.5807085
116	0x3f8cced2	1.1000617
117	0x3f22e04f	0.6362352
118	0x3f0e9284	0.55692315
119	0xbdc9899b	-0.09840699
120	0xbdbce34e	-0.092230424
121	0x3f1fa9fe	0.6236876
122	0x3ba52b1b	0.005040539
123	0x3c6fec78	0.014643781
124	0xbf825df8	-1.0184927
125	0xbf26db9b	-0.6517884
126	0x3e6cacb5	0.23112758
127	0xbdb6a75e	-0.089186415
128	0x3d119c6a	0.03554956
129	0x3d0c859c	0.034307107
130	0xbe5e4b35	-0.21708377
131	0x3dac2e9b	0.08407327
132	0x3fa8d24f	1.3189181
133	0x3fa8d3b5	1.3189608
134	0x400b34e3	2.175103
135	0x3fec98f1	1.8484174
136	0x3feb83b0	1.8399563
137	0x3f9fd1a6	1.2485855
138	0x3fc6c56d	1.5529
139	0x3f54ddd4	0.8315098
140	0xbfc1386d	-1.5095345
141	0xc0937da1	-4.6090856
142	0xc002a2d6	-2.0411887
143	0xbede66db	-0.43437847
144	0x3e26d730	0.16293025
145	0x3f2f7762	0.6854154
146	0x3fd8333a	1.6890633
147	0x3f63660c	0.88827586
148	0x3f0e83ed	0.5567005
149	0x3f396357	0.72417206
150	0x3f230798	0.6368346
151	0xc0415566	-3.0208373
152	0xc0535131	-3.3018305
153	0xc00f4c72	-2.2390409
154	0xbf8ed5de	-1.1159017
155	0xbe032ae2	-0.12809327
156	0x3e13099c	0.14359134
157	0x3f83ad15	1.0287195
158	0x3fe3de7d	1.7802273
159	0x3e1631b4	0.14667398
160	0x3d8eba33	0.069691084
161	0x3e81b9bd	0.2533702
162	0xbef2f062	-0.47449023
163	0xbee3bc4e	-0.44479603
164	0xbe16a701	-0.14712144
165	0xbc5239d1	-0.012831167
166	0x3d08c760	0.033393264
167	0x3cea4128	0.028595522
168	0xbc147800	-0.009061813
169	0xbf0b0a76	-0.5431284
170	0x3e8d870a	0.2764209
171	0xbe946587	-0.2898371
172	0xbf3feedc	-0.74973845
173	0x3f4b6db7	0.79464287
174	0xbdb9be39	-0.09069485
175	0x3f48c685	0.78427917
176	0xbf32b35a	-0.6980492
177	0x3e97e268	0.29664922
178	0x3fce12ba	1.6099465
179	0xbeb9648d	-0.36209527
180	0xbf32cdbb	-0.6984517
181	0x3f63d6b9	0.88999516
182	0xbecc0dd7	-0.3985431
183	0x3fac27cd	1.3449646
184	0x3f4ae0fe	0.7924956
185	0xbeb09da3	-0.34495267
186	0xbc8cd504	-0.017191418
187	0x3fb499c0	1.4109421
188	0xbecb42a6	-0.39699286
189	0x3f4ec7c7	0.80773586
190	0xbf01102c	-0.504153
191	0x3f990608	1.1954966
192	0x3f3948e7	0.72376865
193	0x3f34d653	0.7063953
194	0x3bcd4b4c	0.0062650796
195	0xbebcbd2c	-0.36863077
196	0x3f6ec857	0.93274444
197	0xbd1ee812	-0.03879554
198	0x3f0c80ca	0.54884017
199	0xbf56cda6	-0.83907545
200	0xbd280e74	-0.04102941
201	0x3eb326e2	0.34990603
202	0x3f42221a	0.75833285
203	0x3e0b0da2	0.1357942
204	0xbe90a032	-0.2824722
205	0x3fbd274a	1.4777615
206	0xbef2a871	-0.47394136
207	0xbea0dafa	-0.31417066
208	0x3f3a366d	0.727393
209	0xbdaca8b3	-0.08430614
210	0xbf85e29c	-1.0459781
211	0xbfa2868a	-1.2697308
212	0xbf8a0db4	-1.0785432
213	0x3e5196c4	0.20467669
214	0xbd4fe39f	-0.050754186
215	0xbdc488ca	-0.09596403
216	0xbe131475	-0.14363272
217	0xbf09c7c5	-0.5382045
218	0xbf0963cc	-0.536679
219	0xbecf0927	-0.4043667
220	0x3fd6ace5	1.6771513
221	0x3efa8d5b	0.4893597
222	0xbea087fa	-0.31353742
223	0xbf87f064	-1.0620236
224	0xbf60ef4f	-0.87865156
225	0x3e9c775d	0.30559817
226	0x3e08df63	0.13366465
227	0xbf96568f	-1.1745166
228	0xbf9c73b5	-1.2222811
229	0x3f82dc1c	1.0223422
230	0x3e2d3319	0.16914023
231	0x3e8e9ab9	0.2785242
232	0x3fc08e23	1.5043377
233	0xbf41282e	-0.75451934
234	0xbee59dd8	-0.44846988
235	0xbfb4d452	-1.4127295
236	0x3e4e1a7b	0.20127289
237	0x3e67767d	0.22603793
238	0xbf4e06d9	-0.804792
239	0xbef14119	-0.47119978
240	0x3cf321cf	0.029679207
241	0x3ed884a2	0.4228869
242	0x3ec0a158	0.37623096
243	0x3d9b0a7e	0.075703606
244	0xbe405715	-0.18783219
245	0xbe8f24ca	-0.27957755
246	0xbf37c535	-0.7178529
247	0xbe876571	-0.2644458
248	0xbd8c9217	-0.06863802
249	0xbe3984b9	-0.18117036
250	0xbf05ee0f	-0.52316374
251	0x3e822c0e	0.25424236
252	0xbdb6c8e9	-0.08925039
253	0xbedbea25	-0.42952076
254	0xbf07fd32	-0.5312072
255	0xbd3b3abc	-0.04571031

convs.1.fc_full.bias f4 [128]
0	0x3d7d5838	0.06185171
1	0x3c10fef6	0.00884985
2	0x3d8fca16	0.07020967
3	0xbc2bae93	-0.010478633
4	0xbc7d7246	-0.015469139
5	0xbba5b389	-0.0050568026
6	0xbd1f7d7a	-0.038938023
7	0x3d69a877	0.057045426
8	0xbd45cb0d	-0.048289347
9	0xbd1661c0	-0.036714315
10	0xbd0aaf36	-0.0338585
11	0x3d4ca991	0.0499664
12	0xbd505059	-0.050857875
13	0x3d855af4	0.065114886
14	0xbd8646c1	-0.06556464
15	0x3d78cd51	0.06074268
16	0xbb7e7da6	-0.0038832217
17	0x3c54dd01	0.012992145
18	0xbcadbd8a	-0.021208543
19	0x3af7c1f1	0.0018902404
20	0xbca6da53	-0.020367777
21	0x3cd5b753	0.026088392
22	0xbd4faf90	-0.05070454
23	0x3d7dbee3	0.061949622
24	0xbd33abc1	-0.04386497
25	0xbd68356a	-0.056691565
26	0x3c27cc41	0.010241569
27	0xbc525c91	-0.012839452
28	0xbcccec7a	-0.025015105
29	0xbd4892c2	-0.048968084
30	0xbc65f4e8	-0.014035441
31	0xbcc2e70a	-0.023791809
32	0xbd49e74d	-0.04929285
33	0x3d8d0b15	0.06886879
34	0x3d05d41c	0.032672986
35	0xbd8d9189	-0.06912524
36	0x3ad75a56	0.001643012
37	0xbd2222d5	-0.039584
38	0x3c4d13e9	0.012516954
39	0x3dc2a1bb	0.09503504
40	0x3d1c4965	0.038155932
41	0x3d1e54b2	0.03865499
42	0x3d9facb8	0.07796615
43	0xbd3f89c5	-0.046762247
44	0x3d7a286d	0.06107371
45	0xbc9665c5	-0.018359074
46	0xbd11c165	-0.035584826
47	0x3d24783d	0.04015373
48	0xbcc1d3e9	-0.023660617
49	0xbd30ddef	-0.043180402
50	0x3d9086c8	0.070569575
51	0xbdab279c	-0.08357164
52	0x3d014654	0.03156121
53	0x3d5d09f2	0.053964563
54	0xbd72a6ae	-0.05924099
55	0xbdb2729e	-0.08713268
56	0xbd8be244	-0.06830266
57	0x3c50048c	0.012696397
58	0x3cd0d0e9	0.025490241
59	0xbbf995f4	-0.0076167528
60	0xbc3149c9	-0.010820814
61	0x3c469bb4	0.012122083
62	0xbd127c14	-0.03576286
63	0x3c30e478	0.010796659
64	0xbccac80c	-0.024753593
65	0xbb37b88d	-0.0028033585
66	0x3d0b35db	0.033986907
67	0xbd420e63	-0.047377
68	0x3d5516b9	0.052023623
69	0x3d9811a5	0.074252404
70	0x3c803889	0.015651958
71	0xbd55982d	-0.05214708
72	0xbbb9a249	-0.005665098
73	0xbd3226a3	-0.043493878
74	0xbd4f831e	-0.050662152
75	0xbd9e202a	-0.077209786
76	0xb8b78337	-8.750561e-05
77	0x3d2ee9ab	0.042703312
78	0xbd6ac737	-0.057318892
79	0x3d2bf322	0.041979916
80	0xbba9108c	-0.0051594432
81	0xbce9a709	-0.028522031
82	0xbd81717e	-0.06320475
83	0xb92f5714	-0.0001672174
84	0xbd9eff81	-0.07763577
85	0x3ac70921	0.0015185216
86	0xbcf9a4b5	-0.030474046
87	0x3c23b481	0.009991766
88	0xbc748099	-0.014923238
89	0x3c3a701d	0.011379269
90	0x3d8b3806	0.06797795
91	0xbc2c982f	-0.01053433
92	0xbbf43ff9	-0.007453915
93	0xbd1a094d	-0.037606526
94	0xbcc1fa60	-0.023678958
95	0xbc9ea993	-0.019367969
96	0x3ccb5b8f	0.024823932
97	0x3d8177d5	0.06321684
98	0x3cbd6209	0.023118036
99	0xbd8c82da	-0.068608955
100	0xbb8610d9	-0.004091364
101	0x3dc55ca1	0.09636808
102	0xbd5cb899	-0.053886984
103	0xbd968721	-0.073499925
104	0xbd9e9dff	-0.07744979
105	0x3d8306f5	0.06397811
106	0xbd805571	-0.06266297
107	0x3d807cfb	0.06273838
108	0x3d10bad5	0.035334427
109	0x3d4d3862	0.0501026
110	0x3d4a7360	0.049426436
111	0x3d85e01d	0.06536887
112	0x3be2dd77	0.0069233733
113	0xbd0a396d	-0.03374617
114	0x3d573a82	0.05254603
115	0x3ce89104	0.028389461
116	0xbd440b72	-0.047862478
117	0x3d15d80c	0.03658299
118	0xbceed874	-0.029155947
119	0xbd00f94f	-0.03148776
120	0x39f8d10c	0.00047457998
121	0x3da518fb	0.08061405
122	0xbbb45aae	-0.005503974
123	0x3cb159b6	0.021649223
124	0x3cb6ecf0	0.022329777
125	0x3c931845	0.017955909
126	0x3d78dbcb	0.060756486
127	0xbd92839a	-0.07154007

convs.1.bn1.weight f4 [128]
0	0x401b3b5e	2.4254985
1	0x3fc92399	1.5713989
2	0x40029e1d	2.0409005
3	0x3fbbdb69	1.4676334
4	0x40541c40	3.3142242
5	0x401d56be	2.4584193
6	0x3fa6f292	1.3042777
7	0x408d569c	4.4168224
8	0x3f89f721	1.0778543
9	0x4001da02	2.0289311
10	0x404ed8c4	3.2319803
11	0x40404902	3.004456
12	0x4075d8bf	3.8413541
13	0x401b4876	2.4262977
14	0x409cb539	4.897122
15	0x408615a3	4.190141
16	0x4070c39b	3.7619388
17	0x409398a5	4.6123834
18	0x40535077	3.3017862
19	0x40022cb6	2.033979
20	0x403a1db7	2.9080637
21	0x40c6c4f0	6.21154
22	0x4079fded	3.9061234
23	0x40088488	2.133089
24	0x4011e944	2.2798624
25	0x405f8335	3.4923832
26	0x3fb51d21	1.4149514
27	0x401e2e6c	2.4715834
28	0x40972f7a	4.7245455
29	0x406f1d4a	3.7361627
30	0x40272d39	2.6121352
31	0x3f3f6f0c	0.7477882
32	0x3f2c74c7	0.6736569
33	0x407e5c6c	3.974391
34	0x3ff7e2dd	1.9366108
35	0x40aade8b	5.339666
36	0x402ae1e8	2.6700382
37	0x402afdfc	2.671752
38	0x3ff05739	1.8776618
39	0x4067aab0	3.619793
40	0x40585479	3.3801558
41	0x402700f7	2.609434
42	0x404f2386	3.2365432
43	0x404f2851	3.2368357
44	0x3f4cabc2	0.7994958
45	0x408fd909	4.4952435
46	0x401b22c0	2.423996
47	0x405fc195	3.4961903
48	0x40271372	2.6105618
49	0x4045acd2	3.088673
50	0x406867ab	3.6313274
51	0x4031ff7e	2.781219
52	0x3fd6e863	1.6789669
53	0x3fb71c29	1.4305469
54	0x40cb4ce5	6.3531365
55	0x3ff68a8d	1.9261032
56	0x40697af6	3.64813
57	0x408ea9b8	4.4582176
58	0x40a188ea	5.047963
59	0x3fdcea8a	1.7259076
60	0x40718b5f	3.7741315
61	0x3e8040d4	0.2504946
62	0x40641bd0	3.5641975
63	0x40530185	3.2969677
64	0x3fab3ee4	1.3378568
65	0x3fce2645	1.6105429
66	0x3fe39849	1.7780849
67	0x3fde0141	1.7344133
68	0x3f8e1620	1.1100502
69	0x4035c06b	2.8398693
70	0x401ab279	2.417143
71	0x4028b64d	2.6361268
72	0x402422a4	2.5646143
73	0x3f90ef38	1.1323004
74	0x3fec5f83	1.8466648
75	0x3faafd7c	1.3358607
76	0x403978af	2.897991
77	0x40665a0a	3.5992455
78	0x3fae2745	1.3605734
79	0x3e9b5372	0.303371
80	0x3f6c265f	0.9224605
81	0x40489879	3.1343062
82	0x3fb83a2e	1.4392755
83	0x3fec501c	1.8461947
84	0x3f0ed4dc	0.5579355
85	0x3fd189a9	1.6370136
86	0x3fff7efa	1.9960625
87	0x401205fa	2.2816148
88	0x3fc8cdec	1.5687842
89	0x3f2294b9	0.6350818
90	0x402fc956	2.7466636
91	0x3f48075c	0.7813623
92	0x3fa6a432	1.3018858
93	0x401e0031	2.4687617
94	0x3f260499	0.64850765
95	0x40558910	3.3364906
96	0x3f227bc8	0.63470125
97	0x3fb8b312	1.4429648
98	0x3fa61030	1.297369
99	0x3b9a938a	0.004717295
100	0x3df20440	0.11817217
101	0x4081d7d3	4.0575957
102	0x3f9213db	1.141231
103	0x404244e0	3.0354538
104	0x3fbb4e0c	1.4633193
105	0x401a5332	2.4113278
106	0x3fb2283c	1.3918529
107	0x404e533f	3.223831
108	0x40006800	2.0063477
109	0x400d3c77	2.2068155
110	0x40490be3	3.1413505
111	0x3fe0f202	1.7573855
112	0x3ff773be	1.9332197
113	0x3fafd188	1.3735819
114	0x40535aaa	3.3024087
115	0x405275e0	3.2884445
116	0x3f84d3d0	1.037714
117	0x3ffa340a	1.9547131
118	0x40610dbc	3.5164633
119	0x40067931	2.101147
120	0x3f2ac59f	0.66707796
121	0x3fe6b542	1.8024065
122	0x3ff15f1b	1.8857149
123	0x3ffb8764	1.9650693
124	0x3fbbc5fa	1.4669793
125	0x3ee254db	0.44205365
126	0x40318ee5	2.7743466
127	0x3fcb08bf	1.5862044
