results/Prediction/2023-06-14/23:09:15.363000/models/model296.pth (torch, 340949 bytes, 34 tensors)

embedding.weight f4 [64, 92]
00000000: a489 df3f 0632 b23f 8e8d 0dc0 29d4 683f
00000010: 3793 0ac0 fcc5 dec0 5f3e 98c0 effd 69bf
00000020: c96e 8bbe 02f4 1340 5b81 f1bd 1c9c 2cc0
00000030: 5a33 cd3f 0233 e53e 2550 eabe 665b 1a40
00000040: b8a8 92bf 926c fb3d b04b fbbf a516 803f
00000050: 0f90 873f 8629 fdbf b6b7 ebbe 236a 88bf
00000060: a364 e7bf 4c02 c63f c8d2 a5bf aea3 c13f
00000070: f979 0b3f d361 c1c0 22af bbbe 561c 53bc
00000080: 1753 9e3f 544b 0ac0 3675 c4bd b65e 8cbf
00000090: d4c6 8a3f a9ee 07bf 377a 30c0 7342 c63e
000000a0: e281 a63f a289 00bf 557e 45bf f9ec 00be
000000b0: 47f1 e03d b2d2 a1bf 0095 b93f f9b5 983e
000000c0: 8888 5d3f bc52 ddbf 4689 29bf 63d7 17c0
000000d0: b6c2 8abf c10a 95be a3c3 1340 df90 43c0
000000e0: 20e5 37c0 0751 5240 470b aebf 781f e13f
000000f0: 5def 2ebf 4666 fc3f 8948 63c0 a6c8 9ebf
00000100: 4594 35bf 37de 82bf 6837 bc3d 3f2e 48bc
00000110: 39d0 54c0 f50a 95bc 70d6 2fc0 1c89 1dbd
00000120: 2341 b03f dc1c 9cbe cb0e b2be 7908 55bf
00000130: a0bd c8bc 41b9 f03d 51f1 40be cf94 58bf
00000140: a84e 72c0 c10d e23f a0c1 19c0 fef3 c7bf
00000150: 1800 ffbe a356 1ebf 7855 46c0 db61 abc0
00000160: 575d 5f40 3548 e0bf 345b 3bc0 8f88 013e
00000170: f7c7 033f dc5d 573d 08de 173d 3abb 97bf
00000180: e3c6 243f 2906 fa3f 5166 683f 8cde b93f
00000190: dc04 b43f bc8a 52c0 1bc8 03c0 4504 4cc0
000001a0: 95d5 4bbf 5572 d2be d55c a83f d9eb 8d3e
000001b0: 33f1 22bf 286e 4b3f 1252 d0c0 6dc7 8cbf
000001c0: ebe5 b4be b36d 4340 c9bd e4be ff41 c0be
000001d0: f527 05c0 5d01 123f e888 823e 77fe 8f3d
000001e0: 036c 6e3f a112 05c0 ec04 613f ab4e 8a3e
000001f0: 0712 903f be35 1d3f 6caa 1ebf 1dd6 613f
00000200: 6c4e 90bf c9ef 60bf e36b 27c0 03da 3dbf
00000210: f75b a63f dc3d 60bd a573 fbbf c1f3 bf3e
00000220: a944 2bc0 8b33 8140 928c f23d 4b05 883e
00000230: 05e7 65bf 64c0 283f fb86 0b3f eda8 f9bd
00000240: fb42 203f e607 903f 2c24 55c0 2a19 213f
00000250: 12e2 49c0 6063 34c0 c644 893e bed0 533d
00000260: 3b7b dcbf 8d8a a83f bf96 4d3d 2e30 12c0
00000270: 0be1 40bf e7f5 423f 6250 8bbd 169b a33f
00000280: 7d4a 3ebf eadb 2b3d b08f a73f 29f6 cc3d
00000290: 517d 3fbf b242 6dbf a089 a43e df4f e1be
000002a0: 2d24 97bd b7ae 5d3f d6b7 13bf 666a 05bf
000002b0: 1e9a 78bf f460 f53e 9c1d 66c0 1903 b93b
000002c0: d8fc f03f 73a9 dabe 76b2 71bf 7e9a afbf
000002d0: 962e 383f 28e0 fd3e c3f6 c03e b551 d3be
000002e0: d1ee 9cc0 eb4a a9bf 3c32 cc3f 248a 03c1
000002f0: ab4d 97c0 b329 a3c0 2cef acbf db1d b7bf
00000300: 8f92 aec0 8451 423c 52b2 f9bf c49f 0840
00000310: f49a 6f40 2746 0540 2a31 c43f eaf4 b93f
00000320: ccc1 41bf cffb 00c0 3e2e fdbf 2f2a e33f
00000330: f159 8ebf 9bdc 2ebd 66e5 9c3f 7eb6 28bf
00000340: 2d3d 03bf 2f6c 2840 057b c3bf 99c8 88c0
00000350: 5e96 b3bf 258e 8a3f 7ed8 2540 ae9e 1ec0
00000360: 197a 4740 8f06 15c0 8b39 21be 1927 033f
00000370: eaf7 f53f 4c48 3c3d 49e2 2ebf 30ae a53f
00000380: 13ca d13e fc9f 223f 027f a2c0 2082 3ac0
00000390: 944a 9c3e 4d17 54c0 2d66 aebf ee5f bebf
000003a0: 3684 ab3f 2d00 f23e b587 243f 332d 9ebf
000003b0: f099 3fc0 a968 b1c0 07c6 87bd 9e04 d43f
000003c0: 2729 0240 503e 0140 06dd c1bf 4717 6dc0
000003d0: 3300 d3bf 0e47 3f3f 4157 343f 855d 8b3e
000003e0: c1da 44bf edc2 b83e b5e4 77bd b737 1240
000003f0: de54 1a40 d088 b7bc ddb1 02bf db8f c73d
1.746388 1.3921516 -2.2117648 0.9094873 -2.1652353 -6.961668 -4.7576137 -0.91403097
-0.2723296 2.311768 -0.11792251 -2.6970282 1.6031296 0.44765478 -0.4576427 2.4118285
-1.1457739 0.122765675 -1.9632473 1.000691 1.0590838 -1.9778297 -0.46038598 -1.065739
-1.8077587 1.5469451 -1.295495 1.5128076 0.5448299 -6.0431914 -0.36657053 -0.012885174
1.2369107 -2.1608477 -0.09592669 -1.0966403 1.0841928 -0.5309854 -2.7574594 0.38722572
1.3008387 -0.5021001 -0.7714589 -0.12590398 0.1098352 -1.2642424 1.4498596 0.29826334
0.86536455 -1.7290874 -0.6622509 -2.3725212 -1.0840671 -0.29109767 2.3088157 -3.0557172
-2.8733597 3.2861955 -1.3597192 1.7587729 -0.6833399 1.9718711 -3.5513022 -1.2404983
-0.70929366 -1.0224065 0.091902554 -0.012218057 -3.325209 -0.018193701 -2.7474632 -0.038460836
1.3769878 -0.30490768 -0.3477691 -0.83216053 -0.024504483 0.117540844 -0.18842055 -0.84602064
-3.7860508 1.7660447 -2.402443 -1.5621336 -0.4980476 -0.6185095 -3.0989666 -5.3556952
3.490072 -1.7522036 -2.9274416 0.12649749 0.51477 0.052579746 0.03707698 -1.1854012
0.6436598 1.953313 0.9078112 1.4521041 1.4063983 -3.2897177 -2.0590885 -3.1877606
-0.79622775 -0.41102853 1.315333 0.27719 -0.6364929 0.7946496 -6.5100183 -1.099836
-0.35331663 3.0535705 -0.44676045 -0.3755035 -2.0805638 0.5703333 0.25495076 0.07030957
0.9313356 -2.079262 0.87898135 0.27013144 1.1255502 0.6141013 -0.61978793 0.88217336
-1.1273932 -0.87865883 -2.61596 -0.74160784 1.2996815 -0.054746494 -1.9644667 0.37490657
-2.6760657 4.037542 0.11843218 0.26566538 -0.8980563 0.65918565 0.5450284 -0.12190423
0.62602204 1.125241 -3.3303328 0.6292902 -3.1544232 -2.8185654 0.26810282 0.051712744
-1.7225107 1.3167282 0.05019259 -2.2841907 -0.7534339 0.7615647 -0.06802441 1.2781703
-0.7433241 0.041957773 1.3090725 0.10007889 -0.7480059 -0.92679894 0.3213625 -0.4400625
-0.07379947 0.8659472 -0.57702386 -0.52115476 -0.97110164 0.47925532 -3.5955572 0.005646121
1.8827162 -0.42707404 -0.94412935 -1.3719022 0.71946084 0.4958508 0.37688264 -0.41273275
-4.9041524 -1.3225988 1.595283 -8.221226 -4.728231 -5.09884 -1.351049 -1.4305986
-5.4553905 0.011860255 -1.9507544 2.1347513 3.7438326 2.0824068 1.5327504 1.4527867
-0.75686336 -2.0153692 -1.9779737 1.7747248 -1.1121198 -0.042690855 1.2257507 -0.6590346
-0.5126522 2.631603 -1.5271918 -4.274487 -1.4030263 1.0824629 2.5913386 -2.478435
3.1168272 -2.3285253 -0.15744607 0.51231533 1.9216282 0.045967385 -0.68314034 1.2943783
0.40974483 0.63525367 -5.078004 -2.9141922 0.3052565 -3.3139222 -1.3624932 -1.4873025
1.3399723 0.4726576 0.6426957 -1.2357544 -2.9937706 -5.544026 -0.066295676 1.6563909
2.0337617 2.0194283 -1.5145576 -3.7045457 -1.6484436 0.74717796 0.7044564 0.27219787
-0.7689629 0.36086217 -0.060520846 2.2846506 2.41143 -0.022404104 -0.5105265 0.09744235

convs.0.fc_full.weight f4 [128, 169]
00000000: 5578 90c0 2680 593e 9e54 30be 9da9 083f
00000010: 3510 3a40 3abf 11bf 568f 24be 454b 0940
00000020: cde2 1640 11f0 753f 2a7a 21bf 8165 4b40
00000030: 51ca dfbe f606 8c3f d44b bfbf d91b 003f
00000040: eb8d 9bbf b867 1cbf 33f5 b53e 1f31 93bf
00000050: 50db b5be c5a1 2240 5cfe 31c0 bafc 18bf
00000060: 653a 2fc0 980b 19c0 9a3c b93e 63f9 fd3d
00000070: 9c65 9abf 6bb0 0f40 74ab 94bf 3cf7 d8be
00000080: ee4b e8bf 9235 c93f 2fb1 1cc0 6a95 bcbf
00000090: 11da 3bc0 5adb 693f 5419 8a3f dc78 ba3f
000000a0: 26c3 97bf 1d2f 3c3e c0f6 9fbe 923b 4740
000000b0: 0a81 2340 9db7 3fbf 7a8a 03c0 4598 553f
000000c0: f4aa 833f 6b7d 0e40 dd83 c0bf baab 5abe
000000d0: 0a28 bcbf 6562 0bc0 e5a1 e0bf 8f4c c33e
000000e0: bb87 8cbf 67b0 943f b927 9fc0 1b09 c73f
000000f0: 9ad0 1140 75d3 1ec0 ecef a33f effb 5c3f
00000100: 4490 52bf c5bf 5cc0 a674 8cc0 7b41 d73f
00000110: 9b6f d7c0 090b 1840 9855 9f40 bacf 8f3f
00000120: c7a5 9dbf f16c c2c0 8ecf 9bbe afc5 eabe
00000130: 85c3 153f 93fb 55be 06b0 86bf abe0 0c40
00000140: d812 3c3f 3c1b 1140 9909 2d3f c34e 8f40
00000150: 4cb8 5d3f 3869 4f3f 6578 abc0 acbc 3c40
00000160: fc70 3bbf 199f 9ebf 1f9f 30c0 7136 1b3f
00000170: fd31 c63f 3aa3 a0bf e6ea 1f40 8f87 0ebf
00000180: 38f7 55c0 3362 6d3e f474 49be 8d4e 533f
00000190: f808 4e40 e6db ad40 47da 4b3f c2e2 1dc0
000001a0: a47a 893f 24c4 5340 f71f 0b40 7cdc c13f
000001b0: 2963 e3bf e397 823f e719 60c0 a791 5940
000001c0: 473b 873e 9fd2 afbf f35b 0c40 802a 8fc0
000001d0: 6635 3fbf 14fa 4140 60dd 8040 f5d6 8840
000001e0: 51c7 3ac0 7105 a6c0 5e41 b83f 5b99 2940
000001f0: 526b bb3f 4130 733e 04c8 0b3f 6d5d 0a3f
00000200: b735 c63c 3c4a 763d b746 93be 62ef 55bb
00000210: 460d 03be 1f05 a8bd 3689 433f a583 aa3e
00000220: f458 52bf d737 be3e 020f 2c3f 9108 833a
00000230: eae5 4ec0 4863 83c0 d31a 22bf e630 e240
00000240: 24a1 bd40 6397 1e3f abb1 35c0 358a 8dc0
00000250: a31e 5ec0 612e 4cc0 6b30 69bf 2ece 7240
00000260: 7d9a 7240 fba4 4ebe f10f 063d ed9b 0fc0
00000270: f0c4 76c0 0922 04c0 740a d3be 2308 8abe
00000280: d046 89be 51f5 98be 6011 92bf be23 a8bf
00000290: 49fe 13bf b5f5 ba3c c5e6 363d 25e7 463c
000002a0: 38ca 843d e916 093c 07dd d7c0 1cb6 fcbf
000002b0: 5a77 03bf c8c6 cbbf 3098 b8bf 6707 8d3f
000002c0: 35b8 0dbf ad79 5abd 77f8 403d 175b 4fbf
000002d0: 98f9 32c0 6e0f 23c0 f58a 1b3f 7ac5 8a3f
000002e0: 577d 8ebf 78f5 5d3f e729 ea3f 21dc c2bf
000002f0: 0d11 153f 0711 6ac0 a769 8fbe fd13 703f
00000300: 173f ea3f 9b04 0140 bb12 e5bf 2783 d1bf
00000310: 875e 3c3f e424 923f 6574 42c0 8b54 a73f
00000320: 9cb2 903e 54e9 8e3f 3697 55bf 0d4b 9ebe
00000330: b1cf 183e 7585 5abe f44c 14c0 acf3 1340
00000340: ab34 eabf f147 a5be 8dd5 8abe d2e6 e13d
00000350: 23b9 8bc0 6cc2 853f 65d8 9440 9d20 4440
00000360: 7bf5 66c0 8861 9d3f 79ae 59be 07a7 e23d
00000370: 6e17 38c0 1355 883f 6f87 d3bf 4430 71bf
00000380: a59e 80bf 0d74 e6bf a2ef 083e 1699 a83f
00000390: 8452 1cc0 14e0 abc0 ff55 adbf 0aae 813d
000003a0: 7462 69bf 6fea c63f 06d6 1fbf 48d5 4140
000003b0: f1ed 6640 1b67 cd3f a7e7 32c0 82e6 6d40
000003c0: 0ffd 0d40 1e78 a2be 0967 8240 ee82 2fc0
000003d0: 6ed5 3ebe 7cdd eb3d 0f58 23c0 c9e5 843f
000003e0: 3cb6 0b3f 68cc e43f 71da c7bf fb71 0340
000003f0: 23c9 bc3f ecea 833f 6ed1 6f3e 768e 5540
-4.514689 0.21240291 -0.17219779 0.5338381 2.9072392 -0.56932414 -0.16070303 2.145219
2.3575928 0.9606944 -0.6307703 3.1780703 -0.43709043 1.0939624 -1.4945016 0.5004249
-1.2152685 -0.6109576 0.35538635 -1.1499366 -0.35518885 2.5411236 -2.7811499 -0.5976063
-2.7379391 -2.3913326 0.36179048 0.12401082 -1.2062259 2.2451427 -1.1614823 -0.42376125
-1.8148172 1.5719473 -2.4483144 -1.4733098 -2.9351847 0.9135033 1.078898 1.4568133
-1.185643 0.18377347 -0.31242943 3.113011 2.554751 -0.74889547 -2.055327 0.8343547
1.0286546 2.226405 -1.5040241 -0.21354571 -1.4699719 -2.1778805 -1.7549406 0.38144347
-1.0978922 1.1616334 -4.973599 1.5549654 2.278357 -2.4816563 1.2807593 0.8632192
-0.8225138 -3.4492047 -4.3892393 1.6816858 -6.7323737 2.3756735 4.9791985 1.1235268
-1.2316216 -6.0757985 -0.3043179 -0.45853946 0.58501464 -0.20896749 -1.0522468 2.2012126
0.73466253 2.2672873 0.6759277 4.4783645 0.8660934 0.81019926 -5.3584466 2.9490156
-0.73219275 -1.2392303 -2.759712 0.60629946 1.5484005 -1.2549813 2.498712 -0.55675596
-3.343214 0.23181991 -0.1967352 0.82541734 3.2192974 5.433093 0.7962994 -2.4669652
1.0740552 3.3088465 2.173826 1.5145411 -1.7764636 1.0202602 -3.501581 3.399515
0.26412413 -1.3736151 2.1931121 -4.473938 -0.74690855 3.0308886 4.0270233 4.27624
-2.9184153 -5.188164 1.4394948 2.649985 1.4642127 0.23748876 0.54602075 0.54048806
0.024195535 0.06012939 -0.2876489 -0.0032643904 -0.12798032 -0.08204102 0.7638124 0.33303562
-0.8216698 0.37151977 0.672104 0.000999706 -3.2327828 -4.1058693 -0.6332218 7.068469
5.9259205 0.6194975 -2.838969 -4.423121 -3.47062 -3.1903307 -0.91089505 3.7938342
3.7906792 -0.20180123 0.032730047 -2.243892 -3.85577 -2.0645773 -0.41218913 -0.26959333
-0.26811838 -0.29874662 -1.1411552 -1.3135908 -0.57809883 0.02282224 0.044653673 0.01214007
0.06483883 0.008367279 -6.745731 -1.9743075 -0.5135399 -1.5920038 -1.4421444 1.1017884
-0.553592 -0.053338695 0.047111955 -0.8099837 -2.796484 -2.5478168 0.60758907 1.0841515
-1.1132001 0.8670268 1.8294038 -1.5223428 0.5822914 -3.6572893 -0.28010294 0.937805
1.8300503 2.015906 -1.7896341 -1.636815 0.7358174 1.1417508 -3.0383542 1.3072675
0.28261268 1.1164956 -0.83433855 -0.30916634 0.14922978 -0.21339972 -2.3171968 2.3117476
-1.8297323 -0.3228145 -0.2711605 0.110303536 -4.3663497 1.0449958 4.6514153 3.0644906
-3.608733 1.2295389 -0.21257962 0.11067014 -2.87643 1.0650963 -1.6525706 -0.9421427
-1.0048414 -1.8004166 0.13372663 1.3171718 -2.4425364 -5.3711033 -1.3541869 0.063320234
-0.9116585 1.5540293 -0.6243595 3.0286427 3.6082728 1.604709 -2.795389 3.717194
2.2185705 -0.31732267 4.0750775 -2.7423663 -0.18636104 0.11516854 -2.5522497 1.0382625
0.5457494 1.787488 -1.5613538 2.0538318 1.4748882 1.0306067 0.23419735 3.3368201

convs.0.fc_full.bias f4 [128]
00000000: d454 8abc b865 283d e859 c1bd a60b 14bc
00000010: d093 5dbc bde4 063e 7cb9 cf3c 5d6c a4bc
00000020: a1e7 18bd d780 53bc 6aa5 7b3c 8795 203b
00000030: efc3 943d 8f97 7ebd a3b5 b23d bd52 cd3c
00000040: 865e 8bbd 9683 783b a471 4bbb c0fc 41bd
00000050: 99d6 543d f08c ba3c 3247 4c3b 7b13 c73c
00000060: f3d7 cebc 5664 c43d 2080 f2bb 1b22 08bd
00000070: e5bf cc3c bc17 b1bc 881c 6bbc 0969 57bc
00000080: 1bc6 67bc e664 00bd c368 f5bc 9da6 4d3d
00000090: dfc5 b4bd d1bd 463c 9073 b23d 5c04 503d
000000a0: 67e7 83bb 8438 123c 5318 a3bd f377 543c
000000b0: 2695 55bc 3ce9 a73d 1b8e 2c3d 4915 4d3d
000000c0: 95d1 753d 5d75 ea3d 2bf3 9bbd 8373 fe3c
000000d0: 032c 993d fa41 c6bd 5f98 1cbd 54f5 433c
000000e0: 80a4 6c3d 4587 a33d 1e9e 85bd 69f5 083d
000000f0: 3675 3dbd e3dd 69bd fa16 423c ff1f 963d
00000100: fd6d f73c 5d4a 29bd 57b5 dd3c 3ace 293d
00000110: 9e94 a23b 25a4 133d 401d b33c f045 46bd
00000120: 6136 cfbc f650 8fbc 8a67 e73c bcf2 503c
00000130: 5fd5 6b3d ebf7 1bbd 606f 433d 5e9b 61bd
00000140: 4250 ec3d e038 76bd 0ce2 25bc 84f9 64bd
00000150: 717b aa3c 0483 aabc 1644 713d 8bfc 803d
00000160: 827c 393c 876b 57bd 7265 043b b966 603d
00000170: 364c 033c 0666 8dbc 86ef 1e3d 7a64 793c
00000180: 8e37 d4bd 430e 01bd a993 07be daef 56bd
00000190: 5d9d 24bc 5ca0 dabc bbc0 873d b01a 9fbd
000001a0: 3103 3e3d 46e9 073d 6e25 e6bd 7e13 893d
000001b0: 0864 f5bc 375f 89bd 77e0 9abb 6a3b 4bbd
000001c0: afd2 28ba 3e4a 40bc d0b7 78bc 97c9 643c
000001d0: 8712 51bd 28c5 22bd 752b a53d 5e7a 82bd
000001e0: 1cd4 953d 597f a6bc 3854 103c 3d03 2f3c
000001f0: 39ba b43c c055 e93c 2f86 5fbc acb6 063e
-0.016886152 0.04111263 -0.094409764 -0.00903598 -0.013524011 0.13173194 0.025357 -0.020071203
-0.037330274 -0.012909136 0.015359262 0.0024503188 0.07263934 -0.062156256 0.08726051 0.025063867
-0.06805138 0.0037920228 -0.0031043077 -0.04736018 0.05196247 0.022772282 0.0031170365 0.024301281
-0.025249457 0.0958945 -0.0074005276 -0.03323565 0.024993846 -0.021617763 -0.014350064 -0.013147601
-0.014146353 -0.031346224 -0.02995718 0.050207723 -0.088268034 0.012130217 0.08713448 0.050785407
-0.004025388 0.008924607 -0.07963624 0.012968051 -0.013036048 0.08198783 0.04212771 0.050069127
0.060014326 0.114481665 -0.0761474 0.03106094 0.07479098 -0.09680553 -0.03823125 0.011960346
0.057774067 0.07984785 -0.06524299 0.033437166 -0.04625436 -0.057096373 0.011846298 0.073303215
0.030203814 -0.041330684 0.027064009 0.04145644 0.004961564 0.036045212 0.021864533 -0.04840654
-0.025294485 -0.01749466 0.028247613 0.012753185 0.057576533 -0.03807823 0.047713637 -0.05507981
0.115387455 -0.060112834 -0.010124695 -0.05590202 0.020810815 -0.020814426 0.058902822 0.06298169
0.011321189 -0.05259278 0.0020202068 0.054785464 0.008013776 -0.017260563 0.038802646 0.015221709
-0.10362159 -0.03150774 -0.13239922 -0.052474834 -0.010047284 -0.026687793 0.06628557 -0.07768762
0.046389762 0.03318145 -0.11237608 0.06693171 -0.029954925 -0.06707614 -0.0047264653 -0.04961721
-0.00064400857 -0.011736451 -0.015180543 0.013964078 -0.05104306 -0.039738804 0.080649294 -0.06370996
0.07315847 -0.020324396 0.008809142 0.010681924 0.022061454 0.028483272 -0.013642832 0.13155621

convs.0.bn1.weight f4 [128]
00000000: e213 b940 d0f6 9c40 31d4 9140 4fa8 bb40
00000010: e5f8 0841 229d 7b40 7017 8b40 f3d2 a940
00000020: 4876 8c40 1a9b fe40 339f 4a40 4c62 6a3f
00000030: bf4d dd40 c0cf 8740 d8a5 ab40 bcf5 a040
00000040: ae0f 8440 774f 8640 33bf 6240 09a4 fe40
00000050: ba93 b640 ad6a 7640 c0a8 9940 8737 1841
00000060: 41a7 1741 82d3 9740 a999 2640 e8b4 8a40
00000070: 981a 7d3f 213c 1a41 c646 5540 4673 6040
00000080: e56c 0641 e1bf a840 ffe8 c940 c6ea 8040
00000090: 1390 f640 8a72 0941 28be 0241 62c4 cd40
000000a0: b1af c940 705a 8f40 89a7 9b40 3d63 bd40
000000b0: 33c3 b940 46dd 8c40 8d45 cc40 eb49 1541
000000c0: ad0f 8540 ef2a e140 4ddb d140 8e94 c840
000000d0: 9508 983f a00b bd40 f48c 9b40 efc8 ad40
000000e0: d367 df40 e239 9a40 5afb b740 a046 dd40
000000f0: 6da4 f240 b657 1c41 d7a9 1841 4485 c640
00000100: b15a 4540 0800 9d40 9abd 5c3f c750 5d40
00000110: 011a 5840 2700 4840 9ba2 5a40 096f 1a3f
00000120: 1cf1 9440 8a6c 5d40 81bd 103f 5520 0f40
00000130: ccee c73f c156 9d3f adaa be40 9d79 b73f
00000140: 9c4c a540 4bed e040 5921 ba40 f13c e53f
00000150: bedf 7140 94ac 823f 42b0 cf3f 1697 973f
00000160: 46e0 1040 01f4 1f40 2673 853f f97d 0740
00000170: e642 a740 8537 eb3f c47f 2b3f 145a a23f
00000180: 4435 703f 2814 b93f 8c3b ddbe 99b3 723f
00000190: 51fb 1540 4af8 d33f bdf6 c640 29a0 1340
000001a0: db04 7b40 d088 8c3f c293 e23f 1ab2 6540
000001b0: ead0 263f 18f6 d340 151c ff3f de2d 1f40
000001c0: 80ec 5140 8dbb 653f 4ba5 b740 cf07 1e40
000001d0: dca9 5541 6891 bc3f fd58 1d40 cddf 5b3f
000001e0: 7c05 c440 80db e43f 96a0 5340 4330 a83f
000001f0: 64d8 5c40 c121 9d40 5d56 ae3f 7286 763f
5.783677 4.9051285 4.5571523 5.8642955 8.560765 3.9314656 4.346611 5.3070006
4.3894386 7.9564333 3.1659667 0.9155624 6.9157405 4.24411 5.3639946 5.029997
4.126914 4.1972003 3.5429199 7.957524 5.705533 3.850261 4.8018494 9.5135565
9.478333 4.744569 2.6031287 4.3345833 0.98868704 9.63968 3.3324447 3.5070357
8.401586 5.2734227 6.309692 4.028659 7.705087 8.590464 8.171425 6.4302225
6.3026967 4.4797897 4.864201 5.918364 5.805078 4.402011 6.38349 9.330546
4.1581635 7.036491 6.55802 6.268134 1.1877619 5.907669 4.860956 5.430778
6.981424 4.819566 5.7494326 6.914871 7.5825715 9.771414 9.541465 6.203768
3.0836604 4.906254 0.8622681 3.4580553 3.3765872 3.1250093 3.4161747 0.60325676
4.6544323 3.4597497 0.5653916 2.2363484 1.561975 1.22921 5.9583344 1.4333988
5.1656017 7.0289664 5.8165708 1.7909223 3.7792811 1.0208917 1.6225665 1.1842983
2.2636886 2.4992678 1.0425766 2.1170638 5.2269163 1.8376318 0.6699183 1.268374
0.93831277 1.4459276 -0.43209493 0.94805294 2.3434641 1.6560147 6.2176194 2.3066504
3.9221714 1.0979252 1.7701342 3.5889955 0.6516253 6.6237907 1.9930445 2.4871745
3.2800598 0.89739305 5.7389274 2.4692266 13.35397 1.4731874 2.4585564 0.8588837
6.1256695 1.7879486 3.3066764 1.3139728 3.4507074 4.9103703 1.3620106 0.962989

convs.0.bn1.bias f4 [128]
00000000: 785d 1e3f 7ce5 a53f 8044 6040 8bc8 a73f
00000010: 3020 a73f dc40 2140 14ac 673f 52aa 8440
00000020: 18e9 713f c72b afbf 43a6 7c40 0198 c33f
00000030: ddcf 623f a726 5c3e 17ba 073f 1d3e b53f
00000040: ea65 b93f cba4 fb3f 8134 2cbf 6014 f73d
00000050: 0e53 1140 1c77 fd3f 8c57 a5bf e666 783c
00000060: 898e 663f bb39 c5bf 647c be3d d629 c13f
00000070: fb27 9b3f 4a32 4e3f c2a6 f53f af26 c03e
00000080: 55a4 aa3f 07ad 8a40 7485 2640 95b2 3b40
00000090: d461 f73e cd07 f13f 3a87 00bf fa99 3840
000000a0: ee17 94be 020e c83f c19b 07be 893c c23e
000000b0: cab3 7940 9974 6b40 5d38 1e3f f3ae a3bd
000000c0: 3936 5840 6198 bc3e 4eea b93d 317e a03e
000000d0: 9727 7fc0 4c92 0740 ca8b 013f 8b4a 0440
000000e0: c546 a13f 7469 bfbf 3568 0e3f b6fa 803f
000000f0: 284b 933f f125 9a3e bd7f 67bf e117 b03b
00000100: 2a8f 573f 8450 eb3f e9d0 a640 fee9 213f
00000110: 442e 7c3f a390 903f 5858 1040 e678 d440
00000120: 03a2 51bf 63b4 933f a735 c540 9301 c93e
00000130: 0b7d 4a40 1cc6 4040 094a 823e a868 ee3f
00000140: 1d84 123e fd3e 1a40 8191 93bf 1da0 753e
00000150: 4dc4 8f3e 99b1 3941 6dcf 3c40 6cac 4340
00000160: 85dd bb3f 335c dc3f 0b6c 4c40 77f5 a03f
00000170: 9ba6 a63f d102 bf3f e7af f840 1995 9dbe
00000180: 7f07 6540 46ca ce3f 88a2 9841 e69e df40
00000190: f6c8 9e3f a432 2740 01d5 9a3c 8f68 d23e
000001a0: b324 5b3f 962a a340 61ed 0d40 444d 25bf
000001b0: 2f4c c140 44f7 2340 defd 4340 bb10 a43f
000001c0: 45b6 aebf 26b3 b640 fa5a 4f3e 5d4f 0740
000001d0: 6397 9bbf 179a 2940 6c0a d23f 9756 7d40
000001e0: 0a80 703c 7a41 0640 a9d9 b83f d577 2240
000001f0: 9a42 0f40 6346 b33f 6879 5c40 6327 f3be
0.6186137 1.2960658 3.504181 1.3108076 1.3056698 2.5195837 0.90496945 4.145791
0.944963 -1.3685235 3.9476478 1.5280763 0.88598424 0.2149912 0.53018326 1.415958
1.4484227 1.9659666 -0.67267615 0.12064433 2.2706943 1.9801974 -1.2917342 0.015161252
0.9006124 -1.5408243 0.093010694 1.5090892 1.2121576 0.80545485 1.9191515 0.37529513
1.33314 4.3336215 2.6018953 2.9327748 0.48316824 1.8830506 -0.5020634 2.884398
-0.28924507 1.5629275 -0.13243009 0.3793681 3.9015985 3.6789916 0.61804754 -0.07992353
3.3783095 0.36835006 0.09077893 0.31346276 -3.9867914 2.1183043 0.50603926 2.0670497
1.2599722 -1.4954057 0.5562776 1.0076511 1.1507311 0.30107072 -0.9042929 0.0053739403
0.84202826 1.8383946 5.2130017 0.6324767 0.98508096 1.129414 2.255392 6.639758
-0.81887835 1.1539425 6.1627994 0.39259014 3.163882 3.0120916 0.2544711 1.8625689
0.1430821 2.4100945 -1.1528779 0.2398686 0.28079453 11.605859 2.9501603 3.0573988
1.4676977 1.7215637 3.1940944 1.257491 1.3019594 1.4922734 7.7714725 -0.30777815
3.5785825 1.6155479 19.079361 6.988147 1.2405078 2.6124659 0.018900396 0.41095397
0.85602874 5.0989485 2.2176135 -0.64571023 6.0405498 2.561967 3.0623698 1.2817606
-1.3649374 5.7093687 0.20249549 2.114219 -1.2155575 2.65003 1.640943 3.95841
0.014678964 2.0977464 1.4441425 2.538564 2.23844 1.4005855 3.44491 -0.47490987

convs.0.bn1.running_mean f4 [128]
00000000: 90aa e3c1 15fd 3e43 91dc ad42 fa65 6742
00000010: 8c63 75c2 6cf4 9041 2b73 b742 3986 69c2
00000020: d0c0 7fc3 0b49 98c1 ebe5 8343 111d a9c3
00000030: 48fe 28c2 ddd3 8342 637e 9e42 760d 3a43
00000040: ecb1 5142 7e6d 4843 e2c4 3a43 9507 99c2
00000050: 5598 3f42 66e4 86c3 c284 4642 0286 fd42
00000060: 7bc2 2a43 5468 4c42 c0f5 1043 4415 e742
00000070: 1ceb 6341 9cc7 92c1 2f9a 51c2 bfa5 2741
00000080: a5cd 0643 c781 4dc1 0a4c 5ac2 f9c4 a4c1
00000090: 7593 e7c1 db40 1543 dd81 0a43 fbe9 d042
000000a0: 85d8 db42 46b3 d4c2 c16a 6442 d7f0 50c3
000000b0: f461 3fc3 0e1b d443 2eef b6c3 9542 4ac1
000000c0: d40c 1cc3 688a d241 0936 11c3 4896 f842
000000d0: 9bc1 6742 8d5b 0c43 a375 0ec2 e990 6043
000000e0: 3434 c642 da82 3942 cccd 49c3 f5f3 5443
000000f0: 74e1 dbbe 5af3 1243 50fe 1ec2 c0e4 0d43
00000100: 447a 15c3 5454 4f43 e94c 8fc2 3e85 5e42
00000110: 8841 9ec3 c22e c842 dbe9 d542 ba1b a2c3
00000120: fc22 68c3 85a9 c543 be75 2143 d497 bcc3
00000130: f851 9842 129d 27c1 6c51 1c43 84b7 62c3
00000140: 43cd 99c2 7e7a 5d43 4950 bb42 aa6a 2d43
00000150: 6813 90c3 4e1e 02c3 31e7 c842 4deb 0543
00000160: a4a5 e7c1 ae3c 8c42 94bd 8543 d611 64c2
00000170: 5b0c 10c2 5e40 cfc2 b371 fe42 cdf8 1843
00000180: 70f4 5043 b671 1d43 0736 2dc3 d381 cd42
00000190: 9853 a4c2 2255 14c0 1494 bb43 024f 80c3
000001a0: 6f05 9443 e040 35c1 e6a6 1d42 5f19 49c2
000001b0: be80 1242 8117 5043 f754 3643 9162 4f43
000001c0: 6add 5341 0269 9c43 aa3f 9fc2 87eb 6dc3
000001d0: c236 ffc2 21b8 ad42 a56d e7c1 c5a3 3743
000001e0: 4564 7141 d6dd 6d43 f00c 93c2 6749 9743
000001f0: 7b19 ef41 67a6 1143 acb2 d743 15da 9ac2
-28.458282 190.9886 86.93079 57.849586 -61.347214 18.119347 91.72494 -58.381077
-255.75317 -19.035666 263.79623 -338.22708 -42.24832 65.913795 79.24685 186.05258
52.42375 200.4277 186.76907 -76.51481 47.89876 -269.78436 49.629646 126.761734
170.75969 51.101883 144.95996 115.541534 14.2449 -18.347466 -52.40057 10.477965
134.8033 -12.844184 -54.574257 -20.596178 -28.947 149.25334 138.50728 104.45699
109.92289 -106.35014 57.10425 -208.94078 -191.38263 424.21136 -365.8686 -12.641255
-156.05011 26.317581 -145.21107 124.29352 57.939068 140.35762 -35.61488 224.56606
99.10196 46.377785 -201.8039 212.95296 -0.42945445 146.95059 -39.748352 141.89355
-149.4776 207.3294 -71.650215 55.63012 -316.51196 100.091324 106.95675 -324.2166
-232.13666 395.32437 161.45993 -377.18616 76.160095 -10.475847 156.31805 -226.71686
-76.9009 221.47849 93.65681 173.41666 -288.1516 -130.11838 100.451546 133.91914
-28.95588 70.118515 267.48108 -57.017418 -36.012066 -103.62572 127.22207 152.97188
208.95483 157.44418 -173.21104 102.75356 -82.16327 -2.317696 375.15686 -256.61725
296.04245 -11.328339 39.412987 -50.274776 36.625725 208.09181 182.3319 207.38503
13.241556 312.82037 -79.624344 -237.92003 -127.60695 86.85963 -28.928537 183.63972
15.08698 237.86655 -73.52527 302.57346 29.887442 145.65001 431.39587 -77.42594

convs.0.bn1.running_var f4 [128]
00000000: 6857 0347 72c0 1147 e141 3b47 6127 1d47
00000010: 0e77 0e47 ca48 e146 06a5 c346 2ef6 0947
00000020: 33df f646 0a67 c346 eaf8 2f47 81f9 d546
00000030: ae12 fd46 b64d 0747 5254 0947 241d 1947
00000040: 30dc 3b47 97c7 3147 318e 6447 6fde d246
00000050: 1961 ba46 e233 7747 9c06 3c47 2c00 4047
00000060: 76ac 8b47 de14 5f47 4fb5 6147 5a80 6147
00000070: c769 3347 f0f8 ea46 a466 4147 a795 b346
00000080: c2f9 8a47 38f9 fd46 990e 2347 af6c bf47
00000090: 9017 7347 8a3e 0a47 9f1c 0c47 ac2c 9346
000000a0: a9dc 4d47 ffa6 3047 600d 6e47 dffc 4d47
000000b0: f52a 8447 0db0 2947 7be5 5347 1e1b 7647
000000c0: 04ba b246 68c9 5247 7f64 1547 b831 1247
000000d0: e787 9746 bce8 6747 3e97 d646 4e5b e146
000000e0: 74a5 4a47 fb7f 1d47 34c9 cd46 fa2b f546
000000f0: 9dec 4947 2354 cc46 d4b8 1a47 52bd e446
00000100: 1ff2 6247 c7b8 5647 cbd6 4a47 1b7c 5447
00000110: ef47 2c47 0dcf 1e47 8bcf 0a47 67ba 2347
00000120: 7493 9347 edc0 a847 c5df 5847 a0d3 ea46
00000130: e646 5847 7995 2547 95cc 3d47 8848 4147
00000140: 1f5f f346 d6e2 1c47 5f75 ec46 53ff af46
00000150: 1d10 3c47 68f1 3847 83e8 8047 657c cf46
00000160: 8197 1f47 169c 7547 1db4 7747 1a36 c947
00000170: c1a9 ae47 743f 3f47 266a 5747 369d bd46
00000180: 16b4 b247 0aab 9a47 7b26 fa47 1cc4 8a47
00000190: ccca 3847 9104 0d47 1fd8 3247 c2df 8e47
000001a0: 9b7c 8347 ca2d 2d47 678e 9047 646c 2147
000001b0: 6419 0047 8321 4b47 1fe8 cb46 ac52 b647
000001c0: a779 f646 9323 a147 7c86 5947 3508 1a47
000001d0: 7e9d 9e46 ad4c 6d47 e5c5 2a47 c7aa 6747
000001e0: 0e20 3047 e127 d447 219e ee46 c539 4547
000001f0: e2fa 8447 0564 3347 b6f1 9147 167e 0b47
33623.406 37312.445 47937.88 40231.38 36471.055 28836.395 25042.512 35318.18
31599.6 25011.52 45048.914 27388.752 32393.34 34637.71 35156.32 39197.14
48092.188 45511.59 58510.19 26991.217 23856.549 63283.883 48134.61 49152.17
71512.92 57108.867 57781.31 57728.35 45929.777 30076.469 49510.64 22986.826
71155.516 32508.61 41742.598 98009.37 62231.562 35390.54 35868.62 18838.336
52700.66 45222.996 60941.375 52732.87 67669.914 43440.05 54245.48 63003.117
22877.008 53961.406 38244.496 37425.72 19395.951 59368.734 27467.621 28845.652
51877.453 40319.98 26340.602 31381.988 51692.613 26154.068 39608.83 29278.66
58098.12 54968.777 51926.793 54396.105 44103.934 40655.05 35535.543 41914.402
75558.91 86401.85 55519.77 30057.812 55366.9 42389.473 48588.582 49480.53
31151.56 40162.836 30266.686 22527.662 48144.113 47345.406 66001.02 26558.197
40855.504 62876.086 63412.113 103020.2 89427.51 48959.453 55146.15 24270.605
91496.17 79190.08 128076.96 71048.22 47306.797 36100.566 45784.12 73151.516
67321.21 44333.79 74012.805 41324.39 32793.39 52001.51 26100.06 93349.34
31548.826 82503.15 55686.484 39432.207 20302.746 60748.676 43717.895 59306.777
45088.055 108623.76 30543.064 50489.77 68085.766 45924.02 74723.42 35710.086

convs.0.bn2.weight f4 [64]
00000000: 0e35 b63f 62a2 5a40 99a0 2640 4ca3 cd3f
00000010: 4024 843f 53cc b83f 78e4 b23f f40b a33f
00000020: 7907 353f 1f16 0140 61d9 943f a8b9 973f
00000030: bda8 1540 a317 cc3f 8f4d 2a40 b0ff e33f
00000040: ad0d b93f 0903 f33f 19e1 ee3f 113c 983f
00000050: 6f9e c53f 5a06 d63f 9c8c 3340 62c7 ab3f
00000060: ce79 bc3f bdba 9640 28a0 2f40 d681 7940
00000070: 0c76 0140 cfe8 ac3f 5b27 8d40 ded7 ec3f
00000080: 0450 8440 6ecb e73f 5fe3 0140 4e8f 5540
00000090: b10e 0e40 d2a7 3f40 a457 9d3f 73ba 433f
000000a0: 52aa dc3f b679 4140 c7cb 1140 4ff4 cd3f
000000b0: 0a2b 4940 7a75 cd3f 1b4c ee3f 8c17 3840
000000c0: 503c c53f f3db 4840 45a2 1d40 2f24 c53f
000000d0: 53e0 f53f ecab 3d40 a990 7340 fd84 7f40
000000e0: d342 0b40 c0a3 f93f 7e67 c73f 3212 0640
000000f0: 21a4 2e40 4866 883f bd7e 3040 be83 1b40
1.4234941 3.416161 2.603552 1.6065459 1.0323563 1.4437355 1.3975973 1.2738023
0.7071453 2.0169752 1.1628839 1.1853533 2.338424 1.5944713 2.6609838 1.7812405
1.4457299 1.8985301 1.8662444 1.1893331 1.5438975 1.6720688 2.805457 1.3420222
1.4724672 4.710295 2.7441502 3.8985496 2.02283 1.3508548 4.411054 1.8503377
4.1347675 1.8108957 2.0295026 3.3368716 2.2196467 2.994618 1.2292371 0.76456374
1.7239478 3.0230536 2.2780626 1.6090182 3.143252 1.6051476 1.8616976 2.8764372
1.5409031 3.1384246 2.4630291 1.5401667 1.9209083 2.9636183 3.8057044 3.992492
2.1759536 1.9503098 1.5578458 2.0948606 2.7287676 1.0656214 2.7577355 2.429916

convs.0.bn2.bias f4 [64]
00000000: 9a64 09c0 242e 15c0 6a0d 06be c4cd 23bf
00000010: 19fc d3be 406b 44c0 7f64 25c0 f4a7 0b3f
00000020: 0ceb 833e d5ce c8bf 5163 42c0 2c41 debf
00000030: 5b81 2cc0 ddb3 e3be f2f7 11c0 392f 12c0
00000040: 9551 9ebe e7b4 6cbf 64b8 9abe a842 12c0
00000050: f392 a1bf 7e22 a03e 80e1 7bbf a56e 46c0
00000060: 1b3e ffbf ff76 8cbf 1ed3 48c0 f7b6 b4be
00000070: f4f8 0e3e 93a2 f3bf 6f92 eebf c1c4 30c0
00000080: f185 60c0 0e78 a9bf 1448 c6bf 2058 443f
00000090: 3327 01bf 746d 0dc0 41a1 07c0 7d9b f9be
000000a0: 9906 52c0 42af 32c0 08f5 323f e150 37c0
000000b0: 6e2b f6bf 801c 0ac0 95fc e4bf db0b 40c0
000000c0: 898e 18c0 7939 25c0 14e7 2bc0 3f79 89bf
000000d0: d84c 073f f8bd 20c0 e2ea 13c0 d232 87c0
000000e0: c5cd 24c0 605c e4bf 4314 26c0 760f 47c0
000000f0: 5662 adbf 5d88 91bf 3f7f c6bf f633 1a3f
-2.1467652 -2.3309412 -0.13091055 -0.6398585 -0.41403273 -3.069046 -2.5842588 0.5455315
0.25765264 -1.568812 -3.0373118 -1.7363639 -2.6953952 -0.44473162 -2.2807584 -2.2841322
-0.30921617 -0.92463535 -0.30218804 -2.2853184 -1.262297 0.31276315 -0.9839096 -3.1005032
-1.9940828 -1.0973815 -3.1378856 -0.3529584 0.13962156 -1.9033989 -1.8638438 -2.762009
-3.5081751 -1.3239763 -1.5490746 0.7669697 -0.5045044 -2.2098055 -2.1192172 -0.4875144
-3.2816527 -2.791947 0.6990514 -2.8643115 -1.9232004 -2.1579895 -1.7889582 -3.0007236
-2.3836997 -2.5816329 -2.685979 -1.0740126 0.5285163 -2.5115948 -2.311211 -4.2249537
-2.5750592 -1.7840691 -2.5949867 -3.1103187 -1.3545635 -1.136974 -1.5507582 0.60235536

convs.0.bn2.running_mean f4 [64]
00000000: 5d06 6e41 310d 0242 78f4 4642 831e a141
00000010: ae8d 4341 3c45 b341 4d2e c841 e69c 6942
00000020: 3ea7 7441 5ddd 9741 9859 7d42 fb21 6841
00000030: a462 d241 3c11 b741 ea3c bb41 69f7 8f41
00000040: 236b b941 3ff4 2e42 c43d 8e41 fd08 f640
00000050: 9bdb 9341 fe71 af42 0d93 9f41 a476 d141
00000060: 9461 8141 b109 6241 3150 c041 ee5a 9041
00000070: e9d2 b741 b254 3541 ce76 8742 ee60 b740
00000080: 1e40 d541 b518 9141 3845 0143 7192 8542
00000090: 1f30 6041 3f7b cb41 8c60 a441 1018 4541
000000a0: 5934 bb41 b6bd 2742 941e a241 0284 3041
000000b0: 4420 5f42 94f5 4642 8d6e d341 e0de 6841
000000c0: bb40 3741 567e 2f42 6894 d241 1186 b441
000000d0: 29bf 4d3f 3c7d d341 c0e8 8b41 f855 1342
000000e0: b3da c441 4421 8441 e26b a141 4280 ba41
000000f0: 133e ca41 3048 d741 c688 cd41 f9c4 8840
14.876554 32.512882 49.73874 20.139898 12.22209 22.408806 25.022608 58.40322
15.290831 18.983088 63.337494 14.508296 26.298164 22.883415 23.404743 17.995806
23.177313 43.73852 17.780159 7.688597 18.48223 87.72264 19.946802 26.18293
16.172646 14.127366 24.039156 18.0444 22.977983 11.333178 67.73204 5.730582
26.656307 18.137064 129.27039 66.78602 14.011748 25.435179 20.547142 12.318375
23.40056 41.935265 20.26493 11.032228 55.78151 49.739822 26.42898 14.554413
11.453303 43.873375 26.322464 22.565462 0.8036981 26.43615 17.488647 36.833954
24.606787 16.516243 20.177677 23.312626 25.28031 26.910248 25.691784 4.2740445

convs.0.bn2.running_var f4 [64]
00000000: 075c 4443 4432 1344 b85f 9043 5c47 a343
00000010: cca8 8c43 18f8 7d43 2015 cd43 7362 0b44
00000020: 640b 8c43 b935 e343 2457 2343 74e4 d442
00000030: 83aa 6943 fadd 2e43 6d88 0344 5ae8 d242
00000040: e45e d343 a161 6744 8ba6 bb43 4b77 cb42
00000050: 0f84 6143 bd23 1e45 83c9 7943 7859 1743
00000060: 6fe1 1443 f2e1 0643 f2c8 1d43 8420 0143
00000070: 35fb 5043 16c9 1c43 51cd ea43 c08a 9341
00000080: 72da 5c43 d932 9842 95b6 6b45 b3bb 1244
00000090: c59c b042 ac32 7f43 c48b 1344 c0b2 a242
000000a0: 5e42 a943 7989 ee43 cd98 4543 7c69 0d43
000000b0: 6f39 c743 c624 8744 b09e 9743 0fa1 fb42
000000c0: 1aad 3e43 8d4c bd43 683a 2c44 1b69 9f43
000000d0: 2b7e f93e 22e2 5243 b80f 2643 1895 6043
000000e0: ff08 1644 f3dd 1043 5a97 ca43 acc8 0c43
000000f0: eae8 a643 37d4 1044 4406 9d43 1941 0f41
196.35948 588.7854 288.7478 326.5575 281.31873 253.96912 410.16504 557.53827
280.089 454.4197 163.3404 106.4462 233.66606 174.8671 526.13165 105.45381
422.74133 925.52545 375.30112 101.732994 225.51585 2530.2336 249.78716 151.34949
148.8806 134.8826 157.78494 129.12701 208.98128 156.78549 469.60403 18.442749
220.8533 76.09931 3771.4114 586.9328 88.30619 255.19794 590.18384 81.34912
338.5185 477.074 197.59688 141.41205 398.4487 1081.1492 303.23975 125.81457
190.67618 378.59805 688.9126 318.82114 0.4872907 210.88333 166.0614 224.5824
600.14056 144.86699 405.18243 140.78387 333.81964 579.31586 314.04895 8.953393

convs.1.fc_full.weight f4 [128, 169]
00000000: d957 4dc0 34db d4bf 8d84 1f3b 2c32 2ac0
00000010: f126 023f c5ee dd3f f300 2c40 c15e 753f
00000020: 87ab b63e 9ba5 47bf 27f9 3840 ed96 4a3f
00000030: ff8d 86bf b775 89bf c01b 3140 6efb 9140
00000040: 2947 8cbe a18d b4be 1a77 09c0 f922 1ebf
00000050: 3f61 d13f 6d06 a6bf 1935 f33f 46c9 743f
00000060: 0f69 1d40 3323 85be d128 a0bf 1bd5 07c0
00000070: d919 273f b473 f13f 6700 4940 a3f8 48bf
00000080: ebaa c23f 6403 a13d 02d6 4240 bb75 8a3f
00000090: 838e 4540 2318 0e3e 81e4 6640 a2f6 eabf
000000a0: 860e 56bd 48df bf3e 4227 93be 4977 61bf
000000b0: ba88 44bf e02e 42c0 cf70 c83e d99f fe3f
000000c0: 46e4 0540 f494 8ac0 65e1 8ec0 6c65 0640
000000d0: c735 1f40 b9dc 90bf b454 05bf 0647 20c0
000000e0: ad02 b7be 83fc 8a40 9552 8e3f 17ec 2340
000000f0: 091e 80bf 56dd 603f b90d 073c 9f41 afbe
00000100: 17b5 da3f 2ec2 0840 68da 77c0 c2d4 f73f
00000110: 6d91 c63e 603c cdbf 5327 01c0 6a5d 57bf
00000120: ee18 42c0 c54e 22c0 d174 4d3e 5f0a afbe
00000130: c32e 18bf 0aa9 b040 3719 91c0 a0c0 1dc0
00000140: b82e 8d40 9f56 30bf 7ff1 d0bf 452c 50bf
00000150: 6be5 eebf 76e4 fa3f 652c 33c0 45d8 0540
00000160: 644f 01c0 3fef 4440 97d2 9b40 f80e fbc0
00000170: 3078 67c0 04c0 bd3f 20cc 6ec0 c71d 6440
00000180: d0c5 57c0 d138 22bf bff1 4cbf 7e45 8dbe
00000190: a9ee 42bf 4908 333f b436 d4bf 67cc 0f40
000001a0: 4725 5c40 a716 123d 4db1 d13f 7eff 63bf
000001b0: fb68 aebf 9c2f acc0 6009 21c0 e105 a1c0
000001c0: 9140 1b40 d91f 1e40 0e7c 92be c8e4 e2bf
000001d0: 4e6c 223d 144e 4240 d569 193f fb31 0ac0
000001e0: ab0d 293f 78b3 dc3f 75d6 2b3e d625 e9be
000001f0: 4356 37c0 cfed 27c0 5927 de3e 7995 a23f
00000200: f09b 113d 61b8 0a3d 7973 49be 309a a840
00000210: 412c 8641 b56d 8641 ed8a 1b41 09f1 dc3e
00000220: 5ff3 533f d143 a940 7236 f340 1b5e a03f
00000230: 9b79 afc0 afdb 39c1 0db4 b3c0 d16d 28c0
00000240: 4af4 ddbf adaa 0a40 5dd4 ab40 ef76 7040
00000250: 851e 5940 28ba 3640 f753 a8be 3abf 03c0
00000260: d26c ecbf a1fa 91c0 8e59 9ec0 acaf b5bf
00000270: 0f36 6bbe 262e 8140 b903 a540 f17c c03f
00000280: 72a8 e73f 49c1 0b40 af41 923e 2ecc e0be
00000290: ff2f 1bbe 27a2 53bc 48c7 083d 2841 ea3c
000002a0: 0078 14bc f896 2b40 96e8 d63f cd32 bf3d
000002b0: e60e 8ebe d80c ca3f aa9b f03e dd61 873f
000002c0: e939 1ec0 43df 8e3f f4b5 1bbf b0bc 2ac0
000002d0: d58d 95bf 283d 3e40 c430 3d3e e038 853f
000002e0: db61 a1bf 5563 bb3e 6d8a 5f3f bddb f3be
000002f0: 828a d0bf 649e 9bbe 4ce6 f9be a91c c83f
00000300: cb61 3a40 3ee3 c03f fa16 4240 0a3d c63e
00000310: dffe 763f 4b09 5540 7c8a 6940 56fc 83bf
00000320: a53f a8bd ce08 ec3f 7565 3a40 40cd 0540
00000330: 7487 05c0 3f14 7a40 dfed 4040 5e87 af3f
00000340: b5c9 f83e 72aa 3c3e 0d61 61bf 1b18 06be
00000350: ff9d ad3f cc11 383e edaf 44c0 a44c 533f
00000360: 2ba6 92c0 04c7 4dbf bd0f f13e 21d7 2cc0
00000370: 2fc4 1540 ceb1 1340 0aec 2340 bed4 08c0
00000380: 5809 4cbf 533e 353f e2cf c13f a0ad 1dc0
00000390: a8e7 94c0 2e4c 6a3f a629 0540 8bf3 a4be
000003a0: 1b13 2840 4fa2 ae3f a71b 5fbf b4d4 f1bf
000003b0: e184 75bd 6802 5d40 3a41 52c0 736b 243f
000003c0: b6e0 f23f ce42 80bf 05b4 a7c0 a450 c840
000003d0: 626c e0be 8462 733e 5393 8fbf bd9c 17c0
000003e0: 4317 ee3f 4841 3440 8267 5240 0c1e 9f3f
000003f0: 6f6a c4c0 6823 8fbf f081 0bbe 491d 823f
-3.2084868 -1.6629395 0.002434048 -2.6593122 0.5084067 1.7338492 2.687558 0.9584771
0.3567774 -0.7798707 2.890207 0.79136544 -1.0512084 -1.0739049 2.7673187 4.561942
-0.2739804 -0.35264304 -2.1478944 -0.61772114 1.6357802 -1.2970711 1.9000579 0.9561962
2.4595373 -0.26003417 -1.2512456 -2.122382 0.65273815 1.8863435 3.1406496 -0.7850439
1.520841 0.07861975 3.044312 1.0817178 3.0868232 0.13876395 3.6076968 -1.8356516
-0.052259944 0.37475038 -0.2874089 -0.8807264 -0.7677113 -3.034111 0.39148566 1.9892532
2.0920577 -4.3306828 -4.465014 2.0999403 2.4876573 -1.1317359 -0.5208237 -2.504335
-0.3574423 4.343324 1.1118952 2.5612848 -1.0009166 0.8783773 0.008243018 -0.34229752
1.7086514 2.1368518 -3.8727055 1.9361804 0.38782826 -1.603405 -2.0180252 -0.84126914
-3.0327716 -2.5360577 0.20064093 -0.341876 -0.5944635 5.5206347 -4.534328 -2.464882
4.411953 -0.68882173 -1.6323699 -0.8131755 -1.8663763 1.9600971 -2.7995846 2.091325
-2.0204706 3.0771024 4.869457 -7.8455772 -3.6167107 1.4824224 -3.7312088 3.5643175
-3.3714485 -0.63367945 -0.80056375 -0.2759208 -0.76145416 0.6993452 -1.6579194 2.2468507
3.4397752 0.035666134 1.6382233 -0.89061725 -1.3625787 -5.3808117 -2.5161972 -5.0319676
2.4258158 2.4706938 -0.2861027 -1.7726068 0.03965407 3.0360155 0.5992711 -2.1593006
0.6603648 1.724227 0.16781028 -0.4553668 -2.86464 -2.6238897 0.43389395 1.2701865
0.035549104 0.033867244 -0.19672956 5.2688217 16.771608 16.803568 9.721417 0.43152645
0.8279323 5.2895284 7.600396 1.2528719 -5.4835944 -11.616134 -5.615729 -2.6317027
-1.7340176 2.1666672 5.3696733 3.7572591 3.3924878 2.855112 -0.3287656 -2.0585465
-1.8470709 -4.5618443 -4.948432 -1.4194236 -0.2296984 4.0368834 5.1567044 1.5038129
1.809828 2.1836722 0.28565738 -0.43905777 -0.15155028 -0.012917078 0.033393174 0.028595522
-0.009061813 2.6810894 1.678973 0.09335861 -0.27745742 1.578517 0.46993762 1.057674
-2.4722846 1.1161884 -0.60824513 -2.6677666 -1.1683909 2.9724827 0.18475634 1.0407982
-1.2607988 0.36599222 0.87320596 -0.47628585 -1.6292269 -0.3039428 -0.48808515 1.5633746
2.9122188 1.5069349 3.0326524 0.38718444 0.9648265 3.3286922 3.6490774 -1.0311382
-0.08215264 1.8440187 2.9124424 2.0906525 -2.0863924 3.9074857 3.0145185 1.3713186
0.4859139 0.18424395 -0.8803871 -0.13095133 1.3563842 0.17975539 -3.0732377 0.8253882
-4.582784 -0.803818 0.4708232 -2.7006304 2.340099 2.3077273 2.5612817 -2.1379848
-0.7970176 0.70798224 1.5141566 -2.4637222 -4.6532784 0.9152249 2.080667 -0.3221706
2.626166 1.3643283 -0.8715157 -1.8893037 -0.059941176 3.4532719 -3.285231 0.64226454
1.8974826 -1.0020387 -5.240725 6.259844 -0.4383269 0.2376805 -1.1216835 -2.3689415
1.8600849 2.8164845 3.2875676 1.2431045 -6.1379924 -1.118268 -0.13623786 1.0165187

convs.1.fc_full.bias f4 [128]
00000000: 15d0 7c3d cf85 103c 7ac4 903d 26c1 38bc
00000010: 988e 79bc 7dbb 97bb 70f2 20bd ec9b 6f3d
00000020: 250d 4ebd d2c3 16bd 4eb2 0bbd 0915 4b3d
00000030: a72d 4fbd aa4d 853d d0d7 85bd e80a 793d
00000040: adea 79bb bba1 543c e0bf aabc f400 023b
00000050: 0f4d a7bc 753a cc3c 3e45 4fbd 7371 7d3d
00000060: 6794 34bd 08b6 65bd 08e5 2e3c 98f1 57bc
00000070: 1c0c c9bc 36f7 49bd 2940 5cbc d1c1 c6bc
00000080: 15ff 49bd b861 8d3d 5c3c 053d 72cf 89bd
00000090: eeaf e13a fb06 23bd 63f1 513c 58b4 c03d
000000a0: 3149 1c3d a09c 1f3d 893c a53d bb57 3dbd
000000b0: 17d3 7a3d 92b4 95bc 3bed 11bd 1585 263d
000000c0: d2f6 c6bc 5035 35bd eb1c 903d 0a66 abbd
000000d0: eacc 073d ed0b 5d3d 5fd0 71bd a12f b2bd
000000e0: b561 8bbd 3f51 d03c 9fe8 d03c 6336 12bc
000000f0: bd0d 3bbc 83a1 463c 5c69 11bd cb26 363c
00000100: 54db cebc 283d 3bbb 1f01 073d db6c 3dbd
00000110: 194b 573d 2873 953d 00a1 783c 75e5 5ebd
00000120: 71de cabb 5c0d 31bd 0b99 4cbd a63c 9ebd
00000130: 79d3 fcb9 bf2b 2d3d e0f7 6cbd dc49 2c3d
00000140: a87b a2bb c42b ebbc de33 7ebd 26af 9539
00000150: ca67 9ebd 91ab 8e3b 17be f7bc 0712 223c
00000160: 5edd 6cbc f94a 393c 1e29 8e3d 1660 2dbc
00000170: 6a2e 1dbc f741 1fbd 41bd c0bc 9b25 98bc
00000180: d36f cb3c 1156 813d c975 bf3c 4435 8cbd
00000190: 49b0 85bb 1958 c73d 00cc 5cbd 7c3e 98bd
000001a0: 4f9c 9ebd 1516 7d3d 681e 81bd 7e2e 813d
000001b0: 5f32 123d 30c1 513d 0fef 483d 481f 863d
000001c0: e1c4 de3b f4d1 06bd 1181 5d3d 1754 e43c
000001d0: 4d82 45bd 1cb8 153d e5cd e9bc 6fa6 00bd
000001e0: f4d6 aa3a ea7f ad3d 8d8c 8fbb b873 d23c
000001f0: 65b7 943c 06ac 923c 5836 7b3d e5d8 91bd
0.06172188 0.008820965 0.07068725 -0.011276519 -0.015231751 -0.0046305046 -0.039293706 0.058498308
-0.050305504 -0.036807843 -0.03410559 0.049580608 -0.050580647 0.06508954 -0.065353036 0.060801417
-0.0038134262 0.012978013 -0.020843446 0.0019836994 -0.020422487 0.024930218 -0.050603144 0.06187577
-0.04408684 -0.0560818 0.0106747225 -0.013180159 -0.024541907 -0.049308024 -0.013443031 -0.02426234
-0.04931553 0.06903404 0.032528266 -0.0672902 0.0017218569 -0.03980158 0.012813899 0.09409398
0.03815574 0.03896773 0.08068187 -0.046226244 0.061236467 -0.01827458 -0.03562663 0.04065426
-0.024287615 -0.044240296 0.07036766 -0.08369072 0.033154406 0.05396645 -0.05903661 -0.08700491
-0.068057455 0.025429366 0.025501547 -0.0089241 -0.01141685 0.012123468 -0.03550087 0.011117647
-0.025251068 -0.0028570388 0.032960054 -0.04624639 0.052561853 0.07297355 0.015175104 -0.054418046
-0.006191068 -0.04322563 -0.04995064 -0.077264115 -0.00048222745 0.042278048 -0.05785358 0.042062625
-0.0049585886 -0.028707393 -0.062061183 0.0002854999 -0.0773464 0.0043539484 -0.03024201 0.009891993
-0.014457075 0.011309379 0.06941436 -0.010581991 -0.0095935855 -0.03888127 -0.023527743 -0.01857262
0.024833595 0.06315244 0.023371594 -0.06846097 -0.0040798527 0.097336 -0.053905487 -0.07433793
-0.07744657 0.061788637 -0.06304628 0.06307696 0.03569257 0.05120963 0.04905611 0.06548935
0.006798372 -0.03291507 0.054078165 0.027872128 -0.048219968 0.036552534 -0.028540561 -0.031408723
0.0013034032 0.08471663 -0.0043807686 0.025689945 0.018153856 0.017904293 0.061331123 -0.071214475

convs.1.bn1.weight f4 [128]
00000000: cadd 0041 413b 8940 81f8 db40 9001 dc3f
00000010: 5772 5540 b2a4 9340 10c7 ee3f a8a4 7340
00000020: 5943 953f c542 8d40 920a a540 df75 f240
00000030: 59e9 1441 446c 1f41 64af 0541 6df9 5441
00000040: 7432 d140 13d3 ea40 a552 a440 a10a c940
00000050: ee37 e740 ca56 b940 c709 d240 3ada a140
00000060: 1dc8 ff40 5e0e 6740 8b4f 2c40 4ec1 d440
00000070: 843c ad40 7dcb e340 fb40 df40 3d67 b13f
00000080: 2ab4 8c40 1029 a540 039b c040 db12 c540
00000090: 285f 6f40 a803 c840 600b 1b40 8d02 7b40
000000a0: 949d 5240 9cd6 6840 5e12 f340 e89e 0f41
000000b0: 3e87 7040 1827 1b41 5845 a040 5d0c ac40
000000c0: 6f1d ab40 6c6a a140 5284 d440 3f6e d740
000000d0: 4cd8 2140 61e5 c040 4783 9a40 c70d 5340
000000e0: 6e2e 9a40 a65f e040 0e32 5341 bc1e f440
000000f0: f6d6 b140 6658 ad3f 941d 4840 07c9 a140
00000100: cb50 eb3f 9fd4 e940 c43c d53f 291b 0a40
00000110: ceab c93f a124 9840 beb5 8940 5cbc d440
00000120: 847a 9340 bc17 3240 95b6 0240 697d 4940
00000130: 4ea7 bd40 9d99 6741 f15e d23f b646 9e3f
00000140: 9c70 863f c2c4 1e40 fdc9 c43f 7591 3640
00000150: 6abb 943f 7b36 0840 993f 2140 1f1b e140
00000160: 1b7d 4c40 aa7c c23f 6f97 8a40 a54a 463f
00000170: efc0 b53f 6773 4640 3ad7 d73f 0e1f b440
00000180: 2069 593f 13b5 4d40 0533 0640 bdc2 f73f
00000190: 4a66 a73f d572 f640 036a 2b40 f50c d940
000001a0: 9b5b 4440 bf3b 8740 a404 1a40 cc73 9940
000001b0: 6595 dc40 b583 1540 2169 b740 1d02 0b40
000001c0: 36da 8e40 e652 ba3f 6b09 eb40 1344 c73f
000001d0: 1be3 c13f 7b54 3940 7216 0141 526b 8440
000001e0: 44c7 6e3f 1348 4740 db8a dc3f db15 793f
000001f0: fc58 ff3f f8b5 dbbf eada c740 a659 4b40
8.054148 4.288483 6.874085 1.7187977 3.3351038 4.6138544 1.8654499 3.8069248
1.1661178 4.4144006 5.1575403 7.5768886 9.30697 9.963932 8.35532 13.310895
6.537409 7.338266 5.1350884 6.2825475 7.2255774 5.7918444 6.5636935 5.057889
7.993178 3.610252 2.692355 6.648597 5.413637 7.11859 6.976682 1.3859631
4.3969927 5.1612625 6.0189223 6.1585517 3.7401829 6.2504463 2.4225693 3.9220307
3.2908678 3.6380987 7.595992 8.976295 3.7582545 9.697044 5.008465 5.376509
5.347343 5.044241 6.6411524 6.732208 2.5288267 6.0280004 4.828525 3.297716
4.8181677 7.011676 13.19972 7.6287518 5.5574903 1.3542602 3.1268053 5.0557895
1.8384031 7.3072047 1.6659169 2.1579077 1.5755556 4.7544713 4.3034353 6.647993
4.6087055 2.7826986 2.042394 3.1482794 5.926673 14.475003 1.6435224 1.2365329
1.0503116 2.4807591 1.5374142 2.852628 1.1619694 2.1283252 2.5195067 7.0345607
3.1951358 1.5194294 4.3309855 0.7745765 1.4199504 3.1007936 1.6862557 5.628791
0.84926033 3.214177 2.096864 1.9356304 1.3078091 7.7015176 2.6783454 6.7828317
3.0680912 4.226043 2.4065332 4.7953854 6.8932366 2.3361638 5.731583 2.172004
4.464137 1.4556549 7.3448997 1.556765 1.5147432 2.8957813 8.06798 4.1381006
0.93272805 3.113774 1.7229875 0.97298974 1.9949031 -1.7164907 6.245473 3.1773467

convs.1.bn1.bias f4 [128]
00000000: 027b 26bf 95a9 a8bf 24b3 a4be 65a4 01bf
00000010: eb68 3e3f e242 5bbf 0fb2 84bf 195c 193e
00000020: 5617 93c0 f444 96bf 4436 54bf f7a1 e73f
00000030: 909a 86be 696e eebe 7c85 0440 effa 0040
00000040: 54dd 893f df05 98bf feb5 a23f 1ca7 983e
00000050: 3e8b ed3f 40fe 0740 30a1 0e3f d69a b2be
00000060: ce61 a8bd 0657 ee3f 11ad c4bf 56ec a13f
00000070: 47bd a4bf 5ab9 8e3e 4240 03bf 412f 83bf
00000080: eb0c a73f 1372 9d3f 1fdd 533f 4fc9 3940
00000090: cfe2 e23f dd13 96be b842 56bf 1fd3 87bf
000000a0: 5403 8fc0 cd07 19c0 dcb1 0dbd c869 c3bf
000000b0: a61d 84bf 4281 ba3f 2bad a7bf 5c41 76be
000000c0: a82f 31bf b0b1 88c0 676a 61bf cb11 e33f
000000d0: 5cec 3140 a7ae d63e c48d 863f 7933 93be
000000e0: ed9d 9640 3824 acbe e876 1abf 3a9c e9bc
000000f0: b9a8 b0be 82f2 ef40 d286 e4bf 262d 733e
00000100: e681 c33f b630 9b3e 52b5 743e 8906 08c0
00000110: ec91 bcbe cfa5 53bf 99eb efbf 16be a8be
00000120: a86a 10c0 115b 97bf 8149 1ac0 7788 9d3e
00000130: a246 753f 4425 d43f 6ced d43f 0bbd ef3f
00000140: b9ed 6f40 15b7 39bf 67c7 813f fa93 0fc0
00000150: 977f 8340 8777 3740 1043 0ac0 2571 62bf
00000160: c3af a53f 9c67 8340 5535 c6bf 32e5 2a40
00000170: 54fc 79bf 672d be3e 41d0 fe3f 3cf4 33c0
00000180: c551 2640 89dc 1f40 026f ac3f 907e 3241
00000190: d80a b541 cb20 aebe 2585 6fbe be34 8fbf
000001a0: 3091 98c0 5057 1fbf d952 b0bf 1c24 fa3f
000001b0: ce61 d2bf adce d23e c523 99be 6b0b 6d3f
000001c0: cc71 9abf 2d7b 15c0 5102 823f 1db8 f53f
000001d0: a3f7 7540 e400 6c3f f9f1 0cc0 60af 12c0
000001e0: 733c 7440 c336 dec0 f481 94bf ab2c 66c0
000001f0: 1352 cf3c 1e8b ac40 25b0 b8bf 4189 133f
-0.65031445 -1.3176752 -0.32167923 -0.5064147 0.7437884 -0.8564893 -1.0366839 0.14976539
-4.5965986 -1.1739793 -0.828953 1.8096303 -0.26289797 -0.4656861 2.0706472 2.0153158
1.0770669 -1.1876792 1.271179 0.29814994 1.8558118 2.1248932 0.557147 -0.34883755
-0.0822178 1.8620307 -1.5365316 1.2650249 -1.2870263 0.27875787 -0.51269925 -1.0248796
1.3050817 1.2300438 0.8275928 2.902912 1.7725466 -0.2931203 -0.83695555 -1.0611304
-4.4691563 -2.3911011 -0.034593448 -1.5266657 -1.0321548 1.4570696 -1.3099722 -0.2404837
-0.6921334 -4.2716904 -0.8805298 1.7739805 2.7800512 0.41930124 1.0512013 -0.28750208
4.706778 -0.33621383 -0.60337687 -0.028516877 -0.34503725 7.498353 -1.7853644 0.23747692
1.5274017 0.303106 0.23897293 -2.1253989 -0.3683008 -0.8267488 -1.8743774 -0.32957524
-2.2565098 -1.1824666 -2.4107363 0.30768177 0.958109 1.6573873 1.6634955 1.8729566
3.7488844 -0.72544986 1.0138978 -2.2434068 4.109325 2.8666704 -2.1603432 -0.88453895
1.2944263 4.1063976 -1.5485026 2.670239 -0.9765065 0.37144014 1.9907304 -2.811782
2.5987408 2.4978354 1.3471377 11.155899 22.630295 -0.34009394 -0.23390634 -1.1187971
-4.767723 -0.62242603 -1.3775283 1.954227 -1.6436098 0.41173306 -0.29910102 0.9259555
-1.2065978 -2.335643 1.0156957 1.9196812 3.8432395 0.9218886 -2.2022688 -2.291954
3.8161895 -6.944185 -1.1602159 -3.5964763 0.02530769 5.391982 -1.4428755 0.5763131
