results/Prediction/2023-06-18/21:48:38.331393/models/model254.pth (torch, 340949 bytes, 34 tensors)

embedding.weight f4 [64, 92]
00000000: 712c 07bf ab45 733f a3bc 1ec0 e563 0ac0
00000010: bf65 26c0 7435 19c0 98d5 2140 37cc f93f
00000020: e227 1240 a638 853f 8ddc bf3f 4573 60c0
00000030: b887 d8bf 3f90 7cbf 2119 52be 5cfe fa3f
00000040: 2633 d43e ca3d 0a3f 8821 43c0 06bf 933f
00000050: 86c2 e6be 43cb a6bf 75f9 48c0 1dd4 623e
00000060: d8da d33f 1bc8 cfbe 28e5 fabf f05d 193f
00000070: acc3 ba3f 9bc8 8a3e 53c4 2ec0 b2a0 0340
00000080: 75ee 863f c5c7 283f 2786 243f b396 303f
00000090: a36f 9e3f 9767 e9be a9b1 52bf f683 13bf
000000a0: cfee 3f3f 40bd 293f 4baf 03c0 dff4 ccbf
000000b0: 9a04 2bc0 a734 58bf 4305 813f ebba 03c0
000000c0: 2c7e 13c0 74e7 e2bf 9bf6 d43c 06da 923f
000000d0: c51c c93e 1d45 1c40 e7d7 843f 0b83 d63f
000000e0: 3bbc 6bc0 5363 30bf b98e 01c0 4814 813e
000000f0: 1efb bd3f 5980 1ebf 0599 12c0 852c 123f
00000100: fb09 813d 0897 433f 6837 bc3d b7d7 c73c
00000110: 589d 7dbf f50a 95bc c52d c43f 1c89 1dbd
00000120: 4fd9 1abe 79f8 84bb 1d04 d1bd 4161 7c3f
00000130: a0bd c8bc 51e7 083f 7c55 063e 8529 ebbe
00000140: 6162 a6bf 0b24 02bf b723 fdbf 94a7 c0bf
00000150: ef7f 953f 31b0 173e 4de2 13c0 755d 4dbf
00000160: bda7 613f 91be 193f b362 d3be fb94 3bc0
00000170: c57d c2be a046 9dbf 19c8 fa3f 9b5c 7bc0
00000180: 5b12 61bf c755 9abf ac90 6140 cc43 02c0
00000190: 77da d33f 2675 35bc 8629 51c0 d4ca 7cc0
000001a0: aa87 3140 0db3 5e3f 842d b33f d283 9dbe
000001b0: ee7c a1bf f28d d03e ee57 c3bf 9272 423c
000001c0: 9ddf a3bf abc3 9f3e fc01 91bc ffb5 a5bc
000001d0: 30d8 8fbf c1f6 5d3f 03d8 bc3e 9552 303f
000001e0: 52d4 713f 8ad3 81bf 0f03 823f b5c2 abbf
000001f0: 8e84 0840 4aa1 e53d db13 713e 0dbd c2bf
00000200: 1e82 80bc d0a2 c6bf 7951 b3bf bac7 bd3e
00000210: b10e 5ebf c001 bc3f e024 933e 1d16 acbf
00000220: 2954 e0bd face d7bf e1d8 94bf 3c40 9c3f
00000230: e35c 7abf 3a0a eb3e 18de 0fbf b63a 833f
00000240: 5e39 6a3c a38c b53f acb9 53bd f29d c6bf
00000250: c2a8 7ac0 f146 713f f493 c33e b42c f23f
00000260: 57ab 0dc0 03e9 463e faa7 26bf cadd 53bf
00000270: 4fa9 cc3e db2c d2bf 6250 8bbd 5884 d13c
00000280: 3942 d8bf eadb 2b3d eee9 1ec0 29f6 cc3d
00000290: 99ca a73c 5f7a 4abf 63d1 b1be 4703 fcbf
000002a0: 2d24 97bd c60e f53e b2e0 393f 01dc 1abf
000002b0: 9b85 8bbf 38ac d4be f3e6 79be d2f3 f43f
000002c0: 2b4d 50bd fb76 cbbf 336c 923e 7475 02c0
000002d0: 751a a73d b196 38c0 77d9 903f ae7f 02bf
000002e0: 2dff a0bf 31a1 96be b498 4cc0 21d2 8e3d
000002f0: 36d0 b4c0 a96a 45c0 7f3d 82bf e289 ce3f
00000300: 16d8 053f 1811 ea3e 2789 5a3f 3666 1940
00000310: 6cbd 1b3f 3c8a c4be c4c4 3f3f b032 0d3f
00000320: 76b4 8cbc a605 b13b ecec bb40 c839 a1bf
00000330: 3f10 863f 81a6 d3bf 79ff b7bf 59d8 6ebf
00000340: 56af ec3f 44b5 253e 56f5 b6bf 933b c13e
00000350: 136a 0cc0 b0e0 5abf 9129 513e a9e8 463f
00000360: f7c5 c03f 1671 b73f c21a d4bd 7bb7 523e
00000370: b16b 8ebf 0d64 2ebf a802 fa3f 20fd 0bbf
00000380: f7d6 5dbe 8fbd 67c0 7006 34c0 36ba a43e
00000390: 719b 3f3f 9b2c b3c0 3c0e abbe 4c45 5ac0
000003a0: f9d8 4bbf 161f 8b3d 7f33 debe 5006 abbe
000003b0: cf1f 223f d640 8f3f 7c0d c23e 9422 903e
000003c0: 64ef 1240 6755 813f 4957 b5bf a1cc 30bf
000003d0: ce50 abbe 44b3 a2bf 40ec 8ebf c513 b83f
000003e0: 7dc2 133f d491 5e3d b5e4 77bd d462 e13c
000003f0: 03ff fdbf d088 b7bc dc3e bb3f db8f c73d
-0.5280219 0.9502818 -2.4802635 -2.162347 -2.59996 -2.3938875 2.5286617 1.9515446
2.2836843 1.0407913 1.4989182 -3.5070355 -1.6916418 -0.986576 -0.20517398 1.9608874
0.41445273 0.5400053 -3.0489216 1.1542671 -0.45070285 -1.303078 -3.1402256 0.22151227
1.6551161 -0.40582356 -1.9601183 0.5990896 1.4590964 0.27106175 -2.7307327 2.056683
1.0541521 0.65929824 0.642672 0.6897995 1.2377819 -0.45586845 -0.8230234 -0.5762323
0.7497377 0.663044 -2.057574 -1.6012229 -2.6721559 -0.8445534 1.0079731 -2.0582836
-2.304576 -1.7726884 0.025996497 1.1472785 0.39279762 2.4417183 1.0378388 1.6758741
-3.6833637 -0.68901557 -2.024336 0.25210786 1.484226 -0.61914593 -2.2905896 0.5709918
0.06300732 0.7640233 0.091902554 0.024394853 -0.9906821 -0.018193701 1.5326468 -0.038460836
-0.15121959 -0.0040579406 -0.10205863 0.985859 -0.024504483 0.5347796 0.13118547 -0.45930114
-1.2998773 -0.5083625 -1.9776524 -1.5051141 1.1679667 0.14813305 -2.3106873 -0.8022073
0.88146573 0.60056406 -0.4128624 -2.930968 -0.3798658 -1.2287178 1.9592315 -3.9275272
-0.87918633 -1.2057427 3.524455 -2.035388 1.6551045 -0.011075294 -3.2681594 -3.9498796
2.7739053 0.8699196 1.3998265 -0.30764633 -1.261625 0.40733296 -1.5261209 0.011868136
-1.2802616 0.3120397 -0.017701142 -0.020228384 -1.123785 0.8670464 0.36883554 0.6887601
0.944646 -1.0142682 1.0157183 -1.3418795 2.1330905 0.11212404 0.2354273 -1.5213944
-0.015687045 -1.5518436 -1.4009238 0.37066442 -0.8674117 1.4688034 0.2873907 -1.3444248
-0.10953552 -1.6860039 -1.1628686 1.2207103 -0.97797984 0.4590624 -0.56198263 1.0252292
0.014295904 1.4183544 -0.051690742 -1.5516951 -3.9165502 0.94248873 0.38198817 1.8919892
-2.2135828 0.19424824 -0.6510006 -0.827603 0.39972922 -1.6419939 -0.06802441 0.025575802
-1.689521 0.041957773 -2.483028 0.10007889 0.020482348 -0.79092973 -0.34730062 -1.96885
-0.07379947 0.47862834 0.7260848 -0.6049195 -1.0900148 -0.41537642 -0.24404506 1.9136908
-0.050854843 -1.5895685 0.28598174 -2.0384188 0.08159343 -2.8841975 1.1316365 -0.50976074
-1.2577873 -0.29419854 -3.1968203 0.06973673 -5.6504164 -3.084635 -1.0175017 1.6135828
0.52282846 0.45716166 0.8536553 2.3968635 0.6083591 -0.38386714 0.74909616 0.5515547
-0.017175894 0.0054022847 5.872671 -1.2595758 1.0473708 -1.6535188 -1.4374839 -0.9329887
1.8491008 0.16182429 -1.429362 0.37740764 -2.1939743 -0.85499096 0.20426013 0.7769876
1.5060414 1.4331386 -0.10356666 0.20577805 -1.1126615 -0.68121415 1.9532061 -0.54683113
-0.21664034 -3.6209447 -2.812893 0.32173318 0.7484656 -5.599195 -0.33409297 -3.4104795
-0.7962795 0.067930385 -0.43398663 -0.33403254 0.63329786 1.1191661 0.37900913 0.2815138
2.2958612 1.0104188 -1.4167262 -0.6906224 -0.33460087 -1.2710958 -1.1165848 1.4381033
0.5771864 0.05433829 -0.060520846 0.027512945 -1.9843448 -0.022404104 1.4628558 0.09744235

convs.0.fc_full.weight f4 [128, 169]
00000000: f338 84c0 4e90 4b3e 0367 03bf 6664 c23f
00000010: 2c47 e63c 7ea2 dd3e 1575 b5bd 8a02 c53f
00000020: e4f9 aa3f 955f dabf e63d 5dbf 793b 193f
00000030: d189 17be a3cc c2be c79e d13f 1f60 c63c
00000040: 8caa 043f 5682 ae3f 7276 5bbf d09a 883f
00000050: f00e e5bf fb41 1ec0 2ba5 b3bf bbe7 64be
00000060: 7825 96bd 435e 333f 4733 7cbe cf3a e1be
00000070: bb5b 9abd a3ab 673f 58ae 8dbf 4444 dfbf
00000080: edde 5dbf 13d4 a2be 9767 12bf 31f0 3e3e
00000090: 658f 1bbf e683 a03e b274 24bf d86a 0bbf
000000a0: 8d78 ad3f 8c2e 663e cd02 a73e 37b3 463f
000000b0: 2a1e 853f 568c 543f b0c0 61bf 31d0 80bf
000000c0: cb87 3f3f 9e29 813f 1994 5fbf fec3 b23f
000000d0: f6ac eb3e 17a8 ce3e 74c4 af3f 077b 1dbb
000000e0: 68d5 fd3e d064 0cbc 4f07 6b3f 7f03 d43f
000000f0: 5aac 77bf c134 17bf d8a2 0ebe e6c9 1a40
00000100: 0f41 a2c0 8cc7 28bf 4eeb 4540 4a92 28c0
00000110: e36e 5140 60a3 bebf 5aab 3fc0 e0a3 fcbf
00000120: 3967 ed3f e9fc 5bbf 505f 7b40 14d2 9e3f
00000130: 8710 2740 1b9c 37c1 92f4 6940 c341 93be
00000140: c2f0 c1bf 60b6 793e e14a 82c0 06bf 22bf
00000150: 093f 0840 28f6 3abf 3482 0dc0 cdaf c4bf
00000160: 709c ccc0 7a80 34c0 5870 143f c23f e9c0
00000170: 1dec e33a 619e 0940 ab8d 18bd 0a43 53c0
00000180: 8592 f53f c895 33c0 d068 a93f 369d a240
00000190: 5889 c0bf 9bb5 e5bf 1ba8 cb3f adce febe
000001a0: 2042 8140 65d9 2640 0373 a1c0 11a0 b240
000001b0: 1b18 02bf 24f6 343e 1e33 bcbf 214b 1740
000001c0: 4f9a 3fc0 c8c4 fd40 4ad9 22bf bed7 11c0
000001d0: 7d41 723f 8dc7 603e d52d 12bf 3e37 de3f
000001e0: 9e66 7dc0 f8f4 c4c0 b9cd b9bf 6d1c bdbf
000001f0: 1804 75bf d57d 0a3f 0426 6ac0 4ff2 0fc0
00000200: a349 c63c c467 843d e24f 41bc 31c3 3e3e
00000210: c355 10bc afb1 b0be df61 913f d980 5c3e
00000220: 6c6c 97c0 6fb9 cac0 9687 2d3e 7534 aabd
00000230: 6ae1 4c40 9beb 8740 e7b5 0040 3d12 52c0
00000240: c5b1 d2c0 c549 83bf 042a 103d a667 99c0
00000250: dae6 a4c0 3615 953f 1759 0b41 5dd2 ea40
00000260: 67d0 1740 7d67 ea3c 9d5b 70bf 75b6 10c0
00000270: 84de c4bf 2158 fdbd 82e3 3cbe 4f78 52be
00000280: 0ae5 dabe f711 81be 3452 153e 6bbf b43e
00000290: c69b 593e 8e7a 5b3d 1838 373d 29e7 463c
000002a0: 38ca 843d 80f5 df3f cf3a d5bf 9260 233f
000002b0: 91db 0a40 745e 043f 3c85 fcbf 3a2d 1840
000002c0: 25b4 303f 57d4 04c0 a04c 38c0 f6e7 0240
000002d0: fdd6 84bf be77 59c0 66d9 273f 42cd f7bf
000002e0: f1b5 c0bf 4b51 9d3f edc6 973e 3d03 cd3e
000002f0: 69ea d7bd d3d9 08c0 fe58 7bbf b99f ef3f
00000300: 90db 793f d82d 78be c3f4 813f 87fd 28c0
00000310: 0e5c 8140 7d13 9fbf 2d7f 8dbf 60f8 03c0
00000320: 7d4d 5dbe 8720 b7bf 3b2c 013f 3de9 2e3e
00000330: 67b3 8b3e 6397 0b3f 2cb7 f5bf 3871 00bf
00000340: bd17 963f fac1 fabf 5bdf f43e c0b8 8cbf
00000350: 0759 32c0 30cf a4be 29e1 1fbf d546 6140
00000360: 7e44 39bf 8698 aa3d ab41 2740 7694 a43f
00000370: 074a 8a40 d2d8 10bf 9bcc 9d3f a10d 3240
00000380: e35e d7bf 561b 2140 5c19 0c40 b109 df3f
00000390: dff5 d43f 1b5b b83e 42a9 2abf 20a0 38c0
000003a0: 7283 ad3e c180 2abf 63f4 763f fe02 88c0
000003b0: 9359 35c0 9f12 b7bd 9e72 f03f 6308 85c0
000003c0: 2252 fdc0 f194 3c40 89da ba3f e859 e2bf
000003d0: 9392 e43f 12cf c13e 8c0d 973f 5151 23c0
000003e0: 3dbe 5d40 79f0 2fc1 5bb6 1f40 a932 75c0
000003f0: a616 9bbf 7665 6140 b7a0 9140 2757 443e
-4.131952 0.19879267 -0.5132906 1.5186889 0.02811011 0.43288034 -0.08860222 1.53914
1.335751 -1.7060419 -0.86422575 0.59856373 -0.14798667 -0.3804675 1.637658 0.024215756
0.51822734 1.3633525 -0.8572761 1.0672245 -1.7895184 -2.4727771 -1.403478 -0.22354023
-0.07331365 0.70065707 -0.24628936 -0.4399018 -0.075370274 0.9049627 -1.106883 -1.7442708
-0.8666828 -0.31802425 -0.57189316 0.18646313 -0.6076568 0.3135063 -0.6424056 -0.54459906
1.3552414 0.22478694 0.32619324 0.7761721 1.039983 0.83026636 -0.8818464 -1.0063535
0.7481658 1.0090826 -0.87335354 1.3966062 0.46030396 0.40362617 1.3731828 -0.002402963
0.4957688 -0.008568957 0.9180803 1.6563567 -0.9674736 -0.5906487 -0.13929307 2.418573
-5.0704417 -0.65929484 3.0924869 -2.6339288 3.272393 -1.4893608 -2.9948335 -1.9737511
1.8547126 -0.85932785 3.9276924 1.2407861 2.6103837 -11.475612 3.6555524 -0.2876111
-1.5151598 0.24385977 -4.0716405 -0.6357273 2.1288474 -0.73031855 -2.211072 -1.536615
-6.3940964 -2.8203416 0.5798392 -7.289033 0.0017389093 2.1502917 -0.03724448 -3.3009667
1.9185339 -2.806017 1.3235111 5.081691 -1.5041914 -1.7946047 1.5910677 -0.49767056
4.039322 2.6070187 -5.0452895 5.5820394 -0.5081803 0.1767202 -1.47031 2.3639605
-2.9937932 7.930271 -0.63612807 -2.2787929 0.9463118 0.21951123 -0.57101184 1.7360609
-3.9593883 -6.1549034 -1.4515907 -1.47743 -0.9570937 0.54098254 -3.6585703 -2.2491643
0.024205035 0.06465104 -0.011798831 0.18629147 -0.00880951 -0.34510562 1.1357993 0.21533526
-4.731985 -6.335136 0.16946253 -0.08310787 3.2012582 4.2475104 2.0111024 -3.2823632
-6.5842004 -1.0256888 0.03519632 -4.7939024 -5.15318 1.1647098 8.70925 7.338179
2.3720949 0.0286138 -0.9388979 -2.2611363 -1.5380406 -0.12370325 -0.18446162 -0.20553707
-0.42752868 -0.2520902 0.14582139 0.3530229 0.21250829 0.053583674 0.04473123 0.012140074
0.06483883 1.7496796 -1.6658572 0.6381923 2.1696513 0.51706624 -1.972816 2.3777604
0.6902488 -2.0754602 -2.8796768 2.0454078 -1.0378109 -3.3979335 0.655661 -1.9359515
-1.5055524 1.2290434 0.29643956 0.40041533 -0.10542757 -2.138295 -0.98182666 1.8720618
0.9760065 -0.24236238 1.015282 -2.640474 4.042487 -1.2427822 -1.1054436 -2.0620346
-0.2161159 -1.4306802 0.50458115 0.17081161 0.2728531 0.5452787 -1.9196525 -0.5017276
1.1725994 -1.9590447 0.47826657 -1.0993881 -2.7866838 -0.32189322 -0.6245294 3.5199482
-0.72370136 0.08329873 2.613383 1.2857807 4.3215365 -0.5658084 1.2328066 2.7820818
-1.6825832 2.5172935 2.1890478 1.7424833 1.6637534 0.36007008 -0.66664517 -2.8847733
0.33889347 -0.6660271 0.96466655 -4.2503653 -2.8335922 -0.089390986 1.8784978 -4.157274
-7.916276 2.9465907 1.4597942 -1.7683687 1.7857231 0.37853295 1.1801009 -2.5518382
3.4647362 -10.996209 2.495505 -3.831217 -1.2116287 3.5218177 4.5508685 0.19173871

convs.0.fc_full.bias f4 [128]
00000000: e9cb 01bd 12a1 d13d 2591 febd 4ac2 573c
00000010: 0bea 9c3c 9d3f ba3d 7261 763c ddb8 04bc
00000020: 5739 08bc 300d 49bc f65a 203d 6e2f e1bc
00000030: 6143 813d 0289 00bd 5f5d a33c e4a7 12bd
00000040: a414 adbb ba16 673d 27f7 2cbd 8aa2 c23c
00000050: b959 b03d c80d 9b3d 8863 d3bc e827 553c
00000060: 146f b33d dfd7 c03c 48ad 573d e793 74bc
00000070: 51c5 5a3d 5738 1d3d e304 1bbd e6f2 33bd
00000080: 8543 94bd 2635 ab3c ba07 143d 8e57 d33d
00000090: 6cb2 3cbd 5c13 e33c c289 473c 0be8 263d
000000a0: 6400 a33d c3bc 663b 05c7 c8bd 2b6b a93d
000000b0: 3ccf 863c 758c 933d ac9e 9a3d 5c78 673d
000000c0: 2c15 aa3d b447 793d 67d0 94bd dbcd 3c3d
000000d0: 1fd5 9c3d ee8a 99bc efa2 05bd e048 803c
000000e0: e6e5 b2bc fac9 113d 1d59 883c 7730 d13c
000000f0: 40a5 9bbc 05be b7bb 6583 153d a8e3 493d
00000100: 3235 0e3d 100c cf3c 3d6a 7ebd 3294 7a3d
00000110: 5b72 85bd 6573 2e3c a2d3 8a3d e1d3 f6bd
00000120: c3bf 093d d64a 6aba 521c 0a3d 7b0a 9c3c
00000130: b06d 7b3c dafe 22bd e898 933d 8c71 0fbd
00000140: 9427 923d 790e d53b a885 c9bd 5cb8 83bc
00000150: e410 3abd 3c5f 243c 0375 0f3d 30dc 0f3c
00000160: 69f4 90bc ff82 61bd 83fe cdbd 1a0c e43d
00000170: 1149 9b3b f823 e6bb 2503 9a3c 0410 e03c
00000180: b6f9 e1bc 13d9 95bc 9c46 11be 2571 5fbd
00000190: ac82 d13c 7d94 34bd 2f85 183d 3e26 65bd
000001a0: 5ab6 9ebc 2603 b13d e18a 9abd ef14 58ba
000001b0: 732e 51bd 8159 cbbd c3aa f8bc b662 13ba
000001c0: 3200 34bd 1b52 2bbd 2cb0 86bb 9bf0 b7bd
000001d0: f830 40ba 2a8b 1a3c b1a0 d63c 7bbd a5bc
000001e0: f07a 563d 5bb0 c9bc ab76 a13d a5b4 ab3d
000001f0: 84d1 143d 6c9d 38bd 3b52 fbbc f553 0b3d
-0.031688605 0.102358 -0.12430028 0.013168881 0.01915457 0.090941645 0.015037881 -0.0081007155
-0.008314452 -0.012271211 0.039149247 -0.027488437 0.0631168 -0.03138066 0.019941984 -0.035804644
-0.0052820016 0.056418158 -0.04222789 0.023759145 0.08610863 0.07570988 -0.025804296 0.013010003
0.08761421 0.023540435 0.05265549 -0.014927841 0.05341083 0.038383808 -0.037846457 -0.043932818
-0.07239441 0.020899367 0.03614018 0.10319434 -0.046068594 0.027719192 0.01217884 0.040748637
0.07959059 0.0035207726 -0.09803585 0.08272394 0.016456239 0.072045244 0.075497955 0.056511268
0.083048195 0.060859397 -0.07266312 0.046094757 0.07657837 -0.018743005 -0.03262609 0.01565975
-0.02183814 0.03559301 0.016644055 0.025535805 -0.018999696 -0.005607369 0.03650226 0.049289376
0.0347187 0.025274307 -0.062113035 0.061176486 -0.06515952 0.010647629 0.06778647 -0.120521314
0.033630144 -0.0008937543 0.033718415 0.019047966 0.015345976 -0.039793827 0.07206899 -0.035020396
0.07136455 0.0065019694 -0.09839946 -0.01607912 -0.045426264 0.010032471 0.0350237 0.008780524
-0.017694669 -0.05505657 -0.1005831 0.11135121 0.004738935 -0.007023331 0.018800328 0.027351387
-0.027584892 -0.018291986 -0.14187092 -0.054551262 0.025575005 -0.044086922 0.03723639 -0.055944674
-0.019374061 0.08643179 -0.0754602 -0.00082428654 -0.051069688 -0.09929181 -0.030354863 -0.0005622314
-0.0439455 -0.04182635 -0.004110357 -0.08981439 -0.00073315157 0.009432593 0.02619967 -0.020231953
0.052363336 -0.024620226 0.07883962 0.083840646 0.036332622 -0.045072004 -0.030678859 0.034015615

convs.0.bn1.weight f4 [128]
00000000: 72d0 bf40 34a5 9640 c778 8240 ac62 9240
00000010: 213e 4740 8e04 be40 4ea2 9140 87f1 2340
00000020: 4de9 9b40 0960 b940 575e ae40 55fa c540
00000030: 2307 b740 a286 da40 7c63 bf40 fbbd b940
00000040: 0589 ff40 1703 d940 d1cf 2740 8802 d140
00000050: 2378 a540 1d3f 9340 8b68 a740 6c5b cb40
00000060: 7dea f840 fb54 7c40 9723 b040 4cc8 8440
00000070: ae42 9840 3955 df40 1a38 e640 d033 c740
00000080: 1a6f d040 8b29 0541 6173 cb40 26e5 d240
00000090: c771 b040 eaf8 7540 847d 0840 159c a540
000000a0: 09a0 a040 8468 4040 390c bf40 7828 df40
000000b0: b7c3 1c41 be95 a13f 5273 9640 482d 6940
000000c0: 4a07 9440 e656 ce40 cabc 1241 5043 9640
000000d0: c80a 6c40 6831 c340 9d0e 7540 af09 0d41
000000e0: 3af0 8a40 1bd1 ff40 303b de40 a68f 6a40
000000f0: d803 b140 608e e93f ecba 9e40 6786 c840
00000100: fdcd 1140 4e0e 03bf de45 5f3f 7adb fb3f
00000110: 16fd 7c40 df19 ecbf b0a9 6740 3f26 ad3f
00000120: 5b6c ac40 4544 583f cd32 ce3f 39dd c43f
00000130: e120 9f40 0d06 a63f 39c6 1140 0545 933f
00000140: 3863 2e40 fcbc 2f40 b71a 3d40 c87d 1340
00000150: b3cd 8f40 cf4c 8640 7e5a 773f 41fb e33f
00000160: e845 c640 76e8 1a41 b941 873f e8d7 8a3f
00000170: 734e a2be 9569 3640 65c8 923f c600 d340
00000180: 4901 863f 6abe 8a3f 2632 1cc0 1915 873f
00000190: 15ae ce40 6643 9a3f b42e bb40 c2d7 0e40
000001a0: 089d 983f d147 8340 3c74 523f c3c3 b23f
000001b0: efae 5b40 1253 0d41 8170 82bf 54dc d43f
000001c0: 67c6 8e3f 5bb6 e240 fabd 4dbf 04ce 1341
000001d0: 6ae3 ca3f cdf8 d53f c88c 613f 3701 993f
000001e0: fb94 913f a6ac 6540 a190 0b41 408e 903f
000001f0: 1197 633f 5784 8740 d5ab af3f f8f7 8c3f
5.994195 4.7076664 4.0772433 4.574545 3.113167 5.938056 4.5510626 2.5616167
4.872229 5.792973 5.449016 6.186808 5.719621 6.8289347 5.980894 5.804441
7.985476 6.781627 2.622059 6.531559 5.170915 4.6014543 5.2315116 6.35491
7.778624 3.9426868 5.5043445 4.1494503 4.7581396 6.979153 7.1943483 6.225075
6.513562 8.322642 6.3578343 6.590472 5.513889 3.8433175 2.1326609 5.175303
5.0195355 3.0063791 5.970242 6.97369 9.797782 1.2623823 4.701577 3.6433887
4.62589 6.4481077 9.171091 4.695717 3.688158 6.099781 3.829017 8.814864
4.3418245 7.9942756 6.944725 3.6650176 5.531719 1.8246574 4.9603176 6.2664065
2.2781975 -0.511937 0.87215984 1.9676354 3.9529471 -1.8445395 3.619732 1.3527297
5.388227 0.8447917 1.6109253 1.5380012 4.9727635 1.2970597 2.2777236 1.1505438
2.7248058 2.7459097 2.9547555 2.304552 4.49386 4.196876 0.96622455 1.7811052
6.1960335 9.681753 1.0566932 1.0847139 -0.31700477 2.8501942 1.1467406 6.5938444
1.0469142 1.083936 -2.4405608 1.0553313 6.4587502 1.2051818 5.849451 2.2319188
1.1922922 4.1025167 0.8220861 1.3965992 3.432552 8.832781 -1.0190583 1.6629739
1.1154298 7.08476 -0.80368006 9.237797 1.5850651 1.6716553 0.8810544 1.1953496
1.137359 3.5886626 8.72281 1.1293411 0.88902384 4.234905 1.3724314 1.1013174

convs.0.bn1.bias f4 [128]
00000000: 06a2 fc3f 4d7a 8c40 4164 a040 4eaf 863e
00000010: 71e3 e33f a3a1 1840 f847 13bf a5bc 383f
00000020: 74f4 d7be 5645 dcbe bbb2 e53f 9bcc 0e3f
00000030: b767 933f 77cb bfbf 1c88 4cbf 9136 4840
00000040: efc6 983f 475a 1b40 9c3a 4fbf 2b55 093f
00000050: 09b0 1c40 a609 01bf 847d 1b40 daa4 cb3f
00000060: 9683 c43f 8f74 1440 7410 3440 6bff 3540
00000070: f972 2d40 4d27 ba3f 3201 f9be 5821 9abf
00000080: 44b4 5640 c4ca 0140 98d2 203f 521d 5f3e
00000090: 780b 0cbe 3ef7 0440 bdc4 3540 1c76 1cbf
000000a0: 221d 4440 2c33 05c0 0947 0040 3975 f23f
000000b0: 25a6 0f3e 8abe 0140 33ae 8a40 a645 1140
000000c0: 5e8c 2c40 3af5 873f 00d6 9c3f ea56 1240
000000d0: 41aa 21c0 c510 0f40 4638 ab3f 3637 5ebf
000000e0: 30e0 2d40 801d 033f ecfb be3e d82d 1540
000000f0: e3c8 143f 20bd 8840 fb23 e4bf 278d f33f
00000100: 3f6f 0740 b778 ed40 adc9 dd40 639e df3f
00000110: e65a f73f ab79 1f41 e5ab ad3f dfc7 d83f
00000120: 5446 313f 1255 3340 7af9 0540 fb8b f940
00000130: 7d0d a33f 332d 973f a68b 5b3f 0a58 ee40
00000140: bea9 0a40 ea63 6840 8abc 0fc0 752b c73f
00000150: 9fe4 903e 5656 923e c643 5240 8b87 2240
00000160: 674c 5ebf a79c a63e abf9 2c40 1941 2741
00000170: 4768 ee41 6b02 0940 4a42 1240 b410 7d3f
00000180: 60df 4741 92a0 2c40 6ae9 e8bd bddf 8440
00000190: 91de 153f 6014 1e40 cd0c 2640 fb9f b83f
000001a0: 004c 653f c22b eebf 5072 7640 9b87 2440
000001b0: 3196 993f b3e3 14bf 2af7 f040 0967 5840
000001c0: 6131 0540 b8b6 9ebf 324e 0041 f2a0 2540
000001d0: 4bee eabf 3bc0 1540 c3dd 8b40 b391 4040
000001e0: a7ec 6040 240d 2440 6733 e23e d1d0 cf3f
000001f0: 1a17 6740 479a 9a3e 41fe 9ebd e884 bd40
1.9736946 4.3899293 5.012238 0.26305622 1.7803785 2.3848655 -0.5753169 0.7216285
-0.4217869 -0.4302165 1.7945169 0.55780953 1.1516026 -1.4983968 -0.79895186 3.1283305
1.193571 2.427385 -0.80948806 0.5364558 2.4482443 -0.5040535 2.4295359 1.5909684
1.5352657 2.3196142 2.8135042 2.8437145 2.7101424 1.4543244 -0.48633724 -1.2041426
3.3547525 2.0280008 0.6282134 0.21788529 -0.1367625 2.0775905 2.840133 -0.6111772
3.0642781 -2.0812483 2.0043356 1.8942024 0.14028223 2.0272546 4.3337646 2.269876
2.6960673 1.0621712 1.2252808 2.2865548 -2.5260165 2.2353985 1.3376548 -0.86802995
2.7168083 0.5121689 0.37301576 2.330923 0.5811903 4.2730865 -1.782348 1.9027451
2.116165 7.4209857 6.9308686 1.7470211 1.9324615 9.967204 1.3568083 1.6935996
0.6924794 2.8020673 2.0933518 7.7983375 1.2738491 1.1810669 0.8575996 7.448247
2.1666102 3.6310983 -2.2458825 1.5560137 0.28299424 0.28581494 3.2853866 2.539523
-0.8683533 0.3254139 2.7027385 10.453393 29.800917 2.1407726 2.285296 0.9885361
12.492035 2.6973004 -0.11372645 4.152312 0.58542734 2.4699936 2.5945313 1.4423822
0.8956909 -1.8607104 3.850727 2.5707767 1.199896 -0.5815994 7.5301714 3.3812888
2.0811388 -1.2399511 8.019091 2.5879483 -1.8353971 2.3398578 4.3708205 3.0088928
3.514444 2.563302 0.44179842 1.6235601 3.610785 0.3019583 -0.07763339 5.922474

convs.0.bn1.running_mean f4 [128]
00000000: 8004 3943 186c 3e43 b9fe 2dc2 69be 82c3
00000010: 933f eb42 1aea 7742 f552 10c3 0575 4443
00000020: 53a4 f442 5b5c 9dc2 c5f5 4cc2 3934 8fc2
00000030: ff7a cc42 9477 8e42 d018 c3c2 4474 28c3
00000040: 9bd9 6cc3 d88f 2943 f07f d2c0 b51e 3dc2
00000050: c8ba d141 32f7 d841 acbd 80c2 0d1a bcc1
00000060: d84d c3c2 1595 3543 672f 4043 6934 9bc3
00000070: fdab 97c1 d57a 38c2 98aa 8b42 abab 0143
00000080: 82f5 02c2 31b3 7342 8ce2 31c2 cefe 3440
00000090: 3e77 8142 107f 58c3 5fbb a7c2 3a26 7643
000000a0: 06ca 1f43 3991 6c43 e5a9 b0c3 bafc b042
000000b0: dee9 9a43 71b9 20c3 d34e 7042 9247 67c2
000000c0: fc22 c2c2 2c4c 37c2 0ecf 26c1 78e1 5fc3
000000d0: b84f 6fc2 6876 5143 b07c 9842 2a53 53c3
000000e0: 54e6 d0c2 e00b 8f43 bdc0 f641 a532 1dc3
000000f0: 00a7 3243 c975 2ec3 88c9 8042 d360 4f43
00000100: 47e9 60c1 e8f3 37c3 4f91 e541 ba78 bfc2
00000110: 82fc 07c3 fa85 9343 7679 0842 3442 b4c2
00000120: 3bf0 dd42 7411 d7c1 3d8a 4ec2 1e0d efc2
00000130: 054e 2b43 0f08 5843 8bd7 9342 a764 43c3
00000140: c3e0 51c2 433c 3f43 f080 0443 d2f6 5fc2
00000150: 40ab 27c2 da82 9dc2 362a 4143 fff8 4d42
00000160: 906b e842 e872 7b42 80e8 3b43 35c0 32c2
00000170: 6726 b642 b112 c742 0eb9 c042 ebed cb42
00000180: 395c a5c2 d9f0 4542 93e6 6141 ef86 a3c2
00000190: a1d8 7242 2e4c ea40 94a5 0dc3 0f4b 0dc2
000001a0: b9fc 2743 27ee 8943 2326 5441 35e1 8a43
000001b0: 626c fac1 b338 f6c3 8930 80c2 b892 b6c2
000001c0: 22f7 73c3 be6f ee42 8129 d141 e2fe 0b43
000001d0: f984 65c2 c561 0cc3 83c7 2c43 5ae0 fdc0
000001e0: a576 1743 30e6 0643 5b40 4143 99d7 27c2
000001f0: 0e5c cd42 3c46 3ac3 5c17 b042 b935 8143
185.01758 190.42224 -43.498753 -261.48758 117.62417 61.978615 -144.32405 196.4571
122.320946 -78.68038 -51.24001 -71.602 102.24023 71.23355 -97.54846 -168.45416
-236.85002 169.56189 -6.5781174 -47.279987 26.216202 27.1207 -64.37045 -23.51272
-97.65204 181.58235 192.18517 -310.40945 -18.958979 -46.119953 69.83319 129.67058
-32.739754 60.92499 -44.471237 2.828052 64.732895 -216.49634 -83.86596 246.14932
159.78915 236.56728 -353.3273 88.49361 309.8271 -160.72438 60.076977 -57.819893
-97.06833 -45.824387 -10.42555 -223.88074 -59.82785 209.46252 76.24353 -211.32486
-104.44986 286.09277 30.84411 -157.19783 178.65234 -174.4601 64.393616 207.37822
-14.056952 -183.95276 28.695951 -95.735794 -135.98636 295.0467 34.118614 -90.1293
110.9692 -26.883522 -51.635 -119.52562 171.30476 216.03148 73.92098 -195.39317
-52.469494 191.2354 132.50366 -55.991035 -41.917236 -78.75557 193.16489 51.49316
116.21008 62.862213 187.9082 -44.687702 91.075005 99.53651 96.361435 101.96468
-82.68012 49.485203 14.118793 -81.76354 60.71155 7.3217993 -141.64679 -35.3233
167.9872 275.86057 13.259311 277.75943 -31.302921 -492.44296 -64.094795 -91.28656
-243.96536 119.21825 26.145266 139.99564 -57.379856 -140.38191 172.77934 -7.9336367
151.46346 134.89917 193.25139 -41.960545 102.679794 -186.27435 88.04562 258.4197

convs.0.bn1.running_var f4 [128]
00000000: e663 2a47 afd6 d546 9ff6 5947 2c2e 1d47
00000010: 9aa0 ec46 5e3f 6c47 b59d 9b47 1c6f 4d47
00000020: fff1 0e47 977e fe46 76a5 5747 3336 3e47
00000030: e55f 0d47 6624 3d47 ec0b 4b47 b1dc 1447
00000040: 8893 3947 0f2d 4347 da87 0846 d9ef 1d47
00000050: 1556 4c47 f070 a847 a857 7d47 b941 1347
00000060: 7a7a de46 1046 e646 f0e8 2f47 3bb7 c846
00000070: 232f a147 53d3 0447 4b77 a747 e76d 8e47
00000080: 92b8 6f47 b69a 0b47 d23a bc46 03ec 3b47
00000090: 944e 1c47 f07f fe46 fd47 1947 a568 3747
000000a0: 82a3 c146 e606 b847 e041 9047 1953 7847
000000b0: fddf 9547 8df5 b846 a9b8 0c47 42e4 0147
000000c0: 8f57 3247 a498 1147 93b8 5047 c223 da46
000000d0: 1bca f145 62a5 6747 8ba7 5b47 b9ae f346
000000e0: fc7f 4c47 2edd 3847 83b2 9b46 b6b2 9847
000000f0: 814d 9747 771f 4d47 8159 e946 9227 4447
00000100: 56e8 2d47 526d a847 b0dc a247 2330 6d47
00000110: 1524 a447 df88 a847 b833 a147 5640 8847
00000120: f852 4647 8b7b ae46 146e 5f47 36db 7447
00000130: 7257 6947 f1e2 2747 8d36 2447 41dc 4547
00000140: 1cac 1d47 7e97 6b47 33b1 0347 c82f 8947
00000150: d68c 3347 178c 3147 e28f ad47 0b50 3347
00000160: d4f1 0c47 1902 1547 c7a6 9a47 540c 4647
00000170: b427 ff47 dcfc 6947 dac2 a447 6828 ba47
00000180: 2aed b447 7fb0 3247 fafa 9746 6b04 3647
00000190: 2af0 fa46 b270 3847 86e2 3547 f192 8e47
000001a0: 14b1 5447 6d94 b547 243b be47 3850 a947
000001b0: ce4d bc47 c20d a846 2321 0947 d489 a847
000001c0: c51a 3947 e099 0147 fa49 3647 e167 7047
000001d0: 272f 8f46 4525 af46 a027 a747 9efe 8047
000001e0: ef65 1847 5145 9947 4dbd 7747 2187 8247
000001f0: 28f9 aa47 c7a1 4d47 a5ab 2347 71f9 4c47
43619.9 27371.342 55798.62 40238.17 30288.3 60479.367 79675.414 52591.11
36593.996 32575.295 55205.46 48694.2 36191.895 48420.4 51979.92 38108.69
47507.53 49965.06 8737.963 40431.848 52310.082 86241.875 64855.656 37697.723
28477.238 29475.031 45032.938 25691.615 82526.27 34003.324 85742.586 72923.805
61368.57 35738.71 24093.41 48108.01 40014.58 32575.969 39239.99 46952.645
24785.754 94221.8 73859.75 63571.098 76735.98 23674.775 36024.66 33252.258
45655.56 37272.64 53432.574 27921.879 7737.263 59301.383 56231.543 31191.361
52351.984 47325.18 19929.256 78181.42 77467.01 52511.465 29868.752 50215.57
44520.336 86234.64 83385.375 60720.137 84040.164 86289.74 82535.44 69760.67
50770.97 22333.771 57198.08 62683.21 59735.445 42978.94 42038.55 50652.254
40364.11 60311.492 33713.2 70239.56 45964.836 45452.09 88863.766 45904.043
36081.83 38146.098 79181.555 50700.33 130639.41 59900.86 84357.7 95312.81
92634.33 45744.496 19453.488 46596.418 32120.082 47216.695 46562.523 72997.88
54449.08 92968.85 97398.28 86688.44 96411.61 21510.879 35105.137 86291.66
47386.77 33177.875 46665.977 61543.88 18327.576 22418.635 85583.25 66045.234
39013.934 78474.63 63421.3 66830.26 87538.31 52641.777 41899.645 52473.44

convs.0.bn2.weight f4 [64]
00000000: f1dc f23f a624 d33f cc9a c53f e0f6 7340
00000010: 55de cf3f a54c 8b3f a321 6640 6b72 c63f
00000020: 4b53 cd3f 8be6 113f 090a 2740 decd 803f
00000030: b3a2 0640 26b5 0140 1a8c 1840 53ed 393f
00000040: 91e5 073f 9a7e 5240 393c ec3f 1410 3440
00000050: 407b fc3f 0153 fc3f 3052 1840 133a 1e40
00000060: e015 dd3f 69c9 2340 3364 3940 8da9 d53f
00000070: c605 a73f 1265 933f 15d9 0640 0441 0040
00000080: 8dbe ff3f fc72 353f ab58 6abf a182 9d3f
00000090: 1c2c 8c3f 79be e73f 12b0 f43f 3b4a 2b40
000000a0: a39d d13f c456 fb3f b627 a53f 9320 2b40
000000b0: 934d c73f ca1f a73f d3be 1d3f ef41 cc3f
000000c0: 7e83 0440 07b3 3f3f 677e 7ebf ddfe 0c40
000000d0: 2035 2a40 b388 1740 1d19 8740 47d8 fd3f
000000e0: 57c4 0b40 982c 1440 fbeb e53f 1eab 5940
000000f0: b1eb 2340 dced 7f3f b6f1 b33f 7d07 8840
1.8973676 1.6495559 1.5437865 3.811943 1.6239725 1.0882765 3.595803 1.5503668
1.6041044 0.56992406 2.6099875 1.0062826 2.1036804 2.0266814 2.3835511 0.72627753
0.53084666 3.2889771 1.8455878 2.8134813 1.9725113 1.9712831 2.3800163 2.4722946
1.7272301 2.559168 2.8967407 1.6692368 1.3048637 1.1515219 2.1069996 2.0039682
1.9980026 0.7087858 -0.91541547 1.230549 1.0950961 1.8105003 1.9116232 2.6764057
1.6376232 1.9635854 1.2902744 2.6738632 1.5570549 1.3056576 0.616193 1.5957621
2.0705256 0.7488255 -0.99411625 2.2030556 2.6594925 2.3677185 4.2218156 1.9831628
2.1838586 2.3152218 1.796264 3.4010692 2.5612605 0.9997232 1.4058139 4.250914

convs.0.bn2.bias f4 [64]
00000000: 0871 2ac0 fd77 3ec0 2454 04bf 19db bbbf
00000010: 8dab 1dbf c798 82be 40a3 80bf cb4f 13c0
00000020: 6aea 82bf 9808 16c0 7e01 20c0 974f 9abe
00000030: 6636 1dc0 0b5e eebf 2f07 25c0 9f24 fa3e
00000040: 764c 9c3c 3a4b 85bf 8ffb 73c0 ec46 a1bf
00000050: aa5d 61c0 2184 e4bf 64ab a7be 9729 1bc0
00000060: d237 49c0 84f4 28c0 1914 12c0 94e9 c0bf
00000070: e350 b43e a903 0cc0 cc6e 8bbf 3bda 0ec0
00000080: c21b 06c0 2739 43be f641 5fc0 c700 fcbe
00000090: c8bb 4ac0 814b 35c0 4686 4dc0 4018 6cc0
000000a0: 89b9 edbf 5a83 3cc0 d4f8 423d b3f1 1fc0
000000b0: f972 bfbf 2293 34bf 5010 40c0 a47f 863e
000000c0: 6de1 eabf 3057 1cc0 6c2b 50c0 0758 89bf
000000d0: 6055 de3f df61 44c0 af9c c7bf 9e1b 0ac0
000000e0: 8ea0 a43d b101 f8bf f2d8 a1bf b43d ddbe
000000f0: 4b44 50c0 96c0 80be 12db 0bc0 4074 0dc0
-2.6631489 -2.9760735 -0.5169089 -1.4676238 -0.6158989 -0.25507185 -1.004982 -2.3017452
-1.0227787 -2.3442745 -2.500091 -0.30138847 -2.4564452 -1.862245 -2.5785635 0.48856065
0.019079428 -1.0413582 -3.812229 -1.2599769 -3.5213418 -1.7852823 -0.32747948 -2.4244134
-3.144032 -2.639924 -2.2824767 -1.5071282 0.35217962 -2.1877234 -1.0893188 -2.2320697
-2.0954442 -0.1906477 -3.488401 -0.49219343 -3.1677113 -2.8327334 -3.2113204 -3.68898
-1.8572246 -2.945517 0.047600582 -2.4991271 -1.4956962 -0.70537007 -3.0009956 0.26269257
-1.8350044 -2.4428215 -3.2526503 -1.0729989 1.7369804 -3.0684736 -1.5594691 -2.1579356
0.08038436 -1.9375516 -1.2644331 -0.43211138 -3.2541683 -0.2514693 -2.185246 -2.2102203

convs.0.bn2.running_mean f4 [64]
00000000: c381 ca41 621b 9342 6544 9342 00d0 8d41
00000010: 74af c441 fc90 a342 b20a 9041 9fc5 7441
00000020: 2014 b241 d62e 7641 45a2 9e41 54fa 4942
00000030: d879 f341 a7bc 2a41 3bf8 3241 99d8 7042
00000040: 1701 b141 e9e8 e541 e4ce a040 77cb 9541
00000050: 7531 a741 58e4 9941 cf82 fc41 b873 bc41
00000060: 8241 aa41 8f83 4842 2ee1 d041 e93e bd42
00000070: 2ce3 6643 c752 c741 251a a141 7483 1b42
00000080: 9235 ba42 a71e ab41 e7da d340 3e6a ee41
00000090: 1680 ff41 8f76 b741 21b9 2d42 d51c 6641
000000a0: ba30 4a41 ec5e 1241 d7ae eb41 175c cd41
000000b0: c497 ca41 3f68 f341 8eab 9242 e7fc 0642
000000c0: 5f20 9541 6a2d d941 4a60 4a42 764d 6042
000000d0: 91aa bb3f 6beb 8541 4255 1542 d24e b941
000000e0: ccfb 0742 3eb5 f341 5809 2b42 7535 8b41
000000f0: 614f dc41 454b bf41 d708 ba40 f1cb 4642
25.31336 73.55348 73.63358 17.726562 24.58567 81.78317 18.005222 15.298247
22.259827 15.386435 19.829233 50.49446 30.434494 10.671058 11.185603 60.21152
22.125532 28.738726 5.025255 18.724348 20.899149 19.236496 31.563871 23.556503
21.281986 50.128475 26.109951 94.62287 230.88739 24.915419 20.137766 38.878372
93.10463 21.389967 6.6204715 29.801876 31.937542 22.93289 43.43079 14.382039
12.636896 9.148174 29.460371 25.669966 25.324104 30.425901 73.33507 33.746975
18.640806 27.147175 50.594032 56.075645 1.4661428 16.73995 37.33326 23.163486
33.995895 30.463497 42.759125 17.401102 27.53876 23.911753 5.813579 49.69916

convs.0.bn2.running_var f4 [64]
00000000: 8441 5f43 3152 ae43 41cf 6343 374e 2543
00000010: f26a 7543 39b9 bd44 738e 8043 bad2 9142
00000020: 4459 3744 3326 0e43 093a f242 8daa c444
00000030: d976 1144 7408 8842 e374 ba42 4cde 9944
00000040: 1372 c343 5bc6 0844 b0df 5742 756d 1c43
00000050: 7495 0244 c81e 2a44 723f e942 9e3c 2c43
00000060: edde b443 1a42 0945 eda6 bc42 ab32 a544
00000070: 92a7 9746 01be 9043 1add c642 5cd9 5e44
00000080: 6e70 e244 eac0 4443 8e83 d942 fc47 ad43
00000090: 6626 5544 12d5 0b43 8cba c444 6838 d842
000000a0: b397 2d42 a396 1843 5548 8a43 5006 0243
000000b0: 56d4 8343 1e38 c244 84be 3744 8791 5243
000000c0: 1ffd af42 f6c2 af44 6b4c bf44 8c58 1a45
000000d0: 5239 0940 a1ae 9742 0e45 4843 c2e4 8543
000000e0: 788d 4243 2740 1844 7d6f d844 6b47 9742
000000f0: 3710 0f43 1000 8143 daff 0242 6c94 fd43
223.25592 348.64212 227.80959 165.30553 245.41776 1517.7882 257.11288 72.911575
733.3948 142.14922 121.11335 1573.3297 581.857 68.01651 93.228294 1230.9468
390.8912 547.0993 53.968445 156.42757 522.3352 680.48096 116.62392 172.23679
361.7416 2196.1313 94.32603 1321.5834 19411.785 289.4844 99.43184 891.39624
1811.5134 196.75357 108.75694 346.56238 852.6 139.8323 1573.8296 108.11017
43.398144 152.58842 276.5651 130.02466 263.65887 1553.7537 734.9768 210.56847
87.99438 1406.0925 1530.3881 2469.5342 2.1441236 75.84107 200.26974 267.78717
194.55261 609.0024 1731.484 75.63949 143.06334 258.0005 32.749855 507.15955

convs.1.fc_full.weight f4 [128, 169]
00000000: 0582 8ebf 9c0c 70bf 675d e1bf 778a dcbe
00000010: d1b3 83bf 6ff0 1c40 4ec1 af3e 9a30 62bf
00000020: 2741 0fc0 99b7 e1bd f922 883f d71a cb3e
00000030: 60a8 be3f 3073 cf3f b12d 0fc0 ce02 97be
00000040: d03b e2bf 5a8e fe3f 5261 ecbd e816 c13f
00000050: 7453 873f ff6a 8f3f d6b9 9a3f ba5b df3f
00000060: ca5e aa3f 351a aa3c 8bc2 cd3f 40e7 4940
00000070: d5e9 1fc0 ba70 143f 338f 1740 237c 9e3f
00000080: 9751 463c 115f e23f 3237 a23e 40c6 0240
00000090: 7317 de3e 7b95 ecbf ccd3 2a40 1c3e febe
000000a0: 1278 963f dcca 0340 4cfe 69bf 692f d4bf
000000b0: 770d 9c40 11ba 143e 3936 5b40 b5e8 d83f
000000c0: ac17 29bf e455 243f b01b 1540 72a2 3640
000000d0: 89d6 20bf 8d33 1b3e 41ef ae40 34aa 3a40
000000e0: 04d9 e3bf 4a78 cbbe 99ba be3d 10d6 01bf
000000f0: 2737 4940 e65a 65c0 36f1 9f3e b30d b4bd
00000100: 24dd bdbf 43b8 2e3c 65a3 47bf 68e3 60c0
00000110: c327 823f 6161 f03f 8315 33c0 4f26 b33f
00000120: aff4 683f e1c2 af3f 21c4 27bf 3251 19c0
00000130: 7391 b7be d3b2 c3be b278 6cc0 f01d 1d3e
00000140: 150b 73bf 7d55 863f 8c6e 033b 9cc0 f13f
00000150: 7dc3 1dc0 7043 2b3f b07e a33f 0d6b f5bf
00000160: 43a8 de3e 4427 03c0 9908 1940 ab13 4ac0
00000170: 9363 2240 5129 983f a3d6 d0bf c5b1 ef3f
00000180: 8a0b 7dbe 825b 1dc0 9356 063f 6e4f 57bf
00000190: a76d 0dc0 c94d bfbf 696d e8bf b74e 143f
000001a0: b374 86be a904 1340 6571 88bf 21bf e13f
000001b0: c46d 48bf 9532 0040 6a7d 23c0 aef0 d4c0
000001c0: 63f7 5f3f e773 cfbd 6e0b 0340 bf0c babf
000001d0: 0515 bf3e 3665 4c40 2d8f 60bf c6fa 38c0
000001e0: f314 17c0 4f52 8a3f 4c10 1ebf f2c8 96bf
000001f0: 598d 92bf 6712 e93f eb4a cebf 4ff2 dabf
00000200: 3faa 113d e394 303d 1975 173e 101d fabe
00000210: 2d45 11bf 3b5c 99bd 52bb 3d3f 17be 643f
00000220: 8a0c 1d40 c5f6 8940 6f95 1540 ad48 2540
00000230: cb8c ad40 b6f8 aabf 5d18 57c0 0a9c 8bc0
00000240: bc09 26c0 4bc2 92bd 8ddb 233e a171 05c0
00000250: 5fb6 403e a871 b1be a515 50be 0423 b7bf
00000260: d549 f9bf ca0f e4be 42f3 1ac0 f7af f5bf
00000270: fa3d debe 847a e13f 3b84 b13f 88fa a4be
00000280: f713 433f 04a7 df3f 6483 b23f 17a9 283f
00000290: 8eb9 653e 7471 a9ba 5fe5 083d 2841 ea3c
000002a0: 0078 14bc 114d f23f e460 03be 1afb b43e
000002b0: d36a 0dc0 fa07 b4bf a610 d6bf 340c 38c0
000002c0: f1cf acbf 97e1 a8bf 93c6 3ec0 e974 923e
000002d0: 5b47 ef3f d191 26bf d483 7e3f 9792 71c0
000002e0: 5f17 c63f 3ce7 9dbf c3f5 a43e 8ab7 92bf
000002f0: 3e83 22c0 1c1a 44c0 ac87 3ac0 06d2 7b40
00000300: 66bf cd3e 367e 1cc0 c87f 17c0 46ff 82be
00000310: 4102 03bf 3d61 983f f315 fc3f 148a b3bf
00000320: bd15 663f 6e23 4940 0e42 6d3f c04b eabf
00000330: 5201 b93d 3dac 34bf a8e9 7ebf b979 5e3e
00000340: b0fa 8a3e 01a1 66bf 562d 46c0 5310 bf3e
00000350: 7292 da3f c72a dcbf a3f7 113f c2bb ebbd
00000360: af18 26bf b49a 41c0 9165 2740 a36a 0740
00000370: ce8e dc3f 6f24 4fc0 069c 873f 4076 e53f
00000380: f375 563f 0f79 c83e a768 d33f 0cbf ad3f
00000390: 0102 efbf 4edf 1f3f 4df9 113e b198 5b3f
000003a0: 2ab4 d83f 763f 96bf 0a19 bfc0 01df c5bf
000003b0: 38d5 893e fa1c 70bf d782 b3bf 008e 1c40
000003c0: 6126 c03f 4bfa e8bf 7676 113f 5390 bcbe
000003d0: bb93 90bf 1144 86c0 f430 15c0 e193 de3f
000003e0: d7f7 84bf 1aaa bb3f 3bca a73d 4d01 6840
000003f0: 07e3 8540 31cc e1bf 4d5f 253f 0674 ec3e
-1.1133429 -0.9376924 -1.7606629 -0.4307439 -1.0289251 2.452175 0.34327167 -0.8835541
-2.2383516 -0.110213466 1.0635673 0.39668915 1.4895134 1.6207027 -2.2371638 -0.29494327
-1.7674503 1.9887192 -0.11542 1.5085115 1.0572343 1.1204528 1.2087963 1.7449868
1.3310177 0.02076445 1.6074995 3.1547394 -2.498647 0.5798451 2.3681152 1.2381634
0.0121044135 1.7685262 0.31682736 2.0433502 0.43377265 -1.8483118 2.669177 -0.4965676
1.1755393 2.0592566 -0.9140365 -1.6576968 4.8766437 0.14524104 3.4251845 1.6946017
-0.66051745 0.6419356 2.329815 2.8536649 -0.62827355 0.15156384 5.466706 2.9166384
-1.7800603 -0.3974021 0.093129344 -0.5071726 3.1439912 -3.583673 0.31238717 -0.087916754
-1.4833112 0.010664049 -0.77983695 -3.5138798 1.0168384 1.8779718 -2.798188 1.3996066
0.9099836 1.3731347 -0.65533644 -2.3955808 -0.35853156 -0.3822237 -3.6948667 0.15343451
-0.94938785 1.0494839 0.0020054905 1.8886905 -2.4650567 0.66899776 1.2773037 -1.9173294
0.43487749 -2.0492716 2.3911498 -3.1574504 2.5373275 1.1887609 -1.6315502 1.8726126
-0.24711433 -2.4587102 0.5247585 -0.84105575 -2.2098176 -1.4945613 -1.8158389 0.5793261
-0.2626091 2.2971594 -1.0659605 1.7636453 -0.7829249 2.0030873 -2.5545297 -6.65438
0.8748686 -0.101295285 2.0475726 -1.453514 0.37320724 3.1936774 -0.8771847 -2.890306
-2.3606536 1.0806369 -0.6174362 -1.1780074 -1.1449386 1.8208741 -1.6116613 -1.7105197
0.03556275 0.04311074 0.14790763 -0.48850298 -0.5674618 -0.07488295 0.74113953 0.89352554
2.4538903 4.311373 2.3372457 2.5825608 5.4234366 -1.335715 -3.360862 -4.3627977
-2.5943441 -0.07165965 0.1600172 -2.0850604 0.18819569 -0.34657025 -0.20320757 -1.4307561
-1.9475657 -0.44543296 -2.4210973 -1.9194325 -0.4340666 1.7615514 1.3868479 -0.3222239
0.7620234 1.7472844 1.3946347 0.6588301 0.22434065 -0.0012927488 0.03342187 0.028595522
-0.009061813 1.8929769 -0.1282993 0.35347825 -2.209645 -1.4064934 -1.6723831 -2.8757448
-1.3500959 -1.3193845 -2.98087 0.2860482 1.8693651 -0.6506625 0.99419904 -3.7745721
1.5475882 -1.2336192 0.3221875 -1.1462262 -2.5392604 -3.0640936 -2.9145308 3.9346938
0.40185088 -2.4452033 -2.3671741 -0.25585383 -0.51175314 1.1904675 1.9694198 -1.4026513
0.8987692 3.1427875 0.92678916 -1.8304367 0.09033455 -0.70575315 -0.9957528 0.21726121
0.27144384 -0.9008942 -3.096517 0.37317142 1.7075942 -1.7200555 0.5701849 -0.11510421
-0.64881414 -3.0250673 2.6155741 2.1158836 1.723108 -3.2365987 1.059449 1.7926712
0.83773726 0.3915486 1.6516312 1.3573928 -1.8672487 0.6245011 0.14255257 0.85779864
1.6929982 -1.1738117 -5.9718065 -1.545868 0.26920485 -0.93794215 -1.4024304 2.446167
1.5011712 -1.8201383 0.5682138 -0.3682886 -1.1295084 -4.195809 -2.3311129 1.7388879
-1.0388135 1.4661286 0.08192869 3.6250794 4.1839633 -1.7640439 0.6459854 0.4618227

convs.1.fc_full.bias f4 [128]
00000000: 6e1c 593d 7cdc 8e3c 6294 ba3d 798f 05bd
00000010: abb2 79bc 19b5 593b b6b5 46bd 6af9 973d
00000020: aa73 1bbd 7b68 48bd 22ec 06bd 4b3b 8b3d
00000030: aafd 32bd 0a72 553d 57da e1bc 73f4 643d
00000040: 59ac 66bc 7f90 d53b 8660 08bd 216f 1d3b
00000050: 84ad 0ebd fea0 c43c a26e 07bd 281b 9e3d
00000060: c4bf 8fbd f481 ccbd bc60 d33b a0fe c4bc
00000070: 851b cfba 7771 4bbd f94c 1fbd 04cd 09bd
00000080: f51f 1abd 6f6e b13d d3ef 413d 049d 83bd
00000090: 0ba3 523c 421f 50bd 6bf8 efbc a917 b43d
000000a0: fdfe 0f3d df4b 4c3d 6ee1 b73d 3261 7bbd
000000b0: ba34 763d d149 d4bc d6dc 20bd 0e02 063d
000000c0: 3bb5 c0bc 3514 3dbd c3b8 943d 64fe 96bd
000000d0: 5b2c 823c 47c8 973d 0cef 99bd 01e2 7abd
000000e0: d374 b6bd a0c6 06bd dcfa 833c eaab e1bc
000000f0: e5c3 64bc 0e9b 143d f8c9 7bbd 72be 873c
00000100: 7b18 3bbd 4cca 2ebd 1517 a43d c22b 8dbd
00000110: ad05 a93c b87c 543d 675e 793b 5299 74bd
00000120: bc99 b83c 92e0 f3bc ec97 24bd 3975 88bd
00000130: 18b0 7c3c 0274 2a3d 8725 05bd 05b8 813c
00000140: b1b2 3abc 4d20 49bd 312a 17bd 7ca1 91bc
00000150: ff02 b0bd 12f0 babc b18c b1bc be58 2f3d
00000160: 7e48 983b a1ba d63c c0c9 653d edd8 0fbd
00000170: 2402 d6bc d596 c6bc 52bf 4dbc 1437 84bd
00000180: 63d7 b03c 6f00 933d 86c8 eb3c c5d7 a2bd
00000190: 2805 d73b 2d6a 833d 6f40 0ebc 6218 8dbd
000001a0: 86bd 58bd df53 9b3d 7b32 87bd 5043 943d
000001b0: 4cae d03c 0962 1e3d 16ec 753d 27a9 a43d
000001c0: f031 27ba ec01 713b 7aa3 6e3d e3b2 553d
000001d0: 7866 11bd db32 e23c 39ad 59bd a589 20bd
000001e0: 2091 50bc fd3a 9d3d 6759 123c 3ef9 9d3c
000001f0: 24d0 093d 70a9 483d 59df 9b3d 894c a6bd
0.05300563 0.01743912 0.09110333 -0.03260753 -0.015240352 0.0033219515 -0.048513137 0.07420619
-0.037952103 -0.048927765 -0.032940038 0.067984186 -0.043698944 0.05211071 -0.027569933 0.055897187
-0.014079177 0.0065174694 -0.033295177 0.0024022537 -0.034833446 0.024002548 -0.033064492 0.077200234
-0.07018998 -0.09985724 0.0064507406 -0.024047196 -0.0015801048 -0.049668755 -0.038891766 -0.033642784
-0.037628133 0.08663642 0.047347855 -0.06426433 0.012856255 -0.05081106 -0.02929326 0.08793575
0.035155285 0.049877044 0.08978544 -0.06137199 0.060108878 -0.025914105 -0.039273106 0.032716803
-0.023523917 -0.04616185 0.07261803 -0.0737274 0.015890291 0.07411247 -0.07516298 -0.06125069
-0.08909001 -0.032904267 0.01611083 -0.027547795 -0.0139627205 0.036280684 -0.06147191 0.016570304
-0.045677643 -0.042673394 0.08012215 -0.06893112 0.02063259 0.051876754 0.0038050653 -0.05971653
0.022534244 -0.02977017 -0.040183946 -0.066629834 0.015422843 0.04161454 -0.032506492 0.015834818
-0.011395142 -0.04910307 -0.03690547 -0.017777197 -0.085943215 -0.022819553 -0.021673532 0.04280924
0.0046473136 0.026212038 0.056100607 -0.035118986 -0.026124068 -0.024241844 -0.012557821 -0.06455818
0.02158708 0.07177817 0.02878214 -0.07951311 0.006561894 0.06416736 -0.008682354 -0.06889416
-0.05291512 0.075843565 -0.06601425 0.07239401 0.025473736 0.038667712 0.060039602 0.08040076
-0.00063779857 0.0036774827 0.058261372 0.052172553 -0.035498112 0.02761214 -0.053143714 -0.039193768
-0.012729913 0.07677267 0.008932448 0.019283887 0.033645764 0.048989713 0.076109596 -0.08120067

convs.1.bn1.weight f4 [128]
00000000: c041 2840 5546 cf40 d8e8 ee40 db81 e440
00000010: bbd3 8c40 865d ec40 679c d140 7008 bd40
00000020: d1ac a440 caab b440 ba79 0241 3bce 3041
00000030: af73 ad40 ea0c 9d40 b4bb aa3f 9b9c 8f40
00000040: cabe ca40 2c9a af40 41d6 f540 4e2e b140
00000050: b716 7e40 65a9 1e40 ee07 df40 a6bb 3240
00000060: b63e ed40 374a 853f 78bc 2641 9993 c240
00000070: cf69 2241 f4ee 1640 f214 e940 68aa 2541
00000080: fba8 1741 3ab0 9f40 41ef f540 97a8 e140
00000090: 95aa ab40 0db7 d340 72a6 df40 2cc4 3b3f
000000a0: 4041 0241 2ed6 3c40 ac80 9a40 111c 8540
000000b0: 3428 4341 b5e2 a440 1093 2241 e164 d440
000000c0: f2cf 4040 6027 883f 07a8 ab40 7fe1 4341
000000d0: 56df 3340 825a 0241 5b8f 3f40 d9cc ff40
000000e0: 2233 ef40 9f5f b440 361c b340 e5bb af40
000000f0: 9c1b a13f aa3b cd40 0029 8e40 e693 0441
00000100: 4274 3540 9175 c240 0965 0b40 5cd3 a440
00000110: 2376 b83f 3ac2 4341 6491 5240 c9cf 7e3f
00000120: c6f6 1f40 f84c 0441 8cea 0240 d9ec 1a40
00000130: 5bfa 8f40 d98f 863f 7543 8340 6c27 2240
00000140: 6fb0 bc40 99de 1241 8e18 1540 8592 8b3f
00000150: ad7d 6e40 8e04 2140 9b7d c13f e22d 1f40
00000160: ace5 a440 b3b9 5b40 5a87 ba3f 45d1 4b40
00000170: 117f b640 5718 5640 cf8a ca3f bb3e 2440
00000180: e0ff 5b40 1358 eb3f ae70 2b40 a667 0440
00000190: e984 c53f b68f 3740 b760 d940 3d1b 8e3f
000001a0: 3a0f 1240 6feb 9140 a66b 9c3f dcf5 3341
000001b0: 182b 2040 2194 3b40 0958 bb3f ad2d ed3f
000001c0: 1a34 a640 d5cb d140 237f 8e40 f8ba 2240
000001d0: 3a1a 823f f31e ec3f 5d4a da3f d346 c140
000001e0: d699 9a3f 0b89 6a40 3f9a 3c40 4956 a83f
000001f0: 3870 b33f ff80 cf3f 45bc 9b40 e605 0740
2.629013 6.4773355 7.4659233 7.1408515 4.400846 7.3864164 6.550342 5.90728
5.1460958 5.6459703 8.154718 11.050349 5.4203715 4.9078264 1.3338532 4.487867
6.3357897 5.48757 7.682404 5.5369024 3.9701364 2.479089 6.969718 2.7927032
7.413905 1.0413274 10.421013 6.0805173 10.150832 2.3583345 7.283807 10.354103
9.478755 4.990262 7.685456 7.05183 5.364573 6.616095 6.989068 0.7334621
8.14093 2.9505725 4.828207 4.159676 12.197315 5.152674 10.160904 6.6373143
3.012692 1.0637016 5.364261 12.242553 2.8105063 8.147097 2.9931247 7.993756
7.474992 5.6366725 5.5971937 5.4916863 1.2586551 6.413533 4.442505 8.286108
2.8352208 6.0768514 2.1780417 5.1508007 1.4411052 12.234919 3.290124 0.99535805
2.4994369 8.268791 2.0455656 2.420706 4.499311 1.0512649 4.1019845 2.5336561
5.8965373 9.179345 2.3296237 1.0904089 3.7264206 2.515903 1.5116457 2.4871755
5.153036 3.4332092 1.4572556 3.1846478 5.703011 3.3452356 1.5823611 2.5663288
3.4374924 1.8386253 2.6787524 2.0688262 1.5431186 2.8681464 6.793056 1.1102062
2.2821794 4.5599895 1.2220352 11.247524 2.5026302 2.930916 1.4636241 1.8529564
5.19386 6.556132 4.4530196 2.5426617 1.0164254 1.8446945 1.7053944 6.0398955
1.2078197 3.6646144 2.9469144 1.3151332 1.4018621 1.6211241 4.866732 2.109735

convs.1.bn1.bias f4 [128]
00000000: caf8 a4bf 5e91 063c 43db d9bf 3adc a63e
00000010: 7a15 bcbf 241d cfbf 5d3c 8dbf a0df 9040
00000020: 71eb 81bf ba44 41bf 2802 88bf ce54 0f40
00000030: 3e5d 19bf 5c2d 1d40 97be bdbf 0bd5 4ebf
00000040: 5039 1fc0 784d 0bbe bbe7 c13e 3e5f 0c40
00000050: c60d 19bf c1fe 983f 4034 0c40 d51a a4bf
00000060: ebf7 34c0 d138 bfbf 1cd8 953f 6ccd 233f
00000070: 4277 25c0 4afe d8be 8299 ad3d 5a40 6cbf
00000080: 9f9f d53f 15b8 0c40 7ad1 9f3f 7819 f23f
00000090: 1fa9 5dbf bd7b 383f 2499 07c0 2262 76bf
000000a0: 7a8d 0f3d 6c12 a23f b300 0740 9612 a63e
000000b0: 6f7c 1dc0 89f7 0b40 06dc 8e3f e6e9 2740
000000c0: 31b7 32be 7c0b 63be a7c7 bdbe 39cb c03f
000000d0: f92b 5a40 a0e4 30bf 3c1c 3bc0 e6e1 dcbe
000000e0: 3972 4d40 3755 f1bf 7acb d9bf a619 dc3f
000000f0: df58 79c0 79aa 703f ec33 2f3c ffa5 623f
00000100: d70c 37c0 1d9f 923f 03cf 323d 7865 b1be
00000110: 2a01 9ebf 5e7a 29bf dd9b b1bf d2fd 9740
00000120: 01b3 adc0 5074 36bf a5d2 0d40 9aac 9bbf
00000130: 235f c1be ab82 3440 f289 9bbf f0cb b2c0
00000140: b453 00c0 1fee 7bbf c1a3 0ebf d336 2e40
00000150: b89e 9bbf ef8c 1b40 a459 ef3f 387e c6bf
00000160: 7e30 36c0 7d7a e8bf 2851 233f 8606 663e
00000170: cf13 ff3e 1e9f 20c0 e8bd 833e e321 0b3f
00000180: b140 9c3f 881f 3a3f 954c 3fbe 5bc9 cb3f
00000190: 34c1 abbe ed57 b43f cf23 48bf 666c dabf
000001a0: cef9 ae3f 685f 9fbf ba29 4940 311b b6b9
000001b0: 37db b5c0 d609 d83f b249 08c0 f3af 1641
000001c0: e5ee 51bf 351b 2cc0 ba6d 2140 08b5 5640
000001d0: 6e94 a240 8373 bf3e d718 8ac0 0efb f33d
000001e0: 1fe4 ea40 e71e 4ec0 166a 19bd 5fe2 c23f
000001f0: a722 1bc0 7e52 f33f 7804 26c0 ed20 6040
-1.2888424 0.008213369 -1.7020038 0.32589895 -1.4694054 -1.6180768 -1.1034046 4.527298
-1.0149976 -0.75495493 -1.0625658 2.239551 -0.599079 2.4558935 -1.4823788 -0.8079383
-2.487873 -0.1360377 0.3787211 2.1933131 -0.5978664 1.1952745 2.190689 -1.2820688
-2.8276317 -1.4939214 1.1706576 0.63985324 -2.585404 -0.42381507 0.08476545 -0.9228569
1.6689337 2.1987355 1.2485802 1.8914022 -0.86586183 0.7206381 -2.118722 -0.9624349
0.035047032 1.2661872 2.1094177 0.32436055 -2.4607198 2.1869833 1.1160896 2.623651
-0.17452694 -0.2217235 -0.37066385 1.5062019 3.4089339 -0.69098854 -2.9235983 -0.43141097
3.2100966 -1.885413 -1.7015221 1.7195327 -3.8960493 0.9401012 0.0106935315 0.8853454
-2.8601587 1.1454808 0.043654453 -0.34647727 -1.2344105 -0.6620234 -1.3875691 4.749734
-5.428101 -0.7127123 2.2159817 -1.2162049 -0.37767896 2.8204753 -1.2151473 -5.5873947
-2.0051088 -0.9841022 -0.5571862 2.7220962 -1.2157812 2.430477 1.8699231 -1.5507269
-2.8467097 -1.816238 0.6379571 0.22463426 0.498198 -2.5097117 0.25730824 0.5434858
1.2207242 0.7270436 -0.18681557 1.5920824 -0.3354584 1.4089333 -0.7817964 -1.706433
1.3669984 -1.2450991 3.1431718 -0.00034734004 -5.6830096 1.6878002 -2.129498 9.417956
-0.8200515 -2.6891606 2.5223222 3.3547993 5.080619 0.37392816 -4.315532 0.11913119
7.340347 -3.2206361 -0.037454687 1.5225333 -2.42399 1.900955 -2.5940228 3.5020096
