results/Prediction/2023-06-18/21:48:38.331393/models/model32.pth (torch, 340522 bytes, 34 tensors)

embedding.weight f4 [64, 92]
0	0xbecdfe47	-0.4023306
1	0x3eee7cfc	0.4657973
2	0xbfa602d4	-1.2969613
3	0xbf8da9b5	-1.1067415
4	0xbfa14370	-1.2598705
5	0xbf514c5c	-0.8175714
6	0x3fa95cc9	1.3231441
7	0x3f7f0731	0.9962035
8	0x3f5dc35e	0.8662623
9	0x3f4e7bf4	0.8065789
10	0x3e1f1693	0.15535955
11	0xbf7650a0	-0.96216774
12	0xbf608c80	-0.87714386
13	0xbf7ed3c1	-0.9954186
14	0x3e61d72b	0.22054736
15	0x3e38ec40	0.18058872
16	0xbe952cf0	-0.29135847
17	0x3d223edd	0.039610732
18	0xc0065542	-2.0989537
19	0x3dde4ac4	0.10854104
20	0xbe1996a9	-0.14998879
21	0xbfcb467a	-1.5880883
22	0xbf77a675	-0.9673837
23	0x3ecffc68	0.40622258
24	0x3ed33d8c	0.41257894
25	0x3ed083a6	0.4072544
26	0xbf094e7e	-0.53635395
27	0x3eefc4ff	0.46829984
28	0xbdf8ec5d	-0.12154458
29	0x3da6546d	0.08121572
30	0xbfa6e9fd	-1.3040158
31	0x3f4c6f95	0.7985776
32	0x3f6b1513	0.9182903
33	0xbf014ee4	-0.50511
34	0xbd703879	-0.058647607
35	0x3c52cc4f	0.012866094
36	0x3e44a6c9	0.19204248
37	0xbe87f233	-0.2655197
38	0xbc4b1d8c	-0.012397181
39	0xbe7630f4	-0.24042112
40	0x3ee1550b	0.44010195
41	0x3d2a16cf	0.04152566
42	0xbfa48a11	-1.2854635
43	0xbf9560b8	-1.1670141
44	0xbf590c26	-0.8478416
45	0x3e2456c5	0.16048725
46	0x3f0604b8	0.5235095
47	0xbf82aea5	-1.0209547
48	0xbfe911ab	-1.8208517
49	0xbf1c7a98	-0.61124563
50	0xbee2ae68	-0.44273686
51	0x3da3e74d	0.080031015
52	0x3ecb8868	0.39752507
53	0x3f415e7c	0.75534797
54	0x3f4dba58	0.80362463
55	0xbe52cb8c	-0.2058546
56	0xbf91ba0f	-1.1384906
57	0xbea860e3	-0.3288642
58	0xbf19bf61	-0.60057646
59	0xbc54e0e0	-0.0129930675
60	0x3e89af0f	0.26891372
61	0x3dbaae44	0.0911527
62	0xbfafac9d	-1.3724552
63	0x3dcc1602	0.09965135
64	0xbe1dbde0	-0.15404463
65	0x3db25739	0.08708043
66	0x3dbc3768	0.091902554
67	0x3cc7d7b7	0.024394853
68	0xbf3f981f	-0.74841493
69	0xbc950af5	-0.018193701
70	0xbca453d2	-0.0200595
71	0xbd1d891c	-0.038460836
72	0xbd906b2c	-0.070516914
73	0xbd6ebe1a	-0.058286764
74	0xbd4acfa0	-0.049514413
75	0x3e97737f	0.29580304
76	0xbcc8bda0	-0.024504483
77	0x3d0cd77b	0.034385186
78	0xbe0e7d2a	-0.13914934
79	0xbf2a6d9a	-0.6657349
80	0xbe8a0bfd	-0.2696227
81	0xbec3ed95	-0.38267198
82	0xbeb6fa87	-0.35738012
83	0xbf82dd9e	-1.0223882
84	0x3f2a55dd	0.66537267
85	0xbe3e156a	-0.18562856
86	0xbf8bb9bf	-1.091606
87	0xbf3e72e1	-0.7439404
88	0x3ef976e8	0.4872353
89	0xbf0a8e37	-0.5412325
90	0xbf7211ef	-0.94558614
91	0xbf312518	-0.69197226
92	0xbf6b1caa	-0.9184061
93	0xbf96d022	-1.1782267
94	0x3f69a7a5	0.9127143
95	0xbf652f16	-0.8952497
96	0x3e6caf6b	0.23113792
97	0x3f07643b	0.52887315
98	0x4001ce14	2.028203
99	0x3e0ef17f	0.13959311
100	0x3be761a7	0.0070612016
101	0xbe22c0e8	-0.158939
102	0xc001b225	-2.026498
103	0xbfc3c372	-1.529402
104	0x3f020d13	0.508012
105	0x3f00b383	0.50273913
106	0x3e03f405	0.12886055
107	0xbe8378ba	-0.25678045
108	0xbf775b72	-0.9662391
109	0xbe6f5d91	-0.23375537
110	0xbe41685f	-0.1888747
111	0x3e60208b	0.21887414
112	0xbf0ff4d8	-0.56232977
113	0x3b8e04e2	0.004334078
114	0xbe256a65	-0.16153868
115	0x3d27e563	0.040990245
116	0xbf977627	-1.1832932
117	0xbf02411c	-0.508806
118	0x3e234744	0.15945154
119	0xbe626575	-0.22109015
120	0x3ee03f6c	0.43798387
121	0xbf42b200	-0.76052856
122	0x3ebdf270	0.37099028
123	0xbfaa424c	-1.3301482
124	0x3e8f5f39	0.28002337
125	0xbeedfb17	-0.4648063
126	0xbb91dbf1	-0.004451268
127	0xbebb5c11	-0.3659368
128	0x3e43e8e0	0.19131804
129	0xbece28c0	-0.40265465
130	0xbf388084	-0.720711
131	0x3b43b3eb	0.0029861878
132	0xbf6ee682	-0.93320477
133	0x3f018ec3	0.5060846
134	0xbe9fb658	-0.31193805
135	0xbf5391ef	-0.8264455
136	0xbed77715	-0.4208304
137	0xbed559ff	-0.41670224
138	0xbf8e6262	-1.1123774
139	0x3ec0469b	0.37553868
140	0xbdb5ce7b	-0.08877274
141	0x3bcb912a	0.0062123733
142	0x3e538496	0.20656046
143	0x3e50292a	0.20328203
144	0x3e316130	0.1732223
145	0x3db70f15	0.089384235
146	0xbe4c5815	-0.19955476
147	0xbf8d907c	-1.1059718
148	0xbfbf7efe	-1.496063
149	0xbf0e1586	-0.5550159
150	0x3e30bf3d	0.17260452
151	0x3e8dc9a1	0.27692893
152	0xbf42b165	-0.7605193
153	0x3d8f6221	0.070011385
154	0xbf176779	-0.5914226
155	0xbf29063a	-0.66025126
156	0xbe3cedf0	-0.18450141
157	0xbef91cb3	-0.48654708
158	0xbd8b5062	-0.06802441
159	0x3cd18458	0.025575802
160	0xbef7a74f	-0.48369834
161	0x3d2bdbea	0.041957773
162	0xbf4c0c05	-0.7970584
163	0x3dccf629	0.10007889
164	0xbf11c5ad	-0.56942254
165	0xbf51810a	-0.81837523
166	0xbec22d3d	-0.3792514
167	0xbf40bdbc	-0.7528951
168	0xbd97242d	-0.07379947
169	0xbe265b73	-0.16245823
170	0xbd05ed56	-0.032697044
171	0xbf371b48	-0.71526
172	0xbd944c96	-0.0724117
173	0xbf7433ca	-0.95391524
174	0xbedc91a6	-0.4307987
175	0xbed972d0	-0.42470407
176	0x3f397b0f	0.724534
177	0xbf8613ef	-1.0474833
178	0xbd8d973e	-0.06913613
179	0xbf48cb7c	-0.7843549
180	0xbe1535eb	-0.1457135
181	0xbfa7bf77	-1.3105305
182	0x3ed32d29	0.41245392
183	0xbf00b0b6	-0.5026964
184	0xbf872e7c	-1.0561061
185	0xbe24d722	-0.16097692
186	0xc002d0a2	-2.043984
187	0xbedb7f4e	-0.42870563
188	0xc05df88e	-3.4682956
189	0xc00d6289	-2.209139
190	0xbe806a6c	-0.25081193
191	0x3f32b190	0.6980219
192	0x3fabac46	1.3411949
193	0xbe9f1d64	-0.3107711
194	0x3f52efed	0.8239735
195	0x3fa620ad	1.2978722
196	0x3d76b0e8	0.060227305
197	0xbf60c737	-0.8780398
198	0x3f4835b1	0.78206927
199	0x3ea49acb	0.32149348
200	0xbe9fa309	-0.31179073
201	0xbe2ecdd9	-0.17070712
202	0x409b5b53	4.854898
203	0xbf02fd64	-0.51167893
204	0x3f4a1a67	0.78946537
205	0xc00886d0	-2.1332283
206	0xbf0213d5	-0.5081151
207	0xbf79e901	-0.9762116
208	0x3ffc9c61	1.9735223
209	0xbe4533fa	-0.19258109
210	0xbf4e3339	-0.8054691
211	0xbfa6272b	-1.2980703
212	0xbfeb6608	-1.8390512
213	0xbf1ffe86	-0.62497747
214	0x3e732ba3	0.23747115
215	0x3f73c575	0.9522317
216	0xbd6539ec	-0.05596344
217	0x3f9b43dd	1.2130085
218	0xbe5cd8e9	-0.2156712
219	0x3dc37d07	0.095453314
220	0xbebac342	-0.36477095
221	0xbec97313	-0.39345607
222	0x3fe5c709	1.7951366
223	0xbec8a7b8	-0.3919046
224	0x3e229fc6	0.15881261
225	0xc00d8a35	-2.2115605
226	0xc00bf9c4	-2.1871195
227	0xbea89707	-0.32927725
228	0x3f514581	0.8174668
229	0xc0109903	-2.259339
230	0xbe4db094	-0.2008689
231	0xc0120e40	-2.2821198
232	0xbfa81d7c	-1.3133998
233	0x3e0dd4d5	0.1385072
234	0xbf1e377c	-0.6180341
235	0xbf06ff9e	-0.5273379
236	0x3ea7f364	0.3280288
237	0x3ff26fd3	1.8940376
238	0xbec7211f	-0.38892457
239	0x3e73574f	0.23763774
240	0x3f99331a	1.196872
241	0x3f1389b2	0.5763198
242	0xbf4af71e	-0.7928332
243	0xbf929d42	-1.1454241
244	0xbec586a2	-0.3857928
245	0xbf92c740	-1.1467056
246	0xbebada66	-0.3649475
247	0x3fbf9315	1.4966761
248	0x3f13fed3	0.57810706
249	0xbd65536e	-0.055987768
250	0xbd77e4b5	-0.060520846
251	0x3ce162d4	0.027512945
252	0xbfa15173	-1.2602981
253	0xbcb788d0	-0.022404104
254	0x3f858925	1.0432478
255	0x3dc78fdb	0.09744235

convs.0.fc_full.weight f4 [128, 169]
0	0xbf8fd74b	-1.1237577
1	0xbda724f1	-0.08161343
2	0x3c3d95b9	0.011571341
3	0xbeaf6fe7	-0.34265062
4	0x3e42965b	0.19002669
5	0xbeab9cbf	-0.33518025
6	0x3f42ce9c	0.7609651
7	0x3f84e14c	1.0381255
8	0x3ea94da8	0.3306706
9	0x3edae921	0.42755988
10	0xbf81671a	-1.0109589
11	0xbe2ae827	-0.16690122
12	0xbef394e5	-0.47574535
13	0x3ec83cd6	0.39108914
14	0x3f22d618	0.6360793
15	0xbf8c1b2a	-1.094579
16	0x3ca9c55a	0.020723987
17	0x3ef98a63	0.48738393
18	0xbf4e47c8	-0.8057828
19	0x3c5b6b6e	0.013392312
20	0xbee24b21	-0.44197944
21	0xbf679e00	-0.90475464
22	0xbe882aa7	-0.2659504
23	0x3f2d9238	0.6780124
24	0x3e81dd1e	0.25364012
25	0xbe900f97	-0.28136894
26	0xbee70607	-0.45121786
27	0xbf91bc9a	-1.1385682
28	0x3ddf9f00	0.10918999
29	0x3f7594ed	0.9593037
30	0xbd75bf7f	-0.059997078
31	0xbf947bde	-1.1600301
32	0x3e810f12	0.2520681
33	0xbe82e3a3	-0.25564298
34	0x3eb8c6a1	0.36089042
35	0xbe3d4fd7	-0.18487488
36	0x3e54d434	0.20784074
37	0xbed4680b	-0.41485628
38	0xbf8228e1	-1.0168725
39	0x3f326133	0.69679564
40	0xbe53a4fd	-0.20668407
41	0x3f083744	0.5320933
42	0x3ed24e6d	0.4107546
43	0xbf070f70	-0.5275793
44	0x3ef420a0	0.4768114
45	0x3f790f90	0.9728937
46	0xbf724096	-0.946298
47	0xbe82facd	-0.2558197
48	0x3ec3092f	0.38092944
49	0xbec72f27	-0.38903162
50	0xbf0b6bc5	-0.5446132
51	0xbd991c45	-0.07476095
52	0x3ec67ffe	0.38769525
53	0xbe624892	-0.22097996
54	0x3f4493a7	0.767878
55	0xbf42e110	-0.7612467
56	0x3e49039a	0.1963028
57	0xbec29cf2	-0.38010365
58	0x3d41728b	0.047228377
59	0x3e1f1fa5	0.15539415
60	0xbf2da83d	-0.67834836
61	0xbd678571	-0.056523744
62	0xbf78f696	-0.9725126
63	0xbe84e27f	-0.25954053
64	0xc00f356e	-2.237636
65	0x3e2a55c7	0.16634284
66	0x3edfd5ae	0.43717712
67	0xc00847bd	-2.1293786
68	0x3fd0491c	1.6272311
69	0xbd2b2fd8	-0.041793674
70	0xbf508af4	-0.81462026
71	0xbf12bc02	-0.5731813
72	0x3d9febc5	0.07808641
73	0xbfbb64e2	-1.4640162
74	0x3f315751	0.6927386
75	0x3fa03ced	1.2518593
76	0x3fd9fffd	1.7031246
77	0xc071455e	-3.7698588
78	0x3ed6b1a1	0.41932395
79	0x3f171cf6	0.59028566
80	0xbf77c7e0	-0.9678936
81	0xbf1107a5	-0.5665229
82	0xbfbf9a7f	-1.4969023
83	0x3f88ab70	1.0677319
84	0xbf26534e	-0.6497086
85	0xbf7d3a13	-0.9891674
86	0x3d477056	0.048691116
87	0x3e94d8c2	0.29071623
88	0xbf8a1aa1	-1.0789376
89	0xbf8ba823	-1.0910686
90	0x3e376530	0.17909694
91	0xc00ca435	-2.1975224
92	0xbc91db5e	-0.017804798
93	0x3f57837d	0.8418501
94	0xbe6fe92d	-0.23428793
95	0xbfed5999	-1.8542968
96	0x3fcd30d5	1.6030527
97	0xc00101f6	-2.0157447
98	0x3f1d89ce	0.615384
99	0x3f1a89bc	0.60366416
100	0xbf95dd16	-1.1708095
101	0xbfc03577	-1.5016316
102	0x3f710207	0.9414372
103	0xbe994c21	-0.29940894
104	0x3f03909d	0.5139254
105	0xbf26d46c	-0.6516788
106	0xbfe13b87	-1.7596291
107	0x402ee389	2.7326376
108	0x3f305cb2	0.6889144
109	0xbd9efdbf	-0.07763242
110	0x3f38884d	0.7208298
111	0x3f818b97	1.0120724
112	0xbf9df2e2	-1.2339747
113	0x3f7d2958	0.9889121
114	0xbf2f3f1c	-0.6845567
115	0xbf3c80b1	-0.7363387
116	0xbfb26eea	-1.3940098
117	0x3d0e2b64	0.03470935
118	0x4007c3e1	2.1213305
119	0x3f94495a	1.1584885
120	0xc00e4e9c	-2.223548
121	0xc01ca5e6	-2.4476256
122	0xbf8f6675	-1.1203142
123	0x3e3fc073	0.18725757
124	0xbf292d5c	-0.6608484
125	0x3f1f35d2	0.621915
126	0x3f92aebb	1.1459574
127	0xbf031d3f	-0.512165
128	0x3cc649a8	0.024205044
129	0x3d847a6d	0.06468663
130	0xbc0a4a42	-0.008440556
131	0x3e77c7fb	0.2419738
132	0x3e9ee012	0.31030327
133	0x3eae05f6	0.33988923
134	0x3f694fa6	0.9113716
135	0x3de3efca	0.111297205
136	0xbf9bb7d2	-1.2165473
137	0xc02b271d	-2.6742623
138	0x3e3b1992	0.18271473
139	0x3eeeed91	0.46665624
140	0x3ed6b837	0.4193742
141	0x3f08bf84	0.5341723
142	0x3ebd9584	0.37028134
143	0xbeaff52a	-0.34366733
144	0x3da53e29	0.08068497
145	0x3da07468	0.07834703
146	0xbfccadeb	-1.5990576
147	0xbfc74ca5	-1.5570265
148	0xbeed501d	-0.46350184
149	0xbf442939	-0.766254
150	0x3f311735	0.69176036
151	0x3f87edfc	1.0619502
152	0x3f147390	0.57988834
153	0x3f0011ca	0.50027144
154	0xbf793e75	-0.97360927
155	0xc02222f7	-2.533384
156	0xbfd9773e	-1.6989515
157	0xbd8814c0	-0.06644583
158	0xbd70698a	-0.0586944
159	0xbe1eddb9	-0.15514268
160	0xbece21ca	-0.40260154
161	0xbe6bbce7	-0.2302128
162	0x3e19d09d	0.15020986
163	0x3eb3839a	0.35061342
164	0x3e593ac8	0.2121383
165	0x3d5b7388	0.053576976
166	0x3d373818	0.04473123
167	0x3c46e729	0.012140074
168	0x3d84ca38	0.06483883
169	0x3ef892c8	0.48549485
170	0xbf77f412	-0.96856797
171	0xbe7d632f	-0.24744867
172	0xbf067504	-0.525223
173	0x3ef88ef5	0.48546568
174	0x3deedbdd	0.11663029
175	0x3ee9eea1	0.45689872
176	0xbd85ecf4	-0.06539336
177	0xbf8201a4	-1.0156751
178	0xbf79170f	-0.9730081
179	0x3e8d518b	0.27601275
180	0x3e96a756	0.29424542
181	0xbee5932e	-0.44838852
182	0xbd9f74a8	-0.07785922
183	0xbe9ba846	-0.3040182
184	0xbe6889f9	-0.22708882
185	0xbed9786b	-0.42474684
186	0x3c1527a3	0.009103688
187	0x3ebbb6df	0.36662957
188	0xbf19d438	-0.60089445
189	0xbf428163	-0.7597868
190	0xbe848d08	-0.25888848
191	0x3f72a2dd	0.9477976
192	0xbcf183cb	-0.02948179
193	0xbf3e704d	-0.7439011
194	0x3e3227f1	0.17398049
195	0xbf484c8d	-0.7824181
196	0x3eae8184	0.34083188
197	0xbe892b18	-0.2679069
198	0xbd5f8714	-0.05457218
199	0x3c227932	0.0099165905
200	0x3e70c23e	0.23511598
201	0xbec43458	-0.38321185
202	0xbf904bf0	-1.1273174
203	0xbf09554c	-0.5364578
204	0xbe982874	-0.29718363
205	0x3ce85e33	0.02836523
206	0xbf443f25	-0.7665885
207	0x3ea12082	0.31470114
208	0x3f70fa82	0.94132245
209	0xbd0a81be	-0.033815138
210	0xbeee598a	-0.46552688
211	0xbd8bbfb5	-0.068236746
212	0xbe220924	-0.158238
213	0xbf70b7a9	-0.94030243
214	0xbeb947bc	-0.3618754
215	0x3f17b69e	0.59263027
216	0xbf82f224	-1.0230145
217	0xbeeedcd5	-0.46652856
218	0xbe5ab2d5	-0.21357282
219	0x3ec7ac81	0.38998798
220	0x3f371f59	0.7153221
221	0xbf1e6b33	-0.61882323
222	0x3dcab3b1	0.09897555
223	0xbec0f2f5	-0.37685362
224	0x3f12ced8	0.5734687
225	0x3ee8eb48	0.45492005
226	0xbe854877	-0.2603185
227	0xbe5323de	-0.20619151
228	0x3e0a712a	0.13519731
229	0x3d97b306	0.07407193
230	0x3dc2868b	0.09498318
231	0xbf0219ab	-0.50820416
232	0x3d14087c	0.036140904
233	0xbf335a36	-0.70059526
234	0x3e677ecd	0.22606964
235	0xbfda8330	-1.7071285
236	0xbfa81a75	-1.3133074
237	0x3e117b96	0.142073
238	0xbdb5bbc5	-0.08873705
239	0xc016c174	-2.3555574
240	0xc0372a77	-2.8619668
241	0x3ec2595f	0.3795881
242	0xbeec5dd6	-0.4616534
243	0xbd1fe89e	-0.0390402
244	0x3fc73de1	1.5565759
245	0x400a4f17	2.1610773
246	0xbe1c4e89	-0.15264334
247	0xbf3d501d	-0.7395037
248	0x4012678c	2.28757
249	0xc0806bee	-4.013175
250	0x3f792b1c	0.97331405
251	0xbeb3a6e6	-0.3508827
252	0xbf547936	-0.82997453
253	0x3da8e175	0.082461275
254	0x40183b21	2.378609
255	0x3e80cb66	0.2515518

convs.0.fc_full.bias f4 [128]
0	0xbd01cb13	-0.031687807
1	0x3dd18feb	0.10232528
2	0xbdfe60b8	-0.124207914
3	0x3c5b90d2	0.013401227
4	0x3c9e5679	0.019328343
5	0x3dba2b49	0.09090287
6	0x3c74aeb8	0.014934234
7	0xbc058bc6	-0.008151
8	0xbc084d6c	-0.00831924
9	0xbc4554f2	-0.012044178
10	0x3d207bd7	0.039180603
11	0xbce149b2	-0.027500961
12	0x3d813b7b	0.06310173
13	0xbcfee186	-0.031113397
14	0x3ca33347	0.019921912
15	0xbd12fabb	-0.035883646
16	0xbbacba00	-0.0052711964
17	0x3d671e6c	0.056425497
18	0xbd2cf68e	-0.04222732
19	0x3cc30262	0.023804847
20	0x3db06b04	0.086141616
21	0x3d9b1173	0.075716875
22	0xbcd34f69	-0.025794702
23	0x3c56318f	0.013073339
24	0x3db36291	0.087590344
25	0x3cc0ce86	0.023535978
26	0x3d576db2	0.052594848
27	0xbc74cb08	-0.014940985
28	0x3d5b2e09	0.0535107
29	0x3d1d2756	0.03836759
30	0xbd1b6df4	-0.037946656
31	0xbd340642	-0.04395128
32	0xbd944286	-0.07239251
33	0x3cab3346	0.020898473
34	0x3d140d85	0.036145706
35	0x3dd3094b	0.10304507
36	0xbd3c568e	-0.045980982
37	0x3ce28089	0.027649181
38	0x3c47fe58	0.012206636
39	0x3d26afbb	0.040694933
40	0x3da2f021	0.07955957
41	0x3b6658ca	0.0035148137
42	0xbdc8d5cb	-0.09806403
43	0x3da97f1a	0.08276196
44	0x3c86dbaf	0.016462175
45	0x3d9388e1	0.07203842
46	0x3d9aa0f9	0.07550234
47	0x3d67d8f4	0.056603387
48	0x3daa00fc	0.08300969
49	0x3d79475c	0.06085907
50	0xbd94d033	-0.07266273
51	0x3d3c6dc0	0.046003103
52	0x3d9b5533	0.0758461
53	0xbc991df2	-0.018691037
54	0xbd053128	-0.032517582
55	0x3c800dcb	0.015631577
56	0xbcb2fc1c	-0.02184873
57	0x3d11de19	0.0356122
58	0x3c8840e3	0.016632503
59	0x3cd024f2	0.025408242
60	0xbc9b5c2b	-0.018964848
61	0xbbb7056e	-0.005585364
62	0x3d156a54	0.036478356
63	0x3d49bbbd	0.049251307
64	0x3d0e7693	0.03478105
65	0x3ccf09b2	0.025273178
66	0xbd7e39bf	-0.06206679
67	0x3d7aedbe	0.061261885
68	0xbd855c69	-0.065117665
69	0x3c2ead01	0.0106613645
70	0x3d8b102b	0.06790193
71	0xbdf6ecab	-0.120568596
72	0x3d0a1a2d	0.03371637
73	0xba8b74c8	-0.0010639662
74	0x3d09c309	0.033633266
75	0x3c9c0f36	0.019050222
76	0x3c7ab2dd	0.015301433
77	0xbd227630	-0.039663494
78	0x3d9339f7	0.0718879
79	0xbd0f92f5	-0.03505226
80	0x3d922a21	0.07136942
81	0x3bd30603	0.0064399256
82	0xbdc98254	-0.09839311
83	0xbc838073	-0.01605246
84	0xbd39bbc3	-0.04534508
85	0x3c24bcb3	0.010054755
86	0x3d0f2474	0.034946874
87	0x3c11794c	0.008879017
88	0xbc90c91a	-0.017674018
89	0xbd60fa13	-0.05492599
90	0xbdcee4a9	-0.10102207
91	0x3de409d6	0.111346886
92	0x3b9b788d	0.0047445954
93	0xbbe55765	-0.0069989436
94	0x3c9a4cbf	0.018835424
95	0x3ce09281	0.027413609
96	0xbce1f3bb	-0.02758204
97	0xbc95b218	-0.018273398
98	0xbe11452d	-0.14186545
99	0xbd5f4db7	-0.054517474
100	0x3ccfa033	0.025344944
101	0xbd34aa91	-0.044107977
102	0x3d184eb7	0.037184443
103	0xbd6550fc	-0.055985436
104	0xbc9e8ab3	-0.019353246
105	0x3db0fee8	0.086423695
106	0xbd9a8b9f	-0.07546162
107	0xba59069d	-0.00082788785
108	0xbd5163ac	-0.051120445
109	0xbdcad948	-0.09904724
110	0xbcf8ae66	-0.030356597
111	0xb9e256dc	-0.00043170794
112	0xbd33db3a	-0.043910243
113	0xbd2b50c9	-0.04182509
114	0xbb86aec8	-0.004110191
115	0xbdb7c445	-0.08972982
116	0xbab127c5	-0.001351588
117	0x3c1ab679	0.009442919
118	0x3cd63081	0.026146175
119	0xbca6c3fe	-0.020357128
120	0x3d56973c	0.052390322
121	0xbcca48b5	-0.024692873
122	0x3da17812	0.0788423
123	0x3dabdc8d	0.08391676
124	0x3d14a2a4	0.03628792
125	0xbd37e52e	-0.044896297
126	0xbcfb4651	-0.030673178
127	0x3d0b3830	0.03398913

convs.0.bn1.weight f4 [128]
0	0x40804f64	4.009691
1	0x407cdf37	3.951124
2	0x4054c552	3.3245435
3	0x408da628	4.4265327
4	0x3fe7dceb	1.8114294
5	0x409069df	4.5129237
6	0x408122c4	4.035494
7	0x408589a3	4.1730514
8	0x4062b8a1	3.5425189
9	0x4087ab5b	4.2396674
10	0x40af26e2	5.4734964
11	0x407362a0	3.8028946
12	0x3fbd3c89	1.4784099
13	0x40c719f4	6.221918
14	0x406d7f7d	3.7109063
15	0x40506a1b	3.2564762
16	0x4095def3	4.6834655
17	0x40b4926d	5.6428742
18	0x4009310c	2.1436186
19	0x40552bb4	3.3307924
20	0x408ced6d	4.4039826
21	0x405abc22	3.4177327
22	0x40bb314a	5.8497667
23	0x408ed598	4.4635735
24	0x40313e8b	2.7694423
25	0x3fa4a3e3	1.2862514
26	0x40a25945	5.073397
27	0x406e4043	3.7226722
28	0x40ab61fb	5.3557105
29	0x40abae2c	5.365011
30	0x40a5e403	5.1840835
31	0x401de9fa	2.4674058
32	0x40bb84a5	5.859942
33	0x40a19505	5.049441
34	0x3f89b381	1.0757905
35	0x403759ef	2.864864
36	0x3faf6a61	1.3704339
37	0x4006098b	2.0943325
38	0x4033c2fc	2.808776
39	0x406fff24	3.7499475
40	0x405c0426	3.4377532
41	0x3fb03e1f	1.3768958
42	0x408b163a	4.346463
43	0x4046d2c2	3.1066136
44	0x40769794	3.8530016
45	0x3fb92cc9	1.4466792
46	0x4088c334	4.2738285
47	0x403a8e95	2.9149525
48	0x40804df5	4.0095162
49	0x403bad62	2.9324574
50	0x40b5657a	5.6686373
51	0x4055b4cf	3.3391607
52	0x40590b94	3.3913317
53	0x40ab5aaa	5.3548174
54	0x4085bb85	4.1791406
55	0x40cea0f5	6.457148
56	0x4081f3f5	4.06103
57	0x409d6b19	4.9193234
58	0x400daaa0	2.2135391
59	0x4058f3dd	3.3898842
60	0x40502951	3.2525218
61	0x3fe75d20	1.8075294
62	0x3fbdc606	1.4826057
63	0x408c6e27	4.3884463
64	0x402a2bea	2.6589303
65	0x3da96577	0.08271306
66	0x3ee2fb95	0.44332567
67	0x40122c9b	2.2839725
68	0x405c74df	3.4446332
69	0xbd0a780a	-0.033805884
70	0x400a9bfb	2.1657703
71	0x3ff2a930	1.8957882
72	0x40610b7a	3.5163255
73	0x3f61fb76	0.88274324
74	0x3f97435e	1.1817434
75	0x3e836656	0.25664014
76	0x4037db5a	2.8727632
77	0x3f53886f	0.82630056
78	0x402bc0cf	2.683643
79	0x3e88f623	0.26750287
80	0x3fc525e0	1.5402184
81	0x4007a4c1	2.1194308
82	0x401d110e	2.454166
83	0x3fd2b3d9	1.6461135
84	0x3feca098	1.8486509
85	0x4008b867	2.136255
86	0x3f03a69e	0.5142611
87	0x3fa3ae47	1.278756
88	0x4049be09	3.1522238
89	0x4049f38b	3.1554897
90	0x3fb162cf	1.3858279
91	0x3e57e346	0.21082792
92	0xbd04e19a	-0.032441713
93	0x3fb6f108	1.4292307
94	0x3efaa384	0.48952878
95	0x406f84fc	3.7424917
96	0x3d854e67	0.06509095
97	0x3f7be020	0.9838886
98	0x3f10e519	0.56599575
99	0x3e94beda	0.29051858
100	0x400e378c	2.2221403
101	0x3fbf604d	1.4951264
102	0x409f943a	4.986844
103	0x3f5a1df3	0.8520195
104	0x3f4b8b52	0.7950946
105	0x4000b3f4	2.0109835
106	0x3f1efbe7	0.6210312
107	0x3f90f6cc	1.1325316
108	0x40224cb6	2.535932
109	0x4046995c	3.1031103
110	0xbe8d6f15	-0.2762381
111	0x3fc65fae	1.5497949
112	0x3f45ab0f	0.7721414
113	0x405afda4	3.421731
114	0x3dc9fa82	0.09862234
115	0x40e6d6f2	7.2137384
116	0x4020d1c2	2.5128026
117	0x3f2088fb	0.62709016
118	0x3ee950a4	0.45569336
119	0x3fbb90b0	1.465353
120	0x3f50bc47	0.8153729
121	0x40886838	4.262722
122	0x4064f599	3.57749
123	0x3f8a411d	1.0801121
124	0x3f60fcd7	0.87885803
125	0x40338f8d	2.8056366
126	0x3fa8fb66	1.3201721
127	0x3eb719cb	0.35761866

convs.0.bn1.bias f4 [128]
0	0xbe5a8191	-0.21338488
1	0x401b8adc	2.4303503
2	0x403fdf63	2.9980094
3	0xbf4a2e41	-0.7897683
4	0x3f56d4a2	0.839182
5	0x4004c376	2.07443
6	0xbf0d28f7	-0.5514063
7	0x3e8ee8e5	0.2791206
8	0xbf0aa907	-0.54164165
9	0x3f35eec1	0.71067435
10	0x3f8bbc52	1.0916846
11	0x3e2bba66	0.16770324
12	0x3eaf1431	0.34195092
13	0xbf094a17	-0.5362868
14	0xbe9489e1	-0.29011443
15	0x3fedffcc	1.8593688
16	0x3c12d20c	0.008961212
17	0x3f51b20a	0.8191229
18	0x3e82b4ab	0.25528464
19	0x3f206320	0.6265125
20	0x3f2c353e	0.6726874
21	0xbf18240b	-0.5943
22	0x3fab18b5	1.3366915
23	0x3c9304fb	0.01794671
24	0x3ec9f7a3	0.39446744
25	0x3f3c115a	0.73463976
26	0x3f810c08	1.0081797
27	0x3f680475	0.906318
28	0x3ffa0f38	1.9535894
29	0x3d918940	0.071062565
30	0x3e4ea3f7	0.20179735
31	0xbfc0f6f0	-1.5075359
32	0x3f8bf295	1.0933405
33	0x3fcdbd47	1.6073388
34	0x3f81f77e	1.0153654
35	0x3d0a149b	0.033711057
36	0xbe5c487b	-0.21512024
37	0x3f8ca631	1.0988218
38	0x3f8e78eb	1.1130651
39	0x3e669276	0.22516808
40	0x3f95f85b	1.1716417
41	0xbfa02490	-1.2511158
42	0x3fe96aa4	1.8235669
43	0x3f499ebe	0.78757846
44	0xbebd3cc8	-0.36960435
45	0x3fa760f7	1.3076466
46	0x400c1ac1	2.189133
47	0x3fed518a	1.8540509
48	0x3fb433ee	1.4078348
49	0xbffe3169	-1.9858829
50	0x3f164ac6	0.58707845
51	0x3f5e0495	0.8672574
52	0xc01fd321	-2.4972613
53	0x3fe11112	1.7583334
54	0x3f53ce5d	0.8273676
55	0x3ecb9c70	0.3976779
56	0x3f8696a2	1.051472
57	0x3e04edad	0.12981291
58	0x3e353678	0.1769656
59	0x3f91d411	1.1392843
60	0x3f550ab3	0.8321945
61	0x3f99482f	1.1975154
62	0xbf949966	-1.1609313
63	0x3f974e8c	1.1820846
64	0xbd03df5d	-0.032195438
65	0x402a9955	2.6656086
66	0x4048d9b6	3.138288
67	0xbecedeb6	-0.4040429
68	0x3f6aa7bc	0.9166219
69	0x40b109dd	5.532454
70	0x3e86fa38	0.26362777
71	0xbd5a7b61	-0.05334032
72	0xbfa64994	-1.2991204
73	0x3fc96ff9	1.5737296
74	0x3f89d283	1.0767368
75	0x406eb67e	3.7298884
76	0xbfa5e261	-1.295971
77	0x3f413da7	0.754847
78	0xbf32114b	-0.69557637
79	0x40389414	2.884038
80	0x3f16767c	0.5877454
81	0x3fae010b	1.3594068
82	0xbe05c66d	-0.13063975
83	0x3c5c3396	0.013440033
84	0xbf8ba320	-1.0909157
85	0x3ea979ef	0.3310084
86	0x3feff171	1.8745557
87	0x3fa1d111	1.2641927
88	0xbf5f6436	-0.87262285
89	0xbf7515c2	-0.95736325
90	0x3f043951	0.5164996
91	0x4011a005	2.2753918
92	0x412dd390	10.864151
93	0x3f1a935f	0.6038112
94	0x3f948727	1.1603745
95	0xbf5183b1	-0.8184157
96	0x40b6b87e	5.710021
97	0x3ee22694	0.44170058
98	0x3f85a349	1.0440456
99	0x40180c61	2.3757555
100	0xbf34572d	-0.7044552
101	0x3f8910e2	1.0708277
102	0x3f2bc908	0.67103624
103	0x3fb5548e	1.4166429
104	0xbd9f9e7f	-0.077939026
105	0xbfa0fc99	-1.2577087
106	0x4020c33d	2.5119164
107	0x3f8bd872	1.0925429
108	0x3f47dcab	0.7807109
109	0xbe20bd26	-0.15697154
110	0x400f4d2b	2.239085
111	0x3feab662	1.8336909
112	0x3eb8a931	0.36066583
113	0xc03852a9	-2.8800452
114	0x3fb3c778	1.4045248
115	0x3d910ddb	0.07082721
116	0xc01081ae	-2.257915
117	0x3fcb8033	1.5898498
118	0x4020b718	2.5111752
119	0x3fb9bcad	1.4510704
120	0x3fea8a49	1.8323451
121	0x3f12426c	0.571326
122	0xbddcd1dc	-0.10782215
123	0x3f518979	0.8185039
124	0x3f9b5964	1.2136655
125	0x3e6dcf8a	0.23223701
126	0xbf839b64	-1.0281796
127	0x40a05639	5.010525

convs.0.bn1.running_mean f4 [128]
0	0x428d8c07	70.77349
1	0x428ef369	71.47541
2	0xc1c1f6a3	-24.245428
3	0xc2590e0e	-54.263725
4	0x41b5abd8	22.708908
5	0x4278cdb6	62.20089
6	0xc29d500d	-78.65635
7	0x42830da3	65.526634
8	0x420f4ff0	35.828064
9	0xc1d25433	-26.291113
10	0xc1644f54	-14.269367
11	0xc0ea9930	-7.3311996
12	0x41b4abd8	22.583908
13	0x419899cb	19.075094
14	0xc26ca1d2	-59.158028
15	0xc29b9b60	-77.80347
16	0x40aff775	5.498957
17	0x4276470f	61.569393
18	0x4198e081	19.109621
19	0xc21cb969	-39.181065
20	0x42490d32	50.262886
21	0xc250766e	-52.115654
22	0x421ab387	38.67532
23	0xc0a7c0e1	-5.242295
24	0x4186a8b8	16.832382
25	0x4113bdda	9.2338505
26	0x42a9e2c9	84.94294
27	0xc27eec7d	-63.730946
28	0xc202b12f	-32.67303
29	0xc21a2071	-38.53168
30	0x418f157d	17.885492
31	0x419634fa	18.775867
32	0xc17064c0	-15.024597
33	0xc0a6d286	-5.2131987
34	0x401d9300	2.4620972
35	0x4126be24	10.421421
36	0x4250f00a	52.234413
37	0xc2a7d6ac	-83.91928
38	0xc23a12df	-46.51843
39	0x42767fab	61.624676
40	0x424822d5	50.034016
41	0x42829020	65.281494
42	0xc2b4faae	-90.48961
43	0x41478895	12.470845
44	0x4284ec42	66.46144
45	0x40d6932d	6.705466
46	0xc0ca4341	-6.3207097
47	0xc214962e	-37.14666
48	0xc217e765	-37.97597
49	0xc178a2a9	-15.539712
50	0x4117740c	9.465832
51	0xc2e14e72	-112.65321
52	0xc1ad4b8c	-21.661888
53	0x4203330b	32.799847
54	0x4216789b	37.61778
55	0xc239fa4b	-46.494427
56	0xc298d4e1	-76.41578
57	0x420dbb3d	35.43285
58	0x423a5e09	46.59183
59	0xc28303c0	-65.507324
60	0x423856cd	46.084766
61	0xc1df83b1	-27.939302
62	0x425373e3	52.86317
63	0x42b85585	92.16703
64	0x413e868e	11.90785
65	0xc0faae5e	-7.833785
66	0x3ebe691e	0.37189573
67	0xc2260ef1	-41.51459
68	0xc20e94ce	-35.645317
69	0x42a846b9	84.13813
70	0x41a45d3e	20.545528
71	0xc28889d9	-68.26923
72	0x423666a9	45.600254
73	0xc13a65ff	-11.649901
74	0xc1536853	-13.21297
75	0xc2773dc1	-61.810307
76	0x428e1fd7	71.06219
77	0x4248d9b5	50.212605
78	0x420aa858	34.6644
79	0xc2d0f935	-104.48673
80	0xc20f6a76	-35.853966
81	0x428d1269	70.53596
82	0x42804ba6	64.14775
83	0xc1db4cae	-27.412441
84	0x41080950	8.502274
85	0xc29660e4	-75.18924
86	0x422faf2a	43.92106
87	0x4127a23c	10.477108
88	0x41c54e1a	24.663136
89	0xc2489ff9	-50.156223
90	0x427e94e3	63.645397
91	0xc29c4787	-78.1397
92	0x424ea5df	51.661983
93	0x417fe533	15.993457
94	0x401e1f05	2.4706433
95	0xbe0de65c	-0.13857406
96	0x42017855	32.36751
97	0x41e141cf	28.157133
98	0xc050d17a	-3.2627854
99	0x41958012	18.687534
100	0x42604198	56.064056
101	0xc2a167f0	-80.703
102	0xc292c35c	-73.38156
103	0x4247f180	49.98584
104	0x426d76a8	59.365875
105	0x427ebb0f	63.682674
106	0xc29540a9	-74.62629
107	0x424ee4f0	51.72357
108	0x41b8102b	23.007895
109	0xc20646e2	-33.56922
110	0xc2490395	-50.253498
111	0xc1516af7	-13.088614
112	0xc17a7dde	-15.655729
113	0xc1ca9a06	-25.325207
114	0x417d4f2a	15.831827
115	0x41ebcb08	29.474136
116	0x4040d147	3.0127733
117	0xc1b39f17	-22.45268
118	0x42c837c4	100.10892
119	0x420eef61	35.73377
120	0x4282d6af	65.419304
121	0x425d75ec	55.365158
122	0x4286bdaa	67.37044
123	0x4119c60e	9.610853
124	0x4220f72e	40.241386
125	0xc193a77e	-18.456783
126	0x428abb01	69.36524
127	0x42b61c5c	91.05539

convs.0.bn1.running_var f4 [128]
0	0x455d234e	3538.2065
1	0x456b1f8c	3761.9717
2	0x45d88a38	6929.2773
3	0x4588663e	4364.7803
4	0x4537e1be	2942.109
5	0x4591be82	4663.8135
6	0x46223b8d	10382.888
7	0x45980e2e	4865.7725
8	0x45872730	4324.8984
9	0x4599cfcd	4921.975
10	0x45b5d5a5	5818.7056
11	0x45be365e	6086.796
12	0x4581a4a0	4148.578
13	0x45e972f5	7470.3696
14	0x45d1add8	6709.7305
15	0x45ce9ba8	6611.457
16	0x453989e1	2968.6174
17	0x45ce0857	6593.0425
18	0x45205013	2565.0046
19	0x45c07930	6159.1484
20	0x45d12fb5	6693.9634
21	0x45b8f0fb	5918.1226
22	0x45da2cc2	6981.5947
23	0x45859103	4274.1265
24	0x451fca17	2556.6306
25	0x4592a740	4692.9062
26	0x45f754a3	7914.5796
27	0x45636ff9	3638.9983
28	0x4602630e	8344.764
29	0x45c70f79	6369.934
30	0x46040dc9	8451.446
31	0x45e2bfcf	7255.976
32	0x45d784bd	6896.5923
33	0x453fbeea	3067.9321
34	0x44c6d212	1590.5647
35	0x45e67759	7374.9185
36	0x458f59d8	4587.2305
37	0x45849398	4242.449
38	0x451914de	2449.3042
39	0x45cba2ff	6516.3745
40	0x4533a573	2874.3406
41	0x45774da0	3956.8516
42	0x4606d5c3	8629.44
43	0x4613e0b9	9464.181
44	0x460c4251	8976.579
45	0x45dd1cf8	7075.621
46	0x453b2508	2994.3145
47	0x458fe48b	4604.568
48	0x45e5ffeb	7359.9897
49	0x44b65d2d	1458.9117
50	0x455c3adb	3523.6785
51	0x4557e2da	3454.1782
52	0x44f48d7c	1956.4214
53	0x45a21d66	5187.675
54	0x45e2d9c8	7259.2227
55	0x459ee7b4	5084.963
56	0x459941f2	4904.243
57	0x45640056	3648.021
58	0x4591d342	4666.407
59	0x462daf72	11115.861
60	0x45d523c0	6820.4688
61	0x458e40ea	4552.1143
62	0x453bbaa1	3003.6643
63	0x4612366c	9357.605
64	0x458837c4	4358.9707
65	0x45648e00	3656.875
66	0x45f230c3	7750.095
67	0x45e793e0	7410.4844
68	0x46162f80	9611.875
69	0x456814b0	3713.293
70	0x46176e54	9691.582
71	0x45fbf67c	8062.8105
72	0x45b8ce3d	5913.78
73	0x452eefa5	2798.9778
74	0x45889f62	4371.923
75	0x45f3ecdb	7805.607
76	0x459f1205	5090.2524
77	0x45a58a21	5297.266
78	0x457e548b	4069.284
79	0x4627b7fa	10733.994
80	0x45b04136	5640.1514
81	0x4612f414	9405.02
82	0x459ed75c	5082.92
83	0x45da2392	6980.4463
84	0x452c16e5	2753.431
85	0x458eb268	4566.301
86	0x45d1a967	6709.1753
87	0x45bdbab3	6071.3374
88	0x4550276d	3330.464
89	0x45667d3f	3687.828
90	0x45fa7fd4	8015.9785
91	0x45836a52	4205.29
92	0x46079916	8678.271
93	0x4582b64d	4182.7876
94	0x45f2651a	7756.6377
95	0x45cc2589	6532.692
96	0x45994dd2	4905.7275
97	0x454a02d4	3232.1768
98	0x44ea0fe4	1872.4966
99	0x460ef26e	9148.607
100	0x454d20c0	3282.0469
101	0x45f12c48	7717.535
102	0x458e4117	4552.136
103	0x45aa1123	5442.142
104	0x459d606c	5036.0527
105	0x458202c0	4160.3438
106	0x463b1f20	11975.781
107	0x46263137	10636.304
108	0x4612a001	9384.001
109	0x45b0c566	5656.675
110	0x45931c43	4707.5327
111	0x4600e230	8248.547
112	0x45b5fa3d	5823.28
113	0x44ea3e6f	1873.951
114	0x44c733ae	1593.615
115	0x45b96cf8	5933.621
116	0x458c03a8	4480.457
117	0x459029fc	4613.248
118	0x4634cc6d	11571.106
119	0x461e9b06	10150.756
120	0x45cfd70d	6650.8813
121	0x46041642	8453.564
122	0x45a98e4c	5425.787
123	0x46076c29	8667.04
124	0x45b9641b	5932.513
125	0x45ed7fa3	7599.9546
126	0x4574cd95	3916.8489
127	0x45e375c2	7278.7197

convs.0.bn2.weight f4 [64]
0	0x3f8a1069	1.0786258
1	0x3f0a5af5	0.5404504
2	0x3fa70361	1.3047906
3	0x3ff87cde	1.9413106
4	0x3faeb01b	1.3647493
5	0x3f4a6578	0.7906108
6	0x40202045	2.5019696
7	0x3f7dc334	0.9912598
8	0x3fac6b56	1.3470256
9	0x3fc28ded	1.5199562
10	0x3fe6f280	1.8042755
11	0x3f7cff3d	0.9882696
12	0x3f822a1d	1.0169102
13	0x3ffa3bb4	1.954947
14	0x3f93dbff	1.1551512
15	0x3f796942	0.97426236
16	0x3f043748	0.5164685
17	0x40263e73	2.5975616
18	0x3faef7ad	1.3669335
19	0x40021f89	2.0331748
20	0x3f8fc2d1	1.1231328
21	0x4002b8f2	2.0425382
22	0x4004a57f	2.072601
23	0x3fcef0c6	1.6167228
24	0x3f1b1418	0.60577536
25	0x3f8e27ef	1.1105937
26	0x400c3d1a	2.1912293
27	0x3fab8976	1.3401325
28	0x3fb8d452	1.4439795
29	0x3ec22fdb	0.37927136
30	0x3fbc2249	1.4697963
31	0x3fe9600c	1.8232436
32	0x3f9dc950	1.2327061
33	0x3e1449de	0.14481303
34	0x3e63c284	0.2224217
35	0x3fe449a7	1.7834977
36	0x3f161b19	0.586351
37	0x3f961877	1.1726216
38	0x3f82fcf9	1.0233451
39	0x3f4c69b7	0.7984881
40	0x3f3eaf91	0.74486643
41	0x3fdc5b53	1.721537
42	0x3fc1e44d	1.5147797
43	0x3fd82490	1.6886158
44	0x3f6d3ff5	0.92675716
45	0x3fb960e8	1.4482698
46	0x3ea16dba	0.31529027
47	0x3fd5d1aa	1.6704609
48	0x3fd1825b	1.6367906
49	0x3e1dc98d	0.15408917
50	0x3e96c715	0.29448763
51	0x400e549f	2.2239149
52	0x403e0f1e	2.9696727
53	0x3f28a153	0.6587116
54	0x404a6456	3.162374
55	0x400aa4c1	2.1663058
56	0x3f9b82a6	1.2149246
57	0x3fe045d7	1.7521313
58	0x3f95f4e1	1.1715356
59	0x401bdc25	2.4353116
60	0x3f84f853	1.0388283
61	0x3f49f60a	0.7889105
62	0x3f1d36b6	0.6141161
63	0x3fdf952c	1.7467399

convs.0.bn2.bias f4 [64]
0	0xbfd3ad6e	-1.6537302
1	0xbfef53f4	-1.8697495
2	0xbe81e0aa	-0.25366718
3	0xbf370464	-0.71491075
4	0xbd9332f3	-0.07187452
5	0x3d40158e	0.046895556
6	0xbf20e4b4	-0.62848973
7	0xbfcba574	-1.5909867
8	0xbed6cd05	-0.41953292
9	0xbffda916	-1.9817226
10	0xbff389e0	-1.9026451
11	0xbd47b709	-0.04875854
12	0xbff21445	-1.8912436
13	0xbf3fa009	-0.7485357
14	0xbfc762f6	-1.5577075
15	0x3ef87ed8	0.48534274
16	0x3e8e0e9d	0.27745524
17	0x3cfdcd3b	0.03098165
18	0xc00a3334	-2.1593752
19	0xbf1baa21	-0.6080647
20	0xc0180cc5	-2.3757794
21	0xbf3c202f	-0.7348661
22	0xbe0a59f4	-0.13510877
23	0xbfe71df6	-1.8056018
24	0xc00b18a3	-2.1733787
25	0xc00236d8	-2.0345974
26	0xbf9f32b2	-1.2437346
27	0xbf7d9598	-0.99056387
28	0x3ec9b5c8	0.393965
29	0xbfacce6a	-1.3500493
30	0xbf7920d4	-0.97315717
31	0xbf82cc04	-1.0218511
32	0xbf76c831	-0.9639922
33	0x3a43478c	0.0007449321
34	0xc03c39e0	-2.9410324
35	0x3ea09ed3	0.31371173
36	0xc012d71d	-2.2943795
37	0xbfe3d297	-1.7798642
38	0xbff2646e	-1.8936899
39	0xc02f897e	-2.7427669
40	0xbf7034fc	-0.9383085
41	0xc058cab4	-3.387372
42	0x3e030cf2	0.12797907
43	0xbf89fe19	-1.078067
44	0xbf3c6921	-0.73597914
45	0x3e0d1782	0.13778499
46	0xc020cb52	-2.5124097
47	0xbbfadbb9	-0.0076555875
48	0xbf99517c	-1.1977992
49	0xbff2ec73	-1.8978409
50	0xc02b6567	-2.678064
51	0xbf3720b2	-0.71534264
52	0x401e84c9	2.4768546
53	0xc005b833	-2.0893676
54	0xbfa455ac	-1.2838645
55	0xbf90daaa	-1.1316731
56	0xbefb88fd	-0.4912795
57	0xbfafb330	-1.3726559
58	0xbf243ab8	-0.641521
59	0xbf10b3c8	-0.56524324
60	0xbff9ac1b	-1.9505647
61	0x3ea7362b	0.32658514
62	0xbfdb7fe5	-1.7148405
63	0xbfd38e55	-1.6527811

convs.0.bn2.running_mean f4 [64]
0	0x41329dab	11.163493
1	0x41c39296	24.446575
2	0x41fc72d9	31.556078
3	0x41034c56	8.206137
4	0x416d5816	14.834005
5	0x42328fbd	44.64037
6	0x41156992	9.338274
7	0x40b96c5b	5.794477
8	0x411d46bb	9.829768
9	0x4165d2f4	14.364002
10	0x4146164a	12.380442
11	0x41b23048	22.273575
12	0x4103f2e7	8.246802
13	0x41168546	9.407537
14	0x40ff8cd7	7.9859424
15	0x41c1b3b1	24.21274
16	0x41176213	9.461444
17	0x414c73bd	12.778256
18	0x41419ea7	12.1012335
19	0x41104a9a	9.018213
20	0x40ae7a18	5.452404
21	0x4129e079	10.617303
22	0x41846731	16.550386
23	0x4135d5b1	11.364671
24	0x41228c58	10.159264
25	0x411b64cc	9.712109
26	0x41305d14	11.022724
27	0x418db72a	17.714436
28	0x429b5535	77.66642
29	0x40f5f16e	7.6857214
30	0x413183ca	11.094675
31	0x412f5370	10.9578705
32	0x420add7a	34.716286
33	0x41091f63	8.570163
34	0x4144ec6c	12.30772
35	0x41808c84	16.068611
36	0x40dc3772	6.881768
37	0x41673929	14.451455
38	0x41c46ebc	24.55407
39	0x4143ca70	12.236923
40	0x40b4e935	5.6534677
41	0x40712481	3.767853
42	0x41a36c87	20.427992
43	0x41627213	14.15285
44	0x418b4af4	17.411598
45	0x4125fd3a	10.374323
46	0x41a45568	20.541702
47	0x41a853f0	21.040985
48	0x40d098f7	6.5186725
49	0x40af4e31	5.478295
50	0x41344bcf	11.268508
51	0x41e3e5cd	28.487207
52	0x400b575b	2.1772068
53	0x41541799	13.255761
54	0x419cb69c	19.589165
55	0x4182a104	16.32862
56	0x416bc684	14.735966
57	0x41c5e215	24.735392
58	0x416ec179	14.922235
59	0x412e45ff	10.892089
60	0x415bb43c	13.731503
61	0x417c3ea0	15.765289
62	0x400890dc	2.1338415
63	0x4217c626	37.943504

convs.0.bn2.running_var f4 [64]
0	0x431d02ef	157.01146
1	0x42654b5a	57.323586
2	0x42812456	64.57097
3	0x4245e0ac	49.469406
4	0x4305b228	133.69592
5	0x44163719	600.8609
6	0x426ddee6	59.467674
7	0x423573d2	45.363106
8	0x4324c408	164.76575
9	0x42a14f7c	80.65524
10	0x428d464a	70.63728
11	0x436af719	234.96523
12	0x42a760c9	83.68903
13	0x421460b5	37.09444
14	0x425324fb	52.786114
15	0x42e36c7d	113.71189
16	0x42e08137	112.25237
17	0x43137515	147.45735
18	0x435ac7c5	218.78035
19	0x422f7719	43.866306
20	0x422e47e9	43.570225
21	0x43131996	147.09995
22	0x4221958c	40.39604
23	0x4296c378	75.381775
24	0x434dcf4a	205.80972
25	0x42f157cc	120.67148
26	0x423d6b36	47.3547
27	0x42b1f678	88.981384
28	0x4549f8a9	3231.5413
29	0x4293bf14	73.8732
30	0x41f8c75d	31.097345
31	0x4380f31e	257.89935
32	0x43b40631	360.04837
33	0x428243fd	65.13279
34	0x41dcce30	27.600677
35	0x42b0a9a6	88.331345
36	0x422077ba	40.11692
37	0x42bf45a7	95.63604
38	0x442a704d	681.7547
39	0x426523d0	57.284973
40	0x411842d1	9.516313
41	0x419c769f	19.55792
42	0x43031569	131.08363
43	0x4228d55e	42.208366
44	0x4311a630	145.64917
45	0x429e7da1	79.24537
46	0x42c380d1	97.751595
47	0x42dd0062	110.50075
48	0x4140f8a3	12.060702
49	0x42dcbeb9	110.372505
50	0x4288620c	68.1915
51	0x44aa063b	1360.1947
52	0x40ef5090	7.4785843
53	0x421c1f0c	39.03032
54	0x429a92fc	77.28708
55	0x4313960d	147.58614
56	0x424c106c	51.016037
57	0x43d8d300	433.64844
58	0x434dbac2	205.72952
59	0x4232f4da	44.739113
60	0x42259e58	41.404633
61	0x42ccca5b	102.395226
62	0x409ffab0	4.9993515
63	0x43b50a05	362.07828

convs.1.fc_full.weight f4 [128, 169]
0	0xbf1d70c9	-0.6150022
1	0x3c8f50a4	0.017494507
2	0xbe23049c	-0.15919727
3	0xbf94b2dd	-1.1617085
4	0xbefd3a59	-0.49458578
5	0xbe9c62dd	-0.30544177
6	0xbf65ee6b	-0.8981692
7	0xbeb93a71	-0.361774
8	0xbf90f5aa	-1.1324971
9	0xbe33033d	-0.17481704
10	0xbe4ac70c	-0.19802493
11	0xbebdc9aa	-0.3706792
12	0xbf1860aa	-0.595225
13	0xbe52ca31	-0.20584942
14	0xbe357dfe	-0.17723843
15	0x3d88f8e8	0.066881
16	0x3e6b5ed6	0.22985396
17	0x3f81bf6a	1.013654
18	0xbd6cf6ce	-0.05785256
19	0xbf699b68	-0.91252756
20	0x3f12ec8d	0.573922
21	0x3ead3338	0.3382814
22	0x3ed646bb	0.41850838
23	0xbe1ddf7a	-0.15417281
24	0xbda95306	-0.082677886
25	0x3e2b4bc6	0.16728124
26	0x3e89af1f	0.2689142
27	0x3e3e9e58	0.18615091
28	0xbf12e1cc	-0.5737579
29	0xbe41aa65	-0.18912657
30	0xbec5aab0	-0.38606787
31	0x3ddf90a9	0.109162636
32	0xbff14b71	-1.8851148
33	0x3ecb4827	0.39703485
34	0xbd9881e1	-0.074466474
35	0x3d639205	0.055559177
36	0xbead4db2	-0.3384834
37	0xbf81ae5f	-1.0131339
38	0x3e998b4a	0.29989082
39	0xbe878569	-0.2646897
40	0x3e92cf66	0.28673857
41	0xbdb2a6e2	-0.087232366
42	0xbdd536f2	-0.104108706
43	0xbdb329e4	-0.087482244
44	0x3f62655c	0.8843591
45	0xbe0676c3	-0.13131242
46	0xbd7d1cc3	-0.061795007
47	0x3e8aaff3	0.27087364
48	0x3e22fb2c	0.15916127
49	0x3f6d1ef3	0.9262535
50	0x3e61a9e4	0.22037464
51	0xbf163460	-0.5867367
52	0xbe154f90	-0.14581132
53	0x3f52e55e	0.82381237
54	0x3f6d3938	0.92665434
55	0x3dd63a0d	0.10460291
56	0xbf39e100	-0.7260895
57	0x3f40a3dc	0.7525003
58	0x3f47ae6c	0.7800052
59	0x3e37486c	0.1789872
60	0x3c991525	0.01868684
61	0xbf70ff1c	-0.94139266
62	0x3eceb25a	0.40370446
63	0xbe7172e7	-0.23578988
64	0xbef37432	-0.47549587
65	0xbe9f41fb	-0.31105027
66	0xbc974eb5	-0.018470148
67	0xbf00146a	-0.5003115
68	0x3fe44df7	1.7836293
69	0x3f82fdad	1.0233666
70	0xbfa5c49c	-1.2950625
71	0xbbe958f3	-0.0071211993
72	0x3ee90387	0.45510504
73	0xbd769900	-0.060204506
74	0xbd91e9a8	-0.071246445
75	0xbff3d5e0	-1.9049644
76	0x3ef0b976	0.47016495
77	0xbf3043b2	-0.68853295
78	0x3cb00823	0.021488255
79	0xbf1bdf60	-0.6088772
80	0xbed83bcf	-0.4223313
81	0x3e900123	0.28125867
82	0x3ccdf38c	0.025140546
83	0xbf4c90d2	-0.7990848
84	0xbf11d4e4	-0.5696547
85	0xbe2d0007	-0.16894542
86	0x3ece170d	0.4025196
87	0xbe4f648f	-0.20253204
88	0x3dd03560	0.101664305
89	0xbe87aba9	-0.26498154
90	0x3f10298a	0.56313384
91	0xbf41fcbc	-0.7577627
92	0x3f67b1ee	0.90505874
93	0x3ba71948	0.0050994493
94	0xbf01451b	-0.5049607
95	0xbf279f95	-0.6547788
96	0xbeae825a	-0.34083825
97	0xbf7c2b73	-0.985038
98	0xbda0614c	-0.07831058
99	0x3f49e8c5	0.78870803
100	0xbe8e0359	-0.2773693
101	0xbf2e6474	-0.6812203
102	0xbb5a22ae	-0.003328483
103	0xbedcafdb	-0.43102917
104	0xbfa3b70a	-1.2790234
105	0xbd3ed0bb	-0.04658578
106	0xbff496a8	-1.9108477
107	0xbdfcb34e	-0.12338887
108	0x3ef43449	0.4769614
109	0x3e4ead3e	0.20183274
110	0xbe457740	-0.19283772
111	0xbf868891	-1.0510427
112	0xbf2c07a2	-0.67199147
113	0x3cec6617	0.028857274
114	0x3e0fdf5c	0.14050049
115	0x3d396d5d	0.045270313
116	0x3e08638b	0.13319223
117	0xbec86136	-0.39136666
118	0x3ec1389b	0.377385
119	0xbe2775b8	-0.163535
120	0xbfc60812	-1.5471213
121	0xbe8d3427	-0.27578852
122	0x3f45baac	0.77237964
123	0xbf06bca9	-0.5263162
124	0xbc27b3d8	-0.010235749
125	0x3f248a73	0.64273757
126	0x3f58bc0f	0.84661955
127	0xbee19f66	-0.44066924
128	0x3d11aa3f	0.03556275
129	0x3d30ae19	0.043134782
130	0x3e19d0b9	0.15021028
131	0xbef58f27	-0.4796078
132	0xbf50afca	-0.8151823
133	0xbf16ca31	-0.5890227
134	0xbe241bc4	-0.16026217
135	0xbfa2853a	-1.2696908
136	0x3e4f46c9	0.20241846
137	0x3f95dca4	1.1707959
138	0x3e2c8a8d	0.16849728
139	0x3fcc265e	1.5949209
140	0x40208120	2.5078812
141	0x3f343b97	0.70403427
142	0x3f03c866	0.5147766
143	0xbf3c06b7	-0.73447746
144	0xbf62c82d	-0.88586694
145	0xbf8ecb1a	-1.1155732
146	0xbfe37d07	-1.777253
147	0xc00246df	-2.0355756
148	0xbf68bbc2	-0.90911496
149	0xbf8ee1c1	-1.1162645
150	0x3f09e327	0.5386223
151	0xbf0a5431	-0.54034716
152	0xbf031712	-0.5120708
153	0x3f3c24e2	0.7349378
154	0xc00c00ed	-2.1875565
155	0xbfcca69e	-1.5988348
156	0xbe80e862	-0.25177294
157	0x3fb8a896	1.4426448
158	0x3f8f7467	1.1207398
159	0xbe945e82	-0.28978354
160	0x3f47c1fc	0.7803037
161	0x3fdeda41	1.7410356
162	0x3fb8d710	1.4440632
163	0x3f35f4f6	0.71076906
164	0x3e6f20ed	0.23352404
165	0xba9270eb	-0.0011172568
166	0x3d08e5e5	0.03342237
167	0x3cea4128	0.028595522
168	0xbc147800	-0.009061813
169	0x3f600aed	0.8751667
170	0x3f40f706	0.7537693
171	0xbf24cce4	-0.6437514
172	0xbe0a0d75	-0.13481696
173	0x3eb1859f	0.34672257
174	0xbe89dbf4	-0.26925623
175	0xbf53ce1a	-0.8273636
176	0x3f887d00	1.0663147
177	0xbf2bbe70	-0.6708746
178	0xbf405fdd	-0.75146276
179	0xbf756c9f	-0.9586887
180	0x3f66e19f	0.9018802
181	0x3fb3638f	1.4014758
182	0x3e9c2ee6	0.3050453
183	0xbf60ab1b	-0.87761086
184	0x3edabc5d	0.42721835
185	0xbe8d20db	-0.2756413
186	0x3cc4c368	0.024018958
187	0xbf368834	-0.7130158
188	0xbf86442a	-1.0489552
189	0xbf9f3280	-1.2437286
190	0xbecadb2a	-0.39620334
191	0x3f6554de	0.8958262
192	0xbda2fb07	-0.07958036
193	0xbf5a88a3	-0.8536474
194	0x3f41b1e2	0.7566205
195	0xbf7b4467	-0.9815125
196	0xbe386827	-0.18008481
197	0xbe43eae9	-0.1913258
198	0x3dc8c169	0.09802515
199	0x3ca63a0e	0.020291355
200	0x3f98e608	1.19452
201	0xbeca8405	-0.39553848
202	0x3e7464c1	0.2386656
203	0xbc4b4f16	-0.012408992
204	0x3f803e2c	1.0018973
205	0xbf5cbc52	-0.86224854
206	0xbf5c0b5e	-0.85954845
207	0x3f5daab2	0.86588585
208	0xbf8752cd	-1.0572144
209	0xbf3c4a55	-0.7355092
210	0xbf593c86	-0.84857976
211	0x3ea47b5b	0.32125363
212	0x3e121e8f	0.1426947
213	0xbf118432	-0.5684234
214	0xbbb6afa2	-0.0055751363
215	0x3fa186d5	1.2619272
216	0xbeb0298a	-0.34406692
217	0xbfca907d	-1.5825344
218	0x3e3109d0	0.172889
219	0xbed8b4cb	-0.42325434
220	0x3fad1b6f	1.3523997
221	0xc049f8ab	-3.1558025
222	0x3f943f26	1.1581771
223	0x3fa4baf1	1.286955
224	0x3f969c17	1.1766385
225	0x3e8e852f	0.27835986
226	0x3f619e44	0.8813212
227	0x3f79e105	0.9760898
228	0xbeb86784	-0.36016476
229	0x3f038b1a	0.5138413
230	0xbe2356c3	-0.15951066
231	0xbfa715d6	-1.3053539
232	0xbf78fa75	-0.9725717
233	0xbfa2e2b8	-1.2725439
234	0xbfa8e475	-1.319472
235	0x3e3ebbe7	0.18626367
236	0xbf1a1138	-0.60182524
237	0x3e4208b6	0.18948635
238	0xbd9de46b	-0.07709583
239	0x3fd793a6	1.6841934
240	0xbe02ee9d	-0.12786336
241	0xbfae6eb5	-1.3627535
242	0x3f4e3f2a	0.8056513
243	0x3ed6f444	0.41983235
244	0xbfd83171	-1.6890088
245	0xbeb35a1c	-0.35029685
246	0xbea826a8	-0.32841992
247	0x3fe4847a	1.7852929
248	0xbf1875e5	-0.5955489
249	0x3f14e610	0.5816355
250	0xbf199f5f	-0.60008806
251	0xbe3ddd4e	-0.18541452
252	0x3f2db830	0.6785917
253	0x3f83f0a3	1.0307811
254	0x3fab65b6	1.3390415
255	0x3efa6dd0	0.48911905

convs.1.fc_full.bias f4 [128]
0	0x3d591be9	0.053005133
1	0x3c903108	0.017601505
2	0x3db9eddd	0.09078572
3	0xbd04c52f	-0.03241461
4	0xbc739afe	-0.014868496
5	0x3b5df121	0.0033865648
6	0xbd46cb3a	-0.048533656
7	0x3d98554a	0.074381426
8	0xbd14c313	-0.03631885
9	0xbd48350a	-0.048878707
10	0xbd07bde2	-0.03314007
11	0x3d8c0e5a	0.06838675
12	0xbd323da7	-0.043515828
13	0x3d5542c5	0.05206563
14	0xbce019ec	-0.02735611
15	0x3d6424e6	0.05569925
16	0xbc6a5dbc	-0.014304575
17	0x3bd60116	0.006530891
18	0xbd098fda	-0.033584453
19	0x3b2cf5de	0.0026391665
20	0xbd0eca61	-0.034860972
21	0x3cbfe90c	0.023426555
22	0xbd06d7ab	-0.03292052
23	0x3d9d9adf	0.07695555
24	0xbd900114	-0.07031456
25	0xbdcc480b	-0.099746786
26	0x3be3a8b4	0.006947601
27	0xbcbd1539	-0.023081409
28	0xba931e23	-0.0011224191
29	0xbd4b655e	-0.04965722
30	0xbd1fd253	-0.03901894
31	0xbd0964cb	-0.03354339
32	0xbd17c154	-0.037049606
33	0x3db29eb5	0.08721677
34	0x3d403574	0.046925977
35	0xbd8485ff	-0.0647087
36	0x3c51b115	0.012798567
37	0xbd514d8c	-0.051099345
38	0xbcee8105	-0.029114256
39	0x3db42374	0.08795825
40	0x3d0f19dc	0.03493677
41	0x3d4c4bfe	0.04987716
42	0x3db60709	0.088880606
43	0xbd7b165a	-0.061300613
44	0x3d73d182	0.059525974
45	0xbcd4d7a3	-0.02598173
46	0xbd23ed6a	-0.040021338
47	0x3d075256	0.033037506
48	0xbcc136d8	-0.023585722
49	0xbd3d2eb8	-0.046187133
50	0x3d942d66	0.072352216
51	0xbd976456	-0.073921844
52	0x3c8420b9	0.016128885
53	0x3d9827eb	0.07429489
54	0xbd9bd0ed	-0.07608209
55	0xbd7ac0f5	-0.061219174
56	0xbdb8506e	-0.08999716
57	0xbd071aec	-0.03298466
58	0x3c83d257	0.016091509
59	0xbce5ef2d	-0.02806815
60	0xbc4e25a4	-0.012582216
61	0x3d14bbff	0.0363121
62	0xbd7eb44d	-0.062183667
63	0x3c85882b	0.016300282
64	0xbd3b0663	-0.045660388
65	0xbd2c55ac	-0.04207389
66	0x3da4ff91	0.08056558
67	0xbd8f6e52	-0.07003464
68	0x3ca752f5	0.0204253
69	0x3d511d72	0.051053472
70	0x3b5efd40	0.003402546
71	0xbd74e501	-0.059788708
72	0x3cc327f9	0.023822771
73	0xbcf0190b	-0.029308816
74	0xbd2483b4	-0.040164664
75	0xbd8744ae	-0.066048965
76	0x3c79f4c9	0.015256115
77	0x3d2a8ced	0.041638304
78	0xbd03d0ea	-0.032181658
79	0x3bec63b5	0.0072140344
80	0xbc35cc02	-0.0110960025
81	0xbd477a1f	-0.048700448
82	0xbd172f81	-0.036910538
83	0xbc950f95	-0.018195907
84	0xbdb0351f	-0.08603882
85	0xbcb2e803	-0.021839147
86	0xbcb1176b	-0.021617612
87	0x3d2f3c41	0.042782072
88	0x3b962576	0.0045821024
89	0x3cd81a16	0.026379626
90	0x3d694c79	0.056957696
91	0xbd1000be	-0.035156958
92	0xbccbe0ab	-0.024887403
93	0xbcc655b3	-0.024210786
94	0xbc555f59	-0.013023221
95	0xbd83f624	-0.06443432
96	0x3cb9f459	0.022699522
97	0x3d923cb9	0.07140488
98	0x3ced6244	0.02897752
99	0xbda50a12	-0.080585614
100	0x3bda3bad	0.006659946
101	0x3d839d79	0.0642652
102	0xbc0bb143	-0.008526149
103	0xbd8d0ab4	-0.06886807
104	0xbd58e84d	-0.052955914
105	0x3d9b5729	0.07584984
106	0xbd85f0e4	-0.06540087
107	0x3d950ea3	0.07278182
108	0x3cc47078	0.02397941
109	0x3d1e24e1	0.03860939
110	0x3d72d55c	0.059285507
111	0x3da47e94	0.08031955
112	0xba60ece4	-0.00085802213
113	0x3b38934a	0.0028163963
114	0x3d6e6f2d	0.058211494
115	0x3d559049	0.052139554
116	0xbd0fd889	-0.035118613
117	0x3cde3e16	0.027129214
118	0xbd5d5c01	-0.05404282
119	0xbd21e85c	-0.039528236
120	0xbc59daee	-0.013296826
121	0x3d9d8721	0.076917894
122	0x3c13517e	0.008991597
123	0x3c9ab807	0.01888658
124	0x3d044424	0.032291546
125	0x3d4af045	0.049545545
126	0x3d9e7df7	0.0773887
127	0xbda6609e	-0.08123897

convs.1.bn1.weight f4 [128]
0	0x4013f5d0	2.3118782
1	0x4013991c	2.30622
2	0x40b37451	5.607949
3	0x409fbc89	4.9917645
4	0x3f2b5d3a	0.6693913
5	0x4094cdc0	4.650116
6	0x400d7cd5	2.2107441
7	0x409489f9	4.6418424
8	0x4052a792	3.2914777
9	0x3fe42c81	1.7826082
10	0x405e7350	3.475788
11	0x40c2599d	6.073439
12	0x40212579	2.5179121
13	0x401ada5a	2.4195771
14	0x3f34a4fd	0.7056425
15	0x40452a54	3.0807085
16	0x407131de	3.7686687
17	0x40a949b3	5.2902465
18	0x4038e4f4	2.8889742
19	0x40a59f08	5.175663
20	0x400d05cb	2.2034786
21	0x3fce6f6c	1.6127753
22	0x40b732d2	5.7249537
23	0x3fd64afb	1.6741632
24	0x40218580	2.5237732
25	0x3f71c557	0.9444174
26	0x40bcd0e4	5.9004993
27	0x40c30447	6.094272
28	0x40be703f	5.951202
29	0x3ffb0f91	1.9614125
30	0x40584602	3.379273
31	0x40b01cd7	5.5035205
32	0x40c9972c	6.2997036
33	0x40883f1d	4.2577043
34	0x4080b402	4.0219736
35	0x4084c8d9	4.1495175
36	0x401cd927	2.450754
37	0x406b64a9	3.6780188
38	0x4009611f	2.1465528
39	0x3f92a53f	1.1456679
40	0x408cf986	4.4054594
41	0x4024873f	2.5707548
42	0x406fe147	3.7481248
43	0x406b06af	3.672283
44	0x40fd9a75	7.9251046
45	0x3fe56795	1.7922236
46	0x409d93b6	4.924281
47	0x40b80caf	5.7515483
48	0x3fc1fe4b	1.5155729
49	0x3f1d4366	0.61430967
50	0x407b4c36	3.9265265
51	0x4047d53c	3.1223898
52	0x400eefb5	2.2333806
53	0x40303639	2.7533095
54	0x3fb9ec00	1.4525146
55	0x40593272	3.393704
56	0x40bfd8d6	5.995219
57	0x402cc9be	2.6998134
58	0x40933089	4.5996747
59	0x40677080	3.6162415
60	0x3f9b63db	1.2139848
61	0x407c6cb4	3.9441347
62	0x4035848e	2.8362155
63	0x405f0f33	3.4853027
64	0x400d3836	2.2065558
65	0x40429b06	3.0407119
66	0x3fe08cad	1.7542931
67	0x4040e547	3.013994
68	0x3fc6714a	1.5503323
69	0x4103905a	8.222742
70	0x40314d4a	2.7703424
71	0x3e69d114	0.22833663
72	0x3feda67a	1.856643
73	0x401e8c9a	2.4773316
74	0x3ff56143	1.9170307
75	0x40238c63	2.5554435
76	0x404c1c5b	3.1892307
77	0x3fb9ee76	1.4525898
78	0x40317b4e	2.773151
79	0x3ffa0185	1.9531714
80	0x4068073a	3.625441
81	0x40673eee	3.613216
82	0x403a34bd	2.909469
83	0x3f700414	0.9375622
84	0x40026889	2.0376303
85	0x4005b400	2.0891113
86	0x3f18529f	0.5950107
87	0x3fbe4e4e	1.4867647
88	0x40105bf7	2.255613
89	0x3ff2d0cd	1.8969971
90	0x4001a220	2.0255203
91	0x403014ac	2.7512617
92	0x40a090a4	5.0176563
93	0x401a6a96	2.4127555
94	0x3ff1d032	1.8891661
95	0x3fe4fe41	1.7890092
96	0x3ff4a8e8	1.9114046
97	0x3fbc6e15	1.4721094
98	0x3fb3c5d6	1.404475
99	0x3fce5d68	1.6122255
100	0x3f5c6c0f	0.86102384
101	0x404b40e9	3.1758368
102	0x400f1a7b	2.2359912
103	0x3feee01a	1.866214
104	0x3fb34b2b	1.4007314
105	0x40265881	2.5991518
106	0x3f516ff4	0.8181145
107	0x40449f06	3.072206
108	0x400e812a	2.2266335
109	0x3fd4ab6a	1.6614811
110	0x4007071a	2.1098084
111	0x3c89b5fd	0.016810412
112	0x403fd5a8	2.9974155
113	0x40784e97	3.8797967
114	0x40a704ce	5.2193365
115	0x40707fde	3.7578044
116	0x3ef190fa	0.4718092
117	0x3fe9b088	1.8256998
118	0x3faa9499	1.3326598
119	0x40641b45	3.5641644
120	0x3d3ec3ec	0.046573564
121	0x3fedceb5	1.8578707
122	0x3ffa834d	1.957132
123	0x3f7f0616	0.9961866
124	0x403dea06	2.9674087
125	0x3f1447b3	0.57921904
126	0x404a9818	3.165533
127	0x3fe6fb62	1.8045466
