results/Prediction/2023-06-18/21:48:38.331393/models/model29.pth (torch, 340522 bytes, 34 tensors)

embedding.weight f4 [64, 92]
000000 a1 62 aa be 2e 75 99 3e 19 31 81 bf cd 65 b8 be
       -0.33278373 0.29972214 -1.0093108 -0.36015168
000010 85 0d c9 bf f4 71 3f bf f3 c2 75 3f 5d 95 9a 3f
       -1.5707251 -0.74783254 0.96000594 1.2076832
000020 93 61 27 3f a2 9c db 3e 25 60 9f 3e 25 8b aa bf
       0.6538326 0.4289294 0.3112804 -1.3323714
000030 7f cd 29 bf f6 5a 40 bf f2 07 8e 3d 9d 35 ac 3d
       -0.6632919 -0.75138795 0.06935109 0.084086634
000040 43 c1 4a be 22 63 f0 bd 37 4c de bf 41 a1 0d 3d
       -0.19800286 -0.11737658 -1.7367009 0.03457761
000050 f2 29 29 be e7 67 ca bf a0 7a 5a bf 93 ef 53 be
       -0.16519907 -1.5812958 -0.8534336 -0.20696859
000060 31 ec 8d 3e 98 52 18 3f 9f e7 39 bf 49 bb e5 3e
       0.27719262 0.5950103 -0.7261905 0.4486945
000070 6d 53 a5 be 84 5d 2d 3e 66 61 b2 bf de 34 b7 3e
       -0.3229021 0.16930205 -1.3935974 0.35782522
000080 50 68 be 3e 8b 22 93 be 27 bb 08 3d 04 b5 0c be
       0.3718896 -0.28737292 0.033381607 -0.13740927
000090 55 d3 f1 3d 1c 99 6f be 89 d2 06 be b4 ce ad be
       0.118078865 -0.2339825 -0.1316625 -0.33946764
0000a0 ae da ab 3e 75 14 77 be 86 60 92 bf 63 fd 41 bf
       0.33565277 -0.24128897 -1.1435707 -0.7577726
0000b0 4e 22 89 bf 0e 81 ed be 9d 01 b7 3e 4c 03 4c bf
       -1.0713594 -0.46387523 0.35743418 -0.7969253
0000c0 3a 80 a5 bf 65 12 6f bf b8 1c f0 be af 6d 87 bd
       -1.2929757 -0.9338744 -0.4689691 -0.06612717
0000d0 23 21 f5 3e 22 e0 0f 3f 6d 19 da 3e 4e d9 27 3d
       0.47876844 0.56201375 0.42597523 0.040978722
0000e0 e3 1c c1 bf c7 0a 35 be 7f 58 4a bf f1 51 98 bd
       -1.508694 -0.17679892 -0.79041284 -0.07437504
0000f0 1f cc bc 3e 87 f2 9c be a4 22 8c bf f6 79 27 be
       0.36874482 -0.30653784 -1.0948071 -0.16355118
000100 b3 25 68 bc 8f 6c 81 bd 68 37 bc 3d b7 d7 c7 3c
       -0.014169144 -0.06319534 0.091902554 0.024394853
000110 fd 1a 2d bf f5 0a 95 bc 39 3c e5 bd 1c 89 1d bd
       -0.67619306 -0.018193701 -0.11193127 -0.038460836
000120 ae ea 44 3e 7d f1 b0 be bf cd df be 95 28 5d 3e
       0.19230148 -0.3455924 -0.4371166 0.21597512
000130 a0 bd c8 bc d3 16 fb bd 0f 60 76 be 0f b3 2d bf
       -0.024504483 -0.12260213 -0.24060081 -0.67851347
000140 ca 4f 04 bf ef 51 a0 be e0 db cc be de f0 87 bf
       -0.5168425 -0.3131251 -0.400115 -1.0620382
000150 89 f4 fb 3e 5b 57 28 be 10 e6 75 bf fc cc 60 bf
       0.49210003 -0.16439573 -0.9605417 -0.8781278
000160 50 14 f2 bb b7 7b 81 be a7 e9 17 bf d1 24 94 bf
       -0.0073876753 -0.252897 -0.593409 -1.1573735
000170 cd d6 2a bf dc c5 9b bf 50 5d 72 3f b3 9b 18 bf
       -0.6673401 -1.2169757 0.94673634 -0.5961258
000180 fc 14 d1 3e 8b 8c 5c 3e 26 6c db 3f fc c7 f6 3e
       0.40836322 0.21537988 1.7142379 0.4819945
000190 2f 4b b6 bd 57 db f9 bd 90 71 01 c0 5c cc bf bf
       -0.08901059 -0.12200039 -2.0225563 -1.498424
0001a0 a8 8b fe 3e 12 13 9f 3e 8e 84 41 3e 0f 1c f2 bd
       0.49715924 0.31069237 0.18898222 -0.11821758
0001b0 51 37 7c bf ba b4 b6 be 7e 75 a3 be 24 4c 23 be
       -0.98521906 -0.35684758 -0.31925577 -0.15947014
0001c0 51 c7 02 bf 05 78 17 bd 2e 5d 2a bc 04 c1 7a bd
       -0.5108538 -0.036979694 -0.010398192 -0.06121923
0001d0 e1 41 70 bf 9f 1f a7 be 70 06 87 3e 60 02 2c bd
       -0.93850523 -0.32641312 0.263721 -0.041994452
0001e0 9e a1 05 3f 08 a6 01 bf 36 2e de 3a bc ee 72 bf
       0.52199733 -0.5064397 0.0016951028 -0.9489553
0001f0 96 84 e2 3e 16 b7 32 bf b6 c2 d6 bd e4 ec 9e be
       0.4424178 -0.69810617 -0.10486357 -0.31040108
000200 c9 83 3f be 83 dd ed be 4e 37 33 bf 47 8f a5 3d
       -0.18702616 -0.46458063 -0.70006263 0.080839686
000210 cd 27 32 bf 72 37 da 3e fe 8b 23 bd 6b 19 a4 bf
       -0.6959198 0.42620426 -0.03992843 -1.2820257
000220 c3 0b d1 bd 1c a8 b4 bd 22 58 93 bf 0f b7 02 3f
       -0.102073215 -0.08821127 -1.1511271 0.51060575
000230 77 b2 08 be 38 d4 4a 3e d9 c7 47 3e 57 bc 1a ba
       -0.13349329 0.19807518 0.1950983 -0.00059026986
000240 4c 93 6f 3e de 44 81 bc d7 84 26 be 45 64 98 bf
       0.23396033 -0.015779909 -0.16261612 -1.19056
000250 e8 87 bb bf 10 5a 00 bf 66 c2 8d 3e 31 d5 da 3e
       -1.465085 -0.50137424 0.27687377 0.42740777
000260 bb 4b 42 bf 3a c2 46 3d 7e 1f df be d6 30 7c be
       -0.75896806 0.048525073 -0.43578714 -0.24628004
000270 a0 ed 1d bf 70 ad dc be 62 50 8b bd 58 84 d1 3c
       -0.6169071 -0.43101072 -0.06802441 0.025575802
000280 46 76 ab bd ea db 2b 3d 5a ae 4b bf 29 f6 cc 3d
       -0.08372168 0.041957773 -0.79562914 0.10007889
000290 d8 8b 1f bf 14 15 3a bf dc ab d4 be bc e6 26 bf
       -0.6232276 -0.7268841 -0.41537368 -0.6519582
0002a0 2d 24 97 bd ab 33 92 be d7 65 ba bc da 02 4a bf
       -0.07379947 -0.28555045 -0.02275364 -0.789106
0002b0 fe 9c a7 bc ec ed 33 bf e2 ca 94 be 20 f7 57 be
       -0.020460602 -0.70284915 -0.29061037 -0.21090364
0002c0 2c 9c ab 3e 6a a3 54 bf 46 0f 39 3d 37 5e 47 bf
       0.33517587 -0.8306185 0.04518058 -0.77878135
0002d0 8d 41 53 be 1c 3a ca bf 44 6b 3c bd 27 5f a2 bd
       -0.20630474 -1.5798984 -0.046000734 -0.07928305
0002e0 c7 94 8d bf c5 5a 5f be 29 20 e0 bf 7d b7 ea be
       -1.1061028 -0.2181197 -1.7509815 -0.45843115
0002f0 cf b6 4d c0 4d 7e 18 c0 ea 32 80 be f2 10 5f 3f
       -3.2142828 -2.3827088 -0.25038844 0.8713523
000300 07 8c 81 3f bb 77 a5 be db fe 59 3f 3a 95 aa 3f
       1.0120858 -0.3231791 0.85154504 1.332679
000310 ed d9 74 bd 59 f6 87 bf b7 01 44 3f 17 6f b5 3e
       -0.059778143 -1.0622054 0.76565117 0.35436317
000320 62 46 a0 be 49 58 a9 bd bb dd 8d 40 5c c1 07 bf
       -0.31303698 -0.08268792 4.4333167 -0.5302942
000330 e6 b6 4b 3f 16 83 0f c0 9b 02 f7 be cd ed 68 bf
       0.79575956 -2.2423759 -0.48244175 -0.90987855
000340 b1 48 e6 3f d0 8f 02 bc 7f 47 37 bf 0a 7d 9b bf
       1.7990934 -0.007968858 -0.7159347 -1.2147534
000350 dd aa d2 bf ab 2f 45 bf 72 db 25 3e 2e e8 69 3f
       -1.6458393 -0.7702586 0.16196993 0.91369903
000360 0e 2e 34 be a0 16 97 3f 46 ce 2f be fb fb 4d 3e
       -0.17595693 1.180378 -0.17168531 0.20115654
000370 37 4b c4 be 2d 0b 4b be 00 a0 d8 3f 47 d6 f0 be
       -0.38338634 -0.19828482 1.6923828 -0.4703848
000380 7d df 48 3d dd 02 02 c0 e5 4d 02 c0 9e 8b 39 be
       0.04904126 -2.0314248 -2.0360043 -0.18119666
000390 20 9c 1d 3f ec 59 14 c0 18 1a 84 be ed 4a 07 c0
       0.6156635 -2.3179884 -0.25801158 -2.113948
0003a0 b2 45 c0 bf f3 a6 06 3e a2 8c 18 bf 4b 61 07 bf
       -1.5021269 0.13149624 -0.5958959 -0.5288283
0003b0 30 07 fe 3e a2 b6 c3 3f 79 7b cd be c3 1c cc 3d
       0.4961486 1.529011 -0.40133265 0.09966423
0003c0 a7 a7 9d 3f c9 76 09 3f 64 0b 34 bf c5 9d 9f bf
       1.2316788 0.53696877 -0.7032988 -1.2470022
0003d0 c9 58 c7 be af db 8f bf ff a4 1d bf 2c 7c bc 3f
       -0.38934925 -1.1238917 -0.6157989 1.4725394
0003e0 02 96 04 3f f5 a1 4b 3d b5 e4 77 bd d4 62 e1 3c
       0.51791394 0.049715 -0.060520846 0.027512945
0003f0 6e bc c6 bf d0 88 b7 bc 85 13 83 3f db 8f c7 3d
       -1.5526254 -0.022404104 1.0240332 0.09744235

convs.0.fc_full.weight f4 [128, 169]
000000 f2 d5 5e bf 55 4c 65 be e0 0d 74 3e 7a 81 e3 be
       -0.87045205 -0.223924 0.23833418 -0.4443472
000010 aa b6 10 3e d4 72 e0 be af 98 20 3f 4a 2b 78 3f
       0.14132181 -0.43837607 0.62732977 0.96941054
000020 5e 8e 84 3e 43 4d 20 3f 6a 6a 9a be e2 cb ef bd
       0.25889868 0.6261789 -0.30159312 -0.117088094
000030 9b 48 fe 3d f9 6e ec 3e 66 e0 73 3e 9d 96 1d bf
       0.12416192 0.46178415 0.2381607 -0.6155794
000040 11 88 a8 bd 39 d5 25 3f 59 65 12 bf 0e af 07 3e
       -0.082290776 0.64778477 -0.57185894 0.13250372
000050 8b 64 5d be 7b f3 92 be 12 ec c4 be fc 6f 0f 3f
       -0.21620385 -0.28701386 -0.38461357 0.5603025
000060 d7 27 f3 3e da db 9c be 9c a5 00 bf 49 ec 28 bf
       0.47491333 -0.30636483 -0.502527 -0.6598554
000070 48 40 c7 bd 65 a8 90 3f 33 cc 02 be 10 23 73 bf
       -0.097290576 1.130139 -0.12773208 -0.94975376
000080 cb 29 b4 3e 17 50 19 be d7 7c c2 3d 66 ef ff bd
       0.35188136 -0.14971958 0.094964676 -0.124968335
000090 e6 6e 23 3e 3a 80 4f be f0 b2 31 bf 05 05 54 3f
       0.15960273 -0.20263758 -0.6941366 0.8282016
0000a0 b0 27 66 be ff 47 2a 3f 72 11 ff 3e 11 8e 0b bf
       -0.22476077 0.6651611 0.49817997 -0.5451365
0000b0 97 d3 10 3f 26 bd 6f 3f a9 0d e4 be 27 f7 10 be
       0.5657286 0.9364799 -0.44541672 -0.14156781
0000c0 19 6f 35 3e ff 92 f8 be 15 67 a2 be ed 8d ab be
       0.17718162 -0.4854965 -0.3171927 -0.33506718
0000d0 38 27 42 3e 36 ce 93 be 48 21 8e 3e 78 f2 51 bf
       0.18960273 -0.28868264 0.27759767 -0.820106
0000e0 f4 c8 c0 3e 9f 47 01 bf 88 28 9d 3c 3d 40 9e 3d
       0.37653315 -0.5049991 0.019184366 0.07727096
0000f0 31 17 18 bf c9 e7 4d be 42 63 2b bf e3 34 46 be
       -0.5941039 -0.2010795 -0.6694833 -0.19356112
000100 b6 71 02 c0 83 a4 99 3e 77 40 01 3f 23 4c c5 bf
       -2.0381904 0.30008325 0.5048899 -1.541386
000110 74 7a ca 3f b0 b5 b8 3c c6 fe 9f bf d3 a7 f9 be
       1.581862 0.022547573 -1.2499626 -0.48760852
000120 81 a4 33 3e da db 80 be e1 17 69 3f c0 e9 8d 3f
       0.17543222 -0.25167733 0.9105206 1.108696
000130 e5 20 f8 3f 8d 9e 41 c0 31 dc 6e 3e 75 45 34 3f
       1.9385039 -3.0253022 0.23326184 0.70418483
000140 d3 48 5f bf 33 a4 da be 6c 19 c3 bf 22 88 a7 3f
       -0.87220496 -0.427034 -1.5242133 1.308842
000150 a5 bc 47 bd fb 4d bd be a1 a4 ae be 82 cb 1c 3e
       -0.04876389 -0.36973557 -0.34109977 0.15312007
000160 6b 82 a1 be 29 9f 20 bf 62 13 dc 3d 1d a3 b3 bf
       -0.31544814 -0.6274286 0.107458845 -1.4034153
000170 6e 6a b9 bd 99 fa 41 3f f9 da 49 be 51 55 94 bf
       -0.09053503 0.75773007 -0.19712438 -1.1588537
000180 5d e5 e3 3f f8 90 c1 bf 25 c5 66 3f 43 44 2d 3f
       1.7804371 -1.5122366 0.9014457 0.67682284
000190 51 79 49 bf 3e eb 87 bf 59 80 3f 3f 08 ab d7 be
       -0.7870074 -1.0618665 0.7480522 -0.42122674
0001a0 88 20 0f 3f b3 87 0b bf 24 af cc bf f3 15 12 40
       0.55909014 -0.54503936 -1.5990949 2.2825897
0001b0 1d 4c 53 3f a5 84 d4 bd 7b b3 2e 3f 69 10 92 3f
       0.82538015 -0.103768624 0.68242615 1.1411258
0001c0 e5 84 d0 bf 6f c4 55 3f 08 37 a7 bd 61 27 59 bf
       -1.6290556 0.8350286 -0.08164793 -0.8482571
0001d0 6a 63 ac bf 44 48 cc 3c f8 39 d4 3f b2 6b 5a 3f
       -1.3467839 0.024936803 1.6580191 0.8532058
0001e0 c1 53 b3 bf 0c f9 0f c0 74 0b 35 bf 11 e9 93 3c
       -1.4009935 -2.2495756 -0.707206 0.01805547
0001f0 e0 6c 1b be 41 2b ec 3e 6d 59 c4 3f 0a 92 69 be
       -0.15178251 0.4612675 1.533979 -0.22809616
000200 a8 49 c6 3c 9f 7a 84 3d 08 7d 09 bc b7 07 7b 3e
       0.024205044 0.064687006 -0.008391626 0.24514662
000210 57 ae aa 3e 93 19 be 3e 7b 65 8a 3f 91 a4 c2 3e
       0.33336136 0.37128887 1.0812219 0.3801618
000220 e1 68 83 bf c3 60 43 c0 f3 17 90 be da cf cc 3e
       -1.0266382 -3.0527809 -0.28143272 0.40002328
000230 37 45 a8 3d e6 ce b9 3e 41 a9 42 3f 15 d5 31 3e
       0.08216327 0.36290663 0.7603951 0.1736644
000240 d4 0e 64 be bc f1 1b be 09 f8 a2 bf d9 9c a7 bf
       -0.22271281 -0.15228933 -1.2731944 -1.3094741
000250 8b 84 ba be 8c 6c d3 be e4 6e a2 3e 03 39 52 3f
       -0.36429247 -0.41293752 0.31725228 0.8211824
000260 fc 51 29 3f 1b aa d7 3e ca 11 79 bf 47 ca 16 c0
       0.66140723 0.42121968 -0.9729277 -2.356096
000270 fd 52 d0 bf 59 41 0e be c0 8a d2 bd aa 7b 28 be
       -1.6275326 -0.13892116 -0.10280371 -0.16453424
000280 5a fa cc be 2b 2d 6a be a7 f4 19 3e 03 7f b3 3e
       -0.40034753 -0.22868793 0.15034734 0.3505784
000290 84 39 59 3e 77 73 5b 3d 18 38 37 3d 29 e7 46 3c
       0.21213347 0.053576913 0.04473123 0.012140074
0002a0 38 ca 84 3d 48 7e 7c 3f 5e 48 6b bf 6d 17 26 3d
       0.06483883 0.9863019 -0.919073 0.040549684
0002b0 cb 22 8a be 50 05 2b 3f 09 84 c6 bc 28 45 34 3f
       -0.2697967 0.6680498 -0.024232881 0.70418024
0002c0 ae fe 76 3e c7 a9 9d bf b1 1d 20 bf f1 c4 ec bd
       0.2412059 -1.2317437 -0.62545305 -0.11561001
0002d0 ee f2 c8 3e 5b 87 1d bf 1a f4 26 be ef 29 94 3d
       0.3924784 -0.6153466 -0.16304055 0.07234561
0002e0 27 9c 94 be da 76 f9 3d 40 35 06 be 6e ed 9f 3d
       -0.29025385 0.12180872 -0.13106251 0.07808958
0002f0 4d 85 cb be aa 88 04 bf fc 19 d2 be 56 52 62 3f
       -0.39750138 -0.5177103 -0.4103545 0.88406885
000300 3e d8 ae 3d de 1b ff be 6e 79 2b bd d2 15 6b bf
       0.08537339 -0.49825948 -0.04186385 -0.9183017
000310 fe c6 24 3f f7 78 0e bf 9d 2c bc be 0a 67 57 3e
       0.6436614 -0.5565333 -0.36752787 0.210354
000320 19 7c 98 3e de 63 d7 be 83 27 69 bf 49 c1 29 bf
       0.2978218 -0.4206838 -0.91075915 -0.66310555
000330 96 4c a6 3d bc 22 86 3e 40 d0 25 bf 0b bb cc 3e
       0.08120076 0.26198375 -0.6477089 0.39986452
000340 d9 ab 7f 3f 28 17 3c be 5e a0 63 3e 79 75 a3 bd
       0.99871594 -0.18368208 0.22229144 -0.079813905
000350 3b 39 36 3e d5 04 65 bf 2a 65 3e bf 3c 50 00 3f
       0.17795269 -0.894605 -0.74373114 0.5012243
000360 ef 3f 62 bf 9c 68 0e bf 62 74 25 bc 04 df a5 bd
       -0.88378805 -0.5562837 -0.010098549 -0.080991775
000370 76 8b 58 3f b6 86 31 bf 44 25 cb 3e 82 1a 03 3d
       0.845878 -0.6934618 0.3967687 0.0320077
000380 1c b3 68 3e 7a eb 90 3e 75 f6 28 bf e1 f4 72 bd
       0.22724575 0.28304654 -0.66001064 -0.059315566
000390 91 e1 dd 3d 44 52 0a 3d 4f 04 65 bd 84 ba 38 bf
       0.10834039 0.03376986 -0.055912312 -0.721596
0003a0 1d 3d 8a be bc 83 20 bf 5e a2 ae 3e dc 6c e6 bf
       -0.2699975 -0.6270101 0.3410825 -1.8001971
0003b0 54 57 8c bf 01 b1 79 bb a2 79 cb be 13 ac ee bf
       -1.096415 -0.0038099887 -0.39741236 -1.8646263
0003c0 59 77 17 c0 88 a6 1e 3e 8f 45 97 be df 40 b0 be
       -2.3666594 0.15493214 -0.29545256 -0.34424493
0003d0 3c cb f1 3f ec 26 d4 3f 8d 73 07 be fc f9 ff be
       1.8890147 1.6574378 -0.13227673 -0.4999541
0003e0 7f 59 0d 40 f9 a5 56 c0 eb 6f e9 3e 3d 22 3c bf
       2.2085874 -3.3538802 0.455932 -0.73489743
0003f0 03 14 0e bf c7 27 b7 bc d4 52 e9 3f d2 23 7c 3e
       -0.55499285 -0.022357835 1.8228402 0.2462304

convs.0.fc_full.bias f4 [128]
000000 e4 cb 01 bd 88 8f d1 3d a1 7d fe bd f8 a3 5b 3c
       -0.031688586 0.102324545 -0.124263056 0.013405792
000010 5d 8b 9e 3c fd 2f ba 3d d4 df 73 3c af a4 05 bc
       0.019353563 0.09091184 0.014884908 -0.008156939
000020 4b 5a 08 bc dc 7e 45 bc 3f 86 20 3d 5a 90 e1 bc
       -0.008322309 -0.012054171 0.039190527 -0.027534653
000030 22 3d 81 3d 59 32 ff bc fe 33 a3 3c 29 06 13 bd
       0.06310488 -0.031151937 0.019922253 -0.035894547
000040 56 80 ac bb b8 10 67 3d db f5 2c bd 31 30 c3 3c
       -0.0052643223 0.05641243 -0.042226654 0.02382669
000050 a8 6d b0 3d a6 0b 9b 3d 61 8e d3 bc 77 20 56 3c
       0.08614665 0.07570581 -0.025824727 0.013069264
000060 17 63 b3 3d e2 cd c0 3c 99 73 57 3d 15 fa 74 bc
       0.08759134 0.023535673 0.052600477 -0.014952202
000070 0c 50 5b 3d 94 2a 1d 3d 0c 76 1b bd 23 fd 33 bd
       0.053543136 0.038370684 -0.037954375 -0.04394258
000080 ef 42 94 bd b7 34 ab 3c 75 0d 14 3d 6c e9 d2 3d
       -0.07239329 0.02089916 0.036145646 0.10298428
000090 0e 57 3c bd e6 92 e2 3c db 0c 48 3c a7 ad 26 3d
       -0.04598146 0.027657937 0.012210096 0.04069295
0000a0 13 1a a3 3d 2f 59 66 3b 37 c6 c8 bd c9 7a a9 3d
       0.07963958 0.0035148372 -0.098034315 0.082753725
0000b0 96 de 86 3c c7 94 93 3d 52 a1 9a 3d f8 eb 67 3d
       0.01646356 0.072061114 0.07550301 0.05662152
0000c0 b0 01 aa 3d eb 48 79 3d 1a d0 94 bd 33 91 3c 3d
       0.08301103 0.060860556 -0.07266255 0.04603691
0000d0 6d 3a 9b 3d 59 0f 99 bc b1 43 05 bd 4f 99 7f 3c
       0.07579503 -0.018684076 -0.03253526 0.015600516
0000e0 d3 62 b3 bc 61 da 11 3d 48 32 88 3c 87 0c d0 3c
       -0.021897709 0.035608653 0.016625538 0.025396599
0000f0 0e 72 9b bc af cc b6 bb 9b 68 15 3d 0b c7 49 3d
       -0.018975284 -0.0055785994 0.036476713 0.049262088
000100 d8 69 0e 3d 0b 0a cf 3c 1d 39 7e bd c7 c5 7a 3d
       0.03476891 0.025273344 -0.062066186 0.06122377
000110 58 b0 85 bd da b7 2e 3c c1 1e 8b 3d aa f1 f6 bd
       -0.065277755 0.010663951 0.06792975 -0.120578125
000120 b1 fc 09 3d e1 17 8d ba 33 c7 09 3d 27 01 9c 3c
       0.03368825 -0.0010764563 0.033637237 0.019043518
000130 27 9e 7a 3c 06 5a 22 bd fa 37 93 3d be 98 0f bd
       0.0152964955 -0.039636634 0.07188411 -0.035057776
000140 a8 2e 92 3d ca b4 d2 3b 00 83 c9 bd 13 0b 83 bc
       0.07137805 0.006430243 -0.098394394 -0.015996492
000150 26 bb 39 bd ad 3b 25 3c 0a 30 0f 3d 4f fb 10 3c
       -0.045344494 0.010085029 0.034957923 0.008848979
000160 ef cc 90 bc fb a8 60 bd a3 dd ce bd b9 09 e4 3d
       -0.017675845 -0.054848652 -0.101008676 0.11134667
000170 1f 8e 9b 3b a1 31 e5 bb 25 15 9a 3c 9a 8d e0 3c
       0.0047471668 -0.0069944416 0.01880891 0.02741127
000180 c4 f1 e1 bc e7 b6 95 bc 33 45 11 be 1c 55 5f bd
       -0.027581103 -0.018275691 -0.14186554 -0.054524526
000190 58 a6 cf 3c a9 a0 34 bd 34 5b 18 3d 64 4f 65 bd
       0.025347874 -0.04409853 0.037196353 -0.055983916
0001a0 b4 d2 9e bc 8f ff b0 3d fb 88 9a bd d5 31 58 ba
       -0.01938758 0.08642494 -0.07545658 -0.00082471716
0001b0 6c 41 51 bd e5 bb ca bd e7 ab f8 bc 3a e1 08 ba
       -0.05108778 -0.09899119 -0.030355407 -0.00052215497
0001c0 9e e4 33 bd 53 50 2b bd da ae 86 bb 7c e3 b7 bd
       -0.0439192 -0.04182465 -0.0041101994 -0.08978936
0001d0 16 b3 89 ba f7 c8 1a 3c 76 df d6 3c 41 c2 a6 bc
       -0.0010505642 0.009447328 0.026229601 -0.0203563
0001e0 95 9b 56 3d 8b cd c9 bc 91 79 a1 3d 9e b2 ab 3d
       0.05239447 -0.024634143 0.07884515 0.08383678
0001f0 66 af 14 3d c2 92 37 bd db 4d fb bc 01 39 0b 3d
       0.036300085 -0.044817694 -0.030676773 0.03398991

convs.0.bn1.weight f4 [128]
000000 38 b4 43 40 d0 4c 78 40 51 90 57 40 c1 5e 90 40
       3.0578747 3.8796883 3.3681834 4.5115666
000010 3d 54 df 3f 99 0b 8c 40 45 16 70 40 18 78 7a 40
       1.7447582 4.3764157 3.7513592 3.91358
000020 1e 81 4f 40 2b 48 7e 40 03 a5 af 40 26 cd 64 40
       3.2422557 3.9731548 5.488893 3.5750213
000030 93 c5 c8 3f 4f 5a c2 40 f7 31 75 40 57 cd 4b 40
       1.5685295 6.073524 3.8311746 3.184408
000040 ff 19 85 40 24 eb ad 40 e3 34 f6 3f c5 77 5d 40
       4.1594234 5.4349537 1.923489 3.4604352
000050 0c 2f 7c 40 e5 85 63 40 ee e9 af 40 50 98 89 40
       3.9403715 3.5550473 5.497306 4.299843
000060 c6 aa 35 40 2c 81 a9 3f 5c 29 ab 40 0c 56 5c 40
       2.8385482 1.3242545 5.3487988 3.442752
000070 63 9e ae 40 d3 86 a2 40 e6 e2 93 40 27 58 22 40
       5.4568343 5.078958 4.6214476 2.5366304
000080 28 5e ae 40 e6 6c 90 40 11 ac 48 3f c3 f7 27 40
       5.4489937 4.5132933 0.7838755 2.6244972
000090 40 39 c4 3f 92 11 ec 3f fc b8 27 40 34 8e 3f 40
       1.5329971 1.8442862 2.6206656 2.9930544
0000a0 a0 4f 49 40 5a c8 ba 3f de 8c 86 40 7b 7b 36 40
       3.145485 1.4592392 4.2046957 2.8512866
0000b0 35 69 5a 40 a0 50 b8 3f 39 ba 88 40 e0 c0 47 40
       3.4126713 1.4399605 4.2727323 3.1211472
0000c0 af 44 71 40 ad b9 35 40 65 03 af 40 b5 4f 3a 40
       3.769817 2.8394578 5.4691644 2.911115
0000d0 1f 8f 4f 40 48 4d a7 40 41 24 79 40 55 30 d4 40
       3.2431104 5.2281837 3.8928378 6.6309
0000e0 e5 79 8d 40 86 fa 95 40 84 18 00 40 0b ee 5d 40
       4.4211297 4.6868315 2.0014963 3.467654
0000f0 04 9f 43 40 f0 9d 13 40 8c a3 d0 3f 85 c7 8b 40
       3.0565805 2.3065147 1.629991 4.3681054
000100 2d 9c 27 40 f8 79 d9 3e d0 b4 af 3e e2 05 0c 40
       2.6189072 0.42475867 0.34317636 2.187859
000110 97 dd 50 40 29 6d 65 3c 27 48 09 40 a7 c1 00 40
       3.2635248 0.014003077 2.1450288 2.0118196
000120 7f 73 59 40 ea ed 1a 3f 71 d1 6e 3f 04 89 fb 3e
       3.3976743 0.6051928 0.9328833 0.49127972
000130 89 91 38 40 7a e2 91 3f 5d 65 20 40 47 ee 96 3e
       2.8838828 1.139724 2.5061867 0.29478666
000140 ff ec c2 3f b7 cf 0e 40 52 d5 1c 40 0e 98 ca 3f
       1.5228575 2.231428 2.45052 1.5827653
000150 45 26 c7 3f 7b 50 e8 3f cc a2 e4 3e ff 58 ac 3f
       1.5558554 1.8149561 0.44655454 1.346466
000160 73 0f 46 40 3d 4e 30 40 87 47 82 3f a1 c4 78 3e
       3.094693 2.7547753 1.0178078 0.24293758
000170 e2 19 ea 3d 8c 00 be 3f 2e 12 83 3f f2 da 6e 40
       0.11430718 1.4843917 1.0239923 3.7321134
000180 11 9f d3 3e ab e2 82 3f d7 34 3e 3f 04 71 a4 3e
       0.41332296 1.0225424 0.7429938 0.32117474
000190 1b 32 d6 3f 76 b4 ba 3f 53 24 9c 40 3d 57 67 3f
       1.6734041 1.4586322 4.879434 0.9036749
0001a0 8c db 57 3f fa 43 ed 3f 26 5c 1a 3f eb 0d 73 3f
       0.84319377 1.853637 0.6029686 0.9494311
0001b0 4c 27 2a 40 4e 1b 33 40 b7 85 15 3d 3a ec c3 3f
       2.6586485 2.7985415 0.036504474 1.5306466
0001c0 13 4d 4f 3f 20 96 51 40 e5 c1 58 3e b6 ab d7 40
       0.8097698 3.274788 0.21167715 6.739711
0001d0 7a 4d 2e 40 1b c9 c3 3e e5 2e 1a 3f 05 9b a2 3f
       2.7234788 0.3823937 0.60227805 1.2703558
0001e0 e0 12 40 3f fa c0 84 40 12 89 5a 40 89 27 a1 3f
       0.750288 4.1485567 3.414616 1.259019
0001f0 1c 1f 47 3f b8 fc 35 40 60 66 82 3f ca 11 9c 3e
       0.77781844 2.8435497 1.0187492 0.30482322

convs.0.bn1.bias f4 [128]
000000 8f 23 9e be 56 c7 14 40 a8 bd 33 40 c1 19 7e bf
       -0.30886504 2.3246665 2.8084507 -0.9925805
000010 db a2 46 3f b4 fa e3 3f 79 25 00 bf ca eb c5 3e
       0.7759225 1.7810884 -0.5005718 0.38656455
000020 70 5a 24 bf a3 77 1b 3f 99 db 8d 3f b2 33 45 3e
       -0.64200497 0.60729426 1.1082641 0.19258001
000030 44 04 5f 3e 91 a8 09 bf 09 d9 35 bf ff 1d e6 3f
       0.21778971 -0.53772837 -0.71034294 1.7977904
000040 f6 f4 84 bd a3 24 58 3f 5f 26 48 bd 41 eb 3b 3f
       -0.06492035 0.84430903 -0.04886472 0.73405844
000050 a7 ef fc 3e f4 20 e5 be 0d 83 6f 3f ba 1d c9 3e
       0.4940159 -0.44751704 0.9355934 0.39280492
000060 b3 3b 06 3f c8 2a 27 3f b8 73 4e 3f 3b 8d 23 3f
       0.52434844 0.65299654 0.8064532 0.63887376
000070 9a 78 f3 3f 72 0c 47 be 65 91 d9 3d 70 91 b5 bf
       1.902118 -0.19438341 0.10623435 -1.4185009
000080 39 bd 4a 3f 07 61 d9 3f 5d 4d 5d 3f ce e3 3c 3e
       0.7919498 1.6982735 0.8644617 0.18446276
000090 ac 0c 5f 3c 22 25 bd 3f 70 96 53 3f e5 b0 f7 3d
       0.013613861 1.4776957 0.82651424 0.12094287
0000a0 71 16 8f 3f a0 c2 91 bf 50 ac dc 3f 08 39 58 3f
       1.1178724 -1.138752 1.7240086 0.8446202
0000b0 7f 64 1e bf 9a 2b a9 3f f3 fc e8 3f e1 64 d9 3f
       -0.61872095 1.3216431 1.8202194 1.6983911
0000c0 fb 37 ba 3f 54 e4 02 c0 34 5b 0e 3f bc a0 6a 3f
       1.4548334 -2.045186 0.55607915 0.9165151
0000d0 88 0e 13 c0 35 a2 d0 3f 19 a6 4c 3f 12 5b 1c 3f
       -2.297762 1.6299502 0.79940945 0.6107646
0000e0 5a 14 3f 3f bf c0 67 3e 4a 35 02 3d 83 2c 6a 3f
       0.7464043 0.2263212 0.0317891 0.9147417
0000f0 32 f0 39 3f 83 bf 86 3f eb d2 63 bf a1 0a a1 3f
       0.72632134 1.0527195 -0.8899371 1.2581369
000100 65 9f a2 bd 7a c8 0b 40 9e 7f 3e 40 e2 c7 04 bf
       -0.07940558 2.184111 2.9765391 -0.51867497
000110 b0 0e 82 3f 6e 87 8a 40 15 26 80 3e 0f 28 69 3d
       1.0160732 4.329032 0.25029054 0.05692297
000120 b9 85 b8 bf 6a 5b d9 3f eb 20 9b 3f e6 ba 58 40
       -1.4415809 1.6981022 1.2119421 3.3864074
000130 52 25 a4 bf aa 6b 8d 3e 25 46 f4 be 13 04 27 40
       -1.2823889 0.27621204 -0.47709766 2.6096237
000140 97 d5 dd 3e ee eb 8e 3f 96 f8 c7 be a5 82 08 3e
       0.4332702 1.116575 -0.39056844 0.13331087
000150 63 d7 73 bf fd 5b f6 3e 4f e8 e2 3f 32 55 8e 3f
       -0.9525053 0.48117056 1.7727145 1.111975
000160 8d 15 0f bf 95 f7 6d bf 36 4d 51 3f e8 bb dd 3f
       -0.5589226 -0.92955905 0.8175844 1.732297
000170 2a 3a 1d 41 ac b8 07 3f 05 86 0b 3f 82 96 17 bf
       9.8267 0.5301616 0.5450137 -0.5921403
000180 4a cc 9a 40 09 6c c9 3e 6f ee 54 3f 51 ae 05 40
       4.8374376 0.39340237 0.8317632 2.0887644
000190 17 13 bf be c0 80 98 3f a2 2f b0 3e d6 01 91 3f
       -0.37319252 1.1914291 0.3441134 1.1328685
0001a0 33 73 00 be 12 9e 9c bf d9 e6 1b 40 9d e3 92 3f
       -0.12543945 -1.2235739 2.4359648 1.1475712
0001b0 31 cd 19 3f af 58 72 3b 37 75 0f 40 43 9a df 3f
       0.6007872 0.003697913 2.2415292 1.7468952
0001c0 21 97 aa 3e 4c 6a 42 c0 07 36 a0 3f fd 39 4f be
       0.33318427 -3.0377378 1.2516488 -0.20236965
0001d0 8c 26 15 c0 f9 4f c8 3f 06 9d 0e 40 f3 a4 d0 3f
       -2.3304777 1.5649406 2.228334 1.6300339
0001e0 d5 2b eb 3f b1 54 f7 3e 29 db 2d be 17 bd 1e 3f
       1.8372751 0.48306802 -0.16978134 0.6200728
0001f0 dc 25 93 3f 61 a7 a9 3e a2 52 42 bf a8 ca 97 40
       1.1495929 0.33135512 -0.7590734 4.7434883

convs.0.bn1.running_mean f4 [128]
000000 7a 53 c0 41 5a 53 67 42 21 fd ec c1 b3 1c 31 c2
       24.04076 57.831398 -29.623598 -44.278027
000010 f8 56 e6 41 71 62 75 42 8d 91 7d c2 bf 2d 79 42
       28.792465 61.346134 -63.39214 62.294674
000020 9c 0c fe 41 e7 0b ba c1 bb f1 da c1 31 bc 10 3f
       31.756157 -23.255812 -27.368032 0.5653716
000030 b6 a0 94 41 47 eb ad 41 50 97 3b c2 18 88 85 c2
       18.578472 21.739882 -46.897766 -66.76581
000040 5a 05 d0 c0 5a 6e 66 42 a4 ae ae 41 61 48 19 c2
       -6.5006533 57.607765 21.835274 -38.320683
000050 2f 3b 21 42 13 37 86 c2 39 93 20 42 56 02 ba c1
       40.307796 -67.10757 40.143772 -23.25114
000060 8f 75 1f 42 cf da 67 41 4d e2 ac 42 53 b4 42 c2
       39.864803 14.49092 86.44199 -48.676098
000070 c4 a1 ce c1 9a be 11 c2 8e 9e 1c 40 45 0a 2a c0
       -25.828987 -36.436134 2.4471774 -2.6568768
000080 5a c3 1a c1 43 ec 86 c0 b9 a3 7d 40 bb c3 9f 41
       -9.672693 -4.2163405 3.9631178 19.970572
000090 51 f9 35 42 82 60 81 c2 db 1b 76 c1 65 ec 4b 42
       45.493473 -64.68849 -15.381801 50.980854
0000a0 d0 3f 27 42 e2 6f 68 42 80 fb 92 c2 fd df bb bf
       41.812317 58.10926 -73.49121 -1.4677731
0000b0 63 6c 87 42 03 18 b7 41 9b d5 c3 be 3e 5d 18 c2
       67.71169 22.886724 -0.38248906 -38.091057
0000c0 aa ae c2 c1 bd ca d5 c1 07 d7 b5 3f a3 98 b6 c2
       -24.335285 -26.723993 1.4206246 -91.29812
0000d0 a3 12 cc c0 d5 5b 0b 42 de 33 22 42 3b 83 36 c2
       -6.377275 34.83968 40.55065 -45.628155
0000e0 22 81 95 c2 8a 84 b9 41 0e bf 1b 42 7e f1 85 c2
       -74.75221 23.189716 38.936577 -66.971664
0000f0 aa 4d fa 41 97 f4 e9 c1 37 52 3c 42 b5 00 92 42
       31.287922 -29.244429 47.080288 73.00138
000100 ea 3e 9c 40 a7 0c 2d 41 21 c0 16 41 fe c3 0a c2
       4.88268 10.815589 9.421906 -34.6914
000110 d4 85 09 c2 35 33 8b 42 d1 3c b7 41 00 c1 53 c2
       -34.38069 69.60001 22.904696 -52.938477
000120 83 7d 09 42 38 1e 9e c1 13 e2 85 c1 ab e3 52 c2
       34.37257 -19.764755 -16.735388 -52.722332
000130 2e 6c 80 42 7e 80 24 42 4d 2d 39 42 57 aa b2 c2
       64.21129 41.12548 46.29424 -89.332695
000140 2a 3a e9 c0 da 4c 48 42 2c 5e 75 42 14 b4 bf c1
       -7.28835 50.07505 61.341965 -23.962929
000150 08 a7 29 41 ea 66 89 c2 23 6c 1b 42 07 86 ca 40
       10.603279 -68.701004 38.855602 6.3288608
000160 fb 41 42 42 98 7e 06 c2 47 fd 7f 42 87 9c 85 c2
       48.564434 -33.623627 63.99734 -66.80572
000170 a3 7e fa 41 3a a4 84 c0 43 b8 08 3f ee 33 99 40
       31.311834 -4.145047 0.5340616 4.787589
000180 df 3b 92 41 ca 8f 1e 41 ba ec 0a 40 e8 df 9e 41
       18.279234 9.910105 2.1706986 19.85933
000190 12 c5 4d 42 65 1c 52 c2 15 3d 7b c2 6e b5 63 42
       51.44245 -52.52773 -62.80965 56.927177
0001a0 a1 fb 53 42 ae 92 59 42 e2 38 82 c2 a2 d8 11 42
       52.99573 54.39324 -65.1111 36.461555
0001b0 5b 4b fc 41 9e a4 14 c2 03 cd f8 c1 d6 91 8a 3f
       31.536795 -37.16076 -31.100103 1.0825756
0001c0 12 b1 32 c1 11 b2 ba c1 5f 8b 34 41 cf 95 d6 41
       -11.16823 -23.336946 11.284026 26.823149
0001d0 46 46 d5 be 3e 7c b4 c1 0e b8 a5 42 59 0c 56 42
       -0.41655177 -22.560665 82.85948 53.51206
0001e0 0e 4c 16 42 71 cf 76 42 ba c4 2f 42 a0 d2 bb 40
       37.574272 61.70258 43.942116 5.869461
0001f0 96 4e ad 41 88 63 8f c1 1b cf 60 42 db 8e ac 42
       21.663372 -17.9236 56.20225 86.279015

convs.0.bn1.running_var f4 [128]
000000 b9 7e 26 45 0e 84 f0 44 78 bc be 45 ee 68 74 45
       2663.9202 1924.1267 6103.5586 3910.558
000010 ba 9a 1d 45 4e 7a 68 45 f1 68 f1 45 f2 4b 73 45
       2521.6704 3719.644 7725.1177 3892.7466
000020 da dc 55 45 9e f5 6e 45 0b 3e 7a 45 0c b6 8b 45
       3421.8032 3823.351 4003.8777 4470.756
000030 c9 b6 39 45 b6 ae 9e 45 76 61 a7 45 54 41 bd 45
       2971.424 5077.839 5356.1826 6056.166
000040 84 d8 39 45 d5 02 90 45 c7 48 a6 44 89 3c a8 45
       2973.5322 4608.354 1330.2743 5383.567
000050 75 38 b9 45 fc 5f 9c 45 a8 65 b7 45 99 86 70 45
       5927.057 5003.998 5868.707 3848.4124
000060 ff 81 01 45 46 7d 28 45 25 40 d6 45 fe 39 2c 45
       2072.1248 2695.8296 6856.018 2755.6245
000070 a9 d9 c6 45 6d 5f 82 45 62 d6 cf 45 ec 85 9e 45
       6363.2075 4171.928 6650.798 5072.74
000080 f4 cf b2 45 e3 2e 00 45 03 22 9e 44 eb f6 aa 45
       5721.994 2050.9304 1265.0629 5470.8647
000090 c2 6e 4b 45 19 8c 85 45 8f a2 cc 44 31 84 8f 45
       3254.9224 4273.512 1637.08 4592.524
0000a0 56 27 d7 44 f6 7e 28 45 34 75 e0 45 bd a0 ed 45
       1721.2292 2695.935 7182.6504 7604.0923
0000b0 e7 18 fd 45 1c 73 a8 45 39 e5 06 45 67 bf 73 45
       8099.113 5390.3887 2158.3264 3899.9626
0000c0 65 87 91 45 d9 9c 9f 44 2f fa 0f 45 35 d4 16 45
       4656.9243 1276.9015 2303.6365 2413.263
0000d0 24 e3 f9 44 b4 ef 8b 45 93 59 d1 45 50 82 8f 45
       1999.0981 4477.963 6699.197 4592.289
0000e0 69 e1 96 45 bd cc 54 45 23 74 5d 45 13 97 0d 46
       4828.1763 3404.7961 3543.2585 9061.769
0000f0 93 ac 89 45 00 20 81 45 6c 0b 1b 45 a4 a6 df 45
       4405.572 4132.0 2480.7139 7156.83
000100 9a ca 1d 45 40 eb 47 45 75 95 cf 45 52 d1 c0 45
       2524.6626 3198.7031 6642.682 6170.165
000110 e8 d7 ec 45 43 9c 1b 45 4c 0a fd 45 22 93 da 45
       7578.9883 2489.7664 8097.287 6994.3916
000120 29 cc 98 45 96 94 42 45 98 74 59 45 0f 9c b3 45
       4889.52 3113.2866 3479.287 5747.5073
000130 33 b5 85 45 ac e0 86 45 e0 0d 5f 45 5e 47 19 46
       4278.65 4316.084 3568.8672 9809.842
000140 02 64 77 45 a0 d4 d4 45 63 d2 32 45 b6 bb cb 45
       3958.2505 6810.578 2861.1492 6519.464
000150 66 c1 21 45 a5 a8 8d 45 25 f4 af 45 be 23 85 45
       2588.0874 4533.0806 5630.518 4260.468
000160 7a 14 50 45 98 c1 2a 45 c0 a7 dc 45 73 e5 3a 45
       3329.2798 2732.0996 7060.9688 2990.3406
000170 bf c7 bf 45 5a 14 5e 45 e7 60 aa 45 8a ca ac 45
       6136.9683 3553.272 5452.113 5529.3174
000180 42 22 3f 45 13 ed 09 45 11 18 b5 44 cb 22 c5 45
       3058.141 2206.8171 1448.7521 6308.349
000190 f5 b0 35 45 b6 1c d8 45 ff 67 59 45 61 16 6c 45
       2907.0598 6915.589 3478.4998 3777.3987
0001a0 20 d4 69 45 5a 4b 36 45 1d 1f 10 46 71 c5 09 46
       3741.2578 2916.7095 9223.778 8817.36
0001b0 61 00 ff 45 61 43 9a 45 37 18 04 45 5f fe b2 45
       8160.0474 4936.4224 2113.5134 5727.7964
0001c0 32 d7 97 45 8a fa ae 44 8e 89 c0 44 c1 45 a9 45
       4858.8994 1399.8293 1540.2986 5416.719
0001d0 29 84 5f 45 74 69 5d 45 57 88 0d 46 4f c6 1c 46
       3576.26 3542.5908 9058.085 10033.577
0001e0 ba a9 ab 45 27 ed dc 45 fc 95 8d 45 95 09 e1 45
       5493.216 7069.644 4530.748 7201.1978
0001f0 56 d0 67 45 f3 9a cf 45 07 53 68 45 4e 77 d6 45
       3709.021 6643.3687 3717.1892 6862.913

convs.0.bn2.weight f4 [64]
000000 50 32 3a 3f 8d f8 0e 3f 8c 2b 94 3f c0 c7 f3 3f
       0.7273302 0.5584801 1.157579 1.9045334
000010 74 bb ae 3f 5b 8e 28 3f d0 ab 1c 40 08 88 2c 3f
       1.3650956 0.6584222 2.4479866 0.6739507
000020 f1 5d ad 3f 43 c1 a6 3f 3c d7 c7 3f 20 8a 8b 3f
       1.3544294 1.3027729 1.5612559 1.0901527
000030 78 b9 7b 3f 9a 59 ef 3f 1e ca a9 3f e0 da 80 3f
       0.9832988 1.8699219 1.3264806 1.0066795
000040 91 5d 03 3f 1a 14 25 40 8c a3 bb 3f 58 c2 ff 3f
       0.51314646 2.579352 1.4659286 1.9981184
000050 4a be 85 3f f6 db 0a 40 67 ba fe 3f d7 00 d6 3f
       1.0448697 2.1696754 1.9900635 1.6719006
000060 64 eb 08 3f 40 51 92 3f 39 29 06 40 d7 86 67 3f
       0.5348418 1.1431046 2.096266 0.90440124
000070 74 f7 b6 3f 14 d7 ff 3e 62 3b dc 3f ff 40 f3 3f
       1.4294267 0.4996878 1.7205622 1.900421
000080 52 e1 a6 3f 58 21 64 3c 17 70 6f 3e 5c d8 de 3f
       1.3037512 0.013923965 0.23382603 1.7409778
000090 80 c1 08 3f fb a6 85 3f 41 34 5d 3f 9b 28 7b 3f
       0.5342026 1.0441583 0.8640786 0.98108834
0000a0 6c 5d 48 3f 2e 12 f0 3f c8 52 c1 3f 78 9c cd 3f
       0.7826755 1.8755548 1.5103388 1.6063375
0000b0 45 8a 45 3f aa 8f bc 3f 65 5e 84 3e db 37 ca 3f
       0.7716411 1.4731343 0.25853267 1.5798296
0000c0 81 18 df 3f 64 52 9e 3e 8c 58 56 3e 86 bb 06 40
       1.7429353 0.30922234 0.20932215 2.1051955
0000d0 a3 2b 2f 40 34 94 23 3f 83 fb 5a 40 3c 59 f5 3f
       2.7370384 0.63898015 3.421601 1.9167857
0000e0 ec 5a 9f 3f 4a 5f d6 3f 36 49 8f 3f 05 af 24 40
       1.2449622 1.674783 1.1194217 2.5731823
0000f0 b9 7a 97 3f 72 f0 52 3f 28 07 e0 3e d3 85 de 3f
       1.1834327 0.8239814 0.4375546 1.738459

convs.0.bn2.bias f4 [64]
000000 7f b9 ed bf db 8a e2 bf 35 26 95 be cf 59 4b bf
       -1.8572234 -1.7698625 -0.29130712 -0.7943391
000010 bf 1e a8 bd c5 39 27 3c ad 7a 28 bf ce a7 cd bf
       -0.08208989 0.010206644 -0.6581219 -1.6066835
000020 b1 56 d2 be a1 3b 01 c0 26 e2 ed bf cf cb 91 bc
       -0.41081765 -2.0192645 -1.858464 -0.017797379
000030 57 8c df bf 98 6a 40 bf f8 bc bd bf d3 d3 00 3f
       -1.7464703 -0.7516265 -1.4823294 0.5032322
000040 32 c0 b1 3e 7f 8c dd 3d 21 df 00 c0 69 70 05 bf
       0.34716946 0.10817813 -2.0136187 -0.5212465
000050 79 74 0c c0 ed 2d 1c bf b1 ac 68 be 9e db dc bf
       -2.194609 -0.6100758 -0.22722127 -1.7254522
000060 7b af 06 c0 ba 4e f9 bf b9 a1 9d bf e7 1a 70 bf
       -2.1044605 -1.947715 -1.2314979 -0.9379105
000070 ec 15 bf 3e 34 ef b8 bf 4a d9 67 bf 5b 72 52 bf
       0.37321413 -1.4447999 -0.9056593 -0.8220574
000080 81 7a 6c bf 69 3b 81 3d 27 83 39 c0 a6 7e b6 3e
       -0.92374426 0.0631016 -2.89863 0.356435
000090 92 5e 12 c0 65 cf c8 bf 95 8f f3 bf 6e 91 26 c0
       -2.287022 -1.5688292 -1.9028193 -2.6026263
0000a0 4c fe 3c bf a9 cc 44 c0 2d 97 07 3e 21 28 84 bf
       -0.73825526 -3.0749915 0.13241263 -1.0324746
0000b0 6c 49 30 bf fd ea 36 3e ae 8e 20 c0 91 2b 2c bd
       -0.6886203 0.17863078 -2.5087085 -0.042033736
0000c0 fd b7 8f bf 8b a5 dd bf 62 d8 23 c0 29 a1 2c bf
       -1.1228024 -1.7316145 -2.560082 -0.6743341
0000d0 7f 69 06 40 6b 1c 0e c0 c9 ef 96 bf 2a fb 91 bf
       2.100189 -2.2204845 -1.1791927 -1.1404774
0000e0 1b d7 be be 5c 8a aa bf 3e 55 25 bf ed 4c 0f bf
       -0.37273487 -1.3323474 -0.64583194 -0.55976754
0000f0 9a e6 fe bf 4d 43 ab 3e 82 7a df bf 8f 8b c2 bf
       -1.9914124 0.33449784 -1.7459261 -1.519884

convs.0.bn2.running_mean f4 [64]
000000 83 d9 37 41 e0 63 a1 41 bf 17 ec 41 f4 39 ec 40
       11.490603 20.173767 29.511595 7.3820744
000010 ab 52 55 41 0c 83 08 42 8d 03 18 41 e0 64 e7 40
       13.332683 34.127975 9.500867 7.231064
000020 fc ab 07 41 e4 12 66 41 5f 02 3d 41 83 d0 a7 41
       8.479488 14.379612 11.813079 20.976812
000030 a9 b8 e1 40 f6 a6 00 41 42 b2 f3 40 bd 6e b0 41
       7.0537915 8.040762 7.61551 22.054071
000040 6b 7c 06 41 b6 3e 3d 41 4c 6d 1f 41 df d1 17 41
       8.4053755 11.82781 9.964184 9.488738
000050 9a 93 ac 40 59 26 25 41 e2 ab 73 41 f3 bc 3c 41
       5.393018 10.321862 15.229464 11.79613
000060 88 31 4a 41 e5 e8 04 41 d1 6e 38 41 21 84 5d 41
       12.637093 8.306859 11.527055 13.844758
000070 86 4b 88 42 16 39 d6 40 a1 af 1f 41 e7 6b 3f 41
       68.14751 6.6944685 9.980378 11.963843
000080 e1 a6 ea 41 81 50 08 41 bc a9 30 41 ab 47 71 41
       29.331484 8.519654 11.041439 15.079997
000090 87 1c ea 40 b3 f6 81 41 f8 34 b0 41 56 fa 2f 41
       7.3159823 16.245459 22.025864 10.998617
0000a0 aa 81 bb 40 fe d4 6e 40 92 11 9d 41 8a 59 5d 41
       5.859578 3.73175 19.63358 13.83436
0000b0 dd b2 81 41 2b 73 20 41 f8 32 98 41 93 e2 9c 41
       16.212336 10.028117 19.024887 19.610632
0000c0 3b 9f d8 40 05 dd 93 40 7a 60 34 41 64 cf d2 41
       6.7694373 4.62073 11.273554 26.351265
0000d0 cd ef 20 40 6f 05 56 41 f9 d9 92 41 00 df 85 41
       2.5146363 13.376327 18.356432 16.733887
0000e0 5c f3 55 41 ff 68 bc 41 7a 1d 55 41 a9 1f 1d 41
       13.371914 23.551268 13.319696 9.82023
0000f0 47 b5 4d 41 08 40 81 41 77 d4 25 40 fc 20 13 42
       12.856757 16.156265 2.5910928 36.78221

convs.0.bn2.running_var f4 [64]
000000 7c 80 1c 43 cb 92 6b 42 69 e5 63 42 7d aa 2a 42
       156.50189 58.893353 56.974033 42.666492
000010 68 1b b5 42 32 5f a0 43 54 ca 5d 42 7d 42 9c 42
       90.55353 320.7437 55.447586 78.12986
000020 3b 78 02 43 b3 ce 57 42 79 0a 4d 42 eb 3d 6a 43
       130.46965 53.951855 51.260227 234.24187
000030 46 96 74 42 87 1c 10 42 6d 55 1a 42 02 93 cd 42
       61.14675 36.02786 38.583424 102.787125
000040 46 fd d6 42 0e 43 09 43 a3 33 19 43 ff e8 33 42
       107.494675 137.26193 153.2017 44.977535
000050 38 12 1c 42 00 63 1b 43 8b 6a 1e 42 e5 29 ae 42
       39.01779 155.38672 39.604046 87.081825
000060 19 26 04 43 6b 0f a3 42 bc 83 ff 41 07 dd 7d 42
       132.14882 81.53011 31.939323 63.465847
000070 13 51 35 45 ec ce 87 42 7e a6 f9 41 84 e0 62 43
       2901.0671 67.904144 31.206295 226.87701
000080 92 48 6f 43 3d 29 6f 42 65 39 cb 41 ff fb 7f 42
       239.28348 59.79027 25.403025 63.99609
000090 71 4c f1 41 08 47 d3 42 17 27 2d 44 1c c7 3a 42
       30.162325 105.63873 692.6108 46.694443
0000a0 8d 46 2e 41 f7 3f 9e 41 c5 f1 e9 42 03 2f 13 42
       10.892224 19.781233 116.972206 36.79591
0000b0 32 be 12 43 dc ca 51 42 50 c2 b7 42 a3 2e e2 42
       146.74295 52.448105 91.87952 113.09109
0000c0 af 57 4d 41 07 3c ae 42 35 ce 82 42 2e 27 66 44
       12.833907 87.11724 65.40275 920.6122
0000d0 b8 62 14 41 94 19 ce 41 18 a1 61 42 d4 29 e7 42
       9.274101 25.76249 56.40732 115.581696
0000e0 7b fc 3d 42 ef c3 c4 43 bd 20 27 43 8e d4 12 42
       47.496563 393.53073 167.12788 36.707573
0000f0 92 95 0d 42 00 a3 bd 42 6a 7b ba 40 bf af a1 43
       35.396065 94.81836 5.827565 323.37302

convs.1.fc_full.weight f4 [128, 169]
000000 92 26 d3 be f5 c3 07 bd 60 21 cf 3d e8 56 8c bf
       -0.41240364 -0.033145864 0.10113788 -1.0964022
000010 ee f2 c9 be 79 25 20 be 27 10 45 bf 6d 3e 8a be
       -0.39443153 -0.15639295 -0.7697777 -0.27000752
000020 43 39 85 bf fe cf 14 be 82 2f 13 be 1a a0 14 bf
       -1.04081 -0.14532468 -0.14373592 -0.58056796
000030 3e 21 22 bf 9e 7b 4f be 41 3b a7 be bf b5 48 be
       -0.63331974 -0.20262 -0.32662395 -0.1960058
000040 3a e0 a8 3e 52 67 1f 3f 55 c3 75 bd aa d9 3a bf
       0.3298357 0.6226703 -0.060000736 -0.7298838
000050 cb 7f dd 3e 0d 76 f3 bd 9f 6e de 3e 5e f7 71 be
       0.4326156 -0.11887751 0.43443772 -0.2362952
000060 36 32 86 bd 03 66 8a 3e d3 63 02 3f a3 d9 1d 3e
       -0.06552546 0.27030954 0.5093357 0.15415053
000070 99 c1 a7 be cf 1d 21 be 45 f1 b5 be 77 fd ae 3e
       -0.3276489 -0.15734027 -0.35535637 0.34177753
000080 3f cc 01 c0 b1 50 2e 3e a6 7b 83 bd b2 6d fb 3d
       -2.0280912 0.17022969 -0.064200684 0.12276782
000090 54 69 69 be bf 7d 5a bf b3 c2 9e 3e d2 4c 32 be
       -0.22794086 -0.85348123 0.3100792 -0.17412117
0000a0 c0 bd d7 3e a2 6d 52 bd a5 c1 41 be bb bf 55 be
       0.42136955 -0.051374085 -0.18921526 -0.2087392
0000b0 b4 20 34 3f db 23 d7 be 37 09 b3 bd c3 39 ab 3e
       0.703624 -0.42019543 -0.08741992 0.33442506
0000c0 41 1a 96 bd 56 71 3e 3f e2 e7 f6 3d 85 75 fb be
       -0.07329226 0.74391687 0.12055947 -0.49113098
0000d0 b5 f8 9c bc bd c2 12 3f 25 f4 61 3f cb 47 a4 3d
       -0.019161562 0.573284 0.8826316 0.08021506
0000e0 90 97 d8 be d2 d7 d8 3e 2c 1e 30 3f 1f fd 20 3d
       -0.42303133 0.42352158 0.6879604 0.039303895
0000f0 de c4 28 be 72 86 45 bf 77 a0 b5 3e 22 d6 c6 bd
       -0.16481349 -0.7715827 0.35473987 -0.09708811
000100 15 4e 9f be 15 bf 94 be 2f 01 26 3d 48 be e4 be
       -0.3111426 -0.29052034 0.040528473 -0.44676423
000110 0b 24 cb 3f 95 f0 7e 3f be 32 9e bf ab da 43 3b
       1.5870374 0.9958585 -1.2359235 0.0029884975
000120 36 a9 e8 3e 3e 39 37 3c 6a 88 ac bd 8c 9d 07 c0
       0.45441598 0.011183081 -0.084244564 -2.118991
000130 87 0b be 3e 88 a6 25 bf 07 6a fd bd 43 fa 41 bf
       0.3711817 -0.6470723 -0.12373739 -0.75772494
000140 b1 4e b2 be de dc 0c bc 34 11 20 3d 0e b8 1f bf
       -0.34825662 -0.008597581 0.039078906 -0.6239022
000150 3c 83 d6 be ae 54 d2 be 04 02 c8 3e 02 cb 8f be
       -0.41897 -0.4108023 0.39064038 -0.2808457
000160 3d b1 ea 3c 97 b8 2a bd f8 ea 4d 3f d1 3f 17 bf
       0.028648967 -0.041679945 0.8043666 -0.5908175
000170 f3 27 7d 3f fe 03 6b bd 7b df 7b be d5 41 d5 be
       0.9888908 -0.057376854 -0.2459697 -0.41651788
000180 05 4d f5 be c3 05 84 bf a1 ca 92 bd 2a f6 13 3f
       -0.47910324 -1.0314258 -0.07167555 0.5779749
000190 fd eb 94 bd 60 42 15 bf ba 11 bc 3d 27 24 b7 be
       -0.07271574 -0.58304405 0.091830686 -0.3576977
0001a0 f3 a3 82 bf 07 12 b5 3b 83 ea e1 bf de b8 95 be
       -1.0206283 0.0055258307 -1.7649692 -0.29242605
0001b0 86 9e 28 3e a5 0d df 3d 38 70 61 be 4d 8e 73 bf
       0.16466722 0.10891274 -0.22015464 -0.9513901
0001c0 2d d2 32 bf 4d 35 95 3c ae 1b 30 3d 76 58 9d 3d
       -0.6985195 0.018213892 0.042995147 0.07682888
0001d0 7b 18 56 3e 24 5d 9c be 3a 6e ce 3e 55 6c c9 3c
       0.20907776 -0.3053981 0.4031847 0.02458779
0001e0 ba a1 98 bf 2a 14 5e bd b3 97 1e 3f 4a e6 06 bf
       -1.1924355 -0.05421845 0.61950225 -0.52695143
0001f0 a1 eb 30 be 56 2f 39 3f 88 60 10 3f e6 e8 b7 be
       -0.17277385 0.72337854 0.56397295 -0.35919875
000200 3f aa 11 3d 65 b1 30 3d 4b 11 1a 3e 9e db f6 be
       0.03556275 0.043137927 0.15045659 -0.4821443
000210 f4 b1 66 bf 02 0d 3e bf ba dc 81 be 5e c5 a2 bf
       -0.90115285 -0.742386 -0.25363714 -1.2716482
000220 ac 42 a7 3d e7 33 56 3f 4c 3a 14 3e a1 94 e2 3f
       0.081670135 0.83672947 0.14475363 1.7701608
000230 a1 f2 1c 40 68 ea 18 3f d4 df e6 3e 17 22 08 bf
       2.452309 0.59732676 0.45092642 -0.53177017
000240 e3 1b 3d bf 8e c2 90 bf c4 3b c7 bf f4 02 01 c0
       -0.73870677 -1.1309373 -1.5565114 -2.0158052
000250 d3 3b 7e bf 77 2b 86 bf aa 98 0f 3f 14 1f 01 bf
       -0.99310035 -1.0482014 0.5609232 -0.50438046
000260 0c 23 e2 be 28 9f 4b 3f 37 1c 0a c0 42 cf cd bf
       -0.44167364 0.7953973 -2.157972 -1.6078875
000270 33 aa 8c be 52 7c b2 3f 3c ba 8b 3f 61 90 96 be
       -0.27473602 1.394419 1.0916209 -0.29407027
000280 ad 6c 47 3f d5 65 de 3f 73 cc b8 3f 12 37 36 3f
       0.779002 1.7374827 1.4437393 0.7117778
000290 69 47 6f 3e 7e 16 92 ba e5 e5 08 3d 28 41 ea 3c
       0.23367085 -0.0011145619 0.03342237 0.028595522
0002a0 00 78 14 bc e2 c7 9c 3f f7 ad 3d 3f 1b 0a 67 bf
       -0.009061813 1.2248499 0.74093574 -0.90249795
0002b0 2a 62 ca bc e2 32 8a 3d 0f 6c b4 be c4 f9 de be
       -0.024705011 0.067479864 -0.35238692 -0.4354993
0002c0 a4 cb 71 3f a0 0c 1a bf 56 aa 2f bf b5 37 6c bf
       0.94451356 -0.60175514 -0.68619287 -0.922725
0002d0 7a 82 8b 3f 66 75 33 3f b9 b0 a6 3e c8 64 37 bf
       1.0899193 0.7010101 0.32556704 -0.71638155
0002e0 e5 bb 36 3f 5d 63 8a be 97 ca 89 3e 8c 73 23 bf
       0.71380454 -0.27028933 0.26912376 -0.63848186
0002f0 06 a6 32 bf 3f cd ac bf e7 aa 31 be f8 48 8b 3f
       -0.6978458 -1.3500136 -0.1735035 1.0881643
000300 ea d3 28 3f bc 54 5f bf 8d 12 83 3f 0c 31 41 bf
       0.65948355 -0.8723867 1.0240036 -0.75465465
000310 56 c3 ae be 9a 3e 52 be 1e 96 e6 3e c1 4f 9f 3e
       -0.34133404 -0.20531693 0.45036405 0.31115535
000320 8c 21 52 3f d7 31 45 be c2 75 93 3e be 8d 3e be
       0.8208244 -0.19257294 0.2880078 -0.18608758
000330 12 18 d4 3e 3e 81 13 bf e6 b6 17 bf 22 64 6f 3f
       0.41424614 -0.5761908 -0.59263456 0.93512166
000340 f7 bc 84 bf 73 0e 1e bf 55 8b 32 bf 58 9f ea 3e
       -1.0370167 -0.617408 -0.69743854 0.45824695
000350 98 61 f0 3e 42 fe bc be d1 f7 02 3d 64 3f 91 3f
       0.46949458 -0.36912733 0.031974617 1.134747
000360 25 2c b5 be b9 1b 5f bf 7e 09 3f 3e 8f 0b 04 bf
       -0.35385242 -0.87151676 0.18655965 -0.51580137
000370 ca 8d 84 3f 51 cc 35 c0 9c 1d 94 3f 49 85 d0 3f
       1.035577 -2.8405955 1.1571536 1.6290675
000380 f5 a3 87 3f f5 3c 00 3f 54 26 89 3f 14 97 dd 3e
       1.0596911 0.50093013 1.0714822 0.43279326
000390 1b 4d 39 3c 16 42 04 3f cf 16 2b be 45 c8 b3 bf
       0.011309887 0.5166334 -0.1670792 -1.4045492
0003a0 b8 5b 82 bf b5 81 31 bf a7 16 ca bf 0e 93 e0 3b
       -1.018424 -0.6933854 -1.5788163 0.006853468
0003b0 d3 c1 0a bf dd e3 82 3e 52 8d 70 bd 7a 05 cb 3f
       -0.54202 0.2556447 -0.058728524 1.5861046
0003c0 8a 3c b9 3d 0a 7e d8 bf 11 11 f2 3e a9 fb 6d 3e
       0.0904475 -1.6913464 0.47278646 0.23240532
0003d0 a3 89 9b bf 8c 49 bd be d5 76 15 be 9b 54 6d 3f
       -1.2151378 -0.36970174 -0.14596112 0.9270722
0003e0 50 0d ab be d0 2e c8 3e 08 99 28 bf 70 ef 64 be
       -0.33408594 0.39098215 -0.6585851 -0.22356963
0003f0 0c 73 0c 3f c3 36 e6 3e dd 92 82 3f 3e 5b ba 3e
       0.5486305 0.44963655 1.0201069 0.36397737

convs.1.fc_full.bias f4 [128]
000000 41 1b 59 3d 1a ba 8f 3c 2b ee b9 3d 0a bc 04 bd
       0.053004507 0.017544795 0.0907863 -0.03240589
000010 4b 25 73 bc e7 e5 65 3b 20 da 46 bd dd 53 98 3d
       -0.014840434 0.003507966 -0.048547864 0.07437871
000020 2c ca 14 bd 57 2e 48 bd 8f bc 07 bd a2 e7 8b 3d
       -0.03632562 -0.048872318 -0.033138808 0.0683129
000030 5d 49 32 bd fe 39 55 3d cf ad e0 bc 06 df 63 3d
       -0.043526996 0.05205726 -0.027426628 0.055632614
000040 06 6a 6a bc 1a e2 c8 3b 5d 71 09 bd b1 51 2b 3b
       -0.0143075045 0.006130469 -0.033555377 0.0026141221
000050 12 ae 0e bd b4 fe bd 3c e4 24 07 bd 8d 9e 9d 3d
       -0.034833975 0.023192741 -0.032994166 0.07696257
000060 28 01 90 bd ef 41 cc bd de 0f e2 3b e3 6a bd bc
       -0.070314705 -0.09973513 0.006898864 -0.023122257
000070 39 8a 76 ba 48 67 4b bd 2e b6 1f bd 31 81 09 bd
       -0.0009404752 -0.049659044 -0.0389921 -0.033570472
000080 75 b2 17 bd 6d c8 b3 3d f5 db 3f 3d b4 9e 84 bd
       -0.037035424 0.087784626 0.046840627 -0.06475583
000090 cc ae 51 3c a7 7d 51 bd c3 35 ee bc 4b 23 b4 3d
       0.0127980225 -0.051145222 -0.02907837 0.08795794
0000a0 5c 52 10 3d 06 4c 4c 3d 43 3b b6 3d a6 21 7b bd
       0.035234794 0.04987719 0.08898022 -0.061311387
0000b0 6b 80 73 3d 8d bf d4 bc 07 e3 23 bd be 8e 07 3d
       0.05944864 -0.025970245 -0.040011432 0.033095114
0000c0 c4 03 c1 bc 40 39 3d bd d2 f9 93 3d f5 63 97 bd
       -0.023561366 -0.046197176 0.07225384 -0.07392112
0000d0 4c b4 83 3c 36 28 98 3d 61 65 9d bd a6 b5 7a bd
       0.016077183 0.07429545 -0.07685352 -0.06120839
0000e0 61 21 b8 bd 99 2e 07 bd cd d4 83 3c 8a 39 e7 bc
       -0.089907415 -0.033003423 0.016092682 -0.028225679
0000f0 96 b0 4d bc 32 e9 14 3d 11 4e 7e bd 01 42 86 3c
       -0.012554308 0.036355205 -0.06208617 0.016388895
000100 49 07 3b bd 23 15 2c bd 14 1d a5 3d 2c 46 90 bd
       -0.045661245 -0.042012345 0.08062187 -0.07044634
000110 7b 3a a6 3c 3f b3 52 3d 1b df 5f 3b 1e e5 74 bd
       0.020291558 0.051440474 0.003416008 -0.059788816
000120 62 76 c6 3c c6 c9 ef bc 46 85 24 bd 43 d7 87 bd
       0.024226371 -0.029271018 -0.040166162 -0.06632855
000130 6e 9b 79 3c 6b 88 2a 3d 0c 34 02 bd 26 4f ce 3a
       0.015234811 0.041634005 -0.031787917 0.0015740141
000140 9b 58 34 bc 0d 82 47 bd 7b e3 17 bd 3b 8d 93 bc
       -0.011007453 -0.04870801 -0.037082177 -0.01801168
000150 03 14 b0 bd 25 cd b3 bc d5 ef b0 bc ff 2b 2f 3d
       -0.08597567 -0.021948406 -0.021598736 0.042766567
000160 ff 37 96 3b 92 32 d8 3c 59 1e 68 3d a0 95 0f bd
       0.004584312 0.026391301 0.056669567 -0.035054803
000170 51 e7 cc bc f5 51 c6 bc a2 3b 57 bc 6c e9 83 bd
       -0.025012644 -0.024209002 -0.013136776 -0.06441006
000180 3c c7 bb 3c 3c b4 92 3d 9c 43 ee 3c d5 6f a4 bd
       0.02292215 0.07163283 0.029084973 -0.08029143
000190 7b 0d da 3b 88 a2 83 3d 08 2c 0b bc 12 0a 8d bd
       0.006654439 0.06427485 -0.008494385 -0.068866864
0001a0 c8 02 5b bd 2e 57 9b 3d 39 a0 85 bd ad 10 95 3d
       -0.05346945 0.075849876 -0.06524701 0.07278571
0001b0 6b 75 c8 3c f0 f0 1d 3d 12 8d 73 3d 66 7e a4 3d
       0.024470052 0.038559854 0.059460707 0.08031921
0001c0 6a f1 60 ba 8e 0a 21 3b cc 2c 6e 3d 16 89 55 3d
       -0.00085808954 0.0024572941 0.05814819 0.05213269
0001d0 e9 e0 0f bd f3 39 de 3c cf 8e 5a bd 0f 7d 21 bd
       -0.0351266 0.027127242 -0.05335885 -0.039425906
0001e0 3d d7 59 bc 1d 9a 9d 3d 3d e7 12 3c 4b 51 9a 3c
       -0.013295946 0.076954104 0.008966264 0.018837592
0001f0 29 2c 04 3d 45 6e 49 3d 52 54 9e 3d bc 4b a6 bd
       0.032268677 0.049177427 0.077309266 -0.08119914
