results/Prediction/2023-06-21/19:40:55.651808/models/model257.pth (torch, 528997 bytes, 54 tensors)

embedding.weight f4 [64, 92]
000000 c8 93 3d 3c d8 93 49 c0 e9 29 2f 3c b1 ed 74 bd
       0.011570878 -3.1496487 0.0106911445 -0.059796993
000010 16 e6 59 bd 77 fa 58 3c fd 02 97 bd 42 9d 80 bd
       -0.053197943 0.013243309 -0.07373617 -0.062799945
000020 d1 fe 87 3a 8a ac 8d 3d 01 26 c8 3d 29 26 5c bc
       0.0010375624 0.06917675 0.09772874 -0.013436832
000030 ca 6e 99 3d 46 21 c1 bd 1c c5 5e 3f 69 f5 dc 3f
       0.074918345 -0.094301745 0.87019515 1.7262393
000040 08 68 67 c0 9d 99 30 3f c4 63 7a 3d 7a 59 44 c0
       -3.6157246 0.68984395 0.0611303 -3.0679612
000050 34 dc 52 c0 9d 35 fd 3e 7c 6f a1 bd b5 62 9c 3d
       -3.2946901 0.49454966 -0.07882592 0.07636014
000060 25 a6 2b bd 28 b9 4b bd e5 7d 8e bd 8d 6b 65 bd
       -0.041906495 -0.049737126 -0.06957606 -0.05601077
000070 b6 94 b4 bd f1 f0 3c be 23 96 47 c0 40 b9 78 3f
       -0.08817427 -0.18451287 -3.1185386 0.9715767
000080 e0 c8 b1 bd ff 75 d6 3f b0 ec 80 c0 eb e3 0a 3f
       -0.08680892 1.675476 -4.0288925 0.54254025
000090 db c8 46 c0 9e 2a 73 c0 64 f4 24 be 53 a9 5b 3f
       -3.1060092 -3.7994761 -0.16108853 0.85805243
0000a0 66 8c 46 be d6 8f c2 3c d4 94 dc 3c d2 0e c3 3b
       -0.19389495 0.023750227 0.026926436 0.0059526945
0000b0 eb 9b 8f 3d f0 b7 9c bd 8b 5b 3e c0 30 47 99 3d
       0.07012161 -0.07652271 -2.9743373 0.07484281
0000c0 5f c3 d9 bb 8b f3 46 3f 29 2e dc 3f 3b e0 6e c0
       -0.0066456045 0.7771537 1.7201587 -3.732436
0000d0 89 b4 09 3f 36 a3 bb 3d 49 ed 70 3d f5 44 ad bd
       0.537911 0.091619894 0.058820043 -0.08460418
0000e0 b8 ca 46 bd d3 29 29 bd 33 39 6e bd 9f 1c 22 bd
       -0.04853317 -0.041299652 -0.05816002 -0.039578076
0000f0 12 db cd bc 07 db 01 be 9f 55 85 3d de f0 79 3f
       -0.025128875 -0.12681209 0.065104716 0.9763316
000100 58 a3 89 bf 68 94 1b 3f 04 af b0 3d 81 fe 98 3d
       -1.0752974 0.60773325 0.086271316 0.07470418
000110 1d 0e b3 3d f4 4a 14 bd 56 87 ce 3f 54 93 96 bc
       0.08742926 -0.036204293 1.6135051 -0.018380798
000120 36 22 aa bd 5c 2b 4a c0 4c e0 32 bd a4 26 3e 3f
       -0.083073065 -3.1588964 -0.043670937 0.7427771
000130 61 35 99 bd 63 86 0c 3f 82 c2 3f c0 9f 82 64 c0
       -0.07480884 0.5489256 -2.9962468 -3.5704725
000140 10 60 43 bd c2 3a 83 3d 61 ea 8b 3f f4 19 99 bd
       -0.047699034 0.064076915 1.0930902 -0.07475653
000150 91 8d 19 3d 25 8e 6d be 8f 03 2c c0 de e2 b4 bd
       0.037488524 -0.23198755 -2.6877172 -0.08832334
000160 60 19 16 3d f6 b7 d0 bd 0a 73 05 bd c0 df 5f bc
       0.036645293 -0.10191338 -0.032580413 -0.013664186
000170 ec 76 7d bc 40 3e 47 bf 3b 12 d7 3b 1f 9c 4c bc
       -0.015470248 -0.7782936 0.0065634525 -0.012488394
000180 eb cb 2d 3c 74 b0 e2 bc 97 45 af bc 21 9d a7 3d
       0.0106077 -0.02767203 -0.021395488 0.08184267
000190 c6 e1 d0 bd 29 c9 c4 bd be cc 73 3d 0c 5b 9f 3d
       -0.10199313 -0.09608681 0.05952143 0.07781038
0001a0 17 a8 cf 3d 70 bd d5 bc d9 91 d2 bf cf 12 1a bf
       0.101394825 -0.026091307 -1.6450759 -0.6018495
0001b0 67 c8 b6 be f8 ac c6 3f 20 53 6c 3d cf e7 6d bf
       -0.3569977 1.5521536 0.05769646 -0.92931837
0001c0 54 1e b0 bf 8c 49 9c 3f f0 a1 00 3d 57 9e b3 bd
       -1.3759255 1.2209945 0.031404436 -0.08770435
0001d0 c0 19 4c bb 49 97 ec bc 6d 9c 6e bd 0d ae 5a bd
       -0.0031143278 -0.028880732 -0.058254648 -0.053388644
0001e0 93 ff 3b 3c 5c d5 17 c0 b8 00 4e bf b2 63 bd bf
       0.011474508 -2.3723974 -0.80469847 -1.479605
0001f0 2e 87 a9 3d 7d 6b 16 bf e7 af b5 bf 69 28 c7 3f
       0.082777366 -0.58757764 -1.4194306 1.5559207
000200 d1 14 4e bf 7c 69 0f bd 61 47 b8 bf e5 80 3c 40
       -0.80500513 -0.035012707 -1.4396783 2.945367
000210 5a b5 11 c0 e5 7b 07 3d dd 20 27 3d a2 02 f9 3c
       -2.2766938 0.03307714 0.040802825 0.030396763
000220 25 2d ea 3a d2 bd 8d bd 50 06 61 bf cc 51 86 bc
       0.0017866237 -0.06920971 -0.8790026 -0.016396426
000230 61 4c 62 3d 93 4b c8 bf e1 aa 32 bf 82 19 c1 be
       0.05524862 -1.5648063 -0.6979199 -0.37714773
000240 95 66 d2 3f 6a 64 bf bd c4 d1 d2 bd 5d 52 21 bb
       1.6437556 -0.09345324 -0.10293916 -0.0024615743
000250 03 26 b2 3d 9d 3f 91 bd ef 00 a0 3c b3 22 23 3d
       0.086986564 -0.070922114 0.019531695 0.039828014
000260 13 39 da bc 39 67 19 c0 5b 1e a4 bd 42 98 a3 bf
       -0.026638543 -2.3969252 -0.08013602 -1.278084
000270 8d ef da bf 19 f9 d2 3f 24 26 57 3d 57 85 82 3d
       -1.7104355 1.6482269 0.052526608 0.06373089
000280 b8 22 bf bb fc 45 0c bd 0d 4c 33 bf 28 89 43 3d
       -0.005832996 -0.03424643 -0.7003792 0.047738224
000290 bf cc 50 3d 8e 7f 5d bf 31 a6 c8 bf 6b b2 35 40
       0.05097651 -0.8652276 -1.5675718 2.8390148
0002a0 76 64 74 bd d9 40 d2 3f 4e ab 66 bf 23 21 34 c0
       -0.05966612 1.642604 -0.9010514 -2.8145225
0002b0 4f 8e db 3a d1 2f 08 3c 66 7b b5 bf 8f 87 81 bd
       0.0016750785 0.008312182 -1.4178283 -0.06324684
0002c0 3d 35 93 3d 6b 8a 16 c0 56 f0 00 c0 b2 7f c0 3d
       0.07187889 -2.3521984 -2.014669 0.09399356
0002d0 3a 33 bc 3d 93 eb 92 bd d9 70 cd 3d 9f 40 0d bd
       0.09189458 -0.071738385 0.100312896 -0.034485456
0002e0 b8 85 8f 3d a3 8d d4 bd 84 69 91 bd 0e c1 19 3b
       0.07007927 -0.103785776 -0.07100204 0.0023461017
0002f0 ba cb a5 3d 9f a6 e0 bc c8 26 20 3d 43 f4 3a 3c
       0.080954984 -0.027423201 0.039099485 0.011410776
000300 8f 8c 80 bd 6f 8f f2 3c 89 93 af bd a3 e2 b7 bd
       -0.062768094 0.02960941 -0.08573062 -0.089787744
000310 12 e4 b0 bd d0 44 91 bd 37 e8 31 c0 69 c1 18 40
       -0.08637251 -0.07093203 -2.7797983 2.3868048
000320 83 1c 82 3d 4c 24 3d 40 d4 19 ce 3d 76 9c 68 be
       0.063530944 2.9553404 0.1006352 -0.22715935
000330 48 13 d4 bf 74 56 1c bf 45 21 0b 3d f6 7c cf 3a
       -1.6568384 -0.61069417 0.033967275 0.0015830088
000340 ce bd dd 3c 1e 89 2e 3d 48 44 ae bc 00 ef 1e 3b
       0.027068045 0.042611234 -0.021272793 0.0024251342
000350 a8 9e 01 bd 67 45 9e 3f 49 eb 54 be d8 a3 4a bf
       -0.031645447 1.236493 -0.20792879 -0.79156256
000360 01 ec b4 bc 61 81 12 40 f3 cb d3 3c 18 89 3e 40
       -0.022085192 2.2891467 0.025854087 2.9771175
000370 da d9 cc bd 25 94 eb 3e 95 41 97 3f 94 20 0e 3f
       -0.100024894 0.46011463 1.1816889 0.5551846
000380 f0 cb 95 3f 70 92 18 bd fc 13 4e 3d 8f e6 ac 3d
       1.1702862 -0.03724903 0.050312027 0.08442413
000390 63 30 e6 bc 9c 77 86 bd 0c e0 90 be 8a 8e ae bd
       -0.028099244 -0.065657824 -0.28295934 -0.08523281
0003a0 f5 04 90 3d 36 2c 38 c0 85 dc 10 40 c7 df 86 3d
       0.070321955 -2.8776984 2.2634594 0.06585651
0003b0 e8 8c 3b 40 de 71 a8 bd d1 9a fe 3c 57 11 65 bc
       2.9304752 -0.082248434 0.031079682 -0.013981185
0003c0 2a fa d4 3d ed 81 91 bd 99 59 8f bb 6c 8b 93 bc
       0.103992775 -0.071048595 -0.0043746945 -0.018010817
0003d0 2c fb 22 3d 39 70 9e 3f 55 07 ae bd a9 18 55 bf
       0.039790317 1.2377998 -0.08497492 -0.83240753
0003e0 98 72 a0 be f7 e0 43 40 99 ac d2 3d df 04 62 3d
       -0.31337428 3.0606058 0.10286827 0.055180427
0003f0 bd 79 e0 3c a5 9b 8a bd 6d 38 19 40 d9 f1 5e bd
       0.0274018 -0.06767968 2.394069 -0.054429863

convs.0.fc_full.weight f4 [128, 169]
000000 1f 61 69 c0 29 f3 8d 3e 1a 08 54 bf 7c e6 52 c0
       -3.6465528 0.2772458 -0.8282486 -3.2953176
000010 f5 d0 ae 3d 3a 20 0c 3f 60 24 12 c0 fe 05 2e 3f
       0.08535949 0.54736674 -2.2834702 0.67977893
000020 0f 82 04 bf b4 dd 0a 3e 9e d2 94 be 14 b2 49 c0
       -0.51760954 0.13561136 -0.29066938 -3.151494
000030 10 ac 0a c0 c7 75 95 be 3b fa 34 c0 ff 32 93 bf
       -2.1667519 -0.2919142 -2.8277729 -1.1499938
000040 05 cf 13 bd 8b ba 62 3f 7d 2e cd be 50 26 87 3d
       -0.0360861 0.8856589 -0.4007453 0.065991044
000050 22 59 84 3d 41 c5 06 bf 0b 05 0a c0 0d 42 04 3f
       0.06462313 -0.52644736 -2.1565578 0.51663285
000060 7b e0 f3 be 4d 8c e8 bf 6d 37 96 bf b1 c7 23 be
       -0.47632203 -1.8167816 -1.1735665 -0.15994145
000070 df 6e 55 bf 1e c9 59 3e 99 16 07 c0 1f 05 4f bf
       -0.833723 0.21268126 -2.1107543 -0.8086719
000080 a8 be 55 bf 4e 1a 01 3f f2 53 69 c0 a7 2c 7c bf
       -0.83494043 0.5043076 -3.6457486 -0.98505634
000090 b0 8e e6 be b1 52 03 bf 0a da 14 3f 08 ee ca ba
       -0.45030737 -0.5129805 0.581452 -0.0015482316
0000a0 0c 42 a5 bf 32 c7 70 be 07 9d 25 bf b5 c6 8c be
       -1.2910781 -0.23513487 -0.6469273 -0.2749535
0000b0 9c fe 47 bf 6a 72 44 c0 e5 8a cb bf 98 a6 68 3f
       -0.7812288 -3.0694833 -1.5901762 0.908792
0000c0 4d 70 8f 3f 4f f6 04 c0 5c 0d 18 c0 a1 76 2f c0
       1.1206146 -2.0775335 -2.3758154 -2.7416155
0000d0 6c 36 93 3f 62 d4 3b 3d 5c 9b 2b bf d3 7d 2a 3f
       1.1500983 0.04585684 -0.67033935 0.6659824
0000e0 ba e0 94 3e 6a 0a 5f bf d3 5f 3d c0 cb dd 59 be
       0.29077703 -0.87125266 -2.9589736 -0.21276014
0000f0 73 3a 05 c0 3e 7c 53 bf 18 09 2a c0 be 22 30 c0
       -2.0816925 -0.82611454 -2.656805 -2.7521205
000100 5c 7e c0 c0 38 2f 80 bf 81 c9 78 c0 03 fb a6 c0
       -6.0154247 -1.001441 -3.8872988 -5.218141
000110 71 d8 b1 c0 4e f0 ad 40 35 51 1e c0 10 52 71 40
       -5.557671 5.435584 -2.4737065 3.7706337
000120 d5 ae eb 3f 74 f7 e6 bf 59 0b d2 3f 4b 5e c5 c0
       1.841273 -1.8044267 1.6409713 -6.1677604
000130 bb 8f c3 bf 13 e2 8b 40 e4 3f 9e c0 7f a6 01 c0
       -1.5278238 4.371347 -4.945299 -2.025787
000140 37 8e 49 40 1c fd 8c 40 0f 1c 3d 3f bc a4 e8 3c
       3.149305 4.405897 0.7387094 0.028398864
000150 34 4f 87 40 e2 05 a4 c0 5b 3d bb c0 ef b0 1f 40
       4.2284184 -5.125718 -5.8512397 2.4951742
000160 25 34 97 bf f0 fb d0 bf 52 cc 86 bf c4 ff 08 40
       -1.1812788 -1.6326885 -1.0531104 2.1406107
000170 ae 55 42 be 4d 2b 8e 40 e8 5b 09 c0 63 6a 06 c0
       -0.18977997 4.4427857 -2.1462345 -2.1002433
000180 a7 c5 8c 40 82 8e 87 40 33 63 b7 c0 0d f7 7d c0
       4.3991275 4.236146 -5.7308593 -3.9682038
000190 08 1b 86 c0 b8 ba 6b c0 8c e5 83 40 f7 45 a8 40
       -4.1907997 -3.6832714 4.121771 5.2585406
0001a0 83 98 ad c0 54 c4 b6 3d bb 87 06 40 63 34 56 bf
       -5.424867 0.08924165 2.1020343 -0.83673686
0001b0 24 9d 90 c0 b8 f9 b2 c0 85 e7 ba c0 41 b8 83 c0
       -4.519182 -5.5929832 -5.8407617 -4.116242
0001c0 0f a4 1d 3e 58 56 39 c0 e0 6f 06 c0 59 91 70 c0
       0.15394615 -2.895895 -2.1005783 -3.7588713
0001d0 f6 43 b6 40 d5 40 e3 3e 9b a0 44 40 ce b6 39 40
       5.695796 0.443854 3.0723026 2.9017825
0001e0 cd 9d 4a c0 47 bc 5c 3f 45 32 42 c0 2c 33 0d c0
       -3.1658814 0.8622479 -3.0343182 -2.2062483
0001f0 64 72 18 c0 f2 4d 7f bf 74 16 f3 c0 9b c3 ef c0
       -2.3819818 -0.9972831 -7.596491 -7.4926276
000200 96 1a 93 bd 44 98 43 bd 00 64 4c be f3 db d8 3c
       -0.07182805 -0.047752634 -0.19960022 0.026472067
000210 4d e3 9c 3e 69 67 2e 3f c8 56 e9 3f 33 7e a4 3f
       0.30642167 0.6812654 1.8229609 1.2851013
000220 0c 34 3c bd b1 46 91 3f 8e 9a 82 3e d5 86 b4 bf
       -0.045948073 1.1349698 0.2550854 -1.4103647
000230 72 c8 3f bf f0 4a 79 3e 19 db 2e 3d 30 19 41 3f
       -0.7491523 0.24344993 0.042689417 0.7542906
000240 f8 cd c6 3f 10 c9 1c 3f 06 db ef bd e6 08 25 bf
       1.5531607 0.612443 -0.11711697 -0.644667
000250 a5 52 d8 be 75 d9 15 bf 12 92 9f be cd f1 dd bd
       -0.42250553 -0.5853494 -0.3116613 -0.108371355
000260 c5 63 12 be 6c 64 ae 3d 38 85 63 be f5 95 4c be
       -0.14295872 0.08515248 -0.22218788 -0.19979079
000270 c5 b9 4d 3d f7 d6 a9 bc 70 15 30 be 44 c2 b1 be
       0.05022599 -0.020732386 -0.17195678 -0.34718525
000280 46 b9 99 bd 8f 86 a2 3b 18 c1 26 bd a9 8e c6 3d
       -0.07506041 0.0049598883 -0.040711492 0.09695179
000290 c2 bc ca bc 0e 05 97 3d 5e 6f 1a 3d 83 b8 0e bd
       -0.02474821 0.07374011 0.037703864 -0.034843933
0002a0 92 5d 80 bd 82 c5 62 40 03 08 b0 bf f4 4d d3 3f
       -0.06267847 3.543305 -1.3752445 1.6508164
0002b0 0c fd 9e 3e b8 19 11 40 52 af 0c c0 91 26 9f 3f
       0.31052434 2.2671947 -2.1982007 1.2433645
0002c0 b3 89 9c bf 7e 7a a6 bf 4b 87 9b bf b2 5b 06 be
       -1.2229522 -1.3006132 -1.2150663 -0.13120916
0002d0 09 a1 7a 40 7b 4b d8 3f 32 38 c4 bf 2a 58 1c 40
       3.9160788 1.6898035 -1.532965 2.442881
0002e0 b0 88 b5 3e 80 fb 12 bf dd b9 98 bf af cd d3 be
       0.35455847 -0.5741501 -1.1931721 -0.41367862
0002f0 09 e9 6c 3f c4 04 55 3f 78 90 f7 3f ce 46 8e 3f
       0.92543083 0.83210397 1.9340963 1.1115358
000300 5c e6 0d be 43 93 5d 3f 87 99 46 40 71 a9 00 3f
       -0.13857406 0.8655283 3.1031206 0.5025855
000310 9f 30 9b 3e 01 35 6d 3e 5b fa 94 bf fe 6b 2f 40
       0.30310532 0.2316475 -1.1638902 2.7409663
000320 2e 4d 3d bf 8d df 54 bf 22 1e 93 bf b3 7b 79 40
       -0.7394589 -0.8315361 -1.1493571 3.898175
000330 94 c1 d6 be e2 04 e3 3e 9b b4 f3 bd f4 b8 ec bf
       -0.41944563 0.44339663 -0.11899682 -1.8493943
000340 9e 83 69 3d 82 e1 8b 3f 62 67 2b bd c8 fc 8e bf
       0.057010286 1.0928195 -0.04184664 -1.1170893
000350 be d4 9c 3e e5 b7 d5 3e bf 28 51 40 ae 71 d8 3f
       0.3063106 0.41741863 3.268112 1.6909692
000360 69 ae 54 bf a0 ff 58 bf aa f7 06 40 94 db 21 40
       -0.8307863 -0.8476505 2.1088662 2.529027
000370 cc a3 f0 3e 47 31 04 c0 26 bf 13 c0 7d e3 98 bf
       0.46999967 -2.0655077 -2.3085418 -1.1944424
000380 67 a9 bc bf d3 28 6b bc 0d 7d b6 be 7e 02 1a 40
       -1.4739197 -0.014352995 -0.3564228 2.406402
000390 f6 19 ef 3d 4f ee 30 40 05 2c d1 be 28 3d 44 40
       0.116748735 2.7645452 -0.40853897 3.0662327
0003a0 19 8b cb 3f 54 5a 86 be c7 17 29 bf e5 83 73 40
       1.5901824 -0.2624079 -0.66051906 3.8049252
0003b0 7a 19 b6 3e e0 e1 5a 3f d2 5e 9b 3f fb 9c 8a bf
       0.35566312 0.8550091 1.2138312 -1.0829157
0003c0 01 91 c8 3f f1 f5 e7 3f 30 fc c6 bf 26 22 8c 40
       1.5669252 1.812193 -1.5545712 4.3791685
0003d0 61 94 a2 3e d9 88 ff 3d a1 3f 33 40 00 97 21 3e
       0.3175383 0.124772735 2.8007586 0.15780258
0003e0 c4 41 99 40 24 31 0a 3f c5 01 06 40 56 f8 a7 bf
       4.789278 0.5398123 2.093858 -1.3122661
0003f0 18 58 27 c0 db d4 2e c0 16 a9 c2 bf 09 26 6c bf
       -2.6147518 -2.7317417 -1.5207851 -0.9224554

convs.0.fc_full.bias f4 [128]
000000 25 24 9c bd 50 f0 1a 3d 73 c4 02 be 18 32 bc bd
       -0.076240815 0.037826836 -0.12770252 -0.09189242
000010 a5 87 dc 3c bc f7 a2 bd de de 19 3b 03 8f 8f bc
       0.02692015 -0.07957408 0.0023478786 -0.017524248
000020 89 ad 84 bd 5d 01 3e 3d 4e 71 78 3d 57 39 a2 bd
       -0.06478412 0.04638802 0.06065493 -0.07921093
000030 c1 35 dd 3c 4d 7d ef 3d 1d ea bd bd 13 b6 f2 bc
       0.02700317 0.11693821 -0.09273169 -0.029627835
000040 bb 99 0c ba 8e 2e 6b 3d b3 bf aa bc 5b b1 f0 3d
       -0.0005363484 0.057417445 -0.020843362 0.11752578
000050 79 d2 89 3d 72 91 4e 3d 7f e7 dd 3d 58 f2 ee ba
       0.067295976 0.050431676 0.1083517 -0.0018230183
000060 cb 15 35 bd 96 7e 91 3c d3 28 dd 3d c6 cf db 3c
       -0.044210237 0.017760556 0.10798802 0.026832473
000070 37 30 af bc 17 b4 f8 3d f0 83 73 bd a5 f0 2d bd
       -0.021385295 0.121437244 -0.059451997 -0.042465825
000080 74 ae 08 bd 7b d5 7b bd 5d f3 06 bc 2d 4b 0f 3d
       -0.033369496 -0.061482888 -0.008236733 0.034983803
000090 ec af c9 bd 4c 6f 24 3e d6 b0 27 bd ef 05 d2 3c
       -0.098480076 0.16058081 -0.04094013 0.025637595
0000a0 5a 87 02 3d 63 3b 87 bd 0e 11 0d bd 3b aa e7 3d
       0.031867363 -0.06603124 -0.034440093 0.11311766
0000b0 89 4a c3 bc 6f ca 77 bb bc 55 80 bd a3 50 b0 3d
       -0.023839252 -0.0037809869 -0.062663525 0.0860913
0000c0 37 c2 12 3d 9a 7b 00 3e 0d 6a 89 3d 9a 03 0b bd
       0.03582975 0.1254715 0.06709681 -0.03393898
0000d0 4d ee 40 3d 3d 80 9f bd 7a 63 58 bd 69 26 89 bd
       0.04710226 -0.077881314 -0.052829243 -0.06696779
0000e0 68 18 20 3d e0 11 60 3d 62 59 8f 3d a0 c6 ee 3c
       0.039085776 0.054704547 0.0699947 0.029147446
0000f0 76 7a a6 bc b3 ba d1 ba 18 e3 a2 3c 00 a2 8b bd
       -0.020322066 -0.0016001075 0.019883677 -0.068180084
000100 c9 a6 b4 bd ea 58 48 bc 28 4d 1c bd 7a 96 d6 3c
       -0.08820874 -0.01222823 -0.03815952 0.0261948
000110 41 d4 3e bd c8 71 36 3d e0 fc 12 3d 14 08 e1 bd
       -0.04658914 0.044542104 0.03588569 -0.10987869
000120 e4 6d 84 3c d1 ef f0 bb 95 cc 12 3d 46 e7 20 3d
       0.016165681 -0.007352807 0.035839636 0.03928306
000130 e2 5a 25 bd 8c 0a 7e bc 9d 67 44 bd d6 39 69 bd
       -0.040369876 -0.015505444 -0.047950376 -0.056939922
000140 c0 13 be 3c 49 ad 0b 3d 88 70 87 3a c0 89 e2 3c
       0.023202777 0.034100804 0.001033322 0.027653575
000150 c7 c4 95 3d 81 1d 67 3b 8f 60 a4 bd 5d ab 4d 3d
       0.07312923 0.0035265388 -0.080262296 0.050212253
000160 ef 20 85 bd dc 65 49 3d a3 97 8d 3d f4 19 8b bd
       -0.06500422 0.049169406 0.06913688 -0.067920595
000170 b4 63 fb 3d 6c 05 7e bc 6f 4d b1 3d 36 ba 96 bd
       0.12274876 -0.015504222 0.086573474 -0.07359736
000180 16 0b 1b 3d 0b e5 fb bb 7f 12 9f bc 28 24 31 3d
       0.03785237 -0.007687216 -0.019418 0.043247372
000190 27 d7 63 3d 91 02 9a 3d 48 78 05 bc f7 81 d0 3d
       0.055625107 0.07520021 -0.008146353 0.10181039
0001a0 8c 12 19 bd 39 75 42 bd 17 5a 1a 3e 8e 2b 08 3d
       -0.037371203 -0.047475073 0.15073429 0.033244662
0001b0 d0 99 69 bd a4 35 a5 3c 14 df 10 3e ae 73 1c bd
       -0.057031453 0.02016718 0.14147598 -0.03819626
0001c0 28 2a 0e bc 2c 15 89 3d 9a 61 05 bd e5 f6 31 bd
       -0.008677043 0.06693491 -0.032563783 -0.043448348
0001d0 08 b1 64 3d 72 ac ad 3c 32 5f d1 3d cb 52 df 3c
       0.055832893 0.021200392 0.10223235 0.027261158
0001e0 0f 36 fb bd 16 e6 56 3c 1f 88 cd 3d a9 76 10 bd
       -0.1226617 0.01311638 0.10035729 -0.035269413
0001f0 08 fa 86 3d a1 80 11 3b 88 d7 2c 3c 8d 41 bf bc
       0.065906584 0.0022201913 0.0105494335 -0.023346687

convs.0.bn1.weight f4 [128]
000000 65 24 51 41 98 61 92 3f 4b c2 0d 40 27 d2 86 40
       13.071385 1.1436033 2.2149837 4.2131534
000010 2e f6 e0 3f 54 dc 98 3e d2 0e 67 3f fe d6 82 3e
       1.7575128 0.29855597 0.9025699 0.2555465
000020 63 e5 21 40 46 9a 15 3d 4d b4 a8 bf 9c ea f2 40
       2.5296257 0.03652408 -1.3180023 7.591139
000030 96 61 73 40 9c 71 c5 3e 21 23 05 41 87 fb 18 3f
       3.8028312 0.3856324 8.321076 0.597588
000040 e3 75 9e 3f 82 03 e5 40 bb 0c 8a be dc 29 cd 3f
       1.2379726 7.156678 -0.26962838 1.60284
000050 3e b9 d1 3e 87 64 17 41 ea b8 06 41 0d 3d 0b 3f
       0.4096164 9.462043 8.420145 0.5439003
000060 52 e4 a1 3f ac fa a1 3f ba 1b 86 40 40 cb a3 be
       1.2647803 1.2654624 4.1908846 -0.31991005
000070 8e 7e 08 40 ca a7 f2 40 f2 ac f8 40 f3 be 95 3d
       2.1327243 7.582982 7.7711115 0.07311811
000080 dd 23 50 40 4c 5c 23 3f 28 c7 1f 40 0a 23 89 40
       3.252189 0.6381271 2.4965305 4.285527
000090 5d 54 00 40 68 95 e1 3f f8 66 fa bd 85 b8 2f 3f
       2.0051491 1.762372 -0.12226671 0.6864093
0000a0 3b c6 e0 3e 0e 7d 88 41 6c c3 4d 41 c3 1a 6f 3f
       0.43901238 17.061062 12.86021 0.9340021
0000b0 d3 c5 d2 3f 18 b5 f2 40 35 84 88 3e 12 cb 0f bf
       1.6466621 7.584606 0.26663366 -0.56169236
0000c0 f8 8c 0a 41 ba 42 84 3f 5b 1e 1a 41 51 9d d5 3d
       8.659416 1.0332863 9.632411 0.10430396
0000d0 b7 61 2f 40 44 d4 e2 40 b0 fb ba 3e ef 13 db 40
       2.740339 7.0884113 0.36520147 6.8461833
0000e0 be 3c 20 be 6b a3 40 3e ea ca 08 41 d4 6f 7c 40
       -0.15648171 0.18812339 8.54954 3.9443254
0000f0 0f 62 ab 40 73 2f da 40 c8 3f 53 3e bc 1a 66 3f
       5.35572 6.818292 0.206298 0.89884543
000100 e6 e3 ff 3f 38 8e bb bf 9e e8 61 40 df 77 3c 40
       1.9991424 -1.4652777 3.5298228 2.9448164
000110 40 0e 64 40 bf 76 bc 40 31 55 53 40 14 92 9a 3e
       3.5633698 5.8894954 3.3020747 0.30189574
000120 c0 22 f3 3e 3b 48 74 40 c7 a5 34 40 88 26 26 41
       0.4748745 3.8169086 2.8226182 10.384407
000130 ad 98 c8 40 15 e6 ec be 50 61 2b 3f 78 2f 40 3f
       6.268637 -0.4626929 0.6694536 0.7507243
000140 2a 24 32 3d b8 0c 9e 40 7f 05 a6 3e b7 4f ee 3f
       0.04349152 4.9390526 0.32426068 1.8618077
000150 67 6a 7a 40 7c c8 f3 40 9d 65 3d 40 19 f2 2f 40
       3.9127443 7.618223 2.959327 2.7491515
000160 41 05 88 bf 38 ce 87 3f 9d e0 c6 bf 70 fd 90 bf
       -1.0626603 1.0609808 -1.5537297 -1.1327343
000170 9b 3b 2e 40 33 84 c6 40 99 fe cc 40 2d e5 50 bf
       2.722388 6.2036376 6.406079 -0.81599694
000180 54 ad 06 40 24 6b 9d 3f 2e 1c 95 40 78 82 94 40
       2.104329 1.2298322 4.65969 4.6409264
000190 04 c8 5c bf c1 27 22 40 07 63 05 bf 52 cd b6 3e
       -0.862427 2.5336764 -0.5210423 0.35703522
0001a0 33 fb 07 40 b3 81 25 c0 c4 f7 90 40 af 48 13 40
       2.124707 -2.5860412 4.530245 2.3013113
0001b0 8d 87 51 40 ba 04 1e 41 cc 56 00 40 99 81 63 bf
       3.2738984 9.876154 2.0052977 -0.88869625
0001c0 de db 19 40 b5 96 19 40 01 54 5d 3f b8 db 88 3f
       2.4040446 2.3998234 0.86456305 1.0692053
0001d0 99 3a 0b 40 54 71 04 3f 43 ec 89 3f 99 de 93 bf
       2.1754515 0.51735425 1.0775226 -1.1552306
0001e0 76 47 4c 3e fa ca 1c 3f 3f 26 84 be 43 b9 9b bf
       0.19949135 0.6124722 -0.2581043 -1.2165912
0001f0 cc 59 bc 40 8e 8c ab 3f cb 54 af 40 64 81 4f 40
       5.8859615 1.3402269 5.4791007 3.2422724

convs.0.bn1.bias f4 [128]
000000 52 dd ee be b8 0c 5a 40 5d a7 5e c0 01 b7 e9 c0
       -0.4665323 3.4070263 -3.478965 -7.3035893
000010 ca 4f 97 bf 69 0d 4b 40 d8 2d 1c 3f f1 8a f4 40
       -1.1821225 3.1726935 0.6100745 7.6419606
000020 b5 a7 22 40 29 dc 19 41 e2 b1 f6 40 fa 14 1b c0
       2.541486 9.61625 7.709214 -2.4231553
000030 23 33 14 c0 6c ca f8 40 39 37 10 c0 6b 75 9a 40
       -2.3156211 7.7747097 -2.2533705 4.8268332
000040 4b f4 76 c0 8f 8c 19 c0 39 23 58 be c2 79 a3 40
       -3.8586605 -2.399204 -0.21107186 5.108613
000050 cf e6 c4 40 01 4a f1 bd 9b c5 70 3f fb 38 b1 3f
       6.153175 -0.11781693 0.9405152 1.3845514
000060 a0 14 9f bf 84 85 8d 40 97 47 03 40 e1 5a 71 40
       -1.2428169 4.4225483 2.0512445 3.7711718
000070 4c 26 94 3f ae cd ca bf 9f 3e ee 3e 98 9c 6a 3e
       1.1574187 -1.5844018 0.4653215 0.22911298
000080 2f 59 f1 be 12 cb 10 40 d7 9b 26 3f c8 fb 53 c0
       -0.47138354 2.2623944 0.6508154 -3.3122425
000090 b6 e7 ca 3f cd 61 0e bf 15 a7 ff 40 f5 de 61 40
       1.5851963 -0.5561798 7.9891458 3.5292332
0000a0 55 5a 86 40 92 95 46 40 41 35 ca be 65 57 03 bf
       4.198527 3.102879 -0.39493755 -0.5130523
0000b0 89 2a ab 3f 06 6a c5 3f 97 67 a1 bf 69 3b 0f bf
       1.3372356 1.5422981 -1.2609738 -0.5595003
0000c0 88 20 07 c0 65 59 5d bf 77 69 1d c0 66 c0 39 40
       -2.1113605 -0.8646453 -2.459562 2.902368
0000d0 2b d0 d6 3f 07 3e b0 be fd ee 7d bd d2 a1 1a 3f
       1.6782278 -0.34422323 -0.061995495 0.6040317
0000e0 ee 25 22 41 cc b4 06 41 36 3b 46 c0 fa 7a 8a 3f
       10.13426 8.41914 -3.097364 1.081878
0000f0 cd 7d 16 40 ea 28 a2 3f 65 19 63 40 8b 8e 29 40
       2.3514283 1.2668736 3.548425 2.6493251
000100 a8 62 8b 40 88 9c e9 3f 99 8c 9c c0 a0 25 a0 c0
       4.355793 1.8250895 -4.892163 -5.004593
000110 56 86 d7 bf 80 54 e5 3e e3 ca b0 bf 4b d1 bc 40
       -1.6837871 0.4479103 -1.3811916 5.9005485
000120 1a fa 13 41 9a 95 e3 bf c6 3a 93 bf c1 bf 42 3d
       9.24856 -1.778003 -1.1502311 0.047546152
000130 4e 4d 79 c0 09 45 ae 40 52 68 7a 41 ae af 6e 40
       -3.8953433 5.445927 15.650469 3.7294726
000140 6a 5d 8c 40 d5 a2 9d c0 bc 02 26 41 6f 70 87 bc
       4.386403 -4.926127 10.375668 -0.016533105
000150 ec 3f a0 3e ca 03 7f bc 4c a8 63 be 45 a1 00 c0
       0.3129877 -0.015564868 -0.22232169 -2.009843
000160 bb 36 83 40 04 78 c2 40 82 87 86 40 06 19 5c 40
       4.100431 6.0771503 4.2040415 3.4390273
000170 7e 5a 2c c0 08 1d ae c0 cb 04 b0 bf 9f b0 33 41
       -2.6930232 -5.441044 -1.3751463 11.23062
000180 14 af 95 bf f7 38 f3 40 ed 82 fc bf 40 c2 03 c0
       -1.1694055 7.6007037 -1.9727455 -2.058731
000190 86 42 2c 40 af 52 68 bf db 8b f5 40 af 3f 0d 40
       2.6915603 -0.90751165 7.673322 2.207012
0001a0 e1 56 d6 be 95 be 21 41 18 e3 66 40 d5 28 56 bf
       -0.41863158 10.109029 3.6076107 -0.83656055
0001b0 20 6d b4 be c8 20 61 bf 43 aa 32 c0 81 14 9d 40
       -0.35239506 -0.87940645 -2.791642 4.908753
0001c0 cd 48 8d 40 0e c6 22 bf d8 09 af 40 19 f1 72 40
       4.415137 -0.6358346 5.4699516 3.7959654
0001d0 f4 71 dc bf 7d 09 7d 40 db 20 d8 be 19 0f c4 40
       -1.7222276 3.953704 -0.42212567 6.126843
0001e0 95 21 98 40 34 84 a1 40 07 e4 92 41 f7 5f 36 40
       4.7540994 5.047388 18.361341 2.8496072
0001f0 a4 dc d6 3f 6f aa e5 40 35 1a 8d be b8 67 8d 3d
       1.6786084 7.177055 -0.27559057 0.069045484

convs.0.bn1.running_mean f4 [128]
000000 7d ed 38 44 20 22 a3 c4 7a 39 a7 44 cf 07 94 44
       739.71075 -1305.0664 1337.7961 1184.244
000010 00 2b d7 c2 b6 e7 0a c5 c1 d1 80 c3 e4 7e c0 c3
       -107.583984 -2222.482 -257.6387 -384.99133
000020 3e 42 2a c4 e7 b5 9b c3 4e a4 9b c4 a3 3a 15 c4
       -681.03503 -311.4211 -1245.1345 -596.9162
000030 36 ff df c4 7f 1b 14 44 a1 3a 92 44 45 df 1c 44
       -1791.9753 592.4296 1169.8322 627.4886
000040 9d 61 5d 43 db c5 aa c4 b3 03 03 c3 c3 a3 28 c4
       221.3813 -1366.183 -131.01445 -674.5588
000050 b4 56 f9 c2 56 ab 13 c5 ca ac 8c 44 65 82 f4 43
       -124.66934 -2362.7085 1125.3997 489.0187
000060 6a 7a 85 43 57 c5 7b c1 37 b0 98 43 56 be e8 43
       266.95636 -15.735679 305.37668 465.487
000070 ef 7c 2f c4 56 61 a9 c2 0c 51 a6 c3 e1 99 ab c4
       -701.9521 -84.69011 -332.63318 -1372.8087
000080 e6 37 10 42 9d e4 99 44 54 32 e3 44 89 fe 16 44
       36.05459 1231.1442 1817.5728 603.9771
000090 9c 58 13 44 a7 fc 6c 44 62 22 81 44 5a 1a c7 c2
       589.3845 947.9477 1033.0745 -99.55147
0000a0 d3 2f 9c 43 b5 68 fe 44 84 87 96 c4 54 4d c9 42
       312.37363 2035.2721 -1204.2349 100.65103
0000b0 e9 fb be 43 e2 82 2f 42 78 db 63 44 9b 1d 56 44
       381.96805 43.877815 911.4292 856.4626
0000c0 4f 33 fe c3 82 3c a5 43 06 a9 22 44 cb 91 36 44
       -508.40085 330.47272 650.641 730.278
0000d0 df 89 86 43 ce c2 83 c4 a1 f8 14 44 f1 b4 43 c4
       269.07712 -1054.0876 595.8848 -782.8272
0000e0 ae 8e c7 c3 66 9f b5 43 48 ed 95 c3 f9 f6 bf 42
       -399.1147 363.2453 -299.85376 95.98237
0000f0 4f 68 3a c4 aa ea 67 44 7e ac 05 c4 2e 2c 9b 44
       -745.6298 927.6666 -534.6952 1241.3806
000100 88 17 23 c3 67 b3 f1 c4 0b f4 bf 44 a4 a8 72 44
       -163.09192 -1933.6063 1535.6263 970.635
000110 9f e8 7e c3 f3 32 0e c5 b9 aa 00 c3 38 45 a4 c4
       -254.90868 -2275.1843 -128.66689 -1314.1631
000120 97 28 6d 43 40 2e 6e 43 25 06 0b 44 e5 6f 7d c4
       237.15855 238.18066 556.096 -1013.74835
000130 46 40 cf 43 02 f5 b3 c3 d7 57 22 c5 85 d6 a2 44
       414.50214 -359.91412 -2597.49 1302.7037
000140 b8 48 78 43 33 e2 e7 c4 80 95 4c 44 d3 43 87 c4
       248.28406 -1855.0687 818.33594 -1082.1195
000150 16 02 01 c4 7a c2 94 44 13 af 70 c3 01 7f db 44
       -516.0326 1190.0774 -240.68388 1755.9689
000160 b7 ee 17 c2 a1 b4 b6 c4 5b 24 34 44 f5 5d 0e 44
       -37.98312 -1461.6447 720.56805 569.4681
000170 81 78 21 c3 1b 7d 6f 44 70 38 7e c4 dd ad 6b c3
       -161.47072 957.9548 -1016.88184 -235.67915
000180 ef 1b 6c 44 86 32 cf 43 d3 eb dd 44 f1 48 33 44
       944.43646 414.3947 1775.3695 717.1397
000190 75 e3 25 43 a2 c7 66 44 df 10 3a 44 b7 2f 00 c1
       165.8885 923.11926 744.2636 -8.011649
0001a0 27 49 9e 42 7f aa 4b 45 a9 04 bc c4 99 70 f0 42
       79.142876 3258.656 -1504.1456 120.21992
0001b0 8b 06 b2 43 42 18 bf 44 0a fd a8 44 5e 97 5d 44
       356.05112 1528.758 1351.9075 886.3651
0001c0 67 36 2e c3 65 87 cc 43 7e ad 7d c4 2d 03 39 44
       -174.21251 409.05777 -1014.7108 740.0496
0001d0 ba 02 dc 44 8a 39 74 c4 d8 ea af 44 49 6c 01 44
       1760.0852 -976.89905 1407.3389 517.69196
0001e0 77 f9 92 c3 98 72 99 44 09 08 3c c5 b8 ee 4f c3
       -293.94894 1227.581 -3008.5022 -207.9325
0001f0 14 70 a9 c4 db a5 1f c4 c0 a5 a2 43 fb 73 e6 44
       -1355.5024 -638.5915 325.29492 1843.6244

convs.0.bn1.running_var f4 [128]
000000 99 f5 6c 49 59 f7 97 49 8b ee 0a 49 1d f9 d7 47
       970585.56 1.2449071e+06 569064.7 110578.23
000010 df 73 72 48 a8 53 c2 49 29 56 fd 49 9c 2a c4 49
       248271.48 1.591925e+06 2.0753331e+06 1.6069955e+06
000020 ec 77 c2 49 11 f1 a1 49 50 8c 7b 49 c2 8c 40 4a
       1.5930855e+06 1.3266261e+06 1.030341e+06 3.1547365e+06
000030 1f 1a 72 4a f3 37 13 49 7b 05 2d 4a d3 60 28 49
       3.9665998e+06 603007.2 2.8347828e+06 689677.2
000040 a4 b6 ab 49 9a c7 c3 49 bb 33 1e 4a eb 67 86 49
       1.4066765e+06 1.6038272e+06 2.5919828e+06 1.1010534e+06
000050 18 c7 8a 4a 6d 69 6f 4a 24 ac 23 4a 74 63 47 49
       4.547468e+06 3.9225232e+06 2.681609e+06 816695.25
000060 7d b0 72 48 1a 44 16 4a 87 a1 83 48 1d 6d 6f 4a
       248513.95 2.4619585e+06 269580.22 3.9227592e+06
000070 59 77 2e 49 9a 0a 46 48 c5 1c 21 4a 65 b1 0b 4a
       714613.56 202794.4 2.6396652e+06 2.2887292e+06
000080 9b be 06 49 69 bd be 49 64 52 00 4a 38 c7 ab 48
       551913.7 1.5625411e+06 2.102425e+06 351801.75
000090 17 0e c0 49 89 b1 50 49 a3 ca 8a 49 57 6d 9e 48
       1.5733149e+06 854808.56 1.1369804e+06 324458.72
0000a0 10 0e 56 49 62 e7 24 4a 9c 25 08 4a cc 85 46 48
       876769.0 2.7017845e+06 2.230631e+06 203287.19
0000b0 9b 1b a9 47 7c bb ac 49 fc c5 23 4a c4 24 b0 49
       86583.21 1.4150235e+06 2.683263e+06 1.4429685e+06
0000c0 8f a0 7f 49 b3 0a 10 4a fd f0 32 4a 83 28 bd 49
       1.04704894e+06 2.3599808e+06 2.9317752e+06 1.5495844e+06
0000d0 79 3e d4 49 33 a5 9e 49 26 f5 be 49 7e 03 70 49
       1.7387031e+06 1.2996224e+06 1.5643248e+06 983095.9
0000e0 91 3f 73 48 4b 35 95 48 e9 fd 21 4a 92 18 ec 47
       249086.27 305578.34 2.6540742e+06 120881.14
0000f0 3a b0 23 4a a1 8b 42 48 dc 3a 9e 49 3a 5b d8 49
       2.6818705e+06 199214.52 1.2962195e+06 1.7723912e+06
000100 09 3f b5 4a a5 dc 80 48 92 e6 35 49 d5 1a f1 48
       5.9390765e+06 263909.16 745065.1 493782.66
000110 08 61 8e 48 6d 24 a4 49 3c ec 08 4a 42 a5 fe 49
       291592.25 1.3446536e+06 2.243343e+06 2.0860562e+06
000120 6d 8c ce 49 ee 0d 7d 49 a4 a2 32 4a 02 3f 2e 4a
       1.6920456e+06 1.0365109e+06 2.926761e+06 2.8548485e+06
000130 80 be 51 4a 6c 0e 83 49 af 55 8f 4b ed b2 9b 49
       3.436448e+06 1.0736135e+06 1.8787166e+07 1.2754856e+06
000140 78 ea 31 49 fc 79 25 49 6b b4 1b 4a b8 98 50 49
       728743.5 677791.75 2.5510668e+06 854411.5
000150 b6 0d 8b 4a 37 f4 d1 4a 2d 51 2c 4a de a9 b4 49
       4.556507e+06 6.8797715e+06 2.8232432e+06 1.4799958e+06
000160 d1 1a 78 48 20 6b 5a 4a 94 85 15 49 da 72 89 4a
       254059.27 3.578568e+06 612441.25 4.503917e+06
000170 89 b7 93 49 d5 1a f5 47 0b 46 59 4a 0e 39 b1 49
       1.2100971e+06 125493.664 3.5598108e+06 1.4518098e+06
000180 f2 6d 81 49 10 96 da 49 4f 31 c2 4a ff 23 d5 48
       1.0602862e+06 1.790658e+06 6.3633035e+06 436511.97
000190 d0 68 4c 49 32 54 67 49 07 1c 11 4a 3a c9 51 49
       837261.0 947523.1 2.3774738e+06 859283.6
0001a0 95 25 0a 4a e5 80 bf 4b a7 c7 cd 4a 31 50 c1 48
       2.2633972e+06 2.5100746e+07 6.7429955e+06 395905.53
0001b0 a6 26 83 47 e9 d9 32 4a 7e e7 30 4a e0 7f 81 49
       67149.3 2.9302982e+06 2.8983995e+06 1.06086e+06
0001c0 8e 46 d5 48 6c d6 08 4a 29 24 c5 4a a8 d9 f6 49
       436788.44 2.241947e+06 6.4599245e+06 2.022197e+06
0001d0 27 4c 37 4a 9b 8a 8d 48 27 b0 a1 49 37 09 89 4a
       3.0031458e+06 289876.84 1.3245489e+06 4.4903955e+06
0001e0 e1 76 1b 4a db e2 5d 49 6e 56 de 4a 65 9b bf 47
       2.5471282e+06 908845.7 7.285559e+06 98102.79
0001f0 9b e0 b3 4a 0f 86 a2 48 1e ec 47 4a 14 94 3a 4a
       5.8942215e+06 332848.47 3.2755275e+06 3.056901e+06

convs.0.bn2.weight f4 [64]
000000 43 60 7a 3f 47 38 65 3e 0b a9 ee 3f 9b 2f b8 3f
       0.97803134 0.2238475 1.8645338 1.4389528
000010 b9 cd 71 bf 8d 63 3a c0 18 60 c2 3f 2c 93 7c 40
       -0.9445453 -2.912326 1.5185575 3.9464827
000020 35 7d 97 bf 67 d0 f9 3f ab 19 06 3f a0 72 a5 3f
       -1.1835085 1.9516724 0.52382916 1.2925606
000030 e3 ee 08 40 33 b5 f7 bf c3 1c 82 3f 50 41 e1 40
       2.1395805 -1.9352173 1.0165027 7.0392227
000040 05 a8 04 40 fb 64 a6 bf 2a 11 78 40 1c c3 b7 3c
       2.072755 -1.2999567 3.8760476 0.022431903
000050 7b b7 ae 3f 7c fa 97 3f 11 99 9c 3f fa a1 16 3f
       1.3649744 1.1873317 1.2234212 0.58840907
000060 bb 32 15 40 e7 a8 b5 3f c9 dd 5a 40 67 ef 0e 3d
       2.3312213 1.419217 3.4197867 0.03489628
000070 c9 36 33 bd 26 c6 66 40 d6 69 8a 3f 54 bc 8f 3f
       -0.04375342 3.605844 1.0813549 1.1229348
000080 67 3b 14 3e ce 0c 4b 40 c0 83 8c 3f 97 4b 14 40
       0.14475785 3.1726565 1.0977707 2.3171136
000090 e1 8b fa 3e 47 70 6a 40 f9 0f 23 40 e6 60 1e 3e
       0.48934844 3.6631029 2.54785 0.15466651
0000a0 23 40 8f 3f 51 64 1e 3f 60 08 94 3f e3 dd c3 bf
       1.1191448 0.6187182 1.1565056 -1.530209
0000b0 06 da d0 bf 5c ec 29 3f 12 78 c6 3f ec 94 04 be
       -1.6316535 0.6637628 1.5505393 -0.12947434
0000c0 54 08 00 40 22 b4 cb 3f c4 b3 43 3f d4 58 6d 40
       2.0005083 1.5914347 0.76446176 3.7085466
0000d0 ff 26 95 39 8c 48 2d 3f f8 ea e9 3f 43 b5 dc 3f
       0.0002844855 0.6768882 1.8274832 1.7242817
0000e0 e2 3c b8 3f c3 0c 0e 40 88 fd 3e 3f 83 0f 35 40
       1.439358 2.219529 0.7460561 2.8290718
0000f0 5b 34 82 3f 9d 88 41 40 eb 6d 2d 3f b9 4a 81 3f
       1.0172228 3.0239632 0.67745847 1.0100929

convs.0.bn2.bias f4 [64]
000000 9e 91 9f c0 86 c7 60 c0 26 45 f3 c0 f3 3e 1b c0
       -4.9865255 -3.512178 -7.602191 -2.425717
000010 5b 02 e9 c0 48 88 65 c0 2b 9f 98 c0 c6 b7 c4 c0
       -7.2815375 -3.586443 -4.7694297 -6.1474333
000020 61 df 58 c0 1d 98 13 c0 66 44 0e c0 fa 3f 94 c0
       -3.388634 -2.3061593 -2.2229247 -4.6328096
000030 53 c8 ea bf 4e f2 e1 c0 af 30 fa bf 7a 88 0b c1
       -1.8342384 -7.060828 -1.9546107 -8.720819
000040 74 85 b1 c0 29 ed 50 c0 3e fa 0d c0 b9 81 87 bf
       -5.5475407 -3.264475 -2.2183986 -1.0586463
000050 12 84 f1 bf f0 35 00 c0 de 29 99 c0 6a 7b 77 c0
       -1.886843 -2.003292 -4.7863607 -3.8669076
000060 1a 57 a6 c0 a3 bb af c0 b9 7a 25 c0 89 6e 1d c0
       -5.1981325 -5.491655 -2.5856154 -2.4598715
000070 15 96 86 c0 cc 57 29 c0 f9 bd 9c c0 d6 55 3e c0
       -4.2058206 -2.6459837 -4.89819 -2.973989
000080 9b ba 9e c0 47 09 99 c0 15 4a 64 c0 ad 6f 7a c0
       -4.960279 -4.7823825 -3.5670216 -3.9130661
000090 6c dd 84 c0 ce 9a a1 c0 74 39 bf c0 fa 6a b7 c0
       -4.152029 -5.050147 -5.9757633 -5.7318087
0000a0 93 ad 66 c0 17 78 d8 bf 45 9e 7a bf a2 1c 19 c1
       -3.6043441 -1.6911649 -0.9789775 -9.56949
0000b0 84 5c f5 c0 6c 49 5f c0 f7 77 5f c0 92 2d 8c c0
       -7.6675434 -3.4888563 -3.491697 -4.380563
0000c0 fd 8b 1a bf 3a 1c ad c0 91 c2 aa c0 e5 4e 40 c0
       -0.60369855 -5.4096956 -5.336251 -3.0048153
0000d0 43 ec 60 c0 28 fa f3 bf 68 d7 a4 c0 20 1e 7c c0
       -3.5144203 -1.9060717 -5.1512947 -3.9393387
0000e0 60 5b 3b c0 2e 3c 7e c0 98 86 8c c0 64 90 0f c1
       -2.927452 -3.972423 -4.39143 -8.972752
0000f0 b0 5f cc c0 13 eb 90 c0 c7 16 83 c0 90 2b c4 c0
       -6.3866806 -4.5286956 -4.0965304 -6.1303177

convs.0.bn2.running_mean f4 [64]
000000 91 2a f6 41 91 21 bc 41 1d cc 7a 3f b3 b0 95 3d
       30.770784 23.51639 0.979677 0.07309093
000010 1c 36 99 40 ac ae fd 41 d9 d3 13 41 cf 9f 8d 42
       4.787855 31.710289 9.239221 70.812126
000020 24 c0 ac 42 85 25 5d 41 8b da 38 41 7a 6e 13 42
       86.375275 13.82166 11.553355 36.857887
000030 a5 91 0c 41 64 c1 82 42 74 d6 84 42 84 ee 32 42
       8.785558 65.377716 66.41885 44.732925
000040 ab 87 05 40 8b f2 06 41 07 6f 5e 42 c4 f8 40 41
       2.0864055 8.434215 55.608425 12.060734
000050 18 e5 b8 41 f9 90 b1 41 ca 4a 51 41 2b f1 b9 40
       23.111862 22.195787 13.080759 5.8106894
000060 99 e8 58 41 5a 4d 8f 42 e3 b4 f9 41 85 e8 23 42
       13.556787 71.65108 31.213324 40.97707
000070 52 3f 9a 40 3b 0a f2 3d f6 9a ad 41 38 03 96 42
       4.8202295 0.118183576 21.700665 75.00629
000080 66 1f bf 40 99 53 a4 42 d8 7e 8c 41 6a 15 2e 41
       5.972583 82.16328 17.561935 10.880228
000090 a1 6b cf 41 9d ee fd 40 b0 1c b8 42 a9 4d d7 41
       25.927553 7.9353776 92.05603 26.91292
0000a0 29 63 30 41 1b 8f 8e 42 76 e2 b8 41 03 38 d5 40
       11.024209 71.2795 23.110577 6.6630874
0000b0 ab d8 78 41 a4 cc 45 42 03 68 13 3f 3c 11 ba 41
       15.552897 49.449844 0.57580584 23.258415
0000c0 71 0a 90 41 da bb c3 40 16 b9 c2 41 6d 95 2e 42
       18.005098 6.116681 24.340374 43.645924
0000d0 83 c0 b1 40 33 e9 94 41 4f 30 80 40 0b 6f 05 42
       5.55475 18.613867 4.005897 33.35844
0000e0 73 87 64 42 3d 9b 72 42 07 78 81 42 8b d0 ac 41
       57.132275 60.6516 64.73443 21.601828
0000f0 54 ad 1d 42 11 69 2e 42 2f 39 d5 41 a2 55 8e 41
       39.419266 43.602604 26.652922 17.791813

convs.0.bn2.running_var f4 [64]
000000 cc 34 c4 42 46 b1 d6 42 9e 1c ec 3f e4 17 c7 3b
       98.10312 107.34624 1.8446233 0.006075846
000010 89 60 14 42 8e 39 89 44 44 07 91 42 cd 91 2f 41
       37.094273 1097.7986 72.51419 10.973096
000020 54 73 64 44 f8 6f e7 41 29 42 52 43 dc 26 77 44
       913.802 28.929672 210.25844 988.6072
000030 f3 1c a5 42 bf fb e5 41 eb e2 01 44 02 da b8 41
       82.55654 28.747923 519.5456 23.10645
000040 e8 10 ff 3f 9b 23 97 42 86 33 89 41 5b f6 4b 43
       1.9927034 75.56954 17.150158 203.96233
000050 16 4e aa 43 12 32 ed 43 79 8d fc 42 2c bc 40 42
       340.61005 474.39117 126.27631 48.18376
000060 2c 52 16 42 6e 33 08 42 62 00 25 44 1c 3a 2d 43
       37.580246 34.050224 660.006 173.22699
000070 59 eb 17 42 9e 8a 69 3c 64 e7 af 43 43 a9 c5 40
       37.97983 0.01425424 351.80774 6.176912
000080 c1 07 3b 42 7a 06 dc 42 8a ca 45 42 fe a3 ec 42
       46.757572 110.01265 49.447792 118.3203
000090 83 3c 1d 43 4a 29 66 42 cb 1f 17 42 50 3b 91 41
       157.23637 57.54032 37.781048 18.153961
0000a0 a1 df 53 42 bf 05 e7 42 7b ce 5d 44 e0 a5 87 42
       52.968388 115.51122 887.22626 67.823975
0000b0 79 48 b9 43 f3 21 97 43 96 bd 77 3e 93 56 d8 42
       370.5662 302.26523 0.24193415 108.16909
0000c0 f3 35 f3 42 72 06 e0 41 19 29 76 42 c8 97 ca 42
       121.60537 28.003147 61.540134 101.29645
0000d0 53 64 1a 42 4e 01 1d 42 d7 11 e7 40 7c 4f 63 43
       38.597973 39.251274 7.2209277 227.31049
0000e0 9b 89 24 40 9d 80 15 42 44 2a dd 43 c1 c7 b3 41
       2.5708988 37.3756 442.3302 22.472536
0000f0 a6 52 3a 43 6e 2c 15 45 31 51 3b 43 37 cb ff 42
       186.32285 2386.7769 187.31715 127.896904

convs.1.fc_full.weight f4 [128, 169]
000000 e2 28 a9 be 45 57 d7 3e a6 de 9d 3e 3f ef b5 3e
       -0.33039004 0.4205877 0.3083393 0.35534093
000010 5b d7 22 3e a6 46 91 3f 54 8d 65 3e be e8 77 3f
       0.15902464 1.1349685 0.22417194 0.9683951
000020 c5 a4 a7 3d 39 ef 05 3f f0 3c a3 3f 93 8b e8 bd
       0.08185724 0.5231815 1.2752972 -0.11354747
000030 44 1d 54 3e 5a a4 ec 3e 61 4b 34 bf 18 37 f3 be
       0.20714289 0.4621914 -0.7042752 -0.4750297
000040 ad 4e cd be 4d a7 5f 3e 70 d4 f5 be e8 df 24 c0
       -0.40099087 0.21841164 -0.4801364 -2.5761662
000050 80 3d cb bf e4 2c 98 bc 8d c0 65 bd b6 ee f5 bc
       -1.5878143 -0.018576093 -0.056091834 -0.030021053
000060 c0 f5 33 3f e4 17 dc bd de 05 61 3f 6d b3 7c be
       0.7029686 -0.10746744 0.8789958 -0.2467782
000070 6f 8a e9 3e 45 71 59 3f b7 fc 2a bf 0d ac c2 be
       0.4561343 0.8493846 -0.6679186 -0.3802189
000080 76 90 81 3e 65 a2 1b 40 02 d2 cf be 11 78 c7 be
       0.25305527 2.4317868 -0.4058991 -0.3895879
000090 14 69 fb 3d 03 79 a0 bd b7 7d 55 3f 98 c6 72 bd
       0.122759014 -0.07835581 0.8339495 -0.059271425
0000a0 38 2f 00 3e bf 1c 44 bf fb d4 59 bf d2 25 4d bd
       0.12518013 -0.76606363 -0.8509061 -0.050084896
0000b0 ff 56 97 be 7d 68 26 bf 13 57 26 be 63 4e dd 3e
       -0.2955856 -0.65003186 -0.16244154 0.43223867
0000c0 22 d2 58 3e 62 fc dc be d4 36 ac be 6e ad ac 3e
       0.2117391 -0.43161303 -0.3363558 0.33726066
0000d0 6f 5f ba 3c e0 76 1b bf 2b d3 31 3f 82 57 1e be
       0.022750584 -0.60728264 0.6946284 -0.15463069
0000e0 f9 14 dc be d2 64 11 3f 76 bc 3a 3e bb 24 29 be
       -0.4298475 0.56794465 0.18235955 -0.16517918
0000f0 62 f3 ce be 9c 52 65 bd 53 a9 cb bd 5e c4 8b be
       -0.4042006 -0.055986986 -0.099444054 -0.27298254
000100 f7 a8 9f 3e 46 e9 e2 3d 02 8e 2b be f4 8a 20 bf
       0.31183597 0.110796496 -0.1675339 -0.62712026
000110 9c 8e 13 3e 1d 4c 14 3e 66 c8 3f 3f 14 96 0b 3e
       0.1440987 0.1448216 0.7491516 0.13631469
000120 c4 9f 9e be 64 91 ce 3f 68 e7 fa be e0 50 52 3f
       -0.30981266 1.613812 -0.49004674 0.82154655
000130 eb 60 a5 be 50 f2 6c 3e be 5e 47 bf 6c 6a 16 3f
       -0.32300505 0.2313931 -0.7787894 0.58756137
000140 f6 68 22 be a0 e1 70 c0 93 35 12 bf dc 36 00 40
       -0.15860352 -3.763771 -0.57113 2.0033484
000150 60 67 e6 3e 10 ff 79 3f 6a 61 39 be bb 0b 1c bf
       0.45000744 0.9765482 -0.18103567 -0.609554
000160 2b d9 b2 3e cc 05 cf 3e d7 74 b0 3f 9d cb 33 bf
       0.3493131 0.4043411 1.3785657 -0.70232564
000170 c8 19 b7 be c8 32 80 3e 9e 04 47 3f 6a 4d f6 3e
       -0.35761857 0.25038743 0.7774142 0.48105937
000180 39 2f c0 bd d7 03 58 3f 3a 6c 31 3f b0 0f f2 3d
       -0.09384007 0.8438086 0.69305766 0.118193984
000190 1c 19 00 be ef 03 80 bc 9e 89 c9 be 75 fc 83 3d
       -0.12509578 -0.015626876 -0.39362806 0.06444637
0001a0 16 a5 30 3e a1 ea 9b bf 77 dc ac bf 77 0c 66 be
       0.17250475 -1.2180978 -1.350478 -0.22465692
0001b0 6a b6 3c 3e b7 27 98 3e c9 cf 43 3e 5f 8d 53 3e
       0.1842896 0.297178 0.19122232 0.20659398
0001c0 ae ba 87 3f 59 b8 28 3e 19 8f 87 be cf 09 08 be
       1.0603845 0.16476573 -0.26476362 -0.13284992
0001d0 fa 52 83 bf 19 c1 53 bf 6e a9 81 3e 5d 88 0b 3f
       -1.0259697 -0.8271652 0.25324577 0.5450495
0001e0 f0 5f ed 3e 78 ad d1 bd 50 ce 45 3e 84 44 ff be
       0.46362257 -0.10238165 0.19316983 -0.4985696
0001f0 13 c6 cc 3e b1 60 09 bf 1d 95 e2 3d 3c 59 b5 bf
       0.3999487 -0.53663164 0.11063597 -1.4167857
000200 74 41 9f 3e 80 d6 3a 3e 4c 8d 29 bf e3 11 91 bf
       0.31104624 0.18245888 -0.66231227 -1.1333584
000210 b6 59 8b be c5 c8 2e bf 94 0b d7 3f 4d 85 08 bf
       -0.27216882 -0.682751 1.6800408 -0.533284
000220 6e 62 b0 bf 28 eb 0f c0 ce f8 05 40 ac fa 38 3f
       -1.3780038 -2.2487278 2.0933108 0.72257495
000230 41 b7 c0 be ee d9 61 3c ee b1 05 bf bf 4e 6c bf
       -0.37639812 0.013784869 -0.52224624 -0.92307657
000240 8f 8e 2b c0 ce 2b 11 c0 0b c6 dc bf 12 0f 34 bf
       -2.680576 -2.2682986 -1.7247938 -0.70335495
000250 d9 71 8d bf 2e 2c a2 be 66 06 14 40 a7 20 5c 40
       -1.1050369 -0.3167433 2.3128905 3.439493
000260 f1 d2 0a 40 06 72 4e 40 e4 2c f3 3f 03 59 5d 3f
       2.1691248 3.2257094 1.8998075 0.86463946
000270 ed c8 2b bf 6c 7c 10 c0 7d 3f 79 bf 55 0f 8a bf
       -0.67103463 -2.257594 -0.973625 -1.0785929
000280 58 a3 e4 bf 04 9f aa bf 8b f9 80 be f3 f8 34 be
       -1.7862349 -1.3329778 -0.25190386 -0.17673092
000290 aa 14 06 bd 81 31 4f 3d 91 35 30 bd 41 00 e8 bc
       -0.03273455 0.05058432 -0.043019835 -0.028320434
0002a0 14 22 e9 bc 9a a8 67 3f 8f b1 e3 3f 30 92 1b 3f
       -0.028458633 0.9049164 1.7788562 0.6076994
0002b0 be ac 63 3f 3c 9c b0 bf e8 4b ad bf b5 27 43 3f
       0.8893546 -1.3797679 -1.353879 0.76232463
0002c0 4e fa 67 40 79 77 6e 3f 69 d3 a1 40 87 10 09 40
       3.6246524 0.9315105 5.057057 2.1416337
0002d0 7a eb dc bf bc 37 ac 3e 86 be 09 40 17 f7 72 bf
       -1.7259362 0.33636272 2.1522536 -0.9490828
0002e0 db a5 c8 3e 7b 28 04 bf 56 5d 99 3f de 95 f5 3d
       0.39189038 -0.5162427 1.1981609 0.119914755
0002f0 fd 38 50 bf 0e 42 ba 3e cf 84 b1 bd 0e 6e 32 bf
       -0.8133696 0.3637852 -0.08667909 -0.6969918
000300 d9 69 b8 3c d7 9e c2 3f a3 b1 0e c0 4b c7 74 40
       0.02251141 1.5204724 -2.229592 3.8246639
000310 6b 48 94 40 4b 4a 16 3e bb 44 ac bd 71 f4 70 bf
       4.63384 0.14676778 -0.08411547 -0.9412299
000320 81 99 06 40 24 84 26 40 83 44 83 40 cc 91 21 bf
       2.1031191 2.6018152 4.1021132 -0.63113093
000330 ea a2 5d c0 62 0c 67 bf 3c 8e c2 be be 27 29 40
       -3.4630685 -0.9025327 -0.3799914 2.6430507
000340 bd 2b 53 40 5d c6 06 bf 74 e4 d9 bf bd 5c eb 3e
       3.2995446 -0.5264643 -1.7022843 0.4596919
000350 47 9f f8 be c2 dd d6 3f 76 a6 a2 bf 5f 35 6f c0
       -0.4855902 1.6786425 -1.270705 -3.7376325
000360 15 0f 2a bf 4a 87 13 40 e3 30 d6 be 48 88 24 3f
       -0.66429263 2.3051324 -0.41834173 0.6427045
000370 10 da 24 3f 1e 2a d1 3f 31 98 1b 40 45 25 e4 be
       0.64395237 1.6340978 2.431164 -0.44559684
000380 0c 72 60 40 10 b7 bf 3f 77 4b 1f 40 4c 54 6b bf
       3.5069609 1.4977741 2.488981 -0.919255
000390 77 cc 43 3f 7c 50 2f 3f ca 4c a7 3d 8a d7 18 be
       0.76483864 0.68482184 0.08168943 -0.14925972
0003a0 60 28 cd 3f 02 a6 e2 bf 75 08 ef 3e e6 09 c8 bf
       1.6027946 -1.7706912 0.4668614 -1.5628021
0003b0 a7 a3 30 c0 ee f1 c6 bf 90 8e d5 bf e6 19 1f c0
       -2.7599885 -1.5542581 -1.6684132 -2.4859557
0003c0 d3 64 0f bf 2c a7 81 3e 9d 52 e9 be 47 7b 3e 3e
       -0.5601322 0.25322855 -0.4557084 0.18601714
0003d0 a4 21 5d c0 24 f5 f1 bf c4 0d 6f bf 01 3a 6d c0
       -3.4551783 -1.8902936 -0.9338038 -3.7066653
0003e0 61 1f 94 be 4c 56 d2 bf 6b e9 c4 bf e1 ff fe be
       -0.2893019 -1.6432586 -1.5383734 -0.49804595
0003f0 be 4c 78 bf c2 d3 e5 bf ac 19 91 bf 9d bb 3a c0
       -0.969921 -1.7955248 -1.133596 -2.917701

convs.1.fc_full.bias f4 [128]
000000 52 2c e2 bd a8 c4 7a be 15 c9 44 bf 0e 27 ac 3c
       -0.1104361 -0.24489081 -0.76869327 0.021014716
000010 80 d2 a9 3e 4d 3c 50 3f 65 b4 9a 3c 1e 7f 42 3f
       0.3316841 0.8134201 0.018884847 0.75975215
000020 a0 f9 af be 67 ba 8d bd a9 fb 2e 3b af d8 e8 3d
       -0.34370136 -0.06920319 0.0026700294 0.11369454
000030 ee d3 90 be 28 39 32 bd ce 99 9e bd ee 5d 60 be
       -0.2828669 -0.04351154 -0.0774418 -0.21910831
000040 73 43 c3 3d 8a 8b b8 bc 7f a3 0e bd fe f5 0b be
       0.09534349 -0.022527475 -0.03482389 -0.13668057
000050 89 58 12 be 66 2d 37 be ce 8d fe bc 21 5c 8d bd
       -0.14291586 -0.17888412 -0.031073477 -0.06902338
000060 32 4e cd 3b ea 0c 0d be bc c7 13 3d d2 d7 ca 3e
       0.006265425 -0.13774458 0.036079153 0.39617783
000070 e9 27 04 3d 2f 4e e5 bd e3 f9 5a 3f 00 d7 1b bd
       0.032264624 -0.11196553 0.85537547 -0.038046837
000080 e8 bc e5 bd 0b 86 20 3e 87 73 05 be 52 4f 1f bf
       -0.11217672 0.15676133 -0.13032351 -0.6223041
000090 3c ff 29 3f f2 13 85 3c e5 19 a6 3b a1 6a 0b 3d
       0.6640508 0.016244862 0.005069005 0.034037236
0000a0 30 07 da be a7 09 d8 bc 1d 90 27 bd c0 88 48 3c
       -0.4258361 -0.02637179 -0.04090892 0.012239635
0000b0 0a 47 95 3d 7f 81 aa 3f f5 b7 2b 3e 3d c0 06 3e
       0.0728894 1.3320769 0.16769393 0.1315927
0000c0 0a 4e e1 bd fb 9c bf 3f 73 35 28 bf 32 0d dc 3e
       -0.11001213 1.4969782 -0.6570656 0.42978817
0000d0 e0 a1 77 bd 26 79 09 40 a2 f1 b3 3d 1b 50 a3 3e
       -0.06045711 2.1480193 0.08786322 0.31897053
0000e0 de 2b 44 be df 9b 24 3d 27 e3 ad bd 0c 1d 89 3d
       -0.19157359 0.040187713 -0.084905915 0.066949934
0000f0 f0 ae 0c 3c 78 5c d3 3b 27 05 25 3e 1e 79 4a 3d
       0.00858663 0.006450232 0.16115247 0.049431913
000100 2d 8d f3 bd 5d 3b c9 bf 52 61 97 c0 cd f3 db 3e
       -0.118921615 -1.5721241 -4.73063 0.42959443
000110 d2 c3 4f 3f bb 68 71 3d 0a 04 35 3d 56 49 e5 3f
       0.81158173 0.05893777 0.044193305 1.7913005
000120 99 64 e7 3d f2 7f ba bb 8b 36 69 bd a8 a4 34 3e
       0.11298484 -0.005691522 -0.05693678 0.17640936
000130 35 09 d2 be 2b a6 ea 3c 18 b6 c9 3d 6d 98 b8 3e
       -0.4102265 0.028643688 0.09849185 0.36053792
000140 a0 33 16 be bc 33 6c bd 27 dc b0 bb bc ed 2c 3c
       -0.14668131 -0.057666525 -0.005397338 0.010554727
000150 5d 6d 90 bf de 97 04 bf 88 5a 34 bd 69 61 72 bd
       -1.1283375 -0.5179423 -0.04403165 -0.05917493
000160 84 69 06 3f f6 96 95 3d 3f 6f 91 bc 25 79 1e 3f
       0.52504754 0.07304184 -0.017753242 0.619036
000170 6d 10 fa bb 34 d2 e7 3e 2c 33 05 3f 06 1c 57 bd
       -0.0076313526 0.4527756 0.5203121 -0.05251696
000180 53 e9 9b 3e a9 59 21 3d 5c cf 14 3d 76 3c 66 3f
       0.3045145 0.039392147 0.036330566 0.89936006
000190 67 6d 90 3c 37 1a 36 bd 06 4d 52 40 82 10 11 bd
       0.017630292 -0.044458594 3.2859511 -0.035416134
0001a0 8c f3 53 3f 38 d1 f2 3e 19 b6 be bd 28 12 a7 be
       0.827935 0.47425246 -0.09312076 -0.3263104
0001b0 94 72 a5 3e 30 7f 8c 3e 9f 9f bc 3e 25 d6 46 3e
       0.3231398 0.27440786 0.3684053 0.19417627
0001c0 fb 84 3c bf ca fa d8 3f fe 11 22 3b cc 5e 38 40
       -0.7364041 1.6951535 0.0024729962 2.880786
0001d0 a3 cd 9a 3d d8 6a ab 3f d3 0e c7 bc 89 2d 30 3e
       0.07558753 1.3391981 -0.02429906 0.1720487
0001e0 90 99 38 bf ac 02 b2 bc 6a 5a 96 3c c7 af a8 3c
       -0.7210932 -0.02172979 0.01835366 0.02059163
0001f0 67 67 1c bf 23 4c c5 be 27 4b 5d 3e 03 f2 5c bc
       -0.6109528 -0.3853465 0.216107 -0.013485434
