results/Prediction/2023-06-21/19:40:55.651808/models/model425.pth (torch, 528997 bytes, 54 tensors)

embedding.weight f4 [64, 92]
000000 c8 93 3d 3c f8 4c 47 c0 e9 29 2f 3c b1 ed 74 bd
       0.011570878 -3.1140728 0.0106911445 -0.059796993
000010 16 e6 59 bd 77 fa 58 3c fd 02 97 bd 42 9d 80 bd
       -0.053197943 0.013243309 -0.07373617 -0.062799945
000020 d1 fe 87 3a 8a ac 8d 3d 01 26 c8 3d 29 26 5c bc
       0.0010375624 0.06917675 0.09772874 -0.013436832
000030 ca 6e 99 3d 46 21 c1 bd c4 86 96 3f 69 7b e8 3f
       0.074918345 -0.094301745 1.1759877 1.8162662
000040 31 9b 58 c0 7b 7d 19 3f c4 63 7a 3d 9a 12 42 c0
       -3.3844721 0.59957093 0.0611303 -3.0323853
000050 54 10 3f c0 96 89 42 3f 7c 6f a1 bd b5 62 9c 3d
       -2.9853716 0.7599119 -0.07882592 0.07636014
000060 25 a6 2b bd 28 b9 4b bd e5 7d 8e bd 8d 6b 65 bd
       -0.041906495 -0.049737126 -0.06957606 -0.05601077
000070 b6 94 b4 bd 6b 7d 68 be 43 4f 45 c0 c3 fc a4 3f
       -0.08817427 -0.22704093 -3.0829628 1.2889637
000080 e0 c8 b1 bd ff fb e1 3f 84 04 7f c0 7b 90 e7 3e
       -0.08680892 1.7655028 -3.9846506 0.45227417
000090 fb 81 44 c0 5f 3e 75 c0 37 f6 19 3e eb 29 88 3f
       -3.0704334 -3.8319318 0.1503533 1.0637792
0000a0 c7 18 72 be d6 8f c2 3c d4 94 dc 3c d2 0e c3 3b
       -0.23642264 0.023750227 0.026926436 0.0059526945
0000b0 eb 9b 8f 3d f0 b7 9c bd ab 14 3c c0 30 47 99 3d
       0.07012161 -0.07652271 -2.9387615 0.07484281
0000c0 5f c3 d9 bb 97 9d 8a 3f 29 b4 e7 3f 64 13 60 c0
       -0.0066456045 1.0829343 1.8101856 -3.5011835
0000d0 21 32 e5 3e 36 a3 bb 3d 49 ed 70 3d f5 44 ad bd
       0.44764808 0.091619894 0.058820043 -0.08460418
0000e0 b8 ca 46 bd d3 29 29 bd 33 39 6e bd 9f 1c 22 bd
       -0.04853317 -0.041299652 -0.05816002 -0.039578076
0000f0 12 db cd bc ee 67 2d be 9f 55 85 3d 84 98 a5 3f
       -0.025128875 -0.16934177 0.065104716 1.2937169
000100 61 4e 85 bf 19 78 04 3f 04 af b0 3d 81 fe 98 3d
       -1.0414544 0.51745754 0.086271316 0.07470418
000110 1d 0e b3 3d f4 4a 14 bd 56 0d da 3f 54 93 96 bc
       0.08742926 -0.036204293 1.703532 -0.018380798
000120 36 22 aa bd 7c e4 47 c0 99 ee 85 3e a7 d0 72 3f
       -0.083073065 -3.1233206 0.26158598 0.9484963
000130 61 35 99 bd 63 d5 ea 3e a2 7b 3d c0 4e f2 4f c0
       -0.07480884 0.45865926 -2.960671 -3.249164
000140 10 60 43 bd c2 3a 83 3d e3 0f b3 3f f4 19 99 bd
       -0.047699034 0.064076915 1.3989223 -0.07475653
000150 91 8d 19 3d 2e 8d 8c be 3e 41 27 c0 de e2 b4 bd
       0.037488524 -0.27451462 -2.613357 -0.08832334
000160 60 19 16 3d f6 b7 d0 bd 0a 73 05 bd c0 df 5f bc
       0.036645293 -0.10191338 -0.032580413 -0.013664186
000170 ec 76 7d bc f8 33 54 bf 3b 12 d7 3b 1f 9c 4c bc
       -0.015470248 -0.828918 0.0065634525 -0.012488394
000180 eb cb 2d 3c 74 b0 e2 bc 97 45 af bc 21 9d a7 3d
       0.0106077 -0.02767203 -0.021395488 0.08184267
000190 c6 e1 d0 bd 29 c9 c4 bd be cc 73 3d 0c 5b 9f 3d
       -0.10199313 -0.09608681 0.05952143 0.07781038
0001a0 17 a8 cf 3d 70 bd d5 bc c3 2e de bf 47 f4 33 bf
       0.101394825 -0.026091307 -1.735802 -0.7029461
0001b0 30 1a 22 bf 6f 27 be 3f 20 53 6c 3d 6f dd 7a bf
       -0.6332121 1.4855784 0.05769646 -0.9799413
0001c0 c2 45 ba bf 85 5d 64 3f f0 a1 00 3d 57 9e b3 bd
       -1.4552538 0.892052 0.031404436 -0.08770435
0001d0 c0 19 4c bb 49 97 ec bc 6d 9c 6e bd 0d ae 5a bd
       -0.0031143278 -0.028880732 -0.058254648 -0.053388644
0001e0 93 ff 3b 3c d6 55 0a c0 70 f6 5a bf 93 b5 d1 bf
       0.011474508 -2.161489 -0.85532284 -1.6383537
0001f0 2e 87 a9 3d f3 4c 30 bf 40 e6 cb bf e0 a2 be 3f
       0.082777366 -0.68867415 -1.5929642 1.4893456
000200 89 0a 5b bf 03 54 cf bd 9a 98 b4 bf a1 e1 1f 40
       -0.8556295 -0.10123446 -1.410907 2.4981463
000210 f8 35 04 c0 e5 7b 07 3d dd 20 27 3d a2 02 f9 3c
       -2.065794 0.03307714 0.040802825 0.030396763
000220 25 2d ea 3a d2 bd 8d bd 08 fc 6d bf cc 51 86 bc
       0.0017866237 -0.06920971 -0.92962694 -0.016396426
000230 61 4c 62 3d 7d e8 d3 bf 59 8c 4c bf f9 42 27 bf
       0.05524862 -1.6555325 -0.79901654 -0.6533657
000240 0c e1 c9 3f 6a 64 bf bd c4 d1 d2 bd 5d 52 21 bb
       1.5771804 -0.09345324 -0.10293916 -0.0024615743
000250 03 26 b2 3d 9d 3f 91 bd ef 00 a0 3c b3 22 23 3d
       0.086986564 -0.070922114 0.019531695 0.039828014
000260 13 39 da bc c3 e7 0b c0 5b 1e a4 bd 23 ea b7 bf
       -0.026638543 -2.1860206 -0.08013602 -1.4368328
000270 53 06 d1 bf 90 73 ca 3f 24 26 57 3d 57 85 82 3d
       -1.6330055 1.5816517 0.052526608 0.06373089
000280 b8 22 bf bb fc 45 0c bd 85 2d 4d bf 28 89 43 3d
       -0.005832996 -0.03424643 -0.8014758 0.047738224
000290 bf cc 50 3d 46 75 6a bf 14 28 d6 bf 27 13 19 40
       0.05097651 -0.91585195 -1.6730981 2.391794
0002a0 76 64 74 bd 50 bb c9 3f 0f a1 73 bf de ea 39 c0
       -0.05966612 1.5760288 -0.9516763 -2.9049602
0002b0 4f 8e db 3a d1 2f 08 3c a9 c6 c1 bf 8f 87 81 bd
       0.0016750785 0.008312182 -1.5138751 -0.06324684
0002c0 3d 35 93 3d d9 0a 09 c0 e3 c7 04 c0 b2 7f c0 3d
       0.07187889 -2.141287 -2.0747 0.09399356
0002d0 3a 33 bc 3d 93 eb 92 bd d9 70 cd 3d 9f 40 0d bd
       0.09189458 -0.071738385 0.100312896 -0.034485456
0002e0 b8 85 8f 3d 88 13 6b 3d 84 69 91 bd 0e c1 19 3b
       0.07007927 0.057391673 -0.07100204 0.0023461017
0002f0 ba cb a5 3d 9f a6 e0 bc c8 26 20 3d 43 f4 3a 3c
       0.080954984 -0.027423201 0.039099485 0.011410776
000300 8f 8c 80 bd 6f 8f f2 3c 89 93 af bd a3 e2 b7 bd
       -0.062768094 0.02960941 -0.08573062 -0.089787744
000310 12 e4 b0 bd d0 44 91 bd 4e 65 3f c0 19 f9 1d 40
       -0.08637251 -0.07093203 -2.9905581 2.4683287
000320 15 53 02 be 3b b2 3d 40 d4 19 ce 3d 7e 21 87 bd
       -0.12727006 2.9640033 0.1006352 -0.06598185
000330 67 38 ec bf fc 5e 71 bf 45 21 0b 3d f6 7c cf 3a
       -1.8454713 -0.9428556 0.033967275 0.0015830088
000340 ce bd dd 3c 1e 89 2e 3d 48 44 ae bc 00 ef 1e 3b
       0.027068045 0.042611234 -0.021272793 0.0024251342
000350 a8 9e 01 bd 9f 32 45 3f e4 7e 3f bd a4 da 7d bf
       -0.031645447 0.77030367 -0.04675187 -0.99161744
000360 01 ec b4 bc 11 b9 17 40 a3 d7 23 be 07 17 3f 40
       -0.022085192 2.3706706 -0.16000228 2.9857805
000370 22 7b 7a 3d 27 dc ed 3e 98 76 64 3f 2d a6 01 3f
       0.061152585 0.46457025 0.8924346 0.5064419
000380 e4 3f 34 3f 70 92 18 bd fc 13 4e 3d 8f e6 ac 3d
       0.7040999 -0.03724903 0.050312027 0.08442413
000390 63 30 e6 bc 9c 77 86 bd 3b 68 f9 bd 8a 8e ae bd
       -0.028099244 -0.065657824 -0.121780835 -0.08523281
0003a0 f5 04 90 3d 4d a9 45 c0 35 14 16 40 c0 e2 ff bd
       0.070321955 -3.0884583 2.3449833 -0.12494421
0003b0 d7 1a 3c 40 de 71 a8 bd d1 9a fe 3c 57 11 65 bc
       2.9391382 -0.082248434 0.031079682 -0.013981185
0003c0 2a fa d4 3d ed 81 91 bd 99 59 8f bb 6c 8b 93 bc
       0.103992775 -0.071048595 -0.0043746945 -0.018010817
0003d0 2c fb 22 3d 2c 88 45 3f 55 07 ae bd b4 27 84 bf
       0.039790317 0.77160907 -0.08497492 -1.0324616
0003e0 26 78 63 be e6 6e 44 40 99 ac d2 3d df 04 62 3d
       -0.22213802 3.0692687 0.10286827 0.055180427
0003f0 bd 79 e0 3c a5 9b 8a bd 1d 70 1e 40 d9 f1 5e bd
       0.0274018 -0.06767968 2.4755929 -0.054429863

convs.0.fc_full.weight f4 [128, 169]
000000 a2 f9 6f c0 f1 f2 5a 3e e6 03 77 bf c1 91 82 c0
       -3.7496114 0.21381737 -0.96490324 -4.080292
000010 8c 16 b3 bd e1 5d 3a 3f 1d 6e 1a c0 3f 9c 40 3f
       -0.08744535 0.727995 -2.4129708 0.7523841
000020 d5 13 93 be bd 0b cf 3d e1 55 39 be e9 a5 4f c0
       -0.28726068 0.10109661 -0.18099166 -3.2445014
000030 d5 ec 53 c0 69 a0 53 be c4 e1 37 c0 43 f4 91 bf
       -3.31133 -0.2066666 -2.8731546 -1.1402668
000040 36 50 2d bd 08 bc 7d 3f 37 86 11 bf e9 09 46 3c
       -0.042312823 0.9911504 -0.5684542 0.012087324
000050 8a 8c 9b 3c 25 ca 12 bf 96 97 1a c0 b8 2f a4 3f
       0.018987913 -0.573397 -2.415502 1.2827063
000060 91 66 13 bf e7 ef ee bf cd 71 a4 bf e8 3d 78 be
       -0.5757838 -1.8666962 -1.2847229 -0.24242365
000070 26 0a 49 bf 12 5b da 3e e0 04 0a c0 5e 91 86 bf
       -0.7853111 0.42647606 -2.1565475 -1.0513113
000080 c7 93 22 bf 87 58 1c 3f 1b 9a 70 c0 c7 9f 97 bf
       -0.6350674 0.6107258 -3.7594059 -1.1845635
000090 f1 56 19 bf 3a 0b 0c bf fd 70 2a 3f da 44 f4 3e
       -0.5989829 -0.5470463 0.66578656 0.4770878
0000a0 03 28 f0 bf a0 58 0a be 46 f3 18 bf f5 62 0b be
       -1.8762211 -0.1351037 -0.59746206 -0.13611968
0000b0 a9 26 6c bf 37 8a 51 c0 50 d0 2e c0 d8 12 4d 3f
       -0.9224649 -3.274061 -2.7314644 0.8010688
0000c0 3b 90 a9 3f bd db 19 c0 f4 8f 1a c0 97 51 38 c0
       1.3247141 -2.4040368 -2.4150362 -2.8799798
0000d0 d1 57 ba 3f e9 b8 17 3e f2 2e 35 bf de 2c 85 3f
       1.455805 0.14816631 -0.7077476 1.0404317
0000e0 8a 87 8f 3e 35 ed 56 bf 5c fe 40 c0 8e fa bd be
       0.28033096 -0.839557 -3.0155249 -0.3710522
0000f0 61 04 08 c0 78 92 5f be fd 01 42 c0 a1 ca 91 c0
       -2.1252673 -0.21833217 -3.0313714 -4.555985
000100 41 97 c1 c0 fc 8b 6b bf 01 4b 76 c0 38 54 97 c0
       -6.0497136 -0.92010474 -3.8483279 -4.7290306
000110 fd 6d a8 c0 15 d8 ac 40 ad c5 1a c0 05 89 74 40
       -5.2634263 5.401377 -2.4183152 3.820863
000120 7b 7b dd 3f fa 1f d9 bf 4b 07 d0 3f 06 e1 c6 c0
       1.7303308 -1.6962883 1.6252226 -6.2149687
000130 c8 30 e7 be 2a a1 8c 40 72 09 a2 c0 2e 3c 00 c0
       -0.45154405 4.3946733 -5.063653 -2.003673
000140 2a 24 4d 40 a7 c9 8e 40 e5 00 93 3f 35 e6 78 3c
       3.2053323 4.462116 1.1484648 0.015191604
000150 a8 82 86 40 5e 11 a6 c0 b1 20 ae c0 cc be 16 40
       4.2034492 -5.18962 -5.4414907 2.3553953
000160 61 e6 87 bf 05 a3 dc bf f2 68 76 bf 04 d7 04 40
       -1.0617181 -1.723725 -0.96253884 2.0756235
000170 77 43 2c be d1 39 86 40 36 00 10 c0 c0 10 00 c0
       -0.16822611 4.1945577 -2.2500129 -2.0010223
000180 0b 02 87 40 d8 ac 87 40 78 0b ba c0 8d 88 7d c0
       4.2189994 4.239849 -5.8139 -3.9614594
000190 de e4 84 c0 b6 14 6a c0 f0 cc 84 40 b4 20 a3 40
       -4.152938 -3.657514 4.150017 5.097742
0001a0 bb ea 89 c0 29 fb 99 3d 79 d8 08 40 0a a4 57 bf
       -4.3099036 0.07518608 2.1382124 -0.8423468
0001b0 a1 f5 8d c0 77 a9 b3 c0 eb c4 b7 c0 32 be 81 c0
       -4.436234 -5.6144366 -5.742788 -4.054467
0001c0 30 ad 11 3f 27 7d 70 c0 7d 6d 0d c0 1b a2 6f c0
       0.5690489 -3.7576387 -2.2098076 -3.7442691
0001d0 c3 07 b2 40 91 a8 bd 3e ff cb 47 40 f3 8a 3d 40
       5.5634475 0.37042668 3.121826 2.9616058
0001e0 09 a9 4d c0 dd fb 64 3f 68 d5 47 c0 83 38 06 c0
       -3.213442 0.8944681 -3.1224003 -2.0971992
0001f0 41 33 1f c0 d8 02 94 bf 0e 4a ea c0 92 d7 c0 c0
       -2.4875033 -1.1563368 -7.32154 -6.0263147
000200 fc 22 93 bd 48 62 42 bd 2c e9 49 be a5 7b 27 3d
       -0.07184407 -0.04745701 -0.19717854 0.0408894
000210 d9 d2 99 3e 67 90 a7 3e 9e 9f e0 be c1 64 95 3f
       0.30043676 0.32727358 -0.43871778 1.1671373
000220 98 28 4b 3e c1 fb 65 40 4d e9 c3 3e 10 76 0b c0
       0.19839704 3.5934908 0.38263932 -2.179081
000230 c7 3c 50 bf c9 5d db 3d 51 27 36 c0 04 af 47 bf
       -0.8134274 0.107112475 -2.8461497 -0.7800143
000240 07 47 02 40 95 e1 89 3f 9e 45 2f 3f 53 66 88 3e
       2.0355852 1.0771967 0.684656 0.26640567
000250 ef a3 50 3e 1e 39 ba 3d 08 3a cb 3e 0a 89 e9 3e
       0.20375036 0.090929255 0.39692712 0.45612365
000260 d5 03 cc 3d 21 e1 e5 3e f9 34 5d be fe 12 16 bf
       0.099616684 0.44898322 -0.21602239 -0.5862273
000270 65 54 78 be cd 7f 21 be 90 cb 83 be 33 fe c0 be
       -0.24250944 -0.15771408 -0.25741243 -0.3769394
000280 48 ec 0d be 60 93 5c bd 03 dd 4c bd 36 7f c5 3d
       -0.13859665 -0.053851485 -0.05001546 0.09643404
000290 9e cc ca bc 1c 05 97 3d 5e 6f 1a 3d 83 b8 0e bd
       -0.024755772 0.073740214 0.037703864 -0.034843933
0002a0 92 5d 80 bd 46 b5 52 40 c3 09 9e bf f0 90 ea 3f
       -0.06267847 3.292314 -1.2346729 1.8325481
0002b0 22 ce 93 3e c8 38 19 40 2c 10 fe bf 57 27 90 3f
       0.28868204 2.3940907 -1.9848685 1.1262006
0002c0 64 fa 6f bf f6 2c 8f bf 1d 5d 88 bf 36 24 db 3d
       -0.9374144 -1.1185596 -1.0653416 0.10700266
0002d0 e3 12 6d 40 f7 2b d8 3f 5c e2 a2 bf c7 0b 07 40
       3.7042778 1.6888417 -1.2725329 2.1100938
0002e0 70 ae 1b 3f 22 55 c7 be 0a ae 78 bf ee ca c9 be
       0.60813046 -0.3893214 -0.9714056 -0.39412636
0002f0 bf ff 33 3f f5 d3 1f 3f 12 ef db 3f ea d1 8f 3f
       0.7031211 0.62432796 1.7182333 1.1235936
000300 6d 48 7d be 62 88 83 3f 62 79 33 40 de c3 23 3f
       -0.2473466 1.0275996 2.8042836 0.63970745
000310 dc 1f c9 3e 83 cc f7 3e 40 b5 98 bf 4c fc 1b 40
       0.3928212 0.48398218 -1.1930313 2.437274
000320 f4 c9 22 bf bc 09 52 bf e8 37 65 bf d1 09 6c 40
       -0.63589406 -0.82046103 -0.8953843 3.6880991
000330 60 e5 81 be 9d 60 1e 3f cd 59 d8 3d 07 2a cb bf
       -0.25370312 0.6186617 0.10564003 -1.5872201
000340 67 53 a2 3c 88 66 83 3f 74 52 49 3e 71 ab 58 bf
       0.01981516 1.0265665 0.1966036 -0.846366
000350 bc 4d 57 3e 43 0b f7 3e 48 72 48 40 18 13 d6 3f
       0.21025747 0.4825078 3.1319752 1.6724577
000360 ca a4 30 bf 0e 9c 4f bf d3 5e 09 40 00 f8 0c 40
       -0.6900145 -0.81097496 2.1464126 2.2026367
000370 bb ad a7 3e d4 7c f1 bf 8f 0a 1b c0 d6 f0 7f bf
       0.32749733 -1.886622 -2.4225194 -0.9997686
000380 91 49 ca bf 30 2b 54 be 72 e4 db bd 51 19 06 40
       -1.5803701 -0.207196 -0.10736932 2.0952952
000390 c2 d5 3c 3d 2e 21 1e 40 57 27 c4 be 57 53 3d 40
       0.046102293 2.4707751 -0.38311264 2.9582117
0003a0 a1 a4 d3 3f f1 ec 04 bf 9c 78 18 bf ab f6 7d 40
       1.6534616 -0.51924044 -0.59559035 3.9681804
0003b0 a0 35 90 3e 44 3d 70 3f 18 d2 b7 3f 9b 67 95 bf
       0.28165913 0.93843484 1.436099 -1.1672243
0003c0 c1 62 f0 3f 75 14 01 40 2b 08 b9 bf 3c ef 94 40
       1.8780137 2.0168736 -1.4455618 4.6542034
0003d0 4e 03 d3 3d 3e 17 ce 3d b9 b4 45 40 fd fd fd bd
       0.10303365 0.10063027 3.0891554 -0.1240196
0003e0 57 5e a2 40 c0 c1 34 3f 74 a9 14 40 81 85 aa bf
       5.074016 0.7060814 2.3228426 -1.3321992
0003f0 6c 38 38 c0 fd 09 3e c0 df 91 de bf 1d 4e 7d bf
       -2.8784437 -2.9693596 -1.7388266 -0.98947316

convs.0.fc_full.bias f4 [128]
000000 f7 2a 9c bd 50 f0 1a 3d 92 c4 02 be 8d 8f bb bd
       -0.076253824 0.037826836 -0.12770298 -0.091582395
000010 a5 87 dc 3c bc f7 a2 bd 17 c4 19 3b 03 8f 8f bc
       0.02692015 -0.07957408 0.0023462826 -0.017524248
000020 89 ad 84 bd 5d 01 3e 3d 4e 71 78 3d 56 39 a2 bd
       -0.06478412 0.04638802 0.06065493 -0.07921092
000030 b4 28 dd 3c 4d 7d ef 3d ae 09 be bd 4b b5 f2 bc
       0.026996948 0.11693821 -0.0927919 -0.029627463
000040 bb 99 0c ba 8e 2e 6b 3d a3 e6 aa bc 5b b1 f0 3d
       -0.0005363484 0.057417445 -0.02086193 0.11752578
000050 79 d2 89 3d 67 91 4e 3d 7f e7 dd 3d 13 f2 ee ba
       0.067295976 0.050431635 0.1083517 -0.0018230103
000060 4c df 34 bd c5 7e 91 3c fe 29 dd 3d c6 cf db 3c
       -0.044158265 0.017760644 0.10799025 0.026832473
000070 37 30 af bc dd e6 00 3e f0 83 73 bd b7 ea 2d bd
       -0.021385295 0.12588067 -0.059451997 -0.04246017
000080 74 ae 08 bd 4f db 7b bd e3 f1 06 bc 57 49 0f 3d
       -0.033369496 -0.061488446 -0.008236381 0.03498205
000090 f8 af c9 bd 4c 6f 24 3e d6 b0 27 bd ef 05 d2 3c
       -0.098480165 0.16058081 -0.04094013 0.025637595
0000a0 5a 87 02 3d 6e 3b 87 bd 04 11 0d bd 3b aa e7 3d
       0.031867363 -0.06603132 -0.034440055 0.11311766
0000b0 c1 4a c3 bc 6f ca 77 bb bc 55 80 bd a3 50 b0 3d
       -0.023839356 -0.0037809869 -0.062663525 0.0860913
0000c0 21 b8 12 3d 9a 7b 00 3e 0d 6a 89 3d 9a 03 0b bd
       0.03582013 0.1254715 0.06709681 -0.03393898
0000d0 4d ee 40 3d 42 80 9f bd 77 63 58 bd a8 26 89 bd
       0.04710226 -0.07788135 -0.052829232 -0.06696826
0000e0 68 18 20 3d e0 11 60 3d 6f 59 8f 3d 4a 59 ee 3c
       0.039085776 0.054704547 0.0699948 0.02909531
0000f0 76 7a a6 bc 70 b2 d1 ba 18 e3 a2 3c 00 a2 8b bd
       -0.020322066 -0.0015998613 0.019883677 -0.068180084
000100 f6 a6 b4 bd 5c 5b 48 bc c9 50 1c bd 30 c7 d9 3c
       -0.08820908 -0.012228813 -0.03816298 0.026584238
000110 41 d4 3e bd c1 73 36 3d 08 f9 12 3d 83 05 e1 bd
       -0.04658914 0.044543985 0.035882026 -0.109873794
000120 e4 6d 84 3c 4e f1 ef bb eb d6 12 3d 6d da 20 3d
       0.016165681 -0.007322467 0.035849493 0.039270807
000130 b1 50 25 bd 8c 0a 7e bc bf 62 44 bd 5d 1d 69 bd
       -0.040360156 -0.015505444 -0.047945734 -0.05691277
000140 c0 13 be 3c 0c 94 0b 3d 4a af 87 3a 9d 59 e2 3c
       0.023202777 0.034076735 0.0010351923 0.027630622
000150 9f c3 95 3d 50 1e 68 3b 82 60 a4 bd 61 ab 4d 3d
       0.073127024 0.0035418458 -0.0802622 0.050212268
000160 ff 0d 85 bd 16 66 49 3d 1b 8a 8d 3d eb 19 8b bd
       -0.0649681 0.049169622 0.06911107 -0.06792053
000170 b4 63 fb 3d 62 ff 95 bc 6f 4d b1 3d 6b bc 96 bd
       0.12274876 -0.018310253 0.086573474 -0.073601566
000180 12 0b 1b 3d ca cd fa bb 2a 16 9f bc 6e 22 31 3d
       0.037852354 -0.0076539265 -0.019419748 0.043245725
000190 23 d7 63 3d 91 02 9a 3d 40 78 05 bc f7 81 d0 3d
       0.055625092 0.07520021 -0.008146346 0.10181039
0001a0 8b 12 19 bd 62 6a 42 bd 65 d9 1a 3e 8e 2b 08 3d
       -0.0373712 -0.047464736 0.15121992 0.033244662
0001b0 31 9c 69 bd 35 2c a5 3c 38 df 10 3e ae 73 1c bd
       -0.05703372 0.020162681 0.14147651 -0.03819626
0001c0 05 12 0c bc 31 15 89 3d 9a 61 05 bd 96 01 32 bd
       -0.008549218 0.06693495 -0.032563783 -0.043458544
0001d0 08 b1 64 3d 0e bd ad 3c 2f 5f d1 3d fc 4d df 3c
       0.055832893 0.021208312 0.10223233 0.027258866
0001e0 1f 36 fb bd ab ec 56 3c 1f 88 cd 3d 2c 2a 10 bd
       -0.12266182 0.0131179495 0.10035729 -0.03519647
0001f0 08 fa 86 3d d8 bd 11 3b 64 d7 2c 3c cd 3e bf bc
       0.065906584 0.00222384 0.0105494 -0.023345375

convs.0.bn1.weight f4 [128]
000000 f6 e7 70 41 b3 f8 45 3f 0f 97 3a 40 7d 9f 89 40
       15.056631 0.7733261 2.91547 4.300719
000010 76 e2 34 40 e6 a5 13 3c 83 cd 9e 3f ee cd 9e 3e
       2.826322 0.009011721 1.2406467 0.31016487
000020 66 0c 26 40 6f 5d 5e 3e 2e ff 92 bf da 14 df 40
       2.5945067 0.2171533 -1.1484125 6.9712954
000030 45 33 6d 40 48 01 cd 3e 57 14 f1 40 c2 51 5e 3f
       3.7062542 0.4004004 7.533733 0.868435
000040 9c bb 3d 3f 21 0f e7 40 c6 13 3e bf 93 1e c1 3f
       0.74114394 7.220597 -0.7424892 1.5087456
000050 18 f9 db 3e 5c 31 13 41 77 31 07 41 ea 19 2d 3f
       0.4296348 9.199551 8.449576 0.67617667
000060 61 f5 8d 3f b6 c7 b9 3f 1c 39 8d 40 9d 96 8c be
       1.1090509 1.4514072 4.4132214 -0.2745866
000070 8f 7f fd 3f 1a 76 04 41 22 67 f0 40 81 9b 09 3e
       1.9804553 8.278833 7.5125895 0.13438226
000080 64 3d 57 40 f8 0d 09 3f de 62 24 40 61 d1 93 40
       3.363122 0.5353694 2.5685344 4.619309
000090 7b b6 ea 3f 44 5f fd 3f f1 67 d7 be a7 3e 34 3f
       1.8336939 1.9794698 -0.42071488 0.704081
0000a0 bb bb 22 3e 3c e1 8b 41 7f c2 57 41 26 a6 6b 3f
       0.15891926 17.484978 13.484984 0.920504
0000b0 22 98 e1 3f 87 ac ed 40 aa 87 bf bc b1 58 cd be
       1.7624552 7.4273105 -0.02338012 -0.4010673
0000c0 4e 04 0a 41 42 25 a6 3f 41 40 1b 41 b5 08 97 3b
       8.626051 1.298012 9.703187 0.0046091923
0000d0 d8 71 13 40 73 7c fa 40 d7 58 33 3f f7 bc d4 40
       2.3038235 7.8276916 0.70057434 6.648067
0000e0 0d e4 cc 3e 8c a4 1f bc 2c ed 0a 41 bb c8 63 40
       0.4001774 -0.009743821 8.682903 3.5591266
0000f0 94 c5 bf 40 28 27 da 40 a2 42 bc bd 42 00 2d 3f
       5.9928684 6.81728 -0.09192397 0.6757852
000100 97 48 8e 3f a5 24 eb bf f2 8d 68 40 9d 70 46 40
       1.1115903 -1.8370558 3.6336637 3.1006234
000110 50 3d 8d 40 42 31 e4 40 7f f5 5f 40 47 1e be 3e
       4.4137344 7.131013 3.499359 0.37132475
000120 2f f7 ad 3e 6f 51 8b 40 ba 33 53 40 1f d7 27 41
       0.3397765 4.3536906 3.3000321 10.49002
000130 d2 10 c6 40 39 64 e8 be 27 c9 4a 3f 09 92 44 3f
       6.1895533 -0.45388964 0.79213184 0.7678533
000140 33 fb 64 be 8d 16 8c 40 36 97 f2 3e e6 25 d6 3f
       -0.2236145 4.377753 0.4738099 1.6730316
000150 47 e7 7f 40 cb 88 04 41 75 b2 38 40 4e 42 43 40
       3.998491 8.283397 2.8858922 3.050922
000160 56 e6 9e bf 64 e0 26 3f 6d 2f cd bf c6 a1 91 bf
       -1.2414043 0.6518614 -1.6030098 -1.1377494
000170 f5 e8 15 40 4d c5 d7 40 20 3c c2 40 f3 07 7d bf
       2.3423436 6.7428346 6.0698395 -0.98840255
000180 3e af fe 3f 02 47 bb 3f 7b ec 85 40 67 a7 a1 40
       1.989723 1.4631045 4.1851172 5.051685
000190 e0 30 a0 bf 45 ab 30 40 13 1d 96 be a4 e4 b7 3e
       -1.2514915 2.7604535 -0.29319057 0.35916626
0001a0 b5 52 03 40 48 36 2b c0 cc c6 8f 40 cd e6 11 40
       2.051923 -2.675188 4.493017 2.279712
0001b0 37 97 65 40 61 da 14 41 66 32 e7 3f e1 0d 28 bf
       3.5873544 9.303315 1.8062255 -0.6564618
0001c0 5d f4 4a 40 e1 e3 35 40 1a 4e 5b 3f ff 6e 1c 3f
       3.1711648 2.8420336 0.8566605 0.61106867
0001d0 41 63 29 40 8b 2c 17 3f 9f 7d 6f 3f 1c eb a6 bf
       2.646683 0.5905234 0.9355106 -1.30405
0001e0 4c 47 65 3e 76 64 1f 3e 26 88 07 bf ca 4b 97 bf
       0.22390479 0.15565667 -0.5294212 -1.1820004
0001f0 2f fb c6 40 fe 43 d3 3f ca 96 a8 40 7b 47 41 40
       6.218162 1.6505125 5.268407 3.0199878

convs.0.bn1.bias f4 [128]
000000 6e 76 e4 be 3f 30 71 40 2b e8 62 c0 6c 22 ef c0
       -0.44621605 3.7685697 -3.5454204 -7.472952
000010 db 7b f8 bf c9 a0 75 40 e7 44 2a 3f 9e 0c fa 40
       -1.9412798 3.8379385 0.66511387 7.81404
000020 bd 45 24 40 dc 85 21 41 9c f8 fb 40 43 f9 43 c0
       2.5667565 10.0951805 7.874098 -3.0620887
000030 f8 c0 04 c0 0e a0 f8 40 19 5e 09 c0 32 c6 9e 40
       -2.0742779 7.769538 -2.1463683 4.961694
000040 e3 a0 72 c0 88 8e 27 c0 80 9d b3 bf 37 13 aa 40
       -3.7910697 -2.6180744 -1.403244 5.3148456
000050 78 25 cc 40 f8 04 df 3e 7b f1 6b 3f 41 c6 ca 3f
       6.379574 0.43558478 0.92165345 1.5841752
000060 75 8a b5 bf fe 96 7d 40 bf c1 ea 3f 45 06 72 40
       -1.4182879 3.9623408 1.8340377 3.7816327
000070 f0 9b aa 3f 90 a9 fd bf ca 40 71 3f 84 46 b5 3e
       1.3328838 -1.9817371 0.94239485 0.35405362
000080 15 48 9a bc 2d 02 20 40 9e 06 32 3f 55 b6 3f c0
       -0.0188332 2.5001328 0.6954135 -2.9955037
000090 c9 c5 d2 3f 5c 01 38 bf a7 71 fb 40 62 fb 67 40
       1.6466609 -0.71877074 7.8576236 3.6247182
0000a0 28 72 94 40 e8 2f 4b 40 e7 be 26 bd b0 e0 e8 be
       4.638935 3.174799 -0.040709402 -0.45483923
0000b0 b7 8d a0 3f 10 af c2 3f 3e 88 cc be 28 e4 aa be
       1.2543248 1.5209675 -0.39947695 -0.33377194
0000c0 1d 50 14 c0 90 0e 4b bf d6 a2 15 c0 ed 33 ac 40
       -2.3173897 -0.79319096 -2.3380637 5.3813386
0000d0 f2 75 f3 3f 89 13 a7 3d 6d 6b 08 bf 04 69 d6 3e
       1.9020369 0.08158023 -0.5328892 0.41876996
0000e0 c3 f4 23 41 02 d6 0e 41 42 ef 41 c0 04 2b 8d 3f
       10.247256 8.927248 -3.0302281 1.1028752
0000f0 0b 78 f3 3f 91 d3 bd 3f e9 24 85 40 d5 2f 2a 40
       1.9021009 1.483019 4.1607556 2.6591694
000100 b8 3e aa 40 ad 21 c1 3f e4 85 9d c0 4c 5e 9e c0
       5.320156 1.5088402 -4.922594 -4.949011
000110 04 4a 18 c0 20 e7 d6 be 59 68 b1 bf 8a 11 c3 40
       -2.3795176 -0.4197321 -1.3859969 6.095891
000120 18 48 18 41 8f 62 87 bf 6f 09 94 bf 26 1d 1b be
       9.517601 -1.0576953 -1.1565379 -0.15147838
000130 d2 01 7b c0 01 46 ae 40 08 b7 7a 41 3b b4 83 40
       -3.921986 5.4460454 15.669685 4.115751
000140 91 86 8c 40 ee dd b2 c0 d5 f8 25 41 8b 95 9f 3d
       4.3914266 -5.589591 10.37325 0.07792195
000150 0e da 94 3e ac 14 80 3e bd d4 1d 3e 82 ee 00 c0
       0.29072613 0.2501577 0.15413184 -2.0145574
000160 24 9e 7e 40 52 82 d2 40 a6 24 87 40 91 04 5e 40
       3.9784021 6.5784082 4.2232237 3.4690287
000170 22 b3 36 c0 a6 f1 b3 c0 3b 83 31 bf 64 5d 31 41
       -2.8546834 -5.623248 -0.69340867 11.0853
000180 1a 62 87 bf c5 fc ed 40 1f 7d 29 c0 23 1b dd bf
       -1.0576813 7.4371057 -2.6482618 -1.7273906
000190 01 7c 09 40 89 48 89 bf 14 11 f6 40 6e 73 0f 40
       2.1481936 -1.0725261 7.6895847 2.2414203
0001a0 1d 6c c3 bd 77 e4 20 41 51 dc 6c 40 d0 2d 44 bf
       -0.09542105 10.055778 3.700947 -0.76632404
0001b0 0b b6 7a bf 19 87 d7 bf dc e3 1c c0 81 ec 9f 40
       -0.97934026 -1.6838104 -2.4514074 4.99762
0001c0 c3 c3 78 40 f7 fb 1c bf 6d bd b1 40 52 d5 88 40
       3.8869483 -0.6132197 5.5543733 4.27604
0001d0 86 06 01 c0 08 f5 7e 40 f4 40 ad be 5c af c0 40
       -2.0160232 3.9837055 -0.33838618 6.021406
0001e0 81 e9 a7 40 37 f0 b6 40 a4 e2 91 41 29 63 38 40
       5.247254 5.716823 18.235664 2.8810523
0001f0 44 de ee 3f 5d ae dd 40 78 81 1f 3f 0d c6 84 3e
       1.866158 6.9275346 0.6230693 0.2593235

convs.0.bn1.running_mean f4 [128]
000000 0a 8a 2e 44 57 09 b6 c4 47 fd a8 44 76 52 97 44
       698.15686 -1456.2919 1351.9149 1210.5769
000010 bb ff 8b c3 2b 3d 10 c5 38 a2 92 c3 2e a4 dd c3
       -279.9979 -2307.823 -293.26733 -443.28265
000020 8b f1 6a c4 59 58 94 c3 dd cc b5 c4 45 bb 9c c3
       -939.7741 -296.69022 -1454.402 -313.46304
000030 92 a6 f0 c4 4b 93 17 44 04 0c 82 44 dc 83 43 44
       -1925.2053 606.30145 1040.3755 782.0603
000040 96 0e 63 43 08 90 b6 c4 05 2b 92 c3 76 96 2b c4
       227.05698 -1460.501 -292.3361 -686.35095
000050 f9 05 67 c2 60 f1 17 c5 4a c4 99 44 61 53 0a 44
       -57.755833 -2431.086 1230.134 553.3028
000060 57 af a7 43 0f b2 35 c3 54 0f a1 43 a9 3d 05 44
       335.36984 -181.69554 322.11975 532.96344
000070 96 71 40 c4 8e 2e 17 c3 84 05 c4 c3 5a ae b9 c4
       -769.7748 -151.18185 -392.0431 -1485.4485
000080 d6 d7 c4 41 bc bf 85 44 69 8e df 44 13 3d 3c 44
       24.605389 1069.9917 1788.4503 752.9543
000090 c7 ae 0b 44 32 7e 72 44 fe 58 84 44 09 2c fb c2
       558.7309 969.9718 1058.781 -125.586006
0000a0 a3 f0 a3 43 6b 52 f1 44 62 27 af c4 5e f5 b4 42
       327.87997 1930.5756 -1401.2307 90.47923
0000b0 2a 73 0e 43 bc b2 a8 41 a5 8e 95 44 13 d6 6a 44
       142.44986 21.087273 1196.4576 939.3449
0000c0 6b 63 26 c4 f5 63 c0 43 e6 86 03 44 20 19 2b 44
       -665.5534 384.7809 526.1078 684.3926
0000d0 6e 1b 9c 43 ab 56 d4 c4 32 8b 47 44 98 9e 1f c4
       312.2143 -1698.7084 798.1749 -638.478
0000e0 78 17 cf c3 82 5d bb 43 95 f4 c0 c3 8f af 1d 43
       -414.18335 374.73053 -385.9108 157.68578
0000f0 aa 63 6d c4 3b a9 75 44 07 bd 0f c4 14 8f a7 44
       -949.55725 982.6442 -574.95355 1340.4712
000100 45 63 5b c3 03 76 d9 c4 8c 04 c0 44 b5 17 77 44
       -219.38777 -1739.6879 1536.1421 988.3704
000110 ea ca d7 c3 6a 1f 1f c5 4b 75 4f c3 fa 2f ae c4
       -431.58527 -2545.9634 -207.45818 -1393.4993
000120 22 ac 61 42 e1 00 0c 43 df 45 27 44 7c 00 75 c4
       56.4181 140.00343 669.09174 -980.00757
000130 3a e2 02 44 7e 28 b4 c3 d2 18 22 c5 cf 7c b9 44
       523.5348 -360.31635 -2593.5513 1483.9003
000140 85 59 88 43 de e7 e3 c4 11 43 7a 44 7e 1d 88 c4
       272.69937 -1823.2458 1001.0479 -1088.9216
000150 da df 04 c4 77 f7 ba 44 91 b2 87 c3 bc 77 f0 44
       -531.4977 1495.7333 -271.39505 1923.7417
000160 cb 1f 1e c2 54 aa d2 c4 24 34 5b 44 e7 d2 23 44
       -39.531048 -1685.3228 876.8147 655.29535
000170 df 8d a2 c3 5b 9c 7a 44 55 3e 9f c4 51 e7 0e c3
       -325.10837 1002.44305 -1273.9479 -142.90358
000180 20 d3 66 44 11 e7 99 43 d9 ed e8 44 c8 f2 50 44
       923.2988 307.8052 1863.4327 835.79346
000190 6c 18 1b 43 53 43 69 44 9d 15 29 44 97 04 36 c2
       155.0954 933.05194 676.3377 -45.504482
0001a0 76 e0 83 42 ee 25 41 45 8a b2 b1 c4 d3 78 cd 42
       65.9384 3090.3706 -1421.5793 102.735985
0001b0 a7 89 90 43 8c 36 cc 44 86 3c c4 44 74 34 6b 44
       289.0754 1633.7046 1569.8914 940.8196
0001c0 ce fc 16 c3 84 d3 ea 43 08 d0 83 c4 d5 89 2e 44
       -150.98752 469.65247 -1054.501 698.1536
0001d0 e2 7a df 44 83 70 83 c4 91 7c c1 44 23 26 66 44
       1787.8401 -1051.516 1547.8927 920.5959
0001e0 34 24 c2 c3 72 dd ad 44 80 8f 42 c5 93 20 b9 c3
       -388.28284 1390.9202 -3112.9688 -370.2545
0001f0 87 fa bf c4 a0 18 31 c4 ff ab 77 43 02 79 ed 44
       -1535.829 -708.38477 247.67186 1899.7815

convs.0.bn1.running_var f4 [128]
000000 cd d5 67 49 f0 b3 aa 49 b3 1a 0a 49 3e fb 07 48
       949596.8 1.398398e+06 565675.2 139244.97
000010 e0 98 7e 48 4e a9 b3 49 35 c2 05 4a 3b ae c3 49
       260707.5 1.4717858e+06 2.1915012e+06 1.6030154e+06
000020 dd 4c d2 49 d0 79 a4 49 09 3e 83 49 e0 ab 39 4a
       1.7227796e+06 1.347386e+06 1.0751371e+06 3.04204e+06
000030 d7 7b 80 4a 88 a9 0e 49 8d 45 3b 4a 9d b3 6f 49
       4.2101555e+06 584344.5 3.0682592e+06 981817.8
000040 27 9f b1 49 2b d7 ee 49 82 32 23 4a c8 cd 7c 49
       1.4550769e+06 1.9565814e+06 2.6738245e+06 1.0354845e+06
000050 8b 1e 8f 4a 20 b2 89 4a a5 a5 23 4a 28 36 5a 49
       4.6897335e+06 4.512016e+06 2.6811932e+06 893794.5
000060 1c 59 64 48 85 25 2b 4a ad 52 b5 48 6e 16 76 4a
       233828.44 2.8040652e+06 371349.4 4.0318995e+06
000070 61 eb 2a 49 60 44 4d 47 6b 1d 1c 4a a1 83 26 4a
       700086.06 52548.375 2.5577868e+06 2.7281682e+06
000080 55 1e 12 49 4b 54 de 49 bd 32 02 4a 62 b1 1a 49
       598501.3 1.8213214e+06 2.1331672e+06 633622.1
000090 53 c2 e4 49 51 c2 65 49 41 1b 8b 49 47 72 aa 48
       1.8739944e+06 941093.06 1.1395601e+06 349074.22
0000a0 f4 eb 68 49 7a bb 11 4a 0b 10 fa 49 88 21 45 48
       954047.25 2.3876785e+06 2.0485134e+06 201862.12
0000b0 b6 53 a6 47 fc 59 ad 49 10 0b 5d 4a e7 8d b9 49
       85159.42 1.4200955e+06 3.621572e+06 1.5200609e+06
0000c0 d2 d1 9c 49 cc 4c 1d 4a 31 a1 2d 4a 1c ee d4 49
       1.2846662e+06 2.577203e+06 2.8447482e+06 1.7443235e+06
0000d0 8c 04 d3 49 a6 8a e4 49 8e 46 c5 49 55 5c 78 49
       1.7286575e+06 1.8722128e+06 1.6160818e+06 1.0172853e+06
0000e0 4d b1 78 48 8e 5f 98 48 12 be 1f 4a 6d 64 06 48
       254661.2 312060.44 2.6172205e+06 137617.7
0000f0 90 8b 33 4a f6 12 16 48 2b f0 a6 49 4c 25 e3 49
       2.941668e+06 153675.84 1.3675574e+06 1.8607775e+06
000100 7d 4a b2 4a a3 96 9c 48 0b bc 31 49 ed 56 fa 48
       5.8422385e+06 320693.1 728000.7 512695.4
000110 10 47 12 48 97 0e 53 49 2e 39 0f 4a b8 13 f5 49
       149788.25 864489.44 2.3465715e+06 2.007671e+06
000120 ec 3d e4 49 fa 8c a3 49 3e e8 3b 4a 73 a9 2c 4a
       1.8697575e+06 1.3398072e+06 3.0786715e+06 2.8288928e+06
000130 cd b6 52 4a e0 c5 74 49 04 10 8f 4b ff f5 c4 49
       3.4523392e+06 1.00259e+06 1.8751496e+07 1.6135039e+06
000140 43 a6 36 49 cb b0 43 49 13 bb 57 4a 2b ba 4e 49
       748132.2 801548.7 3.5345328e+06 846754.7
000150 ec a8 8b 4a 0c 1f f9 4a fb 05 37 4a 07 7f ba 49
       4.576374e+06 8.163206e+06 2.9986548e+06 1.5277769e+06
000160 44 b9 c5 48 4d 45 79 4a 9e 4e 29 49 46 ab 91 4a
       404938.12 4.0840512e+06 693481.9 4.773283e+06
000170 86 d6 81 49 10 e4 e2 47 c5 7b 58 4a f5 e4 c2 49
       1.0636328e+06 116168.125 3.5468652e+06 1.5965746e+06
000180 30 4b 87 49 af 0b ec 49 09 f6 ac 4a b8 11 3e 49
       1.108326e+06 1.9336859e+06 5.6675885e+06 778523.5
000190 5c f6 78 49 ba e1 7f 49 77 a3 09 4a a3 00 5f 49
       1.01974975e+06 1.0480916e+06 2.2550698e+06 913418.2
0001a0 68 4b 15 4a ac 32 b1 4b 5e eb b6 4a 99 02 be 48
       2.446042e+06 2.3225688e+07 5.993903e+06 389140.78
0001b0 78 45 b2 47 fd 5c 0b 4a aa a0 5e 4a b1 4c 88 49
       91274.94 2.2833272e+06 3.6475305e+06 1.1165661e+06
0001c0 b0 d2 f9 48 ca 44 16 4a bd 8a d6 4a f4 ab 0c 4a
       511637.5 2.4620025e+06 7.0301105e+06 2.304765e+06
0001d0 cb b9 28 4a ad 5e b7 48 d6 58 a1 49 b2 f3 9c 4a
       2.7644028e+06 375541.4 1.3217548e+06 5.143001e+06
0001e0 0e ad 16 4a b6 bd 48 49 f5 a3 e9 4a 3b 4e 2a 48
       2.4686755e+06 822235.4 7.6559305e+06 174392.92
0001f0 12 99 ce 4a f0 c4 86 48 a1 86 5e 4a f6 be 3f 4a
       6.769801e+06 276007.5 3.6458642e+06 3.1415655e+06

convs.0.bn2.weight f4 [64]
000000 1d 94 69 3f 28 72 70 3e 1e f3 f0 3f 1a d1 ad 3f
       0.9124163 0.23481047 1.8824193 1.3579438
000010 6f df b7 bf ab c2 2f c0 46 45 d6 3f 97 71 88 40
       -1.4365062 -2.7462566 1.673989 4.263866
000020 5e f3 af bf d2 00 03 40 b0 16 1e 3f 81 21 a6 3f
       -1.3746145 2.046925 0.6175337 1.2978975
000030 e2 8e 06 40 90 0e ea bf 0c 42 90 3f c6 5d e0 40
       2.1024709 -1.8285694 1.1270156 7.011447
000040 fd 28 0b 40 1e e2 b9 bf 4d e7 80 40 4e 22 13 3c
       2.1743767 -1.452213 4.028235 0.008980347
000050 19 c3 c5 3f dd c1 93 3f 0c 41 ae 3f d7 2e 65 3f
       1.5450164 1.1543537 1.3613601 0.89524597
000060 3c a4 1a 40 27 b0 b8 3f b3 8e 5d 40 44 1a 1b 3e
       2.416274 1.4428757 3.4618347 0.15146738
000070 41 33 92 be e9 f6 66 40 67 d4 93 3f 1d a7 85 3f
       -0.2855473 3.6088202 1.1549195 1.0441624
000080 3f 76 43 3e dd 40 3b 40 d2 97 aa 3f 65 07 13 40
       0.19088076 2.925834 1.3327582 2.2973263
000090 91 26 c3 3e 36 e3 6d 40 be 0f 1d 40 64 2f 8e 3e
       0.3811536 3.7169929 2.4540858 0.2777053
0000a0 5f 17 ab 3f 9d 31 2a 3f a4 fc 97 3f 68 c5 e3 bf
       1.3366507 0.66481954 1.1873975 -1.7794619
0000b0 48 7b d4 bf e4 67 39 3f c5 57 c6 3f 5a 0f 91 3e
       -1.6600122 0.7242415 1.5495535 0.28332025
0000c0 6b 32 e5 3f fd cb e7 3f 98 e2 53 3f ce 78 7b 40
       1.7906011 1.8109127 0.8276763 3.9292483
0000d0 31 02 8c 3e 17 0d 09 3f 46 51 e6 3f df 04 f6 3f
       0.27345422 0.535356 1.7993553 1.9220237
0000e0 c1 01 c4 3f b4 02 0c 40 00 c6 46 3f c4 05 3c 40
       1.5313035 2.187665 0.77645874 2.937852
0000f0 b9 85 97 3f a9 7a 56 40 68 c4 56 3f e9 6c 81 3f
       1.1837684 3.3512366 0.8389344 1.0111362

convs.0.bn2.bias f4 [64]
000000 1a 53 94 c0 6c b1 65 c0 24 4c f5 c0 46 1d 1a c0
       -4.635144 -3.588954 -7.6655445 -2.4080367
000010 e4 ff cb c0 35 be 3f c0 5f c9 95 c0 49 82 c8 c0
       -6.3749866 -2.9959843 -4.6808314 -6.265904
000020 70 56 5b c0 b4 0d 09 c0 2e 48 11 c0 a1 13 96 c0
       -3.4271507 -2.1414614 -2.2700305 -4.689896
000030 2b a3 e7 bf 52 32 da c0 90 a3 fe bf 77 a2 0c c1
       -1.809667 -6.8186426 -1.9893665 -8.789664
000040 e9 68 b1 c0 d0 de 53 c0 cb 6d 08 c0 e2 6d 88 bf
       -5.5440564 -3.3104744 -2.1317012 -1.0658534
000050 5d b6 e7 bf 57 94 02 c0 1a 7f 99 c0 15 e3 75 c0
       -1.8102528 -2.040304 -4.7967653 -3.841985
000060 31 08 98 c0 15 91 a6 c0 52 2c 25 c0 bf e5 1e c0
       -4.751 -5.20521 -2.58083 -2.4827726
000070 29 2c 90 c0 60 8f 29 c0 88 53 9e c0 8c e0 45 c0
       -4.5053906 -2.649376 -4.9476967 -3.0918303
000080 55 13 a0 c0 fe 10 98 c0 91 76 62 c0 30 9a 72 c0
       -5.00236 -4.7520742 -3.5384867 -3.7906609
000090 24 b9 84 c0 0e 32 a2 c0 61 c0 c2 c0 9d 76 b9 c0
       -4.1476 -5.06861 -6.0859838 -5.795729
0000a0 72 f7 68 c0 07 af d9 bf 18 61 80 bf 83 43 16 c1
       -3.6401029 -1.7006539 -1.0029631 -9.391482
0000b0 cd 74 f4 c0 e7 a0 4d c0 77 2f 64 c0 53 48 90 c0
       -7.639258 -3.2129457 -3.565397 -4.5088286
0000c0 a1 18 ed be eb d7 ad c0 e8 d8 aa c0 55 2f 34 c0
       -0.46307853 -5.432607 -5.338978 -2.815389
0000d0 c2 66 67 c0 83 dd f7 bf ba d9 a3 c0 bf 64 79 c0
       -3.6156468 -1.9364475 -5.120328 -3.896774
0000e0 c5 8c 3b c0 33 e0 74 c0 b8 5f 8b c0 f6 fa 0c c1
       -2.930467 -3.826184 -4.3554344 -8.81127
0000f0 d4 86 ca c0 aa 96 88 c0 00 35 80 c0 84 42 c4 c0
       -6.3289585 -4.2683916 -4.0064697 -6.1331196

convs.0.bn2.running_mean f4 [64]
000000 5f 23 05 42 e1 92 b4 41 89 0b d1 3f 42 56 0e 3e
       33.284542 22.571718 1.6331645 0.13900092
000010 07 23 f4 3f 9d bf 07 42 4e 87 27 41 ac 4c 92 42
       1.907319 33.937122 10.470533 73.14975
000020 54 87 b1 42 42 38 9c 41 b8 aa 5e 41 41 c2 0e 42
       88.76431 19.52747 13.916679 35.6897
000030 c4 0f f8 40 da c1 82 42 24 7e 86 42 bb e1 44 42
       7.7519245 65.37862 67.24637 49.22044
000040 d5 66 bf 3f e2 13 9a 40 7a 27 d8 41 1e 99 3e 41
       1.4953257 4.814927 27.019276 11.912382
000050 4d d1 ba 41 80 d6 ba 41 a4 55 6d 41 ee 6f df 40
       23.352198 23.354736 14.833408 6.9824133
000060 6e bd 3a 41 a8 af 98 42 14 73 ee 41 05 46 25 42
       11.6712475 76.34308 29.80619 41.31838
000070 00 45 55 40 54 0c bc 3d d1 93 b7 41 11 39 9c 42
       3.3323364 0.09182039 22.947176 78.11146
000080 88 9e c4 40 c6 c9 a4 42 a1 29 4b 41 2e 15 66 41
       6.144352 82.39409 12.697663 14.380171
000090 56 ff b7 41 17 86 03 41 e9 7b b8 42 50 e0 da 41
       22.999676 8.220237 92.24201 27.359528
0000a0 6c 3a 48 41 e0 a9 8d 42 dd 33 be 41 16 a8 dc 40
       12.514263 70.83179 23.775324 6.8955183
0000b0 41 41 6a 41 80 d7 2b 42 c7 86 6f 3f 12 74 cf 41
       14.640931 42.96045 0.9356503 25.931675
0000c0 fa eb 7b 41 3a 6e 03 41 87 df c4 41 98 24 4d 42
       15.745111 8.214411 24.609144 51.285736
0000d0 fa 4b cd 40 d7 b0 91 41 98 d6 5d 40 ae e0 02 42
       6.4155245 18.211348 3.4662228 32.719414
0000e0 bd 3e 7c 42 e5 46 89 42 a3 00 79 42 60 1d af 41
       63.061268 68.638466 62.25062 21.889343
0000f0 d6 c4 26 42 7a 54 45 42 94 2f f2 41 9f 26 8f 41
       41.692223 49.332497 30.273232 17.893858

convs.0.bn2.running_var f4 [64]
000000 80 84 2a 43 22 c8 46 43 6a b5 a5 40 20 20 b3 3c
       170.51758 198.78177 5.1783953 0.021865904
000010 d1 cd 09 41 ee 10 84 44 75 64 bc 42 bd 1e 85 41
       8.612748 1056.529 94.196205 16.640009
000020 97 9b 6b 44 bd 33 68 42 6c 24 a0 43 bb 25 6d 44
       942.4311 58.050526 320.28455 948.58954
000030 b3 11 80 42 19 02 de 41 e3 25 2f 44 e9 51 b5 41
       64.03457 27.751024 700.592 22.664995
000040 84 98 e1 3e 45 fb 16 42 6b f3 80 42 d6 1c 34 43
       0.44061673 37.74538 64.475426 180.11264
000050 39 0f b0 43 ee 7c 07 44 eb 65 1f 43 37 10 8f 42
       352.11893 541.952 159.39812 71.53167
000060 04 c9 fe 41 01 05 76 41 ae 56 45 44 d1 2a 2e 43
       31.848152 15.376222 789.3544 174.16725
000070 fd 09 92 41 4b 0a 0b 3c 12 09 bb 43 44 38 08 41
       18.254877 0.008486341 374.07086 8.513737
000080 4f 84 3b 42 2e 7e e5 42 3e d3 03 42 0c 97 40 43
       46.879208 114.746445 32.95629 192.59003
000090 02 73 4d 43 3f c0 74 42 39 73 2f 41 8a 92 92 41
       205.44925 61.18774 10.965631 18.321552
0000a0 d9 8d 87 42 76 67 02 43 76 43 6f 44 c9 9c 91 42
       67.77705 130.40414 957.0541 72.80622
0000b0 ba 19 b8 43 5a fb 84 43 66 e1 89 3e d8 cc 82 42
       368.201 265.96368 0.26929778 65.400085
0000c0 42 7b 2d 43 81 05 53 42 a8 32 81 42 5f e6 18 42
       173.48148 52.755375 64.59894 38.22497
0000d0 4f b6 79 42 28 14 1c 42 2f b7 c2 40 29 79 53 43
       62.428036 39.019684 6.0848613 211.47328
0000e0 4b 53 49 40 19 56 1e 40 d1 3f d7 43 eb e7 ff 41
       3.1457088 2.474005 430.49857 31.988241
0000f0 40 8d 3f 43 23 78 fc 44 43 98 79 43 01 95 04 43
       191.55176 2019.7543 249.59477 132.58205

convs.1.fc_full.weight f4 [128, 169]
000000 c4 24 63 3e 55 d8 f4 3e 33 03 e5 3e f6 de 4a 3f
       0.22181994 0.47821298 0.44729003 0.7924646
000010 b0 80 d4 3d cf a5 9f 3f 76 83 34 3f d4 2c 7b 3f
       0.10376108 1.2472476 0.70513093 0.9811528
000020 19 63 18 be 14 ff 2d bd 91 45 8b 3f d4 a8 bd 3e
       -0.14881553 -0.04247959 1.0880605 0.37042868
000030 35 af 7a 3f d6 f5 d5 3e 31 a6 b5 be fa 83 5b bf
       0.97923595 0.4178912 -0.35478356 -0.85748255
000040 94 f6 dd be 3a 06 5e bf fd 2f c2 bd 7c 91 11 c0
       -0.43352187 -0.8672825 -0.09481809 -2.2745047
000050 6c 1d 96 bf 78 9e d8 3e 79 b5 ac bd 74 0d e2 bd
       -1.1727729 0.42308402 -0.08433051 -0.11037722
000060 1e d1 d1 3e c0 5f 53 3e bd b2 3b 3f 45 48 33 3b
       0.40979856 0.20641994 0.7331961 0.0027356308
000070 c8 d9 a8 3e 5b dd ab 3f d5 d3 9c be d7 f0 48 be
       0.32978654 1.3426927 -0.30630365 -0.19623123
000080 da cb 9d 3e 6e d4 5d 40 8c 3a 0c bd 80 3f 36 bf
       0.3081959 3.4660907 -0.034235522 -0.71190643
000090 a1 91 54 3e 59 29 93 be 32 49 34 3f fc 50 87 bd
       0.20758678 -0.28742483 0.7042419 -0.066072434
0000a0 a6 7f a3 3e 46 7d aa bf b8 a2 24 bf 31 d2 b2 bc
       0.31933326 -1.331948 -0.6431079 -0.021828743
0000b0 43 b7 b4 3e 4b 84 9a be 70 d2 85 be 0f 69 b4 3e
       0.35296068 -0.30179057 -0.26137114 0.35236403
0000c0 4d 89 37 3e 37 cf da be f1 a5 54 3d cb 03 54 3f
       0.1792347 -0.42736217 0.051916067 0.8281829
0000d0 fb 9e 07 be 0a 85 ed be de ba 43 3f 77 c7 bd 3e
       -0.1324424 -0.46390563 0.7645701 0.37066242
0000e0 f3 2e a3 bd d5 47 f9 3e ad 90 20 3f f2 1e 32 bf
       -0.07967939 0.48687616 0.6272076 -0.6957847
0000f0 49 83 20 be 3a b6 db be d1 8e 3a 3e 69 16 54 be
       -0.15675081 -0.42912465 0.18218543 -0.20711674
000100 a7 db d8 3e 8a e3 49 bc dc 43 5e be 88 76 58 bf
       0.4235508 -0.012322316 -0.21705574 -0.84555864
000110 e5 01 3b 3e 1e db 27 3f 32 92 83 3f 7e 1d 85 be
       0.18262441 0.6556872 1.027899 -0.25999063
000120 7d d7 b3 bf 0a 5d f9 3f 52 35 8b bf 9d 4d c8 3f
       -1.4050137 1.9481518 -1.0875647 1.5648686
000130 b1 06 22 bf f9 dd 30 3e 84 d1 be 3f 1c 0c 5b 3f
       -0.6329146 0.17272176 1.4907689 0.8556535
000140 9c de 49 be e0 ba 7f c0 82 b4 ae bf c8 2f e8 3f
       -0.19713825 -3.995781 -1.3648837 1.8139582
000150 ef 72 1d 3f 47 c1 9d 3f 5a cf fc 3e a8 46 ce bf
       0.615035 1.2324609 0.49376947 -1.6115313
000160 a4 96 c9 3f 46 39 4d 3f 3f 9c 28 40 51 7d 46 bf
       1.5749097 0.8016552 2.6345365 -0.7753497
000170 2c c4 3a bf d0 30 06 bc dc 0a d1 3f 67 fb 00 3e
       -0.72955585 -0.008190349 1.6331439 0.12595902
000180 7d 10 32 be 41 78 03 40 94 85 00 40 d4 5f cc 3f
       -0.17389102 2.0542147 2.008153 1.5966744
000190 52 2c 63 be f0 79 1a 3f 52 a0 57 bf ed 99 0e 3d
       -0.22184876 0.6034231 -0.84229004 0.034814764
0001a0 0e 12 52 3f 01 29 30 c0 57 ec 6e bf d6 f1 7c be
       0.820588 -2.7525027 -0.93329376 -0.24701628
0001b0 e0 78 ea 3d 77 bc 1a 40 11 8e ce 3f 50 4d c6 3e
       0.11448836 2.417753 1.6137105 0.3873086
0001c0 ab 60 d3 3f f4 9a 6b 3f 5e cb 89 3e c9 2b 6c 3e
       1.6513876 0.92033315 0.2691297 0.23063578
0001d0 66 fb 01 c0 8d 3c 51 bf 66 63 2c 3e 59 b5 10 3f
       -2.0309691 -0.8173302 0.16834792 0.56526715
0001e0 c9 68 14 3f 83 9b 17 3f 3d cf 0c 3f 03 a6 c1 bf
       0.5797239 0.5922167 0.5500372 -1.5128788
0001f0 95 c3 6e 3f 1a b9 b6 bf 62 50 9a 3f a2 53 ca bf
       0.93267184 -1.4275239 1.2055781 -1.5806773
000200 a3 67 ad 3e 9b b2 0a 3f 4b 8f 21 bf ac 8c 18 c0
       0.3386813 0.5417878 -0.6310927 -2.383586
000210 7b 54 1b bf 31 41 d1 be 20 af 06 40 e5 91 75 be
       -0.6067578 -0.4087005 2.1044388 -0.23981436
000220 89 b3 a2 bf 6e 58 33 c0 a4 e8 e4 3f 56 8b ca 3e
       -1.271104 -2.8022723 1.7883496 0.3955943
000230 7a f4 c6 be bb b2 b3 3c 01 91 ea bb 18 8c 8e bf
       -0.38858396 0.021935811 -0.007158399 -1.1136503
000240 32 b1 4f c0 23 ca 1d c0 c0 a4 9c bf 47 90 5c 3c
       -3.2451901 -2.4654624 -1.2237778 0.013462133
000250 83 13 8e bf 0b 2e 4b be 44 25 26 40 3e df 50 40
       -1.1099705 -0.19841783 2.5960245 3.2636256
000260 4f 5c 1c 40 97 57 84 40 06 d7 f0 3f ce 8f 17 3f
       2.443134 4.135692 1.881562 0.59203804
000270 ac 1a 77 bf 9c 6f 31 c0 f4 07 a5 bf 77 d6 6b bf
       -0.96525073 -2.772437 -1.2893052 -0.9212412
000280 96 c3 be bf b7 ad 7b bf 97 6b 39 be c7 62 46 be
       -1.4903438 -0.9831194 -0.18107449 -0.19373618
000290 3b 68 09 bd 2b 2d 4f 3d 91 35 30 bd 41 00 e8 bc
       -0.033546668 0.050580185 -0.043019835 -0.028320434
0002a0 14 22 e9 bc bb 3d 5a 3c 97 99 bc 3f fc b6 b8 3e
       -0.028458633 0.013320382 1.4734372 0.36077106
0002b0 d5 b6 5e 3f 29 b4 e3 bf 07 e0 7c bf 0c fd 2c 3f
       0.8699773 -1.7789356 -0.9877934 0.6757362
0002c0 6c 2e 82 40 51 58 5e 3f 1d 95 cf 40 a6 b5 15 40
       4.0681667 0.8685351 6.4869523 2.339212
0002d0 36 cc ea bf 3d 30 2a be 49 b1 0b 40 3f 5e 88 bf
       -1.834357 -0.16619964 2.1826956 -1.0653762
0002e0 5a 6c 82 3f 51 29 04 bf 1a 1c 50 3e eb c4 d6 be
       1.0189316 -0.51625544 0.2032322 -0.4194711
0002f0 98 e2 44 bf e7 87 d8 3e 47 91 01 bd 5b 55 3f bf
       -0.76908255 0.42291185 -0.031632688 -0.7473962
000300 50 1a 9a 3d 27 27 88 3f 62 6c 09 c0 6f 5a 5d 40
       0.0752455 1.0636948 -2.1472402 3.4586446
000310 81 b2 b6 40 99 68 e2 3d 20 94 f8 3d a9 be 6e bf
       5.70929 0.11055107 0.121376276 -0.93259674
000320 81 4b fa 3f c3 71 0e 40 05 76 8d 40 2c 0e 0d bf
       1.9554292 2.2256935 4.4206567 -0.5509975
000330 80 93 66 c0 4c 67 91 bf 76 e1 ff be fb 98 21 40
       -3.6027527 -1.1359649 -0.499767 2.5249622
000340 2d 82 6f 40 97 cf 1d bf 48 c7 fd bf a2 a7 0e 3f
       3.7423203 -0.6164488 -1.9826441 0.5572454
000350 db 94 02 bf 54 fa d7 3f 08 3c 7b bf bf be 75 c0
       -0.51008385 1.6873269 -0.98138475 -3.8397672
000360 5f 9e 29 bf 74 ac 7b 40 41 5e 06 bf 51 8d 29 3f
       -0.6625728 3.9324007 -0.5248757 0.66231257
000370 05 95 db 3e 27 12 d2 3f cb f6 10 40 68 8f 33 bf
       0.4288713 1.641179 2.265063 -0.70140696
000380 73 25 47 40 b3 53 b3 3f f5 3b eb 3f 41 5a 71 bf
       3.1116607 1.4009918 1.8377672 -0.9427834
000390 03 72 07 3e ce 27 36 3f 08 e6 2f 3e 78 de 44 be
       0.13227086 0.7115449 0.17177594 -0.1922549
0003a0 01 f8 a3 3f 7d 13 99 bf 2d a2 ed be 04 d4 1b c0
       1.281006 -1.1959072 -0.46412793 -2.4348154
0003b0 b6 cf 1c c0 a2 a7 fb bf 71 6b f4 bf 33 ab 0a c0
       -2.4501777 -1.9660532 -1.9095289 -2.1666992
0003c0 33 ac a3 bf 64 fc 1a 3f d6 b2 b0 bf ac 3c 62 3e
       -1.2786926 0.6054137 -1.3804576 0.22093457
0003d0 20 62 50 c0 6b e2 a8 bf 5a a7 75 bf b7 62 7d c0
       -3.255989 -1.3194097 -0.95958483 -3.95915
0003e0 44 42 1d 3f 25 67 d8 bf 1e 3b 0e c0 b8 58 a7 3d
       0.6142924 -1.6906477 -2.2223582 0.08171219
0003f0 71 c0 5a bf e1 44 c6 bf 17 fb 62 bf e1 3d 44 c0
       -0.8544989 -1.548977 -0.8866438 -3.0662768

convs.1.fc_full.bias f4 [128]
000000 f8 8c e1 bd d6 c0 6e be f2 d6 47 bf 69 46 93 3c
       -0.11013216 -0.23315749 -0.78062356 0.01797791
000010 0d dc a0 3e 32 9c 63 3f 9a 78 a8 3c 0b 92 36 3f
       0.31417885 0.8891021 0.02056532 0.71316594
000020 f0 84 84 be 67 ba 8d bd b2 fb 2e 3b 60 0b 1d 3e
       -0.25882673 -0.06920319 0.0026700315 0.1533637
000030 f6 46 8b be ef 1f 5d bd a8 2b 90 bd 2f 44 67 be
       -0.27202576 -0.053985532 -0.07039577 -0.22584604
000040 b9 af c0 3d 57 39 d1 bc 7f a3 0e bd ad 9f 04 be
       0.094085164 -0.025540037 -0.03482389 -0.12951536
000050 ee b7 1d be c4 11 38 be 42 da 0c bd 21 5c 8d bd
       -0.15402195 -0.17975527 -0.034387834 -0.06902338
000060 06 36 52 3c 6c 54 06 be 8b f0 12 3d 54 84 d6 3e
       0.012830263 -0.13118142 0.03587393 0.41897833
000070 63 7e 26 3d 70 0b f7 bd 90 c9 57 3f 09 7a 13 bd
       0.040647876 -0.120627284 0.84291935 -0.036005054
000080 65 46 4c bd fe 74 4a 3e 2c b5 05 be c5 96 22 bf
       -0.04987182 0.19771191 -0.13057393 -0.63511306
000090 bf 79 24 3f 40 15 37 3d 76 d7 7d 3c 88 1b 1f 3d
       0.6424827 0.044698 0.015493264 0.038844615
0000a0 18 09 e6 be e8 81 a3 bb 1b ee 3f bd fb e8 c2 bc
       -0.44928813 -0.0049898513 -0.046857934 -0.023792734
0000b0 fc 01 15 3d 26 50 ae 3f 43 44 22 3e d9 27 06 3e
       0.036378846 1.3618209 0.15846352 0.13101138
0000c0 cb 37 08 be a9 a9 c7 3f 17 b0 18 bf 9e f8 dc 3e
       -0.13302533 1.5598651 -0.5964369 0.4315843
0000d0 e0 a1 77 bd ce 36 0b 40 a2 f1 b3 3d c4 8c 83 3e
       -0.06045711 2.17522 0.08786322 0.25693333
0000e0 12 3e 39 be 6b d5 37 3d 27 e3 ad bd 26 b6 86 3d
       -0.18090084 0.044881266 -0.084905915 0.06577711
0000f0 ed 56 b2 3c fd 4a fd 39 68 5f 64 3e f3 8f 45 3d
       0.021769965 0.0004831179 0.2230202 0.048232984
000100 d3 17 02 be 3a 61 d4 bf 7b 49 99 c0 4c 07 b6 3e
       -0.127044 -1.6592171 -4.79022 0.35552442
000110 ab 58 46 3f 91 b9 e7 3d a1 f2 d2 bb 7a ab e2 3f
       0.77479047 0.11314691 -0.006437615 1.770858
000120 cb c6 f5 3d f2 7f ba bb 92 36 69 bd 50 11 45 3e
       0.120008074 -0.005691522 -0.056936808 0.19244885
000130 4e dc df be 25 c7 07 3d 90 02 ba 3d 3b e1 91 3e
       -0.43722767 0.033148903 0.0908252 0.2849215
000140 f6 f8 fb bd 52 f0 67 bd 25 dc b0 bb 3a 30 8a 3c
       -0.12303345 -0.05662567 -0.005397337 0.0168687
000150 41 d4 82 bf f4 53 16 bf a6 4e 37 bd 69 61 72 bd
       -1.0221025 -0.5872185 -0.04475274 -0.05917493
000160 fc bf 0f 3f 04 c3 46 3e d2 91 8c bc bb 93 38 3f
       0.5615232 0.1941033 -0.017159376 0.7210042
000170 de f7 20 bd 34 be ea 3e e5 11 11 3f 38 ac 5f bd
       -0.039298885 0.45848238 0.5666793 -0.0546076
000180 f6 c0 b2 3e 18 d5 37 3d 14 7e 03 3d 28 6c 74 3f
       0.34912843 0.044880956 0.03210266 0.95477533
000190 25 17 41 3c a7 d6 49 bd 2f 02 5b 40 71 5a e8 bc
       0.011785303 -0.049276974 3.4220083 -0.028363438
0001a0 6a 61 3e 3f e5 12 03 3f db d8 cd bd cf 4d 8b be
       0.7436739 0.51200706 -0.100511275 -0.272078
0001b0 dc 76 8b 3e 2f 22 9e 3e bc 75 a3 3e 8c 17 29 3e
       0.2723912 0.30885455 0.31925762 0.16512889
0001c0 e5 58 32 bf de 55 d9 3f 60 33 5b 3d df 57 3c 40
       -0.6966689 1.697933 0.053515792 2.9428632
0001d0 a3 cd 9a 3d 00 ec b9 3f d3 0e c7 bc a4 37 8f 3d
       0.07558753 1.4525146 -0.02429906 0.069930345
0001e0 00 84 21 bf b8 75 9c bc 6a 5a 96 3c 82 f3 9f 3c
       -0.6309204 -0.019099101 0.01835366 0.019525293
0001f0 8b 7c 22 bf 7c b0 b6 be 3f 10 7c 3e b2 0b 02 3c
       -0.6347129 -0.35681522 0.24615572 0.007937359
