results/Prediction/2023-06-21/19:40:55.651808/models/model207.pth (torch, 528997 bytes, 54 tensors)

embedding.weight f4 [64, 92]
0	0x3c3d93c8	0.011570878
1	0xc04b8aef	-3.1803548
2	0x3c2f29e9	0.0106911445
3	0xbd74edb1	-0.059796993
4	0xbd59e616	-0.053197943
5	0x3c58fa77	0.013243309
6	0xbd9702fd	-0.07373617
7	0xbd809d42	-0.062799945
8	0x3a87fed1	0.0010375624
9	0x3d8dac8a	0.06917675
10	0x3dc82601	0.09772874
11	0xbc5c2629	-0.013436832
12	0x3d996eca	0.074918345
13	0xbdc12146	-0.094301745
14	0x3f40f41a	0.7537247
15	0x3fe77c08	1.8084726
16	0xc06d12b0	-3.7042656
17	0x3f42808c	0.75977397
18	0x3d7a63c4	0.0611303
19	0xc0465091	-3.0986674
20	0xc0596a57	-3.3971155
21	0x3ecc0394	0.3984648
22	0xbda16f7c	-0.07882592
23	0x3d9c62b5	0.07636014
24	0xbd2ba625	-0.041906495
25	0xbd4bb928	-0.049737126
26	0xbd8e7de5	-0.06957606
27	0xbd656b8d	-0.05601077
28	0xbdb494b6	-0.08817427
29	0xbe4c2690	-0.19936585
30	0xc0498d3a	-3.1492448
31	0x3f5a0053	0.85156745
32	0xbdb1c8e0	-0.08680892
33	0x3fe0fc9e	1.7577093
34	0xc082c7e6	-4.0869017
35	0x3f1ccadc	0.6124704
36	0xc048bff2	-3.1367154
37	0xc0750936	-3.8286872
38	0xbe88b7b5	-0.26702657
39	0x3f354f00	0.7082367
40	0xbe55c1f6	-0.20874771
41	0x3cc28fd6	0.023750227
42	0x3cdc94d4	0.026926436
43	0x3bc30ed2	0.0059526945
44	0x3d8f9beb	0.07012161
45	0xbd9cb7f0	-0.07652271
46	0xc04052a2	-3.0050435
47	0x3d994730	0.07484281
48	0xbbd9c35f	-0.0066456045
49	0x3f292289	0.6606832
50	0x3fe6b4c8	1.802392
51	0xc0748ae3	-3.820977
52	0x3f1b9b88	0.60784197
53	0x3dbba336	0.091619894
54	0x3d70ed49	0.058820043
55	0xbdad44f5	-0.08460418
56	0xbd46cab8	-0.04853317
57	0xbd2929d3	-0.041299652
58	0xbd6e3933	-0.05816002
59	0xbd221c9f	-0.039578076
60	0xbccddb12	-0.025128875
61	0xbe1110a1	-0.141665
62	0x3d85559f	0.065104716
63	0x3f5b37f1	0.85632235
64	0xbf88d8b0	-1.0691128
65	0x3f2d7b57	0.67766327
66	0x3db0af04	0.086271316
67	0x3d98fe81	0.07470418
68	0x3db30e1d	0.08742926
69	0xbd144af4	-0.036204293
70	0x3fd90df5	1.6957384
71	0xbc969354	-0.018380798
72	0xbdaa2236	-0.083073065
73	0xc04c2273	-3.1896026
74	0xbe27e748	-0.1639682
75	0x3f17cc51	0.5929614
76	0xbd993561	-0.07480884
77	0x3f1e6d5a	0.6188561
78	0xc041b999	-3.026953
79	0xc06b90d0	-3.6807137
80	0xbd436010	-0.047699034
81	0x3d833ac2	0.064076915
82	0x3f7a6822	0.97815144
83	0xbd9919f4	-0.07475653
84	0x3d198d91	0.037488524
85	0xbe7cc478	-0.24684322
86	0xc02ba5c8	-2.6819935
87	0xbdb4e2de	-0.08832334
88	0x3d161960	0.036645293
89	0xbdd0b7f6	-0.10191338
90	0xbd05730a	-0.032580413
91	0xbc5fdfc0	-0.013664186
92	0xbc7d76ec	-0.015470248
93	0xbf4293d4	-0.7600682
94	0x3bd7123b	0.0065634525
95	0xbc4c9c1f	-0.012488394
96	0x3c2dcbeb	0.0106077
97	0xbce2b074	-0.02767203
98	0xbcaf4597	-0.021395488
99	0x3da79d21	0.08184267
100	0xbdd0e1c6	-0.10199313
101	0xbdc4c929	-0.09608681
102	0x3d73ccbe	0.05952143
103	0x3d9f5b0c	0.07781038
104	0x3dcfa817	0.101394825
105	0xbcd5bd70	-0.026091307
106	0xbfd14a21	-1.6350747
107	0xbf2a988a	-0.66639006
108	0xbe13395b	-0.14377348
109	0x3fcc3498	1.595355
110	0x3d6c5320	0.05769646
111	0xbf693d63	-0.91109294
112	0xbfaa3e22	-1.3300211
113	0x3fafdefd	1.3739926
114	0x3d00a1f0	0.031404436
115	0xbdb39e57	-0.08770435
116	0xbb4c19c0	-0.0031143278
117	0xbcec9749	-0.028880732
118	0xbd6e9c6d	-0.058254648
119	0xbd5aae0d	-0.053388644
120	0x3c3bff93	0.011474508
121	0xc01f9f53	-2.4940994
122	0xbf49564c	-0.78647304
123	0xbfadca20	-1.3577309
124	0x3da9872e	0.082777366
125	0xbf26f138	-0.6521182
126	0xbfa3b522	-1.2789652
127	0x3fccb009	1.5991222
128	0xbf496a65	-0.7867797
129	0x3c415b24	0.011801515
130	0xbfc1f94f	-1.5154208
131	0x4046722f	3.1007192
132	0xc0197f51	-2.3983958
133	0x3d077be5	0.03307714
134	0x3d2720dd	0.040802825
135	0x3cf902a2	0.030396763
136	0x3aea2d25	0.0017866237
137	0xbd8dbdd2	-0.06920971
138	0xbf5c5be4	-0.86077714
139	0xbc8651cc	-0.016396426
140	0x3d624c61	0.05524862
141	0xbfc703db	-1.5548052
142	0xbf43309c	-0.7624605
143	0xbe27db75	-0.1639231
144	0x3fd7ee35	1.686957
145	0xbdbf646a	-0.09345324
146	0xbdd2d1c4	-0.10293916
147	0xbb21525d	-0.0024615743
148	0x3db22603	0.086986564
149	0xbd913f9d	-0.070922114
150	0x3ca000ef	0.019531695
151	0x3d2322b3	0.039828014
152	0xbcda3913	-0.026638543
153	0xc0213130	-2.5186272
154	0xbda41e5b	-0.08013602
155	0xbf93feb0	-1.15621
156	0xbfde22ca	-1.7354367
157	0x3fd880b9	1.6914283
158	0x3d572624	0.052526608
159	0x3d828557	0.06373089
160	0xbbbf22b8	-0.005832996
161	0xbd0c45fc	-0.03424643
162	0xbf43d1c8	-0.76491976
163	0x3d438928	0.047738224
164	0x3d50ccbf	0.05097651
165	0xbf58d522	-0.84700215
166	0xbfc18312	-1.5118124
167	0x403fa3b5	2.994367
168	0xbd746476	-0.05966612
169	0x3fd7c879	1.6858054
170	0xbf6200e2	-0.882826
171	0xc03046cb	-2.7543209
172	0x3adb8e4f	0.0016750785
173	0x3c082fd1	0.008312182
174	0xbfb402e8	-1.4063387
175	0xbd81878f	-0.06324684
176	0x3d93353d	0.07187889
177	0xc01e5462	-2.4739003
178	0xbffafc09	-1.9608165
179	0x3dc07fb2	0.09399356
180	0x3dbc333a	0.09189458
181	0xbd92eb93	-0.071738385
182	0x3dcd70d9	0.100312896
183	0xbd0d409f	-0.034485456
184	0x3d8f85b8	0.07007927
185	0xbe4bcf1a	-0.19903222
186	0xbd916984	-0.07100204
187	0x3b19c10e	0.0023461017
188	0x3da5cbba	0.080954984
189	0xbce0a69f	-0.027423201
190	0x3d2026c8	0.039099485
191	0x3c3af443	0.011410776
192	0xbd808c8f	-0.062768094
193	0x3cf28f6f	0.02960941
194	0xbdaf9389	-0.08573062
195	0xbdb7e2a3	-0.089787744
196	0xbdb0e412	-0.08637251
197	0xbd9144d0	-0.07093203
198	0xc02e9422	-2.7277913
199	0x40170741	2.3598177
200	0x3d83ad8d	0.064295866
201	0x40397876	2.8979774
202	0x3dce19d4	0.1006352
203	0xbea5119c	-0.32239997
204	0xbfd12669	-1.6339847
205	0xbf0c339f	-0.5476627
206	0x3d0b2145	0.033967275
207	0x3acf7cf6	0.0015830088
208	0x3cddbdce	0.027068045
209	0x3d2e891e	0.042611234
210	0xbcae4448	-0.021272793
211	0x3b1eef00	0.0024251342
212	0xbd019ea8	-0.031645447
213	0x3fab29f9	1.3372184
214	0xbe9b3923	-0.3031703
215	0xbf3d477a	-0.7393719
216	0xbcb4ec01	-0.022085192
217	0x4010c739	2.2621596
218	0x3c87b11d	0.016563946
219	0x403add42	2.9197545
220	0xbe47f512	-0.1952708
221	0x3ecb89ce	0.39753574
222	0x3fa14396	1.259875
223	0x3f03ae37	0.51437706
224	0x3fa2b082	1.2710116
225	0xbd189270	-0.03724903
226	0x3d4e13fc	0.050312027
227	0x3dace68f	0.08442413
228	0xbce63063	-0.028099244
229	0xbd86779c	-0.065657824
230	0xbec1a3b3	-0.37820205
231	0xbdae8e8a	-0.08523281
232	0x3d9004f5	0.070321955
233	0xc034d821	-2.8256915
234	0x400f225d	2.2364724
235	0x3d8870de	0.06662153
236	0x4037e112	2.8731122
237	0xbda871de	-0.082248434
238	0x3cfe9ad1	0.031079682
239	0xbc651157	-0.013981185
240	0x3dd4fa2a	0.103992775
241	0xbd9181ed	-0.071048595
242	0xbb8f5999	-0.0043746945
243	0xbc938b6c	-0.018010817
244	0x3d22fb2c	0.039790317
245	0x3fab54cb	1.3385252
246	0xbdae0755	-0.08497492
247	0xbf47bc4b	-0.7802169
248	0xbec7f4e7	-0.39054033
249	0x40403521	3.0032427
250	0x3dd2ac99	0.10286827
251	0x3d6204df	0.055180427
252	0x3ce079bd	0.0274018
253	0xbd8a9ba5	-0.06767968
254	0x40177e45	2.3670819
255	0xbd5ef1d9	-0.054429863

convs.0.fc_full.weight f4 [128, 169]
0	0xc065bfa5	-3.589822
1	0x3e83c379	0.2573507
2	0xbf4da187	-0.80324596
3	0xc03ae06d	-2.9199479
4	0x3db58693	0.088635586
5	0x3ef5ce96	0.48009175
6	0xc00e1d2d	-2.2205307
7	0x3f22bbfe	0.63568103
8	0xbf176a7f	-0.59146875
9	0x3dec777c	0.11546227
10	0xbeaf72c8	-0.3426726
11	0xc04645ca	-3.0980096
12	0xc0056146	-2.084062
13	0xbeadadb7	-0.33921596
14	0xc0326039	-2.787123
15	0xbf96388f	-1.173601
16	0xbd42b835	-0.047538955
17	0x3f547092	0.8298427
18	0xbe9de924	-0.30841935
19	0x3dcfefae	0.10153137
20	0x3dcc98ba	0.09990068
21	0xbefa950d	-0.48941842
22	0xc0056c9d	-2.0847542
23	0x3ebaf69b	0.3651627
24	0xbeeef88e	-0.46674007
25	0xbfe36a73	-1.7766861
26	0xbf95d989	-1.1707011
27	0xbe2a7948	-0.16647828
28	0xbf5e1664	-0.86752915
29	0x3e6a85b3	0.22902565
30	0xc004889c	-2.070838
31	0xbf4c1917	-0.79725784
32	0xbf59fac6	-0.85148275
33	0x3ee8848d	0.45413628
34	0xc0656bac	-3.5846968
35	0xbf709f7d	-0.9399336
36	0xbedad60f	-0.4274144
37	0xbf056958	-0.52113867
38	0x3f08c6db	0.5342843
39	0xbd9b5224	-0.075840265
40	0xbf97f1d7	-1.1870679
41	0xbe918c27	-0.2842724
42	0xbf2eb4b8	-0.68244505
43	0xbe915579	-0.28385523
44	0xbf48735e	-0.78301036
45	0xc03f49a5	-2.98887
46	0xbfa638a6	-1.2986038
47	0x3f69bc06	0.91302526
48	0x3f875790	1.0573597
49	0xbffc9b7b	-1.9734949
50	0xc015a3f1	-2.3381312
51	0xc0298f99	-2.6493895
52	0x3f8565d3	1.0421699
53	0x3d260607	0.040533092
54	0xbf2d13b9	-0.6760822
55	0x3ef14a70	0.47127104
56	0x3ea0cabe	0.3140468
57	0xbf66f0e1	-0.902113
58	0xc03aa32a	-2.9162087
59	0xbe901a99	-0.28145292
60	0xc002bd0a	-2.042788
61	0xbf39664f	-0.72421736
62	0xc023422c	-2.5509138
63	0xc0219954	-2.5249834
64	0xc0c124e6	-6.035754
65	0xbf7e08d7	-0.9923224
66	0xc07797c6	-3.8686385
67	0xc0af4817	-5.47755
68	0xc0b29f87	-5.5819736
69	0x40aecd3d	5.4625535
70	0xc020d865	-2.5132077
71	0x40722a94	3.7838488
72	0x3ff14552	1.884928
73	0xbfe76d23	-1.8080181
74	0x3fd582c1	1.6680528
75	0xc0c5f44d	-6.186072
76	0xbfcd9b7a	-1.6063073
77	0x408c78d4	4.3897495
78	0xc09e4f92	-4.947213
79	0xc000616d	-2.0059464
80	0x4049c750	3.15279
81	0x408d6661	4.4187474
82	0x3f15657b	0.5835797
83	0x3b9e44bf	0.0048299725
84	0x4086909b	4.205152
85	0xc0a46494	-5.1372776
86	0xc0bd38df	-5.9131923
87	0x401fda82	2.4977117
88	0xbf97ef58	-1.1869917
89	0xbfd19582	-1.6373751
90	0xbf85ab86	-1.044297
91	0x400a63c7	2.16234
92	0xbe2d9f41	-0.16955282
93	0x408e2781	4.4423223
94	0xc00982f9	-2.148619
95	0xc0061a0b	-2.0953395
96	0x408c65e0	4.387436
97	0x40884d02	4.2594004
98	0xc0b7d05d	-5.744185
99	0xc07c40e0	-3.9414597
100	0xc0857fb3	-4.1718383
101	0xc06a6389	-3.6623251
102	0x40847d36	4.1402845
103	0x40a7cccd	5.24375
104	0xc0afe819	-5.497082
105	0x3df4f046	0.11959891
106	0x4007abb3	2.1198547
107	0xbf5b4942	-0.8565866
108	0xc08ff859	-4.499066
109	0xc0b3ea22	-5.6223307
110	0xc0b9f23b	-5.810819
111	0xc083464f	-4.1023326
112	0xbe0974da	-0.13423482
113	0xc03a13c4	-2.9074564
114	0xc0068415	-2.1018116
115	0xc07491e2	-3.821404
116	0x40b7ef0d	5.747931
117	0x3ed89bff	0.42306516
118	0x40451a37	3.079725
119	0x40367939	2.8511488
120	0xc04b31cb	-3.1749141
121	0x3f611757	0.8792624
122	0xc042b5b3	-3.04234
123	0xc008b9cd	-2.1363404
124	0xc0187934	-2.3823977
125	0xbf9343ef	-1.1505107
126	0xc0f553de	-7.6664877
127	0xc0f55b52	-7.6673975
128	0xbd9319e5	-0.07182673
129	0xbd439aed	-0.04775517
130	0xbe4c6cb9	-0.1996335
131	0x3cc30c67	0.023809625
132	0x3e89231b	0.26784596
133	0x3f3648ac	0.7120464
134	0x40051108	2.0791645
135	0x3fad3cce	1.3534181
136	0xbd155bd2	-0.03646452
137	0x3f865ef8	1.0497732
138	0x3e4dee6b	0.2011048
139	0xbfa836ab	-1.3141683
140	0xbf2cfb60	-0.6757107
141	0x3e9dc7d8	0.3081653
142	0x3e810deb	0.2520593
143	0x3f4dab80	0.80339813
144	0x3fb4e46f	1.4132212
145	0x3edc346c	0.43008745
146	0xbe5cc4e1	-0.21559478
147	0xbf4b3f75	-0.793937
148	0xbf0cf4af	-0.5506086
149	0xbf2f4083	-0.6845781
150	0xbec5cfb3	-0.38635024
151	0xbe1445e6	-0.14479789
152	0xbe0ea551	-0.1393025
153	0x3db7c0f1	0.089723475
154	0xbe591c5c	-0.21202224
155	0xbe3e9262	-0.18610528
156	0x3d65069e	0.055914514
157	0xbca6571c	-0.020305209
158	0xbe2f753e	-0.17134568
159	0xbeb1c6d7	-0.34722015
160	0xbd993c30	-0.07482183
161	0x3bb1b6ff	0.005423426
162	0xbd2674e2	-0.040638812
163	0x3dc68d9a	0.09694977
164	0xbccabd4c	-0.024748467
165	0x3d97050e	0.07374011
166	0x3d1a6f5e	0.037703864
167	0xbd0eb883	-0.034843933
168	0xbd805d92	-0.06267847
169	0x40619946	3.52498
170	0xbfaffa15	-1.3748194
171	0x3fd27e78	1.6444845
172	0x3e9f6d60	0.31138134
173	0x40124b58	2.2858486
174	0xc00c4e55	-2.192281
175	0x3f9f1543	1.2428364
176	0xbf9a79ca	-1.2068417
177	0xbfa64118	-1.2988615
178	0xbf9b5066	-1.2133911
179	0xbe03d7ac	-0.12875241
180	0x4079c4e0	3.9026413
181	0x3fda191c	1.7038913
182	0xbfc35a25	-1.5261885
183	0x401ac2cb	2.4181392
184	0x3eb68dee	0.3565516
185	0xbf137a04	-0.57608056
186	0xbf97d769	-1.1862613
187	0xbec9a587	-0.393841
188	0x3f6b1855	0.91834
189	0x3f5295d0	0.82259846
190	0x3ff69012	1.9262717
191	0x3f8c030e	1.0938432
192	0xbe05ae26	-0.13054714
193	0x3f5d9537	0.8655581
194	0x40455be0	3.0837326
195	0x3f034f6a	0.5129305
196	0x3ea02e94	0.31285536
197	0x3e787b13	0.24265699
198	0xbf96adf2	-1.1771834
199	0x402e1419	2.7199767
200	0xbf3ad41d	-0.7297991
201	0xbf5ce5e2	-0.86288273
202	0xbf91e5c8	-1.1398249
203	0x4078534a	3.8800836
204	0xbed7167b	-0.4200934
205	0x3edfb106	0.43689746
206	0xbdebb17b	-0.11508461
207	0xbfeb67f8	-1.8391104
208	0x3d3c524f	0.045976933
209	0x3f8c8440	1.097786
210	0xbd11dc61	-0.03561056
211	0xbf8d22c4	-1.1026235
212	0x3e9e8f2b	0.30968603
213	0x3ee10c9e	0.4395494
214	0x4050741f	3.2570875
215	0x3fd9defc	1.7021174
216	0xbf53d772	-0.8275062
217	0xbf5adfd7	-0.854978
218	0x400575d9	2.0853179
219	0x40205b37	2.5055673
220	0x3ef32f88	0.474972
221	0xc003fe0c	-2.0623808
222	0xc01574ce	-2.3352542
223	0xbf99e1a7	-1.2021989
224	0xbfbb43fc	-1.4630122
225	0xbbd86bb2	-0.006604635
226	0xbeb27f94	-0.3486296
227	0x40188fcc	2.3837767
228	0x3e0abb08	0.1354791
229	0x402fbee3	2.7460258
230	0xbec87265	-0.39149776
231	0x4044063c	3.0628805
232	0x3fc86d41	1.5658342
233	0xbe845135	-0.25843206
234	0xbf25f0bc	-0.64820457
235	0x407444fa	3.81671
236	0x3ebf66fe	0.37383264
237	0x3f5cdb6e	0.86272323
238	0x3f9ab5f5	1.2086779
239	0xbf8a7362	-1.0816462
240	0x3fc8e1f3	1.5693954
241	0x3fe72993	1.8059562
242	0xbfc68b18	-1.5511198
243	0x408c269b	4.3797126
244	0x3ea473b5	0.32119527
245	0x3e144b1a	0.14481774
246	0x40335f1d	2.8026803
247	0x3e20192f	0.15634607
248	0x4099832c	4.797262
249	0x3f0bd72e	0.54625213
250	0x4005aef2	2.0888028
251	0xbfa36dfb	-1.2767938
252	0xc02754de	-2.614555
253	0xc02ed284	-2.7315989
254	0xbfc304eb	-1.5235876
255	0xbf689a96	-0.9086088

convs.0.fc_full.bias f4 [128]
0	0xbd9c242f	-0.07624089
1	0x3d1af04b	0.037826817
2	0xbe02c473	-0.12770252
3	0xbdbd47ea	-0.09242232
4	0x3cdc87a5	0.02692015
5	0xbda2f7bc	-0.07957408
6	0x3b19f884	0.0023494074
7	0xbc8f8f03	-0.017524248
8	0xbd84ad89	-0.06478412
9	0x3d3e015d	0.04638802
10	0x3d78714e	0.06065493
11	0xbda23957	-0.07921093
12	0x3cdd3587	0.027003063
13	0x3def7d4d	0.11693821
14	0xbdbdee0b	-0.09273919
15	0xbcf2b76f	-0.029628484
16	0xba0c99bb	-0.0005363484
17	0x3d6b2e8e	0.057417445
18	0xbcaaae05	-0.020834932
19	0x3df0b15b	0.11752578
20	0x3d89d279	0.067295976
21	0x3d4e9199	0.05043182
22	0x3ddde77f	0.1083517
23	0xbaeef253	-0.0018230177
24	0xbd3515ce	-0.044210248
25	0x3c917e96	0.017760556
26	0x3ddd2917	0.10798853
27	0x3cdbcfc6	0.026832473
28	0xbcaf3037	-0.021385295
29	0x3dfaa8f7	0.12239259
30	0xbd7383f0	-0.059451997
31	0xbd2deea9	-0.042463932
32	0xbd08ae74	-0.033369496
33	0xbd7bd286	-0.061480068
34	0xbc06f225	-0.008236443
35	0x3d0f4b2d	0.034983803
36	0xbdc9afff	-0.09848022
37	0x3e246f4c	0.16058081
38	0xbd27b0d6	-0.04094013
39	0x3cd205ef	0.025637595
40	0x3d02875a	0.031867363
41	0xbd873b63	-0.06603124
42	0xbd0d110a	-0.034440078
43	0x3de7aa3b	0.11311766
44	0xbcc34a60	-0.023839176
45	0xbb77ca6f	-0.0037809869
46	0xbd8055bc	-0.062663525
47	0x3db050a3	0.0860913
48	0x3d12b44e	0.035816483
49	0x3e007b9a	0.1254715
50	0x3d896a0d	0.06709681
51	0xbd0b039a	-0.03393898
52	0x3d40ee4d	0.04710226
53	0xbd9f803d	-0.077881314
54	0xbd586377	-0.052829232
55	0xbd892633	-0.06696739
56	0x3d201868	0.039085776
57	0x3d6011e0	0.054704547
58	0x3d8f5962	0.0699947
59	0x3ceecc9c	0.0291503
60	0xbca67a76	-0.020322066
61	0xbad1bac2	-0.0016001093
62	0x3ca2e318	0.019883677
63	0xbd8ba200	-0.068180084
64	0xbdb4a6c9	-0.08820874
65	0xbc4858d9	-0.012228214
66	0xbd1c4d94	-0.03815992
67	0x3cd54fb7	0.026038988
68	0xbd3ed441	-0.04658914
69	0x3d3671c8	0.044542104
70	0x3d12f262	0.035875686
71	0xbde1084d	-0.109879114
72	0x3c846de4	0.016165681
73	0xbbf0295c	-0.007329149
74	0x3d12d593	0.03584821
75	0x3d20ed1c	0.039288625
76	0xbd256901	-0.040383343
77	0xbc7e0a8c	-0.015505444
78	0xbd446601	-0.04794884
79	0xbd695014	-0.056961134
80	0x3cbe13c0	0.023202777
81	0x3d0ba6b7	0.03409454
82	0x3a870e1b	0.0010303886
83	0x3ce293bd	0.027658338
84	0x3d95c38c	0.07312688
85	0x3b66858b	0.0035174813
86	0xbda46090	-0.0802623
87	0x3d4dab5d	0.050212253
88	0xbd8520f7	-0.06500428
89	0x3d4965c5	0.04916932
90	0x3d8d90b8	0.069123685
91	0xbd8b19f6	-0.06792061
92	0x3dfb63b4	0.12274876
93	0xbc745caf	-0.014914676
94	0x3db14d6f	0.086573474
95	0xbd96bb12	-0.073598996
96	0x3d1b0b0c	0.037852332
97	0xbbfbccf0	-0.0076843426
98	0xbc9f135c	-0.019418411
99	0x3d312428	0.043247372
100	0x3d63d6f6	0.055624925
101	0x3d9a0291	0.07520021
102	0xbc057848	-0.008146353
103	0x3dd081f7	0.10181039
104	0xbd19128c	-0.037371203
105	0xbd4271f4	-0.047471955
106	0x3e1b52c9	0.15168299
107	0x3d082b8e	0.033244662
108	0xbd6999ae	-0.057031326
109	0x3ca535a4	0.02016718
110	0x3e10df22	0.14147618
111	0xbd1c73ae	-0.03819626
112	0xbc0eb477	-0.008710018
113	0x3d89152c	0.06693491
114	0xbd05619a	-0.032563783
115	0xbd31f55c	-0.043446884
116	0x3d64b108	0.055832893
117	0x3cadb9f3	0.021206832
118	0x3dd15f42	0.10223247
119	0x3cdf53b3	0.02726159
120	0xbdfb361b	-0.12266179
121	0x3c56e640	0.013116419
122	0x3dcd881f	0.10035729
123	0xbd108271	-0.03528065
124	0x3d86fa08	0.065906584
125	0x3b118068	0.002220178
126	0x3c2cd77f	0.010549425
127	0xbcbf4060	-0.023346126

convs.0.bn1.weight f4 [128]
0	0x413835c2	11.513124
1	0x3f8f0089	1.1172038
2	0x40058dfc	2.086791
3	0x4083aa6b	4.114553
4	0x3fd1fb66	1.6404846
5	0x3e9ad239	0.30238512
6	0x3f69994c	0.9124954
7	0x3e8445f1	0.2583461
8	0x4017efb0	2.3740044
9	0xbbe94ae7	-0.0071195248
10	0xbfb2f229	-1.3980151
11	0x40f29b59	7.5814633
12	0x4073ab4b	3.80733
13	0x3ec24c52	0.37948853
14	0x410cddd8	8.804161
15	0x3f2bb219	0.6706863
16	0x3fb09cc6	1.3797843
17	0x40e12bad	7.0365815
18	0xbe6ad3f9	-0.22932424
19	0x3fcdc9e0	1.6077232
20	0x3ed67f0d	0.41893807
21	0x4116df19	9.429467
22	0x4107cc82	8.487429
23	0x3f1d0609	0.61337334
24	0x3f8d72d9	1.1050674
25	0x3f8ad3c0	1.0845871
26	0x4082880d	4.0791078
27	0xbe9252cb	-0.2857879
28	0x4005931a	2.0871034
29	0x40e8477b	7.2587256
30	0x41003b7c	8.014523
31	0x3e702152	0.2345021
32	0x405152fe	3.2706904
33	0x3f31ee62	0.6950437
34	0x402074be	2.5071254
35	0x408e2d63	4.4430404
36	0x3ff9a52e	1.9503534
37	0x3fe7fd86	1.8124244
38	0x3ba19d9c	0.0049321186
39	0x3f39985f	0.72498125
40	0x3ee62e00	0.4495697
41	0x4188bfce	17.093655
42	0x414843d5	12.516561
43	0x3f6792b7	0.90458244
44	0x3f8d0f3f	1.1020278
45	0x40f3510e	7.6036444
46	0x3edaeada	0.42757303
47	0xbecf3b6b	-0.4047502
48	0x410d79a6	8.842199
49	0x3f7797a7	0.9671578
50	0x41197dc0	9.593201
51	0x3e505820	0.20346117
52	0x404a8181	3.1641543
53	0x40dae3c3	6.840303
54	0x3f1c31e9	0.61013657
55	0x40df6874	6.9815006
56	0xbeabe496	-0.33572835
57	0x3e5400bc	0.20703405
58	0x41076749	8.462716
59	0x408125b2	4.0358515
60	0x409d8b98	4.9232903
61	0x40de94fc	6.9556866
62	0x3eb7d572	0.35905033
63	0x3f26bdd4	0.65133405
64	0x402a04fa	2.6565537
65	0xbfc91b20	-1.5711403
66	0x405c7de0	3.4451828
67	0x403acdb5	2.9188054
68	0x405a345c	3.4094458
69	0x40b88122	5.7657633
70	0x40552398	3.3302975
71	0x3ea65fe9	0.3249505
72	0x3e681b31	0.22666623
73	0x40680ca8	3.6257725
74	0x402deeae	2.7176929
75	0x41261ac2	10.381533
76	0x40cab76d	6.334891
77	0xbef08e1e	-0.46983427
78	0x3f1132b0	0.5671797
79	0x3f1a05f1	0.60165316
80	0x3d95e65b	0.073193274
81	0x40abd6c5	5.369967
82	0x3e94b7c8	0.29046464
83	0x3ff8690f	1.9407061
84	0x4079225b	3.892722
85	0x40e98c4c	7.298376
86	0x403a9278	2.9151897
87	0x4023c819	2.559088
88	0xbf9dd00f	-1.232912
89	0x3fa7417f	1.3066863
90	0xbfc646aa	-1.5490315
91	0xbf88779c	-1.0661502
92	0x402eec94	2.7331896
93	0x40b4aa2c	5.645773
94	0x40d5934d	6.674231
95	0xbf277bec	-0.65423465
96	0x400641f0	2.0977745
97	0x3f916d3e	1.1361463
98	0x40a23299	5.0686765
99	0x4098d32d	4.7757783
100	0xbf73ca9f	-0.9523105
101	0x40251125	2.5791714
102	0xbf070e92	-0.5275661
103	0x3f11de3b	0.5697972
104	0x400541e5	2.082147
105	0xc02abe45	-2.6678631
106	0x4091f3f3	4.561029
107	0x4010f5bc	2.2649984
108	0x40462e83	3.0965889
109	0x411cecee	9.807844
110	0x4007b6c1	2.1205294
111	0xbf879931	-1.0593625
112	0x4000d4d1	2.0129893
113	0x401413f5	2.313718
114	0x3f841b9d	1.0320927
115	0x3f95802c	1.167974
116	0x3ff2cf12	1.8969443
117	0x3f077eb1	0.5292769
118	0x3f958f5d	1.1684376
119	0xbf6c3792	-0.92272294
120	0x3dfa6513	0.122263096
121	0x3f48704a	0.7829634
122	0xbd6351b5	-0.055497844
123	0xbf95b7cf	-1.1696719
124	0x40b86dba	5.7633944
125	0x3f9c4d15	1.2211024
126	0x40b333de	5.6000814
127	0x404df8b2	3.2183042

convs.0.bn1.bias f4 [128]
0	0xbef93314	-0.48671782
1	0x405bbc37	3.4333627
2	0xc05262be	-3.2872767
3	0xc0e7921a	-7.2365847
4	0xbf99a3ab	-1.2003073
5	0x4048d703	3.1381233
6	0x3efcc6dc	0.49370468
7	0x40f153cd	7.5414796
8	0x402b3c9a	2.6755738
9	0x410dda87	8.865851
10	0x40f3feed	7.624869
11	0xc01069db	-2.256461
12	0xc01a7d7f	-2.4139097
13	0x40f8d5ff	7.7761226
14	0xc00ffe49	-2.2498953
15	0x4096905b	4.7051215
16	0xc0787086	-3.881868
17	0xc01b050f	-2.4221838
18	0x3d23ca60	0.03998792
19	0x40a20546	5.0631437
20	0x40c30168	6.0939217
21	0xbe90dcf8	-0.28293586
22	0x3f4ce935	0.80043346
23	0x3f9aad0d	1.2084061
24	0xbf64b208	-0.89334154
25	0x4096d83e	4.7138968
26	0x40090204	2.140748
27	0x4074c533	3.824536
28	0x3f84a094	1.0361505
29	0xbfb1afea	-1.388181
30	0x3e2fb202	0.17157748
31	0x3d5d32e6	0.05400362
32	0xbf12fc27	-0.57416004
33	0x400f22d9	2.236502
34	0x3f3e1bdb	0.74261254
35	0xc064d3ac	-3.5754194
36	0x3fd17b1f	1.6365699
37	0xbf201427	-0.6253075
38	0x40ffc9a7	7.993366
39	0x405c8b4b	3.4460018
40	0x40845d74	4.136408
41	0x404653e4	3.0988703
42	0xbf320ad3	-0.69547766
43	0xbf031f67	-0.5121979
44	0x3fceebf1	1.6165754
45	0x3fc372f4	1.5269456
46	0xbfb7f2c2	-1.4370959
47	0xbf025e44	-0.5092509
48	0xbfdf146c	-1.7428107
49	0xbf655e23	-0.89596766
50	0xc01df92c	-2.4683332
51	0x4031b50c	2.7766752
52	0x3fcec57a	1.6154015
53	0xbf505241	-0.8137551
54	0xbea641c3	-0.32472047
55	0x3f068e75	0.5256112
56	0x411eb0ac	9.918133
57	0x41067067	8.402442
58	0xc0486af6	-3.1315284
59	0x3fa81c28	1.3133593
60	0x40309611	2.7591593
61	0x3f8913d7	1.070918
62	0x405b8865	3.4301999
63	0x4033a286	2.8067946
64	0x4068db53	3.6383865
65	0x3fdd8bcf	1.7308291
66	0xc096445a	-4.6958437
67	0xc0a04f5b	-5.009687
68	0xbfcb8ff7	-1.590331
69	0x3f0059fa	0.50137293
70	0xbfbd31fe	-1.4780881
71	0x40baf58b	5.8424735
72	0x4116387f	9.388793
73	0xc0027563	-2.0384147
74	0xbf92c1ac	-1.1465354
75	0x3d2d02ac	0.042238876
76	0xc0748367	-3.8205202
77	0x40ae2edf	5.4432216
78	0x417b3b9f	15.702056
79	0x4077600a	3.8652368
80	0x408c20bf	4.3789973
81	0xc08d0467	-4.4067874
82	0x4125ff22	10.374788
83	0xbd668083	-0.056274902
84	0x3ea543e6	0.32278365
85	0xbc8230ca	-0.015892405
86	0xbe93efdd	-0.2889394
87	0xc0093e23	-2.1444175
88	0x407af4e9	3.9211981
89	0x40bbeccc	5.872656
90	0x40861f78	4.1913414
91	0x405f7631	3.4915888
92	0xc03319c3	-2.7984474
93	0xc0aa1525	-5.315081
94	0xbfaf06d5	-1.367396
95	0x41365bdd	11.397428
96	0xbf94454c	-1.1583648
97	0x40f591dd	7.6740556
98	0xbfb1c3e1	-1.3887902
99	0xc01362a8	-2.3028965
100	0x40233771	2.5502589
101	0xbf791689	-0.9730001
102	0x40f5830d	7.6722474
103	0x400536bd	2.081466
104	0xbedbdf3b	-0.4294375
105	0x41204b46	10.018377
106	0x40649be6	3.5720153
107	0xbf559c01	-0.8344117
108	0x3de2521f	0.110508196
109	0xbf6af057	-0.9177298
110	0xc03bdd54	-2.9353838
111	0x409a51e1	4.822495
112	0x4097ef69	4.747975
113	0xbf24f36e	-0.64433944
114	0x40a93d86	5.28876
115	0x406cc832	3.699719
116	0xbfb27ef2	-1.3944991
117	0x407a3da4	3.9100122
118	0xbf1b153c	-0.60579276
119	0x40caffe1	6.343735
120	0x4093a0c5	4.613375
121	0x409d2de9	4.9118543
122	0x419323e5	18.392527
123	0x40375abc	2.864913
124	0x3fc94036	1.5722721
125	0x40e89c53	7.2690825
126	0xbf28de36	-0.65964067
127	0x3e0be0d5	0.13659985

convs.0.bn1.running_mean f4 [128]
0	0x4443c50c	783.07886
1	0xc4a214fd	-1296.6559
2	0x44a1163b	1288.6947
3	0x449004f9	1152.1554
4	0xc2a97b5d	-84.740944
5	0xc509dcd0	-2205.8008
6	0xc3872b95	-270.34048
7	0xc3b3bf37	-359.49387
8	0xc414d0be	-595.2616
9	0xc39a00ed	-308.00723
10	0xc494b6a7	-1189.7079
11	0xc41ef048	-635.7544
12	0xc4d80b0f	-1728.3456
13	0x4414b63c	594.8474
14	0x449b3d16	1241.9089
15	0x4407113c	540.2693
16	0x4365bbdd	229.73384
17	0xc4a3fe0f	-1311.9393
18	0xc21aebaa	-38.73014
19	0xc4278128	-670.01807
20	0xc30c8f52	-140.55984
21	0xc50ff142	-2303.0786
22	0x448e6344	1139.102
23	0x43f8fdaf	497.9819
24	0x43966585	300.79312
25	0x4200456b	32.06779
26	0x4388fa51	273.9556
27	0x43e1443f	450.53317
28	0xc42d00e9	-692.0142
29	0xc1e331c4	-28.3993
30	0xc3a6cb20	-333.5869
31	0xc4a9e673	-1359.2015
32	0xc0c0d4c2	-6.0259714
33	0x449bf29a	1247.5813
34	0x44e1edcc	1807.4312
35	0x4412f5b0	587.83887
36	0x441406c2	592.1056
37	0x446f92b2	958.2921
38	0x44809789	1028.7355
39	0xc2b0d02f	-88.40661
40	0x439d64d2	314.78766
41	0x44fd4bed	2026.3727
42	0xc48adc04	-1110.8755
43	0x42d253fb	105.164024
44	0x43d382ec	423.02283
45	0x428bf37e	69.97557
46	0x4454891e	850.14246
47	0x4455e2bc	855.5427
48	0xc4031ced	-524.45197
49	0x439d5b1a	314.71173
50	0x44317152	709.7706
51	0x44314892	709.1339
52	0x4372a097	242.6273
53	0xc43f00bb	-764.0114
54	0x43e90824	466.0636
55	0xc44458ec	-785.3894
56	0xc3c60f80	-396.1211
57	0x43b4abf3	361.34335
58	0xc3561f7f	-214.12303
59	0x4241cd7b	48.450665
60	0xc4321f8d	-712.493
61	0x44607ac6	897.91833
62	0xc401da29	-519.40875
63	0x448ec7f9	1142.2491
64	0xc2e1d0d5	-112.907875
65	0xc4f2d4bf	-1942.6483
66	0x44ba328d	1489.5797
67	0x446e93a6	954.307
68	0xc3782f75	-248.18538
69	0xc509c68d	-2204.4094
70	0xc2fbe24f	-125.94201
71	0xc4a2115c	-1296.5425
72	0x43926a5f	292.83102
73	0x438732a1	270.39554
74	0x43fcb2ff	505.3984
75	0xc4711e69	-964.47516
76	0x43aa42a4	340.52063
77	0xc3bf7e56	-382.987
78	0xc521bfd3	-2587.989
79	0x449757f5	1210.7487
80	0x436e84f3	238.51933
81	0xc4ef763e	-1915.6951
82	0x4432a706	714.60974
83	0xc48605b5	-1072.1783
84	0xc3ecb064	-473.37805
85	0x448ea5ba	1141.179
86	0xc345c024	-197.75055
87	0x44d62861	1713.2618
88	0xc30d9f31	-141.62184
89	0xc4ab727a	-1371.5774
90	0x442ecb21	699.1739
91	0x440a8651	554.0987
92	0xc325f773	-165.9666
93	0x44872cda	1081.4016
94	0xc472a9cf	-970.65326
95	0xc39654f7	-300.6638
96	0x445e1ae9	888.4205
97	0x43d65353	428.65097
98	0x44de4a59	1778.3234
99	0x4431b422	710.8146
100	0x431e5430	158.32886
101	0x446bf828	943.87744
102	0x44331c86	716.4457
103	0x41804c0a	16.037128
104	0x42f67956	123.236984
105	0x454dfdb0	3295.8555
106	0xc4c3e6e2	-1567.2151
107	0x42ffdfc8	127.93707
108	0x43c7ea0d	399.82852
109	0x44c7dc84	1598.8911
110	0x449fabc0	1277.3672
111	0x445d0bb5	884.1829
112	0xc330bb36	-176.7313
113	0x43c42fce	392.37347
114	0xc474f48b	-979.821
115	0x44413e3e	772.97253
116	0x44da2f99	1745.4874
117	0xc44d1127	-820.268
118	0x44a38ba8	1308.3643
119	0x4382efdb	261.87387
120	0xc373d1b2	-243.81912
121	0x44902311	1153.0958
122	0xc537e8e6	-2942.5562
123	0xc32b8ace	-171.5422
124	0xc4a09999	-1284.7999
125	0xc42288f7	-650.1401
126	0x43b4fb7f	361.9648
127	0x44db8876	1756.2644

convs.0.bn1.running_var f4 [128]
0	0x496f2121	979474.06
1	0x49926207	1.1991689e+06
2	0x4912d558	601429.5
3	0x47d1d7bd	107439.48
4	0x486ae416	240528.34
5	0x49c486b0	1.609942e+06
6	0x49ecf563	1.9411644e+06
7	0x49c44c84	1.6080805e+06
8	0x49af3df4	1.4355825e+06
9	0x499e5919	1.2971871e+06
10	0x4976d3e1	1.01100606e+06
11	0x4a3e4a61	3.1177202e+06
12	0x4a6b1d58	3.852118e+06
13	0x49123860	598918.0
14	0x4a23c448	2.683154e+06
15	0x4917b8ed	621454.8
16	0x49a57dda	1.3557072e+06
17	0x49af91ee	1.4382698e+06
18	0x4a189123	2.4996568e+06
19	0x4987fa16	1.1139228e+06
20	0x4a86df45	4.4194905e+06
21	0x4a60fbe1	3.6861362e+06
22	0x4a1e9e3f	2.5987998e+06
23	0x493ec296	781353.4
24	0x4836cb25	187180.58
25	0x4a0f14c5	2.3442412e+06
26	0x48795c88	255346.12
27	0x4a691275	3.8186532e+06
28	0x492c9296	706857.4
29	0x48b0c8ff	362055.97
30	0x4a1e4e39	2.5936782e+06
31	0x4a0264d5	2.1363732e+06
32	0x48fb3cf6	514535.7
33	0x49ba2b49	1.5250971e+06
34	0x4a0071d4	2.104437e+06
35	0x488912b9	280725.78
36	0x49b15c56	1.4529388e+06
37	0x493ef00a	782080.6
38	0x4987ca8d	1.1124016e+06
39	0x4897de30	311025.5
40	0x494c5888	837000.5
41	0x4a23d3d9	2.6841502e+06
42	0x4a0c0cd3	2.2945808e+06
43	0x4843c732	200476.78
44	0x478de8ef	72657.87
45	0x49a8e469	1.3835651e+06
46	0x4a155081	2.4463682e+06
47	0x49a8f4fa	1.3840952e+06
48	0x4975e7ea	1.0072306e+06
49	0x4a0aae9c	2.272167e+06
50	0x4a31af90	2.911204e+06
51	0x49b1be3e	1.4560718e+06
52	0x49d3a147	1.7336729e+06
53	0x498cb760	1.152748e+06
54	0x49bfcdb4	1.5712545e+06
55	0x496f00ee	978958.9
56	0x486e0bec	243759.69
57	0x48915c87	297700.22
58	0x4a1dc5a5	2.5849372e+06
59	0x48048d82	135734.03
60	0x4a1ba4f7	2.5500778e+06
61	0x487764bd	253330.95
62	0x49973035	1.2385346e+06
63	0x49d39fcf	1.7336259e+06
64	0x4aa88555	5.5220905e+06
65	0x4890d73e	296633.94
66	0x49416e44	792292.25
67	0x48f226f5	495927.66
68	0x488ddd0a	290536.3
69	0x49b487ad	1.4789016e+06
70	0x4a006070	2.103324e+06
71	0x4a027859	2.1376222e+06
72	0x49c4a40c	1.6108815e+06
73	0x49811f85	1.0577766e+06
74	0x4a2c3567	2.8214658e+06
75	0x4a2e406f	2.8549398e+06
76	0x4a4ee0b5	3.3894852e+06
77	0x49823bf2	1.0668782e+06
78	0x4b8a71ce	1.8146204e+07
79	0x498db04c	1.1607135e+06
80	0x492fdbea	720318.6
81	0x491c6795	640633.3
82	0x4a112f9f	2.3787278e+06
83	0x494fd8de	851341.9
84	0x4a883edf	4.4644955e+06
85	0x4ac7f385	6.5520025e+06
86	0x4a26fb83	2.7358408e+06
87	0x49a75651	1.3708261e+06
88	0x4833f53f	184276.98
89	0x4a4bdfcc	3.340275e+06
90	0x491251ee	599326.9
91	0x4a84bd7f	4.3496315e+06
92	0x498e9092	1.1678902e+06
93	0x485ba955	224933.33
94	0x4a4ff76d	3.4073232e+06
95	0x49a461d4	1.3466185e+06
96	0x49793248	1.0207085e+06
97	0x49d6c441	1.7593681e+06
98	0x4ac86c9a	6.567501e+06
99	0x48a71230	342161.5
100	0x493ba5b7	768603.44
101	0x4953659f	865881.94
102	0x4a0f6abb	2.3497428e+06
103	0x49494aa8	824490.5
104	0x4a037ef4	2.154429e+06
105	0x4bbd6246	2.4822924e+07
106	0x4ad14e9a	6.858573e+06
107	0x48bec7cc	390718.38
108	0x473bf2ec	48114.92
109	0x4a298a08	2.77773e+06
110	0x4a1e6407	2.5950738e+06
111	0x4979099b	1.0200577e+06
112	0x48d26cac	430949.38
113	0x4a03f91f	2.1622478e+06
114	0x4ab986fe	6.079359e+06
115	0x49ea2456	1.9180908e+06
116	0x4a44a005	3.2215052e+06
117	0x48a5d3ae	339613.44
118	0x499fcd92	1.3091062e+06
119	0x4a75ae37	4.0252298e+06
120	0x4a175173	2.4791968e+06
121	0x495ca4dd	903757.8
122	0x4ad639e9	7.0197645e+06
123	0x479357de	75439.734
124	0x4aa85eda	5.517165e+06
125	0x48af9b99	359644.78
126	0x4a3b814a	3.0720825e+06
127	0x4a3a04dc	3.047735e+06

convs.0.bn2.weight f4 [64]
0	0x3f1ff437	0.6248202
1	0x3e2553e6	0.16145286
2	0x3ff2bb0a	1.896333
3	0x3fbd9b11	1.4812948
4	0xbf5ede92	-0.87058365
5	0xc0352c9a	-2.8308473
6	0x3fc4a4e1	1.5362817
7	0x407db886	3.9643874
8	0xbf66018b	-0.89846104
9	0x3ff75104	1.9321599
10	0x3f0ae3a9	0.5425363
11	0x3fa8c05f	1.3183707
12	0x4007f73a	2.1244645
13	0xbff4370b	-1.9079298
14	0x3f80f835	1.0075747
15	0x40e0a94d	7.0206666
16	0x400ab125	2.167062
17	0xbfa4d14c	-1.2876372
18	0x406d42c7	3.7072008
19	0xbdc773ff	-0.097389214
20	0x3fa9e056	1.3271587
21	0x3f94f82b	1.1638235
22	0x3f964c69	1.1742069
23	0x3ecbec55	0.39828745
24	0x40002609	2.0023215
25	0x3fb3e1e9	1.4053317
26	0x40565ecc	3.349536
27	0x3dd47947	0.10374694
28	0x3c5481df	0.012970417
29	0x40669b64	3.6032343
30	0x3f8296e0	1.0202293
31	0x3f6d6446	0.9273113
32	0x3e5b2c5c	0.2140364
33	0x404ebee3	3.2304008
34	0x3f802a33	1.0012878
35	0x40198a0a	2.3990502
36	0x3ef29cf9	0.47385386
37	0x406edb6d	3.7321427
38	0x40200c40	2.5007477
39	0x3e0b60e1	0.13611175
40	0x3f84b2fb	1.036712
41	0x3f27bc38	0.65521574
42	0x3f961d5e	1.1727712
43	0xbfb3e3f9	-1.4053947
44	0xbfcdcadd	-1.6077534
45	0x3f07f126	0.5310234
46	0x3fc48b06	1.5354927
47	0xbecb84a5	-0.39749637
48	0x40080b89	2.125704
49	0x3fb8bea3	1.4433178
50	0x3f26b717	0.6512312
51	0x40662083	3.5957344
52	0xbe712173	-0.23547916
53	0x3f44baa5	0.76847297
54	0x3fe6c065	1.8027464
55	0x3fc73a54	1.5564675
56	0x3fb762cf	1.4327029
57	0x400884f9	2.133116
58	0x3f3dc0ff	0.74122614
59	0x40315582	2.770844
60	0x3f752318	0.95756674
61	0x403ec4e1	2.9807665
62	0x3f31f055	0.6950734
63	0x3f7773e1	0.9666119

convs.0.bn2.bias f4 [64]
0	0xc0abbccc	-5.3667965
1	0xc05d0752	-3.4535718
2	0xc0f54757	-7.6649585
3	0xc01db875	-2.4643834
4	0xc0e98bff	-7.2983394
5	0xc063d171	-3.5596583
6	0xc0989861	-4.768601
7	0xc0c5bfaa	-6.1796465
8	0xc0601525	-3.5012906
9	0xc016305a	-2.3467011
10	0xc00d7a03	-2.210572
11	0xc093db44	-4.620516
12	0xbfeedfae	-1.8662012
13	0xc0de5384	-6.947695
14	0xbff94ed4	-1.9477181
15	0xc10b5848	-8.709053
16	0xc0b540f9	-5.664181
17	0xc051d507	-3.2786272
18	0xc0174700	-2.3637085
19	0xbf86c6b7	-1.0529393
20	0xbfebe8c4	-1.843041
21	0xc0006821	-2.0063555
22	0xc09c84e1	-4.8912206
23	0xc07fc48b	-3.996371
24	0xc0b4de44	-5.652132
25	0xc0b107b9	-5.5321927
26	0xc02a6b67	-2.6628053
27	0xc01bbd2b	-2.433421
28	0xc084aa10	-4.1457596
29	0xc02b440a	-2.6760278
30	0xc09d11aa	-4.9084063
31	0xc04186c1	-3.0238497
32	0xc09e9654	-4.9558506
33	0xc0992647	-4.7859225
34	0xc06cc2ae	-3.6993823
35	0xc080d9f2	-4.0266047
36	0xc084cb01	-4.1497808
37	0xc0a44e32	-5.1345453
38	0xc0c0af85	-6.0214257
39	0xc0b83d7f	-5.757507
40	0xc066c944	-3.6060343
41	0xbfdaa643	-1.7081989
42	0xbf7a39f9	-0.9774471
43	0xc11af0f8	-9.68383
44	0xc0f60ee1	-7.6893163
45	0xc06b9786	-3.6811233
46	0xc0622d3c	-3.534011
47	0xc08f06dc	-4.4695873
48	0xbf2931d4	-0.66091657
49	0xc0abef1b	-5.3729377
50	0xc0ad9733	-5.424707
51	0xc047ac16	-3.1198783
52	0xc064bc0a	-3.573977
53	0xbffae95c	-1.9602466
54	0xc0a45111	-5.134896
55	0xc08258b5	-4.0733285
56	0xc0384c3b	-2.8796527
57	0xc079e722	-3.9047322
58	0xc08e7bdb	-4.452619
59	0xc11076f0	-9.029037
60	0xc0cbe0ec	-6.3712063
61	0xc0913a9e	-4.5384054
62	0xc083e280	-4.121399
63	0xc0c37761	-6.1083226

convs.0.bn2.running_mean f4 [64]
0	0x41f1cd12	30.225132
1	0x41b6c27a	22.84496
2	0x3f7e04cd	0.99226075
3	0x3d95e0a9	0.07318241
4	0x4091f41c	4.5610485
5	0x41f93c97	31.154585
6	0x410d18bd	8.81854
7	0x428c30cf	70.09533
8	0x42b2f4c9	89.478096
9	0x413f0ff6	11.941397
10	0x4130be70	11.046494
11	0x4212eee2	36.733284
12	0x411635e6	9.388159
13	0x4282b111	65.34583
14	0x428485a7	66.26104
15	0x4238f71c	46.241318
16	0x4014ce6e	2.3250995
17	0x41307e7e	11.030882
18	0x427d47a5	63.319965
19	0x4141ae19	12.105004
20	0x41b9247e	23.142818
21	0x41abb3f3	21.462866
22	0x4148e1e4	12.555149
23	0x4099a8f4	4.801874
24	0x4176322f	15.387252
25	0x428b81a8	69.753235
26	0x41fd864e	31.690578
27	0x42266625	41.59975
28	0x4090fe88	4.5310707
29	0x3d82da31	0.06389273
30	0x41b70761	22.878603
31	0x428c15f1	70.042854
32	0x40bdfdbe	5.9372244
33	0x42a50425	82.508095
34	0x41b0da5c	22.10662
35	0x412a78e5	10.654515
36	0x41c8dba2	25.107243
37	0x40f9788f	7.7959666
38	0x42b81556	92.04167
39	0x41cd8e1e	25.694393
40	0x412cd9af	10.803145
41	0x428bb0b2	69.84511
42	0x41b85787	23.042738
43	0x40cf31d4	6.4748325
44	0x41863297	16.774702
45	0x42419b82	48.401863
46	0x3f157c12	0.5839244
47	0x41b94335	23.157816
48	0x41a18fc9	20.195208
49	0x40b49b37	5.643947
50	0x41c53520	24.65094
51	0x4229b26c	42.42424
52	0x40b47069	5.638722
53	0x41902650	18.018707
54	0x405d2747	3.4555223
55	0x4206d77a	33.710426
56	0x425df248	55.486603
57	0x426c1ea5	59.029926
58	0x42843f91	66.12415
59	0x41a10a7f	20.130125
60	0x4219d75d	38.460316
61	0x42275cb6	41.840538
62	0x41cdd048	25.7267
63	0x4190bc03	18.091803

convs.0.bn2.running_var f4 [64]
0	0x42bd2204	94.56644
1	0x42e077d8	112.23407
2	0x3fec65ff	1.8468627
3	0x3bc8fcbc	0.006133644
4	0x42057f55	33.374348
5	0x4482dc2f	1046.8807
6	0x4282e0e7	65.43926
7	0x41456585	12.337285
8	0x4448263f	800.5976
9	0x41af2972	21.895237
10	0x433d7b6c	189.48212
11	0x447866b3	993.6047
12	0x42b9eaba	92.95845
13	0x41ecbce4	29.592232
14	0x43eb1554	470.16663
15	0x418425b9	16.51842
16	0x40328f4c	2.7899961
17	0x42ef9a75	119.801674
18	0x41518130	13.09404
19	0x435a5fde	218.37448
20	0x43abe5d2	343.79547
21	0x43daa2eb	437.2728
22	0x42e993c2	116.78859
23	0x4205eb56	33.47982
24	0x42afe24c	87.941986
25	0x4250dd00	52.21582
26	0x44191154	612.27075
27	0x4319529e	153.32272
28	0x42062fbc	33.546616
29	0x3b864104	0.004097106
30	0x43c573de	394.9052
31	0x417f26aa	15.946939
32	0x423a4c73	46.574657
33	0x42dba553	109.8229
34	0x428633ab	67.100914
35	0x42e383f6	113.75774
36	0x432f3ccf	175.23753
37	0x425d8af3	55.385693
38	0x421d0fea	39.26554
39	0x42272c12	41.793037
40	0x425030fa	52.04783
41	0x42dbbcf0	109.86902
42	0x445bea47	879.6606
43	0x427e6c83	63.60597
44	0x43c06e07	384.8596
45	0x439d8edc	315.1161
46	0x3eaf742c	0.3426832
47	0x42a02b8b	80.085045
48	0x42de7103	111.220726
49	0x41baa7aa	23.331867
50	0x427b16e9	62.772373
51	0x42f4b5a0	122.35474
52	0x420225b6	32.536827
53	0x421a058a	38.50541
54	0x40d65df8	6.698971
55	0x43a8a332	337.27496
56	0x3f793221	0.97342116
57	0x4262ca14	56.697342
58	0x43e59171	459.13626
59	0x41949767	18.573927
60	0x433dfaee	189.9802
61	0x451a0603	2464.3757
62	0x432c9ecf	172.62035
63	0x42eadea1	117.43482

convs.1.fc_full.weight f4 [128, 169]
0	0xbedc5a2d	-0.4303755
1	0x3eb59b9d	0.35470286
2	0x3e60f3e3	0.21968035
3	0x3e77e30b	0.24207704
4	0x3e191939	0.14951028
5	0x3f2918ac	0.6605327
6	0x3e1e1d65	0.154409
7	0x3eeea2ed	0.46608678
8	0x3e80a9e2	0.2512961
9	0xbe047011	-0.12933375
10	0x3fa4aa45	1.2864462
11	0xbe7f6b3a	-0.24943247
12	0xbde1712b	-0.11007913
13	0x3ef0db69	0.47042397
14	0xbf3f0ff8	-0.7463374
15	0xbedbed78	-0.42954612
16	0xbecb01c6	-0.3964979
17	0x3ede8126	0.43457907
18	0xbf05522a	-0.520785
19	0xc0265032	-2.5986447
20	0xbfcff179	-1.6245567
21	0xbdb37af8	-0.08763689
22	0xbde2cb35	-0.11073915
23	0x3dc21610	0.09476864
24	0x3ec988e4	0.39362252
25	0xbe08840b	-0.1333162
26	0x3f2aecac	0.6676738
27	0xbedf7219	-0.43641737
28	0x3ed40671	0.41411164
29	0x3f34b237	0.70584434
30	0xbf3fc55e	-0.74910533
31	0xbf230a7b	-0.63687867
32	0x3e341bf6	0.17588791
33	0x3f8eccd5	1.115626
34	0xbf17b61d	-0.5926226
35	0xbe638990	-0.22220445
36	0x3d17022b	0.036867302
37	0xbbb68b3b	-0.005570797
38	0x3f5f710f	0.8728189
39	0xbd449749	-0.04799584
40	0x3dbc6ab1	0.09200037
41	0xbef4071a	-0.47661668
42	0xbf6dd911	-0.9290934
43	0xbd6a8a67	-0.057260897
44	0xbf2a1a2c	-0.66446185
45	0xbf26b913	-0.6512615
46	0xbddb65d2	-0.1071278
47	0x3ed8e7db	0.42364392
48	0xbe68d658	-0.22738016
49	0xbef88bfc	-0.485443
50	0xbec59378	-0.38589072
51	0x3e5a93ee	0.21345493
52	0x3cebf4b5	0.028803209
53	0xbf28d1da	-0.6594521
54	0x3f1cbe08	0.61227465
55	0xbeefecf7	-0.46860477
56	0xbeee9030	-0.4659438
57	0x3e8ef830	0.27923727
58	0x3dd4f4ae	0.103982314
59	0xbcf26dca	-0.029593367
60	0xbf02a4e7	-0.5103287
61	0xbd3c92e0	-0.04603851
62	0xbda7f60e	-0.08201228
63	0xbf03f33a	-0.5154301
64	0x3ec5f82d	0.38665906
65	0x3df582c7	0.119878344
66	0xbe1e1c26	-0.15440425
67	0xbecef2ca	-0.40419608
68	0x3e000fed	0.12506075
69	0x3da063eb	0.07831558
70	0x3f5e3241	0.8679543
71	0xbe2cb651	-0.16866423
72	0x3e1a43ee	0.15064976
73	0x3f343330	0.70390606
74	0xbeb125a0	-0.34599018
75	0x3f50d07a	0.8156811
76	0x3d2dda0e	0.04244428
77	0x3e8550dc	0.26038253
78	0xbfb55338	-1.4166021
79	0x3e39c19a	0.1814026
80	0xbe1547e7	-0.1457821
81	0xc03f63f4	-2.9904757
82	0xbddeab36	-0.108725
83	0x4003e94d	2.0611145
84	0x3f04bd49	0.51851326
85	0x3f836b74	1.0267167
86	0xbe4cba5f	-0.1999297
87	0xbe04b724	-0.12960488
88	0x3d81639d	0.06317828
89	0x3ebd9cb3	0.37033615
90	0x3f1bc8d0	0.6085329
91	0xbf44b11b	-0.7683274
92	0xbea0cb33	-0.3140503
93	0x3e3b7454	0.18306094
94	0x3f2326c9	0.63731056
95	0x3ee4f952	0.44721466
96	0xbe073a9c	-0.13205951
97	0x3c6c2da5	0.014415179
98	0x3eb81e37	0.35960552
99	0xbd86b63c	-0.06577727
100	0xbdfe8e61	-0.124295
101	0xbd41abdd	-0.047283042
102	0xbe64174a	-0.22274509
103	0x3d7ea481	0.062168602
104	0x3e3af86f	0.18258832
105	0xbf37ea90	-0.7184229
106	0xbfb434e2	-1.4078639
107	0xbe61ed29	-0.22063126
108	0x3e29162f	0.16512369
109	0x3a9ed5e7	0.0012118191
110	0xbc83ef5b	-0.016105345
111	0x3e67a4a3	0.22621398
112	0x3ef26575	0.4734303
113	0x3d2cb13a	0.042161204
114	0xbeab8008	-0.33496118
115	0xbd42c130	-0.04754752
116	0xbf0dc143	-0.5537302
117	0xbf5891c7	-0.8459744
118	0x3e8d87fc	0.2764281
119	0x3ea4dfe0	0.32202053
120	0x3f02387f	0.50867456
121	0xbe46d00a	-0.19415298
122	0x3e3c59df	0.18393658
123	0xbe374dbe	-0.1790075
124	0x3e8ed0f8	0.27893806
125	0xbed3c0c1	-0.41357997
126	0x3cfbb5ee	0.0307264
127	0xbfbd90f7	-1.4809865
128	0x3e9eab2b	0.30989966
129	0x3ddcf499	0.10788841
130	0xbf3f3afb	-0.7469937
131	0xbf6bab6f	-0.9205846
132	0xbe8b4e18	-0.27208018
133	0xbf5109ed	-0.8165577
134	0x3fd0d282	1.6314242
135	0xbefde447	-0.49588224
136	0xbfac8a5a	-1.3479722
137	0xc015027a	-2.3282762
138	0x3fecf6ba	1.8512795
139	0x3f2b1656	0.66830957
140	0xbe60a651	-0.21938445
141	0x3e48eaed	0.19620867
142	0xbf12eb5c	-0.5739038
143	0xbf2ae2b9	-0.667522
144	0xc016f645	-2.358781
145	0xbfdd882e	-1.7307184
146	0xbfbed0c7	-1.4907464
147	0xbf55c844	-0.83508706
148	0xbfa61cec	-1.2977576
149	0xbf128512	-0.572343
150	0x400257d3	2.0366104
151	0x4058e2e8	3.3888493
152	0x400f7e65	2.2420895
153	0x404a61a1	3.1622088
154	0x3ff22813	1.891848
155	0x3f4bf60f	0.7967233
156	0xbec5bbc4	-0.38619816
157	0xc001a6a1	-2.0257952
158	0xbf448a34	-0.7677338
159	0xbf743e9d	-0.9540804
160	0xbfcc789c	-1.5974307
161	0xbf7c1ee3	-0.9848463
162	0xbe1e14ff	-0.15437697
163	0xbe2ff8de	-0.17184779
164	0xbd0569ec	-0.032571718
165	0x3d4f3255	0.05058511
166	0xbd303591	-0.043019835
167	0xbce80041	-0.028320434
168	0xbce92214	-0.028458633
169	0x3f766659	0.9624992
170	0x3feb5268	1.8384523
171	0x3f312042	0.69189847
172	0x3f50dfb4	0.81591344
173	0xbfab080d	-1.3361832
174	0xbf84d9a3	-1.0378917
175	0x3f2492e7	0.64286655
176	0x4057c87b	3.3716114
177	0x3f8010ca	1.0005124
178	0x4085df70	4.183525
179	0x4009b544	2.1516886
180	0xbfe10720	-1.7580299
181	0x3f0d82ff	0.5527801
182	0x40099abd	2.1500695
183	0xbf352020	-0.70752144
184	0x3f2fa703	0.68614215
185	0xbf04ac3a	-0.51825297
186	0x3fdc4081	1.7207185
187	0x3eda53e2	0.42642123
188	0xbf6895be	-0.9085349
189	0x3e5c1572	0.21492556
190	0xbe702bf2	-0.23454264
191	0xbf498b5b	-0.78728265
192	0x3dbc5349	0.09195573
193	0x3faaf398	1.3355589
194	0xc017a613	-2.3695114
195	0x40717c29	3.7732031
196	0x409c0f52	4.87687
197	0x3e0104f0	0.1259954
198	0xbd408631	-0.047002975
199	0xbf7a72a5	-0.97831184
200	0x402aadc3	2.6668556
201	0x40281fdb	2.6269443
202	0x40892534	4.2857914
203	0xbee4f060	-0.44714642
204	0xc0522270	-3.283352
205	0xbf5ec37c	-0.87017035
206	0xbe39744c	-0.1811077
207	0x402d9185	2.7120068
208	0x404f868c	3.242587
209	0xbf19cbfb	-0.60076874
210	0xbfd32c34	-1.6497865
211	0x3ef6face	0.48238224
212	0xbf08b46e	-0.53400314
213	0x4013c577	2.3089273
214	0xbf99c46c	-1.2013068
215	0xc061523a	-3.5206437
216	0xbf0800b0	-0.5312605
217	0x3fecd10a	1.8501294
218	0xbe7b835e	-0.24561831
219	0x3f185e0c	0.59518504
220	0x3f254f7c	0.6457441
221	0x3fd8e332	1.6944335
222	0x400d2823	2.2055748
223	0xbee8b1e4	-0.4544822
224	0x4070e16f	3.7637594
225	0x3fb4228b	1.4073042
226	0x4022714c	2.538165
227	0xbf746b51	-0.9547625
228	0x3fbbbcc1	1.4666978
229	0x3f23d09e	0.639902
230	0x3dcd688b	0.100297056
231	0xbe478ce6	-0.19487342
232	0x3fc795a1	1.5592538
233	0xbff20482	-1.8907626
234	0x3f576d4d	0.84151155
235	0xbf965268	-1.1743898
236	0xc034c900	-2.824768
237	0xbfbb1924	-1.4617047
238	0xbfd1ca8c	-1.6389937
239	0xc0229aeb	-2.5407054
240	0xbefe5214	-0.49671996
241	0x3e0350ca	0.12823787
242	0xbecd8e0d	-0.4014744
243	0x3dc632b1	0.09677637
244	0xc0600b94	-3.5007067
245	0xc00144c2	-2.0198216
246	0xbf6a0a90	-0.9142237
247	0xc06acd1d	-3.6687691
248	0xbd8947f7	-0.06703179
249	0xbfd0afb9	-1.6303626
250	0xbf91fd8b	-1.14055
251	0xbf28dd30	-0.65962505
252	0xbf7ec084	-0.99512506
253	0xbfea461a	-1.8302643
254	0xbf96a28c	-1.1768355
255	0xc03df4e6	-2.9680724

convs.1.fc_full.bias f4 [128]
0	0xbde35685	-0.11100487
1	0xbe83dc11	-0.25753835
2	0xbf44d402	-0.76886
3	0x3bff40ac	0.007789692
4	0x3eac9477	0.3370702
5	0x3f4e2650	0.8052721
6	0x3c9b1d77	0.018934948
7	0x3f4435a1	0.7664433
8	0xbeab2c44	-0.3343221
9	0xbd8dba67	-0.06920319
10	0x3b2efba9	0.0026700294
11	0x3dbdd43f	0.09268998
12	0xbe8b6928	-0.27228665
13	0xbd2c4240	-0.04205537
14	0xbd9666f7	-0.07343858
15	0xbe622d96	-0.22087702
16	0x3dbb2114	0.091371685
17	0xbcc22030	-0.023696989
18	0xbd0ea37f	-0.03482389
19	0xbe1a2761	-0.15054084
20	0xbe1be3da	-0.15223637
21	0xbe3a893e	-0.18216416
22	0xbcfe8dce	-0.031073477
23	0xbd8d5c21	-0.06902338
24	0x3bf05d5c	0.007335348
25	0xbe0b0020	-0.13574266
26	0x3d13c7bc	0.036079153
27	0x3ec64b6c	0.38729417
28	0x3d04211c	0.032258138
29	0xbddeef36	-0.108854696
30	0x3f58a67d	0.8462904
31	0xbd1afcbd	-0.037838686
32	0xbe067aa1	-0.13132717
33	0x3e1314b9	0.14363374
34	0xbe057387	-0.13032351
35	0xbf26d855	-0.65173846
36	0x3f2eeffb	0.6833493
37	0x3c919b3d	0.017774219
38	0xbb6591ad	-0.0035029456
39	0x3d0b6a62	0.034037
40	0xbed7b30f	-0.42128798
41	0xbd1db8dd	-0.038506377
42	0xbd3c3034	-0.045944408
43	0x3bf6da87	0.0075333747
44	0x3d8dec9f	0.069298975
45	0x3fa6f14b	1.3042387
46	0x3e2cd2c8	0.16877282
47	0x3e06c0b8	0.13159454
48	0xbde7f45f	-0.11325907
49	0x3fbd3df9	1.4784538
50	0xbf2ee5ab	-0.68319196
51	0x3ee0f668	0.43937993
52	0xbd77a1e0	-0.06045711
53	0x4007c44a	2.1213555
54	0x3db3f1a2	0.08786322
55	0x3eadbb6f	0.33932063
56	0xbe4e73fe	-0.20161435
57	0x3d1d4121	0.03839219
58	0xbdade327	-0.084905915
59	0x3d88f687	0.06687646
60	0x3c865fee	0.016403165
61	0x3afca163	0.0019274171
62	0x3e1aa8a4	0.15103394
63	0x3d43690d	0.047707606
64	0xbdfcb5b7	-0.12339347
65	0xbfc4c4c3	-1.5372547
66	0xc098ad72	-4.7711725
67	0x3edf0a4c	0.43562543
68	0x3f4da052	0.80322754
69	0x3d4a4887	0.049385574
70	0x3d193432	0.037403293
71	0x3fe5f56a	1.796552
72	0x3dd3b2cc	0.10336837
73	0xbbba7ff2	-0.005691522
74	0xbd69368b	-0.05693678
75	0x3e22daba	0.1590375
76	0xbed84f1a	-0.4224785
77	0x3d08c03d	0.033386458
78	0x3de16c40	0.11006975
79	0x3ece4a4a	0.40291053
80	0xbe32a5f2	-0.17446116
81	0xbd78654d	-0.060643483
82	0xbbb0dc25	-0.005397337
83	0x3c5acc7d	0.013354418
84	0xbf8a7d89	-1.081956
85	0xbefab506	-0.48966235
86	0xbd345a88	-0.04403165
87	0xbd726169	-0.05917493
88	0x3f075c8f	0.5287561
89	0x3dce04f2	0.10059537
90	0xbc916f3f	-0.017753242
91	0x3f1784f3	0.5918724
92	0xbceca286	-0.028886091
93	0x3efdf97d	0.49604407
94	0x3efb8210	0.49122667
95	0xbd574a49	-0.05256108
96	0x3e953031	0.2913833
97	0xbb845310	-0.004038222
98	0x3d14cf24	0.036330357
99	0x3f5ce4e6	0.8628677
100	0x3cd42ea5	0.025901148
101	0xbd35a099	-0.04434261
102	0x404f16d7	3.235769
103	0xbd1111ca	-0.035417356
104	0x3f4d05be	0.80086887
105	0x3efcb1a9	0.49354294
106	0xbdcfad7e	-0.10140513
107	0xbe9d8538	-0.307657
108	0x3eb00804	0.34381115
109	0x3e8d7668	0.276294
110	0x3ebdb4b4	0.37051928
111	0x3e54598b	0.20737283
112	0xbf3b89d4	-0.73257184
113	0x3fd56696	1.6671932
114	0x3b437ec8	0.0029830206
115	0x40377eec	2.8671217
116	0x3d9acda3	0.07558753
117	0x3fa44bf0	1.2835674
118	0xbcc70ed3	-0.02429906
119	0x3e3fefa1	0.18743755
120	0xbf3ea384	-0.74468255
121	0xbcd0ef8d	-0.025504852
122	0x3c965a6a	0.01835366
123	0x3ca9b88c	0.020717882
124	0xbf17e17d	-0.5932844
125	0xbec51e26	-0.38499564
126	0x3e512d52	0.20427445
127	0xbbaab507	-0.0052095684

convs.1.bn1.weight f4 [128]
0	0x4022ad9f	2.541847
1	0x415d4089	13.828256
2	0x413818a2	11.506014
3	0x4094ab6b	4.645925
4	0x40a7d2c9	5.2444806
5	0x410ecf86	8.925665
6	0x3f5d7342	0.86503994
7	0x4056e365	3.357629
8	0x415070e8	13.027565
9	0x3ff41afa	1.9070733
10	0x3fd2d66f	1.647169
11	0x41252187	10.320685
12	0x4109aa76	8.604116
13	0x3fde78e0	1.7380638
14	0x40a3b4c9	5.1158185
15	0x409b21aa	4.8478594
16	0x412716bc	10.44305
17	0x3f76eca2	0.96454823
18	0x3fea3204	1.8296514
19	0x41064013	8.390643
20	0x40d2ee05	6.591555
21	0x4122920e	10.160658
22	0x3fcdd27f	1.6079863
23	0x3f8ef9e1	1.1170007
24	0x40d7b8ff	6.7413325
25	0x41054d26	8.331335
26	0x400c6b99	2.1940672
27	0x40d2bbff	6.5854487
28	0x404ef79c	3.2338629
29	0x411c2d3f	9.761046
30	0x40f719b9	7.72189
31	0x409d2ae5	4.911486
32	0x40e05dd7	7.011455
33	0x41029fb3	8.163989
34	0x40027753	2.038533
35	0x40ec9045	7.392611
36	0x40c79d72	6.2379694
37	0x41a38318	20.43901
38	0x411d30f3	9.8244505
39	0x40760e94	3.8446398
40	0x40fea4f4	7.957636
41	0x40c53c7b	6.163633
42	0x40b18c93	5.54841
43	0x4083c254	4.1174717
44	0x3fb3dce4	1.4051785
45	0x41465f9f	12.398345
46	0x3ef2a46d	0.47391072
47	0x3f4ffe9a	0.81247866
48	0x40f01ff5	7.503901
49	0x411d33a5	9.825109
50	0x413fc855	11.986409
51	0x40aa8dc6	5.3298063
52	0x3f8d0d63	1.101971
53	0x40d37fd9	6.6093564
54	0x3f94adb3	1.1615509
55	0x4167f028	14.496132
56	0x4139c7d2	11.611284
57	0x3fe06c23	1.7533001
58	0x3f1800c4	0.5937617
59	0x3f36a1a4	0.71340394
60	0x403b45e5	2.926141
61	0x409e7668	4.951954
62	0x41350456	11.313559
63	0x405dd999	3.466406
64	0x4038f7cc	2.8901243
65	0x40e8efc9	7.2792706
66	0x40d5656f	6.668632
67	0x403edb45	2.9821332
68	0x411023e9	9.008767
69	0x4049c6fa	3.1527696
70	0x40fdac2a	7.927266
71	0x4147d76e	12.490095
72	0x400580f2	2.0859952
73	0x3f970939	1.179969
74	0x401e78e7	2.4761293
75	0x400563b9	2.0842116
76	0x4050783c	3.2573385
77	0x402ccb68	2.699915
78	0x40338faf	2.8056448
79	0x40b20b35	5.563868
80	0x4094edb8	4.6540184
81	0x406556f3	3.583432
82	0x3eaff135	0.34363714
83	0x3fe09de6	1.7548187
84	0x3fe5bb21	1.7947732
85	0x405abff1	3.4179652
86	0x3e82fbe5	0.25582805
87	0x405f132d	3.4855454
88	0x4062767c	3.5384817
89	0x40098d37	2.149244
90	0x4084ba2e	4.147727
91	0x41737edf	15.218474
92	0x400dcfa5	2.2157986
93	0x40b6a9fc	5.70825
94	0x416aeeb0	14.683273
95	0x40e8a317	7.2699084
96	0x3fb3be48	1.4042444
97	0x405db68d	3.464267
98	0x408a8f6a	4.3300066
99	0x4085dc69	4.1831555
100	0x3fb49d4f	1.4110507
101	0xc002fb65	-2.046594
102	0x4102855c	8.157558
103	0x400b8294	2.1798449
104	0x405cb569	3.4485724
105	0x411b93d5	9.723592
106	0x4004a450	2.0725288
107	0x4164b2ae	14.293623
108	0x401198c9	2.2749503
109	0x3fc600eb	1.546903
110	0x409a3bd5	4.8198037
111	0x40810f23	4.0330977
112	0x4152dcd2	13.178911
113	0x4057e6a2	3.3734517
114	0x408346e0	4.1024017
115	0x410c95d3	8.786578
116	0x3fb2d358	1.3970747
117	0x4090f2f3	4.529657
118	0x3ff187aa	1.8869526
119	0x40394fd9	2.8954985
120	0x40afadf0	5.4899826
121	0x407e7ac3	3.9762428
122	0xbfb39d72	-1.4032423
123	0x4056e590	3.3577614
124	0x40942a07	4.6301303
125	0x40e9a683	7.301576
126	0x40d1be00	6.5544434
127	0x408033fe	4.0063467
