results/Prediction/2023-06-21/19:40:55.651808/models/model415.pth (torch, 528997 bytes, 54 tensors)

embedding.weight f4 [64, 92]
0	0x3c3d93c8	0.011570878
1	0xc046776e	-3.1010394
2	0x3c2f29e9	0.0106911445
3	0xbd74edb1	-0.059796993
4	0xbd59e616	-0.053197943
5	0x3c58fa77	0.013243309
6	0xbd9702fd	-0.07373617
7	0xbd809d42	-0.062799945
8	0x3a87fed1	0.0010375624
9	0x3d8dac8a	0.06917675
10	0x3dc82601	0.09772874
11	0xbc5c2629	-0.013436832
12	0x3d996eca	0.074918345
13	0xbdc12146	-0.094301745
14	0x3f94235f	1.1573294
15	0x3fea23bf	1.8292159
16	0xc05b5162	-3.4268422
17	0x3f149817	0.5804457
18	0x3d7a63c4	0.0611303
19	0xc0413d10	-3.019352
20	0xc0404f63	-3.0048454
21	0x3f5cfe89	0.8632589
22	0xbda16f7c	-0.07882592
23	0x3d9c62b5	0.07636014
24	0xbd2ba625	-0.041906495
25	0xbd4bb928	-0.049737126
26	0xbd8e7de5	-0.06957606
27	0xbd656b8d	-0.05601077
28	0xbdb494b6	-0.08817427
29	0xbda335a8	-0.079692185
30	0xc04479b9	-3.0699294
31	0x3fa285a5	1.2697035
32	0xbdb1c8e0	-0.08680892
33	0x3fe3a455	1.7784525
34	0xc080a0f7	-4.019649
35	0x3eddc5bd	0.43314925
36	0xc043ac71	-3.0574
37	0xc0779853	-3.8686721
38	0x3e06b762	0.13155892
39	0x3f840d17	1.0316495
40	0xbdb66c75	-0.08907405
41	0x3cc28fd6	0.023750227
42	0x3cdc94d4	0.026926436
43	0x3bc30ed2	0.0059526945
44	0x3d8f9beb	0.07012161
45	0xbd9cb7f0	-0.07652271
46	0xc03b3f21	-2.925728
47	0x3d994730	0.07484281
48	0xbbd9c35f	-0.0066456045
49	0x3f883a32	1.064276
50	0x3fe95c7f	1.8231353
51	0xc062c995	-3.5435536
52	0x3edb6763	0.42852315
53	0x3dbba336	0.091619894
54	0x3d70ed49	0.058820043
55	0xbdad44f5	-0.08460418
56	0xbd46cab8	-0.04853317
57	0xbd2929d3	-0.041299652
58	0xbd6e3933	-0.05816002
59	0xbd221c9f	-0.039578076
60	0xbccddb12	-0.025128875
61	0xbcb42909	-0.021992223
62	0x3d85559f	0.065104716
63	0x3fa32166	1.2744567
64	0xbf83a6e7	-1.028531
65	0x3eff25af	0.49833438
66	0x3db0af04	0.086271316
67	0x3d98fe81	0.07470418
68	0x3db30e1d	0.08742926
69	0xbd144af4	-0.036204293
70	0x3fdbb5ac	1.7164817
71	0xbc969354	-0.018380798
72	0xbdaa2236	-0.083073065
73	0xc0470ef2	-3.1102872
74	0x3e781ceb	0.24229781
75	0x3f6a971f	0.9163684
76	0xbd993561	-0.07480884
77	0x3ee10aa5	0.43953434
78	0xc03ca618	-2.9476376
79	0xc0512b19	-3.2682555
80	0xbd436010	-0.047699034
81	0x3d833ac2	0.064076915
82	0x3fb09c5d	1.3797718
83	0xbd9919f4	-0.07475653
84	0x3d198d91	0.037488524
85	0xbe0237bd	-0.12716575
86	0xc0268a30	-2.6021843
87	0xbdb4e2de	-0.08832334
88	0x3d161960	0.036645293
89	0xbdd0b7f6	-0.10191338
90	0xbd05730a	-0.032580413
91	0xbc5fdfc0	-0.013664186
92	0xbc7d76ec	-0.015470248
93	0xbf50092f	-0.81264013
94	0x3bd7123b	0.0065634525
95	0xbc4c9c1f	-0.012488394
96	0x3c2dcbeb	0.0106077
97	0xbce2b074	-0.02767203
98	0xbcaf4597	-0.021395488
99	0x3da79d21	0.08184267
100	0xbdd0e1c6	-0.10199313
101	0xbdc4c929	-0.09608681
102	0x3d73ccbe	0.05952143
103	0x3d9f5b0c	0.07781038
104	0x3dcfa817	0.101394825
105	0xbcd5bd70	-0.026091307
106	0xbfe184b8	-1.7618628
107	0xbf34c28f	-0.7060937
108	0xbf168bb8	-0.58806944
109	0x3fbe6a45	1.4876181
110	0x3d6c5320	0.05769646
111	0xbf76b2c4	-0.96366525
112	0xbfba3cbe	-1.4549787
113	0x3f4452a6	0.7668861
114	0x3d00a1f0	0.031404436
115	0xbdb39e57	-0.08770435
116	0xbb4c19c0	-0.0031143278
117	0xbcec9749	-0.028880732
118	0xbd6e9c6d	-0.058254648
119	0xbd5aae0d	-0.053388644
120	0x3c3bff93	0.011474508
121	0xc0134fc7	-2.3017442
122	0xbf56cba7	-0.839045
123	0xbfd50cfa	-1.6644585
124	0x3da9872e	0.082777366
125	0xbf311b3b	-0.69182175
126	0xbfc4fca0	-1.5389595
127	0x3fbee5b6	1.4913852
128	0xbf56dfc0	-0.83935165
129	0xbdbf2723	-0.093336366
130	0xbfb94ca8	-1.4476519
131	0x401c7cdb	2.4451206
132	0xc00d2fe9	-2.2060492
133	0x3d077be5	0.03307714
134	0x3d2720dd	0.040802825
135	0x3cf902a2	0.030396763
136	0x3aea2d25	0.0017866237
137	0xbd8dbdd2	-0.06920971
138	0xbf69d13f	-0.9133491
139	0xbc8651cc	-0.016396426
140	0x3d624c61	0.05524862
141	0xbfd73e72	-1.6815932
142	0xbf4d5aa1	-0.80216414
143	0xbf1bb481	-0.608223
144	0x3fca23e2	1.57922
145	0xbdbf646a	-0.09345324
146	0xbdd2d1c4	-0.10293916
147	0xbb21525d	-0.0024615743
148	0x3db22603	0.086986564
149	0xbd913f9d	-0.070922114
150	0x3ca000ef	0.019531695
151	0x3d2322b3	0.039828014
152	0xbcda3913	-0.026638543
153	0xc014e1b4	-2.3262758
154	0xbda41e5b	-0.08013602
155	0xbfbb418a	-1.4629376
156	0xbfcd627c	-1.604568
157	0x3fcab666	1.5836914
158	0x3d572624	0.052526608
159	0x3d828557	0.06373089
160	0xbbbf22b8	-0.005832996
161	0xbd0c45fc	-0.03424643
162	0xbf4dfbcd	-0.8046234
163	0x3d438928	0.047738224
164	0x3d50ccbf	0.05097651
165	0xbf664a7d	-0.8995741
166	0xbfd6a0be	-1.6767805
167	0x4015ae61	2.3387682
168	0xbd746476	-0.05966612
169	0x3fc9fe26	1.5780685
170	0xbf6f763d	-0.9353979
171	0xc039fc1c	-2.9060125
172	0x3adb8e4f	0.0016750785
173	0x3c082fd1	0.008312182
174	0xbfc4b6cb	-1.5368284
175	0xbd81878f	-0.06324684
176	0x3d93353d	0.07187889
177	0xc01204ca	-2.2815423
178	0xc0043881	-2.0659487
179	0x3dc07fb2	0.09399356
180	0x3dbc333a	0.09189458
181	0xbd92eb93	-0.071738385
182	0x3dcd70d9	0.100312896
183	0xbd0d409f	-0.034485456
184	0x3d8f85b8	0.07007927
185	0x3d239811	0.039939944
186	0xbd916984	-0.07100204
187	0x3b19c10e	0.0023461017
188	0x3da5cbba	0.080954984
189	0xbce0a69f	-0.027423201
190	0x3d2026c8	0.039099485
191	0x3c3af443	0.011410776
192	0xbd808c8f	-0.062768094
193	0x3cf28f6f	0.02960941
194	0xbdaf9389	-0.08573062
195	0xbdb7e2a3	-0.089787744
196	0xbdb0e412	-0.08637251
197	0xbd9144d0	-0.07093203
198	0xc03f2d4e	-2.9871402
199	0x4023a5de	2.5569987
200	0xbe258160	-0.16162634
201	0x403cc68a	2.9496179
202	0x3dce19d4	0.1006352
203	0xbdaadf1e	-0.083433375
204	0xbfeb6012	-1.8388693
205	0xbf4f6a9e	-0.8102206
206	0x3d0b2145	0.033967275
207	0x3acf7cf6	0.0015830088
208	0x3cddbdce	0.027068045
209	0x3d2e891e	0.042611234
210	0xbcae4448	-0.021272793
211	0x3b1eef00	0.0024251342
212	0xbd019ea8	-0.031645447
213	0x3f6ca480	0.9243851
214	0xbd837d29	-0.06420357
215	0xbf7e1557	-0.9925131
216	0xbcb4ec01	-0.022085192
217	0x401d65d6	2.4593406
218	0xbe468578	-0.19386852
219	0x403e2b56	2.971395
220	0x3d32ff9a	0.043700792
221	0x3ee59d5f	0.44846627
222	0x3f6f2186	0.9341053
223	0x3f002bbd	0.5006674
224	0x3f5bb1c5	0.8581813
225	0xbd189270	-0.03724903
226	0x3d4e13fc	0.050312027
227	0x3dace68f	0.08442413
228	0xbce63063	-0.028099244
229	0xbd86779c	-0.065657824
230	0xbe0e92d7	-0.13923202
231	0xbdae8e8a	-0.08523281
232	0x3d9004f5	0.070321955
233	0xc045714d	-3.0850403
234	0x401bc0fa	2.4336534
235	0xbe231fa9	-0.15930046
236	0x403b2f26	2.9247527
237	0xbda871de	-0.082248434
238	0x3cfe9ad1	0.031079682
239	0xbc651157	-0.013981185
240	0x3dd4fa2a	0.103992775
241	0xbd9181ed	-0.071048595
242	0xbb8f5999	-0.0043746945
243	0xbc938b6c	-0.018010817
244	0x3d22fb2c	0.039790317
245	0x3f6cfa0d	0.9256905
246	0xbdae0755	-0.08497492
247	0xbf84453e	-1.0333631
248	0xbe4f5a40	-0.20249271
249	0x40438335	3.0548832
250	0x3dd2ac99	0.10286827
251	0x3d6204df	0.055180427
252	0x3ce079bd	0.0274018
253	0xbd8a9ba5	-0.06767968
254	0x40241ce2	2.5642629
255	0xbd5ef1d9	-0.054429863

convs.0.fc_full.weight f4 [128, 169]
0	0xc06ee988	-3.7330036
1	0x3e5b8d7a	0.21440688
2	0xbf756b37	-0.9586672
3	0xc080b1ef	-4.0217204
4	0xbd8d8dc6	-0.06911807
5	0x3f3303c0	0.699276
6	0xc0190f1a	-2.3915467
7	0x3f3cca07	0.7374577
8	0xbea48927	-0.3213589
9	0x3dc668d4	0.09687963
10	0xbe4e4f12	-0.2014735
11	0xc04eac0a	-3.2292504
12	0xc04d75ff	-3.210327
13	0xbe641d40	-0.22276783
14	0xc0373767	-2.8627565
15	0xbf9319a6	-1.1492202
16	0xbd3ff4d2	-0.04686434
17	0x3f790749	0.9727674
18	0xbef09b00	-0.46993256
19	0x3cd9355d	0.026514703
20	0x3d00bc0c	0.031429335
21	0xbf101aec	-0.5629108
22	0xc01724de	-2.3616252
23	0x3f92100e	1.141115
24	0xbf11b305	-0.5691379
25	0xbfed76d1	-1.8551885
26	0xbfa36091	-1.2763845
27	0xbe5762df	-0.2103381
28	0xbf4c7d8f	-0.7987909
29	0x3ecb69e1	0.39729217
30	0xc00954df	-2.1458051
31	0xbf82b044	-1.0210042
32	0xbf26ed4f	-0.65205854
33	0x3f17595b	0.5912072
34	0xc06f6717	-3.740667
35	0xbf960217	-1.1719388
36	0xbf175edb	-0.5912911
37	0xbf0d5e15	-0.5522168
38	0x3f26471d	0.6495226
39	0x3edbb95e	0.4291486
40	0xbfe81cb6	-1.8133762
41	0xbe1e64f3	-0.15468197
42	0xbf1c4f54	-0.61058545
43	0xbe240bf5	-0.16020186
44	0xbf69a81e	-0.9127215
45	0xc04f8836	-3.2426887
46	0xc020a223	-2.509896
47	0x3f4dc376	0.80376375
48	0x3fa6af59	1.3022262
49	0xc016e29e	-2.3575816
50	0xc019f009	-2.4052756
51	0xc0371504	-2.8606577
52	0x3fb53d6c	1.415937
53	0x3e1561c4	0.14588076
54	0xbf35e354	-0.7105
55	0x3f82f157	1.0229901
56	0x3e92f902	0.28705603
57	0xbf59aaa8	-0.85026026
58	0xc0403bbe	-3.0036464
59	0xbeb8ed20	-0.36118412
60	0xc007549c	-2.1145391
61	0xbebe29ca	-0.37141258
62	0xc03e5fcc	-2.974597
63	0xc08e1922	-4.440568
64	0xc0c1cc33	-6.0561767
65	0xbf6b7bbe	-0.9198569
66	0xc0760e44	-3.8446207
67	0xc0988ae3	-4.766954
68	0xc0a91304	-5.2835712
69	0x40ad5d13	5.4176116
70	0xc01bf309	-2.4367087
71	0x4074e956	3.8267417
72	0x3fe01b68	1.7508364
73	0xbfd90f81	-1.6957856
74	0x3fd17f5c	1.6366992
75	0xc0c70db4	-6.2204227
76	0xbf38ee05	-0.7223819
77	0x408ce390	4.4027786
78	0xc0a20a7c	-5.06378
79	0xbfffa525	-1.9972273
80	0x404d6db7	3.2098215
81	0x408f00c5	4.468844
82	0x3f8fc8a6	1.1233108
83	0x3be99d53	0.00712935
84	0x40864e29	4.197041
85	0xc0a6349d	-5.1939225
86	0xc0b1fa51	-5.561806
87	0x401757ae	2.3647265
88	0xbf883743	-1.0641865
89	0xbfdcefb2	-1.7260649
90	0xbf768fc5	-0.96313125
91	0x4005c3ba	2.0900712
92	0xbe249d20	-0.16075563
93	0x4086a74b	4.2079215
94	0xc01011b7	-2.2510812
95	0xc00048e1	-2.0044482
96	0x40874c5f	4.2280726
97	0x4087fff1	4.249993
98	0xc0ba2ed3	-5.818216
99	0xc07d26c3	-3.9554908
100	0xc084c6d0	-4.149269
101	0xc069b543	-3.6516883
102	0x40850cba	4.1578035
103	0x40a3790c	5.108526
104	0xc08d8692	-4.422677
105	0x3daf798e	0.085681066
106	0x4009430b	2.144717
107	0xbf5bb1eb	-0.85818356
108	0xc08e0200	-4.437744
109	0xc0b43402	-5.6313486
110	0xc0b80ade	-5.7513266
111	0xc081af8c	-4.052679
112	0x3f0b800c	0.5449226
113	0xc070bc39	-3.7614882
114	0xc00d7420	-2.2102127
115	0xc0706776	-3.7563148
116	0x40b2e558	5.590496
117	0x3ebc107f	0.36731336
118	0x40481c01	3.1267092
119	0x403ce3a0	2.9513931
120	0xc04dfe5c	-3.2186499
121	0x3f669142	0.90065396
122	0xc047fa00	-3.1246338
123	0xc006e197	-2.107519
124	0xc01f45fa	-2.488646
125	0xbf8fb4d2	-1.1227057
126	0xc0ec0d5a	-7.37663
127	0xc0c8608a	-6.2617846
128	0xbd931cd3	-0.07183232
129	0xbd429bda	-0.047511913
130	0xbe49892c	-0.19681233
131	0x3d83cda0	0.06435704
132	0x3eb3214a	0.34986335
133	0x3eb60e68	0.35557866
134	0xbeacfbe5	-0.3378593
135	0x3f982332	1.1885741
136	0x3e5458b5	0.20736964
137	0x405f2bcc	3.4870481
138	0x3ec193cf	0.37808082
139	0xc00b7d87	-2.1795366
140	0xbf4e1615	-0.80502445
141	0x3dfc779b	0.123275004
142	0xc0322e41	-2.784073
143	0xbf66c211	-0.9013987
144	0x3fff3675	1.9938494
145	0x3f89da96	1.0769832
146	0x3f32c88d	0.69837266
147	0x3e859710	0.26091814
148	0x3e475995	0.19467767
149	0x3d3b7d74	0.04577394
150	0x3e975fab	0.29565176
151	0x3eb35119	0.3502281
152	0xbd381318	-0.044940084
153	0x3eaf170f	0.3419728
154	0xbe69f878	-0.2284869
155	0xbf13746a	-0.5759951
156	0xbe7b7340	-0.24555683
157	0xbe1e64f8	-0.15468204
158	0xbe80f93d	-0.25190154
159	0xbec134c1	-0.3773556
160	0xbe0cf230	-0.13764262
161	0xbd5755a6	-0.052571915
162	0xbd4c0763	-0.049811732
163	0x3dc58866	0.096451566
164	0xbccacac0	-0.024754882
165	0x3d97051c	0.073740214
166	0x3d1a6f5e	0.037703864
167	0xbd0eb883	-0.034843933
168	0xbd805d92	-0.06267847
169	0x4054ce6f	3.3250997
170	0xbf9e20aa	-1.2353718
171	0x3fe9b737	1.8259038
172	0x3e988978	0.2979238
173	0x401814af	2.3762624
174	0xbfff9355	-1.9966837
175	0x3f905529	1.1275989
176	0xbf7789cd	-0.9669464
177	0xbf90230a	-1.1260693
178	0xbf890b0c	-1.0706496
179	0x3dc049f8	0.093891084
180	0x406e7fbb	3.726546
181	0x3fd84b8b	1.6898054
182	0xbfa55774	-1.2917314
183	0x400ae622	2.1702962
184	0x3f17a2a8	0.5923257
185	0xbecbeecd	-0.39830628
186	0xbf7d0975	-0.98842555
187	0xbeca214a	-0.39478523
188	0x3f38bd8f	0.72164243
189	0x3f253dfc	0.64547706
190	0x3fde1cfd	1.7352597
191	0x3f901663	1.1256832
192	0xbe7d7ca0	-0.24754572
193	0x3f822522	1.0167582
194	0x4036049b	2.844031
195	0x3f219770	0.631217
196	0x3ec9819b	0.39356694
197	0x3eebfd64	0.4609176
198	0xbf9826cc	-1.188684
199	0x401ec257	2.4806116
200	0xbf22942e	-0.63507354
201	0xbf4df846	-0.8045696
202	0xbf6a70a4	-0.91578126
203	0x406d7bd6	3.7106833
204	0xbe86463d	-0.26225463
205	0x3f1d017b	0.61330384
206	0x3db8f279	0.09030623
207	0xbfcdfb46	-1.6092308
208	0x3ce12001	0.027481081
209	0x3f8364fa	1.0265191
210	0x3e373b4a	0.1789371
211	0xbf605f09	-0.8764501
212	0x3e54ee16	0.20793948
213	0x3ef3162c	0.47477853
214	0x4048eb76	3.1393714
215	0x3fd53d1a	1.6659272
216	0xbf326685	-0.6968768
217	0xbf500b82	-0.8126756
218	0x4009dc59	2.154074
219	0x4010805b	2.2578342
220	0x3eaa5172	0.33265263
221	0xbff261fb	-1.8936151
222	0xc019b91d	-2.4019234
223	0xbf80a631	-1.0050718
224	0xbfc94278	-1.572341
225	0xbe4e8ed3	-0.2017167
226	0xbe025ad5	-0.12729962
227	0x40095b01	2.1461794
228	0x3d3d214d	0.046174336
229	0x40207fea	2.5078073
230	0xbec36e23	-0.38169965
231	0x403da218	2.9630184
232	0x3fd46952	1.6594641
233	0xbeff788e	-0.49896663
234	0xbf19ff15	-0.6015485
235	0x407d17a7	3.9545686
236	0x3e91f2e4	0.28505623
237	0x3f6ecbe1	0.93279845
238	0x3fb5ee8d	1.4213425
239	0xbf94f0bc	-1.1635966
240	0x3fec9425	1.848271
241	0x40003936	2.0034919
242	0xbfba1288	-1.4536905
243	0x40943083	4.630922
244	0x3df0be1f	0.11755013
245	0x3dd099a2	0.10185553
246	0x4044083d	3.0630028
247	0xbdc95354	-0.09830347
248	0x40a17ab4	5.0462284
249	0x3f31ba89	0.69425255
250	0x4013a139	2.3067153
251	0xbfaa6ec4	-1.3315053
252	0xc036e3c7	-2.8576524
253	0xc03cdde5	-2.9510434
254	0xbfdc8dd0	-1.7230778
255	0xbf7d4538	-0.98933744

convs.0.fc_full.bias f4 [128]
0	0xbd9c2c96	-0.076256916
1	0x3d1af050	0.037826836
2	0xbe02c491	-0.12770297
3	0xbdbb4d19	-0.091455646
4	0x3cdc87a5	0.02692015
5	0xbda2f7bc	-0.07957408
6	0x3b19cd3d	0.0023468279
7	0xbc8f8f03	-0.017524248
8	0xbd84ad89	-0.06478412
9	0x3d3e015d	0.04638802
10	0x3d78714e	0.06065493
11	0xbda23956	-0.07921092
12	0x3cdd2c81	0.02699876
13	0x3def7d4d	0.11693821
14	0xbdbe0611	-0.09278501
15	0xbcf2b554	-0.02962748
16	0xba0c99bb	-0.0005363484
17	0x3d6b2e8e	0.057417445
18	0xbcaadc65	-0.020857045
19	0x3df0b15b	0.11752578
20	0x3d89d279	0.067295976
21	0x3d4e916f	0.050431665
22	0x3ddde77f	0.1083517
23	0xbaeef239	-0.0018230147
24	0xbd34f0cb	-0.04417495
25	0x3c917eba	0.017760623
26	0x3ddd29cd	0.107989885
27	0x3cdbcfc6	0.026832473
28	0xbcaf3037	-0.021385295
29	0x3e00316d	0.12518854
30	0xbd7383f0	-0.059451997
31	0xbd2deba5	-0.042461056
32	0xbd08ae74	-0.033369496
33	0xbd7bd8d8	-0.061486095
34	0xbc06f1b7	-0.00823634
35	0x3d0f4af0	0.034983575
36	0xbdc9aff8	-0.098480165
37	0x3e246f4c	0.16058081
38	0xbd27b0d6	-0.04094013
39	0x3cd205ef	0.025637595
40	0x3d02875a	0.031867363
41	0xbd873b6e	-0.06603132
42	0xbd0d1104	-0.034440055
43	0x3de7aa3b	0.11311766
44	0xbcc34ab9	-0.023839341
45	0xbb77ca6f	-0.0037809869
46	0xbd8055bc	-0.062663525
47	0x3db050a3	0.0860913
48	0x3d12b4c7	0.035816934
49	0x3e007b9a	0.1254715
50	0x3d896a0d	0.06709681
51	0xbd0b039a	-0.03393898
52	0x3d40ee4d	0.04710226
53	0xbd9f8042	-0.07788135
54	0xbd586377	-0.052829232
55	0xbd892684	-0.066967994
56	0x3d201868	0.039085776
57	0x3d6011e0	0.054704547
58	0x3d8f596f	0.0699948
59	0x3cee5980	0.029095411
60	0xbca67a76	-0.020322066
61	0xbad19ea0	-0.0015992709
62	0x3ca2e318	0.019883677
63	0xbd8ba200	-0.068180084
64	0xbdb4a6f8	-0.08820909
65	0xbc485b39	-0.01222878
66	0xbd1c5413	-0.038166117
67	0x3cd8f1f3	0.026482558
68	0xbd3ed441	-0.04658914
69	0x3d367269	0.044542704
70	0x3d12fb20	0.035884023
71	0xbde1046c	-0.109871715
72	0x3c846de4	0.016165681
73	0xbbf08fcc	-0.0073413607
74	0x3d12e442	0.035862215
75	0x3d20d946	0.039269708
76	0xbd2548a8	-0.040352494
77	0xbc7e0a8c	-0.015505444
78	0xbd4463ac	-0.047946617
79	0xbd691a22	-0.056909688
80	0x3cbe13c0	0.023202777
81	0x3d0b913a	0.034074046
82	0x3a879710	0.0010344703
83	0x3ce25f31	0.027633281
84	0x3d95c68c	0.073132604
85	0x3b684802	0.003544331
86	0xbda46082	-0.0802622
87	0x3d4dab5f	0.05021226
88	0xbd85122b	-0.06497606
89	0x3d496600	0.04916954
90	0x3d8d92af	0.06912743
91	0xbd8b19eb	-0.06792053
92	0x3dfb63b4	0.12274876
93	0xbc97a63a	-0.01851188
94	0x3db14d6f	0.086573474
95	0xbd96bc85	-0.07360176
96	0x3d1b0b11	0.03785235
97	0xbbfb1b51	-0.0076631685
98	0xbc9f154b	-0.019419333
99	0x3d312355	0.043246586
100	0x3d63d733	0.05562515
101	0x3d9a0291	0.07520021
102	0xbc057840	-0.008146346
103	0x3dd081f7	0.10181039
104	0xbd19128b	-0.0373712
105	0xbd4269bc	-0.047464117
106	0x3e1abd29	0.15111221
107	0x3d082b8e	0.033244662
108	0xbd699be5	-0.05703344
109	0x3ca52eb0	0.020163864
110	0x3e10df4d	0.14147682
111	0xbd1c73ae	-0.03819626
112	0xbc0c2644	-0.008554045
113	0x3d891531	0.06693495
114	0xbd05619a	-0.032563783
115	0xbd31fd3f	-0.043454405
116	0x3d64b108	0.055832893
117	0x3cadbe1d	0.021208817
118	0x3dd15f2f	0.10223233
119	0x3cdf4d5c	0.027258568
120	0xbdfb361f	-0.12266182
121	0x3c56ec49	0.013117858
122	0x3dcd881f	0.10035729
123	0xbd102188	-0.035188228
124	0x3d86fa08	0.065906584
125	0x3b11aa45	0.0022226733
126	0x3c2cd764	0.0105494
127	0xbcbf3f20	-0.02334553

convs.0.bn1.weight f4 [128]
0	0x41725220	15.14505
1	0x3f550e19	0.83224636
2	0x40384db6	2.879743
3	0x4088b5ab	4.2721763
4	0x402cd1e5	2.700311
5	0x3ca73ace	0.020413782
6	0x3f9674d7	1.1754407
7	0x3e9efbfc	0.31051624
8	0x4023289c	2.5493536
9	0x3e61e1d2	0.220588
10	0xbf9a82f0	-1.2071209
11	0x40dd724f	6.9202037
12	0x4070b679	3.7611372
13	0x3ecbdd0a	0.39817077
14	0x40f289eb	7.5793357
15	0x3f5b38ae	0.8563336
16	0x3f42000a	0.7578131
17	0x40e95446	7.2915373
18	0xbf4203bd	-0.75786954
19	0x3fc343f7	1.5255116
20	0x3ecd206c	0.40063798
21	0x41130bf9	9.190423
22	0x4108860e	8.532728
23	0x3f33a5c2	0.701748
24	0x3f89f96a	1.077924
25	0x3fb8f7c5	1.4450613
26	0x408c9a07	4.393802
27	0xbe7d7f45	-0.2475558
28	0x3ffc49c2	1.9710009
29	0x410328b4	8.197437
30	0x40f2f331	7.5921865
31	0x3e0a9115	0.13531907
32	0x4058ca76	3.3873572
33	0x3f163b51	0.5868426
34	0x40258212	2.5860639
35	0x4092fcd5	4.5933633
36	0x3ff080cf	1.8789309
37	0x3ff30f66	1.8989074
38	0xbed649de	-0.4185323
39	0x3f347812	0.7049571
40	0x3daadc36	0.08342783
41	0x418af592	17.369907
42	0x4156307f	13.38684
43	0x3f6d7dc4	0.9277003
44	0x3fdf0a9a	1.742511
45	0x40ee6ca4	7.450762
46	0x3dc58837	0.096451215
47	0xbed20c1c	-0.41024864
48	0x41097d81	8.593141
49	0x3fa5becb	1.294885
50	0x411b5c06	9.709967
51	0xbd8bf848	-0.06834465
52	0x4010c6f3	2.262143
53	0x40f63afa	7.6946993
54	0x3f0bfc74	0.5468209
55	0x40d40948	6.626133
56	0x3ebc9543	0.36832628
57	0x3c82bc25	0.015958855
58	0x410b1601	8.692872
59	0x4064b050	3.5732613
60	0x40c1e84c	6.0596066
61	0x40da4040	6.820343
62	0xbe1e5c11	-0.15464808
63	0x3f2b08a1	0.6681004
64	0x3f8bdcc5	1.0926749
65	0xbfd94351	-1.6973668
66	0x40666bf0	3.600338
67	0x4043ec26	3.0612884
68	0x408d41e0	4.4142914
69	0x40de6608	6.949955
70	0x405bb77a	3.4330735
71	0x3e9a16ef	0.30095622
72	0x3e946033	0.28979644
73	0x408a67d1	4.325173
74	0x4051e062	3.2793202
75	0x41272b1d	10.448026
76	0x40c7afea	6.240224
77	0xbee938dc	-0.45551193
78	0x3f4834e7	0.7820572
79	0x3f444f76	0.7668375
80	0xbe520bd4	-0.20512325
81	0x408db74e	4.428626
82	0x3ee0f1be	0.43934435
83	0x3fd67d06	1.6756904
84	0x407db50f	3.964176
85	0x41048412	8.282244
86	0x403a0544	2.9065714
87	0x40400524	3.0003138
88	0xbfa56183	-1.2920383
89	0x3f2b4d40	0.6691475
90	0xbfce6d7d	-1.6127163
91	0xbf8caed9	-1.0990859
92	0x4017f2b7	2.3741891
93	0x40d81330	6.752342
94	0x40c0efba	6.0292635
95	0xbf7a7f64	-0.9785063
96	0x3ffb326b	1.9624761
97	0x3fb485e1	1.4103357
98	0x408770b8	4.2325096
99	0x40a078bb	5.0147376
100	0xbfa2a43d	-1.2706372
101	0x402b7bca	2.6794305
102	0xbea3a3d4	-0.31960928
103	0x3ec421c7	0.3830702
104	0x3ffb9573	1.9654983
105	0xc02b110d	-2.6729157
106	0x4090e96e	4.528495
107	0x40128aed	2.2897294
108	0x40659d33	3.5877197
109	0x411508a6	9.314611
110	0x3ff4e972	1.9133742
111	0xbf3019c4	-0.68789315
112	0x40494dac	3.1453657
113	0x40335402	2.8020024
114	0x3f6696c2	0.9007379
115	0x3f1bca44	0.6085551
116	0x402c1e8e	2.689365
117	0x3f22d856	0.6361135
118	0x3f6abeb3	0.91697234
119	0xbfa6a1ec	-1.3018165
120	0x3e1fa5dd	0.15590616
121	0x3e29945d	0.16560502
122	0xbf0a42d4	-0.5400822
123	0xbf943967	-1.1580018
124	0x40c67eea	6.2029924
125	0x3fd2943a	1.6451485
126	0x40a7a094	5.238352
127	0x40423afd	3.0348504

convs.0.bn1.bias f4 [128]
0	0xbeed0eee	-0.46300453
1	0x406d9f80	3.71286
2	0xc061f983	-3.530854
3	0xc0ef3f08	-7.4764442
4	0xbfea5c1a	-1.8309357
5	0x406a19d7	3.6578271
6	0x3f399891	0.7249842
7	0x40fa1b38	7.8158226
8	0x4026cd20	2.6062698
9	0x41212256	10.070883
10	0x40fa056c	7.813162
11	0xc047d3c5	-3.1223004
12	0xc0052247	-2.0802171
13	0x40f8a660	7.7703094
14	0xc009a5bc	-2.1507406
15	0x409f2440	4.973175
16	0xc072d9ba	-3.794539
17	0xc021c000	-2.5273438
18	0xbfb6d88c	-1.4284835
19	0x40a94859	5.2900815
20	0x40ccc4af	6.399009
21	0x3ee51241	0.4474049
22	0x3f7e2233	0.99270934
23	0x3fc2be99	1.5214416
24	0xbfaf563d	-1.3698193
25	0x407f0be5	3.985101
26	0x3fee3d73	1.8612503
27	0x4073a634	3.8070192
28	0x3fa2012f	1.2656611
29	0xbff60c4d	-1.9222504
30	0x3f5a95e2	0.85384953
31	0x3eb145c4	0.3462354
32	0xbda56eb3	-0.08077755
33	0x401ff129	2.4990942
34	0x3f3642f9	0.7119594
35	0xc0410432	-3.015881
36	0x3fcfb470	1.622694
37	0xbf240016	-0.6406263
38	0x40fbfa4a	7.874303
39	0x4063621e	3.5528636
40	0x4094f949	4.6554303
41	0x4051ea72	3.2799344
42	0xbe004355	-0.12525685
43	0xbeecd5a0	-0.46256733
44	0x3fa23e5b	1.2675279
45	0x3fb9df26	1.4521224
46	0xbf247564	-0.64241624
47	0xbeb21384	-0.34780514
48	0xc015005d	-2.3281472
49	0xbf4e0cdc	-0.8048837
50	0xc01e490e	-2.473209
51	0x40a74ae2	5.227891
52	0x3ff03147	1.8765038
53	0x3e2b7740	0.16744709
54	0xbeba5bef	-0.36398265
55	0x3ed26030	0.4108901
56	0x41245751	10.2713175
57	0x410d91da	8.848108
58	0xc04293dd	-3.0402749
59	0x3f928393	1.1446403
60	0x3ff08606	1.8790901
61	0x3fbcf238	1.4761419
62	0x4083357a	4.100278
63	0x402ba96a	2.6822152
64	0x40aaafd8	5.3339653
65	0x3fd0a56e	1.6300485
66	0xc09c74ce	-4.8892584
67	0xc09ee3a2	-4.965287
68	0xc0100194	-2.2500963
69	0xbe93ed2f	-0.28891894
70	0xbfa96c20	-1.3236122
71	0x40c37bf2	6.10888
72	0x4118bce0	9.546112
73	0xbf8cd233	-1.1001648
74	0xbf938bbc	-1.1527019
75	0xbdd41224	-0.103550225
76	0xc0782856	-3.877462
77	0x40ae44b2	5.4458857
78	0x417abde2	15.671358
79	0x4083307c	4.0996685
80	0x408c8bcf	4.3920665
81	0xc0b0961c	-5.518324
82	0x41266d19	10.401635
83	0x3d9e6cb1	0.07735575
84	0x3ea787cf	0.327208
85	0x3e8989a1	0.26862815
86	0x3e3569ca	0.17716137
87	0xc00483f6	-2.0705543
88	0x407b250e	3.9241366
89	0x40d1b05b	6.552778
90	0x4086bc27	4.210468
91	0x40600b8e	3.5007052
92	0xc0375b61	-2.8649523
93	0xc0b30a3f	-5.5950007
94	0xbf364bab	-0.7120921
95	0x4131800e	11.093763
96	0xbf84d8e4	-1.037869
97	0x40efa63f	7.4890437
98	0xc02547fd	-2.5825188
99	0xbfdfd4da	-1.7486832
100	0x40089d87	2.1346147
101	0xbf7e9ccd	-0.9945801
102	0x40f5fbbb	7.686979
103	0x400c7464	2.194604
104	0xbc9167c9	-0.017749684
105	0x4120e332	10.055468
106	0x406aa6ed	3.6664383
107	0xbf46a7db	-0.7759988
108	0xbf742b2d	-0.9537838
109	0xbfd3474b	-1.6506132
110	0xc023c88e	-2.559116
111	0x409ef7cb	4.967748
112	0x40795e38	3.8963757
113	0xbf1fe9ad	-0.62465936
114	0x40b04247	5.5080905
115	0x4088a79f	4.2704616
116	0xc002d780	-2.044403
117	0x407b9f61	3.9316027
118	0xbe968e2f	-0.29405352
119	0x40c0a6a6	6.020343
120	0x40a9363e	5.2878714
121	0x40b5aacd	5.6770997
122	0x4191c24b	18.21987
123	0x403912d1	2.8917735
124	0x3fee2630	1.8605404
125	0x40ddbc2e	6.929221
126	0x3f2bf932	0.67177117
127	0x3e8d50d4	0.2760073

convs.0.bn1.running_mean f4 [128]
0	0x442fb777	702.86664
1	0xc4b5110f	-1448.5331
2	0x44a6e8bb	1335.2728
3	0x4497a54d	1213.1656
4	0xc37eb3cc	-254.70233
5	0xc5109abc	-2313.671
6	0xc387ca4a	-271.58038
7	0xc3ddb80a	-443.4378
8	0xc4669e4e	-922.4735
9	0xc396bc32	-301.47028
10	0xc4b28e1d	-1428.441
11	0xc39413c0	-296.1543
12	0xc4f0efeb	-1927.4974
13	0x4417cd0d	607.2039
14	0x448283c4	1044.1177
15	0x443eae62	762.72473
16	0x4360df4c	224.87225
17	0xc4b789c2	-1468.3049
18	0xc394f3cc	-297.90466
19	0xc42aa8d3	-682.6379
20	0xc28a3b21	-69.115486
21	0xc5176150	-2422.082
22	0x44948714	1188.2212
23	0x440b66f1	557.60846
24	0x43a455af	328.6694
25	0xc327ccf1	-167.80055
26	0x43a0ae02	321.35944
27	0x44020a3a	520.1598
28	0xc43d8a02	-758.1564
29	0xc318b792	-152.71707
30	0xc3bb81d7	-375.01437
31	0xc4ba84d1	-1492.1505
32	0x40149eda	2.3221955
33	0x44871487	1080.6415
34	0x44defb47	1783.8524
35	0x443a1181	744.2735
36	0x44143008	592.7505
37	0x446e73be	953.8085
38	0x44847d34	1059.9126
39	0xc2ed3cae	-118.618515
40	0x43a1e2d2	323.77203
41	0x44ebc0c6	1886.0242
42	0xc4ab98f2	-1372.7795
43	0x42b92521	92.57252
44	0x430e8f7d	142.5605
45	0x41e2d541	28.354128
46	0x448dcdad	1134.4274
47	0x44677df0	925.9678
48	0xc4230636	-652.09705
49	0x43bb799f	374.95016
50	0x440a983f	554.37885
51	0x442c158d	688.33673
52	0x439b4dbe	310.60736
53	0xc4ccdcee	-1638.904
54	0x44483930	800.89355
55	0xc423c909	-655.1412
56	0xc3cc24e2	-408.28815
57	0x43badd88	373.7307
58	0xc3bda7a8	-379.3098
59	0x432f6bf3	175.42168
60	0xc468fa2c	-931.90894
61	0x44733f37	972.98773
62	0xc40f4ede	-573.2323
63	0x44a5e3fd	1327.1246
64	0xc3511f0b	-209.12126
65	0xc4d90215	-1736.0651
66	0x44bd5f50	1514.9785
67	0x4477f960	991.8965
68	0xc3ce6e7a	-412.8631
69	0xc51d98f5	-2521.5598
70	0xc337ddd2	-183.86649
71	0xc4ad03d2	-1384.1194
72	0x428999b6	68.80022
73	0x431747e4	151.28082
74	0x4421517c	645.2732
75	0xc47b1cc1	-1004.4493
76	0x43fdd34b	507.65073
77	0xc3b37773	-358.9332
78	0xc5220992	-2592.5981
79	0x44b7851a	1468.1594
80	0x438566e6	266.8039
81	0xc4e5231f	-1833.0975
82	0x44735b17	973.4233
83	0xc487b779	-1085.7335
84	0xc40353ac	-525.3074
85	0x44baa78a	1493.2356
86	0xc3a26f47	-324.86935
87	0x44f01b3a	1920.8508
88	0xc24987b8	-50.382538
89	0xc4d0b68d	-1669.7047
90	0x4457810d	862.0164
91	0x441fecc9	639.69977
92	0xc3995e31	-306.73587
93	0x44799514	998.32935
94	0xc4a00405	-1280.1256
95	0xc309d6d1	-137.83913
96	0x44637955	909.8958
97	0x439e02a5	316.02066
98	0x44e7413d	1850.0387
99	0x444f11bd	828.27716
100	0x42f4d04a	122.406815
101	0x4463eafe	911.67175
102	0x442f0c73	700.1945
103	0xc219f397	-38.48788
104	0x428a9d73	69.30752
105	0x45417b89	3095.721
106	0xc4b2980f	-1428.7518
107	0x42d36ad4	105.70865
108	0x4396cb81	301.58987
109	0x44cd432f	1642.0995
110	0x44be7eb6	1523.9597
111	0x4468cb62	931.17786
112	0xc3139530	-147.58276
113	0x43e62bb6	460.3415
114	0xc4835a73	-1050.8265
115	0x442b632e	685.5497
116	0x44df8c49	1788.3839
117	0xc481f764	-1039.731
118	0x44c09960	1540.793
119	0x4463f8ae	911.8856
120	0xc3b25cbe	-356.72455
121	0x44a95601	1354.6876
122	0xc542f2dc	-3119.1787
123	0xc3b828ef	-368.3198
124	0xc4be75b0	-1523.6777
125	0xc42fb80a	-702.8756
126	0x43702b1e	240.16843
127	0x44ebdf4f	1886.9784

convs.0.bn1.running_var f4 [128]
0	0x4967a39f	948793.94
1	0x49a9f932	1.3924222e+06
2	0x490da2d2	580141.1
3	0x480aaa9f	141994.48
4	0x487da167	259717.61
5	0x49b0ac72	1.4473102e+06
6	0x4a078e88	2.220962e+06
7	0x49c1d7aa	1.5879572e+06
8	0x49cb6c2f	1.6664379e+06
9	0x49a3af9c	1.3409155e+06
10	0x4984f208	1.089089e+06
11	0x4a397c4a	3.0389945e+06
12	0x4a816050	4.2394e+06
13	0x490dd90d	581008.8
14	0x4a3a7b3e	3.0553115e+06
15	0x496a55e4	959838.25
16	0x49b0c425	1.4480686e+06
17	0x49e7cdce	1.8989378e+06
18	0x4a22c0d0	2.666548e+06
19	0x497e6ca0	1.042122e+06
20	0x4a8ea360	4.673968e+06
21	0x4a87f7f2	4.455417e+06
22	0x4a220083	2.6542408e+06
23	0x49540bfe	868543.9
24	0x485994b4	222802.81
25	0x4a297575	2.7764132e+06
26	0x48b0908b	361604.34
27	0x4a749971	4.0075162e+06
28	0x49289ca0	690634.0
29	0x477a2c03	64044.01
30	0x4a1de869	2.5871622e+06
31	0x4a2455b0	2.69246e+06
32	0x490e802b	583682.7
33	0x49da039a	1.7859712e+06
34	0x4a00f275	2.1126692e+06
35	0x49162241	614948.06
36	0x49e2548f	1.8540979e+06
37	0x496ad62c	961890.75
38	0x4989e26a	1.1295492e+06
39	0x48a87ead	345077.4
40	0x49683982	951192.1
41	0x4a12f3b1	2.4076602e+06
42	0x49ff37e2	2.0907482e+06
43	0x4843e424	200592.56
44	0x47a7127a	85540.95
45	0x49acbef0	1.415134e+06
46	0x4a521aaa	3.4423465e+06
47	0x49b8bb5d	1.5133236e+06
48	0x499b8106	1.2738888e+06
49	0x4a1c9985	2.5657292e+06
50	0x4a2e68f9	2.8575342e+06
51	0x49d424f9	1.7378871e+06
52	0x49d13a39	1.7139911e+06
53	0x49d7f75f	1.7691959e+06
54	0x49c2bc0e	1.5952658e+06
55	0x49743644	1.00029225e+06
56	0x4876c8b0	252706.75
57	0x4896a13c	308489.88
58	0x4a1e29ba	2.5913425e+06
59	0x47f32183	124483.02
60	0x4a31f3e0	2.915576e+06
61	0x48173f41	154877.02
62	0x49a6c22b	1.3660854e+06
63	0x49e2753c	1.8551435e+06
64	0x4ab257bf	5.8439355e+06
65	0x489b77ce	318398.44
66	0x493478cf	739212.94
67	0x48f90186	509964.2
68	0x483064e8	180627.62
69	0x495d3723	906098.2
70	0x4a116da5	2.3826972e+06
71	0x49f195c4	1.9790645e+06
72	0x49e178ab	1.8470614e+06
73	0x49a263db	1.3302994e+06
74	0x4a380cfb	3.0154868e+06
75	0x4a2c5cd0	2.823988e+06
76	0x4a5927bc	3.557871e+06
77	0x49738acb	997548.7
78	0x4b8ee1a9	1.8727762e+07
79	0x49c1e253	1.5882984e+06
80	0x4935bf4e	744436.9
81	0x4942550a	795984.6
82	0x4a52eb9f	3.4557198e+06
83	0x494f3748	848756.5
84	0x4a8bad41	4.5769285e+06
85	0x4af993da	8.178157e+06
86	0x4a38d927	3.0285538e+06
87	0x49b3aeac	1.4719575e+06
88	0x48c21366	397467.2
89	0x4a77f973	4.0628128e+06
90	0x49292daa	692954.6
91	0x4a908c3d	4.7365425e+06
92	0x497faa7f	1.04720794e+06
93	0x47ebecc6	120793.55
94	0x4a56ec89	3.5213142e+06
95	0x49bed35c	1.5632435e+06
96	0x49870312	1.1060182e+06
97	0x49e7e83c	1.8997835e+06
98	0x4aacd1a2	5.662929e+06
99	0x49388924	755858.25
100	0x4974f663	1.0033662e+06
101	0x4982e3f2	1.0722542e+06
102	0x4a09c5bd	2.2572632e+06
103	0x495eb4a0	912202.0
104	0x4a15b0e3	2.4525368e+06
105	0x4bb24a5a	2.3368884e+07
106	0x4ab6a946	5.985443e+06
107	0x48bcebbb	386909.84
108	0x47af5576	89770.92
109	0x4a0af16f	2.2764438e+06
110	0x4a541483	3.4747208e+06
111	0x4987defa	1.1130552e+06
112	0x48fbb5d1	515502.53
113	0x4a15a479	2.4517422e+06
114	0x4ad637df	7.0195035e+06
115	0x4a0c2580	2.29616e+06
116	0x4a24a243	2.6973608e+06
117	0x48b36bde	367454.94
118	0x499d9166	1.2907968e+06
119	0x4a9c7fcb	5.1281655e+06
120	0x4a160fac	2.458603e+06
121	0x494952b8	824619.5
122	0x4ae9fd97	7.6674035e+06
123	0x4822d9db	166759.42
124	0x4acbe8c6	6.681699e+06
125	0x488886e5	279607.16
126	0x4a5d82c8	3.629234e+06
127	0x4a3f2a6b	3.1320588e+06

convs.0.bn2.weight f4 [64]
0	0x3f756927	0.95863575
1	0x3e80f01c	0.2518319
2	0x3fedbe44	1.857369
3	0x3fae6f45	1.3627707
4	0xbfa26077	-1.2685689
5	0xc03023b8	-2.75218
6	0x3fcef17d	1.6167446
7	0x408701c9	4.218968
8	0xbfa6eb89	-1.304063
9	0x40010722	2.0160604
10	0x3f299df3	0.66256636
11	0x3fa8e9a1	1.3196298
12	0x40084bf5	2.129636
13	0xbfeeaf5b	-1.8647264
14	0x3f91f4fc	1.1402888
15	0x40e0a798	7.020458
16	0x40070ff1	2.110348
17	0xbfba315d	-1.4546314
18	0x40807b5d	4.015059
19	0xbc6ce4a2	-0.014458807
20	0x3fc01057	1.5004987
21	0x3f8fafdc	1.1225543
22	0x3fb160ea	1.3857701
23	0x3f55dff0	0.83544827
24	0x40189bc7	2.384508
25	0x3fbb2f95	1.4623896
26	0x405d2cd8	3.455862
27	0x3d941742	0.072309986
28	0xbea432d7	-0.32070038
29	0x4067e58e	3.623386
30	0x3f8a9f85	1.0829931
31	0x3f8cf180	1.10112
32	0x3e47d4cc	0.1951477
33	0x40390900	2.8911743
34	0x3facd5c5	1.3502737
35	0x40110b0a	2.2662988
36	0x3ebb59c5	0.36591926
37	0x4069767f	3.6478574
38	0x401cb879	2.4487593
39	0x3eaf12b8	0.3419397
40	0x3fa140a1	1.2597848
41	0x3f2a021d	0.66409475
42	0x3f9a8631	1.2072202
43	0xbfde77f1	-1.7380353
44	0xbfd60dd5	-1.6722971
45	0x3f366077	0.71240944
46	0x3fc1803d	1.511726
47	0x3ea1727f	0.31532666
48	0x3fe3f083	1.7807773
49	0x3fe5fcb3	1.7967743
50	0x3f45e7f5	0.77307063
51	0x40783bd9	3.8786528
52	0x3e822725	0.2542049
53	0x3f03a4f8	0.514236
54	0x3fe54cae	1.7914026
55	0x3ff37904	1.9021306
56	0x3fbb3129	1.4624377
57	0x400d0b21	2.2038043
58	0x3f432d37	0.7624087
59	0x403ca903	2.9478157
60	0x3f8fc2fc	1.123138
61	0x40558acb	3.3365963
62	0x3f49de75	0.7885507
63	0x3f7daff9	0.9909664

convs.0.bn2.bias f4 [64]
0	0xc094ecca	-4.653905
1	0xc06591fa	-3.5870347
2	0xc0f53f95	-7.6640115
3	0xc019c3db	-2.402579
4	0xc0d0eb06	-6.5286894
5	0xc04669a4	-3.1001978
6	0xc0971108	-4.720829
7	0xc0c7bddf	-6.2419276
8	0xc05d7487	-3.4602373
9	0xc00921b4	-2.142682
10	0xc010eb93	-2.2643783
11	0xc095aec0	-4.677582
12	0xbfe1bef9	-1.7636405
13	0xc0dabff2	-6.835931
14	0xbfffae53	-1.9975075
15	0xc10c6ec2	-8.7770405
16	0xc0afae7f	-5.490051
17	0xc05486a0	-3.3207169
18	0xc008d87d	-2.1382134
19	0xbf885f59	-1.0654098
20	0xbfeaa49d	-1.8331486
21	0xc002fa8a	-2.0465417
22	0xc0979845	-4.7373376
23	0xc0796718	-3.8969173
24	0xc0992326	-4.7855406
25	0xc0a79d72	-5.2379694
26	0xc025916a	-2.5870004
27	0xc01f444f	-2.4885442
28	0xc0906a68	-4.512989
29	0xc02957fd	-2.6459954
30	0xc09efaf0	-4.968132
31	0xc04502eb	-3.078303
32	0xc09f6f63	-4.982347
33	0xc0981141	-4.752106
34	0xc06159de	-3.52111
35	0xc07148bb	-3.770064
36	0xc085020e	-4.156501
37	0xc0a00ce4	-5.0015736
38	0xc0c2c71f	-6.086807
39	0xc0bc4e5c	-5.8845654
40	0xc06e329a	-3.7218385
41	0xbfd84715	-1.6896693
42	0xbf7e2008	-0.99267626
43	0xc116cd01	-9.42505
44	0xc0f422b3	-7.6292357
45	0xc04e0607	-3.2191179
46	0xc06480d7	-3.5703638
47	0xc090ad02	-4.521119
48	0xbef934c3	-0.48673066
49	0xc0adcdd8	-5.4313774
50	0xc0abe236	-5.3713636
51	0xc03780a2	-2.8672261
52	0xc068c8c0	-3.6372528
53	0xbff729c9	-1.9309627
54	0xc0a38b40	-5.1107483
55	0xc079ff8b	-3.906222
56	0xc03e61e2	-2.9747243
57	0xc075f426	-3.8430266
58	0xc08b2220	-4.3479156
59	0xc10cfd37	-8.81182
60	0xc0cb10e3	-6.3458114
61	0xc089257d	-4.285826
62	0xc080d996	-4.026561
63	0xc0c385af	-6.110069

convs.0.bn2.running_mean f4 [64]
0	0x4201c226	32.439598
1	0x41b98d25	23.193918
2	0x3fc37b7c	1.527206
3	0x3de4c3a8	0.11170131
4	0x400d20b6	2.2051215
5	0x42077aac	33.869797
6	0x4127d321	10.489045
7	0x4292946c	73.28989
8	0x42b2fac1	89.48975
9	0x4199c8e0	19.223083
10	0x415c3d6e	13.7649975
11	0x42105c77	36.090298
12	0x410346f7	8.204825
13	0x4282c0fb	65.376915
14	0x42870f74	67.53018
15	0x424442a8	49.065094
16	0x3fc0f7b9	1.5075599
17	0x40a27c58	5.0776787
18	0x41d653bc	26.790886
19	0x413e9be6	11.913061
20	0x41bbe0d5	23.484781
21	0x41bb0de5	23.381784
22	0x416eba42	14.920473
23	0x40d365c7	6.606174
24	0x413dd995	11.865621
25	0x429834f7	76.10345
26	0x41eea803	29.832037
27	0x4226d6df	41.709835
28	0x40579ca0	3.3689346
29	0x3de87ae4	0.113515645
30	0x41b54446	22.658337
31	0x429bc6e5	77.888466
32	0x40c2756b	6.0768332
33	0x42a5b00e	82.84386
34	0x4152e737	13.181449
35	0x41624870	14.142685
36	0x41b6f114	22.867714
37	0x41042a59	8.260339
38	0x42b86cb4	92.21231
39	0x41d695ef	26.82321
40	0x414a115f	12.629241
41	0x428d25cb	70.573814
42	0x41be389c	23.777641
43	0x40dc637e	6.887145
44	0x416bef47	14.745917
45	0x422d18cc	43.274216
46	0x3f5b4067	0.85645145
47	0x41cd5200	25.66504
48	0x417c1a59	15.756433
49	0x4100b662	8.044527
50	0x41c5a4ce	24.705471
51	0x424c80e1	51.12586
52	0x40ceeadc	6.4661694
53	0x4190400a	18.03127
54	0x406dc23f	3.7149808
55	0x4200b04f	32.172176
56	0x427df9a4	63.49379
57	0x42883d45	68.11967
58	0x427a87d5	62.63265
59	0x41affa32	21.997166
60	0x422694e9	41.64542
61	0x42451fc5	49.281025
62	0x41f2e36d	30.361048
63	0x41909eff	18.077635

convs.0.bn2.running_var f4 [64]
0	0x43121596	146.08432
1	0x43285007	168.3126
2	0x408f1e38	4.472439
3	0x3c6c05d4	0.014405686
4	0x412c27ac	10.7596855
5	0x4488e48d	1095.1422
6	0x42bede0c	95.433685
7	0x413120b6	11.070486
8	0x4461e9dc	903.65405
9	0x425ee39a	55.722267
10	0x439a4be4	308.5929
11	0x4470d244	963.2854
12	0x428fc884	71.89163
13	0x41df81ae	27.93832
14	0x442ca7c9	690.62164
15	0x41b5a1f1	22.704073
16	0x3ef25cdc	0.4733647
17	0x42275675	41.83443
18	0x428ca1e3	70.316185
19	0x43356b7d	181.41988
20	0x43b4cd3b	361.60336
21	0x440a0d30	552.20605
22	0x43228fd5	162.56184
23	0x427f0563	63.75526
24	0x421de818	39.476654
25	0x417b3e60	15.702728
26	0x44412237	772.5346
27	0x4321a333	161.6375
28	0x419452c0	18.540405
29	0x3c5f0631	0.013612316
30	0x43b95e09	370.73465
31	0x40f09414	7.518076
32	0x4235ce6b	45.45158
33	0x42e49185	114.28422
34	0x4208f351	34.237614
35	0x433e8363	190.51323
36	0x434dc01a	205.7504
37	0x4279ad03	62.418957
38	0x4152c57d	13.173215
39	0x41a4362a	20.526447
40	0x42868836	67.26604
41	0x42fea6f5	127.32609
42	0x446c27f8	944.6245
43	0x428fd4c1	71.915535
44	0x43b859ed	368.70255
45	0x4382c558	261.54175
46	0x3e9def6c	0.30846727
47	0x42879aa5	67.80204
48	0x4329c690	169.77563
49	0x424c5b37	51.089077
50	0x427d9f51	63.405582
51	0x4218c5da	38.193214
52	0x427c589c	63.086533
53	0x4221d00d	40.453175
54	0x40c8ff35	6.281153
55	0x435fa94d	223.66133
56	0x3fd5f8d2	1.6716559
57	0x403c8fe9	2.9462836
58	0x43d0d856	417.69012
59	0x41f08c0a	30.068378
60	0x43388d14	184.55109
61	0x44fdd308	2030.5947
62	0x437e5394	254.32648
63	0x43078077	135.50182

convs.1.fc_full.weight f4 [128, 169]
0	0x3e340a23	0.17581992
1	0x3ed88be4	0.42294228
2	0x3ec8f1c2	0.39246947
3	0x3f3ac88d	0.72962266
4	0x3e107631	0.14107586
5	0x3faac29b	1.3340639
6	0x3f2b58b2	0.66932213
7	0x3f7bfbe3	0.98431224
8	0xbe135274	-0.14386922
9	0x3db63317	0.08896463
10	0x3f87b057	1.060069
11	0x3e419f13	0.18908338
12	0x3f61f0e5	0.882582
13	0x3ecf3231	0.4046798
14	0xbefdec98	-0.4959457
15	0xbf721820	-0.9456806
16	0xbee4c43c	-0.44680965
17	0xbf570c59	-0.84003216
18	0xbcc7004d	-0.024292136
19	0xc01345d6	-2.3011374
20	0xbf9b3749	-1.2126247
21	0x3ec37267	0.3817322
22	0xbe380f92	-0.1797469
23	0xbdf6a497	-0.12043112
24	0x3eeef4a7	0.4667103
25	0x3def1b34	0.116751105
26	0x3f4138ec	0.7547748
27	0xbc909f7a	-0.01765417
28	0x3ec35cf0	0.38156843
29	0x3fa86dd5	1.3158518
30	0xbeeb1b81	-0.4591942
31	0xbe16c68d	-0.14724179
32	0x3e86bada	0.2631443
33	0x405f44f9	3.4885848
34	0xbe6677b8	-0.22506607
35	0xbf2ee7b1	-0.68322283
36	0x3e1f08d9	0.15530719
37	0xbea2e001	-0.31811526
38	0x3f3d80e1	0.7402478
39	0xbdae73cf	-0.085181825
40	0x3e864f09	0.26232174
41	0xbfa65aa2	-1.2996409
42	0xbf1ec042	-0.6201211
43	0xbcbf7dbe	-0.023375388
44	0x3ebd21b9	0.3693979
45	0xbee75708	-0.45183587
46	0xbe57c6f6	-0.21071991
47	0x3e975bce	0.2956223
48	0x3dc82a75	0.09773723
49	0xbf06b912	-0.52626145
50	0xbd9f652c	-0.07782969
51	0x3f3d8fad	0.74047357
52	0xbe176def	-0.1478803
53	0xbf0be296	-0.5464262
54	0x3f35ffd4	0.7109349
55	0x3ed2493d	0.410715
56	0xbdcd80f8	-0.100343645
57	0x3f06ef0e	0.5270852
58	0x3f04cd46	0.5187572
59	0xbf229f72	-0.63524544
60	0xbea217d4	-0.31658804
61	0xbecf3eab	-0.404775
62	0x3d824b94	0.06362072
63	0xbe88210b	-0.2658771
64	0x3ee1e159	0.4411724
65	0xbd594a16	-0.05304917
66	0xbe8428a9	-0.2581227
67	0xbf5effe2	-0.87109196
68	0x3e47f5b4	0.19527322
69	0x3f1bf97a	0.60927546
70	0x3f7ee836	0.99573076
71	0xbe9d26b3	-0.30693588
72	0xbfaee48b	-1.3663496
73	0x3ff5602e	1.9169977
74	0xbf8bb047	-1.091317
75	0x3fbe3648	1.4860315
76	0xbf406563	-0.75154704
77	0x3e2820d9	0.1641878
78	0x3fa1d41d	1.2642857
79	0x3f550a5c	0.8321893
80	0xbe5159f4	-0.2044447
81	0xc07e43b6	-3.9728827
82	0xbfab2aac	-1.3372397
83	0x3ff0adca	1.8803036
84	0x3f1b6a91	0.6070948
85	0x3f999f41	1.2001725
86	0x3eb9c666	0.36284178
87	0xbfca5f61	-1.5810357
88	0x3fb1be9d	1.3886296
89	0x3f386c64	0.7204039
90	0x401fd8ac	2.4975996
91	0xbf5a4e8a	-0.8527609
92	0xbf3a6e9f	-0.72825044
93	0x3d96b493	0.073586605
94	0x3fc9f040	1.5776443
95	0x3dc1ecdc	0.094690055
96	0xbe5456a8	-0.20736182
97	0x3ff29358	1.8951216
98	0x3febee83	1.8432163
99	0x3fbeeafc	1.4915462
100	0xbe855996	-0.2604491
101	0x3f044029	0.516604
102	0xbf4fba02	-0.811432
103	0x3cf0bb50	0.029386193
104	0x3f45123f	0.76980966
105	0xc02b9166	-2.6807494
106	0xbf7e8c27	-0.99432606
107	0xbe78562d	-0.24251623
108	0x3d8c052b	0.06836923
109	0x400ea343	2.2287147
110	0x3fc5f6e2	1.5465968
111	0x3ea586a9	0.323293
112	0x3fc129a1	1.5090829
113	0x3f4d1128	0.80104303
114	0x3e4f5e7d	0.20250888
115	0x3e4f36c4	0.20235735
116	0xc0012dbe	-2.018417
117	0xbf62c66e	-0.8858403
118	0x3e01fa99	0.12693252
119	0x3f057d10	0.52143955
120	0x3f1872d4	0.59550214
121	0x3f02a9f0	0.51040554
122	0x3efa0268	0.4882996
123	0xbfd365da	-1.6515458
124	0x3f568da8	0.838099
125	0xbfb22f1f	-1.392063
126	0x3f8e6e13	1.1127342
127	0xbfce4cb9	-1.6117164
128	0x3ead00d0	0.33789682
129	0x3f08b5e9	0.5340257
130	0xbf06bc9c	-0.52631545
131	0xc00c3d34	-2.1912355
132	0xbeffed06	-0.49985522
133	0xbeb1a484	-0.34695828
134	0x40091b19	2.142279
135	0xbe84dfc1	-0.2595196
136	0xbfa8bdbb	-1.3182901
137	0xc03203fa	-2.7814927
138	0x3fe8d65f	1.8190421
139	0x3ed90934	0.42389834
140	0xbec073a2	-0.3758822
141	0x3da99614	0.08280578
142	0x3d1f9c07	0.03896716
143	0xbf89c1a9	-1.0762225
144	0xc04e1b79	-3.2204268
145	0xc021dcb7	-2.5290964
146	0xbfada50e	-1.3565996
147	0xbd140a4d	-0.036142636
148	0xbf8d12c2	-1.102135
149	0xbe770a7a	-0.2412509
150	0x4021475e	2.519981
151	0x4051a4b2	3.2756772
152	0x40225c61	2.5368884
153	0x40820433	4.0630126
154	0x3fe72d8d	1.8060776
155	0x3f0ac21e	0.5420245
156	0xbf838b78	-1.0276937
157	0xc032af22	-2.7919393
158	0xbfaad116	-1.3345058
159	0xbf83c41f	-1.0294226
160	0xbfd4e680	-1.6632843
161	0xbf96a6bd	-1.1769634
162	0xbe4a07bb	-0.19729511
163	0xbe552301	-0.20814134
164	0xbd0d2047	-0.03445461
165	0x3d4f2685	0.050573844
166	0xbd303591	-0.043019835
167	0xbce80041	-0.028320434
168	0xbce92214	-0.028458633
169	0x3ddfa6bb	0.10920473
170	0x3fbcbc90	1.4745045
171	0x3eb82383	0.35964593
172	0x3f5fb193	0.8738033
173	0xbfe32237	-1.7744817
174	0xbf9b519a	-1.2134278
175	0x3f245159	0.64186627
176	0x408082a8	4.0159492
177	0x3f59b871	0.8504706
178	0x40ce6d1d	6.4508195
179	0x40119cb4	2.2751894
180	0xbfeade58	-1.8349104
181	0xbe5fb128	-0.21844923
182	0x400ab2cd	2.1671631
183	0xbf8e1197	-1.1099118
184	0x3f6ecdd0	0.93282795
185	0xbf062aec	-0.52409244
186	0x3dfea784	0.12434295
187	0xbee12ce0	-0.4397955
188	0xbf45babc	-0.7723806
189	0x3ecaf8f1	0.39643052
190	0xbd90810c	-0.07055864
191	0xbf4e6a1d	-0.80630666
192	0x3d829e54	0.06377855
193	0x3f8b716d	1.089399
194	0xc00c578f	-2.1928442
195	0x4064be7a	3.5741258
196	0x40b38aa9	5.6106763
197	0x3e1164df	0.14198636
198	0x3e3df555	0.18550618
199	0xbf717a92	-0.9432765
200	0x3fed583a	1.854255
201	0x400e60a0	2.2246475
202	0x40897348	4.2953224
203	0xbf0f3456	-0.55939233
204	0xc06b6204	-3.6778574
205	0xbf920111	-1.1406575
206	0xbf129fd8	-0.5727515
207	0x40266f19	2.6005309
208	0x406eadf1	3.7293665
209	0xbf2124ea	-0.6294695
210	0xbffaf871	-1.9607068
211	0x3f1b9968	0.60780954
212	0xbf018ffc	-0.5061033
213	0x3fc7ef63	1.561993
214	0xbf871310	-1.0552692
215	0xc07c1fa5	-3.9394314
216	0xbf4a5df9	-0.7904964
217	0x4076f735	3.8588383
218	0xbf257860	-0.646368
219	0x3f24fa3d	0.64444333
220	0x3eeade85	0.45872894
221	0x3fd0e64a	1.6320279
222	0x401080ca	2.2578607
223	0xbf2e7606	-0.6814884
224	0x404b5109	3.176821
225	0x3fb1c29d	1.3887516
226	0x3ff1d739	1.8893806
227	0xbf76d699	-0.964212
228	0x3d9474f1	0.07248867
229	0x3f3094f8	0.6897731
230	0x3e4f2bf2	0.20231608
231	0xbe635ed9	-0.2220415
232	0x3fa35cc7	1.2762688
233	0xbf99d123	-1.2016948
234	0xbf004e49	-0.50119454
235	0xc01e8bf2	-2.4772916
236	0xc01b6794	-2.428197
237	0xc00026e5	-2.002374
238	0xc00078af	-2.007366
239	0xc0096444	-2.1467447
240	0xbf9d5c64	-1.229382
241	0x3f214d8c	0.6300895
242	0xbfab88b3	-1.3401092
243	0x3e6a88fc	0.22903818
244	0xc04ee5d9	-3.2327788
245	0xbfa6e151	-1.3037511
246	0xbf782687	-0.9693379
247	0xc07da3ab	-3.9631145
248	0x3f277a4e	0.65421
249	0xbfd8fcd9	-1.6952163
250	0xc00e302b	-2.22169
251	0x3d781caf	0.06057423
252	0xbf52a62d	-0.82284814
253	0xbfc2b5cc	-1.521173
254	0xbf5c51ea	-0.8606249
255	0xc0421de2	-3.033074

convs.1.fc_full.bias f4 [128]
0	0xbde07f2b	-0.10961755
1	0xbe79d7fb	-0.24398796
2	0xbf480767	-0.78136295
3	0x3c4c805f	0.012481778
4	0x3ea3003e	0.31836122
5	0x3f64e4ca	0.89411604
6	0x3cb1d9cb	0.021710297
7	0x3f375acb	0.71622914
8	0xbe87f6ed	-0.26555577
9	0xbd8dba67	-0.06920319
10	0x3b2efbb2	0.0026700315
11	0x3e10d7b6	0.14144787
12	0xbe8ea050	-0.27856684
13	0xbd641f6d	-0.055694032
14	0xbd8e55d2	-0.06949963
15	0xbe65e6e4	-0.22451359
16	0x3db74d9a	0.08950348
17	0xbcc9b457	-0.024622126
18	0xbd0ea37f	-0.03482389
19	0xbe018309	-0.12647642
20	0xbe17efd8	-0.14837587
21	0xbe359cb9	-0.17735566
22	0xbd0d6459	-0.034519527
23	0xbd8d5c21	-0.06902338
24	0x3c7cac76	0.015421977
25	0xbe041637	-0.128991
26	0x3d12ac11	0.035808627
27	0x3ed5a9b2	0.4173103
28	0x3d2165cd	0.039403725
29	0xbe012be8	-0.12614405
30	0x3f58daa4	0.8470862
31	0xbd09ab3b	-0.033610564
32	0xbd57ae23	-0.052656304
33	0x3e4e9c56	0.20176825
34	0xbe05afcd	-0.13055344
35	0xbf2114e7	-0.6292252
36	0x3f24f6c2	0.6443902
37	0x3d333c7d	0.043758858
38	0x3c8c9d4a	0.017164845
39	0x3d2343bc	0.03985952
40	0xbee4065b	-0.445361
41	0xbbd77233	-0.006574893
42	0xbd478c58	-0.048717827
43	0xbcb51c89	-0.022108333
44	0x3d31e6cc	0.043432996
45	0x3fac8bfe	1.3480222
46	0x3e2381b6	0.1596745
47	0x3e0662d1	0.13123633
48	0xbe0b5498	-0.13606489
49	0x3fc82b0d	1.5638138
50	0xbf18cf81	-0.59691626
51	0x3edc2413	0.42996272
52	0xbd77a1e0	-0.06045711
53	0x400b4aa1	2.17643
54	0x3db3f1a2	0.08786322
55	0x3e8716ca	0.26384574
56	0xbe3bfb83	-0.18357663
57	0x3d31193e	0.043236963
58	0xbdade327	-0.084905915
59	0x3d86651e	0.06562255
60	0x3ca5c865	0.020237157
61	0xba2d8396	-0.0006619034
62	0x3e63cb5e	0.22245547
63	0x3d4627cd	0.0483778
64	0xbe023c2f	-0.1271827
65	0xbfd23869	-1.6423465
66	0xc098dee0	-4.7772064
67	0x3eb2d642	0.3492909
68	0x3f43f09f	0.76539034
69	0x3deb64f3	0.11493864
70	0xbbd8a846	-0.0066118566
71	0x3fe31907	1.7742013
72	0x3df41844	0.11918691
73	0xbbba7ff2	-0.005691522
74	0xbd693692	-0.056936808
75	0x3e46784d	0.19381829
76	0xbee0f45c	-0.4393643
77	0x3d1f1eb7	0.03884765
78	0x3db7169e	0.08939861
79	0x3e91bd35	0.28464666
80	0xbe011f6c	-0.12609643
81	0xbd6be5f0	-0.057592332
82	0xbbb0dc25	-0.005397337
83	0x3ca8221b	0.020524075
84	0xbf843bf0	-1.0330791
85	0xbf129b20	-0.5726795
86	0xbd376989	-0.04477838
87	0xbd726169	-0.05917493
88	0x3f0f59f4	0.5599663
89	0x3e464675	0.19362815
90	0xbc8a210d	-0.016861463
91	0x3f364082	0.7119218
92	0xbd0ebe5d	-0.034849513
93	0x3ef0ef7e	0.47057718
94	0x3f110376	0.56645906
95	0xbd68acb0	-0.056805313
96	0x3eb141b5	0.34620443
97	0x3d5710f7	0.052506413
98	0x3d0528bd	0.032509554
99	0x3f748ae4	0.9552443
100	0x3c3fa1d1	0.011696295
101	0xbd499ad5	-0.049219925
102	0x405a5091	3.4111674
103	0xbcee8668	-0.029116824
104	0x3f42bb72	0.7606727
105	0x3eff888e	0.4990887
106	0xbdcf9b9e	-0.101371035
107	0xbe8a8e56	-0.2706172
108	0x3e8cd359	0.27504995
109	0x3e9bb5c9	0.3041213
110	0x3ea36085	0.31909576
111	0x3e29c4ca	0.16578975
112	0xbf31e300	-0.69487
113	0x3fd90b83	1.6956638
114	0x3d5bdd57	0.053677883
115	0x403bf6ea	2.9369454
116	0x3d9acda3	0.07558753
117	0x3fbb911d	1.465366
118	0xbcc70ed3	-0.02429906
119	0x3d9f5b86	0.077811286
120	0xbf23603c	-0.63818717
121	0xbc8d67d7	-0.017261429
122	0x3c965a6a	0.01835366
123	0x3ca28e69	0.019843297
124	0xbf2279a2	-0.63466847
125	0xbeb3fc16	-0.35153264
126	0x3e81459d	0.25248423
127	0x3c154409	0.009110459

convs.1.bn1.weight f4 [128]
0	0x4068f827	3.640146
1	0x415de9a9	13.869546
2	0x4134beba	11.296564
3	0x40b1b3a0	5.553177
4	0x40a28715	5.0789895
5	0x410a9d07	8.663337
6	0x3fc64dcf	1.5492495
7	0x4058c185	3.3868115
8	0x41504e21	13.019074
9	0x3ff4370e	1.9079301
10	0x3f612b30	0.87956524
11	0x41253532	10.325487
12	0x41038bbc	8.221615
13	0x40048a8c	2.0709562
14	0x40abca8c	5.368475
15	0x40961931	4.690575
16	0x413b2f96	11.699118
17	0x3f8d7d29	1.1053821
18	0x3ff37088	1.9018717
19	0x411c549e	9.7706585
20	0x40e8bc49	7.272984
21	0x412500fb	10.312739
22	0x3fc82708	1.5636911
23	0x3f8ead02	1.1146548
24	0x40eba1d6	7.3635054
25	0x4105648b	8.337047
26	0x40068478	2.1018353
27	0x40fa3578	7.819027
28	0x4050e9e5	3.2642758
29	0x4133aa53	11.229083
30	0x41014d8c	8.081432
31	0x40c1130f	6.0335765
32	0x40e35a5f	7.1047816
33	0x411c540d	9.77052
34	0x3fe929bc	1.8215861
35	0x40edcd13	7.4312835
36	0x40c736e4	6.2254505
37	0x41af2089	21.890886
38	0x412c33e8	10.762672
39	0x407e997c	3.978118
40	0x410cbb7a	8.795771
41	0x40d3c3b7	6.617641
42	0x40ed625e	7.4182577
43	0x40a2228d	5.0667176
44	0x3fa10830	1.2580624
45	0x414ff746	12.9978695
46	0x3eb1f6b7	0.3475854
47	0x3f1617d5	0.58630115
48	0x4111f475	9.122182
49	0x414329f4	12.197742
50	0x413d14f8	11.817619
51	0x40b99e02	5.800538
52	0x3f8e2ce7	1.1107453
53	0x40e9551e	7.2916403
54	0x3f952533	1.1651977
55	0x4181fca7	16.248365
56	0x414f0ff2	12.941393
57	0x4001ed4c	2.0301085
58	0x3f1550b4	0.5832627
59	0x3f279d01	0.65473944
60	0x4041c1c4	3.0274515
61	0x40b23fe8	5.570301
62	0x413f9d98	11.975975
63	0x40836d57	4.107097
64	0x403209d9	2.781851
65	0x40f2fb86	7.5932035
66	0x40daff02	6.843629
67	0x405b099d	3.4224617
68	0x4117f853	9.498126
69	0x4048debc	3.1385946
70	0x40fb6c82	7.8569956
71	0x4152ba71	13.170518
72	0x400b2493	2.1741073
73	0x3f975c35	1.1825014
74	0x400f79bb	2.2418048
75	0x3ffca25f	1.9737052
76	0x40508137	3.2578866
77	0x40345854	2.8178911
78	0x40296bed	2.6472123
79	0x40bb8e2f	5.8611064
80	0x40929d17	4.581676
81	0x404b78ea	3.179255
82	0x3e783112	0.24237469
83	0x3fe215cd	1.7662903
84	0x3fd0aed3	1.6303352
85	0x405d139e	3.4543223
86	0x3f00e08a	0.5034262
87	0x405efec9	3.4843009
88	0x405e74b3	3.4758728
89	0x401159d0	2.2711067
90	0x406e9362	3.7277455
91	0x41857c95	16.685831
92	0x401b63c6	2.4279647
93	0x40b755f2	5.7292414
94	0x4179e319	15.617944
95	0x40f39c98	7.6128654
96	0x3fa6161f	1.2975501
97	0x405d7f94	3.4609118
98	0x40bf6242	5.9807444
99	0x40868752	4.2040186
100	0x3fc02df2	1.5014021
101	0xc0072f16	-2.112249
102	0x410a89f4	8.65868
103	0x403a4fa5	2.911111
104	0x40629613	3.5404098
105	0x4121986e	10.099714
106	0x400a2d8a	2.1590295
107	0x41771f19	15.445092
108	0x401ad727	2.4193819
109	0x3fc8c0ee	1.5683877
110	0x40a8681a	5.2627077
111	0x406f1a17	3.7359674
112	0x4176560c	15.396008
113	0x40462584	3.0960398
114	0x408ab08c	4.334051
115	0x410d0a58	8.815025
116	0x3fb32e41	1.399849
117	0x40906b3d	4.5130906
118	0x3ff26ba0	1.8939095
119	0x403896df	2.8842084
120	0x40af9386	5.486758
121	0x40864f4d	4.1971803
122	0xbfb41128	-1.4067736
123	0x402a8b93	2.664769
124	0x409c6c39	4.888211
125	0x41022b1c	8.135525
126	0x40f2b616	7.5847273
127	0x407914a5	3.891885
