results/Prediction/2023-06-14/23:08:50.583382/models/model277.pth (torch, 340949 bytes, 34 tensors)

embedding.weight f4 [64, 92]
000000 0e 84 33 3e 4e a6 4c bf 7c 53 84 3e d4 36 c5 bc
       0.17530844 -0.7994126 0.25844944 -0.024073996
000010 a6 05 67 3f 48 fa 65 40 ae c8 54 3f 3c 39 5d 3f
       0.90242994 3.593401 0.8311871 0.8641546
000020 e0 ee 9f bf f0 c6 85 bf 91 ce f2 bf b8 db 4e be
       -1.2494774 -1.0451336 -1.8969289 -0.20201004
000030 a8 ef ad bf 24 69 eb bd 75 fa 62 bf 8e 55 47 bf
       -1.3588762 -0.11494663 -0.8866342 -0.7786492
000040 c0 97 5d be 8b 83 35 bf ad c7 e1 bf 76 b7 04 3d
       -0.2163992 -0.70903844 -1.7639061 0.032401524
000050 b1 ee 94 3d 9a d8 e8 3e d1 17 22 3e 69 08 11 3f
       0.07272089 0.45477754 0.15829398 0.5665346
000060 61 7e d5 bf c0 07 24 c0 a2 80 8b 3e 88 fc 2d 3e
       -1.6679193 -2.562973 0.27246577 0.16990864
000070 8a 05 3d 3d 22 6e 01 bf 4a bd 33 3f 05 20 c9 bf
       0.04614786 -0.50558674 0.7021071 -1.5712897
000080 44 20 8b bf 8f af de be c1 b4 aa bd 33 ed 11 bf
       -1.0869222 -0.43493316 -0.08335257 -0.5700256
000090 cc d2 8a 3d 9f 46 7b be 01 3b a1 be 7e 23 37 3f
       0.067784876 -0.24538659 -0.3149033 0.7153853
0000a0 21 5f 2b 3f 3c f8 1d c0 06 90 ba 3e 4a 1c 00 bf
       0.6694203 -2.468276 0.36438006 -0.50043166
0000b0 f5 a7 f2 be 5b 40 76 3f 8a 9c 44 bf c1 a9 e1 3e
       -0.47393766 0.9619195 -0.7680136 0.44074824
0000c0 35 4b c7 be 33 34 a8 3d 28 04 aa 3f 01 5d e1 3c
       -0.38924566 0.08213081 1.3282518 0.027510168
0000d0 31 66 b9 3e 4d 43 b9 bf 88 cd 81 bf fc d3 fc bf
       0.36210778 -1.4473664 -1.0140848 -1.9752192
0000e0 2f 44 4a be 92 65 9c bf 3c 3a b4 3e 8b 2f d8 3e
       -0.19752572 -1.2218497 0.3520068 0.42223772
0000f0 34 fd e0 be 00 df 6a 3d 9e 6d 94 bf 8a b0 ed be
       -0.4394318 0.057341576 -1.1595953 -0.4642375
000100 59 93 18 be 52 24 05 bf a5 b4 44 3d 17 ba 52 3d
       -0.14899959 -0.52008545 0.04802384 0.051447
000110 f1 ac a1 3f b3 bc 68 bd 83 31 dc be 63 f8 f0 bc
       1.2630903 -0.056820583 -0.43006524 -0.029415315
000120 51 76 ef be 58 a2 c4 be be 2c 72 3d 4b 14 3c bf
       -0.46769956 -0.38405108 0.0591247 -0.73468465
000130 a5 29 fe bc c8 f9 10 bf 90 27 02 bf 02 b6 c4 bf
       -0.031025717 -0.56631136 -0.5084162 -1.5368044
000140 3c 44 74 3f ca f2 9c 3e 55 88 ad 3e c5 10 f2 bf
       0.9541662 0.30653983 0.33893076 -1.8911368
000150 3b a1 e1 3f d0 bc 44 bf ce 00 07 3e 1b cd 0e bf
       1.7627329 -0.76850605 0.131839 -0.55781716
000160 43 18 e0 bf ae 42 1c be b1 70 09 be 2f 16 8d 3e
       -1.7507404 -0.15259811 -0.13421895 0.27555987
000170 00 4f 08 bf df 3b 14 bf 89 21 6b 3f b0 43 f5 be
       -0.53245544 -0.57903856 0.91848046 -0.47903204
000180 70 e0 e4 3d 36 f0 db be b6 77 39 c0 bd 16 0a c0
       0.111756206 -0.42956704 -2.8979316 -2.1576378
000190 e0 5d 31 3f 0c 17 ac bf f7 45 26 3f a7 16 0d bf
       0.69283867 -1.3444533 0.6495051 -0.5511269
0001a0 be 14 54 3f d9 fa d0 3e 13 05 14 be bb 1c de 3d
       0.8284415 0.40816382 -0.1445506 0.10845324
0001b0 80 19 df 3d 62 17 f8 3e 53 e2 71 c0 d6 64 9d be
       0.108935356 0.4845534 -3.7794387 -0.30740994
0001c0 f5 71 68 bf 7c 76 2e 3d 01 86 e5 3d 67 99 a9 bf
       -0.90798885 0.042593464 0.112072 -1.324994
0001d0 78 24 b8 3f c6 65 91 bf 03 f1 37 3f 7a 4c 16 bf
       1.4386129 -1.1359184 0.7185213 -0.58710444
0001e0 4f 01 51 bf d4 4c 95 3e ce ba 9f be 33 e8 56 be
       -0.8164262 0.29160178 -0.31197208 -0.20987014
0001f0 41 e6 ff 3f e3 f1 79 3f 50 46 81 bd 36 44 e2 bf
       1.9992143 0.97634715 -0.06312239 -1.7677066
000200 1b e1 a3 be 95 48 24 bf b7 d0 0f bd 3f e2 0f bf
       -0.3200768 -0.6417325 -0.035111155 -0.562046
000210 bb 9d 95 3e 87 0d 06 3f 72 e3 ac bf 1a c1 3e 3f
       0.292219 0.5236439 -1.3506911 0.745134
000220 b9 ae 85 3f ff 91 4d 3e 40 e4 c5 be c2 f3 61 3e
       1.0443946 0.20075224 -0.38650703 0.22065642
000230 47 6b 18 3e 3f f8 75 be f6 ed 12 bf 91 5a 9a be
       0.14884673 -0.2402048 -0.5739435 -0.30147222
000240 71 32 9e bd 91 49 07 3e 35 a5 b6 bf 0f c5 59 bf
       -0.07724465 0.13211657 -1.4269167 -0.8506631
000250 f6 2c 0d bf 9e 6d a9 3f d8 b5 45 3f 56 0f 6c 3c
       -0.5514673 1.3236578 0.77230597 0.014407953
000260 db ae 2c c0 23 72 1b 3f dc ab f4 3f a5 6d 02 bf
       -2.6981723 0.60721034 1.9114947 -0.50948554
000270 99 24 78 bb 96 2c f1 bf d0 fb fa bc 93 52 04 3c
       -0.003786361 -1.8841732 -0.030637652 0.008076328
000280 f7 34 6a be 48 ec f4 3b 94 d5 72 3c 1f 6d 51 bd
       -0.22871767 0.007474456 0.014821429 -0.051129457
000290 42 9e 11 3f 98 27 54 bf 27 db 98 bf a5 b7 39 3f
       0.5688211 -0.82872915 -1.194188 0.72545844
0002a0 af 8c 6a bd 84 94 03 3f 39 ca 5c 3e 11 0b db 3e
       -0.057263073 0.5139849 0.21561517 0.4278188
0002b0 ce d5 e0 bf f0 0c 1f bf 2e 45 f3 bd c2 73 1a bf
       -1.7565248 -0.62129116 -0.11878429 -0.6033288
0002c0 1f 75 80 bf 42 54 31 c0 23 a6 e7 3e 5e 6f b7 3c
       -1.0035743 -2.7707677 0.4524394 0.022391971
0002d0 b0 fb 85 3f ef 36 5d 3f 89 db b7 3d 9b 19 71 3f
       1.0467434 0.86411947 0.0897742 0.94179696
0002e0 ca 8d 2f bf 9d 37 3e be e7 f5 8d bf a4 2b a4 bf
       -0.6857573 -0.18575902 -1.1090668 -1.2825818
0002f0 5d 46 92 be 46 f6 0d 40 0d e0 1d 40 8d 1a 20 c0
       -0.28569308 2.2181563 2.4668 -2.5016205
000300 09 fa f1 bf db 3a 18 c0 63 26 f4 3f b9 f3 1b 3f
       -1.890443 -2.3785923 1.9074215 0.60918766
000310 ea 7b 6f bf 42 91 43 3f 3f 9e 69 bf dd c1 de bf
       -0.9354845 0.7639352 -0.9125709 -1.7402912
000320 c0 20 1b 3e 39 b3 4c 3f 23 53 46 40 46 bf c5 be
       0.15149212 0.7996097 3.0988243 -0.38622493
000330 cf dd 7e bf 3b dd ab bc d1 42 cb bf 40 da c8 be
       -0.99557203 -0.020979514 -1.5879766 -0.39229012
000340 e1 55 a0 3f 6d e3 a3 3f aa c1 25 3c a0 68 71 bf
       1.2526208 1.280378 0.010116974 -0.9430027
000350 4d 54 4f 3c c2 d3 73 be 0b 2c b2 bd 1f e6 6c bf
       0.012654376 -0.23811248 -0.08699807 -0.92538637
000360 a7 45 97 3e cd d3 02 3f 92 7e 0b bf 50 6c b5 3d
       0.29545328 0.5110443 -0.54490006 0.088585496
000370 ee 76 c1 be 52 45 2b bf 94 40 fd 3c a9 00 b5 3e
       -0.3778605 -0.6690265 0.030914582 0.35352066
000380 ed 58 ae be fb ab 13 bf 5c 36 14 bf 96 0c 80 3f
       -0.3405222 -0.57684296 -0.57895446 1.0003841
000390 40 a3 18 3f 5e fc ae be 40 4c aa be 51 52 b1 bf
       0.596241 -0.34176916 -0.332613 -1.3853246
0003a0 49 f9 29 3e b3 9d 55 bf df f0 4f bf 6e bd 08 3f
       0.16599001 -0.83443755 -0.81226915 0.53414047
0003b0 b6 12 ad 3e dd a6 d3 bf 74 7b 1d c0 76 7f 0d 3f
       0.33803338 -1.6535298 -2.46066 0.55272615
0003c0 5c cf 32 3f 2f 6b 82 3d 7c a7 22 3d 6a c5 07 3f
       0.69847655 0.063681 0.039710507 0.53035605
0003d0 e7 41 af be e3 b3 64 bf 60 d5 1f b7 56 e9 77 3e
       -0.34229967 -0.89336985 -9.526819e-06 0.24210104
0003e0 07 74 c1 be c6 80 b4 bb 0d 83 ae 3d 23 cf d5 3b
       -0.37783834 -0.005508515 0.0852109 0.0065249368
0003f0 70 7c bc bf cf 8b c5 bc 18 ef b8 bf 78 61 f5 3c
       -1.4725475 -0.024114517 -1.4447966 0.029953703

convs.0.fc_full.weight f4 [128, 169]
000000 14 5f 15 c0 06 8b 5c 3f e2 2a 91 bf 18 22 d9 bf
       -2.333928 0.8614963 -1.1341212 -1.696353
000010 d6 b5 86 bc a4 99 7d 3f 76 26 5d 3f fd 84 ac bf
       -0.016444128 0.9906256 0.8638681 -1.3478085
000020 06 9f dd 3d 31 c5 b5 bf a6 41 6a 3f c9 6b e6 3e
       0.10821347 -1.4200803 0.9150642 0.4500411
000030 9b 71 b1 bf 6d 85 18 bf 8c 55 a3 3e a8 af 2a 3f
       -1.3862795 -0.5957859 0.31901205 0.6667428
000040 93 c9 6c bf 8d 13 07 be 1a 9a 19 3f 36 67 e8 bf
       -0.9249508 -0.13191052 0.60000765 -1.8156497
000050 cf 5d 22 40 e0 6c fd bf e3 fb 3f 3f 40 66 16 3e
       2.5369756 -1.9798851 0.74993724 0.14687443
000060 e1 0a 49 bf af 33 0e be 61 2c 25 bf d8 ee aa 3e
       -0.78532225 -0.13886903 -0.6452084 0.33385348
000070 91 20 94 be 55 0d 1c bf 8c ce cc bf 1a 06 8f be
       -0.28931096 -0.60957843 -1.6000533 -0.27934343
000080 7c b1 a5 be 39 05 c2 be 32 67 7a 3f 13 42 b3 be
       -0.32361972 -0.3789461 0.97813714 -0.35011348
000090 95 49 16 bf 7c 09 b1 bd 5a 79 ab be 1c b6 23 3e
       -0.5870603 -0.08644387 -0.3349102 0.15987438
0000a0 f8 fd 92 3b 04 53 10 bf 6c 36 7f bf 3b a6 6a bf
       0.004485842 -0.5637667 -0.99692416 -0.916599
0000b0 5b 1a 2c 3e 57 c8 09 c0 2e 02 cc 3e 46 4e 2c 3e
       0.16806929 -2.1528528 0.39845413 0.16826734
0000c0 df c4 88 3f 2f ea c6 3f 23 b5 bc be 81 ef 04 40
       1.068508 1.5540217 -0.36856946 2.0771182
0000d0 76 29 dd 3f e7 13 0b c0 62 70 3f 3f 9a 87 bf bf
       1.7278278 -2.1730897 0.7478086 -1.4963257
0000e0 f3 92 a7 3d 0e c5 2f bf d2 c9 f6 be 6f a3 38 c0
       0.08182325 -0.68660057 -0.48200852 -2.8849752
0000f0 e3 83 fe bf 18 0a 8d 3f 25 14 9c be 89 95 09 bf
       -1.9883999 1.1018705 -0.3048412 -0.537438
000100 6c 16 05 3f c5 42 e4 3e 2f ff 47 be 78 d2 a5 3e
       0.5198734 0.4458219 -0.19530939 0.32387137
000110 7e 31 92 bf db 5f 6a 3e 27 8c 2c bf 98 1e 41 bd
       -1.1421354 0.22888128 -0.67401356 -0.047148317
000120 10 d6 65 3e 76 a4 be 3e 99 24 0d bf 19 b7 6c 3f
       0.2244494 0.3723485 -0.5513397 0.92466885
000130 5f a9 29 bf cd 1d 42 3f bc 4e 9e bf 93 47 f8 be
       -0.66274065 0.7582672 -1.2367778 -0.48492107
000140 12 32 86 be 88 9c 22 bf f9 9f 2e 3e 83 a4 75 3e
       -0.26210076 -0.635201 0.17053212 0.23988537
000150 36 a9 3d bf ac 6b 89 3d 95 1d 39 bf 47 51 22 3e
       -0.7408632 0.0670999 -0.72310764 0.15851317
000160 36 b8 03 3c 50 fb b5 bf d7 cf a3 3e 90 13 7f bb
       0.008039525 -1.421732 0.31994507 -0.0038921572
000170 8f dd 8b 3e a7 43 86 3f 4a ba bf 3e 2e 14 09 bc
       0.27317473 1.0489396 0.37446815 -0.008366628
000180 64 31 ed 3e c4 ed 20 3f e8 de cb 3e 98 3e 00 bf
       0.46326745 0.628628 0.398185 -0.5009551
000190 9a 20 a0 be f4 8a 9d 3e 9c 0b 9c 3d fc d9 4a 3f
       -0.31274873 0.30770075 0.07619402 0.7923887
0001a0 ce ef 53 3e 66 3c f1 be 99 9e b3 bd 03 fe 90 be
       0.20696947 -0.47116393 -0.087704845 -0.28318796
0001b0 f4 33 de 3d c1 46 b5 3f 49 62 4b be 54 9b 5c 3e
       0.10849753 1.4162217 -0.19861712 0.21543628
0001c0 35 44 b0 be df 3f dc 3d 87 59 c2 3e c4 e8 50 be
       -0.34427038 0.1075437 0.3795893 -0.20401293
0001d0 c8 90 4f bd a7 b2 db 3e d1 89 53 3e 9f c5 2f 3c
       -0.050675184 0.42909738 0.20658042 0.010728269
0001e0 ff 16 07 3f 42 23 06 3f 07 6d 89 3f 78 f6 b9 be
       0.52769464 0.5239755 1.0736398 -0.36320853
0001f0 74 b6 12 3f bb c0 8c bf c5 30 a4 3e fe 99 82 3e
       0.5730965 -1.0996317 0.32068458 0.25508112
000200 20 71 42 3d 17 92 a2 3b 6f 12 84 bd 21 90 90 be
       0.047471166 0.004961263 -0.064488284 -0.28234962
000210 69 b8 85 be 81 d7 ea 3e 8a f3 27 3f f1 50 4b 3e
       -0.26117256 0.4586754 0.65605986 0.19855095
000220 ab cd bf bd bb ba 84 3e 29 06 8e 3f 20 07 97 3f
       -0.093654 0.25923714 1.109563 1.1799049
000230 7e 7d 39 3f 9a 24 aa 3f 86 ae 3d bf 08 99 c9 bf
       0.7245711 1.329242 -0.74094427 -1.5749826
000240 29 7a 19 bf 57 5d 84 3e fe 66 c9 3e 98 5a 00 be
       -0.59952027 0.25852463 0.3933639 -0.12534559
000250 b0 23 db bc 75 7c 8c 3e b5 93 1c 3f 8f 33 48 3e
       -0.026750416 0.27438703 0.61162883 0.19550918
000260 7f 15 4a bd cc 49 fb bd 0d 97 1c be 9b 04 3c be
       -0.049336907 -0.12269935 -0.15291996 -0.18361132
000270 37 9a 45 be 38 86 6d be 76 2e 98 be d1 92 a9 be
       -0.1929711 -0.23195732 -0.29722947 -0.33119825
000280 f6 d0 2a be aa 43 01 3e 6b 74 7f 3d 6f 33 04 3d
       -0.16681275 0.12623468 0.062366884 0.032275613
000290 7d e2 04 3d bd 73 9b 3d 7e dc 2e bd 65 e4 08 bd
       0.03244256 0.07590435 -0.042690746 -0.03342094
0002a0 63 2d 57 3d 4c b2 96 bf 0f 64 cb bf b4 ec a1 3f
       0.05253352 -1.1773162 -1.588991 1.2650361
0002b0 68 11 4a be 5f d8 e1 3f 5e 03 58 bf 2c 4a 28 3f
       -0.19733202 1.7644156 -0.8438014 0.6573818
0002c0 37 77 1f c0 3c e4 5f 3f 43 c0 bc 3c 41 08 29 3e
       -2.4916513 0.87457633 0.023040896 0.16507055
0002d0 19 ea 1c 3f aa ab 11 bf 1d b8 99 be b5 42 59 3f
       0.61294705 -0.56902564 -0.3002328 0.8486741
0002e0 0c f7 9a 3f 7f 86 0d c0 38 dc ba 3e a3 78 55 be
       1.2106643 -2.211334 0.3649614 -0.208468
0002f0 f9 98 92 bd 81 2e 0a bf 3a 2d 25 bf 30 22 ac 3f
       -0.071580835 -0.5397721 -0.64522135 1.3447933
000300 86 5f 7d bf fb f4 e8 3e 28 85 31 40 d0 9f 5b bf
       -0.9897388 0.45499405 2.7737522 -0.8579073
000310 eb b6 c3 3d 08 6d 11 3e 51 bc 8b 3e 13 d9 0b c0
       0.09556373 0.14201748 0.27292112 -2.1851242
000320 22 79 60 be 7f 9b f1 3f bb 9e 0e c0 cb 39 eb 3f
       -0.21921209 1.8875579 -2.2284381 1.8377012
000330 ac 89 a0 3f a6 33 d4 3f bb 13 0b c0 61 df 97 3f
       1.2542014 1.6578262 -2.1730793 1.1865045
000340 c1 ec 6a bf 61 83 ed 3e b0 17 0e 3e 6f 5d fb bf
       -0.9176751 0.46389297 0.13876224 -1.9637889
000350 8d f1 93 3f 92 24 d8 bf 80 90 92 bf 58 6b f9 3e
       1.155809 -1.688616 -1.1450348 0.4871471
000360 49 66 7b 3f db 26 64 3f 0e 74 04 3e e9 c9 1a bf
       0.9820295 0.8912179 0.12934896 -0.6046434
000370 59 0f ce 3f 29 b4 a7 bd 10 5b af be 81 6c 40 bf
       1.6098434 -0.0818866 -0.34249163 -0.75165564
000380 30 23 0c bd 78 f0 2f 3e da 14 fb bf 49 ce ee bf
       -0.034213245 0.17181575 -1.9615738 -1.8656703
000390 3e 24 8e bf ae 55 73 c0 99 0a 2b 3f b7 b1 f9 bf
       -1.110481 -3.8021045 0.66813046 -1.9507359
0003a0 79 82 87 3f ea e9 71 bf bb 4b 7a be f2 24 81 3f
       1.0586692 -0.9449755 -0.24442951 1.00894
0003b0 40 ec 8d 3e 7b 80 ab bf ed a6 aa 3e d3 b8 66 be
       0.27719307 -1.3398584 0.3333048 -0.22531442
0003c0 61 a9 6e 3f 45 ac a9 3f bd 66 29 be d2 3a 65 be
       0.932272 1.3255697 -0.16543098 -0.2238572
0003d0 d9 a7 1a 3f 48 58 9d 3f 23 26 c3 bf 7f 58 05 c0
       0.60412365 1.2292566 -1.5246013 -2.0835264
0003e0 df 43 db bf d2 2c 2e 3e 1e 04 f6 3f bf 48 37 3e
       -1.7130088 0.17009285 1.9220006 0.17898844
0003f0 d3 0b d5 3e 22 3c ce be 97 b2 3a bf 53 bb 2a bf
       0.41610584 -0.40280253 -0.72928756 -0.66692084

convs.0.fc_full.bias f4 [128]
000000 ee eb 6a 3d 2e dc 05 3d e0 a7 8d bd 7e 24 9a 3d
       0.057353906 0.032680683 -0.06916785 0.075264916
000010 15 5c 20 3d 72 2c 33 bd b5 d3 c1 3c 36 93 9c bc
       0.039150316 -0.04374356 0.02366052 -0.019113164
000020 6a 24 71 bc ad e4 9c 3b 7b 41 2a bd 2e 15 78 3b
       -0.014718154 0.0047880025 -0.041566353 0.003785442
000030 0e e4 13 bd 1b 08 59 3d d3 08 46 bd ad b8 9b 3d
       -0.03610616 0.052986246 -0.04834826 0.076035835
000040 f1 5b 94 bd 9d 77 52 3d af 1b 8d 3d 5a f2 b3 3b
       -0.07244099 0.051383603 0.06890046 0.005491537
000050 5e b6 4c 3b 42 a5 a6 3c ce 17 39 3d b1 e9 91 3d
       0.003123663 0.020342473 0.045188718 0.07124651
000060 d3 fa ef 3d c5 f6 44 3b c5 53 ca bd fe ce 24 3c
       0.11717763 0.0030054313 -0.09879259 0.010059116
000070 d0 d4 9f 3c b5 47 9a bd 2b 68 c1 3c 2b 7a 8a bd
       0.019510657 -0.07533208 0.023609241 -0.06761583
000080 32 88 9e 3d cb 3e 35 bc bc 17 d7 bc 1e b4 d1 bc
       0.07740821 -0.011062334 -0.026256435 -0.025598582
000090 0b 5c bc 3d 21 8b 12 3c 4e e4 92 bd fb fb 31 3a
       0.09197243 0.008944304 -0.07172452 0.0006789562
0000a0 ff 31 41 bc 25 a9 44 3d 83 40 cc bc f7 6c bf 3d
       -0.011791705 0.04801287 -0.024933105 0.09346955
0000b0 06 60 d8 3d d4 1d 82 bc e7 9d b0 bd fb 9d b6 bd
       0.1056519 -0.015883364 -0.086238675 -0.08916851
0000c0 a4 a3 e2 bb 4f 3f f1 3b e1 15 84 3b 77 8b 0f 3d
       -0.00691648 0.0073622833 0.0040309285 0.035045113
0000d0 3a 72 01 bd 7b 12 bf 3c 76 86 2d bd 67 c8 07 bd
       -0.031603076 0.023324242 -0.04236456 -0.033150103
0000e0 18 00 dd bc 7b fc 35 bc 4e 3c 42 bd ee 26 74 bd
       -0.026977584 -0.011107559 -0.047420792 -0.05960744
0000f0 57 83 fd 3c e6 67 36 3d 4c 29 fc bc 4e ea ee 3c
       0.030946417 0.04453268 -0.03078141 0.02916446
000100 f0 9c 5c bd 86 29 41 3d 75 b4 3d 3b 9e 49 72 3c
       -0.053860605 0.04715874 0.0028946672 0.0147880595
000110 05 a1 dc 3c 97 82 8c 3d 2c e4 93 3c 3b 31 81 3d
       0.026932249 0.068608455 0.018053137 0.06308218
000120 be 3c 76 3d af 3f 7a 3d a4 a1 1c bc 71 8d 59 bd
       0.060116522 0.06109589 -0.0095600225 -0.053113405
000130 cb e8 9e bc 0c b9 36 3d 09 32 e8 b9 9a 68 ba bd
       -0.019398114 0.04461007 -0.00044287767 -0.091019824
000140 b1 fe c9 3d fc 46 7e bd 6f ba 1e 3d ba 82 8f bd
       0.09863032 -0.062079415 0.038752016 -0.07007356
000150 13 e3 6f bc 0c 78 9d 3b 92 bb 35 bd 5a 2a fa 3c
       -0.014641541 0.0048055705 -0.044368334 0.030537773
000160 57 02 21 bd 62 f6 e9 bc 97 31 56 ba 93 54 43 3c
       -0.039308872 -0.028559867 -0.00081708416 0.0119220195
000170 5e eb 9d 3d 51 4f 7e bd 92 69 35 bd 3d b2 80 bc
       0.07710908 -0.06208736 -0.044290133 -0.01570999
000180 82 3b 81 3d 9f 32 61 3b 84 f4 38 3d df 52 e6 bc
       0.06310178 0.0034362448 0.045155063 -0.028115688
000190 41 0e 43 3d e8 3c 02 bd f4 08 ec 3c ad be 13 3d
       0.047621015 -0.031796366 0.028812863 0.036070514
0001a0 3d 03 a7 bd 98 5a 33 3d e4 05 f7 3c a7 07 69 3b
       -0.081549145 0.04378757 0.030154176 0.003555754
0001b0 29 e5 60 bd b1 71 79 bd aa 20 4b bd 50 d7 0b bd
       -0.054906044 -0.06089944 -0.049591698 -0.034140885
0001c0 29 8a f0 3c 6d 16 83 3d 96 21 91 3d 15 65 47 3d
       0.029362755 0.06400762 0.07086484 0.048680384
0001d0 f0 c9 e0 3c 69 d3 46 3d 9f 54 91 bb f4 d3 6c 3d
       0.027440041 0.04854146 -0.0044351364 0.05781932
0001e0 26 37 84 3a 34 9d 11 bc 78 61 b4 3d 65 77 17 3d
       0.0010087236 -0.008887578 0.08807653 0.036979098
0001f0 d4 f2 ba bd 83 1b 4e bd dd 5d a9 bd 36 8b cb bd
       -0.09128347 -0.050319206 -0.08269856 -0.09938662

convs.0.bn1.weight f4 [128]
000000 41 c5 ab 40 90 62 4e 40 98 58 b5 40 37 c5 4e 40
       5.367829 3.2247658 5.6670647 3.230787
000010 2e 97 ca 40 da 7f 95 40 cc e6 8d 40 d8 71 6c 40
       6.3309546 4.671857 4.4344234 3.6944485
000020 2c cf ac 40 07 dc 3a 40 f8 83 50 40 d7 ec d7 40
       5.4002895 2.9196794 3.2580547 6.747661
000030 a1 ce 88 40 4f 89 38 40 5e 3c 9c 40 4a 9c a2 40
       4.2752233 2.8833807 4.882369 5.0815783
000040 5d 8a 7f 40 2d c3 4d 3f 1e 84 96 40 30 e1 a1 3f
       3.99282 0.8037594 4.7036276 1.2646847
000050 be 80 9c 40 ac 3a d9 40 db e6 06 40 13 24 a1 40
       4.8907156 6.788412 2.1078403 5.0356536
000060 2f 05 8d 40 1e f6 30 40 7c 1f 92 40 f5 67 74 40
       4.406883 2.7650218 4.5663433 3.818845
000070 26 d4 67 40 7f de 5f 40 3b 54 13 40 28 68 dc 40
       3.6223235 3.497955 2.302016 6.8877144
000080 17 a4 0d 40 55 60 4b 40 c9 e6 83 40 b8 c0 45 40
       2.2131402 3.1777546 4.121922 3.0898876
000090 d2 b6 ab 40 2d 62 76 40 f0 c1 28 40 ef 9d bc 40
       5.366067 3.8497422 2.636837 5.894279
0000a0 5b 5b ed 40 ec 0f 97 40 3c 86 74 40 07 30 c4 40
       7.417402 4.7206936 3.820693 6.1308627
0000b0 e9 51 45 40 e5 d1 c8 40 d4 2e 73 3f 50 80 88 40
       3.0831244 6.275622 0.9499333 4.265663
0000c0 aa 0f 42 40 fd be bd 40 e2 6f bf 40 2d 39 9a 40
       3.032206 5.929564 5.9824076 4.8194795
0000d0 f5 3a 35 40 26 a3 34 40 27 b1 6c 40 7a ff 65 40
       2.8317235 2.8224578 3.6983125 3.593718
0000e0 88 77 85 40 eb 0e bd 40 8d b1 3e 3f 8c f9 69 40
       4.170841 5.908071 0.7448967 3.6558561
0000f0 8a 5a 81 40 ce e5 a9 40 b2 4e e1 40 6f 5d cf 40
       4.042302 5.3093023 7.0408564 6.4801555
000100 23 da 15 40 5a 46 32 40 20 61 05 40 e0 ec 28 40
       2.341439 2.785544 2.084053 2.6394577
000110 cf 08 19 bf 12 2b 79 3f 5c b1 7d 3f 11 4d aa 40
       -0.59779066 0.97331345 0.99098754 5.3219075
000120 22 6e b4 3f 5b 4d 98 3f f2 fb 5f 3f 84 90 a2 40
       1.409611 1.1898607 0.87493813 5.080141
000130 5b 47 72 3f a4 c5 b6 3f 19 1e 9a 3f 5b 33 ab 3f
       0.9464013 1.4279065 1.2040435 1.3375047
000140 da 9a 1b 3f 64 d5 e2 40 25 c6 17 3f 29 66 9e 40
       0.6078316 7.0885487 0.5928672 4.9499707
000150 94 ff f9 3f f5 9c bb 3f 8a 27 e8 3e b3 0d c0 3e
       1.9531121 1.4657274 0.45342666 0.37510452
000160 8d 97 d1 3f 2d c1 32 3f a7 d9 1a 40 ec a5 c2 3f
       1.6374375 0.6982601 2.4195344 1.5206885
000170 9a 20 f2 3f bf 7c 8a 3f 7e 5c 39 40 75 f3 2d 3e
       1.8916199 1.081932 2.8962703 0.16987403
000180 c0 6e b3 40 16 ab 3a 3f d9 dd bc 3f de e4 8f 3e
       5.6072693 0.72917306 1.4755203 0.281043
000190 ee f0 d6 3f 67 68 75 3f 9a b5 09 40 e1 4b 26 3f
       1.6792276 0.9586243 2.151709 0.6495953
0001a0 f7 d0 fc 3e d6 9c 4a 3f 6b fd 4c 40 2d 60 4c 3f
       0.49378178 0.7914556 3.2029674 0.7983425
0001b0 52 a8 c3 40 86 e0 75 3f e1 1e 4d 3f c2 09 9c 3f
       6.114297 0.9604572 0.8012524 1.2190478
0001c0 0d 86 96 bb 16 f8 61 3f c9 86 18 40 a7 65 42 40
       -0.004593617 0.88269174 2.3832266 3.0374544
0001d0 2b 6c ad 3f 16 2b 70 3f 74 9d 50 40 d7 66 95 3f
       1.3548635 0.93815744 3.2596102 1.1672009
0001e0 70 4d 26 3f 19 07 4f 3f 82 55 9b 40 80 c9 9c 3f
       0.6496191 0.80870205 4.854188 1.2248993
0001f0 34 3e c4 3f bd 16 42 3f 2d 2f d8 3f 88 fd af 3e
       1.5331483 0.75815946 1.6889397 0.34373116

convs.0.bn1.bias f4 [128]
000000 eb e0 12 bf 7e c8 3e be ae 60 95 be c3 3f d5 3c
       -0.5737445 -0.18631169 -0.29175323 0.02603138
000010 50 e9 18 40 a5 84 47 be 33 b8 54 3d 9e 60 76 bf
       2.3892403 -0.19484194 0.05193348 -0.96241176
000020 1a c0 bd 3e 9a 7b 0b 3d 7c 6d 0e bf e9 3a 23 bf
       0.37060624 0.034053423 -0.5563581 -0.63761765
000030 53 63 14 3f 1d c9 05 3f 6b 62 6d 3f 7c 15 eb bf
       0.57964057 0.5226 0.927283 -1.8365932
000040 f1 88 24 bf be c9 63 3e 42 36 9a 3f be 97 ce 3f
       -0.64271456 0.22244927 1.2047808 1.6140058
000050 d6 39 41 3f 4d ff a9 3f 5f 9f e6 3f f2 0a 49 3f
       0.75478876 1.3281037 1.8017386 0.78532326
000060 56 7e 2d bc e6 fb 45 be 70 11 c9 be d0 58 86 3e
       -0.010589203 -0.19334373 -0.39271116 0.26239634
000070 2d 20 70 3e ae b4 d2 3d 4f c3 c6 be 54 75 98 3f
       0.23449774 0.10288368 -0.38820884 1.1910806
000080 0d 64 86 3f 9b a7 d1 3f 10 7d 79 bf 7b d0 22 40
       1.0499283 1.6379274 -0.97456455 2.5439746
000090 98 9e d6 be 77 ab 80 3f 8c 9a b2 bf 16 f6 11 40
       -0.41917872 1.0052327 -1.3953414 2.280645
0000a0 af 46 7c 3f 02 f9 f2 3f d1 d8 72 3e 07 e5 a6 3e
       0.98545355 1.8982241 0.23715521 0.3259661
0000b0 6b eb d5 3e 20 30 4a bf 13 d7 68 3f 1b 7a 8f be
       0.41781172 -0.7897968 0.9095318 -0.28022847
0000c0 30 11 86 40 a5 8c 0b 3f 58 47 5c 3f 7f 70 de bf
       4.189598 0.5451148 0.8604636 -1.7378081
0000d0 35 a1 90 3f 3e 4a 89 3f 2d 3a a3 bf 6a e5 ba be
       1.1299196 1.0725782 -1.2752129 -0.36503154
0000e0 0e b6 c2 3e d6 72 bf bf 6f db ac be 3e 02 32 3f
       0.38029522 -1.495692 -0.33761165 0.6953467
0000f0 d0 8d c9 3e 1f 7f bc 3f 97 84 85 3f dc 97 b5 3f
       0.39366007 1.4726294 1.0431088 1.4186969
000100 1f 15 d4 3e 42 d6 72 be 20 33 da 3e 18 ef 20 c0
       0.41422364 -0.23714545 0.4261713 -2.5145931
000110 17 9e 02 41 ce a8 33 3f a1 0e 6a 3f 34 a9 5a bf
       8.163596 0.7017945 0.9142857 -0.85414433
000120 de 2e 32 3f d3 bc 2f 3f db 69 81 3f ac 26 a2 bf
       0.69602764 0.686475 1.011043 -1.2668052
000130 d7 3a d1 3f 19 7e 1a be 57 5c a8 3f 09 de 33 c0
       1.6346081 -0.15087165 1.315318 -2.810427
000140 af dc 93 3f 1e 84 d3 be 6f 7f fd 3f 19 c3 05 3f
       1.1551722 -0.41311735 1.9804515 0.5225082
000150 a3 e3 a5 3d 0e 2b b1 3f 7f 2b 2b 40 75 fd ff 3f
       0.08100059 1.3841264 2.6745298 1.9999224
000160 59 fb 94 bf 85 2d b3 3f e8 2e 19 bf 10 c1 9b bf
       -1.1639205 1.3998266 -0.598372 -1.2168293
000170 4b f6 82 bf cf 13 47 3d a8 c5 b4 bf bf a3 82 40
       -1.0231413 0.048602875 -1.412282 4.0824885
000180 b7 1a a4 3f 6d 8c 70 3f 2c 3c bb 3f b3 73 1b 41
       1.2820653 0.9396427 1.4627738 9.715747
000190 d8 1d 16 3f 45 54 6f 3f b6 d9 21 c0 2d 94 0b 40
       0.5863929 0.9348796 -2.528913 2.180919
0001a0 fe 1a f5 40 cf c2 ce 3f 19 51 bc be e4 34 ed 3f
       7.659545 1.6153201 -0.36780623 1.8531766
0001b0 74 19 5f bf 4d aa c7 3f 5d 59 90 3f c6 2e 36 bc
       -0.87148213 1.5598847 1.1277272 -0.01111955
0001c0 b9 28 01 41 9a b4 85 3f 4f 1d 73 3e 16 21 c1 3e
       8.072442 1.044574 0.23741649 0.37720555
0001d0 b5 b3 3b 3f e4 ea 03 40 be 51 8e be 7f 4f 97 3f
       0.73321086 2.0612116 -0.2779674 1.1821135
0001e0 8b f7 f9 3f ae 36 b8 3f f1 71 3e bf 52 48 bb 3e
       1.9528669 1.4391687 -0.7439261 0.36578614
0001f0 ce 03 ff be 9f 70 86 3f 69 15 d1 bc c7 6d 80 40
       -0.4980759 1.0503119 -0.025522904 4.0134006

convs.0.bn1.running_mean f4 [128]
000000 17 e7 71 42 ff e7 c9 41 fa d3 1d 42 ae b1 d2 41
       60.475674 25.23828 39.45701 26.336758
000010 1f cd b7 42 fd 68 bc 42 f1 74 e1 41 81 9a 30 42
       91.90063 94.205055 28.1821 44.150883
000020 39 4f 32 c0 03 25 61 42 99 b0 4a 42 d1 cc 83 40
       -2.7860854 56.286144 50.67246 4.118752
000030 77 b6 39 c2 8e 6d 82 c2 71 08 05 42 74 cb c2 c1
       -46.42819 -65.213974 33.258244 -24.349342
000040 4f 3a 4d 42 2a 9e 6c 41 9f 34 7c 41 c9 3e ad c1
       51.306942 14.788614 15.762847 -21.655657
000050 8e e2 79 42 90 18 d8 c1 cf 1e d4 bf d5 92 01 42
       62.471245 -27.011993 -1.6571902 32.39339
000060 92 b4 2e 42 8a 45 c7 c1 04 6c 85 42 15 63 14 42
       43.67634 -24.908955 66.71097 37.09676
000070 43 85 f4 c0 e1 2e 2e 42 df e3 b0 41 98 8d 26 41
       -7.6412673 43.54578 22.111265 10.409569
000080 5e cd 14 42 ff b1 fe bf 42 d0 e8 c1 ec 21 96 c2
       37.200554 -1.989807 -29.101688 -75.06625
000090 cc ff a7 c1 98 66 b8 c0 23 c9 b8 c0 c9 90 36 42
       -20.9999 -5.7625237 -5.774553 45.64139
0000a0 7c 30 af c1 09 4a 5c 41 7c d3 bc 41 97 93 ba c1
       -21.898674 13.768075 23.603264 -23.322065
0000b0 d3 1f de c0 53 de 6c 41 0e 27 bb c0 bc e0 c6 42
       -6.941385 14.804278 -5.8485174 99.438934
0000c0 05 a2 ac 41 8d a0 24 c2 cc ce 93 c2 ad a1 0a c2
       21.579111 -41.156788 -73.9039 -34.657887
0000d0 39 8e c3 41 50 96 1e c1 76 a0 81 c1 7f 3c 0b bf
       24.444445 -9.911697 -16.20335 -0.54389185
0000e0 ee d3 5f 42 3f 8d a2 c0 64 37 f5 41 d2 d8 a9 41
       55.956963 -5.079742 30.652046 21.23087
0000f0 73 86 5c c2 23 2a 5c 42 22 fd 9a 41 55 fc 67 41
       -55.131298 55.04115 19.3736 14.4991045
000100 0c ff 4d 42 e1 da e2 c1 4d c6 9e 41 e5 41 02 42
       51.49907 -28.356874 19.846827 32.56435
000110 dd 37 9a 42 05 33 56 41 74 4c 8a c1 dd fb 17 41
       77.10911 13.387456 -17.28733 9.49899
000120 20 4b db c0 65 85 7e 42 5d 0c 31 42 f1 eb a8 c1
       -6.8529205 63.63027 44.262074 -21.115206
000130 28 97 e1 40 bf fe 0a c2 c1 bb 0d c0 bc 7f 54 41
       7.0497017 -34.748775 -2.2145846 13.281185
000140 c7 cb 48 42 a0 ea ee c1 c3 16 e1 bf ea 14 00 c1
       50.199 -29.864563 -1.7585071 -8.005106
000150 6c 57 23 42 2a cc 1d c2 fc 0d 3b 40 ea e5 bc 42
       40.835373 -39.44938 2.9227285 94.44905
000160 5d b6 c6 c1 6b 6f 52 41 c0 40 87 41 b8 a0 ce 41
       -24.839045 13.152202 16.906616 25.828476
000170 40 83 82 42 e8 08 a9 41 a2 bb 45 42 f4 be d7 41
       65.25635 21.129349 49.433235 26.968239
000180 60 9d e1 bf c9 4d dd 41 37 40 b5 c1 16 2a 2e 42
       -1.7626152 27.662981 -22.656355 43.5411
000190 1d f2 01 c1 43 6d 20 41 8f 84 59 41 fc 24 1b c2
       -8.12161 10.026675 13.594863 -38.786118
0001a0 f2 1d 99 bf 30 81 c7 41 b5 4e 1a 41 e8 a0 24 42
       -1.1962264 24.93808 9.644216 41.157135
0001b0 3c bb bc 41 73 87 94 42 55 9c e1 40 55 56 38 41
       23.591423 74.26455 7.0503335 11.521077
0001c0 2e 1b 42 41 e8 49 fe c1 d9 a4 b9 c1 79 09 07 c2
       12.131636 -31.786087 -23.205492 -33.75925
0001d0 04 a3 fe 41 ef aa 2d 42 b8 f4 96 41 b1 81 48 42
       31.829597 43.416927 18.869492 50.12665
0001e0 3c 7c fb c0 1b fd a1 c1 42 d5 ff c1 95 a8 32 42
       -7.8589153 -20.248587 -31.97913 44.66463
0001f0 c8 ea 48 c1 36 47 f8 c1 f9 bf 83 40 be 13 8f 42
       -12.55732 -31.034771 4.117184 71.53856

convs.0.bn1.running_var f4 [128]
000000 0b 36 56 45 70 e6 d9 45 1c 89 33 45 90 0a b8 44
       3427.3777 6972.8047 2872.5693 1472.3301
000010 ad 6b 2d 45 b4 f0 70 45 8d 11 b2 44 2a 19 94 45
       2774.7297 3855.044 1424.5485 4739.1455
000020 fa b3 8e 45 bf e4 06 45 c2 a4 ea 44 bd c4 7c 45
       4566.497 2158.2966 1877.1487 4044.2961
000030 fe a5 45 45 23 e8 a9 45 86 07 82 45 71 60 92 43
       3162.3745 5437.017 4160.9404 292.75345
000040 fe 54 c4 45 89 b9 e8 45 9f 0b a1 45 72 21 74 45
       6282.624 7447.192 5153.4526 3906.0903
000050 d2 66 05 45 06 0f 43 45 7b 92 cd 45 db 5f 9e 45
       2134.4263 3120.939 6578.31 5067.982
000060 f7 ac 84 45 29 56 cb 45 20 46 57 45 1c f1 38 45
       4245.6206 6506.77 3444.3828 2959.0693
000070 9c ac 5a 45 8b 09 28 45 75 b9 5f 45 26 58 3f 45
       3498.788 2688.5964 3579.591 3061.5093
000080 ad b8 48 45 7f 2c 99 45 5d 97 e1 45 5c d8 ba 45
       3211.5422 4901.562 7218.9204 5979.045
000090 79 b1 e4 45 4c 20 8c 45 44 a2 3b 45 1f 04 14 45
       7318.184 4484.037 3002.1416 2368.2576
0000a0 31 1e 9e 45 19 5c 0a 45 d8 67 9b 45 b6 07 75 45
       5059.774 2213.756 4972.9805 3920.482
0000b0 3b 40 34 45 33 6e 5a 45 03 74 39 45 2e 44 1a 45
       2884.0144 3494.8875 2967.2507 2468.2612
0000c0 4f 98 ea 44 f2 4f 52 45 06 90 d5 44 b0 4a be 45
       1876.7596 3364.9966 1708.5007 6089.336
0000d0 be d2 29 45 0f e7 38 45 25 e7 8f 45 89 db 79 45
       2717.1714 2958.4412 4604.893 3997.721
0000e0 69 ec 6a 45 89 2d 30 45 17 d0 a8 45 c2 b0 ae 45
       3758.7756 2818.846 5402.011 5590.0947
0000f0 5c 72 df 44 c0 38 e2 44 cf 7b 21 45 93 fd ac 45
       1787.5737 1809.7734 2583.738 5535.697
000100 eb c9 7b 45 e3 d4 ce 45 be 4f b0 45 a1 13 0b 45
       4028.6199 6618.611 5641.968 2225.2268
000110 e5 45 a8 45 db e0 3e 45 78 25 08 45 bb d4 a1 45
       5384.737 3054.0535 2178.3418 5178.5913
000120 6d a2 19 45 95 a2 8b 45 d1 ba 0d 45 0b df 24 45
       2458.1516 4468.3228 2267.676 2637.9402
000130 3e e0 5a 45 75 95 c6 45 95 48 aa 45 50 77 8b 45
       3502.0151 6354.682 5449.0728 4462.914
000140 98 f2 a1 45 71 06 8f 45 d8 cc ac 45 2e ea a7 45
       5182.324 4576.805 5529.6055 5373.2725
000150 94 85 8c 45 74 88 81 45 9b 15 82 45 a5 db 65 45
       4496.6973 4145.0566 4162.7007 3677.7278
000160 c0 49 9f 45 f0 08 ab 45 d7 c2 23 45 d5 a3 2d 45
       5097.2188 5473.117 2620.1775 2778.2395
000170 f9 97 c6 45 8a f2 4f 45 f4 5a de 45 32 7c 7a 45
       6354.9966 3327.1587 7115.369 4007.7622
000180 38 ea 62 45 4c 2f e2 45 59 12 08 46 93 38 83 45
       3630.6387 7237.912 8708.587 4199.072
000190 14 4c 07 46 cb 23 96 45 69 e9 8d 45 4d 8a 9c 45
       8659.02 4804.474 4541.1763 5009.2876
0001a0 c6 1b 7c 45 08 4e 85 45 78 d5 b1 45 9d 74 cf 45
       4033.7358 4265.754 5690.6836 6638.5767
0001b0 21 76 80 45 32 4c 97 45 c9 42 75 45 e6 20 74 45
       4110.766 4841.5244 3924.174 3906.0562
0001c0 94 9b 5b 45 cb b0 97 45 56 71 64 45 b5 67 b8 45
       3513.7236 4854.099 3655.0835 5900.9634
0001d0 1a b4 3d 45 be 55 8a 45 ce c9 65 45 06 4b f7 45
       3035.2563 4426.718 3676.6128 7913.378
0001e0 49 c1 6f 45 8a 9d 2e 45 26 b1 6e 45 a5 d6 b4 45
       3836.0803 2793.8462 3819.0718 5786.8306
0001f0 fb ab f4 44 29 dc ea 44 82 02 7d 45 12 13 45 46
       1957.3744 1878.88 4048.1567 12612.768

convs.0.bn2.weight f4 [64]
000000 e5 a6 ba 3f 11 44 f4 3f 49 44 f8 3f 21 5d 02 40
       1.4582182 1.9083272 1.9395839 2.0369341
000010 23 68 da 3f 1d de 7b 3f 8d 7c 6c 3f c8 95 b2 3f
       1.706303 0.9838579 0.9237755 1.395196
000020 1f e9 79 3f 8d 3d b8 3f 82 d7 e6 3f 1f fb eb 3f
       0.9762134 1.4393784 1.8034518 1.8436011
000030 91 27 1d 40 34 f4 bb 3f e0 2f e3 3f 63 93 04 40
       2.45554 1.46839 1.7748985 2.0714958
000040 82 67 21 40 7b 53 00 40 40 90 f5 3f 1c d0 8d 3f
       2.5219426 2.0050952 1.9184647 1.1079135
000050 4a ec 5b 3f d2 a1 9c 3f b7 73 e7 3f 2b 5c f7 3f
       0.85907423 1.2236884 1.8082188 1.9325002
000060 e8 7f 9f 3f cc 57 08 40 d2 76 c2 3f 60 d3 83 3f
       1.2460909 2.1303587 1.5192511 1.0298882
000070 31 3c d0 3f 91 f9 6a 3f 55 8d de 3f b9 79 d2 3f
       1.6268369 0.9178706 1.7386881 1.6443397
000080 3c 12 f9 3f ea e6 05 40 21 27 13 40 f8 ed 11 40
       1.945869 2.0922189 2.2992632 2.2801495
000090 ae 5a 1e 40 39 9a d1 3f 47 5e c0 3e c4 b5 a3 3f
       2.4742846 1.637519 0.37571928 1.2789845
0000a0 ff 89 a1 3f 89 1e 05 40 d7 74 e5 3f 31 3a 17 40
       1.2620238 2.0799887 1.7926282 2.3629267
0000b0 86 26 ef 3f e7 ba 07 40 4f 2e 79 3f b6 ef aa 3f
       1.8683631 2.1207826 0.97336286 1.3354404
0000c0 fb 48 a3 3f 07 ee f0 3f af e7 03 3f 24 a2 a2 3f
       1.2756647 1.882264 0.51525396 1.2705731
0000d0 4b 9f 1d 3f 3f c1 bb 3f 87 8f a3 3f c4 4d 17 40
       0.61571187 1.4668349 1.2778176 2.3641214
0000e0 42 f7 e3 3f 6f c4 00 40 c7 7e c4 3f 0a b7 da 3f
       1.7809832 2.0119894 1.5351189 1.7087109
0000f0 7a 22 38 3f 6c d3 3d 3f af 96 7f 3f 63 4d 54 40
       0.7192761 0.7415073 0.998393 3.3172233

convs.0.bn2.bias f4 [64]
000000 86 18 dc bf 80 65 24 bf f2 cd b9 bf 7f c0 c7 bf
       -1.7194984 -0.64217377 -1.4515975 -1.560562
000010 38 4a ab be a7 2a 76 bf 9c 9a e5 bf ee d3 28 bf
       -0.33455062 -0.9615883 -1.7937808 -0.6594838
000020 ca 9c c2 be 75 9d e6 bf 1d 87 cc bf 4b 15 0b be
       -0.38010246 -1.8016802 -1.5978733 -0.13582341
000030 a3 8f d8 bf 1f f6 05 3f fd a7 e1 bf 43 d3 16 3f
       -1.6918834 0.52328676 -1.7629391 0.5891611
000040 4d 6b 4c be 95 0b 0f 3f 3d 15 1e bf 97 a5 9c bf
       -0.19962807 0.5587705 -0.6175116 -1.2238034
000050 ab 62 03 c0 57 13 94 3d 8b c0 d5 be cb b8 2b c0
       -2.0528972 0.07230251 -0.4174846 -2.6831539
000060 71 d5 07 bf b7 33 31 be ff 19 db bf fd 55 7a bf
       -0.5306006 -0.17304884 -1.7117308 -0.9778746
000070 6c d2 dc bf 90 02 b7 bf c0 59 73 bf ad 6c 92 bf
       -1.7251716 -1.4297657 -0.9505882 -1.1439415
000080 c0 c9 b0 3d 88 ae 8c bf 63 f8 93 bf 2e 4d 9d be
       0.08632231 -1.0990763 -1.1560177 -0.30722946
000090 b2 ed f5 be 06 2c 7e bf 24 01 9d bf 99 f1 25 3e
       -0.4803291 -0.99285924 -1.2265973 0.16205443
0000a0 5b 72 84 3e cd 40 05 c0 91 e5 0f bf fa 90 c9 be
       0.25868496 -2.0820801 -0.56209666 -0.3936842
0000b0 5f f9 7a bf fb 84 6c bf e5 e1 9a bf a7 66 d6 bf
       -0.9803676 -0.9239041 -1.2100188 -1.6750077
0000c0 6b b7 fe be 31 d9 ae bf 85 8c 99 bf 68 be 3e 3f
       -0.49749312 -1.3660032 -1.1996008 0.74509287
0000d0 c9 90 3b bf 6e 47 02 c0 6f 39 fe bf 77 c5 26 be
       -0.732678 -2.0356097 -1.9861277 -0.16286264
0000e0 f8 3f ce be cc 86 6d bf e0 f4 40 bf b1 61 38 bd
       -0.4028318 -0.9278381 -0.7537365 -0.04501504
0000f0 40 e5 e0 bf cd 54 76 bf d9 6c 32 3f d4 f9 d6 bf
       -1.7569962 -0.96223146 0.6969734 -1.6794991

convs.0.bn2.running_mean f4 [64]
000000 5a 3f 2f 41 62 f7 d4 40 b5 2a 31 41 37 d8 89 40
       10.952967 6.655198 11.0729265 4.3076434
000010 56 7b 80 42 62 d6 fc 40 23 1e 20 41 5b d9 a6 41
       64.24089 7.90117 10.007358 20.85613
000020 19 ec 0c 41 94 09 25 41 ba 48 16 41 05 b8 7b 41
       8.807641 10.314838 9.3927555 15.732427
000030 e4 4c 78 41 ae e9 e8 40 1c b6 63 41 91 7f 37 3f
       15.518772 7.2785254 14.23196 0.71679026
000040 90 c0 1b 41 2b 42 85 41 ee 7e 83 41 9c a5 d5 41
       9.734512 16.657309 16.436977 26.705864
000050 a7 7a 17 41 54 2d 51 41 f5 92 cf 41 92 66 7f 41
       9.467444 13.073566 25.946756 15.962542
000060 95 fe 56 40 bb 07 34 41 43 e1 05 41 23 2c 73 40
       3.3592885 11.251887 8.367496 3.799569
000070 57 8b b7 40 30 57 d2 40 e9 d3 f8 40 60 e9 f7 41
       5.7357593 6.573143 7.775868 30.988953
000080 ad 74 e1 41 ea f0 33 41 47 c5 2e 41 c6 e9 ae 42
       28.18197 11.246317 10.923163 87.45659
000090 65 39 22 41 8d 7a 43 41 61 87 24 40 6d d2 8e 41
       10.139012 12.21742 2.5707629 17.852747
0000a0 84 1e 2a 42 5f 48 84 41 d3 8b 60 41 2f 22 6f 41
       42.5298 16.535337 14.034137 14.945846
0000b0 fb 98 91 41 ee d6 5d 41 92 76 52 41 9e 89 b7 40
       18.199697 13.864973 13.153948 5.735549
0000c0 68 d1 a9 42 f5 73 34 41 04 51 18 41 8e 3a 53 41
       84.909 11.27831 9.519779 13.201796
0000d0 01 10 3c 41 44 7e 94 41 7f 87 43 41 34 1e 3b 41
       11.753907 18.561653 12.22058 11.694874
0000e0 8c ca 70 41 82 62 2b 41 85 ba 3a 41 84 7e 0a 41
       15.04945 10.71155 11.670537 8.655888
0000f0 58 f5 a2 40 d4 b0 27 41 e2 8f 02 41 96 e1 db 41
       5.092449 10.480671 8.160128 27.48515

convs.0.bn2.running_var f4 [64]
000000 44 4a 25 43 a8 8a 14 42 81 7f a7 42 fd 73 f5 41
       165.2901 37.135406 83.74903 30.681635
000010 20 de 96 44 28 ed 14 42 6f a8 86 42 83 8c b9 43
       1206.9414 37.231598 67.32897 371.09775
000020 dc e5 16 42 4c 13 5d 42 1e f9 15 42 ab 24 99 43
       37.724472 55.268845 37.49328 306.28647
000030 19 97 7f 42 ef 00 bc 41 0a ad 97 42 f2 9d 11 3f
       63.897556 23.500456 75.83797 0.5688163
000040 a6 42 eb 41 ac 09 27 43 ac 2d 6e 42 96 2c 6c 44
       29.407543 167.03778 59.5446 944.69666
000050 b7 a0 67 42 7a 49 9a 42 99 dd 35 42 85 a2 5d 42
       57.906948 77.14351 45.466404 55.40871
000060 53 da 35 41 c2 4d 12 42 77 41 c4 42 eb 1b 45 41
       11.365802 36.575935 98.12786 12.319316
000070 8d 1d 9e 41 59 73 f3 41 bf 23 93 42 a5 f8 06 43
       19.76443 30.431322 73.56982 134.97127
000080 80 7b 08 44 69 e5 cb 41 0b b5 62 42 68 58 e2 43
       545.9297 25.487017 56.6768 452.69067
000090 1b 4a 4c 42 94 9d 72 42 4a eb 0c 41 74 57 b5 42
       51.07237 60.653885 8.807444 90.67081
0000a0 bb d7 d9 44 1a 73 3a 42 09 24 44 43 f2 3e 92 42
       1742.7416 46.612404 196.14076 73.12294
0000b0 80 47 0a 44 80 a8 62 42 e6 9d 06 42 14 96 a4 41
       553.1172 56.66455 33.654198 20.57328
0000c0 cd 23 9f 43 8f c0 50 42 91 b3 92 42 26 fb 03 43
       318.2797 52.188046 73.350716 131.98105
0000d0 47 39 e6 42 c5 d5 8f 42 3f 39 1d 43 11 8b 47 42
       115.11187 71.91752 157.22362 49.885807
0000e0 59 03 62 42 7f ab 5a 42 0b d4 15 43 3d c1 dd 41
       56.50327 54.667477 149.8283 27.719355
0000f0 64 2b 44 42 94 ba 00 42 61 8e 3c 42 a2 f2 73 43
       49.042374 32.182205 47.13904 243.94778

convs.1.fc_full.weight f4 [128, 169]
000000 61 03 f1 bf f7 99 9e bf 27 b5 ed bf 24 2e 61 3e
       -1.8829156 -1.2390736 -1.8570908 0.21990258
000010 65 ae ef 3d 88 8b 23 bf a5 9b f2 3e 2c 63 30 bf
       0.11703185 -0.6388478 0.47384372 -0.68901324
000020 c3 4b 53 c0 02 ce 28 3f c5 d2 50 3e b6 49 2c bf
       -3.3014991 0.6593934 0.20392902 -0.67299974
000030 fc 17 72 be da 5f 0a c0 90 04 ab 3f 8c 0c 8d be
       -0.23641962 -2.1621003 1.3360767 -0.27548635
000040 5c b5 9a 3f 1d 53 db bf 74 88 27 bd d7 a6 45 3e
       1.2086596 -1.7134739 -0.040901616 0.19301926
000050 39 9a 8d 3c da 21 28 bf 34 07 a3 be 93 4b 82 3f
       0.017285453 -0.65676653 -0.31841433 1.0179313
000060 b1 30 83 bf 84 58 85 3f 57 bc 10 bf 23 5c e4 be
       -1.0249234 1.0417638 -0.56537384 -0.44601545
000070 19 7d 98 be 94 d1 a3 3f 04 9d a1 3f 61 aa d9 3d
       -0.29782942 1.2798333 1.2626042 0.106282
000080 c5 6d ec bf 87 ce 52 bf 72 e3 b7 bf 60 6a ba bf
       -1.8470999 -0.82346386 -1.4366286 -1.4563713
000090 6d 8b 4e bf 14 df 4c 3f 80 8d 98 bf 1c 97 b8 3f
       -0.80681497 0.8002789 -1.1918182 1.4421115
0000a0 63 46 4e 3e 75 46 b7 bf c1 3c cf bf 6d 8e 2f 3f
       0.20144038 -1.4318377 -1.6190416 0.685767
0000b0 23 7a 9f 3d f9 c0 87 3f 38 6a 54 bf 04 59 b3 be
       0.077869676 1.0605766 -0.82974577 -0.3502885
0000c0 70 1d 27 3f 4e b9 b8 3b 1e a0 09 bf a1 17 24 3f
       0.65279293 0.0056373244 -0.53759944 0.64098555
0000d0 f2 62 99 3f 6a c3 df be 9b f9 d8 bc de b7 b3 3e
       1.1983321 -0.43703777 -0.026486209 0.35101217
0000e0 77 52 0d be 69 18 1b bf d9 43 75 bf 74 27 80 3f
       -0.13800989 -0.6058412 -0.9580665 1.001204
0000f0 ac 18 ff 3e ac 4e 4c 3e 36 c6 92 3e 2b c7 a5 bf
       0.4982351 0.19951886 0.28666848 -1.2951406
000100 9b 49 38 bc a3 43 46 bd 99 06 fa bf 88 c9 47 3f
       -0.011248018 -0.048404347 -1.9533263 0.7804189
000110 a0 9c f3 3e 23 09 a7 3f 74 7d 85 bd 41 37 8e bd
       0.47580433 1.3049663 -0.06518069 -0.069441326
000120 ae 1b 55 3e ef 0e 26 bf f4 51 08 c0 76 41 7a be
       0.2081134 -0.64866537 -2.130002 -0.24439034
000130 b3 f3 20 3f 3c 27 89 3f 27 3b 80 bf 4b 18 71 3f
       0.62871855 1.0715098 -1.0018052 0.94177693
000140 ad 3f 15 3f 02 60 0c be 18 e0 09 3f b9 7d 8b bf
       0.58300287 -0.13708499 0.53857565 -1.0897743
000150 dd 69 eb 3e be 10 5f bc fa 0d d9 be df 98 d0 3e
       0.45979205 -0.0136148315 -0.42393476 0.4074163
000160 59 67 1c 3f 4a 55 81 bf 95 bf 81 bf 73 0f a3 3d
       0.61095196 -1.0104153 -1.0136591 0.07961931
000170 cc b8 8c 3f dc 51 0c 3e dc 5a 1b bf dc 36 bf bf
       1.0993896 0.13703102 -0.60685515 -1.4938617
000180 36 dc 03 c0 7a 4b ac 3f 41 c8 eb 3e 05 04 0b bf
       -2.0603156 1.3460534 0.4605122 -0.5430301
000190 27 a9 ab 3f a0 9b b4 3f 0d 46 22 3f b4 0d a7 3f
       1.3410996 1.4109993 0.6338814 1.3051057
0001a0 6f bd 97 be c7 20 0e 3f a1 9a d0 3f 15 e1 61 3f
       -0.29636714 0.55518764 1.6297189 0.8823407
0001b0 b5 61 07 40 b5 5b b6 3f 17 3f 91 bf 82 b6 10 be
       2.1153386 1.4246737 -1.1347378 -0.14132121
0001c0 3d 25 3c 3f d0 aa bf be 97 2b 69 3f e5 e3 19 3f
       0.7349432 -0.37435007 0.9108214 0.60113364
0001d0 c9 45 c8 3f 14 e8 b9 3e cd 2d 16 be ab b6 69 be
       1.5646297 0.36309874 -0.14665909 -0.22823589
0001e0 23 9d 16 3e f1 fa aa 3f af 43 36 3f 1c e2 f7 bf
       0.1470838 1.3357831 0.71197027 -1.9365878
0001f0 e9 95 e0 3f d6 55 a5 be c3 fc c1 3f 1f 8d a4 3f
       1.7545749 -0.3229205 1.5155262 1.2855567
000200 a7 12 2f bd 6c 81 ce bb 01 78 2c be 07 ab 6e 3f
       -0.042742398 -0.0063020494 -0.16842653 0.93229717
000210 ed cd ff 3f 90 98 04 40 25 25 66 40 c8 b7 7d 40
       1.9984719 2.0718117 3.5960171 3.964342
000220 ec 50 f6 3f 30 0e 9e 40 69 83 36 40 05 45 4c 40
       1.9243445 4.939232 2.8517706 3.1917126
000230 72 27 41 40 c4 8a ea 3f 41 42 80 c0 91 b5 b5 c0
       3.0180326 1.8323598 -4.0080876 -5.678414
000240 93 3f a0 c0 2d 4a e0 bc 5e f4 45 c0 e8 ee da c0
       -5.0077605 -0.02737912 -3.09304 -6.8416634
000250 1b 24 05 c0 3b 1c 54 bf 8a 58 26 40 20 0b b0 40
       -2.0803287 -0.82855576 2.599154 5.501358
000260 df 65 d7 40 17 8d b1 40 aa 67 85 c0 b2 ac 0b c1
       6.7311854 5.548473 -4.1689043 -8.729662
000270 55 2d ee c0 8f ee 97 bf d4 2a 6f be a0 f4 a4 bc
       -7.4430337 -1.1869677 -0.23356181 -0.020136178
000280 92 21 8a 3e 98 18 65 3d 73 37 3c 3d ff ae 2a bc
       0.26978737 0.055931658 0.045951318 -0.010417699
000290 f7 a5 41 bd 45 90 52 bc 1e fe 14 bd 1e 20 78 bd
       -0.047277417 -0.012851779 -0.036375158 -0.060577504
0002a0 28 9b c4 3c 68 6c cd bf 49 ac 2f bf b3 23 6f 3f
       0.023999766 -1.6048708 -0.6862226 0.9341385
0002b0 a2 ab 97 bf 26 0a ca be bd f4 ad 3e 64 67 41 bf
       -1.1849253 -0.39460868 0.33975783 -0.75548387
0002c0 12 8b 9f 3e ea a6 c8 bf 6e 8b ea be ae 3c 6a be
       0.3116079 -1.5675938 -0.458095 -0.2287471
0002d0 86 da 10 3f 5f 5c ff be 47 b2 42 c0 c9 94 1c 3e
       0.5658344 -0.4987516 -3.0421312 0.15291132
0002e0 37 5f 54 3f ed b4 f1 bf 09 45 ba bf 00 e5 90 3f
       0.82957786 -1.8883339 -1.4552318 1.1319885
0002f0 33 59 5f 3f 13 88 6e bf bd 62 49 bf f9 bf 33 bf
       0.8724548 -0.9317638 -0.7866629 -0.702148
000300 bb 07 22 bd f2 36 d6 be 87 2b 6a 3b e7 c4 8c bf
       -0.039558154 -0.41838795 0.003573151 -1.099759
000310 de 9b 1e 3f c5 23 14 c0 82 20 2d 3f 95 99 f5 3e
       0.61956584 -2.3146832 0.6762773 0.47968736
000320 c5 ac 3c bd 00 c9 25 3f 1f 05 31 bf 93 42 b3 be
       -0.046063203 0.64759827 -0.6914844 -0.3501173
000330 02 86 d5 bf 58 35 49 c0 cd e7 2d 3e e4 8f ea 3f
       -1.6681521 -3.1438808 0.16982956 1.8325162
000340 49 2c ab bf 0b a1 41 3d 5c e1 a9 3d 0d 26 1f 3e
       -1.337289 0.047272723 0.08294937 0.15541859
000350 78 09 0d c0 f2 fa 87 be ff 40 13 40 40 20 1b bc
       -2.203703 -0.26558644 2.300842 -0.009468138
000360 cd 58 49 bf a9 e9 9c bf 03 69 18 c0 9e b3 31 3f
       -0.78651124 -1.2258807 -2.3814094 0.694147
000370 06 ed f9 bd bd de d4 3e ea 74 86 bf f4 82 14 40
       -0.12203412 0.41576186 -1.0504429 2.3204927
000380 79 6f 4c 3d 0c dd 0a 3f d5 60 db bf c6 83 a9 3f
       0.049910996 0.5424354 -1.7138926 1.3243339
000390 62 c3 23 3f 4a cb 8e be e1 e0 6b be 59 c4 31 3e
       0.63970006 -0.27889472 -0.23035003 0.17360057
0003a0 c9 01 60 3f b5 3e d3 bf 13 15 35 be 95 23 15 bf
       0.87502724 -1.6503512 -0.1768382 -0.5825742
0003b0 58 00 66 3f fd 7c 3b bf 59 67 5c 3e c5 24 b8 3e
       0.89844275 -0.7323759 0.21523799 0.35965553
0003c0 f9 22 2b bf cc 3b 28 bd 55 b1 94 3f ae b7 0d 3d
       -0.6685024 -0.04107265 1.1616617 0.034599
0003d0 31 7b 2c 3f a0 61 ed bf a8 a5 25 c0 08 1c b9 be
       0.67375475 -1.8545418 -2.5882359 -0.361542
0003e0 0d 72 01 3f 2f fe 80 c0 d0 72 92 3f 21 65 78 3f
       0.5056465 -4.0310283 1.1441288 0.9702931
0003f0 39 cc 09 3f f9 17 3e bf 45 a4 b8 be 43 30 13 3f
       0.53827244 -0.7425533 -0.36062828 0.57495517

convs.1.fc_full.bias f4 [128]
000000 48 b2 74 3d f1 7a 64 bd 17 af d9 3c 79 02 22 bc
       0.059740335 -0.05578131 0.026572747 -0.009888285
000010 8b f9 0e 3d 17 d3 98 3b d2 83 b1 bc 0a 98 e1 3c
       0.03490595 0.0046638357 -0.021669302 0.027538318
000020 34 49 7a 3b 80 54 54 bc 40 c0 18 3d e7 cd af 3d
       0.0038190605 -0.0129595995 0.03729272 0.08584195
000030 5f 3e 2f 3d e1 e2 17 bd a6 a2 64 bd e4 58 5e bd
       0.04278409 -0.037081603 -0.055819176 -0.05428399
000040 45 ee 31 bd c4 8f 79 bb 03 ff 29 3d 23 db 71 3a
       -0.043440122 -0.0038080076 0.041502964 0.00092260743
000050 23 67 84 3d f7 de 9a bd d7 d4 42 bd d2 10 99 3d
       0.06464984 -0.075620584 -0.04756626 0.07473911
000060 b5 3b 60 bd e1 1f 1f 3d db de 6d 3b b3 bf 21 bc
       -0.05474444 0.03884876 0.0036296162 -0.009872365
000070 cd ab 4b 3d f0 a4 63 3d e6 63 31 bd 0d c0 00 3c
       0.04972439 0.05557722 -0.04330816 0.0078582885
000080 15 f7 89 3d fe e1 61 3d bc 0a 0b 3d 9b 6f 46 bd
       0.0673658 0.055147164 0.033945784 -0.04844628
000090 fa 15 62 bd 9b 1a 8b 3d b1 f9 03 3d 56 79 35 bc
       -0.05519674 0.06792184 0.032220546 -0.011076292
0000a0 7b f9 96 3d 6f 32 76 3d c9 98 85 bc 51 e3 ba 3c
       0.073718034 0.06010669 -0.016308205 0.022813471
0000b0 c4 0f b2 3d 61 7f 25 3d a6 71 fd bc b7 ca 98 bd
       0.08694413 0.04040468 -0.03093798 -0.0746054
0000c0 58 d5 d1 3c 15 9b da 3c cf 7b 97 bd de 33 e7 3b
       0.025614426 0.026685277 -0.073966615 0.0070557436
0000d0 d8 85 47 bd 4e c2 0b 3d 35 f1 33 bd e3 39 6d bd
       -0.048711628 0.03412085 -0.043931205 -0.057916533
0000e0 00 27 89 3d 2f 4f 77 3d 3b 3c 3d bd 6e 41 12 bd
       0.06696892 0.06037825 -0.04620002 -0.03570693
0000f0 f3 2d 39 3d e1 f0 51 bd 09 fc c2 bc 6b 8f 0b bd
       0.045209836 -0.05125511 -0.02380182 -0.03407232
000100 dc 8d 8c 3c aa c4 80 bc d0 45 a8 3c 9b c9 68 bd
       0.017157488 -0.015718777 0.020541102 -0.05683289
000110 49 55 98 3d 4a 71 3e 3c 13 59 2c bd 35 90 57 bd
       0.07438142 0.01162369 -0.042077135 -0.05262776
000120 60 02 3a 3d 9c 27 32 bd 8a 0c 32 3c 61 e7 8e 3c
       0.04541242 -0.043494806 0.010867247 0.017444314
000130 1a eb 0e bd 88 ac c7 3d c6 0a e3 bc 53 5f a7 3c
       -0.03489218 0.097497046 -0.027715098 0.020431196
000140 01 c4 24 3d 23 90 15 3d f1 7a 5f 3d 76 e7 29 bd
       0.040225986 0.036514413 0.054560605 -0.041480504
000150 2d c8 b3 3b 20 fd 52 3c 3d 07 d9 3c 8f 3f d0 bc
       0.0054865093 0.0128777325 0.02649271 -0.025420932
000160 e5 80 f4 bc df 83 8c bd 81 9d 5b 3d 40 32 b1 3c
       -0.029846618 -0.0686109 0.053617004 0.021630406
000170 93 40 9e bd 46 25 c3 bc 40 11 03 bd 82 ad 38 bd
       -0.0772716 -0.023821484 -0.031998873 -0.045087345
000180 d4 3b 3f 3d ee a1 18 bd 22 e2 1e 3d 46 4d b1 3d
       0.046687916 -0.037263803 0.038789876 0.08657317
000190 c0 50 fe 3c 0b d1 05 3d 7c b0 82 bd f4 8b 1e bd
       0.031044364 0.032670062 -0.06381318 -0.03870769
0001a0 f9 a5 97 3b 36 8e 67 3c 4e f8 32 3d 58 6f 1c 3d
       0.00462794 0.014133027 0.043693833 0.038192123
0001b0 64 38 de bc a5 21 9b bd 94 8b f9 3c 73 80 4f 3d
       -0.027126499 -0.075747766 0.030462064 0.050659608
0001c0 ed 15 9c bd 57 99 0e bd 48 be 06 bd 79 22 8a 3d
       -0.076213695 -0.034814205 -0.03289631 0.067448564
0001d0 42 28 8b bd 58 c7 27 3b a5 50 ac bc d0 f6 91 ba
       -0.06794788 0.0025600996 -0.021034548 -0.0011136178
0001e0 53 37 f8 3a d0 b1 f2 bc ba 1d 6c bc 02 55 c6 3c
       0.0018937386 -0.029625803 -0.014411384 0.024210457
0001f0 fa b8 8c 3c f1 75 02 3c a7 55 fb 3b 09 67 9d 3d
       0.017178047 0.00796269 0.0076701227 0.07685668
