results/Prediction/2023-06-14/23:08:50.583382/models/model287.pth (torch, 340949 bytes, 34 tensors)

embedding.weight f4 [64, 92]
0	0x3e2604ef	0.1621282
1	0xbf4b8afd	-0.79508954
2	0x3ea22e16	0.31675786
3	0x3b5913bf	0.0033123342
4	0x3f6125e6	0.87948453
5	0x4066af33	3.6044433
6	0x3f4a8010	0.7910166
7	0x3f62c745	0.8858531
8	0xbf9fd075	-1.2485491
9	0xbf88045e	-1.0626333
10	0xbfe83481	-1.8141023
11	0xbe633204	-0.22187048
12	0xbfaf5c68	-1.3700075
13	0xbe09193a	-0.1338853
14	0xbf5c9d2b	-0.8617732
15	0xbf47628b	-0.7788474
16	0xbe63851b	-0.22218744
17	0xbf2d04f3	-0.67585677
18	0xbfdffc37	-1.7498845
19	0x3d1e8df2	0.03870959
20	0x3d8410f1	0.06448544
21	0x3efdfdf5	0.49607816
22	0x3e43178b	0.1905195
23	0x3f0cc4bb	0.54987687
24	0xbfd920d9	-1.6963149
25	0xc02249fb	-2.5357654
26	0x3e933e8c	0.28758657
27	0x3e2649d4	0.162391
28	0x3d7fa9ae	0.06241768
29	0xbeffda1b	-0.4997109
30	0x3f3698b0	0.7132673
31	0xbfc9cc9d	-1.5765568
32	0xbf82a67f	-1.020706
33	0xbeda2c6f	-0.42612025
34	0xbdb538a9	-0.08848698
35	0xbf103985	-0.5633777
36	0x3d97be02	0.07409288
37	0xbe7f6fac	-0.24944943
38	0xbea32e82	-0.3187142
39	0x3f43ade5	0.76437217
40	0x3f2bfd0e	0.67183006
41	0xc01eb649	-2.4798758
42	0x3eb52519	0.35379866
43	0xbeeeb4d9	-0.4662235
44	0xbef07643	-0.46965227
45	0x3f77965e	0.9671382
46	0xbf438139	-0.76369053
47	0x3eee580d	0.46551552
48	0xbec995fb	-0.3937224
49	0x3da3de17	0.08001345
50	0x3fab2a9f	1.3372382
51	0x3c54ba05	0.012983804
52	0x3eca968f	0.39567992
53	0xbfb8cc93	-1.4437431
54	0xbf840af6	-1.0315845
55	0xbff8a7aa	-1.9426167
56	0xbe5e9a7b	-0.21738617
57	0xbf98ca64	-1.1936765
58	0x3ebbf826	0.3671276
59	0x3ee3c5e0	0.44486904
60	0xbef3203c	-0.4748553
61	0x3d934d0f	0.07192432
62	0xbf96e779	-1.178939
63	0xbee3314e	-0.44373554
64	0xbe174da5	-0.14775713
65	0xbf0370a2	-0.5134374
66	0x3d44b4a5	0.04802384
67	0x3d52ba17	0.051447
68	0x3fa431e6	1.2827728
69	0xbd68bcb3	-0.056820583
70	0xbedb8572	-0.42875248
71	0xbcf0f863	-0.029415315
72	0xbeeeb22c	-0.4662031
73	0xbebf91c9	-0.37415913
74	0x3d44c6a9	0.04804102
75	0xbf41211f	-0.75441164
76	0xbcfe29a5	-0.031025717
77	0xbf087b30	-0.5331297
78	0xbef13053	-0.4710718
79	0xbfc3faa6	-1.5310867
80	0x3f73dca6	0.9525856
81	0x3e96333d	0.29335967
82	0x3eadafcf	0.33923194
83	0xbff0c2f4	-1.8809495
84	0x3fe2fbeb	1.7733129
85	0xbf4b8fe5	-0.7951644
86	0x3e154854	0.14578372
87	0xbf114ea9	-0.5676065
88	0xbfe1e80a	-1.7648938
89	0xbdfc2fae	-0.12313782
90	0xbdea69c5	-0.11445955
91	0x3e907ead	0.28221646
92	0xbf06af3f	-0.52611154
93	0xbf0bfeb8	-0.54685545
94	0x3f693f3a	0.911121
95	0xbeed7f81	-0.4638634
96	0x3e0d9bfb	0.13829033
97	0xbed082ac	-0.40724695
98	0xc0393dd5	-2.894399
99	0xc00b58d0	-2.1772957
100	0x3f2b240e	0.6685189
101	0xbfaa96d9	-1.3327285
102	0x3f14d8b0	0.5814314
103	0xbf0f2268	-0.55911875
104	0x3f50dd1a	0.81587374
105	0x3ed1e38f	0.40993926
106	0xbe0df75f	-0.13863896
107	0x3de9de7b	0.11419388
108	0x3dd8ee70	0.10592353
109	0x3efbc288	0.49171853
110	0xc071c540	-3.7776642
111	0xbe7b91bc	-0.24567312
112	0xbf6422e0	-0.89115715
113	0x3d47a0ad	0.048737217
114	0x3d8b398c	0.067980856
115	0xbfab062b	-1.3361257
116	0x3fbb06c1	1.4611436
117	0xbf91b4f3	-1.1383346
118	0x3f386ec8	0.7204404
119	0xbf0dd57f	-0.55403894
120	0xbf5ad0d7	-0.85474914
121	0x3e91efc4	0.2850324
122	0xbea8396d	-0.32856312
123	0xbe758caa	-0.2397944
124	0x40000616	2.0003715
125	0x3f7cadad	0.9870251
126	0xbd1d63fc	-0.03842543
127	0xbfe646c4	-1.7990346
128	0xbe84452b	-0.2583402
129	0xbf1fb511	-0.6238566
130	0xbd1b8fa9	-0.037978802
131	0xbf132186	-0.5747303
132	0x3e883dd1	0.26609662
133	0x3f0521c5	0.52004653
134	0xbfaa8f23	-1.3324932
135	0x3f4259ab	0.7591807
136	0x3f85e4a0	1.0460396
137	0x3e418d34	0.18901521
138	0xbeb569b2	-0.35432202
139	0x3e5e44d4	0.21705943
140	0x3e1ec552	0.15504959
141	0xbe663af9	-0.22483434
142	0xbf10694d	-0.56410676
143	0xbe9beeaf	-0.3045554
144	0xbd9866e8	-0.07441503
145	0x3ddda2ce	0.10822068
146	0xbfb52502	-1.4151919
147	0xbf682f40	-0.906971
148	0xbf0f38b7	-0.55945915
149	0x3fa5996d	1.2937447
150	0x3f46339d	0.77422506
151	0x3cced7ad	0.025249327
152	0xc02aeae6	-2.670587
153	0x3f187a89	0.59561974
154	0x3fed8650	1.8556614
155	0xbf060168	-0.52345896
156	0x3d2bb3fc	0.041919693
157	0xbff52f24	-1.9155011
158	0xbcfafbd0	-0.030637652
159	0x3c045293	0.008076328
160	0xbe8cf83c	-0.27533138
161	0x3bf4ec48	0.007474456
162	0x3c1ef408	0.009701736
163	0xbd516d1f	-0.051129457
164	0x3f14ec7a	0.58173335
165	0xbf4fa69e	-0.8111361
166	0xbf96900d	-1.1762711
167	0x3f317ad7	0.69328064
168	0xbd6a8caf	-0.057263073
169	0x3f056a27	0.521151
170	0x3e6ab289	0.22919668
171	0x3edefb05	0.43550888
172	0xbfe4a91d	-1.7864109
173	0xbf1d6d2f	-0.61494726
174	0xbe08e83a	-0.13369837
175	0xbf23ffc9	-0.6406217
176	0xbf846341	-1.034279
177	0xc02ea768	-2.7289677
178	0x3ee81449	0.45327976
179	0x3d16cc24	0.036815777
180	0x3f875606	1.0573127
181	0x3f60c188	0.87795305
182	0x3dc59f4f	0.09649526
183	0x3f707483	0.9392778
184	0xbf29d972	-0.6634742
185	0xbe4fc256	-0.20288977
186	0xbf8fef07	-1.124482
187	0xbfa0d685	-1.2565466
188	0xbe9073af	-0.2821326
189	0x400d63ab	2.2092083
190	0x401f0afb	2.4850452
191	0xc0218080	-2.523468
192	0xbff15ab1	-1.8855802
193	0xc01a6102	-2.412171
194	0x3ff1d39b	1.8892702
195	0x3f1bcd30	0.60859966
196	0xbf6cbf3a	-0.9247929
197	0x3f42a335	0.76030284
198	0xbf633af7	-0.8876185
199	0xbfdf99a9	-1.7468768
200	0x3e30cee1	0.17266418
201	0x3f4c9781	0.79918677
202	0x4044b5cd	3.0735962
203	0xbebbac16	-0.3665473
204	0xbf80614d	-1.0029694
205	0xbd56cbf2	-0.05244059
206	0xbfc7c58b	-1.560716
207	0xbeb4198e	-0.35175747
208	0x3fa01020	1.2504921
209	0x3fa87509	1.3160716
210	0x3c9b63a0	0.018968403
211	0xbf75682b	-0.9586207
212	0x3c097650	0.008390024
213	0xbe6ee100	-0.23328018
214	0xbd9f3293	-0.07773318
215	0xbf692465	-0.9107116
216	0x3e9dab98	0.30794978
217	0x3eff3134	0.49842227
218	0xbf090528	-0.5352349
219	0x3dcc79e9	0.0998419
220	0xbeb763be	-0.35818285
221	0xbf279889	-0.65467125
222	0x3c617a43	0.01376206
223	0x3ea82078	0.32837272
224	0xbea38a5e	-0.31941503
225	0xbf11788c	-0.56824565
226	0xbf0ed991	-0.5580073
227	0x3f80bb09	1.0057079
228	0x3f1bba39	0.6083103
229	0xbeb476e6	-0.35246962
230	0xbeb311a7	-0.34974405
231	0xbfb02e43	-1.3764118
232	0x3e30c866	0.17263946
233	0xbf4f22eb	-0.80912656
234	0xbf5265b9	-0.82186466
235	0x3f0f11c3	0.5588648
236	0x3eab977d	0.33514014
237	0xbfd3e309	-1.6553661
238	0xc01fa19b	-2.4942386
239	0x3f0b2991	0.543603
240	0x3f32a8d3	0.69788855
241	0x3d8a8a21	0.06764627
242	0x3d46e8e2	0.048561938
243	0x3f03a9ba	0.5143086
244	0xbe9e7fb9	-0.3095682
245	0xbf69bc68	-0.9130311
246	0x3d0f6b57	0.035014477
247	0x3e7c5537	0.24641882
248	0xbec6db0d	-0.38838997
249	0x3bbc599c	0.005747987
250	0x3dae830d	0.0852109
251	0x3bd5cf23	0.0065249368
252	0xbfbbe5ce	-1.4679506
253	0xbcc58bcf	-0.024114517
254	0xbfb95be6	-1.448117
255	0x3cf56178	0.029953703

convs.0.fc_full.weight f4 [128, 169]
0	0xc013143b	-2.2981098
1	0x3f588b46	0.84587514
2	0xbf90dd93	-1.1317619
3	0xbfda0c58	-1.7035017
4	0xbd35a3c8	-0.044345647
5	0x3f7f3399	0.99688107
6	0x3f636e7c	0.8884046
7	0xbfa911f6	-1.3208606
8	0x3e087cec	0.13328904
9	0xbfb2e083	-1.3974766
10	0x3f668769	0.9005037
11	0x3ee52283	0.44752893
12	0xbfa8a740	-1.3176041
13	0xbf0e5f68	-0.5561433
14	0x3e8f7b32	0.28023678
15	0x3f2a0564	0.66414475
16	0xbf615a21	-0.8802815
17	0xbdf6833a	-0.12036748
18	0x3f124a6c	0.5714481
19	0xbfe4c8dd	-1.7873799
20	0x40216993	2.5220687
21	0xbff6c172	-1.9277785
22	0x3f3d7cca	0.7401854
23	0x3ddcc030	0.10778844
24	0xbf435d14	-0.763139
25	0xbe1407ec	-0.14456147
26	0xbf24235c	-0.64116454
27	0x3eb1e24c	0.34742963
28	0xbeadc475	-0.33938947
29	0xbf0a03d0	-0.5391207
30	0xbfd26c71	-1.6439344
31	0xbe94db78	-0.2907369
32	0xbe9b0973	-0.30280647
33	0xbebd9f02	-0.37035376
34	0x3f77d522	0.9680959
35	0xbea306d9	-0.31841162
36	0xbf0b1c2e	-0.54339874
37	0xbe00a215	-0.1256183
38	0xbe8e6f65	-0.27819362
39	0x3e241ec9	0.16027369
40	0x3c218c29	0.009860077
41	0xbf1821d2	-0.59426606
42	0xbf80894d	-1.0041901
43	0xbf766132	-0.9624206
44	0x3e38f569	0.18062367
45	0xc008a9ad	-2.1353562
46	0x3ec5f8c4	0.38666356
47	0x3e2a5e2f	0.1663749
48	0x3f85ca53	1.045237
49	0x3fc8e859	1.5695907
50	0xbec2fced	-0.38083592
51	0x4001e47b	2.0295703
52	0x3fd9d39e	1.7017705
53	0xc0092801	-2.1430666
54	0x3f44663a	0.76718485
55	0xbfba7059	-1.4565536
56	0x3ddad415	0.10684983
57	0xbf31b3bf	-0.69414896
58	0xbef6049d	-0.48050395
59	0xc035b458	-2.8391323
60	0xbffdc70b	-1.9826368
61	0x3f8915d0	1.0709782
62	0xbe920b8f	-0.28524444
63	0xbefcde71	-0.4938846
64	0x3f159021	0.5842305
65	0x3ef4b5ea	0.4779504
66	0xbe829a63	-0.25508413
67	0x3e9d7409	0.3075259
68	0xbf972064	-1.180676
69	0x3e8fc626	0.28080863
70	0xbf356f62	-0.7087308
71	0xbd2576b9	-0.040396426
72	0x3e6a2ad6	0.22867903
73	0x3ecf8e2b	0.40538153
74	0xbf12d3ce	-0.5735444
75	0x3f770b17	0.96501297
76	0xbf356621	-0.7085896
77	0x3f4c7160	0.79860497
78	0xbfa5aadb	-1.2942766
79	0xbf039bd3	-0.51409644
80	0xbea5712a	-0.323129
81	0xbf2e5c1a	-0.68109286
82	0x3e6083da	0.21925297
83	0x3e4b30b2	0.19842795
84	0xbf3e0d97	-0.74239486
85	0x3d9a4767	0.0753315
86	0xbf2e7075	-0.68140346
87	0x3e160e18	0.14653814
88	0x3cd804b9	0.02636944
89	0xbfb8204d	-1.4384857
90	0x3ebabc27	0.36471674
91	0x3bd436f5	0.006476278
92	0x3e800381	0.25002673
93	0x3f8ac37d	1.0840908
94	0x3ed028e7	0.40656206
95	0x3d6572c7	0.056017663
96	0x3f008603	0.50204486
97	0x3f2dcb8f	0.6788873
98	0x3ed9d32a	0.42543918
99	0xbee5576a	-0.44793254
100	0xbea790e3	-0.32727727
101	0x3e9cd519	0.3063133
102	0x3d6e4d56	0.058179222
103	0x3f45096c	0.769675
104	0x3e837272	0.25673252
105	0xbeebfc64	-0.46090996
106	0xbddc2bd4	-0.10750547
107	0xbe80a527	-0.25126
108	0x3d6a10ff	0.057145115
109	0x3fbe5ce6	1.48721
110	0xbe0d427e	-0.13794896
111	0x3e51e495	0.20497353
112	0xbeb503cf	-0.35354468
113	0x3e23f43f	0.16011141
114	0x3ece8804	0.40338147
115	0xbe7f3dd6	-0.24925932
116	0xbd867f1c	-0.06567213
117	0x3ef319dd	0.4748067
118	0x3e5e98b2	0.21737936
119	0xbd21504e	-0.039383225
120	0x3f069192	0.5256587
121	0x3f10efd1	0.5661593
122	0x3f904345	1.1270529
123	0xbed20a2d	-0.41023389
124	0x3f1bc8e8	0.60853434
125	0xbf90c7e4	-1.1311002
126	0x3ea845c0	0.32865715
127	0x3e806cfe	0.25083154
128	0x3d427120	0.047471166
129	0x3ba29217	0.004961263
130	0xbd8412b6	-0.06448881
131	0xbe909a1a	-0.2824257
132	0xbe860917	-0.2617881
133	0x3eed24aa	0.46317035
134	0x3f2c0043	0.671879
135	0x3e5ee9d2	0.21768883
136	0xbdb39baf	-0.08769929
137	0x3e8efc29	0.27926758
138	0x3f92ec4c	1.1478362
139	0x3f986e18	1.1908598
140	0x3f449774	0.767936
141	0x3fa98cec	1.3246131
142	0xbf4a62a5	-0.7905677
143	0xbfcd3c59	-1.6034042
144	0xbf170471	-0.5899115
145	0x3e91d373	0.28481635
146	0x3ed7ac0f	0.42123458
147	0xbe13106c	-0.14361733
148	0xbd2f668e	-0.042822413
149	0x3e86caf8	0.26326728
150	0x3f1c4f25	0.61058265
151	0x3e52e64a	0.20595661
152	0xbd344a68	-0.04401627
153	0xbdfae1c0	-0.1225009
154	0xbe1d149b	-0.15339892
155	0xbe3b8d3a	-0.18315592
156	0xbe44d1bf	-0.19220637
157	0xbe6d360d	-0.2316515
158	0xbe9753f7	-0.29556248
159	0xbea8623e	-0.32887453
160	0xbe2a821c	-0.16651195
161	0x3e014481	0.12623788
162	0x3d7f7469	0.062366877
163	0x3d04336f	0.032275613
164	0x3d04e27d	0.03244256
165	0x3d9b73bd	0.07590435
166	0xbd2edc7e	-0.042690746
167	0xbd08e465	-0.03342094
168	0x3d572d63	0.05253352
169	0xbf981dba	-1.1884072
170	0xbfd3c56b	-1.6544622
171	0x3fa34c58	1.2757673
172	0xbe81c336	-0.25344247
173	0x3fe032c1	1.7515489
174	0xbf626ce5	-0.8844741
175	0x3f29f1f1	0.663848
176	0xc01ed374	-2.481656
177	0x3f55287f	0.8326492
178	0xbc064a67	-0.00819645
179	0x3e2a7d67	0.166494
180	0x3f184c6c	0.5949161
181	0xbf191d31	-0.5981017
182	0xbe98d182	-0.29847342
183	0x3f5e3b61	0.86809355
184	0x3f97b25d	1.1851307
185	0xc00f9b07	-2.243837
186	0x3ec31e40	0.38109016
187	0xbe1c04f2	-0.15236261
188	0xbd9e6105	-0.07733349
189	0xbf06007b	-0.52344483
190	0xbf26cbf3	-0.6515495
191	0x3fae0eb2	1.3598235
192	0xbf7a3fdd	-0.977537
193	0x3ed7196f	0.42011592
194	0x4031d059	2.7783415
195	0xbf61146e	-0.879218
196	0x3dad8476	0.084725305
197	0x3e1252f8	0.14289463
198	0x3e89e2fa	0.26930982
199	0xc00ab71b	-2.1674259
200	0xbe6b46a5	-0.22976168
201	0x3ff2d400	1.8970947
202	0xc00ee4b8	-2.23271
203	0x3fe89d8d	1.8173081
204	0x3f9e2e8e	1.2357957
205	0x3fd204a9	1.6407672
206	0xc00cc1c8	-2.1993275
207	0x3f969708	1.1764841
208	0xbf72f83b	-0.9491002
209	0x3efad005	0.4898683
210	0x3e17e8a9	0.14834847
211	0xbfff230e	-1.9932573
212	0x3f947014	1.1596704
213	0xbfdc0c1c	-1.7191195
214	0xbf9178e2	-1.1365016
215	0x3f0497e6	0.5179428
216	0x3f823b4e	1.0174348
217	0x3f607160	0.87672997
218	0x3dc6a295	0.09698979
219	0xbf1b2881	-0.6060868
220	0x3fce53c6	1.6119316
221	0xbdb239b9	-0.08702416
222	0xbe878b04	-0.26473248
223	0xbf34f3b0	-0.7068434
224	0xbdaff22c	-0.085911125
225	0x3e44cda7	0.19219075
226	0xbfff37fa	-1.9938958
227	0xbff0d307	-1.88144
228	0xbf8cc5ae	-1.0997827
229	0xc072b1ed	-3.7921097
230	0x3f2744e1	0.65339476
231	0xbffa3413	-1.9547142
232	0x3f8a09ef	1.0784281
233	0xbf7703f6	-0.9649042
234	0xbe871692	-0.26384407
235	0x3f808d46	1.0043113
236	0x3ea04ba8	0.3130772
237	0xbfaf7fa6	-1.371083
238	0x3ea8d2be	0.32973284
239	0xbe88aa14	-0.2669226
240	0x3f6cfd15	0.9257367
241	0x3fa9a47b	1.325332
242	0xbe1e6bf0	-0.15470862
243	0xbe89b00d	-0.2689213
244	0x3f1c2e4a	0.6100813
245	0x3f9e1020	1.2348671
246	0xbfc41837	-1.531989
247	0xc004222c	-2.0645857
248	0xbfdc69e5	-1.7219816
249	0x3e2c381c	0.16818279
250	0x3ff64313	1.923922
251	0x3e20f38f	0.1571791
252	0x3edfa3c6	0.43679637
253	0xbece56c2	-0.40300566
254	0xbf330041	-0.6992226
255	0xbf22d1bf	-0.636013

convs.0.fc_full.bias f4 [128]
0	0x3d6aebe5	0.057353873
1	0x3d05df09	0.032683406
2	0xbd8da809	-0.06916816
3	0x3d9a2444	0.07526448
4	0x3d205d35	0.03915139
5	0xbd332ad7	-0.043742027
6	0x3cc1d388	0.023660436
7	0xbc9c93a8	-0.019113377
8	0xbc712095	-0.014717241
9	0x3b9cec9d	0.0047889487
10	0xbd2a3e77	-0.041563477
11	0x3b780910	0.0037847199
12	0xbd13e439	-0.036106322
13	0x3d5908b2	0.052986808
14	0xbd46086d	-0.04834788
15	0x3d9bcafb	0.07607075
16	0xbd945c8d	-0.07244215
17	0x3d52773a	0.051383235
18	0x3d8d1ae7	0.06889897
19	0x3bb3f244	0.005491527
20	0x3b4cba31	0.0031238908
21	0x3ca6a26f	0.020341126
22	0x3d39171f	0.045188066
23	0x3d91e98d	0.071246244
24	0x3deffb16	0.11717813
25	0x3b44d974	0.0030036839
26	0xbdca53c2	-0.09879257
27	0x3c24d06a	0.010059455
28	0x3c9fd2be	0.01950967
29	0xbd9a47a5	-0.07533196
30	0x3cc16843	0.023609286
31	0xbd8a7ab8	-0.06761688
32	0x3d9e8749	0.07740647
33	0xbc354666	-0.011064148
34	0xbcd71840	-0.02625668
35	0xbcd1ad16	-0.02559523
36	0x3dbc5b84	0.09197143
37	0x3c128d41	0.00894481
38	0xbd92e44e	-0.07172452
39	0x3a31da6b	0.0006784561
40	0xbc412f7a	-0.011791104
41	0x3d44a984	0.048013225
42	0xbccc400f	-0.02493289
43	0x3dbf6d95	0.09347073
44	0x3dd860db	0.10565349
45	0xbc821f39	-0.015884029
46	0xbdb09de3	-0.086238645
47	0xbdb69e74	-0.08916941
48	0xbbe2ab70	-0.0069174096
49	0x3bf13ce0	0.007361993
50	0x3b8414ac	0.0040307846
51	0x3d0f8979	0.035043214
52	0xbd01724a	-0.031603135
53	0x3cbf124c	0.023324154
54	0xbd2d86e4	-0.04236497
55	0xbd07c71f	-0.03314888
56	0xbcdd00b9	-0.026977884
57	0xbc35f362	-0.01110539
58	0xbd423cae	-0.04742115
59	0xbd7426f7	-0.059607472
60	0x3cfd8277	0.030946
61	0x3d36681c	0.04453288
62	0xbcfc2d22	-0.03078324
63	0x3ceee752	0.029163036
64	0xbd5c9cfa	-0.053860642
65	0x3d412637	0.047155585
66	0x3b3dc19f	0.0028954518
67	0x3c724080	0.014785886
68	0x3cdca2ba	0.026933063
69	0x3d8c82be	0.068608746
70	0x3c93e43f	0.018053172
71	0x3d81319e	0.06308292
72	0x3d763d31	0.06011695
73	0x3d7a3fc1	0.061095957
74	0xbc1cac21	-0.009562523
75	0xbd598d7d	-0.05311345
76	0xbc9ee418	-0.019395873
77	0x3d36b6a2	0.044607766
78	0xb9e7eee2	-0.00044237735
79	0xbdba688b	-0.09101971
80	0x3dca0001	0.09863282
81	0xbd7e46b7	-0.062079158
82	0x3d1ebb74	0.038752988
83	0xbd8f82c1	-0.07007361
84	0xbc6fe3ee	-0.014641745
85	0x3b9d69ac	0.004803857
86	0xbd35ba4e	-0.044367127
87	0x3cfa29eb	0.030537566
88	0xbd21010a	-0.03930763
89	0xbce9f60f	-0.028559713
90	0xba562a8a	-0.0008169791
91	0x3c43504d	0.011921001
92	0x3d9debe9	0.07711012
93	0xbd7e4fd2	-0.06208784
94	0xbd356925	-0.044289727
95	0xbc80b2be	-0.01571023
96	0x3d813abd	0.063100316
97	0x3b612de7	0.0034359635
98	0x3d38f2cb	0.04515342
99	0xbce653f5	-0.028116206
100	0x3d430e3d	0.047621
101	0xbd023c07	-0.031795528
102	0x3cec091d	0.02881294
103	0x3d13be1b	0.03606997
104	0xbda7034a	-0.08154924
105	0x3d335c90	0.043789446
106	0x3cf7075e	0.03015488
107	0x3b68fc36	0.003555072
108	0xbd60e19e	-0.054902665
109	0xbd797029	-0.06089798
110	0xbd4b2070	-0.04959148
111	0xbd0bd7a3	-0.034141194
112	0x3cf08a17	0.029362721
113	0x3d83172c	0.06400904
114	0x3d912176	0.0708646
115	0x3d47620a	0.04867748
116	0x3ce0ca61	0.027440252
117	0x3d46d354	0.048541382
118	0xbb9163a6	-0.004436928
119	0x3d6cd3d5	0.057819206
120	0x3a842904	0.0010083024
121	0xbc1198b9	-0.00888651
122	0x3db46189	0.08807666
123	0x3d177571	0.036977235
124	0xbdbaf2fc	-0.09128377
125	0xbd4e1b32	-0.050318904
126	0xbda95de7	-0.082698636
127	0xbdcb8b32	-0.09938659

convs.0.bn1.weight f4 [128]
0	0x40ac6ba3	5.3881392
1	0x404fd263	3.247216
2	0x40b5d6ee	5.6824865
3	0x40502748	3.2523975
4	0x40ca7015	6.326182
5	0x4095a765	4.676684
6	0x408e0bb6	4.4389296
7	0x406c6fd8	3.6943264
8	0x40acefb3	5.40426
9	0x4040123e	3.0011134
10	0x404f8397	3.2424066
11	0x40d9d64c	6.8074093
12	0x40891795	4.2841287
13	0x403796d8	2.8685818
14	0x409d53a0	4.916458
15	0x40a273b7	5.0766253
16	0x407c988b	3.9468105
17	0x3f4d9261	0.8030148
18	0x4096b62b	4.7097373
19	0x3fa717dd	1.3054157
20	0x409e112a	4.939595
21	0x40d95533	6.7916503
22	0x4005c6bb	2.0902545
23	0x40a24ef1	5.0721364
24	0x408c89a4	4.391802
25	0x40325275	2.7862828
26	0x4092a4a9	4.5826
27	0x407565a3	3.8343284
28	0x40668211	3.6016886
29	0x405f272c	3.4867659
30	0x4013c48d	2.3088715
31	0x40dd1b91	6.909615
32	0x400ddbe9	2.2165473
33	0x404b52ae	3.1769214
34	0x40840449	4.125523
35	0x40458b5a	3.0866303
36	0x40ac012e	5.375144
37	0x4077cf25	3.872018
38	0x402af48d	2.6711762
39	0x40be5feb	5.9492087
40	0x40ec6734	7.387598
41	0x40985122	4.759904
42	0x40755b0c	3.833682
43	0x40c45e50	6.1365128
44	0x404754f0	3.1145592
45	0x40ca8a5b	6.329389
46	0x3f7087d8	0.9395728
47	0x40898cf9	4.2984586
48	0x40416881	3.0220034
49	0x40be4a11	5.9465413
50	0x40c10fa4	6.0331593
51	0x409b1a48	4.846958
52	0x4033bad1	2.8082774
53	0x4032917f	2.7901304
54	0x406d134b	3.7043025
55	0x4065fc06	3.5935073
56	0x4085ac03	4.1772475
57	0x40bcd293	5.900705
58	0x3f4188e8	0.7559953
59	0x406c2661	3.6898425
60	0x40825675	4.073054
61	0x40aa6edf	5.326034
62	0x40e1dd3a	7.058255
63	0x40cf83de	6.484847
64	0x40183662	2.3783193
65	0x402f3c09	2.7380393
66	0x40044eba	2.067305
67	0x4029c849	2.6528494
68	0xbf1df9cb	-0.6170928
69	0x3f7347f5	0.9503167
70	0x3f7c8c93	0.98652
71	0x40aa0504	5.3131123
72	0x3fb156b0	1.385458
73	0x3f954b28	1.1663561
74	0x3f5c27ce	0.8599824
75	0x40a36bb7	5.106899
76	0x3f719252	0.9436389
77	0x3fb5bb96	1.4197872
78	0x3f9945d1	1.1974431
79	0x3faa5031	1.3305722
80	0x3f1b03ed	0.60552865
81	0x40e0f8b9	7.0303617
82	0x3f100f5c	0.56273437
83	0x409d69ca	4.9191637
84	0x3ffb5d11	1.9637777
85	0x3fbf309e	1.4936712
86	0x3eeaa1c6	0.45826548
87	0x3ec8b706	0.39202136
88	0x3fcef224	1.6167645
89	0x3f304def	0.6886892
90	0x40199fff	2.4003904
91	0x3fc19289	1.5122844
92	0x3ff11b2a	1.8836415
93	0x3f8c6343	1.0967792
94	0x40364306	2.8478408
95	0x3e48a40e	0.19593832
96	0x40b37180	5.607605
97	0x3f3c847d	0.7363966
98	0x3fbcb80f	1.474367
99	0x3ea92864	0.33038628
100	0x3fd635d0	1.6735172
101	0x3f752f78	0.95775557
102	0x40064a6b	2.098292
103	0x3f24282b	0.6412379
104	0x3ef2502f	0.473268
105	0x3f450fbe	0.76977146
106	0x404cd659	3.2005827
107	0x3f4c37ec	0.7977283
108	0x40c5718a	6.1701097
109	0x3f6e1d5d	0.93013555
110	0x3f50a5a4	0.8150275
111	0x3f9b87d3	1.2150825
112	0xbd356c74	-0.044292882
113	0x3f5cf249	0.863072
114	0x401bc525	2.4339077
115	0x40424165	3.0352414
116	0x3fac23b8	1.34484
117	0x3f703bc1	0.9384118
118	0x40517d2a	3.2732644
119	0x3f9334d2	1.1500494
120	0x3f291fc4	0.66064095
121	0x3f4ca0ed	0.79933053
122	0x409b92c4	4.8616657
123	0x3f98a4ff	1.1925353
124	0x3fc42d65	1.5326353
125	0x3f484ab7	0.78239006
126	0x3fd9d609	1.7018443
127	0x3ea84a96	0.32869405

convs.0.bn1.bias f4 [128]
0	0xbf193c6e	-0.59857833
1	0xbe4e440c	-0.20143145
2	0xbe892d1a	-0.26792222
3	0x3d3dbfbc	0.04632543
4	0x401930ee	2.3936114
5	0xbe639fe4	-0.22228962
6	0x3c90b393	0.017663753
7	0xbf7c4bd3	-0.985532
8	0x3ec2d0d4	0.38049948
9	0x3d84721a	0.06467076
10	0xbf160ebd	-0.5861624
11	0xbf225bee	-0.63421524
12	0x3f0f488b	0.55970067
13	0x3f09b71c	0.5379503
14	0x3f7566df	0.95860094
15	0xbfeb367d	-1.8376004
16	0xbf270cfc	-0.6525419
17	0x3e5f9d36	0.21837315
18	0x3f9940aa	1.1972859
19	0x3fd2f5aa	1.6481221
20	0x3f3b4f78	0.73168135
21	0x3fa94721	1.3224832
22	0x3fe4da9c	1.7879214
23	0x3f44607d	0.7670973
24	0xbb6aff05	-0.003585757
25	0xbe3fe30d	-0.18738957
26	0xbec7f149	-0.39051273
27	0x3e8bc0e5	0.27295604
28	0x3e8165e8	0.2527306
29	0x3db89223	0.09012248
30	0xbecf3027	-0.40466425
31	0x3f987a91	1.1912404
32	0x3f8878fa	1.0661919
33	0x3fd2a145	1.6455466
34	0xbf7cbdcc	-0.9872711
35	0x4024672b	2.5687969
36	0xbeddcd3c	-0.43320644
37	0x3f807d0c	1.0038161
38	0xbfb5d9bb	-1.4207071
39	0x400ff6d8	2.2494411
40	0x3f7cd643	0.9876444
41	0x3ff12e9f	1.8842353
42	0x3e865753	0.26238498
43	0x3ea7f598	0.3280456
44	0x3ed25ce8	0.41086507
45	0xbf42f75d	-0.76158696
46	0x3f6421c4	0.8911402
47	0xbe9c5df0	-0.3054042
48	0x4086c224	4.211199
49	0x3f0f2254	0.55911756
50	0x3f604561	0.87605864
51	0xbfdde697	-1.7335995
52	0x3f926ec7	1.1440057
53	0x3f908490	1.1290455
54	0xbfa49f17	-1.286105
55	0xbec1a947	-0.3782446
56	0x3ebf9550	0.37418604
57	0xbfc10436	-1.507941
58	0xbea5f6cd	-0.32414857
59	0x3f32164b	0.69565266
60	0x3ec7f1de	0.39051718
61	0x3fc0660c	1.5031142
62	0x3f82f92f	1.0232295
63	0x3fb3b179	1.4038535
64	0x3ec8d0fd	0.39221945
65	0xbe650e24	-0.22368675
66	0x3ee32514	0.44364226
67	0xc01c25f7	-2.4398172
68	0x41025301	8.145265
69	0x3f37731b	0.7166001
70	0x3f6d3169	0.9265352
71	0xbf5a4b7f	-0.8527145
72	0x3f374cb9	0.71601444
73	0x3f378f06	0.7170261
74	0x3f831447	1.0240563
75	0xbfa0adb6	-1.2553012
76	0x3fd16e7d	1.6361843
77	0xbe148aee	-0.14506122
78	0x3fa8b950	1.3181553
79	0xc033bb2e	-2.8082995
80	0x3f93ea02	1.1555789
81	0xbec37b4f	-0.38180014
82	0x4000cb01	2.0123904
83	0x3f0e35cb	0.5555083
84	0x3dbca3fb	0.09210964
85	0x3faefd4d	1.3671051
86	0x402acb6d	2.6686661
87	0x3ffea827	1.9895066
88	0xbf9b95b0	-1.2155056
89	0x3fb4e959	1.4133712
90	0xbf11b493	-0.5691616
91	0xbf9b1c82	-1.2118075
92	0xbf82311c	-1.0171237
93	0x3d29b634	0.041433528
94	0xbfb35c52	-1.4012549
95	0x4081ed34	4.0602055
96	0x3fa569c1	1.2922899
97	0x3f6e65d5	0.93124133
98	0x3fbc7d5d	1.4725758
99	0x411aaba1	9.666902
100	0x3f19d66e	0.6009282
101	0x3f71b0a3	0.9441015
102	0xc01e31c6	-2.471788
103	0x400c5037	2.192396
104	0x40f5d075	7.6816964
105	0x3fd1cb9e	1.6390264
106	0xbeb04817	-0.3443
107	0x3fed8593	1.8556389
108	0xbf5ee2dd	-0.87064916
109	0x3fcb7b3f	1.5896987
110	0x3f8e989f	1.1140326
111	0xbb43b86f	-0.002986457
112	0x410126d8	8.071983
113	0x3f88b622	1.0680583
114	0x3e5bf0c6	0.21478567
115	0x3ec12557	0.377238
116	0x3f3b947a	0.7327343
117	0x4003a077	2.056669
118	0xbe879351	-0.2647958
119	0x3f984057	1.1894635
120	0x3ff8b8ad	1.9431359
121	0x3fb97011	1.4487325
122	0xbf3d07a3	-0.7383978
123	0x3ed563bc	0.41677654
124	0xbf057571	-0.52132326
125	0x3f8276b9	1.0192481
126	0xbd3b30d2	-0.045700856
127	0x4080f6a8	4.0301094

convs.0.bn1.running_mean f4 [128]
0	0x4271b109	60.422886
1	0x41f9946b	31.19747
2	0x421cdf2a	39.217934
3	0x41dd2395	27.642374
4	0x42b8dac4	92.42728
5	0x42b68219	91.2541
6	0x41c83b26	25.028881
7	0x42341027	45.015774
8	0x3ed29001	0.4112549
9	0x4275a4a7	61.410793
10	0x424cb3ce	51.17559
11	0x4084037f	4.125427
12	0xc22ea293	-43.658764
13	0xc2854f6f	-66.65514
14	0x4201d164	32.454483
15	0xc1bb40de	-23.406673
16	0x424ece09	51.701206
17	0x4199cfae	19.226406
18	0x41919790	18.199005
19	0xc1bdc7a6	-23.722485
20	0x427d89b5	63.38448
21	0xc1d35964	-26.418648
22	0xbf4dbbdc	-0.80364776
23	0x420c2728	35.03824
24	0x422bc2f9	42.940403
25	0xc1d22fa6	-26.273266
26	0x4282d22c	65.41049
27	0x4211c7c9	36.445103
28	0xc12511b4	-10.316822
29	0x421e0ba6	39.511375
30	0x41d046cc	26.034569
31	0x411bf8c6	9.748236
32	0x42116b4e	36.35479
33	0xc0636a61	-3.5533679
34	0xc203836f	-32.878353
35	0xc29df954	-78.98697
36	0xc1a38f97	-20.445112
37	0xc0cf23a7	-6.473102
38	0xc13aa90d	-11.666272
39	0x423d931e	47.39367
40	0xc1c6e2e3	-24.860785
41	0x4176afc5	15.4179125
42	0x41c6934f	24.821928
43	0xc1bd3fd8	-23.656174
44	0xc1428f91	-12.16005
45	0x417b5d64	15.7103
46	0xc08bba4f	-4.3664927
47	0x42c2f41b	97.47677
48	0x419fe010	19.984406
49	0xc227e0f8	-41.969696
50	0xc2929bf4	-73.304596
51	0xc2172ad9	-37.791843
52	0x41a981b2	21.188328
53	0xc140ec2e	-12.057661
54	0xc193c33c	-18.47033
55	0x3fa73133	1.306189
56	0x42684e1e	58.076286
57	0xc0941ccf	-4.6285167
58	0x420f65f7	35.849575
59	0x41af6573	21.924536
60	0xc2552d31	-53.294132
61	0x424816c4	50.022232
62	0x4189bea1	17.21808
63	0x413f1edb	11.945033
64	0x42519176	52.39205
65	0xc20b28bd	-34.789783
66	0x41acd72e	21.605068
67	0x4205a199	33.40781
68	0x429be13e	77.939926
69	0x413aba07	11.670417
70	0xc199e3ad	-19.23617
71	0x41327556	11.153646
72	0xc0d63160	-6.693527
73	0x42873b66	67.61601
74	0x42291dea	42.279213
75	0xc1a793d5	-20.947184
76	0x412f0a07	10.939948
77	0xc209d1bd	-34.454823
78	0x3f0f5fc8	0.56005526
79	0x4147b312	12.481218
80	0x424c731e	51.11242
81	0xc1ff2d11	-31.897005
82	0xc05934fd	-3.3938591
83	0xc117c68f	-9.485976
84	0x421e2d53	39.544262
85	0xc226ac4f	-41.66827
86	0x3fb9afa6	1.4506729
87	0x42bfad05	95.83793
88	0xc1dfb29a	-27.962208
89	0x4189481a	17.160206
90	0x41866bb0	16.802582
91	0x41d3bb35	26.46641
92	0x4287d8dc	67.92355
93	0x41914d33	18.162695
94	0x42561b7b	53.526836
95	0x41ce5a13	25.793982
96	0xc02605fa	-2.5941148
97	0x41d7121f	26.883848
98	0xc1b0f93f	-22.121702
99	0x423ab951	46.680973
100	0xc11d30ff	-9.824462
101	0x4153cff3	13.238269
102	0x41427877	12.15441
103	0xc229f115	-42.48543
104	0xc069b85d	-3.6518776
105	0x41e01c15	28.013712
106	0x411c8658	9.782799
107	0x4229f9a5	42.493793
108	0x41b1a00b	22.203146
109	0x4298169a	76.04414
110	0x40f57f2a	7.671773
111	0x41351fba	11.320246
112	0x417742c4	15.4538
113	0xc1ff516d	-31.914759
114	0xc1c34270	-24.40744
115	0xc200c1cd	-32.18926
116	0x41fc0e2b	31.506918
117	0x422bc6cc	42.944138
118	0x419b9e55	19.45231
119	0x424cf7d3	51.242016
120	0xc113b369	-9.231301
121	0xc1a519a6	-20.637524
122	0xc1fcded3	-31.6088
123	0x424fdbb7	51.964565
124	0xc12a7932	-10.654589
125	0xc2037230	-32.86151
126	0x40ba9dc9	5.831761
127	0x429758c8	75.6734

convs.0.bn1.running_var f4 [128]
0	0x454eba73	3307.653
1	0x45d7abba	6901.466
2	0x453522ba	2898.1704
3	0x44c16583	1547.1722
4	0x4526ae21	2666.883
5	0x456c61f1	3782.1213
6	0x44b48283	1444.0785
7	0x458e3c90	4551.5703
8	0x4584e342	4252.407
9	0x450247d0	2084.4883
10	0x44d3c2bf	1694.0858
11	0x4579d632	3997.3872
12	0x4546fca2	3183.7896
13	0x45a6a9ca	5333.2236
14	0x457bcdf5	4028.8723
15	0x4391b0ca	291.38116
16	0x45c4d4ae	6298.585
17	0x45e1d9de	7227.2334
18	0x459e65db	5068.732
19	0x456a1b29	3745.6975
20	0x44f49dba	1956.929
21	0x452fa328	2810.1973
22	0x45d9a468	6964.551
23	0x45a2e856	5213.042
24	0x457bafcc	4026.9873
25	0x45cde21c	6588.2637
26	0x4561ba35	3611.638
27	0x452615e8	2657.3691
28	0x455092e6	3337.1812
29	0x452d415a	2772.0845
30	0x4557a018	3450.0059
31	0x45332e43	2866.8914
32	0x4544ad08	3146.8145
33	0x459c3af7	4999.3706
34	0x45e31395	7266.4478
35	0x45af0444	5600.533
36	0x45ddb4ae	7094.585
37	0x45948ddd	4753.733
38	0x4538f818	2959.5059
39	0x45126306	2342.189
40	0x45a07784	5134.9395
41	0x44ffead3	2047.3383
42	0x459d7dee	5039.741
43	0x457539f3	3923.6218
44	0x45282f00	2690.9375
45	0x454aaa05	3242.6262
46	0x4531b2bf	2843.1716
47	0x4509941d	2201.257
48	0x44eb4ebd	1882.4606
49	0x454fc68b	3324.409
50	0x44d007d3	1664.2445
51	0x45bb6758	5996.918
52	0x4521e06d	2590.0266
53	0x4534e30e	2894.191
54	0x458cf001	4510.0005
55	0x4580b98a	4119.1924
56	0x45778e92	3960.9106
57	0x452a9b8f	2729.7224
58	0x45b493c7	5778.472
59	0x45a54b3b	5289.404
60	0x44d2e6fd	1687.2184
61	0x44ea121d	1872.566
62	0x451633d2	2403.2388
63	0x45b0565a	5642.794
64	0x4570a212	3850.1294
65	0x45ce0550	6592.664
66	0x45adb93f	5559.156
67	0x450af104	2223.0635
68	0x45a06c03	5133.5015
69	0x453ddf07	3037.9392
70	0x44f94e4b	1994.4467
71	0x45a0a64a	5140.786
72	0x4525bb85	2651.72
73	0x458f8fa4	4593.955
74	0x44f2cea8	1942.458
75	0x4528da66	2701.65
76	0x4559bd40	3483.8281
77	0x45d6f696	6878.823
78	0x45a8cb6e	5401.4287
79	0x458ad8c2	4443.0947
80	0x45a2c12b	5208.146
81	0x458d2281	4516.313
82	0x45aebdca	5591.7236
83	0x45a1d016	5178.0107
84	0x45987430	4878.5234
85	0x4583a19d	4212.2017
86	0x458376ae	4206.835
87	0x45655334	3669.2002
88	0x4597dc68	4859.551
89	0x45b340dd	5736.108
90	0x452fd964	2813.587
91	0x45224719	2596.4436
92	0x45c3b1bf	6262.2183
93	0x455c86fb	3528.4363
94	0x45d1f197	6718.1987
95	0x45664afe	3684.687
96	0x455b34d2	3507.3013
97	0x45f3121a	7778.2627
98	0x4609f268	8828.602
99	0x4583a366	4212.425
100	0x460e776c	9117.855
101	0x45a29fc1	5203.969
102	0x459679a7	4815.2065
103	0x4594a11b	4756.138
104	0x457946f8	3988.4355
105	0x4587f7fe	4350.999
106	0x45ba6dae	5965.71
107	0x45d18f6b	6705.9272
108	0x45817b23	4143.392
109	0x45980c7b	4865.56
110	0x456a0bd4	3744.7393
111	0x454ded5a	3294.8345
112	0x45585459	3461.2717
113	0x45925110	4682.133
114	0x45582121	3458.0706
115	0x45ba46f7	5960.8706
116	0x4537b51c	2939.3193
117	0x4580e585	4124.69
118	0x4569d8db	3741.5535
119	0x45f82fc5	7941.971
120	0x455d70c3	3543.0476
121	0x452a34a9	2723.2913
122	0x457de01b	4062.0066
123	0x45bb46da	5992.8564
124	0x44f429cb	1953.306
125	0x44db430a	1754.095
126	0x4565e7e6	3678.4937
127	0x463f3a57	12238.585

convs.0.bn2.weight f4 [64]
0	0x3fbc9ad7	1.4734753
1	0x3ff6277c	1.92308
2	0x3ff8cb3d	1.9437023
3	0x400276b8	2.038496
4	0x3fdaef5f	1.71043
5	0x3f7b658e	0.98201835
6	0x3f75c488	0.9600301
7	0x3fb01dae	1.3759058
8	0x3f78adf2	0.9714042
9	0x3fb7dd5f	1.4364432
10	0x3fe8f47e	1.8199613
11	0x3fed0ffb	1.8520502
12	0x401e3f93	2.4726303
13	0x3fbddf6b	1.4833807
14	0x3fe55ca1	1.7918893
15	0x4004c124	2.0742884
16	0x40210cb8	2.5164013
17	0x3ffd71c7	1.9800347
18	0x3ff60e00	1.9223022
19	0x3f8ca6dd	1.0988423
20	0x3f5d9882	0.86560833
21	0x3f9ead8c	1.2396712
22	0x3fe9c665	1.826367
23	0x3ff92ec0	1.9467392
24	0x3fa1b9b1	1.2634794
25	0x4008ca90	2.1373634
26	0x3fbe5cba	1.4872048
27	0x3f851706	1.0397651
28	0x3fd37245	1.6519247
29	0x3f6a7094	0.9157803
30	0x3fe09a48	1.7547083
31	0x3fd3bffa	1.6542962
32	0x3ffc3101	1.9702455
33	0x40061d0e	2.0955234
34	0x40144f04	2.3173227
35	0x4010a684	2.2601633
36	0x401ea334	2.4787111
37	0x3fcf6633	1.6203064
38	0x3eba14f4	0.3634411
39	0x3fa67f8c	1.3007674
40	0x3fa19055	1.2622172
41	0x4002c934	2.0435305
42	0x3fe3af89	1.7787944
43	0x40174f50	2.3642159
44	0x3fefc962	1.8733332
45	0x400724a8	2.1116123
46	0x3f787602	0.97055066
47	0x3fabd5ab	1.3424581
48	0x3fa4691d	1.2844578
49	0x3ff000ca	1.8750241
50	0x3f0cc07d	0.54981214
51	0x3fa2999e	1.270313
52	0x3f22547d	0.6341017
53	0x3fbbed2e	1.4681756
54	0x3fa2ec66	1.2728393
55	0x4015885f	2.3364484
56	0x3fe36419	1.7764922
57	0x4000c9f2	2.0123258
58	0x3fc474b2	1.5348113
59	0x3fda9f87	1.7079934
60	0x3f42712f	0.75953954
61	0x3f400deb	0.7502124
62	0x3f7da833	0.99084777
63	0x4056aaff	3.3541868

convs.0.bn2.bias f4 [64]
0	0xbfdaa1ef	-1.7080668
1	0xbf2327da	-0.63732684
2	0xbfb841bc	-1.439506
3	0xbfc96d65	-1.573651
4	0xbeac80c5	-0.33691993
5	0xbf71f563	-0.94515055
6	0xbfe07bcf	-1.7537783
7	0xbf2b92ed	-0.67021066
8	0xbec72d0e	-0.38901561
9	0xbfe781cd	-1.8086487
10	0xbfcaef1b	-1.5854219
11	0xbe03b2dd	-0.128612
12	0xbfd8ac3f	-1.6927565
13	0x3f024329	0.5088373
14	0xbfe329be	-1.7747114
15	0x3f16c6ad	0.58896905
16	0xbe5506b5	-0.2080334
17	0x3f0eaa7e	0.557289
18	0xbf1ca781	-0.6119309
19	0xbf9e31ac	-1.2358909
20	0xc0012953	-2.0181472
21	0x3da064e5	0.07831744
22	0xbed4ba0f	-0.415482
23	0xc02a583e	-2.6616359
24	0xbf03d2e2	-0.51493657
25	0xbe3173ad	-0.17329283
26	0xbfdb87b6	-1.7150791
27	0xbf7fe7b7	-0.99962944
28	0xbfdb57d4	-1.7136178
29	0xbfb4f542	-1.4137347
30	0xbf6c983d	-0.924198
31	0xbf92ef84	-1.1479344
32	0x3db0d655	0.086346306
33	0xbf8d6a3d	-1.1048046
34	0xbf8f9569	-1.1217471
35	0xbe9c21c5	-0.30494514
36	0xbef55ce2	-0.47922426
37	0xbf7e8f38	-0.99437284
38	0xbf9d4454	-1.2286477
39	0x3e33a88d	0.17544766
40	0x3e848c3f	0.2588825
41	0xc0057ad2	-2.0856214
42	0xbf15e4ec	-0.5855243
43	0xbecc31b1	-0.39881662
44	0xbf7531a9	-0.957789
45	0xbf708078	-0.9394603
46	0xbf99dc65	-1.2020384
47	0xbfd57f76	-1.6679523
48	0xbf0179e7	-0.50576633
49	0xbfaf4928	-1.36942
50	0xbf9a0faf	-1.2036036
51	0x3f3d11a0	0.7385502
52	0xbf35bec0	-0.70994186
53	0xc0031822	-2.048348
54	0xbffd3375	-1.9781328
55	0xbe1f8943	-0.15579705
56	0xbed4f550	-0.4159341
57	0xbf6d3bc5	-0.92669326
58	0xbf40b195	-0.7527097
59	0xbd224818	-0.039619535
60	0xbfdfc1d3	-1.7481025
61	0xbf7294f0	-0.9475851
62	0x3f318b17	0.6935286
63	0xbfd259cf	-1.6433657

convs.0.bn2.running_mean f4 [64]
0	0x412c8a39	10.783746
1	0x40e1c8ef	7.055778
2	0x4133961b	11.224147
3	0x40908da6	4.517291
4	0x428129b7	64.581474
5	0x40fda03a	7.925809
6	0x4120fba6	10.061438
7	0x41a5e582	20.737064
8	0x410ad40c	8.676769
9	0x412618cc	10.381054
10	0x411474eb	9.278544
11	0x417ee4f4	15.930897
12	0x4175500a	15.332041
13	0x40e88a61	7.266892
14	0x416c3e5e	14.765226
15	0x3f3aac2f	0.7291898
16	0x411ac3d5	9.672811
17	0x4182ccbe	16.349972
18	0x4183d04d	16.47671
19	0x41d5ba5c	26.715996
20	0x4118eb53	9.557452
21	0x414af74d	12.685376
22	0x41d03d33	26.029882
23	0x41817cdf	16.185972
24	0x404ee84f	3.232929
25	0x41376f70	11.464706
26	0x410b8fb3	8.722583
27	0x407320b4	3.798871
28	0x40b91d00	5.78479
29	0x40d38fc8	6.6113014
30	0x40f035c4	7.506563
31	0x41fa4b18	31.286667
32	0x41de62cf	27.798246
33	0x413502dd	11.313199
34	0x412c7e99	10.780908
35	0x42af0b99	87.52265
36	0x4123cadd	10.237027
37	0x4144d250	12.301346
38	0x402472ad	2.5694993
39	0x4190c64a	18.09682
40	0x422a5a1b	42.587994
41	0x4187a895	16.957315
42	0x41619018	14.097679
43	0x416e2e8f	14.886367
44	0x4191ba17	18.215864
45	0x41621fef	14.132796
46	0x41513fd6	13.078085
47	0x40b995a4	5.7995167
48	0x42aa2399	85.06953
49	0x4137be72	11.483995
50	0x41129ce7	9.163306
51	0x4152f6bf	13.185241
52	0x4139c9c3	11.611758
53	0x4196c019	18.843798
54	0x41454e6d	12.331647
55	0x413a4977	11.642936
56	0x41742770	15.259628
57	0x4129c385	10.610234
58	0x413ca8e2	11.791231
59	0x41093832	8.57622
60	0x40a0013d	5.000151
61	0x41245b3a	10.272272
62	0x4100e37c	8.055538
63	0x41d8e7cb	27.11318

convs.0.bn2.running_var f4 [64]
0	0x4317d8a8	151.84631
1	0x42160e0f	37.51373
2	0x42ab9efe	85.81053
3	0x41fe8bbe	31.818233
4	0x448b834b	1116.1029
5	0x421ad09b	38.703716
6	0x42892550	68.572876
7	0x43b3440d	358.53165
8	0x4226271e	41.5382
9	0x4254f6c5	53.240986
10	0x4222b339	40.675022
11	0x438d7dce	282.98285
12	0x42858d01	66.7754
13	0x41bc5b31	23.544527
14	0x42a248ea	81.14241
15	0x3f0c04f7	0.54695076
16	0x41e43f43	28.53089
17	0x431540d1	149.25319
18	0x426b6bc7	58.85525
19	0x447c3723	1008.8615
20	0x426e4b5c	59.573593
21	0x42944357	74.13152
22	0x42377a5d	45.869495
23	0x425540d0	53.313293
24	0x41194e98	9.581688
25	0x42195588	38.333527
26	0x42d6c48d	107.38389
27	0x413e32d4	11.887409
28	0x419e694a	19.80141
29	0x41f008c2	30.004276
30	0x42869e1a	67.30879
31	0x43098d06	137.55087
32	0x4408a436	546.5658
33	0x41d2b812	26.339878
34	0x425368bc	52.85228
35	0x43eb1d9a	470.23126
36	0x424126f9	48.28806
37	0x427e8f60	63.640015
38	0x4109cf54	8.613117
39	0x42ae8c71	87.2743
40	0x44d524f5	1705.1549
41	0x423f887f	47.883297
42	0x43459520	197.58252
43	0x4294c620	74.38696
44	0x440f5b8b	573.43036
45	0x425ed4d4	55.70784
46	0x420a3927	34.555813
47	0x41aca7c0	21.58191
48	0x43886546	272.7912
49	0x424cc027	51.18765
50	0x42866aea	67.20882
51	0x42fd8d44	126.77591
52	0x42ecf037	118.46917
53	0x428e7bc2	71.241714
54	0x430dc5ba	141.77237
55	0x424b9531	50.895695
56	0x426dad71	59.419376
57	0x426f61b9	59.845432
58	0x43069ab4	134.60431
59	0x41d756d7	26.917402
60	0x42324970	44.571716
61	0x420398c7	32.899197
62	0x4238f2d2	46.23713
63	0x4371247c	241.14252

convs.1.fc_full.weight f4 [128, 169]
0	0xbff1a782	-1.8879244
1	0xbf9d0cf9	-1.2269584
2	0xbff4432a	-1.9082997
3	0x3e699e59	0.22814311
4	0x3dc3677c	0.095412225
5	0xbf213697	-0.6297392
6	0x3eedd5fc	0.4645232
7	0xbf262329	-0.648974
8	0xc04f5198	-3.239355
9	0x3f29b10d	0.66285783
10	0x3e313cd8	0.17308366
11	0xbf251304	-0.6448214
12	0xbe461aff	-0.19346236
13	0xc00df310	-2.2179604
14	0x3fa7d042	1.311043
15	0xbe883c4f	-0.26608512
16	0x3f9d3c5a	1.2284043
17	0xbfdb3d52	-1.7128088
18	0xbc84a70a	-0.016192932
19	0x3e3eb0f1	0.18622185
20	0x3c7fdd03	0.015616658
21	0xbf281a05	-0.656647
22	0xbe965d03	-0.29367837
23	0x3f8221ab	1.0166525
24	0xbf83b764	-1.0290341
25	0x3f861e33	1.0477966
26	0xbf04b4d4	-0.5183842
27	0xbed2d888	-0.41180825
28	0xbe7fd220	-0.249825
29	0x3fa57dbe	1.2928998
30	0x3fa2b602	1.2711794
31	0x3de667bc	0.112502545
32	0xbfe82e1e	-1.8139074
33	0xbf493ce5	-0.7860854
34	0xbfb5b436	-1.4195621
35	0xbfbe2b70	-1.4857006
36	0xbf4edfb9	-0.80810124
37	0x3f5a2577	0.85213417
38	0xbf933364	-1.1500058
39	0x3fbbda77	1.4676045
40	0x3e6270ec	0.22113389
41	0xbfbb6120	-1.4639015
42	0xbfcc08b5	-1.5940157
43	0x3f265d16	0.6498579
44	0x3dad816e	0.084719524
45	0x3f838f76	1.0278156
46	0xbf542a27	-0.8287682
47	0xbecefdad	-0.40427914
48	0x3f25f6d6	0.64829767
49	0x3becbe28	0.007224817
50	0xbefcb22e	-0.4935469
51	0x3f1f59e3	0.6224653
52	0x3fa2b979	1.2712852
53	0xbecf5d01	-0.40500644
54	0x3b716496	0.0036833636
55	0x3ea63a2e	0.32466263
56	0xbde2d901	-0.110765465
57	0xbf0eb1ae	-0.5573987
58	0xbf770e54	-0.9650624
59	0x3f81e1c2	1.0147021
60	0x3f0d783b	0.5526158
61	0x3e0fc35b	0.14039366
62	0x3e8f73a3	0.2801791
63	0xbfa5bcae	-1.2948205
64	0x3d8a5586	0.067545936
65	0x3c984d48	0.018591538
66	0xbff72562	-1.9308283
67	0x3f4ab7c3	0.7918665
68	0x3ef0aab0	0.47005224
69	0x3fa33cf4	1.2752976
70	0xbd9c9d0c	-0.07647142
71	0xbda2dd14	-0.079523236
72	0x3e1ad31a	0.15119591
73	0xbf1d410a	-0.61427367
74	0xc008a05b	-2.1347873
75	0xbe85e3f2	-0.2615047
76	0x3f1c37c2	0.6102258
77	0x3f8631cf	1.048395
78	0xbf7a93b1	-0.9788161
79	0x3f77dc0b	0.96820134
80	0x3f143316	0.5789045
81	0xbdf5529c	-0.11978647
82	0x3f123ec8	0.57127047
83	0xbf8b1c26	-1.0867965
84	0x3ee9c267	0.4565613
85	0x3d215c17	0.039394464
86	0xbed4e3d1	-0.4158006
87	0x3e989e13	0.298081
88	0x3f1da495	0.6157926
89	0xbf83d5c4	-1.0299611
90	0xbf81dc17	-1.0145291
91	0x3d625f7a	0.055266835
92	0x3f914e7f	1.135208
93	0x3e0a4b24	0.13505226
94	0xbf2551a2	-0.64577687
95	0xbfbc6565	-1.4718443
96	0xc001c9cb	-2.0279415
97	0x3fae61ef	1.3623637
98	0x3ee73ea1	0.4516497
99	0xbf04b287	-0.5183491
100	0x3fb060dc	1.3779559
101	0x3fb2f07a	1.3979638
102	0x3f2a5fd6	0.66552484
103	0x3fa7c971	1.310835
104	0xbe912ee5	-0.2835609
105	0x3f03263c	0.51230216
106	0x3fd1b096	1.6382015
107	0x3f610757	0.87901825
108	0x4007a12e	2.1192126
109	0x3fb5cc6a	1.4203007
110	0xbf8e1ca1	-1.1102487
111	0xbe16d28d	-0.14728756
112	0x3f349a55	0.7054799
113	0xbed63bbb	-0.41842446
114	0x3f69d513	0.9134075
115	0x3f17ebe1	0.593443
116	0x3fcf34b2	1.6187956
117	0x3ea955df	0.33073327
118	0xbde332a8	-0.11093646
119	0xbe80effd	-0.25183097
120	0x3dfeccb9	0.124413915
121	0x3faa5dd0	1.3309879
122	0x3f36b164	0.71364427
123	0xbffe5ac5	-1.9871451
124	0x3feba480	1.8409576
125	0xbeabcfdd	-0.33557025
126	0x3fbf1f13	1.4931358
127	0x3fa6b9f8	1.3025503
128	0xbd2f12a7	-0.042742398
129	0xbbce8262	-0.006302164
130	0xbe2c93e1	-0.16853286
131	0x3f6c7c75	0.92377406
132	0x3ffd7bfa	1.980346
133	0x400565b6	2.084333
134	0x406aabbb	3.6667316
135	0x40800394	4.000437
136	0x3ffab1b6	1.9585483
137	0x409f597a	4.9796724
138	0x4036e52f	2.8577383
139	0x404a0280	3.1564026
140	0x40421533	3.032544
141	0x3fedfee3	1.859341
142	0xc080afec	-4.021475
143	0xc0b709e6	-5.7199583
144	0xc0a05641	-5.010529
145	0xbbf28492	-0.0074010575
146	0xc0464251	-3.0977976
147	0xc0dd5ccf	-6.917579
148	0xc0072a0d	-2.1119416
149	0xbf5892d6	-0.84599054
150	0x40251bbc	2.5798178
151	0x40b060e0	5.5118256
152	0x40d71af6	6.722041
153	0x40afd041	5.4941716
154	0xc086b4ff	-4.2095942
155	0xc10bdb7d	-8.741086
156	0xc0eca7f3	-7.3955016
157	0xbf90986b	-1.1296514
158	0xbe490dd8	-0.19634187
159	0x3c5acba1	0.013354213
160	0x3e944c2b	0.28964362
161	0x3d6b122f	0.057390388
162	0x3d3c4c73	0.045971345
163	0xbc2aaeb0	-0.010417625
164	0xbd41a5f7	-0.047277417
165	0xbc529045	-0.012851779
166	0xbd14fe1e	-0.036375158
167	0xbd78201e	-0.060577504
168	0x3cc49b28	0.023999766
169	0xbfce814f	-1.6133212
170	0xbf317213	-0.6931469
171	0x3f71109c	0.9416597
172	0xbf992fc1	-1.1967698
173	0xbef76bbd	-0.48324385
174	0x3ea43101	0.32068637
175	0xbf45c685	-0.7725604
176	0x3e9cb11a	0.30603868
177	0xbfce8729	-1.6134998
178	0xbef5e7c6	-0.48028392
179	0xbe3eac9e	-0.18620536
180	0x3f06ff54	0.5273335
181	0xbf02409b	-0.5087983
182	0xc03e59fb	-2.974242
183	0x3e23c0c2	0.159915
184	0x3f403544	0.75081277
185	0xbff39330	-1.9029293
186	0xbfc19d5a	-1.5126145
187	0x3f9ac99e	1.2092779
188	0x3f5fbd09	0.8739782
189	0xbf595272	-0.84891427
190	0xbf43bf71	-0.7646399
191	0xbf20d6b3	-0.62827605
192	0xbd8fa052	-0.070130005
193	0xbec97dce	-0.39353794
194	0x3cbe7cd0	0.023252875
195	0xbf8ce42b	-1.1007131
196	0x3f1c6478	0.61090803
197	0xc013763b	-2.3040912
198	0x3f41432a	0.7549311
199	0x3eee08be	0.46491045
200	0xbda7e1b4	-0.08197346
201	0x3f1e3043	0.6179239
202	0xbf37db7e	-0.71819293
203	0xbeca9a14	-0.39570677
204	0xbfcfe057	-1.6240338
205	0xc0491bfd	-3.1423333
206	0x3e1eee81	0.1552067
207	0x3fe9eb4c	1.8274932
208	0xbfab7e14	-1.3397851
209	0x3d8e9e3a	0.06963773
210	0x3ddac5a0	0.10682225
211	0x3e035fb8	0.12829483
212	0xc00b4170	-2.175869
213	0xbe875675	-0.2643315
214	0x4017f82b	2.374522
215	0xbcaf2e74	-0.021384455
216	0xbf528391	-0.82232004
217	0xbfa5db77	-1.29576
218	0xc018900d	-2.3837922
219	0x3f33b076	0.70191133
220	0xbe4fb06a	-0.2028214
221	0x3ed77456	0.42080945
222	0xbf882a14	-1.0637841
223	0x4016b086	2.3545241
224	0x3d62dddb	0.05538736
225	0x3f0b4f70	0.54418087
226	0xbfda81da	-1.7070878
227	0x3fa17112	1.2612631
228	0x3f26ee73	0.65207595
229	0xbe99dd80	-0.30051804
230	0xbe5ba369	-0.21449055
231	0x3e434fde	0.19073436
232	0x3f691a28	0.91055536
233	0xbfd904f1	-1.6954633
234	0xbe392876	-0.18081841
235	0xbf1b0b2e	-0.60563934
236	0x3f63e3c5	0.89019424
237	0xbf3f5b2d	-0.747485
238	0x3e5135bd	0.20430656
239	0x3ebc960a	0.3683322
240	0xbf2ec840	-0.6827431
241	0xbcc524e5	-0.024065444
242	0x3f940688	1.1564493
243	0x3c2a9400	0.0104112625
244	0x3f2823e7	0.6567978
245	0xbfee9ead	-1.8642174
246	0xc022df71	-2.5448878
247	0xbebf781f	-0.37396333
248	0x3eff850e	0.499062
249	0xc0819e18	-4.0505486
250	0x3f9600a9	1.1718951
251	0x3f810e53	1.0082496
252	0x3efeb711	0.49749044
253	0xbf397270	-0.7244024
254	0xbebb482c	-0.365785
255	0x3f0eb651	0.5574694

convs.1.fc_full.bias f4 [128]
0	0x3d74b510	0.059742987
1	0xbd64770b	-0.05577759
2	0x3cd9ac5a	0.026571441
3	0xbc221cdc	-0.009894576
4	0x3d0ef645	0.03490283
5	0x3b98cd74	0.004663164
6	0xbcb18374	-0.021669127
7	0x3ce19ed2	0.027541552
8	0x3b7a31b6	0.0038176603
9	0xbc545831	-0.01296048
10	0x3d18c203	0.0372944
11	0x3dafd081	0.08584691
12	0x3d2f4014	0.04278572
13	0xbd17d9f0	-0.037073076
14	0xbd64a6aa	-0.055823006
15	0xbd5e5afa	-0.05428598
16	0xbd31e2d0	-0.043429196
17	0xbb797305	-0.0038062942
18	0x3d29ff6c	0.041503355
19	0x3a721c27	0.00092357624
20	0x3d846731	0.06464995
21	0xbd9ae54d	-0.07563267
22	0xbd42d36a	-0.0475649
23	0x3d9917b1	0.07475222
24	0xbd603475	-0.054737527
25	0x3d1f1ebb	0.038847666
26	0x3b6ddc3b	0.0036294598
27	0xbc21c6fd	-0.009874103
28	0x3d4baaff	0.04972362
29	0x3d63a78e	0.055579714
30	0xbd3176f8	-0.043326348
31	0x3c00d18d	0.007862461
32	0x3d89ef1e	0.06735061
33	0x3d61d689	0.055136237
34	0x3d0b05dc	0.033941135
35	0xbd466f1e	-0.048445813
36	0xbd621447	-0.05519512
37	0x3d8b1a98	0.06792182
38	0x3d0401ed	0.0322284
39	0xbc35a5cf	-0.011086895
40	0x3d96f821	0.073715456
41	0x3d762fed	0.0601043
42	0xbc85976c	-0.016307555
43	0x3cbae079	0.022812115
44	0x3db20fec	0.08694443
45	0x3d257ccf	0.04040223
46	0xbcfd7444	-0.030939229
47	0xbd98cf8e	-0.07461463
48	0x3cd1e279	0.025620686
49	0x3cda9670	0.026683062
50	0xbd977c4c	-0.073967546
51	0x3be6d92e	0.007044933
52	0xbd477f43	-0.04870535
53	0x3d0bc11e	0.034119718
54	0xbd33ef25	-0.043929238
55	0xbd6d3b60	-0.057917953
56	0x3d89268f	0.066968076
57	0x3d77528d	0.06038146
58	0xbd3d2bb1	-0.046184245
59	0xbd1247c9	-0.03571299
60	0x3d3929fe	0.045206062
61	0xbd51feb5	-0.0512683
62	0xbcc2ef83	-0.023795849
63	0xbd0b940f	-0.034076747
64	0x3c8c7c19	0.017149018
65	0xbc80ca37	-0.015721424
66	0x3ca85b8e	0.02055147
67	0xbd68bad7	-0.05681881
68	0x3d9854c5	0.074380435
69	0x3c3e6f77	0.011623255
70	0xbd2c5ebf	-0.042082544
71	0xbd578a6c	-0.052622244
72	0x3d3a0491	0.04541451
73	0xbd322d14	-0.04350002
74	0x3c3213b9	0.01086896
75	0x3c8f01c8	0.017456904
76	0xbd0eeaac	-0.03489177
77	0x3dc7ac5d	0.097496726
78	0xbce300fb	-0.027710428
79	0x3ca75ff5	0.020431498
80	0x3d24c749	0.040229116
81	0x3d15931e	0.036517255
82	0x3d5f7f42	0.054564722
83	0xbd29dfe1	-0.041473273
84	0x3bb3c844	0.00548652
85	0x3c53194f	0.012884452
86	0x3cd90fdd	0.026496822
87	0xbcd0447e	-0.025423285
88	0xbcf47ffd	-0.029846186
89	0xbd8c834a	-0.06860979
90	0x3d5b9e62	0.053617842
91	0x3cb13020	0.021629393
92	0xbd9e3f7f	-0.07726955
93	0xbcc31a4e	-0.023816254
94	0xbd03137c	-0.032001004
95	0xbd38b0cf	-0.045090493
96	0x3d3f3df6	0.04668995
97	0xbd189ae9	-0.03725711
98	0x3d1ede6b	0.038786333
99	0x3db149a8	0.08656627
100	0x3cfe4b63	0.031041807
101	0x3d05d12e	0.032670192
102	0xbd82ad79	-0.063807435
103	0xbd1e8678	-0.03870246
104	0x3b98d087	0.0046635303
105	0x3c678211	0.014130131
106	0x3d32ef24	0.043685094
107	0x3d1c74bf	0.038197275
108	0xbcde33a4	-0.027124234
109	0xbd9b20c6	-0.075746104
110	0x3cf9998d	0.030468727
111	0x3d4f8055	0.050659496
112	0xbd9c186e	-0.07621847
113	0xbd0e9c7e	-0.03481721
114	0xbd06bf42	-0.03289724
115	0x3d8a23c2	0.067451015
116	0xbd8b2802	-0.0679474
117	0x3b2733b0	0.0025512986
118	0xbcac4f72	-0.021033976
119	0xba929ae4	-0.0011185077
120	0x3af946c2	0.001901828
121	0xbcf2b199	-0.0296257
122	0xbc6c1e3a	-0.014411503
123	0x3cc65483	0.02421022
124	0x3c8cab2a	0.017171461
125	0x3c02aac9	0.007975289
126	0x3bfbb9a5	0.0076820427
127	0x3d9d695c	0.07686111

convs.1.bn1.weight f4 [128]
0	0x4099919f	4.799026
1	0x40c3ab8f	6.114692
2	0x40f1d3e5	7.557116
3	0x3fe1e40e	1.7647722
4	0x40d9baee	6.8040686
5	0x4097f20d	4.748297
6	0x40c6b130	6.2091293
7	0x40e7d34e	7.244544
8	0x40f6b323	7.7093673
9	0x401a782d	2.413585
10	0x40bd36ca	5.912938
11	0x40833cbe	4.101165
12	0x40782529	3.877268
13	0x409f1860	4.9717255
14	0x40f0195f	7.503097
15	0x4082c5d0	4.086647
16	0x40e11445	7.0337243
17	0x40e4135d	7.1273637
18	0x408e2fd9	4.443341
19	0x40ae80a5	5.4532037
20	0x402f2db0	2.7371635
21	0x402da78a	2.7133508
22	0x40b27bd7	5.577617
23	0x40e26f1d	7.0760636
24	0x40a5e1da	5.18382
25	0x408a1bdc	4.315901
26	0x409a067a	4.8132906
27	0x403b63a0	2.9279556
28	0x3f02aa65	0.5104125
29	0x404ec241	3.2306063
30	0x40deb45e	6.9595175
31	0x408a7dd3	4.3278594
32	0x410bf8e0	8.7482605
33	0x411732d9	9.449914
34	0x406b0d2f	3.6726797
35	0x40348fad	2.8212693
36	0x40e461c9	7.1369367
37	0x408105ec	4.031973
38	0x406408ae	3.5630298
39	0x40e5109a	7.1582766
40	0x40a01088	5.002018
41	0x4119eea5	9.620763
42	0x408d6a8a	4.4192553
43	0x410e391f	8.888946
44	0x407d40cf	3.9570806
45	0x40b48b59	5.64201
46	0x406a7074	3.6631136
47	0x4114fd6d	9.311872
48	0x408933e0	4.2875824
49	0x3f7b084a	0.98059523
50	0x3fec7781	1.847397
51	0x409d6357	4.9183764
52	0x411af7db	9.685512
53	0x3fb8ada0	1.4427986
54	0x40172cdc	2.362113
55	0x40015565	2.020837
56	0x407e4d05	3.973451
57	0x40fa21eb	7.8166404
58	0x40bb8d7f	5.8610225
59	0x40f11f8f	7.5351024
60	0x40e30dc1	7.095429
61	0x3fcd7e28	1.6054125
62	0x41137c6c	9.217876
63	0x4118d1d6	9.5512295
64	0x40800fb5	4.0019174
65	0x4029e8a2	2.6548238
66	0x3fb9304b	1.4467863
67	0x40088ff0	2.1337852
68	0x40264cdd	2.5984414
69	0x3ecb7ceb	0.39743742
70	0x3fc3f751	1.530985
71	0x3f7b4575	0.9815286
72	0x3fab0eaa	1.336385
73	0x3fa74660	1.3068352
74	0x40776699	3.865637
75	0x3fe7a7f3	1.8098129
76	0x402af68b	2.6712978
77	0x3f8f2d85	1.1185766
78	0x3f4c8e85	0.7990497
79	0x3f47fd2a	0.7812067
80	0x3f8fe98f	1.1243151
81	0x3f2400ae	0.6406354
82	0x3fadb58f	1.3571032
83	0x3f983589	1.1891338
84	0x3fa1f261	1.2652093
85	0x3f04f85b	0.5194146
86	0x401f219f	2.486427
87	0x3fba4109	1.4551097
88	0x3f9b1a3f	1.2117385
89	0x3fcbc75e	1.5920217
90	0x40403e56	3.0038047
91	0x3fea455f	1.830242
92	0x3f364120	0.7119312
93	0x3feb9f0a	1.840791
94	0x404bbf2c	3.1835432
95	0x3ffc4b23	1.971043
96	0x3fa931ea	1.3218358
97	0x3fc0efb8	1.5073156
98	0x3fa03d1d	1.251865
99	0x3fcd09c4	1.6018605
100	0x3fdc7aeb	1.7225012
101	0x3f13c2f5	0.57719356
102	0x3fcbe7b2	1.5930083
103	0x3f72e91d	0.9488695
104	0x3fbf9746	1.496804
105	0x3f7dd33a	0.9915043
106	0x3fc5ce10	1.545351
107	0x4009269b	2.1429813
108	0x403b4e23	2.926644
109	0x404f0cd5	3.2351582
110	0x407d8db8	3.9617748
111	0x3ff82092	1.938494
112	0x404f94e2	3.243462
113	0x40212d3d	2.5183861
114	0x3fe7e801	1.8117677
115	0x3f3327a6	0.69982374
116	0x3f2ede68	0.68308115
117	0x3fe38831	1.7775937
118	0x40157800	2.3354492
119	0x401266b0	2.2875175
120	0x3f840f1b	1.031711
121	0x40576f7a	3.366179
122	0x3f832604	1.0245976
123	0x3fa6263b	1.2980417
124	0x406df5a9	3.718119
125	0x405ec00e	3.480472
126	0x3f7c5b34	0.98576665
127	0x3f884bcb	1.064813
