results/Prediction/2023-06-14/23:08:50.583382/models/model235.pth (torch, 340949 bytes, 34 tensors)

embedding.weight f4 [64, 92]
000000 6a 74 58 3e 0d 8d 3d bf 03 f7 7c 3e 02 51 26 3d
       0.21138158 -0.7404335 0.24703602 0.0406046
000010 1a cd 71 3f e3 ba 65 40 64 54 54 3f fc 39 59 3f
       0.94453585 3.5895317 0.8294127 0.848541
000020 ea 50 9b bf 73 6d 89 bf f5 75 f8 bf ea a2 7e be
       -1.2134068 -1.0736526 -1.9410998 -0.24866834
000030 dc 31 ae bf dd 46 80 bc 1a 15 72 bf 95 8d 49 bf
       -1.3608966 -0.01565879 -0.9456345 -0.7873166
000040 2a 30 75 be 28 e5 35 bf 4b d2 e9 bf ab d6 8e 3d
       -0.23944154 -0.7105279 -1.8267301 0.069745384
000050 15 73 82 3d 10 c2 e6 3e 0d cc 57 3e e1 59 05 3f
       0.063696064 0.45069933 0.21073933 0.5209027
000060 7e 9e dc bf f2 54 1c c0 f0 44 85 3e 04 74 00 3e
       -1.7235868 -2.4426847 0.26029158 0.12544256
000070 68 95 f0 3d d8 5f f9 be e9 51 2b 3f 9e 40 cc bf
       0.11747247 -0.48705935 0.6692186 -1.595722
000080 8a 48 90 bf 81 0a d8 be d2 ae dc bd ed 34 14 bf
       -1.1272137 -0.42195514 -0.10775532 -0.5789326
000090 dc 4d d7 3d 40 12 8b be dc 77 a1 be b3 be 30 3f
       0.10512897 -0.2716236 -0.31536758 0.69040984
0000a0 76 1c 2c 3f 61 26 1a c0 93 ca c0 3e 38 be 18 bf
       0.6723093 -2.4085925 0.37654552 -0.5966525
0000b0 6b 05 bf be b3 fd 67 3f 49 83 35 bf de 0f ef 3e
       -0.3730882 0.9062149 -0.7090345 0.46691793
0000c0 3c b4 8a be fc 16 9f 3d 73 49 a9 3f fb 2d a5 3b
       -0.27090633 0.07768056 1.322554 0.0050408817
0000d0 de 5e b3 3e bb 25 b6 bf 06 74 85 bf 59 f8 fd bf
       0.35033315 -1.4230264 -1.0426033 -1.9841415
0000e0 68 0b 7a be 9d 64 a0 bf 8e fe ad 3e d0 80 cf 3e
       -0.24418414 -1.2530705 0.33983272 0.40527964
0000f0 05 48 a3 be 02 3d c5 3c 60 42 91 bf ca 86 dd be
       -0.31890884 0.024076942 -1.1348381 -0.43266898
000100 93 6e 32 be 10 6c 07 bf a5 b4 44 3d 17 ba 52 3d
       -0.17424993 -0.52899265 0.04802384 0.051447
000110 07 bb a0 3f b3 bc 68 bd 86 48 da be 63 f8 f0 bc
       1.2557076 -0.056820583 -0.42633456 -0.029415315
000120 56 96 d9 be 15 d7 b6 be f0 a4 50 3c cb 87 3f bf
       -0.4249751 -0.3571097 0.012734637 -0.7481658
000130 a5 29 fe bc 65 5b 11 bf aa 56 ed be 64 13 c7 bf
       -0.031025717 -0.5678008 -0.46355182 -1.5552793
000140 24 5c 71 3f 0a 6b af 3e 40 95 aa 3e b6 22 ed bf
       0.9428122 0.34261352 0.33316994 -1.8526218
000150 c7 e2 dd 3f 06 6a 43 bf f8 da 03 3e f4 f0 05 bf
       1.7334832 -0.76333654 0.12876499 -0.5232079
000160 11 e5 d7 bf ed a2 65 be 65 b9 5b be f6 54 a5 3e
       -1.686678 -0.22425433 -0.21457441 0.32291383
000170 2f bc 0b bf 92 24 13 bf 11 35 6d 3f c6 2c 23 bf
       -0.5458402 -0.57477677 0.926591 -0.63740194
000180 f0 2b 7f 3d 80 ce 12 bf 19 75 32 c0 22 4e 0d c0
       0.06229776 -0.57346344 -2.788397 -2.2078938
000190 92 99 30 3f 3e 42 aa bf 87 56 29 3f 8e e0 f2 be
       0.6898433 -1.3301466 0.66147655 -0.47436947
0001a0 86 02 62 3f 65 fe c1 3e 68 95 36 be 92 e7 19 3e
       0.882851 0.378894 -0.17830431 0.15029743
0001b0 2f 2b 05 3e dc bc f7 3e ab c3 64 c0 63 13 74 be
       0.13004754 0.48386276 -3.5744426 -0.2383552
0001c0 8f ac 70 bf 52 1b be 3d 49 17 ae 3d 5a 85 a6 bf
       -0.94013304 0.09282555 0.08500535 -1.3009446
0001d0 4a de b7 3f 0a 87 8c bf 08 00 38 3f 9d 40 17 bf
       1.4364712 -1.0978711 0.7187505 -0.5908297
0001e0 9f 89 5d bf 77 72 a4 3e b6 b0 77 be 18 d5 83 be
       -0.8653812 0.3211858 -0.24188504 -0.25748515
0001f0 28 36 f7 3f ca a6 7c 3f 86 21 85 bd 18 c6 d7 bf
       1.9313402 0.98692 -0.06500535 -1.6857328
000200 02 86 80 be ae 60 20 bf ea af a2 bd 54 21 02 bf
       -0.2510224 -0.6264752 -0.07943709 -0.50832105
000210 cb 87 9d 3e ce 43 e8 3e fa 8c af bf 22 5a 4e 3f
       0.30767664 0.4536423 -1.3714898 0.8060628
000220 38 fe 78 3f 46 47 4b 3e 59 b5 c3 be 08 9a 62 3e
       0.9726291 0.19851407 -0.38224295 0.22129071
000230 94 72 b7 3d d7 c3 93 be 8f 3b 0f bf f2 03 89 be
       0.08957401 -0.2886035 -0.55950254 -0.26760823
000240 d2 d8 af bd b0 b8 12 3e 67 d0 b4 bf 94 1b 48 bf
       -0.08586277 0.14328265 -1.4126099 -0.7816708
000250 2c 0d f3 be c1 1f ad 3f dd c4 45 3f 4c dc be bb
       -0.47470987 1.3525316 0.77253515 -0.0058246013
000260 c5 8e 2d c0 9e d5 1e 3f b6 11 ef 3f 72 c9 07 bf
       -2.711839 0.62044704 1.867728 -0.53041756
000270 72 ea 10 3d 78 ae e6 bf d0 fb fa bc 93 52 04 3c
       0.035379834 -1.8021994 -0.030637652 0.008076328
000280 10 ff 70 be 48 ec f4 3b 28 03 d4 3c 1f 6d 51 bd
       -0.23534799 0.007474456 0.025880411 -0.051129457
000290 a6 c2 0b 3f 69 ba 53 bf ba 6b 98 bf dc af 44 3f
       0.54593885 -0.82706314 -1.1907876 0.7683084
0002a0 af 8c 6a bd 41 67 03 3f 1c 08 65 3e 43 1c dc 3e
       -0.057263073 0.5132943 0.22366375 0.42990312
0002b0 da d3 e0 bf 1f 7a 22 bf 14 01 33 be 55 cc 18 bf
       -1.7564652 -0.6346759 -0.1748088 -0.59686786
0002c0 e5 82 81 bf 11 fd 30 c0 42 4d e7 3e 75 91 a2 3d
       -1.0118071 -2.765446 0.4517613 0.079379
0002d0 31 86 79 3f 3b 18 63 3f 38 08 3f 3e b4 dd 61 3f
       0.97470385 0.8870885 0.18655479 0.8822892
0002e0 1e 89 28 bf 65 72 55 be a3 8c 8d bf 01 95 a9 bf
       -0.65834224 -0.2084442 -1.1058544 -1.3248597
0002f0 93 ab 7c be d0 ae 07 40 a5 d1 1a 40 40 05 1e c0
       -0.24674825 2.1200447 2.4190457 -2.4690704
000300 22 d3 f8 bf 0e 52 15 c0 90 08 ee 3f 55 20 1d 3f
       -1.9439433 -2.3331332 1.8596363 0.6137746
000310 99 f8 7c bf a4 9a 49 3f e9 0e 62 bf 5d c8 da bf
       -0.9881683 0.7875159 -0.88304 -1.7092396
000320 53 2c f8 3d 2b 58 4c 3f 55 ed 47 40 e8 cf d0 be
       0.12117829 0.79822034 3.1238606 -0.4078362
000330 c2 6a 83 bf ce 91 8d 3b a3 ce cb bf 02 4b c4 be
       -1.0266955 0.00432036 -1.5922436 -0.38338476
000340 1a 44 9e 3f 75 42 94 3f a7 3b 11 3d fb fb 79 bf
       1.2364533 1.1582781 0.03545728 -0.97650117
000350 15 d1 48 3a 74 d1 8d be 58 05 08 be cd 4b 40 bf
       0.000766055 -0.27698863 -0.13283288 -0.7511566
000360 a3 c2 a0 3e ad 23 01 3f dc f0 14 bf 5a 24 8d 3d
       0.31398496 0.5044506 -0.5818002 0.06891699
000370 90 87 cc be 2b f1 35 bf 45 92 3a 3d 95 0f c0 3e
       -0.39947176 -0.7107112 0.04554965 0.37511888
000380 c6 60 c6 be c5 dd 12 bf 04 3b 0f bf 01 0f 81 3f
       -0.38745707 -0.57369643 -0.55949426 1.0082704
000390 a9 6f 20 3f f8 1d ac be 98 e9 b5 be f9 7d ae bf
       0.6267038 -0.33616614 -0.3552978 -1.3632194
0003a0 26 c5 2f 3e 9b d2 49 bf df f6 50 bf 79 9d fc 3e
       0.1716505 -0.78836983 -0.81626695 0.49338892
0003b0 8e ce ad 3e 8e 3a d7 bf a7 92 1a c0 79 99 03 3f
       0.3394665 -1.6814744 -2.415201 0.51406056
0003c0 f8 fb 33 3f 5f 59 18 3c 50 39 85 3d b3 5f e8 3e
       0.7030635 0.0092986515 0.06505072 0.45385513
0003d0 0b 30 93 be b6 98 6e bf 6d 22 0c bc 62 56 8d 3e
       -0.2874759 -0.9320177 -0.00855313 0.27604967
0003e0 26 9a d0 be 14 40 ce bc 0d 83 ae 3d 23 cf d5 3b
       -0.40742606 -0.02517704 0.0852109 0.0065249368
0003f0 62 81 bb bf cf 8b c5 bc 40 b2 bb bf 78 61 f5 3c
       -1.464886 -0.024114517 -1.4663773 0.029953703

convs.0.fc_full.weight f4 [128, 169]
000000 b0 ec 0c c0 7c db 54 3f 41 78 96 bf aa b9 cc bf
       -2.2019463 0.83147407 -1.1755449 -1.599416
000010 a0 eb 45 3d 32 d9 8e 3f f5 65 57 3f 7b 1a b9 bf
       0.048320413 1.1160033 0.8413995 -1.4461206
000020 d8 5c 62 3d 97 c5 b7 bf 4e 56 6b 3f f2 ee b3 3e
       0.055264324 -1.4357175 0.91928566 0.35143238
000030 f4 45 b8 bf cd db 43 bf 32 ae b6 3e 8f 8e 3d 3f
       -1.4396348 -0.76507264 0.35679775 0.7404565
000040 78 1e 73 bf a3 7a 9e bd 07 3c 36 3f fe 87 f8 bf
       -0.94968367 -0.07738235 0.71185344 -1.9416502
000050 c2 b7 1f 40 5a 32 05 c0 92 b9 3b 3f 6d fc b5 3e
       2.4955907 -2.0811982 0.7333003 0.35544148
000060 85 ef 59 bf f1 d8 6d be be 34 34 bf 18 91 b2 3e
       -0.851311 -0.23227288 -0.7039298 0.34876323
000070 17 c7 7d be 90 62 39 bf 32 4a b6 bf 52 82 40 be
       -0.24782978 -0.7241602 -1.4241393 -0.18799713
000080 c3 9e b9 be 32 a9 92 be bd b4 5d 3f e1 e7 c2 be
       -0.36253938 -0.2864471 0.8660391 -0.38067535
000090 bb 5e 33 bf a8 37 98 3c 9c e9 e7 be 37 9e 2d 3e
       -0.7006642 0.018581226 -0.45295417 0.16954885
0000a0 1a 22 77 3d a4 24 09 bf ad 5b 5a bf f7 b9 67 bf
       0.060335256 -0.53571534 -0.85296136 -0.90518135
0000b0 72 b6 24 3e ae 85 07 c0 69 0b ee 3e 95 9a 13 3e
       0.16085222 -2.1175342 0.4649308 0.14414437
0000c0 62 94 97 3f ea 72 c4 3f 1a 62 9a be 45 88 0d 40
       1.1842158 1.5347569 -0.3015297 2.2114422
0000d0 76 49 e5 3f 2b 74 0c c0 61 2b 4a 3f 21 bd cf bf
       1.7913043 -2.1945903 0.7897244 -1.6229593
0000e0 a8 74 93 3d 02 ab 04 bf c1 25 8d be f8 91 3d c0
       0.07199985 -0.5182344 -0.27567866 -2.9620342
0000f0 09 82 fb bf 0c c2 8b 3f 3c a8 c8 be 8a d4 2c bf
       -1.9649059 1.0918593 -0.39190853 -0.6751181
000100 49 85 e7 3e 66 50 92 3e 96 b4 65 be 71 6e fe 3d
       0.45218876 0.28576964 -0.2243217 0.12423409
000110 d8 05 87 bf cf 90 3f 3d b9 65 27 bf 59 26 14 3d
       -1.0548658 0.04676896 -0.6538959 0.036169384
000120 e9 22 90 3e 9b ae 75 3e e3 92 3d bf ad 4d 3f 3f
       0.28151634 0.23992388 -0.74052256 0.747279
000130 45 c9 08 bf 92 9e 2e 3f 50 a3 95 bf 93 c5 c4 be
       -0.5343211 0.6821071 -1.1690464 -0.38431987
000140 cd 61 d9 bd fb c7 19 bf 1a 39 f6 3d 7c cf ea 3e
       -0.10614357 -0.6007077 0.1202261 0.45861423
000150 13 17 32 bf d2 4c 0f 3e 4a c7 37 bf 26 e6 70 3e
       -0.6956646 0.13994148 -0.71788466 0.23525295
000160 2a 8b 22 3c d3 f0 ab bf 04 d6 7a 3e 82 4e ca 3d
       0.009920875 -1.3432869 0.24495703 0.098782554
000170 5a c5 c5 3e 7c 85 6a 3f 16 42 56 3e 34 dc 80 bd
       0.3862713 0.9160993 0.20923647 -0.062920004
000180 de 1a df 3e 84 24 0d 3f 2d c5 8b 3e ee ce d4 be
       0.43575186 0.55133843 0.2729887 -0.41564125
000190 9b 08 90 be 9f ec a3 3e ac 83 2e bd ef 1d 3e 3f
       -0.28131565 0.32016465 -0.04260604 0.74264425
0001a0 90 af fd 3d 09 e2 ba be 33 d0 63 bb 7d 47 b7 be
       0.123870015 -0.36500576 -0.0034761548 -0.3579673
0001b0 48 fc 28 3e dc a3 a6 3f 90 c6 94 be a6 47 6d 3d
       0.16502488 1.3018756 -0.2905774 0.057929657
0001c0 c6 3f bb be c2 5c 8f 3d 08 db 40 3e 25 a0 15 be
       -0.36572093 0.07000114 0.18833554 -0.14611872
0001d0 f7 10 dd bc a3 be d3 3e 15 91 75 3e bd ed c8 3c
       -0.026985629 0.41356382 0.23981126 0.024527425
0001e0 31 15 04 3f 50 9c f4 3e 30 14 71 3f 9d c2 0f be
       0.51594836 0.47775507 0.9417143 -0.14039083
0001f0 77 fa 1e 3f ae a3 7b bf 7d 87 96 3e bf 7c 17 3d
       0.6210093 -0.9829663 0.29400244 0.0369842
000200 20 71 42 3d 17 92 a2 3b 50 12 84 bd e5 89 90 be
       0.047471166 0.004961263 -0.06448805 -0.28230205
000210 dd 62 85 be 06 91 dc 3e bd f0 0f 3f 20 ef 69 3d
       -0.2605199 0.43079394 0.5622671 0.057112813
000220 70 55 49 be 85 ca 1b 3e 1c 70 89 3f d1 05 9e 3f
       -0.19661498 0.15213974 1.0737338 1.2345525
000230 86 9f 19 3f 30 5d aa 3f f9 5f 12 bf 2a ab b1 bf
       0.6000904 1.3309689 -0.5717769 -1.388036
000240 28 fd 1a bf 32 b6 21 3e e2 84 8f 3e c3 de ac bd
       -0.60542536 0.15792158 0.2803107 -0.08440926
000250 1f be e5 bc f2 de 76 3e c2 ef 28 3f 4d 45 77 3e
       -0.028044758 0.24108484 0.6599084 0.2414753
000260 61 4e 5a bd 76 c1 28 be 52 67 3c be bb 75 41 be
       -0.053297404 -0.1648005 -0.18398789 -0.18892567
000270 f4 69 47 be 9e 98 75 be ed 3b 9c be 0c da ab be
       -0.19474012 -0.23984 -0.3051447 -0.33564794
000280 22 72 2b be 58 40 01 3e 5f 74 7f 3d 6f 33 04 3d
       -0.16742757 0.12622201 0.06236684 0.032275613
000290 7d e2 04 3d bd 73 9b 3d 7e dc 2e bd 65 e4 08 bd
       0.03244256 0.07590435 -0.042690746 -0.03342094
0002a0 63 2d 57 3d 7e 5e 95 bf 26 ce c9 bf dc fc 9e 3f
       0.05253352 -1.1669462 -1.5766037 1.2420917
0002b0 f0 08 9c be a8 8c e4 3f 84 87 66 bf d1 45 07 3f
       -0.3047557 1.7855425 -0.9005053 0.52840906
0002c0 d0 0f 1f c0 31 f9 50 3f 26 15 20 3d 83 f3 45 3e
       -2.48534 0.81630236 0.03908267 0.19331174
0002d0 48 0c 1f 3f 6f 4f 07 bf 81 f2 79 be 86 f1 59 3f
       0.62128115 -0.5285558 -0.24408914 0.8513416
0002e0 10 e9 97 3f 34 12 0d c0 2a 67 cb 3e f0 e4 76 be
       1.1868 -2.204236 0.39727145 -0.2411077
0002f0 01 ba 8b 3d 1c 66 0a bf bd 06 23 bf d2 2d ad 3f
       0.06822587 -0.54062057 -0.63682157 1.3529608
000300 fa 30 89 bf 6a bd f1 3e 7a 26 34 40 62 75 4b bf
       -1.0718071 0.47214824 2.8148484 -0.79475987
000310 bb 9f 4a 3d d9 1f 3c 3e b7 27 8f 3e 62 71 05 c0
       0.049468737 0.18371524 0.27959988 -2.0850453
000320 29 c6 62 be d5 ee f0 3f 13 58 0f c0 6a eb ec 3f
       -0.22145905 1.8822886 -2.2397506 1.8509343
000330 00 ad a5 3f b5 e2 cf 3f d1 c5 0f c0 b4 ad 8f 3f
       1.294342 1.624106 -2.2464488 1.1224885
000340 ec ec 6d bf 3e 42 ee 3e ae 7e 48 3e 76 7c 01 c0
       -0.9293964 0.46534914 0.19579574 -2.0232215
000350 6d 2f 96 3f 63 10 da bf e3 f5 88 bf 89 75 e0 3e
       1.1733223 -1.7036251 -1.0700039 0.43839672
000360 24 11 82 3f 63 03 6b 3f 36 a5 1f 3e 59 a8 0e bf
       1.0161481 0.9180204 0.15590367 -0.5572563
000370 90 55 cb 3f 68 f3 fe bd a2 54 9a be 4b 23 5a bf
       1.5885487 -0.1244877 -0.30142695 -0.852101
000380 94 1e 1f 3d f0 07 23 3e 23 77 00 c0 12 1c f1 bf
       0.03884752 0.15920997 -2.0072715 -1.8836691
000390 c3 76 88 bf 19 b2 73 c0 c5 0e 4a 3f 2b 9d f3 bf
       -1.0661243 -3.8077452 0.78928787 -1.9032339
0003a0 94 21 86 3f 43 df 7d bf df f0 60 be 22 fe 71 3f
       1.0478997 -0.99168795 -0.21966885 0.945284
0003b0 a4 01 85 3e 16 d6 a5 bf 29 21 a3 3e 55 09 a3 be
       0.25977814 -1.2955959 0.31861237 -0.31843057
0003c0 b4 66 69 3f 0e 28 ad 3f 73 09 55 be 70 6a 57 be
       0.9117234 1.3527849 -0.20804386 -0.21036696
0003d0 61 ad 0d 3f 76 bf 9f 3f fb 64 cb bf 83 9e 01 c0
       0.5534268 1.2480304 -1.5890192 -2.0252998
0003e0 3f f5 c4 bf fd 42 9c 3d 30 42 fc 3f ef 86 e7 3d
       -1.5387343 0.076299645 1.9707699 0.113050334
0003f0 2a c7 ce 3e d1 0a bb be 36 5f 46 bf 53 3f 26 bf
       0.40386325 -0.3653169 -0.7748903 -0.64940375

convs.0.fc_full.bias f4 [128]
000000 89 eb 6a 3d 45 d5 05 3d e1 a6 8d bd db 23 9a 3d
       0.05735353 0.032674093 -0.06916595 0.0752637
000010 65 57 20 3d 68 2f 33 bd 9f d2 c1 3c ae 97 9c bc
       0.039145846 -0.043746382 0.023660002 -0.019115295
000020 db 1b 71 bc c5 e2 9c 3b 50 46 2a bd 9b 06 78 3b
       -0.014716114 0.004787775 -0.04157096 0.0037845734
000030 ea e0 13 bd 8c 08 59 3d ff 08 46 bd 0f cb 9b 3d
       -0.036103167 0.052986667 -0.048348423 0.0760709
000040 29 5b 94 bd b3 7c 52 3d 81 1c 8d 3d 6e f1 b3 3b
       -0.0724395 0.051388454 0.06890202 0.005491427
000050 0d b8 4c 3b 5c a2 a6 3c 71 18 39 3d 1c e9 91 3d
       0.0031237633 0.02034109 0.045189325 0.0712454
000060 2d fb ef 3d 4b c1 44 3b d7 53 ca bd 4a d3 24 3c
       0.1171783 0.0030022438 -0.098792724 0.010060141
000070 0e d8 9f 3c 36 47 9a bd 55 66 c1 3c 3e 7a 8a bd
       0.019512203 -0.07533114 0.023608366 -0.06761597
000080 9a 88 9e 3d 18 27 35 bc 9f 17 d7 bc 76 c3 d1 bc
       0.077408984 -0.011056684 -0.02625638 -0.025605898
000090 42 5d bc 3d 51 92 12 3c 4e e4 92 bd ba ca 31 3a
       0.09197475 0.008946017 -0.07172452 0.0006782223
0000a0 4f 3d 41 bc 4e ab 44 3d b4 43 cc bc 51 6c bf 3d
       -0.011794402 0.04801493 -0.024934627 0.093468316
0000b0 e4 5f d8 3d bd 20 82 bc e5 9d b0 bd 6d 9d b6 bd
       0.10565165 -0.015884751 -0.08623866 -0.08916745
0000c0 9b be e2 bb ef 4e f1 3b 37 28 84 3b 28 8e 0f 3d
       -0.0069196946 0.007364146 0.0040331143 0.03504768
0000d0 4c 72 01 bd 0c 17 bf 3c de 89 2d bd 27 c9 07 bd
       -0.031603143 0.02332642 -0.04236781 -0.03315082
0000e0 15 fb dc bc 84 f4 35 bc 5f 3c 42 bd e8 2b 74 bd
       -0.026975194 -0.01110566 -0.047420856 -0.059612185
0000f0 b5 84 fd 3c a5 68 36 3d 79 24 fc bc fc e7 ee 3c
       0.030947069 0.04453339 -0.03077911 0.029163353
000100 bd 9d 5c bd 16 2f 41 3d 36 41 3d 3b e4 58 72 3c
       -0.05386137 0.047164045 0.002887798 0.014791701
000110 bd a1 dc 3c f4 82 8c 3d 2e e3 93 3c c4 31 81 3d
       0.026932592 0.06860915 0.018052664 0.0630832
000120 ad 3e 76 3d 1f 40 7a 3d b9 91 1c bc 88 90 59 bd
       0.060118366 0.061096307 -0.009556227 -0.05311635
000130 ce e8 9e bc 37 c0 36 3d 9c ff e8 b9 32 62 ba bd
       -0.01939812 0.044616904 -0.00044440932 -0.091007605
000140 66 fc c9 3d f0 52 7e bd 12 b8 1e 3d f7 82 8f bd
       0.09862594 -0.062090814 0.038749762 -0.070074014
000150 5c e4 6f bc 5e a0 9d 3b 27 bb 35 bd 76 2c fa 3c
       -0.014641847 0.004810377 -0.044367936 0.030538779
000160 32 07 21 bd b6 fe e9 bc 7e 1f 56 ba c8 51 43 3c
       -0.039313503 -0.028563838 -0.0008168145 0.011921354
000170 b4 ec 9d 3d 89 4f 7e bd 66 65 35 bd aa b2 80 bc
       0.07711163 -0.06208757 -0.044286154 -0.015710194
000180 4d 38 81 3d 7d 17 61 3b 17 f3 38 3d 5e 53 e6 bc
       0.06309567 0.0034346275 0.045153704 -0.028115924
000190 d5 05 43 3d 64 3d 02 bd ca 09 ec 3c b0 bc 13 3d
       0.047612984 -0.031796828 0.028813262 0.03606862
0001a0 47 03 a7 bd be 5d 33 3d e9 08 f7 3c 17 0f 69 3b
       -0.08154922 0.04379057 0.030155616 0.0035561973
0001b0 b2 e7 60 bd 70 75 79 bd ea 1f 4b bd 01 d1 0b bd
       -0.054908462 -0.060903013 -0.049590982 -0.03413487
0001c0 2e 8a f0 3c e4 16 83 3d 4c 21 91 3d 13 69 47 3d
       0.029362764 0.064008504 0.07086429 0.04868419
0001d0 ae c8 e0 3c c5 d2 46 3d 19 43 91 bb 9d cf 6c 3d
       0.027439442 0.04854085 -0.0044330475 0.057815183
0001e0 cd e2 83 3a 06 8a 11 bc 45 60 b4 3d 37 7a 17 3d
       0.0010062099 -0.008883005 0.088074245 0.036981788
0001f0 fb f2 ba bd 9a 1b 4e bd c2 61 a9 bd 1d 8b cb bd
       -0.09128376 -0.05031929 -0.08270599 -0.09938643

convs.0.bn1.weight f4 [128]
000000 b0 67 a7 40 bf c4 50 40 c7 7c b5 40 ef ff 43 40
       5.231407 3.2620084 5.6714816 3.062496
000010 1d df c7 40 71 96 93 40 c5 31 89 40 6a 43 6c 40
       6.2459855 4.6121144 4.2873254 3.6916146
000020 87 06 ab 40 e3 49 35 40 1f 6c 51 40 c4 d2 d1 40
       5.344547 2.8326347 3.2722242 6.556978
000030 73 4a 86 40 70 7f 34 40 09 2e 9c 40 f8 10 a1 40
       4.196588 2.8202782 4.8806195 5.0333214
000040 62 0a 7c 40 e8 88 52 3f e6 05 98 40 2e e2 99 3f
       3.9381337 0.8224015 4.75072 1.202215
000050 d1 5b 95 40 14 e0 d8 40 54 3b 09 40 46 8c 9a 40
       4.667458 6.7773533 2.144246 4.829623
000060 73 cf 8b 40 0a df 30 40 ac 08 8a 40 ab 12 65 40
       4.3690734 2.7636132 4.3135586 3.5792644
000070 b6 c1 69 40 72 ca 62 40 99 2f 0e 40 00 cc d3 40
       3.6524482 3.5436063 2.2216551 6.6186523
000080 5e 71 0b 40 1a c3 4e 40 bf 8b 86 40 a8 f6 45 40
       2.1787944 3.230658 4.204559 3.0931797
000090 1a db ab 40 76 25 6d 40 5c 2e 1b 40 fe c3 b9 40
       5.370496 3.7054114 2.4247046 5.805175
0000a0 3b 7d ee 40 8f 01 92 40 54 a9 6b 40 ac ba bd 40
       7.452787 4.5626903 3.68221 5.929037
0000b0 29 a3 3e 40 8e 0f c5 40 1c de 60 3f 15 23 87 40
       2.9787085 6.158149 0.8783891 4.2230325
0000c0 67 d5 41 40 06 92 bd 40 7f a4 b4 40 2e 92 99 40
       3.02865 5.924075 5.64508 4.799094
0000d0 b2 39 2e 40 6e c4 2e 40 36 e5 66 40 39 b3 63 40
       2.7222714 2.730739 3.60774 3.557814
0000e0 76 b8 83 40 96 b8 ba 40 d3 81 41 3f 8b 35 6a 40
       4.116267 5.8350325 0.7558872 3.659518
0000f0 ba f4 7d 40 41 a9 a6 40 eb 50 da 40 89 ae d2 40
       3.968062 5.208161 6.8223777 6.5838056
000100 70 68 16 40 e4 a8 3b 40 09 21 04 40 51 7a 26 40
       2.3501244 2.9321833 2.0645163 2.6012156
000110 a0 d5 fa be 9e 2b 80 3f 07 18 85 3f 29 3b ab 40
       -0.48991108 1.0013311 1.0397958 5.3509717
000120 67 17 c6 3f aa 02 96 3f e1 66 66 3f 74 f0 9c 40
       1.5475892 1.1719563 0.9000073 4.904352
000130 e4 72 7e 3f 3f b1 b4 3f be f6 92 3f a5 3e b2 3f
       0.9939406 1.4116591 1.148155 1.3925368
000140 2f 46 19 3f fe cf e2 40 df 76 1c 3f 97 8d 9d 40
       0.59872717 7.0878897 0.6111888 4.923534
000150 52 94 ef 3f 3d 08 ba 3f 6b a3 e5 3e 8b d3 c2 3e
       1.8717139 1.4533764 0.4485124 0.3805202
000160 a1 ac e4 3f be cf 36 3f f8 a7 1a 40 73 a3 c6 3f
       1.7865182 0.7141074 2.416502 1.5518631
000170 92 d2 ee 3f 5f c2 77 3f 0f b6 3f 40 29 b5 81 3d
       1.8658011 0.9678096 2.995487 0.06333382
000180 5b b6 b3 40 d9 83 36 3f 7d 38 be 3f 8b de 52 3e
       5.61601 0.71294934 1.4860989 0.20592706
000190 12 df d7 3f b8 cb 6c 3f b8 5e 0c 40 cb e6 2c 3f
       1.6864951 0.9249835 2.1932812 0.6753966
0001a0 cc 60 cc 3e 18 13 57 3f 66 62 47 40 38 5b 4a 3f
       0.399176 0.8401351 3.1153808 0.7904544
0001b0 95 39 be 40 8f 74 7f 3f 35 ac 60 3f b1 ac a8 3f
       5.944529 0.9978723 0.8776277 1.3177701
0001c0 74 b5 9a bc bf 19 58 3f 3b e4 16 40 43 38 40 40
       -0.018885352 0.84414285 2.35768 3.003434
0001d0 c7 ca b5 3f 13 f2 64 3f c2 45 46 40 b4 1b 97 3f
       1.4202508 0.89431876 3.0980077 1.1805329
0001e0 ad 22 2a 3f 7d e1 4c 3f 65 a1 96 40 9b 17 9a 3f
       0.6645916 0.8003157 4.7072015 1.2038454
0001f0 7f f4 be 3f 9a 75 47 3f 21 d6 d7 3f 4b 8b be 3e
       1.4918364 0.7791382 1.6862222 0.37215647

convs.0.bn1.bias f4 [128]
000000 1f 93 11 bf ee 00 3a be 84 d6 94 be 23 91 dc 3c
       -0.56865114 -0.18164417 -0.29069912 0.026924675
000010 ce eb 1a 40 85 0b 81 be 0b 0d 4a 3d 6a 1e 6c bf
       2.4206424 -0.252041 0.049328845 -0.9223391
000020 11 3e 7c 3e db 56 0c 3d a2 c6 f6 be 73 1f 19 bf
       0.24633051 0.03426252 -0.4819842 -0.5981361
000030 1d 02 13 3f d7 33 fa 3e 8b 32 7b 3f 79 2b ec bf
       0.574251 0.48867676 0.98124 -1.8450767
000040 dc 97 22 bf 01 55 65 3e 2c da 91 3f dd 14 d1 3f
       -0.6351297 0.22395708 1.1394706 1.6334492
000050 ed 2e 4d 3f b8 13 a3 3f 80 8e df 3f f3 d7 54 3f
       0.8014973 1.2740393 1.7465363 0.8314201
000060 1d 30 8c 3b 32 a1 2e be bf 55 b4 be 29 60 47 3e
       0.0042781965 -0.17053679 -0.3522167 0.19470276
000070 84 41 96 3e e4 35 53 3e 05 7e c5 be 0a 82 9c 3f
       0.2934686 0.20626026 -0.38572708 1.2227185
000080 f6 0e 6e 3f e9 9d ce 3f 5d f1 75 bf 4c 31 22 40
       0.9299158 1.614194 -0.96071416 2.5342588
000090 a6 62 d9 be c1 8d 82 3f f7 20 b5 bf e3 e1 11 40
       -0.42458075 1.019951 -1.4150685 2.279412
0000a0 65 5e 7a 3f fd 8e 02 40 19 2c bc 3e c2 62 9d 3e
       0.97800285 2.0399773 0.36752394 0.3073941
0000b0 22 9e d1 3e 42 b9 36 bf 58 c2 62 3f bf eb 99 be
       0.40940958 -0.7137643 0.88577795 -0.30062672
0000c0 96 42 85 40 34 43 05 3f 47 a1 52 3f 14 a4 e1 bf
       4.164378 0.5205567 0.8227734 -1.7628198
0000d0 a1 19 8c 3f 48 2d 81 3f e4 3c a6 bf 67 89 9b be
       1.0945321 1.0091944 -1.2987332 -0.30378267
0000e0 0d d3 e9 3e a8 14 bf bf 56 0b cd be 45 c1 29 3f
       0.4566883 -1.4928179 -0.4004771 0.6631053
0000f0 2d 77 af 3e ec b1 b9 3f c0 85 86 3f 11 70 9d 3f
       0.3427061 1.4507422 1.0509567 1.2299825
000100 b8 5b d2 3e d4 80 9d be f9 52 dd 3e ac 0f 23 c0
       0.410856 -0.3076235 0.43227366 -2.5478315
000110 50 3f 04 41 05 6d 24 3f 38 92 5a 3f 94 fa 4a bf
       8.265457 0.6422885 0.8537936 -0.792886
000120 ae d3 10 3f e6 01 39 3f 32 1a 79 3f f7 34 b1 bf
       0.56573 0.7226852 0.97305596 -1.3844289
000130 de 7b cb 3f f9 c3 1e be 07 6d ab 3f 91 e4 31 c0
       1.5897176 -0.15504445 1.3392648 -2.7795756
000140 b2 98 95 3f ed ff 05 bf 1d 39 f9 3f bf c4 09 3f
       1.1687224 -0.52343637 1.9470555 0.53815836
000150 4b 36 04 3e 4c 8e ab 3f e8 d5 2a 40 75 7a fd 3f
       0.12911336 1.34028 2.6693058 1.9802996
000160 59 1f 94 bf 4c 2c b1 3f f4 ca 14 bf 17 63 a8 bf
       -1.1572067 1.3841643 -0.5812218 -1.315524
000170 e5 25 80 bf f5 72 40 3e bd 2c b4 bf 12 9f 85 40
       -1.0011564 0.18793853 -1.4076153 4.175668
000180 33 1d 9c 3f cf ac 75 3f bd cf b9 3f 80 75 1c 41
       1.2196411 0.9596681 1.4516522 9.778687
000190 bf 3f 0b 3f d0 c6 73 3f 18 5b 23 c0 f3 e2 08 40
       0.54394144 0.9522524 -2.552435 2.138852
0001a0 66 ea f7 40 7c 41 c9 3f 0c c8 cf be 79 55 ed 3f
       7.747363 1.5723109 -0.4058231 1.8541709
0001b0 bd 69 6e bf 3b 0c c2 3f 93 c8 87 3f c0 23 d2 bd
       -0.93130094 1.5159982 1.0608085 -0.10260725
0001c0 c7 20 ff 40 96 17 89 3f 8f 7b 8b 3e 28 63 c1 3e
       7.972751 1.0710323 0.27242705 0.37770963
0001d0 cf 50 2d 3f f6 ee 06 40 55 51 6b be 05 a6 96 3f
       0.6770143 2.108335 -0.22980244 1.1769415
0001e0 e1 a4 f6 3f 3c 4c b9 3f 76 97 43 bf e4 b2 b8 3e
       1.9269067 1.447639 -0.76402986 0.36073983
0001f0 2d 63 e6 be 61 6f 86 3f f4 30 38 3d 74 48 7e 40
       -0.4499754 1.050274 0.04496856 3.9731722

convs.0.bn1.running_mean f4 [128]
000000 e7 da 7c 42 40 f1 e1 41 e7 a5 1b 42 56 d2 d6 41
       63.21377 28.242798 38.912014 26.852703
000010 e1 fa c1 42 2e fe c2 42 f5 25 1b 42 eb b2 2c 42
       96.99 97.496445 38.787067 43.174725
000020 03 8f 88 c0 82 fd 5f 42 03 1a 45 42 22 59 2f 40
       -4.2674575 55.997566 49.275402 2.7398152
000030 15 61 56 c2 38 63 8e c2 4c fe 1b 42 c1 b4 c9 c1
       -53.594807 -71.19379 38.998337 -25.213259
000040 d0 94 61 42 6d 1d a5 41 b0 a4 98 41 28 31 d6 c1
       56.395325 20.639368 19.080414 -26.774002
000050 fb 82 8c 42 40 ef dc c1 5d a1 49 40 91 3f 0a 42
       70.25582 -27.616821 3.1504738 34.562077
000060 4e ec 5d 42 9c 0c b1 c1 1f 95 80 42 88 4c 1c 42
       55.480766 -22.131157 64.29125 39.074738
000070 9e 6f e9 c0 b2 8d 20 42 13 66 ca 41 ee 82 49 41
       -7.294875 40.138374 25.29984 12.594465
000080 01 ee 23 42 88 a1 67 3e 92 d4 fd c1 54 d8 a0 c2
       40.982426 0.22620213 -31.728794 -80.422516
000090 e1 05 b0 c1 bd f3 46 c0 c8 76 bd c0 82 c7 3a 42
       -22.00287 -3.1086266 -5.9207497 46.69483
0000a0 2f f8 e7 c1 89 5f 5e 41 ff 1a e3 41 78 e5 d1 c1
       -28.996183 13.898324 28.388182 -26.237045
0000b0 e8 7d 30 c1 c5 b9 8e 41 50 33 34 40 b8 58 cf 42
       -11.030739 17.840708 2.8156319 103.67328
0000c0 84 34 bb 41 e1 e2 22 c2 42 24 9c c2 76 e5 11 c2
       23.400642 -40.72156 -78.070816 -36.474083
0000d0 d4 6d c1 41 5f e6 07 c1 84 d3 62 c1 cc 5d 49 c0
       24.178627 -8.493743 -14.17664 -3.14635
0000e0 e4 94 6e 42 de 43 9d c0 e4 df fd 41 3c b7 c8 41
       59.6454 -4.9145346 31.734322 25.08947
0000f0 dd 98 55 c2 5f 8f 58 42 d8 5c b8 41 37 9e a4 41
       -53.39928 54.14001 23.045334 20.577253
000100 41 00 59 42 83 ee 13 c2 b0 bb c6 41 59 8b 0b 42
       54.250248 -36.98292 24.841644 34.88608
000110 54 4c a2 42 c5 f0 37 41 59 2c 6f c1 2d 32 59 41
       81.14908 11.496282 -14.948327 13.57475
000120 21 c9 e3 c0 7d dc 82 42 31 21 3e 42 65 fd c0 c1
       -7.118302 65.43064 47.532413 -24.123728
000130 3f e9 c1 40 a9 46 0f c2 f0 83 ee bf 1d cb 43 41
       6.0597224 -35.819004 -1.8634014 12.237088
000140 b7 de 49 42 6b a8 09 c2 e4 0f b1 c0 90 b7 74 c1
       50.467495 -34.41447 -5.53319 -15.294815
000150 f2 d4 2d 42 e1 be 23 c2 8f a7 b5 40 6c f4 c4 42
       43.457954 -40.936405 5.676704 98.47739
000160 fd b6 f6 c1 6f 6b 58 41 14 87 51 41 93 c7 b3 41
       -30.83935 13.526229 13.095478 22.472448
000170 76 09 8b 42 33 40 b9 41 1c 47 55 42 bb f5 ec 41
       69.51848 23.156347 53.319443 29.619986
000180 31 5b 43 bf f7 ce ed 41 4a c2 c2 c1 2f 65 05 42
       -0.7631102 29.726057 -24.344868 33.348812
000190 97 38 7a c1 c5 4e 08 41 46 a2 86 41 dc d0 28 c2
       -15.638816 8.519231 16.829235 -42.203964
0001a0 92 6d e8 c0 c8 22 b3 41 18 0a 3c 41 c7 b1 22 42
       -7.2633753 22.391983 11.752464 40.67361
0001b0 1f 84 ad 41 25 e3 9f 42 22 ad 80 41 99 f9 1c 41
       21.689512 79.94364 16.084538 9.810937
0001c0 9d 46 6a 41 ae 57 01 c2 ba 5c 01 c2 65 c3 06 c2
       14.64224 -32.335625 -32.340553 -33.690815
0001d0 50 c6 cf 41 c8 c3 25 42 6a 16 a5 41 56 27 58 42
       25.971832 41.441193 20.635944 54.038414
0001e0 ff 67 1b c1 11 9b 99 c1 91 6f f6 c1 82 a0 40 42
       -9.71289 -19.200716 -30.804476 48.156746
0001f0 50 98 99 c1 ff 53 05 c2 13 c8 ad 40 6f 18 9c 42
       -19.199371 -33.332027 5.430673 78.04772

convs.0.bn1.running_var f4 [128]
000000 fc 4e 68 45 4c fc db 45 9f 84 4b 45 e8 c5 ca 44
       3716.9365 7039.537 3256.2888 1622.1846
000010 fb 05 2e 45 63 c2 81 45 dc f4 b1 44 50 8e 8c 45
       2784.3738 4152.2983 1423.6519 4497.789
000020 d7 f6 91 45 fc 99 0a 45 e7 ab f2 44 73 a7 84 45
       4670.855 2217.624 1941.372 4244.931
000030 ad 6f 5a 45 d2 6a b5 45 15 9b 86 45 3a 6e 99 43
       3494.9797 5805.3525 4307.3853 306.86115
000040 79 6c c1 45 40 e3 f7 45 05 c0 9f 45 94 7a 6a 45
       6189.559 7932.4062 5112.0024 3751.6611
000050 0e 6d 06 45 28 3a 35 45 11 a9 e0 45 9b f9 ad 45
       2150.816 2899.6348 7189.1333 5567.2007
000060 5e 50 8a 45 68 35 d2 45 98 fe 51 45 53 a1 37 45
       4426.046 6726.676 3359.912 2938.0828
000070 3f 1f 5a 45 54 08 24 45 77 62 55 45 fe 81 46 45
       3489.953 2624.5205 3414.154 3176.1245
000080 1f 1a 49 45 67 9a 9b 45 52 99 ea 45 f7 fd b7 45
       3217.6326 4979.3003 7507.165 5887.7456
000090 a1 49 e2 45 a2 23 8f 45 14 86 50 45 59 f9 11 45
       7241.2036 4580.454 3336.38 2335.5842
0000a0 a8 57 99 45 70 7f 09 45 05 9a 9c 45 c2 d6 82 45
       4906.957 2199.9648 5011.2524 4186.8447
0000b0 cb 6d 39 45 ed 13 57 45 c9 4d 3d 45 fb cb 15 45
       2966.862 3441.2454 3028.8616 2396.7488
0000c0 e0 b1 f3 44 6e 01 70 45 2e 29 d2 44 12 c7 b9 45
       1949.5586 3840.0894 1681.2869 5944.884
0000d0 33 cf 25 45 02 60 38 45 1e 05 95 45 48 3e 81 45
       2652.95 2950.0005 4768.6396 4135.785
0000e0 95 78 71 45 3f fa 30 45 af e9 ad 45 e2 c9 ae 45
       3863.5364 2831.6404 5565.2104 5593.2354
0000f0 ff f8 d7 44 f5 0c f8 44 27 f4 26 45 5d 67 c7 45
       1727.7811 1984.4049 2671.2595 6380.9204
000100 10 82 82 45 20 62 cd 45 ca 89 ab 45 5e 07 06 45
       4176.258 6572.2656 5489.2236 2144.4604
000110 91 53 ac 45 f7 00 3d 45 b3 9c 0c 45 46 c0 aa 45
       5514.446 3024.0603 2249.7937 5464.034
000120 c0 83 29 45 a1 7d 8e 45 a4 f7 fe 44 d5 b8 2d 45
       2712.2344 4559.7036 2039.7388 2779.552
000130 fb 3d 53 45 cc 6f cf 45 99 74 ab 45 40 e1 8f 45
       3379.8738 6637.9746 5486.5747 4604.1562
000140 e1 bc 9c 45 df 7f 91 45 b8 70 ac 45 b1 8c a1 45
       5015.61 4655.984 5518.09 5169.5864
000150 56 74 8a 45 d6 db 88 45 cd 53 93 45 d9 9a 5e 45
       4430.542 4379.4795 4714.475 3561.678
000160 df 91 a1 45 6d 57 a9 45 1e 52 24 45 88 a9 2f 45
       5170.234 5418.928 2629.1323 2810.5957
000170 7c 14 c4 45 80 d2 60 45 f0 c5 ce 45 f3 a3 80 45
       6274.5605 3597.1562 6616.742 4116.4937
000180 fe 91 65 45 92 6c e7 45 7a e4 07 46 81 26 96 45
       3673.1245 7405.5713 8697.119 4804.813
000190 f0 4a 0a 46 da a6 94 45 23 75 90 45 c5 fb 99 45
       8850.734 4756.8564 4622.642 4927.471
0001a0 7e f2 88 45 5e 4f 82 45 90 72 b7 45 91 f2 ce 45
       4382.3115 4169.921 5870.3203 6622.321
0001b0 40 98 8c 45 97 33 93 45 c1 44 71 45 05 39 62 45
       4499.0312 4710.4487 3860.297 3619.5637
0001c0 cd ab 59 45 98 f3 98 45 53 3f 73 45 ef e3 be 45
       3482.7375 4894.449 3891.9578 6108.4917
0001d0 a7 f2 47 45 5d 02 84 45 1e c0 61 45 42 29 08 46
       3199.1658 4224.2954 3612.0073 8714.314
0001e0 f8 ec 7a 45 59 ac 29 45 27 4f 7e 45 65 33 b5 45
       4014.8105 2714.7717 4068.947 5798.4243
0001f0 b9 41 04 45 de d7 f6 44 1c 8e 80 45 55 89 47 46
       2116.1077 1974.7458 4113.7637 12770.333

convs.0.bn2.weight f4 [64]
000000 d3 f2 b9 3f c2 1a f4 3f d4 b5 f0 3f ea 66 ff 3f
       1.4527229 1.9070666 1.880549 1.9953282
000010 cc ad d5 3f 79 20 7b 3f 43 48 5b 3f ca 63 b3 3f
       1.6693664 0.98096424 0.8565714 1.4014828
000020 85 24 71 3f f3 0a b3 3f 06 fb dd 3f 33 29 eb 3f
       0.9419635 1.3987716 1.7342231 1.8371948
000030 a4 0b 1a 40 29 8c ba 3f 27 9a e2 3f 87 2b 06 40
       2.4069605 1.4574023 1.7703294 2.0964067
000040 47 ff 1f 40 56 ad 00 40 a6 cf f7 3f 73 42 84 3f
       2.499956 2.0105796 1.9360244 1.0332779
000050 8b ef 53 3f b4 20 99 3f f7 87 eb 3f e7 ef f3 3f
       0.8278739 1.1963105 1.8400868 1.9057587
000060 38 56 9e 3f 40 1d 09 40 fd d7 b7 3f 1c 7f 80 3f
       1.2370062 2.1424103 1.4362789 1.0038791
000070 01 26 cb 3f 24 95 64 3f ee 69 de 3f f5 d2 cd 3f
       1.5870973 0.8929007 1.7376077 1.6080004
000080 6e 75 fc 3f 97 f7 05 40 07 6f 12 40 b4 a8 0f 40
       1.9723337 2.0932367 2.2880266 2.2446718
000090 f4 cb 1c 40 2d 17 d2 3f 95 5a c9 3e 86 88 a2 3f
       2.4499483 1.6413323 0.3932692 1.2697914
0000a0 d4 9c a0 3f cf 7b 04 40 03 e0 e6 3f 1f 4a 16 40
       1.254786 2.0700567 1.8037113 2.348274
0000b0 95 44 f8 3f 35 62 07 40 95 f5 78 3f 08 cb a7 3f
       1.939593 2.115369 0.9724973 1.3108835
0000c0 d5 68 aa 3f 8b 7e eb 3f d1 3e 04 3f ba a0 a5 3f
       1.3313242 1.8397993 0.5165835 1.2939675
0000d0 7d 44 1e 3f 9c 67 bf 3f 6e 0e a0 3f 72 fd 16 40
       0.61823255 1.4953494 1.2504404 2.359219
0000e0 cb fc e0 3f dd 89 fd 3f 80 b1 c4 3f b0 9c da 3f
       1.7577146 1.9807698 1.5366669 1.7079067
0000f0 04 0c 39 3f aa cb 37 3f b8 f8 89 3f f0 03 56 40
       0.7228396 0.7179514 1.0779028 3.3439903

convs.0.bn2.bias f4 [64]
000000 f1 21 dc bf 38 e7 23 bf e7 83 bc bf 90 8d cb bf
       -1.7197858 -0.64024687 -1.4727753 -1.5902576
000010 8f 04 b2 be c8 f5 78 bf 19 03 ee bf c9 20 27 bf
       -0.34769103 -0.9725003 -1.8594695 -0.652844
000020 d8 35 cd be 01 b1 e5 bf d8 c7 ca bf 8c 93 02 be
       -0.40080142 -1.7944642 -1.5842237 -0.12751597
000030 22 88 db bf 15 a8 03 3f 17 51 e3 bf 95 cd 17 3f
       -1.715092 0.5142835 -1.7759122 0.5929807
000040 bf 09 48 be 67 57 10 3f 79 a1 1c bf e1 b6 9e bf
       -0.19534968 0.56383365 -0.6118389 -1.239956
000050 41 c0 05 c0 5e e4 70 3d 71 50 d5 be 9f c5 2c c0
       -2.0898592 0.058811538 -0.41662934 -2.6995618
000060 fd e8 0c bf 0a 89 30 be 72 d5 dc bf 3a 68 82 bf
       -0.5504301 -0.17239776 -1.7252638 -1.0188057
000070 f0 c5 dd bf c8 10 bd bf ed dd 6e bf fd ec 90 bf
       -1.7326031 -1.4770746 -0.9330738 -1.1322323
000080 94 82 9d 3d cc 2a 8a bf a2 c4 94 bf 1e 99 ad be
       0.076909214 -1.079431 -1.1622508 -0.33905882
000090 b3 50 f9 be db ec 7c bf 89 ea 9e bf db 38 41 3e
       -0.4869438 -0.9879891 -1.2415324 0.18869345
0000a0 ff 3b 82 3e e3 2a 08 c0 80 68 14 bf 74 ee c1 be
       0.25436398 -2.1276176 -0.57971954 -0.37877238
0000b0 a7 2d 80 bf 2d 57 6d bf db bb a1 bf 46 e2 db bf
       -1.0013932 -0.92711145 -1.2635454 -1.7178428
0000c0 84 c7 f7 be 8c ef af bf f1 8f 9a bf 9f c2 3f 3f
       -0.48394406 -1.3744979 -1.2075177 0.74906343
0000d0 5f 7a 43 bf 0f cb 05 c0 dc 91 fd bf c1 eb 0e be
       -0.763586 -2.0905187 -1.9810138 -0.1395712
0000e0 e1 9e d5 be 7e 6a 69 bf 09 cb 42 bf 3c 38 3c bd
       -0.41722777 -0.9117812 -0.7609106 -0.045952067
0000f0 67 91 df bf 0b a3 6f bf f6 7f 33 3f 15 35 d9 bf
       -1.7466248 -0.9360816 0.7011713 -1.6969324

convs.0.bn2.running_mean f4 [64]
000000 bd 8c 2f 41 71 a9 dc 40 8f 3e 2f 41 73 10 85 40
       10.97186 6.895684 10.952773 4.158258
000010 b2 81 85 42 40 93 f4 40 de f9 1c 41 1e e7 aa 41
       66.75331 7.642975 9.811003 21.36285
000020 5b 10 04 41 ee e2 25 41 00 55 16 41 d1 e2 6b 41
       8.253993 10.367903 9.395752 14.742875
000030 5c 98 72 41 f6 6e e3 40 fa 5a 67 41 65 31 48 3f
       15.162197 7.107295 14.459711 0.7820037
000040 d6 f1 1a 41 fb 98 80 41 a6 b4 80 41 43 92 d3 41
       9.684042 16.074697 16.088207 26.446417
000050 20 14 18 41 a9 16 42 41 d2 58 ce 41 e1 0f 82 41
       9.504913 12.130532 25.79337 16.257753
000060 c0 e7 66 40 95 3c 36 41 42 be 02 41 21 bc 64 40
       3.607895 11.389791 8.17145 3.5739825
000070 00 2b b8 40 45 e4 e0 40 80 ac fe 40 98 04 00 42
       5.755249 7.027865 7.958557 32.004486
000080 d7 a1 d5 41 b1 d7 35 41 31 f4 2c 41 6e a3 b0 42
       26.704023 11.365159 10.809617 88.3192
000090 47 12 21 41 f4 8a 45 41 5a bc 2a 40 b4 44 8d 41
       10.066962 12.346424 2.667746 17.658546
0000a0 3b d7 29 42 09 95 84 41 4d b6 5a 41 2a 8c 72 41
       42.460186 16.572771 13.669507 15.15922
0000b0 c5 70 88 41 9f 1a 60 41 86 d8 4d 41 04 35 b7 40
       17.055063 14.006499 12.865362 5.7252216
0000c0 18 4a a7 42 46 24 33 41 35 18 18 41 1f a0 50 41
       83.644714 11.196356 9.50591 13.039092
0000d0 de b0 38 41 d3 4a 96 41 dc d0 3f 41 9b 33 40 41
       11.54318 18.786535 11.988491 12.012599
0000e0 5e 04 74 41 66 c1 2b 41 a4 9c 31 41 fd 1b 06 41
       15.251066 10.734716 11.100742 8.381833
0000f0 59 5e 9c 40 0c 8d 27 41 94 4a 08 41 c7 57 d7 41
       4.886517 10.471935 8.518208 26.91786

convs.0.bn2.running_var f4 [64]
000000 45 b8 26 43 f4 f8 20 42 54 24 a0 42 69 bd e4 41
       166.7198 40.24312 80.07095 28.592485
000010 7e 9c 8d 44 7a 0e 10 42 92 2b 8e 42 9c 37 b6 43
       1132.8904 36.014137 71.0851 364.43445
000020 58 ed 29 42 22 90 48 42 8e 8b 23 42 8f 71 78 43
       42.48178 50.140755 40.886284 248.44359
000030 ab 65 8a 42 e3 49 bd 41 e0 a7 93 42 95 1d 34 3f
       69.19857 23.661077 73.82788 0.7035764
000040 4f e8 e6 41 76 bb 20 43 dd b7 65 42 7e 2f 75 44
       28.863432 160.73227 57.429554 980.74207
000050 29 8b 79 42 d5 64 8c 42 e9 5d 4e 42 65 ae 4c 42
       62.3859 70.19694 51.59171 51.170307
000060 cc 72 48 41 50 2e 19 42 35 93 b1 42 b3 5e 31 41
       12.528027 38.295227 88.78751 11.08562
000070 c5 b4 8f 41 43 46 f8 41 de 15 98 42 c2 a2 fc 42
       17.963266 31.034307 76.04271 126.31789
000080 09 ad fc 43 b0 f4 d8 41 ea ba 60 42 ce 13 df 43
       505.35184 27.119476 56.182533 446.15472
000090 03 c1 52 42 a3 4a 6b 42 ce cd 18 41 d6 d9 b1 42
       52.688488 58.822887 9.550245 88.92546
0000a0 68 d9 d7 44 ca cf 4b 42 f4 f1 38 43 df 86 94 42
       1726.794 50.95292 184.94513 74.26342
0000b0 cf 57 fc 43 65 d5 58 42 42 04 0b 42 17 b9 ab 41
       504.686 54.208393 34.754158 21.465376
0000c0 1a 33 9d 43 30 eb 42 42 e0 0b 96 42 58 77 06 43
       314.39923 48.729675 75.02319 134.46619
0000d0 29 3c fa 42 47 e5 8f 42 82 ff 02 43 95 14 4b 42
       125.1175 71.94781 130.99808 50.7701
0000e0 01 f1 60 42 81 e1 67 42 3a 13 02 43 4a 97 d6 41
       56.235355 57.97022 130.0751 26.823872
0000f0 18 37 27 42 b6 9c 04 42 5d 29 3f 42 f6 9e 4e 43
       41.803802 33.153038 47.790394 206.62094

convs.1.fc_full.weight f4 [128, 169]
000000 f2 8e ee bf fc 19 a7 bf e9 a7 e2 bf 2c ac 02 3e
       -1.8637373 -1.3054805 -1.7707492 0.12760991
000010 60 11 09 3e 7b 22 08 bf d6 48 bc 3e 3b 95 19 bf
       0.13385534 -0.53177613 0.3677432 -0.5999333
000020 d6 a8 5b c0 e7 03 3f 3f 1c ca 40 3e dc 03 2f bf
       -3.43218 0.7461533 0.18827099 -0.68365264
000030 46 0d 0c be 53 e1 08 c0 5a 77 a8 3f f5 a8 9e be
       -0.13676938 -2.1387527 1.3161423 -0.3098828
000040 97 2d a2 3f f9 d6 df bf 6c b8 0e bd a2 55 85 3e
       1.2670163 -1.748748 -0.034843847 0.26041895
000050 a9 fb cf 3d fb e4 38 bf 88 d8 ab be e1 3a 7e 3f
       0.10155422 -0.72224396 -0.33563638 0.9930859
000060 37 23 78 bf 25 2f 80 3f a5 d8 fb be 41 ee b7 be
       -0.96928734 1.0014387 -0.49188724 -0.3592396
000070 84 b8 c0 be c1 20 a3 3f 58 2a 8e 3f 40 20 7a 3d
       -0.37640774 1.2744371 1.1106672 0.061065912
000080 08 fb f1 bf 0e a4 68 bf b8 48 b9 bf cd 6f bf bf
       -1.8904734 -0.9087533 -1.4475317 -1.4955994
000090 7b 46 51 bf a8 0d 31 3f 95 32 90 bf c0 09 b6 3f
       -0.8174817 0.6916146 -1.1265436 1.4221725
0000a0 23 ad 2f 3e bb 3e 98 bf 05 62 cb bf 1f db 2e 3f
       0.1715589 -1.1894144 -1.5889288 0.683031
0000b0 5c 90 53 3e b1 b4 81 3f d4 33 83 bf d5 8b 30 be
       0.20660537 1.0133268 -1.0250192 -0.17240842
0000c0 dc 0b 19 3f 84 a0 25 bd 99 74 ee be e9 51 23 3f
       0.5978372 -0.040436283 -0.46573332 0.6379686
0000d0 45 28 97 3f 05 ac fe be 3f cf 91 3d 32 f4 a3 3e
       1.1809164 -0.49740615 0.07119607 0.32022244
0000e0 d6 ac ab bc 62 a1 29 bf 26 a6 65 bf 0b 80 75 3f
       -0.020956438 -0.66261876 -0.8970665 0.95898503
0000f0 8e 2f e0 3e d8 bf 71 3e df 27 92 3e 31 d7 af bf
       0.4378628 0.23608339 0.28546044 -1.3737546
000100 8f 5b 18 bd 34 30 8e bd 34 50 f6 bf 9f e4 46 3f
       -0.037196692 -0.06942788 -1.9243226 0.776926
000110 08 1e dd 3e f0 11 b5 3f 25 d1 bb bd af 11 37 bd
       0.43186975 1.4146099 -0.091707505 -0.0446946
000120 7d b7 a4 3e a5 30 22 bf 75 69 04 c0 17 44 3a be
       0.3217124 -0.63355476 -2.0689366 -0.18190037
000130 1c 9f 16 3f cc 8a 86 3f 8f 2f 8b bf 39 97 60 3f
       0.5883653 1.0511107 -1.0873889 0.8773075
000140 00 4c 16 3f 04 b1 9e bd 55 62 11 3f a0 03 84 bf
       0.58709717 -0.07748607 0.5679067 -1.0313606
000150 58 04 1c 3f d7 79 9c bd c7 3b 93 be 3d 4a e3 3e
       0.6094413 -0.076404266 -0.28756544 0.44392577
000160 a9 03 07 3f 5b aa 7f bf de f6 6e bf 49 6e 2a 3d
       0.5273996 -0.99869317 -0.9334544 0.041609082
000170 b5 31 92 3f 74 f4 0b 3e b8 7a ff be df 03 b9 bf
       1.1421419 0.1366747 -0.49898314 -1.4454306
000180 da 99 03 c0 8f bb ae 3f 4f 18 09 3f 38 cf 37 bf
       -2.0562654 1.3650988 0.53552717 -0.71800566
000190 42 66 a1 3f a3 88 b3 3f dc 28 33 3f c8 f2 a0 3f
       1.2609332 1.4026073 0.6998422 1.2574091
0001a0 0c d5 9a be 9b 19 33 3f 66 5e ce 3f ea 0a 59 3f
       -0.30240667 0.69960946 1.6122558 0.8478228
0001b0 7a 79 0a 40 9d 84 ab 3f 38 9d 92 bf 3a c2 a3 be
       2.1636643 1.3399845 -1.1454229 -0.3198412
0001c0 5a 4c 2e 3f 31 f8 e8 be ea c8 68 3f 14 d9 1b 3f
       0.68085253 -0.45501855 0.9093157 0.6087811
0001d0 0f b6 d6 3f 68 59 92 3e 49 01 18 be e2 36 8a be
       1.677431 0.28583837 -0.1484424 -0.26994997
0001e0 c4 fe 71 3e 14 8d b0 3f e1 93 34 3f 1e 17 f7 bf
       0.23632342 1.3793054 0.70538145 -1.930393
0001f0 e3 61 cd 3f 7b d2 6d be f3 7a ce 3f b3 3b a5 3f
       1.6045498 -0.23224823 1.6131271 1.2908844
000200 a7 12 2f bd e3 82 ce bb 7d c9 2c be 46 d6 65 3f
       -0.042742398 -0.006302224 -0.16873737 0.8978008
000210 4e fa f1 3f de 8e ea 3f a1 c6 4e 40 24 a1 76 40
       1.8904512 1.832485 3.2308733 3.8535852
000220 63 4e e4 3f 2b 5f 94 40 05 9b 26 40 54 c5 4c 40
       1.7836422 4.636617 2.6032116 3.199544
000230 b4 b2 46 40 f5 e9 e7 3f 19 77 7d c0 85 5a b3 c0
       3.1046572 1.8118273 -3.9603941 -5.6047997
000240 6d f7 9e c0 1f 48 57 bd 3a 5d 43 c0 c3 05 d0 c0
       -4.9677033 -0.052559014 -3.052565 -6.5007033
000250 de 29 fc bf ab 55 4a bf 0e 15 30 40 21 ab b2 40
       -1.9700277 -0.7903697 2.751285 5.5833898
000260 ad 62 d7 40 28 36 b3 40 49 98 83 c0 dc 92 07 c1
       6.7307954 5.600361 -4.1123395 -8.473354
000270 69 05 e7 c0 10 3d 97 bf 30 b0 ce be ab 44 6f be
       -7.2194104 -1.181551 -0.40368795 -0.23366039
000280 6f b0 df 3d 07 0e 23 3d a3 92 3b 3d d9 af 2a bc
       0.10922324 0.0398083 0.04579414 -0.010417902
000290 f7 a5 41 bd 45 90 52 bc 1e fe 14 bd 1e 20 78 bd
       -0.047277417 -0.012851779 -0.036375158 -0.060577504
0002a0 28 9b c4 3c ef 9d c9 bf 42 d3 28 bf b6 e6 60 3f
       0.023999766 -1.5751323 -0.65947354 0.87852037
0002b0 e5 96 91 bf 47 22 e7 be f9 8d bd 3e 2f d1 41 bf
       -1.1374174 -0.4514334 0.3702238 -0.75709814
0002c0 cd 15 7c 3e f2 9e b7 bf 02 ef ac be 4a 3a ad be
       0.24617691 -1.4345381 -0.33776098 -0.33833534
0002d0 48 85 12 3f 44 9f cc be ab d6 44 c0 0e c6 5b 3e
       0.5723462 -0.3996526 -3.0756023 0.2146227
0002e0 38 89 60 3f 2b d0 e4 bf 4c ca c1 bf 8f 02 85 3f
       0.8770938 -1.7876028 -1.5139861 1.0391406
0002f0 1e 81 5a 3f 43 2a 73 bf 93 63 37 bf cd 28 41 bf
       0.8535327 -0.9498636 -0.71636313 -0.7545288
000300 64 15 42 be dd 82 f9 be 3a 49 86 bd 44 73 82 bf
       -0.18953472 -0.48732653 -0.065569356 -1.0191426
000310 26 dd 30 3f c6 97 0a c0 bf b9 15 3f 7f a0 bd 3e
       0.69087446 -2.1655135 0.5848655 0.3703651
000320 5b 1b ab 3c 88 8b 0c 3f 89 1e 13 bf 86 e0 9f be
       0.020887068 0.5490041 -0.5746847 -0.31225985
000330 62 ff d9 bf aa ad 4f c0 d4 73 f4 3d b8 a0 eb 3f
       -1.7031062 -3.2449746 0.11936155 1.8408422
000340 5f 05 b4 bf d5 dd 91 3d 50 1d b6 3d e0 5c a4 3d
       -1.4064139 0.07122389 0.0889231 0.08025527
000350 92 99 0e c0 c2 24 25 be cc 89 0e 40 d5 05 a0 bd
       -2.2281232 -0.16127303 2.2271605 -0.07813612
000360 0e 40 46 bf 74 87 8f bf 88 1d 1a c0 86 7f 3c 3f
       -0.7744149 -1.1213212 -2.4080524 0.73632085
000370 c6 57 24 be 39 1f f0 3e 3e 52 83 bf 72 7a 12 40
       -0.16049108 0.4689882 -1.0259473 2.2887235
000380 15 af 47 3e 3c 6c 23 3f 46 b4 df bf 3e f5 a5 3f
       0.19500382 0.6383703 -1.747689 1.2965467
000390 ee 29 22 3f 81 12 60 3c 34 22 9a be 5e 45 28 3e
       0.6334523 0.013676287 -0.3010422 0.16432711
0003a0 b2 cd 6d 3f d6 35 ca bf 7c ee 16 be 81 fd 1f bf
       0.9289199 -1.579768 -0.14739412 -0.6249619
0003b0 da f9 70 3f 7a c2 48 bf 07 b1 38 3e 79 90 96 3e
       0.94131243 -0.7842175 0.1803628 0.294071
0003c0 e4 b2 1e bf 10 24 56 bd d2 34 94 3f c3 2e ee 3d
       -0.61991715 -0.052280486 1.157862 0.11630013
0003d0 99 74 3f 3f e1 6a 04 c0 a6 80 26 c0 0c a9 db be
       0.7478729 -2.0690234 -2.601602 -0.4290241
0003e0 56 42 1e 3f d7 ad 84 c0 4e a0 90 3f 0c 0c 77 3f
       0.6181997 -4.1462207 1.1298921 0.9650276
0003f0 9a b1 3e 3f 4e c7 32 bf 8d d4 99 be 4a 97 1a 3f
       0.7448975 -0.69835365 -0.30044976 0.603871

convs.1.fc_full.bias f4 [128]
000000 85 a4 74 3d 7d 78 64 bd 95 c2 d9 3c 6c 20 22 bc
       0.05972721 -0.05577897 0.026582042 -0.009895425
000010 84 f5 0e 3d 04 f2 98 3b 54 95 b1 bc 55 51 e1 3c
       0.03490211 0.0046675224 -0.02167765 0.027504602
000020 97 d7 7a 3b 18 40 54 bc dc be 18 3d 75 c2 af 3d
       0.0038275474 -0.012954734 0.037291393 0.085820116
000030 52 3e 2f 3d 90 eb 17 bd ae a4 64 bd 39 40 5e bd
       0.042784043 -0.037089884 -0.055821113 -0.054260466
000040 ff e9 31 bd 7f 0e 79 bb 1b 05 2a 3d 6c 92 74 3a
       -0.043436047 -0.0038003025 0.041508775 0.000932968
000050 13 67 84 3d a0 ea 9a bd e0 e8 42 bd 7b 17 99 3d
       0.06464972 -0.075642824 -0.04758537 0.07475182
000060 2c 3a 60 bd 5d 17 1f 3d 47 dc 6d 3b 84 d3 21 bc
       -0.054742977 0.03884064 0.0036294626 -0.009877089
000070 df ae 4b 3d ab a3 63 3d 68 79 31 bd 50 a2 00 3c
       0.049727317 0.055576008 -0.043328673 0.007851198
000080 c7 f3 89 3d 4e c9 61 3d a1 09 0b 3d 3d 6b 46 bd
       0.0673595 0.05512362 0.03394473 -0.048442114
000090 28 1f 62 bd e9 19 8b 3d d4 f3 03 3d 97 3b 35 bc
       -0.055205494 0.06792051 0.032214954 -0.011061571
0000a0 91 f3 96 3d ec 19 76 3d f1 92 85 bc 44 f9 ba 3c
       0.07370675 0.060083315 -0.016305419 0.022823937
0000b0 a3 0e b2 3d 9b 87 25 3d 6f 61 fd bc 1f cc 98 bd
       0.08694198 0.040412527 -0.030930249 -0.07460808
0000c0 4a 6e d1 3c cd 9b da 3c 45 7c 97 bd 48 f8 e6 3b
       0.025565285 0.02668562 -0.073967494 0.0070486404
0000d0 8f 6b 47 bd 19 c4 0b 3d d4 ef 33 bd 0f 3d 6d bd
       -0.04868656 0.03412256 -0.04392989 -0.05791956
0000e0 81 26 89 3d f5 45 77 3d 64 3a 3d bd d3 33 12 bd
       0.06696797 0.06036945 -0.046198264 -0.035693955
0000f0 29 33 39 3d c9 f7 51 bd 67 bb c2 bc aa 8b 0b bd
       0.045214806 -0.051261697 -0.023771001 -0.03406874
000100 3c d5 8c 3c 18 c6 80 bc 9f 63 a8 3c 17 ca 68 bd
       0.017191522 -0.015719458 0.020555316 -0.056833353
000110 61 53 98 3d 0e 6e 3e 3c 41 4d 2c bd 7d 79 57 bd
       0.07437778 0.011622919 -0.042065863 -0.052606095
000120 64 05 3a 3d 55 1a 32 bd b3 16 32 3c 61 36 8f 3c
       0.045415297 -0.043482143 0.01086967 0.017481985
000130 5d ee 0e bd 26 bd c7 3d 01 f2 e2 bc 42 86 a7 3c
       -0.03489529 0.09752874 -0.027703287 0.020449761
000140 7b ca 24 3d 89 91 15 3d 4b 73 5f 3d 0b ea 29 bd
       0.040232163 0.036515746 0.05455331 -0.041482966
000150 58 dd b3 3b 59 ef 52 3c 60 1b d9 3c 03 62 d0 bc
       0.0054890327 0.012874448 0.026502311 -0.02543736
000160 7b 8c f4 bc b4 84 8c bd 06 9c 5b 3d c5 22 b1 3c
       -0.029852143 -0.068612486 0.053615592 0.021623025
000170 ce 41 9e bd e6 0c c3 bc 31 0d 03 bd f4 be 38 bd
       -0.07727395 -0.023809861 -0.031995002 -0.045103982
000180 e3 28 3f 3d 0e 9c 18 bd c9 dc 1e 3d 61 4b b1 3d
       0.046669852 -0.0372582 0.038784776 0.086569555
000190 65 48 fe 3c 7e d0 05 3d a5 aa 82 bd 50 91 1e bd
       0.03104038 0.032669537 -0.06380204 -0.0387128
0001a0 be 83 95 3b cb 7d 67 3c fd f8 32 3d 3d 66 1c 3d
       0.004562824 0.0141291125 0.043694485 0.03818344
0001b0 d0 3e de bc 0e 21 9b bd 0f 68 f9 3c b7 72 4f 3d
       -0.02712956 -0.07574664 0.030445127 0.05064651
0001c0 ff 05 9c bd d0 94 0e bd ef b9 06 bd 43 16 8a 3d
       -0.07618331 -0.034809887 -0.032892164 0.06742527
0001d0 b2 2d 8b bd c0 ee 26 3b ff 4e ac bc 40 fd 90 ba
       -0.06795825 0.0025471896 -0.021033762 -0.0011061803
0001e0 b1 9d f7 3a 33 9e f2 bc b0 1e 6c bc 7b 42 c6 3c
       0.00188916 -0.02961645 -0.014411613 0.024201622
0001f0 54 78 8c 3c 2d 55 02 3c 1b d2 fb 3b 37 64 9d 3d
       0.01714722 0.007954878 0.0076849586 0.0768513
