results/Prediction/2023-06-14/23:08:50.583382/models/model215.pth (torch, 340949 bytes, 34 tensors)

embedding.weight f4 [64, 92]
0	0x3e592744	0.21206385
1	0xbf34cc00	-0.7062378
2	0x3e4417cf	0.19149707
3	0x3d666ed8	0.056258053
4	0x3f690bee	0.9103383
5	0x40650fe9	3.579096
6	0x3f583c53	0.8446705
7	0x3f6206a4	0.8829138
8	0xbf94d107	-1.162629
9	0xbf890509	-1.0704662
10	0xbffaf210	-1.9605122
11	0xbe816f8c	-0.25280416
12	0xbfacb8cb	-1.3493894
13	0xbd89e832	-0.06733741
14	0xbf6ede4d	-0.93307954
15	0xbf449a6e	-0.7679814
16	0xbe831012	-0.25598198
17	0xbf27972a	-0.65465033
18	0xbfed196e	-1.8523386
19	0x3da1d977	0.07902806
20	0x3d6f193b	0.05837367
21	0x3eeb9bfd	0.46017447
22	0x3e4e3601	0.20137788
23	0x3f09cd8e	0.53829277
24	0xbfe1792a	-1.7615101
25	0xc0158675	-2.3363316
26	0x3eaca805	0.3372194
27	0x3cd4db4f	0.02598348
28	0x3dd8e375	0.10590259
29	0xbef6f291	-0.48231938
30	0x3f2c3a2f	0.6727628
31	0xbfcd6e03	-1.6049198
32	0xbf882e76	-1.0639179
33	0xbecaa884	-0.39581692
34	0xbdedd6b1	-0.11613215
35	0xbf0bb59d	-0.54573995
36	0x3dea50aa	0.11441167
37	0xbe8c0e0c	-0.27354467
38	0xbea1be10	-0.3159032
39	0x3f32c724	0.69835114
40	0x3f2bea15	0.67154056
41	0xc018d9cf	-2.388294
42	0x3eb6cc57	0.35702774
43	0xbf234caf	-0.63788885
44	0xbeaa8a56	-0.33308667
45	0x3f6e830c	0.9316871
46	0xbf2cc23c	-0.6748388
47	0x3edf2707	0.43584463
48	0xbe9e48eb	-0.30915007
49	0x3d7740c3	0.060364496
50	0x3fa9a2ac	1.3252769
51	0xbbf97eb6	-0.007613982
52	0x3ed0ceb5	0.40782705
53	0xbfb06219	-1.3779937
54	0xbf850b9c	-1.0394168
55	0xbffbe5d8	-1.9679518
56	0xbe7e478b	-0.24831979
57	0xbfa1ec22	-1.2650187
58	0x3ed561a9	0.4167607
59	0x3e9e5ee2	0.30931765
60	0xbe98d27a	-0.2984808
61	0x3c37e4eb	0.011224012
62	0xbf92e0a2	-1.1474802
63	0xbec2e803	-0.38067636
64	0xbe32dcb0	-0.17466998
65	0xbefdd982	-0.49580008
66	0x3d44b4a5	0.04802384
67	0x3d52ba17	0.051447
68	0x3fa34368	1.2754946
69	0xbd68bcb3	-0.056820583
70	0xbecee8ac	-0.4041189
71	0xbcf0f863	-0.029415315
72	0xbef5bd7e	-0.47996134
73	0xbebb0598	-0.36527705
74	0x3ce23263	0.027611917
75	0xbf43449b	-0.7627656
76	0xbcfe29a5	-0.031025717
77	0xbf030d69	-0.5119234
78	0xbef0b45b	-0.470126
79	0xbfc760f0	-1.5576458
80	0x3f72a2f4	0.94779897
81	0x3eafc472	0.34329563
82	0x3e9f0c3f	0.3106403
83	0xbfe5749e	-1.7926214
84	0x3fdcc5ca	1.724786
85	0xbf4d974c	-0.80308986
86	0x3e0c940d	0.13728352
87	0xbf05d9e2	-0.5228559
88	0xbfcc0dd7	-1.5941724
89	0xbea143b8	-0.31496978
90	0xbe2316a1	-0.15926601
91	0x3ebb96c4	0.36638463
92	0xbf0449eb	-0.5167529
93	0xbf1a121c	-0.6018388
94	0x3f6ebbf2	0.9325553
95	0xbf2ea9e1	-0.68227965
96	0x3d127de3	0.035764586
97	0xbf2cb621	-0.67465407
98	0xc02bf450	-2.6867867
99	0xc01022ab	-2.252116
100	0x3f3518b3	0.70740813
101	0xbfad984f	-1.3562106
102	0x3f34f156	0.7068075
103	0xbef0b671	-0.47014192
104	0x3f69fa31	0.91397387
105	0x3ed01191	0.40638402
106	0xbe2738a8	-0.16330206
107	0x3e0fa77b	0.14028732
108	0x3e039435	0.12849505
109	0x3ef224e7	0.4729378
110	0xc062a27f	-3.541168
111	0xbe8514d9	-0.25992468
112	0xbf71c1c0	-0.94436264
113	0x3de4ba7b	0.11168381
114	0x3db887fe	0.090103135
115	0xbfa7cd77	-1.3109578
116	0x3fb93822	1.4470255
117	0xbf8d2ebb	-1.1029886
118	0x3f3610d5	0.71119434
119	0xbf16c89a	-0.58899844
120	0xbf5ffee9	-0.8749834
121	0x3ebba12a	0.36646396
122	0xbe5a9b56	-0.21348318
123	0xbe7a052d	-0.24416037
124	0x3ff43477	1.9078511
125	0x3f756cc9	0.9586912
126	0xbdc1d01a	-0.0946352
127	0xbfd088f1	-1.6291791
128	0xbe8b9123	-0.27259168
129	0xbf24b1cf	-0.64333814
130	0xbd5b72ec	-0.053576395
131	0xbefc16e5	-0.49236217
132	0x3e9fb40c	0.31192052
133	0x3ed4081a	0.4141243
134	0xbfac3ca5	-1.3456007
135	0x3f58693e	0.84535587
136	0x3f730154	0.949239
137	0x3e280873	0.16409473
138	0xbed190b4	-0.40930712
139	0x3e76e174	0.24109441
140	0x3de06e1f	0.10958504
141	0xbe8ff4ba	-0.281164
142	0xbf1670fa	-0.5876614
143	0xbe83a1fe	-0.25709528
144	0xbdd4d930	-0.10392988
145	0x3e26ce69	0.16289677
146	0xbfb82678	-1.438674
147	0xbf2d3bc2	-0.6766931
148	0xbef0e30f	-0.47048232
149	0x3faee3f6	1.3663318
150	0x3f43d5aa	0.764979
151	0x3c6d7a63	0.014494511
152	0xc02f1337	-2.7355478
153	0x3f2b1129	0.6682306
154	0x3ff45788	1.9089212
155	0xbf1094cd	-0.5647705
156	0x3b31415f	0.002704702
157	0xbfdf7151	-1.7456456
158	0xbcfafbd0	-0.030637652
159	0x3c045293	0.008076328
160	0xbe74047f	-0.2382984
161	0x3bf4ec48	0.007474456
162	0x3c228b0c	0.009920847
163	0xbd516d1f	-0.051129457
164	0x3f153124	0.5827811
165	0xbf4e5c80	-0.80609894
166	0xbf9e69f1	-1.2376081
167	0x3f4e6970	0.80629635
168	0xbd6a8caf	-0.057263073
169	0x3f009b58	0.50237036
170	0x3e5a2159	0.21301784
171	0x3edde37c	0.4333762
172	0xbfdf6d79	-1.7455283
173	0xbf1b07db	-0.6055886
174	0xbe0323d9	-0.12806644
175	0xbf0938e2	-0.5360242
176	0xbf7dea56	-0.99185693
177	0xc031779e	-2.7729259
178	0x3ecf6c6c	0.40512407
179	0x3dc31b60	0.09526706
180	0x3f71b214	0.9441235
181	0x3f695065	0.911383
182	0x3e67f96e	0.22653744
183	0x3f56ba14	0.8387768
184	0xbf27dcd4	-0.6557133
185	0xbe3d36ac	-0.18477887
186	0xbf894b44	-1.0726094
187	0xbfa9b896	-1.3259456
188	0xbe828348	-0.25490785
189	0x4000cb8f	2.0124242
190	0x401bae8e	2.432529
191	0xc01f6221	-2.4903643
192	0xbffcac11	-1.974001
193	0xc016d35b	-2.35665
194	0x3ff60917	1.9221524
195	0x3f2b8516	0.6699995
196	0xbf6aea92	-0.91764176
197	0x3f3fdc01	0.74945074
198	0xbf6a2a53	-0.9147083
199	0xbfd3bdb6	-1.654227
200	0x3de815cd	0.11332283
201	0x3f4ee8ab	0.80823773
202	0x40473408	3.1125507
203	0xbeb5aa17	-0.3548133
204	0xbf84b9ba	-1.0369179
205	0x3c2e2b5a	0.010630453
206	0xbfc853fe	-1.5650632
207	0xbebcfe30	-0.3691268
208	0x3f9b5d10	1.2137775
209	0x3f964f6b	1.1742986
210	0x3da0152e	0.0781654
211	0xbf7e3e20	-0.99313545
212	0xbd25318f	-0.040330466
213	0xbe8349cd	-0.25642243
214	0xbdf0e36b	-0.117621265
215	0xbf419045	-0.7561076
216	0x3ea4bf19	0.32177046
217	0x3f019f50	0.50633717
218	0xbf15b642	-0.5848123
219	0x3dad39b3	0.08458271
220	0xbeb161bf	-0.34644887
221	0xbf348ff8	-0.7053218
222	0x3c9a4c42	0.01883519
223	0x3ec52213	0.3850256
224	0xbeb7be74	-0.35887492
225	0xbf217230	-0.6306486
226	0xbf130972	-0.5743629
227	0x3f88c7ba	1.0685952
228	0x3f1e15e3	0.61752146
229	0xbe7e5eb1	-0.2484081
230	0xbea9cbb0	-0.33163214
231	0xbfab7068	-1.3393679
232	0x3e0b78d6	0.13620314
233	0xbf52ab67	-0.8229279
234	0xbf4d505c	-0.80200744
235	0x3efa4d9e	0.48887342
236	0x3eb1be6f	0.34715602
237	0xbfdb659e	-1.7140386
238	0xc01c13f4	-2.4387178
239	0x3f213ba4	0.6298163
240	0x3f4260b9	0.7592884
241	0x3d3596ff	0.044333454
242	0x3ddcb093	0.10775866
243	0x3edc5000	0.43029785
244	0xbe9687f5	-0.29400602
245	0xbf6d5336	-0.92705095
246	0xbc14c2eb	-0.009079675
247	0x3ea0a000	0.3137207
248	0xbed64ef0	-0.418571
249	0xbc1bd450	-0.009511068
250	0x3dae830d	0.0852109
251	0x3bd5cf23	0.0065249368
252	0xbfbc3fdb	-1.4706987
253	0xbcc58bcf	-0.024114517
254	0xbfba6e44	-1.45649
255	0x3cf56178	0.029953703

convs.0.fc_full.weight f4 [128, 169]
0	0xc00b1f3a	-2.173781
1	0x3f5a81cd	0.8535431
2	0xbf980e34	-1.1879334
3	0xbfc680e2	-1.5508082
4	0x3b90bfe2	0.0044174055
5	0x3f905c38	1.1278143
6	0x3f615464	0.88019395
7	0xbfc515dc	-1.5397296
8	0xbc705871	-0.014669524
9	0xbfc0fd41	-1.5077287
10	0x3f666b13	0.9000713
11	0x3ed1be72	0.4096561
12	0xbfaf6945	-1.3704001
13	0xbf600ab0	-0.8751631
14	0x3ebb292e	0.36554855
15	0x3f3e8151	0.7441607
16	0xbf6d3285	-0.9265521
17	0xbd54d211	-0.051958147
18	0x3f384d20	0.71992683
19	0xbffce111	-1.9756185
20	0x401c586c	2.4428968
21	0xc00a9925	-2.1655972
22	0x3f2931f2	0.66091835
23	0x3ee7c145	0.4526464
24	0xbf618252	-0.8808948
25	0xbe9f14cd	-0.31070557
26	0xbf4e8492	-0.80671036
27	0x3ebb4782	0.36577994
28	0xbea0cb13	-0.31404933
29	0xbf2cf0be	-0.67554843
30	0xbfa96e68	-1.3236818
31	0xbe342899	-0.17593612
32	0xbef1fda8	-0.47263837
33	0xbe791205	-0.2432328
34	0x3f610983	0.8790514
35	0xbee06630	-0.43827963
36	0xbf2b5b44	-0.66936135
37	0x3d608888	0.054817706
38	0xbf0023e1	-0.50054747
39	0x3e88d7aa	0.2672704
40	0x3cd1d110	0.025612384
41	0xbf0d1c25	-0.5512107
42	0xbf418707	-0.7559666
43	0xbf6de6e4	-0.92930436
44	0x3e1c7512	0.15279034
45	0xc006b0ee	-2.104549
46	0x3ee5e67c	0.44902408
47	0x3e1b2dc6	0.1515418
48	0x3f9ccb80	1.2249603
49	0x3fc53fbc	1.5410075
50	0xbec6df8f	-0.38842437
51	0x4011a5fa	2.2757554
52	0x3ff1a564	1.8878598
53	0xc01082e0	-2.257988
54	0x3f5f2be6	0.8717636
55	0xbfd39367	-1.6529359
56	0xbc16c788	-0.009202845
57	0xbebf1eb8	-0.37328124
58	0xbe2cc3ff	-0.16871642
59	0xc03e2599	-2.9710448
60	0xbff70841	-1.9299394
61	0x3f8dba66	1.1072509
62	0xbebdd124	-0.37073624
63	0xbf4ed045	-0.80786544
64	0x3ec812e2	0.39076906
65	0x3e2ca992	0.16861561
66	0xbe2f7746	-0.17135343
67	0x3e0fb591	0.14034106
68	0xbf7ca7a9	-0.9869333
69	0x3cb399e5	0.021923969
70	0xbf285644	-0.6575663
71	0x3c379722	0.011205466
72	0x3e837ae9	0.2567971
73	0x3e161038	0.14654624
74	0xbf477df3	-0.7792656
75	0x3f230dfe	0.63693225
76	0xbee25189	-0.4420283
77	0x3f1c1a8d	0.60978013
78	0xbf894863	-1.0725216
79	0xbe994f0b	-0.29943117
80	0xbc73f214	-0.014889259
81	0xbf02d246	-0.511021
82	0x3cc875bf	0.024470208
83	0x3f1abee7	0.60447544
84	0xbf39e2c6	-0.72611654
85	0x3e164b90	0.14677262
86	0xbf4d653e	-0.8023261
87	0x3e8e0315	0.27736726
88	0x3c489b01	0.012243987
89	0xbfa89d3a	-1.3172982
90	0x3e24ed9a	0.16106263
91	0x3dc8a744	0.097975284
92	0x3e9d6af0	0.3074565
93	0x3f625a07	0.8841862
94	0x3dfde43b	0.12397047
95	0xbe1e396f	-0.15451597
96	0x3eca1431	0.3946853
97	0x3eebd4d8	0.46060824
98	0x3e286449	0.16444506
99	0xbee6a1df	-0.45045373
100	0xbe44d945	-0.19223507
101	0x3ea68854	0.32525885
102	0xbd993739	-0.07481236
103	0x3f40343d	0.7507971
104	0x3c1c4d20	0.009539872
105	0xbe993003	-0.29919443
106	0x3de75554	0.11295572
107	0xbebb47f1	-0.36578324
108	0x3e787435	0.2426308
109	0x3fa0e335	1.2569338
110	0xbed6102b	-0.4180921
111	0x3d0bb4e9	0.034108076
112	0xbeb33a19	-0.35005262
113	0xbc8deceb	-0.017324885
114	0x3ddc3010	0.10751355
115	0xbd9ca502	-0.0764866
116	0xbd43ba79	-0.047785256
117	0x3eb7a351	0.35866788
118	0x3e52ca63	0.20585017
119	0x3de9c1b8	0.11413902
120	0x3ee8f7ae	0.45501465
121	0x3ec9e0ce	0.39429325
122	0x3f5a99fb	0.85391206
123	0xbc1662f9	-0.00917887
124	0x3f164160	0.58693504
125	0xbf68fff6	-0.91015565
126	0x3e9952c7	0.29945967
127	0xbb0b3d6a	-0.0021246322
128	0x3d427120	0.047471166
129	0x3ba29217	0.004961263
130	0xbd8413b0	-0.064490676
131	0xbe90b17c	-0.2826041
132	0xbe87baf1	-0.26509812
133	0x3ed48d39	0.41513994
134	0x3f032c86	0.5123981
135	0xbc167e0a	-0.0091853235
136	0xbe7abb76	-0.24485573
137	0x3dfbac58	0.12288731
138	0x3f865a47	1.04963
139	0x3f9e952b	1.2389272
140	0x3f118234	0.568393
141	0x3fa75de3	1.3075527
142	0xbf0b1bbb	-0.5433919
143	0xbfa67e8d	-1.300737
144	0xbf1240d6	-0.5713018
145	0x3e202668	0.15639651
146	0x3e93dee5	0.28880993
147	0xbd62808d	-0.055298377
148	0xbd993789	-0.074812956
149	0x3e2d7fc2	0.16943267
150	0x3f22ea88	0.63639116
151	0x3e819fde	0.2531728
152	0xbd2bee38	-0.04197523
153	0xbe2ec7f5	-0.17068465
154	0xbe4970b6	-0.19671902
155	0xbe449f7c	-0.19201463
156	0xbe46ffb9	-0.19433488
157	0xbe769219	-0.2407917
158	0xbe9d3877	-0.30707142
159	0xbeac8904	-0.33698285
160	0xbe2b9f43	-0.16759972
161	0x3e013fc3	0.1262198
162	0x3d7f7465	0.06236686
163	0x3d04336f	0.032275613
164	0x3d04e27d	0.03244256
165	0x3d9b73bd	0.07590435
166	0xbd2edc7e	-0.042690746
167	0xbd08e465	-0.03342094
168	0x3d572d63	0.05253352
169	0xbf963238	-1.1734076
170	0xbfc78956	-1.5588787
171	0x3fa3aa0c	1.2786269
172	0xbe95d659	-0.29265097
173	0x3feb6fb0	1.8393459
174	0xbf547aeb	-0.8300006
175	0x3eeeccf8	0.46640754
176	0xc01e5a86	-2.474275
177	0x3f62b754	0.88560987
178	0x3de304a7	0.11084872
179	0x3e13b5b4	0.14424783
180	0x3f3b52a4	0.73172975
181	0xbef8226c	-0.48463762
182	0xbe8fe4b2	-0.28104168
183	0x3f40368d	0.7508324
184	0x3f9ad31d	1.2095677
185	0xc00beb1d	-2.1862252
186	0x3ede08a9	0.43365982
187	0xbe8d9c58	-0.27658343
188	0x3de3b534	0.11118546
189	0xbf1e561b	-0.61850137
190	0xbf1ac1fa	-0.60452235
191	0x3faf695b	1.3704027
192	0xbf88cf4a	-1.068826
193	0x3eeb32ea	0.45937282
194	0x4032646c	2.7873793
195	0xbf426e63	-0.75949687
196	0x3dd4d629	0.1039241
197	0x3e16320c	0.14667529
198	0x3eb6ae00	0.35679626
199	0xc0084b82	-2.1296086
200	0xbe7be2e4	-0.2459827
201	0x3fee6709	1.8625194
202	0xc00c2568	-2.189783
203	0x3ff1a40b	1.8878187
204	0x3fa8abb8	1.3177404
205	0x3fd12051	1.6337987
206	0xc00fbc53	-2.2458694
207	0x3f8d1856	1.1023052
208	0xbf799bef	-0.9750356
209	0x3ef51382	0.47866446
210	0x3e57c780	0.21072197
211	0xc003bf00	-2.0585327
212	0x3f8e2b70	1.1107006
213	0xbfdf42cf	-1.7442263
214	0xbf86290c	-1.0481277
215	0x3ee17d81	0.44041064
216	0x3f719ad1	0.94376856
217	0x3f7a690a	0.97816527
218	0x3e2abeb0	0.16674304
219	0xbf15558a	-0.5833365
220	0x3fc97969	1.5740176
221	0xbdfaddf8	-0.122493684
222	0xbe8dd303	-0.27700052
223	0xbf5681b4	-0.8379166
224	0x3c56f4d2	0.013119893
225	0x3e4da50a	0.20082489
226	0xbffde8ea	-1.9836705
227	0xbfeeadab	-1.8646749
228	0xbf813f48	-1.0097437
229	0xc072273e	-3.7836452
230	0x3f59ebcc	0.8512542
231	0xbff57df4	-1.9179063
232	0x3f8465af	1.0343531
233	0xbf7a76d9	-0.978376
234	0xbe1b17a7	-0.15145741
235	0x3f865192	1.0493643
236	0x3e954c25	0.29159656
237	0xbf9d7e9e	-1.2304265
238	0x3eab3d65	0.33445278
239	0xbe75bffe	-0.2399902
240	0x3f660a4a	0.8985945
241	0x3faa2d4f	1.3295077
242	0xbddfa327	-0.10919791
243	0xbe7658e5	-0.24057348
244	0x3f07f60c	0.5310981
245	0x3f9f1825	1.2429243
246	0xbfd5d089	-1.6704265
247	0xc004094c	-2.0630674
248	0xbfc268b9	-1.5188209
249	0x3db884f6	0.09009735
250	0x3ffa04cc	1.9532714
251	0x3e0377ce	0.1283867
252	0x3ebf2ac2	0.3733731
253	0xbec94575	-0.39310804
254	0xbf3beef4	-0.7341149
255	0xbf270806	-0.6524662

convs.0.fc_full.bias f4 [128]
0	0x3d6aeb70	0.057353437
1	0x3d05d52d	0.032674003
2	0xbd8da6cf	-0.06916582
3	0x3d9a23ae	0.075263366
4	0x3d205855	0.03914674
5	0xbd332fae	-0.043746643
6	0x3cc1d279	0.023659931
7	0xbc9c97d1	-0.01911536
8	0xbc712382	-0.014717938
9	0x3b9ce55d	0.0047880844
10	0xbd2a4558	-0.041570038
11	0x3b784204	0.0037881145
12	0xbd13e139	-0.03610346
13	0x3d590994	0.05298765
14	0xbd460ae5	-0.048350234
15	0x3d9bbbd2	0.07604183
16	0xbd945b3f	-0.07243966
17	0x3d527f1e	0.05139076
18	0x3d8d1c32	0.068901435
19	0x3bb3f167	0.005491424
20	0x3b4ca507	0.0031226294
21	0x3ca6a2e9	0.020341353
22	0x3d3915f9	0.04518697
23	0x3d91e953	0.07124581
24	0x3deffbc4	0.11717942
25	0x3b4520ba	0.003007932
26	0xbdca53d5	-0.09879271
27	0x3c24d996	0.010061642
28	0x3c9fd89e	0.01951247
29	0xbd9a471f	-0.075330965
30	0x3cc165ca	0.023608107
31	0xbd8a7a96	-0.06761663
32	0x3d9e8704	0.07740596
33	0xbc352411	-0.011055962
34	0xbcd722b7	-0.02626167
35	0xbcd1c989	-0.025608795
36	0x3dbc5d16	0.09197442
37	0x3c129507	0.008946664
38	0xbd92e44e	-0.07172452
39	0x3a32835d	0.0006809736
40	0xbc413386	-0.011792069
41	0x3d44ab55	0.048014957
42	0xbccc4405	-0.024934778
43	0x3dbf6bfd	0.09346769
44	0x3dd85e77	0.10564893
45	0xbc821f60	-0.015884101
46	0xbdb09de0	-0.08623862
47	0xbdb69de5	-0.08916835
48	0xbbe2ca49	-0.006921087
49	0x3bf15636	0.0073650135
50	0x3b8432a3	0.0040343567
51	0x3d0f8bb8	0.035045356
52	0xbd01722c	-0.031603023
53	0x3cbf169c	0.02332621
54	0xbd2d886b	-0.042366426
55	0xbd07c944	-0.033150926
56	0xbcdcfacb	-0.026975056
57	0xbc35ff03	-0.011108163
58	0xbd423ba3	-0.047420155
59	0xbd742ee3	-0.059615027
60	0x3cfd82cf	0.030946163
61	0x3d3668c9	0.044533525
62	0xbcfc21d3	-0.030777847
63	0x3ceeebab	0.02916511
64	0xbd5c9e52	-0.053861924
65	0x3d413190	0.047166407
66	0x3b3d6796	0.0028900853
67	0x3c724b7d	0.014788506
68	0x3cdca107	0.026932253
69	0x3d8c826f	0.06860816
70	0x3c93e25c	0.018052272
71	0x3d81304a	0.063080385
72	0x3d763f9b	0.060119253
73	0x3d7a4059	0.061096523
74	0xbc1c9716	-0.009557506
75	0xbd598fff	-0.05311584
76	0xbc9ef5df	-0.01940435
77	0x3d36c04b	0.04461698
78	0xb9e826dd	-0.00044279444
79	0xbdba6176	-0.091006204
80	0x3dc9fc85	0.098626174
81	0xbd7e4d7d	-0.062085617
82	0x3d1eb6fc	0.038748726
83	0xbd8f8255	-0.07007281
84	0xbc6fe10d	-0.014641059
85	0x3b9daa87	0.004811588
86	0xbd35bcc3	-0.04436947
87	0x3cfa2e29	0.030539589
88	0xbd2105cb	-0.039312165
89	0xbcea049e	-0.028566655
90	0xba5626e1	-0.00081692456
91	0x3c4353ce	0.011921836
92	0x3d9decd8	0.0771119
93	0xbd7e4f6f	-0.062087473
94	0xbd35663f	-0.044286963
95	0xbc80b2aa	-0.015710194
96	0x3d81397d	0.06309793
97	0x3b612c9e	0.003435887
98	0x3d38efe5	0.045150656
99	0xbce6534b	-0.028115889
100	0x3d4303ea	0.047611155
101	0xbd023d0f	-0.03179651
102	0x3cec0a6b	0.028813561
103	0x3d13bbad	0.036067653
104	0xbda70340	-0.08154917
105	0x3d335da3	0.04379047
106	0x3cf713e9	0.030160861
107	0x3b69094d	0.0035558522
108	0xbd60e4f4	-0.054905847
109	0xbd7976f5	-0.060904462
110	0xbd4b2071	-0.049591485
111	0xbd0bd0c1	-0.03413463
112	0x3cf08a2c	0.02936276
113	0x3d831763	0.06400945
114	0x3d912146	0.070864245
115	0x3d477281	0.048693184
116	0x3ce0c85a	0.027439285
117	0x3d46d1b8	0.048539847
118	0xbb9141f0	-0.004432909
119	0x3d6ccf1e	0.05781471
120	0x3a84150a	0.0010077071
121	0xbc118dfb	-0.008883948
122	0x3db460a6	0.08807497
123	0x3d17784e	0.036979966
124	0xbdbaf316	-0.09128396
125	0xbd4e1af2	-0.050318666
126	0xbda962ce	-0.082707986
127	0xbdcb8afe	-0.0993862

convs.0.bn1.weight f4 [128]
0	0x40a7fb0b	5.249395
1	0x4057a778	3.3695965
2	0x40b7d83b	5.7451453
3	0x403e34df	2.971977
4	0x40c8ba03	6.2727065
5	0x40933fbb	4.6015296
6	0x408870dc	4.263777
7	0x406c9416	3.6965384
8	0x40ac7e6b	5.390432
9	0x4037ad7d	2.869964
10	0x40529cc5	3.2908185
11	0x40ce5520	6.447891
12	0x4086c9e9	4.212147
13	0x403559e7	2.8336122
14	0x409bf0eb	4.873159
15	0x40a022f1	5.0042653
16	0x407c7d2b	3.9451396
17	0x3f57be56	0.84274805
18	0x4098482f	4.7588115
19	0x3f8d391b	1.1033052
20	0x40917dfd	4.5466294
21	0x40d9ef74	6.81048
22	0x400a6b2b	2.162791
23	0x4098ffd5	4.7812295
24	0x408bf00c	4.3730526
25	0x402f629c	2.7403936
26	0x4082d307	4.08826
27	0x40613a66	3.5191894
28	0x406da642	3.7132726
29	0x4064bab7	3.5738962
30	0x400fa936	2.2447028
31	0x40cf4e25	6.478289
32	0x400c1f3c	2.1894064
33	0x404f3f8b	3.2382534
34	0x40880557	4.250652
35	0x40481806	3.1264663
36	0x40a9e57c	5.309263
37	0x406653ee	3.5988727
38	0x400e717b	2.2256763
39	0x40b81adc	5.7532787
40	0x40ee0d02	7.439088
41	0x4092a9bb	4.583219
42	0x40661bfc	3.595458
43	0x40ba937b	5.830503
44	0x40394c38	2.895277
45	0x40c337ef	6.100578
46	0x3f63090d	0.88685685
47	0x4087ab07	4.2396274
48	0x40469ae0	3.1032028
49	0x40bcabd0	5.895973
50	0x40ad7034	5.4199467
51	0x4098e50f	4.7779613
52	0x4027e816	2.6235404
53	0x402b43d5	2.6760151
54	0x4064cb1a	3.5748963
55	0x40621432	3.5324826
56	0x4083bf5d	4.11711
57	0x40ba4f49	5.8221784
58	0x3f3fa297	0.7485747
59	0x40650f54	3.5790606
60	0x4076caca	3.8561273
61	0x40a3ee8c	5.1228695
62	0x40d96a0c	6.794195
63	0x40d31361	6.5961156
64	0x401574f5	2.3352635
65	0x403d81b2	2.961041
66	0x4003dfe5	2.0605404
67	0x402846d2	2.6293225
68	0xbee0035b	-0.4375256
69	0x3f828f65	1.020001
70	0x3f89697f	1.073532
71	0x40ab8a5f	5.360641
72	0x3fcf24bc	1.6183085
73	0x3f91beb4	1.1386323
74	0x3f6b24b3	0.91852874
75	0x409a9746	4.830966
76	0x3f80aa29	1.0051929
77	0x3fb946bc	1.4474711
78	0x3f988afb	1.1917413
79	0x3fb2e826	1.3977096
80	0x3f1c0dbb	0.6095845
81	0x40e2fd86	7.0934477
82	0x3f226cf6	0.6344751
83	0x409eaa7b	4.9583106
84	0x3fefd14a	1.8735745
85	0x3fbbba6e	1.4666269
86	0x3ee9322e	0.45546097
87	0x3ecd2761	0.40069106
88	0x3fee9c97	1.8641537
89	0x3f34f304	0.7068331
90	0x4016fdaa	2.3592324
91	0x3fc8c35d	1.568462
92	0x3ff2533b	1.893165
93	0x3f6a0ba8	0.91424036
94	0x40464ac3	3.098313
95	0x3d847dc0	0.064692974
96	0x40b40a64	5.6262684
97	0x3f35e608	0.71054125
98	0x3fbc05df	1.4689292
99	0x3e28b162	0.16473916
100	0x3fd77c38	1.6834784
101	0x3f6ff6df	0.9373607
102	0x4013d8e5	2.3101132
103	0x3f310e84	0.69162774
104	0x3ecf2e75	0.4046513
105	0x3f557927	0.8338799
106	0x4045054d	3.0784485
107	0x3f4bb5c6	0.7957424
108	0x40bcf4d6	5.904887
109	0x3f7dc673	0.99130934
110	0x3f6eb5e0	0.9324627
111	0x3fa9e63d	1.3273388
112	0xbb8c2306	-0.004276636
113	0x3f5985d5	0.84969836
114	0x4017f339	2.3742201
115	0x4041062a	3.0160012
116	0x3fb5e647	1.42109
117	0x3f5d3096	0.8640226
118	0x40482196	3.12705
119	0x3f9ddc4d	1.2332855
120	0x3f258782	0.64659894
121	0x3f4d2d5c	0.8014734
122	0x4096468c	4.6961117
123	0x3f9b25c6	1.2120903
124	0x3fbebf41	1.4902116
125	0x3f43a78b	0.76427525
126	0x3fd853d4	1.6900582
127	0x3ebd2fd8	0.36950564

convs.0.bn1.bias f4 [128]
0	0xbef65ff7	-0.4812009
1	0xbe4c5527	-0.19954358
2	0xbe7d7b5a	-0.24754086
3	0x3d44b21f	0.048021432
4	0x401c8316	2.4455009
5	0xbe90cf49	-0.28283146
6	0x3d7b122a	0.06129662
7	0xbf601742	-0.8753549
8	0x3e426a60	0.18985891
9	0x3d8dbd6f	0.06920897
10	0xbed4dfcf	-0.41577002
11	0xbf139caf	-0.57660955
12	0x3f0c09a5	0.54702216
13	0x3eed294b	0.46320567
14	0x3f7502e8	0.9570756
15	0xbfebbf30	-1.8417721
16	0xbf21b449	-0.6316572
17	0x3e5d5ffa	0.21618643
18	0x3f9462e5	1.159268
19	0x3fcdf3b9	1.6090003
20	0x3f576459	0.84137493
21	0x3f9ee02f	1.2412165
22	0x3fddb772	1.7321608
23	0x3f51ddcc	0.8197906
24	0x3d10930e	0.035296492
25	0xbe0b8914	-0.1362651
26	0xbedacffa	-0.427368
27	0x3e1844cb	0.14869992
28	0x3eb11792	0.34588295
29	0x3e820011	0.25390676
30	0xbeabfb51	-0.33590177
31	0x3fa116e6	1.2585113
32	0x3f66a0f9	0.90089375
33	0x3fced8af	1.6159877
34	0xbf7b9b7d	-0.9828413
35	0x4020b903	2.5112922
36	0xbec89b58	-0.39181018
37	0x3f8897fa	1.067138
38	0xbfba5929	-1.455846
39	0x40111693	2.2670028
40	0x3f79b706	0.97544897
41	0x40016333	2.0216796
42	0x3ec50a22	0.38484293
43	0x3e9dee61	0.3084593
44	0x3ec59fda	0.3859852
45	0xbf38a3e6	-0.7212509
46	0x3f5dfd1e	0.8671435
47	0xbe909e35	-0.28245702
48	0x40837244	4.1076984
49	0x3f024d79	0.50899464
50	0x3f48aa8c	0.78385234
51	0xbfe25365	-1.76817
52	0x3f8fe66b	1.1242193
53	0x3f7a67a2	0.9781438
54	0xbfa2b8e4	-1.2712674
55	0xbe9a66b4	-0.3015648
56	0x3f0196a1	0.50620466
57	0xbfba901c	-1.4575229
58	0xbec43a17	-0.3832557
59	0x3f2f096f	0.6837377
60	0x3e9ce5b8	0.30644011
61	0x3fbb2377	1.4620198
62	0x3f8b37f4	1.087645
63	0x3f9c216d	1.2197701
64	0x3ecfde50	0.40599298
65	0xbe9eb67e	-0.30998605
66	0x3ee2250c	0.4416889
67	0xc0222674	-2.533597
68	0x4105056d	8.313825
69	0x3f1b48df	0.6065807
70	0x3f4f2c64	0.8092711
71	0xbf46ba47	-0.77627987
72	0x3f01483a	0.50500834
73	0x3f410002	0.75390637
74	0x3f7376de	0.9510325
75	0xbfb391b7	-1.4028844
76	0x3fca3340	1.579689
77	0xbe411e3b	-0.18859188
78	0x3fa25c47	1.2684411
79	0xc0330ea4	-2.7977686
80	0x3f9452d8	1.1587782
81	0xbf128baa	-0.5724436
82	0x3ff4d0df	1.9126242
83	0x3ef7651f	0.48319337
84	0x3e0a621c	0.13513988
85	0x3fa5a6a5	1.2941481
86	0x402a170d	2.657657
87	0x3ffa92b5	1.9576021
88	0xbf941be1	-1.1571008
89	0x3fb14911	1.3850423
90	0xbf141b4f	-0.5785417
91	0xbfab6b2c	-1.3392081
92	0xbf84d818	-1.0378447
93	0x3e78056f	0.24220823
94	0xbfb22176	-1.3916461
95	0x4084af6c	4.146414
96	0x3f979081	1.1840974
97	0x3f756713	0.95860404
98	0x3fbb2b4a	1.4622586
99	0x411d0e89	9.816049
100	0x3f04f272	0.5193244
101	0x3f6e9df4	0.9320977
102	0xc0205cdd	-2.505668
103	0x400773f1	2.1164515
104	0x40f7989b	7.7373786
105	0x3fca16e6	1.5788238
106	0xbed99329	-0.42495087
107	0x3febd1fc	1.8423457
108	0xbf703993	-0.9383785
109	0x3fc257ff	1.5183104
110	0x3f8210e9	1.016141
111	0xbe0d59a1	-0.13803722
112	0x40fd1a50	7.909462
113	0x3f873279	1.0562278
114	0x3e8b7c0a	0.27243072
115	0x3eb1d4a6	0.3473255
116	0x3f2a7ddb	0.6659829
117	0x4008e617	2.1390436
118	0xbe8c0b7d	-0.27352515
119	0x3f925eff	1.143524
120	0x3ff831e0	1.9390221
121	0x3fb97f13	1.4491905
122	0xbf3f7acf	-0.74796766
123	0x3eaebce6	0.34128493
124	0xbee57448	-0.44815278
125	0x3f899847	1.0749596
126	0x3d8d8318	0.0690977
127	0x407e37bf	3.9721525

convs.0.bn1.running_mean f4 [128]
0	0x4286b255	67.348305
1	0x41d4557e	26.541744
2	0x422cdc0a	43.21488
3	0x41e439fd	28.528315
4	0x42bf1df6	95.55852
5	0x42bc86de	94.26341
6	0x4212fe66	36.748436
7	0x4222cd2a	40.700356
8	0xc1187fe3	-9.531222
9	0x4257ca60	53.94763
10	0x424b46f7	50.8193
11	0x40b5d296	5.6819563
12	0xc26471c9	-57.11112
13	0xc28bcc22	-69.8987
14	0x421e673c	39.600815
15	0xc1ba9022	-23.320377
16	0x4265325d	57.299183
17	0x41977bca	18.935444
18	0x418f2579	17.893297
19	0xc1e5fc5a	-28.748219
20	0x4285bdd7	66.87078
21	0xc1ce0b9f	-25.755674
22	0x3e26c2d8	0.16285264
23	0x4206adce	33.66973
24	0x426509f9	57.25974
25	0xc1c0f618	-24.120163
26	0x4287ae8b	67.840904
27	0x420af131	34.73554
28	0xc0cc0faa	-6.376912
29	0x4222ecaf	40.731136
30	0x41da8ad8	27.317795
31	0x415b9515	13.723897
32	0x420d9323	35.39369
33	0xc0c54fdb	-6.165998
34	0xc20cebd1	-35.23029
35	0xc2a1b19c	-80.84689
36	0xc19ebb90	-19.841583
37	0xc10ca37b	-8.789912
38	0xbfec30bd	-1.8452374
39	0x42322dc5	44.544697
40	0xc2056753	-33.350903
41	0x418057c0	16.042847
42	0x41f7d1cd	30.977442
43	0xc1c23c1c	-24.27935
44	0xc11950ee	-9.582258
45	0x41344b92	11.26845
46	0x4086275b	4.192304
47	0x42cffeb1	103.997444
48	0x41ccb43a	25.588001
49	0xc22feed0	-43.983215
50	0xc29c61b3	-78.19082
51	0xc20d9b28	-35.40152
52	0x41c96fb7	25.179548
53	0xc1499464	-12.598728
54	0xc181c4e7	-16.221144
55	0xbfa19123	-1.2622417
56	0x42723e9e	60.56115
57	0xbf6d3b33	-0.92668456
58	0x41fa1e8e	31.26492
59	0x41ec88e9	29.56685
60	0xc2559a8d	-53.40093
61	0x42466aa0	49.604126
62	0x41cb6d3d	25.428339
63	0x41c7a7c9	24.956926
64	0x42612423	56.28529
65	0xc216c500	-37.692383
66	0x41c430c6	24.523815
67	0x4218ecde	38.231316
68	0x42a5f512	82.97865
69	0x4123b689	10.232064
70	0xc1b0c6f2	-22.097141
71	0x4165d388	14.364143
72	0xc0ce0abe	-6.4388113
73	0x42822c8c	65.087006
74	0x4249667f	50.350094
75	0xc1b06128	-22.04744
76	0x406a08fb	3.6567981
77	0xc20c3361	-35.050175
78	0xbfebc9e9	-1.8420993
79	0x417118cf	15.068557
80	0x425cabfe	55.16796
81	0xc20f56b6	-35.83468
82	0xc0c877d8	-6.2646294
83	0xc17210bd	-15.1290865
84	0x42287be6	42.120995
85	0xc223cdac	-40.95085
86	0x400a6a45	2.1627362
87	0x42c3ca9a	97.895706
88	0xc1df5972	-27.918674
89	0x414df5c4	12.872501
90	0x416f7285	14.965459
91	0x41aa4435	21.283304
92	0x4287cbdd	67.89817
93	0x41b727a6	22.89436
94	0x425f5554	55.83333
95	0x41d197e9	26.199175
96	0xbf852ad9	-1.0403701
97	0x41fcd0aa	31.601887
98	0xc1c870bf	-25.055052
99	0x41e95a97	29.169233
100	0xc13d92ee	-11.8483715
101	0x40e0f1b6	7.0295057
102	0x419c5fa1	19.546694
103	0xc21e3238	-39.54904
104	0xc0ee0741	-7.4383855
105	0x41a06631	20.049898
106	0x4184c71c	16.597221
107	0x42294730	42.31952
108	0x41c33842	24.40247
109	0x42999570	76.79187
110	0x41952b63	18.646185
111	0x41387c5d	11.530362
112	0x4151066d	13.064069
113	0xc2025647	-32.584255
114	0xc21fe5f6	-39.97457
115	0xc2103f2a	-36.061684
116	0x41d6044a	26.752094
117	0x421943de	38.316277
118	0x418b7443	17.431768
119	0x427604b9	61.504612
120	0xc113f776	-9.247915
121	0xc1926b30	-18.302338
122	0xc204741c	-33.113388
123	0x42487c98	50.121674
124	0xc1a87aaf	-21.059904
125	0xc207858e	-33.880424
126	0x4100d50c	8.052013
127	0x429c7902	78.23634

convs.0.bn1.running_var f4 [128]
0	0x4581cf04	4153.877
1	0x45e45ba8	7307.457
2	0x45484be0	3204.7422
3	0x44da426a	1746.0754
4	0x452c788a	2759.5337
5	0x4576a297	3946.1619
6	0x44ae6f96	1395.487
7	0x4588bbe9	4375.489
8	0x45989363	4882.4233
9	0x450416c9	2113.424
10	0x44ef35fd	1913.6871
11	0x45828b2d	4177.397
12	0x45571c0c	3441.753
13	0x45acad58	5525.668
14	0x45879f66	4339.925
15	0x439e23cf	316.27975
16	0x45c648f1	6345.1177
17	0x45e89846	7443.034
18	0x45a082aa	5136.333
19	0x4575d3b3	3933.2312
20	0x44f77d12	1979.9084
21	0x453f6e14	3062.88
22	0x45da3f5b	6983.9194
23	0x45b28001	5712.0005
24	0x459459d9	4747.231
25	0x45cde0e7	6588.113
26	0x45589d91	3465.848
27	0x4531e028	2846.0098
28	0x454722a5	3186.1653
29	0x452888be	2696.5464
30	0x45686296	3718.1616
31	0x4541a458	3098.2715
32	0x4542593f	3109.578
33	0x45a04115	5128.1353
34	0x45e2edb4	7261.713
35	0x45b54ce8	5801.6133
36	0x45df7ec8	7151.8477
37	0x458bf72f	4478.898
38	0x455a94b8	3497.295
39	0x4516137f	2401.2185
40	0x459c87a5	5008.9556
41	0x4508f38f	2191.2224
42	0x45a6fc0d	5343.5063
43	0x457b9fbe	4025.984
44	0x45317c5a	2839.772
45	0x4560186b	3585.5261
46	0x454613ec	3169.245
47	0x45184a6b	2436.6511
48	0x44eb04e5	1880.153
49	0x455be595	3518.3489
50	0x44d632a4	1713.5825
51	0x45b92107	5924.1284
52	0x4531c5d0	2844.3633
53	0x45393855	2963.5208
54	0x458f23af	4580.4604
55	0x4581d7e1	4154.985
56	0x456f3ef8	3827.9355
57	0x452d7d77	2775.8416
58	0x45a8bf71	5399.93
59	0x45b0322c	5638.2715
60	0x44dcc4c4	1766.1489
61	0x44f83c51	1985.8849
62	0x4519ebd5	2462.7395
63	0x45c3c862	6265.048
64	0x4586c878	4313.0586
65	0x45d4f9aa	6815.208
66	0x45b1348a	5670.5674
67	0x450a0551	2208.3323
68	0x45b08858	5649.043
69	0x454192aa	3097.1665
70	0x45030b58	2096.709
71	0x45adbadb	5559.357
72	0x452b13a6	2737.228
73	0x45884d21	4361.641
74	0x44f7761d	1979.691
75	0x452cd6e7	2765.4314
76	0x456f2e1b	3826.8816
77	0x45c869f7	6413.2456
78	0x45aa78de	5455.1084
79	0x458eb746	4566.909
80	0x45a266a5	5196.8306
81	0x459445c5	4744.721
82	0x45ae5006	5578.003
83	0x45a4e329	5276.395
84	0x4587e21f	4348.265
85	0x45847ca8	4239.582
86	0x4588a416	4372.5107
87	0x45660598	3680.3496
88	0x45a6d91f	5339.14
89	0x45a9732d	5422.397
90	0x4528a0e0	2698.0547
91	0x45251e9c	2641.913
92	0x45cccce5	6553.612
93	0x455e2bbc	3554.7334
94	0x45d971fe	6958.249
95	0x45824358	4168.418
96	0x4567438e	3700.2222
97	0x45e5d8fc	7355.123
98	0x46046388	8472.883
99	0x45957412	4782.509
100	0x4606d4ad	8629.169
101	0x45928c51	4689.5396
102	0x458d9b73	4531.431
103	0x45925586	4682.6904
104	0x45858dc6	4273.7217
105	0x45831cfc	4195.623
106	0x45b864d2	5900.6025
107	0x45d7c606	6904.753
108	0x458bdcd8	4475.6055
109	0x459d4a92	5033.3213
110	0x457c9624	4041.3838
111	0x455c9f0e	3529.941
112	0x45579382	3449.2192
113	0x4598d4e9	4890.614
114	0x456f70f8	3831.0605
115	0x45b890f5	5906.1196
116	0x454dabe0	3290.7422
117	0x4587b41e	4342.5146
118	0x4564c2a1	3660.1643
119	0x46103e29	9231.54
120	0x457372fc	3895.1865
121	0x45314b24	2836.6963
122	0x4576cab5	3948.6692
123	0x45b76f7e	5869.9365
124	0x4504ae57	2122.8962
125	0x44fd5ba7	2026.8641
126	0x4585763c	4270.7793
127	0x4647841a	12769.025

convs.0.bn2.weight f4 [64]
0	0x3fba88a0	1.4572945
1	0x3ff232ee	1.8921793
2	0x3fef8d40	1.8714981
3	0x3ffc4f99	1.9711791
4	0x3fd469ba	1.6594765
5	0x3f7c21c3	0.98489016
6	0x3f5896cf	0.84605116
7	0x3fb12548	1.3839502
8	0x3f7752c2	0.96610653
9	0x3fadd208	1.3579721
10	0x3fda00a3	1.7031444
11	0x3fe681cf	1.8008364
12	0x40194986	2.3951125
13	0x3fba8924	1.4573102
14	0x3fe7135f	1.8052787
15	0x40062ce3	2.0964897
16	0x40207bcc	2.507556
17	0x40025f76	2.0370765
18	0x3ff6c4a7	1.9278764
19	0x3f85aae2	1.0442774
20	0x3f4723c6	0.7778896
21	0x3f9738c4	1.1814198
22	0x3fede335	1.8584963
23	0x3ff26336	1.8936527
24	0x3f9aecb6	1.2103488
25	0x40093e1a	2.1444154
26	0x3fb60412	1.4219992
27	0x3f7cbc3d	0.9872473
28	0x3fcdbe43	1.6073688
29	0x3f6818d1	0.90662867
30	0x3fdc5c00	1.7215576
31	0x3fcc179b	1.5944704
32	0x3ffe115d	1.9849049
33	0x4004a1b1	2.0723689
34	0x4012a827	2.2915132
35	0x400f8d02	2.2429814
36	0x401b494f	2.4263494
37	0x3fcdaec5	1.606896
38	0x3ec73fe0	0.3891592
39	0x3fa296c9	1.2702266
40	0x3fa17307	1.2613229
41	0x40028c7a	2.039824
42	0x3fe93954	1.822062
43	0x40152ddd	2.3309243
44	0x3ffc57ef	1.9714335
45	0x40084836	2.1294074
46	0x3f73581a	0.9505631
47	0x3fa879a5	1.3162123
48	0x3fabb153	1.341349
49	0x3fecf745	1.8512961
50	0x3f07da8e	0.53067863
51	0x3fa7a3ae	1.3096826
52	0x3f186028	0.5952172
53	0x3fbde16a	1.4834416
54	0x3fa00a76	1.2503192
55	0x4017b365	2.3703244
56	0x3fe0ff38	1.7577887
57	0x3ffb5064	1.9633908
58	0x3fc6e14b	1.5537504
59	0x3fd877a5	1.6911513
60	0x3f35336f	0.70781606
61	0x3f339a9d	0.70157796
62	0x3f8be9d6	1.0930736
63	0x4053c61b	3.3089664

convs.0.bn2.bias f4 [64]
0	0xbfdbfc83	-1.7186435
1	0xbf21c2ba	-0.63187754
2	0xbfba2c09	-1.4544688
3	0xbfcbe69d	-1.5929753
4	0xbeac2b5b	-0.33626828
5	0xbf7fa942	-0.9986764
6	0xbff39c6f	-1.9032115
7	0xbf267a95	-0.65030795
8	0xbed08ee7	-0.40734026
9	0xbfe7b326	-1.8101547
10	0xbfc9ab04	-1.5755315
11	0xbe157d0d	-0.14598484
12	0xbfd9072e	-1.6955316
13	0x3f047c76	0.5175241
14	0xbfe14e1e	-1.7601964
15	0x3f181c49	0.5941816
16	0xbe3df54a	-0.18550602
17	0x3f1168d6	0.5680059
18	0xbf22decb	-0.63621205
19	0xbf9e0b4a	-1.2347195
20	0xc0065e9e	-2.099525
21	0x3d7451e4	0.05964841
22	0xbed5b372	-0.41738468
23	0xc02cdf90	-2.7011452
24	0xbf07b834	-0.53015447
25	0xbe3cde7a	-0.18444243
26	0xbfde8ec4	-1.7387319
27	0xbf83611d	-1.0264012
28	0xbfdfa294	-1.747149
29	0xbfbced1b	-1.4759859
30	0xbf6b5aaf	-0.9193525
31	0xbf8f2180	-1.1182098
32	0x3d81e266	0.0634201
33	0xbf8f5d35	-1.120032
34	0xbf95e2ad	-1.1709801
35	0xbeacc376	-0.33742875
36	0xbefc1250	-0.4923272
37	0xbf79ce84	-0.9758074
38	0xbfa00c6c	-1.2503791
39	0x3e3c032a	0.18360582
40	0x3e8357ad	0.2565283
41	0xc0096a62	-2.147118
42	0xbf1109e4	-0.56655717
43	0xbec70163	-0.38868245
44	0xbf851f3b	-1.0400156
45	0xbf657e85	-0.8964618
46	0xbfa6324a	-1.2984097
47	0xbfdea220	-1.7393227
48	0xbef3accc	-0.4759277
49	0xbfb7732e	-1.4332025
50	0xbf96add5	-1.1771799
51	0x3f417191	0.75563914
52	0xbf463de0	-0.77438164
53	0xc007d462	-2.1223378
54	0xbffdee30	-1.9838314
55	0xbe1319fd	-0.14365382
56	0xbed77411	-0.4208074
57	0xbf6d6c56	-0.9274343
58	0xbf492c51	-0.78583246
59	0xbd7636f8	-0.060111016
60	0xbfde99e6	-1.7390716
61	0xbf785c03	-0.970154
62	0x3f33fea0	0.703104
63	0xbfdb792e	-1.7146356

convs.0.bn2.running_mean f4 [64]
0	0x413523fc	11.321285
1	0x40df111b	6.970838
2	0x4137cac8	11.487007
3	0x4085dc7a	4.1831636
4	0x4286a2c2	67.31789
5	0x40ed0f1d	7.408095
6	0x4116cad0	9.424515
7	0x41adef87	21.741957
8	0x4105481a	8.330103
9	0x4126a8a5	10.416173
10	0x41181d2d	9.507123
11	0x4166d29a	14.426416
12	0x41763040	15.38678
13	0x40e4161a	7.127698
14	0x416244ba	14.141779
15	0x3f4a1b5d	0.78948003
16	0x411cb04b	9.79304
17	0x417e30e0	15.886932
18	0x417cb5f4	15.794422
19	0x41d1c69a	26.221973
20	0x411b98be	9.724791
21	0x41420f99	12.128808
22	0x41cca2d1	25.5795
23	0x4180fe17	16.124067
24	0x40730c15	3.7976124
25	0x4136f765	11.435399
26	0x4101e1c5	8.1176195
27	0x40626952	3.5376782
28	0x40b7e883	5.747133
29	0x40e464bc	7.1372967
30	0x410920ae	8.570478
31	0x41fe8ab8	31.817734
32	0x41d27786	26.308361
33	0x4134a196	11.28945
34	0x412a3351	10.637528
35	0x42b023dd	88.070045
36	0x411dd5ca	9.864695
37	0x4145d1c7	12.363715
38	0x4044c2c2	3.074387
39	0x418df5a0	17.744934
40	0x42227660	40.6156
41	0x4185d308	16.728043
42	0x41561461	13.379975
43	0x41728f81	15.160035
44	0x4184eda8	16.616043
45	0x41608f70	14.035019
46	0x414b15d6	12.692831
47	0x40b33b97	5.601024
48	0x42a4c1be	82.3784
49	0x412f4568	10.954445
50	0x411bc4f9	9.735589
51	0x414daf7d	12.855344
52	0x4138ed55	11.557942
53	0x41971b78	18.888412
54	0x413d07ac	11.814373
55	0x414429e0	12.260223
56	0x4175b3c1	15.356385
57	0x412cec7d	10.807736
58	0x4131cb8b	11.112193
59	0x4106e82b	8.431682
60	0x4098b2d9	4.771832
61	0x412bec94	10.745258
62	0x410c3cd6	8.764853
63	0x41d7a869	26.957232

convs.0.bn2.running_var f4 [64]
0	0x43279c55	167.61067
1	0x4222580b	40.58598
2	0x42a36f58	81.71747
3	0x41dd8ebe	27.694698
4	0x4495cb8d	1198.361
5	0x42132d47	36.794216
6	0x428b535e	69.66283
7	0x43b44fd2	360.6236
8	0x4229602d	42.34392
9	0x42548b96	53.136314
10	0x4221c631	40.443546
11	0x436c7a59	236.47792
12	0x4272c4ff	60.69238
13	0x41c21ff6	24.265606
14	0x428e74ff	71.22851
15	0x3f31f724	0.6951773
16	0x41e3f67f	28.49536
17	0x4325e842	165.90726
18	0x4262110d	56.51665
19	0x4475c637	983.0971
20	0x426a186a	58.52384
21	0x428b9af6	69.80266
22	0x424b1455	50.769855
23	0x424f7337	51.862514
24	0x415fab5e	13.979338
25	0x4214420d	37.064503
26	0x42b411ee	90.03502
27	0x4134b1ba	11.29339
28	0x4190152a	18.010334
29	0x41fd98a5	31.699533
30	0x42a8a1ab	84.31576
31	0x42f09a2f	120.30114
32	0x43fba20d	503.26602
33	0x41ccc1cb	25.594625
34	0x4267a256	57.90853
35	0x43e247ba	452.56036
36	0x4246fec9	49.748814
37	0x426dc4a3	59.442028
38	0x414d2a7d	12.822873
39	0x42a3a1ff	81.8164
40	0x44d69050	1716.5098
41	0x424f9a39	51.900608
42	0x432db07c	173.68939
43	0x428af714	69.482574
44	0x43eaa052	469.2525
45	0x42509b84	52.15187
46	0x420ec917	35.696377
47	0x41a72d1d	20.897028
48	0x43a0ef9c	321.87195
49	0x423b51cb	46.829876
50	0x42a3dac7	81.9273
51	0x4307aa98	135.66638
52	0x42f2e859	121.453804
53	0x4290fa7d	72.489235
54	0x42f28387	121.25689
55	0x424634bf	49.55151
56	0x42538c83	52.88722
57	0x425c8009	55.125034
58	0x43011db8	129.11609
59	0x41d0d0cf	26.101957
60	0x4217c0a2	37.938118
61	0x4206181c	33.523544
62	0x4246e9f3	49.728466
63	0x434b3370	203.20093

convs.1.fc_full.weight f4 [128, 169]
0	0xbfef7e99	-1.871051
1	0xbfa0caf7	-1.256194
2	0xbfe2dd59	-1.77238
3	0x3daef3f0	0.08542621
4	0x3e11a64b	0.14223592
5	0xbee150b4	-0.44006884
6	0x3eae1369	0.33999184
7	0xbf126d9f	-0.5719852
8	0xc05f5c7f	-3.4900205
9	0x3f42ad97	0.7604613
10	0x3e423982	0.1896725
11	0xbf34db95	-0.70647556
12	0xbe4361c2	-0.1908026
13	0xc0054f76	-2.082975
14	0x3fac1ed2	1.3446906
15	0xbe98156b	-0.2970384
16	0x3fa063e4	1.2530484
17	0xbfe55668	-1.7916994
18	0xbd606d71	-0.05479187
19	0x3e9ca1b7	0.3059213
20	0x3e08ac5a	0.13346997
21	0xbf467755	-0.77525836
22	0xbeacc835	-0.33746496
23	0x3f68ec02	0.9098512
24	0xbf83a9b4	-1.0286164
25	0x3f7375a9	0.9510141
26	0xbef29470	-0.47378874
27	0xbea2a871	-0.31769136
28	0xbeefde05	-0.46849075
29	0x3faa1c74	1.3289933
30	0x3f848ad2	1.0354865
31	0x3d5c7e23	0.05383123
32	0xbff2074c	-1.8908477
33	0xbf6058ad	-0.8763531
34	0xbfbaa8c3	-1.4582752
35	0xbfc207d6	-1.5158641
36	0xbf5f932a	-0.8733393
37	0x3f2e1357	0.6799826
38	0xbf8dc7b7	-1.1076573
39	0x3fb3b573	1.4039749
40	0x3e25eaa8	0.16202796
41	0xbf8a720d	-1.0816056
42	0xbfc55fa3	-1.5419811
43	0x3f32f42d	0.6990383
44	0x3e762d23	0.24040656
45	0x3f86d82b	1.0534719
46	0xbf943b86	-1.1580665
47	0xbdc9dfe0	-0.09857154
48	0x3f12fc9f	0.5741672
49	0x3dac57ea	0.08415206
50	0xbf00192a	-0.500384
51	0x3f258313	0.6465313
52	0x3f96ad09	1.1771556
53	0xbf0847b2	-0.532344
54	0x3e0511bd	0.12995048
55	0x3ea93974	0.33051646
56	0x393716cd	0.00017460734
57	0xbf21874f	-0.6309709
58	0xbf6ed228	-0.93289423
59	0x3f614199	0.8799072
60	0x3eb63c9d	0.3559312
61	0x3e5b6ba6	0.21427783
62	0x3eae38fd	0.34027854
63	0xbfb4bfef	-1.4121073
64	0xbcd04963	-0.025425619
65	0xbe17c290	-0.14820313
66	0xbff3102c	-1.898931
67	0x3f3f55b4	0.7474015
68	0x3ec1c44a	0.3784507
69	0x3fb64d7f	1.42424
70	0xbe355e1f	-0.17711686
71	0xbca9b09a	-0.020714093
72	0x3eb29a3e	0.34883302
73	0xbf2b03a3	-0.66802424
74	0xc0044d56	-2.0672202
75	0xbe4158dc	-0.18881553
76	0x3f1ab53e	0.60432804
77	0x3f88c058	1.0683699
78	0xbf8aa6d8	-1.0832167
79	0x3f53713f	0.82594675
80	0x3f18cca9	0.59687287
81	0xbdd4d1f1	-0.10391606
82	0x3f11f7da	0.57018816
83	0xbf8149e2	-1.0100672
84	0x3f1c66f0	0.6109457
85	0xbd08d943	-0.033410322
86	0xbe98e802	-0.29864508
87	0x3edcbd2e	0.43113083
88	0x3f0bdac2	0.5463067
89	0xbf849cbd	-1.0360333
90	0xbf7e9de5	-0.9945968
91	0x3d2d7ffa	0.042358376
92	0x3f8f6dbc	1.1205363
93	0x3e3b898f	0.18314193
94	0xbef52e64	-0.47886956
95	0xbfb59b9e	-1.4188116
96	0xc0034e03	-2.0516365
97	0x3fadee80	1.358841
98	0x3f0e0c97	0.5548796
99	0xbf4b9303	-0.795212
100	0x3f9b9bb0	1.2156887
101	0x3fbd136c	1.4771552
102	0x3f31c923	0.69447535
103	0x3f9cbf8a	1.2245953
104	0xbe95b013	-0.29235896
105	0x3f2d2aed	0.67643625
106	0x3fcdccd6	1.6078136
107	0x3f600d20	0.8752003
108	0x400cd75b	2.2006443
109	0x3fa5bdf0	1.2948589
110	0xbf994298	-1.1973448
111	0xbeb5955a	-0.3546551
112	0x3f1bc8bf	0.6085319
113	0xbed5c0dd	-0.41748706
114	0x3f6a0e6f	0.91428274
115	0x3f13d8d5	0.57752734
116	0x3fd3f436	1.6558902
117	0x3e9eb63b	0.30998406
118	0xbe00373e	-0.12521073
119	0xbe715280	-0.23566628
120	0x3e96a8b2	0.2942558
121	0x3fb8129b	1.4380678
122	0x3f20719c	0.62673354
123	0xbff018da	-1.8757584
124	0x3fc19bdc	1.512569
125	0xbe7bd7ed	-0.24594088
126	0x3fcf1821	1.6179239
127	0x3fa852f4	1.3150315
128	0xbd2f12a7	-0.042742398
129	0xbbce82a8	-0.0063021965
130	0xbe2cda9e	-0.16880271
131	0x3f6296f0	0.8851156
132	0x3feb340b	1.8375257
133	0x3fdad02e	1.7094781
134	0x404523ad	3.0803025
135	0x4073ec33	3.8112915
136	0x3fd95d1f	1.6981543
137	0x4090920f	4.5178294
138	0x4022c6aa	2.5433755
139	0x4050d6fb	3.2631214
140	0x4048e7b8	3.139143
141	0x3fe915b3	1.8209747
142	0xc07bc280	-3.9337463
143	0xc0b507e0	-5.6572113
144	0xc0a05d7d	-5.011412
145	0xbe03404d	-0.12817498
146	0xc0490b70	-3.141323
147	0xc0cdc506	-6.4303007
148	0xbfede1c6	-1.8584526
149	0xbf322b12	-0.6959697
150	0x4032054e	2.7815738
151	0x40b2eea3	5.5916305
152	0x40d890b6	6.767665
153	0x40b2cc5d	5.5874467
154	0xc0827926	-4.0772886
155	0xc1058ce2	-8.346895
156	0xc0e31a67	-7.096973
157	0xbf946fa9	-1.1596576
158	0xbedb66bf	-0.42851827
159	0xbe9c6149	-0.30542973
160	0x3d0c0078	0.034180135
161	0x3cf66fdb	0.030082634
162	0x3d3b12f8	0.045672387
163	0xbc2ab0ba	-0.010418111
164	0xbd41a5f7	-0.047277417
165	0xbc529045	-0.012851779
166	0xbd14fe1e	-0.036375158
167	0xbd78201e	-0.060577504
168	0x3cc49b28	0.023999766
169	0xbfc18748	-1.511941
170	0xbf2bb252	-0.6706897
171	0x3f56b1d0	0.8386507
172	0xbf85e527	-1.0460557
173	0xbed3d7ab	-0.4137548
174	0x3ee44e38	0.44590926
175	0xbf4ed975	-0.80800563
176	0x3e83d37a	0.2574728
177	0xbfaea9a7	-1.3645524
178	0xbe99fc81	-0.30075458
179	0xbee9effb	-0.45690903
180	0x3f196459	0.59918743
181	0xbe8aa66e	-0.270801
182	0xc048a1a3	-3.1348655
183	0x3e7666cd	0.24062653
184	0x3f720207	0.94534343
185	0xbfd4db0c	-1.6629348
186	0xbfbd7826	-1.4802291
187	0x3f7974c5	0.974438
188	0x3f694e17	0.9113478
189	0xbf7894d5	-0.971021
190	0xbf25c4a4	-0.64753175
191	0xbf41c400	-0.756897
192	0xbe60445c	-0.21901077
193	0xbec74774	-0.38921702
194	0xbd501f00	-0.050810814
195	0xbf622e93	-0.88352317
196	0x3f3c3702	0.73521435
197	0xc005ceb0	-2.0907402
198	0x3f0f3b95	0.5595029
199	0x3ea33451	0.31875852
200	0x3d831061	0.063996084
201	0x3f0cbff0	0.54980373
202	0xbf077fc3	-0.52929324
203	0xbe92a533	-0.28641662
204	0xbfcee291	-1.6162893
205	0xc050c828	-3.2622166
206	0x3e1d0ea2	0.15337613
207	0x3fe5e104	1.7959294
208	0xbfb98ffe	-1.4497068
209	0x3e092361	0.13392402
210	0x3e2acc88	0.16679585
211	0x3d83e389	0.06439883
212	0xc010648f	-2.2561376
213	0xbcba8f26	-0.022773337
214	0x400bb490	2.1828957
215	0xbe0b297a	-0.13590041
216	0xbf4835e0	-0.78207207
217	0xbf8b4899	-1.088153
218	0xc01894d5	-2.384084
219	0x3f5472eb	0.8298785
220	0xbe1ef1b2	-0.15521887
221	0x3eff4a37	0.4986131
222	0xbf7cb96d	-0.9872044
223	0x4011d826	2.2788177
224	0x3e85fd87	0.2616999
225	0x3f3402e9	0.7031694
226	0xbfe158fd	-1.7605282
227	0x3fa99717	1.3249234
228	0x3f2928d9	0.66077954
229	0x3e01f423	0.12690787
230	0xbeacdc4d	-0.33761826
231	0x3e0113c2	0.12605193
232	0x3f618153	0.8808796
233	0xbfbff2ff	-1.4996032
234	0xbe209698	-0.15682447
235	0xbf14c822	-0.5811788
236	0x3f75d610	0.9602976
237	0xbf3e5796	-0.74352396
238	0x3dd97626	0.10618238
239	0x3e64fcc2	0.22362044
240	0xbf1a3b59	-0.6024681
241	0xbd918a0b	-0.07106408
242	0x3f93b79b	1.1540407
243	0x3d998222	0.07495524
244	0x3f41e512	0.7574016
245	0xc0064571	-2.0979884
246	0xc029eecf	-2.6552007
247	0xbecfabe5	-0.40560833
248	0x3f26b39a	0.651178
249	0xc084938c	-4.143011
250	0x3f8fba65	1.1228758
251	0x3f805586	1.00261
252	0x3f537900	0.82606506
253	0xbf304e8c	-0.68869853
254	0xbe862261	-0.26198104
255	0x3f2bb74a	0.6707655

convs.1.fc_full.bias f4 [128]
0	0x3d74a6d0	0.059729397
1	0xbd647cfc	-0.055783257
2	0x3cd9aca4	0.02657158
3	0xbc226ee5	-0.009914135
4	0x3d0ef66b	0.03490297
5	0x3b98e07e	0.0046654334
6	0xbcb19a6b	-0.021680078
7	0x3ce12cc9	0.027487176
8	0x3b7b5037	0.0038347372
9	0xbc54490c	-0.012956869
10	0x3d18bf71	0.037291948
11	0x3dafb4cc	0.08579406
12	0x3d2f3cf7	0.04278275
13	0xbd1805b1	-0.037114803
14	0xbd64b71c	-0.05583869
15	0xbd5e52cd	-0.054278184
16	0xbd31e7b2	-0.043433852
17	0xbb7a08c7	-0.0038152204
18	0x3d2a03a2	0.04150737
19	0x3a756ebb	0.00093625084
20	0x3d846714	0.06464973
21	0xbd9aef18	-0.07565135
22	0xbd42ce50	-0.047560036
23	0x3d99116c	0.07474026
24	0xbd60331b	-0.054736238
25	0x3d1f12e7	0.038836386
26	0x3b6ddea9	0.0036296046
27	0xbc220d85	-0.009890919
28	0x3d4baf5d	0.049727786
29	0x3d63a61e	0.055578344
30	0xbd31645b	-0.043308597
31	0x3c009e5d	0.007850257
32	0x3d89f392	0.067359105
33	0x3d61c37b	0.055118065
34	0x3d0b059e	0.033940904
35	0xbd466cf8	-0.048443764
36	0xbd621ecd	-0.055205155
37	0x3d8b197b	0.067919694
38	0x3d03ed3e	0.032208674
39	0xbc357c9e	-0.011077074
40	0x3d96f1bc	0.07370326
41	0x3d7610f6	0.06007477
42	0xbc859367	-0.016305638
43	0x3cbafc07	0.022825254
44	0x3db20c80	0.086937904
45	0x3d258a2c	0.040414974
46	0xbcfd6c7e	-0.030935522
47	0xbd98cc67	-0.07460862
48	0x3cd168d3	0.02556268
49	0x3cda8f5f	0.026679693
50	0xbd977d45	-0.0739694
51	0x3be8032e	0.007080457
52	0xbd476155	-0.048676807
53	0x3d0bc6e7	0.034125235
54	0xbd33f0a2	-0.043930657
55	0xbd6d3bbf	-0.057918306
56	0x3d892dd1	0.06698192
57	0x3d774204	0.06036569
58	0xbd3d29eb	-0.046182554
59	0xbd122aed	-0.03568547
60	0x3d39314d	0.045213033
61	0xbd51f9a7	-0.051263478
62	0xbcc2b36e	-0.0237672
63	0xbd0b8d87	-0.034070518
64	0x3c8ce4c8	0.017198935
65	0xbc80cb2d	-0.015721882
66	0x3ca860fb	0.020554056
67	0xbd68c23e	-0.05682587
68	0x3d985290	0.074376225
69	0x3c3e6ed3	0.011623102
70	0xbd2c4b67	-0.042064097
71	0xbd57696a	-0.052590765
72	0x3d3a057d	0.04541539
73	0xbd321be7	-0.04348364
74	0x3c31f0e4	0.010860655
75	0x3c8f2470	0.01747343
76	0xbd0eeee8	-0.034895808
77	0x3dc7ba6a	0.097523525
78	0xbce2fb75	-0.027707795
79	0x3ca76ca4	0.020437546
80	0x3d24cd10	0.040234625
81	0x3d159393	0.03651769
82	0x3d5f75bc	0.05455564
83	0xbd29eafb	-0.04148386
84	0x3bb3e326	0.0054897247
85	0x3c52f926	0.012876784
86	0x3cd8dfb2	0.026473854
87	0xbcd05f75	-0.025436142
88	0xbcf48ad6	-0.029851358
89	0xbd8c83c5	-0.068610705
90	0x3d5b9c5d	0.053615917
91	0x3cb12bfc	0.021627419
92	0xbd9e4266	-0.07727508
93	0xbcc31d85	-0.023817787
94	0xbd0302af	-0.03198498
95	0xbd38c834	-0.045112804
96	0x3d3f2384	0.04666473
97	0xbd18993b	-0.037255507
98	0x3d1edeef	0.038786825
99	0x3db14c0a	0.086570814
100	0x3cfe5985	0.031048546
101	0x3d05d06f	0.03266948
102	0xbd82b230	-0.06381643
103	0xbd1e7ed5	-0.038695175
104	0x3b946612	0.0045287693
105	0x3c67860f	0.014131083
106	0x3d32f5dd	0.043691505
107	0x3d1c5f75	0.038176972
108	0xbcde4769	-0.02713366
109	0xbd9b29ea	-0.07576354
110	0x3cf96549	0.030443804
111	0x3d4f733c	0.050647005
112	0xbd9bfbb0	-0.07616365
113	0xbd0e945d	-0.03480946
114	0xbd06b3de	-0.03288638
115	0x3d8a1355	0.067419685
116	0xbd8b2c4b	-0.067955576
117	0x3b265323	0.0025379143
118	0xbcac4ce4	-0.021032758
119	0xba9131e2	-0.0011077488
120	0x3af5680a	0.0018723023
121	0xbcf29181	-0.029610397
122	0xbc6c244f	-0.0144129535
123	0x3cc64499	0.024202632
124	0x3c8c6d2a	0.017141897
125	0x3c02b0b1	0.007976697
126	0x3bfa9ce5	0.007648098
127	0x3d9d62d3	0.07684865

convs.1.bn1.weight f4 [128]
0	0x40987947	4.7648044
1	0x40be3794	5.9442844
2	0x40edc8b8	7.430752
3	0x3fe4c0e0	1.7871361
4	0x40b691d8	5.705303
5	0x40870e9c	4.2205334
6	0x40bb9050	5.8613663
7	0x40e0a873	7.0205626
8	0x40ecb7b3	7.397424
9	0x400bbf16	2.183538
10	0x40beb76a	5.9598894
11	0x408291cf	4.080299
12	0x407414f9	3.81378
13	0x409c4d5c	4.8844433
14	0x40e1c6d1	7.0555196
15	0x40803646	4.006625
16	0x40d2861d	6.5788713
17	0x40dc7872	6.889703
18	0x4077f0c6	3.8740706
19	0x40a9941f	5.299331
20	0x4017b81d	2.3706124
21	0x4029342c	2.6438093
22	0x40ad588c	5.417059
23	0x40d38d20	6.610977
24	0x409ec2f1	4.9612966
25	0x408cb505	4.397097
26	0x40893176	4.2872877
27	0x402c466e	2.6917987
28	0x3efe2ae1	0.4964209
29	0x4032fab3	2.7965515
30	0x40d4e5aa	6.653035
31	0x40807712	4.014535
32	0x4106a6d9	8.415734
33	0x41126a00	9.150879
34	0x4068a5fe	3.6351314
35	0x401d1449	2.454363
36	0x40d25fc0	6.574188
37	0x4072470f	3.785587
38	0x406b0d9c	3.6727057
39	0x40e5a5b3	7.176477
40	0x40a0ad10	5.021126
41	0x411793f2	9.473619
42	0x408740b2	4.2266474
43	0x410963cc	8.586864
44	0x40646340	3.5685577
45	0x40acad87	5.3961825
46	0x405b3277	3.4249551
47	0x410ba617	8.728049
48	0x4084dc28	4.1518745
49	0x3f8021ad	1.0010277
50	0x3fec38da	1.845485
51	0x40a355c8	5.1042213
52	0x4114ae9c	9.292629
53	0x3faa3380	1.3296967
54	0x400c2e30	2.190319
55	0x3fe033a0	1.7515755
56	0x407d5a2c	3.9586287
57	0x40f12a85	7.5364404
58	0x40b464dc	5.637312
59	0x40efab48	7.4896584
60	0x40da18a5	6.8155084
61	0x3fce6c9a	1.6126893
62	0x4107f503	8.497317
63	0x4115d346	9.36408
64	0x407a5d86	3.9119582
65	0x4029ce23	2.6532066
66	0x3fb83b3e	1.4393079
67	0x40085b4a	2.1305718
68	0x401ac75d	2.4184182
69	0x3e6d357e	0.23164937
70	0x3fd20fcc	1.6411071
71	0x3f8138e0	1.0095482
72	0x3fa10bd7	1.2581738
73	0x3fa4288b	1.2824873
74	0x406fecde	3.7488322
75	0x3feb037e	1.8360441
76	0x402aa1b7	2.6661203
77	0x3f9230c8	1.1421137
78	0x3f579f8c	0.84227824
79	0x3f44eb2c	0.76921344
80	0x3f937b35	1.1521975
81	0x3f0d8f2e	0.552966
82	0x3fcaf610	1.5856342
83	0x3f981cce	1.188379
84	0x3f878870	1.0588512
85	0x3f0d8e30	0.55295086
86	0x4026c68b	2.605868
87	0x3fbbc734	1.4670167
88	0x3f95aa5d	1.1692616
89	0x3fdc3dab	1.720632
90	0x403f61cc	2.990344
91	0x3ff01515	1.8756434
92	0x3f350445	0.7070964
93	0x3fdd543d	1.7291332
94	0x405751e8	3.3643742
95	0x3ffe489c	1.9865909
96	0x3faeaafb	1.3645929
97	0x3fb95963	1.4480404
98	0x3face394	1.3506951
99	0x3fd78276	1.6836689
100	0x3fe19890	1.7624683
101	0x3ee4aae6	0.44661635
102	0x3fcb5f15	1.5888392
103	0x3f6a5c1c	0.915468
104	0x3fbebe67	1.4901856
105	0x3f7c708c	0.9860923
106	0x3fc2e776	1.5226886
107	0x400effab	2.2343547
108	0x402e4cf2	2.7234464
109	0x4043ddaa	3.0604043
110	0x406be03a	3.6855607
111	0x4001da8d	2.0289643
112	0x4053f46e	3.3117938
113	0x40231603	2.5482185
114	0x3fbc65c5	1.4718558
115	0x3f36d203	0.714142
116	0x3f2dad2c	0.67842364
117	0x3fd9f267	1.70271
118	0x400f4105	2.2383435
119	0x3fff16c1	1.9928819
120	0x3f83bf26	1.0292709
121	0x405cb70e	3.4486728
122	0x3f7b2793	0.9810726
123	0x3fabe6ae	1.3429773
124	0x4062d2b9	3.5441115
125	0x405ddbeb	3.4665477
126	0x3f7fd8aa	0.9993998
127	0x3f8f58c0	1.1198959
