results/Prediction/2023-06-14/23:08:50.583382/models/model123.pth (torch, 340949 bytes, 34 tensors)

embedding.weight f4 [64, 92]
000000 ed 40 a3 3e e2 ac 31 bf ef d7 98 3d 5c 82 c3 3d
       0.31885472 -0.69404423 0.07463061 0.095463485
000010 91 44 63 3f 68 82 65 40 ee 28 84 3f 02 3e 47 3f
       0.887765 3.5860844 1.0324991 0.7782899
000020 ae 09 85 bf fa ca 8b bf 28 ec fe bf 96 9b 92 be
       -1.0393579 -1.0921319 -1.9915819 -0.28634328
000030 fc 29 ab bf dd 97 d6 3d 48 7f 75 bf 07 9d 57 bf
       -1.3372188 0.10478184 -0.9589734 -0.8422398
000040 66 39 a1 be d2 a1 23 bf db 9b ed bf e0 08 fb bd
       -0.31489104 -0.63918793 -1.8563188 -0.12257552
000050 73 2e d9 3d 5c 39 92 3e fd ce 7d 3e 07 02 0e 3f
       0.106045626 0.28559387 0.24785991 0.55471843
000060 a1 dd ef bf f4 08 f8 bf 6e e8 ae 3e 9b 57 0d be
       -1.8739511 -1.9377732 0.34161705 -0.1380295
000070 c2 0d 68 3e c5 5b f9 be 23 76 1b 3f 0f 22 d5 bf
       0.22661498 -0.48702827 0.6072714 -1.6651019
000080 7e a2 81 bf 5e 15 cf be 63 42 f3 bd e4 0a fb be
       -1.0127714 -0.4044599 -0.11877897 -0.49031746
000090 b1 91 b2 bd b5 fa 87 be 02 11 92 be 5d 30 eb 3e
       -0.08719195 -0.26558462 -0.285286 0.45935336
0000a0 da 22 28 3f bd fc 03 c0 71 fc 92 3e 32 ac 4c bf
       0.6567818 -2.062301 0.28708223 -0.7995025
0000b0 29 7a 65 be 6c 6e 39 3f 1e a3 29 bf e8 e5 e8 3e
       -0.22409882 0.72434115 -0.6626452 0.45487905
0000c0 51 25 0a be e6 5f e0 3c e4 5c a5 3f 7e 87 3c bc
       -0.13490798 0.027389478 1.2918973 -0.011506913
0000d0 13 2a a5 3e be 5d a0 bf 8d d1 87 bf 5a a2 ed bf
       0.32258663 -1.2528608 -1.0610825 -1.8565171
0000e0 d0 4f 90 be 49 42 ad bf 12 a2 d7 3e fb f8 02 3e
       -0.28185892 -1.3535854 0.42115837 0.12790291
0000f0 07 8c db 3a 16 03 1f bd 49 ed 88 bf 4b 16 de be
       0.0016750105 -0.038821302 -1.0697414 -0.43376383
000100 6a 2e 6f be 07 79 e1 be a5 b4 44 3d 17 ba 52 3d
       -0.2335755 -0.4403765 0.04802384 0.051447
000110 48 42 af 3f b3 bc 68 bd f8 fc c4 be 63 f8 f0 bc
       1.3692102 -0.056820583 -0.3847425 -0.029415315
000120 84 8e f4 be 39 16 c0 be a7 a9 92 3d 2e 46 46 bf
       -0.4776498 -0.37516955 0.07161265 -0.77450836
000130 a5 29 fe bc 47 30 fe be 74 7a 06 bf d3 3e cc bf
       -0.031025717 -0.49646208 -0.525306 -1.5956672
000140 da 57 72 3f 8b 71 e6 3e b9 25 b3 3e 7b fe da bf
       0.946653 0.450085 0.34989718 -1.7108911
000150 d6 85 d6 3f c5 28 52 bf 87 45 eb 3d c7 cb ff be
       1.6759593 -0.8209346 0.11487871 -0.49960157
000160 9e ce b6 bf 22 ae 09 bf 62 3a 5c bd 58 77 96 3e
       -1.4281805 -0.5378133 -0.053766616 0.29387927
000170 e6 df f7 be d6 14 25 bf 51 75 61 3f 00 d6 9b bf
       -0.48413008 -0.6448492 0.88069636 -1.2174683
000180 a4 37 86 be 76 67 89 bf f5 a8 1a c0 89 65 10 c0
       -0.26214325 -1.0734699 -2.4165623 -2.2561972
000190 d2 aa 18 3f 47 8d 9d bf 3d 45 39 3f f0 33 a4 be
       0.5963565 -1.230874 0.72371274 -0.32070875
0001a0 e6 92 6e 3f 1b 13 a7 3e 2e 12 b8 bd 16 66 7f 3e
       0.931929 0.32631764 -0.089878425 0.24941286
0001b0 ff 20 22 3e 4d 38 ff 3e 32 69 51 c0 52 b7 78 be
       0.158329 0.49847642 -3.2720456 -0.24288681
0001c0 f5 76 78 bf cd d8 6d 3e c1 ad 5f bb b7 e6 ad bf
       -0.97056514 0.23227234 -0.0034130665 -1.3586034
0001d0 27 77 bc 3f 1b ed 88 bf 71 6b 27 3f 1f f5 25 bf
       1.4723862 -1.0697359 0.6539832 -0.6482715
0001e0 4c a5 81 bf 46 c8 f3 3e d1 0d 21 be b5 27 69 be
       -1.012857 0.47613734 -0.15727927 -0.22769053
0001f0 da d0 ca 3f 0b 53 81 3f d7 8e 34 be 65 36 99 bf
       1.5844986 1.0103468 -0.17632614 -1.1969725
000200 fd d7 82 be b9 02 21 bf 45 b3 9b bd 18 7a cb be
       -0.2555541 -0.6289478 -0.07602552 -0.39741588
000210 3d a2 cc 3e 7b 8a 3a 3e 02 f4 b8 bf 27 a1 64 3f
       0.39967528 0.18216889 -1.4449465 0.893084
000220 3a a4 6a 3f 5d 66 2a 3e 12 96 e7 be e2 f8 58 3e
       0.9165684 0.16640611 -0.45231682 0.21188691
000230 c6 b2 7b bd 3a 0e 9f be c4 cc 0d bf 88 e2 46 be
       -0.06144979 -0.31065542 -0.5539057 -0.19422352
000240 70 db 92 bd 15 7e 84 3d 70 1b a8 bf 80 a6 38 bf
       -0.07170761 0.06469361 -1.3133373 -0.7212906
000250 8e 60 a4 be 31 09 b4 3f 46 30 35 3f 63 d5 d2 3d
       -0.32104915 1.4065305 0.70776784 0.102946065
000260 7b ac 38 c0 85 81 45 3f 50 2a ed 3f 2f f8 20 bf
       -2.8855274 0.77150756 1.8528538 -0.628787
000270 3a ac dd bc c5 1e a8 bf d0 fb fa bc 93 52 04 3c
       -0.027059663 -1.313439 -0.030637652 0.008076328
000280 43 19 c4 be 48 ec f4 3b ba 0b bc 3d 1f 6d 51 bd
       -0.38300523 0.007474456 0.09181924 -0.051129457
000290 5c 18 d0 3e b1 d4 35 bf 1c 16 a2 bf c3 4e 6d 3f
       0.40643585 -0.71027666 -1.2662997 0.92698306
0002a0 af 8c 6a bd 16 25 07 3f 1a 3a 1c 3e b2 5d f8 3e
       -0.057263073 0.52790964 0.15256539 0.48508984
0002b0 13 d0 ed bf a4 ad 12 bf af c7 82 be fe 8b 08 bf
       -1.8579124 -0.57296205 -0.25542971 -0.5333861
0002c0 e2 05 5a bf bc 52 2e c0 04 59 cb 3e 5a 66 1f 3e
       -0.85165226 -2.7237997 0.3971635 0.15566388
0002d0 88 70 23 3f be ec 78 3f c9 18 52 3e 44 51 4c 3f
       0.63843584 0.9723624 0.20517267 0.798115
0002e0 09 86 46 bf 26 19 4b be 21 a5 88 bf 5d d0 99 bf
       -0.7754827 -0.19833812 -1.0675393 -1.2016712
0002f0 c9 26 36 be 34 14 ed 3f 39 3e 1b 40 1e 18 22 c0
       -0.17788233 1.852179 2.4256728 -2.532722
000300 c4 1f 07 c0 df ca 09 c0 6e 07 e4 3f 3f 7e 33 3f
       -2.1113138 -2.1530073 1.7814767 0.7011451
000310 45 6d 5d bf cd 7f 22 3f c5 b5 40 bf 55 50 db bf
       -0.8649486 0.6347626 -0.7527736 -1.713389
000320 fc 67 63 3d c8 5c 4e 3f 9d 35 52 40 41 9d 77 be
       0.05551909 0.8061032 3.2845223 -0.24181081
000330 45 b7 89 bf f5 c8 09 3e b8 8d d5 bf 17 7f b3 be
       -1.0759054 0.13455565 -1.6683874 -0.350579
000340 e2 29 83 3f b4 8f 83 3f 39 e3 ed bc 5c 39 86 bf
       1.0247157 1.027823 -0.029039012 -1.0486255
000350 0e 2e 8d bd ab 58 85 be b2 25 49 be cd f2 2b bf
       -0.0689355 -0.2604421 -0.19643286 -0.6716736
000360 7b 3e b4 3e c3 dc fc 3e 0b 5c 10 bf 88 3f 38 3c
       0.3520392 0.49387178 -0.56390446 0.011245616
000370 91 0c 6f be cd 66 3a bf 75 e0 a5 bd fb d2 d3 3e
       -0.23344637 -0.7281311 -0.080994524 0.41371903
000380 5f 65 c2 be 21 be 26 bf 24 3d 23 bf 80 da 71 3f
       -0.37967965 -0.65133864 -0.6376517 0.9447403
000390 c2 ca d4 3e 8d ef c6 bc 93 bd b0 be 28 fb b7 bf
       0.41560942 -0.024284149 -0.34519634 -1.4373522
0003a0 5b 77 bd 3d 3a 06 22 bf 9e 32 6b bf de e2 db 3e
       0.09251281 -0.6329075 -0.9187411 0.42946523
0003b0 4c ae ae 3e 29 a9 e6 bf 78 0b 0f c0 08 95 08 3f
       0.34117353 -1.8020374 -2.235075 0.53352404
0003c0 e2 59 4a 3f c8 3f 4e 3d e5 3b 11 3a d4 b9 02 3e
       0.790434 0.050353795 0.0005540236 0.127662
0003d0 13 4a 86 be a1 d2 5c bf d2 61 96 bd 6d 8d 93 3e
       -0.2622839 -0.86258894 -0.073428765 0.28818837
0003e0 bf a8 b4 be 37 ac a9 bd 0d 83 ae 3d 23 cf d5 3b
       -0.35284993 -0.082848005 0.0852109 0.0065249368
0003f0 c3 c5 d2 bf cf 8b c5 bc be 96 d9 bf 78 61 f5 3c
       -1.6466602 -0.024114517 -1.6999128 0.029953703

convs.0.fc_full.weight f4 [128, 169]
000000 a5 5a 08 c0 ae d6 5a 3f 56 ba 5e bf a8 fa aa bf
       -2.1305325 0.85483825 -0.87003076 -1.3357744
000010 27 c4 46 3e 45 53 06 3f 5e 92 7e 3f 71 e4 ea bf
       0.19410764 0.5247081 0.9944209 -1.8350965
000020 79 b4 c8 be 59 76 a8 bf 82 9e 8a 3f 3e 0e 07 3f
       -0.3920019 -1.3161117 1.0829623 0.52756107
000030 74 0c a0 bf 3b ae b7 bf cb 38 42 3f 0e 18 58 3f
       -1.25038 -1.4350046 0.7586791 0.84411705
000040 22 d4 24 bf f6 f6 69 3e ea 42 e2 3e 17 26 00 c0
       -0.6438619 0.22848114 0.44191676 -2.0023248
000050 c9 ae 08 40 bc 8c 1a c0 3a 1a e5 3e fc 6d 14 3f
       2.135668 -2.4148397 0.44746572 0.5798032
000060 c7 5a 70 bf 1e 60 67 be e3 f2 98 bf 97 ae ab 3e
       -0.93888515 -0.2259526 -1.1949123 0.3353164
000070 35 45 d4 be ce 1d 6f bf e5 13 45 bf 36 53 19 be
       -0.4145905 -0.93404853 -0.7698348 -0.14973149
000080 cb 1c f6 be e5 a7 d6 be 07 bf 53 3f 33 67 05 bf
       -0.48068842 -0.41924968 0.8271336 -0.52110595
000090 88 1c ae be b7 22 77 3e 0c f4 0e bf 39 7b f9 3e
       -0.34006143 0.24134336 -0.55841136 0.48726824
0000a0 94 fe 40 bd e9 73 eb be e4 fb f2 be a7 59 7d bf
       -0.047117785 -0.4598687 -0.47457802 -0.98964924
0000b0 ca 7c 8f 3e 17 c8 0b c0 37 f4 6f 3e 66 c1 62 3e
       0.28024894 -2.1840875 0.23433004 0.22144088
0000c0 5a 48 c2 3f b5 a1 ba 3f 91 ec 72 be 03 a3 32 40
       1.517833 1.4580599 -0.23723055 2.7911994
0000d0 83 d8 02 40 e5 f0 16 c0 e6 78 53 3f 8b a2 a2 bf
       2.0444648 -2.358453 0.8260635 -1.2705854
0000e0 51 3f 93 be 3c 9e 7f be 92 10 c0 bd 20 cd 2c c0
       -0.28759244 -0.24962705 -0.093781605 -2.7000198
0000f0 d8 f2 fd bf 02 36 99 3f da 5e b6 be 76 a4 89 bf
       -1.9839735 1.1969607 -0.3561924 -1.0753314
000100 31 27 34 3d 59 7b f9 3c cf 14 3c bd 11 31 7f 3d
       0.04398269 0.030454325 -0.045918282 0.062302653
000110 2d d3 f8 be 5a 08 87 be 20 b2 bb be af 41 dd bc
       -0.48598614 -0.2637356 -0.36659336 -0.02700886
000120 ab 8a 92 3e 2c 94 c9 bd 01 4f 2d bf 69 b1 52 3e
       0.2862142 -0.09842715 -0.67698675 0.20575489
000130 78 c1 83 be a3 11 f8 3d b2 57 29 bf 36 d4 18 3e
       -0.25733542 0.12112739 -0.6614944 0.14924702
000140 c4 67 e6 3e 9b d7 3b be 30 4d 78 be 86 84 54 3f
       0.45001042 -0.18343966 -0.24248195 0.83014715
000150 1d 7d 25 bf 21 7a 17 3e 6d db 48 bf ba d1 f4 3e
       -0.6464403 0.14792682 -0.7845982 0.4781626
000160 78 dd 43 be c0 0d 68 bf ea 06 27 bd 0f 34 a6 3e
       -0.19127452 -0.9064598 -0.04077808 0.32461593
000170 28 ee ff 3e 75 54 bd 3e 64 e6 ae be b3 74 b2 be
       0.49986386 0.36978498 -0.3416015 -0.3485466
000180 93 66 9f 3e 86 a8 43 3d a3 49 0a be 02 c6 a4 be
       0.31132945 0.04776814 -0.13504653 -0.32182318
000190 15 5f 11 be fa d7 5e 3e ce 82 38 be ce 46 31 3f
       -0.14196427 0.21762076 -0.18018648 0.69248664
0001a0 b7 bc 6c be f2 3a 0c bd 3c 07 52 bd ec 3d 98 be
       -0.23118864 -0.034235902 -0.05127643 -0.29734743
0001b0 3c da 6f 3e f8 60 36 3f b0 93 f6 be b4 ee 47 bd
       0.23423094 0.7124171 -0.48159552 -0.04881163
0001c0 64 bb 71 be bf 00 fe bd c6 3d 9d be c3 fc ad 3e
       -0.2360664 -0.12402486 -0.30711192 0.33981904
0001d0 38 b4 d5 3d 4e 1a de 3d dd 19 32 3e 38 b6 1b 3e
       0.104347646 0.10844861 0.17392679 0.1520623
0001e0 cb b2 0b 3f 7e 0e 05 3e bb aa b5 3e c2 a6 c3 3e
       0.5456969 0.1299381 0.3548182 0.38213164
0001f0 ea 1f dd 3e 24 c0 17 bf e1 19 70 bd 95 3d a0 bd
       0.4318841 -0.5927756 -0.05861843 -0.07824246
000200 20 71 42 3d 17 92 a2 3b 73 15 84 bd 11 05 91 be
       0.047471166 0.004961263 -0.064494036 -0.28324178
000210 b3 8a 8e be 07 23 b8 3e 00 01 db 3e 9d 1f 46 bd
       -0.27840194 0.35964224 0.427742 -0.048369993
000220 a8 70 93 be 7e 6e 4f bd 6d 10 56 3f 19 02 88 3f
       -0.28796887 -0.050642483 0.83618814 1.062564
000230 77 e2 c0 3e 73 ef 95 3f 7b 10 d4 be 3d 0f 84 bf
       0.3767278 1.1713699 -0.41418824 -1.031715
000240 89 58 e4 be ed e5 7e 3e f9 75 a5 3e 1d 56 82 3d
       -0.44598797 0.24892397 0.32316568 0.06364081
000250 d4 d8 de bd 26 8f 89 3d 1d ef 28 3f 96 b4 91 3e
       -0.108812004 0.067167565 0.6598986 0.2845809
000260 01 c8 bc bc 92 15 23 be 59 36 59 be 09 5e 51 be
       -0.023044588 -0.15926197 -0.21212138 -0.20446028
000270 a5 b4 49 be 5c ac 7a be 73 26 9f be d1 1e ad be
       -0.19697817 -0.24479812 -0.31084022 -0.33812574
000280 45 ad 2b be 9b 41 01 3e c3 74 7f 3d 6f 33 04 3d
       -0.16765316 0.12622683 0.062367212 0.032275613
000290 7d e2 04 3d bd 73 9b 3d 7e dc 2e bd 65 e4 08 bd
       0.03244256 0.07590435 -0.042690746 -0.03342094
0002a0 63 2d 57 3d 30 69 89 bf 37 fc c1 bf a7 83 c7 3f
       0.05253352 -1.0735226 -1.5155095 1.5587052
0002b0 90 cc cd be af b5 01 40 ad a4 4f bf 37 3a 77 3e
       -0.4019513 2.026714 -0.8111065 0.24143301
0002c0 af 40 1d c0 db d4 35 3f 32 2f b6 3e 8f 7c 34 3e
       -2.457073 0.71027917 0.35582882 0.1762564
0002d0 19 cb 7a 3f fb 5f 00 bf 40 38 8f be ed 6a 3b 3f
       0.9796615 -0.50146455 -0.27972603 0.7321003
0002e0 0b e1 8a 3f 19 74 0c c0 f9 27 0c 3f 63 67 96 be
       1.0849928 -2.194586 0.54748493 -0.29375753
0002f0 8c b1 bc 3e 25 86 3d bf 35 35 18 bf 0f 1e a6 3f
       0.36854208 -0.74032813 -0.5945619 1.2977923
000300 b9 ae 8c bf fd 13 ba 3e 13 85 2f 40 33 2a 25 bf
       -1.0990821 0.36343375 2.7424972 -0.64517516
000310 82 4a 03 be 42 90 97 3e 7f 1f 84 3e 67 dd f7 bf
       -0.12821391 0.29602247 0.2580528 -1.9364442
000320 d3 ee 9f be 6d 24 f1 3f 5d eb 12 c0 20 e4 ec 3f
       -0.31236896 1.8839241 -2.2956154 1.8507118
000330 db 4f a5 3f f1 1b cb 3f 3d 4d 16 c0 0a ae 66 3f
       1.2914995 1.5867902 -2.3484643 0.9010931
000340 65 6b 6a bf c5 de ea 3e 3c 8a b8 3e ce d2 0d c0
       -0.9157012 0.45873085 0.36042964 -2.2159915
000350 33 fe 9e 3f 9b 89 dc bf 5f 84 81 bf 59 b3 ac 3e
       1.2421325 -1.7229494 -1.0118521 0.3373058
000360 af 37 8d 3f e5 80 87 3f ad 79 9b 3c ac cc 9b be
       1.1032618 1.058621 0.018978918 -0.3042959
000370 72 36 d4 3f 8e 66 16 be fd 27 82 be 7f b7 53 bf
       1.6579115 -0.14687559 -0.25421134 -0.8270187
000380 4b 92 2e 3d 09 d3 9c 3e 36 72 03 c0 7e b1 ec bf
       0.042619985 0.30629757 -2.053846 -1.8491666
000390 3a 28 4d bf c9 bc 6d c0 40 0f 86 3f 1a 3d f4 bf
       -0.80139506 -3.7146475 1.0473404 -1.9081147
0003a0 1f 8e 89 3f cc d1 66 bf 17 41 b7 bd c7 4c 96 3f
       1.0746497 -0.90163875 -0.08947962 1.174218
0003b0 ac db a1 3e 30 7b 7a bf 44 e9 c0 3e ca 1c 3e 3e
       0.3161291 -0.9784422 0.37677968 0.1856567
0003c0 cc 63 63 3f ae fd a5 3f 34 73 24 be 94 ec f1 bd
       0.8882415 1.2968042 -0.16059572 -0.11812702
0003d0 4d 12 da 3e bf 56 9e 3f b9 9e df bf b1 b5 03 c0
       0.42592087 1.2370223 -1.7470313 -2.0579646
0003e0 36 c6 a4 bf 19 96 6e ba 19 da f7 3f 8c b8 74 3d
       -1.2872989 -0.0009101346 1.9363433 0.05974631
0003f0 1a 91 74 3e 99 9a 9e be ee d5 43 bf 9b 19 25 bf
       0.23883477 -0.30977324 -0.76498306 -0.64492196

convs.0.fc_full.bias f4 [128]
000000 63 eb 6a 3d 29 d3 05 3d 75 a6 8d bd e3 23 9a 3d
       0.05735339 0.03267208 -0.06916515 0.07526376
000010 e4 54 20 3d 8b 2e 33 bd 1a d3 c1 3c 86 9c 9c bc
       0.039143458 -0.04374556 0.023660231 -0.019117605
000020 6a 30 71 bc af d4 9c 3b 20 44 2a bd 45 ce 77 3b
       -0.0147210155 0.004786096 -0.041568875 0.0037812155
000030 1c dc 13 bd b6 0a 59 3d 43 0a 46 bd 71 c2 9b 3d
       -0.036098585 0.05298873 -0.04834963 0.07605446
000040 13 5c 94 bd c4 7f 52 3d 01 1e 8d 3d e6 f2 b3 3b
       -0.07244124 0.051391378 0.068904884 0.0054916022
000050 c4 85 4c 3b cc a2 a6 3c 94 12 39 3d 01 ea 91 3d
       0.003120766 0.0203413 0.045183733 0.07124711
000060 cd fb ef 3d 1e 3c 46 3b da 53 ca bd 65 d8 24 3c
       0.11717949 0.0030248235 -0.09879275 0.010061358
000070 da da 9f 3c 35 47 9a bd 90 66 c1 3c 50 7c 8a bd
       0.019513536 -0.07533113 0.023608476 -0.06761992
000080 5c 88 9e 3d ee 1c 35 bc 59 2b d7 bc 7d b8 d1 bc
       0.07740852 -0.011054261 -0.026265787 -0.025600666
000090 5e 5f bc 3d 0a 8b 12 3c 4e e4 92 bd 69 a3 31 3a
       0.09197877 0.008944282 -0.07172452 0.0006776364
0000a0 15 24 41 bc 64 af 44 3d 4c 43 cc bc f4 73 bf 3d
       -0.011788388 0.048018828 -0.024934433 0.09348288
0000b0 f7 5d d8 3d f7 2a 82 bc e6 9d b0 bd 3b 9c b6 bd
       0.10564797 -0.015889628 -0.08623867 -0.08916517
0000c0 b4 c4 e2 bb ca 81 f1 3b 01 4b 84 3b 07 8c 0f 3d
       -0.0069204215 0.0073702084 0.0040372615 0.03504565
0000d0 0d 72 01 bd 01 13 bf 3c 93 8b 2d bd 11 c4 07 bd
       -0.031602908 0.023324491 -0.042369436 -0.033145968
0000e0 d1 f8 dc bc 2e 24 36 bc bc 3c 42 bd cb 31 74 bd
       -0.026974114 -0.011117024 -0.047421202 -0.0596178
0000f0 05 84 fd 3c 69 68 36 3d da 10 fc bc 94 f2 ee 3c
       0.03094674 0.044533167 -0.030769754 0.029168405
000100 d9 9e 5c bd 3a 3e 41 3d 8a 4d 3d 3b e6 5b 72 3c
       -0.053862426 0.047178484 0.0028885328 0.014792418
000110 7b a0 dc 3c 2f 83 8c 3d 3a e0 93 3c a8 2f 81 3d
       0.026931992 0.06860959 0.018051255 0.06307918
000120 e5 42 76 3d 6a 41 7a 3d 4e 87 1c bc 20 8b 59 bd
       0.06012239 0.06109754 -0.0095537435 -0.053111196
000130 eb 0a 9f bc 0a c2 36 3d fd 5e e9 b9 94 66 ba bd
       -0.019414386 0.044618644 -0.00044511995 -0.091015965
000140 dd fd c9 3d e0 45 7e bd 1b b7 1e 3d c4 83 8f bd
       0.09862874 -0.062078357 0.03874884 -0.07007554
000150 8b e2 6f bc bf 61 9d 3b e4 bb 35 bd 49 2d fa 3c
       -0.014641414 0.004802912 -0.04436864 0.030539172
000160 25 02 21 bd 40 ff e9 bc 6e e2 55 ba e3 68 43 3c
       -0.039308686 -0.028564095 -0.0008159046 0.011926862
000170 0e ed 9d 3d 9d 4f 7e bd f3 64 35 bd 6b b2 80 bc
       0.0771123 -0.062087644 -0.044285726 -0.015710076
000180 b9 3d 81 3d 54 27 61 3b 90 fd 38 3d 41 53 e6 bc
       0.06310601 0.0034355717 0.04516369 -0.02811587
000190 c1 00 43 3d 8e 40 02 bd 7d 0b ec 3c 8b ba 13 3d
       0.04760814 -0.031799845 0.028814072 0.036066573
0001a0 38 03 a7 bd 8a 5d 33 3d 3e 0a f7 3c 55 2a 69 3b
       -0.08154911 0.043790378 0.030156251 0.003557821
0001b0 cb f1 60 bd 74 77 79 bd 2a 1f 4b bd f3 d7 0b bd
       -0.05491809 -0.060904935 -0.049590267 -0.034141492
0001c0 49 8a f0 3c 91 17 83 3d 42 21 91 3d a5 7f 47 3d
       0.029362815 0.06400979 0.070864215 0.048705716
0001d0 80 c9 e0 3c 49 d1 46 3d e8 2a 91 bb 70 cf 6c 3d
       0.027439833 0.048539434 -0.0044301637 0.057815015
0001e0 3d 39 83 3a 28 9b 11 bc c5 62 b4 3d d8 75 17 3d
       0.0010011565 -0.00888709 0.08807901 0.03697762
0001f0 55 f3 ba bd 29 1b 4e bd 9c 60 a9 bd 12 8b cb bd
       -0.09128443 -0.05031887 -0.0827038 -0.09938635

convs.0.bn1.weight f4 [128]
000000 5d 5d a7 40 7b 45 69 40 1f 7d bd 40 9c 34 1c 40
       5.230147 3.6448658 5.9215236 2.440711
000010 b8 6d c1 40 56 8f 95 40 6d 62 84 40 1f 26 6f 40
       6.0446434 4.673747 4.137015 3.7367017
000020 e7 d0 aa 40 48 f5 24 40 52 6f 47 40 d6 d5 b0 40
       5.338001 2.5774708 3.1161695 5.526103
000030 55 37 83 40 a1 51 34 40 f2 51 97 40 3b ba 9a 40
       4.1005044 2.8174822 4.728753 4.835233
000040 76 6a 80 40 af c2 66 3f 46 a5 9c 40 f8 0f 80 3f
       4.0129957 0.90140814 4.895175 1.0004873
000050 34 99 7b 40 af 7e de 40 d7 80 0d 40 62 56 92 40
       3.9312258 6.9529643 2.2109888 4.573045
000060 7d 8d 8b 40 ee f1 2e 40 08 f5 4a 40 1e e0 46 40
       4.3610215 2.7335162 3.1712055 3.107429
000070 75 fc 71 40 ad 7d 61 40 50 2f 03 40 f1 85 b5 40
       3.7810338 3.5232956 2.0497627 5.6726003
000080 db 97 11 40 bd f2 56 40 74 f9 88 40 73 5d 42 40
       2.2748935 3.3585656 4.280451 3.0369537
000090 19 1f a3 40 7c ff 52 40 33 85 f3 3f 8c c1 ad 40
       5.097546 3.2968435 1.9025024 5.4298763
0000a0 cf f8 ec 40 54 dd 8a 40 93 7e 53 40 15 4d ab 40
       7.405372 4.3395176 3.3046005 5.3531594
0000b0 97 2e 28 40 8a e6 bb 40 72 ef 1c 3f c5 4f 8c 40
       2.6278436 5.871892 0.61302865 4.3847375
0000c0 5a fd 4a 40 a3 ae b2 40 fc 28 8c 40 14 e5 94 40
       3.1717134 5.583818 4.380003 4.6529636
0000d0 98 7e 24 40 84 87 21 40 bc e6 57 40 9b ed 5e 40
       2.5702267 2.5238962 3.373458 3.4832523
0000e0 24 93 77 40 b7 63 b6 40 f1 58 3a 3f 32 b4 63 40
       3.8683558 5.699672 0.72791964 3.5578732
0000f0 4b 2e 74 40 b4 f7 9c 40 7d 24 d3 40 38 6f db 40
       3.8153255 4.905237 6.598204 6.8573265
000100 75 63 0b 40 56 75 50 40 55 a9 05 40 74 78 18 40
       2.1779454 3.2571616 2.0884602 2.3823519
000110 13 2c 22 be f1 d9 86 3f 90 e7 a2 3f 75 be ae 40
       -0.15837125 1.053526 1.2726917 5.460749
000120 a9 61 e9 3f fd 7f 98 3f fd 0b 82 3f 52 ab 89 40
       1.8232929 1.1914059 1.0159909 4.302163
000130 59 b3 87 3f e1 14 c0 3f 4a 1f 9e 3f ed f1 dd 3f
       1.0601608 1.5006372 1.2353299 1.7339455
000140 6d 01 1d 3f fb 95 e8 40 f9 d6 2f 3f d1 2e a0 40
       0.613303 7.268308 0.686874 5.005715
000150 d3 53 c7 3f f1 5c be 3f b3 da e7 3e f2 22 1b 3f
       1.5572456 1.4872113 0.45284042 0.606002
000160 29 71 06 40 d6 05 32 3f 62 66 11 40 8d ca df 3f
       2.1006567 0.69540155 2.271874 1.7483689
000170 fb b7 ef 3f a8 63 49 3f 29 e9 56 40 08 e9 2e 3e
       1.8728021 0.7866769 3.357981 0.17081082
000180 e3 a0 b6 40 d0 29 3c 3f e4 90 c7 3f 65 b1 19 3d
       5.7071395 0.735013 1.5591092 0.037522692
000190 d3 71 e7 3f 8e cb 6f 3f fa 2c 25 40 4f c5 30 3f
       1.8081611 0.93669975 2.5808702 0.6905107
0001a0 3b a8 4a 3e a4 9a 57 3f d0 f2 36 40 6c 67 63 3f
       0.19790737 0.8422034 2.85857 0.88829684
0001b0 75 30 b0 40 11 4d 84 3f e9 18 80 3f 70 c4 b3 3f
       5.505915 1.0336019 1.0007602 1.4044323
0001c0 3e 5b 8e b9 cf fd 4a 3f 58 3e 1f 40 05 0d 3d 40
       -0.0002715233 0.7929353 2.4881802 2.9539196
0001d0 2a e5 b9 3f 56 9a 15 3f 3e 08 3b 40 55 9f b6 3f
       1.452306 0.5843862 2.922378 1.4267374
0001e0 63 f4 06 3f b2 f6 3f 3f 1b 40 89 40 a1 fb 9b 3f
       0.52716655 0.749858 4.2890754 1.2186166
0001f0 67 a4 b3 3f e3 60 d2 3e 30 7a d2 3f 07 ad 96 3e
       1.4034547 0.41089544 1.6443539 0.29428884

convs.0.bn1.bias f4 [128]
000000 d1 ad c4 be c9 c7 4d be 02 39 bc bc 25 8a 3b be
       -0.3841386 -0.20095743 -0.022976402 -0.18314417
000010 f1 94 20 40 74 fc 5c be c8 2d 83 3e ae 9f 16 bf
       2.5090907 -0.21580678 0.25620866 -0.588374
000020 85 19 ec 3d 6e 27 de 3d 5d 2f 83 be fd 29 34 bf
       0.11528305 0.10847364 -0.25622073 -0.7037657
000030 37 c9 19 3f f2 06 83 3e 70 b5 77 3f 3b be f1 bf
       0.60072654 0.25591236 0.96761227 -1.8886179
000040 ab 5f c8 be 81 76 76 3e 0e 03 62 3f c8 33 da 3f
       -0.3913549 0.24068643 0.8828591 1.7047052
000050 41 31 89 3f bf 34 8d 3f 8a c9 d1 3f f7 7f 34 3f
       1.0718156 1.1031722 1.638963 0.7050776
000060 cc 64 e9 3d ec f8 03 be 20 3d c4 be e4 44 8a be
       0.113961786 -0.12887925 -0.38327885 -0.27005684
000070 35 06 a9 3e 0d fd c2 3e 98 07 c4 be 04 93 b2 3f
       0.33012548 0.38083687 -0.38287044 1.3951116
000080 87 a9 2a 3f e1 c7 bb 3f e6 98 8c bf e2 2d 20 40
       0.6666493 1.4670373 -1.0984161 2.5028005
000090 bd b8 ce be ac a6 6e 3f c8 58 b8 bf e6 b4 13 40
       -0.4037532 0.9322307 -1.4402094 2.3079162
0000a0 ee 52 78 3f 96 c7 04 40 00 d0 f3 3e f0 42 82 3e
       0.9700154 2.0746818 0.4761963 0.25441694
0000b0 ff d0 83 3e 84 5d 87 be 25 c1 7e 3f 6c 48 a5 be
       0.2574539 -0.26438534 0.99513465 -0.32281816
0000c0 60 08 82 40 4c 2e 01 3f 5e 21 41 3f 7d 83 ef bf
       4.0635223 0.5046127 0.7544154 -1.8712002
0000d0 a3 0f 8d 3f 06 61 86 3f 11 94 a1 bf 61 63 67 3a
       1.1020397 1.0498359 -1.2623311 0.00088267593
0000e0 91 7b 46 3f 0b 10 b3 bf 3b a3 1b bf 2f f4 17 3f
       0.775323 -1.3989271 -0.60795945 0.5935697
0000f0 e7 ed 96 3e 8b f0 a3 3f 91 51 8f 3f 21 34 67 3f
       0.2947838 1.2807783 1.1196767 0.9031392
000100 b7 3e e2 3e 50 ed f1 be 95 89 d2 3e ce dd 30 c0
       0.44188473 -0.47251368 0.41120592 -2.763538
000110 5c 46 09 41 49 a9 0e 3f 1a 2e 1e 3f d6 ba 18 bf
       8.579678 0.5572706 0.61789095 -0.5966009
000120 01 e7 88 3e 86 82 3c 3f 40 59 50 3f 67 3b f5 bf
       0.26738742 0.7363666 0.81386185 -1.9158753
000130 5d 41 c5 3f b0 c1 8a be be da 93 3f b1 d5 38 c0
       1.5410572 -0.27100897 1.155113 -2.8880427
000140 eb a4 92 3f e6 d2 42 bf 97 06 ed 3f 79 ac cd 3e
       1.1456579 -0.76103055 1.8517636 0.4017065
000150 73 e3 dc 3e a3 2c 8f 3f 1c 0a 29 40 86 34 df 3f
       0.4314228 1.1185497 2.641242 1.7437904
000160 56 9c 83 bf 93 d4 b0 3f 71 60 b6 be 59 43 c5 bf
       -1.0282085 1.3814873 -0.35620454 -1.5411178
000170 b4 f1 8b bf 5d 26 d4 3e a2 b2 c3 bf 92 67 7d 40
       -1.0933137 0.4143552 -1.528889 3.9594464
000180 00 61 60 3f 8d e3 6b 3f 62 b5 ad 3f 07 3d 1e 41
       0.8764801 0.9214409 1.3570979 9.889899
000190 89 e9 bc 3e 88 ae 66 3f 12 5e 18 c0 16 a9 06 40
       0.36896923 0.90110064 -2.3807416 2.1040702
0001a0 db b7 fd 40 9e a4 c9 3f eb a3 15 bf 85 52 d8 3f
       7.9286933 1.5753362 -0.58453244 1.6900183
0001b0 05 57 8f bf bb d5 b9 3f f9 f6 7d 3f be 68 b0 be
       -1.1198431 1.451835 0.99204975 -0.34454912
0001c0 68 5d f1 40 58 69 8b 3f ff fb 18 3d 36 c7 96 3e
       7.542652 1.0891523 0.037349697 0.2944886
0001d0 83 9c 2a 3f 5b 6b 1b 40 b8 18 d3 be f3 89 81 3f
       0.6664507 2.4284275 -0.41229796 1.0120224
0001e0 d7 26 01 40 d4 b7 bf 3f e8 a1 4a bf e1 06 84 3e
       2.0179956 1.4977975 -0.791533 0.25786498
0001f0 76 ff aa be 41 33 b8 3f 52 30 63 3e fc ea 80 40
       -0.33398026 1.4390641 0.22186401 4.0286846

convs.0.bn1.running_mean f4 [128]
000000 68 3f 85 42 fd 95 6e 41 f6 57 33 42 bb 37 a6 41
       66.62384 14.911618 44.8359 20.777212
000010 ca d9 ba 42 e5 ad b6 42 a2 fc 51 42 42 0d 2e 42
       93.42537 91.33964 52.49671 43.512947
000020 28 5d 6f c1 1e ab 4d 42 bb 3c 28 42 88 b6 22 3f
       -14.960243 51.417107 42.059307 0.6355977
000030 bb e7 83 c2 e3 72 8d c2 e8 4a 38 42 db 40 c9 c1
       -65.9526 -70.72439 46.07315 -25.156668
000040 65 09 68 42 5e 6a 90 41 93 74 a4 41 1e ec f5 c1
       58.009174 18.051937 20.556921 -30.740292
000050 92 b6 8a 42 be 19 9e c1 a9 47 1f 41 e0 7c f8 41
       69.35658 -19.76257 9.954995 31.060974
000060 36 13 8e 42 a8 49 56 c1 28 77 44 42 37 55 05 42
       71.03752 -13.3929825 49.116364 33.333218
000070 66 a6 ae c0 41 a4 22 42 63 c0 c7 41 81 5c e0 41
       -5.4578123 40.660404 24.968939 28.045168
000080 1d d2 12 42 22 91 0d c1 e7 1c 10 c2 16 de a8 c2
       36.70519 -8.847933 -36.028225 -84.43376
000090 4c bb bf c1 24 37 bb bf b1 39 52 41 75 17 41 42
       -23.966454 -1.4626203 13.139085 48.272907
0000a0 4e 1d e0 c1 1a 34 71 41 aa ca 0c 42 05 ef c7 c1
       -28.014309 15.07522 35.197914 -24.991709
0000b0 15 d1 b2 c0 36 48 fe 40 0d 46 bf 41 55 29 d3 42
       -5.5880227 7.946315 23.909204 105.58073
0000c0 bb ca b0 41 2b c9 25 c2 c7 4e 9c c2 08 c5 d5 c1
       22.09899 -41.446453 -78.15386 -26.721207
0000d0 62 9f f0 41 bd 93 a2 c0 ee 7d c9 3f bd 47 19 c1
       30.077824 -5.0805345 1.5741556 -9.580014
0000e0 fd 52 66 42 9a ed 10 c1 95 36 ed 41 ca fb f0 41
       57.581043 -9.058008 29.651651 30.122944
0000f0 4d 9d 4c c2 78 69 31 42 2e f3 d5 41 52 06 e5 41
       -51.153614 44.352997 26.74374 28.628086
000100 14 77 67 42 1e 38 22 c2 d6 e3 97 41 58 b2 29 42
       57.866287 -40.554802 18.986248 42.424164
000110 e2 4d aa 42 2d 83 36 41 8f 46 84 c1 d9 e8 6e 41
       85.152115 11.407025 -16.534452 14.931848
000120 41 d6 27 c1 1a f5 80 42 cd 1b 41 42 c1 20 e5 c1
       -10.489808 64.478714 48.27715 -28.640993
000130 71 be 05 41 84 42 16 c2 a9 ce 07 c0 66 60 34 41
       8.3589945 -37.564957 -2.1219885 11.273535
000140 e9 92 46 42 49 cd 04 c2 9e 89 53 c0 13 60 9e c1
       49.643467 -33.200474 -3.3052745 -19.796911
000150 4c 8e 4b 42 f0 d0 31 c2 4f df a6 40 10 28 c0 42
       50.88896 -44.45404 5.2147593 96.07825
000160 a0 e1 cd c1 a4 dd 3c 41 a5 c0 93 41 65 28 8b 41
       -25.735168 11.8041115 18.469065 17.394724
000170 cf 26 77 42 69 c8 e8 41 b7 08 2e 42 17 6c 17 42
       61.7879 29.097857 43.50851 37.855556
000180 b8 2d 57 c0 61 e9 0e 42 06 92 ba c1 d8 88 1a 41
       -3.3621655 35.72791 -23.3213 9.658409
000190 37 50 bc c1 02 6d 03 41 c9 48 c5 41 32 29 04 c2
       -23.539167 8.214113 24.66054 -33.04023
0001a0 e9 ed 18 c1 a7 08 9f 40 ca 7d 85 41 b4 88 16 42
       -9.558084 4.969806 16.68642 37.6335
0001b0 6a 60 92 41 43 d1 a1 42 a7 a0 22 42 44 10 2a 40
       18.297077 80.908714 40.656887 2.6572428
0001c0 d3 c3 09 41 87 6d 09 c2 85 24 4c c2 07 6e 25 c2
       8.610309 -34.35696 -51.035664 -41.35745
0001d0 48 a6 96 41 60 7e 07 42 d4 66 c2 41 c7 0f 68 42
       18.831192 33.873413 24.300209 58.015408
0001e0 7c be 27 c1 d4 44 8d c1 7b 07 f3 c1 cd 28 32 42
       -10.484005 -17.658607 -30.378653 44.539845
0001f0 bb 7a 97 c1 f2 49 b7 c1 59 1b 15 40 d0 d1 8a 42
       -18.934927 -22.911106 2.3297942 69.40979

convs.0.bn1.running_var f4 [128]
000000 3d 0f bf 45 0b 09 f5 45 a9 68 80 45 cf a8 06 45
       6113.905 7841.1304 4109.0825 2154.5505
000010 e0 48 48 45 a6 39 8a 45 29 ec d5 44 32 d9 8c 45
       3204.5547 4423.206 1711.38 4507.1494
000020 33 ec 9e 45 1e 89 18 45 1e 35 f8 44 e2 4c 85 45
       5085.525 2440.5698 1985.6599 4265.6104
000030 00 cd 7c 45 3e 3f cd 45 f9 03 78 45 b4 56 ba 43
       4044.8125 6567.9053 3968.2483 372.67737
000040 15 a7 d2 45 e4 d3 00 46 83 d0 a5 45 8a 19 8b 45
       6740.8853 8244.973 5306.064 4451.1924
000050 6a b5 25 45 4e 11 63 45 d9 cd f9 45 1f 7d d1 45
       2651.3384 3633.0815 7993.731 6703.64
000060 f7 ae b4 45 44 73 ec 45 dc 80 6a 45 8f f7 41 45
       5781.8706 7566.408 3752.0537 3103.4724
000070 06 98 56 45 4b e2 47 45 1e c8 94 45 36 88 70 45
       3433.5015 3198.1433 4761.0146 3848.5132
000080 a2 e1 5e 45 d9 2c b1 45 2d 5c f6 45 20 63 d4 45
       3566.102 5669.606 7883.522 6796.3906
000090 34 c9 e2 45 dd f9 a6 45 7f 96 7e 45 d6 f3 1c 45
       7257.1504 5343.233 4073.406 2511.2397
0000a0 71 9c 9f 45 13 4b 31 45 75 80 c7 45 21 29 8a 45
       5107.555 2836.6921 6384.057 4421.141
0000b0 55 e6 46 45 d4 1f 85 45 18 5e 78 45 5d a5 26 45
       3182.3958 4259.9785 3973.8809 2666.3352
0000c0 2d 6b 03 45 00 eb 60 45 28 b1 e3 44 c2 1b bd 45
       2102.6985 3598.6875 1821.5361 6051.4697
0000d0 aa 0c 36 45 72 d0 5a 45 e2 80 8d 45 82 1b 99 45
       2912.7915 3501.0278 4528.1104 4899.4385
0000e0 9b 03 91 45 50 ca 39 45 5b 7b b0 45 7a 15 b8 45
       4640.4507 2972.6445 5647.4194 5890.6846
0000f0 fe f9 d4 44 8e dc 13 45 09 14 31 45 67 d2 e8 45
       1703.8123 2365.7847 2833.2522 7450.3003
000100 2b 66 cc 45 ff 51 e0 45 41 07 ab 45 dd c8 37 45
       6540.771 7178.2495 5472.9067 2940.554
000110 3f c5 d4 45 d1 a2 70 45 27 65 18 45 ac af c2 45
       6808.656 3850.176 2438.322 6229.959
000120 b3 4c 42 45 74 f4 8d 45 7d 9e 12 45 62 56 22 45
       3108.7937 4542.5566 2345.9055 2597.399
000130 bd 1f 84 45 fe f6 ce 45 c4 1f b1 45 13 81 8e 45
       4227.9673 6622.874 5667.9707 4560.1343
000140 97 98 9c 45 f6 90 9a 45 e0 2f bb 45 53 73 a1 45
       5011.0737 4946.12 5989.9844 5166.4155
000150 2a 3f 96 45 d5 0a 99 45 17 ba 96 45 6f 89 86 45
       4807.8955 4897.354 4823.261 4305.179
000160 9d 2b bf 45 b9 55 b1 45 65 64 4c 45 d7 c5 11 45
       6117.4517 5674.7153 3270.2747 2332.365
000170 1c 36 cf 45 f1 dc 6f 45 16 fb d5 45 60 cf a0 45
       6630.7637 3837.8088 6847.3857 5145.922
000180 a5 b3 86 45 9b 8e fc 45 d8 94 f9 45 80 3c 9d 45
       4310.4556 8081.8257 7986.6055 5031.5625
000190 e9 1e 0d 46 3b 16 a3 45 cd 42 91 45 d4 ba 96 45
       9031.728 5218.779 4648.35 4823.3535
0001a0 fa 1e 8f 45 9e e9 88 45 fa 29 b9 45 7d 76 e1 45
       4579.872 4381.202 5925.247 7214.811
0001b0 a7 c8 a1 45 dc 68 bc 45 a6 56 9a 45 55 48 5f 45
       5177.0815 6029.1074 4938.831 3572.5208
0001c0 b9 c2 54 45 22 4a ab 45 6b 4d 7b 45 81 ed c7 45
       3404.1702 5481.2666 4020.8386 6397.688
0001d0 2f 4f 51 45 b0 ac 9e 45 17 1d 58 45 cd 38 27 46
       3348.949 5077.586 3457.818 10702.2
0001e0 3b 6d 83 45 9b f4 37 45 c6 f9 85 45 b4 5f db 45
       4205.654 2943.2878 4287.2217 7019.963
0001f0 48 1d 14 45 7a 81 20 45 f6 ed 9c 45 8b 6d 53 46
       2369.83 2568.0923 5021.745 13531.386

convs.0.bn2.weight f4 [64]
000000 9d c5 bb 3f 63 a0 ef 3f ca 90 df 3f 91 70 f0 3f
       1.4669682 1.8720821 1.7466061 1.8784353
000010 ba 3a cb 3f 42 6c 7b 3f af b4 3a 3f 0c 5d af 3f
       1.5877297 0.98212063 0.7293195 1.3700271
000020 7c 59 80 3f ec 0b a5 3f a5 ee cc 3f 55 5b e8 3f
       1.0027308 1.2894263 1.6010329 1.8152872
000030 0d c1 10 40 17 e0 b8 3f f2 8d dc 3f 5a 52 0c 40
       2.261783 1.4443387 1.7230818 2.1925263
000040 68 5f 22 40 e1 89 0f 40 d1 23 fe 3f c5 83 7e 3f
       2.5370731 2.2427905 1.985468 0.99419814
000050 7b 34 27 3f 99 23 95 3f d4 22 fb 3f ab c0 e8 3f
       0.65314454 1.1651489 1.9620004 1.8183798
000060 04 97 8e 3f 49 78 0a 40 db 2e b4 3f cb 22 71 3f
       1.1139836 2.1635916 1.4076799 0.94193715
000070 2f 81 d0 3f 0a 3f 4f 3f a4 45 d6 3f 53 87 ba 3f
       1.6289424 0.80955565 1.6740003 1.4572548
000080 a7 47 fd 3f a9 c8 fd 3f 9e 1e 16 40 33 85 0c 40
       1.9787492 1.9826862 2.3456187 2.1956298
000090 2f 89 15 40 3d 85 c5 3f c3 ce e8 3e 18 21 96 3f
       2.336498 1.5431286 0.45470247 1.172885
0000a0 be 09 a5 3f ec c3 f0 3f 30 c5 ec 3f e4 93 13 40
       1.2893598 1.8809791 1.8497677 2.3059015
0000b0 4a 29 06 40 35 f8 0d 40 98 b0 6f 3f 96 e6 95 3f
       2.09627 2.2182744 0.93628836 1.1710994
0000c0 f1 49 aa 3f de be e0 3f 57 bc d8 3e d6 3f b1 3f
       1.3303815 1.7558248 0.42331192 1.3847606
0000d0 dc 5f 13 3f 95 9c bc 3f ba 85 94 3f ac f9 1e 40
       0.57568145 1.4735285 1.160331 2.4839888
0000e0 93 fb e4 3f 91 8e f9 3f 20 db c3 3f ea ae e6 3f
       1.7889274 1.9496633 1.5301247 1.802213
0000f0 15 57 16 3f 06 95 ba 3e 23 59 af 3f b2 3c 55 40
       0.58726627 0.3644182 1.3699077 3.3318295

convs.0.bn2.bias f4 [64]
000000 9f 1e de bf ed 80 25 bf e4 48 c1 bf ea 09 d9 bf
       -1.7353095 -0.6464985 -1.510037 -1.695615
000010 26 0e ae be 06 6c 7e bf fd 14 0e c0 cd 99 23 bf
       -0.3399517 -0.9938358 -2.220031 -0.63906556
000020 03 bc e1 be 57 46 ec bf 6f 0c ce bf f8 a1 06 be
       -0.44088754 -1.8458966 -1.6097544 -0.13147724
000030 df 22 d8 bf c3 b6 fe 3e 51 1f e6 bf 56 bd 18 3f
       -1.6885642 0.4974881 -1.7978307 0.59663904
000040 e4 69 13 be 90 bc 0d 3f 89 e2 27 bf c1 e1 98 bf
       -0.14395863 0.5536585 -0.6558004 -1.1943895
000050 aa 07 0d c0 75 ad 48 3d a0 38 cf be 95 a2 33 c0
       -2.2035928 0.048993547 -0.4047289 -2.8067982
000060 d6 ee 01 bf 06 e5 31 be 1e 44 dc bf fe 30 94 bf
       -0.5075506 -0.17372522 -1.7208288 -1.1577451
000070 6b a3 e9 bf 78 b3 c9 bf 8d 2f 6e bf db 91 95 bf
       -1.8252996 -1.5757895 -0.93041307 -1.1685137
000080 14 fb 3a 3d af b9 8b bf a9 33 a2 bf 42 e0 a9 be
       0.045649603 -1.0916041 -1.2672015 -0.33178908
000090 da 6a 00 bf f0 b2 71 bf 33 6e a3 bf 3c 10 48 3e
       -0.5016304 -0.9441366 -1.2768005 0.19537443
0000a0 b2 e2 8c 3e c5 6a 0f c0 ee 91 0d bf e3 48 d7 be
       0.27516705 -2.2408917 -0.55300796 -0.42047796
0000b0 77 64 8c bf bc ee 72 bf bb d0 bb bf 5f 84 ed bf
       -1.096816 -0.9489553 -1.4673074 -1.8556021
0000c0 74 7a f1 be 79 ea bf bf d7 cf 9b bf 2f b7 48 3f
       -0.47163737 -1.499343 -1.2172803 0.78404516
0000d0 1c 40 58 bf 95 50 0e c0 d4 f6 03 c0 5f 08 ea bd
       -0.84472823 -2.2236683 -2.0619402 -0.11427378
0000e0 04 c9 d3 be 2d 67 6e bf 1e 88 4c bf 9f 01 c8 bd
       -0.413643 -0.93126184 -0.798952 -0.09765934
0000f0 8b 10 de bf d6 d5 74 bf 8f b6 3b 3f 43 ec de bf
       -1.7348799 -0.9563879 0.7332544 -1.7415851

convs.0.bn2.running_mean f4 [64]
000000 3a 76 36 41 7a 36 d0 40 6a ce 3f 41 dd 0e 4a 40
       11.403864 6.50665 11.987894 3.1571572
000010 a1 99 8c 42 97 05 e4 40 9b 92 15 41 38 74 c3 41
       70.30006 7.1256824 9.348292 24.431747
000020 05 f9 f8 40 bb fa 29 41 5b 10 15 41 f0 ec 27 41
       7.780398 10.6237135 9.316493 10.495346
000030 53 79 75 41 22 31 da 40 34 d2 53 41 e2 6b 88 3f
       15.34212 6.8184977 13.238819 1.0657923
000040 43 a8 27 41 ce 54 83 41 f6 a0 6f 41 d4 52 d0 41
       10.4785795 16.416409 14.976797 26.040443
000050 a6 62 2e 41 c3 13 33 41 10 2d c9 41 d4 89 70 41
       10.899084 11.192325 25.147003 15.033649
000060 ac 30 8e 40 10 d6 37 41 0e 37 1d 41 6d fc 45 40
       4.4434414 11.489761 9.825941 3.0935318
000070 92 01 ab 40 c3 3f fa 40 49 c9 11 41 7c 9f fb 41
       5.3439417 7.8202834 9.111642 31.452873
000080 37 f6 c0 41 1a e2 2a 41 57 c5 23 41 7c 37 b3 42
       24.120222 10.680201 10.235679 89.60837
000090 ce 5a 14 41 18 95 41 41 da 74 82 40 52 7b 8d 41
       9.272169 12.0989 4.076764 17.685215
0000a0 b2 19 23 42 e0 55 82 41 a8 85 3c 41 d0 18 65 41
       40.775093 16.291931 11.782631 14.318558
0000b0 f3 0f 67 41 4c c2 5f 41 33 73 4f 41 de c5 a0 40
       14.441394 13.984936 12.965625 5.0241537
0000c0 ab 91 9c 42 e4 0c 2c 41 40 b8 18 41 ab a6 4c 41
       78.28451 10.753147 9.544983 12.79069
0000d0 b4 be 3d 41 d8 19 a5 41 a7 7b 20 41 15 9d 52 41
       11.859058 20.637619 10.030189 13.16335
0000e0 cc 2c 80 41 e1 52 26 41 2d 63 11 41 62 79 fb 40
       16.021873 10.395234 9.086713 7.858567
0000f0 0f 79 a1 40 1e d2 4f 41 47 ab 12 41 09 ca c6 41
       5.0460277 12.988798 9.166816 24.84865

convs.0.bn2.running_var f4 [64]
000000 c7 b2 29 43 10 2f 29 42 23 7f aa 42 5f 07 74 41
       169.69835 42.29596 85.248314 15.2518
000010 cd 9e a9 44 8e c7 09 42 07 43 e2 42 6d 75 df 43
       1356.9625 34.444878 113.13091 446.9174
000020 02 72 5e 42 b0 a6 4f 42 c5 7e 3a 42 d3 5e 19 43
       55.611336 51.91278 46.6238 153.3704
000030 fb c0 70 42 09 53 b7 41 9a 74 9b 42 91 9e dc 3f
       60.188457 22.915545 77.72774 1.7235891
000040 bc 2c e9 41 18 3f 5d 43 0e 85 7d 42 1d 9f 59 44
       29.146843 221.24646 63.379936 870.48615
000050 fc 0e 5b 42 8b 77 7e 42 34 b9 44 42 ff a9 5f 42
       54.764633 63.61674 49.180862 55.91601
000060 51 fe 9f 41 51 70 fe 41 9d 88 15 43 7a ad 50 41
       19.999178 31.804842 149.53365 13.042353
000070 26 44 96 41 85 3f 1d 42 a9 b6 d8 42 33 ae fb 42
       18.783276 39.31203 108.35676 125.84023
000080 66 82 ea 43 e6 ec bc 41 6e a4 5c 42 e0 61 e7 43
       469.01874 23.615673 55.160576 462.76465
000090 01 c7 38 42 0e 90 4d 42 5c 9d ac 41 c0 7d 98 42
       46.19434 51.39068 21.576836 76.245605
0000a0 5c e0 d1 44 f0 f9 56 42 04 28 12 43 7f e4 8a 42
       1679.0112 53.74408 146.15631 69.44628
0000b0 96 9e b3 43 03 62 5e 42 95 7c 17 42 59 99 a4 41
       359.23895 55.595715 37.871662 20.574877
0000c0 e0 99 94 43 5f 0b 3b 42 74 0d cb 42 e4 00 02 43
       297.20215 46.761105 101.526276 130.00348
0000d0 74 d8 ec 42 46 51 95 42 38 02 cc 42 f8 d8 8a 42
       118.42276 74.65874 102.00433 69.42377
0000e0 c4 e4 45 42 c8 aa 6d 42 05 f2 ac 42 76 bb d8 41
       49.473404 59.41678 86.472694 27.091534
0000f0 c9 76 10 42 e8 2b 3e 42 8b 80 6f 42 cc 36 52 43
       36.116 47.542877 59.87553 210.21405

convs.1.fc_full.weight f4 [128, 169]
000000 3d 3d e2 bf c7 a1 a3 bf 45 e4 c3 bf 74 4b a4 3b
       -1.7674938 -1.2783746 -1.5304037 0.0050138775
000010 28 30 40 3d 87 06 9b be c4 2c 02 3e 0d 70 bc be
       0.046920925 -0.30278417 0.12712389 -0.36804238
000020 d5 74 6b c0 43 64 5d 3f 65 ab ea 3e cd 39 3a bf
       -3.6790059 0.8648111 0.4583389 -0.72744447
000030 5f be 7a bd 8b 37 08 c0 48 e7 9a 3f 13 6f f8 be
       -0.06121671 -2.12839 1.2101831 -0.48522243
000040 16 9d ae 3f e3 89 eb bf 18 e3 d5 bd 35 06 d2 3e
       1.3641689 -1.8401455 -0.10443705 0.4102036
000050 d1 10 c5 3b 74 66 3c bf db ae 5c be 09 46 88 3f
       0.0060139676 -0.7359383 -0.21551077 1.0646373
000060 a6 ca 82 bf 2a e5 7b 3f 5e fd a0 be 2f f5 8c be
       -1.0218093 0.9839655 -0.31443304 -0.2753081
000070 14 92 66 bf dd 4a a2 3f d9 1a 30 3f 5f 17 0f 3e
       -0.9006665 1.2679096 0.68790966 0.13973759
000080 49 2f f6 bf 95 e5 78 bf 2f d6 ae bf 85 74 a4 bf
       -1.923318 -0.97225314 -1.3659114 -1.2848059
000090 10 b7 5b bf 9b 9a a4 3e 36 a0 57 bf c2 73 b8 3f
       -0.85826206 0.32149205 -0.8422884 1.4410326
0000a0 79 c6 cf 3d a8 ce 9f be d9 11 cf bf 81 12 84 3f
       0.101452775 -0.31212354 -1.6177322 1.0318147
0000b0 4b 80 71 3e 02 f0 57 3f 68 45 b6 bf 03 b2 18 3f
       0.23584096 0.843506 -1.4239931 0.59646624
0000c0 e4 9a e9 3e 15 46 1d 3d 4a a8 ff be 1a 41 31 3f
       0.45625985 0.038396914 -0.49933082 0.6923996
0000d0 be 16 78 3f c6 cc 23 bf 5e 52 db 3e b0 37 8e 3e
       0.969097 -0.63984334 0.4283628 0.2777686
0000e0 6e 06 c1 3e d6 b9 6c bf 73 89 35 bf f7 d9 57 3f
       0.37700218 -0.92471063 -0.70912856 0.8431696
0000f0 63 70 50 3e a5 cc 3f 3e a8 0d 1d 3e 80 35 b2 bf
       0.20355372 0.1873041 0.1533724 -1.3922577
000100 5f 52 46 be d4 49 9f be 68 a5 f4 bf 22 e4 42 3f
       -0.1936736 -0.31111014 -1.9112978 0.76129353
000110 08 8b a9 3e 1a 05 cf 3f 88 81 56 be d1 d2 92 be
       0.33113885 1.6173432 -0.2094785 -0.28676465
000120 a0 5c c3 3e 0a 95 20 bf 03 f0 e5 bf 89 1b da 3d
       0.38156605 -0.62727416 -1.7963871 0.10649783
000130 c8 e4 15 3f 15 a0 83 3f af 0a 91 bf 8d 3a 25 3f
       0.5855222 1.0283228 -1.1331385 0.64542466
000140 85 8f fc 3e 61 d0 4d 3c 7d 20 2a 3f f3 b4 6c bf
       0.49328247 0.012561888 0.66455823 -0.92463607
000150 35 5d 4b 3f 0b ec d7 be 70 e2 4d be 4e f0 e4 3e
       0.794391 -0.42172274 -0.2010591 0.44714588
000160 72 e8 0a 3f 9c 31 9a bf dd 9b 4a bf 39 61 bd 3d
       0.54260933 -1.204639 -0.7914408 0.092470594
000170 87 9b 83 3f 7b 77 c7 3e de 37 9e be 47 2b 9a bf
       1.0281838 0.38958344 -0.30901998 -1.2044457
000180 09 e4 fa bf 3e fb 92 3f 0f 05 30 3f 95 86 73 bf
       -1.9600841 1.1482923 0.6875772 -0.9512723
000190 8a 0c 93 3f 99 08 bd 3f 76 a2 3f 3f ee 14 a0 3f
       1.1488202 1.4768249 0.7485727 1.2506387
0001a0 ff 07 3c bf be 65 4c 3f ec df cd 3f e3 0f 76 3f
       -0.734497 0.79842746 1.608396 0.9611799
0001b0 8f 69 1b 40 65 19 85 3f 10 9f c8 bf fc 08 00 bf
       2.4283178 1.0398375 -1.5673542 -0.5001371
0001c0 a6 6a 13 3f 22 bb c0 be 78 fd f6 3e d0 75 35 3f
       0.5758461 -0.3764277 0.48240256 0.7088289
0001d0 a8 9b cb 3f f5 99 92 be fa 14 98 be 55 45 03 3c
       1.5906878 -0.28633085 -0.29703504 0.0080121355
0001e0 1e 8a 1e 3e 28 0b b1 3f 9b 36 10 3f 87 0f c1 bf
       0.15482375 1.383153 0.5633332 -1.5082864
0001f0 cb f8 89 3f 88 1e ba be c9 22 d4 3f 8a 06 b6 3f
       1.077905 -0.36351418 1.6573116 1.4220746
000200 a7 12 2f bd 9b 8c ce bb c1 4f 2e be 07 3e 42 3f
       -0.042742398 -0.0063033826 -0.17022611 0.75875896
000210 2d 37 c3 3f ac f2 99 3f 7b e2 13 40 be 11 58 40
       1.5251213 1.2027183 2.3106983 3.376083
000220 7f 7a 9e 3f fa 3c 7d 40 af 3b 03 40 1b 09 5d 40
       1.2381133 3.9568467 2.0505178 3.4536808
000230 0d db 5c 40 80 da de 3f 71 32 76 c0 61 11 b1 c0
       3.4508698 1.7410431 -3.8468287 -5.5333714
000240 8b e5 a1 c0 58 37 b1 be 0f c4 50 c0 64 22 bb c0
       -5.0592704 -0.34612536 -3.2619665 -5.847948
000250 43 3c b0 bf d2 f6 cf be 69 e7 32 40 44 a7 b3 40
       -1.376839 -0.40617996 2.7953742 5.614168
000260 ef f2 df 40 15 b0 ba 40 d5 81 63 c0 f9 aa ea c0
       6.998405 5.8339944 -3.5547993 -7.3333707
000270 57 56 c9 c0 85 27 8e bf 28 24 48 bf 60 92 4d bf
       -6.2917895 -1.110581 -0.7818017 -0.80301476
000280 b8 02 c2 be 80 3f 70 bc f5 0d 39 3d 5e b3 2a bc
       -0.378927 -0.014663577 0.045179326 -0.010418741
000290 f7 a5 41 bd 45 90 52 bc 1e fe 14 bd 1e 20 78 bd
       -0.047277417 -0.012851779 -0.036375158 -0.060577504
0002a0 28 9b c4 3c a3 95 ab bf f3 d7 e8 be 62 eb 41 3f
       0.023999766 -1.340504 -0.45477256 0.7574979
0002b0 a1 ea 54 bf d3 50 a0 be 24 41 fb 3e c3 e6 4b bf
       -0.83170515 -0.31311664 0.49073136 -0.7964899
0002c0 88 7c 5d bd 94 fe ad bf 62 3a a4 be 36 90 2e bf
       -0.05407384 -1.3593316 -0.32075793 -0.681888
0002d0 64 14 cd 3e b5 09 20 be 83 7c 4c c0 d5 d5 1b 3f
       0.4005462 -0.15628703 -3.1950996 0.60873157
0002e0 7b cc 77 3f d4 6b c8 bf 7c f9 bf bf 23 06 c9 3e
       0.9679639 -1.5657907 -1.4998012 0.39262494
0002f0 35 92 82 3f 13 01 8f bf 53 43 35 bf d5 47 72 bf
       1.0200869 -1.1172203 -0.70805854 -0.94640857
000300 ed 23 e5 be bc 25 94 be 89 31 b4 bd 64 19 14 bf
       -0.44753972 -0.2893504 -0.087985106 -0.57851243
000310 22 9b 43 3f ff 2c c1 bf 4c c5 d1 3e 9b 63 a6 3e
       0.7640859 -1.5091857 0.40970838 0.32497868
000320 0e d5 e0 3e 44 23 1a 3e f1 53 bd be 52 11 80 be
       0.43912548 0.15052515 -0.36978105 -0.25013214
000330 75 d5 ce bf 36 57 55 c0 b1 c3 9e bb c4 fc b7 3f
       -1.6158892 -3.333448 -0.0048451056 1.4374013
000340 6b 8a b2 bf 81 e1 6f 3e f2 71 35 3e 6d 7f 07 3e
       -1.3948492 0.23425867 0.17719248 0.13232203
000350 b6 09 0e c0 49 cf 4b 3e 38 1b 07 40 26 d6 6e be
       -2.2193427 0.19903292 2.1110363 -0.23323879
000360 7d 65 39 bf 80 5d 7a bf df cb 06 c0 03 0b 6d 3f
       -0.72420484 -0.9779892 -2.1061933 0.9259493
000370 9b 9d 83 be a5 10 09 3f ee da 66 bf 38 ed f3 3f
       -0.2570618 0.5354102 -0.9017781 1.9056768
000380 fc 80 fe 3e 21 d9 1e 3f 54 f5 d6 bf 08 28 8c 3f
       0.49707782 0.6205006 -1.6793618 1.0949717
000390 40 fe 1d 3f 57 22 b9 3e b8 52 d4 be ce 09 93 3e
       0.6171608 0.36159012 -0.4146936 0.28718418
0003a0 bb 80 53 3f e2 3a bd bf 62 ff 8d 3d 37 b5 0f bf
       0.826183 -1.4783595 0.06933476 -0.56135887
0003b0 97 61 37 3f 41 b6 16 bf fe c1 52 be 43 b3 b0 bd
       0.71633285 -0.5887185 -0.20581815 -0.086279415
0003c0 11 24 1c bf 7b 7a 34 be 02 4a 4f 3f 2d a2 02 3d
       -0.6099253 -0.17624848 0.809723 0.031892944
0003d0 46 5f 5e 3f 88 ad 18 c0 7e c7 2d c0 2a 25 e0 bd
       0.86864126 -2.3855915 -2.715301 -0.109445885
0003e0 40 23 60 3f bc 32 8a c0 47 85 a7 3f 7a 2a 65 3f
       0.8755379 -4.318693 1.3087548 0.8951794
0003f0 bd ea 94 3f ce 7c 43 bf 2b eb fd bd 8d 62 d4 3e
       1.1634136 -0.7636231 -0.1239837 0.41481438

convs.1.fc_full.bias f4 [128]
000000 f5 b5 74 3d da 72 64 bd 18 9f d9 3c 40 20 22 bc
       0.05974384 -0.055773593 0.02656512 -0.009895384
000010 26 03 0f 3d ed c5 98 3b 2a ac b1 bc a8 34 e1 3c
       0.034915112 0.0046622665 -0.02168854 0.027490929
000020 b7 a1 79 3b 0c 43 54 bc 7c bc 18 3d 4e d1 af 3d
       0.0038090774 -0.012955438 0.037289128 0.085848436
000030 9f 38 2f 3d 32 cf 17 bd 66 83 64 bd 4f 5c 5e bd
       0.042778607 -0.03706283 -0.055789374 -0.05428725
000040 37 00 32 bd 0e 68 79 bb a6 0f 2a 3d b1 66 73 3a
       -0.043457236 -0.0038056406 0.04151883 0.00092850166
000050 14 67 84 3d a0 f8 9a bd ee dd 42 bd 0f 11 99 3d
       0.06464973 -0.07566953 -0.04757493 0.07473957
000060 88 39 60 bd c5 e7 1e 3d 8b da 6d 3b ef 4c 22 bc
       -0.054742366 0.03879525 0.0036293592 -0.009906038
000070 04 b3 4b 3d 42 aa 63 3d 48 59 31 bd 4c c9 00 3c
       0.04973127 0.055582292 -0.043298036 0.007860493
000080 64 f5 89 3d 83 d2 61 3d bf fe 0a 3d 76 66 46 bd
       0.06736258 0.0551324 0.03393435 -0.048437558
000090 b3 37 62 bd 79 19 8b 3d 36 c4 03 3d d1 1d 35 bc
       -0.0552289 0.06791968 0.032169543 -0.011054472
0000a0 f3 e2 96 3d 5b 04 76 3d 6b 7f 85 bc e1 03 bb 3c
       0.07367506 0.060062747 -0.01629611 0.022828998
0000b0 3f 0c b2 3d c4 7e 25 3d f6 75 fd bc ab c5 98 bd
       0.08693742 0.040404096 -0.030940037 -0.07459577
0000c0 3c e6 d0 3c 55 9c da 3c 2a 82 97 bd 10 90 e7 3b
       0.02550041 0.026685873 -0.07397874 0.007066734
0000d0 95 68 47 bd 3b c2 0b 3d 5b f2 33 bd 44 3e 6d bd
       -0.04868372 0.03412078 -0.0439323 -0.05792071
0000e0 1d 24 89 3d e5 51 77 3d 65 0d 3d bd 83 33 12 bd
       0.06696341 0.060380835 -0.046155352 -0.035693657
0000f0 07 47 39 3d 70 fb 51 bd 26 37 c2 bc 4f 84 0b bd
       0.045233753 -0.05126518 -0.023707937 -0.034061726
000100 ed e7 8c 3c 8a fb 80 bc 7e fa a7 3c 9a 9c 68 bd
       0.017200435 -0.015744943 0.020505186 -0.056789972
000110 74 55 98 3d bf 73 3e 3c dc 4f 2c bd 65 55 57 bd
       0.07438174 0.011624276 -0.042068347 -0.052571673
000120 0b 07 3a 3d be 12 32 bd 9b 0e 32 3c 0e 35 8f 3c
       0.045416873 -0.043474905 0.01086774 0.017481353
000130 3b e6 0e bd ce c3 c7 3d 25 0b e3 bc e7 16 a7 3c
       -0.034887534 0.09754144 -0.027715275 0.020396663
000140 1d e4 24 3d 7d 8c 15 3d f0 73 5f 3d 29 d6 29 bd
       0.04025661 0.036510933 0.054553926 -0.041464005
000150 a6 e3 b3 3b dc b6 52 3c b8 b9 d8 3c 77 70 d0 bc
       0.0054897843 0.01286098 0.026455745 -0.025444252
000160 f7 9a f4 bc cd 80 8c bd c1 9c 5b 3d 92 d2 b0 3c
       -0.02985905 -0.06860504 0.05361629 0.021584783
000170 8f 40 9e bd 86 0b c3 bc 0b f9 02 bd 43 ca 38 bd
       -0.07727157 -0.023809206 -0.031975787 -0.045114767
000180 5b 27 3f 3d 5d 98 18 bd 3e c2 1e 3d 30 51 b1 3d
       0.04666839 -0.03725468 0.038759463 0.086580634
000190 ab 33 fe 3c 59 d0 05 3d 52 c9 82 bd d9 79 1e bd
       0.031030497 0.0326694 -0.06386055 -0.03869042
0001a0 69 26 8d 3b aa 97 67 3c 74 f8 32 3d 87 48 1c 3d
       0.0043075574 0.014135281 0.043693975 0.038155105
0001b0 f3 48 de bc 47 1d 9b bd ab 32 f9 3c 36 5d 4f 3d
       -0.027134394 -0.075739436 0.030419668 0.050626002
0001c0 00 fd 9b bd 6d 9f 0e bd 68 ae 06 bd 5c 07 8a 3d
       -0.07616615 -0.03482001 -0.03288117 0.06739685
0001d0 c3 2b 8b bd 4a af 27 3b 20 46 ac bc a7 9f 91 ba
       -0.06795456 0.0025586658 -0.021029532 -0.0011110202
0001e0 f0 b6 f5 3a 87 8e f2 bc 03 11 6c bc 6d 2f c6 3c
       0.0018746536 -0.029608978 -0.014408353 0.024192536
0001f0 c4 77 8c 3c 4c d0 02 3c 03 18 fb 3b f0 58 9d 3d
       0.017146952 0.007984232 0.0076627745 0.07682979
