results/Prediction/2023-06-22/19:33:00.835898/models/model195.pth (torch, 717109 bytes, 74 tensors)

embedding.weight f4 [64, 92]
0	0x3c3d93c8	0.011570878
1	0xbeb6d1a2	-0.35706812
2	0x3c2f29e9	0.0106911445
3	0xbd74edb1	-0.059796993
4	0xbd59e616	-0.053197943
5	0x3c58fa77	0.013243309
6	0xbd9702fd	-0.07373617
7	0xbd809d42	-0.062799945
8	0x3a87fed1	0.0010375624
9	0x3d8dac8a	0.06917675
10	0x3dc82601	0.09772874
11	0xbc5c2629	-0.013436832
12	0x3d996eca	0.074918345
13	0xbdc12146	-0.094301745
14	0xbf4f3409	-0.80938774
15	0xbe695167	-0.22784959
16	0x3f991259	1.1958724
17	0x3ea759b6	0.32685632
18	0x3d7a63c4	0.0611303
19	0xbe8cfd55	-0.27537027
20	0xbffe6c47	-1.9876794
21	0xc0105886	-2.255403
22	0xbda16f7c	-0.07882592
23	0x3d9c62b5	0.07636014
24	0xbd2ba625	-0.041906495
25	0xbd4bb928	-0.049737126
26	0xbd8e7de5	-0.06957606
27	0xbd656b8d	-0.05601077
28	0xbdb494b6	-0.08817427
29	0xc0181be6	-2.3767028
30	0xbea6e44e	-0.32596058
31	0xbfa41d90	-1.2821522
32	0xbdb1c8e0	-0.08680892
33	0xbe8ea556	-0.27860516
34	0x3f89d61d	1.0768467
35	0x3e37d841	0.17953588
36	0xbea07aa7	-0.31343576
37	0x3f291d04	0.660599
38	0xbfb871f6	-1.4409778
39	0xc0501054	-3.2509966
40	0xc018b5a2	-2.386086
41	0x3cc28fd6	0.023750227
42	0x3cdc94d4	0.026926436
43	0x3bc30ed2	0.0059526945
44	0x3d8f9beb	0.07012161
45	0xbd9cb7f0	-0.07652271
46	0xbe3a1923	-0.18173651
47	0x3d994730	0.07484281
48	0xbbd9c35f	-0.0066456045
49	0xbf670614	-0.9024365
50	0xbe6f8a85	-0.23392685
51	0x3f8a2206	1.0791633
52	0x3e331b6c	0.1749093
53	0x3dbba336	0.091619894
54	0x3d70ed49	0.058820043
55	0xbdad44f5	-0.08460418
56	0xbd46cab8	-0.04853317
57	0xbd2929d3	-0.041299652
58	0xbd6e3933	-0.05816002
59	0xbd221c9f	-0.039578076
60	0xbccddb12	-0.025128875
61	0xc0146a8b	-2.3190029
62	0x3d85559f	0.065104716
63	0xbfa381d0	-1.2773991
64	0xc0193882	-2.394074
65	0x3e7a9a38	0.24472892
66	0x3db0af04	0.086271316
67	0x3d98fe81	0.07470418
68	0x3db30e1d	0.08742926
69	0xbd144af4	-0.036204293
70	0xbeae60b1	-0.34058145
71	0xbc969354	-0.018380798
72	0xbdaa2236	-0.083073065
73	0xbebb8d94	-0.36631453
74	0xbeae7aa2	-0.34077936
75	0xc05770f5	-3.3662694
76	0xbd993561	-0.07480884
77	0x3e3e61ff	0.1859207
78	0xbe5087ae	-0.20364258
79	0xbf599d38	-0.8500552
80	0xbd436010	-0.047699034
81	0x3d833ac2	0.064076915
82	0xbfa6d3d0	-1.303339
83	0xbd9919f4	-0.07475653
84	0x3d198d91	0.037488524
85	0xc01b25b4	-2.4241762
86	0xbfddb323	-1.7320293
87	0xbdb4e2de	-0.08832334
88	0x3d161960	0.036645293
89	0xbdd0b7f6	-0.10191338
90	0xbd05730a	-0.032580413
91	0xbc5fdfc0	-0.013664186
92	0xbc7d76ec	-0.015470248
93	0xbfab0c46	-1.336312
94	0x3bd7123b	0.0065634525
95	0xbc4c9c1f	-0.012488394
96	0x3c2dcbeb	0.0106077
97	0xbce2b074	-0.02767203
98	0xbcaf4597	-0.021395488
99	0x3da79d21	0.08184267
100	0xbdd0e1c6	-0.10199313
101	0xbdc4c929	-0.09608681
102	0x3d73ccbe	0.05952143
103	0x3d9f5b0c	0.07781038
104	0x3dcfa817	0.101394825
105	0xbcd5bd70	-0.026091307
106	0xbfb878ce	-1.4411867
107	0xbf855c6d	-1.0418831
108	0xbfd034a6	-1.6266067
109	0xbfeae774	-1.8351884
110	0x3d6c5320	0.05769646
111	0xbfbe6134	-1.4873414
112	0xbdfca1eb	-0.12335571
113	0xbfc4dda0	-1.5380135
114	0x3d00a1f0	0.031404436
115	0xbdb39e57	-0.08770435
116	0xbb4c19c0	-0.0031143278
117	0xbcec9749	-0.028880732
118	0xbd6e9c6d	-0.058254648
119	0xbd5aae0d	-0.053388644
120	0x3c3bff93	0.011474508
121	0x3c4c27b6	0.01246064
122	0xbfae6d7d	-1.3627163
123	0xc01aea6d	-2.4205582
124	0x3da9872e	0.082777366
125	0xbf83889a	-1.0276062
126	0xbff3196c	-1.8992133
127	0xbfea6c15	-1.8314234
128	0xbfae778b	-1.3630232
129	0xbdb43c85	-0.08800606
130	0xbf5b4702	-0.85655224
131	0xbfbb5adb	-1.4637102
132	0x3ddd8662	0.10816647
133	0x3d077be5	0.03307714
134	0x3d2720dd	0.040802825
135	0x3cf902a2	0.030396763
136	0x3aea2d25	0.0017866237
137	0xbd8dbdd2	-0.06920971
138	0xbfb7f051	-1.4370214
139	0xbc8651cc	-0.016396426
140	0x3d624c61	0.05524862
141	0xbfae327f	-1.360916
142	0xbf91a874	-1.1379533
143	0xbfd2c8f3	-1.6467575
144	0xbfdf2dd6	-1.7435863
145	0xbdbf646a	-0.09345324
146	0xbdd2d1c4	-0.10293916
147	0xbb21525d	-0.0024615743
148	0x3db22603	0.086986564
149	0xbd913f9d	-0.070922114
150	0x3ca000ef	0.019531695
151	0x3d2322b3	0.039828014
152	0xbcda3913	-0.026638543
153	0xbc45ba77	-0.012068382
154	0xbda41e5b	-0.08013602
155	0xc00e045a	-2.2190156
156	0xbfe9e3db	-1.8272661
157	0xbfde9b64	-1.7391171
158	0x3d572624	0.052526608
159	0x3d828557	0.06373089
160	0xbbbf22b8	-0.005832996
161	0xbd0c45fc	-0.03424643
162	0xbf91f912	-1.1404135
163	0x3d438928	0.047738224
164	0x3d50ccbf	0.05097651
165	0xbfb62ca4	-1.4232373
166	0xc02283e7	-2.5393007
167	0xbfc8f7c0	-1.5700607
168	0xbd746476	-0.05966612
169	0xbfdf5394	-1.7447381
170	0xbfbac2db	-1.4590715
171	0xbf1291dc	-0.57253814
172	0x3adb8e4f	0.0016750785
173	0x3c082fd1	0.008312182
174	0xbfb6d4a7	-1.4283646
175	0xbd81878f	-0.06324684
176	0x3d93353d	0.07187889
177	0x3d05c5d3	0.032659363
178	0xbf9bb698	-1.2165098
179	0x3dc07fb2	0.09399356
180	0x3dbc333a	0.09189458
181	0xbd92eb93	-0.071738385
182	0x3dcd70d9	0.100312896
183	0xbd0d409f	-0.034485456
184	0x3d8f85b8	0.07007927
185	0x3e0f49ef	0.13993047
186	0xbd916984	-0.07100204
187	0x3b19c10e	0.0023461017
188	0x3da5cbba	0.080954984
189	0xbce0a69f	-0.027423201
190	0x3d2026c8	0.039099485
191	0x3c3af443	0.011410776
192	0xbd808c8f	-0.062768094
193	0x3cf28f6f	0.02960941
194	0xbdaf9389	-0.08573062
195	0xbdb7e2a3	-0.089787744
196	0xbdb0e412	-0.08637251
197	0xbd9144d0	-0.07093203
198	0xc0d2e672	-6.5906305
199	0xbf9cbd0d	-1.2245194
200	0x3f8ff3b7	1.1246251
201	0xc0e0a51a	-7.020154
202	0x3dce19d4	0.1006352
203	0x3c879bff	0.016553877
204	0xc0b28bbe	-5.5795584
205	0xc0f0fbd8	-7.5307426
206	0x3d0b2145	0.033967275
207	0x3acf7cf6	0.0015830088
208	0x3cddbdce	0.027068045
209	0x3d2e891e	0.042611234
210	0xbcae4448	-0.021272793
211	0x3b1eef00	0.0024251342
212	0xbd019ea8	-0.031645447
213	0xc08325cb	-4.0983634
214	0x3d1297cc	0.035789296
215	0xc0dae702	-6.840699
216	0xbcb4ec01	-0.022085192
217	0xbfa93cb3	-1.3221649
218	0x3ff884d9	1.9415542
219	0xc0dff2b4	-6.998377
220	0x3e1323dc	0.14369148
221	0xbfb194db	-1.3873552
222	0xc08c5d04	-4.3863544
223	0xc0e4b92e	-7.147605
224	0xc0854454	-4.164591
225	0xbd189270	-0.03724903
226	0x3d4e13fc	0.050312027
227	0x3dace68f	0.08442413
228	0xbce63063	-0.028099244
229	0xbd86779c	-0.065657824
230	0xbd20c206	-0.039247535
231	0xbdae8e8a	-0.08523281
232	0x3d9004f5	0.070321955
233	0xc0d6086b	-6.6885276
234	0xbfac864f	-1.3478488
235	0x3f903fde	1.1269491
236	0xc0e170d8	-7.045025
237	0xbda871de	-0.082248434
238	0x3cfe9ad1	0.031079682
239	0xbc651157	-0.013981185
240	0x3dd4fa2a	0.103992775
241	0xbd9181ed	-0.071048595
242	0xbb8f5999	-0.0043746945
243	0xbc938b6c	-0.018010817
244	0x3d22fb2c	0.039790317
245	0xc0831b13	-4.097055
246	0xbdae0755	-0.08497492
247	0xc0dc358e	-6.8815374
248	0xbfa920a3	-1.3213085
249	0xc0dd46c1	-6.914887
250	0x3dd2ac99	0.10286827
251	0x3d6204df	0.055180427
252	0x3ce079bd	0.0274018
253	0xbd8a9ba5	-0.06767968
254	0xbf9bcf09	-1.2172557
255	0xbd5ef1d9	-0.054429863

convs.0.fc_full.weight f4 [128, 169]
0	0xc00e1788	-2.2201862
1	0xbf6822ac	-0.90677905
2	0xbf4b53dc	-0.79424834
3	0xc01498d2	-2.3218274
4	0x3f502ec9	0.8132139
5	0x3c22dddb	0.00994059
6	0xbfe2e8d7	-1.7727307
7	0x3dbf4fb6	0.093413755
8	0xbf1a5622	-0.6028768
9	0xbf1a64f0	-0.6031027
10	0xbf58d1d1	-0.84695154
11	0x3fbb5943	1.4636616
12	0xbf939115	-1.152865
13	0xbf8e8946	-1.1135643
14	0x3e73ed29	0.23820938
15	0xc02ac5a4	-2.668313
16	0x3fdf9efc	1.7470393
17	0xbf7f16c4	-0.9964411
18	0xbfb220eb	-1.3916296
19	0xbf5222af	-0.8208417
20	0x3eaa5c82	0.33273703
21	0xbeebb7ae	-0.46038574
22	0xbf6e19f4	-0.9300835
23	0x3f14d248	0.58133364
24	0xbe5f1e76	-0.21788964
25	0xbe2d201c	-0.1690678
26	0xbf7f9325	-0.998339
27	0xbf24c6e4	-0.64365983
28	0xbeb5193e	-0.3537082
29	0x3f3ed329	0.74540955
30	0x3d8cd975	0.06877414
31	0xbf07e009	-0.53076226
32	0x3ea13a91	0.31489995
33	0x3f489dce	0.7836579
34	0xbede739d	-0.4344758
35	0xbfd0580d	-1.6276871
36	0xbe67b674	-0.22628194
37	0xbf9d3912	-1.2283041
38	0xbf12b72d	-0.57310754
39	0xbe280758	-0.16409051
40	0xbf33f6b1	-0.70298296
41	0xbf1f7067	-0.6228089
42	0xbf0d3ff0	-0.55175686
43	0xbe43bd48	-0.19115174
44	0xbeba46e5	-0.36382213
45	0xbf3f9a7e	-0.7484511
46	0xbead1ecb	-0.33812556
47	0xbf862f83	-1.048325
48	0xbfe29851	-1.7702733
49	0x3f90115e	1.12553
50	0x3eb15a8b	0.3463939
51	0x3ce1b7e0	0.027553499
52	0xbfa12ed2	-1.2592413
53	0xbf8db774	-1.107161
54	0xbe90aae4	-0.2825538
55	0x3fc3e8c6	1.5305412
56	0xbf2ea413	-0.6821911
57	0xbf073b67	-0.52825016
58	0xbed96348	-0.42458558
59	0xbe55d9d8	-0.20883882
60	0xbf443377	-0.7664103
61	0x3f29a531	0.6626769
62	0xbf7383ad	-0.95122796
63	0x3eacbc9e	0.33737653
64	0xbfbc7177	-1.4722127
65	0xbf23cded	-0.6398609
66	0x4083359f	4.1002955
67	0x3f1bb236	0.60818803
68	0xbf23baef	-0.63957113
69	0xbded5544	-0.11588529
70	0xbf19411b	-0.5986497
71	0x407f186d	3.9858658
72	0xbfabd2a2	-1.3423655
73	0x3fa9c302	1.3262637
74	0x4041e85c	3.029807
75	0x3f308bac	0.6896312
76	0x40b00278	5.5003014
77	0x4065feed	3.5936844
78	0xbfd76cfc	-1.6830134
79	0x3d48ceea	0.049025454
80	0xbf9e595a	-1.2371018
81	0x40083855	2.1284382
82	0xc02c19e1	-2.6890795
83	0xbe61f3cb	-0.22065656
84	0xc053f473	-3.311795
85	0x40c44e6d	6.1345735
86	0x3ef3da52	0.47627503
87	0xbfd617f0	-1.6726055
88	0xc0136adb	-2.303397
89	0xbfe6504e	-1.7993257
90	0x3fe40974	1.7815385
91	0x401863b7	2.381086
92	0x3ffd1338	1.977149
93	0xbdf6e9f6	-0.12056343
94	0xc08543c1	-4.1645207
95	0x3fde5676	1.7370136
96	0x403b5e1b	2.9276187
97	0x40096ab8	2.1471386
98	0x402168f9	2.522032
99	0x3f6fc992	0.93666947
100	0x3e3c76b8	0.18404663
101	0xc05b4c2c	-3.4265242
102	0x3f99e5fe	1.2023313
103	0xc006c755	-2.1059163
104	0x403ab903	2.9175422
105	0x401a2b33	2.4088867
106	0xc05ce8ef	-3.4517171
107	0x3fb6d31d	1.4283177
108	0xc0a463c4	-5.1371784
109	0x3fbbaccf	1.4662112
110	0x3ffda8e8	1.9817171
111	0x403c0a2c	2.9381208
112	0x3e95716a	0.2918809
113	0xc05890bf	-3.3838346
114	0xbff35f87	-1.9013528
115	0xc04afb7a	-3.171599
116	0xc0439e99	-3.056555
117	0xbfeca295	-1.8487116
118	0xc08769e5	-4.2316766
119	0xbf8e103e	-1.1098707
120	0x3fd3dc99	1.6551696
121	0x4034f079	2.8271773
122	0xbfc7da93	-1.5613579
123	0x409025e8	4.504627
124	0xbfeec830	-1.8654842
125	0x40b4868f	5.6414256
126	0x4055c201	3.339966
127	0xc08a8020	-4.3281403
128	0xbd878586	-0.066172644
129	0xbdada7c2	-0.08479263
130	0xbd8b29e9	-0.06795103
131	0xbe6596a2	-0.22420743
132	0xbef42526	-0.47684592
133	0xbf4a24ed	-0.78962594
134	0xbdfbf8a0	-0.12303281
135	0x3f8c9eab	1.0985922
136	0x3f1dee11	0.61691386
137	0x3e2f0938	0.1709336
138	0xbfa13fb9	-1.2597572
139	0x3eb6dcc0	0.35715294
140	0x40029e4e	2.0409122
141	0x3f82d390	1.0220814
142	0x3f173fc8	0.590817
143	0xbf1d6664	-0.6148436
144	0xbfa79e68	-1.3095217
145	0xc01741d7	-2.3633935
146	0xbfb26bbb	-1.3939127
147	0x3f34a49c	0.70563674
148	0x3f837368	1.0269594
149	0x3e947587	0.28995916
150	0xbe4467cd	-0.19180222
151	0x3e037d0c	0.1284067
152	0xbea0dcb6	-0.3141839
153	0xbea48931	-0.3213592
154	0xbde4f9c3	-0.11180451
155	0x3dfab469	0.12241442
156	0x3e4560b9	0.19275178
157	0xbbb27ecc	-0.0054472443
158	0xbe3f1c82	-0.18663219
159	0xbee5ee13	-0.449082
160	0xbe361bb9	-0.17784013
161	0x3d3af4ed	0.045643736
162	0x3d69b304	0.05705549
163	0x3dc79d1d	0.09746764
164	0xbcc3ae49	-0.023886817
165	0x3d9706c6	0.07374339
166	0x3d1a6f5d	0.03770386
167	0xbd0eb883	-0.034843933
168	0xbd805d92	-0.06267847
169	0x3e88cd04	0.26718915
170	0xbf25b59c	-0.6473024
171	0x3f55c096	0.8349699
172	0x3e282d4c	0.1642353
173	0xbef2021e	-0.4726724
174	0xbe7f35e8	-0.24922907
175	0xbe839637	-0.25700542
176	0xbdaab941	-0.08336116
177	0xbcb5a334	-0.022172548
178	0x3f02f4b0	0.51154613
179	0x3f3aa658	0.7291007
180	0xbf01463c	-0.50497794
181	0x3f413d98	0.7548461
182	0x3e8d48b5	0.27594534
183	0xbf22886e	-0.63489425
184	0x3e8d35ec	0.27580202
185	0xbf47c170	-0.7802954
186	0x3f019daf	0.5063123
187	0x3f33bc37	0.7020907
188	0x3f193cc7	0.59858364
189	0xbe9e7327	-0.3094723
190	0x3f2c32cc	0.6726501
191	0x3ee905a6	0.45512122
192	0xbf33a879	-0.70178944
193	0x3e4dffa0	0.20117044
194	0x3e30c14a	0.17261234
195	0x3ec9aee9	0.39391258
196	0x3f7e0cd1	0.99238306
197	0xbf08464d	-0.5323227
198	0xbf5e25cc	-0.86776423
199	0xbe9f285b	-0.31085476
200	0x3eec17de	0.4611196
201	0x3f3ac635	0.7295869
202	0xbef2d0f0	-0.47425032
203	0x3f07b6bb	0.530132
204	0x3edbb653	0.4291254
205	0x3f0fb68d	0.56137925
206	0xbeacef5c	-0.33776367
207	0xbdeea68a	-0.116528586
208	0xbeb6823b	-0.35646233
209	0x3ef8fcca	0.48630363
210	0x3f15da9a	0.58536685
211	0xbeea9941	-0.45820048
212	0x3f72de03	0.94870013
213	0xbe8f3ee3	-0.27977666
214	0x3f540780	0.82823944
215	0x3e7265b7	0.23671614
216	0x3eabaf0e	0.33531994
217	0xbe49dda3	-0.19713454
218	0xbdea086b	-0.11427387
219	0xbf08550b	-0.53254765
220	0xbd60c5cf	-0.054876145
221	0x3d7a4695	0.06110247
222	0x3f4b38dd	0.7938364
223	0xbe94673a	-0.28985006
224	0xbd0ec978	-0.034860104
225	0x3ed4ccc5	0.41562477
226	0x3e6c8e32	0.23101118
227	0xbeefdb62	-0.46847063
228	0x3defedfd	0.117153145
229	0x3d86c1f8	0.06579965
230	0x3d9fa27e	0.07794665
231	0x3f39a262	0.725134
232	0xbf7ced0c	-0.98799205
233	0xbebb6ea7	-0.3660786
234	0xbf2299c3	-0.6351587
235	0x3f412a78	0.7545543
236	0xbe24e558	-0.16103113
237	0x3e984344	0.2973882
238	0xbf85d84e	-1.0456636
239	0x3f16a3ce	0.58843696
240	0x3ca28374	0.019838072
241	0xbe43c070	-0.19116378
242	0x3f6843bb	0.9072835
243	0x3efae886	0.49005526
244	0x3edfd40c	0.43716466
245	0x3f4086b6	0.7520555
246	0x3f18faba	0.5975758
247	0xbf4ffd32	-0.8124572
248	0x3d88fc8b	0.06688794
249	0xbf2b0463	-0.6680357
250	0x3f2c7632	0.6736785
251	0xbeae104a	-0.33996803
252	0x3de2bfc0	0.1107173
253	0xbfce42ae	-1.6114099
254	0x3f250109	0.64454705
255	0x3f15e648	0.58554506

convs.0.fc_full.bias f4 [128]
0	0xbd62d393	-0.055377554
1	0xbced801b	-0.02899175
2	0xbdfec0f2	-0.12439145
3	0xbd4e568a	-0.0503755
4	0xbd295015	-0.041336138
5	0xbdd23305	-0.102636375
6	0xbbf7a459	-0.0075574336
7	0xbd315fb3	-0.043304157
8	0xbd94775d	-0.07249329
9	0xbd090a10	-0.033456862
10	0x3d5fb8d8	0.05461964
11	0xbda1563b	-0.07877775
12	0x3c35a49e	0.011086611
13	0x3cfa26ca	0.030536074
14	0xbded819c	-0.11596987
15	0x3ce0381d	0.027370507
16	0xbd653986	-0.05596306
17	0xbd922a01	-0.07136918
18	0x3db570f3	0.08859434
19	0x3d324160	0.043519378
20	0x3d77188d	0.060326148
21	0x3dabb433	0.0838398
22	0x3c8bda09	0.01707174
23	0xbb884e7b	-0.004159746
24	0xbc707da5	-0.0146783935
25	0xbdfe5e37	-0.12420314
26	0x3dd600ec	0.104493946
27	0x3de4d8c9	0.11174161
28	0x3d37eb00	0.044901848
29	0x3cff63de	0.03117555
30	0xbcd9ef40	-0.026603341
31	0xbd3eaf83	-0.0465541
32	0x3c7ad704	0.015310053
33	0xbd8dfded	-0.06933198
34	0xbdf1fc6c	-0.11815724
35	0x3dba3ef4	0.090940386
36	0xbc5cc407	-0.013474471
37	0x3dcc59cd	0.09978066
38	0xbcb9ca17	-0.022679372
39	0xbd85ec6e	-0.06539236
40	0x3d4b8ba8	0.049693733
41	0xbd38ab7d	-0.04508542
42	0x3d514d12	0.05109889
43	0x3d0e377e	0.03472089
44	0xbd94a6af	-0.07258355
45	0xbd89a516	-0.06720941
46	0x3cbf15cd	0.023325825
47	0x3d885221	0.0665629
48	0xbc463a39	-0.012098842
49	0x3d37893f	0.044808622
50	0x3df2587a	0.11833282
51	0xbd04938e	-0.03236728
52	0x39be9f92	0.00036358513
53	0xbd7cc271	-0.06170887
54	0xbbbdd1be	-0.0057928255
55	0x3ce22a27	0.02760799
56	0x3dc55f76	0.09637348
57	0x3d70a706	0.058753036
58	0x3ddb9ad0	0.107228875
59	0xbd1848e7	-0.0371789
60	0xbd0e6f48	-0.034774095
61	0x3cdd9f73	0.02705357
62	0xbb940455	-0.004517118
63	0xbbb50d92	-0.0055252993
64	0x3b621f07	0.0034503357
65	0x39d3115d	0.00040257993
66	0xbc96222f	-0.018326847
67	0xbc157800	-0.0091228485
68	0xbdc15881	-0.09440709
69	0xbd3e81e9	-0.04651061
70	0xbd79be6d	-0.06097262
71	0xbd0ab160	-0.033860564
72	0xbd3e18fa	-0.04641054
73	0x3df897c1	0.1213832
74	0x3dc1c411	0.09461225
75	0xbd059251	-0.03261024
76	0xbda10716	-0.0786268
77	0xbdad1a3e	-0.08452271
78	0x3c796b0a	0.015223274
79	0x3c04bfd3	0.008102375
80	0x3d29912f	0.041398223
81	0x3de88743	0.11353924
82	0x3b8897a0	0.0041684657
83	0xbdb7bef6	-0.0897197
84	0x3d75d727	0.06001964
85	0x3cc7ecfd	0.024404997
86	0x3d729d46	0.05923202
87	0xbd6b2915	-0.057412226
88	0x3d7be835	0.061500747
89	0x3dcbeca1	0.09957243
90	0xbbb277fe	-0.005446433
91	0xbc7e36d4	-0.015516002
92	0x3d53d634	0.051717952
93	0xbc677984	-0.014128093
94	0xbc83101a	-0.015998889
95	0xbd02c52a	-0.03192631
96	0x3a87ccd1	0.0010360723
97	0xbd0457ba	-0.032310225
98	0x3d6b3c2e	0.05743044
99	0xbd5bd29a	-0.053667642
100	0x3d2333b3	0.039844226
101	0x3cd2e71a	0.025744963
102	0xbe071e5f	-0.1319518
103	0x3e1cef21	0.15325595
104	0xbd83c377	-0.06433766
105	0xbd11615a	-0.035493232
106	0x3d1d77d6	0.038444363
107	0x3dc3341e	0.09531425
108	0xbd99ba4b	-0.07506236
109	0xbdc9c60e	-0.09852229
110	0xbc31d95f	-0.010855048
111	0xbcb9f948	-0.022701874
112	0x3d5b77ba	0.053580977
113	0xbd0bdbe0	-0.034145236
114	0xbda887a3	-0.08228996
115	0xbdec4dcf	-0.11538278
116	0x3d01c436	0.031681262
117	0xbbc63897	-0.0060492265
118	0xbc2f1cbe	-0.010688005
119	0x3dcd9c1d	0.10039542
120	0xbd93dcb0	-0.07219827
121	0xbd3ae453	-0.045627903
122	0x3dcee6d8	0.10102624
123	0x3ce7cf2c	0.02829703
124	0x3d200684	0.039068714
125	0xbbf86afa	-0.007581112
126	0x3dd7bd3e	0.10534142
127	0x3d683af8	0.056696862

convs.0.bn1.weight f4 [128]
0	0x40aada57	5.339153
1	0x3fab651e	1.3390234
2	0x409d34ab	4.912679
3	0x3fcbc0cc	1.5918212
4	0x410cd1b3	8.801196
5	0x3f3d5da2	0.73971
6	0x408f1a0b	4.471929
7	0x400d538d	2.2082245
8	0x4088276e	4.254813
9	0x409b898a	4.8605394
10	0x3f1922c3	0.5981867
11	0xbfebfe76	-1.843703
12	0x4101c609	8.110848
13	0x405c6947	3.4439256
14	0x3ffffd90	1.9999256
15	0x3f478673	0.7793953
16	0x4020d593	2.5130355
17	0x3e3b6ca4	0.18303162
18	0x41030cad	8.190595
19	0x3f1d333c	0.614063
20	0x4035605e	2.8340068
21	0x40b5515e	5.6661825
22	0x41095c32	8.585009
23	0x3fc66690	1.550005
24	0x3f9f17ea	1.2429173
25	0x403b6dbb	2.9285724
26	0x413d5f26	11.83573
27	0x412e3b86	10.889532
28	0xbe506b6e	-0.20353481
29	0x3fb095dd	1.3795735
30	0x3fbdb6ab	1.4821371
31	0x3fa4e45d	1.2882191
32	0x40d40c8d	6.626532
33	0x416b0117	14.687766
34	0x400abdb6	2.167829
35	0xbd6147ab	-0.05499999
36	0x4083bda5	4.1169
37	0x3f56351b	0.8367478
38	0x41299994	10.599995
39	0x4111058d	9.063855
40	0x40f8c299	7.7737546
41	0x40576e41	3.3661044
42	0x4098f521	4.779923
43	0x40badd29	5.839497
44	0x3e516cfd	0.20451732
45	0x40960de9	4.689198
46	0x40822212	4.066659
47	0xbeb43c78	-0.35202384
48	0x40efe2bc	7.4964275
49	0x40a366ee	5.1063147
50	0xbed47e39	-0.4150255
51	0x4156a2f0	13.41478
52	0x412f28ac	10.94743
53	0x3ec8e750	0.39238977
54	0x401862fa	2.381041
55	0x403de233	2.966931
56	0x40b8808d	5.765692
57	0x40fb4624	7.852312
58	0x3f872814	1.0559106
59	0x3e15e44a	0.14637867
60	0x3ebc172b	0.36736426
61	0x3cd5f0bc	0.026115768
62	0x402db028	2.7138767
63	0x3e24bf51	0.16088606
64	0x3ff1ebdf	1.8900107
65	0x3f013729	0.5047479
66	0x3f6dd8fe	0.9290923
67	0x3f0a23e4	0.53961015
68	0x400ed188	2.2315388
69	0xbef00b1c	-0.46883476
70	0x3f851dab	1.0399679
71	0x3f5015fe	0.8128356
72	0xbeb3f54d	-0.35148087
73	0x40eafccc	7.343359
74	0x3e8463c1	0.25857356
75	0x3e343797	0.17599331
76	0x3d0aae57	0.03385767
77	0x40af5d57	5.480144
78	0xbfa5cf7e	-1.2953947
79	0x3f7f2034	0.99658513
80	0x3e351911	0.17685343
81	0x3f592225	0.84817725
82	0xbcdd400c	-0.027008079
83	0xbf9dfd9a	-1.2343018
84	0x409c9bb0	4.894005
85	0x40c75fdf	6.230453
86	0x3f386838	0.72034025
87	0x40296711	2.6469157
88	0x3ff68d8f	1.926195
89	0x3fb1449d	1.3849064
90	0x3fc63db8	1.5487585
91	0xc0bbc365	-5.867602
92	0xbf40e7a5	-0.7535346
93	0x3fa1abd7	1.2630566
94	0x408bb1bb	4.3654456
95	0x3f90faf6	1.1326587
96	0x3f7ce665	0.98789054
97	0x40457e31	3.085827
98	0x3efc06b9	0.4922388
99	0x3f0931e0	0.5359173
100	0x3e4cd963	0.20004801
101	0x3f5cb6ab	0.8621623
102	0x3e96c5f2	0.29447895
103	0x3cffa6b7	0.031207426
104	0x40118b1d	2.2741158
105	0xbd6b1c27	-0.057399895
106	0x40be4707	5.9461703
107	0xbf386676	-0.72031343
108	0xbf010bf9	-0.50408894
109	0x3f998235	1.1992861
110	0x406d3dee	3.706905
111	0x3ed8d66e	0.42351097
112	0xbf5de09f	-0.8667087
113	0xc0e6992e	-7.2061987
114	0xbf96821a	-1.1758454
115	0x3b1476d6	0.002265384
116	0xbf9e76f0	-1.2380047
117	0xbf083c1f	-0.5321674
118	0x4021b229	2.526499
119	0x40874e9f	4.2283473
120	0x402b203e	2.673843
121	0x3f0ad83b	0.5423619
122	0x4044354c	3.065753
123	0xbe8a99fb	-0.27070603
124	0xc000d1d4	-2.012807
125	0xbf020615	-0.5079053
126	0xbedb9366	-0.42885894
127	0x3ed92182	0.42408377

convs.0.bn1.bias f4 [128]
0	0xbfcb74f7	-1.589507
1	0xbe8f4680	-0.27983475
2	0x403d21b3	2.9551818
3	0xbf1a209c	-0.6020601
4	0x3f25be9c	0.6474397
5	0xbf95e9f3	-1.1712021
6	0x3f0a9469	0.54132706
7	0x3fec1a19	1.8445464
8	0x3e4fc743	0.20290856
9	0xbf09d426	-0.5383934
10	0x4097d30c	4.7445126
11	0x3fceb2ac	1.6148276
12	0x40ba67ec	5.825186
13	0xc0510982	-3.2662053
14	0x3fe43d19	1.7831146
15	0x4010b634	2.2611208
16	0x3fa6f27b	1.3042749
17	0x409b7b6c	4.858816
18	0x3f294aed	0.6612995
19	0x4115072c	9.314251
20	0x40a39a0b	5.112554
21	0xbfb4b585	-1.4117895
22	0x4029d059	2.6533415
23	0x3f920a4e	1.1409395
24	0x3ed3b062	0.41345507
25	0x3fe8c54e	1.8185213
26	0x408d71c3	4.420137
27	0xc0a121c0	-5.03537
28	0x40ab90d4	5.361429
29	0x3f8650ee	1.0493448
30	0x40bc53d9	5.8852353
31	0x410da014	8.851582
32	0x3e1b517b	0.15167801
33	0xc0f57379	-7.670346
34	0x40970ddf	4.7204432
35	0x3ff4402e	1.9082086
36	0x3fbe5850	1.4870701
37	0x405aefce	3.4208865
38	0x3fa4b822	1.2868693
39	0xbf6a0086	-0.9140705
40	0x3fa9b021	1.3256875
41	0x40f43bba	7.632291
42	0xc0d9a702	-6.8016367
43	0x3ff6a45c	1.9268909
44	0x40064cc4	2.0984354
45	0x408091d6	4.0178022
46	0x3f29ab62	0.66277134
47	0x410214f6	8.130117
48	0xbf25a36c	-0.64702487
49	0xc0a510e7	-5.1583133
50	0x3f859af0	1.0437908
51	0xbf1f43a3	-0.6221258
52	0x3ff889ad	1.9417015
53	0x4102911f	8.16043
54	0x3f0438fc	0.5164945
55	0xc0848e9d	-4.142409
56	0xbeb9bd78	-0.36277366
57	0x3ffc0df8	1.9691763
58	0xc01ee266	-2.4825683
59	0x40ddac40	6.9272766
60	0x404acd89	3.1687949
61	0x4023718b	2.553805
62	0x40bcd12e	5.9005346
63	0x4132bfc5	11.171819
64	0x4018f596	2.3899894
65	0x3d6e7992	0.058221407
66	0x40e31c9f	7.097244
67	0x3f49d49c	0.7884004
68	0x3fd0b868	1.6306276
69	0x40ba1e7f	5.8162227
70	0x403dd44f	2.9660833
71	0x406e8381	3.7267764
72	0x412b1ed3	10.695025
73	0xbfa6e87e	-1.3039701
74	0x404b69ae	3.1783252
75	0x400690d5	2.1025898
76	0x418c2047	17.51576
77	0xc080a2a6	-4.0198545
78	0x3f049b11	0.5179911
79	0x3e483148	0.1955005
80	0x40945174	4.634943
81	0x40b039a5	5.5070367
82	0x408d2685	4.410952
83	0x410c9d76	8.788443
84	0xbe3a9d99	-0.18224181
85	0xc00542c8	-2.082201
86	0x413ab080	11.668091
87	0xbf052038	-0.52002287
88	0xbf0eb22a	-0.55740607
89	0x402d37fd	2.7065423
90	0x40b55bbc	5.667448
91	0xc0aa5037	-5.322292
92	0x40500f86	3.2509475
93	0x3edf7144	0.43641102
94	0xbec7e257	-0.3903987
95	0x40f1a11d	7.550917
96	0x40592b02	3.39325
97	0x405f4883	3.4888008
98	0x41139493	9.223773
99	0x40162eb2	2.3466
100	0x402a2c15	2.6589406
101	0x3fdfacb7	1.7474583
102	0x41196da6	9.58927
103	0x40e34498	7.1021233
104	0x4042ca33	3.0435913
105	0x4172b7e7	15.169898
106	0xc10ba0c3	-8.726748
107	0x414d53f8	12.833
108	0x3fe8c5db	1.8185381
109	0x40ba3ed6	5.8201704
110	0x3fc906c4	1.570519
111	0x4092ecb3	4.591394
112	0x40c29879	6.0811124
113	0xbef53ec4	-0.4789945
114	0x3fac8f35	1.3481203
115	0x40f0c9a1	7.524613
116	0x40e5ccf2	7.1812677
117	0x409c3069	4.8809094
118	0x3fd30eb3	1.6488861
119	0xc04b5ff3	-3.1777313
120	0x401018ab	2.2515056
121	0x4123674b	10.212718
122	0x3e6c39a5	0.23068865
123	0x40763866	3.8471923
124	0x4089052f	4.281883
125	0x3fde927b	1.7388452
126	0x4110d81b	9.05276
127	0x411b45a2	9.7045

convs.0.bn1.running_mean f4 [128]
0	0xc4082332	-544.5499
1	0xc3f6a3bd	-493.2792
2	0x44d60142	1712.0393
3	0x43bd8d4c	379.10388
4	0xc54ff272	-3327.1528
5	0x459ac86c	4953.0527
6	0xc507d18a	-2173.0962
7	0xc4a099b5	-1284.8033
8	0xc3cba2c7	-407.2717
9	0xc50ec3c4	-2284.2354
10	0xc51f6072	-2550.0278
11	0x441c351f	624.83
12	0xc444adde	-786.7167
13	0x445ebae2	890.92004
14	0xc4175c42	-605.4415
15	0xc372d76d	-242.8415
16	0xc49517be	-1192.742
17	0x452ed5f2	2797.3716
18	0x45466e0a	3174.8774
19	0xc50adfab	-2221.9792
20	0xc4c19e13	-1548.9398
21	0x448847d7	1090.245
22	0xc553a3e4	-3386.2432
23	0x4413d577	591.3354
24	0x44a6ebee	1335.3728
25	0xc4c53c87	-1577.8915
26	0x446c12fc	944.29663
27	0x459031b9	4614.2153
28	0x4284e7b6	66.45256
29	0x453819b4	2945.6064
30	0xc2d5abab	-106.83529
31	0xc2758021	-61.375126
32	0xc4e0ba9f	-1797.8319
33	0xc4b2eb1a	-1431.3469
34	0x4512cbb4	2348.7314
35	0x43f01410	480.15674
36	0xc2783402	-62.05079
37	0x44fe02e9	2032.091
38	0xc594df71	-4763.93
39	0xc30fbc99	-143.73671
40	0xc4957e04	-1195.938
41	0x454e105e	3297.023
42	0x444e3d8d	824.96173
43	0x4425cbfc	663.18726
44	0x44cdfd25	1647.9108
45	0x44359f1c	726.4861
46	0xc4923eab	-1169.9584
47	0xc4b5728e	-1451.5798
48	0xc4d85976	-1730.7957
49	0x441e5926	633.39294
50	0xc4885f3f	-1090.9764
51	0xc4a00378	-1280.1084
52	0xc514908c	-2377.0342
53	0x45178860	2424.5234
54	0x4444ae42	786.7228
55	0x442685ee	666.09265
56	0xc491d6f1	-1166.7169
57	0xc4f954d4	-1994.6509
58	0x4448ebbd	803.6834
59	0xc371a200	-241.63281
60	0x4576e976	3950.5913
61	0x4251e534	52.47383
62	0x4526d60f	2669.3787
63	0xc2cf134a	-103.537674
64	0xc4cb120f	-1624.5643
65	0xc4303756	-704.8646
66	0xc4bebd18	-1525.9092
67	0x43b123aa	354.27863
68	0xc4bca47d	-1509.1403
69	0x43e3465f	454.54977
70	0xc54af1ad	-3247.1047
71	0xc53ef883	-3055.532
72	0x43243983	164.22466
73	0xc52edc7c	-2797.7803
74	0xc556c9d8	-3436.6152
75	0x43eb2138	470.25952
76	0xc4997f0e	-1227.9705
77	0x444b3409	812.81305
78	0xc4ff0e40	-2040.4453
79	0xc3e95a1c	-466.70398
80	0x434f5f4e	207.37228
81	0x454c5c3d	3269.765
82	0x454e2d94	3298.8486
83	0x44ca8538	1620.1631
84	0xc52d0710	-2768.4414
85	0x447b485c	1005.1306
86	0xc5a2f2dc	-5214.3574
87	0x435b1363	219.07573
88	0x44d44463	1698.1371
89	0xc51c32ad	-2499.1672
90	0xc57c3efd	-4035.9368
91	0x459796bc	4850.842
92	0xc2a85643	-84.16848
93	0xc4e38eee	-1820.4666
94	0xc5449f6d	-3145.964
95	0x413e0193	11.875384
96	0xc57bf7b6	-4031.482
97	0xc34da9da	-205.66348
98	0x451bc9ad	2492.6047
99	0xc4055410	-533.3135
100	0xc3d6f18f	-429.88718
101	0x437c7bea	252.48404
102	0xc5e4907f	-7314.062
103	0xc5361adf	-2913.6794
104	0xc4b23aff	-1425.8436
105	0x45509182	3337.0942
106	0x430ea39b	142.63908
107	0x45723a39	3875.639
108	0xc49e31d3	-1265.557
109	0xc4858d29	-1068.4113
110	0xc5309641	-2825.3909
111	0x454e3eb4	3299.919
112	0xc58b43bb	-4456.4663
113	0x44c1650e	1547.158
114	0xc526bc3f	-2667.7654
115	0xc5aaa682	-5460.8135
116	0xc5600f15	-3584.9426
117	0x45c6cfa0	6361.953
118	0x44a40241	1312.0704
119	0x44765027	985.2524
120	0xc4ecd05a	-1894.511
121	0xc55460e8	-3398.0566
122	0x44de9eff	1780.9686
123	0xc51c4f27	-2500.947
124	0x454a5a3c	3237.6396
125	0x445cf093	883.759
126	0xc53843bc	-2948.2334
127	0x439fd8ce	319.6938

convs.0.bn1.running_var f4 [128]
0	0x49d218b4	1.7211105e+06
1	0x483401c0	184327.0
2	0x4992f2ab	1.2037974e+06
3	0x4812bf36	150268.84
4	0x4ab0d22b	5.7940695e+06
5	0x4ac3c80b	6.4153655e+06
6	0x4acfe8f3	6.8127935e+06
7	0x4aa15dc5	5.2876505e+06
8	0x4a1b2f70	2.542556e+06
9	0x4a5f8935	3.6624132e+06
10	0x4a112ae8	2.378426e+06
11	0x48934c34	301665.62
12	0x4a159ec6	2.4513775e+06
13	0x4900801e	526337.9
14	0x491d1f90	643577.0
15	0x477136fe	61750.992
16	0x49feb349	2.0865051e+06
17	0x4a0da33d	2.3205912e+06
18	0x4a8309c1	4.2938565e+06
19	0x4a75cd9c	4.027239e+06
20	0x49874940	1.108264e+06
21	0x498071ef	1.0522219e+06
22	0x4b683d53	1.5220051e+07
23	0x4a35e9ba	2.9804625e+06
24	0x490b857e	571479.9
25	0x4ab99808	6.08154e+06
26	0x4913907c	604423.75
27	0x4af27057	7.9442355e+06
28	0x494ebdb6	846811.4
29	0x4a94dcbe	4.877919e+06
30	0x49679685	948584.3
31	0x4a255374	2.708701e+06
32	0x4a820fdb	4.2618695e+06
33	0x4953b5fb	867167.7
34	0x4a5fd523	3.6672728e+06
35	0x48bf0534	391209.62
36	0x47f2b286	124261.05
37	0x49a045df	1.3129559e+06
38	0x4b832ffd	1.7195002e+07
39	0x4a86d755	4.4184745e+06
40	0x4aaa668a	5.583685e+06
41	0x4a30015e	2.8836715e+06
42	0x48bab259	382354.78
43	0x4ab63275	5.9702345e+06
44	0x49a43191	1.3450741e+06
45	0x4a77d2f2	4.0603485e+06
46	0x49921305	1.1966406e+06
47	0x496b36af	963434.94
48	0x4aaefd73	5.7340735e+06
49	0x4a14690f	2.4315558e+06
50	0x498491c0	1.086008e+06
51	0x4afac8b6	8.217691e+06
52	0x4a53eca9	3.4721702e+06
53	0x4a8d6ec6	4.634467e+06
54	0x498167f2	1.0600942e+06
55	0x498f0b31	1.1718141e+06
56	0x4ac245ca	6.365925e+06
57	0x4aaac5c2	5.595873e+06
58	0x4a04205f	2.1647598e+06
59	0x490606df	548973.94
60	0x4a96868f	4.9324235e+06
61	0x48af5782	359100.06
62	0x49e288a5	1.8557646e+06
63	0x4a8b6c4d	4.5686145e+06
64	0x49ae58d4	1.4282505e+06
65	0x48a07f9a	328700.8
66	0x4a31700f	2.9071398e+06
67	0x47a9c22b	86916.336
68	0x4ad83c6e	7.085623e+06
69	0x49a740ed	1.3701416e+06
70	0x4b17c0b6	9.94527e+06
71	0x4b03c9ca	8.636874e+06
72	0x49bb651d	1.5351396e+06
73	0x4aa37594	5.356234e+06
74	0x4a8ab890	4.545608e+06
75	0x48a0fbe1	329695.03
76	0x4a2ff389	2.8827862e+06
77	0x48cf0734	423993.62
78	0x49b492eb	1.4792614e+06
79	0x485d022f	226312.73
80	0x4a3e5ebe	3.1190235e+06
81	0x4a51181d	3.4257992e+06
82	0x4abaf52b	6.1262295e+06
83	0x4a939c56	4.836907e+06
84	0x4a44f755	3.2270932e+06
85	0x49986b2b	1.2486134e+06
86	0x4b95e21f	1.9645502e+07
87	0x4a643263	3.7387768e+06
88	0x49237376	669495.4
89	0x4b0eca9b	9.357979e+06
90	0x4b0d9f30	9.281328e+06
91	0x4b047504	8.680708e+06
92	0x49942e30	1.213894e+06
93	0x4a6149b2	3.6911165e+06
94	0x4ae96b30	7.648664e+06
95	0x4a4053d2	3.1510925e+06
96	0x4a949c4d	4.8696705e+06
97	0x4ae2bc14	7.429642e+06
98	0x4a8affec	4.554742e+06
99	0x49203237	656163.44
100	0x48048a55	135721.33
101	0x4a632fff	3.7222398e+06
102	0x4bb2e47e	2.3447804e+07
103	0x4af6d234	8.087834e+06
104	0x4ad7cda1	7.0714405e+06
105	0x4a4e9148	3.384402e+06
106	0x488857a2	279229.06
107	0x4ad01a72	6.819129e+06
108	0x499c4805	1.2802566e+06
109	0x4a990143	5.0136655e+06
110	0x4a7ae82e	4.1108595e+06
111	0x4a6fef2f	3.9310838e+06
112	0x4add9420	7.260688e+06
113	0x4a5ecba8	3.650282e+06
114	0x4a2f1e2e	2.8691315e+06
115	0x4ba9e23a	2.2266996e+07
116	0x4aaa8cba	5.588573e+06
117	0x4b90d684	1.89842e+07
118	0x494425b7	803419.44
119	0x49a3f379	1.3430871e+06
120	0x4ac83ba5	6.5612345e+06
121	0x4afc1fc6	8.261603e+06
122	0x49b0b983	1.4477284e+06
123	0x4a95ae78	4.904764e+06
124	0x4ab4d060	5.924912e+06
125	0x493053a2	722234.1
126	0x4a6aa9ad	3.8447152e+06
127	0x4ada8f0f	7.1617355e+06

convs.0.bn2.weight f4 [64]
0	0x3f97e8ea	1.1867955
1	0x3f44ac90	0.7682581
2	0x3dde869d	0.10865519
3	0xbe08f42d	-0.13374396
4	0x3f819ab3	1.0125335
5	0x3fae5c15	1.3621851
6	0x3f5afe93	0.855447
7	0x3f6e14ef	0.9300069
8	0x3f68e8f4	0.9098046
9	0x3fa4effb	1.2885736
10	0xc00f33c7	-2.2375352
11	0x3e3b596c	0.1829583
12	0x40655295	3.5831654
13	0x4063a722	3.557076
14	0x3f8f7c72	1.1209853
15	0x3d8081fc	0.062747926
16	0x3faff021	1.3745157
17	0x40075cd9	2.115042
18	0x3f3810cd	0.71900636
19	0x3dbc2327	0.09186392
20	0x406135fb	3.5189197
21	0x40a61925	5.1905694
22	0x3fbafc87	1.4608315
23	0x3f8ccbaa	1.0999653
24	0xc0194648	-2.3949146
25	0x3fc0ae2e	1.5053155
26	0x3ecb3519	0.39688948
27	0x3ecc84b9	0.3994501
28	0xbe85d8a7	-0.26141855
29	0x3f14b43d	0.5808752
30	0x3fdfce0e	1.7484758
31	0x405a6e06	3.4129653
32	0xbe301baa	-0.17198053
33	0x3f5178ec	0.8182514
34	0x3fd48b3d	1.6604992
35	0x402089a2	2.5084004
36	0x3efd9eac	0.4953512
37	0x403b6140	2.9278107
38	0x3fd43214	1.6577783
39	0x4000df10	2.0136147
40	0x3f85243a	1.040168
41	0x3effc331	0.49953607
42	0x3ea27cfd	0.31735983
43	0x3f86f386	1.0543067
44	0x3e63b361	0.22236396
45	0x4004d341	2.075394
46	0x3f991027	1.1958054
47	0x400a9a7f	2.1656797
48	0x3f0baa00	0.54556274
49	0x3ffdbc08	1.9823008
50	0xbe5a93ce	-0.21345446
51	0x3ff4c3d3	1.9122261
52	0x40068e29	2.1024268
53	0x3fa007a7	1.2502335
54	0x402996ec	2.6498365
55	0x407274db	3.7883823
56	0x3f962087	1.1728677
57	0x3e9c9452	0.3058191
58	0x3f8ac54c	1.084146
59	0xbfb3ff1b	-1.4062227
60	0xbee12642	-0.439745
61	0x3dada68e	0.084790334
62	0x3e4ce05c	0.20007461
63	0xbf529ddd	-0.8227213

convs.0.bn2.bias f4 [64]
0	0xc0595e9c	-3.3963995
1	0xc103e86e	-8.244246
2	0xc08b1025	-4.345721
3	0xc11c6efe	-9.777098
4	0xc0912769	-4.536061
5	0xc04c288a	-3.1899743
6	0xc0c62919	-6.192517
7	0xc0b35ddd	-5.605208
8	0xc050f38c	-3.264865
9	0xc0314755	-2.7699788
10	0xc0894f9f	-4.2909694
11	0xc11b10b8	-9.691582
12	0xc09b3c93	-4.8511443
13	0xc05700a7	-3.3594148
14	0xc079fdd1	-3.9061167
15	0xc0a51c21	-5.1596837
16	0xc05442e8	-3.3165836
17	0xc086e485	-4.2153955
18	0xc0dbf810	-6.874031
19	0xc0031213	-2.0479782
20	0xc0e5c229	-7.179951
21	0xc0c4af8a	-6.146428
22	0xbfd64a9b	-1.6741518
23	0xc0755a74	-3.8336458
24	0xc0856cf7	-4.1695514
25	0xc09e7fa7	-4.9530826
26	0xc0340170	-2.8125877
27	0xbf4a169f	-0.7894077
28	0xc0af2125	-5.472796
29	0xc084680c	-4.137701
30	0xbf86309b	-1.0483583
31	0xc0a45b72	-5.1361628
32	0xc05105b2	-3.2659726
33	0xbfae3663	-1.3610348
34	0xc027e18e	-2.6231418
35	0xc0b1b2cb	-5.5530753
36	0xc0c6b07c	-6.2090435
37	0xc0c4e00c	-6.1523495
38	0xc0b3ff02	-5.624879
39	0xc083b8f4	-4.1163273
40	0xc0ad7cce	-5.421485
41	0xc0146985	-2.3189404
42	0xbfe86f1d	-1.8158909
43	0xc020964d	-2.5091736
44	0xc0a06e95	-5.013499
45	0xc04fe4dd	-3.2483437
46	0xc0a57188	-5.170109
47	0xc0a2d0e0	-5.0879974
48	0xc0ac63fb	-5.3872046
49	0xc0008921	-2.0083697
50	0xc0a9123b	-5.2834754
51	0xc04b2771	-3.1742823
52	0xc06bdebd	-3.6854699
53	0xc0a644e7	-5.195911
54	0xc0580e78	-3.375883
55	0xc09b0dbe	-4.8454275
56	0xc08c0235	-4.3752694
57	0xc03546f6	-2.832456
58	0xc086924e	-4.2053595
59	0xc0c844d7	-6.2584033
60	0xc052d4bc	-3.2942343
61	0xc13666e0	-11.400116
62	0xc08d5a48	-4.4172707
63	0xbfab5f37	-1.3388432

convs.0.bn2.running_mean f4 [64]
0	0x419f0f95	19.882608
1	0x409941a1	4.7892613
2	0x425fac96	55.91854
3	0x40ea9361	7.3304906
4	0x41953949	18.652971
5	0x4190cbe3	18.099554
6	0x41a59d06	20.701672
7	0x420b069b	34.75645
8	0x426479a5	57.118793
9	0x417d4e85	15.83167
10	0x42190e9c	38.264267
11	0x4193d94b	18.4811
12	0x43180409	152.01576
13	0x40da72c5	6.82651
14	0x410e3a78	8.889275
15	0x4120587c	10.021603
16	0x4210cd1c	36.200302
17	0x42835234	65.66055
18	0x41ffaf0e	31.960476
19	0x42d2e545	105.44779
20	0x41c4c55d	24.596369
21	0x41b4f32e	22.61874
22	0x428666de	67.20091
23	0x413ffe44	11.999577
24	0x40f6699e	7.7003927
25	0x41d06d28	26.053299
26	0x4220ef95	40.233967
27	0x3efbec35	0.4920365
28	0x421d9145	39.391865
29	0x411a9f12	9.663836
30	0x41b667a8	22.800613
31	0x42b537c2	90.6089
32	0x41ad03ab	21.626791
33	0x41b77259	22.930834
34	0x42d20252	105.00453
35	0x41cd03d8	25.626877
36	0x418a6e52	17.303867
37	0x41b488cc	22.566795
38	0x423d72dd	47.36217
39	0x41fd20c7	31.641005
40	0x41d50b97	26.63066
41	0x433075df	176.46043
42	0x3f280718	0.65635824
43	0x42c60ac6	99.02104
44	0x41aa3049	21.273577
45	0x426346b8	56.81906
46	0x41b778e2	22.934025
47	0x425ce09a	55.219337
48	0x41bebfb0	23.843597
49	0x41ab41d4	21.407143
50	0x417bb060	15.73056
51	0x420506e0	33.256714
52	0x41e698de	28.824642
53	0x426a9f3f	58.655514
54	0x41b4a450	22.58023
55	0x4040c33c	3.0119162
56	0x41bdf094	23.74247
57	0x425f3c97	55.80917
58	0x40722d99	3.784033
59	0x42398551	46.38019
60	0x42458a5b	49.385113
61	0x41aaa59e	21.330868
62	0x42d05d32	104.18202
63	0x42e8e6de	116.45091

convs.0.bn2.running_var f4 [64]
0	0x42044966	33.07168
1	0x41022483	8.133914
2	0x425c9273	55.143017
3	0x420b1e61	34.779667
4	0x4284d0b9	66.40766
5	0x411cfd40	9.811829
6	0x4201b4b6	32.426476
7	0x429658b9	75.17329
8	0x439bcde7	311.6086
9	0x438d8629	283.04813
10	0x40da9e31	6.8318105
11	0x41c5738a	24.681416
12	0x45834758	4200.918
13	0x4238c096	46.188072
14	0x40e3bb64	7.116625
15	0x41f9ca61	31.223818
16	0x438e1c9f	284.2236
17	0x42a52b80	82.58496
18	0x4213c8d0	36.946106
19	0x435b707c	219.43939
20	0x437888ab	248.53386
21	0x43ead292	469.64508
22	0x43ab5133	342.63437
23	0x4334450f	180.26976
24	0x4229d8b8	42.46164
25	0x422c603f	43.09399
26	0x420321a1	32.78284
27	0x3e8c3279	0.27382258
28	0x428f0d1a	71.52559
29	0x4230aca9	44.168613
30	0x424b0306	50.752953
31	0x42978d42	75.775894
32	0x42099a1c	34.400497
33	0x4306d3aa	134.82681
34	0x411c153e	9.755186
35	0x41d8a0b7	27.078474
36	0x4362ad8a	226.67789
37	0x423ba733	46.91328
38	0x433c666b	188.40007
39	0x4307d1e1	135.81984
40	0x42af4356	87.631516
41	0x4241c095	48.43807
42	0x3f69bb56	0.91301477
43	0x43f68f40	493.11914
44	0x41c3c29f	24.47003
45	0x44112e82	580.7267
46	0x4307d7b4	135.84259
47	0x418cc4ae	17.596035
48	0x4262cd36	56.7004
49	0x43efac93	479.34824
50	0x428d4a30	70.6449
51	0x43047c29	132.485
52	0x429d8faf	78.78063
53	0x3fdbfdd4	1.7186837
54	0x43a76151	334.76028
55	0x418167fb	16.175772
56	0x42be61af	95.19079
57	0x436a03d0	234.0149
58	0x414e1cd3	12.882037
59	0x4120037b	10.00085
60	0x43edb3ae	475.40375
61	0x41b7916e	22.94601
62	0x42470ed1	49.76447
63	0x416c702a	14.777384

convs.1.fc_full.weight f4 [128, 169]
0	0xc01ca463	-2.4475334
1	0xbf924d01	-1.142975
2	0xbe8edffb	-0.2790526
3	0x3ed80a5c	0.42195404
4	0x40324887	2.7856767
5	0x408559af	4.1671977
6	0x40070a80	2.1100159
7	0xbfc7b484	-1.5601964
8	0xbfaa9d3b	-1.3329233
9	0x3f996897	1.1985043
10	0xbf9f9c56	-1.2469585
11	0xbca74846	-0.020420205
12	0x3e75b2dc	0.2399401
13	0x406db649	3.7142508
14	0x40663532	3.5969968
15	0xbece95c8	-0.4034865
16	0x4037e5f2	2.8734097
17	0xbf51d62b	-0.8196742
18	0xbee749fb	-0.4517363
19	0x3fe5bc92	1.7948172
20	0xc045ac79	-3.088652
21	0xbf45dc31	-0.7728911
22	0xbeb7b732	-0.35881954
23	0x40a52a94	5.1614475
24	0xc02ba13f	-2.6817167
25	0x3fe8ffa8	1.820302
26	0x3f384906	0.71986425
27	0x3ea9cd45	0.3316442
28	0x3fb67b04	1.4256291
29	0x4059af0a	3.4013085
30	0xbfa75cc1	-1.3075181
31	0xbfd89ed1	-1.6923467
32	0x3f281f71	0.65672976
33	0x3f517c2f	0.81830114
34	0xbfe11322	-1.7583964
35	0xbfbfa1b9	-1.4971229
36	0x3f1322a2	0.5747472
37	0x3f5e2a03	0.86782855
38	0x4042de58	3.0448208
39	0xbef70a38	-0.48249984
40	0xbe68591c	-0.22690243
41	0xbf625f80	-0.8842697
42	0x3fd9f35a	1.702739
43	0xbf8b3911	-1.087679
44	0x40af4a04	5.477785
45	0xc03d77b3	-2.9604309
46	0x40193e12	2.3944135
47	0xbf04b35c	-0.5183618
48	0xc015fdfe	-2.3436275
49	0xbf08e65d	-0.53476506
50	0x3ef84331	0.48488763
51	0xbfadccb1	-1.3578092
52	0x3f12bd8f	0.57320493
53	0xbf810177	-1.0078572
54	0xbf8bc039	-1.0918037
55	0xbf6a94a1	-0.9163304
56	0xbf9a2096	-1.2041194
57	0xbf319daf	-0.6938123
58	0xbe906113	-0.28199062
59	0x3e060445	0.13087566
60	0x4095fdb9	4.687222
61	0xbe139c31	-0.14415051
62	0xbff627c7	-1.9230889
63	0x3e5133ad	0.20429869
64	0x3e9b80c8	0.3037169
65	0xbf4e7226	-0.80642927
66	0xbe6b6707	-0.2298852
67	0x3df12cab	0.11776098
68	0x406fd007	3.747072
69	0xbe90cff7	-0.28283665
70	0xbf2fef9b	-0.68724984
71	0x40a383fa	5.1098604
72	0x3e223dc9	0.15843882
73	0xbe4bc294	-0.19898444
74	0x40119e51	2.2752879
75	0xbf430b01	-0.76188666
76	0x3fe41f89	1.7822124
77	0x3f9624db	1.1729997
78	0xbfa670e4	-1.3003201
79	0x40000ee9	2.00091
80	0xc04295cb	-3.0403926
81	0xbe2b54f6	-0.16731629
82	0x3e9da5d0	0.30790567
83	0x40a9e85a	5.309613
84	0xbe4d5225	-0.20050867
85	0xbee62b9c	-0.44955146
86	0x41295a96	10.584616
87	0xbf9abad1	-1.2088262
88	0xbf6b56ed	-0.91929513
89	0x40995f2e	4.7928686
90	0xbe83e2ce	-0.25758976
91	0xbe91ae24	-0.2845317
92	0xbfe93fdf	-1.8222617
93	0xbfcb9a82	-1.5906527
94	0xc028b205	-2.6358654
95	0xbf590f70	-0.8478918
96	0x3ee60b74	0.44930613
97	0x3f9f5cb2	1.2450163
98	0x403abacc	2.9176512
99	0xbf0ea189	-0.55715233
100	0x3e28772d	0.16451712
101	0xc04a25b1	-3.1585505
102	0x40beadea	5.9587297
103	0x3ff2b9d9	1.8962966
104	0x3fd16db1	1.63616
105	0x3fd4f7f6	1.6638172
106	0xc0be7a78	-5.95245
107	0x3f9f86b3	1.2462982
108	0x3ed78db8	0.4210031
109	0x3fba8fb6	1.4575107
110	0x404d9f45	3.212846
111	0x3f4e2778	0.80528975
112	0xbfe14172	-1.7598097
113	0xbf872bbc	-1.0560222
114	0xc03e3aee	-2.9723468
115	0x406be009	3.685549
116	0xc030afa7	-2.760721
117	0x40925ed5	4.574076
118	0xbf82974e	-1.0202425
119	0x400f6ffb	2.2412097
120	0x3fa71422	1.3053019
121	0x40345c7b	2.8181446
122	0xc025374b	-2.5814998
123	0x3f8b82f5	1.089934
124	0x40438cca	3.055468
125	0xbeef62b6	-0.46754998
126	0x3e585e37	0.2112969
127	0x3fc53532	1.5406859
128	0x40389c9b	2.8845584
129	0x40256d14	2.5847826
130	0xc052c475	-3.2932408
131	0xc0d93982	-6.78827
132	0xc0c4f994	-6.155466
133	0xc0b3a333	-5.613672
134	0x4036d9b4	2.8570375
135	0x3f6632e5	0.8992141
136	0xc0d39cb1	-6.6128774
137	0xc12fcfd0	-10.988235
138	0xc00cea32	-2.2017941
139	0x40f9137f	7.78363
140	0x402bb2ed	2.6827958
141	0xc0bc81c5	-5.890841
142	0x408be64a	4.3718615
143	0x40b8d005	5.775393
144	0x3f1fb7c3	0.62389773
145	0x403140fb	2.769591
146	0x4080c566	4.0240965
147	0x40a006f7	5.00085
148	0xc01ecde8	-2.4813175
149	0xc0dacd5f	-6.8375697
150	0xbf97ce19	-1.1859771
151	0xbfdae836	-1.7102115
152	0xc081bd1a	-4.0543337
153	0xbfe752d9	-1.8072158
154	0x4087342a	4.2251177
155	0x40d89b03	6.7689223
156	0x404d09e7	3.2037294
157	0xbffbeac5	-1.9681021
158	0xc0c36819	-6.106457
159	0xbff97dd6	-1.9491527
160	0xbfb10e0d	-1.3832413
161	0xbf8bedcb	-1.0931944
162	0x3f88213b	1.0635141
163	0x4000aeb0	2.010662
164	0x3ef63c78	0.4809301
165	0x3d620442	0.05517984
166	0xbd3030ae	-0.043015175
167	0xbce80041	-0.028320434
168	0xbce92214	-0.028458633
169	0x3f9f0546	1.2423484
170	0xbf93d02a	-1.1547902
171	0x3fedd542	1.8580706
172	0xbe98acdf	-0.2981939
173	0x3ec133f6	0.37734956
174	0x3ff9737c	1.9488368
175	0x4008580a	2.1303735
176	0x406b0275	3.672025
177	0x3ed45ea4	0.41478455
178	0x4088d692	4.2761927
179	0x3f71e3f9	0.94488484
180	0xbf3bc23d	-0.7334326
181	0x408c9e3e	4.3943167
182	0xbf76f501	-0.96467596
183	0x402669b1	2.600201
184	0x3fc20616	1.5158107
185	0x3fb092ac	1.3794761
186	0x400ddb50	2.2165108
187	0x3fad334f	1.3531283
188	0x3fae8a19	1.3635894
189	0xbe9c46b6	-0.30522698
190	0x40193bff	2.3942869
191	0x40acb917	5.397594
192	0x3fc2a992	1.5207999
193	0x3fa9eead	1.3275963
194	0x3f517c0c	0.81829906
195	0x3fee07f6	1.859618
196	0x3f8c65bb	1.0968546
197	0x3f8467ad	1.0344139
198	0xbebae057	-0.36499283
199	0xbf01a518	-0.5064254
200	0x40992761	4.786057
201	0x40165b38	2.3493176
202	0xbe913569	-0.2836106
203	0x3fccd1d1	1.6001531
204	0x3fdabf58	1.7089643
205	0x3f4a79d2	0.79092133
206	0xbfc70754	-1.5549111
207	0x4088ed01	4.278931
208	0x404d955a	3.2122407
209	0x406e974d	3.7279847
210	0x401c2dd6	2.4402976
211	0x3f6891c0	0.90847397
212	0x3fe5f2e7	1.7964753
213	0xbfcdd2cb	-1.6079954
214	0x408c93a0	4.3930206
215	0x402625b4	2.5960512
216	0x3f72ad77	0.94795936
217	0xbd128d06	-0.03577902
218	0xbfceb160	-1.614788
219	0x3f9f49b0	1.2444363
220	0x401fccc0	2.496872
221	0xbfb5f820	-1.4216347
222	0x4042842b	3.039317
223	0x3ecf0f29	0.40441254
224	0x3fac4204	1.3457646
225	0x40aa0d9d	5.314162
226	0x407aa59a	3.9163575
227	0x3f35ceda	0.71018755
228	0x3fcd3a22	1.6033366
229	0x40272d70	2.6121483
230	0x3fcfc51a	1.6232026
231	0x3ff1dc04	1.8895268
232	0xbf64d93d	-0.8939398
233	0xc04927d5	-3.1430562
234	0xbf854db3	-1.0414337
235	0xc05ef80b	-3.4838893
236	0xbe3b04ba	-0.18263522
237	0x4102f553	8.184894
238	0x40f2562b	7.5730186
239	0x3eea7f13	0.45800075
240	0xc0686da8	-3.631693
241	0x4020d11d	2.5127633
242	0xbff89698	-1.9420958
243	0xc08b5b9d	-4.3549333
244	0x3faae009	1.334962
245	0xc0f807a0	-7.750931
246	0xc0189680	-2.3841858
247	0x40b7932e	5.7367163
248	0xbf915882	-1.1355135
249	0x40bfd88a	5.995183
250	0xc080f035	-4.029322
251	0x3ea09d14	0.3136984
252	0xbfa6976e	-1.3014963
253	0x404e7e94	3.2264757
254	0xc0153662	-2.3314443
255	0xc0e093ac	-7.0180264

convs.1.fc_full.bias f4 [128]
0	0xbef6383d	-0.4808978
1	0x3fa0f5be	1.2574995
2	0xbdc980c9	-0.09839017
3	0xbd9efaea	-0.07762702
4	0xbd50e5ac	-0.051000282
5	0xbdabcadd	-0.083883025
6	0xbbc4e63f	-0.006008893
7	0xbecbe794	-0.39825118
8	0x3de2ed3d	0.11080406
9	0x3d48868e	0.048956446
10	0xbf468339	-0.7754398
11	0xbd86a9fb	-0.0657539
12	0xbc9621ac	-0.018326603
13	0xbe35807e	-0.17724797
14	0x3f0c177b	0.5472333
15	0x3bfb6130	0.0076714978
16	0x3e0509c5	0.12992008
17	0xbc98e03d	-0.018661613
18	0xbd1d04ce	-0.03833466
19	0x3eba2ae7	0.36360857
20	0x3c819daf	0.01582226
21	0xbc9c8be0	-0.019109666
22	0xbd03a7c0	-0.0321424
23	0xbd57a1a3	-0.052644383
24	0xbcedc9be	-0.029026862
25	0xbcf453c1	-0.029825093
26	0xbd7aa4db	-0.061192375
27	0x3e618222	0.22022298
28	0x3c31ce07	0.010852343
29	0xbbb21a32	-0.0054352516
30	0x3d014fc1	0.0315702
31	0xbd231454	-0.03981431
32	0x3e54cd57	0.20781456
33	0x3e391ad4	0.1807664
34	0x3fb83447	1.4390954
35	0xbd555763	-0.05208529
36	0x3e334f7c	0.1751079
37	0x3de75d2a	0.112970665
38	0xbf1fcaf7	-0.62419075
39	0xbd8d58f4	-0.06901732
40	0xbd368cfb	-0.044568043
41	0xbd14c9dd	-0.036325324
42	0x3b536943	0.0032258786
43	0xbea980cc	-0.33106077
44	0xbcdba6f9	-0.026813017
45	0xbd870a6f	-0.06593787
46	0x3ebfd6ef	0.3746867
47	0x3ecbdfcc	0.3981918
48	0xbcfa8244	-0.030579694
49	0x3e0263e4	0.12733418
50	0xbb3f6d30	-0.0029209368
51	0x3bb4635f	0.00550501
52	0xbea0a7ef	-0.31378123
53	0x3d46b4fb	0.04851244
54	0xbdeda530	-0.11603773
55	0xbf6efb96	-0.9335264
56	0x3e877f55	0.26464334
57	0x3d4aba5e	0.04949414
58	0xbd8d9308	-0.069128096
59	0xbd904d63	-0.0704601
60	0xbf008998	-0.5020995
61	0xbdfeb54c	-0.124369234
62	0x3dd4669e	0.10371135
63	0x3d05aea8	0.03263727
64	0x3d330657	0.043707218
65	0xbebb2c20	-0.36557102
66	0xbd8818be	-0.06645344
67	0x3cfe9a69	0.031079488
68	0x3f4278c5	0.7596553
69	0x3d313903	0.04326726
70	0xbcac57a2	-0.02103788
71	0x3c5624c4	0.013070289
72	0xbf560e9c	-0.8361604
73	0x3f4e8733	0.8067505
74	0xbf29bbcb	-0.66302174
75	0xbd016d0e	-0.031598143
76	0x3cfbff95	0.03076152
77	0x3dbe7c97	0.093011074
78	0x3fc5483b	1.5412668
79	0xbcd01d90	-0.025404721
80	0xbda20937	-0.07911914
81	0x3d32ac80	0.04362154
82	0x3ca48550	0.0200831
83	0x3e6a6c44	0.22892863
84	0x3f184740	0.5948372
85	0x3ec604d2	0.38675553
86	0xbd59c301	-0.053164486
87	0x3e125188	0.14288914
88	0xbb811b42	-0.003940017
89	0x3d8e930a	0.06961639
90	0x3f8b42cc	1.087976
91	0x3f4e5fe4	0.8061507
92	0xb9b39004	-0.0003424884
93	0x3e701d9f	0.234488
94	0xbcc9357c	-0.024561636
95	0xbd5f078f	-0.054450568
96	0x3d5771f1	0.052598897
97	0xbdee4d75	-0.116358675
98	0xbe6808e6	-0.22659644
99	0xbd93aa2c	-0.07210192
100	0x3f192a8f	0.59830564
101	0xbca20cdb	-0.01978152
102	0xbf5c726c	-0.86112094
103	0x3d90ef2b	0.07076868
104	0xbeb1fa9c	-0.34761512
105	0x3cfa1c7a	0.030531157
106	0x3f4ef125	0.8083671
107	0xbf9d0938	-1.2268438
108	0xbf72ef2a	-0.94896185
109	0x3d2c9f9c	0.042144403
110	0x3dc42e56	0.095791504
111	0xbdc8b5f2	-0.09800328
112	0xbc7ba8df	-0.015360086
113	0xbda2b6dc	-0.07945034
114	0x3f8e620a	1.1123669
115	0xbcb7557c	-0.02237963
116	0xbec3139a	-0.38100892
117	0xbab38617	-0.0013696578
118	0x3dd40c0f	0.103538625
119	0xbf08afd0	-0.5339327
120	0x3eca77e9	0.3954461
121	0xbef18d6f	-0.47178218
122	0xbb31bcb4	-0.0027120532
123	0x3c394497	0.011307857
124	0x3decd492	0.11563982
125	0x3e4a1472	0.19734362
126	0x3f9f079e	1.24242
127	0xbdeeded2	-0.11663593

convs.1.bn1.weight f4 [128]
0	0x40c2a888	6.0830727
1	0x40f14ec0	7.540863
2	0x40a32188	5.097843
3	0x40e3855a	7.1100283
4	0x412e8e1c	10.909695
5	0xbdf210dc	-0.11819622
6	0x404a3eac	3.1600752
7	0x40f4d653	7.6511626
8	0x417a37db	15.638637
9	0x4162515a	14.144861
10	0x4088696a	4.262868
11	0x3ed532c3	0.4164029
12	0x3fbb53d8	1.4634962
13	0x418e95ea	17.8232
14	0x4117c2e6	9.485083
15	0x40e3c609	7.117924
16	0x3fbf6da3	1.4955333
17	0x3f367078	0.71265364
18	0x410f56db	8.958705
19	0x3fb95aa0	1.4480782
20	0x40c88b9a	6.267041
21	0x4118792d	9.529584
22	0x402f5452	2.7395215
23	0x414da8dc	12.853725
24	0x400c344e	2.1906924
25	0x3e132fbc	0.14373678
26	0x413f3f43	11.952945
27	0x402f120c	2.7354765
28	0x3fe345ab	1.7755636
29	0x40be52a5	5.9475884
30	0x40336f2a	2.80366
31	0x40077005	2.1162121
32	0x411b556f	9.708358
33	0x40d015b3	6.502649
34	0x404ca1bf	3.1973722
35	0x3f570a09	0.8399969
36	0x4103d02f	8.238326
37	0x3f890673	1.0705093
38	0x413c4027	11.765662
39	0x3fac1136	1.3442752
40	0x41013a85	8.076787
41	0x40b86f15	5.76356
42	0x409d09c5	4.9074426
43	0x4139a5d4	11.602985
44	0x40c2c787	6.0868564
45	0x3aceee89	0.0015787642
46	0x3facc8d5	1.3498789
47	0x40fce314	7.9027195
48	0x4009502e	2.1455188
49	0x411b88dc	9.720913
50	0x40a99cd9	5.3003964
51	0x40ebcaf1	7.368523
52	0x40e9f3f6	7.3110304
53	0x40029c8a	2.0408044
54	0x40491a51	3.1422312
55	0x411471e2	9.277803
56	0x3f930da3	1.1488537
57	0x401c73eb	2.444575
58	0x4110c86e	9.048933
59	0x40ebbac4	7.3665485
60	0x41395ea4	11.585606
61	0x4076da1e	3.8570628
62	0x3f4fe1f4	0.8120415
63	0x407f73e2	3.991448
64	0x3ffc90f9	1.9731742
65	0x3ff4ca8a	1.912431
66	0x400a33aa	2.1594033
67	0x415da0ce	13.851759
68	0x40d64c77	6.696834
69	0x3de7e9e2	0.113239065
70	0x401e0e23	2.4696128
71	0x4012fa46	2.2965255
72	0x40693566	3.6438842
73	0x40b78727	5.735248
74	0x3fd4e482	1.6632235
75	0xbf4b491a	-0.7940842
76	0x40587340	3.3820343
77	0xc0121f93	-2.2831771
78	0x3fa58832	1.2932189
79	0x408edf8f	4.46479
80	0x40b7425f	5.726852
81	0x3ef04975	0.46931043
82	0x3f96586a	1.1745732
83	0x40ccf55d	6.4049516
84	0x40c6e34b	6.2152457
85	0x40c1e440	6.0591125
86	0x401222a2	2.2833638
87	0x400f1e50	2.2362251
88	0x3f37c73c	0.7178838
89	0x3f54a0c1	0.8305779
90	0x4094d7fa	4.6513643
91	0x4097482a	4.727559
92	0xbea15361	-0.31508926
93	0x3fd82da4	1.6888928
94	0x40379217	2.8682916
95	0xc00c6c04	-2.1940928
96	0x4040dfa6	3.0136504
97	0x40ad1eee	5.4100256
98	0x4110ecbd	9.057797
99	0x3f53ead8	0.8278022
100	0x400683a7	2.1017854
101	0x403ef4e4	2.983697
102	0x4007e4f4	2.1233492
103	0x40663eed	3.5975907
104	0x404ba801	3.1821291
105	0x3e2e7ba2	0.1703935
106	0x41073834	8.451221
107	0x3fb7545b	1.4322618
108	0x40342e5c	2.8153296
109	0xba591f16	-0.0008282525
110	0x40318439	2.7736952
111	0x40146ace	2.3190188
112	0x3e6506f8	0.2236594
113	0x3fa5ac55	1.2943217
114	0x4096ffb2	4.718713
115	0x41107461	9.028413
116	0x41887ae2	17.060001
117	0x404d231f	3.2052686
118	0x40881215	4.2522073
119	0x3ffac7b5	1.9592196
120	0x402e99d5	2.7281392
121	0x411c391a	9.763941
122	0x40a182a0	5.0471954
123	0x400c7929	2.194895
124	0x3fbd42f3	1.4786056
125	0x40846bb7	4.138149
126	0x40ac7473	5.389215
127	0x4093a388	4.6137123
