results/Prediction/2023-06-22/19:33:00.835898/models/model317.pth (torch, 717109 bytes, 74 tensors)

embedding.weight f4 [64, 92]
00000000: c893 3d3c 8a64 ecbe e929 2f3c b1ed 74bd
00000010: 16e6 59bd 77fa 583c fd02 97bd 429d 80bd
00000020: d1fe 873a 8aac 8d3d 0126 c83d 2926 5cbc
00000030: ca6e 993d 4621 c1bd d719 99bf 6075 4dbf
00000040: 12f4 b73f d798 853f c463 7a3d a18f c2be
00000050: 6b33 e1bf d4eb 0dc0 7c6f a1bd b562 9c3d
00000060: 25a6 2bbd 28b9 4bbd e57d 8ebd 8d6b 65bd
00000070: b694 b4bd d259 17c0 1f77 dcbe 20e6 d7bf
00000080: e0c8 b1bd be73 5abf fc99 a83f ba7b 653f
00000090: 670d d6be 76f1 663f dd41 f3bf 83df 5ac0
000000a0: 8ef3 17c0 d68f c23c d494 dc3c d20e c33b
000000b0: eb9b 8f3d f0b7 9cbd 509e 92be 3047 993d
000000c0: 5fc3 d9bb c102 a5bf a203 4fbf bf03 a93f
000000d0: 844c 643f 36a3 bb3d 49ed 703d f544 adbd
000000e0: b8ca 46bd d329 29bd 3339 6ebd 9f1c 22bd
000000f0: 12db cdbc 77a8 13c0 9f55 853d 604a d7bf
00000100: 8da3 0ec0 182c 763f 04af b03d 81fe 983d
00000110: 1d0e b33d f44a 14bd 8451 6abf 5493 96bc
00000120: 3622 aabd a420 f1be 87c7 e2bd 2440 62c0
00000130: 6135 99bd 2b1e 673f 41d5 9dbe a2b4 1ebf
00000140: 1060 43bd c23a 833d d38b ddbf f419 99bd
00000150: 918d 193d a063 1ac0 f1fd c7bf dee2 b4bd
00000160: 6019 163d f6b7 d0bd 0a73 05bd c0df 5fbc
00000170: ec76 7dbc f109 99bf 3b12 d73b 1f9c 4cbc
00000180: ebcb 2d3c 74b0 e2bc 9745 afbc 219d a73d
00000190: c6e1 d0bd 29c9 c4bd becc 733d 0c5b 9f3d
000001a0: 17a8 cf3d 70bd d5bc 0746 c5bf 2c84 9dbf
000001b0: 591f c8bf 57b6 05c0 2053 6c3d df5e acbf
000001c0: 2a20 bcbe 45f9 d7bf f0a1 003d 579e b3bd
000001d0: c019 4cbb 4997 ecbc 6d9c 6ebd 0dae 5abd
000001e0: 93ff 3b3c 89bf 46be 286b 9cbf b312 0fc0
000001f0: 2e87 a93d 55b0 9bbf f89c 02c0 8778 05c0
00000200: 3675 9cbf aea8 99be 9cf9 6dbf 0d65 c2bf
00000210: 817d c9bd e57b 073d dd20 273d a202 f93c
00000220: 252d ea3a d2bd 8dbd fced a5bf cc51 86bc
00000230: 614c 623d b8ff babf 44d0 a9bf a6b3 cabf
00000240: 38b3 ffbf 6a64 bfbd c4d1 d2bd 5d52 21bb
00000250: 0326 b23d 9d3f 91bd ef00 a03c b322 233d
00000260: 1339 dabc 30de 5fbe 5b1e a4bd 842c 02c0
00000270: e87f f0bf 9b20 ffbf 2426 573d 5785 823d
00000280: b822 bfbb fc45 0cbd e220 aabf 2889 433d
00000290: bfcc 503d 4f2a a4bf 37ae 2cc0 f201 d0bf
000002a0: 7664 74bd d9d8 ffbf 86c0 a8bf 1496 36bf
000002b0: 4f8e db3a d12f 083c fe53 b9bf 8f87 81bd
000002c0: 3d35 933d f20f 32be 78ea 8ebf b27f c03d
000002d0: 3a33 bc3d 93eb 92bd d970 cd3d 9f40 0dbd
000002e0: b885 8f3d 535d 9d3d 8469 91bd 0ec1 193b
000002f0: bacb a53d 9fa6 e0bc c826 203d 43f4 3a3c
00000300: 8f8c 80bd 6f8f f23c 8993 afbd a3e2 b7bd
00000310: 12e4 b0bd d044 91bd 6586 cdc0 c3fd aabf
00000320: 5aec 983f 476d e2c0 d419 ce3d 239d 3ebd
00000330: edc6 adc0 b182 fbc0 4521 0b3d f67c cf3a
00000340: cebd dd3c 1e89 2e3d 4844 aebc 00ef 1e3b
00000350: a89e 01bd 2628 87c0 1aaa dfbc 29e7 d7c0
00000360: 01ec b4bc 697d b7bf 3bc2 0340 e1ba e1c0
00000370: 3d11 a53d e7fd a3bf 0e2e 8cc0 78f3 f7c0
00000380: af46 89c0 7092 18bd fc13 4e3d 8fe6 ac3d
00000390: 6330 e6bc 9c77 86bd 8d97 d1bd 8a8e aebd
000003a0: f504 903d 5ea8 d0c0 05c7 babf 8138 993f
000003b0: 0539 e3c0 de71 a8bd d19a fe3c 5711 65bc
000003c0: 2afa d43d ed81 91bd 9959 8fbb 6c8b 93bc
000003d0: 2cfb 223d 6e1d 87c0 5507 aebd b535 d9c0
000003e0: b1cd b9bf ee0e dfc0 99ac d23d df04 623d
000003f0: bd79 e03c a59b 8abd bf0f aabf d9f1 5ebd
0.011570878 -0.46170455 0.0106911445 -0.059796993 -0.053197943 0.013243309 -0.07373617 -0.062799945
0.0010375624 0.06917675 0.09772874 -0.013436832 0.074918345 -0.094301745 -1.1961011 -0.80257225
1.4371359 1.0437268 0.0611303 -0.38000205 -1.7593817 -2.2175188 -0.07882592 0.07636014
-0.041906495 -0.049737126 -0.06957606 -0.05601077 -0.08817427 -2.3648572 -0.43059632 -1.6867104
-0.08680892 -0.8533286 1.3171992 0.89641917 -0.418071 0.9021219 -1.9004475 -3.419892
-2.3742404 0.023750227 0.026926436 0.0059526945 0.07012161 -0.07652271 -0.28636408 0.07484281
-0.0066456045 -1.2891465 -0.8086492 1.3204268 0.89179254 0.091619894 0.058820043 -0.08460418
-0.04853317 -0.041299652 -0.05816002 -0.039578076 -0.025128875 -2.3071573 0.065104716 -1.6819572
-2.2287323 0.9616103 0.086271316 0.07470418 0.08742926 -0.036204293 -0.9153063 -0.018380798
-0.083073065 -0.47095215 -0.11073213 -3.5351648 -0.07480884 0.9028041 -0.30826762 -0.61994374
-0.047699034 0.064076915 -1.7308296 -0.07475653 0.037488524 -2.4123306 -1.5624372 -0.08832334
0.036645293 -0.10191338 -0.032580413 -0.013664186 -0.015470248 -1.1956159 0.0065634525 -0.012488394
0.0106077 -0.02767203 -0.021395488 0.08184267 -0.10199313 -0.09608681 0.05952143 0.07781038
0.101394825 -0.026091307 -1.5411996 -1.2305961 -1.5634567 -2.0892541 0.05769646 -1.3466452
-0.3674329 -1.6872946 0.031404436 -0.08770435 -0.0031143278 -0.028880732 -0.058254648 -0.053388644
0.011474508 -0.19409002 -1.2220201 -2.2355163 0.082777366 -1.2163187 -2.0408306 -2.0854814
-1.222327 -0.30011505 -0.92959 -1.5187088 -0.09838391 0.03307714 0.040802825 0.030396763
0.0017866237 -0.06920971 -1.2963252 -0.016396426 0.05524862 -1.4609289 -1.3266683 -1.5836074
-1.9976568 -0.09345324 -0.10293916 -0.0024615743 0.086986564 -0.070922114 0.019531695 0.039828014
-0.026638543 -0.21862102 -0.08013602 -2.033967 -1.8789034 -1.9931825 0.052526608 0.06373089
-0.005832996 -0.03424643 -1.3291285 0.047738224 0.05097651 -1.2825412 -2.6981332 -1.6250594
-0.05966612 -1.9988052 -1.3183753 -0.7132275 0.0016750785 0.008312182 -1.4478757 -0.06324684
0.07187889 -0.17388895 -1.1165304 0.09399356 0.09189458 -0.071738385 0.100312896 -0.034485456
0.07007927 0.07683816 -0.07100204 0.0023461017 0.080954984 -0.027423201 0.039099485 0.011410776
-0.062768094 0.02960941 -0.08573062 -0.089787744 -0.08637251 -0.07093203 -6.4226556 -1.3358692
1.1947129 -7.0758395 0.1006352 -0.046536576 -5.430533 -7.8597035 0.033967275 0.0015830088
0.027068045 0.042611234 -0.021272793 0.0024251342 -0.031645447 -4.223651 -0.02730279 -6.746968
-0.022085192 -1.4335147 2.05873 -7.0540624 0.080599286 -1.281186 -4.380622 -7.7484703
-4.2898784 -0.03724903 0.050312027 0.08442413 -0.028099244 -0.065657824 -0.10233984 -0.08523281
0.070321955 -6.5205526 -1.4591986 1.1970369 -7.1007104 -0.082248434 0.031079682 -0.013981185
0.103992775 -0.071048595 -0.0043746945 -0.018010817 0.039790317 -4.2223425 -0.08497492 -6.787806
-1.4515897 -6.9705725 0.10286827 0.055180427 0.0274018 -0.06767968 -1.3286055 -0.054429863

convs.0.fc_full.weight f4 [128, 169]
00000000: 6d0b 1ac0 4222 4bbf 0389 7fbf 40cd debf
00000010: 6b36 723f 16c7 1f3c 098c eabf 3070 673e
00000020: 8780 64be df94 4cbf b0a6 89bf 9eec b13f
00000030: 7707 a8bf 399b 76bf 8e14 8d3e a872 1ec0
00000040: 25b6 f13f c124 99bf 6818 bbbf 7db6 79bf
00000050: c396 a13e add5 31bf 5034 8dbf 18be 5b3f
00000060: 3870 8fbe a55c 8ebe b355 9bbf 38aa 53bf
00000070: 9e67 30be ea19 5c3f 097f 63bd c88f 29bf
00000080: 6089 043f 295d 693f 8f4d ffbe 61c6 b8bf
00000090: f97d bcbe 1bff a2bf a59d 32bf a8e9 bfbe
000000a0: 62c5 54bf 4cda 4dbf 2a04 15bf 95b6 2cbe
000000b0: b4fe e2be 250d 78bf 6d82 38be 3ceb 9cbf
000000c0: a173 c9bf 3135 873f 97ba c63e 0516 3fbe
000000d0: 4be8 b3bf c552 aabf 6458 c9be d0ab b33f
000000e0: d375 52bf 6513 12bf 0e76 84be 68a2 84be
000000f0: 7e08 46bf fe96 353f e515 92bf 5635 0a3f
00000100: 7620 cbbf 3150 3abf 4496 8240 f1a1 043f
00000110: cf84 13bf ac73 24be 6a50 56bf d490 7940
00000120: 80d7 a4bf 0b79 a03f 4e1c 4840 eabb 433f
00000130: c153 af40 01f6 6b40 5fd3 e6bf 6a02 133e
00000140: 1316 b4bf a280 0740 d0ef 21c0 e02e a8be
00000150: 0c0e 4ec0 16d6 c440 fb89 d83e 3ec2 e0bf
00000160: d779 27c0 0cbd c4bf a0ee f53f e867 1440
00000170: b013 f83f ba39 03be 88c2 83c0 4f0e d73f
00000180: 3795 4540 93ee 0740 2cfc 1840 5d3a 833f
00000190: 8e3c 1c3e 56d1 72c0 f6d3 8c3f cc48 01c0
000001a0: 6223 3540 6d9a 1540 5ab6 6ac0 3f4d c83f
000001b0: f465 a3c0 6567 d23f 3ecd 0540 68ff 3840
000001c0: a731 1e3f f96f 52c0 5b20 02c0 497f 43c0
000001d0: c0ba 3fc0 8789 e3bf bdbd 8bc0 5b82 2bbf
000001e0: 7107 cb3f 7316 5040 c945 d5bf 5ea0 8d40
000001f0: c9d0 09c0 c9a5 b440 2e4f 5340 a5b9 92c0
00000200: 2286 87bd 19a5 adbd 8391 8dbd dc39 62be
00000210: 967d debe 0de3 27bf dfd4 f63e 1572 ca3f
00000220: 10db 423f f695 f13d 7813 6bbf 7520 c03f
00000230: 3036 3a40 f9f5 553f 63c1 b63e 3b21 8ebf
00000240: 577c 2ebf fc53 34c0 1e9a c2bf 814a 1840
00000250: ae64 9f3f 49cb bcbf 9bc8 0bc0 45a0 62bf
00000260: 47d2 15bf b226 5dbf ba50 4dbe da29 1f3e
00000270: fb02 303e c174 80bd 0024 9ebe 17ff 08bf
00000280: 1178 49be f13f 363d be31 693d 9192 c73d
00000290: 26af c3bc c606 973d 5d6f 1a3d 83b8 0ebd
000002a0: 925d 80bd 7dca 883e 97b7 25bf cdaa 553f
000002b0: 1d1e 283e a4fc f1be 2737 7fbe 1899 83be
000002c0: 0a6b abbd 032e b5bc e6cb 023f 2f97 3a3f
000002d0: 5941 01bf 362d 413f e851 8d3e 9f89 22bf
000002e0: f535 8d3e e9c0 47bf 6389 013f f7be 333f
000002f0: 5e25 193f a457 9ebe 4f20 2c3f eccd e83e
00000300: 16a7 33bf 34fe 4d3e 9f9d 303e 4a97 c93e
00000310: 0cf4 7d3f c345 08bf c926 5ebf 7a24 9fbe
00000320: f7cf eb3e 58c8 3a3f 72ce f2be f4b7 073f
00000330: 3aba db3e afb6 0f3f b1f2 acbe 88cf eebd
00000340: 21a3 b6be 86ad f83e 4abe 153f 509e eabe
00000350: f2df 723f 1035 8fbe affa 533f b56f 723e
00000360: 8a86 ab3e acdf 49be 11e8 e9bd 6557 08bf
00000370: 98a7 61bd 7fab 7a3d 903a 4b3f 226a 94be
00000380: ffda 0ebd 2782 d43e 9574 6c3e 74de efbe
00000390: 323d ef3d e9bd 863d 7d73 9f3d c48a 393f
000003a0: 4edf 7cbf 5f68 bbbe 5d9a 22bf b23d 413f
000003b0: 8de0 24be 8140 983e 25d8 85bf 01a4 163f
000003c0: fd17 a43c eaca 43be c663 683f e403 fb3e
000003d0: bad0 df3e 2f91 403f fcfa 183f 16fe 4fbf
000003e0: 48fc 883d 9d05 2bbf 7387 2c3f 6e0f aebe
000003f0: e47a e33d 4243 cebf fc0c 253f 5cfc 153f
-2.4069474 -0.7934915 -0.9981844 -1.7406387 0.94614285 0.009752056 -1.8323985 0.2260139
-0.22314654 -0.7991466 -1.0753994 1.3900335 -1.3127278 -0.963306 0.27554744 -2.475748
1.8883711 -1.1964341 -1.4616823 -0.9754408 0.31560335 -0.6946667 -1.103159 0.85836935
-0.28015304 -0.27805057 -1.2135528 -0.8268161 -0.17227027 0.8597704 -0.055541072 -0.6623502
0.5177212 0.91157776 -0.4986386 -1.443554 -0.3681486 -1.2734102 -0.69771796 -0.37482953
-0.8311368 -0.8041122 -0.5820948 -0.16866525 -0.44334948 -0.96895057 -0.18018503 -1.2259288
-1.5738412 1.0563108 0.38814232 -0.18660744 -1.4055265 -1.3306509 -0.3932525 1.4036808
-0.82211035 -0.57060844 -0.2587132 -0.25905156 -0.7735671 0.7093352 -1.1412932 0.53987634
-1.5869281 -0.7277861 4.080843 0.518096 -0.57624525 -0.1605975 -0.8371645 3.8994646
-1.2878265 1.2536939 3.1267276 0.7645861 5.478974 3.68689 -1.8033255 0.1435639
-1.4069237 2.1172261 -2.530262 -0.32848263 -3.2196074 6.1511335 0.4229277 -1.7559278
-2.6168115 -1.5370193 1.9213448 2.318842 1.9381008 -0.1281499 -4.1174965 1.6801242
3.0872324 2.1239364 2.3903913 1.0252186 0.15257475 -3.7940269 1.1002185 -2.0200682
2.8302846 2.3375504 -3.6673799 1.5648574 -5.1061954 1.6437804 2.090652 2.8905888
0.61794513 -3.2880843 -2.0332248 -3.0546439 -2.9957733 -1.7776345 -4.3669114 -0.6699578
1.5861646 3.2513702 -1.6661922 4.425826 -2.1533682 5.6452374 3.3017077 -4.5851617
-0.06617381 -0.084787555 -0.0691252 -0.22092384 -0.4345519 -0.65580827 0.48209283 1.5816065
0.7611551 0.11796181 -0.9182658 1.5009905 2.9095573 0.8357845 0.35694417 -1.1103891
-0.6815848 -2.817626 -1.5203283 2.3795474 1.24526 -1.4749538 -2.184119 -0.885258
-0.5852398 -0.8638717 -0.20050326 0.15543309 0.17188637 -0.06272269 -0.3088684 -0.53514236
-0.19674708 0.044494573 0.056932203 0.09744752 -0.023887228 0.07374339 0.03770386 -0.034843933
-0.06267847 0.26716986 -0.6473326 0.83463746 0.16417737 -0.47263062 -0.24923383 -0.2570274
-0.083700255 -0.022116667 0.51092374 0.7288694 -0.5049034 0.7545961 0.27601552 -0.63491243
0.27580228 -0.7802873 0.5060026 0.70213264 0.5982264 -0.3092624 0.672368 0.45469606
-0.7017683 0.20116502 0.17247628 0.39373237 0.9920051 -0.5323145 -0.8677793 -0.31082517
0.46057102 0.7296195 -0.4742313 0.53015065 0.42915517 0.5613813 -0.3377891 -0.11660677
-0.35671332 0.48569888 0.58493483 -0.45823908 0.94872963 -0.2797017 0.8280439 0.23675425
0.33501083 -0.1971423 -0.11421216 -0.53258353 -0.05509147 0.061198708 0.79386234 -0.28987223
-0.03487682 0.41505548 0.23091348 -0.46849406 0.11681594 0.06579191 0.077856995 0.72477365
-0.98778236 -0.36603066 -0.6351679 0.75484765 -0.16101284 0.29736713 -1.0456587 0.58844
0.02003097 -0.19120374 0.9077724 0.49026406 0.43713933 0.7522153 0.5975797 -0.8124708
0.06688744 -0.6680544 0.6739418 -0.33996147 0.11107424 -1.6114275 0.6447294 0.58588195

convs.0.fc_full.bias f4 [128]
00000000: 2ed6 62bd 1b80 edbc f2c0 febd 8a56 4ebd
00000010: 8c4e 29bd bc32 d2bd 59a4 f7bb d25e 31bd
00000020: cc6f 94bd c009 09bd d8b8 5f3d 3b56 a1bd
00000030: ba9d 353c 6b2b fb3c 9c81 edbd 1d38 e03c
00000040: 163a 65bd 012a 92bd f370 b53d 6041 323d
00000050: 8d18 773d 33b4 ab3d c6ea 8b3c 7b4e 88bb
00000060: a57d 70bc fb5d febd ec00 d63d 4bd9 e43d
00000070: 00eb 373d 8363 ff3c 49ef d9bc 83af 3ebd
00000080: 04d7 7a3c bff0 8dbd 5801 f2bd f43e ba3d
00000090: 07c4 5cbc 1b64 cc3d 32c8 b9bc bbeb 85bd
000000a0: a88b 4b3d cea9 38bd 124d 513d fd33 0e3d
000000b0: afa6 94bd 52a5 89bd cd15 bf3c 2152 883d
000000c0: 393a 46bc b583 373d 7a58 f23d 62a7 04bd
000000d0: d08b bc39 71c2 7cbd bed1 bdbb d5fe e33c
000000e0: 765f c53d 06a7 703d d09a db3d e748 18bd
000000f0: 486f 0ebd 739f dd3c 5504 94bb 920d b5bb
00000100: 2439 623b 5d11 d339 2f22 96bc 0078 15bc
00000110: 915b c1bd 2482 3ebd 6dbe 79bd bcb0 0abd
00000120: 6b18 3ebd 8091 f83d 11c4 c13d 5192 05bd
00000130: 1607 a1bd 1eea acbd 056b 793c d3bf 043c
00000140: 2f91 293d 4387 e83d 9f97 883b 3ebf b7bd
00000150: 27d7 753d fdec c73c 569d 723d 1529 6bbd
00000160: 35e8 7b3d 9eec cb3d 6070 b2bb 263a 7ebc
00000170: 34d6 533d 657c 67bc b114 83bc 2ac5 02bd
00000180: d1cc 873a 54af 04bd 493e 6b3d 9ad2 5bbd
00000190: b333 233d 9ce2 d23c 5f1e 07be 21ef 1c3e
000001a0: 77c3 83bd 5a61 11bd dc77 1d3d 4b34 c33d
000001b0: 4bba 99bd 0ec6 c9bd 5fd9 31bc 48f9 b9bc
000001c0: ba77 5b3d 12ed 0bbd a387 a8bd cf4d ecbd
000001d0: 4bc9 013d c739 c6bb be1c 2fbc 3e95 cd3d
000001e0: b0dc 93bd 53e4 3abd d8e6 ce3d 2ccf e73c
000001f0: 7a06 203d fa6a f8bb 3ebd d73d 8aa1 673d
-0.05538004 -0.02899175 -0.12439145 -0.0503755 -0.041334674 -0.10263583 -0.0075574336 -0.04330332
-0.07247886 -0.033456564 0.05461964 -0.07877775 0.011084968 0.030660352 -0.11596987 0.027370507
-0.0559636 -0.07136918 0.08859434 0.043519378 0.060326148 0.0838398 0.017079722 -0.004159746
-0.0146783935 -0.12420269 0.104493946 0.11174258 0.044901848 0.03117538 -0.026603358 -0.0465541
0.015310053 -0.06930684 -0.118166625 0.090940386 -0.013474471 0.09980031 -0.022678468 -0.06539103
0.049693733 -0.045083813 0.05109889 0.03471755 -0.07258355 -0.067209855 0.023325825 0.0665629
-0.012098842 0.04480334 0.11833282 -0.03238619 0.00035962323 -0.06170887 -0.0057928255 0.027831474
0.09637348 0.058753036 0.107228875 -0.0371789 -0.034774095 0.02705357 -0.004517118 -0.0055252993
0.0034518922 0.00040257993 -0.018326847 -0.0091228485 -0.09441293 -0.04651083 -0.06097262 -0.033859953
-0.046410006 0.12137127 0.09461225 -0.03261024 -0.0786268 -0.08443092 0.015223269 0.008102375
0.041398223 0.11353924 0.0041684653 -0.089720234 0.06001964 0.024404997 0.05923208 -0.057412226
0.061500747 0.099572405 -0.005445525 -0.015516793 0.051717952 -0.014128779 -0.016001077 -0.03192631
0.0010360723 -0.03239377 0.057432447 -0.053667642 0.039844226 0.025742821 -0.1319518 0.15325595
-0.06433766 -0.035493232 0.038444385 0.095314585 -0.07506236 -0.09852229 -0.010855048 -0.022701874
0.053580977 -0.034161635 -0.08228996 -0.11538278 0.03168611 -0.006049368 -0.010688005 0.10038231
-0.07219827 -0.045627903 0.10102624 0.02829703 0.039068677 -0.007581112 0.10534142 0.05655054

convs.0.bn1.weight f4 [128]
00000000: a10c a640 9e96 ab3f 5b6b a740 dda3 cb3f
00000010: 994c 0641 6c6f 2c3f 1cb1 8840 6237 f23f
00000020: 6c3d 8a40 e8e9 a340 95c3 1a3f 81f5 ebbf
00000030: 525c 0a41 a034 6140 8597 bd3f 9db5 473f
00000040: 7936 1b40 bded c73d 2773 0841 20a2 263f
00000050: ff66 3540 42db cb40 e0fe 0741 6351 d03f
00000060: 1835 a13f ff44 3140 caa2 4341 7ccc 2741
00000070: c093 4fbe 6757 bf3f 16b0 d23f 7875 9c3f
00000080: 8a41 d140 04e3 6741 86c0 0140 5262 0ebc
00000090: f6bc 8340 c11b af3f f883 1b41 b32d 0f41
000000a0: a481 f440 e99c 5e40 103a 9540 ae9e c240
000000b0: f32c 4e3d f1ad 8e40 f3dc 8240 1a87 c6be
000000c0: 0fff e940 b412 9d40 b44a a7be 6a41 5441
000000d0: 05e9 2c41 dc95 b33e 76c4 1e40 2be2 2e40
000000e0: 111c bf40 e476 f140 833a b13f 3cd9 a83e
000000f0: 652f a93e e0c1 e13c 0481 eb3f 8dfb b73d
00000100: ba3f e13f aec9 003f fa83 b53f 6edc 093f
00000110: db1a 0c40 4b16 0abf 3915 3e3f 40c5 873f
00000120: 72c8 a5bf a19d 0341 0f7c 8f3e 92e7 333e
00000130: fc41 713d 9d52 b040 5b10 e9bf ebe4 7e3f
00000140: 616f c2bd 0145 8b3f 45c8 c8bc 9e7e 99bf
00000150: 7bc9 9a40 c956 f840 6e47 223f ae45 4440
00000160: 8684 f73f 392d a83f c068 d83f 2d59 a5c0
00000170: 9b13 42bf e85e 9f3f 2d4d a440 adb9 913f
00000180: 0a99 623f 1d0f 4b40 0b81 343f 693d 2b3f
00000190: 94d4 403e b5b6 b43e 1cd7 9f3e a71e 4c3d
000001a0: bca2 1340 0906 2bbe 1301 be40 6f25 b6bf
000001b0: b919 14bf 1e22 c33e e4ab 6740 5491 2b3f
000001c0: a94a 81bf 2689 dec0 e0f7 a6bf 2949 693e
000001d0: 9583 bbbf fafd a5bf 2e9a 2c40 bc6b 8940
000001e0: 543f 2940 155e 1d3d b603 5640 1836 dbbd
000001f0: 8379 06c0 129b 01bf 1c6f 97bf ea1f d93e
5.1890416 1.340534 5.231855 1.5909382 8.393701 0.67357516 4.27162 1.8923151
4.319998 5.122303 0.60454684 -1.8434297 8.647539 3.518837 1.4811865 0.78011495
2.4251997 0.09762142 8.528113 0.65091133 2.8344114 6.370515 8.499725 1.6274837
1.2594328 2.7698362 12.227243 10.487423 -0.20271206 1.4948548 1.6459987 1.2223349
6.5392504 14.492924 2.0273757 -0.008690434 4.1168165 1.3680345 9.719719 8.948657
7.6408253 3.478327 4.6633377 6.08187 0.050335836 4.458733 4.0894713 -0.3877495
7.312385 4.908533 -0.3267418 13.26597 10.80689 0.3507527 2.480741 2.7325542
5.972176 7.545763 1.3845981 0.32978237 0.33043972 0.027558267 1.8398747 0.089835264
1.7597573 0.5030774 1.4180901 0.53851974 2.1891391 -0.53940266 0.74251133 1.0607071
-1.2951796 8.225984 0.28024337 0.17568806 0.05890082 5.5100846 -1.8208116 0.9956805
-0.094939 1.0880433 -0.024509558 -1.1991765 4.837095 7.760594 0.63390243 3.066753
1.9337318 1.3138801 1.6906967 -5.1671357 -0.75811166 1.2450838 5.134421 1.1384789
0.8851477 3.1727974 0.70509404 0.6689058 0.18831092 0.35295644 0.31218803 0.04983392
2.3068075 -0.16701521 5.937631 -1.4230174 -0.5785175 0.38111967 3.6198664 0.6701863
-1.010091 -6.9542418 -1.3044395 0.22781815 -1.4649531 -1.2968132 2.6969104 4.294401
2.6444902 0.0384198 3.3439765 -0.10703677 -2.1011665 -0.50627244 -1.1830783 0.4240716

convs.0.bn1.bias f4 [128]
00000000: a5b3 dfbf 0e59 8fbe 7a28 2240 eeea 19bf
00000010: b3b3 ad3f 3898 97bf e915 3c3f 7181 da3f
00000020: 2e32 d53d 220b e3be d344 9540 57cf ce3f
00000030: fe53 b240 92c8 4fc0 5b4e 1240 30b1 1040
00000040: 5c54 b63f f652 9d40 18af c0bd 4c7c 1341
00000050: 6da6 a340 23cc f5bf 2696 2d40 0743 263f
00000060: d108 983e 249a 0840 5b42 8340 b96b b1c0
00000070: 6a92 ab40 0b92 983f 537d b840 1a79 0e41
00000080: d862 143e ed5c fac0 82e0 9440 fc76 0840
00000090: a0d4 be3f c2dc 4340 3a8a ff3f 2c00 25bf
000000a0: 52c8 bd3f 5e15 0141 5c6e dfc0 bf34 f83f
000000b0: 4ed1 0f40 3226 8840 0e6b e33e ffd0 0141
000000c0: ebf8 21bf cc15 a7c0 6f38 8f3f 4625 65be
000000d0: debd 0340 98d5 0441 5e44 c93e 65c8 8cc0
000000e0: 299e e63d a2aa 1840 a16a 32c0 e5dd dc40
000000f0: 4de3 4f40 1f71 2340 0654 d340 cfca 3241
00000100: b195 2340 2433 6f3d 4d6a d840 a1e0 493f
00000110: f297 da3f 59c1 b940 f3e4 4b40 c52e 6040
00000120: 9fa1 1c41 ef6c 93bf 5207 5c40 3c92 0640
00000130: 02a9 9841 849b 80c0 14f9 3e3d 4f82 483e
00000140: 9afc a540 8147 ac40 a112 b340 38cf 0d41
00000150: 585b 9cbc 1b89 f7bf cc08 3d41 6ad3 9abf
00000160: a7a6 32bf dc64 3040 15a6 b140 cb31 a9c0
00000170: 92d9 4f40 423e db3e 9478 abbe e017 f240
00000180: 5415 6140 b4a0 5c40 aaf9 1041 5b72 1540
00000190: f53c 2a40 b5da 1140 e65e 1a41 12f2 f940
000001a0: 4240 4240 4589 7941 3cb7 0cc1 a69e 4241
000001b0: 4fd7 e73f b386 d540 e12f d63f 3711 8f40
000001c0: c2ba bf40 7af0 6dbe 5ed9 a43f 11e4 0841
000001d0: 7ae1 de40 57b7 8d40 651f bb3f d96b 5ac0
000001e0: 333c 1340 8aef 2541 9c21 25bd 3fbf 7f40
000001f0: ab3f 8640 ccad de3f fb20 0c41 0493 1a41
-1.7476698 -0.2799763 2.5337205 -0.601241 1.3570465 -1.1843328 0.7347093 1.7070752
0.10409962 -0.4434443 4.6646514 1.6157025 5.572753 -3.2466168 2.2860324 2.2608147
1.4244494 4.916377 -0.094083965 9.217846 5.1140656 -1.9202923 2.7122893 0.64946026
0.29694226 2.134408 4.10185 -5.5443997 5.361623 1.1919569 5.7652984 8.904566
0.14490831 -7.8238435 4.6524057 2.1322622 1.4908638 3.060349 1.9964058 -0.6445339
1.4826758 8.067717 -6.9822216 1.9391097 2.24715 4.2546625 0.44417614 8.113524
-0.63270444 -5.2214108 1.1189097 -0.223775 2.0584636 8.302147 0.39309973 -4.399462
0.112606354 2.3854146 -2.787758 6.9020867 3.2482483 2.5537794 6.604007 11.174514
2.5560114 0.05839838 6.762976 0.7885838 1.707762 5.804852 3.185849 3.5028546
9.789458 -1.1517619 3.4379468 2.1026754 19.082523 -4.018984 0.04662426 0.19580959
5.187085 5.3837285 5.596024 8.8630905 -0.019086525 -1.9338716 11.814648 -1.2095768
-0.6978554 2.756156 5.5515237 -5.2873282 3.2476544 0.42820936 -0.3349043 7.5654144
3.5169268 3.4473085 9.060953 2.3351047 2.6599705 2.2789738 9.648169 7.8107996
3.035172 15.596013 -8.794735 12.163733 1.8112582 6.672693 1.6733361 4.4708514
5.9915476 -0.23236266 1.2878835 8.55568 6.965024 4.4286304 1.4618956 -3.4128325
2.3005493 10.370981 -0.040315256 3.9960477 4.195272 1.7396789 8.758052 9.6608925

convs.0.bn1.running_mean f4 [128]
00000000: 6c35 bdc3 7dd7 f2c3 eb8d db44 b7b3 b743
00000010: b58d 2ec5 ca15 9d45 eb09 02c5 7a18 96c4
00000020: ec88 81c3 500e 13c5 9397 1ec5 ea19 1a44
00000030: e884 35c4 f0ea 0244 28d8 57c3 e76b 68c3
00000040: f421 c0c4 071a 2f45 8983 4b45 61cd 09c5
00000050: 3c88 bcc4 70fa 8544 6e34 4ac5 dc9f 0d44
00000060: fa9f a744 0469 a8c4 ead8 9c44 7481 8f45
00000070: 3f3b 6342 3894 3b45 9410 4143 c6b7 49c1
00000080: 4aac dfc4 b690 c1c4 192d 2a45 bb66 0144
00000090: 85f5 51c2 bfef 0f45 8052 58c5 914b ee41
000000a0: 8e6d 78c4 d982 4e45 e44f 5744 030a 1944
000000b0: 739b cc44 baff 5e44 0c12 88c4 129f b4c4
000000c0: 41e3 d6c4 3864 6044 f308 88c4 e3ad 8fc4
000000d0: a030 09c5 2bc4 2445 3093 5444 c9c6 6344
000000e0: 3e89 87c4 5a2b d0c4 583b 2744 2649 6ec3
000000f0: a65b 8045 4fa9 2742 314e 2a45 3dff 67c3
00000100: bdfc d4c4 4d4e 2dc4 4e20 b4c4 5e4d ae43
00000110: 5046 9bc4 f354 c443 c094 42c5 e884 42c5
00000120: 5a3a 22c4 75e9 0ec5 b87a 57c5 4e49 e843
00000130: a17d a0c4 8f5a 2b44 cfc4 01c5 d73c d8c3
00000140: 94ec 0a44 04a0 5045 2cf7 5345 945d e444
00000150: 250f 29c5 3dc9 8a44 3a25 a2c5 dd54 e442
00000160: f589 d644 19b7 06c5 d14e 7dc5 f17d 9945
00000170: 6df8 90c2 f280 ecc4 8b03 3ac5 e51c 1741
00000180: 0533 7bc5 56ec 12c3 295d 2a45 75bd 21c4
00000190: 23bd d0c3 e686 3d44 2866 d9c5 4102 29c5
000001a0: 4e6f a1c4 2f43 5045 bdc2 3443 5a36 7545
000001b0: 98c7 92c4 eb8e 78c4 5388 2cc5 c7fd 4e45
000001c0: 7bfa 8ac5 113a a344 df87 29c5 2fe2 94c5
000001d0: 00b8 68c5 0035 ce45 262e ae44 757b 9e44
000001e0: 77fe d9c4 e63d 4dc5 44d6 c344 a4f7 25c5
000001f0: 0e6a 2045 a3ee 5a44 e7f4 3fc5 af2c 3843
-378.41736 -485.6835 1756.4349 367.40402 -2792.8567 5026.7236 -2080.6199 -1200.7649
-259.0697 -2352.8945 -2537.4734 616.4049 -726.07666 523.6709 -215.84436 -232.4215
-1537.061 2801.6267 3256.221 -2204.8362 -1508.2573 1071.8262 -3235.2769 566.4978
1340.9993 -1347.2817 1254.7786 4592.1816 56.807858 3001.2637 193.06476 -12.607367
-1789.384 -1548.5222 2722.8186 517.60516 -52.489765 2302.9841 -3461.1562 29.786898
-993.7118 3304.178 861.2483 612.15643 1636.8578 891.9957 -1088.564 -1444.971
-1719.1017 897.5659 -1088.2797 -1149.434 -2195.039 2636.2605 850.2998 911.106
-1084.2888 -1665.3547 668.92725 -238.28574 4107.456 41.91534 2724.887 -231.99702
-1703.8981 -693.22345 -1441.0095 348.60443 -1242.1973 392.66367 -3113.2969 -3112.3066
-648.91174 -2286.591 -3447.67 464.5727 -1283.9259 685.415 -2076.3005 -432.4753
555.69653 3338.001 3391.4482 1826.9243 -2704.9465 1110.2887 -5188.6533 114.16575
1716.3112 -2155.4436 -4052.926 4911.7427 -72.48521 -1892.0295 -2976.2214 9.444554
-4019.1887 -146.92319 2725.8225 -646.96027 -417.47763 758.1078 -6956.7695 -2704.1409
-1291.4783 3332.199 180.7607 3923.397 -1174.2373 -994.2331 -2760.5203 3311.861
-4447.31 1305.8146 -2712.492 -4764.273 -3723.5 6598.625 1393.4421 1267.858
-1743.952 -3283.8687 1566.6958 -2655.4775 2566.6284 875.7287 -3071.3064 184.17455

convs.0.bn1.running_var f4 [128]
00000000: 44cc bf49 b283 2848 fc76 b949 6024 fb47
00000010: 07e8 8d4a d7c4 bf4a 7030 c14a c1f3 984a
00000020: e5a0 0c4a 8b9e 4d4a 602a 054a 0eae 8c48
00000030: e434 1b4a 2eee 8c48 f27d f948 93cb 4647
00000040: f9be f849 c2b4 094a 112b 5a4a ef4a 5f4a
00000050: aaab 6c49 321e 7549 022e 544b 468d 284a
00000060: 07ab 0b49 2a2a af4a 93b8 3549 3d8c ba4a
00000070: 6c66 3a49 684d 9e4a 21ba 7049 f55f 1b4a
00000080: 6f26 6b4a 2316 8549 379e 964a bed6 b348
00000090: 7f40 db47 32ee b749 3dd9 484b 8fd7 8a4a
000000a0: 2037 974a 8bc8 394a b1fc c148 c707 c04a
000000b0: 5720 9949 533d 5e4a 73cd 8449 2fc8 6449
000000c0: f681 a04a 42cd 0e4a 3a12 7749 d21e f94a
000000d0: ac2d 404a 0fb6 8e4a 8955 7349 c4b4 8b49
000000e0: 369b b54a 6a98 954a 0450 f549 ad4d ff48
000000f0: 8939 894a 7289 a148 ae5f ed49 01b0 794a
00000100: 0a4c c149 cc79 9348 4d4a 1c4a 5220 9147
00000110: a4be d94a b6b8 a749 baf9 0e4b 146c 094b
00000120: fa97 8e49 a5b6 834a bec1 8e4a eef8 9e48
00000130: db2c 224a 4ebb b448 e593 af49 3fcd 2c48
00000140: 8892 3d4a 0dd9 594a c151 bf4a aac9 804a
00000150: 9eb9 2d4a 9c38 9f49 6316 934b b235 4d4a
00000160: fafb 2a49 c204 044b efbc 064b d955 ff4a
00000170: 8ebc 9749 2b2e 664a d2fe d94a d58a 3c4a
00000180: b3f0 8d4a 8ce8 db4a d767 a74a 35bc 1b49
00000190: 2209 f447 4651 664a 597b a54b 9d48 f14a
000001a0: d64a d24a be5d 644a 2ec5 a248 6ed1 cd4a
000001b0: f4e6 9749 f225 944a c3e3 624a a647 6e4a
000001c0: bc2d d04a cc00 5f4a fcd7 224a 0f8a 994b
000001d0: 4eb7 a64a f9ba 9f4b 1b87 3849 698b a749
000001e0: 6c29 c74a 4077 e74a cd92 9949 22f1 7f4a
000001f0: 7677 a84a 7ed4 2349 4f2a 624a fdb8 cb4a
1.5712085e+06 172558.78 1.5193275e+06 128584.75 4.6499875e+06 6.2838835e+06 6.330424e+06 5.0119365e+06
2.3040572e+06 3.3688668e+06 2.181784e+06 288112.44 2.542905e+06 288625.44 510959.56 50891.574
2.0377271e+06 2.2561765e+06 3.5744682e+06 3.6584278e+06 969402.6 1.0040031e+06 1.390541e+07 2.7615535e+06
572080.44 5.739797e+06 744329.2 6.1127985e+06 763494.75 5.187252e+06 986018.06 2.5456612e+06
3.8526998e+06 1.0902444e+06 4.9354515e+06 368309.94 112256.99 1.5067582e+06 1.3162813e+07 4.5495755e+06
4.955024e+06 3.0438748e+06 397285.53 6.2924515e+06 1.2544109e+06 3.6411728e+06 1.0879184e+06 937090.94
5.259515e+06 2.3396645e+06 1.0120036e+06 8.163177e+06 3.148651e+06 4.6763595e+06 996696.56 1.1444725e+06
5.950875e+06 4.901941e+06 2.0096005e+06 522861.4 4.4965805e+06 330827.56 1.9445658e+06 4.0908802e+06
1.5834892e+06 302030.38 2.5606592e+06 74304.64 7.135058e+06 1.3739748e+06 9.370042e+06 9.0061e+06
1.1681272e+06 4.3159865e+06 4.677855e+06 325575.44 2.6570788e+06 370138.44 1.4383326e+06 176948.98
3.105954e+06 3.5692192e+06 6.2691525e+06 4.220117e+06 2.8463115e+06 1.3043395e+06 1.9279046e+07 3.3621565e+06
700351.6 8.65197e+06 8.830191e+06 8.3668285e+06 1.2430258e+06 3.7712748e+06 7.143273e+06 3.0890772e+06
4.6510975e+06 7.205958e+06 5.4855475e+06 637891.3 124946.266 3.7735215e+06 2.1690034e+07 7.9063825e+06
6.890859e+06 3.7415515e+06 333353.44 6.744247e+06 1.2443825e+06 4.854521e+06 3.7173608e+06 3.9039775e+06
6.821598e+06 3.653683e+06 2.668031e+06 2.0124702e+07 5.462951e+06 2.0936178e+07 755825.7 1.3725251e+06
6.526134e+06 7.584672e+06 1.2580736e+06 4.1933525e+06 5.520315e+06 671047.9 3.7054918e+06 6.6755825e+06

convs.0.bn2.weight f4 [64]
00000000: 0231 8b3f 0672 483f db66 97be ff6d adbd
00000010: 5d6f 913f 6e82 ad3f 564e fa3e 056f 3f3f
00000020: b040 8c3f d7fd a13f 8b49 00c0 4bbe 963e
00000030: 786f 5e40 c8ef 5f40 ea61 183f d0ca eb3d
00000040: 06e5 9f3f 1307 0140 ca2b 3d3f a1b6 0dbe
00000050: fab4 5540 8ff9 a540 aa8a cf3f baaf 8e3f
00000060: beec 08c0 2280 983f 4ac9 ea3e 3c09 aa3e
00000070: 7081 ec3d c751 0b3f d34d d63f 6d1a 5f40
00000080: 7549 79be 5bfc 553f 833d cd3f fcb9 2e40
00000090: c405 0f3f 1d7b 4140 85c8 c53f 753d 0340
000000a0: 795b 913f e403 f33e 7eef a23e 4fc1 933f
000000b0: 42eb ca3e bdc3 0640 d7f4 8c3f 6fa5 f43f
000000c0: d5da 1b3f fb41 f13f 786e 00bf 8ac5 0640
000000d0: eb62 0b40 f192 b03f 5cc8 4740 03e7 7840
000000e0: f884 943f c773 8b3e 8a7e af3f 380b ecbf
000000f0: dbba 95bf 06d9 013e 3f9c 023c abb6 57bf
1.0874331 0.78298986 -0.2957066 -0.08468246 1.136211 1.3555429 0.4888789 0.7477878
1.0957241 1.2655591 -2.0044887 0.29442057 3.4755535 3.49901 0.59524405 0.11513293
1.2491767 2.0160568 0.7389494 -0.13839199 3.339171 5.1867137 1.6214192 1.1147377
-2.1394496 1.1914103 0.45856696 0.3321017 0.11548126 0.5442166 1.67425 3.485988
-0.24344428 0.8358819 1.6034397 2.7301016 0.5586817 3.0231392 1.5451819 2.050626
1.135604 0.47463906 0.31823343 1.1543368 0.39632612 2.105697 1.1012219 1.9112986
0.60880786 1.8848261 -0.5016856 2.1058068 2.1779125 1.3794843 3.121604 3.8890998
1.1603079 0.2723677 1.3710492 -1.8440924 -1.1697649 0.12680444 0.007971822 -0.84263104

convs.0.bn2.bias f4 [64]
00000000: ff15 4fc0 d004 04c1 a35d 8ac0 7741 1dc1
00000010: 9b28 91c0 68da 4ec0 2702 cbc0 82d0 b2c0
00000020: c4b4 56c0 17ea 2dc0 e0e3 80c0 c525 1cc1
00000030: 2c79 9bc0 3343 52c0 1641 8ac0 e1cd a5c0
00000040: 3e3c 54c0 0a57 82c0 e96a dcc0 af7b 04c0
00000050: 5751 edc0 a89c c0c0 ef04 d3bf 2f6d 78c0
00000060: 7e8f 8cc0 f76a 9dc0 ddae 32c0 faa7 4fbf
00000070: b071 b6c0 de81 84c0 0154 7dbf f85f a2c0
00000080: bb69 3ac0 59ee b0bf 628e 20c0 eb2a acc0
00000090: 41e1 c4c0 57ae bec0 4de7 b0c0 fdd4 80c0
000000a0: 715d b1c0 07d1 28c0 650c eabf 4a7a 1cc0
000000b0: 75bd a1c0 66d5 4dc0 9319 b1c0 6dda 9bc0
000000c0: c239 aec0 9ff4 f8bf f10d aac0 fa80 47c0
000000d0: 6f65 63c0 11ad a9c0 d9fd 6cc0 e547 98c0
000000e0: 6c47 8fc0 4a8e 44c0 572f 8fc0 f664 bcc0
000000f0: 16cd 4cc0 2c0e 35c1 4b3f 8ec0 59d0 acbf
-3.2357175 -8.251175 -4.3239303 -9.828483 -4.5362067 -3.2320805 -6.3440127 -5.5879526
-3.354783 -2.7174127 -4.027817 -9.759221 -4.8585415 -3.2853515 -4.320445 -5.1813817
-3.316177 -4.073125 -6.8880506 -2.070049 -7.416179 -6.019123 -1.6485881 -3.881664
-4.392516 -4.919307 -2.7919228 -0.81115687 -5.701378 -4.140853 -0.98956305 -5.074215
-2.9127033 -1.3822738 -2.5086904 -5.380239 -6.152497 -5.9587817 -5.528235 -4.0259995
-5.5426564 -2.637758 -1.8285033 -2.444964 -5.054377 -3.2161498 -5.534372 -4.8704133
-5.4445505 -1.9449652 -5.314202 -3.117247 -3.553066 -5.3023763 -3.7029936 -4.758776
-4.4774685 -3.0711846 -4.474529 -5.8873243 -3.2000175 -11.31596 -4.445226 -1.3501083

convs.0.bn2.running_mean f4 [64]
00000000: e314 9e41 3017 9940 6034 4c42 bb89 ea40
00000010: 7cb1 9941 1c5c 8d41 1a91 a541 1f7a 0642
00000020: f6a5 3c42 b88d 7a41 29e3 2442 9001 9441
00000030: d4c9 2243 a6e3 f640 d1bb 2241 c0fe 1f41
00000040: 84cd 1e42 1375 8042 44a7 2142 4cb6 d442
00000050: cef8 c941 eb1b 0142 7c7b 8d42 0583 2a41
00000060: e446 e140 d7fd dd41 25c1 1b42 9304 993c
00000070: d76b 1d42 bc10 1d41 8ddd d641 5f8c b542
00000080: cde3 ac41 bc3d b541 ccc8 cf42 45f0 d141
00000090: 3d00 8a41 ce42 d141 f7e0 4842 d489 1442
000000a0: 2f5a d841 c719 3643 df2c 163f 55bc b442
000000b0: 4269 ac41 2d11 7c42 a13e a641 c734 5742
000000c0: a239 b441 1cf2 9841 5e5b 7c41 f0f9 2642
000000d0: 78c1 e341 1373 5542 0b93 b141 7810 ad3f
000000e0: f556 c041 e565 7542 2f88 8740 a37d 4042
000000f0: 8132 4342 ceb1 aa41 4008 d142 07cd e742
19.760199 4.7840805 51.051147 7.329313 19.211662 17.669975 20.69585 33.61926
47.16207 15.659599 41.221836 18.500763 162.78839 7.715289 10.170854 9.999695
39.7007 64.22866 40.413345 106.35605 25.246487 32.277264 70.74118 10.656987
7.0399036 27.748945 38.938618 0.018678939 39.355312 9.816586 26.85818 90.77416
21.61123 22.655144 103.89218 26.24232 17.250116 26.15762 50.219692 37.134598
27.044035 182.1007 0.5866222 90.367836 21.551395 63.016773 20.78058 53.80154
22.528141 19.118217 15.772306 41.74408 28.469467 53.362377 22.196798 1.3520651
24.04246 61.349506 4.235374 48.122692 48.79932 21.336819 104.51611 115.900444

convs.0.bn2.running_var f4 [64]
00000000: 3ea4 1042 5982 0341 2ae3 6042 37fe 0a42
00000010: 9156 a642 0c43 cf40 d8b4 fa41 3700 7942
00000020: e39d 5543 3b33 9043 9647 0b41 b67e bf41
00000030: b62f 9e45 9e62 6b42 66a3 3642 eb8f e641
00000040: b669 a843 b294 0743 1ca5 7742 3131 4d43
00000050: f600 8743 21dd 6c44 fa43 cb43 2595 2943
00000060: 806d 0f42 d4d6 5a42 850a 0042 7cfb c739
00000070: 8820 9142 83b5 3c42 189e a742 21a8 9342
00000080: c601 0e42 ce65 0c43 01e4 1e41 cf66 2942
00000090: 42f6 6043 8a5f 8b40 8764 4843 8a6b 5143
000000a0: 49f4 c742 d9fd 1842 fe5e 3d3f e92a da43
000000b0: b9e3 df41 f5d4 1444 777e 3043 ac77 3442
000000c0: e62b 6042 46b0 c043 c1fb 9642 84a4 6443
000000d0: 02ba ae42 ff13 2441 1bbd ac43 c4fb 3e40
000000e0: 5a86 d242 1a5d a143 316e 8541 bdf3 bd3f
000000f0: e93e f843 df6b b641 f6ea 4142 da2e 7941
36.160393 8.219323 56.22184 34.748257 83.169075 6.4769344 31.338303 62.25021
213.61674 288.40024 8.704977 23.93687 5061.964 58.846306 45.65957 28.820272
336.82587 135.58084 61.91124 205.19215 270.0075 947.45514 406.53107 169.5826
35.856934 54.709793 32.010273 0.00038143608 72.56354 47.177258 83.80878 73.82838
35.50173 140.39767 9.930665 42.3504 224.96194 4.3554125 200.39268 209.42007
99.97712 38.2479 0.7397307 436.33524 27.986193 595.32745 176.494 45.116867
56.04287 385.37714 75.49171 228.64264 87.3633 10.254882 345.4774 2.9841166
105.262405 322.72736 16.678804 1.4840008 496.4915 22.802671 48.479454 15.573938

convs.1.fc_full.weight f4 [128, 169]
00000000: 4edd 57c0 cf4e 92bf 388b 90be af32 d93e
00000010: d135 2740 2328 9840 e64c ef3f 2554 d5bf
00000020: 66a1 b3bf 67c4 833f a8e7 9bbf 4508 39bc
00000030: 04f8 813f d622 7e40 7a77 6940 3432 cebe
00000040: 35c6 5640 e489 54bf fcd6 13bd aba0 e23f
00000050: 5fdc 45c0 94cb 0cbf 0014 c43e f7e8 a540
00000060: 0d51 2ac0 7e1e dd3f 1f71 0c3f 2a38 a83e
00000070: 0311 b83f e1e2 6d40 c581 05c0 3d25 e4bf
00000080: 5384 153f e864 353f 5c69 10c0 ee6a c5bf
00000090: abb6 103f 941d bb3f 3edd 5c40 6bfd 89be
000000a0: 2b28 aebe a303 72bf 28e7 f23f 0e5d aabf
000000b0: 88e6 af40 3a6c 40c0 2345 1940 b1e3 04bf
000000c0: 2006 17c0 1162 57bf f7b5 f93e ce14 c9bf
000000d0: b385 33bc 5a62 a3bf e0bd 8cbf d6e4 7f3d
000000e0: 34cf a2bf d4ab 44bf ebcb 50be e23f bd3d
000000f0: a417 9f40 1f3c 1ebe 10f9 f5bf 1e96 263e
00000100: 5ad9 9fbe de9e 4ebf 31de 92be 4b9c ed3d
00000110: f0ff 5540 277c cabe e23f 33bf e70b b240
00000120: 42e3 3ebc 155b 2bbf 36a8 1840 863d 42bf
00000130: 7665 693f 4aab 883f 0766 81bf 4011 0040
00000140: ed9d 34c0 8851 17be a8fa 523f d5e2 a740
00000150: 4859 4fbe c502 f6be 69db 1c41 3542 7dbf
00000160: 1051 67bf 5ba3 a740 118c 60bf c8ec b8be
00000170: 8661 e4bf 9cb7 b0bf fe46 35c0 8172 8fbf
00000180: 6624 fa3e 88e3 893f 21c8 7740 74ca 15bf
00000190: f777 233e 0f58 4dc0 21d7 b040 8175 db3f
000001a0: 9279 ab3f 623c c93f ad22 bac0 5ae4 943f
000001b0: 0afa 143f aeda 7a3f de5e 4c40 8793 683f
000001c0: f383 0dc0 d51e 8dbf 0b99 35c0 e6ee 6c40
000001d0: 7c87 f7be 385c 8140 e789 82bf 3b2a 1240
000001e0: ed54 a33f 7a43 1b40 ec62 22c0 8aa0 823f
000001f0: eed6 5440 2b2c f4be 45a0 1a3e 8a59 c33f
00000200: 88dd 3840 4ab1 2240 7bee 67c0 c4d1 dfc0
00000210: cecc c9c0 fcd0 b1c0 8a4a 2e40 a7cb 303f
00000220: ab92 d7c0 522a 2dc1 9d01 15c0 ac43 0141
00000230: fedd 3d40 81e6 bbc0 bfd5 9040 0ec8 b640
00000240: 02be b43e 4101 1540 622c 6440 ff9e a240
00000250: 1040 1dc0 89b7 dfc0 020b 9dbf e474 a3bf
00000260: be64 47c0 76c8 02bf 6b2d b340 1978 df40
00000270: 9c31 1540 4b78 37c0 95d2 d4c0 d004 90bf
00000280: 0972 fabe e597 57be 6f91 db3f 7f66 0740
00000290: 64b2 f73e fe15 623d ae30 30bd 4100 e8bc
000002a0: 1422 e9bc fd36 b83f 8dbc 93bf da57 ca3f
000002b0: a519 97be a2b9 933e b390 d53f a143 1840
000002c0: efa1 6d40 671c 9e3e bd64 8040 d9e8 383f
000002d0: 6df2 39bf cd3e 9240 4db8 52bf 2a3b 1440
000002e0: 09d1 c13f 7d22 8d3f 3ee5 0040 f321 7c3f
000002f0: edef d83f 698d 9cbe d55a 1a40 eb8e b440
00000300: 9773 b93f 8e63 c23f 26f4 813f de3c d33f
00000310: e86c 603f 5cfc 833f 0053 f8be 3558 28bf
00000320: a23d 9440 2001 1340 0380 89be 3e3c 9d3f
00000330: 1721 ca3f a305 463f 8594 02c0 83d9 9540
00000340: 7815 5540 ddd8 5b40 fac8 fb3f 1fb4 a03f
00000350: 13dd 843f c688 d4bf 2944 8640 bf80 2540
00000360: f898 423f f61d 7cbe 30e6 d6bf e267 9c3f
00000370: 0704 2040 a912 c9bf eae2 5240 97e2 d93e
00000380: 9470 a23f 5934 9840 ff88 6940 be3c 6a3f
00000390: de5f ab3f 795e 2840 64e7 c83f b9e7 d93f
000003a0: c9ba 58bf b927 82c0 8130 85bf a93c 73c0
000003b0: 6b9c 32be b67d f440 959f f640 145c b63e
000003c0: 1009 6ac0 0d79 0440 a067 1dc0 f16d 97c0
000003d0: f4ca ac3f 7ef7 d1c0 03d4 b3bf 596e ba40
000003e0: 0298 91bf 18c7 c040 ccae 89c0 eed9 743f
000003f0: 5ca6 bfbf ba22 4e40 02a0 21c0 335f b9c0
-3.3728824 -1.14303 -0.28231215 0.4242148 2.6126597 4.7548995 1.8695343 -1.6666304
-1.403363 1.0294312 -1.2180071 -0.0112934755 1.0153813 3.9708762 3.6479173 -0.40272677
3.3558476 -0.83022904 -0.036093697 1.7705282 -3.0915754 -0.54998136 0.3829651 5.184688
-2.661197 1.727493 0.5486011 0.3285535 1.4380192 3.7169726 -2.0860455 -1.7823864
0.58405036 0.70857096 -2.2564306 -1.5423257 0.5652873 1.4618402 3.4510036 -0.26951155
-0.3401502 -0.945368 1.8976793 -1.3309648 5.496891 -3.0066056 2.3948448 -0.5190993
-2.3597488 -0.8413401 0.4877164 -1.5709474 -0.010957169 -1.276439 -1.0995445 0.062474094
-1.2719483 -0.7682469 -0.20390289 0.092407 4.971636 -0.15452622 -1.9216633 0.16268203
-0.31220514 -0.8071116 -0.28685144 0.11602076 3.3437462 -0.39547846 -0.7001935 5.563953
-0.011650862 -0.66935855 2.3852668 -0.7587513 0.9117044 1.0677273 -1.0109261 2.0010529
-2.822139 -0.14777195 0.8241372 5.2464395 -0.20248902 -0.48048988 9.803567 -0.9892915
-0.90358067 5.238691 -0.87713724 -0.3611815 -1.7842262 -1.3806033 -2.832458 -1.1206819
0.48855895 1.0772562 3.87159 -0.58512044 0.15963732 -3.2084997 5.526261 1.7145234
1.3396475 1.5721552 -5.816733 1.1632187 0.5819403 0.9798993 3.1932902 0.9085011
-2.2111785 -1.1025034 -2.837466 3.7020812 -0.48345554 4.042507 -1.0198334 2.2838275
1.2760292 2.4259934 -2.5372877 1.0205243 3.3256183 -0.47689947 0.151002 1.52617
2.8885212 2.5420709 -3.6239307 -6.994356 -6.3062506 -5.556761 2.7232995 0.6906075
-6.736654 -10.822832 -2.3282235 8.079021 2.9666743 -5.8718877 4.526092 5.7119207
0.35301214 2.3282015 3.565209 5.0819087 -2.457035 -6.991154 -1.2268984 -1.2770047
-3.1155238 -0.5108713 5.599294 6.9834104 2.331153 -2.866717 -6.650706 -1.1251469
-0.48915127 -0.21054037 1.7153758 2.1156309 0.4837829 0.055196755 -0.043015175 -0.028320434
-0.028458633 1.4391781 -1.1541916 1.580806 -0.29511753 0.28852564 1.6684784 2.3791277
3.7130086 0.30881044 4.012297 0.722303 -0.7263554 4.570166 -0.8231247 2.316111
1.5141917 1.102615 2.0139918 0.984893 1.694822 -0.30576637 2.411794 5.642446
1.44884 1.5186632 1.0152633 1.650295 0.8766618 1.0311389 -0.48500824 -0.65759593
4.6325235 2.2969437 -0.26855478 1.228401 1.5791348 0.7735235 -2.040315 4.6828017
3.3294353 3.4351113 1.9670708 1.2554969 1.0379966 -1.660424 4.1958203 2.585983
0.7601466 -0.24620804 -1.6788998 1.2219203 2.5002458 -1.570882 3.2950997 0.42555687
1.2690606 4.75639 3.6489866 0.91498935 1.3388631 2.6307662 1.5695615 1.7023841
-0.8466001 -4.067349 -1.0405427 -3.8005774 -0.17442481 7.6403456 7.70698 0.35617125
-3.6568031 2.0698884 -2.4594498 -4.7321706 1.3499436 -6.5614614 -1.4049076 5.82597
-1.1374514 6.0243034 -4.3025875 0.95645034 -1.4972644 3.2208695 -2.525391 -5.792871

convs.1.fc_full.bias f4 [128]
00000000: fff0 f9be 5bec a43f 4358 bfbd c98f 96bd
00000010: 82fd 83bd ddca abbd e890 29bc 3b7c ccbe
00000020: 932e e13d 1c87 3a3d 4e7f 44bf fb13 85bd
00000030: f487 94bc ffbc 36be 19fd 0c3f 03ba 803c
00000040: b38e 043e 3de0 98bc 97b4 35bd cf9a ce3e
00000050: d22c 863c db59 afbc e156 03bd 886d 19bd
00000060: bec9 edbc c153 f4bc c99f 7bbd a52e 613e
00000070: 0f1e 323c 0ef5 00bc d9d4 db3c 5414 23bd
00000080: 606e 6a3e 0e36 363e 8981 b63f 6357 55bd
00000090: 44db 323e 609f e13d fb52 22bf 594b 8dbd
000000a0: 65f2 23bd 034f 15bd 66ec 33bc 1709 b1be
000000b0: ef3d 15bd 6f0a 87bd 9c78 c93e d900 d33e
000000c0: 4482 fabc 71dd 233e d795 dfba a19a a63b
000000d0: 4d5d adbe fbb4 463d 47ce f9bd 0740 71bf
000000e0: 7cf9 8e3e c870 133d e75b a5bd 198e 26bd
000000f0: f3cf ffbe 848b f8bd ffca d83d 1ea6 183d
00000100: 9db3 213d 8d5b c4be 7362 5fbd f861 6a3d
00000110: 6e96 383f 0339 313d 4161 ccbc a54e cf3c
00000120: b214 63bf f8ac 4d3f 7a63 29bf 09eb f5bc
00000130: 4338 fd3c 3bc7 bb3d 08c5 c53f 699c cabc
00000140: c49e a3bd 80ac 323d a511 a33c 505a 763e
00000150: 822c 1c3f ec2a a63e 816f 59bd 230b 483e
00000160: 421b 81bb 0a93 8e3d 7152 8c3f 36cc 413f
00000170: e40c c4b9 e0cc 733e 1c1d ccbc 8f07 5fbd
00000180: 9cda 7b3d 7179 06be 7dd5 87be 2caa 93bd
00000190: 37a1 1d3f 96ea 83bc dee9 63bf 1497 913d
000001a0: 2c59 aabe 9728 fa3c 482f 573f 7ca4 9fbf
000001b0: 10ed 68bf 9c9f 2c3d 06ef ed3d adc6 e4bd
000001c0: dfa8 7bbc dbed 9cbd 3cf9 793f 035c 50bc
000001d0: 7516 e6be 1786 b3ba 2f46 bf3d 76ce 04bf
000001e0: 9180 cd3e 3701 ecbe 0b4a ceba 5f05 ca38
000001f0: 3f5b cf3d e3bf 4f3e 89ca 9c3f 6395 e9bd
-0.48816678 1.288463 -0.093430065 -0.073516436 -0.06444837 -0.083883025 -0.01034949 -0.3993853
0.109952115 0.045539007 -0.7675675 -0.064979516 -0.018131234 -0.17845534 0.55073696 0.015713697
0.1294506 -0.018661613 -0.044361677 0.40352485 0.016378794 -0.021405151 -0.032065276 -0.037457973
-0.029026862 -0.029825093 -0.06143168 0.2199045 0.010871424 -0.007870926 0.026834892 -0.03981431
0.22893667 0.17794058 1.4258281 -0.05208529 0.17466456 0.110167265 -0.6340787 -0.06899137
-0.040026087 -0.036452305 -0.010981655 -0.34577248 -0.036436018 -0.06593787 0.3934983 0.41211584
-0.030579694 0.16002442 -0.0017058206 0.005084351 -0.33860245 0.04851244 -0.121975474 -0.9423832
0.27924716 0.03599623 -0.080741696 -0.04066286 -0.4996334 -0.121359855 0.105855934 0.037267797
0.039477933 -0.38351098 -0.054537248 0.057222337 0.7210454 0.04326726 -0.024948718 0.025306055
-0.88703454 0.80342054 -0.66167414 -0.0300193 0.030910617 0.091688596 1.5450754 -0.024732785
-0.079892665 0.04362154 0.019905875 0.24057889 0.61005414 0.32454622 -0.053084854 0.19535498
-0.003940017 0.06961639 1.0962659 0.75702226 -0.00037393637 0.23808622 -0.024916224 -0.054450568
0.06148778 -0.13132264 -0.26530066 -0.07210192 0.6157412 -0.01610307 -0.8902873 0.07108894
-0.33271158 0.030536933 0.8405652 -1.2472072 -0.9098673 0.042144403 0.11617856 -0.11170707
-0.015360086 -0.07662555 0.97645926 -0.01271725 -0.44939008 -0.0013696578 0.09339558 -0.51877534
0.4013715 -0.46094677 -0.0015738619 9.633111e-05 0.10124826 0.20288043 1.2249309 -0.114054464

convs.1.bn1.weight f4 [128]
00000000: 2d25 ca40 5ab5 f140 345e af40 7f8d ee40
00000010: b3c1 2c41 af1e f2bd ccc2 4440 e64f f940
00000020: b3aa 7641 eb44 7341 e5b4 8240 2414 723f
00000030: 4826 0740 f758 9041 1649 1641 e36c f840
00000040: 20c6 b33f e5aa 363f 13f2 1141 cfc7 a73f
00000050: 88e2 c840 4a7b 1b41 fae3 6040 de68 5d41
00000060: 865e 0a40 437d 163e 512e 4341 d420 2c40
00000070: 8c12 d13f 3274 c640 ffca 4a40 6f7c 0540
00000080: 196b 1c41 d57a dc40 5915 6340 750f 573f
00000090: 2b9d 0541 e256 983f 8dc6 3f41 337f 8b3f
000000a0: 96bb 0141 8517 df40 136b a240 2373 3b41
000000b0: 84b1 ca40 a804 c93a fd3f b33f 71d6 fe40
000000c0: f425 0840 676e 1741 c650 a540 a972 e240
000000d0: a192 cd40 a12e 0340 1ec7 4a40 2219 1041
000000e0: 650d 943f f5ec 2440 cae3 3f41 0ace eb40
000000f0: 3afa 3c41 dec2 7e40 6f5c 413f be68 7840
00000100: b328 fa3f cee0 f63f a20b 0b40 0a31 6141
00000110: 548d dd40 e539 e73d c8ef 1b40 79b2 2940
00000120: 7b74 7d40 cf8e c040 21ee db3f 0e61 86be
00000130: 9f12 8d40 d1a0 18c0 3ba9 a23f 7ee8 8c40
00000140: 4b47 b740 5670 ef3e 06f4 a13f cdf0 cd40
00000150: c62d c140 2e92 e240 3c41 4640 641a fe3f
00000160: f6be 3d3f 77e5 543f b07e 9440 2bd4 9940
00000170: 8c6b 81bf 2b4d e03f 1733 0b40 ca16 0ec0
00000180: d43c 2140 69de af40 7ecf 1141 b9d6 523f
00000190: 06b1 0f40 b355 3440 53f0 0740 758e 5e40
000001a0: e878 4240 0bc3 3ebf ded0 0a41 f9ea b33f
000001b0: 1226 4240 bf75 65ba 7052 3d40 5d26 1e40
000001c0: 72b9 6a3e dd41 b73f 2029 8f40 40bb 0b41
000001d0: 75d0 9341 ed0e 4d40 6873 8c40 ad0e f93f
000001e0: 0b2e 3740 c302 1d41 d789 8240 b6ba 0b40
000001f0: 5dca c93f 3a4d 8140 3fdf aa40 3432 a140
6.317038 7.5533876 5.4802494 7.4547725 10.79729 -0.11822259 3.0743895 7.791003
15.416675 15.204326 4.084582 0.9456198 2.1117115 18.04344 9.392843 7.763292
1.4044838 0.71354514 9.1216 1.3107852 6.2776527 9.7176 3.5139146 13.838102
2.1620193 0.14696221 12.198808 2.6895037 1.6333785 6.201684 3.16864 2.0857198
9.776147 6.889994 3.548178 0.8400796 8.350871 1.1901515 11.985974 1.0898193
8.108297 6.971621 5.0755706 11.71561 6.3341694 0.0015336471 1.4003903 7.963677
2.1273165 9.464454 5.16611 7.0764966 6.424149 2.049721 3.1684031 9.006136
1.1566588 2.5769627 11.993113 7.3689013 11.81109 3.9806437 0.7553167 3.881393
1.954367 1.9287355 2.172585 14.074472 6.923502 0.112903394 2.43651 2.651518
3.9602344 6.0174327 1.7182046 -0.26245922 4.408523 -2.3848155 1.2707895 4.4033804
5.7274528 0.46765393 1.2652595 6.4356446 6.0368376 7.080344 3.0977316 1.9851804
0.7411951 0.83162636 4.640465 4.8071494 -1.0110946 1.752355 2.1749933 -2.220141
2.5193377 5.4958997 9.113157 0.8235889 2.2451797 2.8177307 2.1240432 3.477445
3.0386295 -0.7451636 8.675993 1.4056083 3.0335736 -0.0008753202 2.9581566 2.4710915
0.22922304 1.4316975 4.47377 8.733215 18.476786 3.204036 4.3890877 1.9457604
2.8621852 9.813174 4.079326 2.183271 1.5764881 4.040677 5.3397517 5.0373783

convs.1.bn1.bias f4 [128]
00000000: 6d41 6b40 ff9a 05bf ab38 cbbf 0829 843e
00000010: 61ae 3dc0 6a50 dcc0 7a32 27c0 82e7 6e3f
00000020: 3b7a 92bf 2390 5bbf 281c f5bf 3dc8 6740
00000030: 7d94 2ebf 48c9 0e40 468d af3f c919 95c0
00000040: c64a e8be 4556 cc3f 50fa 9840 3c73 63c0
00000050: 3491 afbe 8f28 a83f 97e0 adc0 8967 b4bf
00000060: 9a5c 82c0 edfa 293d 9329 d9bf af0f e1bf
00000070: 5e93 c23f fe2b 0740 ff2d c6bf c161 9ebf
00000080: bad1 cbbf 9aec 56be c0ad 823e 99ca 643f
00000090: 087d 9ac0 b90e fbbf 85a6 55bf e69c e4bf
000000a0: 5f0b 13c0 a93f 03be 14ce 8ec0 ba3e ec3f
000000b0: 7ca1 2e3d 4c6a ddc0 25fd acc0 4d13 51c0
000000c0: b173 c03f 28cf 1a3f 2d88 a1bf e90d cebf
000000d0: 0c16 07bf e43b 2bc0 b9b2 1dc0 f7a2 8d3f
000000e0: c8e5 46c0 beec b1bf 319f a23e 9897 8bbe
000000f0: e46c fc3d 3c78 9b3f f913 f5be 833b 28c0
00000100: c34f 0041 d166 b740 7014 4dc0 d4f4 9b3f
00000110: 741a b53f d3b4 fec0 f19b 843d acb1 6c40
00000120: 2e67 67bd 3ea1 0d3f 3c5c 1cc0 6937 3140
00000130: e7ba 1dc0 0b17 2241 9b90 8940 c295 d0bf
00000140: c76f 97bf 0a76 5f3f e0ae 0a41 77b5 46c0
00000150: 5a4d c03f 8859 48bf 4326 13c0 9492 a6bf
00000160: bfb0 1540 e4fd 78be 13cc 523f d905 49c0
00000170: ab8b 513f 0acc 1ac0 d26e debd c437 21c0
00000180: b4c5 1ac0 8d52 5f3e b2f3 963f 54e0 233f
00000190: 9499 46c0 0fbe 19c0 0fd2 1940 0cc4 2dc0
000001a0: d23a c43f 7e07 9740 af8c 6cc0 c972 9640
000001b0: 2798 4e3e fcf2 dac0 f529 a7c0 a52a 3c40
000001c0: fc79 523f e81b 2941 9b79 73c0 7983 7bbf
000001d0: ce8e d13d 3338 04c0 5dcf f5bf 60d8 8cbe
000001e0: a33d 6ac0 e5fd 2ac0 87b8 db3c 18c9 4b40
000001f0: 3b1a 1841 56e6 bf3f 6708 42c0 dced 8ac0
3.6758683 -0.5218963 -1.5876669 0.25812554 -2.9637682 -6.884816 -2.6124558 0.93322
-1.1443552 -0.8576681 -1.9149218 3.6215966 -0.68195325 2.2310352 1.3714988 -4.6593976
-0.45369548 1.5963827 4.7805557 -3.5539083 -0.3429047 1.3137378 -5.4336658 -1.4094096
-4.073804 0.041499067 -1.6965812 -1.7582911 1.5201223 2.11206 -1.5482787 -1.2373582
-1.5923378 -0.20988694 0.25523186 0.8937164 -4.8277626 -1.9613868 -0.83457214 -1.7860382
-2.297569 -0.12817253 -4.462656 1.8456643 0.042634472 -6.9192257 -5.4059014 -3.266803
1.5035306 0.60472345 -1.2619683 -1.6097995 -0.52768016 -2.6755304 -2.4640334 1.1065358
-3.1077747 -1.3900373 0.31762078 -0.27264094 0.12325457 1.2146068 -0.478668 -2.6286323
8.019473 5.731301 -3.2043724 1.2184091 1.4148698 -7.9595733 0.06475056 3.6983442
-0.056494884 0.5532416 -2.4431295 2.769007 -2.4645326 10.130626 4.298902 -1.6295702
-1.1830987 0.8728949 8.667694 -3.1048257 1.5023606 -0.78261614 -2.2992103 -1.3013482
2.3389127 -0.24315602 0.8234264 -3.140982 0.8185374 -2.4187036 -0.10860981 -2.5190287
-2.4183168 0.21808834 1.179312 0.6401417 -3.1031237 -2.4022253 2.403446 -2.7150908
1.533045 4.7196646 -3.6960866 4.701512 0.20175229 -6.842161 -5.2238717 2.9401028
0.82217383 10.569313 -3.8042972 -0.98247486 0.10232316 -2.0659301 -1.9203907 -0.2750883
-3.660012 -2.6717465 0.026821388 3.1841488 9.506404 1.4992168 -3.0317628 -4.3415356
