results/Prediction/2023-06-22/19:33:00.835898/models/model122.pth (torch, 717109 bytes, 74 tensors)

embedding.weight f4 [64, 92]
00000000: c893 3d3c c0b3 18bf e929 2f3c b1ed 74bd
00000010: 16e6 59bd 77fa 583c fd02 97bd 429d 80bd
00000020: d1fe 873a 8aac 8d3d 0126 c83d 2926 5cbc
00000030: ca6e 993d 4621 c1bd e4af 13bf 5011 e13e
00000040: 8ec7 883f 8ba9 56be c463 7a3d ebc9 03bf
00000050: 3688 03c0 2926 0ac0 7c6f a1bd b562 9c3d
00000060: 25a6 2bbd 28b9 4bbd e57d 8ebd 8d6b 65bd
00000070: b694 b4bd 05c1 15c0 3abd 10bf 49ac 85bf
00000080: e0c8 b1bd c214 c73e 6652 733f 61c2 b6be
00000090: 8688 0dbf 6c52 083f f29b 6cbf 1f8d 45c0
000000a0: c15a 16c0 d68f c23c d494 dc3c d20e c33b
000000b0: eb9b 8f3d f0b7 9cbd 31a3 d7be 3047 993d
000000c0: 5fc3 d9bb ef81 2bbf d3f4 dd3e e2ae 733f
000000d0: be20 b9be 36a3 bb3d 49ed 703d f544 adbd
000000e0: b8ca 46bd d329 29bd 3339 6ebd 9f1c 22bd
000000f0: 12db cdbc aa0f 12c0 9f55 853d 8910 85bf
00000100: 7f30 1fc0 5761 95be 04af b03d 81fe 983d
00000110: 1d0e b33d f44a 14bd 9359 a73e 5493 96bc
00000120: 3622 aabd b611 1bbf da5a e2be c0ed 4cc0
00000130: 6135 99bd 777d b3be 6cda e2be 0053 6bbf
00000140: 1060 43bd c23a 833d eb7e 87bf f419 99bd
00000150: 918d 193d d3ca 18c0 d0fb e9bf dee2 b4bd
00000160: 6019 163d f6b7 d0bd 0a73 05bd c0df 5fbc
00000170: ec76 7dbc 4720 a0bf 3b12 d73b 1f9c 4cbc
00000180: ebcb 2d3c 74b0 e2bc 9745 afbc 219d a73d
00000190: c6e1 d0bd 29c9 c4bd becc 733d 0c5b 9f3d
000001a0: 17a8 cf3d 70bd d5bc 8e55 9cbf 61b8 96bf
000001b0: 93c3 d0bf 5eba dcbf 2053 6c3d 3575 b3bf
000001c0: 8a3d 86be 7249 a5bf f0a1 003d 579e b3bd
000001d0: c019 4cbb 4997 ecbc 6d9c 6ebd 0dae 5abd
000001e0: 93ff 3b3c 79b8 753d 7e81 a3bf ac38 0dc0
000001f0: 2e87 a93d cbe4 94bf 07da f8bf f43e dcbf
00000200: 8c8b a3bf 498b fabd 9835 59bf c3d8 a5bf
00000210: 496e 1f3e e57b 073d dd20 273d a202 f93c
00000220: 252d ea3a d2bd 8dbd 5204 adbf cc51 86bc
00000230: 614c 623d 3f0f 92bf 6004 a3bf e057 d3bf
00000240: b900 d1bf 6a64 bfbd c4d1 d2bd 5d52 21bb
00000250: 0326 b23d 9d3f 91bd ef00 a03c b322 233d
00000260: 1339 dabc 3d40 113d 5b1e a4bd 9952 00c0
00000270: 132a 05c0 476e d0bf 2426 573d 5785 823d
00000280: b822 bfbb fc45 0cbd fe54 a3bf 2889 433d
00000290: bfcc 503d a540 abbf 4b13 21c0 a875 b3bf
000002a0: 7664 74bd 7726 d1bf dcd6 afbf 3169 28bf
000002b0: 4f8e db3a d12f 083c 00a6 9ebf 8f87 81bd
000002c0: 3d35 933d 463a a43d d2d9 b7bf b27f c03d
000002d0: 3a33 bc3d 93eb 92bd d970 cd3d 9f40 0dbd
000002e0: b885 8f3d 0a55 443e 8469 91bd 0ec1 193b
000002f0: bacb a53d 9fa6 e0bc c826 203d 43f4 3a3c
00000300: 8f8c 80bd 6f8f f23c 8993 afbd a3e2 b7bd
00000310: 12e4 b0bd d044 91bd d115 dbc0 0a6b 8fbf
00000320: ebed 993f 9998 dcc0 d419 ce3d 09fc 8b3d
00000330: b072 b3c0 e6ac e2c0 4521 0b3d f67c cf3a
00000340: cebd dd3c 1e89 2e3d 4844 aebc 00ef 1e3b
00000350: a89e 01bd 1601 7bc0 8660 b33d ecd7 e1c0
00000360: 01ec b4bc b0ea 9bbf f608 fd3f 33e6 dbc0
00000370: e32e 483e ff3a abbf 3e0f 8ec0 ec12 d0c0
00000380: 3f3e 7fc0 7092 18bd fc13 4e3d 8fe6 ac3d
00000390: 6330 e6bc 9c77 86bd d4a3 4d3c 8a8e aebd
000003a0: f504 903d ca37 dec0 4c34 9fbf 123a 9a3f
000003b0: 5764 ddc0 de71 a8bd d19a fe3c 5711 65bc
000003c0: 2afa d43d ed81 91bd 9959 8fbb 6c8b 93bc
000003d0: 2cfb 223d b2eb 7ac0 5507 aebd 7826 e3c0
000003e0: be3d 91bf 403a d9c0 99ac d23d df04 623d
000003f0: bd79 e03c a59b 8abd 067d 8ebf d9f1 5ebd
0.011570878 -0.59649277 0.0106911445 -0.059796993 -0.053197943 0.013243309 -0.07373617 -0.062799945
0.0010375624 0.06917675 0.09772874 -0.013436832 0.074918345 -0.094301745 -0.5769026 0.4395852
1.0685899 -0.20963113 0.0611303 -0.5147998 -2.0551887 -2.158579 -0.07882592 0.07636014
-0.041906495 -0.049737126 -0.06957606 -0.05601077 -0.08817427 -2.339906 -0.56538737 -1.0443202
-0.08680892 0.38883024 0.95047605 -0.35695174 -0.55286443 0.53250766 -0.92425454 -3.0867383
-2.3492892 0.023750227 0.026926436 0.0059526945 0.07012161 -0.07652271 -0.42116693 0.07484281
-0.0066456045 -0.6699514 0.4335085 0.95188725 -0.36157793 0.091619894 0.058820043 -0.08460418
-0.04853317 -0.041299652 -0.05816002 -0.039578076 -0.025128875 -2.282206 0.065104716 -1.0395671
-2.487335 -0.29175827 0.086271316 0.07470418 0.08742926 -0.036204293 0.32685527 -0.018380798
-0.083073065 -0.605739 -0.4420994 -3.202011 -0.07480884 -0.3505666 -0.44307268 -0.9192352
-0.047699034 0.064076915 -1.0585607 -0.07475653 0.037488524 -2.3873794 -1.8279972 -0.08832334
0.036645293 -0.10191338 -0.032580413 -0.013664186 -0.015470248 -1.250985 0.0065634525 -0.012488394
0.0106077 -0.02767203 -0.021395488 0.08184267 -0.10199313 -0.09608681 0.05952143 0.07781038
0.101394825 -0.026091307 -1.2213609 -1.1775018 -1.6309685 -1.7244375 0.05769646 -1.4020144
-0.26218826 -1.2913039 0.031404436 -0.08770435 -0.0031143278 -0.028880732 -0.058254648 -0.053388644
0.011474508 0.05999038 -1.2773893 -2.206584 0.082777366 -1.1632322 -1.9441537 -1.7206712
-1.2776961 -0.12233598 -0.848474 -1.2956775 0.15569414 0.03307714 0.040802825 0.030396763
0.0017866237 -0.06920971 -1.3516943 -0.016396426 0.05524862 -1.1410903 -1.273571 -1.6511192
-1.6328346 -0.09345324 -0.10293916 -0.0024615743 0.086986564 -0.070922114 0.019531695 0.039828014
-0.026638543 0.035461653 -0.08013602 -2.0050414 -2.080693 -1.6283654 0.052526608 0.06373089
-0.005832996 -0.03424643 -1.2760313 0.047738224 0.05097651 -1.3379103 -2.5168025 -1.4020281
-0.05966612 -1.6339864 -1.3737445 -0.6578551 0.0016750785 0.008312182 -1.2394409 -0.06324684
0.07187889 0.08018927 -1.4363348 0.09399356 0.09189458 -0.071738385 0.100312896 -0.034485456
0.07007927 0.19173065 -0.07100204 0.0023461017 0.080954984 -0.027423201 0.039099485 0.011410776
-0.062768094 0.02960941 -0.08573062 -0.089787744 -0.08637251 -0.07093203 -6.846413 -1.1204541
1.2025732 -6.8936276 0.1006352 0.06835181 -5.60775 -7.083606 0.033967275 0.0015830088
0.027068045 0.042611234 -0.021272793 0.0024251342 -0.031645447 -3.9219413 0.08758645 -7.0576077
-0.022085192 -1.2180996 1.976836 -6.8718505 0.19549136 -1.3377379 -4.4393606 -6.50231
-3.9881742 -0.03724903 0.050312027 0.08442413 -0.028099244 -0.065657824 0.012551267 -0.08523281
0.070321955 -6.94431 -1.2437835 1.2048972 -6.9184985 -0.082248434 0.031079682 -0.013981185
0.103992775 -0.071048595 -0.0043746945 -0.018010817 0.039790317 -3.9206357 -0.08497492 -7.098446
-1.1346967 -6.7883606 0.10286827 0.055180427 0.0274018 -0.06767968 -1.1131904 -0.054429863

convs.0.fc_full.weight f4 [128, 169]
00000000: f415 02c0 f803 7bbf 16fe 04bf d9ad 15c0
00000010: 4992 353f 341c 17be 06b5 dabf c79e 283e
00000020: dcf3 61bf 6005 c8be a150 17bf d35a b63f
00000030: ff12 8fbf ced8 9ebf cc17 7a3e 6752 27c0
00000040: 0633 d73f 883c 33bf a487 94bf b8fb 0bbf
00000050: 5db4 983e b196 cdbe bde4 32bf 0a3f 9e3e
00000060: b51d 25be 51fe 193d b680 6cbf 5558 a3be
00000070: b9a8 08bf 0e73 113f 1904 763e c02a d8be
00000080: 244a 803e e50e 153f cbb8 44be 59f8 cabf
00000090: d25a 99bc c93f 94bf 8bca 93be 76dd 373e
000000a0: c8a2 1cbf 3436 c2be 4fb1 00bf 0894 25be
000000b0: 345b 9dbe 8e6b 13bf aa30 00bf 08f3 39bf
000000c0: 40d5 d8bf a9a2 923f 1f56 aa3e 8980 b73e
000000d0: f4db 8bbf 8522 62bf 0ab8 53be b876 c43f
000000e0: b55d 11bf 6c2f ebbe 14ad eabe a11a 06be
000000f0: b50f 32bf 9074 253f a99b 28bf e5cc 9a3e
00000100: fc0e 9cbf 8920 84be 7e10 7c40 f377 7b3f
00000110: 86e0 b9be 1287 393e 132b 8fbe 4699 8040
00000120: 3963 9fbf f533 ac3f 215a 3540 440b a13e
00000130: d74b a940 5ba4 4e40 0c90 a3bf fc1d 523e
00000140: 6cfa 95bf 353c ff3f b705 3cc0 8385 21be
00000150: 294a 6bc0 e998 b840 9bf4 cc3e 5363 acbf
00000160: 9010 03c0 e3d1 02c0 d6e2 be3f 046d 1640
00000170: a00a 0840 5c42 df3d 8b2a 8ec0 fd85 d43f
00000180: d102 2940 a074 1840 28e5 1b40 0c8c 2a3f
00000190: 9353 b13e cdb1 48c0 15fc ca3f c3ae 17c0
000001a0: 7648 4340 d63d 1a40 8f2a 46c0 4339 803f
000001b0: 10b1 abc0 c60c 983f 5a58 e83f 1b65 3740
000001c0: 995f 1d3e 2692 6ec0 a5bc bfbf 3832 5dc0
000001d0: a868 58c0 1b5c 0ac0 e7bb 7ac0 d4f6 c1bf
000001e0: ba9c d33f ca07 1140 2ba6 93bf 0c22 9840
000001f0: 7ed4 ccbf 64b7 b640 7548 4e40 abb9 78c0
00000200: 6a85 87bd 6fa9 adbd fbff 8abd 205c 66be
00000210: 4d65 e2be c62d 2fbf 386f 453d 675d 8a3f
00000220: 8bd4 f23e a4cb d6bb e4e8 c2bf 56d9 20bf
00000230: 36c3 8c3f 68ef 8f3f 6925 5f3f 2eff 2dbe
00000240: b5a9 ccbf 785d 13c0 9703 70bf 2507 e13e
00000250: 4e56 2a3f 9a13 293f f726 d13e 7329 da3e
00000260: a698 8fbe 010a 8fbe a4dc 45be e724 433d
00000270: 6848 3f3e c780 99bb 46b7 40be 55d6 e6be
00000280: 15c3 36be 8347 3a3d ad60 693d 2f98 c73d
00000290: 91ae c3bc c606 973d 5d6f 1a3d 83b8 0ebd
000002a0: 925d 80bd 21d1 883e 0eb7 25bf 7cd4 553f
000002b0: 1533 283e 8204 f2be 5636 7fbe a296 83be
000002c0: bc19 aabd 75f0 b5bc c614 033f 3db7 3a3f
000002d0: 4a47 01bf 0f4c 413f ab49 8d3e b189 22bf
000002e0: 2937 8d3e 05c3 47bf a6af 013f 65be 333f
000002f0: 5b4d 193f 5081 9ebe 7a46 2c3f f62f e93e
00000300: 86ad 33bf 38fb 4d3e 5ae1 303e b0c8 c93e
00000310: 5520 7e3f 8c49 08bf ec26 5ebf 2224 9fbe
00000320: 5652 ec3e 8ec8 3a3f efd4 f2be f1ba 073f
00000330: fab7 db3e 3fb6 0f3f 5ef5 acbe 1089 eebd
00000340: f75e b6be 3837 f93e daf1 153f 04a2 eabe
00000350: dee0 723f 5647 8fbe 0317 543f e061 723e
00000360: 92d2 ab3e 5adc 49be 130e eabd 9f55 08bf
00000370: 83c4 5fbd 3c4c 7a3d 583c 4b3f 4967 94be
00000380: b3aa 0ebd 2706 d53e 7db2 6c3e e5e1 efbe
00000390: 407c f03d 40bc 863d c5e3 9f3d 64b7 393f
000003a0: 3c03 7dbf 3973 bbbe b999 22bf 8118 413f
000003b0: 0ff7 24be c644 983e 39d8 85bf b0a3 163f
000003c0: ea74 a03c 6fb6 43be 6b22 683f 5ece fa3e
000003d0: f9dc df3e a87b 403f 83fb 183f edfd 4fbf
000003e0: e1f5 883d 7f03 2bbf c965 2c3f 0a10 aebe
000003f0: 9b0f e23d 773c cebf a7f3 243f 59d1 153f
-2.03259 -0.9805293 -0.51950204 -2.3387358 0.7092634 -0.14756852 -1.7086494 0.16466819
-0.88262725 -0.390666 -0.59107405 1.4246467 -1.1177672 -1.2409914 0.2442314 -2.6144044
1.6812446 -0.7001424 -1.1603894 -0.5468097 0.29825106 -0.4015403 -0.69880277 0.3090747
-0.16124614 0.03759605 -0.923839 -0.3190333 -0.5338245 0.56816185 0.24025 -0.42220116
0.25056565 0.5822585 -0.19211118 -1.585704 -0.018720064 -1.1581966 -0.28865466 0.17955574
-0.61185884 -0.3793198 -0.5027055 -0.1616975 -0.30733645 -0.5758599 -0.50074255 -0.7263646
-1.6940079 1.145589 0.3326883 0.35840252 -1.0926499 -0.8833392 -0.20675674 1.534873
-0.5678361 -0.45934618 -0.45835173 -0.13096096 -0.6955522 0.64630985 -0.6586252 0.30234447
-1.2192073 -0.25806072 3.9385066 0.98229903 -0.3630411 0.18117931 -0.2796255 4.01871
-1.2452155 1.3453356 2.833626 0.31453907 5.290508 3.2287815 -1.2778335 0.2051925
-1.1717048 1.9940249 -2.9378488 -0.15773587 -3.6764014 5.768666 0.4003037 -1.3467811
-2.047886 -2.0440605 1.4912975 2.3504038 2.1256485 0.10901329 -4.442693 1.660339
2.640797 2.3821182 2.4358616 0.66619945 0.34634075 -3.135852 1.5858179 -2.3700416
3.0512977 2.4100242 -3.0963476 1.0017475 -5.365364 1.1878898 1.8151963 2.865546
0.15368499 -3.7276702 -1.4979445 -3.45619 -3.3813877 -2.1618717 -3.9177186 -1.5153451
1.6532204 2.2661004 -1.1535085 4.754156 -1.6002347 5.7098866 3.2231724 -3.8863323
-0.066172436 -0.084795825 -0.06787106 -0.2249608 -0.4421791 -0.6842922 0.04820177 1.0809754
0.47427782 -0.0065550376 -1.5227323 -0.6283163 1.0997074 1.1244936 0.8716646 -0.16991875
-1.598929 -2.3025799 -0.9375548 0.43950763 0.6653794 0.66045535 0.4085004 0.42609748
-0.2804615 -0.2793732 -0.19322449 0.047642615 0.18679965 -0.004684541 -0.18819913 -0.45085397
-0.17847855 0.045478355 0.056976963 0.097458236 -0.02388695 0.07374339 0.03770386 -0.034843933
-0.06267847 0.26722053 -0.64732444 0.8352735 0.16425736 -0.47269064 -0.24923071 -0.2570086
-0.0830569 -0.022209385 0.5120357 0.7293585 -0.50499403 0.7550668 0.27595267 -0.6349135
0.27581146 -0.7803195 0.50658643 0.70212394 0.5988366 -0.30958033 0.6729504 0.45544404
-0.7018665 0.20115364 0.17273465 0.39410925 0.99268085 -0.53237224 -0.8677814 -0.31082255
0.46156567 0.7296227 -0.4742808 0.53019625 0.429138 0.5613746 -0.3378095 -0.11647236
-0.35619327 0.4867494 0.5857216 -0.45826733 0.9487437 -0.27984113 0.82847613 0.23670149
0.3355909 -0.19712964 -0.11428466 -0.5325565 -0.054630768 0.06110786 0.7938895 -0.2898505
-0.03483076 0.41606256 0.23114963 -0.4685203 0.11742449 0.065788746 0.078071155 0.72545457
-0.9883306 -0.36611345 -0.6351581 0.75428015 -0.1610987 0.2973997 -1.0456611 0.5884352
0.019586999 -0.19112562 0.9067752 0.4898557 0.43723276 0.75188684 0.59758776 -0.81246835
0.06687523 -0.6680221 0.6734281 -0.33996612 0.11038133 -1.6112202 0.64434284 0.58522564

convs.0.fc_full.bias f4 [128]
00000000: 36d3 62bd 1b80 edbc f2c0 febd 8a56 4ebd
00000010: 1c50 29bd 0033 d2bd 59a4 f7bb 6f5f 31bd
00000020: 9b77 94bd 4a0a 09bd d8b8 5f3d 3b56 a1bd
00000030: 77a9 353c 59e7 f93c 9b81 edbd 1d38 e03c
00000040: f939 65bd 012a 92bd f370 b53d 6041 323d
00000050: 8d18 773d 33b4 ab3d 72d7 8b3c 7b4e 88bb
00000060: a57d 70bc 375e febd ec00 d63d d8d8 e43d
00000070: 00eb 373d de63 ff3c 3eef d9bc 83af 3ebd
00000080: 04d7 7a3c a50f 8ebd 58fc f1bd f43e ba3d
00000090: 07c4 5cbc cd59 cc3d 05ca b9bc 8fec 85bd
000000a0: a88b 4b3d 01b4 38bd 184d 513d ce34 0e3d
000000b0: afa6 94bd 13a5 89bd cd15 bf3c 2152 883d
000000c0: 383a 46bc 8e8f 373d 7a58 f23d 3895 04bd
000000d0: b0dd c039 71c2 7cbd bed1 bdbb 1599 e23c
000000e0: 765f c53d 06a7 703d d09a db3d e748 18bd
000000f0: 486f 0ebd 739f dd3c 3304 94bb 920d b5bb
00000100: 7429 623b 5d11 d339 2f22 96bc 0078 15bc
00000110: 9058 c1bd e881 3ebd 6dbe 79bd 5cb1 0abd
00000120: fa18 3ebd 6da5 f83d 11c4 c13d 5192 05bd
00000130: 1607 a1bd 716a adbd e76a 793c d3bf 043c
00000140: 3391 293d 4387 e83d a097 883b f1be b7bd
00000150: 27d7 753d fdec c73c 2a9d 723d 1529 6bbd
00000160: 35e8 7b3d b5ec cb3d bb7f b2bb 1937 7ebc
00000170: 34d6 533d fb79 67bc 2d1d 83bc 29c4 02bd
00000180: d1cc 873a cefc 03bd 903a 6b3d 9ad2 5bbd
00000190: b333 233d 1ae7 d23c 5f1e 07be 21ef 1c3e
000001a0: 6dc3 83bd 5a61 11bd da77 1d3d 1e34 c33d
000001b0: 4bba 99bd 0ec6 c9bd 5fd9 31bc 48f9 b9bc
000001c0: ba77 5b3d abd4 0bbd a387 a8bd cf4d ecbd
000001d0: eac4 013d be38 c6bb be1c 2fbc 9b86 cd3d
000001e0: b0dc 93bd 53e4 3abd d8e6 ce3d 2ccf e73c
000001f0: 7806 203d fa6a f8bb 3ebd d73d f73b 683d
-0.055377208 -0.02899175 -0.12439145 -0.0503755 -0.041336164 -0.10263634 -0.0075574336 -0.043303903
-0.072493754 -0.033457078 0.05461964 -0.07877775 0.011087767 0.030505823 -0.11596986 0.027370507
-0.05596349 -0.07136918 0.08859434 0.043519378 0.060326148 0.0838398 0.017070506 -0.004159746
-0.0146783935 -0.12420314 0.104493946 0.11174172 0.044901848 0.03117555 -0.026603337 -0.0465541
0.015310053 -0.06936578 -0.11815709 0.090940386 -0.013474471 0.09978066 -0.022679338 -0.065392606
0.049693733 -0.04509354 0.051098913 0.034718327 -0.07258355 -0.067209385 0.023325825 0.0665629
-0.012098841 0.04481464 0.11833282 -0.03236887 0.00036786264 -0.06170887 -0.0057928255 0.027660886
0.09637348 0.058753036 0.107228875 -0.0371789 -0.034774095 0.02705357 -0.004517102 -0.0055252993
0.0034509571 0.00040257993 -0.018326847 -0.0091228485 -0.0944072 -0.046510607 -0.06097262 -0.03386055
-0.04641054 0.121409275 0.09461225 -0.03261024 -0.0786268 -0.08467568 0.015223241 0.008102375
0.04139824 0.11353924 0.0041684657 -0.08971966 0.06001964 0.024404997 0.059231915 -0.057412226
0.061500747 0.09957258 -0.0054473556 -0.015516066 0.051717952 -0.0141282035 -0.016005123 -0.031925354
0.0010360723 -0.032223515 0.057428896 -0.053667642 0.039844226 0.025744963 -0.1319518 0.15325595
-0.06433759 -0.035493232 0.038444377 0.09531425 -0.07506236 -0.09852229 -0.010855048 -0.022701874
0.053580977 -0.034138363 -0.08228996 -0.11538278 0.031681933 -0.0060492447 -0.010688005 0.100354396
-0.07219827 -0.045627903 0.10102624 0.02829703 0.03906867 -0.007581112 0.10534142 0.056697812

convs.0.bn1.weight f4 [128]
00000000: effc b740 f22c ab3f ed32 9c40 e7d1 cb3f
00000010: c874 0f41 4223 ab3f 67f3 9a40 a22f 0640
00000020: 78bf 8940 b734 9a40 742e 2d3e d60c ecbf
00000030: cd3e f940 6750 4b40 7937 c13f 5c4b 473f
00000040: b199 1940 51b4 1d3f c77a f640 a8bc 5f3f
00000050: f1a4 3540 f78f 9a40 febf 0f41 1f22 ce3f
00000060: 0335 923f 2943 2540 6031 3e41 efcf 3241
00000070: c97a 5cbe 6af3 0c3f 669c b63f 06c3 bb3f
00000080: 8065 d440 e722 6f41 a5ec 1640 e421 d23c
00000090: a0b3 8340 59a4 b33e 652c 2e41 7b47 1141
000000a0: 0531 0041 1651 6a40 297a 9d40 7af9 b540
000000b0: 5607 053e a86f 9040 43da 8140 3294 9ebe
000000c0: d4d8 fe40 f37f a340 ac1b d9be 4b03 5b41
000000d0: 704f 3641 09eb 973e 3320 1440 451f 1d40
000000e0: 6801 b940 6ea3 0941 cf4b 9d3f 45ff f73d
000000f0: 16a1 e13e f2f2 e13c 2d07 4c40 41f0 f23d
00000100: 4fd8 ea3f cab0 013f 5d29 5b3f b94e 0a3f
00000110: 866b 1240 2d7f 09bf c965 893f 082c 5d3f
00000120: 5412 a6be 5b9a 0041 a1c2 3a3f 31fe 303e
00000130: 50e8 e93d b44f a840 1277 debf 8e68 7f3f
00000140: 7fc4 ce3d 3162 ba3e 8ff7 93bc 52a9 93bf
00000150: 7ed7 9f40 eaf6 ac40 60aa 2c3f c6f5 4040
00000160: eed0 ec3f f01b d53f 22ae 973f 912f c1c0
00000170: 7efa 40bf 62d5 c43f 2637 7140 1ad1 763f
00000180: cc7d 813f 8cbe 4440 0ec7 4d3e 8bf8 c93e
00000190: e4db 653e ddb8 9a3f 03a8 2e3e 84ad c53d
000001a0: 4921 1140 6ca1 93bd 4258 c140 d707 8abe
000001b0: 909b 03bf 1744 973f 594b 6d40 03c7 363e
000001c0: 354c 40bf 4b5e e5c0 3961 97bf 3483 e2bd
000001d0: d915 51be a42e bcbe f0b0 0c40 5d28 6140
000001e0: 223b 2840 1510 0d3f c035 4a40 e2ea a9be
000001f0: 011d 00c0 403d 02bf 4d7e 41be f6eb cb3e
5.7496257 1.3373091 4.8812165 1.5923432 8.966011 1.3370135 4.842212 2.0966573
4.3046227 4.818935 0.16912252 -1.8441417 7.788916 3.1767824 1.5095054 0.77849364
2.4000056 0.61603266 7.7024875 0.8739724 2.8381922 4.830074 8.984373 1.6104163
1.1422428 2.5822241 11.887054 11.175765 -0.21531214 0.5505892 1.4266479 1.4668891
6.63739 14.946021 2.3581936 0.025650926 4.115677 0.35086325 10.8858385 9.079951
8.011968 3.661199 4.921162 5.6867037 0.1299108 4.51363 4.0578933 -0.3097244
7.9639683 5.109369 -0.42403924 13.688304 11.394394 0.29671505 2.3144653 2.4550335
5.7814217 8.6024 1.228876 0.12109236 0.4406821 0.027581666 3.187938 0.11862231
1.8347262 0.50660384 0.8560999 0.5402637 2.2878127 -0.5370968 1.0734187 0.8639531
-0.32435858 8.037684 0.7295323 0.17284466 0.11421263 5.2597294 -1.7380087 0.9976891
0.100960724 0.3640304 -0.018062381 -1.1536047 4.995055 5.405141 0.6744747 3.0150008
1.850126 1.6649151 1.1850016 -6.0370564 -0.7538222 1.5377619 3.768991 0.96412814
1.0116515 3.07413 0.20095465 0.39447436 0.22447163 1.2087666 0.17056279 0.09652236
2.2676566 -0.07208523 6.0420237 -0.26959106 -0.51409245 1.1817654 3.7077239 0.17849354
-0.7511628 -7.1677604 -1.1826545 -0.11060181 -0.2041849 -0.36754334 2.1982994 3.5180886
2.6286092 0.55102664 3.1595306 -0.33187014 -2.0017703 -0.5087471 -0.18895836 0.3982846

convs.0.bn1.bias f4 [128]
00000000: 8575 9abf b12d 8fbe 7cd1 3440 2b40 1abf
00000010: 0595 893e 30ac 09c0 a8a8 de3e 21c9 eb3f
00000020: 4abb 973e cd51 04bf ae0b a040 15a7 ce3f
00000030: 91ae bd40 cb47 5cc0 0a29 1240 c4bd 1040
00000040: a689 a23f 246b 9140 fa51 533f 4793 1141
00000050: 404e a340 6dca 57bf 3a71 0c40 9bae 5c3f
00000060: b903 073f 7e51 dc3f 1e79 8240 57df 98c0
00000070: 6b76 ab40 03ee c83f 3bf9 c240 7f1b 0b41
00000080: bb2b 0b3e d38c edc0 6c5a 9c40 3055 e93f
00000090: d9f1 bd3f 64cf 6d40 dabe a93f e76b 86bf
000000a0: 4ad6 4f3f cdc5 e640 094c d3c0 0844 f03f
000000b0: f7d0 0540 0e91 8840 f417 373f 5ac0 0241
000000c0: 4347 f4be bf71 a6c0 bd15 853f d1cd 8fbf
000000d0: 7ce8 ad3f 8100 0341 a22d 123f a82e 64c0
000000e0: 8611 fbbe f99f 6f3f 185d 24c0 9ca2 dd40
000000f0: 6cd8 4040 0171 2340 07f7 b840 cc56 3141
00000100: e6e1 1b40 9b3e 6d3d 8096 e440 d4cd 493f
00000110: 8e6d c53f bba4 b640 78aa 3b40 a1b9 6940
00000120: 5550 2a41 e9f4 1dbf 9de1 2940 9193 0640
00000130: 78e2 8441 2035 83c0 5211 a53d a067 473e
00000140: ad52 9240 bb61 b940 736d 8340 10e4 0a41
00000150: 2f9e 06be 0b13 d3bf 39bb 3a41 154d 76bf
00000160: 77e2 dfbe b52e 1a40 3a57 c040 9fde abc0
00000170: e6fd 4f40 dd00 863e 8d77 a03d 2994 f440
00000180: 6a8e 5840 634d 5e40 9df8 1541 18cc 1840
00000190: 9311 2a40 a96d b83f 7571 1a41 850d d140
000001a0: df15 4340 eee0 6b41 ce5b 09c1 d698 5341
000001b0: bea6 e73f 9a35 ba40 6f40 cf3f c136 9640
000001c0: fd0b c540 2d1f 22bf 7e18 a93f 596c dd40
000001d0: 04a6 0341 0b20 aa40 46ab fd3f 7001 22c0
000001e0: 94c6 1140 b1a0 2341 83d7 d63d 790f 7440
000001f0: 751a 8640 fa84 de3f f340 1141 b361 1c41
-1.2067114 -0.27964547 2.825286 -0.6025416 0.26871505 -2.1511345 0.4348805 1.8420755
0.29635078 -0.5168732 5.0014257 1.6144739 5.9275594 -3.441882 2.2837548 2.2615824
1.2698257 4.5443287 0.8254696 9.098456 5.103302 -0.8429325 2.1944108 0.86203927
0.52740055 1.721237 4.077285 -4.777263 5.3582053 1.5697635 6.0929236 8.694213
0.135909 -7.4234405 4.886038 1.8229122 1.4839431 3.715783 1.3261368 -1.0501679
0.81186354 7.2116456 -6.6030316 1.8770761 2.0908792 4.267707 0.71520925 8.171961
-0.47710618 -5.201385 1.0397259 -1.1234685 1.3586574 8.187623 0.5710088 -3.5653477
-0.49036807 0.93603474 -2.568182 6.9261 3.0132093 2.5537722 5.7801547 11.083691
2.4356627 0.057921033 7.1433716 0.78829694 1.5424058 5.7076087 2.9322796 3.651955
10.644612 -0.6170183 2.6543953 2.1027567 16.61058 -4.100235 0.08059944 0.19473124
4.5725923 5.79318 4.1071105 8.680679 -0.1314628 -1.6490186 11.670709 -0.9621137
-0.43727466 2.4091008 6.010648 -5.3709254 3.2498717 0.26172534 0.078353025 7.643086
3.3836923 3.4734733 9.373197 2.387457 2.6573226 1.4408466 9.652699 6.5329003
3.04821 14.742414 -8.584913 13.224813 1.8097761 5.819043 1.6191539 4.694184
6.1577134 -0.6332882 1.32106 6.919476 8.228031 5.3164115 1.9817894 -2.5313377
2.2777452 10.226731 0.10490324 3.8134444 4.1907296 1.7384331 9.078357 9.773852

convs.0.bn1.running_mean f4 [128]
00000000: d7f2 34c4 1679 ffc3 52ef c944 3257 c743
00000010: a5c8 60c5 376a 9e45 c2ee 15c5 26d3 8fc4
00000020: 4eab ebc3 998e 0fc5 050b 23c5 2438 1f44
00000030: 0162 3ac4 de0a 9944 61f8 cec3 261f 80c3
00000040: bcf6 c5c4 76e5 3145 1fbb 4c45 2334 0cc5
00000050: 3e23 c9c4 ea35 8344 007d 7dc5 4cca 0b44
00000060: 48db a744 2854 d1c4 4e19 8244 b88d 9045
00000070: 0c35 a342 74ab 3445 c6bd d9c3 08bc 92c3
00000080: 40c8 e7c4 bb0e a8c4 d7a3 1745 ce0c ed43
00000090: 9676 a3c2 08eb fe44 650d a6c5 0183 7ac3
000000a0: 93a4 bac4 5d4e 4a45 8f89 4944 2ba2 5244
000000b0: 9489 d144 83e0 9443 19eb 9cc4 9db7 b9c4
000000c0: e342 fac4 9c60 f342 0d48 90c4 a5f8 e3c4
000000d0: 7c30 3ec5 06db 1345 9aa1 1e44 79fb 1844
000000e0: 10ac bac4 2c8b 1bc5 3ee1 4444 2b24 77c3
000000f0: 97c2 7f45 5b79 8d42 80e2 2045 5bd2 84c2
00000100: 8d64 c7c4 3ef6 35c4 1175 d1c4 bf40 b643
00000110: f719 f2c4 bdd0 c043 7218 57c5 8e64 39c5
00000120: 3a18 8b43 1b65 5bc5 7086 57c5 8900 f243
00000130: ebb5 92c4 026d 8d44 ed9f 04c5 d767 ffc3
00000140: 045d b6c3 f720 4e45 5a0b 4f45 65f5 c744
00000150: 32e0 33c5 29e0 9144 d87f a8c5 8765 1043
00000160: d67f d444 531f 22c5 1c7d 7dc5 ef51 9445
00000170: 0c72 88c2 aab2 0bc5 a01e 55c5 3b92 d8c3
00000180: bba4 7ec5 84ea 7dc3 9260 3345 ca5a 03c4
00000190: 8228 e1c3 075c 0ec3 2d09 e8c5 2418 46c5
000001a0: 57a4 c9c4 6115 4d45 40e1 0043 aeb4 6d45
000001b0: 5c29 9ec4 c6a2 9ec4 9793 36c5 1428 5045
000001c0: 8957 8bc5 9070 e344 b2d7 2ac5 a0c5 b0c5
000001d0: 9082 62c5 3973 c245 2481 8744 5c17 5744
000001e0: 2ebb fac4 bb14 63c5 eee1 d744 0324 1dc5
000001f0: a605 1f45 e4d3 6244 a999 34c5 11c3 ac43
-723.7944 -510.94598 1615.4788 398.6812 -3596.5403 5069.277 -2398.9224 -1150.5984
-471.33832 -2296.9124 -2608.6887 636.8772 -745.5313 1224.3396 -413.94046 -256.24335
-1583.7104 2846.3413 3275.695 -2243.2585 -1609.1013 1049.6848 -4055.8125 559.1609
1342.8525 -1674.6299 1040.7908 4625.715 81.60361 2890.7158 -435.4826 -293.469
-1854.2578 -1344.4603 2426.24 474.10004 -81.73161 2039.3447 -5313.6743 -250.51173
-1493.143 3236.8977 806.14935 842.5339 1676.2993 297.754 -1255.3468 -1485.7379
-2002.0902 121.68869 -1154.2516 -1823.7701 -3043.0303 2365.689 634.525 611.92926
-1493.377 -2488.6982 787.5194 -247.14128 4092.1619 70.73702 2574.1562 -66.41085
-1595.1422 -727.84753 -1675.6583 364.50583 -1936.8114 385.63077 -3441.5278 -2966.2847
278.18927 -3510.319 -3448.4023 484.00418 -1173.6849 1131.4065 -2121.9954 -510.81125
-364.72668 3298.0603 3312.7095 1599.6686 -2878.0122 1167.005 -5391.9805 144.39659
1699.9949 -2593.9578 -4055.8193 4746.2417 -68.22275 -2235.1665 -3409.914 -433.14243
-4074.2957 -253.91608 2870.0356 -525.4186 -450.31647 -142.35948 -7425.147 -3169.5088
-1613.1356 3281.3362 128.87988 3803.2925 -1265.2925 -1269.0867 -2921.2244 3330.505
-4458.942 1819.5176 -2733.481 -5656.703 -3624.1602 6222.403 1084.0356 860.365
-2005.8494 -3633.2957 1727.0603 -2514.2507 2544.353 907.3108 -2889.6038 345.52396

convs.0.bn1.running_var f4 [128]
00000000: 8a4d d849 33cd 3948 80ce 7b49 d9c3 2448
00000010: bca9 c64a 5d92 bf4a c81f e04a d219 a24a
00000020: 5400 264a f138 6f4a 32bb 184a db21 9648
00000030: bdcf 234a 4119 3549 e592 0b49 6de5 8a47
00000040: 2a46 0f4a 3a5d 0e4a cb21 954a 5d57 844a
00000050: a80c 9849 c1f9 8e49 8984 864b e235 3f4a
00000060: 9c67 0a49 018b bf4a cec5 c948 7fb6 0c4b
00000070: 55f5 5d49 3ff4 914a aa27 7349 43fa 2c4a
00000080: f7e6 8d4a eb38 1f49 638d 364a e522 c048
00000090: 9969 0748 c8d9 a949 2728 8f4b 02b4 7f4a
000000a0: 64ea c24a c762 194a 73f7 bc48 d08d ad4a
000000b0: a303 ac49 a0ce 794a b391 9d49 cf4d 6f49
000000c0: 9c7d c04a bf57 0b4a 6f8d 8e49 6f44 034b
000000d0: 29ed 8a4a 3afd 894a fbd0 8a49 084d 9349
000000e0: c043 ce4a 463d be4a 0724 094a 0198 0a49
000000f0: bba9 984a 6984 b948 a599 c249 7452 994a
00000100: b880 a349 028f a648 05b2 4c4a 4842 bd47
00000110: b22e d54a b76f 6849 7c38 1f4b 036a 034b
00000120: 523e c749 fe6e b14a 9f4f 814a 6632 9f48
00000130: 7e54 3a4a bec0 1049 5c53 c849 6221 8848
00000140: 86c5 314a 53fc 3e4a c5f7 bc4a 9fb2 9a4a
00000150: 0019 5f4a eca2 bf49 a57f 994b 3d1c 6f4a
00000160: edd5 1c49 ec96 114b a249 164b e970 034b
00000170: 747c 8d49 e5e3 604a a989 ea4a 0579 4d4a
00000180: c381 984a 2ccc e94a b13d 884a b99d 2749
00000190: 6263 0e48 538b 694a 1c51 b74b 6fdb f24a
000001a0: 6f71 d54a 1755 284a b1a8 7a48 2fe0 c94a
000001b0: 83ff 9e49 305f 9e4a abf8 874a 5737 684a
000001c0: 6581 ed4a f5a2 624a 66e6 384a 9774 ac4b
000001d0: 3373 b64a dc05 894b 18cd 5949 b56e a349
000001e0: f5c2 bd4a 52dc 064b 1be2 ba49 919d a04a
000001f0: ab0f be4a 93a0 3949 581f 734a cbe2 ec4a
1.7719532e+06 190260.8 1.0314e+06 168719.39 6.50979e+06 6.2774225e+06 7.3441e+06 5.311721e+06
2.719765e+06 3.9194202e+06 2.5023485e+06 307470.84 2.6838872e+06 741780.06 571694.3 71114.85
2.3474025e+06 2.3324945e+06 4.8867575e+06 4.3365585e+06 1.245589e+06 1.1712561e+06 1.7631506e+07 3.1327925e+06
566905.75 6.2764805e+06 413230.44 9.221759e+06 909141.3 4.7826235e+06 995962.6 2.8340648e+06
4.6498515e+06 652174.7 2.9909368e+06 393495.16 138662.39 1.391417e+06 1.8763854e+07 4.1894405e+06
6.386994e+06 2.5130738e+06 387003.6 5.687016e+06 1.4091404e+06 4.09284e+06 1.2908064e+06 980188.94
6.307534e+06 2.2829918e+06 1.1677899e+06 8.602735e+06 4.5523405e+06 4.521629e+06 1.1371834e+06 1.206689e+06
6.75888e+06 6.233763e+06 2.2469138e+06 567680.06 5.0024615e+06 379939.28 1.5941646e+06 5.024058e+06
1.339415e+06 341112.06 3.3537292e+06 96900.56 6.985561e+06 952059.44 1.0434684e+07 8.612355e+06
1.6322022e+06 5.814143e+06 4.2372635e+06 326035.2 3.0528315e+06 592907.9 1.6410675e+06 278795.06
2.9126095e+06 3.1291088e+06 6.1920985e+06 5.0691355e+06 3.655232e+06 1.5698855e+06 2.011937e+07 3.9175832e+06
642398.8 9.541356e+06 9.84925e+06 8.614121e+06 1.1590545e+06 3.6846012e+06 7.6853325e+06 3.3664652e+06
4.9973455e+06 7.661078e+06 4.4643445e+06 686555.56 145805.53 3.8263888e+06 2.4027704e+07 7.9579435e+06
6.9941035e+06 2.7579578e+06 256674.77 6.6150635e+06 1.3025124e+06 5.189528e+06 4.4555095e+06 3.8046298e+06
7.7825785e+06 3.7132132e+06 3.0294015e+06 2.2604078e+07 5.9785215e+06 1.7959864e+07 892113.5 1.3388386e+06
6.2181065e+06 8.838226e+06 1.5309474e+06 5.2630485e+06 6.2279255e+06 760329.2 3.983318e+06 7.7622775e+06

convs.0.bn2.weight f4 [64]
00000000: 8740 b33f a301 433f cfca 873e e53b 23be
00000010: bc2c 6f3f b877 973e c4cc 9f3f 518b 223f
00000020: e9f5 493f 4939 9d3f 6547 15c0 7a8f f13d
00000030: f5ab 7f40 bf97 6240 d414 a93e 6fbd 893d
00000040: 35d2 a53f 52ad 0a40 0408 1f3f d304 a9bb
00000050: 73f9 6640 9734 aa40 7c34 b53f 92cd 973f
00000060: 7f68 24c0 7f3e cc3f d456 c33e e828 df3e
00000070: 1dba e0be e3ab 8c3c 2c9d e43f c351 4e40
00000080: d3c5 e3bd f147 573f 2e54 613f 7c72 1140
00000090: 611e f73e c021 3b40 c620 c83f 0101 e33f
000000a0: fe44 913f 08b0 3e3f 87c2 953e 6cba 6a3f
000000b0: a749 2c3e 5ae2 0440 aceb 9f3f 4bd3 0f40
000000c0: b850 733f db56 0440 14a1 83be f03e 0140
000000d0: e875 0740 dd9e 5b3f 7aa3 1d40 53ac 7240
000000e0: 4090 933f c200 2a3f 68b1 aa3f bbf4 94bf
000000f0: 0de1 16bf 5fab b63c 41ab 013f fba8 41bf
1.4004067 0.7617437 0.26521918 -0.15940817 0.93427634 0.29583526 1.2484365 0.6349383
0.78890854 1.2283107 -2.3324826 0.11794944 3.9948704 3.5405118 0.33023703 0.06725585
1.2954775 2.1668286 0.62121606 -0.005158046 3.6089752 5.3189197 1.4156642 1.185961
-2.568878 1.5956572 0.38152182 0.43585896 -0.43891993 0.017171806 1.7860465 3.2237403
-0.11121716 0.8409415 0.88019073 2.2726126 0.48265365 2.923935 1.5635002 1.7734681
1.134918 0.7448735 0.29249975 0.9169071 0.16824971 2.0763154 1.2493796 2.2472713
0.9504504 2.0678012 -0.2570883 2.0194664 2.1165714 0.8578928 2.4631028 3.7917678
1.1528397 0.66407406 1.333539 -1.1637186 -0.5893715 0.022298513 0.5065194 -0.7564847

convs.0.bn2.bias f4 [64]
00000000: 1d2d 5ec0 08ea 03c1 3351 88c0 e200 1cc1
00000010: 6bd6 91c0 e238 5fc0 3b86 bcc0 8c9f b6c0
00000020: 4c60 4ec0 35d6 34c0 c156 89c0 d23e 1ac1
00000030: e854 9cc0 fc35 5cc0 dcbe 88c0 bd3f a4c0
00000040: c1ea 57c0 dacd 85c0 1b1a dfc0 9e04 03c0
00000050: a4c7 e0c0 6d6d cbc0 1f8d dcbf 3e4d 7bc0
00000060: 25f5 80c0 0b98 9ec0 ca98 38c0 9ebe 47bf
00000070: c327 abc0 b556 86c0 8905 8fbf a58e 9bc0
00000080: d8ef 63c0 e4cd adbf cbbf 44c0 0849 b8c0
00000090: d3be c7c0 55b5 c7c0 2ad0 b3c0 8b31 87c0
000000a0: 823c abc0 c2d2 09c0 d853 e2bf 2bcd 2bc0
000000b0: 8358 9fc0 fc4a 4cc0 5db8 a0c0 2a8e a2c0
000000c0: 3f0a 9fc0 4151 06c0 7778 a3c0 b31a 52c0
000000d0: 8302 6fc0 9eab aac0 a872 35c0 845f 9cc0
000000e0: 59e6 89c0 6596 22c0 486e 8ec0 1f2f cfc0
000000f0: 83ca 48c0 01c8 37c1 8bb3 89c0 093f abbf
-3.4715035 -8.244637 -4.259912 -9.750216 -4.557424 -3.4878469 -5.8913856 -5.706976
-3.2246275 -2.8255742 -4.29184 -9.640337 -4.8853645 -3.440795 -4.2732983 -5.1327806
-3.3737032 -4.1813784 -6.9719367 -2.0471568 -7.02437 -6.3571076 -1.7230567 -3.9265895
-4.029925 -4.95606 -2.8843255 -0.78025234 -5.3486037 -4.1980844 -1.1173564 -4.8611627
-3.561514 -1.3578458 -3.074206 -5.758915 -6.242044 -6.2408853 -5.6191607 -4.2247977
-5.351136 -2.1534886 -1.7681837 -2.6843975 -4.9795547 -3.1920767 -5.0225053 -5.079854
-4.9700007 -2.0987093 -5.108455 -3.2828796 -3.7345283 -5.3334494 -2.835123 -4.8866596
-4.3093686 -2.5404294 -4.450962 -6.474502 -3.1373603 -11.486329 -4.303167 -1.3378612

convs.0.bn2.running_mean f4 [64]
00000000: cf4a a441 a05b 9940 a8cd 6242 14af ea40
00000010: 1f0e 9741 6211 2d41 eec0 a241 465d 0a42
00000020: 8421 6742 6a04 b541 1d86 0242 6cda 9341
00000030: 704f 1143 9d79 a240 d8e1 1c41 7b90 2041
00000040: b212 0b42 7275 8942 486d f041 1250 d042
00000050: 753a cc41 f137 a441 6356 7242 9b44 3841
00000060: 007e ff40 8e93 c941 347d 3442 2c07 8c3f
00000070: a783 1d42 c0b5 2b41 ef7c b041 cc58 b742
00000080: 2d1f ad41 6205 b841 6bfb d342 eaf0 cc41
00000090: fb56 8a41 1545 a541 f7b6 3942 3ae8 e741
000000a0: de9d d141 9fe3 2643 f542 713f bdf2 cf42
000000b0: d160 a941 362d 6742 57a5 c441 e0b8 6142
000000c0: abfe c541 7bf3 af41 f1fe 7841 570a e741
000000d0: 9a8c 1642 ec58 7f42 ea71 b841 9f8c 2540
000000e0: a1d9 bc41 8878 4e42 b6b1 8340 c3f3 3742
000000f0: b6ae 3f42 fa9d aa41 e724 ca42 b38b ea42
20.536528 4.7924347 56.700836 7.333872 18.881895 10.816744 20.344204 34.591087
57.78273 22.627155 32.63097 18.481651 145.3103 5.0773454 9.805138 10.035274
34.768257 68.729385 30.05336 104.15639 25.528543 20.527315 60.584362 11.516749
7.984131 25.197048 45.12227 1.0939689 39.378567 10.731873 22.061003 91.67343
21.640223 23.002628 105.99105 25.617634 17.29247 20.658731 46.428677 28.988392
26.202084 166.88914 0.94242793 103.9741 21.172274 57.79415 24.580732 56.430542
24.74935 21.993887 15.562242 28.880049 37.637306 63.836838 23.055622 2.5867078
23.606264 51.617706 4.115443 45.98805 47.920616 21.327137 101.072075 117.27285

convs.0.bn2.running_var f4 [64]
00000000: d1c5 0e42 21c1 fd40 0598 6242 e69a 0a42
00000010: 5665 6d42 3cba dd41 dd6c 0142 d054 9642
00000020: c603 9c43 9b47 1344 a18f 1f42 7544 c741
00000030: ed2f 7245 8e12 ca41 fa6d 1742 0b0d 0542
00000040: e9bd 9a43 fef1 8541 a3db 0042 603d 3f43
00000050: 0174 5a43 2f7c be43 3ae1 9443 b6c6 3743
00000060: beef 2e42 b811 2342 6fa8 1b42 ce64 ad3f
00000070: 05e8 8e42 3d3c a242 a14e 1f42 a36c 2042
00000080: 9912 0c42 2f52 0943 6768 bc41 02da 4d41
00000090: 4ffd 6543 02e8 ca42 c7e8 3a43 578e db42
000000a0: 52b0 a142 9f8a 1b43 fe3d f63f fd9b f643
000000b0: e5f9 bc41 a73a f543 a125 eb42 c17c 3d40
000000c0: 913f 6d42 e29a f443 8875 8c42 5cdc c742
000000d0: f6d2 fb42 7a0c 683f 41ea 8943 07c9 3041
000000e0: 5346 af42 fc8e 6143 8878 7741 b6e9 7141
000000f0: 4d3b d643 f90a b841 a756 c042 64c3 5141
35.69318 7.9298253 56.648457 34.651268 59.34896 27.715935 32.35631 75.16565
312.02948 589.11884 39.890263 24.908426 3874.9954 25.25906 37.8574 33.262737
309.48367 16.74316 32.21449 191.23975 218.45314 380.97018 297.75958 183.77621
43.734123 40.767303 38.914486 1.3546388 71.45316 81.11765 39.826786 40.10609
35.01816 137.32103 23.550978 12.865725 229.98949 101.45314 186.90929 109.77801
80.844376 155.54149 1.9237669 493.21866 23.622019 490.45822 117.573494 2.9607394
59.312077 489.21002 70.22955 99.93039 125.91203 0.9064404 275.8301 11.049079
87.63735 225.55853 15.466927 15.119558 428.4633 23.005358 96.16924 13.110203

convs.1.fc_full.weight f4 [128, 169]
00000000: fa6e b5bf 5f62 92bf befe c9bc 9698 d33e
00000010: 5328 5540 ccf9 6040 79bf 2840 84a1 87bf
00000020: 75a6 72bf aa3c c83f 5568 63bf 4822 98bc
00000030: c98a 95be 5915 5b40 c746 4f40 976b ccbe
00000040: 65b9 0d40 be75 febe 17f1 fbbe 6a48 cf3f
00000050: 1da9 42c0 195c 30bf 4af8 31bf c08b 9c40
00000060: f13a 2fc0 5fe7 0240 40d1 863f c885 123f
00000070: 2634 b33f 5ed9 3540 6e49 1fbf 44c7 b5bf
00000080: b79e 343f fbe9 6e3f 00bf fabf 4ea6 afbf
00000090: 59d3 123f 081b a63e 4f62 4a40 5e4a 2fbe
000000a0: fd71 a3bc 7f77 0bbf 37b3 0440 fcd0 21bf
000000b0: a0fb a940 87c5 30c0 c85d 1f40 6985 50be
000000c0: 5c4a 0ac0 250a 933e f91c 873e 580d 61bf
000000d0: 3f67 8a3f 1e36 29bf 22ac 85bf fc92 80bf
000000e0: 20fc 6ebf e38c 0abf 555c cbbd 9647 b93e
000000f0: 987b 8640 d52e c4bd c62a d0bf 4b4f b43e
00000100: 690b 553f 987c 4ebf 7fd2 553c 58aa ee3d
00000110: 5ac5 7b40 9647 363d 8c22 27bf a96b 9340
00000120: 4076 e63d d5f7 1c3e 0af4 0440 efbb 44bf
00000130: 8a4c 2340 8bc8 ca3f ac18 8ebf 024a 0040
00000140: 34da 36c0 eb39 4ebe b726 c9be a5da be40
00000150: 952b 4cbe 9908 8dbe 504d 3641 2bf6 92bf
00000160: b224 59bf 2c25 8740 ace8 4b3e 6298 96bd
00000170: 4459 ecbf af57 c3bf 80c1 11c0 36d6 30bf
00000180: 317b dc3e 57aa 993f b24a 1840 470b f9be
00000190: 4f4d 2f3e a3ed 3ac0 0c81 c040 50bd e13f
000001a0: 1939 fe3f c862 d83f 6ab1 c5c0 6b86 a13f
000001b0: f7d5 f53e 8bb1 fb3f 9c69 5040 0c59 2f3f
000001c0: b01d 91bf f176 91bf c217 40c0 be98 6240
000001d0: 43f7 70c0 6bbd 9d40 c329 85bf 047a e23f
000001e0: e676 b73f 2507 5640 5830 2dc0 0fb6 a43f
000001f0: 35c9 4440 ae83 e6be f366 9b3e 5f96 b33f
00000200: f50a 3a40 8158 3040 cf80 3bc0 d7d9 d0c0
00000210: 4926 bec0 6cf2 b1c0 d667 2d40 768f 593f
00000220: 0d14 d5c0 87a3 2cc1 d8fd febf 704b f640
00000230: a986 2f40 4601 bcc0 f136 8640 f200 b740
00000240: 7e27 483f 60bb 4440 642a 8e40 6749 a640
00000250: f199 16c0 eed6 d6c0 441a c7bf a1e5 0ac0
00000260: e4f0 93c0 d45e 3bc0 377b 3840 8b52 b440
00000270: 32d7 4840 99d7 f3bf e505 c2c0 db21 17c0
00000280: 4637 16c0 c2f2 f9bf f151 0d3f 9b48 ed3f
00000290: 8c03 f23e 50df 613d ae30 30bd 4100 e8bc
000002a0: 1422 e9bc 0534 343f a2a5 93bf 508e 0240
000002b0: af11 94be 7d55 043f bce6 cf3f 6945 f53f
000002c0: 880b 6040 6f27 bb3e 6ac6 8840 ca2f be3f
000002d0: faf2 3dbf fbfd 8140 2197 c8bf 5334 1840
000002e0: 8a43 c33f 3e6f 913f bf90 2240 d25b 0040
000002f0: 2b4e 623f 8f1d a6be e684 0f40 5e64 aa40
00000300: 457f aa3f 226e 903f ffbf 143f 2885 0240
00000310: 3cb5 963f 9119 8a3f cacc 1bbf ff97 71bf
00000320: 5fcb 9340 b4e2 1540 4820 36be d4a2 df3f
00000330: 27b0 e33f b44e 493f 4fc6 fbbf 89f5 7a40
00000340: e55a 3f40 d7c4 6f40 4856 3a40 bb54 9a3f
00000350: d7ee 1840 481f ecbf 0faf 8640 c999 2640
00000360: 32b7 ad3f de4a 2dbe 9917 c0bf 4380 8b3f
00000370: 07fc 2040 ea30 dbbf ebdb 3a40 3d91 d43e
00000380: bf77 0c40 e45a b040 f4bd 7140 f667 7d3f
00000390: 8321 d63f d175 1b40 7d2c d23f 3f5d 0940
000003a0: 5f4a 7dbf eb1b 20c0 5853 85bf cf97 5fc0
000003b0: 96bc 3dbe 7d52 0841 70d6 ec40 a005 2c3f
000003c0: 09c0 67c0 b4e2 2840 30ba edbf b976 7ec0
000003d0: c9cf aa3f 9f0d 01c1 8d96 39c0 f5a7 b140
000003e0: d49d 91bf 46d1 b640 969c 75c0 8674 4d3f
000003f0: 6cfc 7ebf ae29 4e40 1f3e 13c0 dd50 e7c0
-1.4174492 -1.143627 -0.024657603 0.4132735 3.3305862 3.5152464 2.6366866 -1.0596166
-0.94785243 1.5643513 -0.88831073 -0.018571034 -0.29207447 3.423178 3.238695 -0.39925835
2.2144406 -0.49699205 -0.49207374 1.6193974 -3.0415719 -0.6889053 -0.69519484 4.8920593
-2.7379725 2.0453718 1.0532608 0.57235384 1.400029 2.841392 -0.6222142 -1.4201436
0.7055468 0.93325776 -1.9589539 -1.3722627 0.5735374 0.32442498 3.1622503 -0.17118213
-0.019951815 -0.5447921 2.0734384 -0.6320951 5.311966 -2.762056 2.490099 -0.20363392
-2.1607885 0.28718677 0.26389292 -0.87910986 1.0812758 -0.660982 -1.0443156 -1.0044856
-0.9335346 -0.54121226 -0.0992972 0.36187428 4.202587 -0.09579245 -1.6263053 0.35216746
0.83220536 -0.80658865 0.013050674 0.11653584 3.9339204 0.044501863 -0.6528709 4.606892
0.11253023 0.15328915 2.077395 -0.76849264 2.5515466 1.5842451 -1.1101279 2.004517
-2.857068 -0.20139281 -0.3928735 5.96419 -0.199385 -0.27545622 11.393875 -1.1481375
-0.8482162 4.2232876 0.19912976 -0.073532835 -1.8464742 -1.5261134 -2.2774353 -0.6907686
0.43062738 1.2005109 2.379559 -0.48641416 0.17119335 -2.9207542 6.015753 1.7635899
1.9861175 1.6905146 -6.177907 1.2619146 0.48014805 1.9663557 3.256446 0.6849525
-1.1337185 -1.1364423 -3.00145 3.5405726 -3.7650917 4.9293723 -1.040337 1.7693486
1.433316 3.344186 -2.7060757 1.286806 3.0747807 -0.4502234 0.30351982 1.4030265
2.9069188 2.7554018 -2.9297369 -6.526592 -5.9421735 -5.5608425 2.7094626 0.8498453
-6.6586976 -10.789924 -1.9921217 7.6967087 2.742594 -5.8751554 4.1942067 5.7188654
0.7818526 3.0739365 4.4426746 5.1964602 -2.3531458 -6.7137365 -1.5554891 -2.1702654
-4.6231556 -2.9276628 2.8825204 5.635076 3.1381345 -1.905017 -6.0632195 -2.3614414
-2.3471236 -1.9527209 0.5520316 1.8537782 0.4726833 0.055144608 -0.043015175 -0.028320434
-0.028458633 0.70391876 -1.1534922 2.039936 -0.28919742 0.51692945 1.624229 1.9161807
3.5007038 0.36553523 4.2742205 1.4858334 -0.7419888 4.0622535 -1.5671121 2.3781936
1.5254986 1.1362073 2.5400846 2.0056043 0.88400525 -0.32444426 2.2424865 5.324752
1.332009 1.128361 0.5810546 2.0393772 1.1774058 1.0789052 -0.6085936 -0.9437255
4.6185756 2.3419619 -0.17785752 1.7471566 1.7788132 0.78635716 -1.9669894 3.9212363
2.9899228 3.7463892 2.9115162 1.2057108 2.3895776 -1.8447046 4.2088695 2.6031363
1.3571532 -0.16923091 -1.5007201 1.0898517 2.5153825 -1.7124302 2.9196727 0.41517058
2.1948087 5.511095 3.7772188 0.98986757 1.6728977 2.429066 1.6419827 2.1463163
-0.98941606 -2.501704 -1.041606 -3.4936407 -0.18528971 8.520139 7.4011765 0.67196083
-3.621096 2.6388369 -1.8572445 -3.9759963 1.3344661 -8.065825 -2.899814 5.5517526
-1.137629 5.713046 -3.8376822 0.80255926 -0.99603915 3.221294 -2.3006666 -7.228621

convs.1.fc_full.bias f4 [128]
00000000: e4e9 fdbe b374 a23f c564 d4bd 7e56 b7bd
00000010: 5db0 32bd ddca abbd 4bb6 ecbb a33a c8be
00000020: 88f9 e23d a262 433d 7207 44bf fba9 86bd
00000030: ac21 96bc 584c 35be 38fd f93e ba74 e43b
00000040: 7f4d 053e 3de0 98bc aac0 1bbd 5069 a73e
00000050: 4c64 493c f8fc a1bc bea7 03bd 24e9 7bbd
00000060: bec9 edbc c153 f4bc 2a5d 8abd 2b01 5d3e
00000070: 07ce 313c 0518 ccbb cd29 043d 5414 23bd
00000080: 02d3 523e aa22 393e a8c8 b63f 6357 55bd
00000090: d08b 263e c86e e63d 6281 1ebf 02d1 8dbd
000000a0: 15b6 5abd ddc9 14bd 46a1 bebb 55cb aabe
000000b0: 8a66 943b 6f0a 87bd 8a16 b43e 2025 c83e
000000c0: 4482 fabc b7c1 e13d 3112 0b3c ae10 533b
000000d0: f655 a0be fbb4 463d 3560 dcbd 872b 6fbf
000000e0: 38ac 803e 1785 523d 5d0d 91bd fbf4 58bd
000000f0: 4dfe f2be 6157 f6bd dd17 e83d d959 0d3d
00000100: f9e5 423d e366 b7be bd8f 52bd 2a44 a13c
00000110: f7c6 423f 0339 313d d2ce babc 0ed8 6c3c
00000120: 77d6 56bf 03e1 493f 9bf3 27bf fc6c 01bd
00000130: 93ff fb3c 3b3b bb3d e6d3 c53f d602 09bd
00000140: 0378 a3bd 80ac 323d 99c0 a73c 0480 5f3e
00000150: ea94 123f 7b6f bd3e 01c3 59bd 1a73 ba3d
00000160: 421b 81bb 0a93 8e3d b287 893f 0397 493f
00000170: 1890 b3b9 3a4d 693e 00c7 c0bc 8f07 5fbd
00000180: 41ab a63d 7c57 f7bd 7e0e 52be 2caa 93bd
00000190: 41dd 133f a447 a0bc 93ed 5ebf 8c94 903d
000001a0: 8c7c aebe 7a1c fa3c e573 413f a365 9bbf
000001b0: 969c 73bf 9c9f 2c3d c2b7 a03d f18b a9bd
000001c0: dfa8 7bbc 4f1c a6bd 79f5 9c3f 1222 d1bc
000001d0: 7085 abbe 1886 b3ba aa4b 173e 7c82 07bf
000001e0: 7b0d c53e dffa f1be a74e 8cbb 97d1 7a3c
000001f0: 6d81 f43d ceb7 303e 410e a13f 914a 0bbe
-0.49592507 1.2691864 -0.10370783 -0.08952044 -0.043625224 -0.083883025 -0.0072238795 -0.39107236
0.110827506 0.047701485 -0.7657386 -0.0657539 -0.018326603 -0.17704904 0.48826003 0.0069719227
0.13017844 -0.018661613 -0.038025536 0.32697535 0.012291979 -0.019773945 -0.032142393 -0.061501637
-0.029026862 -0.029825093 -0.06756051 0.21582477 0.010852343 -0.0062284493 0.032266427 -0.03981431
0.20588306 0.1807963 1.4279985 -0.05208529 0.16264272 0.112515986 -0.6191617 -0.06924631
-0.053396303 -0.036325324 -0.005817565 -0.33358255 0.004528825 -0.06593787 0.35173446 0.39090824
-0.030579694 0.11023276 0.008488224 0.0032205987 -0.31315583 0.04851244 -0.107605375 -0.9342579
0.25131392 0.051396456 -0.07082627 -0.052968007 -0.4745964 -0.12028385 0.113326766 0.034509514
0.0475826 -0.35820684 -0.05140661 0.019685823 0.76084846 0.04326726 -0.022803698 0.014455808
-0.83921 0.78858966 -0.6560609 -0.031598076 0.030761516 0.09142157 1.5455291 -0.03344997
-0.07981875 0.04362154 0.02047758 0.21826178 0.57258475 0.36999115 -0.053164486 0.09103985
-0.003940017 0.06961639 1.0744536 0.7874605 -0.000342489 0.22783366 -0.02353239 -0.054450568
0.08138133 -0.12077233 -0.20513341 -0.07210192 0.5775948 -0.01956541 -0.8708126 0.07059583
-0.34079397 0.030531157 0.75567466 -1.2140392 -0.95160806 0.042144403 0.07847549 -0.08278645
-0.015360086 -0.08110868 1.2262412 -0.025528941 -0.33500242 -0.0013696579 0.14774957 -0.5293348
0.38486847 -0.47261712 -0.004281837 0.015308759 0.119387485 0.17257616 1.2582475 -0.13602664

convs.1.bn1.weight f4 [128]
00000000: ed30 be40 aaf7 f340 b74d 9b40 3b99 e340
00000010: b5fc 3041 5b86 f2bd c067 5540 b28f ee40
00000020: ec3e 7841 8d65 5641 fd5b 9140 198a a83e
00000030: 22e4 ba3f 7dda 8c41 c724 1541 1331 db40
00000040: 6210 0e40 ff23 343f 0d89 0541 50c4 c53f
00000050: 8b16 d040 e6d7 2141 89fa 0940 7bef 4f41
00000060: 1192 0d40 360a 133e 7195 4341 b801 3a40
00000070: 7a3f e43f 0b11 b840 1a09 3540 537c 0840
00000080: 82ac 1941 0d9a c640 994f 4140 2cec 563f
00000090: 1d04 0141 e75e 7d3f 0674 3b41 bcfc cc3f
000000a0: 3c15 0541 433a b540 1956 9940 508f 3941
000000b0: e814 bf40 985e d03a 0906 ac3f ab2e fc40
000000c0: 4d48 0940 6829 2241 2f05 b040 1e2f ec40
000000d0: b144 fe40 d9de 0140 9870 3b40 290d 1c41
000000e0: f939 893f e095 1c40 47cc ce40 5881 f340
000000f0: 5e63 3941 f2a7 7c40 55b8 693f 009e 8340
00000100: ec0a fe3f 8e3e e93f 0ae0 fb3f 308b 5941
00000110: 5b8f d240 1806 e83d 8a3c 3d40 ad8f f03f
00000120: d849 6240 5f2c ad40 0e52 d23f f689 8dbf
00000130: aa85 5540 40c1 0bc0 c84e b23f 45a5 8f40
00000140: e485 c140 450c fb3e 5b4d 6e3f 3c59 ca40
00000150: 3a0f c840 1fc4 ba40 b53e f73f 9f2f 1740
00000160: 5678 383f e9c6 543f 5dde 9740 2b01 8e40
00000170: 2796 7fbe 1265 fc3f cf8b fc3f aae6 0ac0
00000180: 23b5 4640 8eb9 a540 6cf1 0d41 3503 553f
00000190: 426f 0e40 4411 4d40 5ff1 0940 cd02 7040
000001a0: 1497 4640 65c7 b13d 59ea 0441 ef23 b43f
000001b0: 0d5a 3140 ba4f 53ba 0d2d 2540 6c1d 1340
000001c0: 2ec8 8f3e 84ba a93f 71c3 9b40 cf4e 1041
000001d0: 839b 8241 f36a 4d40 8ca4 8340 d240 0a40
000001e0: b516 1f40 e733 1d41 479c 8240 5547 0f40
000001f0: 7557 b43f 244c 9240 f45b ad40 9be7 8b40
5.9434724 7.6239824 4.8532367 7.112455 11.061696 -0.118420325 3.3344574 7.455041
15.515362 13.399793 4.542479 0.3291786 1.4600871 17.606684 9.321479 6.8497405
2.21975 0.70367426 8.34596 1.5450535 6.502752 10.11521 2.1559165 12.995967
2.2120402 0.14359364 12.223985 2.906355 1.7831872 5.7520804 2.8286805 2.1325881
9.604616 6.206305 3.0204833 0.8395412 8.063504 0.98972934 11.715826 1.6014628
8.317684 5.663362 4.79176 11.597488 5.971302 0.0015897332 1.3439342 7.880697
2.145038 10.135109 5.500633 7.3807516 7.945885 2.0292265 2.9287472 9.753213
1.0720817 2.4466476 6.462436 7.609539 11.58676 3.9477506 0.91296893 4.113037
1.9847083 1.8222215 1.9677746 13.596481 6.5799994 0.11329287 2.95682 1.8793846
3.535757 5.4116664 1.6431291 -1.1057727 3.3362832 -2.18367 1.3930292 4.4889245
6.047594 0.49032798 0.93086785 6.323393 6.2518587 5.8364406 1.9316012 2.3622816
0.7205862 0.8311601 4.745894 4.4376426 -0.24959622 1.9718344 1.9730166 -2.1703286
3.1048057 5.1789007 8.871441 0.8320802 2.2255406 3.2041788 2.1553571 3.750171
3.102971 0.086806096 8.307214 1.4073466 2.7711213 -0.00080608914 2.5808747 2.2986708
0.28082412 1.3260045 4.8676076 9.01924 16.325933 3.2096527 4.1138363 2.1602063
2.485761 9.825171 4.081577 2.2387288 1.408919 4.5717945 5.4174747 4.372022

convs.1.bn1.bias f4 [128]
00000000: d913 5d40 f7ab 21bf 9977 adbf cd1e 293e
00000010: b38b 30c0 6950 dcc0 c5a3 cbbf 9174 1f3f
00000020: 929d 92bf 5338 1abf 6c5d 00c0 76a9 8240
00000030: 290b 58bf 2192 0640 89da c83f 4393 83c0
00000040: 40b0 7d3e d23a cc3f 1441 9340 0d10 6dc0
00000050: 73d8 8bbc a7a0 bb3f e4b9 bdc0 fd5d afbf
00000060: 0048 7fc0 2947 2b3d 4e1d e6bf bfe7 fabf
00000070: 6225 c13f 9caf 0f40 1c6d afbe 3c07 95bf
00000080: 02cf d0bf 9cac f8be 3472 1d3e cadf 613f
00000090: 4cc0 92c0 7634 6bbf 4d33 7fbf a61b 99bf
000000a0: f4a9 09c0 089d b9bf 97fe 8cc0 c621 1340
000000b0: 43de 673c 4c6a ddc0 cdbf b2c0 c154 66c0
000000c0: bd10 bc3f 2813 2d3f 2a39 a4bf f0a4 c6bf
000000d0: 1aad 2abf 3281 2ac0 0556 1bc0 0870 a83f
000000e0: 4a26 52c0 9d56 b6bf bb9a e43e 5324 0bbf
000000f0: 57c0 683e 45b8 9e3f 981b 13bf 80e1 23c0
00000100: 2a49 fe40 8365 ba40 4ddf 4cc0 b253 553f
00000110: 4c37 b23f d2b4 fec0 ab45 133f 8277 8f40
00000120: 2e92 46be df21 d63e 3bb4 1ac0 bbfd d83f
00000130: 9ccd 33c0 afdd 2441 523f 8a40 3f5d d1bf
00000140: dc16 1ebe 44da 5d3f 48ec 0e41 8404 34c0
00000150: fd17 a93f cd8f 76bf b4b8 2fc0 bd65 aabf
00000160: 5c02 1640 856b 78be 5a5a 423f a184 61c0
00000170: c1ee 963f 580e 1ac0 4f65 373f 7388 1cc0
00000180: bd54 33c0 84f6 78be 439b 8b3f 5ba6 233f
00000190: 7772 4ac0 9f22 a4bf 9213 1940 381d 12c0
000001a0: 46c7 dc3f 7f55 a240 36bc 7bc0 39e9 9440
000001b0: c2fd f23d fcf2 dac0 ca19 adc0 8cdf 3740
000001c0: 792e 513f 82e6 2941 3373 80c0 c53d 9ebf
000001d0: e8c1 353e d9ec 02c0 5cab 07c0 01fd 3cbe
000001e0: 7d51 63c0 ad2d 2ac0 c27d 47be 4786 4340
000001f0: d1fa 1941 089e a03f 63ba 3bc0 c7ba 8fc0
3.4543364 -0.6315302 -1.3552123 0.16515656 -2.7585266 -6.8848157 -1.5909353 0.6228724
-1.1454337 -0.60242194 -2.005702 4.083186 -0.8439203 2.102669 1.5691692 -4.1117263
0.24774265 1.595545 4.601694 -3.7041047 -0.017070984 1.4658402 -5.9289417 -1.3700558
-3.9887695 0.04181591 -1.7977693 -1.9601973 1.5089533 2.2450933 -0.3426293 -1.1642833
-1.6313174 -0.4856919 0.15375596 0.882321 -4.5859737 -0.91876924 -0.99687654 -1.1961563
-2.150998 -1.4501047 -4.406078 2.2989364 0.014152112 -6.9192257 -5.585913 -3.598923
1.4692608 0.67607355 -1.2829945 -1.5519085 -0.6667038 -2.6641355 -2.4271252 1.3159189
-3.283587 -1.4245182 0.446493 -0.543523 0.22729622 1.2399985 -0.5746398 -2.5606384
7.946431 5.8248916 -3.2011292 0.83330834 1.3923125 -7.959573 0.5752818 4.4833384
-0.193917 0.41822717 -2.4172504 1.6952432 -2.8094244 10.304122 4.3202295 -1.6356581
-0.15438408 0.8666117 8.932686 -2.8127756 1.3210446 -0.9631317 -2.7456484 -1.3312298
2.343894 -0.24259765 0.75919116 -3.52372 1.1791612 -2.4071255 0.7163896 -2.4458282
-2.802047 -0.24312788 1.0906757 0.63925713 -3.1632364 -1.2823066 2.3918195 -2.2830334
1.7248313 5.0729365 -3.9333625 4.6534696 0.11864807 -6.842161 -5.409398 2.8730192
0.81711537 10.618776 -4.0140624 -1.23626 0.1774975 -2.045706 -2.119834 -0.18455888
-3.5518486 -2.6590378 -0.19481567 3.0550706 9.623734 1.2548227 -2.9332511 -4.49155
