results/Prediction/2023-06-22/19:33:00.835898/models/model120.pth (torch, 717109 bytes, 74 tensors)

embedding.weight f4 [64, 92]
000000 c8 93 3d 3c 15 c9 16 bf e9 29 2f 3c b1 ed 74 bd
       0.011570878 -0.58900577 0.0106911445 -0.059796993
000010 16 e6 59 bd 77 fa 58 3c fd 02 97 bd 42 9d 80 bd
       -0.053197943 0.013243309 -0.07373617 -0.062799945
000020 d1 fe 87 3a 8a ac 8d 3d 01 26 c8 3d 29 26 5c bc
       0.0010375624 0.06917675 0.09772874 -0.013436832
000030 ca 6e 99 3d 46 21 c1 bd 85 eb 13 bf bc 28 00 3f
       0.074918345 -0.094301745 -0.5778125 0.50062156
000040 23 10 93 3f 21 52 4b be c4 63 7a 3d 35 df 01 bf
       1.14893 -0.19855548 0.0611303 -0.5073121
000050 ba f9 fb bf 8a 8f 09 c0 7c 6f a1 bd b5 62 9c 3d
       -1.9685585 -2.149386 -0.07882592 0.07636014
000060 25 a6 2b bd 28 b9 4b bd e5 7d 8e bd 8d 6b 65 bd
       -0.041906495 -0.049737126 -0.06957606 -0.05601077
000070 b6 94 b4 bd 71 21 15 c0 8f d2 0e bf 81 d0 85 bf
       -0.08817427 -2.330166 -0.55790037 -1.0454255
000080 e0 c8 b1 bd f1 54 e6 3e d4 f1 83 3f 8f 16 b1 be
       -0.08680892 0.4498668 1.0308175 -0.34587523
000090 db 9d 0b bf d4 e5 1c 3f 1f 53 5d bf 0a 6c 45 c0
       -0.54537743 0.6128819 -0.8645496 -3.0847192
0000a0 2d bb 15 c0 d6 8f c2 3c d4 94 dc 3c d2 0e c3 3b
       -2.3395493 0.023750227 0.026926436 0.0059526945
0000b0 eb 9b 8f 3d f0 b7 9c bd f3 cd d3 be 30 47 99 3d
       0.07012161 -0.07652271 -0.41368064 0.07484281
0000c0 5f c3 d9 bb 90 bd 2b bf ff 34 fd 3e fa 1f 84 3f
       -0.0066456045 -0.67086124 0.49454495 1.0322258
0000d0 ec 74 b3 be 36 a3 bb 3d 49 ed 70 3d f5 44 ad bd
       -0.35050142 0.091619894 0.058820043 -0.08460418
0000e0 b8 ca 46 bd d3 29 29 bd 33 39 6e bd 9f 1c 22 bd
       -0.04853317 -0.041299652 -0.05816002 -0.039578076
0000f0 12 db cd bc 16 70 11 c0 9f 55 85 3d c1 34 85 bf
       -0.025128875 -2.2724662 0.065104716 -1.0406724
000100 90 a6 19 c0 81 b5 8f be 04 af b0 3d 81 fe 98 3d
       -2.4007912 -0.28068164 0.086271316 0.07470418
000110 1d 0e b3 3d f4 4a 14 bd c2 99 c6 3e 54 93 96 bc
       0.08742926 -0.036204293 0.38789183 -0.018380798
000120 36 22 aa bd 0b 27 19 bf 96 e2 b8 be ab cc 4c c0
       -0.083073065 -0.598252 -0.3611037 -3.199992
000130 61 35 99 bd a5 d1 ad be 2e 05 df be ac 25 55 bf
       -0.07480884 -0.3394901 -0.4355864 -0.8326061
000140 10 60 43 bd c2 3a 83 3d c5 9a 87 bf f4 19 99 bd
       -0.047699034 0.064076915 -1.0594107 -0.07475653
000150 91 8d 19 3d 3f 2b 18 c0 d3 e6 de bf de e2 b4 bd
       0.037488524 -2.3776395 -1.7414192 -0.08832334
000160 60 19 16 3d f6 b7 d0 bd 0a 73 05 bd c0 df 5f bc
       0.036645293 -0.10191338 -0.032580413 -0.013664186
000170 ec 76 7d bc 22 b0 a1 bf 3b 12 d7 3b 1f 9c 4c bc
       -0.015470248 -1.2631876 0.0065634525 -0.012488394
000180 eb cb 2d 3c 74 b0 e2 bc 97 45 af bc 21 9d a7 3d
       0.0106077 -0.02767203 -0.021395488 0.08184267
000190 c6 e1 d0 bd 29 c9 c4 bd be cc 73 3d 0c 5b 9f 3d
       -0.10199313 -0.09608681 0.05952143 0.07781038
0001a0 17 a8 cf 3d 70 bd d5 bc 02 ff 9e bf d3 3e 94 bf
       0.101394825 -0.026091307 -1.2421572 -1.1581672
0001b0 33 1b cf bf b4 9b da bf 20 53 6c 3d 10 05 b5 bf
       -1.6180176 -1.7078767 0.05769646 -1.414217
0001c0 13 c7 80 be a0 98 a4 bf f0 a1 00 3d 57 9e b3 bd
       -0.25151882 -1.2859077 0.031404436 -0.08770435
0001d0 c0 19 4c bb 49 97 ec bc 6d 9c 6e bd 0d ae 5a bd
       -0.0031143278 -0.028880732 -0.058254648 -0.053388644
0001e0 93 ff 3b 3c 7b 4d 8f 3d 59 11 a5 bf 25 b2 0e c0
       0.011474508 0.069972 -1.2895919 -2.229623
0001f0 2e 87 a9 3d 3d 6b 92 bf 2c 14 f7 bf 4a 20 da bf
       0.082777366 -1.1438977 -1.9303031 -1.7041104
000200 67 1b a5 bf d0 b0 d9 bd 06 2f 5b bf 4e ee a5 bf
       -1.2898988 -0.106294274 -0.8561863 -1.296335
000210 d2 a6 29 3e e5 7b 07 3d dd 20 27 3d a2 02 f9 3c
       0.16567543 0.03307714 0.040802825 0.030396763
000220 25 2d ea 3a d2 bd 8d bd 2d 94 ae bf cc 51 86 bc
       0.0017866237 -0.06920971 -1.363897 -0.016396426
000230 61 4c 62 3d b3 b8 94 bf d2 8a a0 bf 80 af d1 bf
       0.05524862 -1.1618866 -1.2542365 -1.6381683
000240 0f e2 ce bf 6a 64 bf bd c4 d1 d2 bd 5d 52 21 bb
       -1.6162738 -0.09345324 -0.10293916 -0.0024615743
000250 03 26 b2 3d 9d 3f 91 bd ef 00 a0 3c b3 22 23 3d
       0.086986564 -0.070922114 0.019531695 0.039828014
000260 13 39 da bc a2 22 3a 3d 5b 1e a4 bd 12 cc 01 c0
       -0.026638543 0.045443185 -0.08013602 -2.0280805
000270 4d f0 03 c0 9d 4f ce bf 24 26 57 3d 57 85 82 3d
       -2.0615418 -1.6118046 0.052526608 0.06373089
000280 b8 22 bf bb fc 45 0c bd 70 db a0 bf 28 89 43 3d
       -0.005832996 -0.03424643 -1.2566967 0.047738224
000290 bf cc 50 3d 80 d0 ac bf 72 d6 21 c0 33 8b b3 bf
       0.05097651 -1.3501129 -2.5287137 -1.4026855
0002a0 76 64 74 bd cd 07 cf bf b7 66 b1 bf 35 49 25 bf
       -0.05966612 -1.6174256 -1.3859471 -0.6456483
0002b0 4f 8e db 3a d1 2f 08 3c 47 80 a1 bf 8f 87 81 bd
       0.0016750785 0.008312182 -1.2617272 -0.06324684
0002c0 3d 35 93 3d 8a ab b8 3d 55 30 b5 bf b2 7f c0 3d
       0.07187889 0.090170935 -1.4155375 0.09399356
0002d0 3a 33 bc 3d 93 eb 92 bd d9 70 cd 3d 9f 40 0d bd
       0.09189458 -0.071738385 0.100312896 -0.034485456
0002e0 b8 85 8f 3d 58 e8 3c 3e 84 69 91 bd 0e c1 19 3b
       0.07007927 0.18448007 -0.07100204 0.0023461017
0002f0 ba cb a5 3d 9f a6 e0 bc c8 26 20 3d 43 f4 3a 3c
       0.080954984 -0.027423201 0.039099485 0.011410776
000300 8f 8c 80 bd 6f 8f f2 3c 89 93 af bd a3 e2 b7 bd
       -0.062768094 0.02960941 -0.08573062 -0.089787744
000310 12 e4 b0 bd d0 44 91 bd 87 d7 db c0 c4 59 8d bf
       -0.08637251 -0.07093203 -6.8700595 -1.1043019
000320 dc f9 9e 3f 97 79 dc c0 d4 19 ce 3d 25 45 7a 3d
       1.2420001 -6.8898425 0.1006352 0.061101098
000330 b4 3c b2 c0 f1 f5 e1 c0 45 21 0b 3d f6 7c cf 3a
       -5.56991 -7.061272 0.033967275 0.0015830088
000340 ce bd dd 3c 1e 89 2e 3d 48 44 ae bc 00 ef 1e 3b
       0.027068045 0.042611234 -0.021272793 0.0024251342
000350 a8 9e 01 bd e0 dc 79 c0 1a 87 a4 3d e3 a6 e2 c0
       -0.031645447 -3.9041061 0.08033581 -7.082872
000360 01 ec b4 bc 6a d9 99 bf 5d 03 01 40 31 c7 db c0
       -0.022085192 -1.2019475 2.0158303 -6.8680654
000370 31 c2 40 3e d1 3b a6 bf 20 dd 8d c0 d2 c0 cf c0
       0.18824078 -1.2987005 -4.433243 -6.4922876
000380 09 1a 7e c0 70 92 18 bd fc 13 4e 3d 8f e6 ac 3d
       -3.970339 -0.03724903 0.050312027 0.08442413
000390 63 30 e6 bc 9c 77 86 bd b4 b0 ad 3b 8a 8e ae bd
       -0.028099244 -0.065657824 0.0053006057 -0.08523281
0003a0 f5 04 90 3d 80 f9 de c0 06 23 9d bf 03 46 9f 3f
       0.070321955 -6.9679565 -1.2276313 1.2443241
0003b0 55 45 dd c0 de 71 a8 bd d1 9a fe 3c 57 11 65 bc
       -6.9147134 -0.082248434 0.031079682 -0.013981185
0003c0 2a fa d4 3d ed 81 91 bd 99 59 8f bb 6c 8b 93 bc
       0.103992775 -0.071048595 -0.0043746945 -0.018010817
0003d0 2c fb 22 3d 7c c7 79 c0 55 07 ae bd 6f f5 e3 c0
       0.039790317 -3.9028006 -0.08497492 -7.12371
0003e0 5f 02 90 bf 3e 1b d9 c0 99 ac d2 3d df 04 62 3d
       -1.1250724 -6.7845755 0.10286827 0.055180427
0003f0 bd 79 e0 3c a5 9b 8a bd c0 6b 8c bf d9 f1 5e bd
       0.0274018 -0.06767968 -1.0970383 -0.054429863

convs.0.fc_full.weight f4 [128, 169]
000000 37 91 f7 bf 38 c2 6c bf 0c 99 0b bf f7 8c 19 c0
       -1.9341191 -0.92483854 -0.54530406 -2.3992288
000010 16 0b 42 3f fa 11 6e be d7 a9 ce bf 80 6c c4 3d
       0.75798166 -0.23249045 -1.6145581 0.09591007
000020 a4 45 5e bf c2 90 da be 7a 7d 1e bf e4 74 ba 3f
       -0.86825013 -0.42688566 -0.6191021 1.4566922
000030 78 7a 97 bf 06 ff a9 bf 60 b3 a5 3e 7b d2 2a c0
       -1.183425 -1.3280952 0.32363415 -2.6690967
000040 37 99 db 3f e4 7a 37 bf 6f 28 89 bf 93 1f e6 be
       1.7156132 -0.7167189 -1.0715464 -0.44945964
000050 32 f8 be 3e 3e 3d ef be 00 ab 3b bf ad 82 a9 3e
       0.37298733 -0.46726412 -0.733078 0.3310751
000060 1f 0d 8f bd 2e 7b 22 3c 6f 67 79 bf db 69 9c be
       -0.069849245 0.009917064 -0.9742345 -0.3054951
000070 0b af 21 bf 6a 10 ee 3e 10 67 ac 3e a5 5a f1 be
       -0.6315772 0.46496898 0.3367238 -0.4713947
000080 c6 c9 28 3e 05 19 f7 3e 5a 35 b1 bd 3f a2 cb bf
       0.1648322 0.48261276 -0.08652754 -1.5908889
000090 c5 21 94 3d 9d b0 88 bf c0 6a 75 be 8f 3e 47 3e
       0.072330035 -1.0678898 -0.23966503 0.19457458
0000a0 f6 86 29 bf 22 bb d2 be 59 d7 d5 be f7 74 76 be
       -0.6622156 -0.41158396 -0.4176586 -0.24068056
0000b0 8e 14 63 be e4 4c 1e bf 48 19 19 bf 1c b0 38 bf
       -0.2217581 -0.61836076 -0.598042 -0.7214372
0000c0 a8 ed e1 bf c4 b1 9c 3f 08 51 d2 3e 91 d4 b4 3e
       -1.7650652 1.224175 0.41077447 0.35318425
0000d0 a8 d1 7f bf 16 5b 47 bf 59 11 f0 bd af 49 ba 3f
       -0.99929285 -0.7787336 -0.11722059 1.4553736
0000e0 a6 b2 1d bf 30 36 08 bf c5 0a c5 be 77 97 4f be
       -0.6160072 -0.53207684 -0.3848478 -0.20272623
0000f0 71 af 1b bf b3 3e 10 3f be 8b 2d bf 33 3f bc 3e
       -0.6081458 0.5634567 -0.67791355 0.36766967
000100 ba 35 9b bf 21 e8 6a be 88 be 7a 40 70 5c 7f 3f
       -1.2125771 -0.22940113 3.917879 0.99750423
000110 31 a0 a3 be 65 61 46 3e a0 e5 88 be d8 bf 7d 40
       -0.31958154 0.1937309 -0.2673769 3.9648342
000120 11 1a 9d bf 75 bf a9 3f 74 e6 33 40 51 32 98 3e
       -1.227358 1.3261553 2.8109407 0.29725888
000130 d4 9d a7 40 99 ed 4d 40 e5 34 a0 bf b1 87 4e 3e
       5.238016 3.2176268 -1.2516142 0.2016895
000140 d9 1d 94 bf 1a d7 fc 3f 61 49 3d c0 ef ce 29 be
       -1.1571609 1.9753144 -2.9576037 -0.16582845
000150 2a 31 6c c0 a0 ef b6 40 69 6e c2 3e aa 7b a8 bf
       -3.6905007 5.716751 0.3797486 -1.3162739
000160 4e 8f 02 c0 1b 8e 04 c0 40 db ba 3f c7 81 15 40
       -2.0399966 -2.0711734 1.459816 2.336046
000170 2b 7a 08 40 8b c5 f6 3d 71 af 8e c0 b6 1f d1 3f
       2.1324565 0.12049397 -4.458916 1.6337802
000180 a2 90 28 40 7f 67 19 40 25 1f 1b 40 b3 25 24 3f
       2.6338277 2.396942 2.423776 0.64120024
000190 44 ca b6 3e 43 ff 47 c0 72 21 cc 3f 74 4c 19 c0
       0.3570119 -3.124955 1.5947707 -2.3952913
0001a0 70 eb 41 40 5a 0e 19 40 02 0b 45 c0 7b 53 77 3f
       3.029995 2.391501 -3.0787969 0.96611756
0001b0 13 bb ab c0 03 eb 93 3f 97 13 e8 3f d2 66 36 40
       -5.366586 1.1556095 1.8130978 2.8500257
0001c0 36 bb 03 3e 71 92 6f c0 ab 1e bc bf 8b f6 5e c0
       0.12864384 -3.743313 -1.4696859 -3.4837978
0001d0 09 99 59 c0 4f 8e 0b c0 fc d0 79 c0 47 08 c6 bf
       -3.3999655 -2.1805608 -3.9033804 -1.5471276
0001e0 93 86 d0 3f 8e 0f 0b 40 aa 54 8f bf 19 4e 97 40
       1.6291069 2.1728244 -1.1197712 4.7282834
0001f0 e9 fa c8 bf fa 4f b6 40 7d 15 4d 40 53 c1 74 c0
       -1.5701572 5.697263 3.2044365 -3.8242996
000200 6a 85 87 bd 93 a9 ad bd c0 1b 8b bd ec 19 6b be
       -0.066172436 -0.08479609 -0.06792402 -0.22959107
000210 fc d5 f2 be 9a 5e 38 bf 07 10 af 3d 21 ee 8c 3f
       -0.47428882 -0.7201935 0.08547979 1.1010171
000220 4c a1 e4 3e 85 8e 0f bd a0 e4 c1 bf 57 2e 1a bf
       0.4465431 -0.035048027 -1.5147896 -0.6022696
000230 74 00 89 3f cc f5 8a 3f 9d a3 5c 3f 52 bc 63 be
       1.0703263 1.0856261 0.86187154 -0.22239807
000240 f3 41 cd bf 3b d9 10 c0 5a 4e 6e bf 88 e7 cd 3e
       -1.6035751 -2.2632587 -0.93088305 0.40215707
000250 34 b9 1f 3f 3f 79 30 3f 62 6c e5 3e a2 19 ea 3e
       0.6239197 0.68935007 0.44809252 0.4572268
000260 ae 4a 96 be 25 e1 93 be 34 e3 4a be 3f a4 21 3d
       -0.2935385 -0.2888271 -0.19813234 0.039463278
000270 42 98 3a 3e ed 68 ac bb af d2 40 be 21 18 e7 be
       0.18222144 -0.0052615316 -0.1883037 -0.45135596
000280 91 1b 37 be a4 06 3a 3d ee 5d 69 3d 47 98 c7 3d
       -0.1788161 0.04541649 0.056974344 0.097458415
000290 8f ae c3 bc c6 06 97 3d 5d 6f 1a 3d 83 b8 0e bd
       -0.023886947 0.07374339 0.03770386 -0.034843933
0002a0 92 5d 80 bd 1a d1 88 3e 02 b7 25 bf 0c d5 55 3f
       -0.06267847 0.26722032 -0.6473237 0.8352821
0002b0 ac 33 28 3e 84 04 f2 be 2d 36 7f be 8d 96 83 be
       0.16425961 -0.4726907 -0.2492301 -0.257008
0002c0 f5 14 aa bd e2 f3 b5 bc f0 15 03 3f 96 b7 3a 3f
       -0.083047785 -0.022211019 0.5120535 0.7293638
0002d0 70 47 01 bf 55 4c 41 3f 86 49 8d 3e a6 89 22 bf
       -0.5049963 0.755071 0.27595156 -0.63491285
0002e0 70 37 8d 3e 04 c3 47 bf 15 b0 01 3f 4b be 33 3f
       0.27581358 -0.78031945 0.50659305 0.7021224
0002f0 19 4e 19 3f 03 82 9e be cd 46 2c 3f 61 31 e9 3e
       0.5988479 -0.30958566 0.67295533 0.45545486
000300 92 ad 33 bf 3f fb 4d 3e 14 e2 30 3e 3a c9 c9 3e
       -0.7018672 0.20115374 0.17273742 0.39411336
000310 ee 20 7e 3f 86 49 08 bf ef 26 5e bf 51 24 9f be
       0.99268997 -0.5323719 -0.8677816 -0.31082395
000320 55 54 ec 3e 95 c8 3a 3f 12 d5 f2 be f5 ba 07 3f
       0.4615809 0.72962314 -0.47428185 0.5301965
000330 d9 b7 db 3e 3f b6 0f 3f f3 f4 ac be 15 88 ee bd
       0.42913702 0.5613746 -0.3378063 -0.11647049
000340 15 5e b6 be 51 39 f9 3e a4 f2 15 3f 9d a1 ea be
       -0.35618654 0.4867654 0.58573365 -0.45826426
000350 e4 e0 72 3f a1 47 8f be 40 17 54 3f a0 61 72 3e
       0.94874406 -0.27984336 0.82847977 0.23670053
000360 96 d3 ab 3e 34 dc 49 be d4 0e ea bd a0 55 08 bf
       0.33559865 -0.19712907 -0.114286095 -0.53255653
000370 f5 bf 5f bd 59 49 7a 3d 46 3c 4b 3f 2a 67 94 be
       -0.054626424 0.061105106 0.79388845 -0.28984958
000380 24 ab 0e bd 4f 08 d5 3e 0a b3 6c 3e 8f e1 ef be
       -0.03483118 0.416079 0.23115173 -0.46851775
000390 fa 80 f0 3d 42 bc 86 3d 78 e4 9f 3d 06 b8 39 3f
       0.1174335 0.06578876 0.07807249 0.7254642
0003a0 69 03 7d bf 4b 73 bb be b9 99 22 bf f0 17 41 3f
       -0.9883333 -0.366114 -0.6351581 0.7542715
0003b0 58 f7 24 be cc 44 98 3e 39 d8 85 bf b0 a3 16 3f
       -0.16109979 0.29739988 -1.0456611 0.5884352
0003c0 9b 6c a0 3c 20 b6 43 be b1 21 68 3f 89 cd fa 3e
       0.019583037 -0.19112444 0.9067641 0.48984936
0003d0 2f dd df 3e 77 7b 40 3f 83 fb 18 3f ef fd 4f bf
       0.43723437 0.7518839 0.59758776 -0.81246847
0003e0 76 f5 88 3d 89 03 2b bf 50 65 2c 3f 04 10 ae be
       0.06687443 -0.6680227 0.6734209 -0.33996594
0003f0 18 0a e2 3d 5a 3c ce bf 54 f3 24 3f d6 d0 15 3f
       0.110370815 -1.6112168 0.6443379 0.58521783

convs.0.fc_full.bias f4 [128]
000000 29 d3 62 bd 1b 80 ed bc f2 c0 fe bd 8a 56 4e bd
       -0.05537716 -0.02899175 -0.12439145 -0.0503755
000010 1c 50 29 bd 00 33 d2 bd 59 a4 f7 bb 6f 5f 31 bd
       -0.041336164 -0.10263634 -0.0075574336 -0.043303903
000020 b6 77 94 bd 4a 0a 09 bd d8 b8 5f 3d 3b 56 a1 bd
       -0.072493955 -0.033457078 0.05461964 -0.07877775
000030 86 a6 35 3c bc df f9 3c 9b 81 ed bd 1d 38 e0 3c
       0.011087066 0.030502193 -0.11596986 0.027370507
000040 f9 39 65 bd 01 2a 92 bd f3 70 b5 3d 60 41 32 3d
       -0.05596349 -0.07136918 0.08859434 0.043519378
000050 8d 18 77 3d 33 b4 ab 3d 90 d7 8b 3c 7b 4e 88 bb
       0.060326148 0.0838398 0.017070562 -0.004159746
000060 a5 7d 70 bc 37 5e fe bd ec 00 d6 3d d8 d8 e4 3d
       -0.0146783935 -0.12420314 0.104493946 0.11174172
000070 00 eb 37 3d de 63 ff 3c 3e ef d9 bc 83 af 3e bd
       0.044901848 0.03117555 -0.026603337 -0.0465541
000080 04 d7 7a 3c f7 0f 8e bd 58 fc f1 bd f4 3e ba 3d
       0.015310053 -0.06936639 -0.11815709 0.090940386
000090 07 c4 5c bc cd 59 cc 3d 05 ca b9 bc 90 ec 85 bd
       -0.013474471 0.09978066 -0.022679338 -0.06539261
0000a0 a8 8b 4b 3d d0 b4 38 bd 18 4d 51 3d ce 34 0e 3d
       0.049693733 -0.04509431 0.051098913 0.034718327
0000b0 af a6 94 bd 17 a5 89 bd cd 15 bf 3c 21 52 88 3d
       -0.07258355 -0.067209415 0.023325825 0.0665629
0000c0 38 3a 46 bc 99 8f 37 3d 7a 58 f2 3d 38 95 04 bd
       -0.012098841 0.04481468 0.11833282 -0.03236887
0000d0 3c da c0 39 71 c2 7c bd be d1 bd bb 7c a2 e2 3c
       0.0003678369 -0.06170887 -0.0057928255 0.02766537
0000e0 76 5f c5 3d 06 a7 70 3d d0 9a db 3d e7 48 18 bd
       0.09637348 0.058753036 0.107228875 -0.0371789
0000f0 48 6f 0e bd 73 9f dd 3c 42 04 94 bb 92 0d b5 bb
       -0.034774095 0.02705357 -0.004517109 -0.0055252993
000100 0a 1f 62 3b 5d 11 d3 39 2f 22 96 bc 00 78 15 bc
       0.0034503364 0.00040257993 -0.018326847 -0.0091228485
000110 8f 58 c1 bd e8 81 3e bd 6d be 79 bd 5c b1 0a bd
       -0.09440719 -0.046510607 -0.06097262 -0.03386055
000120 fa 18 3e bd 66 a5 f8 3d 11 c4 c1 3d 51 92 05 bd
       -0.04641054 0.12140922 0.09461225 -0.03261024
000130 16 07 a1 bd 0e 6e ad bd e7 6a 79 3c d3 bf 04 3c
       -0.0786268 -0.08468257 0.015223241 0.008102375
000140 33 91 29 3d 43 87 e8 3d a0 97 88 3b f1 be b7 bd
       0.04139824 0.11353924 0.0041684657 -0.08971966
000150 27 d7 75 3d fd ec c7 3c 33 9d 72 3d 15 29 6b bd
       0.06001964 0.024404997 0.059231948 -0.057412226
000160 35 e8 7b 3d b5 ec cb 3d e0 7f b2 bb 0b 37 7e bc
       0.061500747 0.09957258 -0.005447373 -0.015516053
000170 34 d6 53 3d fb 79 67 bc 89 1b 83 bc 6a c4 02 bd
       0.051717952 -0.0141282035 -0.01600434 -0.031925596
000180 d1 cc 87 3a 8a f4 03 bd 90 3a 6b 3d 9a d2 5b bd
       0.0010360723 -0.032215632 0.057428896 -0.053667642
000190 b3 33 23 3d 1a e7 d2 3c 5f 1e 07 be 21 ef 1c 3e
       0.039844226 0.025744963 -0.1319518 0.15325595
0001a0 6d c3 83 bd 5a 61 11 bd da 77 1d 3d 1e 34 c3 3d
       -0.06433759 -0.035493232 0.038444377 0.09531425
0001b0 4b ba 99 bd 0e c6 c9 bd 5f d9 31 bc 48 f9 b9 bc
       -0.07506236 -0.09852229 -0.010855048 -0.022701874
0001c0 ba 77 5b 3d 71 d4 0b bd a3 87 a8 bd cf 4d ec bd
       0.053580977 -0.034138147 -0.08228996 -0.11538278
0001d0 ea c4 01 3d be 38 c6 bb be 1c 2f bc 10 88 cd 3d
       0.031681933 -0.0060492447 -0.010688005 0.100357175
0001e0 b0 dc 93 bd 53 e4 3a bd d8 e6 ce 3d 2c cf e7 3c
       -0.07219827 -0.045627903 0.10102624 0.02829703
0001f0 78 06 20 3d fa 6a f8 bb 3e bd d7 3d 49 3a 68 3d
       0.03906867 -0.007581112 0.10534142 0.05669621

convs.0.bn1.weight f4 [128]
000000 86 97 b9 40 a6 2a ab 3f fb b6 9c 40 8f d3 cb 3f
       5.7997465 1.337239 4.8973365 1.5923938
000010 8d 69 0f 41 e3 15 a3 3f e3 92 9d 40 68 01 09 40
       8.963269 1.2741054 4.9241805 2.1407108
000020 07 2e 8a 40 5b 3e 9a 40 ca 8b 30 3e c6 0d ec bf
       4.3181186 4.8201118 0.17240825 -1.8441703
000030 ed 37 f8 40 79 bf 49 40 86 d0 bd 3f aa 41 47 3f
       7.756827 3.1523116 1.4829261 0.7783457
000040 f8 31 1a 40 4c 4a 1c 3f 6a c9 f6 40 57 3f 64 3f
       2.4092999 0.6105087 7.7120867 0.8915915
000050 45 a6 35 40 8f 7a 99 40 5f b3 10 41 7b 6d cf 3f
       2.8382733 4.796211 9.043792 1.6205286
000060 1d 8c 90 3f 6b 97 20 40 a5 16 3e 41 d1 e1 32 41
       1.1292759 2.5092418 11.880528 11.180131
000070 22 34 5d be a9 72 05 3f 53 16 b3 3f 78 33 be 3f
       -0.21601918 0.5212808 1.3991188 1.4859457
000080 6c 5f d4 40 25 e6 6f 41 0b ef 16 40 c9 1c d6 3a
       6.636648 14.993688 2.35834 0.0016335483
000090 53 b1 83 40 20 d3 b7 3e 71 03 2e 41 5d 1a 11 41
       4.115396 0.35903263 10.87584 9.068936
0000a0 5f 73 00 41 b9 80 6c 40 10 fa 9d 40 f2 11 b5 40
       8.028167 3.6953566 4.936775 5.6584406
0000b0 3a 3c 1b 3e 82 2f 8f 40 48 9a 81 40 88 83 9b be
       0.15159693 4.4745493 4.050083 -0.30373788
0000c0 00 ad 00 41 94 67 a3 40 d4 64 d1 be bb d3 5a 41
       8.042236 5.106394 -0.40897238 13.676692
0000d0 95 a7 36 41 b8 b5 8f 3e 2a a4 11 40 74 df 18 40
       11.415914 0.28068328 2.2756448 2.3886385
0000e0 93 d4 b8 40 62 c4 0a 41 b6 6d a4 3f 95 63 e1 3d
       5.775949 8.672945 1.2845981 0.11005322
0000f0 4c e1 d9 3e d1 27 e1 3c d1 2f 4e 40 0a 61 d9 3d
       0.425547 0.027484806 3.2216685 0.10614212
000100 51 97 f3 3f 07 b2 01 3f 75 7a 57 3f ea 52 0a 3f
       1.9030553 0.50662273 0.8417123 0.54032767
000110 76 17 13 40 a8 33 0c bf 4e e7 8b 3f 59 11 52 3f
       2.298307 -0.5476632 1.0929964 0.8205772
000120 39 08 99 be 8c 50 01 41 56 5c 35 3f 15 f3 30 3e
       -0.29889086 8.082165 0.7084402 0.17280228
000130 5c b5 8c 3d 2b b4 a7 40 2e 21 e1 bf 58 7b 7f 3f
       0.06870529 5.240743 -1.7588251 0.9979758
000140 01 c0 c3 3d 65 50 bc 3e 6c 6d fa ba a2 43 95 bf
       0.09558106 0.36780086 -0.0019106097 -1.1661265
000150 2a ed 9f 40 35 22 ac 40 57 91 1f 3f 81 db 42 40
       4.9977007 5.3791757 0.62331146 3.0446475
000160 80 9e ea 3f 32 d4 df 3f 8b f9 95 3f 8a 13 c1 c0
       1.832962 1.7486632 1.171678 -6.033635
000170 e0 ec 40 bf 4f 7b cc 3f b3 68 70 40 41 27 72 3f
       -0.7536144 1.5975131 3.7563903 0.94591147
000180 b6 54 81 3f 7c ce 43 40 62 21 58 3e 9f 0d d0 3e
       1.0103977 3.0594778 0.21106485 0.40635392
000190 5b 3b 69 3e 6c 18 96 3f 9b 8a 44 3e bb f5 ff 3d
       0.22776549 1.1726203 0.19193499 0.12498041
0001a0 d4 25 10 40 94 8b a0 bd 80 2c c2 40 99 64 85 be
       2.2523088 -0.078391224 6.067932 -0.26053312
0001b0 ac 60 01 bf be 18 8f 3f 81 63 6e 40 a3 fa 38 3e
       -0.50538135 1.1179426 3.7248232 0.1806436
0001c0 12 03 3a bf 6d a7 e5 c0 d4 a3 98 bf 2d 5b 07 be
       -0.72660935 -7.1766877 -1.1924996 -0.13218375
0001d0 6b fd 19 be c6 c1 c1 be 9d 57 0e 40 05 47 5b 40
       -0.15038078 -0.3784315 2.2240975 3.4262097
0001e0 b6 e1 27 40 25 eb ec 3e f2 fd 4b 40 c5 98 af be
       2.6231513 0.4627315 3.1873746 -0.3429624
0001f0 6d 00 01 c0 58 40 02 bf b8 94 42 be 90 8b d6 3e
       -2.015651 -0.5087943 -0.19002044 0.41903353

convs.0.bn1.bias f4 [128]
000000 79 b0 98 bf 07 2a 8f be 68 d0 31 40 6d 43 1a bf
       -1.1928855 -0.27961752 2.778345 -0.60259134
000010 73 85 86 3e f2 a7 07 c0 5a bc ac 3e 98 b6 f1 3f
       0.2627369 -2.1196256 0.3373745 1.8883848
000020 05 ab 90 3e b0 80 00 bf 37 4b a0 40 e7 a7 ce 3f
       0.28255478 -0.5019636 5.0091815 1.614499
000030 fe 02 bf 40 9a cb 5d c0 81 ad 13 40 78 bf 10 40
       5.9691153 -3.4655519 2.3074648 2.2616863
000040 98 df a2 3f ed ad 91 40 d8 f7 4b 3f 78 69 11 41
       1.2724485 4.552481 0.79675055 9.088249
000050 21 4f a3 40 54 02 57 bf ee 74 08 40 ab 4a 59 3f
       5.1034093 -0.8398793 2.1321368 0.8487956
000060 3f c3 0a 3f 69 09 de 3f 73 1d 82 40 1c a8 99 c0
       0.5420417 1.7346622 4.066095 -4.801771
000070 0d 75 ab 40 b2 4d cc 3f 20 5f c2 40 d8 cb 0a 41
       5.3580384 1.5961211 6.074112 8.674767
000080 66 2d 11 3e 40 26 ec c0 f3 2c 9c 40 39 25 e9 3f
       0.14177474 -7.379669 4.880487 1.8214484
000090 fe e0 bd 3f 46 bc 6d 40 5b 64 ac 3f 67 8f 89 bf
       1.4834287 3.7146163 1.3468126 -1.0746888
0000a0 2f 0d 4b 3f a2 d6 e5 40 f9 9a d2 c0 de 46 f3 3f
       0.7931699 7.1824503 -6.5814176 1.9006002
0000b0 08 73 05 40 1f e9 8a 40 9f b6 3b 3f 2c c9 02 41
       2.085146 4.340957 0.7332553 8.174114
0000c0 ba 55 d8 be 13 ad a6 c0 cd 5e 86 3f 94 d9 8f bf
       -0.42252904 -5.208627 1.0497681 -1.1238275
0000d0 b8 87 a7 3f 9e 26 03 41 3a 9d 0e 3f 2c e4 5e c0
       1.3088293 8.196928 0.5570866 -3.4826765
0000e0 ba ee dd be 3d 02 5e 3f b7 cc 25 c0 60 b0 dd 40
       -0.43346196 0.86722165 -2.5906198 6.92778
0000f0 f6 d9 41 40 01 71 23 40 ba 2b b8 40 56 a3 31 41
       3.0289283 2.5537722 5.7553377 11.102377
000100 c0 9d 17 40 fa 3a 6d 3d cd 01 e5 40 1c cd 49 3f
       2.3690033 0.057917573 7.15647 0.788286
000110 95 19 c4 3f 42 5c b6 40 45 93 3a 40 cd 61 6c 40
       1.5320307 5.698762 2.9152386 3.6934693
000120 f1 ae 2a 41 cf 65 14 bf 65 18 2b 40 93 93 06 40
       10.66771 -0.5796785 2.673364 2.1027572
000130 9b 2f 85 41 9a 3c 84 c0 19 fb 6c 3d 2f 3b 47 3e
       16.648245 -4.1323977 0.057856653 0.1945617
000140 cf 2e 92 40 d8 2d b9 40 05 43 83 40 77 5f 0a 41
       4.568214 5.786846 4.101931 8.648307
000150 6f ca 01 be 27 59 d3 bf 8b 85 3b 41 e3 db 7a bf
       -0.12674879 -1.6511582 11.720103 -0.9799177
000160 d3 49 d7 be 1a e0 14 40 d8 bc c0 40 fc 48 ab c0
       -0.4204851 2.326178 6.023052 -5.352659
000170 74 00 50 40 99 8b 4e 3e a8 01 92 3d 0b cf f4 40
       3.2500277 0.2017044 0.07129222 7.650274
000180 45 94 58 40 55 30 5f 40 56 d5 15 41 69 5e 18 40
       3.3840497 3.487325 9.364584 2.3807623
000190 f7 0d 2a 40 3a fe bc 3f 09 13 1a 41 32 41 d0 40
       2.6571023 1.4765084 9.629647 6.5079584
0001a0 5b f4 43 40 c4 9c 6b 41 6e ea 08 c1 92 ae 53 41
       3.0617893 14.725773 -8.557234 13.23012
0001b0 69 eb e7 3f fc 47 bc 40 af a0 cd 3f ba 37 96 40
       1.8118716 5.883787 1.6064662 4.6943026
0001c0 0d cb c5 40 ce 27 24 bf 26 ce a7 3f 37 90 dc 40
       6.1810365 -0.6412324 1.3109787 6.8926044
0001d0 6c a4 04 41 59 03 aa 40 05 65 fa 3f 05 94 1c c0
       8.290142 5.3129086 1.9562079 -2.4465344
0001e0 72 dd 11 40 a3 b9 24 41 94 21 88 3d 9c d7 73 40
       2.279141 10.295321 0.066470295 3.8100348
0001f0 f5 c9 85 40 3d 84 de 3f 8c 28 11 41 0a 11 1c 41
       4.180903 1.7384106 9.072399 9.75416

convs.0.bn1.running_mean f4 [128]
000000 92 9d 2d c4 8d 3e ff c3 08 5f c9 44 fc 4d c7 43
       -694.46204 -510.48868 1610.9697 398.60925
000010 f7 c4 60 c5 3f 4e 9e 45 d5 1a 16 c5 3a cc 8e c4
       -3596.3103 5065.781 -2401.677 -1142.3821
000020 27 d4 f6 c3 70 78 0f c5 a6 fa 22 c5 b3 9b 1f 44
       -493.65744 -2295.5273 -2607.6655 638.4328
000030 01 49 3f c4 32 36 98 44 79 8a ce c3 71 c8 7f c3
       -765.1407 1217.6936 -413.08182 -255.78297
000040 49 60 c4 c4 61 c1 31 45 71 1a 4c 45 72 bd 0b c5
       -1571.0089 2844.0862 3265.6526 -2235.8403
000050 72 0f c9 c4 cd 72 83 44 a2 01 81 c5 3e 93 0a 44
       -1608.4827 1051.5875 -4128.204 554.30066
000060 59 1b a8 44 7e df c9 c4 0e a3 81 44 88 50 91 45
       1344.8546 -1614.9841 1037.0955 4650.0664
000070 81 7d 9c 42 c3 05 34 45 b2 5f cb c3 e9 9f 83 c3
       78.245125 2880.36 -406.74762 -263.2493
000080 f3 53 e7 c4 f5 d3 a6 c4 a9 78 18 45 25 92 ed 43
       -1850.6234 -1334.6237 2439.5413 475.14175
000090 61 80 a6 c2 e3 ba fe 44 fc 48 a6 c5 7b 51 63 c3
       -83.25074 2037.8402 -5321.123 -227.31828
0000a0 b6 99 bb c4 ac fd 49 45 7b 2e 48 44 14 a9 4a 44
       -1500.8035 3231.8545 800.72626 810.64185
0000b0 54 8d d1 44 e8 ea 63 43 a4 60 9d c4 32 ca b9 c4
       1676.4165 227.9176 -1259.02 -1486.3186
0000c0 5c ff 00 c5 cb 3d bd 42 93 30 90 c4 a6 1d e5 c4
       -2063.96 94.62069 -1153.518 -1832.9265
0000d0 f9 1a 3f c5 33 a3 13 45 53 ff 1f 44 43 91 04 44
       -3057.6858 2362.2 639.98944 530.2697
0000e0 ce 5b c0 c4 fa f3 1d c5 5c cf 44 44 37 54 79 c3
       -1538.8689 -2527.2485 787.24 -249.32896
0000f0 20 b3 7f 45 8d 7b 8e 42 db 35 20 45 db 7f 87 c2
       4091.1953 71.24131 2563.366 -67.74972
000100 3a b1 c4 c4 45 01 36 c4 af 35 d2 c4 dc 44 b6 43
       -1573.5383 -728.01984 -1681.6776 364.53796
000110 9d dd f1 c4 3f 93 c2 43 76 d6 59 c5 69 a4 38 c5
       -1934.9254 389.15036 -3485.4038 -2954.2756
000120 ad 72 96 43 70 2d 5a c5 2f 52 57 c5 2e 0d f3 43
       300.8959 -3490.8398 -3445.1365 486.10297
000130 db 1c 93 c4 fb f8 8b 44 9b ba 04 c5 72 5d fe c3
       -1176.9017 1119.7806 -2123.6628 -508.73004
000140 61 f1 b5 c3 af c3 4d 45 9f 48 4f 45 a4 8a c0 44
       -363.88577 3292.2302 3316.5388 1540.3325
000150 87 d0 33 c5 40 26 93 44 9d 26 aa c5 b0 1a 0c 43
       -2877.033 1177.1953 -5444.8267 140.10425
000160 97 b8 d4 44 cb 12 1e c5 3a 45 7c c5 75 6c 93 45
       1701.7684 -2529.1746 -4036.3267 4717.557
000170 a2 02 7e c2 94 60 0c c5 d9 eb 52 c5 5a 2c c8 c3
       -63.50257 -2246.0361 -3374.7405 -400.3465
000180 55 8b 7e c5 fa 27 83 c3 de 56 34 45 40 b6 00 c4
       -4072.7083 -262.31232 2885.4292 -514.84766
000190 21 1f e1 c3 b7 34 17 c3 83 b7 e7 c5 eb cf 45 c5
       -450.2432 -151.20592 -7414.939 -3164.9949
0001a0 fc dd c9 c4 a4 1f 4d 45 e9 94 01 43 fc 5d 6d 45
       -1614.937 3281.9775 129.58168 3797.874
0001b0 cf d5 9e c4 f0 83 9f c4 4e 65 36 c5 6b 0f 50 45
       -1270.6815 -1276.123 -2918.3315 3328.9636
0001c0 90 45 8b c5 95 1c e4 44 e2 ca 2a c5 e3 15 b1 c5
       -4456.6953 1824.8932 -2732.6802 -5666.736
0001d0 53 02 63 c5 2b 30 c1 45 23 44 88 44 2e 2d 3f 44
       -3632.1453 6182.021 1090.1293 764.70593
0001e0 29 c0 f9 c4 31 ee 63 c5 1a e5 d6 44 cd 93 1c c5
       -1998.005 -3646.887 1719.1594 -2505.2375
0001f0 f3 19 22 45 16 1b 63 44 e2 40 34 c5 11 90 af 43
       2593.6218 908.4232 -2884.0552 351.12552

convs.0.bn1.running_var f4 [128]
000000 29 0e d5 49 69 4e 39 48 0f 3d 76 49 c9 63 24 48
       1.7453491e+06 189753.64 1.00859294e+06 168335.14
000010 41 9b c6 4a 75 c7 c0 4a b7 94 dd 4a 41 87 a0 4a
       6.5079365e+06 6.3169865e+06 7.2607635e+06 5.2601925e+06
000020 a9 be 26 4a 58 92 6d 4a 3d 63 18 4a 15 47 95 48
       2.7319462e+06 3.892374e+06 2.4967192e+06 305720.66
000030 8b 46 22 4a b3 6a 2f 49 2c 69 0a 49 ce 6d 8a 47
       2.6587228e+06 718507.2 566930.75 70875.61
000040 76 78 0d 4a 59 f6 0d 4a 86 19 95 4a 3e f6 83 4a
       2.3178535e+06 2.3259102e+06 4.885699e+06 4.324127e+06
000050 b2 4d 98 49 9e bd 8e 49 0b 18 88 4b a3 21 3e 4a
       1.2476702e+06 1.1693318e+06 1.7838102e+07 3.1151128e+06
000060 af a3 09 49 22 fd b9 4a b0 c5 c8 48 b8 f1 0c 4b
       563770.94 6.094481e+06 411181.5 9.23692e+06
000070 7b 6c 5c 49 e5 52 92 4a 8f 50 6f 49 12 94 2b 4a
       902855.7 4.7947385e+06 980232.94 2.8111405e+06
000080 7b ed 8d 4a 22 c6 1f 49 6d bc 35 4a 36 d5 be 48
       4.6506855e+06 654434.1 2.9775632e+06 390825.7
000090 9a ec 05 48 bc 23 aa 49 30 89 8f 4b 85 11 7d 4a
       137138.4 1.3937835e+06 1.8813536e+07 4.1462732e+06
0000a0 57 36 c2 4a a7 8d 17 4a fc fb bd 48 10 d8 ab 4a
       6.3639475e+06 2.4830498e+06 389087.88 5.630984e+06
0000b0 80 43 ac 49 26 06 77 4a 4b 2a 9c 49 c7 f8 6e 49
       1.411184e+06 4.0472415e+06 1.2793054e+06 978828.44
0000c0 7d 80 c1 4a 1f 37 09 4a ee 23 8e 49 3c 6b 03 4b
       6.3406705e+06 2.2481358e+06 1.1644138e+06 8.612668e+06
0000d0 e8 c5 8c 4a 98 b3 89 4a f6 6a 8a 49 45 ec 8d 49
       4.612852e+06 4.512204e+06 1.1339188e+06 1.1626326e+06
0000e0 4b fc ce 4a 8b 47 be 4a e2 b4 08 4a b1 ba 09 49
       6.7825015e+06 6.2350775e+06 2.2398005e+06 564139.06
0000f0 dd 3f 99 4a 8a 07 b8 48 ef cd bf 49 5a ac 98 4a
       5.0216785e+06 376892.3 1.5712619e+06 5.002797e+06
000100 87 0c 99 49 8f 09 a6 48 ce 0c 4d 4a f5 fc bc 47
       1.2537769e+06 340044.47 3.3595395e+06 96761.914
000110 a4 a1 d3 4a 36 93 66 49 58 17 1f 4b bc 5a 02 4b
       6.934738e+06 944435.4 1.04262e+07 8.542908e+06
000120 30 06 c7 49 f3 08 ae 4a 36 e9 80 4a 7e a8 9d 48
       1.630406e+06 5.7027775e+06 4.224155e+06 322883.94
000130 b0 d0 39 4a ae cc 0d 49 83 78 c8 49 91 8f 88 48
       3.044396e+06 580810.9 1.6422564e+06 279676.53
000140 96 d2 30 4a 53 82 3e 4a 4b 8b bc 4a ff c2 94 4a
       2.8970615e+06 3.1213008e+06 6.1782135e+06 4.8746235e+06
000150 6e ec 5f 4a 30 38 c0 49 77 53 9a 4b a2 87 6d 4a
       3.6687635e+06 1.574662e+06 2.0227822e+07 3.8916885e+06
000160 f8 37 1c 49 0b f1 0d 4b dc 99 15 4b 38 9d 02 4b
       639871.5 9.302283e+06 9.804252e+06 8.559928e+06
000170 4c 03 8b 49 ac 0f 65 4a 2c c5 e7 4a b6 b2 4a 4a
       1.1387935e+06 3.752939e+06 7.594646e+06 3.3210055e+06
000180 75 a4 98 4a 0a e7 e8 4a 04 e1 87 4a 7d 24 26 49
       5.0017865e+06 7.631749e+06 4.452482e+06 680519.8
000190 60 79 0e 48 b7 65 6a 4a b3 77 b7 4b 07 b3 f1 4a
       145893.5 3.8403658e+06 2.4047462e+07 7.9200035e+06
0001a0 2d 38 d4 4a ef 07 28 4a 09 9d 78 48 7d f9 c8 4a
       6.9540065e+06 2.7530198e+06 254580.14 6.5855345e+06
0001b0 d8 b8 9e 49 74 95 9d 4a 39 cb 87 4a f7 3f 67 4a
       1.300251e+06 5.163706e+06 4.4496925e+06 3.7887978e+06
0001c0 1a 35 f1 4a 12 12 60 4a cb e4 38 4a 35 44 ac 4b
       7.903885e+06 3.6711725e+06 3.0292988e+06 2.2579306e+07
0001d0 96 89 b8 4a 04 2a 88 4b c2 8d 59 49 cb 2d 9e 49
       6.046923e+06 1.7847304e+07 891100.1 1.2958014e+06
0001e0 3c 19 bc 4a 96 a7 06 4b ac f4 ba 49 03 1b a0 4a
       6.163614e+06 8.824726e+06 1.5315415e+06 5.2463375e+06
0001f0 5f 22 be 4a 67 9a 38 49 4c b8 72 4a 4a c3 eb 4a
       6.2303195e+06 756134.44 3.976723e+06 7.725477e+06

convs.0.bn2.weight f4 [64]
000000 55 fe bc 3f 85 e9 42 3f 15 85 94 3e 52 5b 25 be
       1.4765116 0.7613757 0.29007784 -0.16148117
000010 b1 5f 6b 3f 22 45 ba 3e 1e 6d aa 3f 88 70 17 3f
       0.9194289 0.3638087 1.331455 0.59156084
000020 c3 5b 4d 3f f3 ad 9c 3f 37 ec 16 c0 57 32 ea 3d
       0.8021814 1.2240585 -2.3581674 0.11435383
000030 dd 20 80 40 98 20 63 40 fb 60 92 3e c5 f5 a2 3d
       4.0040116 3.5488644 0.28589615 0.07957033
000040 86 be a7 3f 84 32 0c 40 15 6f 25 3f 65 c0 e5 bb
       1.3105018 2.1905832 0.6462262 -0.0070114606
000050 35 18 67 40 b1 ce aa 40 4a e1 b9 3f 19 ad 9f 3f
       3.6108525 5.337731 1.4521878 1.24747
000060 fe 0e 25 c0 92 20 d2 3f ea 55 c0 3e ee 19 e1 3e
       -2.57904 1.641619 0.37565547 0.43965095
000070 a8 77 e8 be 78 5c 9b bc dc eb e1 3f 2d 34 4d 40
       -0.4540379 -0.018964991 1.7650104 3.2063096
000080 2a f7 f5 bd fa e3 57 3f 6b ae 56 3f d7 a6 12 40
       -0.120100334 0.8433224 0.8385989 2.291433
000090 bd a4 f4 3e 2d 0e 39 40 71 d3 c6 3f 1e 33 e1 3f
       0.47781935 2.8914902 1.5533277 1.7593725
0000a0 ec cb 90 3f 88 04 48 3f 32 8a a4 3e 5f 32 65 3f
       1.1312232 0.78131914 0.32136685 0.89529985
0000b0 ca 18 1a 3e c0 a3 03 40 ed 1c a3 3f f8 53 11 40
       0.15048519 2.0568695 1.2743202 2.27075
0000c0 0f 85 82 3f 11 36 05 40 fa 0d 5b be 23 81 00 40
       1.0196856 2.081425 -0.2139205 2.0078819
0000d0 cc 1a 08 40 87 31 5a 3f 90 c3 1c 40 92 c8 6e 40
       2.1266356 0.8523182 2.4494362 3.7309918
0000e0 3f e0 94 3f a0 c9 2e 3f 21 c6 b4 3f 36 c4 93 bf
       1.1630934 0.68276405 1.4122964 -1.1544254
0000f0 e6 ca 0a bf 1f ba ac bc 98 f8 08 3f d0 e0 42 bf
       -0.5421585 -0.021084843 0.53504324 -0.76124287

convs.0.bn2.bias f4 [64]
000000 70 97 58 c0 ee e8 03 c1 e7 29 88 c0 05 f7 1b c1
       -3.384243 -8.244368 -4.255115 -9.7478075
000010 3b 32 92 c0 ac 4a 5f c0 1d 7d bb c0 3d 19 b6 c0
       -4.5686316 -3.4889326 -5.8590226 -5.690581
000020 6b 39 4d c0 87 44 35 c0 c6 43 8a c0 43 2e 1a c1
       -3.2066295 -2.8323076 -4.320773 -9.636294
000030 dd 56 9c c0 8d 2f 5b c0 02 b3 89 c0 96 18 a4 c0
       -4.8856034 -3.4247773 -4.3031015 -5.128001
000040 ca 3c 57 c0 af a8 86 c0 fe 4b de c0 b8 fd 02 c0
       -3.3630853 -4.2080913 -6.9467764 -2.0467358
000050 c5 87 e0 c0 a6 16 cc c0 9f 18 d9 bf ed 39 7f c0
       -7.0165734 -6.3777647 -1.6960639 -3.9879105
000060 36 ca 80 c0 49 3a a0 c0 b1 e1 38 c0 49 50 48 bf
       -4.024684 -5.007115 -2.888775 -0.78247505
000070 d0 05 ab c0 bb ac 85 c0 6b 97 91 bf 23 32 9c c0
       -5.3444595 -4.1773353 -1.1374334 -4.88112
000080 7a eb 66 c0 91 f2 ae bf 44 df 48 c0 83 e3 b7 c0
       -3.6081223 -1.3667775 -3.138627 -5.7465224
000090 ac 05 c8 c0 4d 80 c6 c0 95 fe b3 c0 6e 6d 87 c0
       -6.2506924 -6.2031617 -5.624827 -4.232108
0000a0 4c 29 ab c0 0f f9 0a c0 18 f9 e5 bf f2 de 2c c0
       -5.348791 -2.1714513 -1.7966642 -2.7011075
0000b0 3c fb 9e c0 85 54 4b c0 0e e7 9f c0 62 33 a3 c0
       -4.9681683 -3.1770337 -4.996955 -5.1000223
0000c0 db f9 9c c0 81 c9 05 c0 6a f0 a2 c0 a9 85 53 c0
       -4.9055 -2.0904238 -5.0918474 -3.305033
0000d0 5d 4f 6e c0 20 a3 aa c0 95 2b 35 c0 f0 20 9e c0
       -3.723594 -5.3324127 -2.830785 -4.9415207
0000e0 95 7d 8a c0 5b 1d 21 c0 23 f9 90 c0 92 5a cf c0
       -4.32783 -2.5174167 -4.530412 -6.479806
0000f0 ac 68 48 c0 6c 79 38 c1 87 d1 89 c0 f4 34 ab bf
       -3.1313887 -11.529644 -4.306827 -1.3375535

convs.0.bn2.running_mean f4 [64]
000000 14 b9 a4 41 1b 66 99 40 e7 71 63 42 65 b4 ea 40
       20.59037 4.793714 56.861233 7.334521
000010 e9 49 97 41 73 61 2b 41 6d 90 a2 41 b9 c3 0b 42
       18.911089 10.711291 20.32052 34.941135
000020 2d 47 67 42 4c ab b9 41 92 55 03 42 24 d9 93 41
       57.819508 23.208641 32.833565 18.481026
000030 f4 68 11 43 bb 22 9b 40 b5 65 1d 41 c8 94 20 41
       145.40997 4.8479896 9.837331 10.036324
000040 40 f1 0a 42 71 53 89 42 7e 0e f0 41 f7 88 cf 42
       34.735596 68.66297 30.007076 103.76751
000050 db c5 cc 41 d6 63 a3 41 15 87 71 42 38 f2 38 41
       25.59661 20.423748 60.381916 11.559135
000060 71 03 00 41 11 97 c8 41 a5 12 35 42 6b 55 8d 3f
       8.00084 25.073763 45.268208 1.1041692
000070 fb 85 1d 42 8d c5 2a 41 65 e9 af 41 be 7b b7 42
       39.38084 10.67323 21.988962 91.741684
000080 9c c8 ad 41 16 f1 b7 41 1c e2 d3 42 27 87 cc 41
       21.722954 22.992718 105.94162 25.565992
000090 a6 70 8a 41 83 2a a7 41 4d 8e 3a 42 2e 2f e9 41
       17.305004 20.895758 46.638966 29.148037
0000a0 7a 09 d2 41 e1 37 26 43 23 10 83 3f cf 1e d0 42
       26.254627 166.21828 1.02393 104.06017
0000b0 68 65 a9 41 c3 27 6a 42 60 11 c6 41 70 ba 61 42
       21.174515 58.53883 24.758484 56.432068
0000c0 7b 26 c9 41 7a bb af 41 50 88 78 41 8a 25 e6 41
       25.14379 21.966541 15.533279 28.76833
0000d0 70 b0 19 42 74 2f 7f 42 8a 86 b7 41 31 71 2a 40
       38.422302 63.79634 22.940693 2.6631587
0000e0 89 54 bd 41 c1 4f 4e 42 64 57 87 40 a5 ca 37 42
       23.666277 51.577885 4.229418 45.947895
0000f0 44 9d 3f 42 05 9e aa 41 8f 8d c9 42 84 1a ea 42
       47.90358 21.327158 100.77648 117.05179

convs.0.bn2.running_var f4 [64]
000000 37 88 18 42 a6 3d fe 40 a0 5e 69 42 12 5f 0b 42
       38.133022 7.9450254 58.342407 34.842842
000010 97 43 71 42 b1 34 c5 41 94 fe 02 42 5a 98 99 42
       60.316006 24.650728 32.74861 76.79756
000020 3a 12 98 43 60 da 1a 44 0a 46 19 42 00 d8 c7 41
       304.1424 619.4121 38.318398 24.980469
000030 87 70 70 45 ac 02 b9 41 3f 15 1e 42 56 65 04 42
       3847.033 23.126305 39.52075 33.09896
000040 78 71 99 43 3a 72 89 41 2b 5a 03 42 2b 6a 43 43
       306.88647 17.180775 32.838055 195.41472
000050 85 c6 5b 43 68 d2 bc 43 0a 01 96 43 a5 41 38 43
       219.77547 377.6438 300.00812 184.25642
000060 c6 4a 2e 42 6b b8 24 42 f3 f3 1f 42 78 7d af 3f
       43.57302 41.180096 39.98823 1.3710165
000070 79 b2 8e 42 1a 43 ab 42 0a 2a 20 42 01 32 20 42
       71.34858 85.63106 40.041054 40.048832
000080 a1 e9 0e 42 84 0f 08 43 37 6b c6 41 13 58 64 41
       35.728153 136.06061 24.802351 14.2715025
000090 80 1d 67 43 9d 62 c0 42 d3 5b 3d 43 80 38 e0 42
       231.11523 96.192604 189.35869 112.11035
0000a0 2f a5 a2 42 31 9d 27 43 40 ff 0d 40 8d 32 fe 43
       81.322624 167.61403 2.2187042 508.39493
0000b0 e4 dc ba 41 0d 89 ec 43 4b e2 e9 42 82 45 42 40
       23.357857 473.0707 116.94198 3.0354924
0000c0 6c fe 72 42 45 b3 f4 43 8b 07 8d 42 54 3a ca 42
       60.74846 489.40054 70.51473 101.11392
0000d0 2d 2b 03 43 e8 90 7c 3f 53 d1 89 43 29 7d 3a 41
       131.16866 0.9865861 275.63535 11.655557
0000e0 b8 44 b0 42 2f d4 63 43 3c ea 83 41 7c 6a 81 41
       88.13422 227.82884 16.489372 16.176994
0000f0 86 01 db 43 d1 fd b7 41 41 b6 ca 42 ab 7a 65 41
       438.0119 22.998934 101.355965 14.342448

convs.1.fc_full.weight f4 [128, 169]
000000 9a 10 ba bf ad 62 92 bf 15 c4 ce bc d8 8f d3 3e
       -1.4536316 -1.1436363 -0.025239984 0.41320682
000010 b2 43 54 40 fd 41 60 40 e8 16 27 40 ae 9a 89 bf
       3.3166318 3.5040276 2.610773 -1.075033
000020 9f c7 70 bf a1 54 c9 3f 20 36 66 bf 0e 6f 97 bc
       -0.940546 1.5728952 -0.8992634 -0.018485572
000030 ea ee 9f be 30 c8 5a 40 f8 1b 4f 40 c7 53 cc be
       -0.31236964 3.4184685 3.236082 -0.39907667
000040 85 99 0c 40 7b 72 00 bf cb 94 02 bf a8 a7 c9 3f
       2.19687 -0.50174683 -0.5100829 1.575429
000050 18 42 43 c0 cb 3c 30 bf 48 a9 37 bf 84 71 9c 40
       -3.050909 -0.6884276 -0.7174268 4.888857
000060 66 1f 30 c0 66 97 01 40 a3 1c 87 3f 51 21 13 3f
       -2.7519164 2.0248656 1.0555614 0.5747271
000070 3b 15 b3 3f 82 33 35 40 ff db 21 bf 27 f6 b2 bf
       1.3990854 2.8312688 -0.6322631 -1.398137
000080 c2 72 34 3f 0a ac 6f 3f 5f 20 01 c0 3c bc af bf
       0.70487607 0.93621886 -2.0176008 -1.372932
000090 87 96 12 3f 26 d9 9a 3e fb 9d 49 40 dd 83 2c be
       0.57260936 0.30243796 3.1502674 -0.16847177
0000a0 ca 83 3b bc 3b fe 0c bf 06 0f 03 40 f0 26 22 bf
       -0.011444995 -0.55075425 2.047792 -0.63340664
0000b0 28 ad a9 40 56 67 30 c0 1a 62 1f 40 de da 56 be
       5.302387 -2.7563071 2.4903626 -0.20981929
0000c0 2c 7c 0c c0 e5 d2 85 3e 3b 2e 86 3e ba f2 61 bf
       -2.1950788 0.26137462 0.26207146 -0.88260996
0000d0 40 80 84 3f 8c 2c 39 bf 4d 92 85 bf 29 ca 86 bf
       1.0351639 -0.723336 -1.0435272 -1.0530444
0000e0 8a b1 6b bf 49 0c 0b bf d4 5e d5 bd ac 6f bb 3e
       -0.9206778 -0.5431562 -0.10418478 0.36608636
0000f0 ca 1c 86 40 fc 51 c1 bd 58 bb d0 bf 04 3d b7 3e
       4.1910143 -0.094394654 -1.6307173 0.3578874
000100 03 27 57 3f af 7b 4e bf 4a e2 a0 3b 09 f3 ee 3d
       0.840439 -0.80657476 0.0049097883 0.11667449
000110 1c 87 7c 40 16 3d a5 bb 4e 94 2d bf 17 08 94 40
       3.9457464 -0.0050426824 -0.6780442 4.6259875
000120 b4 94 13 3e 4b b9 34 3e af 27 03 40 2f bf 44 bf
       0.14412194 0.17648809 2.049297 -0.76854223
000130 2b 9a 22 40 18 df cc 3f 84 50 90 bf a6 47 00 40
       2.5406597 1.6005583 -1.1274571 2.004373
000140 95 ff 3a c0 8c 9e 65 be d8 14 df be 91 14 bf 40
       -2.9218495 -0.22423762 -0.4357059 5.9712605
000150 37 d2 4b be 7a bf 91 be c2 11 36 41 a0 ea 96 bf
       -0.1990441 -0.28466398 11.379335 -1.1790352
000160 c0 28 59 bf bd 9c 89 40 ac 97 48 3e 9a 7a b6 bd
       -0.84827805 4.300383 0.19589108 -0.08910103
000170 d6 2f ec bf 1b 2a cb bf de c7 0f c0 24 e3 27 bf
       -1.8452098 -1.5872225 -2.246574 -0.65580964
000180 1f 71 dc 3e 8d 35 99 3f e5 b6 16 40 07 d3 fd be
       0.43055055 1.1969467 2.354913 -0.49575064
000190 08 63 2f 3e 12 e9 3d c0 e2 cb bf 40 42 49 e6 3f
       0.17127621 -2.9673505 5.993638 1.7991107
0001a0 a2 3b 00 40 4c 5c d5 3f 5a 39 c5 c0 32 9a 9d 3f
       2.0036397 1.6668792 -6.163251 1.2312682
0001b0 40 c0 ea 3e c4 79 fc 3f d7 6e 50 40 bc 24 29 3f
       0.458498 1.972466 3.2567651 0.6607168
0001c0 9a f9 92 bf 67 ea 94 bf 90 10 42 c0 65 b5 63 40
       -1.1482422 -1.1634034 -3.032261 3.5579464
0001d0 36 74 75 c0 d9 f6 9d 40 0f 7c 85 bf 1b 26 db 3f
       -3.835218 4.936383 -1.0428485 1.7121004
0001e0 04 b5 ba 3f 9e b4 55 40 75 20 2d c0 0f 07 a2 3f
       1.4586492 3.339149 -2.705106 1.2658404
0001f0 cd ab 40 40 5e 7f e7 be 66 f5 8f 3e 70 3e b4 3f
       3.010486 -0.4521436 0.28116912 1.4081554
000200 7a 13 3a 40 90 44 30 40 fa 66 3b c0 02 43 d1 c0
       2.9074388 2.7541847 -2.9281602 -6.5394297
000210 47 cb be c0 a3 cf b2 c0 f7 c5 2c 40 69 4d 5a 3f
       -5.962314 -5.5878463 2.6995828 0.8527437
000220 82 f8 d4 c0 84 12 2d c1 2c 7e 01 c0 5a 77 f5 40
       -6.6553354 -10.81702 -2.023326 7.6708193
000230 7a e8 31 40 95 25 bb c0 de 39 86 40 3c 89 b6 40
       2.7798142 -5.8483377 4.194564 5.7042522
000240 75 4e 44 3f 4e 33 44 40 3b 66 8e 40 96 4a a6 40
       0.76682216 3.0656314 4.4499793 5.1966047
000250 0c cc 17 c0 40 06 d8 c0 a5 0d cc bf 71 d4 0c c0
       -2.371829 -6.750763 -1.5941664 -2.2004664
000260 c4 8c 94 c0 9d 18 3d c0 43 5f 36 40 01 68 b3 40
       -4.6421833 -2.9546273 2.8495643 5.606446
000270 a8 8e 47 40 1a 4d f7 bf 7d 8c c2 c0 b7 8a 15 c0
       3.118082 -1.9320405 -6.0796494 -2.3365915
000280 65 91 17 c0 1e 9b 00 c0 96 2a 01 3f d5 c2 ea 3f
       -2.3682492 -2.0094676 0.50455606 1.8340708
000290 60 65 f1 3e e2 d7 61 3d ae 30 30 bd 41 00 e8 bc
       0.47147655 0.055137523 -0.043015175 -0.028320434
0002a0 14 22 e9 bc e8 f9 34 3f fd a7 93 bf fb 98 03 40
       -0.028458633 0.70693827 -1.1535641 2.0562122
0002b0 c2 1b 94 be e4 26 fc 3e 05 ca c8 3f f1 34 f9 3f
       -0.28927428 0.4924842 1.5686651 1.9469281
0002c0 07 b2 63 40 e5 dc b2 3e 81 12 89 40 8c eb c0 3f
       3.557741 0.34934154 4.283509 1.5071883
0002d0 76 11 3e bf 02 a8 82 40 97 23 ca bf 5d 97 15 40
       -0.74245393 4.083009 -1.5792111 2.3373635
0002e0 8e 38 c3 3f cf 9e 8a 3f 61 64 23 40 8d 8b 01 40
       1.5251634 1.0829715 2.5530016 2.0241425
0002f0 db 54 6a 3f 5e 41 a5 be 23 31 0f 40 76 63 ab 40
       0.9153573 -0.32276434 2.237374 5.355891
000300 36 91 a3 3f c5 21 92 3f 60 43 1d 3f 52 d4 03 40
       1.277869 1.1416556 0.6143093 2.059834
000310 e4 57 97 3f e0 12 89 3f 69 80 29 bf 8a 32 61 bf
       1.1823697 1.0708885 -0.66211563 -0.8796774
000320 34 de 93 40 ad a7 16 40 5b 6c 5a be a5 2b e6 3f
       4.6208744 2.353984 -0.21330397 1.7982069
000330 15 5b e5 3f ea 7a 49 3f 2f 34 01 c0 37 e3 7b 40
       1.7918421 0.78703177 -2.01881 3.935743
000340 07 19 3f 40 06 90 70 40 c3 dc 3c 40 b6 19 90 3f
       2.9859025 3.7587905 2.9509742 1.1257846
000350 c0 46 1c 40 a2 fe f0 bf 8c 1b 87 40 2e 25 27 40
       2.4418182 -1.8827708 4.2221127 2.6116443
000360 f7 a7 af 3f 74 d9 04 be 8d 79 bc bf 4b c8 85 3f
       1.3723134 -0.12973577 -1.4724594 1.045175
000370 f5 81 20 40 11 a7 dc bf 2c 6a 3e 40 1f ae cc 3e
       2.507932 -1.7238485 2.9752302 0.39976594
000380 4c 15 0e 40 0f de b0 40 d2 bf 72 40 cd 3a 70 3f
       2.2200499 5.527107 3.7929578 0.9383972
000390 48 04 d7 3f 81 89 17 40 f5 f2 d1 3f 79 08 0b 40
       1.6798182 2.3677676 1.640227 2.1723921
0003a0 6d 49 80 bf d5 c8 1d c0 9b 54 85 bf 6f 21 61 c0
       -1.0022408 -2.4653828 -1.0416445 -3.5176656
0003b0 ae 09 3e be 00 cd 08 41 84 e8 ed 40 e9 1f 3b 3f
       -0.1855838 8.550049 7.4346333 0.73095566
0003c0 34 f7 62 c0 52 e9 28 40 65 ba ea bf c4 9d 7f c0
       -3.546338 2.6392407 -1.8338133 -3.9940042
0003d0 c7 d0 aa 3f e3 7b 00 c1 8b 22 3c c0 6d 26 b2 40
       1.3344964 -8.030246 -2.9396083 5.5671906
0003e0 69 ac 91 bf 91 0c b8 40 50 7c 76 c0 14 26 4a 3f
       -1.138074 5.751534 -3.8513374 0.7896435
0003f0 75 c8 69 bf d3 66 4e 40 56 5a 13 c0 bf 45 e6 c0
       -0.913215 3.225026 -2.3023887 -7.196014

convs.1.fc_full.bias f4 [128]
000000 51 7f fc be 47 59 a2 3f d0 8f d4 bd 01 5b bb bd
       -0.49315885 1.2683495 -0.103789926 -0.09148217
000010 96 f2 32 bd dd ca ab bd 32 8b ec bb 94 66 c8 be
       -0.04368838 -0.083883025 -0.007218742 -0.3914076
000020 62 bf e2 3d 29 f5 41 3d 9a 25 44 bf fb a9 86 bd
       0.110716596 0.047352944 -0.76619875 -0.0657539
000030 ac 21 96 bc e2 c1 35 be 0e 1f f9 3e 03 b4 db 3b
       -0.018326603 -0.17749742 0.48656505 0.0067048087
000040 77 4d 05 3e 3d e0 98 bc e8 bf 1b bd c4 c8 a6 3e
       0.13017832 -0.018661613 -0.038024813 0.32575047
000050 0a 98 43 3c c4 dd a3 bc be a7 03 bd 28 d0 79 bd
       0.011938104 -0.020003207 -0.032142393 -0.06098953
000060 be c9 ed bc c1 53 f4 bc 90 4c 8b bd 51 3e 5d 3e
       -0.029026862 -0.029825093 -0.068017125 0.21605803
000070 07 ce 31 3c ef 61 cd bb cd 29 04 3d 54 14 23 bd
       0.010852343 -0.006267778 0.032266427 -0.03981431
000080 4f bb 53 3e 6a df 38 3e e9 31 b7 3f 63 57 55 bd
       0.20676921 0.18053976 1.4312106 -0.05208529
000090 c1 4e 26 3e c8 6e e6 3d 52 f2 1f bf ae d5 8d bd
       0.1624098 0.112515986 -0.62479126 -0.06925522
0000a0 53 63 55 bd dd c9 14 bd a8 38 e4 bb 20 f4 aa be
       -0.052096676 -0.036325324 -0.0069647618 -0.33389378
0000b0 15 37 dd 3b 6f 0a 87 bd c6 0e b4 3e a1 bd c7 3e
       0.006750951 -0.06593787 0.3516752 0.39011863
0000c0 44 82 fa bc 7d a7 e0 3d bb 86 33 3c 5f c5 56 3b
       -0.030579694 0.10969446 0.010957415 0.003277145
0000d0 10 79 a0 be fb b4 46 3d 9c 40 d8 bd bc 5a 6f bf
       -0.31342363 0.04851244 -0.10559198 -0.93497825
0000e0 45 c4 7f 3e d1 b1 58 3d f9 0b 91 bd c1 60 54 bd
       0.24977215 0.052903954 -0.07082362 -0.051850084
0000f0 27 9f f2 be 7f 1c f6 bd 72 f5 e9 3d bb d6 0c 3d
       -0.4738705 -0.12017154 0.11423768 0.03438447
000100 a8 07 46 3d db a1 b8 be 93 cd 59 bd 75 24 a9 3c
       0.048347145 -0.36060986 -0.053174566 0.020647267
000110 b1 ee 42 3f 03 39 31 3d f1 f8 b9 bc 7b c8 64 3c
       0.76145464 0.04326726 -0.022701712 0.013963814
000120 f0 2f 57 bf 42 67 49 3f 75 53 27 bf fc 6c 01 bd
       -0.8405752 0.78673184 -0.6536172 -0.031598076
000130 93 ff fb 3c d2 87 ba 3d b9 df c5 3f da 22 0a bd
       0.030761516 0.09107937 1.54589 -0.033724643
000140 35 7b a3 bd 80 ac 32 3d db c0 a7 3c 16 07 60 3e
       -0.07982484 0.04362154 0.020477703 0.21877703
000150 fd 00 13 3f 10 c2 ba 3e 01 c3 59 bd ba 6c b5 3d
       0.57423383 0.36476183 -0.053164486 0.088586286
000160 42 1b 81 bb 0a 93 8e 3d 8c 57 89 3f 84 03 49 3f
       -0.003940017 0.06961639 1.0729842 0.7852099
000170 13 90 b3 b9 cf c3 68 3e ff c6 c0 bc 8f 07 5f bd
       -0.00034248884 0.22730945 -0.023532389 -0.054450568
000180 8b db a3 3d c8 16 f8 bd 11 5d 4e be 2c aa 93 bd
       0.08000859 -0.1211372 -0.2015269 -0.07210192
000190 23 4a 14 3f a4 47 a0 bc ba 9d 5f bf da ea 90 3d
       0.57925624 -0.01956541 -0.87350047 0.070760444
0001a0 d4 3a ae be 7a 1c fa 3c 0e 7b 40 3f 89 30 9b bf
       -0.34029257 0.030531157 0.75187767 -1.2124187
0001b0 6c d4 73 bf 9c 9f 2c 3d dc 4e a1 3d 2e 31 ac bd
       -0.95246005 0.042144403 0.07876369 -0.08407818
0001c0 df a8 7b bc 7a 3d a5 bd 93 05 9e 3f 73 51 d0 bc
       -0.015360086 -0.08068366 1.2345451 -0.025429463
0001d0 99 74 ac be 18 86 b3 ba f0 fc 18 3e fc ed 06 bf
       -0.33682707 -0.0013696579 0.14940238 -0.52706885
0001e0 49 1f c5 3e 3d fa f0 be 60 92 8c bb 60 86 64 3c
       0.3850043 -0.47065917 -0.00428991 0.013948053
0001f0 e9 eb f4 3d 58 c2 2b 3e f8 c6 a1 3f 3d 70 0c be
       0.11959059 0.16773355 1.2638845 -0.1371469
