results/Prediction/2023-06-22/19:33:00.835898/models/model407.pth (torch, 717109 bytes, 74 tensors)

embedding.weight f4 [64, 92]
0	0x3c3d93c8	0.011570878
1	0xbf0e483a	-0.5557896
2	0x3c2f29e9	0.0106911445
3	0xbd74edb1	-0.059796993
4	0xbd59e616	-0.053197943
5	0x3c58fa77	0.013243309
6	0xbd9702fd	-0.07373617
7	0xbd809d42	-0.062799945
8	0x3a87fed1	0.0010375624
9	0x3d8dac8a	0.06917675
10	0x3dc82601	0.09772874
11	0xbc5c2629	-0.013436832
12	0x3d996eca	0.074918345
13	0xbdc12146	-0.094301745
14	0xbfb57024	-1.4174848
15	0xbf578651	-0.84189326
16	0x3fc55c09	1.5418712
17	0x3f8c5b13	1.0965294
18	0x3d7a63c4	0.0611303
19	0xbef2bb4f	-0.4740853
20	0xbfe8c8f3	-1.8186325
21	0xc004b701	-2.0736697
22	0xbda16f7c	-0.07882592
23	0x3d9c62b5	0.07636014
24	0xbd2ba625	-0.041906495
25	0xbd4bb928	-0.049737126
26	0xbd8e7de5	-0.06957606
27	0xbd656b8d	-0.05601077
28	0xbdb494b6	-0.08817427
29	0xc014029e	-2.3126597
30	0xbf065182	-0.5246812
31	0xbff86cc9	-1.9408199
32	0xbdb1c8e0	-0.08680892
33	0xbf6484af	-0.8926496
34	0x3fb60983	1.4221653
35	0x3f730045	0.94922286
36	0xbf031c8e	-0.51215446
37	0x3f584b03	0.8448946
38	0xc007fefd	-2.1249382
39	0xc049234c	-3.1427794
40	0xc0149c5a	-2.322043
41	0x3cc28fd6	0.023750227
42	0x3cdc94d4	0.026926436
43	0x3bc30ed2	0.0059526945
44	0x3d8f9beb	0.07012161
45	0xbd9cb7f0	-0.07652271
46	0xbec2ca37	-0.38044903
47	0x3d994730	0.07484281
48	0xbbd9c35f	-0.0066456045
49	0xbfc1590e	-1.5105302
50	0xbf591493	-0.8479702
51	0x3fb66bb6	1.4251621
52	0x3f71d131	0.94459826
53	0x3dbba336	0.091619894
54	0x3d70ed49	0.058820043
55	0xbdad44f5	-0.08460418
56	0xbd46cab8	-0.04853317
57	0xbd2929d3	-0.041299652
58	0xbd6e3933	-0.05816002
59	0xbd221c9f	-0.039578076
60	0xbccddb12	-0.025128875
61	0xc0105143	-2.2549598
62	0x3d85559f	0.065104716
63	0xbff7d109	-1.9360667
64	0xc0083815	-2.128423
65	0x3f81d7ff	1.0144042
66	0x3db0af04	0.086271316
67	0x3d98fe81	0.07470418
68	0x3db30e1d	0.08742926
69	0xbd144af4	-0.036204293
70	0xbf746276	-0.9546274
71	0xbc969354	-0.018380798
72	0xbdaa2236	-0.083073065
73	0xbf10a655	-0.565038
74	0xbc0b7aab	-0.008513133
75	0xc05083ed	-3.258052
76	0xbd993561	-0.07480884
77	0x3f74a2b4	0.95560765
78	0xbece0114	-0.40235198
79	0xbf2dd652	-0.6790515
80	0xbd436010	-0.047699034
81	0x3d833ac2	0.064076915
82	0xbffc6f58	-1.972148
83	0xbd9919f4	-0.07475653
84	0x3d198d91	0.037488524
85	0xc0170c6c	-2.3601332
86	0xbfcfde7c	-1.6239772
87	0xbdb4e2de	-0.08832334
88	0x3d161960	0.036645293
89	0xbdd0b7f6	-0.10191338
90	0xbd05730a	-0.032580413
91	0xbc5fdfc0	-0.013664186
92	0xbc7d76ec	-0.015470248
93	0xbf9e1014	-1.2348657
94	0x3bd7123b	0.0065634525
95	0xbc4c9c1f	-0.012488394
96	0x3c2dcbeb	0.0106077
97	0xbce2b074	-0.02767203
98	0xbcaf4597	-0.021395488
99	0x3da79d21	0.08184267
100	0xbdd0e1c6	-0.10199313
101	0xbdc4c929	-0.09608681
102	0x3d73ccbe	0.05952143
103	0x3d9f5b0c	0.07781038
104	0x3dcfa817	0.101394825
105	0xbcd5bd70	-0.026091307
106	0xbfbcbbda	-1.4744828
107	0xbfa842ab	-1.3145345
108	0xbfcb111a	-1.5864594
109	0xc00a1967	-2.1578004
110	0x3d6c5320	0.05769646
111	0xbfb16502	-1.385895
112	0xbf0e7a58	-0.5565543
113	0xbfd48042	-1.6601641
114	0x3d00a1f0	0.031404436
115	0xbdb39e57	-0.08770435
116	0xbb4c19c0	-0.0031143278
117	0xbcec9749	-0.028880732
118	0xbd6e9c6d	-0.058254648
119	0xbd5aae0d	-0.053388644
120	0x3c3bff93	0.011474508
121	0xbbf9e212	-0.0076258266
122	0xbfa1714b	-1.2612699
123	0xbff92b45	-1.946633
124	0x3da9872e	0.082777366
125	0xbfa66ed4	-1.3002572
126	0xc00b6697	-2.1781366
127	0xc009db97	-2.1540277
128	0xbfa17b59	-1.2615768
129	0xbf1e3bc6	-0.6180996
130	0xbf629719	-0.88511807
131	0xbfcdc40a	-1.6075451
132	0x3db462e4	0.088079244
133	0x3d077be5	0.03307714
134	0x3d2720dd	0.040802825
135	0x3cf902a2	0.030396763
136	0x3aea2d25	0.0017866237
137	0xbd8dbdd2	-0.06920971
138	0xbfaaf41f	-1.335575
139	0xbc8651cc	-0.016396426
140	0x3d624c61	0.05524862
141	0xbfb2758b	-1.3942121
142	0xbfb48ec3	-1.4106067
143	0xbfcda567	-1.6066102
144	0xc0043ca5	-2.0662014
145	0xbdbf646a	-0.09345324
146	0xbdd2d1c4	-0.10293916
147	0xbb21525d	-0.0024615743
148	0x3db22603	0.086986564
149	0xbd913f9d	-0.070922114
150	0x3ca000ef	0.019531695
151	0x3d2322b3	0.039828014
152	0xbcda3913	-0.026638543
153	0xbd03b706	-0.032156967
154	0xbda41e5b	-0.08013602
155	0xbfdf5f43	-1.7450947
156	0xc003d8e8	-2.060114
157	0xc003f365	-2.0617306
158	0x3d572624	0.052526608
159	0x3d828557	0.06373089
160	0xbbbf22b8	-0.005832996
161	0xbd0c45fc	-0.03424643
162	0xbfb4df61	-1.413067
163	0x3d438928	0.047738224
164	0x3d50ccbf	0.05097651
165	0xbfa93072	-1.3217909
166	0xc03065f6	-2.7562232
167	0xbfdb60ef	-1.7138957
168	0xbd746476	-0.05966612
169	0xc0044f76	-2.06735
170	0xbfadc6a9	-1.3576251
171	0xbf2c89c0	-0.6739769
172	0x3adb8e4f	0.0016750785
173	0x3c082fd1	0.008312182
174	0xbfaffd59	-1.374919
175	0xbd81878f	-0.06324684
176	0x3d93353d	0.07187889
177	0x3c4e0897	0.01257529
178	0xbf977467	-1.1832398
179	0x3dc07fb2	0.09399356
180	0x3dbc333a	0.09189458
181	0xbd92eb93	-0.071738385
182	0x3dcd70d9	0.100312896
183	0xbd0d409f	-0.034485456
184	0x3d8f85b8	0.07007927
185	0x3e597d4d	0.21239205
186	0xbd916984	-0.07100204
187	0x3b19c10e	0.0023461017
188	0x3da5cbba	0.080954984
189	0xbce0a69f	-0.027423201
190	0x3d2026c8	0.039099485
191	0x3c3af443	0.011410776
192	0xbd808c8f	-0.062768094
193	0x3cf28f6f	0.02960941
194	0xbdaf9389	-0.08573062
195	0xbdb7e2a3	-0.089787744
196	0xbdb0e412	-0.08637251
197	0xbd9144d0	-0.07093203
198	0xc0cc6c72	-6.388238
199	0xbfaeed34	-1.3666139
200	0x3f91bc6f	1.138563
201	0xc0dc6d16	-6.888316
202	0x3dce19d4	0.1006352
203	0x3db64dbd	0.08901546
204	0xc0a8180c	-5.2529354
205	0xc0ff0068	-7.9687996
206	0x3d0b2145	0.033967275
207	0x3acf7cf6	0.0015830088
208	0x3cddbdce	0.027068045
209	0x3d2e891e	0.042611234
210	0xbcae4448	-0.021272793
211	0x3b1eef00	0.0024251342
212	0xbd019ea8	-0.031645447
213	0xc08ce0aa	-4.402425
214	0x3dddb187	0.10824876
215	0xc0d8765e	-6.764449
216	0xbcb4ec01	-0.022085192
217	0xbfbb6cda	-1.4642594
218	0x40048e45	2.0711834
219	0xc0dbbab0	-6.866539
220	0x3e5d5711	0.21615244
221	0xbf99d936	-1.2019413
222	0xc08a7673	-4.326959
223	0xc0f6cf6a	-7.712819
224	0xc08eff33	-4.4686522
225	0xbd189270	-0.03724903
226	0x3d4e13fc	0.050312027
227	0x3dace68f	0.08442413
228	0xbce63063	-0.028099244
229	0xbd86779c	-0.065657824
230	0x3d0809e8	0.033212572
231	0xbdae8e8a	-0.08523281
232	0x3d9004f5	0.070321955
233	0xc0cf8e6b	-6.486135
234	0xbfbeb676	-1.4899433
235	0x3f920896	1.140887
236	0xc0dd38d4	-6.913187
237	0xbda871de	-0.082248434
238	0x3cfe9ad1	0.031079682
239	0xbc651157	-0.013981185
240	0x3dd4fa2a	0.103992775
241	0xbd9181ed	-0.071048595
242	0xbb8f5999	-0.0043746945
243	0xbc938b6c	-0.018010817
244	0x3d22fb2c	0.039790317
245	0xc08cd5f2	-4.4011164
246	0xbdae0755	-0.08497492
247	0xc0d9c4ea	-6.8052874
248	0xbfab32a6	-1.3374832
249	0xc0d90ebd	-6.783049
250	0x3dd2ac99	0.10286827
251	0x3d6204df	0.055180427
252	0x3ce079bd	0.0274018
253	0xbd8a9ba5	-0.06767968
254	0xbfadff30	-1.3593502
255	0xbd5ef1d9	-0.054429863

convs.0.fc_full.weight f4 [128, 169]
0	0xc021c3a7	-2.5275667
1	0xbf35b479	-0.70978504
2	0xbf8cea42	-1.100899
3	0xbfc2f005	-1.5229498
4	0x3f8168d7	1.011012
5	0xbd3f8b76	-0.04676386
6	0xbff4ebe5	-1.9134489
7	0x3ef6a1fe	0.48170465
8	0x3e012b03	0.12614064
9	0xbf58eab1	-0.8473311
10	0xbf9b22eb	-1.2120031
11	0x3f97e61f	1.1867102
12	0xbfb177ca	-1.3864682
13	0xbf3e6d09	-0.74385124
14	0x3ddaed64	0.1068981
15	0xc023d152	-2.559651
16	0x3fed40d9	1.8535415
17	0xbfa57ca1	-1.2928659
18	0xbfb55902	-1.4167788
19	0xbf855f5e	-1.0419729
20	0x3eeeb05d	0.4661893
21	0xbf73f7de	-0.9530009
22	0xbf91c581	-1.1388398
23	0x3f7b5ea8	0.9819131
24	0xbec7be3f	-0.39012334
25	0xbea44d56	-0.32090253
26	0xbfacbae8	-1.3494539
27	0xbf6736fb	-0.9031827
28	0xbdd488fd	-0.10377691
29	0x3f70620f	0.93899626
30	0xbdc6f9e4	-0.097156316
31	0xbf39117c	-0.72292304
32	0x3f409f32	0.7524291
33	0x3f7bfdb5	0.98434
34	0xbf12b160	-0.573019
35	0xbfbe1066	-1.4848754
36	0xbed5fd84	-0.4179498
37	0xbfb554b0	-1.416647
38	0xbed3467f	-0.41264722
39	0xbee08907	-0.43854544
40	0xbf658f50	-0.896718
41	0xbf5fce3a	-0.8742405
42	0xbf491853	-0.7855274
43	0x3e2e3547	0.17012511
44	0xbf0780b3	-0.52930754
45	0xbf88441e	-1.0645788
46	0xbd9f7621	-0.07786203
47	0xbfa837d3	-1.3142036
48	0xbfa7e059	-1.311534
49	0x3f70986a	0.93982565
50	0x3e4ce360	0.20008612
51	0xbe7e87fe	-0.24856564
52	0xbfbb89ab	-1.4651388
53	0xbfaf73a5	-1.3707167
54	0xbee24e6b	-0.44200453
55	0x3fcc180b	1.5944837
56	0xbf627cd8	-0.88471746
57	0xbec75dfa	-0.38938886
58	0xbe775f64	-0.24157482
59	0xbe2adef6	-0.16686615
60	0xbf74af1c	-0.95579696
61	0x3f581d2d	0.8441952
62	0xbf9cd342	-1.2251971
63	0x3f297f49	0.66209847
64	0xbfe85850	-1.8151951
65	0xbf3a9185	-0.72878295
66	0x408139b0	4.038292
67	0x3efa8eb6	0.48937005
68	0xbe8637e3	-0.26214513
69	0xbe042f70	-0.12908721
70	0xbf97da46	-1.1863487
71	0x407a7547	3.913408
72	0xbfa53797	-1.290759
73	0x3f9a710d	1.206575
74	0x40481bcd	3.1266968
75	0x3f33b8ad	0.7020367
76	0x40b043e6	5.5082884
77	0x406e5f70	3.724575
78	0xbfec000d	-1.8437515
79	0x3e85845c	0.26077545
80	0xbfc44d96	-1.5336177
81	0x40044138	2.0664806
82	0xc01558c4	-2.3335428
83	0xbf053ab9	-0.5204273
84	0xc04a87f3	-3.1645477
85	0x40c796f6	6.237178
86	0x3ec47de2	0.3837729
87	0xbff164d5	-1.8858896
88	0xc049a78f	-3.150852
89	0xbfbbfcce	-1.4686525
90	0x3ff95289	1.9478313
91	0x400fecb2	2.2488217
92	0x3fefc41d	1.8731724
93	0xbcf875b2	-0.030329559
94	0xc082b6fe	-4.084838
95	0x3fd1ef5a	1.6401169
96	0x404e70c2	3.2256322
97	0x40098ea8	2.149332
98	0x4006e83d	2.1079247
99	0x3f79b9e4	0.9754927
100	0xbcbdc301	-0.023164274
101	0xc08704c8	-4.2193336
102	0x3f841c52	1.0321143
103	0xbffa87e1	-1.9572717
104	0x40325c7a	2.7868943
105	0x4012e96f	2.2954977
106	0xc07bae3e	-3.93251
107	0x3fd77356	1.6832073
108	0xc0a41e72	-5.1287165
109	0x3fe3969a	1.7780335
110	0x400abbe0	2.167717
111	0x40331467	2.7981203
112	0x3f85ed2c	1.0463004
113	0xc04e3465	-3.221948
114	0xc00a3766	-2.1596313
115	0xc03df250	-2.9679146
116	0xc03d4c5f	-2.9577863
117	0xbfdb7761	-1.7145807
118	0xc08c1427	-4.37746
119	0xbe95fd80	-0.29294968
120	0x3fc64131	1.5488645
121	0x40579473	3.3684356
122	0xbfde554c	-1.736978
123	0x408ed721	4.463761
124	0xc01e4252	-2.4727979
125	0x40b830aa	5.7559404
126	0x404f975c	3.2436132
127	0xc09b290a	-4.8487597
128	0xbd878412	-0.06616987
129	0xbdadad91	-0.08480371
130	0xbd8ef062	-0.06979443
131	0xbe62acc5	-0.22136219
132	0xbec00d0c	-0.37509954
133	0xbe9c3f0d	-0.30516854
134	0x3fa2f2ce	1.2730348
135	0x40070687	2.1097734
136	0x3f619180	0.8811264
137	0xbceed230	-0.02915296
138	0xbfa239d5	-1.2673899
139	0x3fbd225b	1.477611
140	0x404cbdca	3.1990838
141	0x3fa2080e	1.2658708
142	0x3f811ee4	1.0087552
143	0xbfbb413c	-1.4629283
144	0xbf25f508	-0.64827013
145	0xc052aaa7	-3.2916658
146	0xbff7762e	-1.933294
147	0x4058655f	3.3811872
148	0x3fee56a2	1.8620188
149	0xc0103b21	-2.253609
150	0xc0625cd4	-3.5369158
151	0xbff96a50	-1.9485569
152	0xbf7c2232	-0.9848968
153	0xbfc475cf	-1.5348452
154	0xbf0bd5c5	-0.5462306
155	0xbdab7612	-0.083721295
156	0x3cfd36a8	0.030909851
157	0xbe19fc9b	-0.15037768
158	0xbe943f30	-0.28954458
159	0xbef603b6	-0.48049706
160	0xbe1a567d	-0.15072055
161	0x3d4c7423	0.049915444
162	0x3d69dbfa	0.05709455
163	0x3dc79acb	0.09746321
164	0xbcc3ae37	-0.023886783
165	0x3d9706c6	0.07374339
166	0x3d1a6f5d	0.03770386
167	0xbd0eb883	-0.034843933
168	0xbd805d92	-0.06267847
169	0x3e88ca93	0.26717052
170	0xbf25b7b6	-0.64733446
171	0x3f55a7f0	0.8345938
172	0x3e281c18	0.16416967
173	0xbef1fcb3	-0.47263107
174	0xbe7f358f	-0.24922775
175	0xbe8399d5	-0.25703302
176	0xbdab883b	-0.08375593
177	0xbcb515dd	-0.022105152
178	0x3f02c52f	0.5108213
179	0x3f3a959b	0.7288453
180	0xbf014079	-0.50489
181	0x3f412baf	0.7545728
182	0x3e8d5462	0.2760344
183	0xbf2289b1	-0.6349135
184	0x3e8d360d	0.275803
185	0xbf47c12f	-0.7802915
186	0x3f0186f7	0.50596565
187	0x3f33bf7d	0.7021406
188	0x3f192178	0.59816694
189	0xbe9e5313	-0.30922756
190	0x3f2c1f5d	0.67235357
191	0x3ee8c462	0.45462328
192	0xbf33a67e	-0.7017592
193	0x3e4dfd98	0.2011627
194	0x3e3095fd	0.17244716
195	0x3ec99318	0.39370036
196	0x3f7df126	0.9919609
197	0xbf084605	-0.5323184
198	0xbf5e26e3	-0.86778086
199	0xbe9f2486	-0.31082553
200	0x3eebc3dc	0.46047866
201	0x3f3ac87c	0.72962165
202	0xbef2ce58	-0.47423053
203	0x3f07b8d0	0.53016376
204	0x3edbbae3	0.4291602
205	0x3f0fb6cd	0.56138307
206	0xbeacf2fa	-0.33779126
207	0xbdeed5d7	-0.116618805
208	0xbeb6a8e2	-0.35675722
209	0x3ef8a0dd	0.4856023
210	0x3f15ba3c	0.58487296
211	0xbeea9e92	-0.45824105
212	0x3f72e051	0.9487353
213	0xbe8f3485	-0.27969757
214	0x3f53f8d3	0.8280155
215	0x3e727011	0.23675562
216	0x3eab8026	0.33496207
217	0xbe49e014	-0.19714385
218	0xbde9e245	-0.114201106
219	0xbf0857c9	-0.5325895
220	0xbd61d1c5	-0.055131692
221	0x3d7abd0b	0.06121544
222	0x3f4b3b76	0.79387605
223	0xbe946a73	-0.28987464
224	0xbd0edc9a	-0.03487835
225	0x3ed47670	0.4149661
226	0x3e6c7053	0.23089723
227	0xbeefde95	-0.46849504
228	0x3def1fa8	0.1167596
229	0x3d86be1a	0.06579228
230	0x3d9f6e4b	0.077847086
231	0x3f3987f4	0.72473073
232	0xbf7cddd6	-0.98775995
233	0xbebb6774	-0.36602366
234	0xbf229a58	-0.6351676
235	0x3f413fca	0.7548796
236	0xbe24e104	-0.16101462
237	0x3e98405b	0.297366
238	0xbf85d820	-1.0456581
239	0x3f16a410	0.5884409
240	0x3ca43fb3	0.020049905
241	0xbe43ccd2	-0.19121101
242	0x3f6869e7	0.90786594
243	0x3efb0894	0.49029982
244	0x3edfd0b9	0.4371393
245	0x3f409213	0.7522289
246	0x3f18fae3	0.5975782
247	0xbf4ffe12	-0.81247056
248	0x3d88fc62	0.06688763
249	0xbf2b0589	-0.6680532
250	0x3f2c8a0d	0.6739815
251	0xbeae0f91	-0.3399625
252	0x3de3a573	0.11115541
253	0xbfce42f7	-1.6114186
254	0x3f250ccf	0.6447267
255	0x3f15ff75	0.5859292

convs.0.fc_full.bias f4 [128]
0	0xbd62cfa6	-0.05537381
1	0xbced801b	-0.02899175
2	0xbdfec0f2	-0.12439145
3	0xbd4e568a	-0.0503755
4	0xbd2955ce	-0.041341595
5	0xbdd232d7	-0.10263603
6	0xbbf7a459	-0.0075574336
7	0xbd315e89	-0.043303046
8	0xbd946ff1	-0.07247914
9	0xbd090962	-0.033456214
10	0x3d5fb8d8	0.05461964
11	0xbda1563b	-0.07877775
12	0x3c35b965	0.011091565
13	0x3cfb69c5	0.030690083
14	0xbded819c	-0.11596987
15	0x3ce0381d	0.027370507
16	0xbd6539ec	-0.05596344
17	0xbd922a01	-0.07136918
18	0x3db570f3	0.08859434
19	0x3d324160	0.043519378
20	0x3d77188d	0.060326148
21	0x3dabb433	0.0838398
22	0x3c8bd844	0.017070897
23	0xbb884e7b	-0.004159746
24	0xbc707da5	-0.0146783935
25	0xbdfe5df7	-0.12420266
26	0x3dd6002e	0.10449253
27	0x3de4da03	0.11174395
28	0x3d37eb00	0.044901848
29	0x3cff634c	0.031175278
30	0xbcd9ef47	-0.026603354
31	0xbd3eaf83	-0.0465541
32	0x3c7ad704	0.015310053
33	0xbd8dd1f3	-0.0692481
34	0xbdf20408	-0.11817175
35	0x3dba3ef4	0.090940386
36	0xbc5cc407	-0.013474471
37	0x3dcc57d9	0.09977693
38	0xbcb9d256	-0.022683304
39	0xbd85ed76	-0.06539433
40	0x3d4b8ba8	0.049693733
41	0xbd38a9ce	-0.045083813
42	0x3d514d12	0.05109889
43	0x3d0e3267	0.034716036
44	0xbd94a6af	-0.07258355
45	0xbd89a595	-0.067210354
46	0x3cbf15cd	0.023325825
47	0x3d885221	0.0665629
48	0xbc463a39	-0.012098842
49	0x3d376a4a	0.0447791
50	0x3df2587a	0.11833282
51	0xbd04b438	-0.032398432
52	0x39d3cae3	0.00040396219
53	0xbd7cc271	-0.06170887
54	0xbbbdd1be	-0.0057928255
55	0x3ce213ab	0.027597269
56	0x3dc55f76	0.09637348
57	0x3d70a706	0.058753036
58	0x3ddb9ad0	0.107228875
59	0xbd1848e7	-0.0371789
60	0xbd0e6f48	-0.034774095
61	0x3cdd9f73	0.02705357
62	0xbb940455	-0.004517118
63	0xbbb50d92	-0.0055252993
64	0x3b621692	0.0034498316
65	0x39d3115d	0.00040257993
66	0xbc96221d	-0.018326813
67	0xbc157800	-0.0091228485
68	0xbdc15ef8	-0.09441942
69	0xbd3e8209	-0.04651073
70	0xbd79be6d	-0.06097262
71	0xbd0ab0d8	-0.033860058
72	0xbd3e1818	-0.046409696
73	0x3df87b24	0.12132862
74	0x3dc1c411	0.09461225
75	0xbd059251	-0.03261024
76	0xbda10717	-0.078626804
77	0xbdac96fd	-0.08427236
78	0x3c796b05	0.015223269
79	0x3c04bfd3	0.008102375
80	0x3d29912f	0.041398223
81	0x3de88743	0.11353924
82	0x3b8897a2	0.0041684667
83	0xbdb7bdc0	-0.08971739
84	0x3d75d727	0.06001964
85	0x3cc7ecfd	0.024404997
86	0x3d729d75	0.059232194
87	0xbd6b2915	-0.057412226
88	0x3d7be835	0.061500747
89	0x3dcbec9b	0.09957238
90	0xbbb2970f	-0.0054501365
91	0xbc7e32a0	-0.015515
92	0x3d53d634	0.051717952
93	0xbc677b3b	-0.0141285015
94	0xbc8313c7	-0.016000642
95	0xbd02c52a	-0.03192631
96	0x3a87ccd1	0.0010360723
97	0xbd051b0e	-0.032496504
98	0x3d6b3157	0.0574201
99	0xbd5bd29a	-0.053667642
100	0x3d2333b3	0.039844226
101	0x3cd2eb7e	0.025747057
102	0xbe071e5f	-0.1319518
103	0x3e1cef21	0.15325595
104	0xbd83c377	-0.06433766
105	0xbd11615a	-0.035493232
106	0x3d1d77e0	0.0384444
107	0x3dc333e4	0.09531382
108	0xbd99ba4b	-0.07506236
109	0xbdc9c60e	-0.09852229
110	0xbc31d95f	-0.010855048
111	0xbcb9f948	-0.022701874
112	0x3d5b77ba	0.053580977
113	0xbd0bf981	-0.034173492
114	0xbda887a3	-0.08228996
115	0xbdec4dd5	-0.11538283
116	0x3d01c333	0.031680297
117	0xbbc6438e	-0.0060505336
118	0xbc2f1cbe	-0.010688005
119	0x3dcda431	0.10041083
120	0xbd93dcb0	-0.07219827
121	0xbd3ae453	-0.045627903
122	0x3dcee6d8	0.10102624
123	0x3ce7cf2b	0.028297028
124	0x3d2006d1	0.039069
125	0xbbf86afa	-0.007581112
126	0x3dd7bd3e	0.10534142
127	0x3d678244	0.056520715

convs.0.bn1.weight f4 [128]
0	0x40a90e87	5.2830234
1	0x3faba31d	1.3409153
2	0x40b9b047	5.802768
3	0x3fcb9f23	1.590794
4	0x410410c3	8.254092
5	0x3f9f981d	1.2468296
6	0x40875139	4.228665
7	0x3ff0502f	1.877447
8	0x408a3ade	4.319686
9	0x40aa41a9	5.320515
10	0x3ec5242f	0.38504168
11	0xbfebf623	-1.843449
12	0x410b7cc6	8.717962
13	0x4060023e	3.5001369
14	0x3fba3723	1.4548076
15	0x3f47da58	0.7806754
16	0x4014babc	2.3238974
17	0x3dede9a1	0.11616827
18	0x41092e43	8.573794
19	0x3f299b71	0.6625281
20	0x40356cb2	2.8347592
21	0x40d5ae59	6.6775327
22	0x4107e181	8.492555
23	0x3fcc4010	1.595705
24	0x3f8ab8f3	1.0837692
25	0x40230c88	2.5476398
26	0x414bfa55	12.748616
27	0x41277444	10.465885
28	0xbe45cab1	-0.19315602
29	0x3fdd08ad	1.7268273
30	0x3fed5f63	1.8544735
31	0x3f9e06d6	1.2345836
32	0x40d2b751	6.5848775
33	0x41669914	14.412373
34	0x40011b4f	2.0172918
35	0x3db775c9	0.089580126
36	0x408393f6	4.1118116
37	0x3fab316f	1.3374461
38	0x4118d66d	9.55235
39	0x410f146c	8.942486
40	0x40fc1b36	7.8783216
41	0x406ab05c	3.6670141
42	0x4096dd17	4.7144885
43	0x40c49adb	6.1439033
44	0xbe30c1ad	-0.17261381
45	0x408fa90d	4.489386
46	0x40835dfa	4.1052217
47	0xbecdda93	-0.4020582
48	0x40e49509	7.143193
49	0x40967a65	4.7024407
50	0xbeb0072f	-0.3438048
51	0x41533867	13.20127
52	0x412c87cd	10.7831545
53	0x3ebbd39b	0.3668488
54	0x4021b19f	2.5264661
55	0x402e5f14	2.724553
56	0x40cb1a1d	6.3469377
57	0x40f56950	7.6691055
58	0x3fc79184	1.5591283
59	0x3e829387	0.2550318
60	0x3e8a0929	0.26960114
61	0x3ce5c25e	0.028046783
62	0x3fb261cb	1.3936094
63	0x3e08a874	0.1334551
64	0x3fcd3645	1.6032187
65	0x3f00abb2	0.50261986
66	0x3fc1180d	1.5085465
67	0x3f09ce60	0.5383053
68	0x400ef015	2.2334034
69	0xbe99eec0	-0.30064964
70	0x3ee440ad	0.44580594
71	0x3f8a97a0	1.0827522
72	0xbfbecdb0	-1.4906521
73	0x4111f069	9.121194
74	0x3eeec90e	0.46637768
75	0x3e046506	0.12929162
76	0xbc54d71b	-0.012990738
77	0x40ac7469	5.38921
78	0xbfe701ae	-1.8047388
79	0x3f7eafc5	0.99486953
80	0x3d07a8e5	0.033120055
81	0x3f84e152	1.0381262
82	0x3c192303	0.009346726
83	0xbf95943d	-1.1685864
84	0x4099f697	4.8113513
85	0x41105bdf	9.022429
86	0x3f1c95a2	0.6116582
87	0x403fee27	2.9989107
88	0x3fe1a84a	1.7629483
89	0x3fc2f2ca	1.5230343
90	0x3fb7eb1d	1.4368626
91	0xc097aadd	-4.7396073
92	0xbf40921d	-0.7522295
93	0x3f9519ad	1.1648461
94	0x40b4b414	5.646982
95	0x3f8c000e	1.0937517
96	0x3f7f2a27	0.99673694
97	0x4051e3f1	3.2795374
98	0x3f3eb5f0	0.74496365
99	0x3f42e31c	0.7612779
100	0x3e4de62a	0.20107332
101	0x3ee3d658	0.4449947
102	0x3e40f240	0.18842411
103	0x3eb2c588	0.3491633
104	0x4009d2ac	2.1534834
105	0xbdba2a52	-0.09090103
106	0x40beb0f3	5.9591002
107	0xbfd3e9e2	-1.655575
108	0xbf5569eb	-0.83364743
109	0x3e406b6f	0.18790983
110	0x4067192d	3.6109116
111	0x3f21ffbe	0.63280857
112	0xbf678826	-0.9044212
113	0xc0d745aa	-6.727254
114	0xbf9f360f	-1.2438372
115	0x3e3f3cbc	0.18675512
116	0xbfd36069	-1.6513797
117	0xbf8a8193	-1.0820793
118	0x402d195b	2.7046726
119	0x405f7b71	3.4919093
120	0x4017d814	2.3725634
121	0x3dea5cfc	0.114435166
122	0x405ba7e2	3.4321218
123	0xbe66a6d7	-0.22524582
124	0xc00663bf	-2.099838
125	0xbf015bc3	-0.5053064
126	0xbfbab57e	-1.4586637
127	0x3ee8e217	0.45484993

convs.0.bn1.bias f4 [128]
0	0xbfe4ec6c	-1.788465
1	0xbe8f4e9a	-0.27989656
2	0x4005c449	2.0901053
3	0xbf19dfcd	-0.6010712
4	0x3fc9aa35	1.5755068
5	0xbf9cc2c5	-1.2246939
6	0x3f5dcd74	0.8664162
7	0x3fda6e9b	1.7065004
8	0x3dc63666	0.096783444
9	0xbeb95837	-0.36200115
10	0x4097fe77	4.7498126
11	0x3fcc9bb4	1.5985017
12	0x40b3c5da	5.617902
13	0xc052c021	-3.2929766
14	0x4014057d	2.312835
15	0x4010ad8e	2.260593
16	0x3fadee45	1.3588339
17	0x409eb515	4.9596047
18	0x3d7b517e	0.061357014
19	0x4112f3f1	9.184556
20	0x40a3b00f	5.1152415
21	0xc005cc76	-2.0906043
22	0x402a1b62	2.6579213
23	0x3f13b95f	0.5770473
24	0x3ebe9a93	0.37227306
25	0x400a4e93	2.1610458
26	0x4079f40e	3.905521
27	0xc0b50821	-5.6572423
28	0x40ab9ffc	5.3632793
29	0x3f69650e	0.9116982
30	0x40b7e703	5.7469497
31	0x410e7cef	8.905501
32	0xbd737188	-0.059434444
33	0xc0fbbd59	-7.8668637
34	0x40927faa	4.578084
35	0x400d190e	2.2046542
36	0x3fbe847b	1.488418
37	0x4045b51b	3.0891788
38	0x40077a9f	2.1168592
39	0xbf0a9ab9	-0.5414234
40	0x3f97cdac	1.1859641
41	0x41032f63	8.199069
42	0xc0de4db1	-6.946984
43	0x3ff71247	1.9302453
44	0x400fab9f	2.24485
45	0x40855c0f	4.1674876
46	0x3ec5df41	0.38646892
47	0x4101c2c3	8.110049
48	0xbf66ef89	-0.9020925
49	0xc0ad7bc7	-5.4213595
50	0x3f95e85d	1.1711537
51	0xbd8ce4e6	-0.068795964
52	0x4001fa12	2.030888
53	0x4105dedf	8.366912
54	0x3ec7d852	0.39032227
55	0xc09ca2ac	-4.8948574
56	0x3ded7ad0	0.1159569
57	0x400fc765	2.246545
58	0xc03f2006	-2.9863296
59	0x40e1eb1c	7.05995
60	0x40580496	3.37528
61	0x4023713a	2.5537858
62	0x40d99612	6.799569
63	0x4131c367	11.110206
64	0x402f6408	2.7404804
65	0x3d6f6ee4	0.058455363
66	0x40d6348c	6.6939144
67	0x3f49e270	0.7886114
68	0x3fd77083	1.6831211
69	0x40c302c6	6.0940886
70	0x405a1950	3.407795
71	0x406011f7	3.5010965
72	0x4119d308	9.614021
73	0xbf91706e	-1.1362436
74	0x405cb945	3.448808
75	0x4006f045	2.108415
76	0x419e9e88	19.827408
77	0xc084752c	-4.139303
78	0x3deac738	0.11463779
79	0x3e48bc70	0.19603133
80	0x40be9235	5.9553475
81	0x40af30f1	5.4747243
82	0x40d1dcca	6.558202
83	0x410eec6f	8.932723
84	0x3d9b8cf9	0.07595248
85	0xbfecd06b	-1.8501104
86	0x413de63d	11.8687105
87	0xbfaba20d	-1.3408829
88	0xbf2c6ebe	-0.6735648
89	0x4021c65e	2.5277324
90	0x40ba8af4	5.829462
91	0xc0a251df	-5.072494
92	0x40503551	3.2532542
93	0x3ef29d0e	0.47385448
94	0xbe0d82af	-0.13819383
95	0x40f571c0	7.6701355
96	0x40620be2	3.5319753
97	0x40582df8	3.3778057
98	0x4110eb5c	9.057461
99	0x400fb7e4	2.2455988
100	0x402a3474	2.6594515
101	0x40101814	2.2514696
102	0x411ec7bb	9.923762
103	0x4102d000	8.175781
104	0x404ecb07	3.2311418
105	0x417c9851	15.787187
106	0xc10bf01a	-8.746119
107	0x413f2c24	11.9482765
108	0x3fcfcce2	1.62344
109	0x40ddb9ce	6.928931
110	0x3fd891e0	1.6919518
111	0x40901d8c	4.503607
112	0x40c38e9d	6.111159
113	0xbe440bb9	-0.19145097
114	0x3fb12656	1.3839824
115	0x410ba4a2	8.727694
116	0x40d97b50	6.796303
117	0x40959480	4.6743774
118	0x3fba32e6	1.4546783
119	0xc07a5b3b	-3.9118183
120	0x4025f5cd	2.5931275
121	0x41270739	10.439263
122	0xbe468024	-0.1938482
123	0x4082ba83	4.0852675
124	0x408777bd	4.2333665
125	0x3fdebe29	1.7401782
126	0x410b2f87	8.699103
127	0x4117a3b4	9.477467

convs.0.bn1.running_mean f4 [128]
0	0xc38bb7c0	-279.43555
1	0xc3eec7b7	-477.56027
2	0x44d17d24	1675.9106
3	0x43b3434f	358.52585
4	0xc524c212	-2636.1294
5	0x459a9bac	4947.459
6	0xc4edd2a6	-1902.5828
7	0xc487d127	-1086.536
8	0xc32318cc	-163.09686
9	0xc519537b	-2453.2175
10	0xc51d6e66	-2518.9
11	0x44194a12	613.15735
12	0xc4230a92	-652.16516
13	0x43f8cbe6	497.59296
14	0xc356db0b	-214.85564
15	0xc361f68b	-225.96306
16	0xc4b71493	-1464.643
17	0x452e51ba	2789.108
18	0x454f8c61	3320.7737
19	0xc5081ff0	-2177.996
20	0xc4b88114	-1476.0337
21	0x44864da1	1074.4259
22	0xc54a0b7d	-3232.718
23	0x440e42c6	569.04333
24	0x44a99a66	1356.825
25	0xc49ab456	-1237.6355
26	0x44b34d43	1434.4144
27	0x458ea794	4564.9473
28	0x424424a3	49.035778
29	0x454646ab	3172.4167
30	0x43a2df96	325.74677
31	0x417057fa	15.021479
32	0xc4d99a5a	-1740.8235
33	0xc4cac7b6	-1622.241
34	0x4531a817	2842.5056
35	0x44052da5	532.7132
36	0xc234a985	-45.165546
37	0x4519e832	2462.5122
38	0xc54b7c16	-3255.7554
39	0x429efea5	79.49735
40	0xc48cf751	-1127.7286
41	0x454ae720	3246.4453
42	0x4450ddb9	835.4644
43	0x4402da0d	523.40704
44	0x44cb2aa8	1625.333
45	0x4493607c	1179.0151
46	0xc481cb37	-1038.3505
47	0xc4b35618	-1434.6904
48	0xc4ca9b05	-1620.8444
49	0x445fc93f	895.1445
50	0xc4864782	-1074.2346
51	0xc4929878	-1172.7646
52	0xc50b4c94	-2228.7861
53	0x452e92bc	2793.171
54	0x445a27d5	872.6224
55	0x43f51af7	490.21066
56	0xc493962d	-1180.693
57	0xc4ddcec4	-1774.4614
58	0x4424558f	657.33685
59	0xc38ebbee	-285.4682
60	0x4580b308	4118.379
61	0x421738a5	37.805317
62	0x452a6782	2726.4692
63	0xc39c27c0	-312.31055
64	0xc4ddc64d	-1774.1969
65	0xc42a23e0	-680.56055
66	0xc4ad2085	-1385.0162
67	0x43abc359	343.52615
68	0xc492c18e	-1174.0486
69	0x43cb45fe	406.5468
70	0xc53a6727	-2982.447
71	0xc53a7568	-2983.338
72	0xc42e9303	-698.29706
73	0xc5019155	-2073.0833
74	0xc5562ebc	-3426.921
75	0x43e4497a	456.57404
76	0xc49b0684	-1240.2036
77	0x4422658c	649.5867
78	0xc4fd1c41	-2024.8829
79	0xc3ce8596	-413.04364
80	0x44373440	732.8164
81	0x45542dc9	3394.8616
82	0x4558466d	3460.4016
83	0x44face7f	2006.453
84	0xc5261800	-2657.5
85	0x44972494	1209.1431
86	0xc59d9de4	-5043.7363
87	0x42d84627	108.13702
88	0x44dbe4f0	1759.1543
89	0xc4f6d3f9	-1974.6241
90	0xc5851f87	-4259.941
91	0x4597ed9f	4861.7026
92	0xc296d445	-75.41459
93	0xc4c06c9c	-1539.394
94	0xc538380d	-2947.5032
95	0xc341d99e	-193.85007
96	0xc579c957	-3996.5837
97	0xc200415f	-32.06384
98	0x4534da20	2893.6328
99	0xc4285db3	-673.46405
100	0xc3cc4342	-408.52545
101	0x4450c90d	835.1414
102	0xc5d16756	-6700.917
103	0xc5203fc4	-2563.9854
104	0xc4c3b911	-1565.7833
105	0x45518ca6	3352.7905
106	0x4333bbe5	179.73396
107	0x456dadb0	3802.8555
108	0xc489bac2	-1101.8362
109	0xc445b78a	-790.8678
110	0xc528bfeb	-2699.9949
111	0x454f82cf	3320.1755
112	0xc58918e4	-4387.1113
113	0x44a00bb8	1280.3662
114	0xc52933c6	-2707.2358
115	0xc590f3a6	-4638.456
116	0xc569d8cf	-3741.5505
117	0x45d241f3	6728.2437
118	0x44b0bfb9	1413.9913
119	0x445e1157	888.27094
120	0xc4efc339	-1918.1007
121	0xc549a245	-3226.1418
122	0x44bdcbb0	1518.3652
123	0xc5242fc4	-2626.9854
124	0x4526d4fb	2669.3113
125	0x44590099	868.00934
126	0xc54306fd	-3120.4368
127	0x4251f95d	52.49352

convs.0.bn1.running_var f4 [128]
0	0x49bf4f73	1.5672144e+06
1	0x4826864e	170521.22
2	0x49b28055	1.4622826e+06
3	0x47ed4c9a	121497.2
4	0x4a88bd99	4.4807165e+06
5	0x4ac2098c	6.358214e+06
6	0x4abbd943	6.1554255e+06
7	0x4a95f774	4.914106e+06
8	0x4a06815e	2.2037355e+06
9	0x4a4d01ea	3.3588425e+06
10	0x4a026a70	2.136732e+06
11	0x488b2b94	285020.62
12	0x4a18543e	2.4957595e+06
13	0x4887aada	277846.8
14	0x48fa862f	513073.47
15	0x4739e1c1	47585.754
16	0x49fa5de5	2.0510046e+06
17	0x4a0aa622	2.2716245e+06
18	0x4a6058bc	3.675695e+06
19	0x4a5acd8f	3.5848678e+06
20	0x4963d959	933269.56
21	0x4972a2c1	993836.06
22	0x4b53502b	1.3848619e+07
23	0x4a26e219	2.7342142e+06
24	0x4912da5c	601509.75
25	0x4ab25bde	5.844463e+06
26	0x49436f58	800501.5
27	0x4aad5c7a	5.680701e+06
28	0x49360dc4	745692.25
29	0x4aacd0a3	5.6628015e+06
30	0x49854b3a	1.0919432e+06
31	0x4a18d872	2.5042205e+06
32	0x4a6366b5	3.7257412e+06
33	0x4999f16c	1.2611015e+06
34	0x4aa6394c	5.446822e+06
35	0x48af52ed	359063.4
36	0x47d4af6b	108894.836
37	0x49d6c746	1.7594648e+06
38	0x4b40696c	1.26099e+07
39	0x4a90a6b9	4.7399325e+06
40	0x4a979174	4.966586e+06
41	0x4a413d8d	3.1660512e+06
42	0x48ca67dc	414526.88
43	0x4ac7ef90	6.551496e+06
44	0x499723c4	1.2381365e+06
45	0x4a669360	3.777752e+06
46	0x49808067	1.0526849e+06
47	0x496684db	944205.7
48	0x4a9ddf1e	5.173135e+06
49	0x4a01ac08	2.124546e+06
50	0x4973f22c	999202.75
51	0x4afde03e	8.319007e+06
52	0x4a42d300	3.192e+06
53	0x4a93e5cb	4.8463095e+06
54	0x49701128	983314.5
55	0x49499e83	825832.2
56	0x4ab31415	5.8680425e+06
57	0x4a962594	4.92001e+06
58	0x49f1409f	1.9763399e+06
59	0x48feac3e	521569.94
60	0x4a8906fa	4.490109e+06
61	0x489e627c	324371.88
62	0x49f35912	1.9935062e+06
63	0x4a71af35	3.9597572e+06
64	0x49e9ed6d	1.9163336e+06
65	0x48906369	295707.28
66	0x4a191551	2.5081162e+06
67	0x4788d498	70057.19
68	0x4adcbda6	7.233235e+06
69	0x49c2bfa3	1.5953804e+06
70	0x4b0d41fc	9.257468e+06
71	0x4b0872bf	8.942271e+06
72	0x4989d6e7	1.1291809e+06
73	0x4a77d850	4.060692e+06
74	0x4a8ffa6b	4.7178775e+06
75	0x489e7d2c	324585.38
76	0x4a1e960d	2.5982752e+06
77	0x48a8106d	344195.4
78	0x49a8618d	1.3793776e+06
79	0x481f9440	163409.0
80	0x4a3458c6	2.9548015e+06
81	0x4a5ff8d4	3.669557e+06
82	0x4ac9d374	6.613434e+06
83	0x4a75faaa	4.0301225e+06
84	0x4a27a263	2.7465208e+06
85	0x49af7ca9	1.4375891e+06
86	0x4b91f7af	1.9132254e+07
87	0x4a4b5e19	3.3319742e+06
88	0x493c377d	770935.8
89	0x4b01bf82	8.50317e+06
90	0x4b121557	9.573719e+06
91	0x4afd23d5	8.2948905e+06
92	0x499b4ec4	1.2722805e+06
93	0x4a74d6b0	4.011436e+06
94	0x4ad8368b	7.0848695e+06
95	0x4a3b7e63	3.0718968e+06
96	0x4a8df9d9	4.6522685e+06
97	0x4adc80d0	7.225448e+06
98	0x4ac0dbe8	6.319604e+06
99	0x491aa5b4	633435.25
100	0x47f07602	123116.016
101	0x4a6e6def	3.9064278e+06
102	0x4ba0862d	2.1040218e+07
103	0x4af2325a	7.936301e+06
104	0x4ad7daaf	7.0731115e+06
105	0x4a6a5114	3.839045e+06
106	0x48be849a	390180.8
107	0x4ab7e4d2	6.025833e+06
108	0x498b917c	1.1433435e+06
109	0x4a93dadf	4.8449115e+06
110	0x4a5bcccc	3.601203e+06
111	0x4a705cb9	3.9380942e+06
112	0x4acf9836	6.802459e+06
113	0x4a69ca4b	3.8304188e+06
114	0x4a1fd730	2.618828e+06
115	0x4b977dda	1.9856308e+07
116	0x4aa4ced2	5.400425e+06
117	0x4ba88839	2.2089842e+07
118	0x4938001a	753665.6
119	0x49736729	996978.56
120	0x4acb1ffe	6.655999e+06
121	0x4ae33845	7.4455385e+06
122	0x49952b3b	1.2219914e+06
123	0x4a6be056	3.8645975e+06
124	0x4aa34c47	5.3509475e+06
125	0x4920a20b	657952.7
126	0x4a66a9a9	3.7791782e+06
127	0x4ac852b0	6.564184e+06

convs.0.bn2.weight f4 [64]
0	0x3f88553c	1.0651011
1	0x3f49862a	0.78720343
2	0xbf181765	-0.594107
3	0xbd8f1f9b	-0.0698845
4	0x3fa00d75	1.2504107
5	0x3fbe533d	1.4869152
6	0x3ef7be38	0.48387313
7	0x3eecb023	0.46228132
8	0x3f9bdc00	1.2176514
9	0x3fa018db	1.2507585
10	0xbfecb233	-1.8491882
11	0x3ec46589	0.38358715
12	0x406118d8	3.5171413
13	0x405aa432	3.4162717
14	0x3f301169	0.68776566
15	0x3ddcd080	0.10781956
16	0x3f9633ee	1.1734598
17	0x3ffbdffb	1.9677728
18	0x3f3f2454	0.7466481
19	0xbdeb110b	-0.1147786
20	0x4053e9e9	3.3111517
21	0x40a7d9cf	5.245338
22	0x3fcd684b	1.6047453
23	0x3f82504f	1.0180758
24	0xbff246df	-1.8927878
25	0x3f8a0062	1.0781367
26	0x3ef7dca6	0.4841053
27	0x3e94b0bc	0.29041088
28	0x3e7c9ad2	0.24668434
29	0x3f1c89d3	0.61147803
30	0x3fd8ee70	1.6947765
31	0x40607f06	3.507753
32	0xbe88d71d	-0.26726618
33	0x3f51e9d6	0.8199743
34	0x3fc2614e	1.5185945
35	0x40475231	3.1143916
36	0x3ef748f7	0.48297855
37	0x4038b0d3	2.8857925
38	0x3fc2ce78	1.5219259
39	0x4006aac5	2.104173
40	0x3fbe6117	1.487338
41	0x3f04629b	0.5171296
42	0x3eb2030f	0.3476796
43	0x3f953646	1.1657188
44	0x3f3f26a6	0.7466835
45	0x40033d7a	2.0506272
46	0x3f8eb5ac	1.1149192
47	0x3fd6011b	1.6719087
48	0x3f32e125	0.69874793
49	0x3fe8eb77	1.8196858
50	0xbf17bf06	-0.59275854
51	0x400af66d	2.1712906
52	0x40068d9f	2.1023939
53	0x3fab1b73	1.3367752
54	0x4053aac9	3.307299
55	0x40767cbd	3.8513634
56	0x3fb1b588	1.3883524
57	0x3ee2f189	0.44324902
58	0x3fc32a08	1.5247202
59	0xc004ab91	-2.0729716
60	0xbf98fb18	-1.1951628
61	0x3e12c7ab	0.1433398
62	0xbd3274ba	-0.04356835
63	0xbf5a265f	-0.852148

convs.0.bn2.bias f4 [64]
0	0xc0532333	-3.2990234
1	0xc1040769	-8.251809
2	0xc0836896	-4.106517
3	0xc11d8546	-9.845037
4	0xc0909fe0	-4.519516
5	0xc04917eb	-3.1420848
6	0xc0d0059f	-6.500686
7	0xc0b480af	-5.6407084
8	0xc05d5e25	-3.4588711
9	0xc02bcba3	-2.684304
10	0xc0727aaa	-3.7887368
11	0xc11d0a84	-9.815067
12	0xc09bb38a	-4.8656664
13	0xc051f6bc	-3.2806845
14	0xc08336d4	-4.100443
15	0xc0a672cc	-5.2015133
16	0xc055f838	-3.343275
17	0xc07c1ad2	-3.939137
18	0xc0dd1a9d	-6.9094987
19	0xc0036e49	-2.0536063
20	0xc0f11f98	-7.5351067
21	0xc0bf7bd0	-5.983864
22	0xbfd46cf7	-1.6595753
23	0xc072e4cd	-3.795215
24	0xc093f9ab	-4.624227
25	0xc09d9b52	-4.92521
26	0xc0310722	-2.7660604
27	0xbf537306	-0.82597387
28	0xc0b2d1e3	-5.588121
29	0xc0856e56	-4.1697187
30	0xbf6e62a7	-0.9311928
31	0xc09db941	-4.928864
32	0xc02f9722	-2.7435994
33	0xbfb14dbc	-1.3851848
34	0xc01f2a66	-2.4869628
35	0xc0a794ba	-5.236905
36	0xc0c71948	-6.221836
37	0xc0bc1c16	-5.8784285
38	0xc0b0758e	-5.51435
39	0xc0801044	-4.0019855
40	0xc0a97eb8	-5.2967186
41	0xc025d254	-2.5909624
42	0xbfee6f68	-1.8627748
43	0xc01bc50d	-2.433902
44	0xc0abfc5c	-5.3745556
45	0xc04c7c47	-3.1950853
46	0xc0b4aa52	-5.645791
47	0xc091d888	-4.557682
48	0xc0a80e9f	-5.251785
49	0xbff1fa44	-1.89045
50	0xc0ae58c7	-5.448337
51	0xc043f2f8	-3.0617046
52	0xc0612c2a	-3.5183206
53	0xc0ad3152	-5.4122705
54	0xc06e342f	-3.721935
55	0xc098bb7d	-4.7728868
56	0xc08ab707	-4.334842
57	0xc0463e3c	-3.0975485
58	0xc0925538	-4.5729027
59	0xc0b77bba	-5.7338533
60	0xc04ef590	-3.233738
61	0xc1345dcb	-11.272899
62	0xc08b6cdb	-4.357038
63	0xbfad2d9c	-1.3529544

convs.0.bn2.running_mean f4 [64]
0	0x419ebc0c	19.84182
1	0x40990c49	4.7827497
2	0x42462218	49.533295
3	0x40ea67b5	7.3251595
4	0x419fb5f3	19.963842
5	0x41a84a0e	21.03616
6	0x41a745dc	20.909111
7	0x4206fa22	33.74427
8	0x4236fc70	45.74652
9	0x4181ca7a	16.223866
10	0x4225ad9b	41.419537
11	0x41949909	18.574724
12	0x4328b73a	168.71573
13	0x40e297a6	7.081012
14	0x4128ad2a	10.542276
15	0x411fd088	9.988411
16	0x4237b693	45.928295
17	0x4282af34	65.34219
18	0x423d5718	47.335052
19	0x42d66178	107.19037
20	0x41cd6ee3	25.679144
21	0x4220cc23	40.199352
22	0x428cf7ae	70.48375
23	0x411c6c75	9.776479
24	0x40d07b87	6.515079
25	0x41d97516	27.18217
26	0x42285b91	42.08942
27	0x3c24b6ad	0.010053319
28	0x421dac5e	39.418327
29	0x411937b1	9.576097
30	0x41f34d14	30.412636
31	0x42b80afe	92.02147
32	0x41b25284	22.29029
33	0x41b55273	22.665258
34	0x42cf646e	103.69615
35	0x41cc700a	25.554707
36	0x418a9a3a	17.325306
37	0x41d0d356	26.103191
38	0x425478d2	53.11799
39	0x4224ebc1	41.23023
40	0x41d7b618	26.963913
41	0x4337bfec	183.7497
42	0x3f3bc6b9	0.733501
43	0x42aecb3c	87.39694
44	0x419fd89d	19.980768
45	0x427f9c1c	63.90245
46	0x41a10ce4	20.131294
47	0x4258c5b1	54.193058
48	0x41bb8f1e	23.444881
49	0x41877b9a	16.935352
50	0x4183d728	16.480057
51	0x422e2068	43.531647
52	0x41d5118f	26.633574
53	0x4260c22d	56.189625
54	0x41b290fa	22.32079
55	0x3f14faf6	0.58195436
56	0x41c0d190	24.102325
57	0x426b77d5	58.867023
58	0x408a82af	4.3284526
59	0x4244cb83	49.198742
60	0x424633d7	49.550625
61	0x41aaba79	21.341051
62	0x42d04d1a	104.15059
63	0x42e37832	113.73476

convs.0.bn2.running_var f4 [64]
0	0x421a08d5	38.508625
1	0x410403eb	8.250957
2	0x427cf1f6	63.23629
3	0x420cad7f	35.16943
4	0x42c0d47c	96.41501
5	0x420e5c49	35.590122
6	0x41ed8701	29.69092
7	0x4284541f	66.1643
8	0x4349f4f0	201.95679
9	0x439cf2c2	313.89655
10	0x41aff6f4	21.995583
11	0x41e3cf07	28.476088
12	0x45a92020	5412.0156
13	0x42488e13	50.138744
14	0x423f40ee	47.813408
15	0x41de6e32	27.803806
16	0x43e3b767	455.43283
17	0x42ea4d5f	117.151115
18	0x42a4a143	82.314964
19	0x433e74ef	190.45677
20	0x43891a11	274.20364
21	0x44ba69d9	1491.3077
22	0x43c1c82a	387.56378
23	0x430f2b84	143.16998
24	0x41e98cd1	29.193758
25	0x426f68c3	59.852306
26	0x42191ad1	38.276188
27	0x38e5b8c1	0.00010953984
28	0x428ecb53	71.39712
29	0x42163490	37.55133
30	0x42e13c55	112.617836
31	0x425c84ac	55.129562
32	0x42114b4a	36.323524
33	0x431b38b9	155.22157
34	0x4135c54c	11.360668
35	0x424d3f8d	51.31206
36	0x436270bf	226.44041
37	0x40fdd7f2	7.9326105
38	0x43534df7	211.30455
39	0x437f5853	255.34502
40	0x42a61969	83.04963
41	0x42450cbc	49.262436
42	0x3f93d5e0	1.1549644
43	0x43e6da37	461.7048
44	0x423a6309	46.596714
45	0x44290eab	676.2292
46	0x43420569	194.02113
47	0x421aadc6	38.6697
48	0x42639e31	56.904484
49	0x439a8b4d	309.0883
50	0x4293f2bd	73.9741
51	0x4371c2d5	241.76106
52	0x42a1cfc3	80.905785
53	0x40e682de	7.203475
54	0x43b21a0b	356.20346
55	0x3f1bdb19	0.6088119
56	0x42b57f52	90.74867
57	0x43841fb9	264.24783
58	0x419016fe	18.011227
59	0x40d38985	6.610537
60	0x43fff03f	511.87692
61	0x41b5859f	22.690245
62	0x42a47dea	82.245926
63	0x419368cc	18.42617

convs.1.fc_full.weight f4 [128, 169]
0	0xc065112b	-3.5791728
1	0xbf924d20	-1.1429787
2	0xbee3998d	-0.44453087
3	0x3eda9af8	0.42696357
4	0x401ccfec	2.4501905
5	0x40a7920a	5.236577
6	0x3fffbf7c	1.9980311
7	0xbfdff81f	-1.7497596
8	0xbfaa3c90	-1.3299732
9	0x3f8ecae8	1.1155672
10	0xbfae58c8	-1.3620844
11	0xbcd660ae	-0.026169147
12	0x3fc3b869	1.5290653
13	0x40810ba0	4.032669
14	0x406ae047	3.6699388
15	0xbece831f	-0.40334412
16	0x40849e49	4.144322
17	0xbf7511b3	-0.9573013
18	0x3e1756cd	0.14779206
19	0x3ff5e68f	1.9210986
20	0xc045be10	-3.0897255
21	0xbf1e6a39	-0.6188083
22	0x3f7163cf	0.9429292
23	0x40b016f2	5.502801
24	0xc01f1468	-2.4856205
25	0x3fdf8457	1.7462262
26	0x3f1b2f3a	0.60618937
27	0x3e6e67e0	0.23281813
28	0x3fc05507	1.5025948
29	0x408e9403	4.455568
30	0xc0043d48	-2.0662403
31	0xbfca3d67	-1.5799989
32	0x3ed01ffb	0.406494
33	0x3f258552	0.64656556
34	0xc02d58a4	-2.7085352
35	0xbfc7b23c	-1.5601268
36	0x3f12df68	0.5737214
37	0x3fdf87a7	1.7463273
38	0x4071cfef	3.7783163
39	0xbdfee4cf	-0.124459855
40	0xbe2cf0d3	-0.16888742
41	0xbf8b570e	-1.0885942
42	0x400c77da	2.1948152
43	0xbfd163b6	-1.6358554
44	0x40b4b110	5.646614
45	0xc038872e	-2.8832507
46	0x40195ba0	2.3962173
47	0xbf1e6643	-0.6187479
48	0xc016446b	-2.347926
49	0xbfa37a30	-1.2771664
50	0x3f33d96a	0.7025362
51	0xbfa7a0b8	-1.3095922
52	0x3f09ecf1	0.5387717
53	0xbf577f7c	-0.841789
54	0xbf8befba	-1.0932534
55	0x3ee6eaf1	0.4510112
56	0xbfa1cb87	-1.2640237
57	0xbf4d113c	-0.8010442
58	0xbde63c2b	-0.11241945
59	0xbca295f5	-0.019846896
60	0x40b3b326	5.6156187
61	0xbe25b5b5	-0.16182597
62	0xc001d230	-2.0284538
63	0x3e069ada	0.13145009
64	0xbf125e27	-0.57174915
65	0xbf4e9c75	-0.80707484
66	0xbea2d334	-0.3180176
67	0x3def4c18	0.116844356
68	0x403de0db	2.966849
69	0xbf0f3343	-0.55937594
70	0xbf45890c	-0.7716224
71	0x40b9d04c	5.806677
72	0xbda5b58e	-0.080912694
73	0xbf673236	-0.9031099
74	0x400ffc9e	2.2497935
75	0xbf41ab25	-0.7565177
76	0x3f8562a0	1.0420723
77	0x3f3793c1	0.7170983
78	0xbf88990c	-1.0671706
79	0x40001c72	2.0017362
80	0xc0342633	-2.8148315
81	0xbe99069d	-0.29887858
82	0x3f3b6cf3	0.7321312
83	0x40a30ac4	5.095064
84	0xbe52279a	-0.2052292
85	0xbf00217f	-0.5005111
86	0x411defd3	9.871051
87	0xbf79e65b	-0.9761712
88	0xbf6a0415	-0.9141248
89	0x40ac9ce0	5.39415
90	0xbfa4b5be	-1.2867963
91	0xbee6b584	-0.4506036
92	0xbfdd3d0c	-1.7284255
93	0xbfb338db	-1.4001726
94	0xc03c1b98	-2.9391842
95	0xbf97684c	-1.1828704
96	0x3efc4a8c	0.49275625
97	0x3f9288ca	1.1447995
98	0x4094822e	4.640891
99	0xbf253ef0	-0.6454916
100	0x3e20cffe	0.15704343
101	0xc060fb4e	-3.5153384
102	0x40a88dfc	5.267332
103	0x3fae9fcc	1.3642516
104	0x3fa24e8b	1.268022
105	0x3fb2137e	1.3912199
106	0xc0bad8e5	-5.8389764
107	0x3f62ad9e	0.8854617
108	0x3f123cee	0.5712422
109	0x3f64d8e6	0.8939346
110	0x404c4247	3.1915452
111	0x3f55d0f6	0.83521974
112	0xc0194542	-2.3948522
113	0xbfc72b25	-1.5560042
114	0xc03635dc	-2.8470373
115	0x407278c4	3.788621
116	0x3f08f5fa	0.5350033
117	0x4071ccc4	3.778123
118	0xbf82e6dc	-1.0226703
119	0x3fe7303e	1.8061597
120	0x3f9d1970	1.2273388
121	0x401570d9	2.3350127
122	0xc0267143	-2.600663
123	0x3f698692	0.91220963
124	0x405829ce	3.3775516
125	0xbef5f555	-0.48038736
126	0x3d54dccd	0.051968385
127	0x3fbf6020	1.495121
128	0x4048529e	3.1300426
129	0x403fb65a	2.9955049
130	0xc05e87ad	-3.477031
131	0xc0e3f16d	-7.123221
132	0xc0ce6413	-6.449716
133	0xc0b48ab4	-5.6419315
134	0x40296ada	2.6471467
135	0x3f1be805	0.6090091
136	0xc0d85f1b	-6.7616096
137	0xc128c79c	-10.548733
138	0xc01a3d9e	-2.4100108
139	0x4102607d	8.148557
140	0x403ddeb3	2.9667175
141	0xc0bc47fa	-5.883786
142	0x40959754	4.6747227
143	0x40b6be38	5.71072
144	0x3ee30c92	0.44345528
145	0x40172341	2.3615267
146	0x40549a8d	3.321933
147	0x40a40e05	5.1267114
148	0xc01a049c	-2.4065313
149	0xc0e11902	-7.0343027
150	0xbfb26fdb	-1.3940386
151	0xbf92fe1f	-1.1483802
152	0xc0201147	-2.5010545
153	0x3e4ee474	0.20204335
154	0x40ccea20	6.4035797
155	0x40f1652d	7.5436006
156	0x40256f1e	2.584907
157	0xc0337ee5	-2.80462
158	0xc0d4bd0c	-6.648077
159	0xbf88855c	-1.0665698
160	0xbeb78aa0	-0.3584795
161	0xbe8ff451	-0.28116086
162	0x3fc70627	1.5548753
163	0x400723b2	2.1115537
164	0x3ef87050	0.48523188
165	0x3d622525	0.055211205
166	0xbd3030ae	-0.043015175
167	0xbce80041	-0.028320434
168	0xbce92214	-0.028458633
169	0x3fdeb829	1.7399951
170	0xbf93ba34	-1.15412
171	0x3fa61fbe	1.2978437
172	0xbe96f8a5	-0.29486576
173	0x3e7a945a	0.24470654
174	0x3fe49f0e	1.786104
175	0x401a159c	2.407569
176	0x40642c9a	3.5652223
177	0x3d810d62	0.06301381
178	0x407614c3	3.8450172
179	0x3f23adad	0.63936883
180	0xbf3f6119	-0.74757534
181	0x409678f3	4.7022643
182	0xbf8f5530	-1.1197872
183	0x4015b7b8	2.3393383
184	0x3fc1c5f0	1.5138531
185	0x3fa302a1	1.2735177
186	0x3ff4c2b2	1.9121916
187	0x3f570d96	0.84005105
188	0x3fd8e261	1.6944085
189	0xbe9c2174	-0.30494273
190	0x4023c161	2.558678
191	0x40b8bc9d	5.773024
192	0x3fdcb938	1.7244024
193	0x3fbf9133	1.4966186
194	0x3f7147b7	0.94250053
195	0x3fbbfedf	1.4687155
196	0x3f5430b9	0.82886845
197	0x3f812017	1.0087918
198	0xbe7fc2b6	-0.2497662
199	0xbf0d4613	-0.5518505
200	0x40951a4c	4.65946
201	0x400fed48	2.2488575
202	0xbe5b6793	-0.21426229
203	0x3f946d77	1.1595906
204	0x3fcd8515	1.6056238
205	0x3f4459bb	0.7669942
206	0xc01328c0	-2.2993622
207	0x409d03af	4.9066997
208	0x4053c7ca	3.3090692
209	0x40570139	3.3594496
210	0x3fe47479	1.7848045
211	0x3fa53efb	1.2909845
212	0x3f1ca0f3	0.6118309
213	0xbfb69a63	-1.4265865
214	0x40859747	4.1747165
215	0x4024f9f2	2.5777555
216	0x3f30241a	0.68805087
217	0xbec97d63	-0.39353475
218	0xbfaa2795	-1.329333
219	0x3fc026f6	1.501189
220	0x4023b597	2.5579584
221	0xbfc53b20	-1.5408669
222	0x406dec24	3.7175379
223	0x3edd71ab	0.43250784
224	0x3f8d71db	1.1050371
225	0x4091850f	4.5474925
226	0x406610ca	3.5947747
227	0x3f4e69c6	0.8063015
228	0x3f9c4a15	1.2210108
229	0x4040d3ac	3.0129194
230	0x3fc846ee	1.5646646
231	0x3fd43754	1.6579385
232	0xbf65d6c3	-0.89780825
233	0xc08fb3b8	-4.4906883
234	0xbf85333d	-1.0406262
235	0xc0880602	-4.2507334
236	0xbe3364dd	-0.17518945
237	0x40e7d463	7.244676
238	0x40fcf8e3	7.9053817
239	0x3ea97981	0.33100513
240	0xc069397a	-3.644133
241	0x3fccd682	1.6002963
242	0xc030913c	-2.7588644
243	0xc099ab85	-4.8021874
244	0x3fb60588	1.4220438
245	0xc0c11955	-6.0343423
246	0xbf3b23da	-0.7310158
247	0x40ba003a	5.8125277
248	0xbf91b0ca	-1.1382077
249	0x40b775fc	5.7331524
250	0xc08ad1a1	-4.3380895
251	0x3fd0b080	1.6303864
252	0xbfcdd982	-1.6082003
253	0x404e2631	3.221081
254	0xc02978bb	-2.6479938
255	0xc0a855d0	-5.260475

convs.1.fc_full.bias f4 [128]
0	0xbeead9f9	-0.45869425
1	0x3fa369cf	1.2766665
2	0xbda9baf4	-0.082876116
3	0xbd440ce5	-0.04786386
4	0xbd9c34b0	-0.07627237
5	0xbdabcadd	-0.083883025
6	0xbc1ac8e7	-0.009447313
7	0xbece48ca	-0.4028991
8	0x3de01c82	0.109429374
9	0x3d0cb53e	0.034352534
10	0xbf419991	-0.7562495
11	0xbd8ddcbd	-0.06926868
12	0xbc95c738	-0.018283471
13	0xbe44852d	-0.19191428
14	0x3f130a29	0.5743738
15	0x3cadbf3f	0.021209357
16	0x3e043d62	0.1291404
17	0xbc98e03d	-0.018661613
18	0xbd551a1c	-0.052026853
19	0x3ee009cf	0.43757483
20	0x3c3a343b	0.011364992
21	0xbccf1303	-0.02527762
22	0xbcf7f6ea	-0.030269105
23	0xbd0708b9	-0.032967303
24	0xbcedc9be	-0.029026862
25	0xbcf453c1	-0.029825093
26	0xbd5b1950	-0.053490937
27	0x3e591123	0.21197943
28	0x3c5b0905	0.01336885
29	0xbc52a974	-0.012857784
30	0x3cec2355	0.028825441
31	0xbd231454	-0.03981431
32	0x3e582dff	0.21111296
33	0x3e35a18c	0.17737406
34	0x3fb5733c	1.4175792
35	0xbd555763	-0.05208529
36	0x3e466ab4	0.19376642
37	0x3ddf9ee6	0.10918979
38	0xbf248d51	-0.6427813
39	0xbd8f63b5	-0.070014395
40	0xbd383c49	-0.044979367
41	0xbd1515b0	-0.036397636
42	0xbd01f5ae	-0.03172844
43	0xbeaef75e	-0.341731
44	0xbbc38393	-0.0059666126
45	0xbd870a6f	-0.06593787
46	0x3ed3d846	0.4137594
47	0x3ed4d6e3	0.41570196
48	0xbcfa8244	-0.030579694
49	0x3e2d4087	0.16919146
50	0xbbffc623	-0.007805602
51	0x3b8e6598	0.004345607
52	0xbeb40090	-0.3515668
53	0x3d46b4fb	0.04851244
54	0xbe04e32c	-0.12977284
55	0xbf6f2691	-0.9341822
56	0x3e8fbfeb	0.2807611
57	0x3ca9aeea	0.020713288
58	0xbd8fbaf6	-0.07018082
59	0xbd49d506	-0.04927542
60	0xbf008902	-0.5020906
61	0xbde607a2	-0.112319246
62	0x3df676cb	0.12034377
63	0x3d2c57d3	0.042075943
64	0x3d14fbd0	0.03637296
65	0xbec11174	-0.37708628
66	0xbcadf176	-0.021233302
67	0x3dabecba	0.083947614
68	0x3f2ae70c	0.667588
69	0x3d313903	0.04326726
70	0xbcb5d3c8	-0.022195712
71	0x3c9e11f6	0.019295674
72	0xbf6cd820	-0.9251728
73	0x3f571d0b	0.8402869
74	0xbf30de14	-0.69088864
75	0xbd06ce3d	-0.032911528
76	0x3d04c1d4	0.03241141
77	0x3db7c064	0.089722425
78	0x3fc6171f	1.5475806
79	0xbce5f84b	-0.028072497
80	0xbda4339d	-0.08017657
81	0x3d32ac80	0.04362154
82	0x3c8771b0	0.016533703
83	0x3e84a3e2	0.25906283
84	0x3f12929f	0.57254976
85	0x3e9a423e	0.30128664
86	0xbd5380cb	-0.0516365
87	0x3e54f86e	0.20797893
88	0xbb811b42	-0.003940017
89	0x3d8e930a	0.06961639
90	0x3f8e5dac	1.1122336
91	0x3f415544	0.7552073
92	0xbb57ce4e	-0.0032929364
93	0x3e6432b6	0.2228497
94	0xbc9b3ec0	-0.01895082
95	0xbd5f078f	-0.054450568
96	0x3aad8f0c	0.0013241484
97	0xbe0adf0f	-0.13561653
98	0xbe8f3774	-0.27971995
99	0xbd93aa2c	-0.07210192
100	0x3f1df01e	0.61694515
101	0xbc68682d	-0.014184994
102	0xbf63ddf1	-0.8901053
103	0x3d92972f	0.07157742
104	0xbeb60a38	-0.3555467
105	0x3cfa4a2e	0.03055295
106	0x3f5ab294	0.8542874
107	0xbfa02c24	-1.2513471
108	0xbf75b6dd	-0.9598215
109	0x3d2c9f9c	0.042144403
110	0x3dfc782f	0.12327611
111	0xbde91fbd	-0.11383007
112	0xbc7ba8df	-0.015360086
113	0xbda0fa68	-0.07860261
114	0x3f5f10e0	0.87135124
115	0xbc23959b	-0.009984399
116	0xbef08192	-0.46973854
117	0xbab38617	-0.0013696578
118	0x3dbe53c7	0.09293323
119	0xbf076a61	-0.52896696
120	0x3ed8d233	0.4234787
121	0xbefb322f	-0.49061725
122	0x3b5eb8d3	0.0033984676
123	0xbc43a28e	-0.0119406115
124	0x3db09611	0.08622373
125	0x3e650ec4	0.22368914
126	0x3f96e519	1.1788665
127	0xbddf8571	-0.10914124

convs.1.bn1.weight f4 [128]
0	0x40d430c8	6.6309547
1	0x40f7b080	7.7402954
2	0x40b681e5	5.7033563
3	0x40f8d5f2	7.7761164
4	0x412bb220	10.730988
5	0xbdf22e2c	-0.11825213
6	0x40425044	3.036149
7	0x4100eb03	8.057376
8	0x4172b2ef	15.168685
9	0x417e88b3	15.908374
10	0x40807ee3	4.015489
11	0x3f8bd7b2	1.09252
12	0x401d1961	2.454674
13	0x4190f67a	18.12035
14	0x4113d6ee	9.239973
15	0x410242a2	8.141268
16	0x3fba36d9	1.4547988
17	0x3f367bef	0.7128286
18	0x41162b39	9.385552
19	0x3f99739d	1.1988407
20	0x40cd8684	6.4226704
21	0x4117f37f	9.496947
22	0x406f90fa	3.7432237
23	0x4169adea	14.6049595
24	0x40084537	2.1292245
25	0x3e17fccd	0.1484253
26	0x414243c7	12.141547
27	0x402fb01f	2.7451246
28	0x3fe9e040	1.8271561
29	0x40d454b9	6.635342
30	0x4050768b	3.2572353
31	0x40032864	2.0493402
32	0x411b9528	9.723915
33	0x40ef2e29	7.474385
34	0x40658eda	3.586844
35	0x3f589309	0.8459936
36	0x4107be29	8.483926
37	0x3f6cf2b3	0.9255783
38	0x41456fb4	12.339771
39	0x3faece93	1.3656791
40	0x4103995d	8.224942
41	0x40e8fcc0	7.2808533
42	0x40a4a995	5.145701
43	0x413c3a90	11.7642975
44	0x40cea106	6.457156
45	0x3ac7191f	0.0015189982
46	0x3faeeabc	1.3665385
47	0x40f336fd	7.6004624
48	0x40076fdf	2.116203
49	0x41129d3f	9.16339
50	0x40a4118f	5.1271434
51	0x40dcea52	6.9036036
52	0x40c53d49	6.163731
53	0x40036372	2.0529447
54	0x404c7b41	3.1950228
55	0x410ff0f6	8.996328
56	0x3f97ca6c	1.1858649
57	0x4022cb33	2.5436523
58	0x414bf0d0	12.746292
59	0x40ee2242	7.441682
60	0x413ce268	11.805275
61	0x407dee86	3.9676833
62	0x3f44a8a6	0.7681984
63	0x40789263	3.8839347
64	0x3ff990a0	1.9497261
65	0x40016d27	2.0222871
66	0x4009c48c	2.1526213
67	0x41647f3c	14.281063
68	0x40e4815a	7.14079
69	0x3de700ff	0.11279487
70	0x40294d37	2.6453378
71	0x402f9f9b	2.7441165
72	0x407cfda5	3.9529812
73	0x40c506fd	6.157103
74	0x3fd9bd55	1.7010905
75	0xbea7af0f	-0.32750747
76	0x4091b94b	4.553869
77	0xc01eab85	-2.4792187
78	0x3f9de1c1	1.233452
79	0x408d5efc	4.417845
80	0x40ba6531	5.8248525
81	0x3ef032a2	0.4691363
82	0x3fa2b454	1.2711282
83	0x40d3a327	6.613666
84	0x40be4df4	5.947016
85	0x40eb69ff	7.356689
86	0x4054e648	3.3265553
87	0x3ff63d53	1.9237465
88	0x3f422429	0.75836426
89	0x3f54ee29	0.83175904
90	0x4091db5e	4.558028
91	0x409bf01f	4.8730617
92	0xbfa03168	-1.2515078
93	0x3fe81d98	1.8134031
94	0x3fee648f	1.8624438
95	0xc0133778	-2.3002605
96	0x4019bb8f	2.4020727
97	0x40ac656a	5.3873796
98	0x41148341	9.282044
99	0x3f4f97e8	0.81091166
100	0x4009d390	2.1535378
101	0x4031e315	2.779485
102	0x4003c208	2.0587177
103	0x406d60cb	3.7090328
104	0x403bd423	2.9348228
105	0xbf0a2860	-0.5396786
106	0x410d3570	8.825546
107	0x3fb47dd6	1.4100902
108	0x404da46d	3.2131608
109	0xba6ad8ea	-0.00089587143
110	0x403ed2d1	2.9816172
111	0x401f95ab	2.49351
112	0x3e7087d6	0.23489317
113	0x3fc40b27	1.5315903
114	0x408c5a44	4.3860188
115	0x41097938	8.592094
116	0x4197c44b	18.970846
117	0x404d17a1	3.2045672
118	0x408e3dfe	4.4450674
119	0x3ff6438c	1.9239364
120	0x403c5549	2.9427054
121	0x411e53f5	9.895497
122	0x407df23f	3.9679105
123	0x400f7830	2.2417107
124	0x3fd88843	1.6916584
125	0x408408bb	4.1260657
126	0x40ad41ed	5.4142976
127	0x40a7b3ff	5.240722
