results/Prediction/2023-06-20/20:31:21.516264/models/model2.pth (torch, 338687 bytes, 34 tensors)

embedding.weight f4 [64, 92]
000000 c8 93 3d 3c 79 a6 25 bf e9 29 2f 3c b1 ed 74 bd
       0.011570878 -0.6470714 0.0106911445 -0.059796993
000010 16 e6 59 bd 77 fa 58 3c fd 02 97 bd 42 9d 80 bd
       -0.053197943 0.013243309 -0.07373617 -0.062799945
000020 d1 fe 87 3a 8a ac 8d 3d 01 26 c8 3d 29 26 5c bc
       0.0010375624 0.06917675 0.09772874 -0.013436832
000030 ca 6e 99 3d 46 21 c1 bd 64 74 d6 3d 84 80 df bc
       0.074918345 -0.094301745 0.104714185 -0.02728296
000040 a0 d1 54 be 24 ca 08 3f c4 63 7a 3d d4 bc 10 bf
       -0.2078309 0.5343344 0.0611303 -0.5653813
000050 36 8e 95 bc 1d 6c 9e 3e 7c 6f a1 bd b5 62 9c 3d
       -0.018256288 0.3094186 -0.07882592 0.07636014
000060 25 a6 2b bd 28 b9 4b bd e5 7d 8e bd 8d 6b 65 bd
       -0.041906495 -0.049737126 -0.06957606 -0.05601077
000070 b6 94 b4 bd cf df 0e 3e c2 af 1d bf c1 9d 03 3d
       -0.08817427 0.13952564 -0.6159631 0.032132868
000080 e0 c8 b1 bd 21 d2 9f bd ff c9 89 be 23 27 c6 3e
       -0.08680892 -0.07803751 -0.26911923 0.38701734
000090 ff 7a 1a bf 76 18 87 be 4d 3d 17 bd 2b cd 92 3e
       -0.6034393 -0.2638585 -0.036923695 0.28672156
0000a0 37 44 05 3e d6 8f c2 3c d4 94 dc 3c d2 0e c3 3b
       0.13014303 0.023750227 0.026926436 0.0059526945
0000b0 eb 9b 8f 3d f0 b7 9c bd a6 89 f1 be 30 47 99 3d
       0.07012161 -0.07652271 -0.4717533 0.07484281
0000c0 5f c3 d9 bb 6b 31 3f 3c 3e a5 08 bd 5d 29 a6 be
       -0.0066456045 0.011669497 -0.033360712 -0.32453433
0000d0 c7 c8 c3 3e 36 a3 bb 3d 49 ed 70 3d f5 44 ad bd
       0.38239118 0.091619894 0.058820043 -0.08460418
0000e0 b8 ca 46 bd d3 29 29 bd 33 39 6e bd 9f 1c 22 bd
       -0.04853317 -0.041299652 -0.05816002 -0.039578076
0000f0 12 db cd bc 38 f5 49 3e 9f 55 85 3d df 14 17 3d
       -0.025128875 0.1972245 0.065104716 0.03688514
000100 6f 2c 4e bf 3b 88 e7 3e 04 af b0 3d 81 fe 98 3d
       -0.8053655 0.45221123 0.086271316 0.07470418
000110 1d 0e b3 3d f4 4a 14 bd e5 5d 0f be 54 93 96 bc
       0.08742926 -0.036204293 -0.14000662 -0.018380798
000120 36 22 aa bd 9d 04 28 bf c8 9d 3f 3c eb 8f 2f 3e
       -0.083073065 -0.6563204 0.011695333 0.17144744
000130 61 35 99 bd 0e 6c c9 3e 35 c1 fc be 0a 96 0a bd
       -0.07480884 0.39340252 -0.49366155 -0.033834495
000140 10 60 43 bd c2 3a 83 3d 9e 64 df 3d f4 19 99 bd
       -0.047699034 0.064076915 0.10907863 -0.07475653
000150 91 8d 19 3d 51 83 bc 3d 68 f1 37 bf de e2 b4 bd
       0.037488524 0.09204734 -0.7185273 -0.08832334
000160 60 19 16 3d f6 b7 d0 bd 0a 73 05 bd c0 df 5f bc
       0.036645293 -0.10191338 -0.032580413 -0.013664186
000170 ec 76 7d bc e7 5c 92 be 3b 12 d7 3b 1f 9c 4c bc
       -0.015470248 -0.28586504 0.0065634525 -0.012488394
000180 eb cb 2d 3c 74 b0 e2 bc 97 45 af bc 21 9d a7 3d
       0.0106077 -0.02767203 -0.021395488 0.08184267
000190 c6 e1 d0 bd 29 c9 c4 bd be cc 73 3d 0c 5b 9f 3d
       -0.10199313 -0.09608681 0.05952143 0.07781038
0001a0 17 a8 cf 3d 70 bd d5 bc 6e c6 57 bc d0 e3 5c be
       0.101394825 -0.026091307 -0.013169868 -0.21571279
0001b0 f5 d5 2a be 34 1e 71 3e 20 53 6c 3d 80 b0 df be
       -0.1668318 0.23546678 0.05769646 -0.43689346
0001c0 93 c2 97 be 6e 41 18 bd f0 a1 00 3d 57 9e b3 bd
       -0.29640636 -0.037171774 0.031404436 -0.08770435
0001d0 c0 19 4c bb 49 97 ec bc 6d 9c 6e bd 0d ae 5a bd
       -0.0031143278 -0.028880732 -0.058254648 -0.053388644
0001e0 93 ff 3b 3c cb 19 4f be 6f e1 9f be 4e e3 e7 bd
       0.011474508 -0.20224683 -0.3122668 -0.11322652
0001f0 2e 87 a9 3d 05 46 4e be d1 8a 8f be c0 f9 74 3e
       0.082777366 -0.20143898 -0.28035596 0.23923397
000200 9f 09 a0 be 1d 97 57 be 5a 0e b1 be 4a f8 b0 39
       -0.3125734 -0.21053739 -0.34581262 0.00033754326
000210 1e 34 da bd e5 7b 07 3d dd 20 27 3d a2 02 f9 3c
       -0.10654472 0.03307714 0.040802825 0.030396763
000220 25 2d ea 3a d2 bd 8d bd 7c ed c5 be cc 51 86 bc
       0.0017866237 -0.06920971 -0.3865775 -0.016396426
000230 61 4c 62 3d 31 6b 89 3d d3 a1 9f be 6d 78 3f be
       0.05524862 0.06709898 -0.3117815 -0.18698283
000240 e4 74 a7 3e 6a 64 bf bd c4 d1 d2 bd 5d 52 21 bb
       0.32706368 -0.09345324 -0.10293916 -0.0024615743
000250 03 26 b2 3d 9d 3f 91 bd ef 00 a0 3c b3 22 23 3d
       0.086986564 -0.070922114 0.019531695 0.039828014
000260 13 39 da bc 59 38 68 be 5b 1e a4 bd 95 d6 b4 3d
       -0.026638543 -0.22677745 -0.08013602 0.08829991
000270 80 46 57 bf d2 be a9 3e 24 26 57 3d 57 85 82 3d
       -0.8409195 0.33153397 0.052526608 0.06373089
000280 b8 22 bf bb fc 45 0c bd 45 e4 a0 be 28 89 43 3d
       -0.005832996 -0.03424643 -0.31424156 0.047738224
000290 bf cc 50 3d fe de be be 66 3d c9 bd 5f 20 d9 bd
       0.05097651 -0.37279505 -0.09826164 -0.106018774
0002a0 76 64 74 bd ea dd a6 3e 73 37 d1 be 8d d5 b1 be
       -0.05966612 0.32591182 -0.40862617 -0.3473324
0002b0 4f 8e db 3a d1 2f 08 3c a5 71 48 3d 8f 87 81 bd
       0.0016750785 0.008312182 0.048936505 -0.06324684
0002c0 3d 35 93 3d 50 6a 3a be 89 a4 58 bf b2 7f c0 3d
       0.07187889 -0.18204618 -0.8462606 0.09399356
0002d0 3a 33 bc 3d 93 eb 92 bd d9 70 cd 3d 9f 40 0d bd
       0.09189458 -0.071738385 0.100312896 -0.034485456
0002e0 b8 85 8f 3d 58 0d 29 be 84 69 91 bd 0e c1 19 3b
       0.07007927 -0.16508996 -0.07100204 0.0023461017
0002f0 ba cb a5 3d 9f a6 e0 bc c8 26 20 3d 43 f4 3a 3c
       0.080954984 -0.027423201 0.039099485 0.011410776
000300 8f 8c 80 bd 6f 8f f2 3c 89 93 af bd a3 e2 b7 bd
       -0.062768094 0.02960941 -0.08573062 -0.089787744
000310 12 e4 b0 bd d0 44 91 bd b9 98 cf bd f1 93 8f 3b
       -0.08637251 -0.07093203 -0.101365514 0.0043816497
000320 3b 07 21 bd 31 c5 78 be d4 19 ce 3d 4b b2 93 be
       -0.039313536 -0.24293973 0.1006352 -0.28846964
000330 39 54 1e bf 51 98 46 be 45 21 0b 3d f6 7c cf 3a
       -0.61847264 -0.19394042 0.033967275 0.0015830088
000340 ce bd dd 3c 1e 89 2e 3d 48 44 ae bc 00 ef 1e 3b
       0.027068045 0.042611234 -0.021272793 0.0024251342
000350 a8 9e 01 bd cf 7d a4 be 40 d9 89 be af 1e 06 be
       -0.031645447 -0.32127234 -0.2692356 -0.13097642
000360 01 ec b4 bc 97 ff be bd ce bc 56 be 17 78 62 be
       -0.022085192 -0.09326094 -0.20970461 -0.22116123
000370 59 33 25 be f5 84 4d be c1 ec c3 be ba 8d 93 3d
       -0.16132869 -0.2007025 -0.38266566 0.072047666
000380 29 64 c6 be 70 92 18 bd fc 13 4e 3d 8f e6 ac 3d
       -0.3874829 -0.03724903 0.050312027 0.08442413
000390 63 30 e6 bc 9c 77 86 bd 51 44 b0 be 8a 8e ae bd
       -0.028099244 -0.065657824 -0.3442712 -0.08523281
0003a0 f5 04 90 3d b3 0d 4c be 90 96 f3 bd cb 81 17 bd
       0.070321955 -0.19927101 -0.11893952 -0.036989015
0003b0 60 1e 89 be de 71 a8 bd d1 9a fe 3c 57 11 65 bc
       -0.26780987 -0.082248434 0.031079682 -0.013981185
0003c0 2a fa d4 3d ed 81 91 bd 99 59 8f bb 6c 8b 93 bc
       0.103992775 -0.071048595 -0.0043746945 -0.018010817
0003d0 2c fb 22 3d 83 d2 a3 be 55 07 ae bd d6 f0 2f be
       0.039790317 -0.31996545 -0.08497492 -0.17181715
0003e0 75 53 98 be b0 f9 0c be 99 ac d2 3d df 04 62 3d
       -0.29751173 -0.13767123 0.10286827 0.055180427
0003f0 bd 79 e0 3c a5 9b 8a bd 39 d0 3e 3c d9 f1 5e bd
       0.0274018 -0.06767968 0.011646324 -0.054429863

convs.0.fc_full.weight f4 [128, 169]
000000 13 c3 b6 be 0a c5 89 be ea 2b 07 3c 1d f8 35 bc
       -0.35695705 -0.2690814 0.008250216 -0.011106518
000010 b2 50 5c 3b a4 36 19 bd ce 0f de be 4b 17 34 bd
       0.0033617434 -0.037405625 -0.43371433 -0.043967526
000020 fb c7 45 3e 93 b1 25 be ba 3a e9 3e a9 92 a4 3c
       0.19314568 -0.1618102 0.45552617 0.020089464
000030 15 bf c3 3e e8 ec 0a bd 21 85 fe bb c8 25 0d bd
       0.38231722 -0.033917338 -0.007767335 -0.03445986
000040 32 ef ce bd d9 0d 33 3d 17 cf 28 3d c7 54 3a 3e
       -0.10104217 0.043714378 0.04121312 0.18196402
000050 83 e5 85 bd 38 29 e2 3e 75 57 b3 3e 44 91 bc 3d
       -0.065379165 0.44172072 0.35027662 0.09207395
000060 4b 4c ae 3d c0 72 47 3e a6 c9 1f 3c 1b 87 89 3c
       0.085106455 0.19477367 0.009752667 0.016788056
000070 f8 e5 1b 3d cc 36 21 be 7b 92 b4 be fb 5b a3 be
       0.038061112 -0.1574356 -0.35268006 -0.31906113
000080 b2 ee 9f be 2c 5e 0c 3e ec 2b bf 3d e1 44 2b be
       -0.31236798 0.13707799 0.09334549 -0.16725494
000090 a9 6f 3c bd ff c1 6b bc cb ee 85 3e db 70 14 be
       -0.046004925 -0.014389514 0.26158747 -0.14496176
0000a0 27 64 56 be 5a 9f 8b 3d e3 22 50 3d 7f eb d9 bd
       -0.20936643 0.06817503 0.05081452 -0.106406204
0000b0 56 22 c3 3d 56 bc 16 be 67 ca 5d be f1 dd bd 3e
       0.095280334 -0.14720282 -0.21659242 0.3708339
0000c0 9d ba a5 be d3 cc 8f be 4f e2 99 be 7f f3 7c be
       -0.32368937 -0.28085956 -0.30055472 -0.24702261
0000d0 02 24 f4 3d cb 76 85 bd 4e a7 70 be f8 6e 25 bc
       0.119209304 -0.065167986 -0.23501322 -0.010097258
0000e0 d4 b8 e2 bd bb d2 9a bd 6b 19 35 be c9 e0 11 bc
       -0.110704094 -0.07559725 -0.17685477 -0.008903691
0000f0 19 9f e5 bd 7b a7 4a bd 84 3e d7 bd ea 3e 95 3d
       -0.11211986 -0.049476128 -0.10509971 0.072873905
000100 b3 c2 06 bf d5 e3 31 be ff 77 3c 3d b7 31 81 3e
       -0.5264084 -0.17372067 0.046012875 0.25233242
000110 dd 3d 97 bd e5 08 a1 be 60 62 0d bf 9b 60 a5 bd
       -0.07384846 -0.31452098 -0.55228233 -0.08075067
000120 07 39 b6 3e 44 70 4e bd 77 11 96 3c 0f bf 08 3e
       0.35590383 -0.050400034 0.018318875 0.13354133
000130 84 8e 1c 3f 3f ff f1 3d 76 b6 4d bf e6 cc eb 3d
       0.6115496 0.118162625 -0.8035654 0.11513691
000140 6f 51 aa bd 07 f5 53 3e a6 09 7e 3d bc 1e 35 3f
       -0.083163135 0.2069894 0.06202092 0.7075002
000150 1b 0e 23 be 7b eb 22 3f c9 98 e4 3e e9 5b 51 3e
       -0.1592335 0.63640565 0.44647816 0.20445217
000160 38 09 0c be 9c db 2b be 0b fc db 3d ab 59 fa 3e
       -0.13675392 -0.16782993 0.10741433 0.48896536
000170 f9 30 b0 3e 49 e2 0b bf 00 a5 72 bd 0a 0e 62 be
       0.34412363 -0.5464216 -0.059239388 -0.22075668
000180 b5 2c 17 be d8 cb 5a 3e 95 ff 40 3d f3 6b 12 be
       -0.14763148 0.21366823 0.047118742 -0.14298992
000190 69 e6 be 3d 9b 22 4e 3e fc e6 54 3e 9f c4 dc be
       0.09321291 0.20130388 0.20791239 -0.4311876
0001a0 cb 79 5a bf 66 0f 29 3e 01 ec a1 3e da 31 98 be
       -0.8534209 0.1650978 0.3162537 -0.29725534
0001b0 df 69 2d 3e 38 a5 a2 bc 23 f9 cc be 05 86 0e 3f
       0.16934918 -0.019854173 -0.40033826 0.5567325
0001c0 2c 03 de bd 5d 76 36 bf 3f ed 24 be d6 57 bc be
       -0.10840449 -0.7127436 -0.16106127 -0.36785764
0001d0 4e 23 91 3e 63 50 5b bd 94 21 43 3d 5d d1 dd bd
       0.28347248 -0.05354346 0.047639444 -0.108309485
0001e0 57 04 77 3d f8 e0 fd bd dc de 31 be ba f9 40 3e
       0.060306873 -0.12396425 -0.1737017 0.18845263
0001f0 72 bd aa bd 57 d8 88 3e f6 16 bb be b1 02 33 be
       -0.08336915 0.26727554 -0.36540955 -0.17481495
000200 eb 5a 85 bc 80 1d 07 3e 9b c1 b0 3d 37 b0 06 bc
       -0.016278705 0.13194847 0.08630677 -0.008220724
000210 eb 61 b2 bd 89 dc e4 3d db 6f 79 3e e5 c0 49 bd
       -0.087100826 0.11174876 0.24359076 -0.049256224
000220 98 76 b2 bd 53 fa ed 3d 13 4c 45 3e e0 f7 db 3d
       -0.08714026 0.11620011 0.19267301 0.10740638
000230 65 45 8c be be dd 6f bd 32 87 8c 3c 67 69 7d be
       -0.27396694 -0.05856108 0.01715431 -0.24747239
000240 08 2d cd bd 69 19 ed bd 51 42 32 3d 39 83 78 bd
       -0.10018355 -0.11577112 0.043520276 -0.06067202
000250 bd 00 b1 3c bd b1 08 be 95 70 b3 bd f0 7d 00 be
       0.021606797 -0.13349052 -0.08761708 -0.12548041
000260 4b ea ed be e5 86 63 bf 85 a1 9a bf 18 84 2d bf
       -0.46467814 -0.8887771 -1.2080542 -0.67779684
000270 b5 c7 1a bf 8c f5 98 bf 2d f2 e6 bf bf 41 50 bf
       -0.6046098 -1.1949935 -1.8042656 -0.8135032
000280 8e 00 93 be ae 7f c9 be 2b 6b be be e3 14 cf bd
       -0.2871136 -0.39355224 -0.37191138 -0.10111406
000290 74 48 34 bd fb cb 96 3d 58 6f 1a 3d 83 b8 0e bd
       -0.04401441 0.07363125 0.037703842 -0.034843933
0002a0 92 5d 80 bd c5 38 45 3e e0 3c fa 3d 73 95 4a bd
       -0.06267847 0.19259937 0.12218642 -0.049458932
0002b0 f4 a7 cc be 21 1d e0 bd d7 cf 7d 3d 5d 7e 99 3d
       -0.39971888 -0.10943056 0.06196579 0.07494805
0002c0 49 5b 1d 3d c3 df af be fa d2 01 bd d3 7e 45 3b
       0.038417134 -0.34350404 -0.031695344 0.0030135408
0002d0 63 49 4e be 93 88 50 be 67 83 26 be 60 ea a7 bb
       -0.20145182 -0.20364599 -0.16261064 -0.005124375
0002e0 c8 ef 7c be 07 ea fe 3d ab da 80 be 84 ab 83 be
       -0.24700844 0.12446981 -0.2516683 -0.25716794
0002f0 a6 d6 bc be dc 46 e7 3d fb 2b a7 be 9c f9 b5 be
       -0.36882514 0.11292812 -0.32650742 -0.35542
000300 5e c2 28 be 13 c6 8b 3d b4 b4 38 3e 04 e1 73 be
       -0.16480395 0.06824889 0.18037683 -0.23816305
000310 f9 c5 9c be 9e a1 c8 be da b4 e9 3d f2 66 a1 3d
       -0.3061979 -0.39185804 0.11411448 0.078809634
000320 1f cb fd 3c 15 cc de bd 0f 1b 21 be 1c 35 69 bc
       0.030980645 -0.10878769 -0.15732978 -0.014233854
000330 44 d0 3e bc 50 57 23 be 59 b7 7f be 4d fa 9f be
       -0.011646334 -0.15951276 -0.24972285 -0.31245652
000340 96 ff 14 3e 47 dc b6 3d 6b 87 f6 bd f2 2f 2e be
       0.14550623 0.08928733 -0.12037548 -0.17010477
000350 bf 87 73 3e 45 cf 44 be ab ac 24 3d 27 50 39 3e
       0.23782252 -0.19219692 0.04020373 0.18096982
000360 60 75 8e be 0c d4 37 be c2 ce 26 bd 2c 68 ba 3d
       -0.27823925 -0.17951983 -0.040724523 0.091019005
000370 93 32 af 3d 80 2b 5c be 7b 01 91 bd 2e 3c 6d 3d
       0.08554568 -0.21500969 -0.070803605 0.05791872
000380 8e de 91 3d e7 16 0f be 12 5b 97 be 11 9a d3 3d
       0.07122527 -0.1397358 -0.2956167 0.1033212
000390 0c 07 ee bd e7 fe 12 3d c2 49 bf 3d 52 54 73 3e
       -0.11622438 0.035887625 0.0934024 0.23762634
0003a0 57 44 aa 3d 37 26 05 bf 77 41 4a bf 0a c7 dd 3e
       0.08313816 -0.52011436 -0.7900614 0.43315917
0003b0 fd 6c 4d 3f 39 2e b8 bd ac b3 c4 be 31 ca f8 bd
       0.8024443 -0.08993191 -0.3841833 -0.1214794
0003c0 07 98 59 be d8 bc ec 3e fb 68 2a bf 47 f6 12 3f
       -0.212494 0.46237826 -0.6656644 0.5740704
0003d0 63 cb a1 3e 97 df a3 3f 11 18 3a 3f d7 14 fd be
       0.31600484 1.2802609 0.7269297 -0.49429962
0003e0 59 a6 47 3e 16 77 d8 be e3 c7 26 3f fe f0 7d be
       0.1949705 -0.42278355 0.6514875 -0.24798962
0003f0 9d ed 98 3f b7 0d a1 be a2 62 5d 3f 4f ed 94 3f
       1.1947514 -0.31455776 0.86478627 1.1634921

convs.0.fc_full.bias f4 [128]
000000 af 1b 49 bd 72 22 bd bb 25 72 99 bd 40 fa a8 bd
       -0.049098667 -0.0057719285 -0.074924745 -0.082508564
000010 b7 06 73 3b ee 40 ba bc f1 13 d8 bc 1f 2f cc bc
       0.003708286 -0.022736039 -0.026376696 -0.024924813
000020 92 57 44 bc c5 10 d7 3c d2 ac a5 bc a8 1b 19 bd
       -0.011983769 0.026253114 -0.020224009 -0.03737989
000030 d0 04 97 bc c9 ec a5 3c f3 07 f7 bd 95 53 f0 ba
       -0.018434912 0.02025451 -0.12062063 -0.0018335456
000040 75 9b 3f 3c 7c c3 93 3b fb 53 7e 3d f9 10 ec 3c
       0.011694779 0.0045093875 0.06209181 0.028816687
000050 cf 3f 3b bb 4f 67 d4 3b 1d 74 8e 3d 67 7f 3a 3d
       -0.0028571968 0.006482042 0.069557406 0.045531657
000060 99 7d 18 bd e6 3a d7 bd ef e7 c6 3d 78 14 a8 3b
       -0.037229154 -0.10509281 0.097122066 0.005129393
000070 07 2b 0f 3d 1f b3 aa 3d 5f 26 86 3b 17 e0 ca bd
       0.034953143 0.08334946 0.0040939297 -0.09906023
000080 9a 42 bc bc d1 72 66 3c 91 cf dd bc b2 42 88 3d
       -0.022980977 0.01406546 -0.027076514 0.06653346
000090 ba 19 98 bc 84 dc 3d 3d 12 d8 38 bc b0 54 98 bd
       -0.018566955 0.04635288 -0.011281984 -0.07438028
0000a0 69 b1 9e 3c 6a 04 03 bd 79 eb df bc d7 67 ae 3d
       0.019371705 -0.03198663 -0.027333962 0.085159
0000b0 b1 63 f8 bc 5b 80 30 bc bd bc 8a bd 58 8e 01 3e
       -0.030320974 -0.01077279 -0.0677428 0.12651956
0000c0 93 df 96 3d fc 65 73 3d 4d 50 33 3d 34 20 91 3c
       0.07366862 0.05942343 0.043777753 0.017715551
0000d0 53 ae 6a 3d fd 7e f4 bc 93 b8 d0 ba a9 18 f6 bc
       0.057295155 -0.029845709 -0.0015924148 -0.030041056
0000e0 ae 56 f7 3c d6 88 25 3d 98 54 c2 3d 0d 47 51 bc
       0.0301927 0.0404137 0.09488791 -0.0127732875
0000f0 5c ca 85 bc c7 5e ff 3c 92 b4 a9 bd 14 fe 40 3c
       -0.016331844 0.031173123 -0.08286394 0.011779327
000100 d4 bb 04 bd e4 b8 90 3d 5a 19 a3 3c be fb 0b 3d
       -0.03240569 0.07066515 0.01990955 0.034175627
000110 21 59 c4 bd 88 66 1b 3b 01 6f 01 be 6c 0e c6 bc
       -0.095873125 0.0023712236 -0.12640001 -0.024176799
000120 b1 4c 29 3d 26 43 9e 3b 9d 44 85 bd 32 65 a8 3d
       0.041332904 0.004829782 -0.065072276 0.082224265
000130 b9 53 7d 3d 63 c4 3d 3b bc ee e9 3c 9e 2c 44 bd
       0.061847422 0.0028956167 0.02855622 -0.047894113
000140 29 2d 02 bc 4a 0b c5 3d ba cb 38 ba 30 62 82 bd
       -0.007945337 0.09621294 -0.00070494006 -0.06366384
000150 28 d6 3b 3d 9b 1e 3e 3d c3 9f 14 3d eb 69 98 3c
       0.045858532 0.046415906 0.036285173 0.018605193
000160 41 a0 20 3d 9d 0f d9 3d f1 99 4f 3c 67 0b c8 bd
       0.03921533 0.10598681 0.01267098 -0.097678
000170 0c 59 16 3e 07 44 42 bc b0 f2 d9 bb f2 92 b5 bd
       0.14682406 -0.011857039 -0.006651245 -0.08865918
000180 0d 81 ef 3c 98 d9 b6 bd 2d bf 95 3d c1 1f a1 ba
       0.02923634 -0.089282215 0.073118545 -0.0012292789
000190 f1 00 f5 3b 66 0b e5 3b e7 66 bd bc f9 b6 19 3d
       0.007476919 0.006989884 -0.023120357 0.037528012
0001a0 00 69 50 3d ca 64 07 3d 4a 90 16 3d 14 5e 7a 3d
       0.050881386 0.033055104 0.0367587 0.061124876
0001b0 00 43 51 bd 30 6e 9c bd 4c a0 85 3d 6e 2a fc bc
       -0.051089287 -0.07638204 0.06524715 -0.03078195
0001c0 d3 a9 40 3d d5 eb 70 3c 5c b1 d2 bc 1d a6 af bd
       0.047036957 0.014704664 -0.025719337 -0.085766055
0001d0 ab c2 3a 3d d7 92 e4 3c 7d 8d 08 3b 97 f7 00 3e
       0.045595806 0.02790205 0.0020836287 0.12594448
0001e0 5a 56 f1 bd 87 1b 92 3c ec 05 00 3d 99 01 31 bd
       -0.117840484 0.017835392 0.031255648 -0.043214414
0001f0 ea ce fb bc f4 46 f3 3b 4e 86 41 3d aa a9 5c bd
       -0.030738313 0.0074242298 0.047247224 -0.05387274

convs.0.bn1.weight f4 [128]
000000 00 3b 6a 3f c5 1f 10 40 df 06 b9 3f b1 4e f9 3f
       0.91496277 2.251939 1.4455222 1.947714
000010 62 60 92 3f 08 c8 a2 3f ba a9 83 3f 83 66 af 3f
       1.1435664 1.2717295 1.0286171 1.3703159
000020 64 b3 37 3f 62 cb 3b 3f 7d 6d 53 3f f5 1c c8 3f
       0.71758103 0.7335721 0.8258894 1.5633837
000030 1d 83 ab 3f 61 29 90 3f 16 0a 3c 3f 3c 63 30 3f
       1.3399388 1.1262628 0.7345289 0.6890142
000040 08 00 ca 3f 81 06 99 3f 36 6e 5f 3f 1a 68 18 3f
       1.578126 1.195511 0.87277544 0.59533846
000050 74 1f 75 3f df 88 a0 3e 23 0e 64 3f c1 3c 4e 3f
       0.9575112 0.31354424 0.8908407 0.80561453
000060 9c d7 8b 3f 80 85 62 3f 7d b2 85 3f 55 02 a0 3f
       1.0925174 0.88484955 1.0445095 1.2500712
000070 4d 6d 88 3f 94 01 48 3f 18 e5 ae 3f 5d f7 83 3f
       1.0658356 0.7812741 1.3663664 1.0309864
000080 ae cd a2 3f 6e 0f a2 3f c6 3a 58 3f 4a 6d 4e 3f
       1.2719018 1.2660959 0.8446468 0.8063551
000090 56 59 d3 3f f3 2b a7 3e 21 af 58 3f 04 c2 41 3f
       1.6511638 0.32650718 0.84642226 0.7568667
0000a0 17 ac 54 3f e9 9f b9 3f 9c 9f 5c 3f 9e d3 55 3f
       0.8307509 1.4501926 0.86181045 0.8352603
0000b0 54 e0 8c 3f 8b dc aa 3f c1 23 30 3f eb f4 53 3f
       1.100596 1.3348554 0.68804556 0.8279559
0000c0 59 e9 35 3f bc 77 8f 3f 52 88 8f 3f 87 17 53 3f
       0.71059185 1.1208415 1.1213477 0.82457775
0000d0 07 fb e9 3f c9 db b8 3f cd 82 5f 3f 2f 56 4c 3f
       1.8279732 1.4442073 0.8730896 0.79819006
0000e0 ae aa 6c 3f 27 33 68 3f e9 05 61 3f 30 1e 63 3f
       0.92447937 0.9070305 0.87899643 0.8871794
0000f0 38 59 9f 3f 5f bd ab 3f 62 80 93 3f ff ae ba 3f
       1.2449102 1.3417166 1.1523554 1.4584655
000100 5f 8c b8 3f 73 b9 55 3f c0 c8 8b 3f 9f ac 90 3f
       1.4417838 0.834861 1.0920639 1.130268
000110 f9 84 85 3f 66 19 46 3f 83 09 7b 3f 88 41 97 3f
       1.0431205 0.77382505 0.9806139 1.1816874
000120 9f 44 a3 3f 37 a1 a6 3f 04 bd 03 40 0c d9 3b 3f
       1.2755316 1.3017949 2.0584116 0.7337806
000130 61 43 a8 3f 2f 16 5b 3f 30 2e 88 3f 3d 56 b5 3f
       1.3145562 0.85580724 1.0639095 1.4166943
000140 ab ec bf 3e ed 90 b4 3f a4 4c 61 3f 61 47 c3 3e
       0.3748525 1.4106728 0.8800757 0.38140395
000150 10 68 95 3f a2 f1 27 3e 88 88 c0 3e e1 f0 8c 3f
       1.1672382 0.1640077 0.37604165 1.101101
000160 cd 60 87 3f 46 1f cb 3f d9 bc b0 3f 8b 10 78 3f
       1.0576416 1.5868919 1.3807632 0.9690024
000170 68 7f 5d 3f 7b ab 9d 3f f7 a1 70 3f 67 80 b1 3f
       0.8652253 1.2317957 0.9399714 1.386731
000180 e3 0c 5f 3f 3d 66 53 3f 56 49 65 3f 71 ac 96 3f
       0.8712904 0.8257788 0.89565027 1.1771375
000190 84 5e af 3e 44 55 ed 3e 73 3d 86 3f 52 2a 69 3f
       0.34251797 0.46354115 1.0487503 0.910802
0001a0 fa 53 86 3f 73 51 89 3f 71 eb 61 3f f4 dc 83 3f
       1.0494378 1.0727981 0.8824988 1.0301805
0001b0 c1 9a 9c 3f 3f 6a 58 3f 88 84 e5 3e 55 ba 89 3f
       1.2234727 0.8453712 0.44827676 1.0759989
0001c0 c7 ae 2e 3f 6b 72 93 3f 5b d7 3b 3f a0 f3 9a 3f
       0.6823544 1.1519293 0.7337548 1.2105598
0001d0 96 a5 c8 3f 30 b7 90 3f 28 04 80 3f 48 9e c0 3f
       1.5675533 1.1305904 1.0001268 1.5048304
0001e0 16 a9 c0 3f 81 52 5c 3f da 7b 34 3f a2 cd 2a 3f
       1.5051601 0.8606339 0.7050148 0.6672002
0001f0 7a 14 85 3f 2d 59 9a 3f 6a ce b1 3f 09 b9 59 3f
       1.0396874 1.2058464 1.3891118 0.85047966

convs.0.bn1.bias f4 [128]
000000 3b 1a bc be 93 ad 37 be 4d 3d 3d be fb 29 aa 3c
       -0.36738762 -0.17937307 -0.18480416 0.020771971
000010 49 2b 2e bc 6b 58 c0 3e 1b b3 1c bd 51 34 70 bd
       -0.010630437 0.37567458 -0.038256746 -0.058643643
000020 a4 0a af 3e ec fa 31 be 37 d7 56 bc 36 75 fe 3e
       0.34187806 -0.17380875 -0.013112835 0.496988
000030 28 9c fd 3d 39 1b dc 3d 78 10 4e 3e d4 71 c9 3e
       0.123833 0.1074738 0.2012347 0.39344656
000040 21 b8 0d 3f 57 6e 33 be a6 92 a3 3e 3e c1 0e 3f
       0.55359083 -0.1752256 0.3194782 0.55763614
000050 3f 07 0e 3d a4 75 94 3e 6f b3 3e bc 7d 80 fe be
       0.03467488 0.28996003 -0.01163946 -0.49707404
000060 c7 cf da 3e fb 80 34 be 60 62 45 be d0 ed 1e bf
       0.42736647 -0.17627327 -0.19275808 -0.62081623
000070 27 ab 6d 3e 66 c4 79 be bf ee e3 bd 70 61 b9 bb
       0.2320982 -0.24391326 -0.111295216 -0.0056573674
000080 f3 db ee 3e 49 13 d8 3e aa c2 9b bd d3 22 ad 3e
       0.46652183 0.42202213 -0.076054886 0.3381563
000090 50 6f 2f 3f d7 87 0f 3f 2c ef f8 3d 89 6e 9c 3e
       0.68529224 0.5606665 0.121549934 0.30553082
0000a0 e5 2b ab be 39 1a 27 3e 7b 71 81 be 74 42 c8 3a
       -0.33431926 0.16318597 -0.2528189 0.0015278594
0000b0 a0 f1 53 be ec 6a 4a bf 4b ca 26 3f 0e 95 42 3e
       -0.20697641 -0.790694 0.65152425 0.19002172
0000c0 02 d6 e9 3e a6 62 8e 3e 83 4a 6b 3e 9c f0 8d bd
       0.45671088 0.27809638 0.22977643 -0.06930658
0000d0 e3 3b 25 bf 1b 6c 34 bd 36 03 19 bd 73 25 bb 3d
       -0.64544505 -0.04404841 -0.037356578 0.09138002
0000e0 aa e9 0f 3f 63 07 84 3e d8 88 9e 3e 2d 34 2d 3f
       0.5621592 0.25786886 0.30963778 0.6765774
0000f0 ee c9 70 3d c7 65 9d be ea 66 d0 be 68 3e 71 3e
       0.058786325 -0.30741712 -0.40703517 0.23558962
000100 6a 95 4f bf e1 93 cf 3d 98 ea 58 bd 2d f3 0c be
       -0.8108736 0.101356275 -0.0529581 -0.13764639
000110 ec ea e7 bd 15 73 2d 3e 27 90 87 bd c0 18 f9 3d
       -0.11324105 0.16938432 -0.06619292 0.12162924
000120 72 d9 74 be d3 2d 83 bd 41 36 1d bf 24 cf e0 3e
       -0.23911074 -0.06405225 -0.6141091 0.43908036
000130 28 42 c2 bd 4b e9 9d 3e a1 7f 68 bd 32 2d bc 3c
       -0.094852746 0.3084205 -0.05676234 0.02297077
000140 17 ad d4 3e 6e ae 35 be ca c7 4b 3d a9 83 10 3f
       0.41538307 -0.17742321 0.04975108 0.564509
000150 cd 5b c9 bd a0 fe 37 3f 99 dc 4e 3f 56 6e a3 be
       -0.09831963 0.718729 0.80805355 -0.31920117
000160 7c f0 db 3d 93 40 1e bf 2a 09 b8 bd a6 54 f9 3c
       0.10739228 -0.6181728 -0.08986123 0.030435871
000170 10 0b 7c 3e 99 9e 5c be 66 9f 56 3e 52 ba 6d be
       0.24613595 -0.21544875 0.20959243 -0.23215607
000180 c0 ef b7 3e c8 5f be 3e 2d c9 86 3d 5b c6 d2 bd
       0.35925102 0.3718245 0.0658134 -0.102917396
000190 0f e3 34 3f f5 de 0e 3f 74 af a4 3d 5a 8f 71 3e
       0.70658964 0.55808955 0.080412775 0.2358984
0001a0 39 be a7 be 8e 09 16 bd 47 05 59 3e 04 d1 23 3e
       -0.32762316 -0.036630206 0.2119342 0.15997702
0001b0 33 6e 89 be 75 06 ee bd 6e 6f 2f 3f f1 0c 47 bc
       -0.26841888 -0.11622325 0.68529403 -0.012149082
0001c0 32 d7 af 3e ce c1 1c 3d 4e 58 ae 3e 0c b7 d2 bd
       0.34343868 0.038270764 0.34051746 -0.1028882
0001d0 cd 18 56 bf 63 df 1c be 34 44 61 be c7 1a 2f be
       -0.83631593 -0.1531959 -0.21998674 -0.17100058
0001e0 b4 f3 db be 21 38 50 3e 98 53 99 3e 92 a4 f2 3e
       -0.42959368 0.20333911 0.2994659 0.47391182
0001f0 03 f4 51 b9 5a 07 fd bd 89 77 89 be 18 61 9a 3e
       -0.00020022695 -0.12354918 -0.2684901 0.30152202

convs.0.bn1.running_mean f4 [128]
000000 bb 12 11 c0 dc 9b a1 c0 e9 f1 50 41 f7 c0 a9 41
       -2.2667682 -5.050276 13.05906 21.219221
000010 c8 42 21 41 9f c1 70 3d 35 4d 0e c1 33 43 f4 40
       10.078804 0.0587784 -8.893849 7.633203
000020 c4 f4 87 c0 b7 ab 63 40 7d c0 00 c0 04 33 31 41
       -4.2486286 3.5573556 -2.0117486 11.074955
000030 4c 5a fa 40 ae 75 2a 41 1a 52 75 3f 94 97 1f 41
       7.8235226 10.65373 0.958284 9.974506
000040 cc 87 fd 40 11 01 2c 41 8f 43 68 c1 ed cb 1e 40
       7.922827 10.75026 -14.516494 2.4811966
000050 e7 66 e1 40 2e 7f 4b 41 62 fc c8 3e 83 fe 29 41
       7.0438113 12.71855 0.39255053 10.624637
000060 2c cc 9d bf 40 3c b3 40 c4 5e 40 41 fc ad 7a 41
       -1.2327933 5.6011047 12.023136 15.667477
000070 b0 74 2d 41 38 74 ce 40 c1 fa 61 41 67 49 2a 3f
       10.840988 6.451687 14.123719 0.66518253
000080 7f 3c f0 40 47 3d 37 42 20 fe e5 3f 3e 6f bc 40
       7.507385 45.80984 1.7968178 5.8885794
000090 d3 50 08 42 96 00 a9 40 4b 7b dc bf 91 5e b7 3f
       34.07893 5.2813215 -1.7225126 1.4325734
0000a0 ff 47 4f 41 b0 a7 d0 41 a8 8c be 3f a4 22 86 41
       12.955077 26.081879 1.4886675 16.766914
0000b0 cf a6 a0 40 d0 4d dc 40 58 85 be 3f 7e 8f 91 c0
       5.0203624 6.8844986 1.4884443 -4.548766
0000c0 2a d1 8c 41 c6 15 d3 40 f7 2c 4e 40 0e 82 ce 40
       17.60213 6.596408 3.2214944 6.453376
0000d0 11 62 a0 40 74 2c b8 40 95 e8 d9 c0 01 f3 82 c0
       5.011971 5.7554264 -6.8096414 -4.0921636
0000e0 87 e5 02 42 e1 7a 8a 40 7d 50 c7 40 c3 b1 b4 41
       32.724148 4.3275 6.228575 22.586798
0000f0 ec 43 82 be 6c 2d 0e 41 80 69 e0 bf 51 d1 f2 40
       -0.25442445 8.886089 -1.7532196 7.5880513
000100 b5 12 b7 3d 07 93 49 41 6f 6e 44 41 be b1 97 41
       0.08939115 12.598395 12.276961 18.961788
000110 c2 d2 20 41 d7 0a 14 41 ff 8c 22 c0 5a d9 05 41
       10.051455 9.252646 -2.5398557 8.365564
000120 de 4d c6 40 63 95 5b c1 21 e0 2a 41 00 2a 85 41
       6.1970053 -13.723971 10.679719 16.645508
000130 73 87 06 41 23 97 20 bf d1 69 ff 40 ff 22 7f 41
       8.408069 -0.62730616 7.981667 15.946044
000140 5b 58 60 41 de 89 85 41 9e 6c 26 41 f1 e5 92 40
       14.021571 16.692318 10.401518 4.590569
000150 51 27 1e 41 d9 51 54 41 e8 56 43 c0 09 6e 43 c0
       9.884599 13.269982 -3.0521793 -3.053591
000160 74 cb 5f 41 8a f4 07 41 d0 98 34 41 05 7c 06 c0
       13.987171 8.497202 11.287308 -2.1013196
000170 0f d6 16 41 2a a8 fb 3f 43 f6 48 be 70 86 67 41
       9.42726 1.9660695 -0.19625191 14.470322
000180 cf e0 e9 40 a3 16 17 42 ec aa d0 40 a0 fb 33 41
       7.3086925 37.772106 6.5208645 11.248932
000190 fd c2 92 41 cd 0b d8 40 b0 1b 9f 40 e1 c7 5c c0
       18.34521 6.7514405 4.97213 -3.4496996
0001a0 18 53 76 41 0f 6b b8 41 93 04 0f c1 65 b0 a2 41
       15.395287 23.052275 -8.938617 20.33613
0001b0 a9 9e 80 40 47 4f 4c c0 bd 2d 05 40 ce c3 e3 bf
       4.0193677 -3.1923387 2.0809166 -1.779413
0001c0 13 18 a4 41 07 a8 ae 41 7f b2 c0 3d b8 24 2e 41
       20.511755 21.832045 0.094090454 10.883965
0001d0 ba d1 80 c1 fe f0 10 41 4d 95 26 c0 0a be 37 41
       -16.102406 9.058836 -2.6028626 11.483896
0001e0 9a 1a 2b 42 c6 7f a2 40 b7 15 ea 40 fb 13 bd 41
       42.775978 5.0780973 7.3151507 23.634756
0001f0 f5 7d eb 40 9a 5c 71 40 53 a5 43 c0 4f 87 30 41
       7.3591256 3.771277 -3.0569656 11.033034

convs.0.bn1.running_var f4 [128]
000000 05 2a 13 44 8d 2e af 44 c4 60 2f 43 36 45 8a 43
       588.65656 1401.4547 175.37799 276.5407
000010 61 ab 48 43 2d 59 a6 42 8e 81 8d 44 c3 7d e7 42
       200.66945 83.17417 1132.0486 115.74563
000020 a9 e3 2c 44 dd f8 28 44 eb 78 27 44 71 20 08 44
       691.5572 675.8885 669.88934 544.5069
000030 91 bd 46 43 3e 53 c7 43 c3 b2 ab 42 4c de cd 42
       198.7405 398.65033 85.849144 102.93417
000040 22 a5 22 43 28 19 aa 43 de fb 7a 44 2d 27 7c 43
       162.64505 340.19653 1003.9354 252.15303
000050 b8 cb 33 42 d7 91 16 44 79 72 0e 44 09 61 44 44
       44.948944 602.27875 569.78864 785.5162
000060 66 ea 2c 43 67 75 c6 42 57 79 44 43 2a 39 c3 43
       172.91562 99.2293 196.47398 390.4466
000070 01 27 18 43 82 78 a7 43 89 da 06 44 c0 7e 35 44
       152.15236 334.94147 539.4146 725.98047
000080 30 71 56 43 fa 3d f9 43 5f 6d a2 42 fb 65 6f 42
       214.44214 498.4842 81.213615 59.84959
000090 d0 64 b1 43 40 64 01 43 b6 15 d9 42 68 1d 27 42
       354.7876 129.3916 108.542404 41.778717
0000a0 ba 02 87 43 52 ea b9 43 2a 58 df 43 9e cc 34 44
       270.0213 371.83063 446.68878 723.19714
0000b0 c0 84 fe 42 09 3b d1 43 59 cd 0d 44 78 f0 83 42
       127.25928 418.4612 567.20856 65.969666
0000c0 ac 02 a7 43 f0 ed 05 44 e4 cc c5 42 e0 ef bc 43
       334.02087 535.7178 98.90018 377.87402
0000d0 03 c9 52 44 91 5b b7 43 46 84 d8 43 49 3b 56 43
       843.1408 366.71536 433.0334 214.23158
0000e0 bf 5a 82 44 9b 17 b5 42 39 7d 21 42 a5 da 72 43
       1042.8358 90.546104 40.372288 242.85408
0000f0 21 e8 ba 42 5b 2e 16 43 5b a7 1c 43 ec ef bb 42
       93.45338 150.18108 156.65373 93.9686
000100 9e 7c 3e 44 b8 e2 04 44 dc 9b 31 43 13 0d a4 43
       761.94714 531.5425 177.60883 328.10214
000110 77 fd 42 43 8d 92 0f 43 f9 e2 cb 43 6f a3 ab 42
       194.9901 143.57246 407.77322 85.81921
000120 3f df 20 44 e4 ff 11 44 c6 61 c5 44 33 7d 0b 44
       643.4882 583.9983 1579.0554 557.95624
000130 85 52 86 43 a2 23 a4 43 40 57 ab 42 3f 96 c4 43
       268.64468 328.27838 85.67041 393.1738
000140 3b b7 22 43 20 4c a1 43 99 65 29 44 4e c2 11 43
       162.71574 322.59473 677.58746 145.759
000150 06 11 71 42 37 33 ec 43 72 9c 45 43 4e 07 40 44
       60.266624 472.40012 197.61111 768.11414
000160 ad 44 95 43 29 97 b5 42 1b 98 2a 43 5f 56 8d 43
       298.53653 90.795235 170.59416 282.67477
000170 cb bc 9b 42 2b 35 cc 43 5d c8 25 44 a1 4f 98 44
       77.86874 408.41537 663.1307 1218.4884
000180 d8 8d 69 43 a2 53 f5 43 d7 62 6d 42 fe 6d cb 42
       233.55408 490.65338 59.346523 101.71483
000190 03 15 2c 43 83 12 20 43 f0 f3 d5 42 29 57 91 42
       172.08208 160.07231 106.97644 72.670235
0001a0 55 58 9c 43 1e 9e 56 43 a5 66 09 44 69 6b 32 44
       312.6901 214.61765 549.6038 713.6783
0001b0 8e f8 1b 43 ff a3 24 43 96 e7 e3 43 5f e5 aa 42
       155.97092 164.64061 455.80927 85.44799
0001c0 a7 13 94 43 68 22 06 44 6e 33 36 43 e4 7c eb 43
       296.15353 536.5376 182.2009 470.9757
0001d0 2f 71 15 44 01 f0 98 43 3a 90 cc 43 86 8f 9e 43
       597.7685 305.87503 409.12677 317.12128
0001e0 c6 7f 90 44 85 5d b0 42 df 42 8c 42 28 b1 a7 43
       1155.9929 88.182655 70.13061 335.38403
0001f0 fe d0 f0 42 f0 d2 61 43 e9 18 3d 43 52 a3 1d 43
       120.40819 225.82397 189.0973 157.63797

convs.0.bn2.weight f4 [64]
000000 f5 5c 9d 3f 01 13 00 3f 98 aa 43 3f 66 3e 9d 3f
       1.2293993 0.50029 0.7643218 1.2284667
000010 04 77 16 3f 28 c9 0c 3f 96 e9 19 3f bd 5c 3c 3f
       0.58775353 0.5499444 0.6012205 0.7357901
000020 8e 60 82 3f 43 3f 76 3f da bc 9b 3f 88 9c 5a 3f
       1.0185716 0.9619028 1.2167008 0.853951
000030 e0 7e c2 3f dd b4 91 3f 22 39 2f 3f 91 16 8d 3f
       1.5194969 1.138332 0.6844655 1.1022512
000040 97 2b 16 3f e4 19 98 3f 22 6b d5 3e 61 90 bb 3f
       0.5866026 1.1882901 0.41683298 1.4653436
000050 0e 68 46 3f c3 29 8c 3f 1d 97 a1 3f a9 f7 48 3f
       0.77502525 1.0950245 1.2624241 0.785029
000060 65 38 d0 3e a7 20 1a 3f 42 2b 6e 3f f8 4b 9e 3f
       0.40668026 0.60206074 0.93034756 1.2366934
000070 6e 9e 80 3f 8a 25 60 3f 79 a5 4d 3f 3f 9f 82 3f
       1.0048349 0.8755728 0.80330616 1.0204848
000080 bc 4f 35 3f 25 64 9e 3f 67 dc f6 3e c1 54 ac 3e
       0.7082479 1.2374312 0.4821503 0.33658412
000090 a4 a5 93 3f 00 32 a7 3f ee 3f aa 3e 2b 82 a7 3d
       1.1534925 1.3062134 0.332519 0.081791244
0000a0 97 ec 97 3f fd 86 76 3f 15 06 39 3f 83 38 91 3f
       1.1869076 0.96299726 0.72274905 1.1345371
0000b0 69 ef 21 3f fe 18 b5 3f 79 56 cd 3e 77 7f 9b 3f
       0.63255936 1.4148252 0.40105036 1.2148274
0000c0 a1 21 0c 3f 3f ef 1a 3f 09 c5 80 3e 05 d1 a0 3e
       0.54738814 0.6052131 0.25150326 0.3140947
0000d0 72 2b b6 3f ac c1 3b 3f 93 57 3d 3f 0c 79 08 3f
       1.4232008 0.73342395 0.7396175 0.533097
0000e0 6b 78 30 3f 4c 72 2f 3f 8d 2c 51 3f 1c 1c 66 3f
       0.68933743 0.6853378 0.81708604 0.8988664
0000f0 3a 04 42 3f 4b 85 1e 3f db a2 56 3f 66 a8 22 3f
       0.757877 0.6192214 0.8384225 0.63538206

convs.0.bn2.bias f4 [64]
000000 4e 4b 4f bf bc fb 2f bf cf cc 94 bf 2d 1e 74 bf
       -0.8097428 -0.6874349 -1.1625003 -0.95358545
000010 04 1c 4f bf e5 f2 9c bf 05 f9 fb be a3 8f 80 bf
       -0.80902123 -1.2261626 -0.49213424 -1.0043834
000020 d9 61 1f bf 01 6a f4 be 00 e2 cc be 89 52 04 bf
       -0.6225868 -0.47737125 -0.40016174 -0.5168844
000030 8d 32 69 bf b6 da 56 bf c2 ec 64 bf 87 6f 27 bf
       -0.9109276 -0.83927476 -0.89423764 -0.6540455
000040 20 35 4f bf 5d de 99 bf 80 42 6c bf 64 69 5b bf
       -0.8094044 -1.2020985 -0.9228897 -0.8570769
000050 26 70 84 bf 21 77 5d bf c0 c6 91 bf ef 13 69 bf
       -1.0346725 -0.865099 -1.1388779 -0.9104604
000060 84 24 3f bf c8 47 8b bf 02 9f 98 bf 02 40 2f bf
       -0.74665093 -1.0881281 -1.1923525 -0.68457043
000070 30 00 89 bf 1a 88 95 bf 68 fb 03 bf f5 5f 00 bf
       -1.0703182 -1.168216 -0.5155549 -0.5014642
000080 13 62 2a bf 59 72 23 bf a4 d3 3e bf 5c 7e 8f bf
       -0.665559 -0.63846356 -0.7454169 -1.1210437
000090 c4 1e 37 bf 1c dd 97 bf 1c 82 54 bf 3f 90 c4 bf
       -0.7153132 -1.1864352 -0.8301103 -1.535652
0000a0 28 5d 99 bf a6 3a 6b bf 08 fc 1e bf 5b 80 90 bf
       -1.1981554 -0.91886365 -0.6210332 -1.1289171
0000b0 e6 16 70 bf ca 8a bd be 2a fc 76 bf 61 94 55 bf
       -0.9378494 -0.3701995 -0.9647852 -0.83429533
0000c0 60 a8 7d bf a5 dd 23 bf 43 62 58 bf 9d 2d 77 bf
       -0.99085045 -0.6401008 -0.84524935 -0.96553975
0000d0 81 39 91 be 76 33 12 bf 66 ca 15 bf 7e 7e 18 bf
       -0.28364184 -0.57109773 -0.5851196 -0.5956801
0000e0 12 d0 3a bf e6 cc 73 bf 91 18 86 bf 14 24 bc bf
       -0.7297374 -0.95234525 -1.0476247 -1.469851
0000f0 1f 42 7c bf 76 df a2 bf 81 03 80 bf f0 b6 a8 bf
       -0.9853839 -1.2724445 -1.0001069 -1.3180828

convs.0.bn2.running_mean f4 [64]
000000 bd c4 82 40 b8 66 86 40 75 bd ca 40 c6 c9 d8 40
       4.086516 4.200039 6.335627 6.7746305
000010 33 f5 aa 40 e6 81 d8 40 64 0a b9 40 b8 11 ea 40
       5.3424315 6.7658567 5.7825184 7.314663
000020 e7 c8 b8 40 ed a1 a6 40 eb 87 ca 40 46 1a 05 41
       5.774524 5.2072663 6.3290915 8.318914
000030 f9 53 d8 40 4e b8 da 40 ce 45 c9 40 87 8a d7 40
       6.7602506 6.834998 6.289771 6.73566
000040 8b f7 ef 40 da 17 c7 40 7f ff c0 40 d9 01 02 41
       7.4989676 6.2216616 6.0311885 8.125451
000050 08 94 cb 40 13 de f7 40 2a 2c f9 40 7e 5f 81 40
       6.36182 7.7458587 7.786641 4.0429068
000060 79 4e d4 40 e8 b8 a8 40 67 40 cb 40 d6 ff 94 40
       6.634579 5.2725716 6.3516116 4.65623
000070 f8 c7 e9 40 c2 0f aa 40 41 05 c8 40 ab 0c 99 40
       7.3056602 5.3144236 6.2506413 4.7827964
000080 4c 4e 05 41 e1 63 04 41 34 09 ba 40 dd 72 ce 40
       8.331615 8.2743845 5.8136234 6.4515214
000090 ef 27 0f 41 fd d0 02 41 50 74 cf 40 64 8a e2 40
       8.947249 8.176023 6.4829483 7.0793934
0000a0 26 0f 8f 40 a6 2d cf 40 57 c8 bb 40 b6 fb d4 40
       4.470599 6.4743223 5.8682055 6.6557264
0000b0 32 e3 ab 40 da fb 4d 40 5c 77 11 41 d2 06 b7 40
       5.371484 3.2184968 9.09164 5.7195826
0000c0 bc e8 ed 40 31 f7 c8 40 05 9e eb 40 f7 bf ba 40
       7.43466 6.2801747 7.3630395 5.835933
0000d0 c0 d9 81 40 e2 6e a1 40 67 95 a6 40 2c 43 89 40
       4.057831 5.0447855 5.2057376 4.2894497
0000e0 28 a8 d6 40 eb 74 db 40 a1 cb e1 40 26 2d 0a 41
       6.708027 6.858022 7.056107 8.636023
0000f0 72 87 bb 40 95 ec a2 40 65 0a bf 40 9d 37 e4 40
       5.860284 5.0913796 5.970019 7.1317887

convs.0.bn2.running_var f4 [64]
000000 ac b1 28 41 84 0e e6 40 2b 17 e3 41 68 99 0c 42
       10.543377 7.189272 28.386312 35.14981
000010 9f 8d 83 41 c2 e7 db 41 51 76 00 41 76 c8 11 42
       16.44415 27.488163 8.028886 36.445763
000020 d7 42 94 41 d3 95 5a 41 0a 15 b8 41 fe 22 e0 41
       18.532637 13.661578 23.010273 28.017086
000030 d5 44 a2 41 5b a1 98 41 d9 b4 f8 41 e6 55 c5 41
       20.28361 19.078787 31.088305 24.666943
000040 d5 95 ba 41 91 fd aa 41 08 cd 61 41 ac c2 24 41
       23.32316 21.373812 14.112556 10.297527
000050 27 1f 24 42 d1 4c e7 3f f4 a0 88 41 d7 1c 0d 41
       41.030422 1.8070318 17.07859 8.819541
000060 7d 39 9d 41 23 5a 00 42 94 00 b8 41 07 5a 48 41
       19.65307 32.088024 23.000282 12.521979
000070 99 fd dd 41 8e a9 a0 41 6e 7c ab 41 03 db 55 41
       27.748827 20.08279 21.435757 13.36597
000080 ad 07 10 42 8b f2 0d 42 b1 53 c9 41 00 14 09 42
       36.007496 35.48686 25.165865 34.26953
000090 eb dd d9 41 f0 73 ed 40 eb 80 cf 41 12 76 88 41
       27.233358 7.4204025 25.937948 17.057652
0000a0 03 97 4e 41 43 a5 dd 41 df f1 4e 41 ae 2a b7 41
       12.911868 27.705694 12.934051 22.89584
0000b0 c1 cc 4c 41 81 9d eb 40 48 8c 00 41 2d 98 34 41
       12.799989 7.3629766 8.034248 11.287152
0000c0 fc 98 84 41 02 d1 9c 41 ee c3 c0 41 d6 2d a4 41
       16.5747 19.602055 24.095669 20.52238
0000d0 92 76 51 41 e9 9d 7c 41 b3 69 27 41 71 44 f3 40
       13.091448 15.788552 10.463305 7.6021047
0000e0 7b 60 35 41 d6 2b ae 41 91 99 c2 41 c8 35 bb 41
       11.336055 21.771404 24.324984 23.40126
0000f0 e4 2f a2 41 2b 3d 8a 41 58 44 2a 42 ad dd 10 42
       20.273384 17.279867 42.566742 36.21648

convs.1.fc_full.weight f4 [128, 169]
000000 94 ef a0 be 0a d7 f9 be ee e2 9d bd 7b 3e 18 be
       -0.31432784 -0.48796874 -0.07709299 -0.14867584
000010 7a 38 fa be d1 d8 8a bd d0 bf 9a be 81 8d a6 bd
       -0.48871213 -0.06779636 -0.30224466 -0.081324585
000020 fe 63 d8 3e 2f c0 69 bd bd 95 34 3e 8e de 93 be
       0.42263788 -0.057068046 0.17635246 -0.28880733
000030 14 61 63 3e 42 61 ee bd d1 d7 58 bd f8 01 06 be
       0.22205001 -0.11639644 -0.052940194 -0.13086689
000040 16 f3 8b be 83 d1 34 3d 0b 79 3b bd 1c 8f f1 3d
       -0.27333897 0.04414512 -0.045769732 0.11794874
000050 95 2f 0f bd f1 a1 5c 3e c7 54 57 3e e6 60 bb bd
       -0.034957487 0.2154615 0.21028434 -0.09149341
000060 60 f7 56 3e b4 4d 5f 3c 47 92 de bc f1 fa 84 be
       0.20992804 0.013629366 -0.02716936 -0.25972703
000070 e3 06 84 be da 37 3d bc 27 03 fd be 2f 1f 61 bf
       -0.25786504 -0.011548961 -0.49416468 -0.8793821
000080 f2 0d fd bd 12 65 1b be aa 51 04 bc 8b db 1e bd
       -0.123561755 -0.15175274 -0.008076111 -0.03878359
000090 2a bd 9f be c2 16 08 bd 98 a2 53 3d d0 09 0e bd
       -0.31199008 -0.03322483 0.051668733 -0.034677327
0000a0 35 07 94 bd 54 9a 7f bd b6 33 13 3e 39 8f 69 bd
       -0.07227937 -0.06240304 0.14375195 -0.057021353
0000b0 72 63 43 3e 8c b2 9d 3e 6d 1a e9 be b4 d4 70 3e
       0.19080904 0.30800283 -0.45527974 0.2351864
0000c0 05 72 c9 be a0 13 6f bf 32 63 eb 3a de 1b 8b be
       -0.39344802 -0.9338932 0.001795864 -0.27169698
0000d0 b8 d4 b0 3e 58 68 60 bd 2e b7 e6 bd 6f e8 d1 be
       0.34537292 -0.05478701 -0.112654075 -0.40997645
0000e0 09 eb 80 3d 19 d0 38 be 08 b2 4c 3d 80 46 72 be
       0.062948294 -0.18048133 0.04997447 -0.23659706
0000f0 42 00 1f 3d c9 36 c8 bc ec 4c 34 3e 9a 6d 28 3c
       0.038818605 -0.024440186 0.17607468 0.010280037
000100 92 59 24 bd 98 b8 d0 bd 08 73 13 bd 1e 35 c9 3c
       -0.040124483 -0.101914585 -0.035998374 0.024561461
000110 e5 fb 7b be 99 55 2e bd 12 3b 09 3c 44 fa 74 bd
       -0.24607809 -0.0425621 0.0083759 -0.059808984
000120 3d 29 1e 3e fc e1 90 be 02 92 dc 3e f0 68 b6 bd
       0.15445419 -0.28297412 0.43080145 -0.08906734
000130 5a bf d3 3d 91 23 01 3e ac 8e 32 be 5c 08 ca bd
       0.10339232 0.12611224 -0.17437238 -0.09864876
000140 81 01 3a be f4 30 b6 3d a0 cf 21 3e 14 3e a4 bb
       -0.18164636 0.08896056 0.15801859 -0.005012283
000150 e6 56 cd bd 0f 99 95 bd a5 a6 4c 3e da 04 b5 3d
       -0.1002634 -0.07304584 0.19985445 0.08838816
000160 af 22 38 be 55 ac 95 bd c3 bd c0 bc 0c 7f 9e bd
       -0.1798198 -0.0730826 -0.023527985 -0.07739076
000170 52 e1 d7 3c 86 50 24 3f c8 4a 83 3d a5 45 f2 bd
       0.026352558 0.6418537 0.06410748 -0.1182969
000180 f4 c0 e4 3d 64 bc f5 3d 64 21 4b be d8 32 df bd
       0.111696154 0.11998823 -0.19836956 -0.108983696
000190 4e 82 e3 3d 7c 66 af 3d 92 42 0f be b4 46 c8 3e
       0.11108838 0.08564469 -0.13990238 0.39116442
0001a0 0a 9f 72 bd 97 af 22 3d d4 e4 2d 3e 52 14 59 be
       -0.059233703 0.039718237 0.16981822 -0.21199158
0001b0 c7 64 2b 3d ba 62 ba 3d 42 23 bc 3d e0 6d b5 3d
       0.041844156 0.09100862 0.091864124 0.088588476
0001c0 60 f4 8d 3e 47 0f 62 3d 44 ac 3c 3c 0e a5 15 3e
       0.27725506 0.05519035 0.011515681 0.14613745
0001d0 b3 55 14 bb a5 11 54 bd a8 c7 9f be a4 49 22 be
       -0.0022634089 -0.05177464 -0.31207013 -0.15848404
0001e0 f7 c3 fc bd e8 2d 31 bd 79 ab 29 3b 01 f3 6e 3c
       -0.12342065 -0.04325667 0.002588956 0.014584304
0001f0 22 fc c4 3d 52 63 48 bc be db fc bd 64 de 1e be
       0.09618403 -0.012230711 -0.123466 -0.15514523
000200 6a 83 c2 3c 8e 38 53 be 9c 69 c5 be a4 b9 94 bf
       0.023744304 -0.20627043 -0.38557136 -1.1619153
000210 a2 bd d1 bf 0e ee 57 bf a9 24 8e 3e e4 84 51 3e
       -1.6385996 -0.8434762 0.27762344 0.2046085
000220 19 6f 0c bf 64 a0 e1 bf e9 af 14 bd 11 9c bf 3f
       -0.5485702 -1.7627072 -0.036300573 1.4969503
000230 e3 a2 fc 3e a8 28 f6 3f 16 bc 30 3f 2f 43 85 bf
       0.49343023 1.9231157 0.69036996 -1.0411128
000240 03 34 3d bf 27 8e 3a bf cf b5 65 bf f6 40 1e bf
       -0.7390749 -0.7287316 -0.8973054 -0.6181787
000250 79 6c 81 bf af 4c 93 bf 83 fa 3f bf 6d ad 10 bf
       -1.0111228 -1.1507777 -0.74991626 -0.56514627
000260 1e 1b a1 bf c8 16 fa be e8 15 a2 be 1f 9e 9d be
       -1.25864 -0.48845506 -0.31657338 -0.307847
000270 34 36 4b bf 3a bf 9b be 9c 28 19 3e 24 79 37 bd
       -0.7937958 -0.30419332 0.14956897 -0.044793263
000280 d4 7b f1 be 78 af 65 3d ec 07 4f 3e fe bc 49 bd
       -0.47164786 0.056075543 0.20217866 -0.049252503
000290 48 14 26 bd a9 af 4e 3d cb 35 30 bd 41 00 e8 bc
       -0.040546685 0.05046049 -0.04302005 -0.028320434
0002a0 14 22 e9 bc 12 9a c9 3e 30 43 87 3c 07 7d 93 3e
       -0.028458633 0.3937536 0.01651153 0.28806326
0002b0 f0 2b 9d 3d 9b 36 2f bd 87 f8 00 3e 0d a5 b1 3e
       0.07674396 -0.042776685 0.12594806 0.34696236
0002c0 92 f5 5a 3d 43 af c7 bb 02 37 95 bd 7b e6 14 bf
       0.05345685 -0.006093891 -0.072858825 -0.58164185
0002d0 27 58 b4 3d 99 65 ad 3d 7e fa b0 3c eb c3 e0 bc
       0.08805876 0.08466644 0.021603819 -0.027437171
0002e0 d1 59 04 3e 58 73 06 3e bc b3 e1 3d 7d b6 ac bc
       0.12924887 0.13129938 0.1102061 -0.021083111
0002f0 53 04 05 bc 2a 10 07 bd b1 23 2c be 41 64 45 be
       -0.008118707 -0.0329744 -0.1681049 -0.19276525
000300 37 34 71 be de cf 2c 3d f7 65 d5 3d 38 0a b6 3d
       -0.23555075 0.042190425 0.10419839 0.08888668
000310 85 66 1d 3b 07 0b bf bd 2d b4 b8 3e c8 17 5e 3d
       0.0024017405 -0.09328275 0.36074963 0.0542219
000320 9a 4e e1 3c ed 9b ba 3d a3 e6 00 3d ce b2 2f be
       0.0275033 0.09111772 0.031469952 -0.17158052
000330 f0 ed 7a bc 9b 5b 87 bd 44 11 f8 3d 25 22 4a bd
       -0.015315518 -0.06609269 0.12112668 -0.04934897
000340 4f b5 8b 3e fe 9d a3 3b 1a f7 58 3b bf 30 49 3e
       0.27286765 0.0049931994 0.0033106268 0.19647501
000350 3d 69 81 3e 11 01 20 be 16 49 4e be 50 af 91 3e
       0.25275603 -0.15625407 -0.20145068 0.28454065
000360 0d 64 62 bd fc 41 a9 3c f5 96 fa 3d ef 23 88 3e
       -0.055271197 0.020661347 0.12235824 0.26589915
000370 57 8d 8c 3b 17 4b ab 3d 29 96 3a 3d ea d4 ed 3c
       0.00428931 0.083639316 0.04555336 0.02903219
000380 c7 71 b7 3e ef 5b 6b 3d ed 61 06 3e 26 84 cd 3d
       0.35828993 0.05746072 0.13123293 0.10034971
000390 8f fe 4f 3e 5e 29 65 bb 17 2b f4 bd af 26 25 3e
       0.2031195 -0.0034967284 -0.11922281 0.16128038
0003a0 64 fd 6c bd 96 f7 f1 bc cb 30 b5 bc b3 dc 48 bd
       -0.05785884 -0.029537003 -0.022117993 -0.0490386
0003b0 be a8 e4 bd 92 43 70 3d 86 96 54 bd 00 14 e4 bc
       -0.111649975 0.05865819 -0.051901363 -0.027841568
0003c0 c7 3c fe bd 82 94 00 be dd c4 7d bd ca 2c 1b bd
       -0.12413936 -0.12556651 -0.06195532 -0.03788451
0003d0 1f 6c 83 3d 2c 4c ff bd 19 51 7f 3d b7 0a 53 3c
       0.06417107 -0.124657005 0.0623332 0.012880973
0003e0 04 3e 08 be 03 c1 35 3e 23 c1 64 3d b4 e8 ce bd
       -0.13304907 0.1774941 0.055848252 -0.10102978
0003f0 c9 8c 95 3d 03 c2 f7 bc f1 44 03 3e 6c 17 c0 3c
       0.07302243 -0.03024388 0.12819268 0.023448668

convs.1.fc_full.bias f4 [128]
000000 4c 8d d9 bc 47 8c 29 3d 75 bf 3a bd c8 d5 eb bc
       -0.026556633 0.041393545 -0.045592744 -0.028788462
000010 23 81 53 bd d1 73 41 bd a1 37 45 3d d9 6f a7 bb
       -0.051636826 -0.04722959 0.048148755 -0.005109769
000020 bb dc 8a 3c 44 d4 97 b9 c4 33 22 bc 97 7d a8 bd
       0.016950956 -0.00028959115 -0.009900037 -0.08227079
000030 0c 31 ab 3b 58 7b a8 bd 45 ab 84 bb 3d 4f 16 3d
       0.0052243527 -0.08226651 -0.004048737 0.03669666
000040 ed 6c 86 3d 3e f8 5b bc e9 70 b8 3b 0b 58 c5 3c
       0.06563745 -0.013425885 0.0056286943 0.024089834
000050 5a ff bf bd a5 8b 58 bc 15 b3 2a bd 55 0a 31 be
       -0.09374876 -0.013216888 -0.041674692 -0.17289098
000060 a0 52 34 bc 7a 58 46 bd 2e d7 7d 3d 7d f0 69 bd
       -0.011006027 -0.04842422 0.06197279 -0.057114113
000070 75 ac f3 3c 41 0d b7 3c 42 29 8b 3c d5 89 43 bd
       0.02974532 0.022345187 0.016987447 -0.04773887
000080 40 c3 fd bc ca 7a 13 3d 54 bf 87 bd ef 1b 1b bd
       -0.030976892 0.036005773 -0.0662829 -0.037868436
000090 7a ce 49 bd c7 f5 7d 3d 5e 45 9d bd 4c 61 14 3c
       -0.049269177 0.06200197 -0.07679246 0.0090564005
0000a0 b8 74 1d bd 3f d1 00 bd 8e d1 bd 3b 83 4b 1a bd
       -0.03844139 -0.031449553 0.005792803 -0.03766967
0000b0 b8 76 4a 3d 8d 42 13 bd 4e cd 32 3c f4 39 bf bc
       0.049429625 -0.03595214 0.010913206 -0.023343064
0000c0 1a a1 c7 3c 93 cb 63 3d a3 79 21 3c 7c c6 bc bd
       0.024368811 0.055614065 0.009855661 -0.092175454
0000d0 66 fd 9c bc 2c 8f bc 3c 09 98 b8 3b dc 03 cd 3b
       -0.019163799 0.023017488 0.0056333584 0.0062565636
0000e0 ae c2 51 3c bf b6 cb 3d 1a 09 5d bd 76 3b c5 3c
       0.012802763 0.099469654 -0.053963758 0.024076205
0000f0 4e 9c 40 3d 60 8b 2f bc 77 b2 11 be 12 f9 97 3d
       0.047024064 -0.010714382 -0.14228235 0.07420553
000100 df b7 7c bd 4c 93 62 bd 12 7a 0c 3d ed e6 87 bd
       -0.06169879 -0.055316254 0.034296103 -0.066358425
000110 30 35 07 bd 40 76 bb 3d 3c c3 ba bd f8 47 e0 bd
       -0.033009708 0.09153414 -0.09119269 -0.10951227
000120 c7 07 fe bb ca 00 50 3c c8 3d b6 bc ab 68 2e bd
       -0.007752392 0.012695501 -0.022246256 -0.042580288
000130 a5 28 09 be 2a fc ba bc b0 d7 4a bd 15 93 ec bb
       -0.13394411 -0.02282532 -0.049522102 -0.007219682
000140 ba d4 3b bc 1e 6b ae 3d 2f 45 69 3d 6a 42 a5 3c
       -0.011464292 0.08516525 0.056950744 0.02017327
000150 1f 3d e2 bd fc 42 97 bd 01 ba 86 be 21 13 30 bd
       -0.11046814 -0.07385823 -0.26313785 -0.042986993
000160 31 35 e5 3c 4e b1 9a 3d a0 dd 62 bc 6d 84 8c bd
       0.027979465 0.075533494 -0.013846785 -0.06861196
000170 67 09 ad 3c 73 3a 9c bb 18 30 b3 3d ef 97 41 be
       0.021122647 -0.00476771 0.087494075 -0.18905614
000180 bd ee e0 bd 0b 54 04 bd 21 12 b7 3c 42 f2 46 3d
       -0.10983036 -0.032306712 0.022347512 0.04857088
000190 60 50 64 bd d2 00 81 bd a5 89 8d 3d 6b c1 9c 3b
       -0.055740714 -0.062989846 0.06911019 0.0047837994
0001a0 75 33 91 3d 1b 07 3f bd ae d9 6d 3d 19 7d 56 3d
       0.07089893 -0.046637636 0.058068924 0.052365396
0001b0 43 4d 02 be b1 91 33 bd c8 99 e5 bc 7a 7d 4d 3e
       -0.12724786 -0.043840114 -0.02802743 0.20067397
0001c0 8b a2 9a bd ec 61 58 bd 63 e5 e4 3c 7e 44 fa 3d
       -0.07550534 -0.05282776 0.027941411 0.12220095
0001d0 9b 59 79 3d c8 df 41 bd e8 be 87 3d ff dc 04 be
       0.06087647 -0.047332555 0.06628209 -0.12974928
0001e0 f7 c8 85 38 22 07 f0 bd da 61 a3 bd 92 b7 b5 bc
       6.379367e-05 -0.117201105 -0.07977648 -0.02218226
0001f0 f9 d4 78 3d cc 70 6d bc f3 ee 6f 3d 4c b9 3a bd
       0.06074998 -0.014492225 0.05857749 -0.04558687
